examples/jet_substructure/input_quants/small_inpq_16_6_ensemble_size1_seed2/best_accuracy.pth (torch, 212339 bytes, 147 tensors)

ensemble.0.input_quant.pre_transforms.0.weight f4 [16]
0	0x3e595f76	0.21227822
1	0x3f257f30	0.646472
2	0x3e6772af	0.22602342
3	0x3fc773b8	1.558219
4	0x3e6915a5	0.22762163
5	0x3e3958cd	0.18100281
6	0x3ef75b02	0.4831162
7	0x3ec5e2a3	0.38649473
8	0x3eafa55e	0.34305853
9	0x3e87e19d	0.26539317
10	0x3f12c671	0.5733405
11	0x3f01267a	0.50449336
12	0x3ea1aa33	0.31575164
13	0x3f4d1870	0.80115414
14	0x400b0bea	2.1726022
15	0x3e61dff5	0.22058089

ensemble.0.input_quant.pre_transforms.0.bias f4 [16]
0	0xbc2d5a32	-0.010580586
1	0x3da5749d	0.08078883
2	0xbea0a524	-0.31375992
3	0x3f02fb7d	0.5116499
4	0xbe20a229	-0.15686859
5	0xbf035a5c	-0.5130975
6	0x3e09a05d	0.1344008
7	0xbe2c07b9	-0.16799821
8	0xbe1f4010	-0.15551782
9	0x3dd89069	0.10574419
10	0x3e478f65	0.19488294
11	0x3de8e46d	0.11371694
12	0x3e91ba45	0.28462425
13	0x3ede22ce	0.4338593
14	0xbed76254	-0.42067206
15	0xbe4ecebb	-0.20196049

ensemble.0.input_quant.pre_transforms.0.running_mean f4 [16]
0	0xbb90adf1	-0.0044152667
1	0x3bf1dcc4	0.0073810536
2	0x3bc58f52	0.006029048
3	0x3baeca3d	0.0053341673
4	0x3ba75071	0.005106025
5	0x3b4e328c	0.0031463234
6	0xbabef785	-0.0014569616
7	0xbb0e11da	-0.002167812
8	0xbabef785	-0.0014569616
9	0x3a8739b6	0.0010316882
10	0x3ab3e4c0	0.0013724789
11	0x3a9f98a6	0.001217623
12	0x3a7e4e26	0.0009700976
13	0x3977a5c7	0.00023617512
14	0x3b7368c1	0.0037141296
15	0xb92c3ea3	-0.00016426532

ensemble.0.input_quant.pre_transforms.0.running_var f4 [16]
0	0x3f7de4e0	0.9917736
1	0x3f7843e9	0.9697862
2	0x3f7fd9a7	0.99941486
3	0x3f7f84fe	0.99812305
4	0x3f805d6b	1.0028509
5	0x3f805dd3	1.0028633
6	0x3f811327	1.008397
7	0x3f805078	1.0024557
8	0x3f811327	1.008397
9	0x3f7ef445	0.99591476
10	0x3f7e5829	0.9935327
11	0x3f801797	1.0007199
12	0x3f7f8061	0.99805266
13	0x3f7fdf6a	0.9995028
14	0x3f7e5982	0.9935533
15	0x3f7e7c94	0.9940884

ensemble.0.fc.weight f4 [16, 16]
0	0xbe628d25	-0.22124155
1	0xbe8b2437	-0.27176067
2	0xbdda831f	-0.106695406
3	0x3da4532e	0.08023678
4	0xba5b8d24	-0.00083752186
5	0x3e1bb490	0.15205598
6	0x3df8e24d	0.121525384
7	0xbb9441a5	-0.004524427
8	0x3d13c841	0.03607965
9	0x3bb42970	0.005498104
10	0xbe5df94a	-0.21677127
11	0x3e594ad9	0.21219958
12	0x3dae78cd	0.08519135
13	0x3e656bc2	0.22404388
14	0x3d2c629c	0.04208623
15	0x3d843eb0	0.06457269
16	0xbbc5ab8b	-0.0060324124
17	0x3d89fd92	0.06737818
18	0x3d8a5ba0	0.06755757
19	0x3d97ff08	0.0742169
20	0xbdbef0d6	-0.093232796
21	0xbce31dd5	-0.027724186
22	0xbd80605d	-0.0626838
23	0x3e57a089	0.21057333
24	0xbde47c3e	-0.1115651
25	0xbe499c3f	-0.1968851
26	0xbd5798c3	-0.05263592
27	0xbe466614	-0.19374877
28	0x3db9ac95	0.090661205
29	0x3e58475b	0.2112097
30	0xbe64a98a	-0.22330299
31	0x3f032130	0.51222515
32	0xbd157780	-0.036490917
33	0xbd0ecd4b	-0.03486375
34	0xbe117315	-0.14204057
35	0xbdaa47d7	-0.083144836
36	0x3da1ae62	0.07894589
37	0xbb52cd10	-0.0032165684
38	0xbd1ca626	-0.03824439
39	0xbd0ab7b4	-0.0338666
40	0x3d9bb734	0.076033026
41	0x3d5b3a90	0.053522646
42	0xbddb0e2a	-0.10696061
43	0x3e84fa86	0.25972384
44	0xbdbbafdd	-0.09164403
45	0x3d8be359	0.068304725
46	0xbe5fd292	-0.2185767
47	0xbe52c522	-0.20583013
48	0x3dbf3393	0.09336009
49	0xbe1d7b79	-0.15379132
50	0x3dd04381	0.10169125
51	0xbdcaf3da	-0.09909792
52	0xbef796e8	-0.4835732
53	0x3e24e4a8	0.1610285
54	0x3d3c8178	0.04602191
55	0xbe602794	-0.21890098
56	0x3e2d31c3	0.16913514
57	0x3e193223	0.14960532
58	0xbe1862a8	-0.14881384
59	0x3d4eac74	0.050457433
60	0x3e462535	0.19350131
61	0x3d51225a	0.05105815
62	0xbe2d87d1	-0.16946341
63	0x3e30c609	0.17263044
64	0xbd0d8193	-0.0345474
65	0x3e392933	0.18082123
66	0x3cc9ed7c	0.024649374
67	0xbe53d448	-0.20686448
68	0xbe398445	-0.18116863
69	0xbe001407	-0.1250764
70	0xbe1c67ee	-0.15274021
71	0xbe1d5677	-0.15365015
72	0xbed61030	-0.41809225
73	0xbd634675	-0.055487115
74	0x3e067659	0.13131084
75	0xbe658458	-0.22413766
76	0x3d8433d0	0.06455195
77	0xbe11fd5b	-0.14256804
78	0x3d5f5fb4	0.05453463
79	0xbd7dff5e	-0.062011115
80	0xbe09e82e	-0.13467476
81	0xbd81970e	-0.063276395
82	0x3c9034cc	0.0176033
83	0x3e5d7924	0.21628243
84	0xbdc170c5	-0.09445337
85	0xbe5b01f1	-0.2138746
86	0xbd34e378	-0.044162244
87	0xbd1e617d	-0.03866719
88	0xbd529d64	-0.05141963
89	0xbf050c29	-0.5197168
90	0x3e406271	0.18787552
91	0x3e016715	0.12636979
92	0xbe49cd19	-0.19707145
93	0xbe021c5e	-0.12706134
94	0xbe641d78	-0.22276866
95	0xbd6940b5	-0.056946475
96	0xbe5a22a2	-0.21302274
97	0x3e19f36f	0.15034269
98	0xbdc4ff9c	-0.09619066
99	0x3c3b282a	0.01142315
100	0x3e364620	0.17800188
101	0xbd9e06dd	-0.07716153
102	0x3d508d5f	0.050916072
103	0x3e1fa91f	0.15591858
104	0xbc41cc60	-0.011828512
105	0xbe608761	-0.21926643
106	0xbed6075d	-0.41802493
107	0x3df8aa3e	0.12141846
108	0xbd8b2ae4	-0.0679529
109	0xbd71f11f	-0.05906784
110	0x3e01166a	0.12606207
111	0xbde023ae	-0.10944305
112	0xbef4d23a	-0.4781664
113	0x3d985749	0.07438523
114	0x3b49924d	0.0030757368
115	0xbdfb8107	-0.122804694
116	0x3d760302	0.060061462
117	0x3dcf6c00	0.10128021
118	0xbdfcdd00	-0.1234684
119	0xbdaf9899	-0.085740276
120	0xbe50773c	-0.20357984
121	0xbda602f1	-0.0810603
122	0x3e489f65	0.19592054
123	0xbda4c2ef	-0.08044993
124	0xbb92e85b	-0.0044832653
125	0xbe4b2033	-0.19836502
126	0x3e4bb7f2	0.19894388
127	0x3e3619eb	0.17783324
128	0xbe3281eb	-0.17432372
129	0x3d15e9b5	0.036599834
130	0xbd3d7d3d	-0.046262015
131	0xbdef0cad	-0.116723396
132	0x3e0e5bb6	0.13902172
133	0x3d0608a2	0.032723077
134	0xbe459441	-0.19294836
135	0xbe068849	-0.13137926
136	0x3e055ab3	0.1302288
137	0xbdfc3f17	-0.12316721
138	0xbdf6377c	-0.120223016
139	0xbafaedf5	-0.0019144403
140	0x3e626114	0.22107345
141	0x3d94e73e	0.072706684
142	0xbeb87c18	-0.36032176
143	0x3dc78e11	0.09743894
144	0x3e034260	0.12818289
145	0xbe6598fb	-0.22421639
146	0xbdd35c6d	-0.10320363
147	0x3dd51ab7	0.10405486
148	0x3d5943f8	0.053043336
149	0xbc5ed30c	-0.013600122
150	0xbd8595ed	-0.06522737
151	0x3ec0c8fd	0.37653342
152	0x3d664a6b	0.056223314
153	0xbd218bda	-0.039440013
154	0xbd32e0ec	-0.043671533
155	0xbe1083c4	-0.14112765
156	0x3d2a37fd	0.0415573
157	0x3d431ed5	0.047636826
158	0xbd9ab2eb	-0.07553657
159	0x3dfa774b	0.122297846
160	0x3dd42d35	0.10360185
161	0x3ca2b2ab	0.019860586
162	0xbe019826	-0.12655696
163	0x3e4db497	0.20088421
164	0x3dda6556	0.106638595
165	0xbdf533ff	-0.11972808
166	0xbe360ebd	-0.1777906
167	0x3d5491ee	0.051896982
168	0x3c672f00	0.014110327
169	0xbd1ff66c	-0.039053366
170	0x3e37635c	0.17908996
171	0x3e2ea155	0.17053731
172	0xbe0514cf	-0.12996219
173	0xbe535c7c	-0.20640749
174	0x3d94cf3a	0.07266088
175	0x3e601e3b	0.21886532
176	0x3e3e342b	0.18574588
177	0x3d39cd0c	0.045361564
178	0x3e12f771	0.14352204
179	0xbdf2d1a1	-0.1185639
180	0xbc8c27c4	-0.017108805
181	0x3e388fd8	0.18023622
182	0xbe07ed1f	-0.13274048
183	0x3cd1719c	0.025566868
184	0x3dfba2ef	0.122869365
185	0xbbe29b3e	-0.006915479
186	0xbd396241	-0.045259718
187	0x3e28dd48	0.16490662
188	0x3eb0c5a4	0.34525788
189	0xbcd8b54b	-0.026453635
190	0x3d712bbd	0.058879603
191	0xbd8aaaa0	-0.067708254
192	0x3c43d07e	0.011951564
193	0x3c23cb62	0.009997221
194	0xbe3d98f4	-0.18515378
195	0xbf30f2e1	-0.69120604
196	0xbe3fdc05	-0.18736275
197	0xbd39f2b7	-0.045397487
198	0xbc911359	-0.017709421
199	0x3dffbe8d	0.124875166
200	0x3d7ec7d0	0.062202275
201	0xbe19da68	-0.15024722
202	0x3e4c9b57	0.19981132
203	0xbdba4e02	-0.0909691
204	0x3e35652f	0.1771438
205	0xbd8796e3	-0.06620576
206	0x3cff994f	0.031201033
207	0xbddafe86	-0.10693078
208	0xbe39b943	-0.18137078
209	0xbb8853c2	-0.0041603753
210	0x3a136be8	0.0005623684
211	0xbe30e193	-0.1727355
212	0x3db244fd	0.08704565
213	0x3f0e3573	0.5555031
214	0x3e42a5de	0.19008586
215	0x3e3bd8e9	0.18344463
216	0x3e581c63	0.21104579
217	0x3e077f73	0.13232212
218	0x3c99ecfc	0.01878976
219	0xbd1dda6d	-0.038538385
220	0x3de6cbe5	0.112693585
221	0x3d6912fe	0.056902878
222	0x3b92a31d	0.004475011
223	0xbdceb51f	-0.1009314
224	0xbe05a641	-0.13051702
225	0xbe380411	-0.17970301
226	0x3eff29b5	0.49836507
227	0x3e4ff420	0.2030797
228	0x3a80cfbf	0.0009827538
229	0xbd95d729	-0.07316429
230	0xbdf7b8f9	-0.120958276
231	0xbdd92f5a	-0.10604735
232	0x3e2e6b11	0.1703303
233	0xbd0ea915	-0.034829218
234	0x3d08f372	0.033435293
235	0x3e2288e4	0.15872532
236	0xbdc48b5a	-0.09596892
237	0xbe5846c5	-0.21120746
238	0x3ca9885f	0.02069491
239	0xbd8b80e1	-0.06811691
240	0x3b9cb9ea	0.004782905
241	0xbe580095	-0.21093972
242	0x3e435046	0.1907359
243	0xbd81fee6	-0.06347446
244	0xbdc887bf	-0.097915165
245	0xbce65604	-0.028117187
246	0x3e95642b	0.29177985
247	0x3b77d23d	0.003781452
248	0x3e44df44	0.19225794
249	0xbd6d6b16	-0.057963453
250	0x3cb6f36a	0.022332866
251	0xbdbcf2e5	-0.09226016
252	0xbd1a5e91	-0.03768784
253	0xbdfe627f	-0.124211304
254	0x3e472b88	0.194502
255	0x3de25860	0.110520124

ensemble.0.fc.bias f4 [16]
0	0x3e71fa44	0.23630625
1	0xbee437fd	-0.44573966
2	0x3e84be5f	0.25926492
3	0x3d6c20b2	0.05764837
4	0xbe8e0af6	-0.27742738
5	0x3ea23dac	0.31687677
6	0xbdfb9e33	-0.122860335
7	0xbcea5290	-0.028603822
8	0x3dc19463	0.09452131
9	0x3e5ef6c4	0.21773821
10	0xbd880e76	-0.06643383
11	0xbba78c3d	-0.0051131533
12	0xbcd58c88	-0.026067987
13	0xbef3f6b2	-0.4764915
14	0xbf7112cc	-0.94169307
15	0x3e97604c	0.29565656

ensemble.0.fc.mask.mask f4 [16, 16]
0	0x00000000	0.0
1	0x3f800000	1.0
2	0x00000000	0.0
3	0x00000000	0.0
4	0x00000000	0.0
5	0x00000000	0.0
6	0x00000000	0.0
7	0x00000000	0.0
8	0x00000000	0.0
9	0x00000000	0.0
10	0x00000000	0.0
11	0x00000000	0.0
12	0x00000000	0.0
13	0x00000000	0.0
14	0x00000000	0.0
15	0x00000000	0.0
16	0x00000000	0.0
17	0x00000000	0.0
18	0x00000000	0.0
19	0x00000000	0.0
20	0x00000000	0.0
21	0x00000000	0.0
22	0x00000000	0.0
23	0x00000000	0.0
24	0x00000000	0.0
25	0x00000000	0.0
26	0x00000000	0.0
27	0x00000000	0.0
28	0x00000000	0.0
29	0x00000000	0.0
30	0x00000000	0.0
31	0x3f800000	1.0
32	0x00000000	0.0
33	0x00000000	0.0
34	0x00000000	0.0
35	0x00000000	0.0
36	0x00000000	0.0
37	0x00000000	0.0
38	0x00000000	0.0
39	0x00000000	0.0
40	0x00000000	0.0
41	0x00000000	0.0
42	0x00000000	0.0
43	0x3f800000	1.0
44	0x00000000	0.0
45	0x00000000	0.0
46	0x00000000	0.0
47	0x00000000	0.0
48	0x00000000	0.0
49	0x00000000	0.0
50	0x00000000	0.0
51	0x00000000	0.0
52	0x3f800000	1.0
53	0x00000000	0.0
54	0x00000000	0.0
55	0x00000000	0.0
56	0x00000000	0.0
57	0x00000000	0.0
58	0x00000000	0.0
59	0x00000000	0.0
60	0x00000000	0.0
61	0x00000000	0.0
62	0x00000000	0.0
63	0x00000000	0.0
64	0x00000000	0.0
65	0x00000000	0.0
66	0x00000000	0.0
67	0x00000000	0.0
68	0x00000000	0.0
69	0x00000000	0.0
70	0x00000000	0.0
71	0x00000000	0.0
72	0x3f800000	1.0
73	0x00000000	0.0
74	0x00000000	0.0
75	0x00000000	0.0
76	0x00000000	0.0
77	0x00000000	0.0
78	0x00000000	0.0
79	0x00000000	0.0
80	0x00000000	0.0
81	0x00000000	0.0
82	0x00000000	0.0
83	0x00000000	0.0
84	0x00000000	0.0
85	0x00000000	0.0
86	0x00000000	0.0
87	0x00000000	0.0
88	0x00000000	0.0
89	0x3f800000	1.0
90	0x00000000	0.0
91	0x00000000	0.0
92	0x00000000	0.0
93	0x00000000	0.0
94	0x00000000	0.0
95	0x00000000	0.0
96	0x00000000	0.0
97	0x00000000	0.0
98	0x00000000	0.0
99	0x00000000	0.0
100	0x00000000	0.0
101	0x00000000	0.0
102	0x00000000	0.0
103	0x00000000	0.0
104	0x00000000	0.0
105	0x00000000	0.0
106	0x3f800000	1.0
107	0x00000000	0.0
108	0x00000000	0.0
109	0x00000000	0.0
110	0x00000000	0.0
111	0x00000000	0.0
112	0x3f800000	1.0
113	0x00000000	0.0
114	0x00000000	0.0
115	0x00000000	0.0
116	0x00000000	0.0
117	0x00000000	0.0
118	0x00000000	0.0
119	0x00000000	0.0
120	0x00000000	0.0
121	0x00000000	0.0
122	0x00000000	0.0
123	0x00000000	0.0
124	0x00000000	0.0
125	0x00000000	0.0
126	0x00000000	0.0
127	0x00000000	0.0
128	0x00000000	0.0
129	0x00000000	0.0
130	0x00000000	0.0
131	0x00000000	0.0
132	0x00000000	0.0
133	0x00000000	0.0
134	0x00000000	0.0
135	0x00000000	0.0
136	0x00000000	0.0
137	0x00000000	0.0
138	0x00000000	0.0
139	0x00000000	0.0
140	0x00000000	0.0
141	0x00000000	0.0
142	0x3f800000	1.0
143	0x00000000	0.0
144	0x00000000	0.0
145	0x00000000	0.0
146	0x00000000	0.0
147	0x00000000	0.0
148	0x00000000	0.0
149	0x00000000	0.0
150	0x00000000	0.0
151	0x3f800000	1.0
152	0x00000000	0.0
153	0x00000000	0.0
154	0x00000000	0.0
155	0x00000000	0.0
156	0x00000000	0.0
157	0x00000000	0.0
158	0x00000000	0.0
159	0x00000000	0.0
160	0x00000000	0.0
161	0x00000000	0.0
162	0x00000000	0.0
163	0x00000000	0.0
164	0x00000000	0.0
165	0x00000000	0.0
166	0x00000000	0.0
167	0x00000000	0.0
168	0x00000000	0.0
169	0x00000000	0.0
170	0x00000000	0.0
171	0x00000000	0.0
172	0x00000000	0.0
173	0x3f800000	1.0
174	0x00000000	0.0
175	0x00000000	0.0
176	0x00000000	0.0
177	0x00000000	0.0
178	0x00000000	0.0
179	0x00000000	0.0
180	0x00000000	0.0
181	0x00000000	0.0
182	0x00000000	0.0
183	0x00000000	0.0
184	0x00000000	0.0
185	0x00000000	0.0
186	0x00000000	0.0
187	0x00000000	0.0
188	0x3f800000	1.0
189	0x00000000	0.0
190	0x00000000	0.0
191	0x00000000	0.0
192	0x00000000	0.0
193	0x00000000	0.0
194	0x00000000	0.0
195	0x3f800000	1.0
196	0x00000000	0.0
197	0x00000000	0.0
198	0x00000000	0.0
199	0x00000000	0.0
200	0x00000000	0.0
201	0x00000000	0.0
202	0x00000000	0.0
203	0x00000000	0.0
204	0x00000000	0.0
205	0x00000000	0.0
206	0x00000000	0.0
207	0x00000000	0.0
208	0x00000000	0.0
209	0x00000000	0.0
210	0x00000000	0.0
211	0x00000000	0.0
212	0x00000000	0.0
213	0x3f800000	1.0
214	0x00000000	0.0
215	0x00000000	0.0
216	0x00000000	0.0
217	0x00000000	0.0
218	0x00000000	0.0
219	0x00000000	0.0
220	0x00000000	0.0
221	0x00000000	0.0
222	0x00000000	0.0
223	0x00000000	0.0
224	0x00000000	0.0
225	0x00000000	0.0
226	0x3f800000	1.0
227	0x00000000	0.0
228	0x00000000	0.0
229	0x00000000	0.0
230	0x00000000	0.0
231	0x00000000	0.0
232	0x00000000	0.0
233	0x00000000	0.0
234	0x00000000	0.0
235	0x00000000	0.0
236	0x00000000	0.0
237	0x00000000	0.0
238	0x00000000	0.0
239	0x00000000	0.0
240	0x00000000	0.0
241	0x00000000	0.0
242	0x00000000	0.0
243	0x00000000	0.0
244	0x00000000	0.0
245	0x00000000	0.0
246	0x3f800000	1.0
247	0x00000000	0.0
248	0x00000000	0.0
249	0x00000000	0.0
250	0x00000000	0.0
251	0x00000000	0.0
252	0x00000000	0.0
253	0x00000000	0.0
254	0x00000000	0.0
255	0x00000000	0.0

ensemble.1.module_list.0.input_quant.pre_transforms.0.weight f4 [16]
0	0x3f058161	0.5215054
1	0x3f0b1472	0.5432807
2	0x3f34408e	0.70411
3	0x3f4f3e02	0.8095399
4	0x3ef4889d	0.47760478
5	0x3f3850be	0.719982
6	0x3f4a786f	0.7909002
7	0x3f05c843	0.522587
8	0x3f9a783a	1.206794
9	0x3ef819f8	0.48457313
10	0x3f276dcf	0.6540193
11	0x3f0e00d1	0.55469996
12	0x3f90f5c8	1.1325006
13	0x3f53bb75	0.8270791
14	0x3f715b02	0.9427949
15	0x3ee361a0	0.4441042

ensemble.1.module_list.0.input_quant.pre_transforms.0.bias f4 [16]
0	0x3c73efa6	0.01488868
1	0xbf13e003	-0.5776369
2	0xbf1e83e4	-0.6192
3	0x3f1750e9	0.59107834
4	0x3e7e8f98	0.24859464
5	0x3d94748d	0.07248793
6	0xbecb5602	-0.39714056
7	0xbe7aae5b	-0.24480574
8	0x3ed45a87	0.41475317
9	0xbeecb84e	-0.46234363
10	0xbf388a33	-0.72085875
11	0xbbe1a6ba	-0.0068863304
12	0x3d600952	0.05469639
13	0xbed5cfc1	-0.41760066
14	0xbea6ea3c	-0.32600582
15	0x3ce41134	0.027840234

ensemble.1.module_list.0.input_quant.pre_transforms.0.running_mean f4 [16]
0	0x3e5d10b4	0.21588403
1	0xbf16fa42	-0.58975613
2	0x3e86b13e	0.263071
3	0x3e33a1ee	0.1754224
4	0xbe370a4c	-0.17875022
5	0x3e9bc857	0.30426285
6	0xbe1fe89b	-0.15616076
7	0x3c830861	0.015995206
8	0x3e23b569	0.15987171
9	0x3df93f33	0.121702574
10	0xbdd32da1	-0.103114374
11	0x3d842c14	0.0645372
12	0xbc0db57d	-0.008649227
13	0xbf4f4ad3	-0.8097355
14	0xbf921135	-1.1411501
15	0x3e9b541c	0.30337608

ensemble.1.module_list.0.input_quant.pre_transforms.0.running_var f4 [16]
0	0x3c6e4d7e	0.014544843
1	0x3c52338e	0.012829674
2	0x3c6efefa	0.014587158
3	0x3c47b5ff	0.012189387
4	0x3c9e3b07	0.019315256
5	0x3c99e6af	0.018786756
6	0x3d363e1b	0.044492822
7	0x3c280023	0.010253939
8	0x3d40b039	0.04704306
9	0x3c9d7b13	0.019223725
10	0x3c60281d	0.013681439
11	0x3c422f2f	0.01185207
12	0x3e3124ca	0.1729919
13	0x3c261cfd	0.010138747
14	0x3c53b09c	0.012920525
15	0x3c7b35ac	0.015332621

ensemble.1.module_list.0.fc.weight f4 [64, 16]
0	0xbdbc175d	-0.09184144
1	0x3e6486d4	0.22317058
2	0xbe127137	-0.14301
3	0xbe4f89cc	-0.20267409
4	0x3e53eb2a	0.20695177
5	0xbc8becdc	-0.017080717
6	0xbd0ee799	-0.034888837
7	0xbddaec13	-0.10689559
8	0xbdceb45e	-0.10092996
9	0xbe149dac	-0.14513272
10	0xbbcf6384	-0.006329002
11	0xbdb9f575	-0.0908002
12	0x3e64f2ae	0.223582
13	0xbcda2a24	-0.026631422
14	0x3d5990d7	0.053116646
15	0xbe09edcb	-0.13469617
16	0x3c1afcdb	0.0094596995
17	0xbf76edbe	-0.96456516
18	0x3a4d5ada	0.00078336673
19	0xbdf93798	-0.12168807
20	0xbd6ea815	-0.058265764
21	0x3d9fc202	0.07800676
22	0x3e08bc10	0.1335299
23	0xbd262631	-0.040563766
24	0x3e2389d9	0.15970553
25	0x3e4e7f23	0.20165686
26	0xbe367660	-0.17818594
27	0xbb19013b	-0.002334668
28	0xbd981aa4	-0.07426956
29	0x3e36e4d6	0.17860731
30	0xbdf37030	-0.118866324
31	0x3d682c2c	0.05668275
32	0xbe45bfb2	-0.19311407
33	0xbeef1368	-0.46694493
34	0x3e34b290	0.17646241
35	0xbe628af6	-0.22123322
36	0x3d4907a0	0.049079537
37	0x3d8a7189	0.06759936
38	0x3bac17c9	0.005251859
39	0x3d03b296	0.032152735
40	0xbde90a74	-0.11378947
41	0xbe317d14	-0.1733287
42	0xbe0dc69f	-0.13845299
43	0xbd5d3bbc	-0.054012045
44	0xbe640e1d	-0.22271009
45	0xbdb494c3	-0.088174365
46	0x3c05801c	0.008148219
47	0xbd8b5d8e	-0.068049535
48	0x3cb099e1	0.02155775
49	0x3e5a9ae8	0.21348155
50	0xbe1dcd4d	-0.15410347
51	0xbe1a237d	-0.150526
52	0xbe4694e0	-0.19392729
53	0xbdd4b1a4	-0.10385445
54	0x3e48bee2	0.19604066
55	0xbdd0c1c5	-0.101932086
56	0xbed5f38c	-0.41787374
57	0x3ddb8e66	0.1072052
58	0x3c5996fa	0.0132806245
59	0x3e5b3495	0.21406777
60	0x3d328295	0.043581564
61	0x3cb4e56e	0.022082057
62	0xbe3e0e8c	-0.18560237
63	0xbd926afd	-0.07149313
64	0xbce761c4	-0.02824486
65	0xbbb36f9d	-0.005475952
66	0x3d831464	0.064003736
67	0x3dd23ccf	0.102655046
68	0x3be15dfe	0.00687766
69	0x3ce2059c	0.027590565
70	0x3d3ed0a4	0.046585694
71	0x3e5038c7	0.20334159
72	0xbca91abd	-0.020642633
73	0x3e38d221	0.18048908
74	0xbe58aeb1	-0.2116039
75	0x3dabcc47	0.08388572
76	0xbee26f13	-0.44225368
77	0xbc0d3949	-0.008619615
78	0xbda2385e	-0.079209074
79	0x3dcd551f	0.10026001
80	0xbde72d92	-0.11287989
81	0xbdc69237	-0.09695857
82	0x3dc69e20	0.09698129
83	0x3dccb2ec	0.09995064
84	0xbeb3c46d	-0.35110798
85	0x3d92f7e6	0.07176189
86	0xbcafb4d1	-0.021448525
87	0x3e2e0deb	0.16997497
88	0x3e17975a	0.1480383
89	0xbe99d878	-0.30047965
90	0xbd789ee6	-0.060698412
91	0xbc9b1d49	-0.018934863
92	0xbe63f416	-0.2226108
93	0x3c078545	0.00827152
94	0x3e327513	0.17427473
95	0x3e554235	0.20826037
96	0x3d1b8224	0.03796591
97	0x3da306cb	0.0796028
98	0x3cdadc2e	0.026716318
99	0x3d93a9dd	0.07210133
100	0x3d3a8043	0.045532476
101	0x3e079f85	0.13244446
102	0x3e1be937	0.15225683
103	0x3e3ff525	0.18745859
104	0xbe60a1ab	-0.21936671
105	0xbe517329	-0.20454086
106	0x3e91531c	0.2838372
107	0xbe08360e	-0.1330187
108	0xbdb4c8c9	-0.08827359
109	0xbdf10713	-0.117689274
110	0xbe958030	-0.29199362
111	0x3e4966b9	0.19668092
112	0xbd8363f8	-0.06415552
113	0x3cb32edc	0.02187293
114	0xbe07909c	-0.13238758
115	0x3e8b7f06	0.2724535
116	0xbcb263b6	-0.021776062
117	0xbe38f8f7	-0.18063723
118	0xbed404c5	-0.4140989
119	0xbcfc44f7	-0.030794604
120	0x3dda8150	0.10669196
121	0x3d4af73a	0.04955218
122	0x3e3f0e46	0.18657789
123	0x3e487f58	0.19579828
124	0x3e044920	0.1291852
125	0x3d9091ee	0.07059084
126	0xbde59284	-0.11209586
127	0x3e25ce5d	0.16192003
128	0x3dc0db8a	0.09416874
129	0xbe5a1f78	-0.21301067
130	0x3e292099	0.16516341
131	0xbe3c6698	-0.18398511
132	0xbdedf79a	-0.11619492
133	0x3e3f8411	0.18702723
134	0x3dc3dd50	0.095636964
135	0xbe4b1f19	-0.19836082
136	0x3d69e060	0.057098746
137	0x3d26f020	0.040756345
138	0x3d65daa4	0.056116715
139	0xbc24fc44	-0.01006991
140	0xc00338b0	-2.050335
141	0xbdd24d39	-0.10268635
142	0xbd286637	-0.041113105
143	0xbdd02db9	-0.10164971
144	0x3e5da28a	0.21644035
145	0xbd68c926	-0.056832455
146	0xbd95b6da	-0.07310267
147	0x3d5e5354	0.054278687
148	0xbe490bde	-0.19633433
149	0x3dec418b	0.11535939
150	0xbde59dc1	-0.1121173
151	0xbe1ff1ec	-0.1561963
152	0xbe4d5bcd	-0.2005455
153	0x3e3dbbf5	0.18528731
154	0x3e5bfd68	0.21483386
155	0x3dd2cb13	0.102926396
156	0xbd6420de	-0.055695407
157	0x3e40d1c9	0.18830027
158	0xbd15aa85	-0.036539573
159	0xbdb58e7d	-0.08865068
160	0xbd749aec	-0.059718058
161	0x3e525e8e	0.20543882
162	0xbe34aff7	-0.1764525
163	0xbe5eb112	-0.21747234
164	0x3c7fbdab	0.015609185
165	0x3e376adc	0.17911857
166	0xbe41f5be	-0.189414
167	0xbe1492b2	-0.14509085
168	0x3f3a6020	0.72802925
169	0x3d975b04	0.07390407
170	0x3e1be21c	0.15222973
171	0xbde6a015	-0.11261002
172	0xbe3e380a	-0.18576065
173	0x3d3e1b4b	0.046412747
174	0x3e29da02	0.1658707
175	0xbc1dfc15	-0.009642621
176	0xbd1f60a2	-0.038910516
177	0x3e0c9565	0.13728864
178	0x3e592dae	0.21208832
179	0xbe1fd614	-0.15609008
180	0xbf02b1fb	-0.51052827
181	0x3e4d0eac	0.20025128
182	0x3cc53f05	0.024077902
183	0xbdedf946	-0.11619811
184	0xbe5d77c6	-0.21627721
185	0xbd09771a	-0.03356085
186	0x3c5b31a5	0.013378535
187	0xbca5dde3	-0.020247405
188	0x3cdb78a2	0.02679092
189	0xbe7d2668	-0.24721682
190	0x3e653f72	0.22387484
191	0x3d243832	0.040092655
192	0xbdbf1d1e	-0.093317255
193	0xbd6eaf2a	-0.05827252
194	0xbe4039b2	-0.18772009
195	0xbcb67636	-0.022273164
196	0x3e1ff116	0.1561931
197	0x3dfdb48a	0.12387951
198	0xbe2f3a17	-0.17112003
199	0x3de5b206	0.11215596
200	0xbd0768ad	-0.03305881
201	0xbd5ea944	-0.054360643
202	0x3e26b116	0.1627849
203	0x3da4a52d	0.08039317
204	0xbecef717	-0.4042289
205	0xbe58cf29	-0.21172775
206	0xbe27a767	-0.16372453
207	0x3e3fe43b	0.18739407
208	0xbded2d80	-0.11580944
209	0x3de43116	0.11142175
210	0xbda0fd4b	-0.07860812
211	0x3e2fb605	0.17159279
212	0x3e258541	0.16164114
213	0xbe79832a	-0.24366441
214	0x3e92288e	0.28546566
215	0x3dc9f04c	0.09860286
216	0x3e080436	0.13282856
217	0xbdca451d	-0.098764636
218	0xbd825714	-0.06364265
219	0x3e0f5013	0.1399539
220	0x3e5a1b10	0.21299386
221	0x3eb814cb	0.35953364
222	0x3d8325e4	0.064037114
223	0x3e0fc02a	0.14038149
224	0x3e340eab	0.1758372
225	0x3d24d3ab	0.040240925
226	0x3e474fe1	0.19464065
227	0xbe4b5f87	-0.1986066
228	0xbe5a927d	-0.21344943
229	0xbea36d44	-0.319193
230	0x3e831edb	0.25609478
231	0x3d82fe50	0.063961625
232	0x3d498e54	0.049208
233	0x3c7f5f43	0.015586677
234	0xbe05f3f2	-0.13081339
235	0xbcd92c8e	-0.026510503
236	0x3cb6bd76	0.022307139
237	0x3d3a1080	0.045425892
238	0xbdb0a1fd	-0.08624647
239	0x3e072699	0.13198318
240	0xbd89fd08	-0.06737715
241	0x3e111df0	0.14171576
242	0x3caafa67	0.020871354
243	0x3e4accda	0.19804707
244	0x3cbd43d6	0.023103636
245	0xbe354f7d	-0.17706104
246	0x3c9593d2	0.018258963
247	0x3e1136ae	0.14181015
248	0x3ded80b3	0.11596813
249	0x3e201029	0.15631165
250	0xbd0a3e88	-0.03375104
251	0x3d404583	0.04694129
252	0x3ae94b97	0.0017799017
253	0xbe9217e9	-0.28533867
254	0xbd94b639	-0.07261319
255	0x3efcf827	0.49408075

ensemble.1.module_list.0.fc.bias f4 [64]
0	0x3d834a78	0.06410688
1	0x3dcfacc3	0.101403736
2	0xbdb2a9be	-0.08723782
3	0x3d89bd81	0.06725598
4	0xbe2d99d3	-0.1695321
5	0x3e8a60e0	0.27027035
6	0xbd0ce970	-0.03440231
7	0x3c236bce	0.009974433
8	0x3e885b07	0.26631948
9	0xbdd37568	-0.10325128
10	0xbe57b555	-0.21065266
11	0xbe004b3e	-0.12528703
12	0xbb5fade5	-0.0034130749
13	0xbe8bfdac	-0.27341974
14	0x3de385b0	0.11109483
15	0x3d439bbd	0.047755945
16	0xbdad4a8a	-0.08461483
17	0x3e43537e	0.19074818
18	0x3e139296	0.14411387
19	0x3db56c6a	0.08858569
20	0xbdf97366	-0.12180214
21	0xbe9c4fde	-0.30529684
22	0xbd9fb20b	-0.07797631
23	0xbeae45db	-0.3403767
24	0x3df20d98	0.11818999
25	0x3e14ae4e	0.14519617
26	0xbe0dbd9a	-0.13841859
27	0x3e37a7a3	0.17935042
28	0x3e322e1e	0.17400405
29	0x3e174d04	0.14775473
30	0xbe6bd774	-0.23031408
31	0xbe7a5eba	-0.24450198
32	0x3d3f755d	0.046742786
33	0xbdb1df6b	-0.08685192
34	0xbe04e954	-0.12979633
35	0x3e6dc4a2	0.2321954
36	0xbe937097	-0.28796837
37	0xbda486f8	-0.08033556
38	0x3ca718a0	0.020397484
39	0x3d47c171	0.048768464
40	0xbda88caf	-0.08229958
41	0xbc8526b0	-0.0162538
42	0xbdfeac8c	-0.124352545
43	0x3d7ce2b8	0.061739653
44	0xbe2e2956	-0.17007956
45	0x3e0549b9	0.13016404
46	0xbe2a8b8e	-0.16654798
47	0x3cf54740	0.029941201
48	0xbe79da0a	-0.24399582
49	0xbc584267	-0.013199425
50	0x3e1170ac	0.14203137
51	0xbdcac416	-0.09900682
52	0x3e994615	0.2993628
53	0xbe510527	-0.20412122
54	0x3c15e2e7	0.009148336
55	0x3df7167d	0.12064836
56	0xbdeaa88c	-0.11457929
57	0x3e1c5471	0.15266587
58	0x3c9935c0	0.018702388
59	0xbdf8a8c1	-0.12141562
60	0x3e706bf8	0.23478687
61	0xbe689640	-0.22713566
62	0x3df80b61	0.12111545
63	0xbcc95650	-0.02457729

ensemble.1.module_list.0.fc.mask.mask f4 [64, 16]
0	0x00000000	0.0
1	0x3f800000	1.0
2	0x00000000	0.0
3	0x00000000	0.0
4	0x00000000	0.0
5	0x00000000	0.0
6	0x00000000	0.0
7	0x00000000	0.0
8	0x3f800000	1.0
9	0x00000000	0.0
10	0x00000000	0.0
11	0x00000000	0.0
12	0x00000000	0.0
13	0x3f800000	1.0
14	0x00000000	0.0
15	0x00000000	0.0
16	0x00000000	0.0
17	0x3f800000	1.0
18	0x00000000	0.0
19	0x00000000	0.0
20	0x00000000	0.0
21	0x3f800000	1.0
22	0x00000000	0.0
23	0x00000000	0.0
24	0x00000000	0.0
25	0x00000000	0.0
26	0x00000000	0.0
27	0x00000000	0.0
28	0x00000000	0.0
29	0x00000000	0.0
30	0x00000000	0.0
31	0x3f800000	1.0
32	0x00000000	0.0
33	0x3f800000	1.0
34	0x00000000	0.0
35	0x00000000	0.0
36	0x00000000	0.0
37	0x00000000	0.0
38	0x00000000	0.0
39	0x3f800000	1.0
40	0x00000000	0.0
41	0x00000000	0.0
42	0x00000000	0.0
43	0x00000000	0.0
44	0x3f800000	1.0
45	0x00000000	0.0
46	0x00000000	0.0
47	0x00000000	0.0
48	0x00000000	0.0
49	0x00000000	0.0
50	0x3f800000	1.0
51	0x00000000	0.0
52	0x00000000	0.0
53	0x00000000	0.0
54	0x00000000	0.0
55	0x00000000	0.0
56	0x3f800000	1.0
57	0x3f800000	1.0
58	0x00000000	0.0
59	0x00000000	0.0
60	0x00000000	0.0
61	0x00000000	0.0
62	0x00000000	0.0
63	0x00000000	0.0
64	0x00000000	0.0
65	0x00000000	0.0
66	0x00000000	0.0
67	0x00000000	0.0
68	0x00000000	0.0
69	0x00000000	0.0
70	0x00000000	0.0
71	0x00000000	0.0
72	0x00000000	0.0
73	0x00000000	0.0
74	0x00000000	0.0
75	0x00000000	0.0
76	0x3f800000	1.0
77	0x3f800000	1.0
78	0x3f800000	1.0
79	0x00000000	0.0
80	0x00000000	0.0
81	0x00000000	0.0
82	0x00000000	0.0
83	0x00000000	0.0
84	0x3f800000	1.0
85	0x3f800000	1.0
86	0x00000000	0.0
87	0x00000000	0.0
88	0x00000000	0.0
89	0x3f800000	1.0
90	0x00000000	0.0
91	0x00000000	0.0
92	0x00000000	0.0
93	0x00000000	0.0
94	0x00000000	0.0
95	0x00000000	0.0
96	0x00000000	0.0
97	0x00000000	0.0
98	0x00000000	0.0
99	0x00000000	0.0
100	0x00000000	0.0
101	0x00000000	0.0
102	0x00000000	0.0
103	0x3f800000	1.0
104	0x00000000	0.0
105	0x00000000	0.0
106	0x3f800000	1.0
107	0x00000000	0.0
108	0x00000000	0.0
109	0x00000000	0.0
110	0x3f800000	1.0
111	0x00000000	0.0
112	0x00000000	0.0
113	0x00000000	0.0
114	0x00000000	0.0
115	0x3f800000	1.0
116	0x3f800000	1.0
117	0x00000000	0.0
118	0x3f800000	1.0
119	0x00000000	0.0
120	0x00000000	0.0
121	0x00000000	0.0
122	0x00000000	0.0
123	0x00000000	0.0
124	0x00000000	0.0
125	0x00000000	0.0
126	0x00000000	0.0
127	0x00000000	0.0
128	0x00000000	0.0
129	0x00000000	0.0
130	0x00000000	0.0
131	0x00000000	0.0
132	0x3f800000	1.0
133	0x00000000	0.0
134	0x00000000	0.0
135	0x00000000	0.0
136	0x00000000	0.0
137	0x00000000	0.0
138	0x00000000	0.0
139	0x00000000	0.0
140	0x3f800000	1.0
141	0x00000000	0.0
142	0x00000000	0.0
143	0x3f800000	1.0
144	0x3f800000	1.0
145	0x00000000	0.0
146	0x00000000	0.0
147	0x00000000	0.0
148	0x00000000	0.0
149	0x00000000	0.0
150	0x00000000	0.0
151	0x00000000	0.0
152	0x00000000	0.0
153	0x00000000	0.0
154	0x00000000	0.0
155	0x3f800000	1.0
156	0x00000000	0.0
157	0x00000000	0.0
158	0x3f800000	1.0
159	0x00000000	0.0
160	0x00000000	0.0
161	0x00000000	0.0
162	0x00000000	0.0
163	0x00000000	0.0
164	0x3f800000	1.0
165	0x00000000	0.0
166	0x00000000	0.0
167	0x00000000	0.0
168	0x3f800000	1.0
169	0x00000000	0.0
170	0x00000000	0.0
171	0x00000000	0.0
172	0x3f800000	1.0
173	0x00000000	0.0
174	0x00000000	0.0
175	0x00000000	0.0
176	0x00000000	0.0
177	0x3f800000	1.0
178	0x00000000	0.0
179	0x00000000	0.0
180	0x3f800000	1.0
181	0x00000000	0.0
182	0x00000000	0.0
183	0x00000000	0.0
184	0x00000000	0.0
185	0x00000000	0.0
186	0x00000000	0.0
187	0x00000000	0.0
188	0x00000000	0.0
189	0x3f800000	1.0
190	0x00000000	0.0
191	0x00000000	0.0
192	0x00000000	0.0
193	0x00000000	0.0
194	0x3f800000	1.0
195	0x00000000	0.0
196	0x00000000	0.0
197	0x00000000	0.0
198	0x00000000	0.0
199	0x3f800000	1.0
200	0x00000000	0.0
201	0x00000000	0.0
202	0x00000000	0.0
203	0x00000000	0.0
204	0x3f800000	1.0
205	0x00000000	0.0
206	0x00000000	0.0
207	0x00000000	0.0
208	0x00000000	0.0
209	0x00000000	0.0
210	0x00000000	0.0
211	0x00000000	0.0
212	0x00000000	0.0
213	0x3f800000	1.0
214	0x3f800000	1.0
215	0x00000000	0.0
216	0x00000000	0.0
217	0x00000000	0.0
218	0x00000000	0.0
219	0x00000000	0.0
220	0x00000000	0.0
221	0x3f800000	1.0
222	0x00000000	0.0
223	0x00000000	0.0
224	0x00000000	0.0
225	0x00000000	0.0
226	0x00000000	0.0
227	0x00000000	0.0
228	0x00000000	0.0
229	0x3f800000	1.0
230	0x3f800000	1.0
231	0x3f800000	1.0
232	0x00000000	0.0
233	0x00000000	0.0
234	0x00000000	0.0
235	0x00000000	0.0
236	0x00000000	0.0
237	0x00000000	0.0
238	0x00000000	0.0
239	0x00000000	0.0
240	0x00000000	0.0
241	0x3f800000	1.0
242	0x00000000	0.0
243	0x00000000	0.0
244	0x00000000	0.0
245	0x00000000	0.0
246	0x00000000	0.0
247	0x00000000	0.0
248	0x00000000	0.0
249	0x00000000	0.0
250	0x00000000	0.0
251	0x00000000	0.0
252	0x00000000	0.0
253	0x3f800000	1.0
254	0x00000000	0.0
255	0x3f800000	1.0

ensemble.1.module_list.0.output_quant.pre_transforms.0.weight f4 [64]
0	0x3f662a37	0.89908165
1	0x3ed2d534	0.41178286
2	0x3e83664d	0.25663987
3	0x3e418215	0.18897279
4	0x402869b4	2.6314516
5	0x3ea795d1	0.32731488
6	0x3f23ef35	0.64036876
7	0x3f0483b4	0.51763463
8	0x3fcf9323	1.6216778
9	0x3f662a37	0.89908165
10	0x3f8fe533	1.1241821
11	0x3eed1e58	0.46312213
12	0x3f83e112	1.0303061
13	0x3f80f1cf	1.0073794
14	0x3e6fb0d2	0.23407295
15	0x3f9451d0	1.1587467
16	0x3ed68c8d	0.41904107
17	0x3f017d6d	0.5058201
18	0x3f662a37	0.89908165
19	0x3e81620c	0.25270116
20	0x3e8779d4	0.26460135
21	0x3fbac43d	1.4591137
22	0x3e7dedcb	0.24797742
23	0x3f082fcb	0.53197926
24	0x3e9eb611	0.3099828
25	0x3fcdfa2e	1.6091974
26	0x3f0de6e6	0.5543045
27	0x40590a9f	3.3912733
28	0x3f662a37	0.89908165
29	0x3fb43f5c	1.4081836
30	0x3f662a37	0.89908165
31	0x3f662a37	0.89908165
32	0x3e8c4f7e	0.27404398
33	0x3e9bf2d1	0.30458692
34	0x3f2157cf	0.6302461
35	0x3f662a37	0.89908165
36	0x3f98e252	1.1944067
37	0x3f662a37	0.89908165
38	0x3f662a37	0.89908165
39	0x3e6afdb9	0.2294835
40	0x3f632560	0.88728905
41	0x3f9fc52a	1.2482045
42	0x3f662a37	0.89908165
43	0x3f448620	0.7676716
44	0x3f662a37	0.89908165
45	0x3e97d198	0.29652095
46	0x3ee764bd	0.45194045
47	0x3fb7d041	1.4360429
48	0x3f8b0b89	1.0862895
49	0x3e941d60	0.2892866
50	0x3f662a37	0.89908165
51	0x3e9d284f	0.30694816
52	0x3f968647	1.1759728
53	0x3ef5fb1e	0.4804315
54	0x3ebb8c97	0.366307
55	0x3ea9b325	0.3314449
56	0x3f662a37	0.89908165
57	0x3fc8fb2a	1.5701649
58	0x3f662a37	0.89908165
59	0x3e3ffa28	0.18747771
60	0x3f662a37	0.89908165
61	0x3fa1c1d4	1.2637277
62	0x3f4e8df4	0.80685353
63	0x3f662a37	0.89908165

ensemble.1.module_list.0.output_quant.pre_transforms.0.bias f4 [64]
0	0x00000000	0.0
1	0xbd4fbc0d	-0.05071645
2	0x3ee96006	0.45581073
3	0x3e38a451	0.18031432
4	0x3f351d9c	0.70748305
5	0x3d37c4e0	0.04486549
6	0x3fc1ac89	1.5130779
7	0x3eb80bdf	0.35946557
8	0xbf09d5d9	-0.5384193
9	0x00000000	0.0
10	0x3f33bb68	0.70207834
11	0xbe0685e1	-0.13137008
12	0x3f855638	1.0416937
13	0x3f051f28	0.52000666
14	0x3e8964ea	0.26834804
15	0x3f443c3d	0.76654416
16	0x3de88956	0.1135432
17	0xbe885851	-0.2662988
18	0x00000000	0.0
19	0x3ec8af35	0.39196172
20	0x3e825d0c	0.25461614
21	0xbc6ac35e	-0.014328806
22	0x3cc9b3b7	0.024621828
23	0x3dccb89c	0.09996149
24	0xbef2ef10	-0.47448015
25	0x3f2c800f	0.673829
26	0x3eb89442	0.36050612
27	0xbdb25e39	-0.08709378
28	0x00000000	0.0
29	0xbe20fc3f	-0.15721224
30	0x00000000	0.0
31	0x00000000	0.0
32	0x3ded11fb	0.11575695
33	0x3ed2c6b7	0.41167232
34	0x3f0098fc	0.50233436
35	0x00000000	0.0
36	0xbf2da0a3	-0.6782324
37	0x00000000	0.0
38	0x00000000	0.0
39	0xbdb1664b	-0.08662089
40	0xbc975517	-0.018473191
41	0xbe2173f5	-0.1576689
42	0x00000000	0.0
43	0xbf845c5b	-1.0340685
44	0x00000000	0.0
45	0xbd7c98f9	-0.061669324
46	0x3e86fd44	0.263651
47	0x3e585367	0.21125565
48	0xbf2ae377	-0.66753334
49	0x3efb9319	0.49135664
50	0x00000000	0.0
51	0x3e24dc17	0.16099583
52	0x3edeee27	0.4354107
53	0x3d1ae75f	0.03781831
54	0xbe3d0461	-0.18458702
55	0x3d905331	0.070471175
56	0x00000000	0.0
57	0xbd1534ad	-0.03642719
58	0x00000000	0.0
59	0x3e6254e0	0.2210269
60	0x00000000	0.0
61	0xbf8769d1	-1.0579168
62	0x3dfc07f0	0.123062015
63	0x00000000	0.0

ensemble.1.module_list.0.output_quant.pre_transforms.0.running_mean f4 [64]
0	0xbdd22151	-0.10260261
1	0x3f3e1c97	0.74262375
2	0x3e5ff0cd	0.21869202
3	0xbc88fc93	-0.016722
4	0xbdf10887	-0.117692046
5	0x3ec26c83	0.37973413
6	0xbe4e503b	-0.20147793
7	0x3eaead84	0.34116757
8	0x3e9c1810	0.30487108
9	0xbdea94fc	-0.11454198
10	0x3cdf8c5f	0.027288614
11	0xbe27861a	-0.1635975
12	0x3dc890d7	0.09793251
13	0xbf19a9db	-0.60024804
14	0xbcd25569	-0.025675492
15	0x3d9f54dd	0.07779858
16	0xbe0b1458	-0.1358198
17	0xbcf623df	-0.030046402
18	0xbc4947ae	-0.012285156
19	0x3e396285	0.18103988
20	0xbee5099b	-0.4473389
21	0xbe07f1b9	-0.13275804
22	0xbebe6b6a	-0.37191325
23	0xbf2bf3b7	-0.67168754
24	0x3d31fc04	0.04345323
25	0xbea267d4	-0.3171984
26	0xbe53744c	-0.20649832
27	0xbd5670dd	-0.05235373
28	0x3e37dfcf	0.1795647
29	0x3e748115	0.23877366
30	0xbe9a6d66	-0.3016159
31	0xbe8f9c77	-0.2804906
32	0x3e8a5fac	0.27026117
33	0x3e7a8a2c	0.24466771
34	0x3d803b6b	0.06261333
35	0x3e95e39a	0.2927521
36	0x3cea43ab	0.02859672
37	0xbdc8c757	-0.09803646
38	0xbe4fca78	-0.2029208
39	0xbc5b7f78	-0.01339709
40	0xbde521a2	-0.111880556
41	0xbde43fcd	-0.111449815
42	0x3c7c8f34	0.015415002
43	0xbd8952cd	-0.06705246
44	0xbe5c8e76	-0.2153872
45	0xbe0e1c8a	-0.13878074
46	0xbe3ff4ef	-0.18745779
47	0xbe6d0f4f	-0.23150371
48	0x3e1134a0	0.14180231
49	0xbe14749b	-0.14497606
50	0x3e88996c	0.26679552
51	0x3e5b559f	0.2141938
52	0x3eff0e69	0.49815682
53	0xbf030cac	-0.5119121
54	0x3e2e19ca	0.17002025
55	0x3dece308	0.1156674
56	0xbe27e5dc	-0.16396278
57	0x3ec236b5	0.37932363
58	0x3dc000f8	0.09375185
59	0xbe0faa62	-0.1402984
60	0x3f015997	0.5052733
61	0xbe494f10	-0.19659066
62	0xbda72287	-0.081608824
63	0x3caa0537	0.02075444

ensemble.1.module_list.0.output_quant.pre_transforms.0.running_var f4 [64]
0	0x3d0d3da8	0.034482628
1	0x3e95db90	0.29269075
2	0x3d982a66	0.07429962
3	0x3e7b3151	0.24530531
4	0x3e3712fb	0.17878334
5	0x3c3fceac	0.011706989
6	0x3d72ce99	0.059279058
7	0x3e070484	0.13185316
8	0x40a79af7	5.2376666
9	0x3c994ee9	0.018714385
10	0x3ed7864d	0.4209465
11	0x3d910b92	0.07082285
12	0x3e90860a	0.28227264
13	0x3d86f7e3	0.065902494
14	0x3be68daf	0.007035933
15	0x3d867c4c	0.065666765
16	0x3cb24ca3	0.021765059
17	0x3f215c54	0.63031507
18	0x3ba88d1c	0.0051437747
19	0x3ceb44db	0.028719356
20	0x3d912bbf	0.07088422
21	0x3d32cdbb	0.04365323
22	0x3c02c96d	0.007982594
23	0x3d8a41a9	0.06750805
24	0x3d842572	0.064524546
25	0x400c4ed0	2.1923103
26	0x3bb56005	0.005535128
27	0x3f957d11	1.1678792
28	0x3b7509d5	0.0037389894
29	0x3f8fa888	1.1223307
30	0x3bc5c0d5	0.0060349503
31	0x3c1f8128	0.009735383
32	0x3deae6a4	0.114697725
33	0x3d6cc64c	0.057806298
34	0x3d442325	0.04788508
35	0x3c17b6b4	0.009259868
36	0x3faf7afa	1.3709404
37	0x3c24652d	0.010033888
38	0x3d6ea743	0.058264982
39	0x3da455b3	0.08024158
40	0x3ee3a515	0.44461885
41	0x3ea6cfa6	0.32580298
42	0x3c99ee4a	0.018790383
43	0x3d817db4	0.06322804
44	0x3a473bd5	0.0007600163
45	0x3de23b9b	0.11046525
46	0x3dbbff74	0.09179583
47	0x3fad9a9c	1.3562808
48	0x3e100de5	0.140678
49	0x3c25201b	0.010078455
50	0x3c442e85	0.011973982
51	0x3d2bf6cb	0.041983407
52	0x3e33c90e	0.17557165
53	0x3e5f2ccf	0.21794437
54	0x3d88c07e	0.0667734
55	0x3fbe02fe	1.4844663
56	0x3c7b992a	0.015356341
57	0x3dc0bd9a	0.09411164
58	0x3d16470d	0.036688853
59	0x3d3e695b	0.046487194
60	0x3d2ffff6	0.042968713
61	0x3fdc75ad	1.7223412
62	0x3dcd4212	0.100223675
63	0x3bd5c383	0.006523551

ensemble.1.module_list.1.input_quant.pre_transforms.0.weight f4 [64]
0	0x3f662a37	0.89908165
1	0x3ed2d534	0.41178286
2	0x3e83664d	0.25663987
3	0x3e418215	0.18897279
4	0x402869b4	2.6314516
5	0x3ea795d1	0.32731488
6	0x3f23ef35	0.64036876
7	0x3f0483b4	0.51763463
8	0x3fcf9323	1.6216778
9	0x3f662a37	0.89908165
10	0x3f8fe533	1.1241821
11	0x3eed1e58	0.46312213
12	0x3f83e112	1.0303061
13	0x3f80f1cf	1.0073794
14	0x3e6fb0d2	0.23407295
15	0x3f9451d0	1.1587467
16	0x3ed68c8d	0.41904107
17	0x3f017d6d	0.5058201
18	0x3f662a37	0.89908165
19	0x3e81620c	0.25270116
20	0x3e8779d4	0.26460135
21	0x3fbac43d	1.4591137
22	0x3e7dedcb	0.24797742
23	0x3f082fcb	0.53197926
24	0x3e9eb611	0.3099828
25	0x3fcdfa2e	1.6091974
26	0x3f0de6e6	0.5543045
27	0x40590a9f	3.3912733
28	0x3f662a37	0.89908165
29	0x3fb43f5c	1.4081836
30	0x3f662a37	0.89908165
31	0x3f662a37	0.89908165
32	0x3e8c4f7e	0.27404398
33	0x3e9bf2d1	0.30458692
34	0x3f2157cf	0.6302461
35	0x3f662a37	0.89908165
36	0x3f98e252	1.1944067
37	0x3f662a37	0.89908165
38	0x3f662a37	0.89908165
39	0x3e6afdb9	0.2294835
40	0x3f632560	0.88728905
41	0x3f9fc52a	1.2482045
42	0x3f662a37	0.89908165
43	0x3f448620	0.7676716
44	0x3f662a37	0.89908165
45	0x3e97d198	0.29652095
46	0x3ee764bd	0.45194045
47	0x3fb7d041	1.4360429
48	0x3f8b0b89	1.0862895
49	0x3e941d60	0.2892866
50	0x3f662a37	0.89908165
51	0x3e9d284f	0.30694816
52	0x3f968647	1.1759728
53	0x3ef5fb1e	0.4804315
54	0x3ebb8c97	0.366307
55	0x3ea9b325	0.3314449
56	0x3f662a37	0.89908165
57	0x3fc8fb2a	1.5701649
58	0x3f662a37	0.89908165
59	0x3e3ffa28	0.18747771
60	0x3f662a37	0.89908165
61	0x3fa1c1d4	1.2637277
62	0x3f4e8df4	0.80685353
63	0x3f662a37	0.89908165

ensemble.1.module_list.1.input_quant.pre_transforms.0.bias f4 [64]
0	0x00000000	0.0
1	0xbd4fbc0d	-0.05071645
2	0x3ee96006	0.45581073
3	0x3e38a451	0.18031432
4	0x3f351d9c	0.70748305
5	0x3d37c4e0	0.04486549
6	0x3fc1ac89	1.5130779
7	0x3eb80bdf	0.35946557
8	0xbf09d5d9	-0.5384193
9	0x00000000	0.0
10	0x3f33bb68	0.70207834
11	0xbe0685e1	-0.13137008
12	0x3f855638	1.0416937
13	0x3f051f28	0.52000666
14	0x3e8964ea	0.26834804
15	0x3f443c3d	0.76654416
16	0x3de88956	0.1135432
17	0xbe885851	-0.2662988
18	0x00000000	0.0
19	0x3ec8af35	0.39196172
20	0x3e825d0c	0.25461614
21	0xbc6ac35e	-0.014328806
22	0x3cc9b3b7	0.024621828
23	0x3dccb89c	0.09996149
24	0xbef2ef10	-0.47448015
25	0x3f2c800f	0.673829
26	0x3eb89442	0.36050612
27	0xbdb25e39	-0.08709378
28	0x00000000	0.0
29	0xbe20fc3f	-0.15721224
30	0x00000000	0.0
31	0x00000000	0.0
32	0x3ded11fb	0.11575695
33	0x3ed2c6b7	0.41167232
34	0x3f0098fc	0.50233436
35	0x00000000	0.0
36	0xbf2da0a3	-0.6782324
37	0x00000000	0.0
38	0x00000000	0.0
39	0xbdb1664b	-0.08662089
40	0xbc975517	-0.018473191
41	0xbe2173f5	-0.1576689
42	0x00000000	0.0
43	0xbf845c5b	-1.0340685
44	0x00000000	0.0
45	0xbd7c98f9	-0.061669324
46	0x3e86fd44	0.263651
47	0x3e585367	0.21125565
48	0xbf2ae377	-0.66753334
49	0x3efb9319	0.49135664
50	0x00000000	0.0
51	0x3e24dc17	0.16099583
52	0x3edeee27	0.4354107
53	0x3d1ae75f	0.03781831
54	0xbe3d0461	-0.18458702
55	0x3d905331	0.070471175
56	0x00000000	0.0
57	0xbd1534ad	-0.03642719
58	0x00000000	0.0
59	0x3e6254e0	0.2210269
60	0x00000000	0.0
61	0xbf8769d1	-1.0579168
62	0x3dfc07f0	0.123062015
63	0x00000000	0.0

ensemble.1.module_list.1.input_quant.pre_transforms.0.running_mean f4 [64]
0	0xbdd22151	-0.10260261
1	0x3f3e1c97	0.74262375
2	0x3e5ff0cd	0.21869202
3	0xbc88fc93	-0.016722
4	0xbdf10887	-0.117692046
5	0x3ec26c83	0.37973413
6	0xbe4e503b	-0.20147793
7	0x3eaead84	0.34116757
8	0x3e9c1810	0.30487108
9	0xbdea94fc	-0.11454198
10	0x3cdf8c5f	0.027288614
11	0xbe27861a	-0.1635975
12	0x3dc890d7	0.09793251
13	0xbf19a9db	-0.60024804
14	0xbcd25569	-0.025675492
15	0x3d9f54dd	0.07779858
16	0xbe0b1458	-0.1358198
17	0xbcf623df	-0.030046402
18	0xbc4947ae	-0.012285156
19	0x3e396285	0.18103988
20	0xbee5099b	-0.4473389
21	0xbe07f1b9	-0.13275804
22	0xbebe6b6a	-0.37191325
23	0xbf2bf3b7	-0.67168754
24	0x3d31fc04	0.04345323
25	0xbea267d4	-0.3171984
26	0xbe53744c	-0.20649832
27	0xbd5670dd	-0.05235373
28	0x3e37dfcf	0.1795647
29	0x3e748115	0.23877366
30	0xbe9a6d66	-0.3016159
31	0xbe8f9c77	-0.2804906
32	0x3e8a5fac	0.27026117
33	0x3e7a8a2c	0.24466771
34	0x3d803b6b	0.06261333
35	0x3e95e39a	0.2927521
36	0x3cea43ab	0.02859672
37	0xbdc8c757	-0.09803646
38	0xbe4fca78	-0.2029208
39	0xbc5b7f78	-0.01339709
40	0xbde521a2	-0.111880556
41	0xbde43fcd	-0.111449815
42	0x3c7c8f34	0.015415002
43	0xbd8952cd	-0.06705246
44	0xbe5c8e76	-0.2153872
45	0xbe0e1c8a	-0.13878074
46	0xbe3ff4ef	-0.18745779
47	0xbe6d0f4f	-0.23150371
48	0x3e1134a0	0.14180231
49	0xbe14749b	-0.14497606
50	0x3e88996c	0.26679552
51	0x3e5b559f	0.2141938
52	0x3eff0e69	0.49815682
53	0xbf030cac	-0.5119121
54	0x3e2e19ca	0.17002025
55	0x3dece308	0.1156674
56	0xbe27e5dc	-0.16396278
57	0x3ec236b5	0.37932363
58	0x3dc000f8	0.09375185
59	0xbe0faa62	-0.1402984
60	0x3f015997	0.5052733
61	0xbe494f10	-0.19659066
62	0xbda72287	-0.081608824
63	0x3caa0537	0.02075444

ensemble.1.module_list.1.input_quant.pre_transforms.0.running_var f4 [64]
0	0x3d0d3da8	0.034482628
1	0x3e95db90	0.29269075
2	0x3d982a66	0.07429962
3	0x3e7b3151	0.24530531
4	0x3e3712fb	0.17878334
5	0x3c3fceac	0.011706989
6	0x3d72ce99	0.059279058
7	0x3e070484	0.13185316
8	0x40a79af7	5.2376666
9	0x3c994ee9	0.018714385
10	0x3ed7864d	0.4209465
11	0x3d910b92	0.07082285
12	0x3e90860a	0.28227264
13	0x3d86f7e3	0.065902494
14	0x3be68daf	0.007035933
15	0x3d867c4c	0.065666765
16	0x3cb24ca3	0.021765059
17	0x3f215c54	0.63031507
18	0x3ba88d1c	0.0051437747
19	0x3ceb44db	0.028719356
20	0x3d912bbf	0.07088422
21	0x3d32cdbb	0.04365323
22	0x3c02c96d	0.007982594
23	0x3d8a41a9	0.06750805
24	0x3d842572	0.064524546
25	0x400c4ed0	2.1923103
26	0x3bb56005	0.005535128
27	0x3f957d11	1.1678792
28	0x3b7509d5	0.0037389894
29	0x3f8fa888	1.1223307
30	0x3bc5c0d5	0.0060349503
31	0x3c1f8128	0.009735383
32	0x3deae6a4	0.114697725
33	0x3d6cc64c	0.057806298
34	0x3d442325	0.04788508
35	0x3c17b6b4	0.009259868
36	0x3faf7afa	1.3709404
37	0x3c24652d	0.010033888
38	0x3d6ea743	0.058264982
39	0x3da455b3	0.08024158
40	0x3ee3a515	0.44461885
41	0x3ea6cfa6	0.32580298
42	0x3c99ee4a	0.018790383
43	0x3d817db4	0.06322804
44	0x3a473bd5	0.0007600163
45	0x3de23b9b	0.11046525
46	0x3dbbff74	0.09179583
47	0x3fad9a9c	1.3562808
48	0x3e100de5	0.140678
49	0x3c25201b	0.010078455
50	0x3c442e85	0.011973982
51	0x3d2bf6cb	0.041983407
52	0x3e33c90e	0.17557165
53	0x3e5f2ccf	0.21794437
54	0x3d88c07e	0.0667734
55	0x3fbe02fe	1.4844663
56	0x3c7b992a	0.015356341
57	0x3dc0bd9a	0.09411164
58	0x3d16470d	0.036688853
59	0x3d3e695b	0.046487194
60	0x3d2ffff6	0.042968713
61	0x3fdc75ad	1.7223412
62	0x3dcd4212	0.100223675
63	0x3bd5c383	0.006523551

ensemble.1.module_list.1.fc.weight f4 [32, 64]
0	0x3d533332	0.051562496
1	0xbe05a536	-0.13051304
2	0x3ce59e8f	0.028029708
3	0xbd4cdcdf	-0.050015327
4	0xbd39a565	-0.04532375
5	0xbd3a7b4e	-0.04552775
6	0xbd0c29bc	-0.03421949
7	0xbc4c3dcd	-0.012465906
8	0xbca985ce	-0.020693686
9	0xbc604f35	-0.013690759
10	0xbdbeeb7b	-0.09322258
11	0xbedd680d	-0.43243447
12	0x3d257478	0.040394276
13	0xbd491b8c	-0.049098536
14	0x3c3ef51d	0.011655119
15	0x3dd24259	0.10266561
16	0x3db667e2	0.08906533
17	0xbdaa62fc	-0.08319661
18	0x3bd30c01	0.00644064
19	0xbb5d1a92	-0.003373776
20	0xbd6b95d9	-0.057515953
21	0xbd1cfaed	-0.03832524
22	0xbc903e0c	-0.017607711
23	0x3da12fed	0.07870469
24	0x3cc80431	0.024416061
25	0x3ddd8f24	0.108183175
26	0x3d1805d0	0.03711492
27	0x3dd8c9d1	0.105853684
28	0x3da0b2fd	0.07846639
29	0x3de6bdba	0.11266656
30	0x3d07da12	0.033166952
31	0xbdc3cfbc	-0.095611066
32	0xbbc0ea94	-0.005887339
33	0x3ddf3400	0.1089859
34	0x3c077b10	0.0082690865
35	0xbddc316e	-0.107516155
36	0xbc328006	-0.010894781
37	0xbd4498f6	-0.047997437
38	0xbd9b2a73	-0.07576456
39	0x3d5f9bd7	0.05459198
40	0x3cd197a9	0.025585013
41	0x3dbe3cba	0.092889264
42	0xbd1f5e7e	-0.038908474
43	0x3d612219	0.05496416
44	0x3c376163	0.011192652
45	0x3d85d653	0.0653502
46	0xbdc419b2	-0.095752135
47	0xbce0f34c	-0.027459763
48	0xbd1d4d69	-0.038403902
49	0xbbaaebc7	-0.005216095
50	0x3d8382be	0.064214215
51	0x3d585152	0.052811928
52	0xbc302414	-0.010750789
53	0x3b175d44	0.0023096362
54	0xbde32c16	-0.11092393
55	0x3de2c76b	0.11073192
56	0xbd375a54	-0.044763878
57	0xbc99183d	-0.018688316
58	0x3b3a48c8	0.0028424729
59	0xbdd4855c	-0.10376999
60	0x3d94652e	0.07245861
61	0xbd34bccd	-0.044125367
62	0xbd76d843	-0.060264837
63	0x3d76edb5	0.06028529
64	0x3ce817ee	0.028331723
65	0xbd6a5f7c	-0.057219967
66	0x3de09e41	0.109676845
67	0x3d1d0bcd	0.038341332
68	0x3d92d00f	0.0716859
69	0xbd1a37bc	-0.03765081
70	0x3d13b67f	0.036062714
71	0x3c4b64b1	0.012414143
72	0x3daceaf7	0.084432535
73	0xbd98e6b9	-0.07465882
74	0x3c859bdc	0.016309671
75	0xbc6fc68a	-0.014634738
76	0xbe96618b	-0.29371294
77	0x3d84ef3c	0.06490943
78	0x3dcf18ab	0.10112127
79	0x3d258af5	0.040415723
80	0x3d61efac	0.05516021
81	0xbc8ae964	-0.016956992
82	0x3c5e312c	0.013561528
83	0x3cd5250e	0.026018646
84	0xbebb72b6	-0.36610955
85	0xbdc2ccc7	-0.095117144
86	0xbda56f3d	-0.08077858
87	0x3d8d7e93	0.06908908
88	0xbd7712f2	-0.060320802
89	0x3d8ab592	0.06772913
90	0x3d790c7a	0.060802914
91	0x3d34eee9	0.044173155
92	0xbce88ccb	-0.028387448
93	0x3dd1f10a	0.10251053
94	0xbc55b2e2	-0.013043137
95	0xbd340e67	-0.043959048
96	0x3c9b0d2b	0.018927177
97	0x3d8fbf8c	0.070189565
98	0x3d62269a	0.055212595
99	0x3bc7dc89	0.006099288
100	0x3d41771e	0.04723274
101	0xbda04b4c	-0.07826862
102	0x3d614c2a	0.055004276
103	0xbd41b64a	-0.047292985
104	0xbd8d3cc0	-0.06896353
105	0xbd96031f	-0.07324814
106	0xbd8a5004	-0.06753543
107	0xbc79af7f	-0.015239595
108	0x3cca5412	0.024698291
109	0xbd618d80	-0.055066586
110	0xbde5e64d	-0.11225567
111	0x3dd9f0eb	0.106416546
112	0x3dd44476	0.103646204
113	0xbd7221f5	-0.059114415
114	0x3dac934d	0.08426533
115	0xbdb502e9	-0.08838446
116	0xbd936a82	-0.07198049
117	0x3de5bd5b	0.11217757
118	0x3b75fe32	0.0037535545
119	0x3bf9dcf3	0.007625216
120	0xbd1d0235	-0.038332183
121	0xbd51384d	-0.051079083
122	0xbd340fbb	-0.043960314
123	0x3de3c33b	0.11121222
124	0xbdb25f7c	-0.087096184
125	0xbda75d00	-0.08172035
126	0xbcfd3be1	-0.030912342
127	0xbc70ea50	-0.014704302
128	0x3dc5acc2	0.096520916
129	0x3c260801	0.010133744
130	0x3bb7b39a	0.005606127
131	0x3d854d38	0.06508869
132	0x3db0a8f6	0.08625977
133	0xbd8b8092	-0.06811632
134	0xbdd8f1b8	-0.10592979
135	0x3d3ed25e	0.04658734
136	0x3f0e0cc4	0.5548823
137	0xbd0e30db	-0.03471456
138	0xbd38b99d	-0.04509889
139	0x3d704118	0.05865583
140	0xbdd98e2b	-0.106228195
141	0xbb7daebe	-0.003870889
142	0xbddaa62b	-0.10676225
143	0x3c5232a8	0.01282946
144	0xbdd08f66	-0.10183601
145	0x3cab590f	0.02091649
146	0x3dbe8497	0.09302633
147	0x3b0a3302	0.0021087532
148	0xbd09172a	-0.033469357
149	0x3bb588c0	0.0055399835
150	0x3d29bc2b	0.041439217
151	0x3dda520e	0.10660182
152	0xbd7472b8	-0.059679717
153	0x3d865551	0.065592416
154	0xbdc39916	-0.09550683
155	0x3de31331	0.11087645
156	0xbd46d77b	-0.048545342
157	0xbc8b6795	-0.017017165
158	0x3da1f98c	0.079089254
159	0x3d84d386	0.064856574
160	0xbd5b6042	-0.053558595
161	0xbc2238cf	-0.00990124
162	0xbdb4e18a	-0.08832081
163	0x3b1a2410	0.002352003
164	0xbdd1ddfe	-0.1024742
165	0xbdb8c917	-0.0902273
166	0x3d760bf9	0.06007001
167	0xbcff8af3	-0.031194186
168	0xbd41ef62	-0.047347434
169	0xbc9fb9de	-0.019497808
170	0xbddf24e4	-0.10895708
171	0x3dd2c722	0.10291888
172	0xbb63435d	-0.0034677603
173	0x3e067f68	0.13134539
174	0xbd44f583	-0.0480857
175	0x3d6a1ce0	0.057156444
176	0xbd97d4f1	-0.07413662
177	0x3d314bad	0.04328506
178	0xbda55604	-0.08073047
179	0xbd34fa86	-0.04418423
180	0xbd901914	-0.07036033
181	0xbd902ef6	-0.07040207
182	0xbc76b037	-0.015056661
183	0xbda66c26	-0.081260964
184	0xbd9a6779	-0.07539267
185	0xbddff69b	-0.10935708
186	0x3cf3a874	0.02974341
187	0xbdb06f45	-0.08614973
188	0xbc57b923	-0.013166699
189	0xbcde655c	-0.027147941
190	0xbdbab4a7	-0.09116488
191	0xbd9a171c	-0.07523939
192	0xbc2252e1	-0.009907455
193	0x3da87591	0.08225549
194	0xbcf457ed	-0.029827083
195	0xbeb1f650	-0.34758234
196	0x3d2a1a51	0.041529004
197	0xbdacf907	-0.08445936
198	0x3d0ba6a8	0.034094483
199	0xbe907dde	-0.2822103
200	0xbd83a26c	-0.06427464
201	0x3dde6116	0.108583614
202	0x3de0aefd	0.10970876
203	0xbd82c577	-0.0638532
204	0x3c5efa8e	0.013609542
205	0xbde29934	-0.110643774
206	0xbd7a44b4	-0.061100677
207	0x3c9d76ed	0.019221747
208	0xbdd47c4f	-0.103752725
209	0xbd1f2191	-0.03885037
210	0xbd59570c	-0.05306153
211	0xbdacb971	-0.08433808
212	0x3d74ecb1	0.05979604
213	0xbd96699b	-0.073443614
214	0x3dca0d52	0.09865822
215	0x3cac2a5e	0.021016296
216	0x3d192a7c	0.037394032
217	0xbda5bf0c	-0.0809308
218	0x3bc3b44c	0.005972421
219	0x3dd3bd2d	0.10338817
220	0xbd6f1001	-0.058364872
221	0xbd34a5c2	-0.04410339
222	0xbd31d1ba	-0.0434129
223	0xbcc14414	-0.023592032
224	0x3d8910e8	0.06692678
225	0x3d699496	0.05702647
226	0xbd22a1c8	-0.039705068
227	0x3d9f8509	0.07789046
228	0xbdd37283	-0.10324576
229	0xbd0a7f29	-0.033812676
230	0xbc9141d4	-0.017731585
231	0xbb9ccfb5	-0.004785503
232	0xbbea203a	-0.007144955
233	0x3d1fa0a1	0.038971547
234	0x3d19df4e	0.037566476
235	0xbdc5c845	-0.09657339
236	0x3d3ea030	0.046539485
237	0x3c381277	0.011234871
238	0x3d944449	0.07239587
239	0xbc749ee7	-0.014930463
240	0xbdd23ace	-0.10265122
241	0x3d015211	0.031572405
242	0xbd3cdb92	-0.046107836
243	0xbd931e02	-0.07183458
244	0xbca60349	-0.020265238
245	0x3db6a50e	0.089182004
246	0xbdbcbab5	-0.09215299
247	0xbd3891c4	-0.045060888
248	0xbddb1dd2	-0.10699047
249	0xbc98b6a0	-0.01864177
250	0x3cf72796	0.030170243
251	0x3d641f72	0.05569405
252	0xbd0dd36b	-0.034625452
253	0x3dec0365	0.11524085
254	0x3d4cbdb0	0.049985588
255	0x3d84eff8	0.06491083

ensemble.1.module_list.1.fc.bias f4 [32]
0	0xbd82901a	-0.063751414
1	0xbd58f52a	-0.05296818
2	0xbe251f49	-0.16125216
3	0xbe1cb0b1	-0.15301777
4	0x3bc4a14f	0.006000675
5	0x3e256fb6	0.16155896
6	0x3df3b266	0.11899261
7	0xbe0f308b	-0.13983361
8	0xbc6d4abc	-0.01448315
9	0xbe0a478a	-0.13503852
10	0xbd995c95	-0.07488362
11	0xbd24c735	-0.04022904
12	0xbd45bf41	-0.048278097
13	0xbd910975	-0.07081882
14	0x3e11075f	0.14162968
15	0xbcd74796	-0.026279252
16	0x3ecd6df6	0.40122956
17	0x3d827995	0.06370846
18	0xbe2b3180	-0.16718102
19	0x3b7d718f	0.0038672423
20	0xbdd4a104	-0.10382274
21	0xbe35e046	-0.17761335
22	0x3d176846	0.036964677
23	0xbe19210b	-0.14954011
24	0x3e0e256a	0.1388146
25	0xbdf09e48	-0.1174894
26	0xbce3fe26	-0.027831148
27	0xbc1997d9	-0.009374582
28	0x3e03cdbd	0.12871452
29	0x3bf93980	0.0076057315
30	0xbe1d881f	-0.15383957
31	0xbd9fb8a3	-0.077988885
