examples/mnist/mnist_polylut/mnist_configs/mnist_polylut_deg1/best_accuracy.pth (torch, 190007 bytes, 112 tensors)

module_list.0.input_quant.pre_transforms.0.weight f4 [784]
000000 00 00 80 3f 00 00 80 3f 00 00 80 3f 00 00 80 3f
       1.0 1.0 1.0 1.0
000010 00 00 80 3f fb ff 7f 3f 00 00 80 3f 00 00 80 3f
       1.0 0.9999997 1.0 1.0
000020 00 00 80 3f 00 00 80 3f 62 00 80 3f fe ff 7f 3f
       1.0 1.0 1.0000117 0.9999999
000030 83 0b ca 3e a9 7a b8 3e ae e9 41 3f 60 c6 ea 3f
       0.39461908 0.36031082 0.7574719 1.8341789
000040 00 00 80 3f 00 00 80 3f 00 00 80 3f ff ff 7f 3f
       1.0 1.0 1.0 0.99999994
000050 00 00 80 3f 00 00 80 3f f6 ff 7f 3f 00 00 80 3f
       1.0 1.0 0.9999994 1.0
000060 00 00 80 3f 00 00 80 3f 00 00 80 3f 00 00 80 3f
       1.0 1.0 1.0 1.0
000070 00 00 80 3f 00 00 80 3f 00 00 80 3f 00 00 80 3f
       1.0 1.0 1.0 1.0
000080 81 c5 df 3e 9b 65 e3 3e 63 50 8e 3f 58 bb d1 3e
       0.4370537 0.44413456 1.1118282 0.40963244
000090 ad b8 d8 3e a7 2b 83 3f 61 c3 0e 40 85 7f f7 3f
       0.42328396 1.0247697 2.230675 1.9335791
0000a0 34 62 68 3e 00 00 80 3f e7 f3 bc 3f dd 84 0a 40
       0.22693712 1.0 1.4761933 2.1643593
0000b0 1e 98 d3 3e 00 cc e2 3f 7f 98 0d 40 bd 2c c0 3e
       0.41326994 1.7718506 2.2124326 0.37534133
0000c0 a8 ce 08 40 2b d4 dd 3f 5d b0 ed 3f fe b7 ec 3f
       2.1376133 1.7330374 1.8569447 1.849365
0000d0 09 00 80 3f 01 00 80 3f ed ff 7f 3f 00 00 80 3f
       1.0000011 1.0000001 0.99999887 1.0
0000e0 00 00 80 3f 00 00 80 3f b5 47 a0 3f b4 aa eb 3f
       1.0 1.0 1.2521883 1.841147
0000f0 00 00 80 3f 43 1d e1 3e 35 6d c6 3e 00 00 80 3f
       1.0 0.43967637 0.38755193 1.0
000100 00 00 80 3f 69 fa 05 40 f3 72 6f 40 08 2f 0c 40
       1.0 2.0934088 3.741391 2.1903706
000110 ea d1 d7 3f a2 f3 64 40 ec a1 cd 3e 00 00 80 3f
       1.6860936 3.5773702 0.401626 1.0
000120 a9 a4 23 40 84 47 c7 3e 8f 8c b3 3f f4 14 43 3f
       2.556925 0.3892175 1.402727 0.76203847
000130 2f 84 dd 3e 3e 3c f0 3f 00 00 80 3f d0 85 a1 3f
       0.4326491 1.8768384 1.0 1.2618961
000140 2b c6 84 3f f7 47 f5 3f f6 ff 7f 3f 0a 00 80 3f
       1.0372976 1.9162587 0.9999994 1.0000012
000150 00 00 80 3f 00 00 80 3f 98 27 97 3f 53 70 d8 3f
       1.0 1.0 1.1808958 1.6909279
000160 e7 ef 84 3f 00 00 80 3f 87 6a 24 40 1f 1e fd 3f
       1.0385712 1.0 2.569002 1.9774817
000170 0e c1 cb 3f 81 b6 2c 40 fd 04 46 40 bb 6a 02 40
       1.5918291 2.6986392 3.0940545 2.0377643
000180 68 80 9d 3f f0 9f 85 40 00 00 80 3f 00 00 80 3f
       1.2304811 4.1757736 1.0 1.0
000190 41 a0 0a 3f 00 00 80 3f 9b 43 a8 3f d0 d4 eb 3e
       0.5415078 1.0 1.3145632 0.460608
0001a0 fc d3 24 40 72 c7 ee 3d e5 61 67 40 e5 aa 07 40
       2.5754385 0.11659135 3.61535 2.1198056
0001b0 5c 4e 06 3f d0 bc eb 3f 00 00 80 3f 00 00 80 3f
       0.52463317 1.8416996 1.0 1.0
0001c0 00 00 80 3f b0 26 ed 3e 04 17 0e 3f 4e 93 01 40
       1.0 0.4631858 0.5550387 2.0246158
0001d0 63 18 da 3e c4 9b c4 3f 6c f5 b4 3f 00 00 80 3f
       0.4259673 1.5360036 1.4137397 1.0
0001e0 53 c8 3c 40 77 2f 08 3f 2f ba 3f 40 76 ef bf 3e
       2.9497268 0.53197426 2.9957387 0.37487382
0001f0 00 00 80 3f f4 9f 7d 3f 2e e5 22 3f 29 20 1b 40
       1.0 0.99072194 0.6363095 2.423838
000200 00 00 80 3f fb fb df 3d 99 43 51 3f 4c 2c 05 40
       1.0 0.10936733 0.8174377 2.0808287
000210 03 a4 28 3f d5 bb e5 3f c5 08 07 40 ec b1 dd 3f
       0.6587526 1.7947947 2.1099102 1.7319922
000220 47 cf 1e 3f 8a f5 16 40 9f fc cd 3f 77 0a e5 3e
       0.6203503 2.3587365 1.6092719 0.44734547
000230 00 00 80 3f fe ff 7f 3f 00 00 80 3f 1d 91 dc 3f
       1.0 0.9999999 1.0 1.7231785
000240 00 00 80 3f 5c 7c fc 3e e7 c4 3b 40 06 d4 4c 40
       1.0 0.4931363 2.933893 3.200441
000250 af a7 4e 3f 88 02 f4 3e 18 08 13 40 b7 f1 a3 3f
       0.80724615 0.4765818 2.297369 1.280814
000260 68 67 1d 40 35 ee f4 3f 00 00 80 3f 62 f8 2c 40
       2.4594364 1.9135195 1.0 2.70266
000270 2d 43 2a 40 75 57 9e 3f e9 b7 16 40 a6 a9 1a 40
       2.66035 1.237044 2.354975 2.4166045
000280 45 18 e7 3f 97 a0 9c 3f 14 be 22 40 d5 de 1a c0
       1.8054281 1.2236508 2.5428514 -2.4198506
000290 38 95 46 40 51 b0 5f 3f 65 ce 09 3f 71 1b e2 3e
       3.1028576 0.8737841 0.5383056 0.4416156
0002a0 00 00 80 3f 6f a8 f2 3e 32 e5 e9 3e 0d c2 ee 3e
       1.0 0.4739413 0.45682675 0.46632424
0002b0 a2 08 16 40 7c 10 79 3f ef 85 10 40 31 1e 4b 40
       2.344277 0.9729078 2.2581747 3.1737177
0002c0 00 00 80 3f b3 d2 95 3f fb 05 03 40 4b fc e9 3f
       1.0 1.1704925 2.04724 1.8280119
0002d0 50 33 ef 3f 00 00 80 3f 00 00 80 3f 00 00 80 3f
       1.8687534 1.0 1.0 1.0
0002e0 2d 47 db 3f fb 62 0d 40 c2 d7 f7 3f 0d 25 b9 3f
       1.7131096 2.2091663 1.9362719 1.4464432
0002f0 e7 b1 4c 3f 80 80 55 40 29 e9 11 40 0d 8c 1a 40
       0.7995896 3.335968 2.279856 2.414798
000300 00 00 80 3f ef 43 18 3f 30 22 d0 3e 93 0b b7 3f
       1.0 0.5947866 0.40651083 1.4300407
000310 74 f0 bb 3f 00 00 80 3f 9e 16 0d 3f b3 92 ca 3e
       1.4682755 1.0 0.55112636 0.39565048
000320 ce 92 87 3e 1e 80 bf 3e f1 c2 06 40 e5 b6 82 3f
       0.2647919 0.37402433 2.1056483 1.0212065
000330 7e 47 49 3f 23 f4 35 40 75 84 8b 3e 1d 22 18 40
       0.78624713 2.843026 0.27249494 2.377082
000340 15 44 77 3f 00 00 80 3f 58 1a 9e 3f 70 d6 b4 3f
       0.9658826 1.0 1.235179 1.4127941
000350 15 80 ce 3f ee 71 f3 3f 00 00 80 3f 80 31 0a 3f
       1.6132838 1.9019144 1.0 0.5398178
000360 5e c9 12 40 49 38 de 3e 8f 4a 30 40 e7 6e 52 40
       2.2935405 0.43402317 2.7545507 3.288019
000370 5f 63 e3 3f 00 00 80 3f 8e 17 33 40 97 28 d9 3e
       1.7764701 1.0 2.7983127 0.4241378
000380 00 00 80 3f 46 7b 8c 3f 73 cd fa 3f 28 34 93 3f
       1.0 1.097512 1.9593948 1.1500292
000390 5a f0 aa 3f 73 9a ad 3f 05 95 8b 3f 00 00 80 3f
       1.33546 1.3562759 1.0904852 1.0
0003a0 0b c9 2c 3f 63 3d 8c 3f 47 a6 79 3f 69 4f ea 3f
       0.6749427 1.0956234 0.97519344 1.8305484
0003b0 ae b6 0d 3f c7 7b 1d 3f 4b c6 e9 3f 9b 39 81 3f
       0.5535687 0.61516994 1.8263639 1.0095705
0003c0 45 2d c7 3f a5 1e 0d 3f 00 00 80 3f 1f 1b 9d 3f
       1.556069 0.55124885 1.0 1.2273902
0003d0 81 06 31 40 fa 4f 1b 40 cf d7 95 3f f1 ee 33 40
       2.766022 2.4267564 1.1706485 2.8114588
0003e0 6e 2a 0b 40 b8 bc 10 40 d6 ef b8 3f 13 c0 ce 3e
       2.1744647 2.2615185 1.4448192 0.40380916
0003f0 f8 f5 e3 3e 64 74 f0 3e 1e 5b 8f 3f 36 6a 06 3f
       0.44523597 0.469638 1.1199682 0.52505815

module_list.0.input_quant.pre_transforms.0.bias f4 [784]
000000 e8 9f 95 3b e5 db 94 3c 00 00 00 00 39 3c 8a 3b
       0.0045661815 0.01817126 0.0 0.004218605
000010 7f 97 32 bc 47 74 b9 bc 00 00 00 00 3e c7 48 bc
       -0.010900377 -0.022638453 0.0 -0.012254534
000020 95 96 a7 bb 5b 62 34 bc da 31 fb 3e 43 e9 8e bc
       -0.0051143863 -0.011009778 0.4906147 -0.017445212
000030 10 36 1e 3f 51 71 1a 3f 68 5c 9d 3e d9 7f 5a bf
       0.6180124 0.6032916 0.30734563 -0.8535133
000040 00 00 00 00 9a 5b fd bc 23 a3 27 3d f0 f0 ae bd
       0.0 -0.030927468 0.040927064 -0.08542049
000050 db cc a5 bd 00 00 00 00 ed 8a 0a 3e d2 4c 23 3b
       -0.08095714 0.0 0.13529558 0.0024917615
000060 00 00 00 00 eb 11 11 bc be 60 4e bb 00 00 00 00
       0.0 -0.00885437 -0.0031490768 0.0
000070 00 00 00 00 2e 6f 1b 3c 3b b2 a4 3b ef 3f 4e ba
       0.0 0.0094869565 0.0050261295 -0.0007867803
000080 0a f0 0f 3f af fa 0e 3f c8 de 8c be f1 38 1b 3f
       0.56225646 0.5585126 -0.2751372 0.6063376
000090 81 18 14 3f d3 98 2d be 6a 7e 72 bf 8a ef 19 bf
       0.5784989 -0.16952829 -0.9472414 -0.6013113
0000a0 f6 26 1d 3f 00 00 00 00 16 29 1a bf 9c df 64 bf
       0.61387575 0.0 -0.6021894 -0.894037
0000b0 f0 1e 16 3f 6c c3 0f bf d3 b2 6e bf a4 16 17 3f
       0.58640957 -0.56157565 -0.93241614 0.5901892
0000c0 34 97 6e bf 59 c8 7c bf 87 61 7b bf 28 0b 67 bf
       -0.9319947 -0.98743206 -0.9819569 -0.902514
0000d0 f2 65 e8 3e 44 70 8d 3d 97 c6 7a bc a5 c1 d4 3b
       0.45390278 0.069061786 -0.015306137 0.006492811
0000e0 00 00 00 00 00 00 00 00 64 78 7f be 7a 7d 74 bf
       0.0 0.0 -0.24948269 -0.9550396
0000f0 00 00 00 00 eb c9 12 3f 46 24 23 3f 00 00 00 00
       0.0 0.5733935 0.63727224 0.0
000100 00 00 00 00 dd 5a 74 bf 72 06 e8 be aa 89 09 bf
       0.0 -0.95451146 -0.45317417 -0.53725684
000110 64 f3 1a bf c7 ba c4 be a0 19 28 3f 00 00 00 00
       -0.60527635 -0.3842375 0.656641 0.0
000120 ac af 87 3e db 69 2e 3f 19 a6 9a bf 22 9b 7e bf
       0.26501215 0.6813027 -1.2081939 -0.99455464
000130 8f 0d 2a 3f 38 59 ab bf 00 00 00 00 61 eb 1c bf
       0.6642694 -1.3386602 0.0 -0.6129666
000140 4b ba 12 3e df 3b 60 bf 0c 26 96 bd d9 f3 e0 3d
       0.14328878 -0.87591356 -0.073314756 0.1098401
000150 00 00 00 00 00 00 00 00 ce 5c 2d be c5 a8 4e bf
       0.0 0.0 -0.16929933 -0.8072627
000160 2b 05 b4 bc 00 00 00 00 7b b4 42 bf ad f5 d4 bd
       -0.02197512 0.0 -0.7605664 -0.103984214
000170 19 2a 92 bf ea 21 25 bf a0 6f 14 be ff 13 b7 be
       -1.1419097 -0.64504874 -0.14495707 -0.35757443
000180 c8 36 a8 bf 24 ff b6 3d 00 00 00 00 00 00 00 00
       -1.3141718 0.08935383 0.0 0.0
000190 e1 13 56 3f 00 00 00 00 15 4d fe be b5 f8 23 3f
       0.8362408 0.0 -0.49668184 0.6405137
0001a0 99 92 bc be aa fb 12 3f 4c 0a fc be 60 58 6b bf
       -0.36830595 0.5741526 -0.49226606 -0.91931725
0001b0 f9 74 57 3e 91 d4 8b bf 00 00 00 00 47 26 1a 3c
       0.21040715 -1.0924245 0.0 0.00940854
0001c0 99 3a 3a 3c f4 c3 0d 3f 89 55 14 3f 0f 42 7d bf
       0.01136651 0.55377126 0.57943016 -0.9892892
0001d0 f9 87 23 3f 48 0e 6f bf 80 41 11 bf 00 00 00 00
       0.6387935 -0.93381166 -0.5674057 0.0
0001e0 7b 1e 53 bf 10 1e 4d 3f 76 4e d3 3d ed af 2f 3f
       -0.82468385 0.80123997 0.103176996 0.68627816
0001f0 00 00 00 00 33 31 f7 bd 74 a8 20 bf 5f 51 a2 be
       0.0 -0.12069931 -0.6275704 -0.31702706
000200 00 00 00 00 37 de d1 bf a8 38 94 bf 1c f2 06 be
       0.0 -1.639594 -1.157979 -0.13178295
000210 9e 16 d8 be 0c 15 2c bf 66 b7 73 3d 60 6b 4b bf
       -0.42204756 -0.67219615 0.059501074 -0.79460716
000220 65 61 49 bf af 1c 02 bf d4 a4 8c bf a3 3e 0e 3f
       -0.7866424 -0.5082502 -1.0987802 0.55564326
000230 2f b3 12 3a 07 d4 f0 bd 00 00 00 00 f8 1a 84 bf
       0.00055961584 -0.11759191 0.0 -1.032073
000240 00 00 00 00 3e 96 35 bf ea 80 92 be e3 59 8f 3e
       0.0 -0.70932376 -0.2861398 0.27998266
000250 16 00 29 bf ce 09 44 3f f5 1a 47 3e 44 5c 45 3c
       -0.66015756 0.7657746 0.19443877 0.012045924
000260 8e d8 64 3f e7 e0 61 3f 00 00 00 00 8b d1 de 3f
       0.89392936 0.882338 0.0 1.7407697
000270 74 64 d2 3f e5 8b 38 bf 3b 7e 30 3f b0 d1 08 3f
       1.6436906 -0.7208846 0.6894261 0.5344496
000280 fc 98 1a be bb 0f 52 bf ee 7c 88 bf c5 80 c2 bc
       -0.15097421 -0.8205525 -1.0663126 -0.023743043
000290 20 40 35 bf e9 b4 0b bf da 53 0d 3f d1 5c 1d 3f
       -0.7080097 -0.5457292 0.5520607 0.6146975
0002a0 f9 c8 2e 3d e0 d4 13 3f 2a 7f 0f 3f bb 1e 15 3f
       0.04267213 0.57746696 0.5605341 0.58250016
0002b0 0a 56 3a bf 5f 31 2a be e5 ca 15 bf 23 1f 03 3e
       -0.72787535 -0.16620396 -0.5851272 0.12804846
0002c0 00 00 00 00 bd e4 7b 3e 6c d0 b8 3e d1 37 03 3f
       0.0 0.24598975 0.36096513 0.51257044
0002d0 47 2a 50 3f 00 00 00 00 00 00 00 00 00 00 00 00
       0.8131451 0.0 0.0 0.0
0002e0 b8 e2 72 3f 43 7e bc 3f 81 5c b8 be d1 c5 20 3e
       0.94877195 1.4726032 -0.36008075 0.15700461
0002f0 af 3e 05 bf dc 1d 45 3f 6e 2c e5 3e 3f 84 3a 3e
       -0.5204877 0.76998687 0.4476046 0.1821451
000300 00 00 00 00 f4 a1 37 bf 5e 2a 14 3f ee 10 8c bf
       0.0 -0.71731496 0.5787715 -1.0942667
000310 bd 14 ef be 00 00 00 00 cb d7 bc 3e 74 0e 18 3f
       -0.4669551 0.0 0.36883387 0.59397054
000320 70 71 94 bf f4 92 94 bf bc 97 69 be 6a 88 03 bf
       -1.1597118 -1.1607347 -0.22811788 -0.51380026
000330 7f 92 7c 3f 54 ae 47 3f d1 ea 44 3f e4 77 bc 3e
       0.98661035 0.7800038 0.769208 0.3681022
000340 0d 74 4e 3d 00 00 00 00 7f 7e 48 3f 48 6e 55 3f
       0.050403643 0.0 0.7831802 0.833714
000350 df 1a bd 3f 53 2d 98 3f 00 00 00 00 cf 0e d2 be
       1.4773825 1.1888832 0.0 -0.41026923
000360 e9 42 38 3f 01 6d 3c 3f 8e fb 0f 3f 61 36 5f 3e
       0.71977097 0.73603827 0.56243217 0.21798088
000370 bc 9b 1e bf 00 00 00 00 9f 16 31 bf fa 3a 1f 3f
       -0.6195638 0.0 -0.6917514 0.62199366
000380 00 00 00 00 a8 f3 37 be 13 2a 08 bf 67 98 1a bf
       0.0 -0.17964041 -0.531892 -0.603888
000390 28 02 ca bd 7d b9 d2 be 90 9b 09 bf 00 00 00 00
       -0.098636925 -0.4115714 -0.53752995 0.0
0003a0 f3 3a 22 bf f3 c9 d4 bd e8 90 bd 3e 7a a8 7d 3f
       -0.633712 -0.10390081 0.37024617 0.990852
0003b0 93 36 93 be 37 88 94 be b5 1a 4e be 45 2c 57 bf
       -0.28752574 -0.29010174 -0.20127375 -0.84051925
0003c0 12 f2 81 be 76 51 82 be 00 00 00 00 3d 7d 92 3e
       -0.25379997 -0.25452775 0.0 0.28611174
0003d0 e6 d2 b6 3f ab c3 0d 3f 8e 31 cc be a2 a5 15 3e
       1.4283111 0.5537669 -0.39881557 0.14613965
0003e0 d6 b3 ab be a1 10 dc be 4a aa 8a bf 3d 6f 14 3f
       -0.3353564 -0.42981437 -1.0833218 0.57982236
0003f0 a5 99 0f 3f 29 13 0f 3f 15 37 24 3e f4 b6 fe be
       0.5609382 0.5588861 0.16036637 -0.49748957

module_list.0.input_quant.pre_transforms.0.running_mean f4 [784]
000000 6e 32 d9 be 6e 32 d9 be 6e 32 d9 be 6e 32 d9 be
       -0.42421287 -0.42421287 -0.42421287 -0.42421287
000010 6e 32 d9 be 6e 32 d9 be 6e 32 d9 be 6e 32 d9 be
       -0.42421287 -0.42421287 -0.42421287 -0.42421287
000020 6e 32 d9 be 6e 32 d9 be 6e 32 d9 be 6e 32 d9 be
       -0.42421287 -0.42421287 -0.42421287 -0.42421287
000030 6e 32 d9 be 2e 32 d9 be 2e 32 d9 be 6e 32 d9 be
       -0.42421287 -0.42421097 -0.42421097 -0.42421287
000040 6e 32 d9 be 6e 32 d9 be 6e 32 d9 be 6e 32 d9 be
       -0.42421287 -0.42421287 -0.42421287 -0.42421287
000050 6e 32 d9 be 6e 32 d9 be 6e 32 d9 be 6e 32 d9 be
       -0.42421287 -0.42421287 -0.42421287 -0.42421287
000060 6e 32 d9 be 6e 32 d9 be 6e 32 d9 be 6e 32 d9 be
       -0.42421287 -0.42421287 -0.42421287 -0.42421287
000070 6e 32 d9 be 6e 32 d9 be 6e 32 d9 be 6e 32 d9 be
       -0.42421287 -0.42421287 -0.42421287 -0.42421287
000080 cd 31 d9 be 8e 30 d9 be 67 2c d9 be 98 10 d9 be
       -0.42420807 -0.42419857 -0.4241669 -0.42395473
000090 e7 d8 d8 be 86 c3 d8 be 3c e9 d8 be e3 e7 d8 be
       -0.42352983 -0.42336673 -0.42365444 -0.42364416
0000a0 ac ec d8 be 52 eb d8 be af b2 d7 be da 92 d7 be
       -0.42368066 -0.42367035 -0.42128512 -0.42104226
0000b0 f3 91 d8 be af 8d d8 be 7f a7 d8 be 68 2f d9 be
       -0.4229885 -0.42295596 -0.4231529 -0.4241898
0000c0 60 2c d9 be 29 31 d9 be c3 27 d9 be 84 23 d9 be
       -0.42416668 -0.4242032 -0.42413148 -0.4240991
0000d0 6e 32 d9 be 6e 32 d9 be 6e 32 d9 be 6e 32 d9 be
       -0.42421287 -0.42421287 -0.42421287 -0.42421287
0000e0 6e 32 d9 be 6e 32 d9 be 6e 32 d9 be 6e 32 d9 be
       -0.42421287 -0.42421287 -0.42421287 -0.42421287
0000f0 58 30 d9 be 04 31 d9 be ff 28 d9 be d9 b6 d8 be
       -0.42419696 -0.42420208 -0.4241409 -0.42327002
000100 fb 1f d8 be fa 75 d7 be 41 e5 d5 be fb ef d1 be
       -0.422119 -0.42082196 -0.4177647 -0.41003403
000110 70 f1 cb be 61 fc c7 be 25 17 c0 be 69 2e ba be
       -0.3983264 -0.39059737 -0.37517658 -0.36363533
000120 46 0f bf be 33 f8 c7 be bf 5f c7 be 86 79 cc be
       -0.3731634 -0.39056548 -0.38940236 -0.39936465
000130 71 ca d4 be 88 60 d7 be a2 4b d8 be 80 5e d8 be
       -0.415607 -0.42065835 -0.42245203 -0.42259598
000140 85 37 d8 be f9 a0 d8 be 6e 32 d9 be 6e 32 d9 be
       -0.42229858 -0.42310312 -0.42421287 -0.42421287
000150 6e 32 d9 be 6e 32 d9 be 4e 32 d9 be 6e 32 d9 be
       -0.42421287 -0.42421287 -0.42421192 -0.42421287
000160 20 32 d9 be 85 31 d9 be 93 18 d9 be ee 54 d6 be
       -0.42421055 -0.42420593 -0.4240156 -0.4186167
000170 1f ab cf be 93 73 c9 be 44 27 bf be 14 66 b4 be
       -0.40560243 -0.3934599 -0.37334645 -0.3523413
000180 bf e2 a6 be b8 85 99 be 0e b8 80 be 95 0a 70 be
       -0.3259487 -0.29984832 -0.25140423 -0.23441537
000190 75 0d 82 be 2b b1 8e be cb b8 9b be cc b4 ad be
       -0.25400892 -0.27869543 -0.30414423 -0.33927
0001a0 01 28 c1 be 19 1e ce be 52 e1 d2 be 34 18 d6 be
       -0.37725833 -0.40257338 -0.4118753 -0.4181534
0001b0 bb 26 d8 be e8 2e d9 be 6e 32 d9 be 6e 32 d9 be
       -0.4221705 -0.424186 -0.42421287 -0.42421287
0001c0 6e 32 d9 be 6e 32 d9 be eb 31 d9 be 6e 32 d9 be
       -0.42421287 -0.42421287 -0.42420897 -0.42421287
0001d0 92 d1 d8 be ea fa d6 be 26 4b d4 be 16 fc cb be
       -0.4234739 -0.41988307 -0.41463584 -0.39840764
0001e0 c1 c5 b6 be f3 76 9a be fe df 73 be b2 94 22 be
       -0.3569775 -0.30168876 -0.23815915 -0.15877035
0001f0 42 a9 7b bd a3 41 49 3d fc 2b 0c 3e c9 77 2a 3e
       -0.061440714 0.04913486 0.13688654 0.16647257
000200 d1 62 0a 3e 22 26 99 3d 86 e4 12 bd f6 be 12 be
       0.13514258 0.074779764 -0.03586247 -0.14330658
000210 5c 7b 79 be 1a 5e a4 be 30 d1 c0 be 19 ef ce be
       -0.24363464 -0.32103044 -0.37659597 -0.40416792
000220 02 d2 d4 be 4b c3 d7 be 0f a9 d8 be 2c 2b d9 be
       -0.41566473 -0.42141184 -0.4231648 -0.4241575
000230 6e 32 d9 be 6e 32 d9 be 6d 32 d9 be bb 0a d9 be
       -0.42421287 -0.42421287 -0.42421284 -0.42391
000240 13 86 d6 be e1 c1 ce be 7f c5 c2 be 73 93 aa be
       -0.41899166 -0.40382293 -0.38041303 -0.3331562
000250 d5 7d 73 be de d9 02 be c3 e7 17 3c 9a 1e 37 3e
       -0.2377847 -0.12778422 0.009271565 0.17882767
000260 d7 06 b2 3e 57 78 07 3f 06 c3 25 3f 21 71 34 3f
       0.34770843 0.52918 0.6475071 0.7048512
000270 0e a3 2f 3f 0a 5c 13 3f b9 69 cf 3e dc 6c 42 3e
       0.68608177 0.57562315 0.40510347 0.18986839
000280 e7 09 91 3a 8b 26 19 be 57 83 8a be 3b bf b0 be
       0.0011065573 -0.14956109 -0.2705333 -0.34520897
000290 64 34 c4 be e5 fb d0 be a4 0a d8 be b4 27 d9 be
       -0.3832122 -0.4081718 -0.42195618 -0.42413104
0002a0 6e 32 d9 be 6e 32 d9 be 14 2e d9 be 6f dd d5 be
       -0.42421287 -0.42421287 -0.42417967 -0.41770503
0002b0 12 9d cd be e9 4c be be c9 11 a7 be 90 87 6c be
       -0.40158898 -0.37168053 -0.32630756 -0.23098588
0002c0 c3 ba c9 bd 1f 20 88 3d 9e d6 8a 3e d1 a0 fa 3e
       -0.09850075 0.066467516 0.27116865 0.48950818
0002d0 66 7c 34 3f ad 60 69 3f 31 f2 85 3f 13 58 8e 3f
       0.70502317 0.9116314 1.0464536 1.1120628
0002e0 54 7e 8b 3f 4b c8 80 3f 4d 45 53 3f c5 a0 0b 3f
       1.0897927 1.0061125 0.8252762 0.5454219
0002f0 36 9a 8b 3e 11 c4 d4 3c bb 3f 1f be f4 c4 8b be
       0.2726609 0.025972398 -0.15551655 -0.272987
000300 87 73 ad be cb 65 c7 be 15 6d d7 be 91 30 d9 be
       -0.33877203 -0.3894485 -0.4207541 -0.42419866
000310 6e 32 d9 be 6e 32 d9 be ee 13 d9 be 58 b8 d2 be
       -0.42421287 -0.42421287 -0.42398018 -0.41156268
000320 0a d1 c1 be 8d 9f a4 be 5e 4c 75 be a4 53 db bd
       -0.37854797 -0.32152978 -0.23954913 -0.107093126
000330 4d d9 38 3d 31 6b 8b 3e 24 ec 00 3f 72 24 44 3f
       0.04512911 0.27230218 0.5036032 0.7661811
000340 45 8f 7e 3f f8 99 90 3f 67 0a 9a 3f 59 1d 9e 3f
       0.9943736 1.1296988 1.2034425 1.2352706
000350 17 ed 9e 3f 1c cf 99 3f be f5 87 3f f4 84 4f 3f
       1.2416104 1.201633 1.062187 0.81062245
000360 76 ab fd 3e 57 66 46 3e 08 35 10 bd 4b fa 4f be
       0.49544877 0.19374977 -0.035206825 -0.20310323
000370 6b a7 9d be 45 ea c0 be 52 c7 d6 be 15 26 d9 be
       -0.30791792 -0.37678733 -0.41948944 -0.42411867
000380 6e 32 d9 be 6e 32 d9 be 35 aa d7 be 55 6a ce be
       -0.42421287 -0.42421287 -0.42122045 -0.403155
000390 fd 53 b8 be 62 87 92 be 45 40 35 be 30 b2 ef bc
       -0.36001578 -0.28618914 -0.17700298 -0.029259771
0003a0 5f 54 1a 3e 5c e2 cf 3e fa 27 34 3f 9b 42 70 3f
       0.15071248 0.40602386 0.703735 0.9385163
0003b0 ba 36 87 3f 76 45 8c 3f 31 89 89 3f 9f ba 8a 3f
       1.0563576 1.0958698 1.0744992 1.0838202
0003c0 c8 59 90 3f 43 43 94 3f 56 00 8b 3f 3b ef 64 3f
       1.1277399 1.1583027 1.0859478 0.89427537
0003d0 71 d1 17 3f 4f a5 93 3e ba 36 8f 3c d8 a7 41 be
       0.5930396 0.28837058 0.01748215 -0.18911684
0003e0 cd 17 a3 be c6 b4 c7 be 3f 6b d6 be c5 17 d9 be
       -0.31854096 -0.39005107 -0.41878697 -0.42400947
0003f0 74 0e d9 be 71 b3 d8 be 1a 58 d7 be bd fa cd be
       -0.4239384 -0.42324403 -0.42059404 -0.4023036

module_list.0.input_quant.pre_transforms.0.running_var f4 [784]
000000 1f cf 52 25 1f cf 52 25 1f cf 52 25 1f cf 52 25
       1.8284772e-16 1.8284772e-16 1.8284772e-16 1.8284772e-16
000010 1f cf 52 25 1f cf 52 25 1f cf 52 25 1f cf 52 25
       1.8284772e-16 1.8284772e-16 1.8284772e-16 1.8284772e-16
000020 1f cf 52 25 1f cf 52 25 1f cf 52 25 1f cf 52 25
       1.8284772e-16 1.8284772e-16 1.8284772e-16 1.8284772e-16
000030 c1 a8 4f 32 bb 3a bd 36 bb 3a bd 36 2e 34 28 32
       1.2087356e-08 5.639476e-06 5.639476e-06 9.790751e-09
000040 1f cf 52 25 1f cf 52 25 1f cf 52 25 1f cf 52 25
       1.8284772e-16 1.8284772e-16 1.8284772e-16 1.8284772e-16
000050 1f cf 52 25 1f cf 52 25 1f cf 52 25 1f cf 52 25
       1.8284772e-16 1.8284772e-16 1.8284772e-16 1.8284772e-16
000060 1f cf 52 25 1f cf 52 25 1f cf 52 25 1f cf 52 25
       1.8284772e-16 1.8284772e-16 1.8284772e-16 1.8284772e-16
000070 1f cf 52 25 1f cf 52 25 1f cf 52 25 1f cf 52 25
       1.8284772e-16 1.8284772e-16 1.8284772e-16 1.8284772e-16
000080 c7 64 86 35 71 f5 10 37 e0 17 8a 38 17 8f d1 39
       1.0013108e-06 8.640215e-06 6.5848e-05 0.00039970197
000090 9f 56 f9 3a be bb 32 3b 7e 05 65 3a b4 01 ac 3a
       0.0019023007 0.0027272548 0.0008736475 0.0013123066
0000a0 5c 9d b5 3a 8c 86 2e 3a 18 de f2 3b 2d ad f9 3b
       0.0013856101 0.0006657622 0.0074117295 0.007619521
0000b0 70 a5 0e 3b 81 5e 82 3b 9e 43 50 3b 31 a3 16 38
       0.002176609 0.003978551 0.0031778584 3.591477e-05
0000c0 17 ae 02 39 a4 22 e2 36 43 6e 19 39 d3 c0 95 39
       0.0001246262 6.7393576e-06 0.00014632293 0.0002856316
0000d0 1f cf 52 25 1f cf 52 25 1f cf 52 25 1f cf 52 25
       1.8284772e-16 1.8284772e-16 1.8284772e-16 1.8284772e-16
0000e0 1f cf 52 25 1f cf 52 25 bb e1 a6 2a 5e 7c 54 25
       1.8284772e-16 1.8284772e-16 2.9644156e-13 1.8430206e-16
0000f0 b2 89 bc 37 0b 3e 7d 36 0e 3d 58 38 db fd f3 3a
       2.2475466e-05 3.7736052e-06 5.1555275e-05 0.0018615084
000100 0b 0d 9b 3b 5f 40 06 3c 95 3e 72 3c 38 94 f8 3c
       0.0047317795 0.008194058 0.0147854285 0.030344114
000110 6f c3 7f 3d f6 72 ad 3d 58 d1 f1 3d bb 06 18 3e
       0.06244224 0.08469193 0.11807507 0.14846317
000120 bd 06 03 3e b3 8d a6 3d 1d 5d b7 3d 79 7a 81 3d
       0.12795539 0.08132496 0.08953307 0.06322188
000130 b1 a0 92 3c 7f 2c 04 3c 49 22 88 3b 8a ee 19 3b
       0.01789889 0.008067249 0.0041544777 0.0023488128
000140 86 70 a4 3b da 92 e5 3a 1f cf 52 25 1f cf 52 25
       0.0050182967 0.0017515079 1.8284772e-16 1.8284772e-16
000150 1f cf 52 25 1f cf 52 25 a2 79 1f 34 d8 38 cb 33
       1.8284772e-16 1.8284772e-16 1.4852279e-07 9.463264e-08
000160 f4 80 59 35 96 f7 d3 36 10 15 3b 39 47 08 32 3c
       8.102645e-07 6.317113e-06 0.00017841556 0.010866231
000170 17 e0 38 3d e9 06 9e 3d 84 ec 02 3e ad 62 41 3e
       0.045135584 0.07716162 0.12785536 0.18885298
000180 07 02 74 3e e7 b9 95 3e cd d7 db 3e 62 dd f0 3e
       0.23828898 0.29243395 0.4293808 0.47043902
000190 96 d8 d8 3e 6b 4d b0 3e 23 da 9b 3e 1d a2 5d 3e
       0.42352742 0.34434065 0.30439863 0.21643873
0001a0 2d d0 da 3d 33 02 49 3d b2 ec f1 3c 9c f6 87 3c
       0.10684238 0.049074363 0.02953181 0.016597085
0001b0 ea f2 3f 3b ed 2d 72 37 18 a5 77 2b 1f cf 52 25
       0.0029289075 1.4435017e-05 8.798114e-13 1.8284772e-16
0001c0 1f cf 52 25 1f cf 52 25 1f 4e 11 36 d0 22 87 33
       1.8284772e-16 1.8284772e-16 2.1652156e-06 6.29276e-08
0001d0 79 60 09 3a 5b 3d 19 3c 5e 48 98 3c f1 c2 5d 3d
       0.0005240511 0.009353007 0.018589195 0.05414099
0001e0 2d 6a 1b 3e 7e 33 99 3e 2c 7b e4 3e 02 44 1c 3f
       0.15177222 0.29922098 0.44625223 0.6104127
0001f0 1b dd 4d 3f f5 be 84 3f d3 11 9c 3f 88 a7 9f 3f
       0.80415505 1.0370775 1.219294 1.2473001
000200 bd 32 95 3f b1 e2 88 3f fe 0d 5e 3f 73 26 25 3f
       1.1656109 1.0694181 0.867401 0.64511794
000210 ed cb da 3e 87 8d 73 3e e3 8c e1 3d 8c 91 2f 3d
       0.42733708 0.23784457 0.110132 0.042863414
000220 41 c6 86 3c a9 1c af 3b a5 0a af 3a 96 c0 3a 38
       0.016451957 0.0053439927 0.0013354613 4.4525215e-05
000230 1f cf 52 25 1f cf 52 25 a2 8d 3e 34 85 a9 3e 39
       1.8284772e-16 1.8284772e-16 1.7746655e-07 0.00018182963
000240 b2 d4 f5 3b c3 8e 34 3d 7c dd c4 3d 43 72 4d 3e
       0.007502162 0.04408146 0.09612557 0.20063119
000250 69 3b df 3e 30 e5 34 3f 76 41 77 3f 6e bf a2 3f
       0.43600014 0.7066221 0.9658426 1.271467
000260 95 c5 c2 3f 2e 1a de 3f 8a ca ef 3f d4 5a f0 3f
       1.5216547 1.735174 1.8733685 1.8777719
000270 08 66 ee 3f 38 39 e1 3f d3 4e c9 3f bc 7d a1 3f
       1.8624887 1.7595587 1.572718 1.2616496
000280 e6 20 6d 3f 4a 7a 1f 3f a5 6b b3 3e 76 a9 32 3e
       0.92628324 0.62295973 0.35043064 0.17447457
000290 82 47 c8 3d fe 6a 09 3d e5 4f 64 3b 50 7e cb 38
       0.09779264 0.0335493 0.003483766 9.703322e-05
0002a0 1f cf 52 25 af cf 52 25 9f 59 91 38 ed 0e 76 3c
       1.8284772e-16 1.8284962e-16 6.930832e-05 0.015018207
0002b0 d1 fe 59 3d 8b bf 05 3e 08 54 6b 3e 09 11 e9 3e
       0.053221527 0.13061349 0.22981274 0.4552081
0002c0 74 0a 43 3f 31 95 8a 3f 99 23 b5 3f 24 0e da 3f
       0.76187825 1.082678 1.4151489 1.7035565
0002d0 07 44 ef 3f c5 a3 00 40 8b 94 01 40 d7 53 02 40
       1.8692635 2.0099957 2.0246913 2.0363672
0002e0 1c db 01 40 3e 6c 03 40 21 5f f9 3f 27 0f e0 3f
       2.0289984 2.0534816 1.9482156 1.7504624
0002f0 4f 9f b2 3f 95 9d 7c 3f 81 8f 1d 3f 16 68 b3 3e
       1.3954867 0.9867795 0.61547095 0.3504035
000300 2e 7e 48 3e ad ba 92 3d ba b7 af 3b c7 91 2a 38
       0.19579384 0.07164512 0.005362478 4.0666924e-05
000310 19 ea b2 2d e2 a5 23 32 12 09 ca 38 b1 f6 c4 3c
       2.0340217e-11 9.525566e-09 9.6338e-05 0.024043413
000320 40 8f c5 3d 2e d7 81 3e 02 d4 e4 3e 55 9e 40 3f
       0.096464634 0.25359482 0.44693 0.75241596
000330 8e 67 85 3f 5c d9 b6 3f 87 27 d4 3f 7d f0 e8 3f
       1.0422227 1.4285083 1.6574563 1.8198391
000340 bc e1 fb 3f 3f 46 ff 3f ed 9b f7 3f ba 93 fa 3f
       1.9678264 1.9943312 1.934446 1.9576333
000350 0d 08 fe 3f 36 75 fe 3f fa 55 fd 3f de 33 f9 3f
       1.9846207 1.987952 1.9791863 1.9468954
000360 5b 91 d6 3f 73 ef a4 3f 50 76 64 3f 0e 25 05 3f
       1.6763109 1.2885574 0.8924303 0.52009666
000370 6c e1 89 3e ab 26 de 3d 04 31 ee 3b c4 03 bc 38
       0.26929796 0.10847219 0.0072690267 8.96524e-05
000380 25 ab b8 2f 3d 21 49 34 1e c1 ce 3b fe 64 23 3d
       3.359101e-10 1.8731676e-07 0.0063096425 0.039891236
000390 53 9b 1f 3e 79 46 a9 3e 6d 4d 18 3f 0c 97 69 3f
       0.15586595 0.3306158 0.5949314 0.91246104
0003a0 99 6a 9d 3f 9e f6 ca 3f c9 a1 eb 3f 52 71 fb 3f
       1.2298156 1.5856512 1.8408748 1.9643958
0003b0 7d 7d 00 40 ee 2a ff 3f 73 c0 fd 3f 2d a1 fb 3f
       2.0076592 1.9934976 1.9824356 1.9658562
0003c0 59 23 ff 3f 79 fd fa 3f aa 59 00 40 d6 e0 ff 3f
       1.9932662 1.9608604 2.0054727 1.999049
0003d0 f8 c0 e7 3f 20 fd b8 3f 54 28 7e 3f 7b 4a 0d 3f
       1.8105764 1.4452248 0.99280286 0.55191773
0003e0 74 2e 80 3e 4f d1 99 3d b8 7a 47 3c a7 14 da 39
       0.2503544 0.075106256 0.0121752545 0.00041595587
0003f0 88 9a 28 3a 40 4e 99 3a 4b 80 a5 3b d6 69 5c 3d
       0.00064317184 0.0011696294 0.005050694 0.05381187

module_list.0.fc.weight f4 [256, 6]
000000 c2 ac ec 3d 76 79 40 3e e2 88 d7 3e 91 3f b3 bf
       0.115563884 0.18796334 0.4209662 -1.4003774
000010 ad c2 36 3f f5 bd 5e bf 68 ef 7e bd a1 60 9d be
       0.713908 -0.870086 -0.062240034 -0.30737785
000020 0f 01 dd 3f 41 b7 6d 3d cb 80 a4 bf 40 6a bf bf
       1.7265948 0.058036093 -1.2851804 -1.49543
000030 a2 27 24 be 18 29 2b be 5c 4d 5b 3f 63 26 12 40
       -0.16030744 -0.16714895 0.85664916 2.283593
000040 ae 5b 42 be 96 f3 95 3e 14 9e 8c bf 13 3b 01 c0
       -0.18980286 0.29287404 -1.0985742 -2.0192306
000050 76 ca aa bd 00 eb a9 3e 3a 58 75 3e 2f 54 86 bd
       -0.083393976 0.33187103 0.23959437 -0.065590255
000060 76 a7 e2 3d 7a 7e 69 be 6e 01 1c 3f 6f c9 84 bf
       0.11067097 -0.22802153 0.6093968 -1.0373973
000070 62 45 56 3f b7 ab a3 3f 79 31 5d bf a9 34 b7 be
       0.8369962 1.2786778 -0.86403614 -0.35782364
000080 ef e1 32 40 be 52 b1 3d 6a e2 8b 3f e8 14 31 be
       2.79504 0.0865836 1.0928471 -0.17293131
000090 38 c6 d4 bf b3 21 5c be 6d eb 34 bf 0e f2 f6 be
       -1.6622992 -0.2149723 -0.7067173 -0.48231548
0000a0 84 08 3a be ac cc e6 bf e9 f9 0e 3f a6 6d 08 bc
       -0.18167311 -1.8031211 0.5585008 -0.0083269235
0000b0 a1 f6 80 3f 7a ea 86 3d 59 56 7a 3f 41 79 93 be
       1.0075265 0.065876916 0.97788006 -0.28803447
0000c0 ec 22 a0 3f 96 67 51 3f c1 4c 2d bf a5 2d ae 3d
       1.2510657 0.81798685 -0.6769524 0.085048
0000d0 c0 6a 89 bf fd 3a 65 bd 80 e8 40 3f 70 06 16 3f
       -1.0735703 -0.05596446 0.75354767 0.5860357
0000e0 0c c3 9d 3f 1c 22 b7 3f 0d cf 47 be 93 2c c3 be
       1.2325149 1.4307284 -0.19512577 -0.38119945
0000f0 d5 93 aa 3e 73 98 ab 3f a6 7e ab 3f e6 86 d7 be
       0.33315912 1.3405899 1.3398025 -0.42095107
000100 78 25 df be c6 84 67 3e 99 5c c5 3e 01 44 aa bb
       -0.43583274 0.22609243 0.3854721 -0.005196095
000110 6b 80 7c 3d 44 26 d9 3e ed db be 3f 12 9c 46 bf
       0.061645906 0.42412007 1.4910866 -0.77581894
000120 f9 52 94 bc 71 bf ab be 73 60 1d be 17 af a5 be
       -0.01810597 -0.33544496 -0.15368824 -0.32360145
000130 45 03 d4 3f 38 e9 bb bf 98 ea 48 3e 8c 7f 2a be
       1.6563498 -1.4680548 0.1962074 -0.16650218
000140 d0 f5 57 bf ad 36 df bd 70 04 2c 40 3b bc a9 3f
       -0.84359455 -0.108991005 2.6877708 1.3260568
000150 3d 78 81 be 99 ac bc 3d 77 f2 9a be 67 c6 bf 3e
       -0.25287047 0.09212608 -0.3026311 0.37456056
000160 4f 5e 75 3e 48 43 78 3e 6c 22 96 3d 68 ba 2d 3e
       0.23961757 0.24244416 0.07330784 0.1696564
000170 58 1b c5 bd b9 04 4e bf a0 05 7e 3f 1d 4d 2a 3f
       -0.09624356 -0.80475956 0.99227333 0.66523916
000180 b2 21 b1 3f b3 50 a9 bf f0 a9 e0 3e d9 63 c5 bf
       1.3838408 -1.3227752 0.43879652 -1.5421096
000190 ec 02 3c be 74 55 86 be 07 04 93 bf d9 c7 ca bf
       -0.1836049 -0.2623707 -1.1485604 -1.5842239
0001a0 66 1f 31 bf 09 49 6e 3f fb a1 ae 3f 30 2e 21 3e
       -0.69188535 0.9308019 1.3643183 0.15740275
0001b0 f8 39 99 3e a6 2c 85 be 98 9f 47 40 65 78 28 be
       0.2992704 -0.26010627 3.1191158 -0.16452177
0001c0 7f ed fd 3e 80 0f c5 bc 41 5b 2d bf a8 c3 44 bf
       0.49595258 -0.024055243 -0.6771737 -0.7686105
0001d0 02 e0 df be ce 39 be be 10 7f f9 3d 5f 0f f0 3d
       -0.43725592 -0.37153476 0.121824384 0.11721682
0001e0 59 42 0f bf 34 68 fe 3e 26 1a 83 3e ce 17 8f bf
       -0.55960613 0.49688876 0.25605887 -1.117914
0001f0 8e b7 65 bf 34 4a c7 3f f8 08 71 3e 1b cf 88 3f
       -0.8973321 1.556952 0.23538578 1.0688204
000200 6a 3f 56 bf 2e fd 1e be bd ea 84 bf 91 7b 09 3e
       -0.8369051 -0.15526268 -1.0384136 0.13426043
000210 6b f4 a5 be cb 37 5f 3f 19 cf a0 3f de be 00 bf
       -0.3241304 0.8719451 1.2563201 -0.5029124
000220 a7 a1 66 3e 2c fb a8 3e 19 e9 0c be 25 00 b0 3c
       0.22522603 0.3300413 -0.13760795 0.021484444
000230 24 a3 88 3e d7 56 17 c0 16 aa 89 3c 24 22 87 3d
       0.26686966 -2.3646753 0.016804736 0.06598309
000240 68 84 4d 3f 56 7e cf 3e b7 10 b5 be ad 89 49 be
       0.8028016 0.40526074 -0.35364315 -0.19681425
000250 3f 48 73 be aa 86 fc 3e c5 d5 d8 bc ad 99 db bd
       -0.23758028 0.4932149 -0.02646912 -0.10722671
000260 bd 72 22 3f 78 78 b9 bf 70 01 a0 3e ce c7 47 3d
       0.63456327 -1.4489889 0.31251097 0.048774533
000270 5a e5 13 bf a2 d4 87 bd f2 79 a7 bf 14 18 59 3c
       -0.5777184 -0.06632353 -1.308409 0.01325037
000280 30 57 89 3f 89 0f 1a bf ce 4d bd be 52 ed 08 3d
       1.0729733 -0.60179955 -0.36973423 0.03342945
000290 b5 68 87 be 55 eb 1f be e4 6b a9 3c 88 56 a6 be
       -0.26447073 -0.15617116 0.02068133 -0.32487893
0002a0 e3 26 a4 be ef fc 8b bf 25 c6 51 be 2a cf a5 bc
       -0.32060918 -1.0936564 -0.20485742 -0.020240385
0002b0 42 9e d9 be bc 2c 05 c0 12 aa bb 3e 56 6f 43 bf
       -0.42503554 -2.0808554 0.3665319 -0.7634176
0002c0 9d 7d 95 3f 59 03 d1 3b 2b f5 a9 be 02 48 f9 3e
       1.1678959 0.006378573 -0.3319486 0.4868775
0002d0 e5 b5 69 bf 0e 4e a1 3f a5 73 5a 3f 58 76 b1 3d
       -0.91293174 1.2601945 0.8533271 0.086651504
0002e0 8e 80 96 3f f6 5e 3c be e9 e9 2a be 4e 2f 9b 3f
       1.1757982 -0.183956 -0.16690792 1.2123811
0002f0 7f c2 7d be 5d ef 4f bf 8a 65 cd 3e 2a 3e 90 3f
       -0.24781226 -0.81224614 0.4011653 1.1268971
000300 32 20 1f 3e 15 ec 12 bf c5 af 98 be f6 6f 43 bf
       0.15539625 -0.5739148 -0.29821602 -0.76342714
000310 b5 3f 5f 3f b5 3b cc 3d 38 d3 6e 3e d1 24 b9 3f
       0.87206584 0.09972326 0.23322761 1.446436
000320 0b 43 3b be 72 0f 72 3e 87 75 2a 40 e9 61 54 bf
       -0.18287294 0.23638704 2.6634233 -0.829619
000330 f0 94 fe bf 73 a9 9d bd 02 16 02 40 94 b1 1c bf
       -1.9889202 -0.076983355 2.0325933 -0.6120846
000340 cc ba 32 bf 6b 5a 33 be fb dc 2b 3f 59 d2 ec 3f
       -0.6981628 -0.1751496 0.67134064 1.8501693
000350 8b ce 02 bf 03 a0 e7 3e 5f b3 6e bd 0c 9e b2 bd
       -0.5109641 0.45239267 -0.05827653 -0.08721551
000360 27 88 9a 3d bc a7 96 bf f9 0f df 3e 76 dd 5c be
       0.075455 -1.1769938 0.43566874 -0.21568856
000370 69 f4 d5 bf df 8b 9d bc d2 86 0b bd 99 69 6f 3e
       -1.6715213 -0.019231735 -0.03406412 0.23380126
000380 87 0c b9 3f be 4a 25 be d4 f3 16 bf 07 4c 51 be
       1.4456948 -0.16141793 -0.589658 -0.20439158
000390 7b 9e 9e 3e 39 aa e9 3f 40 28 2a 3f 54 06 bb be
       0.30980286 1.8255073 0.66467667 -0.36528265
0003a0 10 7b 29 3f 83 d6 7a 3d 64 44 d3 be a5 e7 92 3f
       0.66203403 0.06123973 -0.41263115 1.1476942
0003b0 5e cf ad bd fb 44 56 bf 10 d4 db 3f ef 3b ba be
       -0.08486818 -0.83699006 1.7174091 -0.3637385
0003c0 18 4c 70 be 04 fa d6 3f 19 8a d9 3e 81 5d 17 bf
       -0.23466527 1.6795049 0.42488173 -0.5912705
0003d0 b9 ba 89 3e 13 c9 84 3e 4f 19 15 bf 09 72 ce 3e
       0.2690027 0.25934657 -0.5824174 0.40321377
0003e0 62 f0 1c 40 76 fb cb bf a5 a6 c4 be bb 79 3b 3e
       2.4521718 -1.5936115 -0.3840839 0.18308155
0003f0 dc cb 27 c0 79 62 b6 be a3 9f 37 bf 40 fb 97 3e
       -2.6218176 -0.35622004 -0.7172796 0.29683876

module_list.0.fc.bias f4 [256]
000000 ee 7d 07 bd d9 4e 74 bc 89 d4 08 3c 73 da ea 3d
       -0.03307908 -0.014911377 0.008351454 0.11467447
000010 8e 01 05 3d 49 d6 47 bb ac 8b 0c 3e 97 aa cc 3e
       0.032472186 -0.0030492714 0.13725156 0.399739
000020 dd 92 b9 bd 40 a7 56 3e 62 8d 0c be dd 41 19 3c
       -0.09061215 0.20962238 -0.13725808 0.009354082
000030 8c d2 fe bd 92 63 89 3d c1 b0 70 bc 07 d4 a7 bc
       -0.124425024 0.06708445 -0.014690579 -0.020486845
000040 b6 42 83 3d 73 19 07 3e 96 cf 93 3e 7d fc 65 3d
       0.064092085 0.13193302 0.28869313 0.056148995
000050 7c 4d f6 bc 01 6f ab bc d1 6b a5 3d b1 81 bc bd
       -0.030066244 -0.020926954 0.08077205 -0.09204424
000060 fe f2 a0 be 84 0d fb bc 12 29 06 be 2a d7 60 3c
       -0.31435388 -0.030646093 -0.13101605 0.013723174
000070 5b da b4 3e 0b 24 bd 3c b8 2e 48 bd 10 cb 69 3e
       0.35322842 0.023088476 -0.04887268 0.22831368
000080 57 c4 c8 bd 99 0c 9a be e4 be df bc 75 e2 85 bb
       -0.09803074 -0.30087736 -0.027312703 -0.0040858337
000090 78 77 bc bd 20 fd d7 3d e9 6f 09 3d e7 fc 3e be
       -0.09202474 0.10546327 0.03355399 -0.18651162
0000a0 96 68 40 3e d2 ec 19 3e f0 a3 08 be 27 78 b3 3e
       0.18789896 0.15031746 -0.13343787 0.35052606
0000b0 fc dc 1c 3e 54 29 44 3d bb 5a bc bc 14 22 b4 bd
       0.15318674 0.047890976 -0.022992482 -0.087955624
0000c0 10 93 2f 3e 13 fc 17 3c 0a 3f 15 3e de d6 b6 3d
       0.17145944 0.009276408 0.14574829 0.089277014
0000d0 d1 40 5e 3d 46 db bd bc 00 0f 00 3d 88 b6 28 be
       0.054261032 -0.023175847 0.031264305 -0.1647588
0000e0 f1 27 a0 be 00 50 03 b9 ae 45 0f be 9e 65 a3 bc
       -0.31280473 -0.00012522936 -0.13991424 -0.019945916
0000f0 5b 56 bc bd 11 36 94 be ab 75 58 be 46 52 8e be
       -0.091961585 -0.289475 -0.21138637 -0.27797145
000100 37 79 cc 3c 23 9e 53 3c f8 19 d4 3d ab 85 95 bc
       0.024960143 0.012916121 0.10356516 -0.018252214
000110 93 40 01 3d 01 5f ec bc 43 dd 89 bd 99 80 13 bd
       0.031555723 -0.028853895 -0.067316554 -0.036011312
000120 2b 31 00 bd 2d 53 88 3c 81 89 15 3b dc f9 68 3c
       -0.03129689 0.016641224 0.0022817554 0.014219727
000130 b0 52 71 be af 54 e1 3d 03 e6 4a 3c b3 22 a7 3c
       -0.23566699 0.1100248 0.012383941 0.020402288
000140 a8 f6 5f bc 5a 92 b1 bd 79 7f 15 3d 29 23 bc 3d
       -0.013669647 -0.086704925 0.03649852 0.09186394
000150 f5 a9 03 3d 9e 9a 14 3c 2a 11 2f 3d ee 6f 21 3d
       0.032144506 0.009070067 0.04274098 0.039413385
000160 61 04 a2 3d 01 c1 53 bd 02 81 00 3d 2e ce 57 be
       0.079109915 -0.051697735 0.03137303 -0.21074745
000170 56 f7 e0 3d 4a de 7f be 0a 21 a3 be 07 7a b2 3c
       0.109846756 -0.2498714 -0.31861144 0.021786703
000180 67 ac 9e bd f0 76 ce bd ec d1 dd bc 85 b6 95 bd
       -0.07747727 -0.10081279 -0.027077638 -0.073102035
000190 05 04 6f bc c3 8d 23 3e 1b 4d 03 bc 20 fa 8e 3f
       -0.014588361 0.15972047 -0.008013989 1.1170082
0001a0 8e c8 10 3b 18 c9 4c bd f2 3e 2e be 11 2e 4c 3e
       0.0022092196 -0.049996465 -0.17016199 0.19939448
0001b0 fb 2a 50 bd e3 8d f5 3d bc 33 82 3c 29 0d 83 3d
       -0.05082224 0.11989953 0.01589381 0.063989945
0001c0 3c 7b ff 3d ab 4f 8b 3d eb d4 e9 bc 75 a9 f5 3d
       0.12474677 0.06802305 -0.02854391 0.11995212
0001d0 3e ab 84 bc 93 9f f4 bd 1a ee 91 3c d8 f0 d1 3c
       -0.016194936 -0.11944499 0.017813731 0.025627539
0001e0 57 e0 d4 bd 77 63 61 be 7e 90 10 be 23 47 82 be
       -0.10394352 -0.22010599 -0.1411762 -0.25444898
0001f0 3c d3 e5 bc 2b e2 11 be b6 91 91 3d a1 12 9c bd
       -0.028054826 -0.14246432 0.0710787 -0.07620741
000200 27 a6 6d 3e fa 01 7c bd 33 df 2e 3e 88 c1 be 3e
       0.23207913 -0.061525322 0.17077331 0.37257028
000210 1b de 85 3e 96 8d 98 3f 94 e0 94 3d ba a6 e8 bc
       0.26146016 1.1918209 0.072693974 -0.028399814
000220 27 ee 1c 3e ed 69 07 bf 7c ca 0e 3e a1 2b 6d 3d
       0.15325223 -0.52896005 0.13944429 0.057902936
000230 fb bf a8 3d eb 80 c7 bd f3 62 e7 3d 4a c6 bd bd
       0.08239742 -0.09741386 0.1129817 -0.09266336
000240 c1 02 3f bd 91 01 1f 3e 14 f8 89 bc 4c 94 00 3d
       -0.046633486 0.15527941 -0.016841926 0.031391427
000250 98 df ca bd 71 2a ea 3d e7 a9 33 bf 48 4c 38 3c
       -0.099059284 0.11433876 -0.70181125 0.011248656
000260 5d 18 45 3e 10 35 d6 bc f8 8c e5 3d 26 1f e0 3d
       0.19247575 -0.026148349 0.11208528 0.10943441
000270 7f 37 88 be bd 07 1d 3d cd 2e ab bd 14 1b da 38
       -0.2660484 0.038337458 -0.08358536 0.00010400094
000280 6c 41 58 bd 33 b6 1e 3e cb b1 b6 bc db fc ca 3d
       -0.052796766 0.15499191 -0.022301575 0.099115096
000290 59 c0 6b be 56 db f6 3d 50 18 46 be d9 40 ab bc
       -0.23022594 0.12053554 -0.19345212 -0.020904945
0002a0 7c d3 7a 3e ba 92 87 bc dc f7 6b 3d 6c a3 6c 3e
       0.24494737 -0.016549457 0.057609424 0.23109215
0002b0 45 4e 0c bc 8d db d0 3c 8d e2 e0 3d 85 77 69 3c
       -0.008563583 0.025495315 0.10980711 0.014249687
0002c0 a8 ed 35 3e ae 7d 93 3c d8 24 8f bc a4 c3 01 3e
       0.1776644 0.018004265 -0.017473623 0.12672287
0002d0 2c 9d 7e 3d 37 d1 f7 bd 30 fd 8c 3c 4e c5 3f bc
       0.06216161 -0.121004514 0.017210573 -0.011704756
0002e0 b6 39 c9 3d 6d 76 a0 3c f0 fa 4a 3e 0b 30 73 3e
       0.098254606 0.01958772 0.19822288 0.23748796
0002f0 33 1d 01 3d 3f 22 63 bd fb 36 03 bc 5b 4c 62 bc
       0.031521987 -0.05545258 -0.008008714 -0.01381215
000300 e8 64 90 3c 33 4f 72 3e 55 28 70 3d 38 07 0e 3d
       0.01762624 0.23663025 0.058632214 0.034674853
000310 47 d6 79 bd 0b 52 20 bd 8a e4 89 3a d8 77 31 be
       -0.060995366 -0.039140742 0.001052038 -0.17330873
000320 a4 a0 93 3d 78 43 98 bb df 7e 95 3e 42 55 75 be
       0.07208374 -0.004646715 0.29198357 -0.23958305
000330 65 d5 3c bd b2 20 e3 bd ce 58 f5 3d b4 bd a1 3d
       -0.046101946 -0.110902205 0.11979829 0.07897511
000340 58 8b 37 bc 53 b9 6e bc eb 3c 35 3e d0 f2 f1 bd
       -0.011202656 -0.014570552 0.1769902 -0.11813891
000350 f5 2d a8 bc 82 0b 1a be e9 db 78 bb 09 64 06 3e
       -0.020529727 -0.15043452 -0.0037972874 0.13124098
000360 ef 1a 1c 3e 87 33 2a 3e 85 ec 93 3c e5 a7 b3 3b
       0.1524465 0.16621219 0.018057117 0.005482661
000370 93 0f 8b bc 23 ce 21 3d ca 51 00 be 65 cb 5f 3c
       -0.0169752 0.039503228 -0.125312 0.013659333
000380 f0 3d 5c be c9 e5 ad bc ec 8e 01 bd e6 39 de 3d
       -0.21508002 -0.021227734 -0.03163044 0.10850887
000390 cb 9e 5d be 6c 27 db bd 3f 8d 99 3d 97 4e 13 3d
       -0.21642606 -0.107008785 0.07497644 0.03596362
0003a0 a0 34 53 bd 2d 3e 2d be d3 4c b1 bd 43 8e d3 3c
       -0.05156386 -0.1691825 -0.08657231 0.025824672
0003b0 03 3f a7 3d a6 91 50 3d d7 9b 06 3e 5f f2 5f 3d
       0.081663154 0.05092015 0.13145386 0.054674502
0003c0 ed 26 cf 3d 8e 11 a1 3d 98 80 8e bf 8d 19 f1 3c
       0.101148464 0.078646764 -1.1132994 0.029431129
0003d0 a6 47 32 be 55 39 53 be f4 2e 28 3e ab 1c eb bd
       -0.17410144 -0.20627339 0.16424161 -0.11480077
0003e0 61 0e b0 3c 10 53 05 3e 4a 21 89 3d 7b 1e f0 be
       0.021491231 0.13019967 0.066958025 -0.46898255
0003f0 8e f3 6c 3c 7a c4 09 be 80 f5 16 bf 6d 77 bd 3d
       0.014462365 -0.13453856 -0.58968353 0.09251294

module_list.0.output_quant.pre_transforms.0.weight f4 [256]
000000 7e 44 14 3f fd 18 83 3f 50 48 e8 3f 3f 46 5b 3f
       0.5791701 1.0242001 1.8147068 0.8565406
000010 b7 af d3 3f d1 5d 1f 3f 14 65 95 3f 1f 5a e4 3f
       1.6537999 0.6225253 1.1671472 1.7840003
000020 ec 3d 96 3f 56 47 51 3f 2b b5 86 3f 5c 73 8f 3f
       1.1737647 0.81749475 1.0524038 1.120708
000030 ad fb 49 3f b5 b9 43 3f 00 00 80 3f 3f 9a 8d 3f
       0.7889965 0.7645524 1.0 1.1062697
000040 e5 f7 61 3f 84 6d 94 3f 10 48 71 3f 47 8c 17 40
       0.8826888 1.1595922 0.94250584 2.3679368
000050 1e 3e 6f 3f d4 11 94 3f b6 e3 7f 3f 17 fc e9 3f
       0.9345416 1.1567941 0.99956834 1.8280057
000060 b7 7b ac 3f 60 39 96 3f 8a fc 3c 3f 00 00 80 3f
       1.3475255 1.173626 0.73822844 1.0
000070 6c 15 8f 3f e3 06 80 3f b9 ac c4 3f fc 2e 4b 3f
       1.1178412 1.0002102 1.5365211 0.7936857
000080 41 91 8c 3f a2 44 86 3f 3b 6d 81 3f 9b 7c 60 3f
       1.0981828 1.0489695 1.011146 0.8769013
000090 64 ec 37 3f 80 65 6a 3f 99 15 80 3f 8e fc 91 3f
       0.7184508 0.91561127 1.0006591 1.1405199
0000a0 bb 44 79 3f 2c 48 25 3f 20 67 99 3f d2 e6 90 3f
       0.973705 0.6456325 1.1984596 1.1320441
0000b0 17 99 94 3f db 83 5b 3f b1 1a 21 3f 90 e7 03 40
       1.1609219 0.8574807 0.6293135 2.0610085
0000c0 a1 7f a5 3f ca de 7c 3f c5 b8 a2 3f 18 82 bf 3f
       1.2929574 0.9877745 1.2712637 1.4961576
0000d0 e7 71 80 3f 7c 18 1e 40 02 81 5f 3f 1c 30 71 3f
       1.003476 2.4702444 0.87306225 0.94214034
0000e0 e9 d4 9a 3f 00 00 80 3f 4f 6d 89 3f c0 36 57 3f
       1.2096225 1.0 1.0736483 0.84067917
0000f0 16 ed 98 3f c6 ec af 3f 58 73 3c 3f b5 9b 53 3f
       1.1947353 1.3744133 0.736135 0.82659465
000100 00 00 80 3f 93 91 4b 3f 74 ac ba 3f bd e1 5e 3f
       1.0 0.79519004 1.4583879 0.870632
000110 0a 7b 8e 3f 00 00 80 3f ba 42 70 3f a8 44 77 3f
       1.1131299 1.0 0.93851817 0.96589136
000120 71 88 42 3f 78 0d 10 3f 8b 10 c5 3f 00 00 80 3f
       0.75989443 0.5627055 1.5395674 1.0
000130 71 d0 b3 3f ae 1b 56 3f f6 15 c0 3f b7 0a 79 3f
       1.4047986 0.83635986 1.5006702 0.97281975
000140 c0 64 1f 3e 86 9a 05 40 09 3f 93 3f 76 3c 88 3f
       0.15565777 2.0875564 1.1503612 1.0643451
000150 51 e2 9f 3f 87 83 d1 3f ed ef 93 3f 37 36 42 3f
       1.2490941 1.6368264 1.1557595 0.75863975
000160 fc 2b 6b 3f 34 de 88 3f f7 bf be 3f 11 dd bc 3f
       0.9186399 1.0692811 1.4902333 1.4754964
000170 70 39 7e 3f a5 e6 aa 3f ec 60 15 40 00 00 80 3f
       0.9930639 1.3351637 2.3340406 1.0
000180 54 a3 9f 3f 6f b4 52 3f 11 41 6c 3f e4 85 8c 3f
       1.2471719 0.8230657 0.92286783 1.097836
000190 00 00 80 3f 27 3c 3d 3f 4f 53 ce 3f 83 2c 2b 3f
       1.0 0.7391991 1.6119174 0.66864794
0001a0 60 ee 67 3f da fa 84 3f 22 a4 cb 3f ad e6 8b 3f
       0.90598106 1.0389054 1.5909464 1.0929772
0001b0 c6 a6 b1 3f a2 95 87 3f 00 00 80 3f 5f 6c be 3f
       1.387902 1.0592539 1.0 1.4876822
0001c0 d1 af fa 3f 3a e1 41 3f 64 81 53 3f 73 5a 40 3f
       1.9584905 0.75734293 0.8261931 0.75138015
0001d0 00 00 80 3f 20 be 41 3f 00 00 80 3f 46 b4 53 3f
       1.0 0.7568073 1.0 0.8269695
0001e0 ba 55 85 3f cb 61 55 3f 88 ce 73 3f d1 90 39 3f
       1.0416787 0.83352345 0.95237017 0.724866
0001f0 00 00 80 3f c6 45 b6 3f 7c d1 3a 3f 04 75 94 3f
       1.0 1.4240043 0.729759 1.159821
000200 6f d7 9d 3f 5d 26 fe 3e ce 23 74 3f a0 6e 6f 3f
       1.233137 0.49638644 0.95367134 0.93528175
000210 ec a5 5e 3f 25 42 09 3f b7 0f ff 3f 1e 9c 93 3f
       0.86971927 0.53616554 1.9926671 1.1532018
000220 81 6b 8d 3f 17 b9 4f 3f cd 51 08 3f 2e ba 9d 3f
       1.1048433 0.811418 0.5324982 1.2322443
000230 ae ac 73 3f 4d 6b ae 3f 94 da 75 3f d0 ef ad 3f
       0.95185363 1.3626496 0.9603665 1.358881
000240 22 c8 76 3f ef 41 b0 3f 53 e3 1e 3f e2 4c da 3f
       0.9639913 1.3770121 0.6206562 1.7054713
000250 e1 82 8b 3f 47 f5 a9 3f aa bc 1f 3f e5 23 24 3f
       1.0899316 1.3277978 0.62397254 0.6411727
000260 73 58 81 3f d8 de 3f 3f 99 69 c4 3f fd 0f 36 3f
       1.0105118 0.7494941 1.5344726 0.71118146
000270 78 de 95 3f 64 a5 64 3f 2c c8 81 3f 55 39 4c 3f
       1.1708517 0.89314866 1.0139213 0.7977498
000280 c9 e7 9e 3f 54 0c 43 3f 1b 46 bf 3f 32 54 50 3f
       1.2414485 0.76190686 1.494327 0.8137847
000290 bf 8a 37 3f 96 e6 99 3f b0 b0 8c 3f b9 ba bf 3f
       0.71696085 1.2023494 1.0991421 1.4978858
0002a0 33 71 39 3f 00 00 80 3f 99 d6 c5 3f b5 28 45 3f
       0.72438353 1.0 1.5456115 0.7701524
0002b0 00 00 80 3f 7a d7 89 3f c5 7c 5f 3f 6c d0 3e 3f
       1.0 1.0768883 0.8729976 0.74536777
0002c0 53 41 26 3f c3 79 0a 3f 85 38 74 3f 85 f6 98 3f
       0.64943427 0.54092044 0.9539874 1.1950232
0002d0 f3 eb df 3f f0 6c 8f 3f d3 a7 ab 3f 00 00 80 3f
       1.7493881 1.120512 1.3410591 1.0
0002e0 0b 0a 0a 40 d0 51 63 3f 57 f2 67 3f 51 df 00 40
       2.156863 0.8879671 0.90604156 2.0136302
0002f0 a0 c1 99 3f 82 af 8d 3f 74 0b 70 3f d9 cf 59 3f
       1.2012215 1.1069186 0.93767476 0.85082775
000300 7e 38 5f 3f ad 7e 7e 3f 68 83 e7 3f e3 a8 8b 3f
       0.87195575 0.9941204 1.8086977 1.0910915
000310 ad d1 17 3f 78 b7 ce 3f 98 a0 6e 3f 34 17 9b 3f
       0.59304315 1.614974 0.93213797 1.2116456
000320 32 43 9e 3f 24 f7 d7 3f a2 1e 96 3f 37 1f 09 40
       1.2364256 1.6872296 1.1728098 2.1425302
000330 5c 88 54 3f 57 20 73 3f 28 c5 a3 3f 68 5d 29 3f
       0.8302057 0.9497122 1.2794542 0.6615815
000340 86 ab 80 40 00 00 80 3f 85 c7 76 3f 08 24 51 3f
       4.020938 1.0 0.9639819 0.81695604
000350 00 00 80 3f 9d d0 22 40 f9 0b 6d 3f 20 40 52 3f
       1.0 2.5439827 0.92596394 0.82129097
000360 fb 94 15 40 28 8d 89 3f 3f fa 9e 3f 00 00 80 3f
       2.337218 1.0746202 1.2420119 1.0
000370 00 00 80 3f 1f dd 4e 3f e9 41 69 3f fe 2b 96 3f
       1.0 0.80806154 0.91116196 1.1732175
000380 6f 9c e4 3f de 9b 71 3f 00 00 80 3f e6 4c 43 3f
       1.786024 0.9437846 1.0 0.7628921
000390 7e da 88 3f 66 b1 99 3f 32 7f 8f 3f 7a ee 85 3f
       1.0691679 1.2007263 1.1210692 1.0463402
0003a0 2f 11 9e 3f 6d f9 d4 3f 75 e6 47 3f d4 56 5b 3f
       1.2348994 1.6638619 0.78086025 0.85679364
0003b0 c3 ff df 3f c1 78 bd 3f 8c b5 a5 3f 1d 53 df 3f
       1.7499927 1.4802476 1.2946029 1.7447239
0003c0 bf 31 4f 3f 41 d6 47 3f 92 8e 3b 40 37 e7 aa 3f
       0.8093528 0.780613 2.9305768 1.3351811
0003d0 f8 10 8a 3f 07 eb be 3f 24 40 55 3f 65 44 cf 3f
       1.0786428 1.4915475 0.83300996 1.6192747
0003e0 f8 91 b3 3f 65 86 82 3f a5 2a 73 3f 90 0c 02 40
       1.4028921 1.0197264 0.94986945 2.0320168
0003f0 44 c4 28 3f f0 c6 59 40 52 d4 1e 3f ff 03 d2 3f
       0.6592448 3.4027672 0.62042725 1.640747
