examples/jet_substructure/polylut_averaging/averaging_jscxl_deg2_ensemble_size1/best_accuracy.pth (torch, 132817 bytes, 99 tensors)

ensemble.0.module_list.0.mask f4 [5, 2]
000000 00 00 80 3f 00 00 00 00 00 00 00 00 00 00 80 3f
       1.0 0.0 0.0 1.0
000010 00 00 00 40 00 00 00 00 00 00 80 3f 00 00 80 3f
       2.0 0.0 1.0 1.0
000020 00 00 00 00 00 00 00 40
       0.0 2.0

ensemble.0.module_list.0.input_quant.pre_transforms.0.weight f4 [16]
000000 2a eb bd 3f d1 c9 ac 3f e1 51 f7 3f 01 ac b6 40
       1.4837391 1.349909 1.9321862 5.7084966
000010 ee ad 0a 40 74 fc 87 3f bc c4 78 3f 13 33 da 3f
       2.1668658 1.0623918 0.9717519 1.7046837
000020 0b 51 91 3f c7 a9 b9 3f a5 93 c6 3f 88 92 e6 3f
       1.1352857 1.4504937 1.5513808 1.8013468
000030 a7 8e 05 40 87 e5 bd 3f f8 78 fd 3f 89 e8 aa 3f
       2.0868318 1.4835671 1.9802542 1.3352214

ensemble.0.module_list.0.input_quant.pre_transforms.0.bias f4 [16]
000000 18 37 ee be 2a e2 e6 3f d6 58 54 bf c8 fb d7 3f
       -0.46526408 1.803777 -0.8294805 1.6873713
000010 2d ff 45 bf 95 10 29 bf 05 3c 27 be 4f 91 08 bf
       -0.7734249 -0.6604093 -0.1633149 -0.53346723
000020 fc c6 03 bf f5 03 94 3e 98 a9 61 3e 2b 69 74 3e
       -0.514755 0.2890927 0.22037351 0.23868243
000030 38 bb c1 3d 44 81 20 bf bf 6d 2c bf d4 e0 b0 bf
       0.09459537 -0.62697244 -0.6735496 -1.3818612

ensemble.0.module_list.0.input_quant.pre_transforms.0.running_mean f4 [16]
000000 6d a6 26 bc 4c 62 45 3c a9 55 b1 3b c4 b8 3e 3b
       -0.010171515 0.012047362 0.005411823 0.0029101828
000010 12 6c 29 3b e1 0f 85 b9 29 4c b7 bb 07 6d 23 bc
       0.0025851768 -0.00025379568 -0.005593796 -0.009974725
000020 29 4c b7 bb a1 bb 2f 3b f8 75 da 3b 65 6e 14 3b
       -0.005593796 0.0026814716 0.006666895 0.0022648808
000030 9c 81 33 3b 0c 6a 38 bb 58 e4 e0 3b 98 7a eb 3b
       0.0027390486 -0.002813938 0.006863158 0.007186245

ensemble.0.module_list.0.input_quant.pre_transforms.0.running_var f4 [16]
000000 c4 64 7c 3f 60 fe 77 3f 5b b0 7e 3f ab b0 7e 3f
       0.98591256 0.9687252 0.9948785 0.99488324
000010 bc bf 7d 3f 43 c4 7e 3f 2f a9 7a 3f e8 14 75 3f
       0.9912069 0.9951822 0.97914404 0.95735025
000020 2f a9 7a 3f cb d8 7d 3f 8a 46 7f 3f f4 46 7e 3f
       0.97914404 0.99158925 0.9971701 0.99327016
000030 3d c0 7d 3f b9 74 7c 3f 0b f2 7f 3f ac c1 80 3f
       0.9912146 0.98615605 0.99978703 1.0059104

ensemble.0.module_list.0.fc.weight f4 [128, 5]
000000 e8 15 2a 41 d1 3f 93 40 aa de df bf 34 f7 fe be
       10.630348 4.60154 -1.7489827 -0.49797976
000010 01 78 b7 be 9f 0a f3 c0 ef 74 d3 c0 12 ac c2 3f
       -0.35833743 -7.5950465 -6.608024 1.5208762
000020 a0 63 98 3d 65 e3 6b 3f 7c 37 dd 40 e3 63 52 c1
       0.07440877 0.9214385 6.913023 -13.149386
000030 c3 18 8a 3e 06 e7 b6 3f b6 9e 06 3f 52 75 00 c0
       0.26972017 1.4289253 0.52585924 -2.0071607
000040 e9 59 a4 41 10 10 55 3c 81 02 c5 bf 4f 88 50 3f
       20.543901 0.013004318 -1.5391389 0.8145799
000050 b6 bd 48 c0 fc 42 29 bf 3c c9 ac c0 14 b6 3a c0
       -3.136579 -0.66117835 -5.3995647 -2.9173632
000060 09 09 7a c0 8a 92 b8 40 ed d6 f8 c0 c9 f8 7a bf
       -3.9068015 5.767888 -7.776236 -0.98035866
000070 b7 6e 8f 3f e0 23 ae bd bb 27 09 3e 4f a6 37 be
       1.1205662 -0.08502936 0.13394062 -0.17934535
000080 1f bb c2 3c 00 f3 97 3d de 93 8e 3d f4 81 3d 3c
       0.023770867 0.074193954 0.06961797 0.011566628
000090 67 b3 a0 3d 4d f9 d2 3e 3c 7f b8 3c 48 a9 e4 be
       0.07846718 0.41205826 0.022521608 -0.446604
0000a0 54 b6 bb 3e 62 2d 46 3e f2 c6 91 be 1e 5f ad 3e
       0.36662543 0.1935325 -0.28472096 0.3386163
0000b0 df b4 06 be a3 01 74 c1 42 60 d2 3f 44 2f 6f c0
       -0.13154934 -15.2504 1.6435626 -3.7372599
0000c0 97 ac 08 40 e3 b8 b4 3e 03 bf 53 3e d6 0b b0 3c
       2.135534 0.35297307 0.20678334 0.021490019
0000d0 59 3b 9a be c2 b2 bd 3d dc 84 2c be 8c 00 bf be
       -0.30123404 0.09262611 -0.16847557 -0.37305105
0000e0 a6 50 80 3d 1b c6 68 3e ab 19 d4 be b8 f1 d6 bd
       0.062653825 0.22731821 -0.41425833 -0.10495323
0000f0 f4 0c b2 3e fd b1 97 3d 78 8e b9 3c 04 e1 3e 3e
       0.34775507 0.074069954 0.022650942 0.18640524
000100 2b ba b7 be 9a 31 b6 be e0 ef 40 3e 2c 75 e6 bd
       -0.35884222 -0.35584718 0.18841505 -0.112528175
000110 29 54 c2 3e e0 11 af bd 59 cf 01 c1 04 bf 6a c0
       0.37954834 -0.08548331 -8.113122 -3.6679087
000120 12 c9 ce 3f 6f 39 18 40 29 d4 0f 40 22 22 14 3e
       1.6155112 2.3785055 2.2473242 0.14466146
000130 a2 c7 c7 3e 67 0d cb 3e aa 88 56 3e 83 95 e3 be
       0.39019495 0.39658663 0.2095057 -0.44450006
000140 ad 42 04 41 1f c8 5f c0 e5 8c 52 c0 88 e6 03 c0
       8.266278 -3.4965894 -3.2898495 -2.0609455
000150 bf 31 0c 3e 8a 05 33 3c d1 92 4e c1 4d e0 00 c0
       0.13690852 0.010926614 -12.910844 -2.0136902
000160 4b 6a 2e 40 db 5b ac 3d 59 05 f5 c0 75 3f 43 bf
       2.7252376 0.084159575 -7.656903 -0.762687
000170 7b 03 11 c0 a0 ca 55 40 af f5 05 40 ca af e8 bd
       -2.2658374 3.3404922 2.0931203 -0.11361654
000180 f4 df 3e 3d 07 fb a1 3e db c8 48 be 73 57 91 3e
       0.046600297 0.3163683 -0.1960787 0.2838703
000190 28 98 ff bd 9b 75 da 3e 26 e7 b5 3d c4 23 48 be
       -0.124801934 0.4266785 0.08881979 -0.19544894
0001a0 98 e9 3b bd fc fd 46 c1 28 64 51 40 71 bb 23 bf
       -0.04587707 -12.437008 3.271738 -0.6395789
0001b0 63 fb 4b c0 8d a1 9b 3c de 67 38 bd 58 53 8d 3e
       -3.1872184 0.018997932 -0.04502093 0.2760265
0001c0 fa dd b6 3e fd a6 cb be 2e 16 c7 3e b7 bb 16 41
       0.3571623 -0.3977584 0.3888411 9.420829
0001d0 a3 94 28 3f 60 c4 4c c0 62 6f f9 be 66 4e 37 3d
       0.658518 -3.1994858 -0.4871779 0.0447525
0001e0 53 07 14 3f 5c 04 5b bc 70 ad 99 be a9 e5 f9 be
       0.57823676 -0.013367739 -0.30015135 -0.4880803
0001f0 1a d7 6d be a0 e5 14 c1 08 7b 8a bf 8a 7c a0 40
       -0.23226586 -9.306061 -1.0818796 5.0152025
000200 c8 59 95 be f7 cd a8 3f 99 d9 28 41 c5 8d 56 c0
       -0.2917006 1.3187855 10.553124 -3.352403
000210 a4 97 d3 bd 7a b9 e3 bf aa 3b 23 be 91 53 78 41
       -0.103316575 -1.7790978 -0.15940729 15.520402
000220 36 90 6a 3e df 21 cc bf 96 ff 06 40 8b ff ed bd
       0.22906575 -1.5947837 2.1093497 -0.116210066
000230 20 88 bb bf 01 18 df 40 35 6a 96 c0 3f 5b 78 bf
       -1.4650917 6.97168 -4.7004647 -0.9701423
000240 d6 38 e8 bf 5b 19 ea 40 3c e5 ac 40 9c e7 ec be
       -1.8142345 7.315595 5.4029827 -0.46270454
000250 6d 36 03 c0 25 0f bf be 0b b8 c0 3d 49 c0 e4 be
       -2.050197 -0.37316242 0.094101034 -0.44677952
000260 3b 9d 78 3e 6f 59 23 3e 40 18 a1 3b 3f 8e 0b 3e
       0.24278729 0.15952085 0.004916221 0.13628481
000270 4c 51 b1 3c 27 60 38 3d 5a a0 c5 3e 1d c3 b9 be
       0.02164521 0.045013573 0.385989 -0.36281672
000280 8a 95 b8 3d 9c af 86 bd 94 1d 86 be 17 46 38 be
       0.09012897 -0.065764636 -0.2619444 -0.17995487
000290 57 77 d8 be 99 53 eb be f3 c5 77 3e 9d 51 9c be
       -0.4227855 -0.45962217 0.24196605 -0.30531016
0002a0 45 df 5b 3e 67 b1 a8 3e 2f 1e 2b 41 79 8f 2f bf
       0.2147189 0.32947847 10.694869 -0.68578297
0002b0 b1 d1 18 bf b1 ad 09 c1 57 1f 1b c0 72 9b 64 3e
       -0.59694964 -8.604905 -2.4237878 0.22324923
0002c0 80 4d d2 bd 88 98 a7 be 23 8b 10 3e 49 c0 9c be
       -0.10268688 -0.3273356 0.14115576 -0.30615452
0002d0 a8 a9 10 c0 70 d5 7c 40 8d c2 9c 3e 7c 9f 13 c0
       -2.260355 3.9505272 0.3061718 -2.3066092
0002e0 80 7d 0d c1 8d c9 35 be c6 94 04 be 2d 12 1d 3e
       -8.84314 -0.17752667 -0.12947378 0.15338965
0002f0 fb bb 3e 3e 52 b0 be be bb 11 27 bd f2 0c 44 41
       0.18626396 -0.37243897 -0.040788393 12.25316
000300 72 a9 2c 3f 13 53 7a bf e3 ba d4 bf 66 30 d0 bd
       0.67446053 -0.9778301 -1.6619533 -0.10165481
000310 ea 40 6b bd 18 9c 38 3e 79 4b f8 3c a4 ef 49 be
       -0.057434954 0.18028295 0.030309426 -0.19720322
000320 d9 bc fb 40 18 50 85 c0 cf f1 d5 bf f4 48 66 bf
       7.8668027 -4.166027 -1.6714419 -0.8995507
000330 a6 a6 06 40 30 c0 82 40 51 f2 aa c1 ce 71 a8 be
       2.1039214 4.0859604 -21.368319 -0.32899326
000340 a6 0a a1 3f 69 07 56 3f 7d ce cc 40 d4 8d ab c0
       1.2581375 0.83605057 6.400206 -5.361063
000350 68 66 38 c0 0b 75 f7 3c 78 b2 10 3f 1c 1f 03 c1
       -2.8812504 0.030207178 0.5652232 -8.195095
000360 46 81 ac 40 ff 53 f5 3d 96 88 15 40 f4 a0 dc bf
       5.3907804 0.119789116 2.3364615 -1.7236619
000370 e6 4d ca c0 8b fb 95 c0 ca 8b 5c c0 c4 9e d1 bf
       -6.322009 -4.686956 -3.446032 -1.6376576
000380 41 6e b1 bf 14 0b 15 40 bf 30 cd c1 e6 44 b1 bf
       -1.3861772 2.3288012 -25.648802 -1.3849151
000390 8a 68 10 3f 36 ad 4d 40 23 a4 cc c0 e8 3b 28 3f
       0.56409514 3.213697 -6.395036 0.6571641
0003a0 7b c3 73 3f 01 51 53 3f f2 20 91 c0 21 60 28 40
       0.95220155 0.8254548 -4.5352716 2.6308672
0003b0 d1 7b 4e c1 b2 a2 3a 3e bb 13 4b 3f e8 52 00 40
       -12.905229 0.18226126 0.7932698 2.0050602
0003c0 e6 c9 26 bf 43 67 04 3f 96 fd 35 3e f8 80 2d bf
       -0.6515182 0.51720065 0.17772517 -0.67774916
0003d0 a5 6c 7d bd 12 12 64 40 03 77 9a c0 af 94 62 40
       -0.06187119 3.563603 -4.827028 3.540325
0003e0 6d b4 85 c0 cd d1 4f c0 05 0b a7 c0 17 0a 8a c0
       -4.1782746 -3.2471802 -5.220095 -4.3137317
0003f0 db 24 ab 40 e5 f5 f4 bf d8 db 49 40 d1 45 e1 40
       5.348249 -1.9137541 3.1540432 7.0397725

ensemble.0.module_list.0.fc.bias f4 [128]
000000 c6 60 74 be dc 36 60 bc 98 66 19 be 22 99 ce 3d
       -0.23865041 -0.0136849545 -0.14980543 0.100878015
000010 a3 6f c0 3d e0 cc 06 3d 20 3f 87 3c 10 98 5e 3e
       0.09396293 0.032910228 0.016509593 0.21737695
000020 fa ee 57 be 1f c1 9b 3c 94 d3 55 be a8 69 50 bd
       -0.21087256 0.019012986 -0.20881492 -0.05088201
000030 e8 7b 16 3e b0 7b a1 bd be ff b4 3d 70 03 10 3d
       0.14695704 -0.0788492 0.088378415 0.03515953
000040 80 05 85 3e d0 a8 54 3d 75 c5 af bc 42 3f 0b 3e
       0.2598076 0.051918805 -0.02145646 0.1359835
000050 70 b0 28 3e 80 1b 4a be 7a dc 25 3e 21 4b 6a bf
       0.16473556 -0.19737053 0.16197386 -0.9152089
000060 bf 5a 04 be 81 7c 3f 3e 83 a4 97 bd 3b 53 b4 3d
       -0.12925242 0.18699838 -0.07404425 0.088049375
000070 84 7f 29 be 98 36 b1 3f 20 b0 29 be 40 0b 97 bc
       -0.1655255 1.3844786 -0.16571093 -0.018437982
000080 58 df be 3d 4a 34 a7 3c 9c 3d 09 be be 98 7b be
       0.09319943 0.020410676 -0.13402408 -0.24569985
000090 59 5a 29 3e 80 4f 75 3e 12 c6 00 3d e4 87 bc bd
       0.16538371 0.23956108 0.031438895 -0.092056066
0000a0 80 55 23 3e ea ad f8 be 03 c2 a2 3d 05 c1 12 3e
       0.15950584 -0.48570186 0.07947161 0.14331444
0000b0 cc 0b 0b be 08 0e 5e be 01 4c 3d be 8e d9 cf 3d
       -0.13578719 -0.2168504 -0.18486024 0.10148917
0000c0 32 9a 2d 3d 62 43 28 3e 5a 01 c6 bb b9 07 41 3e
       0.04238338 0.16431955 -0.0060426416 0.18850602
0000d0 35 7e 54 3d 64 82 db 3e 47 e1 7c 3e b8 4e eb 3d
       0.051878173 0.42872918 0.24695311 0.11489624
0000e0 cf 7c 51 bd e8 90 6a be 9e 64 0b 3e e8 21 b5 3e
       -0.051144417 -0.2290684 0.13612601 0.3537743
0000f0 71 34 c8 3d d0 5d 1e bd e7 0b 0f 3e bf 17 24 3e
       0.097756274 -0.038663685 0.13969384 0.16024683
000100 68 73 41 be 89 d9 18 3d 82 75 e7 3d 2b be ec 3d
       -0.1889168 0.037316833 0.1130171 0.11559709
000110 b2 d7 4b 3c c3 cf 4e 3c 0b aa 1b be c7 90 5f 3d
       0.0124415625 0.012622776 -0.15201585 0.05458143
000120 b1 e5 59 3d 6f 08 69 3e 64 eb 9e bd f4 61 cb 3d
       0.053197566 0.22757123 -0.07759741 0.099307925
000130 19 fb cc be bb 53 79 be 57 0f 2d 3e 80 50 e1 bc
       -0.40035322 -0.24348347 0.16900383 -0.027504206
000140 c4 41 26 3d 94 77 2f be 95 bc b9 be 2e a0 a1 bd
       0.040590063 -0.17135459 -0.3627669 -0.0789188
000150 7f a6 0b 3d ce 29 50 be 14 36 59 be 56 6e 13 3d
       0.03409433 -0.20328447 -0.21212035 0.035993896
000160 56 36 04 be 45 b7 8c 3d ea 66 e9 3d d0 a9 0a bd
       -0.12911353 0.068708934 0.113965824 -0.033853352
000170 6c 53 b4 be 7c 7c 8f bc 10 8d bf 3c 21 8e 61 3e
       -0.35219896 -0.017515413 0.023382694 0.22026874
000180 f9 5f 21 be 81 49 a3 3e 38 c6 e6 bd 84 e5 3e 3e
       -0.15759267 0.31892017 -0.11268276 0.18642241
000190 a8 ed 1c 3d 68 43 d5 3d 64 ab 79 bf de 5e 33 3e
       0.038312584 0.10413247 -0.97527146 0.17516658
0001a0 59 78 18 3e 8c 8f bf bd 3e ec ce 3d e7 2e b0 bd
       0.14889659 -0.09353551 0.10103653 -0.08602696
0001b0 48 2f 73 be c0 e9 cf bb c2 ba 2d be cb 54 75 be
       -0.23748505 -0.006345004 -0.16965774 -0.23958127
0001c0 db 4f bc 3e c1 69 ba 3d 80 56 42 be 20 84 42 3c
       0.36779675 0.09102202 -0.1897831 0.011872321
0001d0 cd 32 30 3e a7 3e 17 3e 24 1a 50 3e 9f 13 62 3d
       0.17206879 0.14769994 0.20322472 0.055194493
0001e0 64 fe 42 be c0 64 9d bb 34 9e c7 3d 84 53 26 be
       -0.19042355 -0.00480327 0.09746972 -0.16242796
0001f0 78 01 2f 3e fa 75 92 3e a4 35 d2 3d b0 32 8f 3c
       0.17090404 0.28605634 0.102641374 0.017480224

ensemble.0.module_list.0.output_quant.pre_transforms.0.weight f4 [128]
000000 e4 24 fd 3f fd 27 4b 40 af db 3f 3f d7 d3 e4 40
       1.9776883 3.1743157 0.74944586 7.1508594
000010 e2 28 8a 40 2d d2 a2 3f 00 00 80 3f 00 00 80 3f
       4.3174906 1.272039 1.0 1.0
000020 59 2a 44 3e 5b f9 71 40 00 00 80 3f 00 00 80 3f
       0.1915678 3.7808444 1.0 1.0
000030 00 00 80 3f 00 00 80 3f 13 91 ff 3f 00 00 80 3f
       1.0 1.0 1.9966148 1.0
000040 fa d5 3b 40 1f ab f3 3f 7d ed 86 3f 00 00 80 3f
       2.934935 1.9036597 1.0541226 1.0
000050 00 00 80 3f 39 85 c8 3f 00 00 80 3f 58 3d 2d 41
       1.0 1.5665656 1.0 10.8274765
000060 fe 14 63 3d da df 87 40 cb 77 d3 3f 6a 44 18 40
       0.05543994 4.2460756 1.6520933 2.3791757
000070 c5 fb 3e 40 8f 56 11 40 00 00 80 3f 00 00 80 3f
       2.9841168 2.270908 1.0 1.0
000080 00 00 80 3f 37 e3 25 bd 59 00 44 40 00 00 80 3f
       1.0 -0.040499892 3.0625212 1.0
000090 af 33 3e 40 00 00 80 3f 42 a7 e3 3f 00 00 80 3f
       2.9719045 1.0 1.7785418 1.0
0000a0 41 94 fb 3f 4a f1 02 40 7d 7a 7a 40 93 85 06 40
       1.9654619 2.045977 3.913726 2.1019027
0000b0 b8 4a 2d 40 51 88 fa 3f a9 b8 a5 3f 12 b8 1a 40
       2.7076855 1.957285 1.2946979 2.4174848
0000c0 9a 6f 66 3e 6c 1f 2d 40 53 bd df 3f b4 eb a8 3f
       0.2250351 2.7050428 1.7479652 1.3196931
0000d0 bd 46 b2 3f 60 8a ae 40 c5 58 17 40 00 00 80 3f
       1.3927838 5.4543915 2.364793 1.0
0000e0 6f 54 a8 3f 00 00 80 3f 28 55 a7 40 e6 25 c2 40
       1.3150767 1.0 5.229145 6.0671263
0000f0 fb e2 6d 40 00 00 80 3f ee f3 d0 3f 94 97 eb 3f
       3.7169788 1.0 1.6324441 1.8405633
000100 ff 1d c3 3f 2e b3 46 3e 09 f3 e5 3f 00 bd 3a 40
       1.5243529 0.19404289 1.7964793 2.9177856
000110 a0 91 37 40 d6 c3 4c 40 97 4a a9 3e b2 3d b5 3f
       2.8682632 3.1994529 0.3306472 1.4159453
000120 8f 53 cc 3f 15 b9 ec 3f 00 00 80 3f cf d7 d1 40
       1.5963 1.8493983 1.0 6.557594
000130 75 4d b0 3f 43 9f 85 40 b0 a7 ee 3f 00 00 80 3f
       1.3773638 4.175691 1.8644924 1.0
000140 82 41 c9 3d 00 00 80 3f 8b 8d b7 3f 05 c0 20 40
       0.09826948 1.0 1.434007 2.51172
000150 d8 2e 00 41 39 dd 73 40 5b cd bc 3f 03 51 a9 3f
       8.011436 3.8103774 1.475017 1.3227848
000160 00 00 80 3f ed 97 29 40 ea 07 9d 3f 00 00 80 3f
       1.0 2.6498978 1.226804 1.0
000170 73 59 e9 3f bd 28 61 3f 00 00 80 3f 3a fd 2a 40
       1.8230423 0.87952787 1.0 2.6717057
000180 00 49 10 40 c9 8b f2 3f f0 ff 3a 40 89 3a ca 3f
       2.2544556 1.8948909 2.9218712 1.5799114
000190 00 00 80 3f 00 00 80 3f d1 bd db 40 00 00 80 3f
       1.0 1.0 6.866921 1.0
0001a0 ad ec 58 40 00 00 80 3f d6 3e c9 3f 32 68 d0 3f
       3.3894455 1.0 1.5722301 1.6281798
0001b0 00 00 80 3f 00 00 80 3f 00 00 80 3f 04 dc c9 3f
       1.0 1.0 1.0 1.5770268
0001c0 54 01 eb 3f 8c 80 09 40 5b b7 49 3f 00 00 80 3f
       1.835978 2.1484709 0.78795403 1.0
0001d0 66 fc f0 3f dc 25 e8 3f 00 00 80 3f 2b ce e9 3f
       1.8827026 1.8136554 1.0 1.8266042
0001e0 d0 e6 83 40 00 00 80 3f 00 00 80 3f c7 37 2a 3e
       4.1219254 1.0 1.0 0.1662284
0001f0 31 b7 16 40 9d 68 c6 3f 87 ee ad 3e 00 00 80 3f
       2.354931 1.5500675 0.33971044 1.0

ensemble.0.module_list.0.output_quant.pre_transforms.0.bias f4 [128]
000000 06 05 3f 40 62 00 1d 40 4d 69 fd 3f ef cd 9a 3f
       2.9846816 2.4531484 1.979776 1.2094096
000010 30 21 d3 3f 4f 30 83 40 00 00 00 00 00 00 00 00
       1.6494503 4.099647 0.0 0.0
000020 16 eb 02 bf 47 64 a4 3f 00 00 00 00 00 00 00 00
       -0.5113996 1.2843102 0.0 0.0
000030 00 00 00 00 00 00 00 00 11 aa 77 3f 00 00 00 00
       0.0 0.0 0.96743876 0.0
000040 a1 55 e0 3f 80 fc 68 40 a3 63 d0 40 00 00 00 00
       1.7526132 3.6404114 6.5121627 0.0
000050 00 00 00 00 d8 c0 51 40 00 00 00 00 58 fd b9 c0
       0.0 3.2773952 0.0 -5.8121758
000060 27 4e 64 bf e9 a1 51 bd a4 d8 25 40 8b eb 80 be
       -0.8918175 -0.0511798 2.5913477 -0.25179705
000070 90 d6 2e c0 45 93 63 40 00 00 00 00 00 00 00 00
       -2.7318459 3.5558636 0.0 0.0
000080 00 00 00 00 65 6f 50 bf 01 52 c1 bf 00 00 00 00
       0.0 -0.81419975 -1.5103151 0.0
000090 4b 4e 14 40 00 00 00 00 82 70 50 40 00 00 00 00
       2.3172786 0.0 3.256867 0.0
0000a0 d0 ad 09 40 21 0b 64 40 06 5d 3a 40 3e 50 bf 3f
       2.1512337 3.5631793 2.9119277 1.4946363
0000b0 8e 54 71 40 c5 c5 6c 40 a7 bf 42 40 a6 59 04 40
       3.7707858 3.699571 3.0429475 2.0679717
0000c0 66 02 55 bf 9e 48 30 c0 9b 39 28 40 36 d1 93 3f
       -0.83206785 -2.7544322 2.628516 1.1548221
0000d0 a4 46 07 40 56 22 b8 3e 8d dd 31 3f 00 00 00 00
       2.1136866 0.35963696 0.69478685 0.0
0000e0 cd 4f 32 40 00 00 00 00 ee 11 17 40 80 39 ef bd
       2.7861207 0.0 2.3604693 -0.11680889
0000f0 a6 52 52 bf 00 00 00 00 66 e6 6f 40 f5 06 e8 3f
       -0.8215736 0.0 3.7484374 1.8127123
000100 2c dc 77 3f 76 68 31 bf ac 7c 38 40 76 a6 8e 40
       0.9682033 -0.6930002 2.8826094 4.45782
000110 f3 f9 16 40 57 f5 7f 40 3e 65 1c bf 6b 60 7d 40
       2.3590057 3.9993494 -0.61091983 3.95901
000120 67 fd 05 40 7e e9 43 3f 00 00 00 00 2b 4e 42 40
       2.0935915 0.76528156 0.0 3.036021
000130 29 2c 67 40 16 08 82 bf cb e0 38 40 00 00 00 00
       3.6120703 -1.0158718 2.8887203 0.0
000140 cf ac 32 be 00 00 00 00 f8 df 26 40 7a 63 89 40
       -0.17448734 0.0 2.60742 4.293393
000150 4c 63 86 bf 35 44 1f 40 c3 b9 87 40 82 54 25 40
       -1.0499053 2.488538 4.241426 2.583283
000160 00 00 00 00 b1 2b 87 bf 1a 5a 83 40 00 00 00 00
       0.0 -1.0560209 4.1047487 0.0
000170 97 1b 41 40 17 cf 38 40 00 00 00 00 c2 1f d8 3e
       3.017309 2.8876398 0.0 0.4221173
000180 f9 ba 55 3f a3 dd 4e 40 48 e1 02 40 fd 58 3a 40
       0.8348842 3.2322776 2.045 2.9116814
000190 00 00 00 00 00 00 00 00 64 f7 c4 40 00 00 00 00
       0.0 0.0 6.155199 0.0
0001a0 39 86 39 bf 00 00 00 00 f0 ef 50 40 7e d8 64 3f
       -0.7247043 0.0 3.2646446 0.8939284
0001b0 00 00 00 00 00 00 00 00 00 00 00 00 5c 84 47 40
       0.0 0.0 0.0 3.1174536
0001c0 fc 3e 87 40 ae f2 20 40 9a fb 64 3f 00 00 00 00
       4.2264385 2.514812 0.89446414 0.0
0001d0 10 94 22 40 ab 0d 38 40 00 00 00 00 27 0f 17 40
       2.540287 2.8758342 0.0 2.3602998
0001e0 bb 20 35 3e 00 00 00 00 00 00 00 00 b2 39 3f bf
       0.17688267 0.0 0.0 -0.7469741
0001f0 02 c9 14 40 3e a0 99 40 fa b4 74 bf 00 00 00 00
       2.3247685 4.800811 -0.9558865 0.0

ensemble.0.module_list.0.output_quant.pre_transforms.0.running_mean f4 [128]
000000 c6 3a d8 c1 8e 1e be 41 dc 4c a1 41 62 38 69 c1
       -27.028698 23.76492 20.162529 -14.576265
000010 89 e5 16 c2 7e 13 35 41 5b db 63 3e e0 82 88 bf
       -37.724155 11.317259 0.22251646 -1.066494
000020 1d f9 69 bf 9d c9 92 be 8d a7 21 c0 90 12 69 bf
       -0.9139574 -0.28669444 -2.5258515 -0.9104395
000030 56 19 65 bf e6 56 00 c0 68 10 a4 41 32 35 31 3f
       -0.89491785 -2.0053039 20.50801 0.69221795
000040 e6 ad 9d c1 47 ce 59 41 53 c4 6e 40 a0 5e c8 3f
       -19.709911 13.612861 3.7307327 1.5653877
000050 74 ba 4f bf 94 30 2b c1 32 d5 18 40 28 60 d4 c1
       -0.8114388 -10.69936 2.3880124 -26.546951
000060 60 14 0f bf fe 4f 1c 42 91 f8 3f bf 8e b1 78 c1
       -0.55890465 39.078117 -0.7498866 -15.543348
000070 2d 9d 27 c2 86 37 cb 40 cd fb 3b 40 24 9d 63 be
       -41.903492 6.350528 2.9372437 -0.22227913
000080 7d 67 42 c0 e8 29 be 3f aa 75 b2 c0 06 e1 05 c0
       -3.0375664 1.4856539 -5.5768633 -2.0918593
000090 e4 dc 32 c2 05 f4 93 bf 09 9b d4 c0 8d 72 b4 be
       -44.715714 -1.1558844 -6.643925 -0.35243645
0000a0 a2 38 64 40 26 3a 24 42 af 04 89 c0 04 d7 51 c0
       3.5659566 41.056786 -4.2818217 -3.2787485
0000b0 d6 cb 1f c1 2d 81 60 42 6a 91 9e c1 90 1f b9 41
       -9.987265 56.12615 -19.821003 23.140411
0000c0 ff fd a5 3f 1e cf dd 40 43 96 e3 41 e4 1f b1 bf
       1.2968138 6.931533 28.44837 -1.3837857
0000d0 ee 6e ed c1 f9 70 e2 40 db 5f 03 c2 ca df 50 bd
       -29.679165 7.0762906 -32.84361 -0.050994672
0000e0 fd cd 70 40 59 f2 4d 3e 47 21 39 c0 ae ed a3 c0
       3.7625725 0.2011198 -2.892656 -5.1227636
0000f0 03 7d 7a 40 fa ed a8 3f de 80 af 40 35 2f 43 41
       3.91388 1.3197625 5.484481 12.199025
000100 b6 5b 9b c1 7f ff 38 40 a4 7c 55 41 bf 05 46 c1
       -19.41978 2.8905942 13.34293 -12.376403
000110 aa 40 50 c1 11 2e 2b c1 91 81 47 bf 4a c2 8d 41
       -13.015787 -10.698747 -0.7793208 17.719868
000120 5e 85 c6 c1 61 4d 1b 42 d7 f7 b1 bc 61 f4 e3 41
       -24.81512 38.825565 -0.021724625 28.494326
000130 f7 ed c3 40 ea a5 b0 c1 10 b9 1f 41 51 b3 c1 be
       6.1227984 -22.081013 9.982681 -0.3783212
000140 d6 04 e9 bf 27 9d 99 3f 9d a0 ff 41 5f 5e 03 42
       -1.8204601 1.2001084 31.953424 32.84216
000150 01 47 e6 c1 e5 62 4a c1 2f 1d c4 c1 8c 37 a8 3e
       -28.78467 -12.649144 -24.51425 0.3285488
000160 25 15 c5 bc 41 45 7a 42 48 d9 0f 41 84 c0 b4 bf
       -0.024057934 62.56763 8.990547 -1.4121251
000170 a2 bb eb c0 cc 26 1c c1 2e de 03 3f 4b 51 c0 40
       -7.3666544 -9.759472 0.51510894 6.0099235
000180 fc 21 c8 41 d9 08 7b 3f b0 20 9e 41 cb b9 03 c1
       25.016594 0.98060375 19.76596 -8.23286
000190 51 18 39 bf 2d 43 9c bf d3 ce 67 41 ee ff 9f bf
       -0.7230273 -1.2208 14.487994 -1.2499979
0001a0 92 f5 40 42 2e 6c 0a 3f 35 ca cd c1 f4 6f f8 c0
       48.239815 0.5407132 -25.723734 -7.763666
0001b0 e0 9d 09 40 46 a3 cb 3f 98 92 ac 3e 2c c8 c6 c1
       2.150261 1.5909202 0.33705592 -24.84774
0001c0 de 9e c1 3e cb 7f b3 c0 a6 9e 84 c1 99 34 6a 3f
       0.3781652 -5.6093497 -16.577465 0.9148651
0001d0 c4 16 02 42 04 46 56 42 52 85 5c 40 02 f1 27 41
       32.522232 53.568375 3.4456372 10.49634
0001e0 be 9c 71 bf 0c 16 b6 3e a8 2a d8 3f ae cc 21 3f
       -0.94379795 0.35563695 1.6888018 0.6320294
0001f0 8b 4f 6a 41 da 60 8f 41 c7 88 9b c0 13 e2 a0 bf
       14.64442 17.92229 -4.8604465 -1.2568992

ensemble.0.module_list.0.output_quant.pre_transforms.0.running_var f4 [128]
000000 ea e9 20 44 36 76 a9 43 17 87 34 44 b0 62 e1 44
       643.6549 338.92352 722.1108 1803.084
000010 9d 6e 5e 44 10 12 8b 42 51 38 bc 3e 46 8b b8 40
       889.72833 69.53528 0.36761716 5.767001
000020 e4 04 06 3f 38 cc 1e 44 0d 75 2a 40 6d 80 08 40
       0.5235121 635.1909 2.6633942 2.1328385
000030 e9 0d 9a 3f 7d 9d 52 40 5c cd ad 43 5b 08 67 41
       1.2035495 3.2908623 347.60437 14.43954
000040 40 dc 9b 44 3c 86 33 44 7d 81 25 43 b6 44 ae 3f
       1246.8828 718.0974 165.50581 1.3614719
000050 63 7b 88 3f 8f f7 2b 43 83 1b 4f 40 87 b9 84 44
       1.0662655 171.96703 3.2360542 1061.7977
000060 d3 7a 7e 40 e6 dc 99 44 b8 9c 3e 44 48 48 89 43
       3.9762466 1230.9031 762.4487 274.5647
000070 da 56 44 44 05 12 40 41 93 f0 a1 40 1e e7 ab 3e
       785.35706 12.004399 5.060617 0.33574766
000080 46 fc 04 41 c3 c7 1f 40 89 8d 14 45 bf ab 5d 40
       8.31159 2.4965675 2376.846 3.4636075
000090 a8 b7 04 45 25 77 4d 40 33 e8 ea 43 68 cd 6a 3e
       2123.4785 3.210397 469.81406 0.22929919
0000a0 b7 85 7e 42 d8 5e 54 44 8c a4 8d 42 14 cf 71 42
       63.63058 849.48193 70.82138 60.452225
0000b0 e5 c2 4e 43 0c 18 ee 44 4b 9e 8d 43 21 61 88 44
       206.7613 1904.7515 283.23666 1091.0353
0000c0 31 5e 73 41 da 68 ac 43 6a 6e 6d 43 52 04 30 42
       15.210496 344.81915 237.4313 44.00422
0000d0 70 0e d7 43 24 b1 69 44 c5 5f eb 44 09 57 3e 40
       430.1128 934.7678 1882.9928 2.9740622
0000e0 51 20 e3 41 b6 57 a6 3f 96 d3 8e 44 26 47 b3 45
       28.39078 1.2995517 1142.612 5736.8936
0000f0 27 1a 0c 44 0b 30 f5 3f f3 68 7e 43 39 80 4c 43
       560.4086 1.9155287 254.40996 204.50087
000100 59 dd 45 43 63 3b 7d 40 2c 6b 9a 43 03 05 39 44
       197.86464 3.9567497 308.83728 740.0783
000110 c1 c5 c8 43 e2 c6 69 44 e3 c0 b5 3f b9 60 c7 43
       401.54495 935.10754 1.4199489 398.75565
000120 22 85 a8 43 d4 63 78 44 59 e8 c1 3f d6 da 1c 45
       337.0401 993.5598 1.5149032 2509.6772
000130 44 58 a8 43 e8 1c 17 44 2d 63 60 43 4e fd 62 40
       336.68958 604.45166 224.3874 3.5467105
000140 2d 4b 9f 40 24 bf 06 40 92 10 2f 43 df a8 af 44
       4.9779267 2.1054163 175.06473 1405.2772
000150 d3 4b 99 44 59 33 dd 45 31 f5 0f 44 12 98 50 43
       1226.3695 7078.4185 575.8311 208.59402
000160 63 d7 2d 3e f5 d5 bd 44 8b f0 92 44 ac 3e e4 3f
       0.16976695 1518.6862 1175.517 1.7831626
000170 06 fc 1b 43 f8 29 86 43 4e d0 00 40 d8 66 73 43
       155.98447 268.32788 2.012714 243.40173
000180 3d d6 9b 44 fd d2 5c 42 ea 57 b6 44 ea 06 40 44
       1246.695 55.206043 1458.7473 768.10803
000190 ce da ed 3e 9d e4 99 3f 04 62 6a 45 d5 cf 02 40
       0.46455997 1.2022892 3750.126 2.043935
0001a0 6f e2 0c 45 1b ba a1 40 ca 57 0d 44 1d d1 f8 43
       2254.152 5.053968 565.3717 497.6337
0001b0 14 53 9f 40 cb 29 f4 40 90 0b dc 3f 99 30 a1 43
       4.9788914 7.6301017 1.7191029 322.37967
0001c0 85 11 7e 42 f1 83 7d 44 b3 47 31 43 b5 8e 22 41
       63.51711 1014.0616 177.28008 10.159841
0001d0 b4 b8 5f 44 7c 58 b8 44 a0 fe 9a 40 f0 ff 56 43
       894.886 1474.7651 4.843582 214.99976
0001e0 3c fa db 42 c7 1e 9a 3f 97 12 1c 40 52 7a 97 41
       109.98874 1.2040642 2.4386346 18.934727
0001f0 42 6d 6c 44 c7 c5 5a 43 41 89 c9 41 de 63 46 40
       945.70715 218.77257 25.192019 3.0998454

ensemble.0.module_list.1.mask f4 [9, 3]
000000 00 00 80 3f 00 00 00 00 00 00 00 00 00 00 00 00
       1.0 0.0 0.0 0.0
000010 00 00 80 3f 00 00 00 00 00 00 00 00 00 00 00 00
       1.0 0.0 0.0 0.0
000020 00 00 80 3f 00 00 00 40 00 00 00 00 00 00 00 00
       1.0 2.0 0.0 0.0
000030 00 00 80 3f 00 00 80 3f 00 00 00 00 00 00 80 3f
       1.0 1.0 0.0 1.0
000040 00 00 00 00 00 00 80 3f 00 00 00 00 00 00 00 40
       0.0 1.0 0.0 2.0
000050 00 00 00 00 00 00 00 00 00 00 80 3f 00 00 80 3f
       0.0 0.0 1.0 1.0
000060 00 00 00 00 00 00 00 00 00 00 00 40
       0.0 0.0 2.0

ensemble.0.module_list.1.input_quant.pre_transforms.0.weight f4 [128]
000000 e4 24 fd 3f fd 27 4b 40 af db 3f 3f d7 d3 e4 40
       1.9776883 3.1743157 0.74944586 7.1508594
000010 e2 28 8a 40 2d d2 a2 3f 00 00 80 3f 00 00 80 3f
       4.3174906 1.272039 1.0 1.0
000020 59 2a 44 3e 5b f9 71 40 00 00 80 3f 00 00 80 3f
       0.1915678 3.7808444 1.0 1.0
000030 00 00 80 3f 00 00 80 3f 13 91 ff 3f 00 00 80 3f
       1.0 1.0 1.9966148 1.0
000040 fa d5 3b 40 1f ab f3 3f 7d ed 86 3f 00 00 80 3f
       2.934935 1.9036597 1.0541226 1.0
000050 00 00 80 3f 39 85 c8 3f 00 00 80 3f 58 3d 2d 41
       1.0 1.5665656 1.0 10.8274765
000060 fe 14 63 3d da df 87 40 cb 77 d3 3f 6a 44 18 40
       0.05543994 4.2460756 1.6520933 2.3791757
000070 c5 fb 3e 40 8f 56 11 40 00 00 80 3f 00 00 80 3f
       2.9841168 2.270908 1.0 1.0
000080 00 00 80 3f 37 e3 25 bd 59 00 44 40 00 00 80 3f
       1.0 -0.040499892 3.0625212 1.0
000090 af 33 3e 40 00 00 80 3f 42 a7 e3 3f 00 00 80 3f
       2.9719045 1.0 1.7785418 1.0
0000a0 41 94 fb 3f 4a f1 02 40 7d 7a 7a 40 93 85 06 40
       1.9654619 2.045977 3.913726 2.1019027
0000b0 b8 4a 2d 40 51 88 fa 3f a9 b8 a5 3f 12 b8 1a 40
       2.7076855 1.957285 1.2946979 2.4174848
0000c0 9a 6f 66 3e 6c 1f 2d 40 53 bd df 3f b4 eb a8 3f
       0.2250351 2.7050428 1.7479652 1.3196931
0000d0 bd 46 b2 3f 60 8a ae 40 c5 58 17 40 00 00 80 3f
       1.3927838 5.4543915 2.364793 1.0
0000e0 6f 54 a8 3f 00 00 80 3f 28 55 a7 40 e6 25 c2 40
       1.3150767 1.0 5.229145 6.0671263
0000f0 fb e2 6d 40 00 00 80 3f ee f3 d0 3f 94 97 eb 3f
       3.7169788 1.0 1.6324441 1.8405633
000100 ff 1d c3 3f 2e b3 46 3e 09 f3 e5 3f 00 bd 3a 40
       1.5243529 0.19404289 1.7964793 2.9177856
000110 a0 91 37 40 d6 c3 4c 40 97 4a a9 3e b2 3d b5 3f
       2.8682632 3.1994529 0.3306472 1.4159453
000120 8f 53 cc 3f 15 b9 ec 3f 00 00 80 3f cf d7 d1 40
       1.5963 1.8493983 1.0 6.557594
000130 75 4d b0 3f 43 9f 85 40 b0 a7 ee 3f 00 00 80 3f
       1.3773638 4.175691 1.8644924 1.0
000140 82 41 c9 3d 00 00 80 3f 8b 8d b7 3f 05 c0 20 40
       0.09826948 1.0 1.434007 2.51172
000150 d8 2e 00 41 39 dd 73 40 5b cd bc 3f 03 51 a9 3f
       8.011436 3.8103774 1.475017 1.3227848
000160 00 00 80 3f ed 97 29 40 ea 07 9d 3f 00 00 80 3f
       1.0 2.6498978 1.226804 1.0
000170 73 59 e9 3f bd 28 61 3f 00 00 80 3f 3a fd 2a 40
       1.8230423 0.87952787 1.0 2.6717057
000180 00 49 10 40 c9 8b f2 3f f0 ff 3a 40 89 3a ca 3f
       2.2544556 1.8948909 2.9218712 1.5799114
000190 00 00 80 3f 00 00 80 3f d1 bd db 40 00 00 80 3f
       1.0 1.0 6.866921 1.0
0001a0 ad ec 58 40 00 00 80 3f d6 3e c9 3f 32 68 d0 3f
       3.3894455 1.0 1.5722301 1.6281798
0001b0 00 00 80 3f 00 00 80 3f 00 00 80 3f 04 dc c9 3f
       1.0 1.0 1.0 1.5770268
0001c0 54 01 eb 3f 8c 80 09 40 5b b7 49 3f 00 00 80 3f
       1.835978 2.1484709 0.78795403 1.0
0001d0 66 fc f0 3f dc 25 e8 3f 00 00 80 3f 2b ce e9 3f
       1.8827026 1.8136554 1.0 1.8266042
0001e0 d0 e6 83 40 00 00 80 3f 00 00 80 3f c7 37 2a 3e
       4.1219254 1.0 1.0 0.1662284
0001f0 31 b7 16 40 9d 68 c6 3f 87 ee ad 3e 00 00 80 3f
       2.354931 1.5500675 0.33971044 1.0

ensemble.0.module_list.1.input_quant.pre_transforms.0.bias f4 [128]
000000 06 05 3f 40 62 00 1d 40 4d 69 fd 3f ef cd 9a 3f
       2.9846816 2.4531484 1.979776 1.2094096
000010 30 21 d3 3f 4f 30 83 40 00 00 00 00 00 00 00 00
       1.6494503 4.099647 0.0 0.0
000020 16 eb 02 bf 47 64 a4 3f 00 00 00 00 00 00 00 00
       -0.5113996 1.2843102 0.0 0.0
000030 00 00 00 00 00 00 00 00 11 aa 77 3f 00 00 00 00
       0.0 0.0 0.96743876 0.0
000040 a1 55 e0 3f 80 fc 68 40 a3 63 d0 40 00 00 00 00
       1.7526132 3.6404114 6.5121627 0.0
000050 00 00 00 00 d8 c0 51 40 00 00 00 00 58 fd b9 c0
       0.0 3.2773952 0.0 -5.8121758
000060 27 4e 64 bf e9 a1 51 bd a4 d8 25 40 8b eb 80 be
       -0.8918175 -0.0511798 2.5913477 -0.25179705
000070 90 d6 2e c0 45 93 63 40 00 00 00 00 00 00 00 00
       -2.7318459 3.5558636 0.0 0.0
000080 00 00 00 00 65 6f 50 bf 01 52 c1 bf 00 00 00 00
       0.0 -0.81419975 -1.5103151 0.0
000090 4b 4e 14 40 00 00 00 00 82 70 50 40 00 00 00 00
       2.3172786 0.0 3.256867 0.0
0000a0 d0 ad 09 40 21 0b 64 40 06 5d 3a 40 3e 50 bf 3f
       2.1512337 3.5631793 2.9119277 1.4946363
0000b0 8e 54 71 40 c5 c5 6c 40 a7 bf 42 40 a6 59 04 40
       3.7707858 3.699571 3.0429475 2.0679717
0000c0 66 02 55 bf 9e 48 30 c0 9b 39 28 40 36 d1 93 3f
       -0.83206785 -2.7544322 2.628516 1.1548221
0000d0 a4 46 07 40 56 22 b8 3e 8d dd 31 3f 00 00 00 00
       2.1136866 0.35963696 0.69478685 0.0
0000e0 cd 4f 32 40 00 00 00 00 ee 11 17 40 80 39 ef bd
       2.7861207 0.0 2.3604693 -0.11680889
0000f0 a6 52 52 bf 00 00 00 00 66 e6 6f 40 f5 06 e8 3f
       -0.8215736 0.0 3.7484374 1.8127123
000100 2c dc 77 3f 76 68 31 bf ac 7c 38 40 76 a6 8e 40
       0.9682033 -0.6930002 2.8826094 4.45782
000110 f3 f9 16 40 57 f5 7f 40 3e 65 1c bf 6b 60 7d 40
       2.3590057 3.9993494 -0.61091983 3.95901
000120 67 fd 05 40 7e e9 43 3f 00 00 00 00 2b 4e 42 40
       2.0935915 0.76528156 0.0 3.036021
000130 29 2c 67 40 16 08 82 bf cb e0 38 40 00 00 00 00
       3.6120703 -1.0158718 2.8887203 0.0
000140 cf ac 32 be 00 00 00 00 f8 df 26 40 7a 63 89 40
       -0.17448734 0.0 2.60742 4.293393
000150 4c 63 86 bf 35 44 1f 40 c3 b9 87 40 82 54 25 40
       -1.0499053 2.488538 4.241426 2.583283
000160 00 00 00 00 b1 2b 87 bf 1a 5a 83 40 00 00 00 00
       0.0 -1.0560209 4.1047487 0.0
000170 97 1b 41 40 17 cf 38 40 00 00 00 00 c2 1f d8 3e
       3.017309 2.8876398 0.0 0.4221173
000180 f9 ba 55 3f a3 dd 4e 40 48 e1 02 40 fd 58 3a 40
       0.8348842 3.2322776 2.045 2.9116814
000190 00 00 00 00 00 00 00 00 64 f7 c4 40 00 00 00 00
       0.0 0.0 6.155199 0.0
0001a0 39 86 39 bf 00 00 00 00 f0 ef 50 40 7e d8 64 3f
       -0.7247043 0.0 3.2646446 0.8939284
0001b0 00 00 00 00 00 00 00 00 00 00 00 00 5c 84 47 40
       0.0 0.0 0.0 3.1174536
0001c0 fc 3e 87 40 ae f2 20 40 9a fb 64 3f 00 00 00 00
       4.2264385 2.514812 0.89446414 0.0
0001d0 10 94 22 40 ab 0d 38 40 00 00 00 00 27 0f 17 40
       2.540287 2.8758342 0.0 2.3602998
0001e0 bb 20 35 3e 00 00 00 00 00 00 00 00 b2 39 3f bf
       0.17688267 0.0 0.0 -0.7469741
0001f0 02 c9 14 40 3e a0 99 40 fa b4 74 bf 00 00 00 00
       2.3247685 4.800811 -0.9558865 0.0

ensemble.0.module_list.1.input_quant.pre_transforms.0.running_mean f4 [128]
000000 c6 3a d8 c1 8e 1e be 41 dc 4c a1 41 62 38 69 c1
       -27.028698 23.76492 20.162529 -14.576265
000010 89 e5 16 c2 7e 13 35 41 5b db 63 3e e0 82 88 bf
       -37.724155 11.317259 0.22251646 -1.066494
000020 1d f9 69 bf 9d c9 92 be 8d a7 21 c0 90 12 69 bf
       -0.9139574 -0.28669444 -2.5258515 -0.9104395
000030 56 19 65 bf e6 56 00 c0 68 10 a4 41 32 35 31 3f
       -0.89491785 -2.0053039 20.50801 0.69221795
000040 e6 ad 9d c1 47 ce 59 41 53 c4 6e 40 a0 5e c8 3f
       -19.709911 13.612861 3.7307327 1.5653877
000050 74 ba 4f bf 94 30 2b c1 32 d5 18 40 28 60 d4 c1
       -0.8114388 -10.69936 2.3880124 -26.546951
000060 60 14 0f bf fe 4f 1c 42 91 f8 3f bf 8e b1 78 c1
       -0.55890465 39.078117 -0.7498866 -15.543348
000070 2d 9d 27 c2 86 37 cb 40 cd fb 3b 40 24 9d 63 be
       -41.903492 6.350528 2.9372437 -0.22227913
000080 7d 67 42 c0 e8 29 be 3f aa 75 b2 c0 06 e1 05 c0
       -3.0375664 1.4856539 -5.5768633 -2.0918593
000090 e4 dc 32 c2 05 f4 93 bf 09 9b d4 c0 8d 72 b4 be
       -44.715714 -1.1558844 -6.643925 -0.35243645
0000a0 a2 38 64 40 26 3a 24 42 af 04 89 c0 04 d7 51 c0
       3.5659566 41.056786 -4.2818217 -3.2787485
0000b0 d6 cb 1f c1 2d 81 60 42 6a 91 9e c1 90 1f b9 41
       -9.987265 56.12615 -19.821003 23.140411
0000c0 ff fd a5 3f 1e cf dd 40 43 96 e3 41 e4 1f b1 bf
       1.2968138 6.931533 28.44837 -1.3837857
0000d0 ee 6e ed c1 f9 70 e2 40 db 5f 03 c2 ca df 50 bd
       -29.679165 7.0762906 -32.84361 -0.050994672
0000e0 fd cd 70 40 59 f2 4d 3e 47 21 39 c0 ae ed a3 c0
       3.7625725 0.2011198 -2.892656 -5.1227636
0000f0 03 7d 7a 40 fa ed a8 3f de 80 af 40 35 2f 43 41
       3.91388 1.3197625 5.484481 12.199025
000100 b6 5b 9b c1 7f ff 38 40 a4 7c 55 41 bf 05 46 c1
       -19.41978 2.8905942 13.34293 -12.376403
000110 aa 40 50 c1 11 2e 2b c1 91 81 47 bf 4a c2 8d 41
       -13.015787 -10.698747 -0.7793208 17.719868
000120 5e 85 c6 c1 61 4d 1b 42 d7 f7 b1 bc 61 f4 e3 41
       -24.81512 38.825565 -0.021724625 28.494326
000130 f7 ed c3 40 ea a5 b0 c1 10 b9 1f 41 51 b3 c1 be
       6.1227984 -22.081013 9.982681 -0.3783212
000140 d6 04 e9 bf 27 9d 99 3f 9d a0 ff 41 5f 5e 03 42
       -1.8204601 1.2001084 31.953424 32.84216
000150 01 47 e6 c1 e5 62 4a c1 2f 1d c4 c1 8c 37 a8 3e
       -28.78467 -12.649144 -24.51425 0.3285488
000160 25 15 c5 bc 41 45 7a 42 48 d9 0f 41 84 c0 b4 bf
       -0.024057934 62.56763 8.990547 -1.4121251
000170 a2 bb eb c0 cc 26 1c c1 2e de 03 3f 4b 51 c0 40
       -7.3666544 -9.759472 0.51510894 6.0099235
000180 fc 21 c8 41 d9 08 7b 3f b0 20 9e 41 cb b9 03 c1
       25.016594 0.98060375 19.76596 -8.23286
000190 51 18 39 bf 2d 43 9c bf d3 ce 67 41 ee ff 9f bf
       -0.7230273 -1.2208 14.487994 -1.2499979
0001a0 92 f5 40 42 2e 6c 0a 3f 35 ca cd c1 f4 6f f8 c0
       48.239815 0.5407132 -25.723734 -7.763666
0001b0 e0 9d 09 40 46 a3 cb 3f 98 92 ac 3e 2c c8 c6 c1
       2.150261 1.5909202 0.33705592 -24.84774
0001c0 de 9e c1 3e cb 7f b3 c0 a6 9e 84 c1 99 34 6a 3f
       0.3781652 -5.6093497 -16.577465 0.9148651
0001d0 c4 16 02 42 04 46 56 42 52 85 5c 40 02 f1 27 41
       32.522232 53.568375 3.4456372 10.49634
0001e0 be 9c 71 bf 0c 16 b6 3e a8 2a d8 3f ae cc 21 3f
       -0.94379795 0.35563695 1.6888018 0.6320294
0001f0 8b 4f 6a 41 da 60 8f 41 c7 88 9b c0 13 e2 a0 bf
       14.64442 17.92229 -4.8604465 -1.2568992

ensemble.0.module_list.1.input_quant.pre_transforms.0.running_var f4 [128]
000000 ea e9 20 44 36 76 a9 43 17 87 34 44 b0 62 e1 44
       643.6549 338.92352 722.1108 1803.084
000010 9d 6e 5e 44 10 12 8b 42 51 38 bc 3e 46 8b b8 40
       889.72833 69.53528 0.36761716 5.767001
000020 e4 04 06 3f 38 cc 1e 44 0d 75 2a 40 6d 80 08 40
       0.5235121 635.1909 2.6633942 2.1328385
000030 e9 0d 9a 3f 7d 9d 52 40 5c cd ad 43 5b 08 67 41
       1.2035495 3.2908623 347.60437 14.43954
000040 40 dc 9b 44 3c 86 33 44 7d 81 25 43 b6 44 ae 3f
       1246.8828 718.0974 165.50581 1.3614719
000050 63 7b 88 3f 8f f7 2b 43 83 1b 4f 40 87 b9 84 44
       1.0662655 171.96703 3.2360542 1061.7977
000060 d3 7a 7e 40 e6 dc 99 44 b8 9c 3e 44 48 48 89 43
       3.9762466 1230.9031 762.4487 274.5647
000070 da 56 44 44 05 12 40 41 93 f0 a1 40 1e e7 ab 3e
       785.35706 12.004399 5.060617 0.33574766
000080 46 fc 04 41 c3 c7 1f 40 89 8d 14 45 bf ab 5d 40
       8.31159 2.4965675 2376.846 3.4636075
000090 a8 b7 04 45 25 77 4d 40 33 e8 ea 43 68 cd 6a 3e
       2123.4785 3.210397 469.81406 0.22929919
0000a0 b7 85 7e 42 d8 5e 54 44 8c a4 8d 42 14 cf 71 42
       63.63058 849.48193 70.82138 60.452225
0000b0 e5 c2 4e 43 0c 18 ee 44 4b 9e 8d 43 21 61 88 44
       206.7613 1904.7515 283.23666 1091.0353
0000c0 31 5e 73 41 da 68 ac 43 6a 6e 6d 43 52 04 30 42
       15.210496 344.81915 237.4313 44.00422
0000d0 70 0e d7 43 24 b1 69 44 c5 5f eb 44 09 57 3e 40
       430.1128 934.7678 1882.9928 2.9740622
0000e0 51 20 e3 41 b6 57 a6 3f 96 d3 8e 44 26 47 b3 45
       28.39078 1.2995517 1142.612 5736.8936
0000f0 27 1a 0c 44 0b 30 f5 3f f3 68 7e 43 39 80 4c 43
       560.4086 1.9155287 254.40996 204.50087
000100 59 dd 45 43 63 3b 7d 40 2c 6b 9a 43 03 05 39 44
       197.86464 3.9567497 308.83728 740.0783
000110 c1 c5 c8 43 e2 c6 69 44 e3 c0 b5 3f b9 60 c7 43
       401.54495 935.10754 1.4199489 398.75565
000120 22 85 a8 43 d4 63 78 44 59 e8 c1 3f d6 da 1c 45
       337.0401 993.5598 1.5149032 2509.6772
000130 44 58 a8 43 e8 1c 17 44 2d 63 60 43 4e fd 62 40
       336.68958 604.45166 224.3874 3.5467105
000140 2d 4b 9f 40 24 bf 06 40 92 10 2f 43 df a8 af 44
       4.9779267 2.1054163 175.06473 1405.2772
000150 d3 4b 99 44 59 33 dd 45 31 f5 0f 44 12 98 50 43
       1226.3695 7078.4185 575.8311 208.59402
000160 63 d7 2d 3e f5 d5 bd 44 8b f0 92 44 ac 3e e4 3f
       0.16976695 1518.6862 1175.517 1.7831626
000170 06 fc 1b 43 f8 29 86 43 4e d0 00 40 d8 66 73 43
       155.98447 268.32788 2.012714 243.40173
000180 3d d6 9b 44 fd d2 5c 42 ea 57 b6 44 ea 06 40 44
       1246.695 55.206043 1458.7473 768.10803
000190 ce da ed 3e 9d e4 99 3f 04 62 6a 45 d5 cf 02 40
       0.46455997 1.2022892 3750.126 2.043935
0001a0 6f e2 0c 45 1b ba a1 40 ca 57 0d 44 1d d1 f8 43
       2254.152 5.053968 565.3717 497.6337
0001b0 14 53 9f 40 cb 29 f4 40 90 0b dc 3f 99 30 a1 43
       4.9788914 7.6301017 1.7191029 322.37967
0001c0 85 11 7e 42 f1 83 7d 44 b3 47 31 43 b5 8e 22 41
       63.51711 1014.0616 177.28008 10.159841
0001d0 b4 b8 5f 44 7c 58 b8 44 a0 fe 9a 40 f0 ff 56 43
       894.886 1474.7651 4.843582 214.99976
0001e0 3c fa db 42 c7 1e 9a 3f 97 12 1c 40 52 7a 97 41
       109.98874 1.2040642 2.4386346 18.934727
0001f0 42 6d 6c 44 c7 c5 5a 43 41 89 c9 41 de 63 46 40
       945.70715 218.77257 25.192019 3.0998454

ensemble.0.module_list.1.fc.weight f4 [64, 9]
000000 9a ab b0 c0 26 96 89 41 13 45 6f 40 04 cb 18 40
       -5.5209475 17.198315 3.738591 2.387391
000010 e8 23 7e 3f ca 20 fd bf ca c5 6c bf 1c ed 50 3f
       0.9927354 -1.9775631 -0.924893 0.816118
000020 00 bb 54 3f b2 b8 dc 40 f9 7d cf c0 9c 5f c4 c0
       0.8309784 6.897546 -6.4841275 -6.136671
000030 4f 9b 06 c0 33 63 40 40 f9 81 90 40 8d ca ee bf
       -2.1032293 3.0060546 4.515866 -1.8655564
000040 b4 94 19 c0 0f 54 71 c0 09 49 22 3e 95 5a 84 40
       -2.399701 -3.7707555 0.15848173 4.1360574
000050 ea 58 82 c1 99 31 10 bd f7 ce 76 bc 89 ad ab 3e
       -16.293415 -0.03520355 -0.015063993 0.33530834
000060 8f 56 ea bf 82 92 c9 3f 7e 4c 77 3e 56 f5 c1 bd
       -1.8307666 1.5747836 0.24150273 -0.09470622
000070 70 0a 67 3e 00 d8 fa bd b6 11 35 3e db f4 98 3d
       0.22562575 -0.1224823 0.17682537 0.074685775
000080 20 51 ac 3d 73 fd 81 be d6 2d de 3d 3b 73 76 be
       0.08413911 -0.2538868 0.10848586 -0.24067394
000090 29 9d 51 c0 25 5f e5 40 42 f9 f9 40 c4 a4 5a c0
       -3.2752173 7.1678643 7.811677 -3.4163065
0000a0 49 b5 9d 3f ea ac 8e c0 77 78 2d bf 1b 7f b3 be
       1.2320949 -4.4586077 -0.6776194 -0.3505791
0000b0 e4 77 66 bf 39 44 93 41 7a f3 05 3f 46 77 91 bf
       -0.9002669 18.408312 0.5232464 -1.1364524
0000c0 fe 5b 12 40 b2 9f 46 c0 62 16 39 c0 7e 27 04 3f
       2.2868648 -3.103497 -2.8919911 0.5162276
0000d0 d8 80 0f bf 5b 61 89 bf 26 9b ab 3f 87 5e 6c c0
       -0.56055975 -1.0732836 1.3406723 -3.6932695
0000e0 e2 3c 1a 41 3b 9e f6 3f ef 22 23 c0 b2 29 89 40
       9.639864 1.9267038 -2.5490072 4.2863398
0000f0 b7 d6 23 40 e7 ec e4 be 37 7b ba 40 d8 df 3a c1
       2.5599802 -0.44711992 5.827541 -11.679649
000100 fe e6 92 3f a1 be e0 40 d9 9e ed bf eb 96 2c c0
       1.1476743 7.02327 -1.8564101 -2.6967113
000110 4c 6b c5 be a5 db 8a be 6e db c0 40 bc e6 ff 3e
       -0.38558424 -0.271207 6.026786 0.49980724
000120 11 66 3f 41 29 84 6a bf a4 ac 9a c0 f0 f2 91 bf
       11.962419 -0.9160791 -4.8335743 -1.1402264
000130 37 8e 9a 3f a9 32 6d 40 60 7f e2 3e 7e 6d 68 40
       1.207465 3.706217 0.44237804 3.6316829
000140 7a 39 ac c0 7b 5e af c0 0a 6d 83 41 f6 4b 6a 3e
       -5.382016 -5.4802833 16.428242 0.2288054
000150 0e 0c 46 bf 16 09 4d 3e f3 9e 04 be 8a 4d 22 40
       -0.77362144 0.20022997 -0.1295126 2.5359826
000160 4f ac 48 3d 79 87 cb 3c 16 31 6f be d8 b6 a3 be
       0.04899245 0.024844872 -0.23358569 -0.31975436
000170 10 6d ba 3d bf 19 91 3e a0 31 6a 3e 7b 9a 85 bd
       0.09102833 0.28339955 0.22870493 -0.065236054
000180 80 c8 76 be d6 a9 fe bc b6 ca 8d 3e 7e 6c c1 c0
       -0.24099922 -0.031086843 0.2769372 -6.0444937
000190 c6 73 5e 41 c7 9e ea bf 92 72 15 c0 84 0a 87 bf
       13.903265 -1.8329705 -2.3351178 -1.0550084
0001a0 01 10 2a c0 b6 41 87 be a2 3e a5 40 8c ed ad be
       -2.6572268 -0.2641732 5.1638956 -0.33970296
0001b0 56 d7 a5 be 8b 41 41 bd 33 ff 33 3e bb 74 97 be
       -0.3239085 -0.047181647 0.1757782 -0.29581246
0001c0 fe 91 62 be 16 99 49 3e 5e f0 77 3e 56 cd 1c bb
       -0.22126004 0.19687304 0.24212787 -0.00239261
0001d0 72 aa 8c be 9e 8f 62 c1 fe 73 e2 3f a0 35 18 be
       -0.2747379 -14.160063 1.7691648 -0.14864206
0001e0 26 35 22 40 2c d1 ac be f3 b0 88 3e 0e 5f f0 bb
       2.534494 -0.33753335 0.26697502 -0.00733555
0001f0 6b 50 70 be 8e 7d 1b be 19 cf be 40 88 fa 2a bf
       -0.23468177 -0.15184614 5.9627805 -0.6678853
000200 5a e9 97 40 f6 04 04 40 79 f0 90 40 65 64 b2 40
       4.7472353 2.0628028 4.5293546 5.574755
000210 c5 c0 9f 3e 52 5e 0b 41 96 a6 6f c0 63 b6 65 be
       0.3120176 8.710527 -3.7445426 -0.22432856
000220 f3 14 5f 3e c8 34 50 be 8b ce 08 be 52 b6 9e 3e
       0.21785335 -0.20332634 -0.1336004 0.30998474
000230 b6 89 11 3e 1b 87 8b bd ab 57 a2 be 76 e5 94 bd
       0.14212689 -0.06812879 -0.3170751 -0.07270329
000240 8e 17 0a 3d bc 5e e1 40 4a d8 89 c1 86 1c 1b 3e
       0.03371387 7.0428143 -17.23061 0.151476
000250 90 50 11 3e c5 34 b7 bd 82 a4 34 bf b7 4b 30 3e
       0.14190888 -0.08945612 -0.7056352 0.17216383
000260 88 c0 8d be f8 0f de 3f 7f b7 16 40 d0 1c d6 40
       -0.27685952 1.7348623 2.3549497 6.691017
000270 59 7f 00 c0 fa 2d a2 40 a3 77 a5 c0 f1 00 71 bf
       -2.0077727 5.0681124 -5.170854 -0.9414206
000280 f5 20 a8 40 73 c7 0c c0 f6 c4 be c0 33 25 de 3f
       5.254023 -2.1996734 -5.961543 1.7355102
000290 1d a7 7c 3d 24 13 ae 40 7c c4 44 c0 d5 d7 2a be
       0.06168281 5.4398365 -3.0744925 -0.16683896
0002a0 87 75 9e 3e c0 10 41 3e 89 52 32 3e 13 8c 85 40
       0.3094904 0.18854046 0.17414297 4.173349
0002b0 e5 1a c3 c0 4b 4e a8 40 75 4a 8c 40 6d 5f 05 3f
       -6.097033 5.2595572 4.384089 0.52098733
0002c0 66 1c 4e 40 c1 90 2f bf 41 41 0c 40 55 df 6a 40
       3.2204833 -0.6858025 2.1914828 3.669881
0002d0 f3 c7 17 3e 86 99 40 be 73 5b 2e be 36 b3 58 3d
       0.14822368 -0.18808565 -0.17027073 0.052905284
0002e0 20 be 64 3e e0 e0 bc 3d 96 d1 1e bd da c4 98 be
       0.22338152 0.09222579 -0.038774095 -0.29837686
0002f0 a6 aa b0 3d 61 14 68 be 23 ba 20 c1 31 f4 12 41
       0.086262986 -0.22664024 -10.045444 9.184617
000300 56 ab 98 bd cf cd a6 be cf 44 ec 3e b7 7b 8f bf
       -0.07454555 -0.32578894 0.46146247 -1.120963
000310 fa 28 a2 c0 09 9c 87 3e b4 6c 26 be 89 5b 8b 3f
       -5.067502 0.26486233 -0.16252404 1.0887309
000320 55 eb 77 41 4c 23 01 3e 7e 8c 21 3e d2 7d 28 be
       15.494954 0.12611121 0.1577625 -0.16454247
000330 61 f2 38 3f f7 20 d6 3f 25 7e 43 bf 07 02 85 be
       0.7224484 1.672881 -0.76364356 -0.2597811
000340 b6 22 ab 3d 06 61 a4 3e f7 73 aa 3e fa 3b 92 3e
       0.0835623 0.32105273 0.332916 0.28561383
000350 74 10 a1 3e 26 2e 49 be b0 b0 45 3e 98 ff 63 be
       0.31457865 -0.1964651 0.19305682 -0.2226547
000360 96 99 0a 41 d9 04 35 c1 fa 50 5b 3f 94 b4 d8 3e
       8.662497 -11.3136835 0.85670435 0.4232527
000370 73 c9 00 c0 e0 9e c5 40 6c b3 6d c0 0a 61 72 c0
       -2.0122955 6.175644 -3.714076 -3.7871728
000380 2a 99 d6 3f c9 c6 8d 40 53 60 19 41 a9 3a f8 c0
       1.6765492 4.430516 9.586017 -7.7571607
000390 4a 53 1c 40 ab 07 32 40 a6 0a 35 c0 b2 96 86 bf
       2.4425836 2.781718 -2.828775 -1.0514739
0003a0 ce 42 23 c0 3b d5 81 40 a6 20 da 3d 83 a2 1e 3e
       -2.5509524 4.057279 0.106507584 0.15491681
0003b0 40 1d 16 be 56 36 56 bd 80 a2 01 3e fb 5e c0 bd
       -0.14659595 -0.052297913 0.12659645 -0.09393116
0003c0 db 52 d1 bd 80 a0 9f bd b3 8b 47 3e 51 d8 f7 bc
       -0.102208816 -0.07794285 0.19486885 -0.030254515
0003d0 cd af dd 3d db d3 9e 41 67 8b 00 ba 7f 2f 28 be
       0.10824547 19.853445 -0.0004903585 -0.16424368
0003e0 8e e1 21 3b e9 c1 77 bc 46 15 f9 bd 37 8e 31 3e
       0.0024701091 -0.015121915 -0.12162261 0.17339407
0003f0 7f cd 34 41 ed f5 2a 41 20 5f ee 3f 4d 17 be 3d
       11.30017 10.68504 1.862278 0.09281788

ensemble.0.module_list.1.fc.bias f4 [64]
000000 93 e7 a9 3d 90 40 9f 3c d8 75 53 3c d5 a4 a5 bd
       0.082961224 0.019439965 0.012906514 -0.0808808
000010 f9 37 2c bc 9d 14 c3 bd 10 0b b2 bd 0f c7 96 3d
       -0.010511392 -0.09525416 -0.08693516 0.07362186
000020 5c 53 f1 bd 3c b4 7a bd 10 a8 9d 3d eb 2c 31 3d
       -0.11783478 -0.06120704 0.07698071 0.043255728
000030 af e8 8f bc d7 f3 dc 3d 01 f9 e5 3e bc 85 7c 3d
       -0.017567007 0.10788696 0.44916537 0.061650977
000040 80 1e f4 bc 7b b5 79 3e 36 03 2c 3d 84 d7 65 bd
       -0.0297997 0.24385636 0.04199525 -0.056113735
000050 35 cd c3 bc cb bb 5c bd e1 a6 01 bd 8d 87 92 3c
       -0.023901561 -0.05389003 -0.03165329 0.017886901
000060 a8 15 f9 3c cb 5b ae 3d 03 66 aa bc e6 3a 0b 3e
       0.030405834 0.08513602 -0.020800596 0.13596687
000070 43 f1 c4 3d 6a 2b 1a bc 75 19 52 3c 47 bf 76 be
       0.096163295 -0.009409765 0.012823452 -0.24096404
000080 7e 55 f4 bc d8 6a 1a bc ca 43 7a bd c2 47 c9 bd
       -0.029825922 -0.009424888 -0.061099805 -0.0982814
000090 e4 95 30 bd 6d 1c 9f bd 97 1f d8 bc 40 f3 b2 bd
       -0.043111697 -0.07769094 -0.02638225 -0.087378025
0000a0 5e 91 a3 3d 3d 92 13 3c 2f 16 52 be 8f 2c 3b bd
       0.07986711 0.009007034 -0.20516275 -0.04569679
0000b0 57 c4 f1 bd c6 e1 9d 3d 76 11 cd 3c a5 f2 14 bf
       -0.11805027 0.077090785 0.02503274 -0.58182746
0000c0 95 6d 4e 3d 1d d7 32 bd 10 e2 6a 3d dc 7c a5 bc
       0.050397474 -0.04366218 0.057344496 -0.02020114
0000d0 02 6e 57 bd ff 3f fc bb 22 ca 90 3e 35 74 62 bc
       -0.052595146 -0.0076980586 0.28279215 -0.013821651
0000e0 99 d8 06 3c 57 c8 2b be 3c 35 22 3d 05 d8 66 be
       0.008230352 -0.16775642 0.03960155 -0.22543342
0000f0 c8 c0 84 3c df 87 85 3d 1c 2d aa 3d e8 9f 56 bd
       0.016205207 0.06520056 0.08309385 -0.052398592

ensemble.0.module_list.1.output_quant.pre_transforms.0.weight f4 [64]
000000 92 db 8b 40 43 cc f9 3f 71 1d be 3f 00 00 80 3f
       4.370553 1.9515461 1.4852735 1.0
000010 4a 28 b8 40 01 d0 cc 3f be 8c ed 3f 7a 7e bf 3f
       5.754918 1.6000978 1.8558576 1.4960473
000020 76 78 a9 3f 4a 92 d7 3f 00 00 80 3f 76 87 fb 3f
       1.3239887 1.6841519 1.0 1.9650714
000030 00 00 80 3f 47 64 31 40 32 93 99 40 00 00 80 3f
       1.0 2.7717454 4.799218 1.0
000040 44 23 d8 3f 35 4f e3 3f f8 7b cd 3f 1c 02 9b 40
       1.6885762 1.7758547 1.6053457 4.8440075
000050 00 00 80 3f be b2 74 40 16 64 84 3f 00 00 80 3f
       1.0 3.8234096 1.0343044 1.0
000060 45 0f aa 3f ea 48 5c 3f 00 00 80 3f 21 22 b3 3f
       1.328591 0.8604876 1.0 1.399479
000070 65 6e 04 40 d0 fb e6 40 00 00 80 3f 1d 73 ef 3f
       2.069238 7.218239 1.0 1.8707005
000080 da ea f3 3f 33 55 8e 3f a8 3c 08 40 9c 6e c6 3f
       1.9056046 1.1119751 2.1287022 1.5502505
000090 c6 0d 0f 40 b9 e3 d6 3f 00 00 80 3f ac 41 f1 3f
       2.2352157 1.6788245 1.0 1.8848166
0000a0 62 f6 98 3f 32 04 04 40 e1 73 fb 3f 03 a9 22 40
       1.195019 2.062756 1.9644738 2.5415657
0000b0 a9 81 10 40 ee 96 fc 3f 00 00 80 3f 49 c1 c4 3f
       2.2579138 1.973356 1.0 1.5371486
0000c0 65 84 86 40 7d 6a 3f 40 b0 89 ce 3f 60 be dd 3f
       4.2036614 2.9908745 1.6135769 1.7323723
0000d0 00 00 80 3f 00 00 80 3f b1 9f 04 40 46 d1 cd 3f
       1.0 1.0 2.0722468 1.607949
0000e0 00 00 80 3f 9f 36 1f 40 d4 19 0a 40 9e d1 f0 3f
       1.0 2.4877088 2.1578264 1.881397
0000f0 a2 a8 3d 40 0f cd 77 40 00 00 80 3f 80 b7 97 3f
       2.9634175 3.8718908 1.0 1.1852875

ensemble.0.module_list.1.output_quant.pre_transforms.0.bias f4 [64]
000000 e8 94 d2 3f 5e 22 5d 40 24 59 54 3f 00 00 00 00
       1.6451693 3.4552226 0.8294852 0.0
000010 94 c8 66 3f 34 5f 51 40 f3 79 31 3f 22 83 e8 3f
       0.9014981 3.2714357 0.69326705 1.8165019
000020 f8 79 36 40 f3 28 11 40 00 00 00 00 70 32 22 40
       2.8511944 2.2681243 0.0 2.5343285
000030 00 00 00 00 7b f3 97 40 a4 db 2c 40 00 00 00 00
       0.0 4.7484717 2.7009058 0.0
000040 ab 93 7b 3f 65 eb 12 40 04 49 22 c0 fb 05 f2 be
       0.982722 2.2956173 -2.5357065 -0.47270188
000050 00 00 00 00 e4 00 fc 3f 0d 2a 9f 3f 00 00 00 00
       0.0 1.9687772 1.2434708 0.0
000060 ff 82 0f 40 53 8d d9 3f 00 00 00 00 24 d1 22 40
       2.2423704 1.6996254 0.0 2.544015
000070 ef 64 a5 3f 65 08 97 c0 00 00 00 00 29 60 2e 40
       1.2921427 -4.7197747 0.0 2.7246192
000080 ba 17 24 3f 86 28 5e 3f df db 6e 3f 64 83 72 40
       0.64098704 0.86780584 0.93304247 3.7892694
000090 f9 35 7b 40 b5 bf 65 40 00 00 00 00 ab f3 3d 40
       3.9251692 3.5898259 0.0 2.9679973
0000a0 48 ed 51 40 08 95 ab 3f 8d f2 37 40 28 d2 91 be
       3.2801075 1.3404856 2.8741791 -0.2848065
0000b0 55 74 37 40 11 90 59 40 00 00 00 00 6d f9 cb 3f
       2.8664753 3.399418 0.0 1.5935494
0000c0 25 ad ce 3f 0f 70 2f 40 52 f4 3d 40 11 c0 ed 3f
       1.614659 2.7412145 2.9680371 1.8574239
0000d0 00 00 00 00 00 00 00 00 50 04 17 40 96 9a 14 40
       0.0 0.0 2.3596382 2.3219352
0000e0 00 00 00 00 ac 81 bc 3f b7 95 0e 40 e9 14 f0 3f
       0.0 1.4727073 2.2278879 1.8756381
0000f0 2a b4 35 3f 62 00 9a c0 00 00 00 00 ff a5 38 40
       0.70978034 -4.8125467 0.0 2.8851316
