examples/jet_substructure/jsc_single_models/jsc-s/checkpoint.pth (torch, 169627 bytes, 99 tensors)

module_list.0.input_quant.pre_transforms.0.weight f4 [16]
000000 c8 ca d6 3d bf df 21 3f bb e5 60 3f d0 c0 0e 3f
       0.10487896 0.63232034 0.8785054 0.5576296
000010 80 c2 3f 3e c5 b8 1d 3f b0 d1 07 3e fb 36 1c 3e
       0.1872654 0.6161006 0.13263583 0.15255348
000020 14 48 db 3d e9 64 fb 3d 1a ab 11 3e bb b9 0d 3e
       0.10707107 0.122751065 0.14225426 0.13840382
000030 a7 a2 dc 3d bf 46 83 3e 00 12 48 3f 53 f4 34 3e
       0.10773211 0.25639912 0.78152466 0.17671327

module_list.0.input_quant.pre_transforms.0.bias f4 [16]
000000 5c 94 b5 3e ee ed 45 bd 3b 6f d8 3d c9 81 4c be
       0.35464752 -0.04832261 0.105680905 -0.19971384
000010 f0 de dd 3e 13 6b 2e 3f 12 6c fe 3e 5d 61 e6 3e
       0.4333415 0.6813213 0.49691826 0.44996157
000020 7f 4d be 3e 22 56 e9 3e ec 72 01 3f ea 26 e7 3e
       0.371685 0.45573527 0.5056598 0.45146877
000030 ea 4a d3 3e 58 60 2c 3f 66 b9 07 3e 79 33 5b 3e
       0.41268092 0.6733451 0.13254318 0.21406354

module_list.0.input_quant.pre_transforms.0.running_mean f4 [16]
000000 c0 b2 37 3b df 18 7d 3b df 00 f2 ba d6 66 98 bb
       0.0028030127 0.003861956 -0.0018463394 -0.004650931
000010 17 80 f7 bb ea 2f c5 bb d2 96 62 bc 13 d2 48 bc
       -0.0075531113 -0.0060176747 -0.013829904 -0.012257117
000020 d2 96 62 bc a1 71 75 bc b8 91 71 bc cb 8c 82 bc
       -0.013829904 -0.0149807045 -0.014744215 -0.015936276
000030 e2 7d 77 bc b6 1d 68 bc c7 92 41 ba 57 41 9f bb
       -0.015105696 -0.01416724 -0.0007384237 -0.004860084

module_list.0.input_quant.pre_transforms.0.running_var f4 [16]
000000 c1 97 7c 3f e8 83 7b 3f a3 0e 7c 3f ee f5 7b 3f
       0.9866906 0.9824815 0.98459834 0.98422134
000010 44 11 7d 3f 41 28 7f 3f 0c 25 81 3f 04 78 7e 3f
       0.9885447 0.996708 1.0089431 0.9940188
000020 0c 25 81 3f 76 7e 7f 3f 9a bb 7e 3f f9 ea 7c 3f
       1.0089431 0.9980234 0.9950501 0.9879604
000030 91 cb 80 3f 01 44 7e 3f 78 4f 7e 3f e6 41 7b 3f
       1.0062124 0.99322516 0.9934001 0.9814743

module_list.0.fc.weight f4 [64, 16]
000000 9f de 8d bd 3c 89 2c 3e 28 9e dc bd 4e c2 1c be
       -0.06927227 0.16849226 -0.107723534 -0.15308496
000010 4b e8 1f 3e 35 af 52 bc cf 56 d7 bc 4f 35 a5 bd
       0.15615956 -0.012859155 -0.02628651 -0.080668084
000020 32 01 9c bd ba f6 df bd d6 a1 9c bb 50 68 8c bd
       -0.076174155 -0.10935731 -0.0047800345 -0.068558335
000030 b7 dc 2c 3e bd a9 a4 bc 25 43 24 3d e4 d0 cf bd
       0.16881071 -0.020100469 0.040103097 -0.101472646
000040 53 82 e9 3b e7 6b a8 bd 56 0f 1b 3a 30 23 bc bd
       0.0071261316 -0.08223706 0.0005915066 -0.09186399
000050 f0 12 34 bd e6 c2 a7 bd b0 34 ce 3d 70 77 fa bc
       -0.043963373 -0.08191471 0.10068643 -0.03057453
000060 21 08 f6 3d b7 d7 1b 3e 1a a1 09 be 0c 70 e6 ba
       0.12013269 0.15219007 -0.13440362 -0.0017581
000070 f8 14 65 bd 20 f5 09 3e 9a c9 b7 bd 34 c1 6e 3f
       -0.0559282 0.13472414 -0.08973999 0.93263555
000080 53 47 15 be 65 45 e6 3e 20 47 08 3e 91 fd 2a be
       -0.1457799 0.4497482 0.13308382 -0.1669829
000090 67 d8 17 3d fe 88 50 3d ab b6 81 3b 24 6b 31 3d
       0.03707161 0.050911896 0.0039585433 0.043315068
0000a0 a0 fc af bd 21 e8 05 be a1 98 d5 bd 25 f8 26 bd
       -0.08593106 -0.13076831 -0.10429502 -0.040763993
0000b0 fd 76 8b be bd 34 88 bd 0f 01 c9 3b 3f de 51 bd
       -0.27239218 -0.06650684 0.0061341594 -0.05123734
0000c0 45 12 85 3c 78 f2 24 3e 77 25 ba bd 06 54 e8 bd
       0.016244063 0.1610812 -0.09089177 -0.11344151
0000d0 0e de 15 be 57 97 a0 bd 3f ac 17 3e 6e ae 9d bd
       -0.14635488 -0.07841366 0.148118 -0.076992854
0000e0 0a bd 3f 3e 69 19 f5 be c5 48 24 3c cb 64 25 3e
       0.18724456 -0.4787095 0.010027115 0.1615173
0000f0 3d b0 06 3d 86 6f 88 3c 74 6d 0f be 46 95 5c bd
       0.032882918 0.016654741 -0.14006597 -0.053853296
000100 89 ba ae bc d6 6c 87 bb 91 a1 45 3d 33 9e 9e 3d
       -0.021329181 -0.0041328473 0.048249785 0.07745018
000110 ca 3d aa 3b 5a a0 aa 3c 64 01 10 3d 25 51 1d 3e
       0.005195354 0.020828415 0.035157576 0.15362985
000120 44 ae 7e bc 3d 89 0b 3e 8d af 23 be 69 7d 81 3d
       -0.015544478 0.13626571 -0.15984936 0.06322748
000130 5d e6 3c 3e a4 dd e9 be 7b 44 9a 3e 16 0b 9b 3d
       0.18447252 -0.4567691 0.3013037 0.07570474
000140 08 94 ae bd d3 db 95 bd d1 e5 95 3d 32 7d 9a 3d
       -0.085243285 -0.07317319 0.073192246 0.0754341
000150 67 01 a8 be c7 7a b6 be bc 66 84 bc 44 38 03 3e
       -0.3281357 -0.35640547 -0.016162269 0.12814432
000160 fb 1c e4 3d 9f c1 b4 3e d4 9c 3b bd b6 ad 69 bc
       0.1113834 0.3530397 -0.04580386 -0.014262607
000170 3b 16 2c be 03 35 cc 3b 7e a5 06 3e 8f 17 21 3e
       -0.16805355 0.0062319054 0.13149068 0.15731643
000180 03 36 ea 3c 3a 57 75 3d dc 27 a5 3c eb 8f 5e 3d
       0.028590208 0.05989764 0.020160608 0.05433647
000190 91 dc 0c 3d f5 5e cc 3d 7b de ea 3d 5d ec 60 be
       0.034390036 0.09979049 0.11468216 -0.21965165
0001a0 df 9b 29 be 31 23 1e be 11 5d 9e 3c e7 5b cd bd
       -0.16563366 -0.15443112 0.019331487 -0.100272946
0001b0 9b 58 88 bd 55 d6 b5 bd 4c a8 78 bf f4 1d 18 3e
       -0.06657525 -0.08878771 -0.971318 0.14855176
0001c0 26 29 46 bd 51 33 87 3c 0d 46 cc bd 08 75 4e bf
       -0.048379086 0.016503962 -0.099742986 -0.80647326
0001d0 ca 0b 2d 3c e2 a7 0b be 26 15 06 be e2 8a be bc
       0.010561893 -0.13638261 -0.13094005 -0.023259584
0001e0 ac e1 a4 3d e6 11 19 3d 58 2e 10 3e 52 84 17 3e
       0.08050856 0.037370585 0.14080179 0.1479657
0001f0 c3 60 c7 3d 09 a4 59 3d a1 5b ad bd 62 e2 f9 3d
       0.09735253 0.05313495 -0.084647425 0.12201382
000200 ba ae 91 3d 6c a2 24 be 78 b6 fe 3d 43 10 0e be
       0.071134046 -0.16077584 0.12437147 -0.13873391
000210 7d 85 af be b1 92 10 3e 14 b6 93 3d 63 32 19 be
       -0.3428153 0.14118458 0.07212463 -0.14960627
000220 1e b3 30 3d b1 8f fb 3c e3 91 2d 3d 59 81 f8 bb
       0.04313957 0.030708166 0.042375457 -0.007583779
000230 9c a6 3b 3e a6 a8 9e bd 20 af fd bc 10 7f 30 3f
       0.18325275 -0.07747011 -0.030967295 0.6894388
000240 41 4c 27 3e 4b be 2f bd 86 62 61 bd ca c3 27 3d
       0.16337682 -0.042906087 -0.0550256 0.040958203
000250 28 db 17 be 39 57 b2 3d b9 63 ad bd 08 1a f1 bd
       -0.14829695 0.08708043 -0.08466286 -0.11772543
000260 09 10 1b be 5a 22 0f 3e ec fd 25 3e c3 0e 9f 3d
       -0.15142836 0.13977948 0.16210145 0.077664874
000270 12 39 2c bd 27 a6 11 3e b6 50 e1 bc 4c de 88 bd
       -0.042046614 0.14223538 -0.027504306 -0.06683025
000280 52 8f 38 bd a8 b4 1e 3e 3d 45 08 be 0d 03 28 be
       -0.045058556 0.15498602 -0.13307662 -0.16407414
000290 93 6a 02 3f d8 58 0a 3e 7f 71 12 be ee e8 df bd
       0.5094387 0.13510454 -0.14301108 -0.109331
0002a0 a0 1a b0 bd 9d b7 63 3d 1f d3 ea 3d 58 3b ae bd
       -0.08598828 0.05559503 0.114660494 -0.08507413
0002b0 26 14 ad be 23 79 0f 3d ed ba ff 3d d3 f2 ed bb
       -0.33804435 0.035027634 0.12486825 -0.007261613
0002c0 54 38 f0 bc 82 fc 8f 3e ec f5 23 3e b7 f2 f0 bd
       -0.029323734 0.28122336 0.1601178 -0.11765044
0002d0 45 2a 9d be 3a ce 1a 3e fa db 94 3c 13 83 b3 bd
       -0.30696312 0.15117732 0.0181713 -0.08765235
0002e0 aa 27 27 be 1c 35 cf bc 24 63 25 3c db fb 79 bc
       -0.16323724 -0.02529388 0.010094438 -0.015257801
0002f0 23 97 a5 3c d0 8d b9 3e 83 1e 2d 3e c5 3a f7 3c
       0.02021367 0.36241007 0.1690617 0.03017939
000300 cd 3a 90 bd 09 18 34 bd 71 63 14 bf 05 a1 89 bc
       -0.07042465 -0.043968234 -0.57964236 -0.016800413
000310 d7 18 f1 3d ac 87 bf 3d 05 1a 04 be 73 17 94 be
       0.11772316 0.09352049 -0.1290055 -0.2892414
000320 92 05 cc bc f7 fc 27 bd 64 2f fb 3d 55 f7 77 3d
       -0.024905 -0.04101273 0.122648984 0.06053861
000330 17 d0 3c 3e 82 c2 23 be c7 a7 fc bd 5c f0 10 3e
       0.18438755 -0.15992168 -0.123366885 0.1415419
000340 84 e5 b2 bd 49 46 ac 3d 6b 67 72 bd 9e 67 04 3e
       -0.08735183 0.08411843 -0.05918066 0.12930152
000350 b1 67 f9 3d 54 08 27 bf 4c ed 7e 3e 5e 6b 98 3d
       0.12177981 -0.6524708 0.24895209 0.07442354
000360 4d 07 cd 3d 23 97 98 bd ed 6a 44 bd ae d8 d7 3d
       0.10011158 -0.07450702 -0.047953535 0.10539375
000370 f0 9e 24 3e 6e 74 6e bc 53 bf 45 3d b2 7a d8 3d
       0.16076255 -0.014554126 0.048278164 0.10570277
000380 0b d1 07 3e 2f 43 f8 3c 7e 85 16 3e db 69 19 be
       0.13263337 0.030305473 0.1469936 -0.14981787
000390 88 ec 24 be 96 32 e7 3e 6f 34 e9 be 3c 67 80 3c
       -0.16105855 0.45155782 -0.45547816 0.015674226
0003a0 3b 33 18 3d ce 84 40 3c 29 c4 c9 bd 35 f5 a3 bc
       0.037158232 0.011750413 -0.09851868 -0.020014385
0003b0 a4 d4 89 3c 9b 7d 0c 3d e1 17 85 bd c9 93 cb 3d
       0.016825028 0.034299474 -0.06498695 0.09940297
0003c0 58 ee 4f bd 82 31 0e be 4a e1 80 3c 36 f6 18 3e
       -0.05076441 -0.13886073 0.015732426 0.14937672
0003d0 02 cb 8e 3c 43 b2 08 be ac 31 61 3c 6c 92 da 3d
       0.017430786 -0.13349251 0.013744753 0.10672459
0003e0 60 23 b3 3d ec 45 f1 3d 88 46 d0 bc 5d 3c 11 3d
       0.087469816 0.11780915 -0.025424257 0.035457958
0003f0 9f 35 b0 3a 07 de 32 3f 37 12 60 bd 4b 08 ae 3d
       0.0013443715 0.69870037 -0.05470487 0.084976755

module_list.0.fc.bias f4 [64]
000000 78 4a 83 3d b0 10 73 3f f6 d4 de 3d cf 31 de 3e
       0.06410688 0.9494734 0.10880463 0.43397376
000010 fe 24 19 3e ae 2c 2b bf 95 1e ca 3d 23 24 97 3c
       0.14955518 -0.6686505 0.09869114 0.018449849
000020 08 ad 26 be 68 75 d3 bd 4d e8 26 bf d4 f0 0d be
       -0.16276944 -0.10325128 -0.6519821 -0.138614
000030 55 a2 ba be 3d f0 26 bf 76 cb 11 3f 36 f5 dd bd
       -0.36451975 -0.65210325 0.5695108 -0.10837786
000040 f8 02 0a be 44 18 56 3e 96 92 13 3e df 7c bc 3e
       -0.13477695 0.20907694 0.14411387 0.3681402
000050 a6 3d f6 be d8 bd 64 be b5 f5 ef bd 7b 33 a6 be
       -0.4809391 -0.22338045 -0.11716787 -0.3246115
000060 a0 91 e3 3e 56 cf 8e be 86 43 9a bd 60 fd c4 bb
       0.4444704 -0.2789256 -0.0753241 -0.00601165
000070 1e 2e 32 3e 9a 29 9e be 74 d7 6b be ba 5e 7a be
       0.17400405 -0.30891114 -0.23031408 -0.24450198
000080 9b 76 78 3d 66 96 c6 3e dc 4d 7f be a2 c4 6d 3e
       0.060659986 0.3878662 -0.24932045 0.2321954
000090 c9 b1 1f bf f8 86 a4 bd a0 18 a7 3c 0d 59 98 3d
       -0.62380654 -0.08033556 0.020397484 0.0743886
0000a0 85 2c 63 3f 81 34 9e be 8c ac fe bd 8b 82 3c 3f
       0.88739806 -0.30899432 -0.124352545 0.7363669
0000b0 56 29 2e be 41 f6 e2 be e0 65 68 bd 02 63 81 3d
       -0.17007956 -0.44328502 -0.05673778 0.06317712
0000c0 19 16 86 be 24 7c 10 3e ac 70 11 3e 56 c9 d2 3c
       -0.26188734 0.14109856 0.14203137 0.02573077
0000d0 e3 43 22 3e 83 7c 3f be 0d 06 a2 bd 57 55 2d be
       0.15846209 -0.18699841 -0.0791131 -0.16927086
0000e0 8c a8 ea bd bb 5a e7 bd c0 35 99 3c 4d 91 04 be
       -0.11457929 -0.11296602 0.018702388 -0.12946053
0000f0 f8 6b 70 3e 27 21 5e be f6 ea 5b 3e 50 56 c9 bc
       0.23478687 -0.21692334 0.21476349 -0.02457729

module_list.0.fc.mask.mask f4 [64, 16]
000000 00 00 00 00 00 00 80 3f 00 00 00 00 00 00 00 00
       0.0 1.0 0.0 0.0
000010 00 00 00 00 00 00 00 00 00 00 00 00 00 00 00 00
       0.0 0.0 0.0 0.0
000020 00 00 80 3f 00 00 00 00 00 00 00 00 00 00 00 00
       1.0 0.0 0.0 0.0
000030 00 00 00 00 00 00 80 3f 00 00 00 00 00 00 00 00
       0.0 1.0 0.0 0.0
000040 00 00 00 00 00 00 80 3f 00 00 00 00 00 00 00 00
       0.0 1.0 0.0 0.0
000050 00 00 00 00 00 00 80 3f 00 00 00 00 00 00 00 00
       0.0 1.0 0.0 0.0
000060 00 00 00 00 00 00 00 00 00 00 00 00 00 00 00 00
       0.0 0.0 0.0 0.0
000070 00 00 00 00 00 00 00 00 00 00 00 00 00 00 80 3f
       0.0 0.0 0.0 1.0
000080 00 00 00 00 00 00 80 3f 00 00 00 00 00 00 00 00
       0.0 1.0 0.0 0.0
000090 00 00 00 00 00 00 00 00 00 00 00 00 00 00 80 3f
       0.0 0.0 0.0 1.0
0000a0 00 00 00 00 00 00 00 00 00 00 00 00 00 00 00 00
       0.0 0.0 0.0 0.0
0000b0 00 00 80 3f 00 00 00 00 00 00 00 00 00 00 00 00
       1.0 0.0 0.0 0.0
0000c0 00 00 00 00 00 00 00 00 00 00 80 3f 00 00 00 00
       0.0 0.0 1.0 0.0
0000d0 00 00 00 00 00 00 00 00 00 00 00 00 00 00 00 00
       0.0 0.0 0.0 0.0
0000e0 00 00 80 3f 00 00 80 3f 00 00 00 00 00 00 00 00
       1.0 1.0 0.0 0.0
0000f0 00 00 00 00 00 00 00 00 00 00 00 00 00 00 00 00
       0.0 0.0 0.0 0.0
000100 00 00 00 00 00 00 00 00 00 00 00 00 00 00 00 00
       0.0 0.0 0.0 0.0
000110 00 00 00 00 00 00 00 00 00 00 00 00 00 00 00 00
       0.0 0.0 0.0 0.0
000120 00 00 00 00 00 00 00 00 00 00 00 00 00 00 00 00
       0.0 0.0 0.0 0.0
000130 00 00 80 3f 00 00 80 3f 00 00 80 3f 00 00 00 00
       1.0 1.0 1.0 0.0
000140 00 00 00 00 00 00 00 00 00 00 00 00 00 00 00 00
       0.0 0.0 0.0 0.0
000150 00 00 80 3f 00 00 80 3f 00 00 00 00 00 00 00 00
       1.0 1.0 0.0 0.0
000160 00 00 00 00 00 00 80 3f 00 00 00 00 00 00 00 00
       0.0 1.0 0.0 0.0
000170 00 00 00 00 00 00 00 00 00 00 00 00 00 00 00 00
       0.0 0.0 0.0 0.0
000180 00 00 00 00 00 00 00 00 00 00 00 00 00 00 00 00
       0.0 0.0 0.0 0.0
000190 00 00 00 00 00 00 00 00 00 00 00 00 00 00 80 3f
       0.0 0.0 0.0 1.0
0001a0 00 00 00 00 00 00 00 00 00 00 80 3f 00 00 00 00
       0.0 0.0 1.0 0.0
0001b0 00 00 00 00 00 00 00 00 00 00 80 3f 00 00 00 00
       0.0 0.0 1.0 0.0
0001c0 00 00 00 00 00 00 00 00 00 00 00 00 00 00 80 3f
       0.0 0.0 0.0 1.0
0001d0 00 00 80 3f 00 00 00 00 00 00 80 3f 00 00 00 00
       1.0 0.0 1.0 0.0
0001e0 00 00 00 00 00 00 00 00 00 00 00 00 00 00 00 00
       0.0 0.0 0.0 0.0
0001f0 00 00 00 00 00 00 00 00 00 00 00 00 00 00 00 00
       0.0 0.0 0.0 0.0
000200 00 00 00 00 00 00 00 00 00 00 00 00 00 00 00 00
       0.0 0.0 0.0 0.0
000210 00 00 80 3f 00 00 00 00 00 00 00 00 00 00 00 00
       1.0 0.0 0.0 0.0
000220 00 00 00 00 00 00 00 00 00 00 00 00 00 00 00 00
       0.0 0.0 0.0 0.0
000230 00 00 80 3f 00 00 00 00 00 00 00 00 00 00 80 3f
       1.0 0.0 0.0 1.0
000240 00 00 80 3f 00 00 00 00 00 00 00 00 00 00 00 00
       1.0 0.0 0.0 0.0
000250 00 00 00 00 00 00 00 00 00 00 00 00 00 00 00 00
       0.0 0.0 0.0 0.0
000260 00 00 00 00 00 00 00 00 00 00 00 00 00 00 80 3f
       0.0 0.0 0.0 1.0
000270 00 00 00 00 00 00 00 00 00 00 80 3f 00 00 00 00
       0.0 0.0 1.0 0.0
000280 00 00 00 00 00 00 00 00 00 00 00 00 00 00 00 00
       0.0 0.0 0.0 0.0
000290 00 00 80 3f 00 00 00 00 00 00 00 00 00 00 00 00
       1.0 0.0 0.0 0.0
0002a0 00 00 80 3f 00 00 00 00 00 00 00 00 00 00 00 00
       1.0 0.0 0.0 0.0
0002b0 00 00 80 3f 00 00 00 00 00 00 00 00 00 00 00 00
       1.0 0.0 0.0 0.0
0002c0 00 00 00 00 00 00 80 3f 00 00 00 00 00 00 00 00
       0.0 1.0 0.0 0.0
0002d0 00 00 80 3f 00 00 00 00 00 00 00 00 00 00 00 00
       1.0 0.0 0.0 0.0
0002e0 00 00 00 00 00 00 00 00 00 00 00 00 00 00 00 00
       0.0 0.0 0.0 0.0
0002f0 00 00 00 00 00 00 80 3f 00 00 00 00 00 00 00 00
       0.0 1.0 0.0 0.0
000300 00 00 00 00 00 00 00 00 00 00 80 3f 00 00 00 00
       0.0 0.0 1.0 0.0
000310 00 00 00 00 00 00 00 00 00 00 00 00 00 00 80 3f
       0.0 0.0 0.0 1.0
000320 00 00 00 00 00 00 00 00 00 00 00 00 00 00 00 00
       0.0 0.0 0.0 0.0
000330 00 00 80 3f 00 00 00 00 00 00 00 00 00 00 00 00
       1.0 0.0 0.0 0.0
000340 00 00 00 00 00 00 00 00 00 00 00 00 00 00 00 00
       0.0 0.0 0.0 0.0
000350 00 00 00 00 00 00 80 3f 00 00 80 3f 00 00 00 00
       0.0 1.0 1.0 0.0
000360 00 00 00 00 00 00 00 00 00 00 00 00 00 00 00 00
       0.0 0.0 0.0 0.0
000370 00 00 00 00 00 00 80 3f 00 00 00 00 00 00 00 00
       0.0 1.0 0.0 0.0
000380 00 00 00 00 00 00 00 00 00 00 00 00 00 00 00 00
       0.0 0.0 0.0 0.0
000390 00 00 00 00 00 00 80 3f 00 00 80 3f 00 00 80 3f
       0.0 1.0 1.0 1.0
0003a0 00 00 00 00 00 00 00 00 00 00 00 00 00 00 00 00
       0.0 0.0 0.0 0.0
0003b0 00 00 00 00 00 00 00 00 00 00 00 00 00 00 00 00
       0.0 0.0 0.0 0.0
0003c0 00 00 00 00 00 00 80 3f 00 00 00 00 00 00 00 00
       0.0 1.0 0.0 0.0
0003d0 00 00 00 00 00 00 00 00 00 00 00 00 00 00 00 00
       0.0 0.0 0.0 0.0
0003e0 00 00 00 00 00 00 00 00 00 00 00 00 00 00 00 00
       0.0 0.0 0.0 0.0
0003f0 00 00 00 00 00 00 80 3f 00 00 00 00 00 00 80 3f
       0.0 1.0 0.0 1.0

module_list.0.output_quant.pre_transforms.0.weight f4 [64]
000000 9e d6 2d 3f 2e 1b f6 3e dd e6 e0 3d 9b fa 8a 3e
       0.67905605 0.4806761 0.10981534 0.27144322
000010 48 b7 a9 3e 43 27 b8 3e 8e c8 d3 3e 55 14 56 3f
       0.33147645 0.35967454 0.4136395 0.83624774
000020 bb 01 df 3d 9e d6 2d 3f 26 42 0e 3f 41 d9 bd 3e
       0.10889002 0.67905605 0.55569685 0.37079814
000030 b3 6f 1c 3f c7 96 cf 3e e8 88 50 3e 08 fe 9a 3e
       0.6110794 0.4054472 0.20364726 0.30271935
000040 70 ca 06 3f 33 fb 0c 3f 9e d6 2d 3f 75 4e 64 3f
       0.52652645 0.550708 0.67905605 0.89182216
000050 e6 30 24 3e ed 2d a8 3e f3 32 42 3e e6 de 02 3f
       0.16034278 0.3284754 0.18964748 0.51121366
000060 66 57 86 3e f8 ae d5 3f 37 55 31 3f 32 3e ee 3e
       0.26238555 1.6694021 0.6927065 0.46531826
000070 9e d6 2d 3f c3 a7 46 3e 9e d6 2d 3f 9e d6 2d 3f
       0.67905605 0.19399934 0.67905605 0.67905605
000080 dd 86 b6 3f 13 5a 2d 3e 55 c1 38 3f 9e d6 2d 3f
       1.4259907 0.16928892 0.7217 0.67905605
000090 f5 fe 2f 3e 9e d6 2d 3f 9e d6 2d 3f d3 4f bf 3d
       0.17187102 0.67905605 0.67905605 0.09341397
0000a0 7b 7b 01 3f 53 e3 af 3e 9e d6 2d 3f 09 de 4c 3f
       0.5057904 0.34353122 0.67905605 0.800263
0000b0 9e d6 2d 3f fb de f3 3e 08 65 c0 3f 41 c5 88 3e
       0.67905605 0.47631058 1.5030832 0.26712993
0000c0 ac b8 66 3e 5a 34 b0 3e 9e d6 2d 3f 82 5a 0d 3e
       0.22531384 0.3441494 0.67905605 0.13804057
0000d0 80 84 01 3f cb 98 04 40 d8 7e bb 3f e1 bf 9f 3e
       0.50592804 2.0718257 1.4648085 0.3120108
0000e0 9e d6 2d 3f 99 71 70 3e 9e d6 2d 3f 49 1c f6 3f
       0.67905605 0.23480834 0.67905605 1.9227382
0000f0 9e d6 2d 3f 9f 63 8d 3e ee 89 32 3f 9e d6 2d 3f
       0.67905605 0.27615067 0.69741714 0.67905605

module_list.0.output_quant.pre_transforms.0.bias f4 [64]
000000 00 00 00 00 2a 40 a1 3d 4f 1f 47 bf ca 78 68 3e
       0.0 0.078735664 -0.7778215 0.22702327
000010 22 4a ab be d6 aa e4 3e 2f b8 26 3f 2d 68 0d 3f
       -0.33454996 0.44661587 0.6512479 0.55237085
000020 41 dc 06 3e 00 00 00 00 a3 24 97 3d b9 bb 1a be
       0.13169958 0.0 0.07380035 -0.15110673
000030 3d 16 4f 3f ff ff 5e 3e 6c 63 9b 3a ef ad e1 3e
       0.8089331 0.21777342 0.0011855192 0.44078013
000040 d3 c6 eb bd 29 3a 37 bb 00 00 00 00 92 f6 24 3d
       -0.11512532 -0.002795825 0.0 0.04027421
000050 66 b3 45 3e f3 dd aa 3e b4 5c e7 3e ec 2c cb bc
       0.19306716 0.3337246 0.45187914 -0.024801694
000060 bb fc 3b bd d9 71 9a 3e f2 b3 e0 bd fe 20 b7 3e
       -0.04589532 0.30164984 -0.10971822 0.3576736
000070 00 00 00 00 f0 30 89 3e 00 00 00 00 00 00 00 00
       0.0 0.2679515 0.0 0.0
000080 34 ae 9f 3e 18 36 6d 3e 51 fd 50 be 00 00 00 00
       0.31187594 0.23165166 -0.20409133 0.0
000090 7d 8d 82 3e 00 00 00 00 00 00 00 00 da 76 de be
       0.25498572 0.0 0.0 -0.43450052
0000a0 23 9f 12 3f b5 dc 80 be 00 00 00 00 40 a8 59 3f
       0.57274073 -0.25168386 0.0 0.85022354
0000b0 00 00 00 00 a4 f6 99 bd 88 de cd 3e 3f a7 92 be
       0.0 -0.07517746 0.4020884 -0.28643224
0000c0 20 a2 f0 3e 5d a8 2b be 00 00 00 00 28 e3 99 be
       0.46998692 -0.16763444 0.0 -0.3005612
0000d0 54 7d 0b 3f 60 79 73 3e 57 fe 8c 3e ed ea c6 3d
       0.5448811 0.2377677 0.27537796 0.09712777
0000e0 00 00 00 00 05 17 96 3e 00 00 00 00 80 3f 92 bd
       0.0 0.29314438 0.0 -0.07141018
0000f0 00 00 00 00 82 92 ef 3e e7 03 33 bf 00 00 00 00
       0.0 0.46791464 -0.6992783 0.0

module_list.0.output_quant.pre_transforms.0.running_mean f4 [64]
000000 da e6 45 3d d2 3d 55 3f f3 61 7d 3d fe ec df 3e
       0.04831586 0.83297455 0.06186099 0.43735498
000010 53 0a c1 3d c8 3c 25 bf 8b 7a 55 3e bb 9a 02 3e
       0.09425797 -0.6454587 0.20847528 0.12754337
000020 93 5e 7d be ec f9 f2 bd 9c 91 28 bf 6c 45 14 be
       -0.24743108 -0.11864075 -0.6584718 -0.14479607
000030 92 de 99 be 6c 3d 21 bf 3c 37 0d 3f 59 e6 a0 bd
       -0.3005262 -0.6298435 0.55162406 -0.07856435
000040 dd 92 17 be 7c 70 6f 3e d4 22 16 3e 89 21 70 3e
       -0.14802118 0.23382753 0.14661723 0.23450293
000050 e6 ce ef be 41 8b 5f be b1 5e e5 bd 42 74 80 be
       -0.46837538 -0.21830465 -0.111997016 -0.25088698
000060 d4 e3 c5 3e b5 45 36 be 39 ef 31 be e3 7c 67 bb
       0.38650382 -0.17800029 -0.17376412 -0.003532224
000070 8b 21 2d 3e 99 6b 9c be 60 b4 68 be 77 b9 85 be
       0.16907327 -0.3055084 -0.22725058 -0.2611806
000080 a9 91 40 3e 08 a6 d3 3e 2b b8 3e be da 46 67 3e
       0.18805565 0.4133761 -0.18624942 0.22585621
000090 a9 37 2b bf ca 9d d7 bd 40 f2 3b 3c 31 e2 39 3d
       -0.66881806 -0.10528143 0.011471331 0.04538173
0000a0 7a c3 6d 3f 72 70 c2 be ed 6e cf bd 65 b9 55 3f
       0.928764 -0.37976414 -0.10128579 0.83486015
0000b0 87 fa 37 be d8 68 d3 be ab 1a 90 be 22 5b 9c bd
       -0.17966662 -0.41290927 -0.28145346 -0.0763457
0000c0 ec 95 5a be 15 b7 5d 3d d1 56 08 3e 9a 93 ea 3d
       -0.21346253 0.05412968 0.13314368 0.11453934
0000d0 84 93 2d 3e 89 c6 b0 be 67 ca 4a be da d5 46 be
       0.16950804 -0.3452647 -0.19803773 -0.19417515
0000e0 a3 21 e2 bd 87 78 fc bd 6e 18 13 3d 80 25 53 be
       -0.11041572 -0.12327676 0.03591197 -0.20619774
0000f0 16 28 7d 3e 41 6a 1f be 63 96 58 3e 63 0e 90 bc
       0.24722323 -0.15567876 0.21151118 -0.017584985

module_list.0.output_quant.pre_transforms.0.running_var f4 [64]
000000 b5 cf 77 39 4c cf 8f 3b 96 20 ba 3a 7a 15 07 3b
       0.00023633133 0.0043887254 0.0014200385 0.0020612166
000010 07 eb e6 3a b3 08 c8 3b da 14 40 3c 3a a3 bd 3b
       0.0017617651 0.0061045527 0.011723721 0.0057872804
000020 6a dc 5c 3b 2b a3 7e 39 5e 30 80 3b 8d 79 ea 3a
       0.0033700713 0.00024284112 0.003912016 0.0017889008
000030 7b f6 8e 3b ae c3 a6 3b a7 8b 5e 3b 9e 25 6c 3b
       0.004362879 0.005089245 0.003395775 0.0036033164
000040 f9 d6 ce 3b f1 02 a4 3a 5e 05 93 38 80 08 27 3c
       0.006312248 0.0012513084 7.010506e-05 0.010194898
000050 54 c6 e3 3a 6d 84 60 3b f9 18 01 3a af 70 ec 3a
       0.0017377832 0.003425862 0.00049246807 0.0018038953
000060 ae 97 bd 3a aa cf ce 3b 34 a8 5f 3b 18 84 95 3b
       0.001446476 0.0063113766 0.0034127356 0.004562866
000070 42 99 ca 38 d4 be 34 3a 8e 5b 2a 38 4d 2f 04 39
       9.660657e-05 0.00068948907 4.0616425e-05 0.00012606122
000080 b4 eb 98 3c ca 07 a4 3b 0f 3c 87 3b 09 a7 42 38
       0.01866708 0.0050058113 0.0041270326 4.6408768e-05
000090 2c 70 bc 3a c1 7e fd 39 ec ca f2 39 d7 c5 bf 3b
       0.0014376692 0.0004835036 0.00046309025 0.005852442
0000a0 ea 87 bf 3b fe 71 c8 3b 91 0b ea 39 ac 04 2b 3c
       0.0058450596 0.0061171046 0.00044640576 0.010438126
0000b0 e9 43 46 37 ee 00 2d 3b 25 c2 c2 3c 97 6a f6 3b
       1.1817531e-05 0.002639826 0.023774216 0.0075200307
0000c0 ed 49 f9 3a 60 07 ba 3b c9 83 f4 39 55 3f 39 3b
       0.0019019224 0.0056771487 0.00046637494 0.0028266509
0000d0 56 6b 35 3b 36 04 de 3c 17 f5 dd 3b 25 f1 ad 3b
       0.0027682385 0.027101617 0.0067736018 0.0053082877
0000e0 97 30 31 3a 86 fa be 3a 4d f4 a7 39 d7 5b e8 3b
       0.00067592546 0.0014570511 0.0003203474 0.0070910263
0000f0 91 fe 03 3a df 2a 9c 3b c4 de 19 3b 52 da 1b 39
       0.0005035187 0.004765853 0.0023478726 0.00014863283

module_list.1.input_quant.pre_transforms.0.weight f4 [64]
000000 9e d6 2d 3f 2e 1b f6 3e dd e6 e0 3d 9b fa 8a 3e
       0.67905605 0.4806761 0.10981534 0.27144322
000010 48 b7 a9 3e 43 27 b8 3e 8e c8 d3 3e 55 14 56 3f
       0.33147645 0.35967454 0.4136395 0.83624774
000020 bb 01 df 3d 9e d6 2d 3f 26 42 0e 3f 41 d9 bd 3e
       0.10889002 0.67905605 0.55569685 0.37079814
000030 b3 6f 1c 3f c7 96 cf 3e e8 88 50 3e 08 fe 9a 3e
       0.6110794 0.4054472 0.20364726 0.30271935
000040 70 ca 06 3f 33 fb 0c 3f 9e d6 2d 3f 75 4e 64 3f
       0.52652645 0.550708 0.67905605 0.89182216
000050 e6 30 24 3e ed 2d a8 3e f3 32 42 3e e6 de 02 3f
       0.16034278 0.3284754 0.18964748 0.51121366
000060 66 57 86 3e f8 ae d5 3f 37 55 31 3f 32 3e ee 3e
       0.26238555 1.6694021 0.6927065 0.46531826
000070 9e d6 2d 3f c3 a7 46 3e 9e d6 2d 3f 9e d6 2d 3f
       0.67905605 0.19399934 0.67905605 0.67905605
000080 dd 86 b6 3f 13 5a 2d 3e 55 c1 38 3f 9e d6 2d 3f
       1.4259907 0.16928892 0.7217 0.67905605
000090 f5 fe 2f 3e 9e d6 2d 3f 9e d6 2d 3f d3 4f bf 3d
       0.17187102 0.67905605 0.67905605 0.09341397
0000a0 7b 7b 01 3f 53 e3 af 3e 9e d6 2d 3f 09 de 4c 3f
       0.5057904 0.34353122 0.67905605 0.800263
0000b0 9e d6 2d 3f fb de f3 3e 08 65 c0 3f 41 c5 88 3e
       0.67905605 0.47631058 1.5030832 0.26712993
0000c0 ac b8 66 3e 5a 34 b0 3e 9e d6 2d 3f 82 5a 0d 3e
       0.22531384 0.3441494 0.67905605 0.13804057
0000d0 80 84 01 3f cb 98 04 40 d8 7e bb 3f e1 bf 9f 3e
       0.50592804 2.0718257 1.4648085 0.3120108
0000e0 9e d6 2d 3f 99 71 70 3e 9e d6 2d 3f 49 1c f6 3f
       0.67905605 0.23480834 0.67905605 1.9227382
0000f0 9e d6 2d 3f 9f 63 8d 3e ee 89 32 3f 9e d6 2d 3f
       0.67905605 0.27615067 0.69741714 0.67905605

module_list.1.input_quant.pre_transforms.0.bias f4 [64]
000000 00 00 00 00 2a 40 a1 3d 4f 1f 47 bf ca 78 68 3e
       0.0 0.078735664 -0.7778215 0.22702327
000010 22 4a ab be d6 aa e4 3e 2f b8 26 3f 2d 68 0d 3f
       -0.33454996 0.44661587 0.6512479 0.55237085
000020 41 dc 06 3e 00 00 00 00 a3 24 97 3d b9 bb 1a be
       0.13169958 0.0 0.07380035 -0.15110673
000030 3d 16 4f 3f ff ff 5e 3e 6c 63 9b 3a ef ad e1 3e
       0.8089331 0.21777342 0.0011855192 0.44078013
000040 d3 c6 eb bd 29 3a 37 bb 00 00 00 00 92 f6 24 3d
       -0.11512532 -0.002795825 0.0 0.04027421
000050 66 b3 45 3e f3 dd aa 3e b4 5c e7 3e ec 2c cb bc
       0.19306716 0.3337246 0.45187914 -0.024801694
000060 bb fc 3b bd d9 71 9a 3e f2 b3 e0 bd fe 20 b7 3e
       -0.04589532 0.30164984 -0.10971822 0.3576736
000070 00 00 00 00 f0 30 89 3e 00 00 00 00 00 00 00 00
       0.0 0.2679515 0.0 0.0
000080 34 ae 9f 3e 18 36 6d 3e 51 fd 50 be 00 00 00 00
       0.31187594 0.23165166 -0.20409133 0.0
000090 7d 8d 82 3e 00 00 00 00 00 00 00 00 da 76 de be
       0.25498572 0.0 0.0 -0.43450052
0000a0 23 9f 12 3f b5 dc 80 be 00 00 00 00 40 a8 59 3f
       0.57274073 -0.25168386 0.0 0.85022354
0000b0 00 00 00 00 a4 f6 99 bd 88 de cd 3e 3f a7 92 be
       0.0 -0.07517746 0.4020884 -0.28643224
0000c0 20 a2 f0 3e 5d a8 2b be 00 00 00 00 28 e3 99 be
       0.46998692 -0.16763444 0.0 -0.3005612
0000d0 54 7d 0b 3f 60 79 73 3e 57 fe 8c 3e ed ea c6 3d
       0.5448811 0.2377677 0.27537796 0.09712777
0000e0 00 00 00 00 05 17 96 3e 00 00 00 00 80 3f 92 bd
       0.0 0.29314438 0.0 -0.07141018
0000f0 00 00 00 00 82 92 ef 3e e7 03 33 bf 00 00 00 00
       0.0 0.46791464 -0.6992783 0.0

module_list.1.input_quant.pre_transforms.0.running_mean f4 [64]
000000 da e6 45 3d d2 3d 55 3f f3 61 7d 3d fe ec df 3e
       0.04831586 0.83297455 0.06186099 0.43735498
000010 53 0a c1 3d c8 3c 25 bf 8b 7a 55 3e bb 9a 02 3e
       0.09425797 -0.6454587 0.20847528 0.12754337
000020 93 5e 7d be ec f9 f2 bd 9c 91 28 bf 6c 45 14 be
       -0.24743108 -0.11864075 -0.6584718 -0.14479607
000030 92 de 99 be 6c 3d 21 bf 3c 37 0d 3f 59 e6 a0 bd
       -0.3005262 -0.6298435 0.55162406 -0.07856435
000040 dd 92 17 be 7c 70 6f 3e d4 22 16 3e 89 21 70 3e
       -0.14802118 0.23382753 0.14661723 0.23450293
000050 e6 ce ef be 41 8b 5f be b1 5e e5 bd 42 74 80 be
       -0.46837538 -0.21830465 -0.111997016 -0.25088698
000060 d4 e3 c5 3e b5 45 36 be 39 ef 31 be e3 7c 67 bb
       0.38650382 -0.17800029 -0.17376412 -0.003532224
000070 8b 21 2d 3e 99 6b 9c be 60 b4 68 be 77 b9 85 be
       0.16907327 -0.3055084 -0.22725058 -0.2611806
000080 a9 91 40 3e 08 a6 d3 3e 2b b8 3e be da 46 67 3e
       0.18805565 0.4133761 -0.18624942 0.22585621
000090 a9 37 2b bf ca 9d d7 bd 40 f2 3b 3c 31 e2 39 3d
       -0.66881806 -0.10528143 0.011471331 0.04538173
0000a0 7a c3 6d 3f 72 70 c2 be ed 6e cf bd 65 b9 55 3f
       0.928764 -0.37976414 -0.10128579 0.83486015
0000b0 87 fa 37 be d8 68 d3 be ab 1a 90 be 22 5b 9c bd
       -0.17966662 -0.41290927 -0.28145346 -0.0763457
0000c0 ec 95 5a be 15 b7 5d 3d d1 56 08 3e 9a 93 ea 3d
       -0.21346253 0.05412968 0.13314368 0.11453934
0000d0 84 93 2d 3e 89 c6 b0 be 67 ca 4a be da d5 46 be
       0.16950804 -0.3452647 -0.19803773 -0.19417515
0000e0 a3 21 e2 bd 87 78 fc bd 6e 18 13 3d 80 25 53 be
       -0.11041572 -0.12327676 0.03591197 -0.20619774
0000f0 16 28 7d 3e 41 6a 1f be 63 96 58 3e 63 0e 90 bc
       0.24722323 -0.15567876 0.21151118 -0.017584985

module_list.1.input_quant.pre_transforms.0.running_var f4 [64]
000000 b5 cf 77 39 4c cf 8f 3b 96 20 ba 3a 7a 15 07 3b
       0.00023633133 0.0043887254 0.0014200385 0.0020612166
000010 07 eb e6 3a b3 08 c8 3b da 14 40 3c 3a a3 bd 3b
       0.0017617651 0.0061045527 0.011723721 0.0057872804
000020 6a dc 5c 3b 2b a3 7e 39 5e 30 80 3b 8d 79 ea 3a
       0.0033700713 0.00024284112 0.003912016 0.0017889008
000030 7b f6 8e 3b ae c3 a6 3b a7 8b 5e 3b 9e 25 6c 3b
       0.004362879 0.005089245 0.003395775 0.0036033164
000040 f9 d6 ce 3b f1 02 a4 3a 5e 05 93 38 80 08 27 3c
       0.006312248 0.0012513084 7.010506e-05 0.010194898
000050 54 c6 e3 3a 6d 84 60 3b f9 18 01 3a af 70 ec 3a
       0.0017377832 0.003425862 0.00049246807 0.0018038953
000060 ae 97 bd 3a aa cf ce 3b 34 a8 5f 3b 18 84 95 3b
       0.001446476 0.0063113766 0.0034127356 0.004562866
000070 42 99 ca 38 d4 be 34 3a 8e 5b 2a 38 4d 2f 04 39
       9.660657e-05 0.00068948907 4.0616425e-05 0.00012606122
000080 b4 eb 98 3c ca 07 a4 3b 0f 3c 87 3b 09 a7 42 38
       0.01866708 0.0050058113 0.0041270326 4.6408768e-05
000090 2c 70 bc 3a c1 7e fd 39 ec ca f2 39 d7 c5 bf 3b
       0.0014376692 0.0004835036 0.00046309025 0.005852442
0000a0 ea 87 bf 3b fe 71 c8 3b 91 0b ea 39 ac 04 2b 3c
       0.0058450596 0.0061171046 0.00044640576 0.010438126
0000b0 e9 43 46 37 ee 00 2d 3b 25 c2 c2 3c 97 6a f6 3b
       1.1817531e-05 0.002639826 0.023774216 0.0075200307
0000c0 ed 49 f9 3a 60 07 ba 3b c9 83 f4 39 55 3f 39 3b
       0.0019019224 0.0056771487 0.00046637494 0.0028266509
0000d0 56 6b 35 3b 36 04 de 3c 17 f5 dd 3b 25 f1 ad 3b
       0.0027682385 0.027101617 0.0067736018 0.0053082877
0000e0 97 30 31 3a 86 fa be 3a 4d f4 a7 39 d7 5b e8 3b
       0.00067592546 0.0014570511 0.0003203474 0.0070910263
0000f0 91 fe 03 3a df 2a 9c 3b c4 de 19 3b 52 da 1b 39
       0.0005035187 0.004765853 0.0023478726 0.00014863283

module_list.1.fc.weight f4 [32, 64]
000000 1e 5e 1f 3d 61 36 ad be 4c 64 ad 3c b1 a0 1a bd
       0.038908117 -0.3383055 0.02116599 -0.037750904
000010 fa 2e 0c bd 82 d8 0c bd 1e 06 d3 bc a6 19 1a bc
       -0.034224488 -0.034386165 -0.025759753 -0.009405529
000020 9d 4c 7f bc 3a 51 29 bc 28 14 90 bd fa f5 8f 3e
       -0.015582231 -0.010334307 -0.070350945 0.28117353
000030 d7 4c f9 3c 58 e5 17 bd e5 1a 10 3c 5e a1 9e 3d
       0.030432148 -0.037083954 0.008795475 0.07745622
000040 81 99 89 3d 9d 52 80 bd 2f 3e 9f 3b d3 df 26 bb
       0.06718732 -0.06265757 0.004859708 -0.0025463
000050 3a e6 31 bd 55 58 ec bc 55 29 59 bc 6f b8 72 3d
       -0.04343245 -0.028850714 -0.013254483 0.05925792
000060 8d 20 97 3c a8 3b a7 3d a1 ed e4 3c 9f bf a3 3d
       0.018448139 0.081656754 0.027945342 0.07995533
000070 95 0d 72 3d e8 3e da be 28 bf cc 3c 8b af 93 bd
       0.059094984 -0.4262612 0.024993494 -0.072112165
000080 43 bc 91 bb 4a 5f a8 3d 3b 24 cc 3b dc 24 a6 bd
       -0.0044474914 0.082213 0.006229905 -0.08112499
000090 33 ae 06 bc b0 4f 14 bd e0 bd 69 bd 0f b3 28 3d
       -0.008220243 -0.03620881 -0.057065845 0.04118639
0000a0 bb 34 9e 3c 59 92 8f 3d c0 34 f0 bc 86 0a 2a 3d
       0.019312253 0.070103355 -0.029322028 0.041513942
0000b0 89 51 0a 3c 97 93 49 3d 2b dc 93 bd c5 e2 a9 bc
       0.008442291 0.04921302 -0.07219728 -0.020738015
0000c0 03 c1 ec bc 36 d6 80 bb 35 53 46 3d 4d 6b 23 3d
       -0.028900629 -0.003931786 0.048419196 0.039897252
0000d0 41 ba 04 bc dd b9 e3 3a e9 82 ab bd 28 31 ab 3d
       -0.008101047 0.0017374117 -0.083745785 0.08358985
0000e0 17 4c 0a bd 2e 94 66 bc ee a9 0c 3b df 71 a0 bd
       -0.03376397 -0.014073415 0.002146359 -0.07834219
0000f0 d5 a8 5f 3d 05 4f 08 bd da 35 3a bd e1 48 3a 3d
       0.05460437 -0.033278484 -0.045461513 0.04547966
000100 f8 32 af 3c a7 11 31 bd 75 98 a9 3d a5 6e ec 3c
       0.021386608 -0.043229725 0.08281032 0.028861353
000110 48 21 5d 3d 13 74 e8 bc 13 a3 de 3c ff 6d 19 3c
       0.053986818 -0.028375661 0.02717737 0.009364604
000120 37 67 82 3d 63 44 66 bd 6f 2d 49 3c 4f f7 34 bc
       0.06367343 -0.056217562 0.012278899 -0.011045291
000130 56 c1 db 3e 34 31 48 3d e1 58 9c 3d d1 70 f9 3c
       0.4292094 0.04887505 0.0763414 0.030449303
000140 2e 92 2a 3d 1e 2e 51 bc ad ae 27 3c b2 fd a0 3c
       0.041643314 -0.012767343 0.010234517 0.019652221
000150 e2 e5 88 be 8b f5 92 bd 77 44 79 bd f6 22 55 3d
       -0.26737887 -0.0717574 -0.06085631 0.052035294
000160 30 67 3a bd 17 e5 50 3d ef 01 3c 3d 1b 77 08 3d
       -0.045508564 0.050999727 0.04590028 0.033316713
000170 9d 8f af bc d5 72 9e 3d 3a 62 21 bc e0 d0 07 bd
       -0.021430785 0.07736746 -0.009850079 -0.033158183
000180 97 9a 69 3c e6 79 58 3d 36 bc 2a 3d a6 fd 96 3b
       0.0142580485 0.052850626 0.0416834 0.004607874
000190 51 14 12 3d 9b 92 71 bd 17 30 2a 3d 17 42 12 bd
       0.035663906 -0.058977704 0.04154977 -0.03570756
0001a0 48 c3 54 bd f0 d0 61 bd 92 5e 50 bd 0d 73 3c bc
       -0.051944047 -0.0551309 -0.05087144 -0.01150204
0001b0 72 9f 98 3c 6c 59 2a bd 37 9b ad bd 80 7f a4 3d
       0.018630717 -0.041589186 -0.084768705 0.08032131
0001c0 b9 3a a0 3d 98 b7 36 bd fb 24 82 3d 1b 87 88 bd
       0.078237005 -0.044608682 0.0635471 -0.06666394
0001d0 1e 21 5e bd 79 7a ad 3d 0a 88 39 3b 94 28 14 3e
       -0.0542308 0.084706254 0.0028309845 0.14468604
0001e0 f6 61 ec bc 91 f4 1d bd b4 d1 07 bd 76 f5 ab 3d
       -0.028855305 -0.038563315 -0.033158973 0.08396427
0001f0 52 94 86 bd 1a 31 7c bd c6 3d bf bc 05 c2 35 bc
       -0.065712586 -0.061570264 -0.023344886 -0.011093621
000200 9c 3a 95 3d 4e 44 fa 3b b5 8c 8a 3b 74 b2 48 3d
       0.072865695 0.007637537 0.0042281994 0.04899831
000210 1c 1d 85 3d 75 1c 52 bd a6 d3 a3 bd 99 02 10 3d
       0.06499693 -0.05129667 -0.07999353 0.035158727
000220 84 60 99 3e 37 47 d6 bc e8 76 0b bd a2 45 35 3d
       0.29956448 -0.026157005 -0.034048945 0.04425586
000230 b2 40 a4 bd 81 84 3f bb 69 fa a4 bd 54 98 1e 3c
       -0.08020152 -0.0029223266 -0.080555744 0.009679873
000240 8d 93 9d bd 59 27 81 3c fa c8 8f 3d af 36 d0 3a
       -0.07694159 0.015765833 0.07020755 0.0015885438
000250 c3 b1 ce bc df d9 88 3b 64 98 ff 3c 1c c5 a4 3d
       -0.025231248 0.004176363 0.031200595 0.08045408
000260 2f 7e 38 bd 88 5a 4a 3d e3 85 93 bd 39 71 ab 3d
       -0.045042213 0.049402744 -0.07203271 0.08371205
000270 f3 15 16 bd de f0 51 bc 46 d1 73 3d f6 14 48 3d
       -0.036642026 -0.012813775 0.05952575 0.048848115
000280 5b 84 25 bd a9 38 f4 bb 69 6c 88 bd f1 54 e8 3a
       -0.040409427 -0.0074530435 -0.066613026 0.001772551
000290 13 67 9e bd a1 82 8b bd 5e 92 39 3d c0 9c c0 bc
       -0.077345036 -0.06812025 0.045305602 -0.023512244
0002a0 e5 6e 12 bd 32 c8 70 bc 84 53 a8 bd 5b 0c 9f 3d
       -0.03575029 -0.014696168 -0.08219054 0.077660285
0002b0 52 93 2b bb e5 29 a4 be 86 a4 14 bd f4 e5 30 3d
       -0.002618034 -0.32063213 -0.036289714 0.04318805
0002c0 49 bc 78 be ba b6 05 3d 1d 1c 79 bd 66 80 08 bd
       -0.24290575 0.032644965 -0.060817827 -0.033325575
0002d0 ec f2 58 bd 0d 14 59 bd 82 12 3a bc 70 d9 7a bd
       -0.052966043 -0.052997638 -0.011356952 -0.06124252
0002e0 cd b8 68 bd 76 fc a8 bd e8 ee b7 3c 1f f2 84 bd
       -0.056816865 -0.08251278 0.022452787 -0.064914934
0002f0 ef ee 22 bc f8 ce a7 bc 74 00 8d bd 54 40 68 bd
       -0.0099446615 -0.020484433 -0.06884852 -0.056701973
000300 9e 64 f4 bb 0f ca 7d 3d 37 68 b8 bc 45 de 8e 3e
       -0.0074582836 0.061960276 -0.022510631 0.27903953
000310 f2 09 00 3d e7 6f 82 bd e0 4d d2 3c 50 85 04 bf
       0.031259485 -0.06369 0.0256719 -0.5176592
000320 ba 7c 46 bd 51 cc a7 3d 31 a9 a9 3d 00 1f 45 bd
       -0.048458792 0.08193267 0.08284224 -0.048125267
000330 2c 37 28 3c 2c 09 ab bd 60 eb 3c bd 4e f7 6c 3c
       0.01026706 -0.08351359 -0.04612291 0.014463259
000340 37 6a a0 bd 47 c8 ef bc ad 13 24 bd 57 46 82 bd
       -0.07832759 -0.029270304 -0.040057827 -0.063610725
000350 1c c9 38 3d a4 53 62 bd 74 7b 98 3d 4d c7 81 3c
       0.045113668 -0.055255547 0.07445422 0.015842104
000360 b6 b2 e6 3c 42 c9 79 bd 10 9c 93 3b a5 bf 9f 3d
       0.028161388 -0.06098295 0.004504688 0.07800225
000370 1b 58 34 bd 34 3e 08 bd a0 2d 06 bd de f4 91 bc
       -0.044029336 -0.033262447 -0.032758355 -0.017816957
000380 b4 a7 4e 3d 1c 7a 30 3d c7 be f4 bc 8e 74 70 3d
       0.050452903 0.043085203 -0.029876126 0.058704905
000390 05 94 9f bd 21 9b d0 bc 7c a1 5a bc 22 24 6c bb
       -0.07791904 -0.025464596 -0.013344165 -0.003603228
0003a0 a9 e8 b0 bb 7f a0 f0 3c 24 e0 e7 3c 52 4d 95 bd
       -0.005398829 0.029373406 0.02830512 -0.07290138
0003b0 cf de 0f 3d 73 e0 0a 3c 09 7d 5f 3d d1 90 38 bc
       0.035124596 0.008476364 0.054562602 -0.011264996
0003c0 0a 9d 9e bd f9 e4 c2 3c 8a 6b 0e bd 0c a4 5d bd
       -0.077447966 0.023790823 -0.034770526 -0.054111525
0003d0 75 3b 7a bc 81 c0 89 3d f7 4d 8e bd b3 58 0b bd
       -0.015272965 0.0672617 -0.06948464 -0.034020137
0003e0 f4 57 a5 bd 46 fc 65 bc 6d 78 ba 3c e9 37 2c 3d
       -0.08073416 -0.014037197 0.022762502 0.042045508
0003f0 9c af d5 bc d1 c7 09 3e 4e 86 1a 3d e8 31 48 3d
       -0.026084714 0.1345513 0.03772574 0.04887572

module_list.1.fc.bias f4 [32]
000000 fc 4c aa 3d 07 a8 e1 3e 0e e4 bc bd b0 76 cc 3c
       0.08315465 0.44073507 -0.092231855 0.024958938
000010 6b a0 8a 3d ee 04 91 3e 9e 7f 62 3d 04 af 9b bc
       0.067688785 0.28324074 0.055297486 -0.019004352
000020 ca d8 25 bd a6 e5 d2 be e4 af 8b bd 6b a2 82 bd
       -0.04048995 -0.41190833 -0.06820658 -0.06378635
000030 9d bf 75 3e fb 2e be 3c 19 12 4c 3e d7 ba 95 be
       0.23998876 0.023215761 0.19928779 -0.2924411
000040 fd d2 51 be 95 e0 03 3f 70 1e 54 be 46 9b 3f be
       -0.20490642 0.5151456 -0.20714736 -0.18711576
000050 05 ab 59 3e 4f 30 c2 3e 4a 6b eb bc e8 dd 85 3e
       0.21256645 0.37927482 -0.028737683 0.26145864
000060 57 d0 37 be 0e 7a 26 be 0c d7 c9 3e 82 fb 83 3e
       -0.17950569 -0.16257498 0.3942188 0.25777823
000070 5f 68 32 be 80 39 f9 3b e9 89 43 be e9 1a c7 bd
       -0.17422627 0.0076057315 -0.19095577 -0.097219296

module_list.1.fc.mask.mask f4 [32, 64]
000000 00 00 00 00 00 00 80 3f 00 00 00 00 00 00 00 00
       0.0 1.0 0.0 0.0
000010 00 00 00 00 00 00 00 00 00 00 00 00 00 00 00 00
       0.0 0.0 0.0 0.0
000020 00 00 00 00 00 00 00 00 00 00 00 00 00 00 80 3f
       0.0 0.0 0.0 1.0
000030 00 00 00 00 00 00 00 00 00 00 00 00 00 00 00 00
       0.0 0.0 0.0 0.0
000040 00 00 00 00 00 00 00 00 00 00 00 00 00 00 00 00
       0.0 0.0 0.0 0.0
000050 00 00 00 00 00 00 00 00 00 00 00 00 00 00 00 00
       0.0 0.0 0.0 0.0
000060 00 00 00 00 00 00 00 00 00 00 00 00 00 00 00 00
       0.0 0.0 0.0 0.0
000070 00 00 00 00 00 00 80 3f 00 00 00 00 00 00 00 00
       0.0 1.0 0.0 0.0
000080 00 00 00 00 00 00 00 00 00 00 00 00 00 00 00 00
       0.0 0.0 0.0 0.0
000090 00 00 00 00 00 00 00 00 00 00 00 00 00 00 00 00
       0.0 0.0 0.0 0.0
0000a0 00 00 00 00 00 00 00 00 00 00 00 00 00 00 00 00
       0.0 0.0 0.0 0.0
0000b0 00 00 00 00 00 00 00 00 00 00 00 00 00 00 00 00
       0.0 0.0 0.0 0.0
0000c0 00 00 00 00 00 00 00 00 00 00 00 00 00 00 00 00
       0.0 0.0 0.0 0.0
0000d0 00 00 00 00 00 00 00 00 00 00 00 00 00 00 00 00
       0.0 0.0 0.0 0.0
0000e0 00 00 00 00 00 00 00 00 00 00 00 00 00 00 00 00
       0.0 0.0 0.0 0.0
0000f0 00 00 00 00 00 00 00 00 00 00 00 00 00 00 00 00
       0.0 0.0 0.0 0.0
000100 00 00 00 00 00 00 00 00 00 00 00 00 00 00 00 00
       0.0 0.0 0.0 0.0
000110 00 00 00 00 00 00 00 00 00 00 00 00 00 00 00 00
       0.0 0.0 0.0 0.0
000120 00 00 00 00 00 00 00 00 00 00 00 00 00 00 00 00
       0.0 0.0 0.0 0.0
000130 00 00 80 3f 00 00 00 00 00 00 00 00 00 00 00 00
       1.0 0.0 0.0 0.0
000140 00 00 00 00 00 00 00 00 00 00 00 00 00 00 00 00
       0.0 0.0 0.0 0.0
000150 00 00 80 3f 00 00 00 00 00 00 00 00 00 00 00 00
       1.0 0.0 0.0 0.0
000160 00 00 00 00 00 00 00 00 00 00 00 00 00 00 00 00
       0.0 0.0 0.0 0.0
000170 00 00 00 00 00 00 00 00 00 00 00 00 00 00 00 00
       0.0 0.0 0.0 0.0
000180 00 00 00 00 00 00 00 00 00 00 00 00 00 00 00 00
       0.0 0.0 0.0 0.0
000190 00 00 00 00 00 00 00 00 00 00 00 00 00 00 00 00
       0.0 0.0 0.0 0.0
0001a0 00 00 00 00 00 00 00 00 00 00 00 00 00 00 00 00
       0.0 0.0 0.0 0.0
0001b0 00 00 00 00 00 00 00 00 00 00 00 00 00 00 00 00
       0.0 0.0 0.0 0.0
0001c0 00 00 00 00 00 00 00 00 00 00 00 00 00 00 00 00
       0.0 0.0 0.0 0.0
0001d0 00 00 00 00 00 00 00 00 00 00 00 00 00 00 80 3f
       0.0 0.0 0.0 1.0
0001e0 00 00 00 00 00 00 00 00 00 00 00 00 00 00 00 00
       0.0 0.0 0.0 0.0
0001f0 00 00 00 00 00 00 00 00 00 00 00 00 00 00 00 00
       0.0 0.0 0.0 0.0
000200 00 00 00 00 00 00 00 00 00 00 00 00 00 00 00 00
       0.0 0.0 0.0 0.0
000210 00 00 00 00 00 00 00 00 00 00 00 00 00 00 00 00
       0.0 0.0 0.0 0.0
000220 00 00 80 3f 00 00 00 00 00 00 00 00 00 00 00 00
       1.0 0.0 0.0 0.0
000230 00 00 00 00 00 00 00 00 00 00 00 00 00 00 00 00
       0.0 0.0 0.0 0.0
000240 00 00 00 00 00 00 00 00 00 00 00 00 00 00 00 00
       0.0 0.0 0.0 0.0
000250 00 00 00 00 00 00 00 00 00 00 00 00 00 00 00 00
       0.0 0.0 0.0 0.0
000260 00 00 00 00 00 00 00 00 00 00 00 00 00 00 00 00
       0.0 0.0 0.0 0.0
000270 00 00 00 00 00 00 00 00 00 00 00 00 00 00 00 00
       0.0 0.0 0.0 0.0
000280 00 00 00 00 00 00 00 00 00 00 00 00 00 00 00 00
       0.0 0.0 0.0 0.0
000290 00 00 00 00 00 00 00 00 00 00 00 00 00 00 00 00
       0.0 0.0 0.0 0.0
0002a0 00 00 00 00 00 00 00 00 00 00 00 00 00 00 00 00
       0.0 0.0 0.0 0.0
0002b0 00 00 00 00 00 00 80 3f 00 00 00 00 00 00 00 00
       0.0 1.0 0.0 0.0
0002c0 00 00 80 3f 00 00 00 00 00 00 00 00 00 00 00 00
       1.0 0.0 0.0 0.0
0002d0 00 00 00 00 00 00 00 00 00 00 00 00 00 00 00 00
       0.0 0.0 0.0 0.0
0002e0 00 00 00 00 00 00 00 00 00 00 00 00 00 00 00 00
       0.0 0.0 0.0 0.0
0002f0 00 00 00 00 00 00 00 00 00 00 00 00 00 00 00 00
       0.0 0.0 0.0 0.0
000300 00 00 00 00 00 00 00 00 00 00 00 00 00 00 80 3f
       0.0 0.0 0.0 1.0
000310 00 00 00 00 00 00 00 00 00 00 00 00 00 00 80 3f
       0.0 0.0 0.0 1.0
000320 00 00 00 00 00 00 00 00 00 00 00 00 00 00 00 00
       0.0 0.0 0.0 0.0
000330 00 00 00 00 00 00 00 00 00 00 00 00 00 00 00 00
       0.0 0.0 0.0 0.0
000340 00 00 00 00 00 00 00 00 00 00 00 00 00 00 00 00
       0.0 0.0 0.0 0.0
000350 00 00 00 00 00 00 00 00 00 00 00 00 00 00 00 00
       0.0 0.0 0.0 0.0
000360 00 00 00 00 00 00 00 00 00 00 00 00 00 00 00 00
       0.0 0.0 0.0 0.0
000370 00 00 00 00 00 00 00 00 00 00 00 00 00 00 00 00
       0.0 0.0 0.0 0.0
000380 00 00 00 00 00 00 00 00 00 00 00 00 00 00 00 00
       0.0 0.0 0.0 0.0
000390 00 00 00 00 00 00 00 00 00 00 00 00 00 00 00 00
       0.0 0.0 0.0 0.0
0003a0 00 00 00 00 00 00 00 00 00 00 00 00 00 00 00 00
       0.0 0.0 0.0 0.0
0003b0 00 00 00 00 00 00 00 00 00 00 00 00 00 00 00 00
       0.0 0.0 0.0 0.0
0003c0 00 00 00 00 00 00 00 00 00 00 00 00 00 00 00 00
       0.0 0.0 0.0 0.0
0003d0 00 00 00 00 00 00 00 00 00 00 00 00 00 00 00 00
       0.0 0.0 0.0 0.0
0003e0 00 00 00 00 00 00 00 00 00 00 00 00 00 00 00 00
       0.0 0.0 0.0 0.0
0003f0 00 00 00 00 00 00 80 3f 00 00 00 00 00 00 00 00
       0.0 1.0 0.0 0.0

module_list.1.output_quant.pre_transforms.0.weight f4 [32]
000000 86 29 99 3e ca 55 d3 3e ef f8 bd 3e 5f c2 b9 3e
       0.29914492 0.4127639 0.37103984 0.36281106
000010 fc 4a cf 3e a0 2b fa 3f ff fd 1d 3f 7e d1 01 3f
       0.40486896 1.9544563 0.6171569 0.50710285
000020 34 1a 0c 3f e4 27 09 3f 90 ed 26 3f b9 19 17 3f
       0.5472748 0.53576493 0.6520624 0.59023625
000030 a0 03 5b 3e ad db e1 3e 57 e3 ef 3e d7 7b 69 40
       0.21388102 0.44112912 0.46853134 3.6481836
000040 de 4e f9 3e c7 af 17 3f 5e 8a e4 3e fd 46 0f 3f
       0.48692983 0.5925259 0.44636816 0.55967695
000050 c1 55 b1 3e ba b9 d3 3e 8f a5 31 3f 1c 10 91 3f
       0.34635738 0.41352636 0.6939325 1.1333041
000060 67 13 c2 3e 3a be 8f 40 df cf 16 3f ca c7 00 3f
       0.37905428 4.491971 0.58910936 0.50304854
000070 b4 35 e2 3f 9e d6 2d 3f 04 62 3c 3f 42 7e 00 3f
       1.7672639 0.67905605 0.7358706 0.50192654

module_list.1.output_quant.pre_transforms.0.bias f4 [32]
000000 94 a4 aa 3e eb 1d 57 3e 50 30 f3 bd a5 e5 c3 be
       0.33328688 0.21007507 -0.11874449 -0.38261142
000010 e8 49 98 3d f4 10 4e 3c 24 bf cf 3d f4 7f d5 3e
       0.074359715 0.012577284 0.10143879 0.41699183
000020 13 78 63 be 26 a7 46 3f a7 6d 58 be e8 21 03 3e
       -0.22213773 0.775988 -0.21135579 0.12805903
000030 28 d0 d2 3e e5 11 8e 3f 01 f7 32 3e 0d 33 c4 bc
       0.41174436 1.1099211 0.17477037 -0.023950124
000040 cf fd 7f 3e e2 2c f1 3d 03 e5 ef be 01 db 90 3e
       0.24999164 0.11776139 -0.4685441 0.28292087
000050 4b bf 01 3f 76 f1 38 3f 0f 12 74 3f 05 dd 45 3e
       0.50682515 0.7224344 0.95340055 0.19322594
000060 2c 31 66 3d 18 6f ed 3e f0 78 83 3e 8b e7 3c 3f
       0.056199238 0.4637382 0.25678205 0.73790807
000070 29 16 5d bf 00 00 00 00 cc 28 c8 3e 46 da 52 3f
       -0.8636194 0.0 0.39093626 0.8236431

module_list.1.output_quant.pre_transforms.0.running_mean f4 [32]
000000 40 5c 94 bc 59 56 0a 3f 29 5b 3e be e2 e4 47 bd
       -0.018110394 0.54038006 -0.18589462 -0.048802264
000010 a5 7d 23 bd ee e5 18 3f 17 98 bb bc 40 e8 11 be
       -0.039914746 0.59725845 -0.02289967 -0.14248753
000020 8e dd ae bd bb 55 a7 be 73 0b f4 bc a7 b3 7a bd
       -0.08538352 -0.32682595 -0.029790616 -0.061206486
000030 23 42 53 3e 6e 61 82 bc 52 d0 b4 3e 25 63 b8 be
       0.20630698 -0.015915599 0.35315186 -0.3601314
000040 fd 58 1e 3d 85 1d c9 3e b4 a9 11 be 0a c0 a7 be
       0.038659085 0.39280334 -0.14224893 -0.32763702
000050 45 ce 69 3e 57 fc e5 3e 85 ac a3 bc 55 ba 46 3e
       0.22832592 0.44919083 -0.019979725 0.19407018
000060 a3 1e 74 3d 08 b6 61 be 0b ae 00 3f 57 90 a1 3e
       0.05959953 -0.22042096 0.5026557 0.31555435
000070 b3 06 e4 bd 9a e6 1d 3d 43 23 34 bc 18 d8 58 bd
       -0.1113409 0.038549997 -0.010994735 -0.052940458

module_list.1.output_quant.pre_transforms.0.running_var f4 [32]
000000 a5 45 fe 3b fb 2f 96 3b 49 80 8d 3b a1 57 9d 3b
       0.007759767 0.0045833564 0.0043182713 0.004801706
000010 e2 b2 24 3b 96 99 f0 3c 20 c0 a6 3b 34 85 cd 3c
       0.0025131037 0.02937011 0.005088821 0.02508793
000020 a3 20 8f 3b ef 09 43 3c 9b 48 46 3c 0a 65 dd 3c
       0.0043679043 0.011904224 0.012102271 0.027025718
000030 a3 ca 5a 3b 38 fe 1c 3b cc c2 0a 3c 06 7b 1c 3d
       0.003338494 0.0023955237 0.008469295 0.03820326
000040 93 78 ac 3c 19 5a cc 3b f1 ce b9 3c e1 1b af 3b
       0.021053588 0.0062363264 0.022681685 0.0053438996
000050 cc 7e 10 3c 52 04 c5 3a c7 ad b3 3c f8 58 6b 3c
       0.008819293 0.0015031195 0.02193345 0.0143644735
000060 6d 0a c8 3b c3 65 00 3c 60 85 e8 3b ac 0d fa 3b
       0.0061047585 0.007836762 0.0070959777 0.0076310243
000070 a8 a8 35 3c 59 f8 05 3a 89 96 ec 3b 34 8f eb 3c
       0.011087574 0.0005110554 0.0072200936 0.028754808

module_list.2.input_quant.pre_transforms.0.weight f4 [32]
000000 86 29 99 3e ca 55 d3 3e ef f8 bd 3e 5f c2 b9 3e
       0.29914492 0.4127639 0.37103984 0.36281106
000010 fc 4a cf 3e a0 2b fa 3f ff fd 1d 3f 7e d1 01 3f
       0.40486896 1.9544563 0.6171569 0.50710285
000020 34 1a 0c 3f e4 27 09 3f 90 ed 26 3f b9 19 17 3f
       0.5472748 0.53576493 0.6520624 0.59023625
000030 a0 03 5b 3e ad db e1 3e 57 e3 ef 3e d7 7b 69 40
       0.21388102 0.44112912 0.46853134 3.6481836
000040 de 4e f9 3e c7 af 17 3f 5e 8a e4 3e fd 46 0f 3f
       0.48692983 0.5925259 0.44636816 0.55967695
000050 c1 55 b1 3e ba b9 d3 3e 8f a5 31 3f 1c 10 91 3f
       0.34635738 0.41352636 0.6939325 1.1333041
000060 67 13 c2 3e 3a be 8f 40 df cf 16 3f ca c7 00 3f
       0.37905428 4.491971 0.58910936 0.50304854
000070 b4 35 e2 3f 9e d6 2d 3f 04 62 3c 3f 42 7e 00 3f
       1.7672639 0.67905605 0.7358706 0.50192654

module_list.2.input_quant.pre_transforms.0.bias f4 [32]
000000 94 a4 aa 3e eb 1d 57 3e 50 30 f3 bd a5 e5 c3 be
       0.33328688 0.21007507 -0.11874449 -0.38261142
000010 e8 49 98 3d f4 10 4e 3c 24 bf cf 3d f4 7f d5 3e
       0.074359715 0.012577284 0.10143879 0.41699183
000020 13 78 63 be 26 a7 46 3f a7 6d 58 be e8 21 03 3e
       -0.22213773 0.775988 -0.21135579 0.12805903
000030 28 d0 d2 3e e5 11 8e 3f 01 f7 32 3e 0d 33 c4 bc
       0.41174436 1.1099211 0.17477037 -0.023950124
000040 cf fd 7f 3e e2 2c f1 3d 03 e5 ef be 01 db 90 3e
       0.24999164 0.11776139 -0.4685441 0.28292087
000050 4b bf 01 3f 76 f1 38 3f 0f 12 74 3f 05 dd 45 3e
       0.50682515 0.7224344 0.95340055 0.19322594
000060 2c 31 66 3d 18 6f ed 3e f0 78 83 3e 8b e7 3c 3f
       0.056199238 0.4637382 0.25678205 0.73790807
000070 29 16 5d bf 00 00 00 00 cc 28 c8 3e 46 da 52 3f
       -0.8636194 0.0 0.39093626 0.8236431

module_list.2.input_quant.pre_transforms.0.running_mean f4 [32]
000000 40 5c 94 bc 59 56 0a 3f 29 5b 3e be e2 e4 47 bd
       -0.018110394 0.54038006 -0.18589462 -0.048802264
000010 a5 7d 23 bd ee e5 18 3f 17 98 bb bc 40 e8 11 be
       -0.039914746 0.59725845 -0.02289967 -0.14248753
000020 8e dd ae bd bb 55 a7 be 73 0b f4 bc a7 b3 7a bd
       -0.08538352 -0.32682595 -0.029790616 -0.061206486
000030 23 42 53 3e 6e 61 82 bc 52 d0 b4 3e 25 63 b8 be
       0.20630698 -0.015915599 0.35315186 -0.3601314
000040 fd 58 1e 3d 85 1d c9 3e b4 a9 11 be 0a c0 a7 be
       0.038659085 0.39280334 -0.14224893 -0.32763702
000050 45 ce 69 3e 57 fc e5 3e 85 ac a3 bc 55 ba 46 3e
       0.22832592 0.44919083 -0.019979725 0.19407018
000060 a3 1e 74 3d 08 b6 61 be 0b ae 00 3f 57 90 a1 3e
       0.05959953 -0.22042096 0.5026557 0.31555435
000070 b3 06 e4 bd 9a e6 1d 3d 43 23 34 bc 18 d8 58 bd
       -0.1113409 0.038549997 -0.010994735 -0.052940458

module_list.2.input_quant.pre_transforms.0.running_var f4 [32]
000000 a5 45 fe 3b fb 2f 96 3b 49 80 8d 3b a1 57 9d 3b
       0.007759767 0.0045833564 0.0043182713 0.004801706
000010 e2 b2 24 3b 96 99 f0 3c 20 c0 a6 3b 34 85 cd 3c
       0.0025131037 0.02937011 0.005088821 0.02508793
000020 a3 20 8f 3b ef 09 43 3c 9b 48 46 3c 0a 65 dd 3c
       0.0043679043 0.011904224 0.012102271 0.027025718
000030 a3 ca 5a 3b 38 fe 1c 3b cc c2 0a 3c 06 7b 1c 3d
       0.003338494 0.0023955237 0.008469295 0.03820326
000040 93 78 ac 3c 19 5a cc 3b f1 ce b9 3c e1 1b af 3b
       0.021053588 0.0062363264 0.022681685 0.0053438996
000050 cc 7e 10 3c 52 04 c5 3a c7 ad b3 3c f8 58 6b 3c
       0.008819293 0.0015031195 0.02193345 0.0143644735
000060 6d 0a c8 3b c3 65 00 3c 60 85 e8 3b ac 0d fa 3b
       0.0061047585 0.007836762 0.0070959777 0.0076310243
000070 a8 a8 35 3c 59 f8 05 3a 89 96 ec 3b 34 8f eb 3c
       0.011087574 0.0005110554 0.0072200936 0.028754808
