examples/jet_substructure/input_quants/small_inpq_16_8_ensemble_size1_seed3/checkpoint.pth (torch, 212339 bytes, 147 tensors)

ensemble.0.input_quant.pre_transforms.0.weight f4 [16]
000000 13 24 eb 3e 08 9e a8 3f 18 bd d1 3e c7 5f f1 3f
       0.4592596 1.3173227 0.4096458 1.8857354
000010 e2 12 1d 3f 75 02 b1 3e 21 76 c7 3e 77 17 e9 3e
       0.6135694 0.34572187 0.38957313 0.45525715
000020 29 5f 50 3e 1d dc dd 3e fc 16 37 3f 4e af f8 3e
       0.203488 0.43331996 0.71519446 0.48571247
000030 1e 1c a9 3e 1a a2 34 3f f2 d7 04 40 a5 64 9e 3e
       0.33029264 0.7055985 2.0756803 0.3093616

ensemble.0.input_quant.pre_transforms.0.bias f4 [16]
000000 57 6d f6 3d 10 70 41 bf 1a f9 30 bf b6 f6 11 3f
       0.12032574 -0.7556162 -0.691301 0.57017076
000010 62 03 d9 be 3a f2 e0 be 10 cd 20 3c 42 70 2c be
       -0.42385393 -0.43934804 0.009814516 -0.16839698
000020 ee 67 9d be bc 85 82 3d 48 78 61 be 3d 19 27 3d
       -0.30743355 0.06373164 -0.2201854 0.040795553
000030 1e c5 52 3e ec 23 a2 3f ce 47 8a 3d 5c 9f 9c be
       0.20583007 1.2667212 0.06751977 -0.30590332

ensemble.0.input_quant.pre_transforms.0.running_mean f4 [16]
000000 bf b5 f9 3b 95 83 02 bc f8 fa 13 bb 26 b4 26 bb
       0.007620543 -0.007965942 -0.002258001 -0.0025436967
000010 b8 64 d7 bb 9b fc ba bb e5 75 38 bc 68 55 56 bc
       -0.006573286 -0.0057063824 -0.011258577 -0.013081886
000020 e5 75 38 bc 95 14 1f bc 08 82 de bb 91 fd 71 bb
       -0.011258577 -0.009709497 -0.0067904033 -0.003692482
000030 ee 55 29 bc 15 bd 09 bc 41 c5 64 bb 2f 14 02 bc
       -0.010335429 -0.008406897 -0.0034907612 -0.007939382

ensemble.0.input_quant.pre_transforms.0.running_var f4 [16]
000000 2d 8b 81 3f 89 93 82 3f a5 4f 7f 3f f1 0e 7e 3f
       1.0120598 1.0201274 0.997309 0.9924155
000010 ea 3c 7d 3f c0 15 7c 3f 02 5f 7c 3f 43 89 78 3f
       0.9892107 0.9847069 0.9858247 0.97084445
000020 02 5f 7c 3f 2c 16 80 3f c5 b9 80 3f 30 5b 81 3f
       0.9858247 1.0006766 1.0056692 1.0105953
000030 e0 66 80 3f b0 b7 7f 3f b6 49 7e 3f df 59 80 3f
       1.0031395 0.9988966 0.99331224 1.0027426

ensemble.0.fc.weight f4 [16, 16]
000000 f2 96 c8 bd 57 c6 c4 bb 8f e9 8b 3d 8c c5 6b bc
       -0.097944155 -0.0060050893 0.06831657 -0.014390361
000010 3f 60 56 3f ee b6 0f be f7 a5 a1 3d 16 c3 94 bc
       0.8374061 -0.14034626 0.078929834 -0.01815943
000020 a9 65 6d bd 72 26 07 bd 25 90 5e bd 20 fd e7 3b
       -0.05795828 -0.03299565 -0.054336686 0.0070797354
000030 20 1b 63 3c 6b 1d 81 3d 99 34 05 be 91 ca 28 3e
       0.013861448 0.06304439 -0.13008346 0.16483523
000040 d4 f2 16 be 95 0e eb 3b a0 96 00 3d d0 a4 2b 3d
       -0.14741069 0.007173369 0.031393647 0.041905224
000050 22 7b f0 3d ff f2 14 bd 0b 84 3a bd cd d4 25 be
       0.11742236 -0.03636455 -0.045536082 -0.16194458
000060 83 fb e7 bd ea 33 9d 3d 99 96 b8 3d 74 8e 4e 3f
       -0.11327269 0.076759174 0.09013099 0.80686116
000070 d9 0f 23 3e b8 96 26 be 51 4d cc bd ac 04 1e 3e
       0.15924014 -0.16268432 -0.099756844 0.1543147
000080 83 09 4d 3d 83 d1 18 3e c6 28 0a be 09 90 81 3d
       0.0500579 0.14923672 -0.13492116 0.06326301
000090 17 a4 63 bd 59 c5 14 be c2 54 84 bd 58 11 fa bd
       -0.05557641 -0.14528407 -0.06461479 -0.12210339
0000a0 21 c5 bd bd 75 89 c4 3c 8e 2c 1e 3f 11 a0 08 3c
       -0.09266115 0.023991326 0.61786735 0.008338944
0000b0 a0 30 62 3d fa 20 77 bd d9 de 15 3e 75 d6 15 be
       0.055222154 -0.060334183 0.14635791 -0.1463259
0000c0 9b ad e1 bd ec a7 df bd 79 8d a5 bc 3c 49 17 3c
       -0.11019441 -0.109207004 -0.020209061 0.009233769
0000d0 04 8e 57 bd 83 c6 1d bd a8 79 d0 bd 3c 7a af bd
       -0.05262567 -0.038519394 -0.10179454 -0.08568236
0000e0 e1 42 27 bf 0c d1 f6 bc db 95 12 3d f5 c1 53 3d
       -0.65336424 -0.030128978 0.035787445 0.051698644
0000f0 8b aa 08 3e fa 57 95 bc 1c a7 bb 3d 75 9f c8 3b
       0.13346307 -0.018230427 0.09162733 0.0061225244
000100 0c 81 e4 3d b1 01 cd 3c bc 44 a2 bc 89 d1 8a 3d
       0.11157426 0.02502522 -0.019808166 0.06778247
000110 18 59 07 3e 6b e9 09 be f4 cb e5 3d 19 49 15 be
       0.1321758 -0.13467948 0.112205416 -0.14578666
000120 33 4d 29 3b 33 e3 2b be af 7e ec 3d 73 c7 d7 3c
       0.0025833368 -0.16785888 0.115476005 0.026340222
000130 4c b1 13 3c 9d 9a 70 3b b1 62 71 bd 6a 47 79 3f
       0.009014439 0.003671325 -0.05893201 0.97374594
000140 9a 21 94 bd 83 62 fc 3c af 39 98 3c da 20 b6 bd
       -0.072329715 0.030808693 0.018582193 -0.08892985
000150 8a c8 1b be 02 d2 b7 3c 52 9c 23 be ae 02 12 3f
       -0.15213218 0.022439007 -0.159776 0.5703534
000160 ea 41 03 be 27 bd aa bd 73 e2 1d 3e 01 d6 bf 3d
       -0.12818113 -0.08336859 0.15418415 0.0936699
000170 62 a3 b5 bd e7 68 08 be ff 09 c3 bd 34 76 fe 3d
       -0.088690534 -0.13321267 -0.09523391 0.12424889
000180 17 23 79 bf a5 34 16 3e 75 32 e8 bd 6f 6d 27 bc
       -0.9731917 0.1466852 -0.11337749 -0.010218962
000190 f0 b5 a5 3d bf 21 3b 3d fe 84 fa 3a f0 85 84 3d
       0.080913424 0.04568648 0.0019113121 0.06470859
0001a0 15 a3 b6 3c 3a ed 12 be 3c 8a 03 be 40 bd 16 3e
       0.02229456 -0.14348307 -0.12845701 0.1472063
0001b0 12 d3 d2 bd 3d e1 eb 3d 7d 90 81 3d 11 8e ec bd
       -0.10294165 0.1151757 0.06326387 -0.115505345
0001c0 f8 f6 18 be be c5 17 3d 77 99 84 3f 47 6a 0c bd
       -0.14937961 0.037053816 1.0359334 -0.03428104
0001d0 15 19 1a 3e a6 49 05 be 79 14 55 3d 9e c7 ee bd
       0.1504863 -0.13016376 0.052021477 -0.11659168
0001e0 22 8b 14 3e b2 a4 e1 bd bd 73 d5 bb 22 f1 54 3b
       0.145062 -0.11017741 -0.006514041 0.003249236
0001f0 2b e6 7e 3d 80 84 8a 3d c0 52 1d 3e 33 1a 9c 3d
       0.062231224 0.067635536 0.15363598 0.076221846
000200 94 7c 7e 3d 96 92 03 be ef 77 7c bd 22 72 04 3f
       0.062130526 -0.12848887 -0.061637815 0.5173665
000210 d9 2a 15 3e 07 76 69 3d 7b 39 a9 bd ba fe 3e bd
       0.14567126 0.056997325 -0.08262917 -0.046629645
000220 6d 1f 25 3e 0d 76 38 3d 48 f4 fd 3d bf fb f6 bd
       0.16125269 0.045034457 0.124001086 -0.120597355
000230 0d 6b f9 bd a5 ca 28 be 4d 43 28 bd 44 8f f6 bd
       -0.121786214 -0.16483553 -0.041079808 -0.120390445
000240 29 6c e6 3d be e5 0f be e8 fb f2 bd 52 80 b6 3d
       0.11251099 -0.14052483 -0.118644536 0.08911194
000250 82 e2 cb bc 31 c3 90 3f aa b7 d2 3c 9e 35 97 bd
       -0.02488828 1.1309568 0.025722343 -0.073832735
000260 5f a4 1f 3d c9 04 d1 bd 20 9f 54 bc 4e 3d 8b bd
       0.038975116 -0.10205991 -0.0129773915 -0.06798802
000270 4e 24 27 3e 0c 2c 62 3d db 75 12 bd 3f 78 d1 3d
       0.16322443 0.055217788 -0.035756927 0.10228013
000280 e3 dd 1f 3e b4 70 cf 3d 6f 8c c1 bc 75 46 18 be
       0.15611987 0.10128918 -0.023626534 -0.14870627
000290 21 39 e3 bc 70 a6 00 bd c1 43 09 b9 ba 94 d7 3d
       -0.027737202 -0.031408727 -0.00013090578 0.10526414
0002a0 4c bf b3 bd c4 7b ba 3d ac 76 cd bd c3 c8 7c bd
       -0.08776721 0.09105638 -0.100324005 -0.0617149
0002b0 db 03 1c bf 27 1f 41 bd 40 60 fd 3d 92 8d 5f 3c
       -0.6094338 -0.04714885 0.12371874 0.013644593
0002c0 e4 be 04 be af e8 f2 3c 57 36 bb 3d 04 44 e2 3d
       -0.12963444 0.029651968 0.09141224 0.11048129
0002d0 93 08 1b be bf 07 1f be 3d b1 d9 bd 27 83 ca 3d
       -0.1513999 -0.15530299 -0.10629509 0.098882966
0002e0 e0 2e be bd 53 76 65 bf e7 0a f5 bd ba 46 eb 3d
       -0.092862844 -0.89633673 -0.1196497 0.114880994
0002f0 3c dc 06 be 86 2c 12 3e b7 ea a7 bd 23 e5 9d bc
       -0.1316995 0.14274797 -0.08199065 -0.0192743
000300 ab 65 e9 3d b1 63 0d 3e c0 d9 a5 3c dc 80 f4 bd
       0.11396345 0.1380756 0.020245433 -0.119386405
000310 1d ff 0b bc 4c 50 5a bc 0b ea 05 3f 09 32 1a be
       -0.00854471 -0.013324808 0.52310246 -0.1505815
000320 88 7b 10 be 2d c7 c9 3d f1 f7 8f 3d 32 bb da bb
       -0.14109623 0.09852443 0.07029713 -0.0066751475
000330 12 49 20 3c 4a af c9 3d a1 19 e9 bc c1 99 a6 bd
       0.009783046 0.09847887 -0.028454604 -0.08134795
000340 8b 7e 9b bd bb 15 d5 be 1b 43 92 bc 2a 2e 01 be
       -0.075924955 -0.41618142 -0.017854264 -0.12615266
000350 94 f8 d6 3d 2e 9d 24 3e e3 37 5f 3d 24 ac c2 bd
       0.10496631 0.16075584 0.054496657 -0.095054895
000360 15 62 51 3d 63 4d e7 3c 14 47 11 be 80 7d 19 bd
       0.05111893 0.028235143 -0.1418727 -0.0374732
000370 d8 f9 8e bd 18 13 bf bd 90 0e 1e be 00 20 9a bd
       -0.06981248 -0.09329814 -0.15435243 -0.07525635
000380 89 41 2c 3d 2f 0b d4 3d 1e 49 ae bd 47 b1 bb bd
       0.042054687 0.103536956 -0.0851004 -0.09164672
000390 05 08 d0 bd e9 1c c8 3c fc 2f 1f 3e 18 da 24 3e
       -0.101577796 0.024427848 0.15545648 0.16098821
0003a0 59 8a eb 3d 2f 6b 07 bc ce be 94 3d f1 c5 9d 3d
       0.11500997 -0.008265301 0.072629556 0.0770377
0003b0 84 bb 11 bd 07 45 20 bf bc 2d 2a 3e c9 6c 08 be
       -0.03557922 -0.6260533 0.16619009 -0.13322748
0003c0 ce 75 0b be af bf 61 3d 79 b3 b1 bd 70 50 f3 ba
       -0.13619158 0.055114444 -0.0867681 -0.0018563401
0003d0 08 cc e8 bd fa 71 0b be a2 c3 a6 3c d0 ba e0 3d
       -0.11367041 -0.13617697 0.020356957 0.10973132
0003e0 39 9d 9e bd 24 fe 8f 3d b4 3b 1a be 9c 3f df bd
       -0.077448316 0.07030895 -0.15061837 -0.109008044
0003f0 73 f0 2a bd 07 2d 13 3e 50 55 5b c0 e9 54 48 bd
       -0.041733216 0.14372645 -3.427082 -0.0489091

ensemble.0.fc.bias f4 [16]
000000 10 84 dc bd 22 b9 df be 39 c6 b6 3e a8 24 22 bd
       -0.107673764 -0.43695933 0.35698107 -0.03958574
000010 21 04 c3 3e 06 c1 19 3f 88 da bc 3d e8 59 7a be
       0.38089088 0.60060155 0.09221369 -0.24448359
000020 a2 9d f1 be ac 46 db bd b8 64 46 be b9 4f 11 3e
       -0.47190577 -0.10706839 -0.19374359 0.14190568
000030 2e 3c c9 bb 8a 93 24 be 46 80 d6 bd 19 d1 fc 3e
       -0.006141207 -0.16071907 -0.10473685 0.4937828

ensemble.0.fc.mask.mask f4 [16, 16]
000000 00 00 00 00 00 00 00 00 00 00 00 00 00 00 00 00
       0.0 0.0 0.0 0.0
000010 00 00 80 3f 00 00 00 00 00 00 00 00 00 00 00 00
       1.0 0.0 0.0 0.0
000020 00 00 00 00 00 00 00 00 00 00 00 00 00 00 00 00
       0.0 0.0 0.0 0.0
000030 00 00 00 00 00 00 00 00 00 00 00 00 00 00 00 00
       0.0 0.0 0.0 0.0
000040 00 00 00 00 00 00 00 00 00 00 00 00 00 00 00 00
       0.0 0.0 0.0 0.0
000050 00 00 00 00 00 00 00 00 00 00 00 00 00 00 00 00
       0.0 0.0 0.0 0.0
000060 00 00 00 00 00 00 00 00 00 00 00 00 00 00 80 3f
       0.0 0.0 0.0 1.0
000070 00 00 00 00 00 00 00 00 00 00 00 00 00 00 00 00
       0.0 0.0 0.0 0.0
000080 00 00 00 00 00 00 00 00 00 00 00 00 00 00 00 00
       0.0 0.0 0.0 0.0
000090 00 00 00 00 00 00 00 00 00 00 00 00 00 00 00 00
       0.0 0.0 0.0 0.0
0000a0 00 00 00 00 00 00 00 00 00 00 80 3f 00 00 00 00
       0.0 0.0 1.0 0.0
0000b0 00 00 00 00 00 00 00 00 00 00 00 00 00 00 00 00
       0.0 0.0 0.0 0.0
0000c0 00 00 00 00 00 00 00 00 00 00 00 00 00 00 00 00
       0.0 0.0 0.0 0.0
0000d0 00 00 00 00 00 00 00 00 00 00 00 00 00 00 00 00
       0.0 0.0 0.0 0.0
0000e0 00 00 80 3f 00 00 00 00 00 00 00 00 00 00 00 00
       1.0 0.0 0.0 0.0
0000f0 00 00 00 00 00 00 00 00 00 00 00 00 00 00 00 00
       0.0 0.0 0.0 0.0
000100 00 00 00 00 00 00 00 00 00 00 00 00 00 00 00 00
       0.0 0.0 0.0 0.0
000110 00 00 00 00 00 00 00 00 00 00 00 00 00 00 00 00
       0.0 0.0 0.0 0.0
000120 00 00 00 00 00 00 00 00 00 00 00 00 00 00 00 00
       0.0 0.0 0.0 0.0
000130 00 00 00 00 00 00 00 00 00 00 00 00 00 00 80 3f
       0.0 0.0 0.0 1.0
000140 00 00 00 00 00 00 00 00 00 00 00 00 00 00 00 00
       0.0 0.0 0.0 0.0
000150 00 00 00 00 00 00 00 00 00 00 00 00 00 00 80 3f
       0.0 0.0 0.0 1.0
000160 00 00 00 00 00 00 00 00 00 00 00 00 00 00 00 00
       0.0 0.0 0.0 0.0
000170 00 00 00 00 00 00 00 00 00 00 00 00 00 00 00 00
       0.0 0.0 0.0 0.0
000180 00 00 80 3f 00 00 00 00 00 00 00 00 00 00 00 00
       1.0 0.0 0.0 0.0
000190 00 00 00 00 00 00 00 00 00 00 00 00 00 00 00 00
       0.0 0.0 0.0 0.0
0001a0 00 00 00 00 00 00 00 00 00 00 00 00 00 00 00 00
       0.0 0.0 0.0 0.0
0001b0 00 00 00 00 00 00 00 00 00 00 00 00 00 00 00 00
       0.0 0.0 0.0 0.0
0001c0 00 00 00 00 00 00 00 00 00 00 80 3f 00 00 00 00
       0.0 0.0 1.0 0.0
0001d0 00 00 00 00 00 00 00 00 00 00 00 00 00 00 00 00
       0.0 0.0 0.0 0.0
0001e0 00 00 00 00 00 00 00 00 00 00 00 00 00 00 00 00
       0.0 0.0 0.0 0.0
0001f0 00 00 00 00 00 00 00 00 00 00 00 00 00 00 00 00
       0.0 0.0 0.0 0.0
000200 00 00 00 00 00 00 00 00 00 00 00 00 00 00 80 3f
       0.0 0.0 0.0 1.0
000210 00 00 00 00 00 00 00 00 00 00 00 00 00 00 00 00
       0.0 0.0 0.0 0.0
000220 00 00 00 00 00 00 00 00 00 00 00 00 00 00 00 00
       0.0 0.0 0.0 0.0
000230 00 00 00 00 00 00 00 00 00 00 00 00 00 00 00 00
       0.0 0.0 0.0 0.0
000240 00 00 00 00 00 00 00 00 00 00 00 00 00 00 00 00
       0.0 0.0 0.0 0.0
000250 00 00 00 00 00 00 80 3f 00 00 00 00 00 00 00 00
       0.0 1.0 0.0 0.0
000260 00 00 00 00 00 00 00 00 00 00 00 00 00 00 00 00
       0.0 0.0 0.0 0.0
000270 00 00 00 00 00 00 00 00 00 00 00 00 00 00 00 00
       0.0 0.0 0.0 0.0
000280 00 00 00 00 00 00 00 00 00 00 00 00 00 00 00 00
       0.0 0.0 0.0 0.0
000290 00 00 00 00 00 00 00 00 00 00 00 00 00 00 00 00
       0.0 0.0 0.0 0.0
0002a0 00 00 00 00 00 00 00 00 00 00 00 00 00 00 00 00
       0.0 0.0 0.0 0.0
0002b0 00 00 80 3f 00 00 00 00 00 00 00 00 00 00 00 00
       1.0 0.0 0.0 0.0
0002c0 00 00 00 00 00 00 00 00 00 00 00 00 00 00 00 00
       0.0 0.0 0.0 0.0
0002d0 00 00 00 00 00 00 00 00 00 00 00 00 00 00 00 00
       0.0 0.0 0.0 0.0
0002e0 00 00 00 00 00 00 80 3f 00 00 00 00 00 00 00 00
       0.0 1.0 0.0 0.0
0002f0 00 00 00 00 00 00 00 00 00 00 00 00 00 00 00 00
       0.0 0.0 0.0 0.0
000300 00 00 00 00 00 00 00 00 00 00 00 00 00 00 00 00
       0.0 0.0 0.0 0.0
000310 00 00 00 00 00 00 00 00 00 00 80 3f 00 00 00 00
       0.0 0.0 1.0 0.0
000320 00 00 00 00 00 00 00 00 00 00 00 00 00 00 00 00
       0.0 0.0 0.0 0.0
000330 00 00 00 00 00 00 00 00 00 00 00 00 00 00 00 00
       0.0 0.0 0.0 0.0
000340 00 00 00 00 00 00 80 3f 00 00 00 00 00 00 00 00
       0.0 1.0 0.0 0.0
000350 00 00 00 00 00 00 00 00 00 00 00 00 00 00 00 00
       0.0 0.0 0.0 0.0
000360 00 00 00 00 00 00 00 00 00 00 00 00 00 00 00 00
       0.0 0.0 0.0 0.0
000370 00 00 00 00 00 00 00 00 00 00 00 00 00 00 00 00
       0.0 0.0 0.0 0.0
000380 00 00 00 00 00 00 00 00 00 00 00 00 00 00 00 00
       0.0 0.0 0.0 0.0
000390 00 00 00 00 00 00 00 00 00 00 00 00 00 00 00 00
       0.0 0.0 0.0 0.0
0003a0 00 00 00 00 00 00 00 00 00 00 00 00 00 00 00 00
       0.0 0.0 0.0 0.0
0003b0 00 00 00 00 00 00 80 3f 00 00 00 00 00 00 00 00
       0.0 1.0 0.0 0.0
0003c0 00 00 00 00 00 00 00 00 00 00 00 00 00 00 00 00
       0.0 0.0 0.0 0.0
0003d0 00 00 00 00 00 00 00 00 00 00 00 00 00 00 00 00
       0.0 0.0 0.0 0.0
0003e0 00 00 00 00 00 00 00 00 00 00 00 00 00 00 00 00
       0.0 0.0 0.0 0.0
0003f0 00 00 00 00 00 00 00 00 00 00 80 3f 00 00 00 00
       0.0 0.0 1.0 0.0

ensemble.1.module_list.0.input_quant.pre_transforms.0.weight f4 [16]
000000 5f 76 0b 3f 34 6d 19 3f 0d 90 e6 3e a1 a3 97 3e
       0.54477495 0.59932256 0.45031777 0.29617026
000010 db 62 16 3f 0b 11 81 3e 6d ab 2d 3f de 0d 51 3f
       0.5874459 0.25208315 0.678397 0.81661785
000020 99 6c a0 3f 95 8f 2b 3f 87 44 b8 3e 5d 76 0b 3f
       1.2533141 0.67015964 0.35989782 0.54477483
000030 26 03 b5 3e 6a a8 11 3f 00 b3 91 3e 91 3d a4 3f
       0.35353965 0.56897604 0.2845688 1.2831289

ensemble.1.module_list.0.input_quant.pre_transforms.0.bias f4 [16]
000000 39 39 36 3e 75 95 8c bd c1 f1 7e 3e 71 0e 92 3e
       0.17795266 -0.06864444 0.2489691 0.28526643
000010 f4 87 23 bf 32 ef 98 be 4a 26 a7 bf 5e 86 f4 be
       -0.63879323 -0.29869992 -1.305856 -0.47758764
000020 8c ef 80 3e ac 7d 86 bf 7b 9f d8 3f 2d c3 fe 3e
       0.2518276 -1.0507102 1.692367 0.49758282
000030 cb af 58 bf 1b 21 bd bc 0a fd 45 3d 42 ce 02 be
       -0.8464324 -0.023087075 0.04833702 -0.12773994

ensemble.1.module_list.0.input_quant.pre_transforms.0.running_mean f4 [16]
000000 d3 25 c9 be 37 5e ab be d6 45 90 3e 56 19 d0 3d
       -0.3928667 -0.33470318 0.2817828 0.101610824
000010 66 d7 2f 3e 4b 8e 0d 3f 09 82 d7 bd 24 f7 5b bf
       0.17172012 0.55295247 -0.10522849 -0.8592398
000020 8e 43 de be 37 aa 00 bf 25 eb bf be 0b 73 49 3b
       -0.43410915 -0.5025973 -0.3748409 0.0030738737
000030 11 ad 37 3d fb f1 11 bd 45 a7 29 bf b4 d9 9f 3e
       0.044842783 -0.03563116 -0.6627086 0.31220782

ensemble.1.module_list.0.input_quant.pre_transforms.0.running_var f4 [16]
000000 b7 e0 7b 3e 99 fe 15 3e 3e a2 2d 3e ac f1 90 3c
       0.2459744 0.14647903 0.16956422 0.017693363
000010 42 b5 b8 3d e0 e7 7b 3d 6f 90 3b 3e da a2 31 3e
       0.09018947 0.06150043 0.18316816 0.17347279
000020 0f 50 24 3e a8 70 15 3e da 1f 26 3d 52 5d 1a 3e
       0.16046165 0.14593756 0.04055772 0.15074661
000030 7b d1 20 3d b2 f8 6b 3d bf fe c3 3c a2 47 11 41
       0.039262276 0.05761022 0.023925183 9.0799885

ensemble.1.module_list.0.fc.weight f4 [64, 16]
000000 0e 82 7b 3d 9e 2d 0d be 7d 43 33 3d ef f2 02 3e
       0.061403327 -0.13786933 0.043765534 0.12787984
000010 68 a3 9b bc 8d 6c c0 be 64 f9 17 bd ff 9b b8 bd
       -0.018998817 -0.37582818 -0.03710307 -0.09014129
000020 51 5a 44 3d c9 22 52 3f 1d 6c 35 3e 27 d1 97 3d
       0.047937695 0.8208433 0.17717023 0.074129395
000030 cd 49 2a 3c 85 c6 13 3d 1b 01 09 be 0d a5 0b 3e
       0.010393572 0.036077995 -0.13379328 0.1363718
000040 36 ef fd 3d 8e 56 17 bf 1e 35 1e 3e c7 01 1e 3e
       0.123991415 -0.59116447 0.1544995 0.15430366
000050 3a 5e 1c be e2 83 d6 3e 37 af 09 be 58 e5 8c bd
       -0.1527032 0.41897494 -0.13445745 -0.06879681
000060 1f 80 b8 3d 0f 6d 9e bd 27 53 01 3e bb 69 12 be
       0.09008812 -0.07735645 0.12629376 -0.14298145
000070 20 38 ad bd 5b 92 f8 3d e4 a4 81 be d2 b9 f7 bd
       -0.084579706 0.1213729 -0.25321114 -0.12095989
000080 ee 63 ca 3d 9b 7f 10 3e 5a 56 f1 3e ab 21 bc 3d
       0.09882341 0.14111178 0.47136194 0.09186109
000090 9b 55 1d bf 89 5b d4 bc 96 53 5a 3d e1 3f 1b bc
       -0.6145875 -0.025922554 0.05330237 -0.009475679
0000a0 7e 62 15 be 7f 69 99 bd 6f 2f 9d bd 76 a4 89 3d
       -0.14588353 -0.07490825 -0.07675063 0.067208216
0000b0 4d 7e 19 be 6a 43 94 3d ac 9b 2c bc b9 9b da bb
       -0.14989586 0.07239421 -0.010535162 -0.0066713956
0000c0 96 72 12 3d 5b 28 c1 3d 97 77 05 3e 0d 5c 16 be
       0.03575381 0.09431525 0.13033901 -0.14683552
0000d0 26 d8 5d 3d b0 75 bc 3d 26 02 b2 3d 91 84 c1 be
       0.054161213 0.092021346 0.08691816 -0.37796453
0000e0 91 5a 86 bd 95 d0 b8 bc 42 25 25 3e 8e c3 94 bd
       -0.06560243 -0.022560397 0.16127494 -0.072638616
0000f0 9f 0d 0e 3d 93 4e 24 bd 33 76 33 3d 41 34 36 bf
       0.03468096 -0.040113997 0.043813895 -0.71173483
000100 eb af f4 bc fd 29 d9 3d 94 e9 86 bd d0 8d 66 bc
       -0.02986904 0.10603712 -0.0658752 -0.014071897
000110 98 f0 c8 bd eb 27 23 be 53 20 06 bb c5 e5 05 3e
       -0.098115146 -0.15933196 -0.0020466044 0.13075931
000120 79 16 ea be 98 08 6c 3e 21 c1 bb 3d 04 55 58 3d
       -0.4572027 0.23050153 0.09167696 0.052815452
000130 6e 25 18 bf d9 0c 0f 3c 6f 27 8e 3d a0 18 fc bd
       -0.59432113 0.00873109 0.06941115 -0.12309384
000140 36 41 ae bd 6e 60 ae bd 1e c2 04 bd fe 56 d8 39
       -0.08508532 -0.08514486 -0.032411687 0.00041263545
000150 f2 e7 f4 bd 07 bb 59 3d 2b 25 e7 3c c8 25 01 3e
       -0.119583026 0.05315688 0.028215965 0.12612069
000160 17 2b be bd d4 2f 2a bf ee e8 01 3e 74 fa f5 3d
       -0.092855625 -0.6647923 0.12686512 0.12010661
000170 66 39 74 bd 4a e6 b7 3e 85 3c 5e be 17 29 51 bc
       -0.059625052 0.35917884 -0.21702774 -0.012766144
000180 ef eb 0c 3f fa 01 02 be 18 5a 0c bb 30 b7 2d 3e
       0.55047506 -0.12696066 -0.0021416005 0.16964412
000190 19 0e fe 3d fc a6 1f be 5a 25 10 3e 2e 62 f4 3d
       0.12405033 -0.15591043 0.14076748 0.11932789
0001a0 60 05 0d 3e 1c 88 38 bd 8b c4 6b 3d ab 3a 8e 3e
       0.13771582 -0.04505168 0.057560485 0.27779135
0001b0 9a 8c f7 be be 9b d1 3c 7d 6d ab 3d 33 4d f9 3d
       -0.48349458 0.025586959 0.083704926 0.12172928
0001c0 d2 82 18 3e 48 a0 b4 bd 12 e9 de bc 5c 9d 1a 3d
       0.14893654 -0.08819634 -0.027210746 0.037747726
0001d0 37 43 19 3f f5 dc 78 bd 92 cb d1 3d 7c 1e a5 be
       0.59868187 -0.060757596 0.10243906 -0.3224982
0001e0 b0 ac fe bd 2f 0d bc bc 7b 6d b8 3d d4 ba df 3d
       -0.12435281 -0.022955505 0.09005257 0.109243065
0001f0 b5 6d 25 bd 1b ec e4 3d b4 38 cd be 8e c2 11 be
       -0.040387828 0.11177846 -0.40082324 -0.14234373
000200 9f c8 fc 3c 58 be 4c 3d d5 06 0b 3d 6c ac a9 bc
       0.030857382 0.049986213 0.033942062 -0.0207121
000210 32 53 36 3f 62 48 26 be a2 c1 44 3d 42 cb ea 3c
       0.71220696 -0.1623855 0.048036225 0.028661374
000220 d9 68 68 3d 53 54 0d be 99 3c 4e bd c0 05 02 3f
       0.056740616 -0.13801698 -0.05035076 0.50790024
000230 db b0 9a 3d db 06 61 3d a9 a3 27 3d 0d da 78 3e
       0.07553264 0.05493818 0.040927563 0.2430193
000240 a7 00 22 3e 02 8b 07 be 57 06 95 bd 73 51 69 3d
       0.15820561 -0.13236621 -0.072766 0.05696244
000250 97 a0 0a 3d ad c0 39 bc 69 8e fe 3d 33 e9 cc 3d
       0.033844557 -0.011337441 0.12429506 0.10005417
000260 2f 3a 12 3e 99 58 28 3d 36 32 9f 3d 28 2d e1 bd
       0.14280008 0.04110012 0.07773249 -0.10994941
000270 a7 4e cf 3d 09 19 7a 3d 6b 81 a3 3d c1 c6 d9 3c
       0.101224236 0.06105903 0.07983669 0.026584031
000280 a7 00 ad bd 5e 00 8d 3d 09 85 0a 3e 96 8c 28 3c
       -0.0844739 0.06884836 0.13527311 0.010287425
000290 28 98 b4 bc 2e 34 2c be 46 fb 00 3e 67 69 bb 3c
       -0.02204521 -0.1681678 0.12595853 0.022877408
0002a0 fb 98 cd bf 1a ce 0e be 94 ac c9 bd 0c 8d eb 3d
       -1.6062311 -0.13945809 -0.0984737 0.11501512
0002b0 fc a3 09 be b1 11 3c bd 81 4e fc bd 59 f8 9a bd
       -0.13441461 -0.04591531 -0.12319661 -0.075669
0002c0 85 ef 29 3e 0e 7a e5 bd 6c e2 f6 3d d8 d6 46 3d
       0.16595276 -0.11204921 0.12054905 0.048544735
0002d0 a1 27 34 bf f0 6f 26 bd 0b 10 fb 3e ab 69 f2 bc
       -0.7037297 -0.040634096 0.49035677 -0.029591402
0002e0 c2 08 37 3d a4 2e 72 bc d4 db 25 3e ed 6f f7 bd
       0.044686086 -0.014781628 0.16197139 -0.12081895
0002f0 71 ce 28 be 30 d0 07 3e 3b 94 c0 3b f7 56 05 3e
       -0.16485001 0.13263011 0.0058770454 0.13021456
000300 03 75 0f 3d e6 25 68 bd 6d 92 d0 bc b0 2e 50 be
       0.0350237 -0.056676768 -0.025460446 -0.2033031
000310 6f a8 8a bf 82 3f 28 bc 77 b7 0c 3e 14 bd 22 3e
       -1.0832652 -0.010269048 0.13741861 0.1589244
000320 a8 f5 17 3d a6 5d e8 3b 7d 14 f6 bd 4d 4d b4 be
       0.03709951 0.007091242 -0.120156266 -0.35215226
000330 fa 16 60 bd f1 2d 2b be 94 05 9f bd d7 a0 32 3d
       -0.054709412 -0.16716744 -0.07764736 0.04361042
000340 fa 54 04 3f 08 2e c4 bd 81 3d 0a 3e 47 72 df bd
       0.51692164 -0.09579092 0.13500024 -0.109104685
000350 75 c8 94 3d d9 d0 85 3e 1d ac 20 3e 5a a0 b4 3d
       0.07264797 0.261359 0.15690656 0.08819647
000360 27 e1 de 3d ce cc 23 be 08 ca c4 3d 06 b6 d9 3e
       0.10882788 -0.15996096 0.09608847 0.42521685
000370 7f c9 21 3e 51 7d 67 bc 5c ee fa 3d ce 8d 98 bd
       0.15799521 -0.014128999 0.12252495 -0.07448922
000380 6d be cb 3c 8e 00 04 3e e3 82 0d 3e f7 4f e1 3d
       0.024871076 0.12890837 0.1381946 0.1100158
000390 d0 ba c2 bd da ac 8e bd 31 9b d3 3b 87 48 78 3d
       -0.09508288 -0.069665626 0.0064577092 0.060616042
0003a0 75 e5 0a 3e a8 4f e8 3d c9 d7 5c 3d b4 5d 70 bc
       0.13564093 0.11343318 0.053916726 -0.014670778
0003b0 27 07 d8 bd 0a e1 52 3c d2 47 1e bd 23 25 b5 3d
       -0.10548239 0.012871036 -0.038642712 0.08844974
0003c0 a3 1c 99 bd 40 07 e0 bd 2a 26 05 3e 87 f5 2d bd
       -0.07476165 -0.10938883 0.1300284 -0.04247048
0003d0 f6 a8 86 3c 2c 1b e7 3c 59 82 2b bd b4 e7 87 3f
       0.016437989 0.028211199 -0.041872356 1.0617585
0003e0 18 96 28 be 81 7f 11 3e 9c 2e 4f 3c a5 e3 6d 3e
       -0.16463506 0.14208795 0.01264539 0.23231371
0003f0 75 63 14 be e7 e2 95 3d 5e 5c 59 3d 17 98 9e bc
       -0.14491065 0.07318669 0.053066604 -0.019359631

ensemble.1.module_list.0.fc.bias f4 [64]
000000 e3 a7 21 3e 5c b3 8d 3d b2 22 4c 3e ec fb 15 be
       0.157867 0.06918976 0.1993511 -0.14646882
000010 eb 86 30 be 25 ed 86 be bd 08 dd bd d9 6c f3 3d
       -0.17238967 -0.26352802 -0.10792682 0.118859954
000020 0d 77 be 3d b8 16 bc 3d ef fc 65 3e 78 97 b6 be
       0.09300051 0.09184021 0.22459768 -0.35662436
000030 94 62 71 be b1 4f ef bd 76 dc 57 3e b8 82 27 be
       -0.23572761 -0.11685122 0.21080193 -0.16358459
000040 83 de c4 3d 9c 02 86 be eb 93 71 3e 2e c8 15 be
       0.09612753 -0.26173866 0.23591582 -0.14627144
000050 96 77 48 be 77 bd 98 3e fa 9b 0a 3e b2 96 61 3e
       -0.19576868 0.2983205 0.13536063 0.22030142
000060 fc cc e6 3d 54 5f b6 3d 7c 9b 50 bc 4d 23 00 bd
       0.112695664 0.08904901 -0.012732383 -0.031283665
000070 2c 44 a3 be 58 1c 92 3d 07 9c de bc b3 76 b2 be
       -0.3188795 0.071343124 -0.027174009 -0.34856185
000080 7d 45 3f 3e f8 bd 48 3e bd 28 8a bd 8c bb 44 be
       0.18678851 0.19603717 -0.067460515 -0.19212168
000090 cc e5 65 be d1 c3 a2 bd 12 67 64 be 62 ae 07 be
       -0.22450942 -0.07947505 -0.22304943 -0.13250116
0000a0 26 bb 3f 3e 8b 88 8e 3e 35 2f 43 be 37 ce 17 3d
       0.18723735 0.2783855 -0.19060977 0.037061896
0000b0 4a 26 3d 3d 8c 52 99 bd 60 9b 90 be 9e 64 15 3e
       0.046179093 -0.07486448 -0.28243542 0.14589164
0000c0 5d 29 72 3e c9 43 b2 3e a1 77 08 be 6c 84 3b be
       0.23648591 0.3481734 -0.13326885 -0.18312234
0000d0 9e 09 36 be a5 a6 85 3e 82 26 1a bd 05 38 7d be
       -0.17777106 0.26103702 -0.03763438 -0.24728401
0000e0 a4 b2 b1 bd 74 4c f2 3d 2e f1 78 be 60 c6 59 3e
       -0.08676651 0.118309885 -0.24310753 0.2126708
0000f0 48 af 61 be a1 a3 6d 3d aa 04 de 3c f1 97 2d be
       -0.2203952 0.058017377 0.027101833 -0.16952492

ensemble.1.module_list.0.fc.mask.mask f4 [64, 16]
000000 00 00 00 00 00 00 00 00 00 00 00 00 00 00 00 00
       0.0 0.0 0.0 0.0
000010 00 00 00 00 00 00 80 3f 00 00 00 00 00 00 00 00
       0.0 1.0 0.0 0.0
000020 00 00 00 00 00 00 80 3f 00 00 80 3f 00 00 00 00
       0.0 1.0 1.0 0.0
000030 00 00 00 00 00 00 00 00 00 00 00 00 00 00 00 00
       0.0 0.0 0.0 0.0
000040 00 00 00 00 00 00 80 3f 00 00 00 00 00 00 00 00
       0.0 1.0 0.0 0.0
000050 00 00 00 00 00 00 80 3f 00 00 00 00 00 00 00 00
       0.0 1.0 0.0 0.0
000060 00 00 00 00 00 00 00 00 00 00 00 00 00 00 00 00
       0.0 0.0 0.0 0.0
000070 00 00 00 00 00 00 00 00 00 00 80 3f 00 00 00 00
       0.0 0.0 1.0 0.0
000080 00 00 80 3f 00 00 00 00 00 00 80 3f 00 00 00 00
       1.0 0.0 1.0 0.0
000090 00 00 80 3f 00 00 00 00 00 00 00 00 00 00 00 00
       1.0 0.0 0.0 0.0
0000a0 00 00 00 00 00 00 00 00 00 00 00 00 00 00 00 00
       0.0 0.0 0.0 0.0
0000b0 00 00 00 00 00 00 00 00 00 00 00 00 00 00 00 00
       0.0 0.0 0.0 0.0
0000c0 00 00 00 00 00 00 00 00 00 00 80 3f 00 00 00 00
       0.0 0.0 1.0 0.0
0000d0 00 00 00 00 00 00 00 00 00 00 00 00 00 00 80 3f
       0.0 0.0 0.0 1.0
0000e0 00 00 00 00 00 00 00 00 00 00 00 00 00 00 00 00
       0.0 0.0 0.0 0.0
0000f0 00 00 00 00 00 00 00 00 00 00 00 00 00 00 80 3f
       0.0 0.0 0.0 1.0
000100 00 00 00 00 00 00 00 00 00 00 00 00 00 00 00 00
       0.0 0.0 0.0 0.0
000110 00 00 00 00 00 00 00 00 00 00 00 00 00 00 00 00
       0.0 0.0 0.0 0.0
000120 00 00 80 3f 00 00 80 3f 00 00 00 00 00 00 00 00
       1.0 1.0 0.0 0.0
000130 00 00 80 3f 00 00 00 00 00 00 00 00 00 00 00 00
       1.0 0.0 0.0 0.0
000140 00 00 00 00 00 00 00 00 00 00 00 00 00 00 00 00
       0.0 0.0 0.0 0.0
000150 00 00 00 00 00 00 00 00 00 00 00 00 00 00 00 00
       0.0 0.0 0.0 0.0
000160 00 00 00 00 00 00 80 3f 00 00 00 00 00 00 00 00
       0.0 1.0 0.0 0.0
000170 00 00 00 00 00 00 80 3f 00 00 80 3f 00 00 00 00
       0.0 1.0 1.0 0.0
000180 00 00 80 3f 00 00 00 00 00 00 00 00 00 00 00 00
       1.0 0.0 0.0 0.0
000190 00 00 00 00 00 00 00 00 00 00 00 00 00 00 00 00
       0.0 0.0 0.0 0.0
0001a0 00 00 00 00 00 00 00 00 00 00 00 00 00 00 80 3f
       0.0 0.0 0.0 1.0
0001b0 00 00 80 3f 00 00 00 00 00 00 00 00 00 00 00 00
       1.0 0.0 0.0 0.0
0001c0 00 00 00 00 00 00 00 00 00 00 00 00 00 00 00 00
       0.0 0.0 0.0 0.0
0001d0 00 00 80 3f 00 00 00 00 00 00 00 00 00 00 80 3f
       1.0 0.0 0.0 1.0
0001e0 00 00 00 00 00 00 00 00 00 00 00 00 00 00 00 00
       0.0 0.0 0.0 0.0
0001f0 00 00 00 00 00 00 00 00 00 00 80 3f 00 00 00 00
       0.0 0.0 1.0 0.0
000200 00 00 00 00 00 00 00 00 00 00 00 00 00 00 00 00
       0.0 0.0 0.0 0.0
000210 00 00 80 3f 00 00 00 00 00 00 00 00 00 00 00 00
       1.0 0.0 0.0 0.0
000220 00 00 00 00 00 00 00 00 00 00 00 00 00 00 80 3f
       0.0 0.0 0.0 1.0
000230 00 00 00 00 00 00 00 00 00 00 00 00 00 00 80 3f
       0.0 0.0 0.0 1.0
000240 00 00 00 00 00 00 00 00 00 00 00 00 00 00 00 00
       0.0 0.0 0.0 0.0
000250 00 00 00 00 00 00 80 3f 00 00 00 00 00 00 00 00
       0.0 1.0 0.0 0.0
000260 00 00 80 3f 00 00 00 00 00 00 00 00 00 00 00 00
       1.0 0.0 0.0 0.0
000270 00 00 80 3f 00 00 00 00 00 00 00 00 00 00 00 00
       1.0 0.0 0.0 0.0
000280 00 00 00 00 00 00 00 00 00 00 00 00 00 00 00 00
       0.0 0.0 0.0 0.0
000290 00 00 00 00 00 00 00 00 00 00 00 00 00 00 00 00
       0.0 0.0 0.0 0.0
0002a0 00 00 80 3f 00 00 00 00 00 00 80 3f 00 00 80 3f
       1.0 0.0 1.0 1.0
0002b0 00 00 00 00 00 00 00 00 00 00 00 00 00 00 00 00
       0.0 0.0 0.0 0.0
0002c0 00 00 00 00 00 00 00 00 00 00 00 00 00 00 00 00
       0.0 0.0 0.0 0.0
0002d0 00 00 80 3f 00 00 00 00 00 00 80 3f 00 00 00 00
       1.0 0.0 1.0 0.0
0002e0 00 00 00 00 00 00 00 00 00 00 00 00 00 00 00 00
       0.0 0.0 0.0 0.0
0002f0 00 00 00 00 00 00 80 3f 00 00 00 00 00 00 00 00
       0.0 1.0 0.0 0.0
000300 00 00 00 00 00 00 00 00 00 00 00 00 00 00 80 3f
       0.0 0.0 0.0 1.0
000310 00 00 80 3f 00 00 00 00 00 00 00 00 00 00 00 00
       1.0 0.0 0.0 0.0
000320 00 00 00 00 00 00 00 00 00 00 00 00 00 00 80 3f
       0.0 0.0 0.0 1.0
000330 00 00 00 00 00 00 00 00 00 00 00 00 00 00 00 00
       0.0 0.0 0.0 0.0
000340 00 00 80 3f 00 00 00 00 00 00 00 00 00 00 00 00
       1.0 0.0 0.0 0.0
000350 00 00 00 00 00 00 80 3f 00 00 00 00 00 00 00 00
       0.0 1.0 0.0 0.0
000360 00 00 00 00 00 00 00 00 00 00 00 00 00 00 80 3f
       0.0 0.0 0.0 1.0
000370 00 00 00 00 00 00 00 00 00 00 00 00 00 00 00 00
       0.0 0.0 0.0 0.0
000380 00 00 00 00 00 00 00 00 00 00 00 00 00 00 00 00
       0.0 0.0 0.0 0.0
000390 00 00 00 00 00 00 00 00 00 00 00 00 00 00 80 3f
       0.0 0.0 0.0 1.0
0003a0 00 00 00 00 00 00 00 00 00 00 00 00 00 00 00 00
       0.0 0.0 0.0 0.0
0003b0 00 00 80 3f 00 00 80 3f 00 00 00 00 00 00 00 00
       1.0 1.0 0.0 0.0
0003c0 00 00 00 00 00 00 00 00 00 00 00 00 00 00 00 00
       0.0 0.0 0.0 0.0
0003d0 00 00 00 00 00 00 00 00 00 00 00 00 00 00 80 3f
       0.0 0.0 0.0 1.0
0003e0 00 00 00 00 00 00 00 00 00 00 00 00 00 00 80 3f
       0.0 0.0 0.0 1.0
0003f0 00 00 00 00 00 00 80 3f 00 00 00 00 00 00 00 00
       0.0 1.0 0.0 0.0

ensemble.1.module_list.0.output_quant.pre_transforms.0.weight f4 [64]
000000 2d 56 ac 3f 45 39 17 3f 32 2b 46 3e f5 e4 16 3f
       1.3463799 0.5907176 0.19352415 0.5894311
000010 19 98 9b 3e a2 f3 85 3e d5 f7 c2 3f 2e 8e a4 3e
       0.3038948 0.2616244 1.5231882 0.32139724
000020 e9 55 a9 3e 9e d6 2d 3f 3a 67 c1 3f d5 88 65 3e
       0.33073357 0.67905605 1.5109627 0.22415479
000030 6e 80 80 3e 98 6c 93 3e 9e d6 2d 3f e9 eb 0d 3f
       0.25097984 0.28793788 0.67905605 0.55438095
000040 7a df 2c 3f 84 a0 85 3f f5 ff bd 3f 9e d6 2d 3f
       0.675285 1.043961 1.4843737 0.67905605
000050 19 77 13 3e 53 4c f6 3f 9e d6 2d 3f 9e d6 2d 3f
       0.14400901 1.9242042 0.67905605 0.67905605
000060 eb d4 30 3f 9e d6 2d 3f b9 cb 27 3f ce c2 ee 3e
       0.6907489 0.67905605 0.6554523 0.46633
000070 99 ff ee 3f 9e d6 2d 3f 60 6e 28 3f 8c c6 9a 3e
       1.8671752 0.67905605 0.6579342 0.30229604
000080 ed 8e 5d 3e 9e d6 2d 3f 27 93 29 3e 9e d6 2d 3f
       0.21636553 0.67905605 0.1656004 0.67905605
000090 9e d6 2d 3f 7e 93 94 3e 2f f1 05 3e 3f 29 f0 3f
       0.67905605 0.29018778 0.13080285 1.8762587
0000a0 9e d6 2d 3f 99 b4 aa 3f f3 43 62 3e 89 df b9 3e
       0.67905605 1.3336364 0.22096233 0.36303356
0000b0 b1 90 22 3e 94 e6 7d 3e f1 17 d0 3e 62 33 9f 3e
       0.15875508 0.2479499 0.40643266 0.3109389
0000c0 8b 2a 09 3f fb 66 43 3f 8a d2 93 3e 9e d6 2d 3f
       0.5358054 0.7632901 0.28871566 0.67905605
0000d0 9e d6 2d 3f 1d 65 a2 3f 81 d6 eb 3d 0b a8 2c 3f
       0.67905605 1.2687107 0.11515523 0.67443913
0000e0 9e d6 2d 3f a8 dc 69 3f 86 76 7b 3e 9e d6 2d 3f
       0.67905605 0.9135232 0.24556932 0.67905605
0000f0 9e d6 2d 3f 50 b0 1f 3f 83 c9 9c 3e 46 ae 11 3f
       0.67905605 0.62378407 0.3062249 0.56906545

ensemble.1.module_list.0.output_quant.pre_transforms.0.bias f4 [64]
000000 8c f8 12 3f aa 17 3c be 46 b8 aa 3e be c3 d6 be
       0.574105 -0.18368402 0.33343714 -0.41946214
000010 30 51 1e 3f 81 a4 e4 3d df be 06 c0 f2 9e e6 be
       0.6184263 0.11164189 -2.1053998 -0.4504314
000020 df 86 6d 3e 00 00 00 00 c6 17 03 3f 1e 80 2e 3e
       0.2319598 0.0 0.5120815 0.1704106
000030 1a 13 c6 3d 64 6e 92 bd 00 00 00 00 8d 5c 96 3e
       0.09671612 -0.071499616 0.0 0.29367486
000040 de f7 20 3f b2 da f1 be 08 23 72 3f 00 00 00 00
       0.62878215 -0.47237164 0.94584703 0.0
000050 23 00 fd 3d 83 19 39 3f 00 00 00 00 00 00 00 00
       0.12353542 0.7230455 0.0 0.0
000060 b1 50 26 bf 00 00 00 00 24 b5 d9 be 77 ef 7a be
       -0.64966875 0.0 -0.42521012 -0.24505411
000070 c3 d1 ee bf 00 00 00 00 e4 21 9c 3f d2 dd ae 3e
       -1.8657764 0.0 1.2197843 0.3415361
000080 94 e8 03 3e 00 00 00 00 26 ce 89 3e 00 00 00 00
       0.1288169 0.0 0.2691509 0.0
000090 00 00 00 00 91 5d 20 3c 41 74 70 3e 8e 5d 4b bf
       0.0 0.009787933 0.23481847 -0.7943963
0000a0 00 00 00 00 5e d3 b3 bd 31 1c 1b bd 3c e6 29 be
       0.0 -0.087805495 -0.037868682 -0.16591734
0000b0 9f 35 05 3e d4 bd d5 3d 50 2d c0 be b7 26 0d 3f
       0.13008736 0.104365975 -0.3753457 0.551372
0000c0 e1 54 fa be 5e 20 40 bf 48 87 20 bd 00 00 00 00
       -0.48892882 -0.7504939 -0.039191514 0.0
0000d0 00 00 00 00 47 44 4f 3f cb 4c 06 3e 71 37 bf 3e
       0.0 0.8096356 0.13115232 0.37346986
0000e0 00 00 00 00 47 a1 a4 bf 34 58 58 3e 00 00 00 00
       0.0 -1.2861718 0.21127397 0.0
0000f0 00 00 00 00 c6 21 46 3f 63 04 87 bd 87 5e 52 3e
       0.0 0.77395284 -0.065926336 0.20543872

ensemble.1.module_list.0.output_quant.pre_transforms.0.running_mean f4 [64]
000000 e3 1f cf be e0 1b 11 3d 73 91 3b 3f 34 78 92 3e
       -0.40454015 0.035426974 0.7326881 0.28607333
000010 b4 00 cd 3d 27 c9 fc 3e 96 bf f8 3e e2 b6 e0 bd
       0.100099 0.49372217 0.48583668 -0.10972382
000020 c1 3c b4 be ed 73 19 3c 77 97 c1 bc 60 f1 e3 be
       -0.35202602 0.009366018 -0.023631794 -0.44520092
000030 f4 36 ee 3e 92 c2 8f bd 64 08 8d 3e 57 bf 42 bf
       0.465263 -0.07019533 0.27545464 -0.7607321
000040 c7 b9 23 bf d6 ca 59 3c de c0 f7 be 8d 8b 0c be
       -0.6395535 0.013292989 -0.48389333 -0.1372511
000050 be b0 12 bf a0 0a 26 3c 81 f1 92 3e 7b 1a ce 3d
       -0.5730094 0.010134369 0.28699878 0.100636445
000060 77 53 3b be e9 2d b8 3d 6c 56 9b be e1 d5 9d bd
       -0.18293558 0.08993132 -0.30339372 -0.0770681
000070 23 ef fd 3c f2 83 26 3e 01 4b 3d 3f 92 f6 05 bf
       0.030997818 0.1626127 0.7394257 -0.5232936
000080 07 72 fe 3f 9f 49 f5 3d 36 ac bb bd 51 ce 41 3d
       1.9878548 0.11976933 -0.09163706 0.0473159
000090 72 92 aa be 84 a3 03 be 75 9a d0 be 55 c9 64 be
       -0.33314854 -0.12855345 -0.4074284 -0.22342427
0000a0 e0 e7 6a 3e ad 43 c7 3f a5 3b 2a bf de 4d b1 be
       0.22940016 1.5567528 -0.6649726 -0.3462972
0000b0 ac cc 37 bf 5c e3 8e be 41 1e 27 bf cc 11 c1 bd
       -0.7179668 -0.27907836 -0.6528054 -0.094272226
0000c0 bc fe 65 3e 2b a8 3c 3d b1 f7 6f 3e c3 90 21 be
       0.22460455 0.046058815 0.2343433 -0.15777878
0000d0 52 2a 2a be 34 78 ef 3c 73 4a fe bd 0b 07 9a be
       -0.16617706 0.029232122 -0.12416544 -0.30083498
0000e0 a0 23 1f be 4f fa 6f 3f 87 48 af be 4f b5 51 3e
       -0.15540934 0.93741316 -0.3423502 0.2047932
0000f0 0e 48 b3 be b1 e6 8c bf c3 4f 5d bd e7 11 17 3f
       -0.3501591 -1.1007901 -0.054031145 0.5901169

ensemble.1.module_list.0.output_quant.pre_transforms.0.running_var f4 [64]
000000 11 bc 91 3e a8 1a 8f 3d 91 7c ad 3d 3f e0 ca 3e
       0.28463796 0.06987506 0.08471025 0.3962421
000010 d6 b7 59 3e 6f c9 9d 3e 9f fa 0d 3e ef c5 14 3e
       0.21261534 0.30817744 0.13865136 0.1452863
000020 c0 c4 bc 3d cf 4d f5 3c cc ad 7a 40 bf 30 a7 3d
       0.092172146 0.029944329 3.9168577 0.081635945
000030 96 a1 a4 3e 30 ca cd 3d b2 1e 87 3b 59 76 3e 3f
       0.3215453 0.1004833 0.004123532 0.74399334
000040 17 42 0a 3d 16 72 7d 3e f2 2b 2a 41 ab 40 89 3a
       0.033754434 0.24750552 10.635729 0.0010471543
000050 4f 22 57 3e 0d 4e 40 40 d3 fe 83 3b e7 f0 10 3b
       0.21009181 3.0047638 0.00402818 0.0022116245
000060 06 1b 3e 3f 13 f0 f1 39 e4 a6 83 3f 68 af df 3f
       0.74259984 0.0004614597 1.0285306 1.7475405
000070 14 67 2a 40 63 b3 96 3b 22 17 18 3f c5 5d f9 3c
       2.6625414 0.0045990213 0.594103 0.03044022
000080 93 82 d1 3e 23 72 d9 3c 5b 5b 3d 3d bf 74 b0 3c
       0.40919933 0.026543682 0.0462297 0.021540044
000090 ea 17 9d 3b 57 f0 78 3f 5a a7 bb 3b 21 c4 7f 40
       0.0047941105 0.9724173 0.005726737 3.9963458
0000a0 36 44 3d 3b 36 b6 d1 3e ba 50 bc 3c 63 f6 2a 3e
       0.0028879768 0.40959328 0.022987712 0.16695552
0000b0 43 45 c4 3c 54 fe f7 3d ae 2c 7a 3e 66 a0 cd 3e
       0.023958808 0.12109056 0.24431106 0.40161437
0000c0 a2 e0 3a 3f 49 7a 99 3e dc 4b 14 3e 9f da 0a 3c
       0.7299901 0.2997611 0.14482063 0.008474975
0000d0 9b 2b 1b 3b e9 f4 16 41 c0 52 27 3e ca 0a ad 3d
       0.0023677114 9.4347925 0.1634016 0.084493235
0000e0 2f 0d 99 3b b0 3b 55 3d c3 8d eb 3d 40 09 ed 3a
       0.004670761 0.052058876 0.11501648 0.0018084422
0000f0 c3 23 d2 3c 8d 31 48 3f 30 49 07 3d 63 9e 8b 3f
       0.025651818 0.7820061 0.03302878 1.0907711

ensemble.1.module_list.1.input_quant.pre_transforms.0.weight f4 [64]
000000 2d 56 ac 3f 45 39 17 3f 32 2b 46 3e f5 e4 16 3f
       1.3463799 0.5907176 0.19352415 0.5894311
000010 19 98 9b 3e a2 f3 85 3e d5 f7 c2 3f 2e 8e a4 3e
       0.3038948 0.2616244 1.5231882 0.32139724
000020 e9 55 a9 3e 9e d6 2d 3f 3a 67 c1 3f d5 88 65 3e
       0.33073357 0.67905605 1.5109627 0.22415479
000030 6e 80 80 3e 98 6c 93 3e 9e d6 2d 3f e9 eb 0d 3f
       0.25097984 0.28793788 0.67905605 0.55438095
000040 7a df 2c 3f 84 a0 85 3f f5 ff bd 3f 9e d6 2d 3f
       0.675285 1.043961 1.4843737 0.67905605
000050 19 77 13 3e 53 4c f6 3f 9e d6 2d 3f 9e d6 2d 3f
       0.14400901 1.9242042 0.67905605 0.67905605
000060 eb d4 30 3f 9e d6 2d 3f b9 cb 27 3f ce c2 ee 3e
       0.6907489 0.67905605 0.6554523 0.46633
000070 99 ff ee 3f 9e d6 2d 3f 60 6e 28 3f 8c c6 9a 3e
       1.8671752 0.67905605 0.6579342 0.30229604
000080 ed 8e 5d 3e 9e d6 2d 3f 27 93 29 3e 9e d6 2d 3f
       0.21636553 0.67905605 0.1656004 0.67905605
000090 9e d6 2d 3f 7e 93 94 3e 2f f1 05 3e 3f 29 f0 3f
       0.67905605 0.29018778 0.13080285 1.8762587
0000a0 9e d6 2d 3f 99 b4 aa 3f f3 43 62 3e 89 df b9 3e
       0.67905605 1.3336364 0.22096233 0.36303356
0000b0 b1 90 22 3e 94 e6 7d 3e f1 17 d0 3e 62 33 9f 3e
       0.15875508 0.2479499 0.40643266 0.3109389
0000c0 8b 2a 09 3f fb 66 43 3f 8a d2 93 3e 9e d6 2d 3f
       0.5358054 0.7632901 0.28871566 0.67905605
0000d0 9e d6 2d 3f 1d 65 a2 3f 81 d6 eb 3d 0b a8 2c 3f
       0.67905605 1.2687107 0.11515523 0.67443913
0000e0 9e d6 2d 3f a8 dc 69 3f 86 76 7b 3e 9e d6 2d 3f
       0.67905605 0.9135232 0.24556932 0.67905605
0000f0 9e d6 2d 3f 50 b0 1f 3f 83 c9 9c 3e 46 ae 11 3f
       0.67905605 0.62378407 0.3062249 0.56906545

ensemble.1.module_list.1.input_quant.pre_transforms.0.bias f4 [64]
000000 8c f8 12 3f aa 17 3c be 46 b8 aa 3e be c3 d6 be
       0.574105 -0.18368402 0.33343714 -0.41946214
000010 30 51 1e 3f 81 a4 e4 3d df be 06 c0 f2 9e e6 be
       0.6184263 0.11164189 -2.1053998 -0.4504314
000020 df 86 6d 3e 00 00 00 00 c6 17 03 3f 1e 80 2e 3e
       0.2319598 0.0 0.5120815 0.1704106
000030 1a 13 c6 3d 64 6e 92 bd 00 00 00 00 8d 5c 96 3e
       0.09671612 -0.071499616 0.0 0.29367486
000040 de f7 20 3f b2 da f1 be 08 23 72 3f 00 00 00 00
       0.62878215 -0.47237164 0.94584703 0.0
000050 23 00 fd 3d 83 19 39 3f 00 00 00 00 00 00 00 00
       0.12353542 0.7230455 0.0 0.0
000060 b1 50 26 bf 00 00 00 00 24 b5 d9 be 77 ef 7a be
       -0.64966875 0.0 -0.42521012 -0.24505411
000070 c3 d1 ee bf 00 00 00 00 e4 21 9c 3f d2 dd ae 3e
       -1.8657764 0.0 1.2197843 0.3415361
000080 94 e8 03 3e 00 00 00 00 26 ce 89 3e 00 00 00 00
       0.1288169 0.0 0.2691509 0.0
000090 00 00 00 00 91 5d 20 3c 41 74 70 3e 8e 5d 4b bf
       0.0 0.009787933 0.23481847 -0.7943963
0000a0 00 00 00 00 5e d3 b3 bd 31 1c 1b bd 3c e6 29 be
       0.0 -0.087805495 -0.037868682 -0.16591734
0000b0 9f 35 05 3e d4 bd d5 3d 50 2d c0 be b7 26 0d 3f
       0.13008736 0.104365975 -0.3753457 0.551372
0000c0 e1 54 fa be 5e 20 40 bf 48 87 20 bd 00 00 00 00
       -0.48892882 -0.7504939 -0.039191514 0.0
0000d0 00 00 00 00 47 44 4f 3f cb 4c 06 3e 71 37 bf 3e
       0.0 0.8096356 0.13115232 0.37346986
0000e0 00 00 00 00 47 a1 a4 bf 34 58 58 3e 00 00 00 00
       0.0 -1.2861718 0.21127397 0.0
0000f0 00 00 00 00 c6 21 46 3f 63 04 87 bd 87 5e 52 3e
       0.0 0.77395284 -0.065926336 0.20543872

ensemble.1.module_list.1.input_quant.pre_transforms.0.running_mean f4 [64]
000000 e3 1f cf be e0 1b 11 3d 73 91 3b 3f 34 78 92 3e
       -0.40454015 0.035426974 0.7326881 0.28607333
000010 b4 00 cd 3d 27 c9 fc 3e 96 bf f8 3e e2 b6 e0 bd
       0.100099 0.49372217 0.48583668 -0.10972382
000020 c1 3c b4 be ed 73 19 3c 77 97 c1 bc 60 f1 e3 be
       -0.35202602 0.009366018 -0.023631794 -0.44520092
000030 f4 36 ee 3e 92 c2 8f bd 64 08 8d 3e 57 bf 42 bf
       0.465263 -0.07019533 0.27545464 -0.7607321
000040 c7 b9 23 bf d6 ca 59 3c de c0 f7 be 8d 8b 0c be
       -0.6395535 0.013292989 -0.48389333 -0.1372511
000050 be b0 12 bf a0 0a 26 3c 81 f1 92 3e 7b 1a ce 3d
       -0.5730094 0.010134369 0.28699878 0.100636445
000060 77 53 3b be e9 2d b8 3d 6c 56 9b be e1 d5 9d bd
       -0.18293558 0.08993132 -0.30339372 -0.0770681
000070 23 ef fd 3c f2 83 26 3e 01 4b 3d 3f 92 f6 05 bf
       0.030997818 0.1626127 0.7394257 -0.5232936
000080 07 72 fe 3f 9f 49 f5 3d 36 ac bb bd 51 ce 41 3d
       1.9878548 0.11976933 -0.09163706 0.0473159
000090 72 92 aa be 84 a3 03 be 75 9a d0 be 55 c9 64 be
       -0.33314854 -0.12855345 -0.4074284 -0.22342427
0000a0 e0 e7 6a 3e ad 43 c7 3f a5 3b 2a bf de 4d b1 be
       0.22940016 1.5567528 -0.6649726 -0.3462972
0000b0 ac cc 37 bf 5c e3 8e be 41 1e 27 bf cc 11 c1 bd
       -0.7179668 -0.27907836 -0.6528054 -0.094272226
0000c0 bc fe 65 3e 2b a8 3c 3d b1 f7 6f 3e c3 90 21 be
       0.22460455 0.046058815 0.2343433 -0.15777878
0000d0 52 2a 2a be 34 78 ef 3c 73 4a fe bd 0b 07 9a be
       -0.16617706 0.029232122 -0.12416544 -0.30083498
0000e0 a0 23 1f be 4f fa 6f 3f 87 48 af be 4f b5 51 3e
       -0.15540934 0.93741316 -0.3423502 0.2047932
0000f0 0e 48 b3 be b1 e6 8c bf c3 4f 5d bd e7 11 17 3f
       -0.3501591 -1.1007901 -0.054031145 0.5901169

ensemble.1.module_list.1.input_quant.pre_transforms.0.running_var f4 [64]
000000 11 bc 91 3e a8 1a 8f 3d 91 7c ad 3d 3f e0 ca 3e
       0.28463796 0.06987506 0.08471025 0.3962421
000010 d6 b7 59 3e 6f c9 9d 3e 9f fa 0d 3e ef c5 14 3e
       0.21261534 0.30817744 0.13865136 0.1452863
000020 c0 c4 bc 3d cf 4d f5 3c cc ad 7a 40 bf 30 a7 3d
       0.092172146 0.029944329 3.9168577 0.081635945
000030 96 a1 a4 3e 30 ca cd 3d b2 1e 87 3b 59 76 3e 3f
       0.3215453 0.1004833 0.004123532 0.74399334
000040 17 42 0a 3d 16 72 7d 3e f2 2b 2a 41 ab 40 89 3a
       0.033754434 0.24750552 10.635729 0.0010471543
000050 4f 22 57 3e 0d 4e 40 40 d3 fe 83 3b e7 f0 10 3b
       0.21009181 3.0047638 0.00402818 0.0022116245
000060 06 1b 3e 3f 13 f0 f1 39 e4 a6 83 3f 68 af df 3f
       0.74259984 0.0004614597 1.0285306 1.7475405
000070 14 67 2a 40 63 b3 96 3b 22 17 18 3f c5 5d f9 3c
       2.6625414 0.0045990213 0.594103 0.03044022
000080 93 82 d1 3e 23 72 d9 3c 5b 5b 3d 3d bf 74 b0 3c
       0.40919933 0.026543682 0.0462297 0.021540044
000090 ea 17 9d 3b 57 f0 78 3f 5a a7 bb 3b 21 c4 7f 40
       0.0047941105 0.9724173 0.005726737 3.9963458
0000a0 36 44 3d 3b 36 b6 d1 3e ba 50 bc 3c 63 f6 2a 3e
       0.0028879768 0.40959328 0.022987712 0.16695552
0000b0 43 45 c4 3c 54 fe f7 3d ae 2c 7a 3e 66 a0 cd 3e
       0.023958808 0.12109056 0.24431106 0.40161437
0000c0 a2 e0 3a 3f 49 7a 99 3e dc 4b 14 3e 9f da 0a 3c
       0.7299901 0.2997611 0.14482063 0.008474975
0000d0 9b 2b 1b 3b e9 f4 16 41 c0 52 27 3e ca 0a ad 3d
       0.0023677114 9.4347925 0.1634016 0.084493235
0000e0 2f 0d 99 3b b0 3b 55 3d c3 8d eb 3d 40 09 ed 3a
       0.004670761 0.052058876 0.11501648 0.0018084422
0000f0 c3 23 d2 3c 8d 31 48 3f 30 49 07 3d 63 9e 8b 3f
       0.025651818 0.7820061 0.03302878 1.0907711

ensemble.1.module_list.1.fc.weight f4 [32, 64]
000000 1e 01 a6 bc db 18 96 3c 25 d6 08 3f 66 6e 9c bd
       -0.020264205 0.018322399 0.5345176 -0.07638244
000010 1d b0 9d bd 93 e7 96 3c 51 d6 a8 3d ec 0e 80 bd
       -0.076996066 0.01842097 0.082440026 -0.06252846
000020 ed 12 7a bd 61 da 6c bd 2f 39 bf bc 55 ff 30 3d
       -0.061053205 -0.05782545 -0.023342697 0.043212254
000030 7b f7 a4 bd 23 39 73 3d 9c c3 8a 3d a9 66 31 bd
       -0.08055016 0.05938066 0.06775591 -0.043310795
000040 11 f2 ab bd 72 f9 1d 3d 60 69 be bb 7c dc d4 3c
       -0.0839578 0.038567968 -0.0058109015 0.025984041
000050 72 54 7f 3d c9 db 39 3d b6 02 8d bd 95 62 07 3d
       0.062336393 0.04537562 -0.06885283 0.033053
000060 bf c4 1a 3d 5e 8a ce bc 28 35 6b 3d 8e 01 99 bd
       0.037785288 -0.025212463 0.05742374 -0.07471
000070 ac 98 79 bd e6 ef 2c 3d 18 f9 86 bc 30 c3 7d bc
       -0.060936615 0.042220972 -0.016476199 -0.015488431
000080 a2 12 64 bd 6e 4c d0 3a ab a0 0f 3f 41 50 73 3d
       -0.055681832 0.0015891918 0.56104535 0.059402708
000090 c7 76 e1 bc 4f 81 4a bd c1 76 62 3d 40 f5 a4 3b
       -0.027522458 -0.049439725 0.055289034 0.005034119
0000a0 40 fc 3e bd 03 cf 4e bd 12 8f 8e 3d 9a 53 a6 3d
       -0.046627283 -0.05049039 0.06960882 0.081214145
0000b0 e9 75 f1 3c 33 26 14 bd c0 d5 0f 3d c2 ce e9 3c
       0.02947517 -0.036169242 0.035115957 0.028540973
0000c0 3a db 08 bd e5 4a 44 be e2 a3 24 bd f8 86 94 3d
       -0.033412196 -0.19169195 -0.040195353 0.07252306
0000d0 fe 9a 98 3d d6 54 f3 bb 55 1f 03 bd 54 d4 da 3c
       0.074514374 -0.0074258847 -0.032012302 0.026712574
0000e0 b8 95 79 bd 8b dd 85 bd df 37 97 bc 08 01 35 bd
       -0.0609338 -0.065363966 -0.018459259 -0.044190437
0000f0 6a 2d 99 bd bc 06 0c bd c3 4d 05 bb 07 75 ac 3c
       -0.07479365 -0.03418611 -0.002034054 0.021051897
000100 6e 23 11 bd fe 48 a2 3b eb 9c 22 bf 69 44 97 3d
       -0.03543418 0.004952549 -0.6352069 0.07386095
000110 c5 c9 25 bd 5e fd b3 be 57 f5 91 3d 83 22 bb bc
       -0.040475626 -0.3515424 0.07126873 -0.022843605
000120 81 d6 94 3d 96 0a 9c bc 0b 2c 68 3d 27 67 0a 3d
       0.07267476 -0.019048017 0.056682628 0.03378978
000130 81 21 a2 3b e1 25 9e 3d 3c e2 02 bd d6 0f a0 bd
       0.0049478416 0.077220686 -0.031954035 -0.078155205
000140 1b 26 9c bc a8 08 7d bd a5 4b 7d 3d 0e eb 7a 3d
       -0.019061139 -0.061775833 0.06183972 0.061259322
000150 f7 5f 95 bd 20 6b 92 3d 70 06 8e bd dc 64 06 bd
       -0.072936945 0.07149339 -0.069348216 -0.03281103
000160 8b 0d 41 bc 20 aa 34 3d b6 3d 83 3d 1f 97 51 bd
       -0.011783014 0.044107556 0.06408255 -0.05116951
000170 e3 10 b3 bc 45 da 6d bc fb fd 82 3d e5 c9 a2 bd
       -0.021858638 -0.014517372 0.06396099 -0.079486646
000180 72 67 44 3d a3 d9 3d 3d 6e ce 34 bd 22 ef 18 bd
       0.047950216 0.046350133 -0.04414218 -0.03733743
000190 32 18 88 3d 72 b2 aa bd f3 3b a5 3d 95 60 41 3d
       0.0664524 -0.08334817 0.08068075 0.04721125
0001a0 b6 57 cc 3c ac f4 93 3d 30 b8 43 39 ec ad 91 3b
       0.024944168 0.07224402 0.00018665264 0.004445782
0001b0 d4 3e 3d bd ff 78 49 bc e6 14 6e 3d ab 8b 28 3c
       -0.046202496 -0.012296914 0.0581254 0.010287206
0001c0 d4 f3 c2 3e eb e9 41 3d 8a 1d 96 3d bf 54 10 3b
       0.3807665 0.047342222 0.07329853 0.002202317
0001d0 d2 7d 9f bc b4 3f 6d bd b6 31 7f bd 41 cf fb bc
       -0.019469175 -0.05792208 -0.062303267 -0.030738475
0001e0 8c 08 a8 bd 6f 39 3c bd 06 da 7f bd 26 ba 1e 3d
       -0.08204755 -0.04595321 -0.062463783 0.038751744
0001f0 4f c0 93 bd 56 3b 59 3d e1 22 8d 3d 9d 92 b4 3c
       -0.07214414 0.053035103 0.06891418 0.022042567
000200 02 1e 00 bd 10 67 07 3d ee 8d a7 3d d2 ab da 3c
       -0.031278618 0.033057272 0.08181368 0.026693258
000210 38 2b ad 3c 90 b8 56 bc fa 6b 39 3b 16 e9 5b 3d
       0.021138772 -0.013105527 0.0028293119 0.053689085
000220 36 e2 3f bd 82 8e 37 3d 1d fd aa be 43 ba df bc
       -0.04684659 0.04481364 -0.33396235 -0.027310496
000230 1f f1 ae ba dc 2e d0 3c 23 c4 1f bd f2 49 41 bd
       -0.0013347006 0.02541297 -0.03900541 -0.04718966
000240 83 d4 46 3c 24 b2 98 3c 85 00 6e 3b 47 63 4a bb
       0.012135628 0.018639632 0.0036316228 -0.0030881928
000250 03 e8 66 3d 61 1e aa 3d cb fc 22 bd 8b 7f 0e bc
       0.056373607 0.083065756 -0.039791863 -0.008697401
000260 61 c4 30 bc 35 44 25 bd 14 21 de bc 30 6c 6c bd
       -0.010789008 -0.04034825 -0.027115382 -0.057720363
000270 3e 1c 85 bd bb 6c 7a bd 8f 9b 88 3c e9 8a 68 3d
       -0.064995274 -0.06113885 0.016675739 0.0567731
000280 ce f4 c1 bc b8 34 19 3a eb 9a 1a bd 52 11 07 3c
       -0.023676302 0.00058443425 -0.037745398 0.008243876
000290 02 d2 20 3d e9 61 7f 3c e1 f2 8c 3c de aa ed bc
       0.03926278 0.015587308 0.017205657 -0.02901214
0002a0 d0 bd 3b bb ce bd 41 bd 10 ea d6 bb 1f 68 79 bc
       -0.0028647073 -0.047300152 -0.006558664 -0.015222578
0002b0 0e 17 42 bd 91 53 40 3d ea cb cc 3c 31 07 84 bd
       -0.047385268 0.046954695 0.024999578 -0.06446684
0002c0 25 a9 dd be e7 bd 89 3d ee 35 60 3d 92 c3 a0 bd
       -0.4329311 0.06725674 0.05473893 -0.07849802
0002d0 ac 00 5d bd 28 2b 9a bd 1d d0 47 3d c1 56 46 3c
       -0.05395572 -0.07527763 0.048782457 0.012105645
0002e0 13 7f 37 3d e3 d5 3d bd 5a 45 9b 3c 64 8b 6d bd
       0.04479892 -0.046346556 0.018953968 -0.05799426
0002f0 79 e2 9d 3d 7f b2 bb bb c1 de 6c bd 8f f0 0a bd
       0.07709212 -0.0057280655 -0.057829622 -0.03392082
000300 76 a2 88 bd 26 17 9d 3d 19 e6 06 bd 71 c6 d9 bc
       -0.06671612 0.07670431 -0.032934282 -0.026583882
000310 af 31 2f bd d2 e3 f5 bc d3 bc 89 bd 2a a8 97 bc
       -0.04277199 -0.03001586 -0.067254685 -0.018512804
000320 4a d6 f1 bc 54 da 29 bd 5c 0f 55 3d 40 e1 e0 3a
       -0.029521126 -0.04146798 0.0520166 0.0017156973
000330 35 1f 0a 3d 2c 6e fb bc ed 97 8f bc a7 23 ab bd
       0.033721168 -0.030692182 -0.017528499 -0.083564095
000340 fe 2b 8a bd 60 9e 70 bd 84 24 1b bd fb eb 5f 3d
       -0.06746672 -0.05874479 -0.03787662 0.054668408
000350 77 94 ab bc 99 bf a8 bd 65 dc a3 3c f3 40 5c bd
       -0.020944817 -0.08239669 0.020002553 -0.053772878
000360 05 2d 93 3d 03 94 b9 3c 0f 0b 12 bd 40 9d 99 bb
       0.07186321 0.022653585 -0.035655078 -0.004687935
000370 f6 ef 7a bd 6e 1c 8a 3d 5f 7d 82 3d 9f 59 c8 3c
       -0.061264 0.06743704 0.06371569 0.024456797
000380 bc 70 fb bc 9d 06 17 3c a7 ad 88 3b 08 7d f7 bc
       -0.030693404 0.009217885 0.0041710916 -0.030210987
000390 68 d9 01 bd dc 78 84 3d 1a e3 a5 bc 79 80 44 3d
       -0.031701475 0.064683646 -0.020249892 0.047974084
0003a0 9c b7 c9 bb 23 9b 72 3d ac 10 c1 3c 66 a2 61 bd
       -0.006155921 0.05922998 0.02356752 -0.055086516
0003b0 f3 59 b7 bc 8c 9e 2d 3c 2c bf 4c bd c9 8b 17 bd
       -0.022381758 0.010596883 -0.049987003 -0.036998544
0003c0 1c 3a b9 3c c9 01 30 3d 18 74 5f bd 49 21 8e 3d
       0.022610717 0.042970452 -0.054554075 0.069399424
0003d0 74 8a 92 3d 12 cc c3 3c a5 a3 1d 3c 5c d2 7a 3c
       0.07155314 0.02390102 0.009621535 0.015308943
0003e0 d4 b7 9a bd 3f 7d 5c bd 66 59 6a 3d 3c 23 65 3d
       -0.07554594 -0.05383038 0.057214163 0.055941805
0003f0 f1 d4 7d 3d 76 d9 7a 3d 5d 14 f8 bb f4 ec 7a bc
       0.061970655 0.061242543 -0.007570787 -0.015315283
