examples/jet_substructure/jsc_single_models/uniform_input_medium_seed3/checkpoint.pth (torch, 169627 bytes, 99 tensors)

module_list.0.input_quant.pre_transforms.0.weight f4 [16]
0	0x3efae0db	0.48999676
1	0x3f1fc124	0.62404084
2	0x3f32bac1	0.69816214
3	0x40363a8b	2.8473232
4	0x3ecabd01	0.39597324
5	0x3f0ddce8	0.554152
6	0x3f26ec84	0.65204644
7	0x3f74ccfe	0.95625293
8	0x3eb0d51b	0.34537587
9	0x3f0191a0	0.5061283
10	0x3ecd3cc0	0.4008541
11	0x3f1254ea	0.5716082
12	0x3f05b880	0.5223465
13	0x3ef5e1ed	0.4802393
14	0x4004732f	2.0695302
15	0x3ec9a985	0.39387146

module_list.0.input_quant.pre_transforms.0.bias f4 [16]
0	0xbdfc853e	-0.123301014
1	0x3d745b0b	0.059657138
2	0x3e80f956	0.25190228
3	0x3e9322dc	0.28737533
4	0xbea065a7	-0.31327555
5	0xbe6a56bb	-0.22884648
6	0x3e447eff	0.1918907
7	0x3f32194c	0.6956985
8	0xbd3d7f2d	-0.046263862
9	0x3ea70020	0.32617283
10	0x3e13bda3	0.1442781
11	0x3e62fea0	0.22167444
12	0xbe1077dd	-0.14108224
13	0xbabd1ff7	-0.0014429082
14	0xbea68d6d	-0.32529774
15	0xbe198074	-0.14990407

module_list.0.input_quant.pre_transforms.0.running_mean f4 [16]
0	0x3b528948	0.0032125283
1	0xbb2d0e6d	-0.0026406304
2	0xbbd9a968	-0.0066425093
3	0xbc13c3c4	-0.009018842
4	0xbbd39f3f	-0.0064581926
5	0xbbe89554	-0.0070978794
6	0xbb14af21	-0.0022687393
7	0xbba18481	-0.004929126
8	0xbb14af21	-0.0022687393
9	0xbb88e5db	-0.0041777915
10	0xbb5988a2	-0.0033193012
11	0xbb9f0b58	-0.004853647
12	0xbb7d2131	-0.003862452
13	0xbbb61ffc	-0.005558012
14	0xbbc96167	-0.0061456445
15	0xbb49a8af	-0.003077071

module_list.0.input_quant.pre_transforms.0.running_var f4 [16]
0	0x3f8147d5	1.0100046
1	0x3f80fd18	1.0077238
2	0x3f7e1ef5	0.99265987
3	0x3f7e86e5	0.9942458
4	0x3f7df565	0.9920257
5	0x3f7d73fd	0.9900511
6	0x3f7d6e2c	0.98996234
7	0x3f7da66f	0.9908208
8	0x3f7d6e2c	0.98996234
9	0x3f7f6237	0.9975924
10	0x3f7f8c2d	0.99823266
11	0x3f7d4ebb	0.9894826
12	0x3f7f98e8	0.9984269
13	0x3f7e3f52	0.9931537
14	0x3f7d3b64	0.9891875
15	0x3f806762	1.003155

module_list.0.fc.weight f4 [64, 16]
0	0x3d0a6036	0.03378316
1	0x3dde830a	0.108648375
2	0xbe188497	-0.14894329
3	0xbc96c487	-0.018404258
4	0x3d824809	0.06361396
5	0x3ddece35	0.108791746
6	0x3d24ce07	0.040235545
7	0x3de02f64	0.10946539
8	0xbd5898d3	-0.05288012
9	0xbc6f2920	-0.014597207
10	0x3e234c1b	0.15947
11	0x3de78d17	0.113062076
12	0x3df36aa6	0.11885576
13	0xbe16c103	-0.14722066
14	0xbb15ddd5	-0.0022867818
15	0xbe173fa9	-0.14770378
16	0x3e1defa3	0.15423445
17	0x3f9e7377	1.2378987
18	0x3dc1bdd9	0.09460039
19	0x3dd88bc8	0.10573536
20	0xbdc5def1	-0.09661663
21	0xbde23b02	-0.11046411
22	0x3d8065dd	0.06269429
23	0x3e0e64f2	0.13905695
24	0x3eb95295	0.36195818
25	0xbe23f115	-0.16009934
26	0xbd18758f	-0.037221488
27	0xbea1f826	-0.31634635
28	0x3c1efb15	0.009703417
29	0x3dbc9062	0.09207226
30	0x3d4e1611	0.050314013
31	0xbd3da9f6	-0.046304666
32	0xbdf55096	-0.11978261
33	0xbb52db88	-0.0032174308
34	0xbda2d058	-0.07949895
35	0xbe0a241e	-0.1349034
36	0xbdc4d4f7	-0.09610932
37	0xbe1f4bc3	-0.15556245
38	0x3c9ce52e	0.01915225
39	0xbede12b3	-0.4337364
40	0xbdc628f0	-0.09675777
41	0x3d002670	0.031286657
42	0xbc4b66a3	-0.012414607
43	0xbdeb2114	-0.114809185
44	0x3ee455f6	0.44596833
45	0x3cf0a660	0.029376209
46	0xbf4324dd	-0.76228124
47	0x3e04c511	0.129658
48	0x3e9d277a	0.3069418
49	0x3db94db5	0.090480246
50	0x3f16754d	0.58772737
51	0x3d1c91ac	0.03822486
52	0x3efad39d	0.48989573
53	0xbbaf030a	-0.0053409385
54	0x3e15f7ac	0.1464526
55	0xbd926eac	-0.07150015
56	0xbe2290ff	-0.15875624
57	0x3e0e831d	0.13917203
58	0x3d8d8509	0.0691014
59	0x3df0c199	0.11755676
60	0xbd6112ed	-0.05494969
61	0xbd91b892	-0.07115282
62	0xbcf11f9b	-0.029434016
63	0xbe7a98d7	-0.24472366
64	0x3cb832ae	0.022485103
65	0x3e18f0f4	0.14935666
66	0xbd45dd79	-0.048306916
67	0xbf0fd013	-0.5617687
68	0xbd82aba6	-0.063803956
69	0xbe66d8ea	-0.22543684
70	0x3c417e6f	0.011809929
71	0x3dcc1d22	0.09966494
72	0x3da4154c	0.080118746
73	0x3cfd88e2	0.03094906
74	0xbdff6531	-0.124704726
75	0xbca6fa41	-0.020383002
76	0xbc448e8d	-0.011996877
77	0x3e0038e0	0.12521696
78	0x3f050c1a	0.5197159
79	0x3dd1f17a	0.10251136
80	0x3e1687b2	0.14700201
81	0xbca82d95	-0.020529548
82	0xbe0bab19	-0.13639487
83	0xbe056adf	-0.1302905
84	0x3e096994	0.13419181
85	0xbd8f5fd0	-0.07000697
86	0x3bd5bbe7	0.006522644
87	0xbe2d92f8	-0.16950595
88	0xbba9fd99	-0.005187702
89	0xbe1ff09a	-0.15619126
90	0xbcd275b4	-0.02569089
91	0x3d0e4cb6	0.034741126
92	0x3d40f59c	0.04710923
93	0x3eb7a364	0.35866845
94	0x3cede301	0.029038908
95	0x3fbb3d93	1.4628166
96	0xbd96f729	-0.07371361
97	0x3e1ba396	0.15199122
98	0x3e15b7a5	0.14620836
99	0x3dda293e	0.106523976
100	0xbde80e3a	-0.113308385
101	0xbdcbcb76	-0.099509165
102	0x3c8e2bf5	0.017354945
103	0xbdb63e01	-0.08898545
104	0xb94f08f3	-0.00019744392
105	0xbdaaf81b	-0.083481036
106	0xbd92f34c	-0.071753114
107	0x3ca29d8c	0.019850515
108	0xbe0bb460	-0.13643026
109	0x3d30fb93	0.04320867
110	0xbc41ab7c	-0.01182067
111	0xbd91fb79	-0.07128043
112	0xbdae3e56	-0.085079834
113	0xbdce35fb	-0.1006889
114	0x3e084471	0.13307358
115	0x3bc58b30	0.0060285553
116	0xbd1691b6	-0.036760055
117	0xbccb3499	-0.024805354
118	0xbf24f42c	-0.64435077
119	0xbe1d2281	-0.15345193
120	0xbecb2d16	-0.39682835
121	0xbf550e8a	-0.8322531
122	0xbe80a911	-0.25128987
123	0x3d7e276b	0.06204931
124	0x3de686d8	0.11256188
125	0xbde22132	-0.11041488
126	0x3de0324b	0.109470926
127	0xbd43f8b0	-0.04784459
128	0xbe7fe7cd	-0.24990769
129	0x3e2824d8	0.16420305
130	0xbf366dd9	-0.71261364
131	0x3d335ce4	0.04378976
132	0x3f0702c7	0.5273861
133	0x3d590c67	0.052990343
134	0xbdb1b27b	-0.086766206
135	0x3e14ef78	0.14544475
136	0xbdf97ec3	-0.12182381
137	0xbd706b49	-0.058696065
138	0x3e2db598	0.16963804
139	0x3cb4a4a8	0.02205117
140	0xbd8d3ddf	-0.068965666
141	0xbe1dc41e	-0.15406844
142	0xbe2c92de	-0.168529
143	0xbe0d02fc	-0.1377067
144	0xbd481d58	-0.04885611
145	0xbde5b28c	-0.11215696
146	0x3d8df29b	0.06931039
147	0xbd6a77aa	-0.057243027
148	0xbdbf8c44	-0.093529254
149	0x3ec2523f	0.37953374
150	0x3e1ddd8b	0.15416543
151	0xbeb128f4	-0.34601557
152	0x3d0e345c	0.034717903
153	0xbe679f1a	-0.22619286
154	0x3e1a3b5d	0.15061708
155	0xbcae0826	-0.02124412
156	0xbd3a3e60	-0.04546964
157	0xbd793d13	-0.06084926
158	0xbf1ed8dd	-0.6204966
159	0xbd369482	-0.04457522
160	0x3c87aad7	0.016560955
161	0xbf3a3786	-0.7274097
162	0x3ce6a494	0.028154649
163	0x3dbb0732	0.09132232
164	0x3e15beaa	0.14623514
165	0x3cf4b317	0.029870553
166	0xbd573eec	-0.05255024
167	0xbdc9007f	-0.09814548
168	0xbe1e1619	-0.15438117
169	0xbdd82739	-0.10554356
170	0x3d903134	0.07040635
171	0x3e289135	0.16461642
172	0xbcbba3ef	-0.022905318
173	0xbdd3c458	-0.10340184
174	0xbd6f1ba0	-0.058375955
175	0x3ef972be	0.48720354
176	0x3df38dee	0.11892305
177	0xbe0b8b38	-0.13627326
178	0xbca7ad7f	-0.020468472
179	0xbd88587e	-0.066575035
180	0xbd0fd131	-0.03511161
181	0x3e131575	0.14363654
182	0xbf0eaa4c	-0.557286
183	0x3e03878d	0.12844677
184	0xbebcbc04	-0.36862195
185	0xbe160c4c	-0.14653128
186	0x3efea773	0.4973713
187	0xbcc083db	-0.023500374
188	0x3e6fc31a	0.23414269
189	0x3e0c4755	0.13699086
190	0xbde46f21	-0.11154009
191	0x3e117bf8	0.14207447
192	0xbdceb9d7	-0.1009404
193	0xbce5f77e	-0.028072115
194	0x3eccff38	0.40038466
195	0xbda35319	-0.07974834
196	0xbdd6b876	-0.10484402
197	0xbd862101	-0.06549264
198	0x3db4561d	0.08805487
199	0x3cb667da	0.022266317
200	0x3e72f47c	0.23726076
201	0x3df48c36	0.119408056
202	0x3d128cfb	0.03577898
203	0xbd08854a	-0.03333024
204	0x3e1d8f0e	0.15386602
205	0xbdb89123	-0.09012058
206	0x3cc8c696	0.024508756
207	0x3f92e8b0	1.147726
208	0x3e2c1d92	0.16808155
209	0xbdd5fc74	-0.10448542
210	0x3df9efa9	0.12203915
211	0xbd363260	-0.044481635
212	0xbe1028f5	-0.14078124
213	0xbb7f5c02	-0.0038964753
214	0x3df406e6	0.11915378
215	0xbda0386c	-0.078232616
216	0xbb33bd48	-0.0027426053
217	0xbcdd3d5f	-0.027006803
218	0xbdbda05a	-0.092591
219	0x3cb028db	0.021503856
220	0x3f7ba811	0.98303324
221	0xbec3ab8b	-0.38216814
222	0xbd4274e7	-0.047474768
223	0xbe0e31ef	-0.13886236
224	0xbd8ee268	-0.06976777
225	0xbd24a16e	-0.040193014
226	0x3ce9ca34	0.0285388
227	0x3d9be296	0.07611577
228	0x3f5b6a35	0.85708934
229	0xbd5bd0c8	-0.053665906
230	0xbe7ba4a9	-0.24574532
231	0x3d95088e	0.07277022
232	0x3d179b98	0.03701362
233	0xbe031aca	-0.12803188
234	0xbeb9edf1	-0.36314347
235	0xbdf1a2d9	-0.11798639
236	0xbdd42f54	-0.103605896
237	0x3d8f30d9	0.06991739
238	0x3d972897	0.07380789
239	0x3e0a58fd	0.13510509
240	0xbde5c416	-0.11219041
241	0x3e2b5fff	0.16735838
242	0x3cbce19b	0.023056796
243	0x3dfbe556	0.12299602
244	0x3db47437	0.08811229
245	0x3efe9b2f	0.4972777
246	0x3dde929f	0.108678095
247	0xbb9aa555	-0.004719416
248	0xbe0db0c0	-0.13836956
249	0xbe3ca93e	-0.18423936
250	0xbe0690e0	-0.13141203
251	0xbb29dc75	-0.0025918756
252	0x3dae2b79	0.085043855
253	0xbe1ac510	-0.15114236
254	0x3fb91370	1.4459057
255	0xbe28cfaf	-0.16485475

module_list.0.fc.bias f4 [64]
0	0x3e7f5e38	0.24938285
1	0xbdf4e416	-0.119575664
2	0xbdf0338b	-0.11728581
3	0xbe41ff55	-0.18945058
4	0xbe4cdc7a	-0.2000598
5	0x3b26920f	0.0025416648
6	0xbd8e5aa8	-0.06950885
7	0xbca006e5	-0.019534538
8	0xbcde69b3	-0.02715001
9	0xbec8bfa7	-0.3920872
10	0x3d4065b4	0.04697199
11	0x3df57b5d	0.1198642
12	0x3e29c92c	0.16580647
13	0x3e80d256	0.25160474
14	0xbededb94	-0.435269
15	0xbe31b79a	-0.17355195
16	0xbc8c8d93	-0.017157352
17	0x3ed7f40f	0.4217839
18	0xbe956417	-0.29177925
19	0x3e0acd7a	0.13554946
20	0x3e4583a1	0.19288494
21	0xbe55c9bd	-0.20877738
22	0x3bc82154	0.0061074886
23	0xbdcade06	-0.09905629
24	0xbec06271	-0.37575105
25	0x3e65a1b2	0.22424963
26	0x3d8b3358	0.067969024
27	0x3de09edb	0.10967799
28	0x3e321776	0.17391762
29	0xbe57f2d6	-0.21088728
30	0x3e5d5f50	0.2161839
31	0x3da15bac	0.07878813
32	0xbe4ec0ae	-0.20190689
33	0xbd230968	-0.039803892
34	0x3e0f72da	0.14008656
35	0xbed8744f	-0.42276236
36	0x3e06d1e3	0.13166003
37	0x3e8085d5	0.25102106
38	0xbe398c3e	-0.18119904
39	0xbd51c347	-0.05121162
40	0xbe579c60	-0.21055746
41	0x3da3b112	0.07992758
42	0x3c9ebec0	0.019378066
43	0xbb53c6ea	-0.0032314607
44	0xbdc76da3	-0.097377084
45	0xbd518298	-0.051149935
46	0x3dc7e2bb	0.09760042
47	0x3e079af1	0.13242699
48	0x3d1246e0	0.035712123
49	0x3e07cd64	0.13261944
50	0xbd328e50	-0.04359275
51	0xbdc2a7e6	-0.0950468
52	0xbcaebae8	-0.021329358
53	0xbe8c4613	-0.27397212
54	0xbe01122b	-0.12604587
55	0x3d1faa4d	0.03898077
56	0xbe588a91	-0.21146609
57	0xbd46bb92	-0.048518725
58	0xbe13afee	-0.1442258
59	0x3e106298	0.1410011
60	0x3e9d4eaf	0.30724093
61	0x3df25be7	0.11833935
62	0xbe2fc490	-0.17164826
63	0xbd276684	-0.04086925

module_list.0.fc.mask.mask f4 [64, 16]
0	0x00000000	0.0
1	0x00000000	0.0
2	0x00000000	0.0
3	0x00000000	0.0
4	0x00000000	0.0
5	0x3f800000	1.0
6	0x3f800000	1.0
7	0x00000000	0.0
8	0x00000000	0.0
9	0x3f800000	1.0
10	0x3f800000	1.0
11	0x00000000	0.0
12	0x00000000	0.0
13	0x00000000	0.0
14	0x00000000	0.0
15	0x00000000	0.0
16	0x00000000	0.0
17	0x3f800000	1.0
18	0x00000000	0.0
19	0x3f800000	1.0
20	0x00000000	0.0
21	0x00000000	0.0
22	0x00000000	0.0
23	0x00000000	0.0
24	0x3f800000	1.0
25	0x00000000	0.0
26	0x00000000	0.0
27	0x3f800000	1.0
28	0x00000000	0.0
29	0x00000000	0.0
30	0x00000000	0.0
31	0x00000000	0.0
32	0x00000000	0.0
33	0x00000000	0.0
34	0x00000000	0.0
35	0x00000000	0.0
36	0x00000000	0.0
37	0x00000000	0.0
38	0x00000000	0.0
39	0x3f800000	1.0
40	0x00000000	0.0
41	0x00000000	0.0
42	0x00000000	0.0
43	0x00000000	0.0
44	0x3f800000	1.0
45	0x3f800000	1.0
46	0x3f800000	1.0
47	0x00000000	0.0
48	0x3f800000	1.0
49	0x00000000	0.0
50	0x3f800000	1.0
51	0x00000000	0.0
52	0x3f800000	1.0
53	0x00000000	0.0
54	0x00000000	0.0
55	0x00000000	0.0
56	0x00000000	0.0
57	0x00000000	0.0
58	0x00000000	0.0
59	0x00000000	0.0
60	0x00000000	0.0
61	0x00000000	0.0
62	0x00000000	0.0
63	0x3f800000	1.0
64	0x00000000	0.0
65	0x3f800000	1.0
66	0x00000000	0.0
67	0x3f800000	1.0
68	0x00000000	0.0
69	0x3f800000	1.0
70	0x00000000	0.0
71	0x00000000	0.0
72	0x00000000	0.0
73	0x00000000	0.0
74	0x00000000	0.0
75	0x00000000	0.0
76	0x00000000	0.0
77	0x00000000	0.0
78	0x3f800000	1.0
79	0x00000000	0.0
80	0x00000000	0.0
81	0x00000000	0.0
82	0x00000000	0.0
83	0x00000000	0.0
84	0x00000000	0.0
85	0x00000000	0.0
86	0x00000000	0.0
87	0x3f800000	1.0
88	0x00000000	0.0
89	0x00000000	0.0
90	0x00000000	0.0
91	0x00000000	0.0
92	0x3f800000	1.0
93	0x3f800000	1.0
94	0x00000000	0.0
95	0x3f800000	1.0
96	0x3f800000	1.0
97	0x00000000	0.0
98	0x3f800000	1.0
99	0x00000000	0.0
100	0x3f800000	1.0
101	0x00000000	0.0
102	0x00000000	0.0
103	0x00000000	0.0
104	0x00000000	0.0
105	0x00000000	0.0
106	0x00000000	0.0
107	0x3f800000	1.0
108	0x00000000	0.0
109	0x00000000	0.0
110	0x00000000	0.0
111	0x00000000	0.0
112	0x00000000	0.0
113	0x00000000	0.0
114	0x00000000	0.0
115	0x00000000	0.0
116	0x00000000	0.0
117	0x00000000	0.0
118	0x3f800000	1.0
119	0x00000000	0.0
120	0x3f800000	1.0
121	0x3f800000	1.0
122	0x3f800000	1.0
123	0x00000000	0.0
124	0x00000000	0.0
125	0x00000000	0.0
126	0x00000000	0.0
127	0x00000000	0.0
128	0x3f800000	1.0
129	0x00000000	0.0
130	0x3f800000	1.0
131	0x00000000	0.0
132	0x3f800000	1.0
133	0x00000000	0.0
134	0x00000000	0.0
135	0x00000000	0.0
136	0x00000000	0.0
137	0x00000000	0.0
138	0x00000000	0.0
139	0x3f800000	1.0
140	0x00000000	0.0
141	0x00000000	0.0
142	0x00000000	0.0
143	0x00000000	0.0
144	0x00000000	0.0
145	0x00000000	0.0
146	0x00000000	0.0
147	0x00000000	0.0
148	0x00000000	0.0
149	0x3f800000	1.0
150	0x00000000	0.0
151	0x3f800000	1.0
152	0x00000000	0.0
153	0x3f800000	1.0
154	0x00000000	0.0
155	0x00000000	0.0
156	0x00000000	0.0
157	0x00000000	0.0
158	0x3f800000	1.0
159	0x00000000	0.0
160	0x00000000	0.0
161	0x3f800000	1.0
162	0x00000000	0.0
163	0x3f800000	1.0
164	0x00000000	0.0
165	0x00000000	0.0
166	0x00000000	0.0
167	0x00000000	0.0
168	0x00000000	0.0
169	0x00000000	0.0
170	0x00000000	0.0
171	0x00000000	0.0
172	0x00000000	0.0
173	0x3f800000	1.0
174	0x00000000	0.0
175	0x3f800000	1.0
176	0x00000000	0.0
177	0x00000000	0.0
178	0x00000000	0.0
179	0x00000000	0.0
180	0x00000000	0.0
181	0x00000000	0.0
182	0x3f800000	1.0
183	0x00000000	0.0
184	0x3f800000	1.0
185	0x00000000	0.0
186	0x3f800000	1.0
187	0x00000000	0.0
188	0x3f800000	1.0
189	0x00000000	0.0
190	0x00000000	0.0
191	0x00000000	0.0
192	0x00000000	0.0
193	0x00000000	0.0
194	0x3f800000	1.0
195	0x00000000	0.0
196	0x00000000	0.0
197	0x00000000	0.0
198	0x00000000	0.0
199	0x3f800000	1.0
200	0x3f800000	1.0
201	0x00000000	0.0
202	0x00000000	0.0
203	0x00000000	0.0
204	0x00000000	0.0
205	0x00000000	0.0
206	0x00000000	0.0
207	0x3f800000	1.0
208	0x3f800000	1.0
209	0x00000000	0.0
210	0x00000000	0.0
211	0x3f800000	1.0
212	0x00000000	0.0
213	0x00000000	0.0
214	0x00000000	0.0
215	0x00000000	0.0
216	0x00000000	0.0
217	0x00000000	0.0
218	0x00000000	0.0
219	0x00000000	0.0
220	0x3f800000	1.0
221	0x3f800000	1.0
222	0x00000000	0.0
223	0x00000000	0.0
224	0x00000000	0.0
225	0x00000000	0.0
226	0x00000000	0.0
227	0x00000000	0.0
228	0x3f800000	1.0
229	0x00000000	0.0
230	0x3f800000	1.0
231	0x00000000	0.0
232	0x00000000	0.0
233	0x00000000	0.0
234	0x3f800000	1.0
235	0x3f800000	1.0
236	0x00000000	0.0
237	0x00000000	0.0
238	0x00000000	0.0
239	0x00000000	0.0
240	0x00000000	0.0
241	0x3f800000	1.0
242	0x00000000	0.0
243	0x00000000	0.0
244	0x00000000	0.0
245	0x3f800000	1.0
246	0x00000000	0.0
247	0x00000000	0.0
248	0x00000000	0.0
249	0x3f800000	1.0
250	0x00000000	0.0
251	0x00000000	0.0
252	0x00000000	0.0
253	0x00000000	0.0
254	0x3f800000	1.0
255	0x00000000	0.0

module_list.0.output_quant.pre_transforms.0.weight f4 [64]
0	0x3f2dd69e	0.67905605
1	0x3f1ae7ae	0.60509765
2	0x3f87f189	1.0620586
3	0x3f53d4fe	0.82746875
4	0x3ed8a725	0.4231502
5	0x3ef60afe	0.4805526
6	0x3f2dd69e	0.67905605
7	0x3f4703fd	0.7774046
8	0x3f280b5e	0.65642345
9	0x3f264619	0.6495071
10	0x3e796c3e	0.24357697
11	0x3eae8c2f	0.34091327
12	0x3ec7d300	0.39028168
13	0x3e9c26c2	0.3049832
14	0x3f11afad	0.56908685
15	0x3eddde85	0.4333383
16	0x3f941931	1.1570188
17	0x3f2a63ab	0.6655833
18	0x3e949be7	0.29025194
19	0x3f6042fc	0.8760221
20	0x3f2e7190	0.6814203
21	0x3e87ee95	0.2654921
22	0x3f053cf1	0.52046114
23	0x4003f38c	2.06174
24	0x3f22e855	0.6363576
25	0x3f2dd69e	0.67905605
26	0x3ef0172c	0.4689268
27	0x3f8449b2	1.033499
28	0x3f2dd69e	0.67905605
29	0x4009d930	2.153881
30	0x3ea4e956	0.3220927
31	0x3e9f70c7	0.3114073
32	0x3f2dd69e	0.67905605
33	0x3f2dd69e	0.67905605
34	0x3e9cb052	0.30603272
35	0x3ec4e98e	0.38459438
36	0x3f46fcfb	0.7772977
37	0x3fb5070a	1.4142773
38	0x3f64e914	0.8941815
39	0x3ef5534d	0.47915116
40	0x3ede8ac6	0.4346525
41	0x3e8b40ad	0.2719778
42	0x3f2dd69e	0.67905605
43	0x3ed2983f	0.4113178
44	0x3e9e85ad	0.30961362
45	0x3f2dd69e	0.67905605
46	0x3f8ca741	1.0988542
47	0x3f99598a	1.198045
48	0x3f84e3cf	1.0382022
49	0x3f2dd69e	0.67905605
50	0x3f3107a3	0.6915228
51	0x3e8c4b5b	0.27401242
52	0x3f03e3d8	0.51519537
53	0x3ec2f2e0	0.38075924
54	0x3ec74d61	0.38926223
55	0x3f0cda5e	0.550207
56	0x3f9c8927	1.2229356
57	0x3f155ef9	0.5834804
58	0x3e6f36f7	0.23360811
59	0x3e9d5c4d	0.30734482
60	0x3e628e08	0.22124493
61	0x3f2559c2	0.64590085
62	0x3f2dd69e	0.67905605
63	0x3f6dcf31	0.92894274

module_list.0.output_quant.pre_transforms.0.bias f4 [64]
0	0x00000000	0.0
1	0xbd6df87f	-0.058098312
2	0x3fa5dc07	1.2957772
3	0xbecb0973	-0.39655647
4	0x3e9ae5c9	0.30253437
5	0x3e804d73	0.2505909
6	0x00000000	0.0
7	0x3f8ac026	1.0839889
8	0xbeb32c2f	-0.34994647
9	0x3f60f4fa	0.87873805
10	0x3d97c08e	0.07409774
11	0x3f03be4f	0.5146226
12	0xbe1b6d3d	-0.1517839
13	0x3e67d934	0.2264145
14	0xbeb36699	-0.35039213
15	0x3e83f194	0.25770247
16	0xbfad21f1	-1.3525983
17	0x3cc271d5	0.02373592
18	0x3f1ebe8d	0.6200951
19	0xbeddc1e1	-0.4331198
20	0x3e8da6a8	0.2766621
21	0x3e944add	0.28963366
22	0xbed9481f	-0.42437837
23	0x3e86b262	0.2630797
24	0xbeadf368	-0.33974767
25	0x00000000	0.0
26	0x3e701282	0.2344456
27	0xbe29ee53	-0.1659482
28	0x00000000	0.0
29	0x3ffcf36f	1.976179
30	0x3e1c582e	0.15268013
31	0x3ef792d7	0.48354217
32	0x00000000	0.0
33	0x00000000	0.0
34	0xbe466880	-0.19375801
35	0x3f04de2f	0.51901525
36	0xbec0b1d1	-0.37635663
37	0xbed733a6	-0.42031592
38	0xbeb6ca3d	-0.3570117
39	0xbea21699	-0.31657866
40	0x3f1e5976	0.61855257
41	0x3f0b3c4d	0.54388887
42	0x00000000	0.0
43	0xbd3c7514	-0.046010092
44	0x3ec50fc2	0.38488585
45	0x00000000	0.0
46	0xbea8569d	-0.3287858
47	0xbf5eeab9	-0.8707691
48	0x3ed46acb	0.41487727
49	0x00000000	0.0
50	0x3eb1fe52	0.34764344
51	0x3ed81410	0.42202806
52	0x3e8e6da6	0.2781803
53	0xbd9719ca	-0.07377966
54	0x3eb06a10	0.3445592
55	0x3eb58f7a	0.35461026
56	0xbfad96e1	-1.356167
57	0xbe26fc73	-0.16307239
58	0x3ef8ee97	0.4861953
59	0xbd5edbb0	-0.05440873
60	0x3e874823	0.26422223
61	0x3f0bb098	0.54566336
62	0x00000000	0.0
63	0xbf512f6c	-0.81712985

module_list.0.output_quant.pre_transforms.0.running_mean f4 [64]
0	0x3e429a29	0.1900412
1	0xbe7d241d	-0.24720807
2	0xbe07201a	-0.1319584
3	0xbee12bac	-0.43978631
4	0xbd887c46	-0.06664328
5	0xbf11877f	-0.56847376
6	0xbbee9368	-0.007280756
7	0x3d213893	0.039360594
8	0xbe23df81	-0.16003229
9	0xbf0084e5	-0.5020278
10	0xbdcb6290	-0.09930909
11	0x3e19670e	0.14980718
12	0xbe8c6956	-0.27424115
13	0x3d42c792	0.047553606
14	0xbf491a42	-0.7855569
15	0xbf3a26fc	-0.72715735
16	0xbec349ca	-0.38142234
17	0x3f414e41	0.7551003
18	0xbe845145	-0.25843254
19	0x3d6a3077	0.057175126
20	0xbe81ccbe	-0.25351518
21	0xbd4bec1c	-0.04978572
22	0xbeacc79d	-0.33746043
23	0xbcdbba30	-0.02682218
24	0xbe2d105c	-0.16900772
25	0x3e10fa95	0.1415809
26	0x3eb3f137	0.3514497
27	0x3dcff4e2	0.101541296
28	0x3e3ad338	0.18244636
29	0xbf3bf44f	-0.7341966
30	0xbdf3d52c	-0.11905894
31	0x3e4d898a	0.20071998
32	0xbe1016a1	-0.14071132
33	0xbe03e8d5	-0.12881787
34	0x3d1d988a	0.03847555
35	0xbeb6d63b	-0.3571032
36	0xbc493f3c	-0.012283143
37	0x3f1c9ffa	0.61181605
38	0x3de79d5a	0.11309309
39	0xbdd4fbd2	-0.103995934
40	0xbea2f0c9	-0.3182433
41	0x3e6c899c	0.23099369
42	0x3d56e545	0.052464742
43	0xbe18d16f	-0.14923643
44	0x3e990d91	0.29893163
45	0xbd879bed	-0.06621537
46	0x3eedfbc4	0.46481144
47	0xbdf1161a	-0.11771794
48	0x3f15dd24	0.5854056
49	0x3da92481	0.08258916
50	0xbdc70108	-0.097169936
51	0xbe1a3c27	-0.15062009
52	0x3d5affc0	0.05346656
53	0xbe9f8d72	-0.31162602
54	0x3d4c8d17	0.04993924
55	0xbe9d89ae	-0.30769104
56	0xbf92099e	-1.1409185
57	0xbe87c285	-0.26515594
58	0xbeb47ced	-0.3525156
59	0x3e0092da	0.1255602
60	0x3d1690c9	0.03675917
61	0x3f2642d3	0.64945716
62	0xbe3c618b	-0.18396585
63	0xbed3fb71	-0.41402772

module_list.0.output_quant.pre_transforms.0.running_var f4 [64]
0	0x3bf5a795	0.007496784
1	0x3e87c6ca	0.26518852
2	0x3e2e85c7	0.1704322
3	0x3de6db75	0.11272327
4	0x3ca93f61	0.020660104
5	0x3ea902ea	0.33010036
6	0x3b88b10e	0.004171497
7	0x3f14524b	0.5793807
8	0x3d600be8	0.054698855
9	0x3d6ebc9d	0.058285344
10	0x3d4cdffd	0.0500183
11	0x3dc92f66	0.09823494
12	0x3e93da79	0.2887762
13	0x3d73be20	0.05950749
14	0x3df60d03	0.120142005
15	0x3f5cece8	0.8629899
16	0x3ee8a261	0.45436385
17	0x3e16acfa	0.14714423
18	0x3d35979e	0.044334047
19	0x3ea078f2	0.31342274
20	0x3fbb11a0	1.4614754
21	0x3cc38f2f	0.023871986
22	0x3d84603a	0.06463666
23	0x3ec5e561	0.38651565
24	0x3da07d4f	0.07836401
25	0x3b7b6496	0.0038359514
26	0x3de4414c	0.11145267
27	0x3ce52100	0.027969837
28	0x3bed4efc	0.0072420817
29	0x3f81f97c	1.0154262
30	0x3d89ffc3	0.06738236
31	0x3ceb68e9	0.028736548
32	0x3b55e27e	0.003263622
33	0x3ca7cd65	0.020483682
34	0x3d26c7ce	0.040717892
35	0x3c688718	0.014192365
36	0x3de36753	0.11103692
37	0x3f67cdea	0.90548575
38	0x3e009e14	0.12560302
39	0x3e2a0ae0	0.16605711
40	0x3e01404b	0.12622182
41	0x3e0da06c	0.13830727
42	0x3bec9da9	0.007220943
43	0x3d0224a2	0.031773217
44	0x3de7cf20	0.11318803
45	0x3b52d74f	0.003217179
46	0x3e1a8a39	0.1509179
47	0x3f31da3e	0.69473636
48	0x3eebabb6	0.46029443
49	0x3bc086d5	0.005875448
50	0x3e89f7ab	0.26946768
51	0x3d1c73ba	0.038196303
52	0x3eb5369e	0.35393232
53	0x3d90dfd7	0.07073944
54	0x3e9e5978	0.30927634
55	0x3f4979b9	0.7870136
56	0x407f6257	3.9903772
57	0x3e854cdc	0.26035202
58	0x3c67f801	0.01415825
59	0x3cf6f183	0.030144459
60	0x3e2cce32	0.16875532
61	0x3f8f156c	1.1178412
62	0x3c009187	0.007847196
63	0x3e690431	0.22755505

module_list.1.input_quant.pre_transforms.0.weight f4 [64]
0	0x3f2dd69e	0.67905605
1	0x3f1ae7ae	0.60509765
2	0x3f87f189	1.0620586
3	0x3f53d4fe	0.82746875
4	0x3ed8a725	0.4231502
5	0x3ef60afe	0.4805526
6	0x3f2dd69e	0.67905605
7	0x3f4703fd	0.7774046
8	0x3f280b5e	0.65642345
9	0x3f264619	0.6495071
10	0x3e796c3e	0.24357697
11	0x3eae8c2f	0.34091327
12	0x3ec7d300	0.39028168
13	0x3e9c26c2	0.3049832
14	0x3f11afad	0.56908685
15	0x3eddde85	0.4333383
16	0x3f941931	1.1570188
17	0x3f2a63ab	0.6655833
18	0x3e949be7	0.29025194
19	0x3f6042fc	0.8760221
20	0x3f2e7190	0.6814203
21	0x3e87ee95	0.2654921
22	0x3f053cf1	0.52046114
23	0x4003f38c	2.06174
24	0x3f22e855	0.6363576
25	0x3f2dd69e	0.67905605
26	0x3ef0172c	0.4689268
27	0x3f8449b2	1.033499
28	0x3f2dd69e	0.67905605
29	0x4009d930	2.153881
30	0x3ea4e956	0.3220927
31	0x3e9f70c7	0.3114073
32	0x3f2dd69e	0.67905605
33	0x3f2dd69e	0.67905605
34	0x3e9cb052	0.30603272
35	0x3ec4e98e	0.38459438
36	0x3f46fcfb	0.7772977
37	0x3fb5070a	1.4142773
38	0x3f64e914	0.8941815
39	0x3ef5534d	0.47915116
40	0x3ede8ac6	0.4346525
41	0x3e8b40ad	0.2719778
42	0x3f2dd69e	0.67905605
43	0x3ed2983f	0.4113178
44	0x3e9e85ad	0.30961362
45	0x3f2dd69e	0.67905605
46	0x3f8ca741	1.0988542
47	0x3f99598a	1.198045
48	0x3f84e3cf	1.0382022
49	0x3f2dd69e	0.67905605
50	0x3f3107a3	0.6915228
51	0x3e8c4b5b	0.27401242
52	0x3f03e3d8	0.51519537
53	0x3ec2f2e0	0.38075924
54	0x3ec74d61	0.38926223
55	0x3f0cda5e	0.550207
56	0x3f9c8927	1.2229356
57	0x3f155ef9	0.5834804
58	0x3e6f36f7	0.23360811
59	0x3e9d5c4d	0.30734482
60	0x3e628e08	0.22124493
61	0x3f2559c2	0.64590085
62	0x3f2dd69e	0.67905605
63	0x3f6dcf31	0.92894274

module_list.1.input_quant.pre_transforms.0.bias f4 [64]
0	0x00000000	0.0
1	0xbd6df87f	-0.058098312
2	0x3fa5dc07	1.2957772
3	0xbecb0973	-0.39655647
4	0x3e9ae5c9	0.30253437
5	0x3e804d73	0.2505909
6	0x00000000	0.0
7	0x3f8ac026	1.0839889
8	0xbeb32c2f	-0.34994647
9	0x3f60f4fa	0.87873805
10	0x3d97c08e	0.07409774
11	0x3f03be4f	0.5146226
12	0xbe1b6d3d	-0.1517839
13	0x3e67d934	0.2264145
14	0xbeb36699	-0.35039213
15	0x3e83f194	0.25770247
16	0xbfad21f1	-1.3525983
17	0x3cc271d5	0.02373592
18	0x3f1ebe8d	0.6200951
19	0xbeddc1e1	-0.4331198
20	0x3e8da6a8	0.2766621
21	0x3e944add	0.28963366
22	0xbed9481f	-0.42437837
23	0x3e86b262	0.2630797
24	0xbeadf368	-0.33974767
25	0x00000000	0.0
26	0x3e701282	0.2344456
27	0xbe29ee53	-0.1659482
28	0x00000000	0.0
29	0x3ffcf36f	1.976179
30	0x3e1c582e	0.15268013
31	0x3ef792d7	0.48354217
32	0x00000000	0.0
33	0x00000000	0.0
34	0xbe466880	-0.19375801
35	0x3f04de2f	0.51901525
36	0xbec0b1d1	-0.37635663
37	0xbed733a6	-0.42031592
38	0xbeb6ca3d	-0.3570117
39	0xbea21699	-0.31657866
40	0x3f1e5976	0.61855257
41	0x3f0b3c4d	0.54388887
42	0x00000000	0.0
43	0xbd3c7514	-0.046010092
44	0x3ec50fc2	0.38488585
45	0x00000000	0.0
46	0xbea8569d	-0.3287858
47	0xbf5eeab9	-0.8707691
48	0x3ed46acb	0.41487727
49	0x00000000	0.0
50	0x3eb1fe52	0.34764344
51	0x3ed81410	0.42202806
52	0x3e8e6da6	0.2781803
53	0xbd9719ca	-0.07377966
54	0x3eb06a10	0.3445592
55	0x3eb58f7a	0.35461026
56	0xbfad96e1	-1.356167
57	0xbe26fc73	-0.16307239
58	0x3ef8ee97	0.4861953
59	0xbd5edbb0	-0.05440873
60	0x3e874823	0.26422223
61	0x3f0bb098	0.54566336
62	0x00000000	0.0
63	0xbf512f6c	-0.81712985

module_list.1.input_quant.pre_transforms.0.running_mean f4 [64]
0	0x3e429a29	0.1900412
1	0xbe7d241d	-0.24720807
2	0xbe07201a	-0.1319584
3	0xbee12bac	-0.43978631
4	0xbd887c46	-0.06664328
5	0xbf11877f	-0.56847376
6	0xbbee9368	-0.007280756
7	0x3d213893	0.039360594
8	0xbe23df81	-0.16003229
9	0xbf0084e5	-0.5020278
10	0xbdcb6290	-0.09930909
11	0x3e19670e	0.14980718
12	0xbe8c6956	-0.27424115
13	0x3d42c792	0.047553606
14	0xbf491a42	-0.7855569
15	0xbf3a26fc	-0.72715735
16	0xbec349ca	-0.38142234
17	0x3f414e41	0.7551003
18	0xbe845145	-0.25843254
19	0x3d6a3077	0.057175126
20	0xbe81ccbe	-0.25351518
21	0xbd4bec1c	-0.04978572
22	0xbeacc79d	-0.33746043
23	0xbcdbba30	-0.02682218
24	0xbe2d105c	-0.16900772
25	0x3e10fa95	0.1415809
26	0x3eb3f137	0.3514497
27	0x3dcff4e2	0.101541296
28	0x3e3ad338	0.18244636
29	0xbf3bf44f	-0.7341966
30	0xbdf3d52c	-0.11905894
31	0x3e4d898a	0.20071998
32	0xbe1016a1	-0.14071132
33	0xbe03e8d5	-0.12881787
34	0x3d1d988a	0.03847555
35	0xbeb6d63b	-0.3571032
36	0xbc493f3c	-0.012283143
37	0x3f1c9ffa	0.61181605
38	0x3de79d5a	0.11309309
39	0xbdd4fbd2	-0.103995934
40	0xbea2f0c9	-0.3182433
41	0x3e6c899c	0.23099369
42	0x3d56e545	0.052464742
43	0xbe18d16f	-0.14923643
44	0x3e990d91	0.29893163
45	0xbd879bed	-0.06621537
46	0x3eedfbc4	0.46481144
47	0xbdf1161a	-0.11771794
48	0x3f15dd24	0.5854056
49	0x3da92481	0.08258916
50	0xbdc70108	-0.097169936
51	0xbe1a3c27	-0.15062009
52	0x3d5affc0	0.05346656
53	0xbe9f8d72	-0.31162602
54	0x3d4c8d17	0.04993924
55	0xbe9d89ae	-0.30769104
56	0xbf92099e	-1.1409185
57	0xbe87c285	-0.26515594
58	0xbeb47ced	-0.3525156
59	0x3e0092da	0.1255602
60	0x3d1690c9	0.03675917
61	0x3f2642d3	0.64945716
62	0xbe3c618b	-0.18396585
63	0xbed3fb71	-0.41402772

module_list.1.input_quant.pre_transforms.0.running_var f4 [64]
0	0x3bf5a795	0.007496784
1	0x3e87c6ca	0.26518852
2	0x3e2e85c7	0.1704322
3	0x3de6db75	0.11272327
4	0x3ca93f61	0.020660104
5	0x3ea902ea	0.33010036
6	0x3b88b10e	0.004171497
7	0x3f14524b	0.5793807
8	0x3d600be8	0.054698855
9	0x3d6ebc9d	0.058285344
10	0x3d4cdffd	0.0500183
11	0x3dc92f66	0.09823494
12	0x3e93da79	0.2887762
13	0x3d73be20	0.05950749
14	0x3df60d03	0.120142005
15	0x3f5cece8	0.8629899
16	0x3ee8a261	0.45436385
17	0x3e16acfa	0.14714423
18	0x3d35979e	0.044334047
19	0x3ea078f2	0.31342274
20	0x3fbb11a0	1.4614754
21	0x3cc38f2f	0.023871986
22	0x3d84603a	0.06463666
23	0x3ec5e561	0.38651565
24	0x3da07d4f	0.07836401
25	0x3b7b6496	0.0038359514
26	0x3de4414c	0.11145267
27	0x3ce52100	0.027969837
28	0x3bed4efc	0.0072420817
29	0x3f81f97c	1.0154262
30	0x3d89ffc3	0.06738236
31	0x3ceb68e9	0.028736548
32	0x3b55e27e	0.003263622
33	0x3ca7cd65	0.020483682
34	0x3d26c7ce	0.040717892
35	0x3c688718	0.014192365
36	0x3de36753	0.11103692
37	0x3f67cdea	0.90548575
38	0x3e009e14	0.12560302
39	0x3e2a0ae0	0.16605711
40	0x3e01404b	0.12622182
41	0x3e0da06c	0.13830727
42	0x3bec9da9	0.007220943
43	0x3d0224a2	0.031773217
44	0x3de7cf20	0.11318803
45	0x3b52d74f	0.003217179
46	0x3e1a8a39	0.1509179
47	0x3f31da3e	0.69473636
48	0x3eebabb6	0.46029443
49	0x3bc086d5	0.005875448
50	0x3e89f7ab	0.26946768
51	0x3d1c73ba	0.038196303
52	0x3eb5369e	0.35393232
53	0x3d90dfd7	0.07073944
54	0x3e9e5978	0.30927634
55	0x3f4979b9	0.7870136
56	0x407f6257	3.9903772
57	0x3e854cdc	0.26035202
58	0x3c67f801	0.01415825
59	0x3cf6f183	0.030144459
60	0x3e2cce32	0.16875532
61	0x3f8f156c	1.1178412
62	0x3c009187	0.007847196
63	0x3e690431	0.22755505

module_list.1.fc.weight f4 [32, 64]
0	0x3c1a99ee	0.009436114
1	0x3d1ebd9c	0.038755044
2	0x3d9b2fef	0.07577502
3	0x3c73d174	0.0148814805
4	0xbd88cd89	-0.06679828
5	0x3d09e557	0.03366598
6	0x3d6be969	0.057595644
7	0x3da4884d	0.0803381
8	0x3d33b18e	0.0438705
9	0xbd3265f7	-0.043554273
10	0xbd3c803c	-0.04602073
11	0x3c30569d	0.010762838
12	0x3d8ebc86	0.06969552
13	0x3d6a786a	0.057243742
14	0x3d8d66f4	0.069044024
15	0x3d5ee805	0.05442049
16	0x3d387224	0.045030728
17	0x3d797073	0.060898256
18	0x3d0fb2eb	0.03508274
19	0x3e2a1dd6	0.16612944
20	0x3d274bf8	0.040843934
21	0x3be2112b	0.0068990192
22	0xbca462e7	-0.020066692
23	0x3c4083a2	0.011750134
24	0xbcf215f8	-0.029551491
25	0x3c9ef4b1	0.019403787
26	0xbbd0c485	-0.006371083
27	0x3d81632f	0.06317746
28	0xbd942f08	-0.07235533
29	0xbd198691	-0.03748185
30	0xbf9b6cdb	-1.2142595
31	0x3d847d11	0.06469167
32	0x3d7e5980	0.062097073
33	0xbbe83a62	-0.007087038
34	0x3c391212	0.011295812
35	0xbd803afb	-0.0626125
36	0x3d580f9a	0.052749254
37	0x3d7fb267	0.062425997
38	0x3d9b0318	0.075689495
39	0xbd43377c	-0.047660336
40	0xbd0b6cd2	-0.034039326
41	0x3cc73414	0.024316825
42	0x3d27d8cc	0.040978238
43	0xbd436bcd	-0.04771023
44	0x3d3d0fa4	0.046157494
45	0x3c598fbf	0.013278901
46	0xbd66b0fa	-0.05632112
47	0x3d0f3643	0.034963857
48	0x3c72edc5	0.0148271965
49	0x3ada7b78	0.0016668877
50	0xbcc79daf	-0.024367182
51	0xbc19a25b	-0.0093770875
52	0xbd27baf8	-0.04094979
53	0x3d211e99	0.03933582
54	0x3ee0893a	0.43854696
55	0xbd40bae4	-0.047053233
56	0xbbd95aff	-0.006633162
57	0xbadc7974	-0.0016820864
58	0xbca0ad81	-0.019613983
59	0xbd9aafcf	-0.07553064
60	0xbc3fd457	-0.011708341
61	0x3da4908e	0.08035384
62	0xbd635e74	-0.05551
63	0x3d127fb3	0.035766315
64	0x3940e397	0.0001839533
65	0xbd6c2a80	-0.05765772
66	0xbd3ef73c	-0.0466225
67	0xbad47717	-0.0016209808
68	0x3d11fa53	0.03563912
69	0x3b912249	0.004429136
70	0xbc5d4849	-0.013506004
71	0xb94a4491	-0.00019289764
72	0xbd657bbc	-0.056026205
73	0x3d9a0bbf	0.07521772
74	0xbc9155d6	-0.017741125
75	0xbd8df22a	-0.06930955
76	0xbd93ef10	-0.07223332
77	0x3d6d418c	0.05792384
78	0x3d92a5de	0.07160543
79	0x3ee02890	0.43780947
80	0x3d8d9d32	0.06914748
81	0x3d247efe	0.04016017
82	0xbb966681	-0.004589856
83	0x3d2edb0e	0.042689376
84	0xbcf690f8	-0.030098423
85	0xbb9988ec	-0.004685512
86	0x3da9c038	0.08288616
87	0xbc2c568d	-0.010518682
88	0xbc928b46	-0.017888676
89	0xbd3947cb	-0.045234483
90	0xbd43a347	-0.047763135
91	0x3da84a96	0.08217351
92	0xbd980361	-0.074225195
93	0xbd8f66b4	-0.07002011
94	0x3d50182c	0.050804302
95	0xbd8d18c5	-0.0688949
96	0x3d5700d5	0.052491028
97	0x3ba07a52	0.004897394
98	0x3ba6bd72	0.0050885016
99	0x3bbbeb45	0.0057348334
100	0x3cd35c6b	0.025800904
101	0x3cfa5006	0.030555736
102	0x3dabddb8	0.08391899
103	0x3d7d2ccb	0.061810296
104	0x3d1396c3	0.03603245
105	0xbd9f7933	-0.07786789
106	0x3cc75d5c	0.02433651
107	0x3c1d40b4	0.009597946
108	0xbd47cf16	-0.048781477
109	0xbc9a2360	-0.018815696
110	0x3b9d0004	0.0047912616
111	0xbdaa8f3b	-0.083281
112	0x3dccb022	0.09994532
113	0x3d6271b2	0.05528421
114	0x3da8f28a	0.08249386
115	0xbd837442	-0.06418659
116	0x3d9c6d54	0.0763804
117	0x3d46113a	0.048356272
118	0x3cc4133e	0.023934957
119	0xbd84a3fb	-0.06476589
120	0xbfb5277b	-1.4152673
121	0x3c5997e3	0.0132808415
122	0x3d8cad3d	0.0686898
123	0xbd59eaac	-0.053202316
124	0xbd6b6af0	-0.05747503
125	0x3d0310c5	0.031998415
126	0xbd84e0cf	-0.06488191
127	0xbd87b822	-0.066269174
128	0xbcd395be	-0.025828239
129	0x3b39ae6e	0.0028332728
130	0xba2674e5	-0.0006349816
131	0x3dab8763	0.08375432
132	0x3b977968	0.004622627
133	0xbd1cb4f7	-0.03825852
134	0xbd913fad	-0.07092223
135	0xbd8a0738	-0.06739658
136	0x3d5e3fdc	0.05426012
137	0x3cc6ebd3	0.024282372
138	0xbb8798f5	-0.004138107
139	0xbd926950	-0.07148993
140	0x3cfe4f00	0.03104353
141	0x3d66dad3	0.05636103
142	0x3d0c94a4	0.034321442
143	0x3d1c43f0	0.038150728
144	0x3d936770	0.071974635
145	0xbd96d7d4	-0.07365385
146	0xbdabbc07	-0.08385473
147	0xbcff22e5	-0.031144569
148	0xbcb5665f	-0.02214354
149	0xbc858ffa	-0.016304005
150	0x3d9b2600	0.07575607
151	0xbb2ae7ac	-0.0026078029
152	0xbd728593	-0.059209418
153	0x3d46970d	0.048483897
154	0x3c715de9	0.014731863
155	0xbcd8590c	-0.026409648
156	0x3c8aeef3	0.016959643
157	0xbd940f40	-0.07229471
158	0x3c7ad560	0.015309662
159	0xbd571d32	-0.052518077
160	0xbc4378b2	-0.0119306315
161	0xbd8e7920	-0.069566965
162	0xbc98cf1e	-0.018653449
163	0x3d6b57c6	0.057456754
164	0x3c8a2659	0.016863989
165	0xbc00e4bf	-0.007867037
166	0x3cb8b9aa	0.022549469
167	0x3c59bd51	0.013289765
168	0x3d95c565	0.07313041
169	0xbd905fc6	-0.07049517
170	0xbd7c25c2	-0.061559446
171	0x3d9ade3a	0.075619176
172	0xbe329f38	-0.1744355
173	0xbd978708	-0.07398802
174	0x3d750de1	0.05982769
175	0x3e49e4a7	0.1971613
176	0x3d813ea3	0.06310775
177	0xbcf9869b	-0.030459693
178	0x3b531b70	0.00322124
179	0xbd951544	-0.07279447
180	0xbd065de1	-0.032804374
181	0xbd10393e	-0.03521084
182	0x3d15613f	0.036469694
183	0x3fa17d2e	1.2616327
184	0xbd5ed1da	-0.05439935
185	0xbce21804	-0.027599342
186	0xbd13130d	-0.03590684
187	0x3c14b6fb	0.009076829
188	0x3d783343	0.060595762
189	0xbd241118	-0.040055364
190	0x3c782cd3	0.015147406
191	0xbc371325	-0.011173998
192	0xbc71521e	-0.014729051
193	0xbd68ff0c	-0.056883857
194	0xbd88f6be	-0.06687687
195	0xbe476aa5	-0.19474275
196	0xbc48a734	-0.012246896
197	0x3d857d9d	0.065180995
198	0x3da0c8fb	0.07850834
199	0xbdabb642	-0.08384372
200	0x3bdad4da	0.006678206
201	0x3d831ed2	0.06402363
202	0xbd832746	-0.06403975
203	0x3ce84aed	0.02835604
204	0xbc9e7b47	-0.019345893
205	0x3d67489a	0.056465723
206	0xbcef0296	-0.029176038
207	0xbd952733	-0.07282867
208	0xbd21a3d6	-0.039462887
209	0xbc0d4fd4	-0.00862499
210	0x3d933590	0.071879506
211	0xbda476e2	-0.080304876
212	0xbfb364b2	-1.4015105
213	0x3da3e9c0	0.08003569
214	0xbd92ea26	-0.071735665
215	0x3dab0f1e	0.08352493
216	0xbd582926	-0.052773617
217	0x3d06fe07	0.032957103
218	0x3e84f91c	0.25971305
219	0x3d7616d2	0.060080357
220	0x3d2ef828	0.04271713
221	0x3d371afa	0.04470346
222	0xbd3419e9	-0.043970022
223	0x3d1c5463	0.038166415
224	0x3cceb4c7	0.025232686
225	0xbd0f154b	-0.034932416
226	0x3d9b2949	0.07576234
227	0xbc583d65	-0.013198231
228	0x3a4e6a46	0.00078741123
229	0xbd1442f6	-0.03619667
230	0x3bf9c581	0.0076224213
231	0xbdab903a	-0.083771184
232	0xbd068602	-0.032842644
233	0x3d06f267	0.032946017
234	0xbd9a53c4	-0.07535508
235	0xbd48a6f0	-0.04898733
236	0x3def3c6f	0.11681449
237	0xbd260903	-0.040535938
238	0x3c053286	0.0081297215
239	0xbcec5498	-0.028848931
240	0xbcc996fc	-0.024608128
241	0x3bffe986	0.0078098206
242	0x3d002a01	0.031290058
243	0x3d01e47f	0.03171205
244	0xbc15846f	-0.009125813
245	0xbd42afa6	-0.047530793
246	0x3d9bef11	0.07613958
247	0x3d9afc5a	0.075676635
248	0xbd15a6cc	-0.036536023
249	0x3d6a0cbc	0.05714105
250	0x3d303e51	0.04302818
251	0xbd46ee7b	-0.048567276
252	0x3cd04cb3	0.025427198
253	0xbce0ab0d	-0.027425313
254	0x3d177dc1	0.036985163
255	0x3cec8e86	0.028876554

module_list.1.fc.bias f4 [32]
0	0xbc7063e9	-0.014672258
1	0x3f501b87	0.81292003
2	0xbe1df8e2	-0.15426973
3	0x3cbe864f	0.023257403
4	0xbe47c56e	-0.19508907
5	0xbe2dd7ea	-0.16976896
6	0x3dfd0541	0.12354518
7	0x3db2177c	0.086958855
8	0x3e4f1b12	0.2022517
9	0x3dedef29	0.11617882
10	0x3ca13fe9	0.019683795
11	0xbe142e25	-0.14470728
12	0xbd06fc59	-0.0329555
13	0x3d86e938	0.06587452
14	0xbc29a9a0	-0.010355383
15	0x3da240a7	0.07922488
16	0xbdf35cf0	-0.11882961
17	0x3e019107	0.1265298
18	0xbe21333d	-0.15742202
19	0x3ec3e136	0.3825776
20	0x3e5cc71c	0.21560329
21	0x3ea202fa	0.31642896
22	0xbe022771	-0.12710358
23	0xbe171c4d	-0.1475689
24	0xbe4d606e	-0.20056316
25	0xbe190419	-0.1494297
26	0x3d9e656e	0.0773419
27	0xbe3dbec0	-0.18529797
28	0xbc64cfb9	-0.013965541
29	0x3d040885	0.032234687
30	0x3bf822eb	0.007572522
31	0x3dc967ba	0.098342374

module_list.1.fc.mask.mask f4 [32, 64]
0	0x00000000	0.0
1	0x00000000	0.0
2	0x00000000	0.0
3	0x00000000	0.0
4	0x00000000	0.0
5	0x00000000	0.0
6	0x00000000	0.0
7	0x00000000	0.0
8	0x00000000	0.0
9	0x00000000	0.0
10	0x00000000	0.0
11	0x00000000	0.0
12	0x00000000	0.0
13	0x00000000	0.0
14	0x3f800000	1.0
15	0x00000000	0.0
16	0x00000000	0.0
17	0x00000000	0.0
18	0x00000000	0.0
19	0x3f800000	1.0
20	0x00000000	0.0
21	0x00000000	0.0
22	0x00000000	0.0
23	0x00000000	0.0
24	0x00000000	0.0
25	0x00000000	0.0
26	0x00000000	0.0
27	0x00000000	0.0
28	0x00000000	0.0
29	0x00000000	0.0
30	0x3f800000	1.0
31	0x00000000	0.0
32	0x00000000	0.0
33	0x00000000	0.0
34	0x00000000	0.0
35	0x00000000	0.0
36	0x00000000	0.0
37	0x00000000	0.0
38	0x00000000	0.0
39	0x00000000	0.0
40	0x00000000	0.0
41	0x00000000	0.0
42	0x00000000	0.0
43	0x00000000	0.0
44	0x00000000	0.0
45	0x00000000	0.0
46	0x00000000	0.0
47	0x00000000	0.0
48	0x00000000	0.0
49	0x00000000	0.0
50	0x00000000	0.0
51	0x00000000	0.0
52	0x00000000	0.0
53	0x00000000	0.0
54	0x3f800000	1.0
55	0x00000000	0.0
56	0x00000000	0.0
57	0x00000000	0.0
58	0x00000000	0.0
59	0x00000000	0.0
60	0x00000000	0.0
61	0x00000000	0.0
62	0x00000000	0.0
63	0x00000000	0.0
64	0x00000000	0.0
65	0x00000000	0.0
66	0x00000000	0.0
67	0x00000000	0.0
68	0x00000000	0.0
69	0x00000000	0.0
70	0x00000000	0.0
71	0x00000000	0.0
72	0x00000000	0.0
73	0x00000000	0.0
74	0x00000000	0.0
75	0x00000000	0.0
76	0x00000000	0.0
77	0x00000000	0.0
78	0x00000000	0.0
79	0x3f800000	1.0
80	0x00000000	0.0
81	0x00000000	0.0
82	0x3f800000	1.0
83	0x00000000	0.0
84	0x00000000	0.0
85	0x00000000	0.0
86	0x00000000	0.0
87	0x00000000	0.0
88	0x00000000	0.0
89	0x00000000	0.0
90	0x00000000	0.0
91	0x00000000	0.0
92	0x00000000	0.0
93	0x00000000	0.0
94	0x00000000	0.0
95	0x00000000	0.0
96	0x00000000	0.0
97	0x00000000	0.0
98	0x00000000	0.0
99	0x00000000	0.0
100	0x00000000	0.0
101	0x00000000	0.0
102	0x00000000	0.0
103	0x00000000	0.0
104	0x00000000	0.0
105	0x00000000	0.0
106	0x00000000	0.0
107	0x00000000	0.0
108	0x00000000	0.0
109	0x00000000	0.0
110	0x00000000	0.0
111	0x00000000	0.0
112	0x3f800000	1.0
113	0x00000000	0.0
114	0x00000000	0.0
115	0x00000000	0.0
116	0x00000000	0.0
117	0x00000000	0.0
118	0x00000000	0.0
119	0x00000000	0.0
120	0x3f800000	1.0
121	0x00000000	0.0
122	0x00000000	0.0
123	0x00000000	0.0
124	0x00000000	0.0
125	0x00000000	0.0
126	0x00000000	0.0
127	0x00000000	0.0
128	0x00000000	0.0
129	0x00000000	0.0
130	0x00000000	0.0
131	0x00000000	0.0
132	0x00000000	0.0
133	0x00000000	0.0
134	0x00000000	0.0
135	0x00000000	0.0
136	0x00000000	0.0
137	0x00000000	0.0
138	0x00000000	0.0
139	0x00000000	0.0
140	0x00000000	0.0
141	0x00000000	0.0
142	0x00000000	0.0
143	0x00000000	0.0
144	0x00000000	0.0
145	0x00000000	0.0
146	0x00000000	0.0
147	0x00000000	0.0
148	0x00000000	0.0
149	0x00000000	0.0
150	0x00000000	0.0
151	0x00000000	0.0
152	0x00000000	0.0
153	0x00000000	0.0
154	0x00000000	0.0
155	0x00000000	0.0
156	0x00000000	0.0
157	0x00000000	0.0
158	0x00000000	0.0
159	0x00000000	0.0
160	0x00000000	0.0
161	0x00000000	0.0
162	0x3f800000	1.0
163	0x00000000	0.0
164	0x00000000	0.0
165	0x00000000	0.0
166	0x00000000	0.0
167	0x00000000	0.0
168	0x00000000	0.0
169	0x00000000	0.0
170	0x00000000	0.0
171	0x00000000	0.0
172	0x3f800000	1.0
173	0x00000000	0.0
174	0x00000000	0.0
175	0x3f800000	1.0
176	0x00000000	0.0
177	0x00000000	0.0
178	0x00000000	0.0
179	0x00000000	0.0
180	0x00000000	0.0
181	0x00000000	0.0
182	0x00000000	0.0
183	0x3f800000	1.0
184	0x00000000	0.0
185	0x00000000	0.0
186	0x00000000	0.0
187	0x00000000	0.0
188	0x00000000	0.0
189	0x00000000	0.0
190	0x00000000	0.0
191	0x00000000	0.0
192	0x00000000	0.0
193	0x00000000	0.0
194	0x00000000	0.0
195	0x3f800000	1.0
196	0x00000000	0.0
197	0x00000000	0.0
198	0x00000000	0.0
199	0x00000000	0.0
200	0x00000000	0.0
201	0x00000000	0.0
202	0x00000000	0.0
203	0x00000000	0.0
204	0x00000000	0.0
205	0x00000000	0.0
206	0x00000000	0.0
207	0x00000000	0.0
208	0x00000000	0.0
209	0x00000000	0.0
210	0x00000000	0.0
211	0x00000000	0.0
212	0x3f800000	1.0
213	0x00000000	0.0
214	0x00000000	0.0
215	0x00000000	0.0
216	0x00000000	0.0
217	0x00000000	0.0
218	0x3f800000	1.0
219	0x00000000	0.0
220	0x00000000	0.0
221	0x00000000	0.0
222	0x00000000	0.0
223	0x00000000	0.0
224	0x00000000	0.0
225	0x00000000	0.0
226	0x00000000	0.0
227	0x00000000	0.0
228	0x00000000	0.0
229	0x00000000	0.0
230	0x00000000	0.0
231	0x00000000	0.0
232	0x00000000	0.0
233	0x00000000	0.0
234	0x00000000	0.0
235	0x00000000	0.0
236	0x3f800000	1.0
237	0x00000000	0.0
238	0x00000000	0.0
239	0x00000000	0.0
240	0x00000000	0.0
241	0x00000000	0.0
242	0x00000000	0.0
243	0x00000000	0.0
244	0x00000000	0.0
245	0x00000000	0.0
246	0x00000000	0.0
247	0x00000000	0.0
248	0x00000000	0.0
249	0x00000000	0.0
250	0x00000000	0.0
251	0x00000000	0.0
252	0x00000000	0.0
253	0x00000000	0.0
254	0x00000000	0.0
255	0x00000000	0.0

module_list.1.output_quant.pre_transforms.0.weight f4 [32]
0	0x3e99bb8a	0.30025893
1	0x406bb465	3.6828854
2	0x3fb92e76	1.4467304
3	0x3ed1fef2	0.4101482
4	0x3ec29bfa	0.38009626
5	0x3ecd95e6	0.40153426
6	0x3e6b3e86	0.2297307
7	0x3e92869c	0.28618324
8	0x3e8c0ca2	0.27353388
9	0x3e2863f0	0.16444373
10	0x3eac4c66	0.33652037
11	0x3e5cc4a5	0.21559389
12	0x3f346eb8	0.70481443
13	0x3f0a1ca8	0.53949976
14	0x3f2dd69e	0.67905605
15	0x3f375cd6	0.7162603
16	0x3f1d5d9a	0.6147095
17	0x3e90be3b	0.28270134
18	0x3eb08bf9	0.3448179
19	0x3e834367	0.2563736
20	0x3f050d3d	0.51973325
21	0x3f195f0c	0.59910655
22	0x3ea1c01f	0.3159189
23	0x3ec7aa00	0.38996887
24	0x3f0a1776	0.5394205
25	0x3f052450	0.52008533
26	0x3ed81f20	0.42211246
27	0x3eaf0317	0.34182045
28	0x3f1e9253	0.61942023
29	0x3ec76b09	0.3894885
30	0x3e86e86b	0.26349196
31	0x3ea15692	0.3151136

module_list.1.output_quant.pre_transforms.0.bias f4 [32]
0	0x3f2d7cf7	0.67768806
1	0xbf67b980	-0.90517426
2	0xbfd9f062	-1.7026484
3	0x3edecbee	0.4351496
4	0x3f1c39c7	0.6102566
5	0x3e564ef9	0.20928563
6	0x3ea9763c	0.33098018
7	0x3eb24654	0.3481928
8	0x3f06fe7d	0.5273207
9	0x3daa8332	0.08325805
10	0x3ed9991d	0.4249963
11	0x3e9e057d	0.30863562
12	0xbef9d62e	-0.4879622
13	0x3e9505b5	0.29105917
14	0x00000000	0.0
15	0x3e6311b9	0.2217473
16	0x3f353736	0.7078737
17	0x3f494f78	0.78636885
18	0xbd36aba9	-0.0445973
19	0x3e7b0e56	0.24517187
20	0x3ea98ea3	0.33116636
21	0xbd91a6e2	-0.071119085
22	0x3db1f123	0.08688571
23	0x3e2a6e4a	0.16643634
24	0x3e5221bb	0.2052068
25	0x3ec1c235	0.3784348
26	0x3ec3a301	0.382103
27	0x3f1fba9d	0.62394124
28	0xbe5cfd8b	-0.21581094
29	0x3f249524	0.6429007
30	0x3f1709ad	0.5899914
31	0x3e9ca58b	0.3059505

module_list.1.output_quant.pre_transforms.0.running_mean f4 [32]
0	0xbd8cfc24	-0.068840295
1	0x3f4f7375	0.8103555
2	0x3e4b96b9	0.19881715
3	0xbeaa1af6	-0.33223695
4	0xbec1eb63	-0.37874898
5	0xbf163053	-0.58667487
6	0x3dabf23d	0.08395813
7	0x3e0ee1e3	0.13953356
8	0x3ebf5d45	0.37375847
9	0x3c46fdf1	0.012145505
10	0xbe78bb03	-0.2429009
11	0x3ebc91dc	0.36830032
12	0xbe3a4440	-0.18190098
13	0x3ecb2857	0.39679214
14	0xbc962544	-0.018328317
15	0x3ef978e5	0.48725048
16	0xbdfeab89	-0.124350615
17	0xbea749ae	-0.326734
18	0x3ebc8e0e	0.3682713
19	0x3d80990b	0.06279191
20	0x3f0b4a7d	0.54410535
21	0xbe291ba9	-0.16514458
22	0xbe7ae379	-0.24500836
23	0x3e403e7c	0.18773836
24	0xbba425db	-0.0050093955
25	0xbf2612a8	-0.6487222
26	0x3da2362b	0.07920488
27	0xbeb672c5	-0.35634437
28	0x3ee5e35d	0.44900027
29	0xbea92d1c	-0.33042228
30	0x3d99fc08	0.07518774
31	0x3b5122a0	0.0031911507

module_list.1.output_quant.pre_transforms.0.running_var f4 [32]
0	0x3def37a0	0.116805315
1	0x3d7c3c3e	0.06158089
2	0x3e8f6400	0.2800598
3	0x3eb9048f	0.3613629
4	0x3d26bf03	0.040709507
5	0x3dc2ddbc	0.09514949
6	0x3ca7ba3a	0.020474542
7	0x3d156894	0.036476687
8	0x3d8a292b	0.067461334
9	0x3c320251	0.01086481
10	0x3d64174e	0.055686288
11	0x3cdabee4	0.026702352
12	0x3d2e49bb	0.042550784
13	0x3dcd072d	0.10011134
14	0x3849b025	4.808618e-05
15	0x3d938f8f	0.07205116
16	0x3e9add82	0.30247122
17	0x3c37caa4	0.011217747
18	0x3cd2407b	0.025665512
19	0x3c81e6ec	0.015857182
20	0x3d5bc90e	0.053658538
21	0x3dfc4a0d	0.123188116
22	0x3d80ca65	0.06288604
23	0x3d54dc22	0.051967748
24	0x3db48563	0.08814504
25	0x3e29659d	0.16542669
26	0x3d41dbd6	0.047328793
27	0x3d8975f6	0.067119524
28	0x3de1f961	0.110338934
29	0x3d2eb023	0.042648446
30	0x3c930753	0.017947828
31	0x3cef9079	0.029243695

module_list.2.input_quant.pre_transforms.0.weight f4 [32]
0	0x3e99bb8a	0.30025893
1	0x406bb465	3.6828854
2	0x3fb92e76	1.4467304
3	0x3ed1fef2	0.4101482
4	0x3ec29bfa	0.38009626
5	0x3ecd95e6	0.40153426
6	0x3e6b3e86	0.2297307
7	0x3e92869c	0.28618324
8	0x3e8c0ca2	0.27353388
9	0x3e2863f0	0.16444373
10	0x3eac4c66	0.33652037
11	0x3e5cc4a5	0.21559389
12	0x3f346eb8	0.70481443
13	0x3f0a1ca8	0.53949976
14	0x3f2dd69e	0.67905605
15	0x3f375cd6	0.7162603
16	0x3f1d5d9a	0.6147095
17	0x3e90be3b	0.28270134
18	0x3eb08bf9	0.3448179
19	0x3e834367	0.2563736
20	0x3f050d3d	0.51973325
21	0x3f195f0c	0.59910655
22	0x3ea1c01f	0.3159189
23	0x3ec7aa00	0.38996887
24	0x3f0a1776	0.5394205
25	0x3f052450	0.52008533
26	0x3ed81f20	0.42211246
27	0x3eaf0317	0.34182045
28	0x3f1e9253	0.61942023
29	0x3ec76b09	0.3894885
30	0x3e86e86b	0.26349196
31	0x3ea15692	0.3151136

module_list.2.input_quant.pre_transforms.0.bias f4 [32]
0	0x3f2d7cf7	0.67768806
1	0xbf67b980	-0.90517426
2	0xbfd9f062	-1.7026484
3	0x3edecbee	0.4351496
4	0x3f1c39c7	0.6102566
5	0x3e564ef9	0.20928563
6	0x3ea9763c	0.33098018
7	0x3eb24654	0.3481928
8	0x3f06fe7d	0.5273207
9	0x3daa8332	0.08325805
10	0x3ed9991d	0.4249963
11	0x3e9e057d	0.30863562
12	0xbef9d62e	-0.4879622
13	0x3e9505b5	0.29105917
14	0x00000000	0.0
15	0x3e6311b9	0.2217473
16	0x3f353736	0.7078737
17	0x3f494f78	0.78636885
18	0xbd36aba9	-0.0445973
19	0x3e7b0e56	0.24517187
20	0x3ea98ea3	0.33116636
21	0xbd91a6e2	-0.071119085
22	0x3db1f123	0.08688571
23	0x3e2a6e4a	0.16643634
24	0x3e5221bb	0.2052068
25	0x3ec1c235	0.3784348
26	0x3ec3a301	0.382103
27	0x3f1fba9d	0.62394124
28	0xbe5cfd8b	-0.21581094
29	0x3f249524	0.6429007
30	0x3f1709ad	0.5899914
31	0x3e9ca58b	0.3059505

module_list.2.input_quant.pre_transforms.0.running_mean f4 [32]
0	0xbd8cfc24	-0.068840295
1	0x3f4f7375	0.8103555
2	0x3e4b96b9	0.19881715
3	0xbeaa1af6	-0.33223695
4	0xbec1eb63	-0.37874898
5	0xbf163053	-0.58667487
6	0x3dabf23d	0.08395813
7	0x3e0ee1e3	0.13953356
8	0x3ebf5d45	0.37375847
9	0x3c46fdf1	0.012145505
10	0xbe78bb03	-0.2429009
11	0x3ebc91dc	0.36830032
12	0xbe3a4440	-0.18190098
13	0x3ecb2857	0.39679214
14	0xbc962544	-0.018328317
15	0x3ef978e5	0.48725048
16	0xbdfeab89	-0.124350615
17	0xbea749ae	-0.326734
18	0x3ebc8e0e	0.3682713
19	0x3d80990b	0.06279191
20	0x3f0b4a7d	0.54410535
21	0xbe291ba9	-0.16514458
22	0xbe7ae379	-0.24500836
23	0x3e403e7c	0.18773836
24	0xbba425db	-0.0050093955
25	0xbf2612a8	-0.6487222
26	0x3da2362b	0.07920488
27	0xbeb672c5	-0.35634437
28	0x3ee5e35d	0.44900027
29	0xbea92d1c	-0.33042228
30	0x3d99fc08	0.07518774
31	0x3b5122a0	0.0031911507

module_list.2.input_quant.pre_transforms.0.running_var f4 [32]
0	0x3def37a0	0.116805315
1	0x3d7c3c3e	0.06158089
2	0x3e8f6400	0.2800598
3	0x3eb9048f	0.3613629
4	0x3d26bf03	0.040709507
5	0x3dc2ddbc	0.09514949
6	0x3ca7ba3a	0.020474542
7	0x3d156894	0.036476687
8	0x3d8a292b	0.067461334
9	0x3c320251	0.01086481
10	0x3d64174e	0.055686288
11	0x3cdabee4	0.026702352
12	0x3d2e49bb	0.042550784
13	0x3dcd072d	0.10011134
14	0x3849b025	4.808618e-05
15	0x3d938f8f	0.07205116
16	0x3e9add82	0.30247122
17	0x3c37caa4	0.011217747
18	0x3cd2407b	0.025665512
19	0x3c81e6ec	0.015857182
20	0x3d5bc90e	0.053658538
21	0x3dfc4a0d	0.123188116
22	0x3d80ca65	0.06288604
23	0x3d54dc22	0.051967748
24	0x3db48563	0.08814504
25	0x3e29659d	0.16542669
26	0x3d41dbd6	0.047328793
27	0x3d8975f6	0.067119524
28	0x3de1f961	0.110338934
29	0x3d2eb023	0.042648446
30	0x3c930753	0.017947828
31	0x3cef9079	0.029243695
