examples/jet_substructure/jsc_s/checkpoint.pth (torch, 167515 bytes, 99 tensors)

module_list.0.input_quant.pre_transforms.0.weight f4 [16]
00000000: 613f e73e fb9a 603f 7805 313f 578b 9d3f
00000010: 8f35 4f3f 709b d03e 7ffc cb3e 435a c43e
00000020: 67f9 1d3f 8efb 263f b299 cf3e 8be2 203f
00000030: 4a76 b93e f043 213f 0608 4240 8a65 cc3e
0.45165542 0.8773648 0.6914897 1.2308148 0.809411 0.4074359 0.39841077 0.38350114
0.6170868 0.6522759 0.40546948 0.6284568 0.3622306 0.6299429 3.0317397 0.39921218

module_list.0.input_quant.pre_transforms.0.bias f4 [16]
00000000: 7352 0bbe 0047 d5be 45aa 5a3e 5810 20be
00000010: d2de 2e3e d298 11bf 008d bbbd 7651 8a3e
00000020: df23 fc3c 74ba 12bf 66cf 2ebe a603 363f
00000030: f693 9b3e af6c 903e 432c 61be 8aca ad3d
-0.1360567 -0.4165573 0.21354015 -0.15631235 0.17077187 -0.5687381 -0.09157753 0.27015275
0.030778823 -0.57315755 -0.17071304 0.7109932 0.30386323 0.2820792 -0.21989541 0.08485897

module_list.0.input_quant.pre_transforms.0.running_mean f4 [16]
00000000: f890 65bc be53 253c 1f6b 813c 831a 6e3c
00000010: fbfb 2f3c bd1e a93b 006f 96bb 99e7 b6bb
00000020: 006f 96bb 9db7 1d3a 79cc 7e3b 4ba1 a23b
00000030: 14fa d13a ad19 013b d497 6d3c 7dce 6a3c
-0.014011614 0.0100907665 0.01579815 0.014532688 0.010741229 0.005161135 -0.004590869 -0.005581808
-0.004590869 0.0006016435 0.00388792 0.0049630753 0.0016019964 0.0019699142 0.014501531 0.014331457

module_list.0.input_quant.pre_transforms.0.running_var f4 [16]
00000000: b810 7f3f 6b3f 7c3f 6897 813f 7495 823f
00000010: 960e 803f f002 803f fb35 7f3f 28b5 7e3f
00000020: fb35 7f3f 7851 7e3f 2240 7e3f edca 7f3f
00000030: b8dc 7d3f 6596 7f3f 2d2a 813f 08af 813f
0.99634886 0.9853427 1.012433 1.020186 1.0004451 1.0000896 0.9969174 0.9949517
0.9969174 0.9934306 0.9931661 0.99919015 0.99164915 0.9983886 1.0090996 1.013154

module_list.0.fc.weight f4 [64, 16]
00000000: 2370 cfbd 6d56 7c3e b76d 21be edd7 64be
00000010: 4bc7 693e b477 9abc 0991 1dbd 276e f1bd
00000020: e9ef e3bd d7e8 23be a5b1 e4bb cb05 cdbd
00000030: 47c2 7c3e e77d f0bc 8fd7 6f3d f814 18be
00000040: 7614 2b3c 7ea5 cfbc a571 623a 08b8 09be
00000050: a1b6 83bd 34aa fd3d 09d5 163e 2f2b 37bd
00000060: 674a 343e 5bb5 633e e438 49be b6a3 28bb
00000070: 3dae a7bd 40ac 493e 3f56 06be 20fc a73d
00000080: 0118 5abe 68a0 7abe 4347 473e 7bf0 79be
00000090: 3db4 5d3d d0bc 983d 61b0 bd3b 5590 bdbd
000000a0: cb7f 00be 49a9 43be a060 1cbe 17fe 73bd
000000b0: 1d50 813e b122 c7bd 1b3b 133c 70cc 99bd
000000c0: 21a5 c23c 1305 713e 8eb7 a53b ae1c 2abe
000000d0: ef11 5bbe 67b1 eabd ab5d 5d3e c12c e6bd
000000e0: 18e1 9cbe 40a4 03bd 27de 6f3c 65c7 713e
000000f0: e9c5 443d b185 c73c 2989 51be 7d67 a1bd
00000100: f63c ffbc a1d6 c5bb 1ba4 903d b4d3 e73d
00000110: 696c f83b c931 f93c 1b7e 523d 518c 653e
00000120: 387b babc 7bcc 4b3e 73e3 6ebe 595e bd3d
00000130: 543f 0d3e eb1e 4abe ad0a 953d e56a e23d
00000140: c408 ffbd 110f dbbd e51b db3d 69ba e13d
00000150: fe3a 42be 78c0 30be 21a6 c1bc b9e8 3f3e
00000160: f32a 273e e50f 9d3d 025c 89bd a635 abbc
00000170: a3b3 7bbe 7b78 153c 8bb6 443e b34e 6b3e
00000180: 2ea7 2b3d 47c1 b33d 975a f13c c9b9 a23d
00000190: a3b5 4d3d fb97 153e 410e 2c3e 4405 7ebb
000001a0: 1f94 77be 79f1 66be 79e2 0c3c 074f 16be
000001b0: 8962 c7bd ab09 05be ddbf 84be 9f13 5e3e
000001c0: aff3 90bd 618e c53c 1786 15be 4da6 a0be
000001d0: 76b6 e33c ddf8 4bbe 5e3c b9bd 9257 0bbd
000001e0: 47df f03d 85cc 5f3d 7bc0 523e 5b18 5d3e
000001f0: d7d8 113e c96e 9f3d 1d62 fdbd 0fcf 363e
00000200: 7b98 d43d 5772 70be 9c81 3a3e 85c2 4fbe
00000210: 56d1 533d 9d3b 533e 81f0 d73d c9f6 5fbe
00000220: c9fc 803d 6803 383d c9b5 7d3d ffe2 35bc
00000230: 8431 13be dae6 e7bd 48b6 39bd fc2a 5a3e
00000240: e564 743e 755a 80bd a930 a5bd af15 753d
00000250: 7bb8 5dbe 716f 023e c16e fdbd 2762 30be
00000260: c572 62be 9d31 513e 21a8 723e 5f82 e83d
00000270: d1e6 7bbd d78d 543e f522 25bd 523e c8bd
00000280: b50f 87bd 12fb 673e 1344 47be 6d73 75be
00000290: a8bd 3f3e 7b51 4a3e c3d4 55be c5dc 23be
000002a0: d92a 5bbc 9dee a63d 2607 2c3e 477b febd
000002b0: 9e73 e5bd 839a 513d 6b42 3b3e 1f21 2ebc
000002c0: ffb6 2fbd 542c 06be f766 6f3e 8f41 30be
000002d0: 7803 5ebe b11e 623e df83 d93c 0b57 03be
000002e0: 213a 74be 1390 17bd c7c3 713c 4fe0 b6bc
000002f0: 1718 f23c 0105 f83d 0b0f 7d3e df10 353d
00000300: 77d0 d2bd e1ba 83bd b9b7 87be ba38 c9bc
00000310: 1b61 303e 7818 0c3e 672b 41be 4b83 083e
00000320: db58 15bd 9f6b 75bd 15c4 373e 3383 b53d
00000330: 83aa fdbc df06 6fbe 82e8 38be c79b 533e
00000340: f9ea 02be 59f9 fb3d 0793 b1bd 55a7 413e
00000350: 937c 363e 54ec 383e 6988 1a3d d5ac de3d
00000360: 1717 163e 910b dfbd c3d0 8fbd b109 1e3e
00000370: 916d 703e 2bed fcbd 9bb5 903d 858f 1e3e
00000380: 2590 463e 57b6 353d 9de1 5b3e 2538 60be
00000390: a7f8 70be 6c3d ff3d fbdb f4bd ca6f 963b
000003a0: 2d40 5e3d 92f5 8c3c f3cd 13be d765 efbc
000003b0: fa7f c93c f327 4d3d c1ae c2bd c716 153e
000003c0: 0428 98bd 9147 553c 0181 bc3c 9d9e 5f3e
000003d0: 33b2 d03c 86fa 47be bd09 a53c 4324 203e
000003e0: 0b19 033e 9f88 303e c47d 18bd 5bfd 533d
000003f0: d9a5 003b c49f ca3d d903 a4bd e8fd b43e
-0.1012881 0.24642344 -0.15764509 -0.22347994 0.2282993 -0.018855907 -0.038468394 -0.11788588
-0.111297436 -0.1600679 -0.0069791847 -0.100108705 0.24683486 -0.02935691 0.058555182 -0.14851749
0.01044189 -0.025347468 0.000863815 -0.13449109 -0.06431318 0.12385979 0.14729704 -0.044718917
0.17606507 0.2223715 -0.19650608 -0.0025732345 -0.0818753 0.19694614 -0.13118838 0.08202386
-0.2129822 -0.24475253 0.19460778 -0.24408142 0.054126967 0.07457888 0.0057888483 -0.09256045
-0.12548749 -0.19107546 -0.15271235 -0.05956849 0.25256434 -0.09723414 0.00898626 -0.075096965
0.02376038 0.23537092 0.005057282 -0.16612503 -0.2139356 -0.11459618 0.21617763 -0.11239005
-0.30640483 -0.032139063 0.014640368 0.23611219 0.048040304 0.024355741 -0.20462479 -0.07881067
-0.031156998 -0.0060375487 0.07062551 0.11319676 0.007581283 0.030419247 0.051389795 0.22416808
-0.022763833 0.19902222 -0.23328952 0.09246511 0.13793689 -0.19738357 0.07277427 0.11055545
-0.12452844 -0.10696233 0.1069868 0.11021883 -0.18967816 -0.17260921 -0.023638787 0.1874112
0.16324978 0.07669047 -0.06707002 -0.020899605 -0.24580245 0.009122963 0.1921026 0.2297924
0.04190748 0.08777099 0.029462142 0.07945592 0.05022205 0.14608757 0.16802312 -0.0038760463
-0.24177597 -0.22553052 0.008598917 -0.14678584 -0.09735591 -0.1299197 -0.2592763 0.21687172
-0.07077729 0.024115743 -0.14601932 -0.31376877 0.027796965 -0.19919153 -0.09044717 -0.03401906
0.11761337 0.054638404 0.20581238 0.21591322 0.14242874 0.077848025 -0.12372229 0.17852424
0.10380646 -0.23481117 0.18213505 -0.20289047 0.05171331 0.2062821 0.10543919 -0.21871485
0.06298215 0.044925123 0.061940942 -0.011101483 -0.14374357 -0.11323328 -0.045339853 0.2130546
0.23866613 -0.06267253 -0.08065922 0.059835132 -0.21652405 0.12737824 -0.1237464 -0.17224942
-0.22114094 0.20429082 0.23696949 0.11352991 -0.06149942 0.20757233 -0.04031654 -0.09777512
-0.06594793 0.2265437 -0.19459562 -0.23969813 0.18724692 0.19757645 -0.20881943 -0.16002186
-0.013376915 0.081509806 0.16799602 -0.12425857 -0.11203693 0.051172744 0.18287055 -0.010628014
-0.042899128 -0.13102847 0.23379122 -0.17212509 -0.2168101 0.2208202 0.026552139 -0.12826173
-0.238503 -0.037002634 0.01475615 -0.022323756 0.029552503 0.121103294 0.2471277 0.044205543
-0.10293668 -0.06432129 -0.26507357 -0.024563182 0.17224543 0.13681209 -0.18864213 0.13331334
-0.036461692 -0.05991709 0.17945893 0.08862915 -0.030965095 -0.23342465 -0.18057445 0.20664893
-0.12784947 0.12303419 -0.08670621 0.18911488 0.17820959 0.18058902 0.037727747 0.10872809
0.14657246 -0.10890878 -0.0702224 0.15433384 0.23479296 -0.12349924 0.070658885 0.15484436
0.19390924 0.044363346 0.21472783 -0.21896417 -0.23532353 0.12462887 -0.119560204 0.004590963
0.05426042 0.01720694 -0.14434032 -0.029223366 0.024597157 0.050086927 -0.09505988 0.1455947
-0.074295074 0.013017551 0.023010733 0.2183785 0.025475597 -0.19529161 0.020146245 0.15638833
0.12802522 0.17239617 -0.037229314 0.05175529 0.0019630103 0.09893754 -0.080085464 0.35349965

module_list.0.fc.bias f4 [64]
00000000: 784a 833d 3808 26bc b356 963d 7251 943d
00000010: 997e 96bd d5e9 9f3d e1cb cdbd e8c8 063c
00000020: 015b 3e3e 6875 d3bd 5339 01be 5479 d3bd
00000030: 8308 41bc 4270 35be 7bfd ca3e 0857 a03d
00000040: 5721 11be 4046 133e 9692 133e c67c d6bb
00000050: e967 89be a861 debd 1109 f3bd 78f9 a7bd
00000060: 67a2 1b3e 3f5e 4c3d bd35 4fbe be5f 91bc
00000070: 1e2e 323e 91d6 0a3e 74d7 6bbe ba5e 7abe
00000080: 36cc 243e af2d 09be 9168 cdbd a2c4 6d3e
00000090: ca6f 32be f886 a4bd a018 a73c 8c6d 8e3d
000000a0: 4a16 93bd 8865 52bd 8cac febd 8488 8ebd
000000b0: 5629 2ebe 1e9a 9e3d d8f0 64be 4e7c dcbd
000000c0: 1915 41be 10fe d13b ac70 113e 2a22 3abe
000000d0: a6a2 a13d e391 21be 79ad 393d bb29 ed3d
000000e0: 8ca8 eabd 4478 063e c035 993c 46d6 78be
000000f0: f86b 703e fc10 63be 1686 433e 5056 c9bc
0.06410688 -0.010133795 0.07340755 0.07242097 -0.07348365 0.07808272 -0.100486524 0.008226611
0.18589403 -0.10325128 -0.12619524 -0.10325876 -0.0117818145 -0.17718604 0.39646515 0.078291
-0.14172874 0.14382267 0.14411387 -0.006545636 -0.2683709 -0.1085847 -0.11866964 -0.08201879
0.1519867 0.049894568 -0.20235343 -0.017745849 0.17400405 0.13558413 -0.23031408 -0.24450198
0.16093525 -0.13396333 -0.1002971 0.2321954 -0.17425457 -0.08033556 0.020397484 0.06954488
-0.07181986 -0.05136636 -0.124352545 -0.06959632 -0.17007956 0.07744239 -0.223575 -0.10765897
-0.18855704 0.0064084604 0.14203137 -0.18177095 0.07892351 -0.15778308 0.045331452 0.11580225
-0.11457929 0.13131815 0.018702388 -0.24300489 0.23478687 -0.22174448 0.19094118 -0.02457729

module_list.0.fc.mask.mask f4 [64, 16]
00000000: 0000 0000 0000 803f 0000 0000 0000 0000
00000010: 0000 0000 0000 0000 0000 0000 0000 0000
00000020: 0000 803f 0000 0000 0000 0000 0000 0000
00000030: 0000 0000 0000 803f 0000 0000 0000 0000
00000040: 0000 0000 0000 803f 0000 0000 0000 0000
00000050: 0000 0000 0000 803f 0000 0000 0000 0000
00000060: 0000 0000 0000 0000 0000 0000 0000 0000
00000070: 0000 0000 0000 0000 0000 0000 0000 803f
00000080: 0000 0000 0000 803f 0000 0000 0000 0000
00000090: 0000 0000 0000 0000 0000 0000 0000 803f
000000a0: 0000 0000 0000 0000 0000 0000 0000 0000
000000b0: 0000 803f 0000 0000 0000 0000 0000 0000
000000c0: 0000 0000 0000 0000 0000 803f 0000 0000
000000d0: 0000 0000 0000 0000 0000 0000 0000 0000
000000e0: 0000 803f 0000 803f 0000 0000 0000 0000
000000f0: 0000 0000 0000 0000 0000 0000 0000 0000
00000100: 0000 0000 0000 0000 0000 0000 0000 0000
00000110: 0000 0000 0000 0000 0000 0000 0000 0000
00000120: 0000 0000 0000 0000 0000 0000 0000 0000
00000130: 0000 803f 0000 803f 0000 803f 0000 0000
00000140: 0000 0000 0000 0000 0000 0000 0000 0000
00000150: 0000 803f 0000 803f 0000 0000 0000 0000
00000160: 0000 0000 0000 803f 0000 0000 0000 0000
00000170: 0000 0000 0000 0000 0000 0000 0000 0000
00000180: 0000 0000 0000 0000 0000 0000 0000 0000
00000190: 0000 0000 0000 0000 0000 0000 0000 803f
000001a0: 0000 0000 0000 0000 0000 803f 0000 0000
000001b0: 0000 0000 0000 0000 0000 803f 0000 0000
000001c0: 0000 0000 0000 0000 0000 0000 0000 803f
000001d0: 0000 803f 0000 0000 0000 803f 0000 0000
000001e0: 0000 0000 0000 0000 0000 0000 0000 0000
000001f0: 0000 0000 0000 0000 0000 0000 0000 0000
00000200: 0000 0000 0000 0000 0000 0000 0000 0000
00000210: 0000 803f 0000 0000 0000 0000 0000 0000
00000220: 0000 0000 0000 0000 0000 0000 0000 0000
00000230: 0000 803f 0000 0000 0000 0000 0000 803f
00000240: 0000 803f 0000 0000 0000 0000 0000 0000
00000250: 0000 0000 0000 0000 0000 0000 0000 0000
00000260: 0000 0000 0000 0000 0000 0000 0000 803f
00000270: 0000 0000 0000 0000 0000 803f 0000 0000
00000280: 0000 0000 0000 0000 0000 0000 0000 0000
00000290: 0000 803f 0000 0000 0000 0000 0000 0000
000002a0: 0000 803f 0000 0000 0000 0000 0000 0000
000002b0: 0000 803f 0000 0000 0000 0000 0000 0000
000002c0: 0000 0000 0000 803f 0000 0000 0000 0000
000002d0: 0000 803f 0000 0000 0000 0000 0000 0000
000002e0: 0000 0000 0000 0000 0000 0000 0000 0000
000002f0: 0000 0000 0000 803f 0000 0000 0000 0000
00000300: 0000 0000 0000 0000 0000 803f 0000 0000
00000310: 0000 0000 0000 0000 0000 0000 0000 803f
00000320: 0000 0000 0000 0000 0000 0000 0000 0000
00000330: 0000 803f 0000 0000 0000 0000 0000 0000
00000340: 0000 0000 0000 0000 0000 0000 0000 0000
00000350: 0000 0000 0000 803f 0000 803f 0000 0000
00000360: 0000 0000 0000 0000 0000 0000 0000 0000
00000370: 0000 0000 0000 803f 0000 0000 0000 0000
00000380: 0000 0000 0000 0000 0000 0000 0000 0000
00000390: 0000 0000 0000 803f 0000 803f 0000 803f
000003a0: 0000 0000 0000 0000 0000 0000 0000 0000
000003b0: 0000 0000 0000 0000 0000 0000 0000 0000
000003c0: 0000 0000 0000 803f 0000 0000 0000 0000
000003d0: 0000 0000 0000 0000 0000 0000 0000 0000
000003e0: 0000 0000 0000 0000 0000 0000 0000 0000
000003f0: 0000 0000 0000 803f 0000 0000 0000 803f
0.0 1.0 0.0 0.0 0.0 0.0 0.0 0.0
1.0 0.0 0.0 0.0 0.0 1.0 0.0 0.0
0.0 1.0 0.0 0.0 0.0 1.0 0.0 0.0
0.0 0.0 0.0 0.0 0.0 0.0 0.0 1.0
0.0 1.0 0.0 0.0 0.0 0.0 0.0 1.0
0.0 0.0 0.0 0.0 1.0 0.0 0.0 0.0
0.0 0.0 1.0 0.0 0.0 0.0 0.0 0.0
1.0 1.0 0.0 0.0 0.0 0.0 0.0 0.0
0.0 0.0 0.0 0.0 0.0 0.0 0.0 0.0
0.0 0.0 0.0 0.0 1.0 1.0 1.0 0.0
0.0 0.0 0.0 0.0 1.0 1.0 0.0 0.0
0.0 1.0 0.0 0.0 0.0 0.0 0.0 0.0
0.0 0.0 0.0 0.0 0.0 0.0 0.0 1.0
0.0 0.0 1.0 0.0 0.0 0.0 1.0 0.0
0.0 0.0 0.0 1.0 1.0 0.0 1.0 0.0
0.0 0.0 0.0 0.0 0.0 0.0 0.0 0.0
0.0 0.0 0.0 0.0 1.0 0.0 0.0 0.0
0.0 0.0 0.0 0.0 1.0 0.0 0.0 1.0
1.0 0.0 0.0 0.0 0.0 0.0 0.0 0.0
0.0 0.0 0.0 1.0 0.0 0.0 1.0 0.0
0.0 0.0 0.0 0.0 1.0 0.0 0.0 0.0
1.0 0.0 0.0 0.0 1.0 0.0 0.0 0.0
0.0 1.0 0.0 0.0 1.0 0.0 0.0 0.0
0.0 0.0 0.0 0.0 0.0 1.0 0.0 0.0
0.0 0.0 1.0 0.0 0.0 0.0 0.0 1.0
0.0 0.0 0.0 0.0 1.0 0.0 0.0 0.0
0.0 0.0 0.0 0.0 0.0 1.0 1.0 0.0
0.0 0.0 0.0 0.0 0.0 1.0 0.0 0.0
0.0 0.0 0.0 0.0 0.0 1.0 1.0 1.0
0.0 0.0 0.0 0.0 0.0 0.0 0.0 0.0
0.0 1.0 0.0 0.0 0.0 0.0 0.0 0.0
0.0 0.0 0.0 0.0 0.0 1.0 0.0 1.0

module_list.0.output_quant.pre_transforms.0.weight f4 [64]
00000000: 6905 7e3f 0fa7 6e3f 3f4d 163f 86a6 633f
00000010: 33ba 883f 97a7 8e3f f6d4 ae3f 7aad 9c3f
00000020: cd13 6f3f 6905 7e3f f78c 903f fba0 703f
00000030: e5aa 8e3f f9d1 4d3f 930b 763f f323 723f
00000040: 9975 853f 223a 4d3f 6905 7e3f c365 aa3f
00000050: cae4 693f f925 bf3f bb45 753f e474 613f
00000060: 5f53 7d3f b96d 7b3f 8ed2 883f 6104 703f
00000070: 6905 7e3f 2bbc 353f 6905 7e3f 6905 7e3f
00000080: 05fd 843f 0e1e 5a3f 54bb 643f 6905 7e3f
00000090: bc7b 323f 6905 7e3f 6905 7e3f e7a0 6b3f
000000a0: 8b6c 703f b591 6b3f 6905 7e3f b4e4 383f
000000b0: 6905 7e3f 1005 223f c63f 833f f996 693f
000000c0: b73a b63f 84bd 223f 6905 7e3f 0d9a 9a3f
000000d0: 725d 643f ac05 843f 4e2a 963f ced8 843f
000000e0: 6905 7e3f 83b0 963f 6905 7e3f 4a64 543f
000000f0: 6905 7e3f d0df 2c3f 2c45 833f 6905 7e3f
0.99227005 0.9322366 0.5871162 0.8892597 1.0681823 1.1144894 1.365874 1.2240441
0.9338959 0.99227005 1.1293019 0.93995637 1.1145903 0.8039852 0.9611141 0.94586104
1.0426513 0.8016683 0.99227005 1.3312305 0.9136473 1.4933463 0.95809525 0.88068986
0.9895534 0.982143 1.0689256 0.9375668 0.99227005 0.70990247 0.99227005 0.99227005
1.0389715 0.8520211 0.8934834 0.99227005 0.69720054 0.99227005 0.99227005 0.9204239
0.93915623 0.92019206 0.99227005 0.72223973 0.99227005 0.63288975 1.0253837 0.9124599
1.4236668 0.6357043 0.99227005 1.2078263 0.89205086 1.0314231 1.173166 1.0378664
0.99227005 1.1772617 0.99227005 0.8296553 0.99227005 0.6752901 1.0255485 0.99227005

module_list.0.output_quant.pre_transforms.0.bias f4 [64]
00000000: 0000 0000 f2a1 e53e 5256 4b3f 75db 2abe
00000010: 1860 4ebd 1cd6 d03e 359e bb3e af54 803e
00000020: e646 57bd 0000 0000 a8f0 4bbd f304 bcbd
00000030: 77c7 2f3e 4fd7 ebbd aa65 79be 0ba7 88be
00000040: 3a03 6fbd 7a02 bebd 0000 0000 52fe 003f
00000050: 025e 163f 8edb 433e 8640 47bc 57fc 46bc
00000060: 80b7 28be 0190 8a3f 4231 c23a 77c5 3fbd
00000070: 0000 0000 c511 a5be 0000 0000 0000 0000
00000080: 6509 9ebe 649a 18be 2ff1 9dbd 0000 0000
00000090: c737 10be 0000 0000 0000 0000 9163 59bd
000000a0: 8b35 6b3e 9f9d d8bd 0000 0000 ba3d a83d
000000b0: 0000 0000 1f5d 433d 62ad 833e ca56 f8bd
000000c0: c1bb aa3d 5d38 0a3e 0000 0000 6584 5b3e
000000d0: f5c7 01be 6ae9 c2bd b685 a23d 5779 eb3d
000000e0: 0000 0000 ae45 8a3e 0000 0000 9909 c3be
000000f0: 0000 0000 5326 803e 02f2 863d 0000 0000
0.0 0.44850117 0.7942859 -0.16685279 -0.05038461 0.40788352 0.3664414 0.25064608
-0.05255785 0.0 -0.049790055 -0.091806315 0.17165934 -0.11515676 -0.24355188 -0.26689944
-0.058352686 -0.09277816 0.0 0.5038806 0.58737195 0.19126722 -0.01216138 -0.012145123
-0.1647625 1.0825197 0.0014815705 -0.046819177 0.0 -0.3224012 0.0 0.0
-0.30866542 -0.14902645 -0.07712018 0.0 -0.14083777 0.0 0.0 -0.05307347
0.22969644 -0.10576939 0.0 0.082148984 0.0 0.04769623 0.25718218 -0.12125929
0.083365925 0.13498063 0.0 0.21437223 -0.12673934 -0.095171764 0.079356596 0.11497753
0.0 0.27006286 0.0 -0.3809326 0.0 0.2502924 0.06589128 0.0

module_list.0.output_quant.pre_transforms.0.running_mean f4 [64]
00000000: 0d5d 8c3c f378 88bd 0b0f 153e e8eb 123e
00000010: 4e89 8fbd 4d03 1c3e 17d5 82bd 2ff6 f53d
00000020: abcc 0d3e 5f00 23be 82d0 1cbe 865b 1fbd
00000030: 2dff 1d3c 27ba 77be 5bed c43e 6aa8 1abc
00000040: 6447 cabd 2577 313e 117f fe3d 3e2b c2bd
00000050: 8c33 6dbe d2ed 69bd 8441 07be 325c c9bd
00000060: 1be2 333e e9ca a03d c761 2fbe 7403 b33d
00000070: 8ab1 153e a5e0 6c3d 3cb9 83be 0e43 9cbe
00000080: f05f 513e 2173 c2bd cbfc efbc dcde 6f3e
00000090: c23d 99be 8e4f 4cbe b3b4 02bd 3b98 c73c
000000a0: 670a 93bd 6942 9fbd cb38 febc c011 bb3c
000000b0: 516b 52be 6df8 0d3e d367 8abe 0259 ecbd
000000c0: 389a e4bd ec1f 31bd 8949 1d3e 5b38 12be
000000d0: e706 453e 7c1a 65be 2064 a5bd d7dd dc3d
000000e0: 3daf 16be b0c2 1b3e 83ea 423d 619f 92be
000000f0: 096a 9e3e 2a18 85be cdd1 ab3e b4dc a23c
0.017134214 -0.06663694 0.1455652 0.14347804 -0.07008611 0.15235634 -0.063883 0.120098464
0.13847606 -0.1591811 -0.15313914 -0.038905643 0.009643358 -0.24192105 0.38462338 -0.009439567
-0.09876898 0.17330606 0.1242658 -0.09480904 -0.23164195 -0.05711157 -0.13208586 -0.09832038
0.17566721 0.07851202 -0.17127143 0.08740893 0.14618507 0.057831425 -0.2572726 -0.3051991
0.20446754 -0.09494615 -0.029295346 0.23424858 -0.2992993 -0.19952223 -0.03191061 0.024364581
-0.071797185 -0.077763386 -0.03103294 0.022835612 -0.2054875 0.13864298 -0.27032337 -0.115404144
-0.111622274 -0.043243334 0.15360083 -0.1427931 0.19240914 -0.22373384 -0.08075738 0.107845
-0.14715286 0.15210986 0.04758693 -0.2863722 0.30940273 -0.25994998 0.33558503 0.01988063

module_list.0.output_quant.pre_transforms.0.running_var f4 [64]
00000000: 6ba3 4a3b f89a 783a f182 3b3b e427 e63b
00000010: c0b2 e43a d034 a83b 5b65 c63b 6575 bd3b
00000020: 7bd9 573b 8f02 793b 518a 3d3b 0fc7 cc3b
00000030: fc00 e53b 7395 b13a 7f47 773a 1e80 343c
00000040: c3b8 c23a a832 463b d779 683a 15a9 f43b
00000050: 23f7 9f3a b040 d33b 2937 3d3b c1f5 103a
00000060: 858e ae3b 9d68 ee3a b280 6c3b 8938 6c3b
00000070: 6756 763a 2b63 a33b 6dc8 023a 4972 fa3a
00000080: 0b93 133c 4a16 293c 88ab 873a c2cf 973a
00000090: cbf9 bd3b 16b5 a63b 167e ca3b 2c54 8f3b
000000a0: 81fb c53b 5c9d ee3b f3da d23b 9c38 123b
000000b0: 961b 2439 69c9 853a f5c4 243b 95d1 693b
000000c0: 493e 103c 300b 2c3b 6bc5 a83b 23ed 6f3b
000000d0: a349 893b b9e1 5c3c 4bce 193c 7356 b53b
000000e0: 726b d13b 4428 603b 57a9 ad3b 8f5e 6a3b
000000f0: 39d9 973b fe4a 993b a192 c83b b3cd 483b
0.0030920159 0.00094835414 0.0028611983 0.0070237983 0.0017448291 0.005133249 0.006054563 0.005781817
0.0032936025 0.003799591 0.0028921554 0.0062493156 0.0069886427 0.0013548568 0.0009432956 0.011016874
0.0014856089 0.0030242596 0.0008868253 0.007466445 0.001220439 0.0064469203 0.002887199 0.0005529784
0.0053270482 0.0018189136 0.003608745 0.003604444 0.000939703 0.004986187 0.0004988972 0.0019107546
0.009007226 0.0103202555 0.0010350803 0.0011582302 0.0057976 0.005087505 0.0061795814 0.0043740477
0.0060419445 0.0072819423 0.006434792 0.0022311574 0.00015650535 0.001020712 0.002514181 0.00356779
0.008803912 0.0026251785 0.005150487 0.003660985 0.0041896864 0.013481551 0.009387563 0.005533987
0.0063909823 0.0034203688 0.005299728 0.0035761928 0.0046340493 0.004678129 0.006120995 0.0030640184

module_list.1.input_quant.pre_transforms.0.weight f4 [64]
00000000: 6905 7e3f 0fa7 6e3f 3f4d 163f 86a6 633f
00000010: 33ba 883f 97a7 8e3f f6d4 ae3f 7aad 9c3f
00000020: cd13 6f3f 6905 7e3f f78c 903f fba0 703f
00000030: e5aa 8e3f f9d1 4d3f 930b 763f f323 723f
00000040: 9975 853f 223a 4d3f 6905 7e3f c365 aa3f
00000050: cae4 693f f925 bf3f bb45 753f e474 613f
00000060: 5f53 7d3f b96d 7b3f 8ed2 883f 6104 703f
00000070: 6905 7e3f 2bbc 353f 6905 7e3f 6905 7e3f
00000080: 05fd 843f 0e1e 5a3f 54bb 643f 6905 7e3f
00000090: bc7b 323f 6905 7e3f 6905 7e3f e7a0 6b3f
000000a0: 8b6c 703f b591 6b3f 6905 7e3f b4e4 383f
000000b0: 6905 7e3f 1005 223f c63f 833f f996 693f
000000c0: b73a b63f 84bd 223f 6905 7e3f 0d9a 9a3f
000000d0: 725d 643f ac05 843f 4e2a 963f ced8 843f
000000e0: 6905 7e3f 83b0 963f 6905 7e3f 4a64 543f
000000f0: 6905 7e3f d0df 2c3f 2c45 833f 6905 7e3f
0.99227005 0.9322366 0.5871162 0.8892597 1.0681823 1.1144894 1.365874 1.2240441
0.9338959 0.99227005 1.1293019 0.93995637 1.1145903 0.8039852 0.9611141 0.94586104
1.0426513 0.8016683 0.99227005 1.3312305 0.9136473 1.4933463 0.95809525 0.88068986
0.9895534 0.982143 1.0689256 0.9375668 0.99227005 0.70990247 0.99227005 0.99227005
1.0389715 0.8520211 0.8934834 0.99227005 0.69720054 0.99227005 0.99227005 0.9204239
0.93915623 0.92019206 0.99227005 0.72223973 0.99227005 0.63288975 1.0253837 0.9124599
1.4236668 0.6357043 0.99227005 1.2078263 0.89205086 1.0314231 1.173166 1.0378664
0.99227005 1.1772617 0.99227005 0.8296553 0.99227005 0.6752901 1.0255485 0.99227005

module_list.1.input_quant.pre_transforms.0.bias f4 [64]
00000000: 0000 0000 f2a1 e53e 5256 4b3f 75db 2abe
00000010: 1860 4ebd 1cd6 d03e 359e bb3e af54 803e
00000020: e646 57bd 0000 0000 a8f0 4bbd f304 bcbd
00000030: 77c7 2f3e 4fd7 ebbd aa65 79be 0ba7 88be
00000040: 3a03 6fbd 7a02 bebd 0000 0000 52fe 003f
00000050: 025e 163f 8edb 433e 8640 47bc 57fc 46bc
00000060: 80b7 28be 0190 8a3f 4231 c23a 77c5 3fbd
00000070: 0000 0000 c511 a5be 0000 0000 0000 0000
00000080: 6509 9ebe 649a 18be 2ff1 9dbd 0000 0000
00000090: c737 10be 0000 0000 0000 0000 9163 59bd
000000a0: 8b35 6b3e 9f9d d8bd 0000 0000 ba3d a83d
000000b0: 0000 0000 1f5d 433d 62ad 833e ca56 f8bd
000000c0: c1bb aa3d 5d38 0a3e 0000 0000 6584 5b3e
000000d0: f5c7 01be 6ae9 c2bd b685 a23d 5779 eb3d
000000e0: 0000 0000 ae45 8a3e 0000 0000 9909 c3be
000000f0: 0000 0000 5326 803e 02f2 863d 0000 0000
0.0 0.44850117 0.7942859 -0.16685279 -0.05038461 0.40788352 0.3664414 0.25064608
-0.05255785 0.0 -0.049790055 -0.091806315 0.17165934 -0.11515676 -0.24355188 -0.26689944
-0.058352686 -0.09277816 0.0 0.5038806 0.58737195 0.19126722 -0.01216138 -0.012145123
-0.1647625 1.0825197 0.0014815705 -0.046819177 0.0 -0.3224012 0.0 0.0
-0.30866542 -0.14902645 -0.07712018 0.0 -0.14083777 0.0 0.0 -0.05307347
0.22969644 -0.10576939 0.0 0.082148984 0.0 0.04769623 0.25718218 -0.12125929
0.083365925 0.13498063 0.0 0.21437223 -0.12673934 -0.095171764 0.079356596 0.11497753
0.0 0.27006286 0.0 -0.3809326 0.0 0.2502924 0.06589128 0.0

module_list.1.input_quant.pre_transforms.0.running_mean f4 [64]
00000000: 0d5d 8c3c f378 88bd 0b0f 153e e8eb 123e
00000010: 4e89 8fbd 4d03 1c3e 17d5 82bd 2ff6 f53d
00000020: abcc 0d3e 5f00 23be 82d0 1cbe 865b 1fbd
00000030: 2dff 1d3c 27ba 77be 5bed c43e 6aa8 1abc
00000040: 6447 cabd 2577 313e 117f fe3d 3e2b c2bd
00000050: 8c33 6dbe d2ed 69bd 8441 07be 325c c9bd
00000060: 1be2 333e e9ca a03d c761 2fbe 7403 b33d
00000070: 8ab1 153e a5e0 6c3d 3cb9 83be 0e43 9cbe
00000080: f05f 513e 2173 c2bd cbfc efbc dcde 6f3e
00000090: c23d 99be 8e4f 4cbe b3b4 02bd 3b98 c73c
000000a0: 670a 93bd 6942 9fbd cb38 febc c011 bb3c
000000b0: 516b 52be 6df8 0d3e d367 8abe 0259 ecbd
000000c0: 389a e4bd ec1f 31bd 8949 1d3e 5b38 12be
000000d0: e706 453e 7c1a 65be 2064 a5bd d7dd dc3d
000000e0: 3daf 16be b0c2 1b3e 83ea 423d 619f 92be
000000f0: 096a 9e3e 2a18 85be cdd1 ab3e b4dc a23c
0.017134214 -0.06663694 0.1455652 0.14347804 -0.07008611 0.15235634 -0.063883 0.120098464
0.13847606 -0.1591811 -0.15313914 -0.038905643 0.009643358 -0.24192105 0.38462338 -0.009439567
-0.09876898 0.17330606 0.1242658 -0.09480904 -0.23164195 -0.05711157 -0.13208586 -0.09832038
0.17566721 0.07851202 -0.17127143 0.08740893 0.14618507 0.057831425 -0.2572726 -0.3051991
0.20446754 -0.09494615 -0.029295346 0.23424858 -0.2992993 -0.19952223 -0.03191061 0.024364581
-0.071797185 -0.077763386 -0.03103294 0.022835612 -0.2054875 0.13864298 -0.27032337 -0.115404144
-0.111622274 -0.043243334 0.15360083 -0.1427931 0.19240914 -0.22373384 -0.08075738 0.107845
-0.14715286 0.15210986 0.04758693 -0.2863722 0.30940273 -0.25994998 0.33558503 0.01988063

module_list.1.input_quant.pre_transforms.0.running_var f4 [64]
00000000: 6ba3 4a3b f89a 783a f182 3b3b e427 e63b
00000010: c0b2 e43a d034 a83b 5b65 c63b 6575 bd3b
00000020: 7bd9 573b 8f02 793b 518a 3d3b 0fc7 cc3b
00000030: fc00 e53b 7395 b13a 7f47 773a 1e80 343c
00000040: c3b8 c23a a832 463b d779 683a 15a9 f43b
00000050: 23f7 9f3a b040 d33b 2937 3d3b c1f5 103a
00000060: 858e ae3b 9d68 ee3a b280 6c3b 8938 6c3b
00000070: 6756 763a 2b63 a33b 6dc8 023a 4972 fa3a
00000080: 0b93 133c 4a16 293c 88ab 873a c2cf 973a
00000090: cbf9 bd3b 16b5 a63b 167e ca3b 2c54 8f3b
000000a0: 81fb c53b 5c9d ee3b f3da d23b 9c38 123b
000000b0: 961b 2439 69c9 853a f5c4 243b 95d1 693b
000000c0: 493e 103c 300b 2c3b 6bc5 a83b 23ed 6f3b
000000d0: a349 893b b9e1 5c3c 4bce 193c 7356 b53b
000000e0: 726b d13b 4428 603b 57a9 ad3b 8f5e 6a3b
000000f0: 39d9 973b fe4a 993b a192 c83b b3cd 483b
0.0030920159 0.00094835414 0.0028611983 0.0070237983 0.0017448291 0.005133249 0.006054563 0.005781817
0.0032936025 0.003799591 0.0028921554 0.0062493156 0.0069886427 0.0013548568 0.0009432956 0.011016874
0.0014856089 0.0030242596 0.0008868253 0.007466445 0.001220439 0.0064469203 0.002887199 0.0005529784
0.0053270482 0.0018189136 0.003608745 0.003604444 0.000939703 0.004986187 0.0004988972 0.0019107546
0.009007226 0.0103202555 0.0010350803 0.0011582302 0.0057976 0.005087505 0.0061795814 0.0043740477
0.0060419445 0.0072819423 0.006434792 0.0022311574 0.00015650535 0.001020712 0.002514181 0.00356779
0.008803912 0.0026251785 0.005150487 0.003660985 0.0041896864 0.013481551 0.009387563 0.005533987
0.0063909823 0.0034203688 0.005299728 0.0035761928 0.0046340493 0.004678129 0.006120995 0.0030640184

module_list.1.fc.weight f4 [32, 64]
00000000: 5ffd 683d 36ee df3d b16f fd3c 55e9 61bd
00000010: bfa7 4cbd d3aa 4dbd bcb5 1abd 1528 61bc
00000020: 37ee babc 063c 77bc 039b d2bd 6f26 923c
00000030: 0f68 363d 29c8 5dbd 63a5 523c 2ada e73d
00000040: d429 c93d 34e4 bbbd 52d2 e83b 07d9 73bb
00000050: 3317 82bd f71f 2dbd 1d17 9fbc d5c5 b13d
00000060: ed95 dc3c 7f51 f43d 6999 273d 0b01 ef3d
00000070: b948 b13d 3b51 bfbd 27e0 153d cce1 d7bd
00000080: e3a8 d4bb 6106 f63d 3b6c 153c 27dc f2bd
00000090: 51c3 44bc 3eca 58bd 6449 abbd d382 763d
000000a0: f51d e73c 91ca d13d 47b4 2fbd f91e 783d
000000b0: 3146 4a3c efa6 933d c435 d8bd 26e8 f7bc
000000c0: 7372 2dbd 6172 bcbb 7512 913d 977d 6e3d
000000d0: b11a 42bc ddf0 263b 87b5 fabd 893f fa3d
000000e0: c73d 4abd 06bd a8bc 036b 4d3b 7b7b eabd
000000f0: b9a2 a33d d553 47bd 5a55 88bd c262 883d
00000100: 92fe ff3c dd4b 81bd b590 f73d d730 2d3d
00000110: 59d1 a13d 023d 2abd 39c8 223d b53d 603c
00000120: 2d9a be3d 8e86 a8bd 535a 933c f95f 84bc
00000130: e356 4abe cd94 923d d757 e43d 8b83 363d
00000140: 3516 793d 4439 99bc 87f3 743c 772f eb3c
00000150: e551 6abc 2fd0 d6bd ab61 b6bd 9418 9c3d
00000160: 6678 88bd 7205 993d 34a1 893d 5591 473d
00000170: 653a 00bd 4983 e73d 47c5 6bbc e18f 46bd
00000180: c624 ab3c d58e 9e3d 755d 793d 456e dc3b
00000190: 974a 553d 0fdd b0bd 5d55 783d 8b8f 55bd
000001a0: cecf 9bbd 377f a5bd 6e94 98bd 82f7 89bc
000001b0: c51b df3c 89a3 78bd 7fc1 fdbd e93f f03d
000001c0: 5b28 ea3d 4f9a 85bd 8342 be3d b3a7 c7bd
000001d0: b774 a2bd 9f93 fd3d 81d9 873b c69b fcbc
000001e0: 3f27 2dbd 01b1 66bd 3591 46bd 9f77 fb3d
000001f0: 5b9d c4bd b090 b8bd 42db 0bbd 71fa 84bc
00000200: c4fe d93d ff0c 373c 7fa0 ca3b db01 933d
00000210: 0fb7 c23d 58f3 99bd 012b efbd f77f 523d
00000220: e4d4 b13d dcca 1cbd 77b0 4bbd dba0 843d
00000230: e3d4 efbd 9215 8cbb b515 f1bd 3ec8 673c
00000240: 67f3 e5bd a9df bc3c fd28 d23d d46e 183b
00000250: 2330 17bd 1a38 c83b 9424 3b3d 81a8 f03d
00000260: 79f2 86bd f73c 943d 93a9 d7bd 0793 fa3d
00000270: a959 5bbd 94d7 99bc cb9b b23d 1973 923d
00000280: 3bfc 71bd cfe0 32bc eb80 c7bd b61d 2a3b
00000290: a76e e7bd 27c2 cbbd 05e1 873d 0610 0dbd
000002a0: d3cd 55bd 7f23 b0bc 7bf5 f5bd 717d e83d
000002b0: e9d7 7abb ac9c d73d 3736 59bd 8b23 813d
000002c0: 62f9 05be e176 433d b945 b6bd 8d9e 47bd
000002d0: 25f2 9ebd 0708 9fbd 523c 88bc d377 b7bd
000002e0: 1a78 aabd 97dd f6bd 4176 063d 4b74 c2bd
000002f0: b7e4 6dbc b727 f5bc 8ff4 cdbd 5406 aabd
00000300: 3ffd 32bc 08c7 b93d 65e0 06bd bba4 0d3b
00000310: e193 3b3d 3da8 bebd 141e 1a3d 41de 1fbe
00000320: 2332 91bd 7123 f53d 71a1 f73d 2b4e 90bd
00000330: 97c1 753c e704 fabd 8046 8abd f79b ad3c
00000340: df6f eabd 335f 2fbd 4f9b 6fbd a768 bebd
00000350: db48 873d b3e5 a5bd 15cd de3d 51c7 bd3c
00000360: 52d5 283d 0bbe b6bd c9c4 d73b c595 e93d
00000370: adf0 83bd 8d37 47bd 5500 44bd 8b0d d5bc
00000380: e129 973d 93ce 803d 5353 33bd 39e5 af3d
00000390: 7343 e9bd f4cb 18bd cd32 a0bc bff4 acbb
000003a0: a925 01bc 4308 303d 0eaa 293d 6f23 dabd
000003b0: af49 523d 4307 4b3c 7f75 a33d a112 87bc
000003c0: 5ed1 e7bd b2c6 0e3d 3f41 50bd 3728 a2bd
000003d0: 4708 b7bc 9267 c93d a51d d0bd 7788 4bbd
000003e0: 61ab f1bd a651 a8bc 0284 083d 31e5 7b3d
000003f0: 6c6d 1cbd aac0 0e3e d5c6 613d a995 923d
0.05688226 0.10934107 0.030937048 -0.055154163 -0.049964663 -0.05021174 -0.03777097 -0.013742466
-0.022818668 -0.015089994 -0.102834724 0.017840592 0.04453283 -0.054145966 0.012856814 0.11320908
0.09822431 -0.09174386 0.0071051503 -0.0037208216 -0.06352081 -0.042266812 -0.019420201 0.086803116
0.026926959 0.11929607 0.040917788 0.11670121 0.08656449 -0.09341665 0.03659072 -0.10541114
-0.0064898594 0.120129354 0.009120042 -0.11858397 -0.012009458 -0.05292725 -0.083636075 0.060183357
0.028212527 0.102437146 -0.042896535 0.060576413 0.0123458365 0.072095744 -0.1055713 -0.030262064
-0.042345475 -0.0057509397 0.070835985 0.05822524 -0.011847184 0.0025473156 -0.12241655 0.122191496
-0.04937532 -0.020597946 0.0031344302 -0.11449333 0.07990021 -0.048663933 -0.066569045 0.066594616
0.031249318 -0.06313298 0.120881476 0.042282905 0.07901258 -0.041562088 0.03974173 0.013686587
0.093067504 -0.08228789 0.017987406 -0.016159045 -0.19759707 0.07157288 0.111495666 0.044559043
0.060812194 -0.018704064 0.01495064 0.028709156 -0.014301752 -0.104889266 -0.089053474 0.076218754
-0.06663589 0.07471742 0.067202 0.048722584 -0.03130569 0.113043375 -0.014390296 -0.048477057
0.020891558 0.07742087 0.060880143 0.0067270123 0.052073088 -0.086359136 0.060628284 -0.052138846
-0.07607995 -0.08080905 -0.07450186 -0.016841654 0.027234921 -0.060702834 -0.12390422 0.1173094
0.114334784 -0.06523573 0.0929003 -0.09748783 -0.07932418 0.12381672 0.0041458015 -0.030835997
-0.042273756 -0.056321148 -0.048478324 0.12278675 -0.09600326 -0.09011972 -0.034144647 -0.016232701
0.10644296 0.011172532 0.0061836834 0.07178088 0.09507572 -0.07517117 -0.11678124 0.051391568
0.08683184 -0.0382794 -0.049728837 0.06475993 -0.11710527 -0.0042750323 -0.117717184 0.014146863
-0.11228066 0.023055868 0.10261724 0.0023259418 -0.03691114 0.0061102035 0.04568918 0.117508896
-0.06589217 0.072381906 -0.105303906 0.122350745 -0.053552303 -0.018779553 0.087211214 0.071508594
-0.059078436 -0.010917856 -0.09741386 0.002595765 -0.11300402 -0.09949141 0.06634716 -0.03443911
-0.052198242 -0.0215013 -0.12009712 0.11352051 -0.0038275665 0.1052793 -0.05303022 0.063056074
-0.13083413 0.047720794 -0.08900017 -0.04873519 -0.07761029 -0.07765203 -0.016630325 -0.089584015
-0.08323689 -0.12053984 0.03282762 -0.094948374 -0.014519862 -0.029926164 -0.100564115 -0.08301988
-0.010924636 0.09071165 -0.032928843 0.002161308 0.045795325 -0.09309433 0.03762634 -0.15612127
-0.07089641 0.119696505 0.120913394 -0.07046159 0.014999769 -0.12207966 -0.06751728 0.021192534
-0.11447119 -0.0428154 -0.058497723 -0.092973046 0.06605693 -0.08100452 0.1087896 0.02316633
0.041219063 -0.089229666 0.006584738 0.114055194 -0.0644239 -0.04863696 -0.04785188 -0.026007434
0.07381035 0.06289401 -0.043780636 0.085886426 -0.11389818 -0.03730388 -0.019555474 -0.0052781994
-0.007882514 0.04297663 0.041421942 -0.1065129 0.0513398 0.012391868 0.07981395 -0.016488375
-0.113192305 0.03485746 -0.050843474 -0.079178266 -0.022342814 0.098342076 -0.10161904 -0.04969069
-0.11800266 -0.020546746 0.033329017 0.06149787 -0.03819029 0.13940683 0.05512126 0.07157452

module_list.1.fc.bias f4 [32]
00000000: ccc3 e4bd 92bc c53d 162a 30be b440 a73d
00000010: ffc9 6e3c a700 6b3d a46b aa3c be41 cbbd
00000020: d045 4e3d 0a02 96bd fdf6 c73d 53f3 a2bd
00000030: 174b be3d 1ed3 0ebe 0a5b 983d c0bb 1fbd
00000040: 8830 f23d 649d c13d fc76 9bbb d02a aabd
00000050: 9c32 2b3d 00e8 ca3d 2c8c 05be 3838 68bd
00000060: b9bc b2bd defa 21be a227 f03d 3d1b 7e3d
00000070: d553 f6bc 8039 f93b ed9d 56bd c0e7 3e3e
-0.11170158 0.096551076 -0.17203555 0.08166638 0.014574527 0.05737367 0.02080328 -0.09924649
0.050359547 -0.07324608 0.09763906 -0.07956567 0.09291666 -0.13947722 0.07439239 -0.03899741
0.11825663 0.09453848 -0.0047444087 -0.08308947 0.04179631 0.09907532 -0.13041753 -0.05669424
-0.08727402 -0.15818354 0.11726309 0.062037695 -0.030069271 0.0076057315 -0.052396704 0.18643093

module_list.1.fc.mask.mask f4 [32, 64]
00000000: 0000 0000 0000 803f 0000 0000 0000 0000
00000010: 0000 0000 0000 0000 0000 0000 0000 0000
00000020: 0000 0000 0000 0000 0000 0000 0000 803f
00000030: 0000 0000 0000 0000 0000 0000 0000 0000
00000040: 0000 0000 0000 0000 0000 0000 0000 0000
00000050: 0000 0000 0000 0000 0000 0000 0000 0000
00000060: 0000 0000 0000 0000 0000 0000 0000 0000
00000070: 0000 0000 0000 803f 0000 0000 0000 0000
00000080: 0000 0000 0000 0000 0000 0000 0000 0000
00000090: 0000 0000 0000 0000 0000 0000 0000 0000
000000a0: 0000 0000 0000 0000 0000 0000 0000 0000
000000b0: 0000 0000 0000 0000 0000 0000 0000 0000
000000c0: 0000 0000 0000 0000 0000 0000 0000 0000
000000d0: 0000 0000 0000 0000 0000 0000 0000 0000
000000e0: 0000 0000 0000 0000 0000 0000 0000 0000
000000f0: 0000 0000 0000 0000 0000 0000 0000 0000
00000100: 0000 0000 0000 0000 0000 0000 0000 0000
00000110: 0000 0000 0000 0000 0000 0000 0000 0000
00000120: 0000 0000 0000 0000 0000 0000 0000 0000
00000130: 0000 803f 0000 0000 0000 0000 0000 0000
00000140: 0000 0000 0000 0000 0000 0000 0000 0000
00000150: 0000 803f 0000 0000 0000 0000 0000 0000
00000160: 0000 0000 0000 0000 0000 0000 0000 0000
00000170: 0000 0000 0000 0000 0000 0000 0000 0000
00000180: 0000 0000 0000 0000 0000 0000 0000 0000
00000190: 0000 0000 0000 0000 0000 0000 0000 0000
000001a0: 0000 0000 0000 0000 0000 0000 0000 0000
000001b0: 0000 0000 0000 0000 0000 0000 0000 0000
000001c0: 0000 0000 0000 0000 0000 0000 0000 0000
000001d0: 0000 0000 0000 0000 0000 0000 0000 803f
000001e0: 0000 0000 0000 0000 0000 0000 0000 0000
000001f0: 0000 0000 0000 0000 0000 0000 0000 0000
00000200: 0000 0000 0000 0000 0000 0000 0000 0000
00000210: 0000 0000 0000 0000 0000 0000 0000 0000
00000220: 0000 803f 0000 0000 0000 0000 0000 0000
00000230: 0000 0000 0000 0000 0000 0000 0000 0000
00000240: 0000 0000 0000 0000 0000 0000 0000 0000
00000250: 0000 0000 0000 0000 0000 0000 0000 0000
00000260: 0000 0000 0000 0000 0000 0000 0000 0000
00000270: 0000 0000 0000 0000 0000 0000 0000 0000
00000280: 0000 0000 0000 0000 0000 0000 0000 0000
00000290: 0000 0000 0000 0000 0000 0000 0000 0000
000002a0: 0000 0000 0000 0000 0000 0000 0000 0000
000002b0: 0000 0000 0000 803f 0000 0000 0000 0000
000002c0: 0000 803f 0000 0000 0000 0000 0000 0000
000002d0: 0000 0000 0000 0000 0000 0000 0000 0000
000002e0: 0000 0000 0000 0000 0000 0000 0000 0000
000002f0: 0000 0000 0000 0000 0000 0000 0000 0000
00000300: 0000 0000 0000 0000 0000 0000 0000 803f
00000310: 0000 0000 0000 0000 0000 0000 0000 803f
00000320: 0000 0000 0000 0000 0000 0000 0000 0000
00000330: 0000 0000 0000 0000 0000 0000 0000 0000
00000340: 0000 0000 0000 0000 0000 0000 0000 0000
00000350: 0000 0000 0000 0000 0000 0000 0000 0000
00000360: 0000 0000 0000 0000 0000 0000 0000 0000
00000370: 0000 0000 0000 0000 0000 0000 0000 0000
00000380: 0000 0000 0000 0000 0000 0000 0000 0000
00000390: 0000 0000 0000 0000 0000 0000 0000 0000
000003a0: 0000 0000 0000 0000 0000 0000 0000 0000
000003b0: 0000 0000 0000 0000 0000 0000 0000 0000
000003c0: 0000 0000 0000 0000 0000 0000 0000 0000
000003d0: 0000 0000 0000 0000 0000 0000 0000 0000
000003e0: 0000 0000 0000 0000 0000 0000 0000 0000
000003f0: 0000 0000 0000 803f 0000 0000 0000 0000
0.0 1.0 0.0 0.0 0.0 0.0 0.0 0.0
0.0 0.0 0.0 1.0 0.0 0.0 0.0 0.0
0.0 0.0 0.0 0.0 0.0 0.0 0.0 0.0
0.0 0.0 0.0 0.0 0.0 1.0 0.0 0.0
0.0 0.0 0.0 0.0 0.0 0.0 0.0 0.0
0.0 0.0 0.0 0.0 0.0 0.0 0.0 0.0
0.0 0.0 0.0 0.0 0.0 0.0 0.0 0.0
0.0 0.0 0.0 0.0 0.0 0.0 0.0 0.0
0.0 0.0 0.0 0.0 0.0 0.0 0.0 0.0
0.0 0.0 0.0 0.0 1.0 0.0 0.0 0.0
0.0 0.0 0.0 0.0 1.0 0.0 0.0 0.0
0.0 0.0 0.0 0.0 0.0 0.0 0.0 0.0
0.0 0.0 0.0 0.0 0.0 0.0 0.0 0.0
0.0 0.0 0.0 0.0 0.0 0.0 0.0 0.0
0.0 0.0 0.0 0.0 0.0 0.0 0.0 1.0
0.0 0.0 0.0 0.0 0.0 0.0 0.0 0.0
0.0 0.0 0.0 0.0 0.0 0.0 0.0 0.0
1.0 0.0 0.0 0.0 0.0 0.0 0.0 0.0
0.0 0.0 0.0 0.0 0.0 0.0 0.0 0.0
0.0 0.0 0.0 0.0 0.0 0.0 0.0 0.0
0.0 0.0 0.0 0.0 0.0 0.0 0.0 0.0
0.0 0.0 0.0 0.0 0.0 1.0 0.0 0.0
1.0 0.0 0.0 0.0 0.0 0.0 0.0 0.0
0.0 0.0 0.0 0.0 0.0 0.0 0.0 0.0
0.0 0.0 0.0 1.0 0.0 0.0 0.0 1.0
0.0 0.0 0.0 0.0 0.0 0.0 0.0 0.0
0.0 0.0 0.0 0.0 0.0 0.0 0.0 0.0
0.0 0.0 0.0 0.0 0.0 0.0 0.0 0.0
0.0 0.0 0.0 0.0 0.0 0.0 0.0 0.0
0.0 0.0 0.0 0.0 0.0 0.0 0.0 0.0
0.0 0.0 0.0 0.0 0.0 0.0 0.0 0.0
0.0 0.0 0.0 0.0 0.0 1.0 0.0 0.0

module_list.1.output_quant.pre_transforms.0.weight f4 [32]
00000000: 9d7f b13f c440 903f 462f 193f 0419 5f3f
00000010: 25b5 373f 7d2f 473f ca62 373f f2ff 553f
00000020: 7035 773f e1a4 7e3f 4bb5 713f c194 793f
00000030: 48bf da3f 5ac6 823f 6d4f b33f a784 853f
00000040: a93b 753f 608c 413f 4a6e 9e3f add3 8a3f
00000050: c20d 953f 100e 963f 8d6e 663f 9271 893f
00000060: 5fe5 0c3f 7027 a53f 177e ed3e d957 743f
00000070: 4797 303f 6905 7e3f 6a60 8c3f edec 743f
1.386707 1.1269765 0.5983776 0.87147546 0.7176078 0.77806836 0.71635115 0.83593667
0.96565914 0.99470335 0.94417256 0.97492605 1.7089624 1.0216782 1.4008614 1.0431107
0.9579416 0.7560482 1.2377408 1.0845848 1.1644824 1.1723042 0.9001244 1.0737784
0.5503749 1.290266 0.4638526 0.95446545 0.6898083 0.99227005 1.0966923 0.9567402

module_list.1.output_quant.pre_transforms.0.bias f4 [32]
00000000: f30c 803e 17ea 963e 7f44 633e 162a c5bd
00000010: 46b7 36be eb3c ff3e 1810 293e 221b 95bd
00000020: 7dfc a4bc 56be af3e 5213 87bd d1dd a93e
00000030: 3134 cd3e f7a1 f83d 3a20 8a3e c25e fcbd
00000040: 6ab3 f13e 7495 023e 5560 4abb 3a0d 273e
00000050: bbce c0bd b43d 2f3e b665 38bc d5fb c43e
00000060: 3a8e 8ebc 8a84 973e 0d2a 513f ae40 903d
00000070: 45ed 3d3f 0000 0000 95fc cbbc 0d90 663e
0.2500988 0.2947547 0.22194098 -0.09627168 -0.17843351 0.49851164 0.16510046 -0.07280566
-0.020139927 0.34324902 -0.06595482 0.33177045 0.4007888 0.12140267 0.26977712 -0.12322761
0.47207195 0.12752324 -0.0030880172 0.1631364 -0.09414431 0.17113382 -0.0112547185 0.38473383
-0.017401803 0.29593307 0.8170479 0.07043587 0.7419017 0.0 -0.024900714 0.22515889

module_list.1.output_quant.pre_transforms.0.running_mean f4 [32]
00000000: 6588 a3bd 5e6e 4abc 8f96 3bbe cc45 2d3d
00000010: 26f4 133d 0b90 273e 622e 313d 4400 e2bd
00000020: ed78 d4bc 03cd 89bc 8e3d 413e 3610 a9bd
00000030: 7445 2c3e 0fb5 c4bd 40e5 5e3e 4096 8abd
00000040: cd03 5d3e 099e de3d a782 633d b830 02bd
00000050: 4ccd 203e ee7c 1d3c 7b65 62be ca7f 0dbe
00000060: 78f0 073c 0418 54be c859 8a3e cd30 643d
00000070: e614 94bd a1be ab3d 2fde 99bb db3c 073e
-0.079849996 -0.012355415 -0.18319152 0.04230289 0.03612151 0.16363542 0.043257125 -0.11035207
-0.025936568 -0.01682139 0.18871137 -0.08255045 0.1682337 -0.09604847 0.2176714 -0.06766939
0.21583481 0.108699866 0.05554452 -0.031784743 0.15703315 0.009612305 -0.22109024 -0.13818279
0.008297078 -0.20712286 0.27021623 0.055710603 -0.072305486 0.08385969 -0.004695676 0.13206808

module_list.1.output_quant.pre_transforms.0.running_var f4 [32]
00000000: d8a4 4b3b 9ca0 ff3b 82fb 143c 47b4 523c
00000010: f5bd e03b 9c86 c63b d206 e63b a972 973b
00000020: 0555 843c 1916 fc3b 1bb1 e13b fa1d f93b
00000030: 7abe 4a3c 9296 153b 2672 ea3c 58d7 a43b
00000040: 8d04 ef3b e6a9 cd3b 8166 e43b 6903 823b
00000050: f0ec 9e3c d001 2a3c 3647 663b 3714 d73b
00000060: 45bf 083c 803a 2a3c 90c0 f83b 02d2 2a3b
00000070: 6cb5 6f3b 04ec 053c ebe8 313b e9c5 d83b
0.0031073596 0.0078011286 0.009093167 0.012860364 0.006858582 0.006058527 0.007019856 0.004621823
0.016153822 0.007693064 0.0068875677 0.0076024504 0.012374515 0.0022825343 0.028618883 0.005030554
0.0072942437 0.006276357 0.006970227 0.0039676917 0.01940009 0.010376409 0.003513766 0.006563689
0.008346383 0.010389924 0.0075913146 0.0026065116 0.0036576642 0.008173946 0.0027146887 0.0066153896

module_list.2.input_quant.pre_transforms.0.weight f4 [32]
00000000: 9d7f b13f c440 903f 462f 193f 0419 5f3f
00000010: 25b5 373f 7d2f 473f ca62 373f f2ff 553f
00000020: 7035 773f e1a4 7e3f 4bb5 713f c194 793f
00000030: 48bf da3f 5ac6 823f 6d4f b33f a784 853f
00000040: a93b 753f 608c 413f 4a6e 9e3f add3 8a3f
00000050: c20d 953f 100e 963f 8d6e 663f 9271 893f
00000060: 5fe5 0c3f 7027 a53f 177e ed3e d957 743f
00000070: 4797 303f 6905 7e3f 6a60 8c3f edec 743f
1.386707 1.1269765 0.5983776 0.87147546 0.7176078 0.77806836 0.71635115 0.83593667
0.96565914 0.99470335 0.94417256 0.97492605 1.7089624 1.0216782 1.4008614 1.0431107
0.9579416 0.7560482 1.2377408 1.0845848 1.1644824 1.1723042 0.9001244 1.0737784
0.5503749 1.290266 0.4638526 0.95446545 0.6898083 0.99227005 1.0966923 0.9567402

module_list.2.input_quant.pre_transforms.0.bias f4 [32]
00000000: f30c 803e 17ea 963e 7f44 633e 162a c5bd
00000010: 46b7 36be eb3c ff3e 1810 293e 221b 95bd
00000020: 7dfc a4bc 56be af3e 5213 87bd d1dd a93e
00000030: 3134 cd3e f7a1 f83d 3a20 8a3e c25e fcbd
00000040: 6ab3 f13e 7495 023e 5560 4abb 3a0d 273e
00000050: bbce c0bd b43d 2f3e b665 38bc d5fb c43e
00000060: 3a8e 8ebc 8a84 973e 0d2a 513f ae40 903d
00000070: 45ed 3d3f 0000 0000 95fc cbbc 0d90 663e
0.2500988 0.2947547 0.22194098 -0.09627168 -0.17843351 0.49851164 0.16510046 -0.07280566
-0.020139927 0.34324902 -0.06595482 0.33177045 0.4007888 0.12140267 0.26977712 -0.12322761
0.47207195 0.12752324 -0.0030880172 0.1631364 -0.09414431 0.17113382 -0.0112547185 0.38473383
-0.017401803 0.29593307 0.8170479 0.07043587 0.7419017 0.0 -0.024900714 0.22515889

module_list.2.input_quant.pre_transforms.0.running_mean f4 [32]
00000000: 6588 a3bd 5e6e 4abc 8f96 3bbe cc45 2d3d
00000010: 26f4 133d 0b90 273e 622e 313d 4400 e2bd
00000020: ed78 d4bc 03cd 89bc 8e3d 413e 3610 a9bd
00000030: 7445 2c3e 0fb5 c4bd 40e5 5e3e 4096 8abd
00000040: cd03 5d3e 099e de3d a782 633d b830 02bd
00000050: 4ccd 203e ee7c 1d3c 7b65 62be ca7f 0dbe
00000060: 78f0 073c 0418 54be c859 8a3e cd30 643d
00000070: e614 94bd a1be ab3d 2fde 99bb db3c 073e
-0.079849996 -0.012355415 -0.18319152 0.04230289 0.03612151 0.16363542 0.043257125 -0.11035207
-0.025936568 -0.01682139 0.18871137 -0.08255045 0.1682337 -0.09604847 0.2176714 -0.06766939
0.21583481 0.108699866 0.05554452 -0.031784743 0.15703315 0.009612305 -0.22109024 -0.13818279
0.008297078 -0.20712286 0.27021623 0.055710603 -0.072305486 0.08385969 -0.004695676 0.13206808

module_list.2.input_quant.pre_transforms.0.running_var f4 [32]
00000000: d8a4 4b3b 9ca0 ff3b 82fb 143c 47b4 523c
00000010: f5bd e03b 9c86 c63b d206 e63b a972 973b
00000020: 0555 843c 1916 fc3b 1bb1 e13b fa1d f93b
00000030: 7abe 4a3c 9296 153b 2672 ea3c 58d7 a43b
00000040: 8d04 ef3b e6a9 cd3b 8166 e43b 6903 823b
00000050: f0ec 9e3c d001 2a3c 3647 663b 3714 d73b
00000060: 45bf 083c 803a 2a3c 90c0 f83b 02d2 2a3b
00000070: 6cb5 6f3b 04ec 053c ebe8 313b e9c5 d83b
0.0031073596 0.0078011286 0.009093167 0.012860364 0.006858582 0.006058527 0.007019856 0.004621823
0.016153822 0.007693064 0.0068875677 0.0076024504 0.012374515 0.0022825343 0.028618883 0.005030554
0.0072942437 0.006276357 0.006970227 0.0039676917 0.01940009 0.010376409 0.003513766 0.006563689
0.008346383 0.010389924 0.0075913146 0.0026065116 0.0036576642 0.008173946 0.0027146887 0.0066153896

module_list.2.fc.weight f4 [32, 32]
00000000: 8100 b23c 4542 84bd 7886 323e 75ba 243e
00000010: 9d5e f23a 0369 96bd 9fac 1cbe e97a 673c
00000020: d677 2d3e d586 32be aee4 54bd 1997 abbd
00000030: 331c 173d ef02 f8bd c4a5 0ebe 764d af3d
00000040: 25e6 81bd 60c9 27be a38d 1fbe e755 1cbe
00000050: 9bef 00be 2199 54bd 34da b4bd 673b eebd
00000060: 49e6 c63d bf78 c53c cbf9 8bbd 80e7 7c3d
00000070: 3b95 523e 68a3 0fbe 62d1 39bd 47bf 2bbe
00000080: afe0 603d 4c9b ed3d 20e7 97bd 8201 3d3d
00000090: 909d 893d 2fd3 99bc 0d8f 9b3d d5c6 163e
000000a0: 2e85 da3d 1907 a13d 5955 15be 9c8d 163e
000000b0: e2ce 80bd 8a68 18be 3a40 06be 2eb3 103d
000000c0: e936 183e 34db 7e3d 3b74 13bd 9f91 32be
000000d0: f587 723d 1a3a 27bb c3b7 17bd abbb e5bb
000000e0: 3f7a 8c3c 883c ba3d 2291 293e cc13 cbbb
000000f0: fe0f 5d3d a24d ecbd 71be 1a3e c35c 5cbd
00000100: ae64 223e 4b49 0dbe f502 213e 1b2a 443d
00000110: 6190 99bd d44a 89bd bd2f 5abd e37f a239
00000120: fd48 a43c e469 71bd cbcd 2a3d f55d ed3d
00000130: f1c0 a2bd afde 3cbd 1a31 d3bd 8671 b13d
00000140: 17b8 cd3d d6d5 76bd 4d66 91bc b1eb 0e3e
00000150: e4a8 fb3d cf81 fa3d 5d81 193e 4b1c 0c3e
00000160: 360c 2cbe 9317 b6bd 2475 863d a412 2a3e
00000170: 1c70 14be d937 83bd ac2e d2bd 6838 043d
00000180: 44f2 bfbd 7f45 8d3c eb0d 0d3e 2397 863d
00000190: 61e1 5ebd 3652 0d3e a4b0 203e 0cff 643d
000001a0: 591f 043e 646b 5c3d 3e59 ccbb fc1e dbbd
000001b0: 2692 d83d 9581 26be 15ee b23d 5add ecbc
000001c0: f157 f23c 98ba cc3d 4685 163d 99e8 f63c
000001d0: ba60 27bc d6ea 823d 3b47 edbd 33b3 4c3d
000001e0: 6aff e1bd c171 a9bd f495 8a3d 3d3c 063d
000001f0: 3dfc e43d fd8b 843d 722d ea3d 7e9c 243d
00000200: 72c5 003e daec 083e 7a30 aebd 3672 093e
00000210: 1bab 253e 4e4d babd 8f5f 233e 6960 ad3b
00000220: 9cc7 f4bc e054 fc3d 091b 8dbd d921 0bbe
00000230: 72fc 133e 4b2d 6e3d 1af8 24be 9522 003e
00000240: ba51 febd 8bf8 b6bb 0f18 323e cfe1 1cbe
00000250: 505a 84bd 6e70 c23d 4a1d e2bd 5dfa cc3d
00000260: 81bd adbd 5b67 23bd adbb 22be ae4d a33d
00000270: 3d36 9dbc 4a3d 22be d50a f23d 519d 0dbd
00000280: 77a0 12be ce22 ac3d 44c0 2bbe 4adb 36bc
00000290: e881 133e 15df c73d 55f6 1dbe 9c9f f13c
000002a0: cd32 0bbe 1392 fc3d b06e ea3d 35ca 153e
000002b0: 0c4b f9bd 174b 2a3e 4c12 f53c ff32 1fbe
000002c0: 6ab6 35bd fcd3 92bd ce2e 57bd 2302 613d
000002d0: cde9 09be cf32 a0bd 004c 4abd 829f 7cbc
000002e0: fb70 ab3d 1d72 823e 9e14 593d 25bf 8c3c
000002f0: a74d 073e 602a ecbd a876 323d e57f 8bbd
00000300: f388 84bd 78ea 323e 0ae0 063e ba8a 103e
00000310: cd7a 2f3e e385 233e ac01 1ebe faab 853d
00000320: 17ae bcbd 36d6 32be e121 103e 2b54 c63c
00000330: 7ca3 1abe e880 bb3d fcbe 203d c966 273e
00000340: a605 d7bd c0d0 b83d a004 fd3c 955f 113d
00000350: a937 98bd 4f77 74bc 0757 eb39 4f3f 93bb
00000360: ea99 ae3d 0399 2ebe 51c2 203e cfba af3d
00000370: 4093 683c 8007 7cbd adf1 cf3d 64fe 68bc
00000380: d1bf 09be 3228 ef3d 3827 09be 88a9 233e
00000390: 2846 cb3d d13b 22be f2a4 efbd 8da5 a03c
000003a0: 8436 13be fc35 373d 35fc f1bd 0056 dc3c
000003b0: d286 813d f90a 1ebc 5864 21be e643 1ebe
000003c0: ec41 66be 1e36 24bc d712 15bd 1bed 09be
000003d0: cb52 dfbd 1408 053e 86f3 d13d 34c5 b6bd
000003e0: 73f9 81bd 3df6 b33d b2d4 d5bd 41f7 cdbb
000003f0: 4e76 0e3d 253d c6bd f34f 22be 0597 233d
0.021728756 -0.064579524 0.17434108 0.16086753 0.0018491332 -0.07344248 -0.15300225 0.014128425
0.16940245 -0.17434247 -0.0519759 -0.08378429 0.036892127 -0.121099345 -0.13930422 0.085596964
-0.06342725 -0.16385412 -0.15581374 -0.15267144 -0.12591402 -0.051903848 -0.088306814 -0.11632424
0.09711892 0.024105428 -0.068347536 0.061744213 0.2056474 -0.14027178 -0.0453657 -0.16772185
0.054901775 0.11601886 -0.074171305 0.046144016 0.06719506 -0.018777458 0.07595644 0.14724286
0.10669933 0.07862682 -0.14583339 0.14702457 -0.0628946 -0.14883628 -0.13110438 0.03532713
0.14864697 0.062220767 -0.035999518 -0.17438363 0.05921169 -0.002551681 -0.037040483 -0.007010897
0.017148135 0.09093577 0.1655927 -0.0061974283 0.05397033 -0.11538245 0.1511171 -0.053799402
0.15858719 -0.1379749 0.15723784 0.047891717 -0.07498241 -0.067037255 -0.053268183 0.0003099433
0.020054335 -0.058938876 0.041700166 0.115901865 -0.07946957 -0.046110805 -0.103121 0.08664231
0.10044878 -0.060262524 -0.017748976 0.13957097 0.12288073 0.1223179 0.14990754 0.13682668
-0.16801533 -0.08891215 0.065653116 0.16608673 -0.14495891 -0.064071365 -0.10262808 0.032280356
-0.093723804 0.017245052 0.1377484 0.06571796 -0.054414157 0.13800892 0.15692383 0.055907294
0.12902583 0.053813353 -0.0062362244 -0.10699269 0.105747506 -0.16260369 0.08736817 -0.028914142
0.02958295 0.099965274 0.036748193 0.030140208 -0.0102159325 0.06392448 -0.11585852 0.049975585
-0.110350445 -0.0827365 0.067668825 0.03277229 0.11180923 0.06472013 0.11434449 0.040188305
0.1257532 0.13371602 -0.0850534 0.13422474 0.16178553 -0.09096776 0.15954421 0.005291034
-0.029880337 0.12320876 -0.06889922 -0.1358713 0.14451769 0.058148663 -0.16110268 0.12513192
-0.12417932 -0.005583828 0.1739199 -0.15320514 -0.06462538 0.094941005 -0.11040743 0.100086905
-0.084834106 -0.03989349 -0.15891905 0.079738006 -0.019190902 -0.15843692 0.11818472 -0.034573857
-0.14319025 0.08405076 -0.16772562 -0.011160681 0.14405024 0.097593464 -0.15426 0.029495053
-0.13593598 0.12332549 0.11446893 0.14627917 -0.12172517 0.16630207 0.029915951 -0.15546797
-0.044363417 -0.07169339 -0.05253487 0.05493368 -0.13468094 -0.07822191 -0.049388885 -0.015418889
0.08371159 0.25477687 0.052998178 0.017180989 0.13213216 -0.1153152 0.04357019 -0.06811503
-0.064714335 0.17472255 0.13171402 0.1411542 0.17136689 0.15969042 -0.15430325 0.065269426
-0.092128925 -0.17464527 0.14075424 0.024210056 -0.15101427 0.09155446 0.039244637 0.16347803
-0.10499124 0.09024191 0.030885994 0.035491545 -0.07432491 -0.0149210235 0.00044887533 -0.004493631
0.085254505 -0.17050557 0.15699126 0.08580553 0.014195263 -0.06153059 0.10153518 -0.014220808
-0.13452078 0.116775885 -0.13393867 0.1598264 0.099254906 -0.1584313 -0.11701383 0.01961019
-0.14376265 0.044729218 -0.11815683 0.026896477 0.06324543 -0.009646171 -0.15760934 -0.15455589
-0.22486085 -0.010022668 -0.03639492 -0.13469355 -0.109044634 0.12991363 0.102515265 -0.08924332
-0.06346407 0.087872006 -0.10440959 -0.0062855785 0.034780793 -0.09679631 -0.1585081 0.039938945

module_list.2.fc.bias f4 [32]
00000000: 5b81 b1bd 6d12 033e faa1 bcbc 8a63 cbbc
00000010: 8b3c 37be 80ca 263e 2325 c03d 4593 183e
00000020: 7179 fabd f72a 1e3e c80a 37be 4723 d2bd
00000030: 3bc8 9bbd 5202 36be 96f6 dd3d 1264 c9bd
00000040: 34ac d2bd a8db 44be 818d 41be 4453 e53d
00000050: 8226 1d3e 39f9 603e ebb1 823d 5f87 2bbe
00000060: 2696 4639 d945 a1bc 500f 813c 0b63 003d
00000070: a2b0 2e3d d49f d8bc 82fe e73c 8027 af3d
-0.08667251 0.12799998 -0.023026455 -0.024827737 -0.17894189 0.16288185 0.09382083 0.14899929
-0.12230194 0.15446077 -0.17875206 -0.10260635 -0.0760655 -0.17774323 0.10838048 -0.0983354
-0.102867514 -0.19224417 -0.18901636 0.11197522 0.15346721 0.21970071 0.063815914 -0.16750859
0.00018938686 -0.019686626 0.015754372 0.031344455 0.04264892 -0.0264434 0.028319601 0.08552456
