examples/mnist/averaging/averaging_ensemble_size2/best_accuracy.pth (torch, 388205 bytes, 224 tensors)

ensemble.0.module_list.0.input_quant.pre_transforms.0.weight f4 [784]
000000 00 00 80 3f 00 00 80 3f 00 00 80 3f 00 00 80 3f
       1.0 1.0 1.0 1.0
000010 00 00 80 3f ff ff 7f 3f 00 00 80 3f 00 00 80 3f
       1.0 0.99999994 1.0 1.0
000020 10 00 80 3f 00 00 80 3f 09 00 80 3f cb ff 7f 3f
       1.0000019 1.0 1.0000011 0.99999684
000030 65 e9 ab 3e f4 7e ee 3f 36 18 14 3f de 28 f5 3e
       0.33576503 1.8632493 0.5784944 0.47882742
000040 00 00 80 3f 00 00 80 3f 00 00 80 3f 00 00 80 3f
       1.0 1.0 1.0 1.0
000050 00 00 80 3f 00 00 80 3f e7 ff 7f 3f 00 00 80 3f
       1.0 1.0 0.9999985 1.0
000060 00 00 80 3f 00 00 80 3f 00 00 80 3f 00 00 80 3f
       1.0 1.0 1.0 1.0
000070 00 00 80 3f 00 00 80 3f 00 00 80 3f 00 00 80 3f
       1.0 1.0 1.0 1.0
000080 16 69 b8 3f e4 23 bf 3e 3e f3 40 3f 11 bd d8 3e
       1.440707 0.3733207 0.7537116 0.42331746
000090 ba 10 f1 3f e9 2d 12 40 fc 37 00 40 03 6e df 3f
       1.883323 2.2840521 2.003417 1.7455448
0000a0 60 b6 a7 3e 00 00 80 3f 1a 0a e4 3f de c3 e7 3f
       0.3275633 1.0 1.7815583 1.8106649
0000b0 67 8b f7 3f 2d 46 a7 3e 96 91 12 40 06 51 f5 3f
       1.9339417 0.32670727 2.2901359 1.9165351
0000c0 b5 55 ee 3f b2 ee 06 40 1e 58 ff 3f 38 38 7e 3f
       1.8619906 2.1083188 1.9948766 0.99304533
0000d0 17 00 80 3f 11 00 80 3f 00 00 80 3f 00 00 80 3f
       1.0000027 1.000002 1.0 1.0
0000e0 00 00 80 3f 00 00 80 3f 18 53 1b 3f 20 4b ed 3f
       1.0 1.0 0.60673666 1.8538551
0000f0 00 00 80 3f c0 51 e1 3f 4a 7c bd 3e 00 00 80 3f
       1.0 1.7603073 0.37008888 1.0
000100 00 00 80 3f 1b e1 18 40 55 4e 4f 40 fe d5 81 40
       1.0 2.3887393 3.239156 4.057372
000110 3f 64 a7 3f d4 5d 07 40 cf 90 64 40 00 00 80 3f
       1.3077468 2.1151018 3.5713384 1.0
000120 f9 d7 02 40 50 ff 9d 3f 33 2a de 3f b9 bb 0d 3f
       2.044432 1.234354 1.7356628 0.5536457
000130 ac 74 a9 3f 46 31 3b 40 00 00 80 3f 3f 50 73 3f
       1.323873 2.9248824 1.0 0.9504432
000140 4b df 9f 3e 16 25 fe 3f f8 ff 7f 3f fd ff 7f 3f
       0.31225047 1.9855068 0.9999995 0.9999998
000150 00 00 80 3f 00 00 80 3f e3 15 00 3f c8 d5 d6 3f
       1.0 1.0 0.50033396 1.6783991
000160 c7 0a ba 3e 00 00 80 3f 2f 35 95 3f ae 32 cd 3e
       0.36336347 1.0 1.1656855 0.40077728
000170 7e fb 0c 40 18 25 ee 3e 9c c8 b6 40 8e 32 9a 3e
       2.2028499 0.46512675 5.7119884 0.30116695
000180 e1 fa 64 3e 5d 73 0a 40 00 00 80 3f 00 00 80 3f
       0.22361328 2.1632912 1.0 1.0
000190 40 56 85 40 00 00 80 3f 6f 9e b1 3d b3 18 71 3c
       4.1667786 1.0 0.08672797 0.014715361
0001a0 98 0c 53 40 cb 2f 17 40 6a 09 7a 3f 89 7d d3 3f
       3.2976437 2.362292 0.97670615 1.6522685
0001b0 56 fb 8d 3f 46 0f d5 3f 00 00 80 3f 00 00 80 3f
       1.1092327 1.6645286 1.0 1.0
0001c0 00 00 80 3f 65 6e d0 3f d0 e2 f6 3f f9 c2 13 40
       1.0 1.628369 1.9287968 2.3087752
0001d0 f8 3d 90 3f 59 22 11 40 6d e7 18 3f 00 00 80 3f
       1.1268911 2.2677214 0.5972813 1.0
0001e0 ad c4 f5 3e b4 10 27 40 f4 89 81 3f cb 05 30 3f
       0.48001614 2.6103945 1.0120225 0.6875884
0001f0 00 00 80 3f 9f 5f 1c 40 88 25 e2 3f 53 56 46 40
       1.0 2.4433362 1.7667704 3.0990188
000200 00 00 80 3f dd 07 32 40 29 4a 16 3f a8 c7 35 40
       1.0 2.78173 0.5870691 2.840311
000210 5a ca 65 3f 77 9e c7 3e ac 83 6d 40 cb 6d 54 3e
       0.8976189 0.38988087 3.7111616 0.20745008
000220 95 dc 16 40 26 8d ca 3f 06 90 17 40 33 5b f4 3f
       2.3572133 1.5824325 2.3681655 1.9090332
000230 00 00 80 3f 00 00 80 3f 00 00 80 3f 3f bc e9 3f
       1.0 1.0 1.0 1.8260573
000240 00 00 80 3f a9 ff 97 3f f9 ff 2f 3d 79 26 c7 3f
       1.0 1.1874896 0.042968724 1.5558616
000250 42 47 f5 3f 10 6f a7 3f c8 50 32 3f 4f 77 29 3f
       1.9162371 1.3080769 0.6965451 0.66197675
000260 7d 6e 1d 3f b4 21 04 40 00 00 80 3f 9e dc 4d 40
       0.61496717 2.064557 1.0 3.2165904
000270 a3 e4 1d 40 00 ea c2 3f cd 9a eb 3f cb 72 60 3f
       2.4670799 1.5227661 1.8406616 0.8767516
000280 96 76 50 40 87 7b af 3f 08 40 00 40 9a 42 77 40
       3.257238 1.3709573 2.0039082 3.86344
000290 da 65 61 40 1f 8d 16 40 b7 6c 84 3f 48 97 02 40
       3.5218415 2.3523633 1.0345677 2.0404835
0002a0 00 00 80 3f 56 55 fb 3f a1 35 c6 3e 75 fc a3 3e
       1.0 1.9635417 0.3871279 0.32028547
0002b0 0a d3 56 40 31 15 11 3f fb d6 41 40 a3 26 ee 3e
       3.3566308 0.5667296 3.0287464 0.46513852
0002c0 00 00 80 3f cc 84 e3 3e 13 09 3d 3f 94 30 22 40
       1.0 0.44437253 0.7384197 2.534215
0002d0 1e 77 08 3f 00 00 80 3f 00 00 80 3f 00 00 80 3f
       0.5330676 1.0 1.0 1.0
0002e0 7b a3 b0 3e 4b 1f 97 3f 05 7d a1 3f 23 ce 14 3f
       0.34499726 1.1806425 1.2616278 0.5812704
0002f0 2a cc c8 3f 7b 29 6f 40 cc 50 04 40 56 84 49 40
       1.5687306 3.7369068 2.0674314 3.1487021
000300 00 00 80 3f 6e ca 44 3f a3 f3 05 40 b9 7a ff 3f
       1.0 0.76871383 2.0929954 1.9959327
000310 e0 35 cf 3e 00 00 80 3f be 4f a6 3f 1d e2 bc 3e
       0.4047079 1.0 1.2993085 0.3689126
000320 75 96 08 40 92 da 80 40 19 49 00 bd d2 45 37 40
       2.1341832 4.026681 -0.03131971 2.8636365
000330 48 63 d6 3f b3 9d 4d 3f 7a a2 ba 3f 58 de e0 3f
       1.6749048 0.80318755 1.4580834 1.7567854
000340 0e cf 8e 3f 00 00 80 3f b1 8c 97 3f 6e ad b7 3f
       1.1156938 1.0 1.1839811 1.4349802
000350 b7 a9 05 40 12 cf 34 3f 00 00 80 3f 52 fd c5 3f
       2.0884836 0.70628464 1.0 1.5467932
000360 40 1e 3d 40 53 4d c7 3f 24 36 bd 3f 58 7c c4 3f
       2.9549713 1.5570472 1.4782147 1.5350447
000370 5a 88 46 40 00 00 80 3f db 14 9f 3f e1 89 fd 3e
       3.1020722 1.0 1.242824 0.49519256
000380 00 00 80 3f fd dd 36 40 dc 89 24 3f f4 9e 9a 3f
       1.0 2.857299 0.64272857 1.2079759
000390 0d f3 b5 3e c2 a2 bf 3f 74 a9 44 3f 00 00 80 3f
       0.35536996 1.4971545 0.76821065 1.0
0003a0 63 86 3a 3f fe b2 81 3f e2 bf a2 3f 23 8c 89 3f
       0.7286131 1.0132749 1.2714808 1.0745891
0003b0 2c 09 96 3f 02 a1 9a 3f 65 0b 1b 3f 7e 2d 57 3f
       1.1721549 1.2080386 0.6056426 0.8405379
0003c0 b2 f2 15 3f 7a 2e 0d 40 00 00 80 3f f4 ff a5 3f
       0.5857345 2.2059617 1.0 1.2968736
0003d0 3f 26 2f 40 4c b9 0a 40 31 24 5f 40 e6 13 41 40
       2.7367094 2.1675596 3.486584 3.0168395
0003e0 1a cb 5f 40 a7 ef ef 3f 21 1f 10 3f b9 dc 13 40
       3.4967713 1.8745011 0.562975 2.3103468
0003f0 28 ae d9 3e a0 f1 a7 3e 30 36 0a 40 79 e2 b6 bf
       0.42515683 0.32801533 2.1595573 -1.4287864

ensemble.0.module_list.0.input_quant.pre_transforms.0.bias f4 [784]
000000 22 77 aa bc 61 bf 49 3c 00 00 00 00 a8 ba a4 3a
       -0.02080876 0.012313695 0.0 0.0012567835
000010 90 5f 42 bc ff 07 97 3b 00 00 00 00 79 14 75 3d
       -0.011863604 0.0046091075 0.0 0.059833977
000020 9c e1 d9 3d 5b aa 39 3c 29 78 fc bc 7a c6 da bd
       0.10638735 0.01133212 -0.030819016 -0.10682388
000030 4c 4f 25 3f cd e7 74 bf ee c8 1d 3f 6d 21 23 3f
       0.6457412 -0.956662 0.6163472 0.6372288
000040 00 00 00 00 20 f0 a3 3c 23 f1 88 bc 87 f9 29 3e
       0.0 0.020011961 -0.016716545 0.16599093
000050 da dd 0b 3e 00 00 00 00 d2 99 d0 bd 00 7a 6f 39
       0.13658848 0.0 -0.10185589 0.00022838265
000060 00 00 00 00 80 e3 c1 3c b6 11 8d 3c 00 00 00 00
       0.0 0.02366805 0.01722036 0.0
000070 00 00 00 00 b6 ff 45 3c c9 ac a8 3d 85 94 b5 3a
       0.0 0.012084892 0.08236081 0.0013853466
000080 5f 36 c5 be 1f 69 23 3f 00 6a 08 3e 36 f4 1d 3f
       -0.38518044 0.6383228 0.13321686 0.6170076
000090 ab 66 91 bf f1 76 b6 bf 46 4e 73 bf 30 0b 7d bf
       -1.1359457 -1.4255048 -0.9504131 -0.98845196
0000a0 a4 44 19 3f 00 00 00 00 00 d0 70 bf 85 23 e2 be
       0.5987036 0.0 -0.9406738 -0.44167724
0000b0 75 3e 3d bf dd f0 28 3f cf ea 03 bf 96 59 98 bf
       -0.73923427 0.6599253 -0.51530164 -1.190234
0000c0 8f b7 0e bf 8e e7 8a bf 68 be 67 bf d4 2c ae 3e
       -0.5574884 -1.0851915 -0.9052491 0.34018576
0000d0 89 0e 9f 3e e7 1f 39 3d 38 de ea 3a 76 b6 6b 3b
       0.31065777 0.04519644 0.001791901 0.003596691
0000e0 00 00 00 00 00 00 00 00 5c b2 15 3f c0 77 7d bf
       0.0 0.0 0.5847528 -0.9901085
0000f0 00 00 00 00 c6 dd 9b bf 45 74 21 3f 00 00 00 00
       0.0 -1.2177055 0.6306804 0.0
000100 00 00 00 00 d6 3d 88 bd 8c b9 2d bf ba ea 11 bf
       0.0 -0.06652419 -0.6786125 -0.5699879
000110 af 24 bc bf 6a 08 37 bf 79 61 1a be 00 00 00 00
       -1.4698695 -0.71497214 -0.15076245 0.0
000120 29 19 62 be de 9c cc be a5 d6 8b bf 84 b1 38 3f
       -0.2207991 -0.3996343 -1.0924879 0.7214587
000130 b4 78 ce 3e 4f 5e 6a bf 00 00 00 00 60 00 42 be
       0.40326464 -0.91550153 0.0 -0.18945456
000140 ed 37 2d 3f 0f 95 77 bf 8a b9 40 bc 75 ab 8a 3d
       0.6766346 -0.9671182 -0.011762986 0.06770984
000150 00 00 00 00 00 00 00 00 26 6d 1d 3f 67 a2 3e bf
       0.0 0.0 0.6149467 -0.74466556
000160 64 39 26 3f 00 00 00 00 df 7c da bf 5c 29 1d 3f
       0.6493132 0.0 -1.7069358 0.61391234
000170 da 7a 0f bf 5f a5 3b 3f d9 bb c2 3c c6 26 c3 bf
       -0.5604683 0.7329921 0.023771213 -1.5246208
000180 f5 59 2c 3f 98 33 9a be 00 00 00 00 00 00 00 00
       0.67324764 -0.30117488 0.0 0.0
000190 d2 34 ec bd 00 00 00 00 f4 b3 3a 3f ab 7d 18 3f
       -0.11533512 0.0 0.72930837 0.59566754
0001a0 3a ec 6e 3d 53 41 06 bf 9d 34 ef bd a3 3c 6c bf
       0.058330752 -0.52443427 -0.11679957 -0.92280024
0001b0 f9 a3 da bf e0 78 73 bf 00 00 00 00 c9 df fd 3c
       -1.708129 -0.95106316 0.0 0.030990498
0001c0 9f 6d 9e 3b b0 f0 27 bf 95 c3 73 bf c3 20 76 bf
       0.004834845 -0.65601635 -0.9522031 -0.9614374
0001d0 cc a1 45 3f 1b 10 0a bf 5e fd cf be 00 00 00 00
       0.7720001 -0.53930825 -0.4062299 0.0
0001e0 22 8e 41 3f ba c6 b5 be 50 c6 c2 3e 2c 0c ac bf
       0.756075 -0.3550318 0.38041925 -1.3441215
0001f0 00 00 00 00 a3 7b f0 3d 95 46 d5 bd de 76 28 3f
       0.0 0.11742332 -0.10413853 0.65806377
000200 00 00 00 00 7f 0e 53 bf 61 82 66 3f 55 04 ab be
       0.0 -0.82443994 0.9004269 -0.33401743
000210 b4 96 79 bf 95 45 b9 bf ca 41 30 bf dc 75 1a 3f
       -0.9749558 -1.447436 -0.68850386 0.6033609
000220 11 b8 6c bf 76 aa 01 bf 6e 21 67 bf 1b 77 73 bf
       -0.92468363 -0.5065073 -0.90285385 -0.95103616
000230 88 45 d0 bb 8f f1 f6 bb 00 00 00 00 a1 19 8e bf
       -0.006355945 -0.0075361202 0.0 -1.1101571
000240 00 00 00 00 ff aa e3 bd 46 67 04 c0 af 9e 92 bf
       0.0 -0.11116599 -2.0688033 -1.1454676
000250 db b4 80 bf 92 03 2c bf 2c 51 39 bf 07 98 17 bf
       -1.0055193 -0.6719295 -0.72389483 -0.5921635
000260 01 94 09 bf e2 28 a0 3f 00 00 00 00 69 ef 9e 3f
       -0.5374146 1.2512476 0.0 1.2416812
000270 7f 92 9d 3f 1f db 8b 3f 69 12 56 3e 43 d9 6b bf
       1.2310332 1.0926245 0.2090546 -0.9212839
000280 f0 a7 c7 3e be e1 a1 3f 56 f6 6f bf a9 b4 e6 bd
       0.38995314 1.2647016 -0.93735254 -0.11264927
000290 d8 ae 02 bf 0c 16 0e bf 08 8c 90 be 26 80 71 bf
       -0.5104804 -0.5550239 -0.28231835 -0.94336164
0002a0 cd d7 1e bd 1c 7a 7b bf 8c 48 27 3f fc 7f 2a 3f
       -0.038780022 -0.982332 0.6534507 0.6660154
0002b0 77 d7 45 bf c3 bd 64 be f5 8b 36 be 10 8e 5c 3f
       -0.772819 -0.22338013 -0.17826827 0.8615427
0002c0 00 00 00 00 39 62 8c bf 4c 08 ba bf 43 cc 69 3f
       0.0 -1.0967475 -1.4533782 0.91327304
0002d0 7a 01 03 bf 00 00 00 00 00 00 00 00 00 00 00 00
       -0.5117413 0.0 0.0 0.0
0002e0 4d f8 88 3f ed a1 b1 3e 91 d1 55 be 89 bf 0b bf
       1.0700775 0.34693852 -0.20880724 -0.54589134
0002f0 7e aa 80 be 00 b6 29 3f 35 8a 65 be 36 9b ef 3c
       -0.25130075 0.66293335 -0.22416003 0.029248815
000300 00 00 00 00 79 5f 4d 3f 0a a5 81 bf b9 d9 7d bf
       0.0 0.80223805 -1.0128491 -0.99160343
000310 1f 50 16 3f 00 00 00 00 fb 3b eb be e4 09 32 3f
       0.58716005 0.0 -0.459442 0.6954634
000320 52 0d 62 be 58 09 1d bf e2 54 66 3f d8 2c 9d be
       -0.22075394 -0.6134238 0.8997327 -0.30698276
000330 14 ac 65 be e6 b4 ef be 65 4d 21 3e 92 07 ea 3e
       -0.22428924 -0.46817702 0.1575218 0.457089
000340 49 b3 f5 be 00 00 00 00 a0 29 50 bf f0 a3 40 3f
       -0.47988346 0.0 -0.81313515 0.7525015
000350 06 6a f0 3f f0 eb 1d be 00 00 00 00 c2 2d b3 bd
       1.8782356 -0.15422034 0.0 -0.08748962
000360 1e 71 8c 3f a1 da b9 be 43 5f de bf 0d 11 b8 be
       1.0972021 -0.36299613 -1.7372822 -0.3595051
000370 27 78 8a be 00 00 00 00 b3 cc 11 bc 84 a7 1b 3f
       -0.27044794 0.0 -0.008898902 0.60802484
000380 00 00 00 00 9e 4d 6a bf 24 b8 94 bf ff d5 91 bf
       0.0 -0.91524684 -1.1618695 -1.1393431
000390 c4 49 2e 3f 54 89 93 bf a7 6c 6e bf 00 00 00 00
       0.6808131 -1.1526284 -0.9313454 0.0
0003a0 22 fb 17 bf b6 06 b3 bf 86 9c 72 3f cc 03 6a 3e
       -0.59367573 -1.3986423 0.94770086 0.22853011
0003b0 7a 05 c8 3e d7 25 b5 3e 8d b7 97 be c0 59 63 3d
       0.39066678 0.35380432 -0.29632226 0.055505514
0003c0 e9 83 ac be 2d 70 95 3f 00 00 00 00 cb 63 b7 3e
       -0.3369439 1.1674858 0.0 0.35818323
0003d0 0c 61 9e 3f 3a f2 f0 3e 36 10 7e 3f 00 02 d5 3e
       1.2373366 0.47059804 0.99243486 0.41603088
0003e0 35 c4 21 3e 9e 69 af be aa b7 2e 3f dd 30 6c bf
       0.15797503 -0.34260267 0.68249 -0.9226206
0003f0 ef 9c 24 3f 73 92 20 3f 29 4f 15 bf d6 69 a5 bf
       0.6430196 0.62723464 -0.58323914 -1.2922924

ensemble.0.module_list.0.input_quant.pre_transforms.0.running_mean f4 [784]
000000 6e 32 d9 be 6e 32 d9 be 6e 32 d9 be 6e 32 d9 be
       -0.42421287 -0.42421287 -0.42421287 -0.42421287
000010 6e 32 d9 be 6e 32 d9 be 6e 32 d9 be 6e 32 d9 be
       -0.42421287 -0.42421287 -0.42421287 -0.42421287
000020 6e 32 d9 be 6e 32 d9 be 6e 32 d9 be 6e 32 d9 be
       -0.42421287 -0.42421287 -0.42421287 -0.42421287
000030 6e 32 d9 be 6e 32 d9 be 6e 32 d9 be 6e 32 d9 be
       -0.42421287 -0.42421287 -0.42421287 -0.42421287
000040 6e 32 d9 be 6e 32 d9 be 6e 32 d9 be 6e 32 d9 be
       -0.42421287 -0.42421287 -0.42421287 -0.42421287
000050 6e 32 d9 be 6e 32 d9 be 6e 32 d9 be 6e 32 d9 be
       -0.42421287 -0.42421287 -0.42421287 -0.42421287
000060 6e 32 d9 be 6e 32 d9 be 6e 32 d9 be 6e 32 d9 be
       -0.42421287 -0.42421287 -0.42421287 -0.42421287
000070 6e 32 d9 be 6e 32 d9 be 6e 32 d9 be 6e 32 d9 be
       -0.42421287 -0.42421287 -0.42421287 -0.42421287
000080 6e 32 d9 be 6e 32 d9 be 6e 32 d9 be 7f 30 d9 be
       -0.42421287 -0.42421287 -0.42421287 -0.42419812
000090 c6 25 d9 be 83 ba d8 be 47 84 d8 be 8b 69 d7 be
       -0.4241163 -0.42329797 -0.4228842 -0.4207271
0000a0 0c 24 d8 be ae 92 d8 be 06 c6 d7 be a5 a6 d6 be
       -0.42215002 -0.42299408 -0.42143267 -0.41924015
0000b0 30 de d6 be 15 1e d8 be 95 f1 d8 be 74 27 d9 be
       -0.4196639 -0.4221045 -0.42371812 -0.42412913
0000c0 f1 0c d9 be 64 2d d9 be 27 30 d9 be 46 32 d9 be
       -0.42392686 -0.42417443 -0.4241955 -0.42421168
0000d0 6e 32 d9 be 6e 32 d9 be 6e 32 d9 be 6e 32 d9 be
       -0.42421287 -0.42421287 -0.42421287 -0.42421287
0000e0 6e 32 d9 be 6e 32 d9 be 6e 32 d9 be 6e 32 d9 be
       -0.42421287 -0.42421287 -0.42421287 -0.42421287
0000f0 6e 32 d9 be 6e 32 d9 be a3 31 d9 be e1 07 d9 be
       -0.42421287 -0.42421287 -0.42420682 -0.42388824
000100 72 5d d7 be bc 7f d4 be 2a 24 d1 be f4 df cf be
       -0.4206348 -0.41503704 -0.40847903 -0.4060055
000110 4b 8a ce be 37 73 cc be 4d a1 c1 be f8 e0 bb be
       -0.40339884 -0.39931652 -0.37818375 -0.36695075
000120 aa ce bc be 24 9a bf be 85 f1 c5 be 74 91 cd be
       -0.36876422 -0.37422287 -0.38660827 -0.40150034
000130 71 30 d3 be 87 0d d6 be 6e 51 d8 be 24 f1 d7 be
       -0.41247895 -0.41807196 -0.42249626 -0.42176163
000140 67 31 d8 be 9d bc d8 be 6e 32 d9 be 6e 32 d9 be
       -0.4222519 -0.423314 -0.42421287 -0.42421287
000150 6e 32 d9 be 6e 32 d9 be 18 06 d9 be d2 27 d9 be
       -0.42421287 -0.42421287 -0.42387462 -0.42413193
000160 08 31 d9 be 81 13 d9 be 39 f9 d8 be 7b 19 d8 be
       -0.4242022 -0.42397693 -0.42377642 -0.4220694
000170 40 5c d4 be 97 84 cb be 44 7b bf be 18 b5 b7 be
       -0.4147663 -0.39749596 -0.37398732 -0.3588035
000180 cf 6d af be b8 fe a3 be 81 2c 93 be 24 8f 84 be
       -0.34263465 -0.32030272 -0.2874489 -0.25890458
000190 c2 a5 83 be b2 14 8a be c6 ef 9c be 58 4f b5 be
       -0.257124 -0.26968914 -0.30651683 -0.35412097
0001a0 f0 1d c3 be 95 d0 ca be 1d 2d d3 be 51 36 d5 be
       -0.38108778 -0.3961226 -0.41245356 -0.41643003
0001b0 8b 87 d7 be 1b fe d8 be 10 32 d9 be 6e 32 d9 be
       -0.420956 -0.42381367 -0.42421007 -0.42421287
0001c0 6e 32 d9 be 6e 32 d9 be c4 41 d8 be ca dd d8 be
       -0.42421287 -0.42421287 -0.42237675 -0.42356712
0001d0 92 ea d8 be f0 0d d8 be c5 ea d5 be e1 11 cf be
       -0.42366463 -0.42198133 -0.41780677 -0.40443328
0001e0 9d 9d bd be 0c e3 a2 be 65 ba 84 be 17 7d 41 be
       -0.37034312 -0.31813848 -0.25923458 -0.18895374
0001f0 9a 4e db bd 00 d6 0f bc db 5d 85 3d 9a 86 df 3d
       -0.107083514 -0.008779049 0.06512042 0.10914345
000200 d9 43 d0 3d 9b 5d 55 3d 1e ae 31 bd c7 fc 1d be
       0.10169191 0.052091222 -0.04337894 -0.15428458
000210 fb c1 74 be ec d0 9c be 48 90 b6 be 40 b6 c8 be
       -0.23902123 -0.30628145 -0.35656953 -0.39201546
000220 2b e3 d4 be d0 cb d7 be 3e c0 d8 be 5d 32 d9 be
       -0.41579565 -0.42147684 -0.4233417 -0.42421237
000230 6e 32 d9 be 6e 32 d9 be 0b ce d8 be 2c 21 d8 be
       -0.42421287 -0.42421287 -0.42344698 -0.42212808
000240 3c 84 d7 be 5e 10 d2 be e2 94 c9 be 96 d6 b1 be
       -0.42093074 -0.41028112 -0.393714 -0.3473403
000250 78 b2 87 be e6 ab 21 be 00 60 16 bd c0 16 d2 3d
       -0.26503348 -0.1578823 -0.036712646 0.102582455
000260 73 ca 94 3e 26 c1 ef 3e 3f 97 19 3f 1c 09 2c 3f
       0.29060706 0.46827048 0.5999641 0.672014
000270 89 11 26 3f 9e 01 0b 3f 25 f3 be 3e 59 8a 41 3e
       0.64870507 0.5429934 0.3729488 0.18900432
000280 c0 86 9c 3b 3c 2c 19 be 8a f0 7f be fa 7f a2 be
       0.0047768056 -0.1495828 -0.24994102 -0.31738263
000290 b5 34 c3 be a9 90 d4 be ff e0 d8 be 18 27 d9 be
       -0.3812615 -0.41516617 -0.42359158 -0.4241264
0002a0 6e 32 d9 be 6e 32 d9 be 86 89 d8 be d7 19 d7 be
       -0.42421287 -0.42421287 -0.42292422 -0.42011902
0002b0 0c 80 d2 be 63 2f c5 be c7 c4 ad be 91 92 84 be
       -0.41113317 -0.38512716 -0.33939192 -0.2589307
0002c0 2b 0e 04 be 52 28 15 3d 8e 9b 63 3e 5f f1 db 3e
       -0.1289603 0.036415406 0.22227308 0.4295759
0002d0 7b cb 30 3f 97 77 6a 3f 78 ec 8a 3f e7 13 93 3f
       0.69060487 0.9158873 1.0853415 1.1490449
0002e0 1b a2 8e 3f 0d 31 7e 3f 02 ad 49 3f ab 88 03 3f
       1.1143221 0.99293596 0.78779614 0.51380414
0002f0 c5 60 6e 3e 6e 85 b9 ba 10 57 32 be fd 85 96 be
       0.23279102 -0.0014154145 -0.17416024 -0.293991
000300 11 59 ba be 50 8c cf be ff 94 d7 be 1a c7 d8 be
       -0.36396077 -0.40536737 -0.42105862 -0.42339402
000310 6e 32 d9 be fe 2c d9 be 5d 86 d8 be 5d 46 d4 be
       -0.42421287 -0.4241714 -0.4229001 -0.41459933
000320 65 e3 c7 be 57 81 ac be 5c da 82 be 6a a9 07 be
       -0.39040676 -0.33692428 -0.2555722 -0.1324822
000330 94 bc ee 3c d5 4b 7e 3e 41 63 fb 3e a0 7d 3f 3f
       0.029142655 0.24833615 0.49099162 0.74801064
000340 48 b0 7e 3f e4 4e 96 3f aa 72 a2 3f c3 7b a6 3f
       0.99487734 1.1742826 1.2691243 1.3006519
000350 ca aa a6 3f 06 22 99 3f 5f fb 82 3f 02 71 45 3f
       1.3020871 1.1963508 1.0232962 0.7712556
000360 ea 65 e8 3e a1 a8 22 3e 2d 7e 9e bd 2f 89 73 be
       0.45390254 0.1588464 -0.0773891 -0.237828
000370 6f c1 ab be ae 94 c6 be d2 d8 d4 be a1 fc d8 be
       -0.33546016 -0.3878531 -0.4157167 -0.4238024
000380 6e 32 d9 be fe 09 d9 be 5c 2d d8 be 08 be cf be
       -0.42421287 -0.42390436 -0.42222106 -0.4057467
000390 33 79 bd be 49 8f 9b be 63 10 4c be 07 05 2d bd
       -0.3700653 -0.30382755 -0.19928126 -0.042241123
0003a0 b1 ec 30 3e 7d c9 e9 3e 7e 05 38 3f 70 d0 79 3f
       0.1727779 0.45661536 0.7188338 0.97583675
0003b0 12 ae 8e 3f 1a 88 92 3f bf a6 90 3f 5a ce 91 3f
       1.1146872 1.1447785 1.1300887 1.1391098
0003c0 a5 cd 94 3f c0 1a 94 3f ea d8 84 3f 8c e7 5f 3f
       1.1625258 1.1570663 1.0378697 0.8746269
0003d0 50 7d 15 3f ec 33 8a 3e cc fa c4 bc 9d 70 5e be
       0.58394337 0.26992738 -0.02404537 -0.21722646
0003e0 2d f1 ab be ab 39 c6 be c3 9f d4 be dd 2c d9 be
       -0.3358244 -0.38715872 -0.4152814 -0.4241704
0003f0 6e 32 d9 be 26 e4 d8 be 14 9b d7 be 77 03 ce be
       -0.42421287 -0.42361563 -0.42110503 -0.40237018

ensemble.0.module_list.0.input_quant.pre_transforms.0.running_var f4 [784]
000000 1f cf 52 25 1f cf 52 25 1f cf 52 25 1f cf 52 25
       1.8284772e-16 1.8284772e-16 1.8284772e-16 1.8284772e-16
000010 1f cf 52 25 1f cf 52 25 1f cf 52 25 1f cf 52 25
       1.8284772e-16 1.8284772e-16 1.8284772e-16 1.8284772e-16
000020 1f cf 52 25 1f cf 52 25 1f cf 52 25 1f cf 52 25
       1.8284772e-16 1.8284772e-16 1.8284772e-16 1.8284772e-16
000030 6b 4c 53 25 45 28 55 25 79 cf 52 25 1f cf 52 25
       1.8327224e-16 1.8488449e-16 1.8284891e-16 1.8284772e-16
000040 1f cf 52 25 1f cf 52 25 1f cf 52 25 1f cf 52 25
       1.8284772e-16 1.8284772e-16 1.8284772e-16 1.8284772e-16
000050 1f cf 52 25 1f cf 52 25 1f cf 52 25 1f cf 52 25
       1.8284772e-16 1.8284772e-16 1.8284772e-16 1.8284772e-16
000060 1f cf 52 25 1f cf 52 25 1f cf 52 25 1f cf 52 25
       1.8284772e-16 1.8284772e-16 1.8284772e-16 1.8284772e-16
000070 1f cf 52 25 1f cf 52 25 1f cf 52 25 1f cf 52 25
       1.8284772e-16 1.8284772e-16 1.8284772e-16 1.8284772e-16
000080 64 70 53 25 f5 3e 58 25 94 ff 1b 31 d5 48 4d 37
       1.8339412e-16 1.8756344e-16 2.2700748e-09 1.223591e-05
000090 d6 53 67 39 52 c3 0c 3b 80 b4 11 3b 32 2b 05 3c
       0.00022061108 0.0021478725 0.002223283 0.008127974
0000a0 19 b7 4f 3b 2b aa 53 3b 0e 29 dd 3b c1 d0 67 3c
       0.0031694828 0.0032297473 0.006749279 0.014148892
0000b0 df c0 42 3c 66 ad 85 3b 5a ef 57 3a 73 d4 3b 39
       0.011886804 0.0040795086 0.0008237265 0.00017912853
0000c0 db 50 c1 39 9a 59 14 38 30 5c 27 38 25 71 85 34
       0.0003687207 3.5369398e-05 3.990176e-05 2.4855504e-07
0000d0 1f cf 52 25 1f cf 52 25 1f cf 52 25 1f cf 52 25
       1.8284772e-16 1.8284772e-16 1.8284772e-16 1.8284772e-16
0000e0 1f cf 52 25 1f cf 52 25 91 0d 5b 2a 4e fb 2b 32
       1.8284772e-16 1.8284772e-16 1.9455814e-13 1.001065e-08
0000f0 40 99 a3 30 1c 5e 17 31 1a db ca 36 c2 09 c0 39
       1.1903367e-09 2.2026887e-09 6.045576e-06 0.00036628364
000100 b3 9e f9 3b d7 56 c5 3c 25 33 1b 3d 83 af 36 3d
       0.0076177954 0.02408926 0.037890572 0.044600975
000110 c4 ef 48 3d 66 b9 5c 3d bf f2 f0 3d dc f7 0c 3e
       0.049056783 0.053887747 0.1176505 0.13766426
000120 bc 0a 0b 3e 97 fa f9 3d cf 7b be 3d 33 ee 53 3d
       0.13578314 0.12205999 0.09300958 0.051740836
000130 fb 65 f5 3c 77 35 76 3c 8b b8 2b 3b 7a 46 9e 3b
       0.029955855 0.015027395 0.0026202525 0.004830179
000140 56 43 95 3b 6d f4 b9 3a 1f cf 52 25 1f cf 52 25
       0.004555146 0.0014187224 1.8284772e-16 1.8284772e-16
000150 1f cf 52 25 1f cf 52 25 97 a1 3d 39 ba 87 33 37
       1.8284772e-16 1.8284772e-16 0.00018084641 1.0700833e-05
000160 b2 d1 96 35 0e 68 06 3a f3 92 81 3a 7e 20 7d 3b
       1.12369e-06 0.00051271997 0.0009885713 0.0038624103
000170 8f 12 bc 3c 68 d1 86 3d 56 a6 03 3e f4 e8 1d 3e
       0.022958068 0.0658291 0.12856421 0.15420896
000180 80 ce 3d 3e 0b 65 76 3e ca e8 aa 3e 06 74 d0 3e
       0.18535805 0.24061982 0.3338073 0.4071352
000190 95 bd ce 3e 54 5e c5 3e 31 a1 90 3e 31 c6 2c 3e
       0.40379015 0.3854853 0.2824798 0.16872479
0001a0 04 f5 d3 3d 23 71 8e 3d 93 20 c0 3c 58 49 b7 3c
       0.103494674 0.06955173 0.023453033 0.02237384
0001b0 e2 9e e7 3b 90 96 c4 39 37 46 99 36 1f cf 52 25
       0.007068501 0.0003749621 4.5679294e-06 1.8284772e-16
0001c0 1f cf 52 25 2e d2 52 25 3b 17 28 3b 9b 03 7e 39
       1.8284772e-16 1.8285808e-16 0.0025648612 0.00024224671
0001d0 e5 94 97 3a 69 d9 96 3b 64 e4 28 3c ae fa 12 3d
       0.001156476 0.004603554 0.010308359 0.035883598
0001e0 07 4e ff 3d 96 0a 82 3e e0 fd cb 3e 46 80 0d 3f
       0.124660544 0.253987 0.3984213 0.55273855
0001f0 5a c0 38 3f bb cf 66 3f 50 f8 87 3f 76 f9 90 3f
       0.72168505 0.9016072 1.0622654 1.132613
000200 a2 aa 8c 3f 36 87 87 3f 47 f5 57 3f a8 3c 19 3f
       1.0989573 1.0588138 0.8435864 0.5985818
000210 31 31 e4 3e 4a 49 8f 3e b3 14 20 3e 65 32 8d 3d
       0.4456878 0.27985603 0.15632896 0.068943776
000220 06 b6 7d 3c 21 89 ad 3b c5 0c 0c 3b 5e fe fa 34
       0.015485292 0.005295888 0.0021369916 4.6751205e-07
000230 1f cf 52 25 1f cf 52 25 81 87 a5 39 a3 93 fd 3a
       1.8284772e-16 1.8284772e-16 0.0003157221 0.0019346367
000240 18 fc d1 3b 1b df 04 3d 26 95 8c 3d 83 8a 39 3e
       0.0064082257 0.032439332 0.06864385 0.18119244
000250 c5 30 bd 3e a1 3a 1f 3f 6b ea 5f 3f 04 d1 93 3f
       0.3695127 0.62198836 0.8746707 1.1548162
000260 7a 1c b7 3f 38 ed d9 3f bd 71 e5 3f b2 df ec 3f
       1.4305565 1.7025518 1.7925335 1.8505766
000270 bd f5 e7 3f 1f 1e dd 3f e6 45 c1 3f 1a 91 a0 3f
       1.8121868 1.7274817 1.5099456 1.2544281
000280 4f 4b 70 3f c7 13 21 3f a8 04 d6 3e 95 a9 85 3e
       0.9386491 0.629208 0.41800427 0.26105943
000290 e3 12 bd 3d 4a 54 94 3c 49 bd 37 3a cc 42 ae 38
       0.09232118 0.018106598 0.00070091017 8.3094084e-05
0002a0 1f cf 52 25 2a 56 70 31 1c 22 0b 3b 38 9a 19 3c
       1.8284772e-16 3.4973575e-09 0.0021230048 0.0093751475
0002b0 e4 22 d2 3c 50 8d b2 3d d6 46 48 3e ae 04 c8 3e
       0.025651403 0.087183595 0.19558272 0.3906607
0002c0 f2 8c 30 3f 0e 93 85 3f 33 73 ab 3f 78 46 cb 3f
       0.68965065 1.0435503 1.3394531 1.588088
0002d0 68 c0 ec 3f 14 a1 fb 3f 29 39 01 40 0f b7 02 40
       1.8496218 1.9658532 2.0191138 2.042423
0002e0 2b 86 00 40 6d 44 02 40 73 27 fd 3f 7b 01 db 3f
       2.008189 2.0354264 1.9777664 1.7109827
0002f0 08 a3 ac 3f 19 c0 6b 3f 76 38 15 3f 60 3c 98 3e
       1.3487253 0.9208999 0.5828928 0.29733562
000300 c6 c8 0c 3e 5d 9f 1d 3d 2a b2 c8 3b 6c 5a c9 3a
       0.13748464 0.03848206 0.0061247544 0.0015362031
000310 e9 d4 52 25 3e be 08 38 d6 fe ca 3a 00 f8 a4 3c
       1.8286733e-16 3.2602104e-05 0.0015487324 0.020137787
000320 95 30 aa 3d 92 c1 5f 3e a6 d3 cf 3e dc a8 2d 3f
       0.083100475 0.21851185 0.40591162 0.67835784
000330 2f f0 7f 3f 67 1c af 3f 54 f2 cf 3f d8 da ed 3f
       0.99975866 1.3680543 1.6245828 1.8582411
000340 ef f7 f9 3f 75 06 fd 3f cf b6 fc 3f e2 8a fb 3f
       1.9528788 1.9767596 1.9743289 1.9651759
000350 3d 83 fd 3f f6 89 00 40 b0 2c 01 40 67 54 f5 3f
       1.9805676 2.0084205 2.0183525 1.9166383
000360 6b 26 cf 3f 4a 18 9c 3f 72 56 4a 3f fe 78 d9 3e
       1.6183599 1.2194912 0.79038155 0.42475122
000370 3e b0 52 3e 2e b4 a0 3d d3 de 53 3c 5f 27 66 3a
       0.20575044 0.078468665 0.012931543 0.00087796705
000380 bb de e5 25 01 35 3b 3a 16 a9 75 3b d8 d4 38 3d
       3.9876096e-16 0.0007141382 0.0037484816 0.04512486
000390 91 f3 f4 3d b1 70 96 3e 43 f6 0b 3f 5d 2a 60 3f
       0.11960519 0.29382852 0.5467264 0.8756464
0003a0 de f4 9f 3f bd f0 cf 3f a7 a4 ef 3f bf 5b fc 3f
       1.2496603 1.6245342 1.8722123 1.9715499
0003b0 ce 1e 01 40 25 51 fe 3f 93 1e fb 3f 4b a7 fb 3f
       2.0175052 1.9868513 1.9618706 1.9660429
0003c0 30 c0 00 40 e8 5e fd 3f bb bd 00 40 e7 2f 01 40
       2.0117302 1.9794588 2.0115802 2.0185487
0003d0 e2 14 e7 3f c0 f9 b3 3f 95 33 6c 3f a3 c5 f1 3e
       1.8053248 1.4060593 0.9226621 0.47221097
0003e0 e0 a0 54 3e 2c c9 af 3d 6f c5 9f 3c d6 d5 48 38
       0.20764494 0.08583292 0.019503323 4.7882866e-05
0003f0 f8 17 b0 2a b2 a6 e2 39 41 2c b0 3b 57 2f 45 3d
       3.1280512e-13 0.00043230277 0.005376369 0.04814085

ensemble.0.module_list.0.fc.weight f4 [256, 6]
000000 20 94 92 be 9d 21 df 3f 8c 0c 21 bf 9e fe b4 bf
       -0.28628635 1.7432133 -0.6290977 -1.4140203
000010 ce 60 70 3f 17 c5 64 bf 65 4b 1c bf 6e df 0e 3f
       0.9389771 -0.89363235 -0.6105254 0.55809677
000020 f3 16 e0 3f b8 33 eb 3e be 1e c0 bf 3a 99 08 3e
       1.7507004 0.45937896 -1.5009382 0.13339701
000030 71 7c fb bf 16 36 d6 be ce 42 7c be 2c 0f 1b 3f
       -1.9647352 -0.4183814 -0.24634859 0.60570025
000040 56 9c 43 be ea 96 25 3f 28 de 06 c0 2a d0 e8 bf
       -0.19102606 0.646834 -2.1073093 -1.8188527
000050 a3 68 d9 3e 2c 74 03 3f bc 89 73 3e 33 f1 89 bd
       0.42462644 0.5134914 0.2378301 -0.06735458
000060 38 ea df 3d fe 54 3b be 78 2c e9 3e db 9b 07 40
       0.109333456 -0.1829414 0.4554174 2.1188877
000070 00 11 3e bf 80 ed 0c 3f cf 9e e1 be 7f 2e 43 bf
       -0.7424469 0.55049896 -0.44066474 -0.7624282
000080 38 20 e3 3f e5 86 db bd 0d bc dc bf f3 b2 15 be
       1.7744207 -0.107190885 -1.7244889 -0.14619045
000090 ad 02 ec 3d 0a 9d 7c 3e d3 21 10 bf ae c8 6e 3f
       0.11523948 0.2466928 -0.5630161 0.9327496
0000a0 1c 9f 22 40 62 eb 29 40 f7 c8 1e bf 3b 91 99 be
       2.5409613 2.6549916 -0.620254 -0.29993615
0000b0 8a ea 84 3f 9f c1 04 40 2d f3 85 3f 23 87 93 be
       1.0384076 2.0743177 1.0464836 -0.2881404
0000c0 8d 99 84 bd e3 57 28 bd ac c1 d5 bf e3 29 5d 3e
       -0.064746 -0.04109944 -1.6699729 0.2159801
0000d0 db d7 e2 bf 77 94 94 3e 23 74 d5 3e 12 db be 3f
       -1.7722124 0.2901952 0.41690168 1.4910605
0000e0 97 71 5f 3f 93 9d 24 be 19 8d 1f bf 7a 52 c3 be
       0.872827 -0.16075735 -0.6232467 -0.38148862
0000f0 01 f4 aa 3e 36 72 53 3e 32 42 8c 3f a8 fb fa bf
       0.33389285 0.20649037 1.0957701 -1.9608049
000100 a2 bf 0b bd 89 11 6b 3e 0f 8a c6 3e f3 32 33 bb
       -0.034118302 0.22955908 0.38777205 -0.00273436
000110 86 ee 40 c0 da 87 46 c0 80 1c 4a 3f 38 cc e9 3e
       -3.0145583 -3.1020417 0.7894974 0.4566362
000120 42 27 ad bc 35 14 9b 3f cf fb 5d bf 55 7c fa bf
       -0.021136884 1.2115542 -0.86712354 -1.9569193
000130 b0 48 a8 3d c0 b0 02 bf 93 4a 47 3e bd a3 2a be
       0.08216989 -0.5105095 0.19462042 -0.16664024
000140 5b ed 9b bf 5c 33 9d 3f 6d 77 54 be f7 d7 ac bf
       -1.218181 1.2281299 -0.20748682 -1.3503407
000150 3d 78 81 be 99 ac bc 3d 77 f2 9a be 67 c6 bf 3e
       -0.25287047 0.09212608 -0.3026311 0.37456056
000160 4f 5e 75 3e 48 43 78 3e ee 5b a9 bf c6 2d 2d 3e
       0.23961757 0.24244416 -1.323118 0.16911992
000170 5d 3a a5 bd 67 f6 c1 be 18 f1 7d 3f 32 c2 69 3f
       -0.080677725 -0.37883303 0.99196005 0.91311944
000180 1f bb 30 c0 4a 35 7b 3f 63 02 42 3f 1b c6 d9 bf
       -2.761421 0.9812819 0.7578489 -1.7013582
000190 99 0d c0 be 06 54 34 bf 91 d8 44 bf ce 19 e6 bf
       -0.37510374 -0.7044071 -0.76892954 -1.7976625
0001a0 8b 9f 89 bf d9 69 48 3f ce 9c fc be 7d 94 db 3c
       -1.0751814 0.7828651 -0.49338382 0.026804203
0001b0 9c 50 2e bf f9 c7 c2 bf 43 13 d0 3f 9d 28 30 3f
       -0.6809175 -1.5217277 1.6255878 0.6881197
0001c0 34 1c 8d 3f 47 a8 2c 3e d0 d1 c5 be 5f 03 6c 3f
       1.1024232 0.16861068 -0.38636637 0.92192644
0001d0 03 97 46 bf f1 fa 10 3f 48 c3 05 bc 8a 40 f9 3d
       -0.77574176 0.56632906 -0.008164234 0.12170513
0001e0 55 4f c0 3d 65 63 2b 3d f6 02 5d bd 05 65 31 c0
       0.093901314 0.041842837 -0.053957902 -2.7717907
0001f0 f0 e5 07 bf 4a 4e c0 3f ff 7c 6c 3e fb e2 91 be
       -0.5308523 1.5023892 0.23094557 -0.28493485
000200 42 db d8 3d 68 b4 2f be 62 79 dd bf 6d 69 1a bd
       0.10588695 -0.17158663 -1.7302668 -0.037698198
000210 d1 c3 a8 be 4d b5 09 bd 88 aa fd 3f 2a e3 88 be
       -0.32961896 -0.033620168 1.9817667 -0.26735812
000220 c8 95 1b c0 d6 bb 90 3f 34 6c 0d be 19 98 f9 be
       -2.431017 1.1307323 -0.13810807 -0.48748854
000230 98 e3 9f 3f fe ec af bf 60 a7 e4 bd d6 7f 84 3d
       1.2491331 -1.3744199 -0.11164737 0.06469695
000240 e7 40 17 3e c0 a8 69 bf a5 5b 9e bf 60 83 41 3f
       0.14770852 -0.9127312 -1.2371718 0.7559109
000250 e4 3b 01 3f 45 a2 56 3b ec 15 9a bc da cb f2 bd
       0.5048201 0.0032750529 -0.018809281 -0.11855288
000260 35 0e 55 3e a5 f4 45 c0 ea fb 53 3f cb a6 b3 3e
       0.20806201 -3.093057 0.82806265 0.3508819
000270 48 6a cc be d9 3c b4 3f b3 26 0f c0 2b 88 fe be
       -0.39924836 1.4081069 -2.236737 -0.49713263
000280 27 11 ef 3f dc ca 89 3f ce 4d bd be 52 ed 08 3d
       1.867711 1.0765033 -0.36973423 0.03342945
000290 b5 68 87 be 55 eb 1f be e4 6b a9 3c 88 56 a6 be
       -0.26447073 -0.15617116 0.02068133 -0.32487893
0002a0 b2 a3 76 bf 61 00 d1 bf 86 8c 0e bf ed 88 5c 3d
       -0.9634353 -1.6328241 -0.5568317 0.05384152
0002b0 db 52 ea bd cc ba 66 3d 4b 2c 09 c0 58 ee 7a 3d
       -0.11441585 0.056330487 -2.1433284 0.06126246
0002c0 4f 4d 99 3d 0c a2 e8 3e 57 df 0a 40 8b 16 27 40
       0.074854486 0.45436132 2.1698816 2.610751
0002d0 e3 81 91 bd 88 08 d9 bf e6 96 92 bd 1c 69 55 be
       -0.07104852 -1.6955729 -0.07157688 -0.20840877
0002e0 fc 06 eb bf fd 20 55 bf 4e ab 39 bf e2 aa ce 3f
       -1.8361506 -0.8325346 -0.72527015 1.6145899
0002f0 ca 92 e3 bd f5 1e 4b bf 17 42 ba 3e d9 7e cb 3f
       -0.11111982 -0.7934411 0.36378548 1.5898086
000300 cf 1c 99 3f 79 82 4d bf 63 b4 e5 3d bd dd 30 3f
       1.1961917 -0.8027721 0.11216047 0.69088346
000310 3d a0 fd 3b 79 26 22 be 0b 77 e5 3d c8 89 52 bf
       0.007740049 -0.15834989 0.11204346 -0.8224149
000320 bf 5e 7e 3f 56 4e 72 3e 0e 62 9c 3f fa ae 1f be
       0.9936332 0.23662695 1.2217424 -0.15594092
000330 b0 95 20 c0 16 14 50 bb 03 99 82 bd a7 61 55 40
       -2.5091362 -0.0031750253 -0.06376841 3.3340852
000340 bc 0e c0 bd 87 f2 32 be 1a c0 c2 3d 2a 01 56 be
       -0.0937781 -0.1747533 0.09509297 -0.20898882
000350 71 c8 66 3e 46 1d 78 40 4a 63 63 bd 00 6c 14 3d
       0.225374 3.8767867 -0.05551461 0.03623581
000360 59 0f a6 3d 8e 11 5a 3f e8 9b 15 bf 17 02 90 3f
       0.08108396 0.85183036 -0.5844102 1.1250638
000370 8c 87 40 bf df eb 8a bc 65 dd 25 bd 5b c8 5d 3e
       -0.7520683 -0.016958175 -0.04049434 0.21658461
000380 82 06 db 3f 58 a5 a7 bd 3e 07 37 be b3 18 97 bf
       1.7111361 -0.08185834 -0.17873856 -1.1804413
000390 18 99 a4 bf 8c 6a c1 3f 83 0b 9c bf 23 f0 d9 be
       -1.285922 1.511064 -1.2191013 -0.42566022
0003a0 d8 68 04 40 3e 31 2c 3e 61 bf ce be 7d 4b 37 be
       2.0688992 0.1681566 -0.40380386 -0.1789989
0003b0 e4 f8 00 3e 24 21 8c bf b9 d8 ef 3f e1 7d bb be
       0.12594944 -1.0947614 1.8738014 -0.36619475
0003c0 09 a1 6e be bb f3 19 40 a0 d9 c0 3f 83 4b 13 3f
       -0.23303618 2.4055011 1.5066414 0.57537097
0003d0 81 c9 bd be fd d6 b6 3c c8 3f f1 be 1c 20 d4 3f
       -0.37067798 0.022319311 -0.47118974 1.6572299
0003e0 f8 56 bd bc be d3 2a bf c0 54 b5 be 88 d5 3d 3e
       -0.023112759 -0.6672934 -0.35416222 0.18538487
0003f0 4f d8 38 be d7 37 26 3e 15 c7 5e 40 e7 cb 96 3f
       -0.18051265 0.16232239 3.480901 1.1780976

ensemble.0.module_list.0.fc.bias f4 [256]
000000 01 30 bc 3d f1 79 de 3d 01 74 c2 3d 5e d6 83 3d
       0.091888435 0.10863102 0.09494782 0.06437372
000010 b4 99 aa 3c 11 84 51 3d 1f 89 10 3d 8f 5e 90 be
       0.020825244 0.05115134 0.03528702 -0.28197142
000020 30 af 6e be 5b 4b 96 3d 48 35 5b bc 99 4f 33 3e
       -0.23309016 0.07338592 -0.013379402 0.17510833
000030 8d 54 b5 bd c0 26 bc bc c1 b0 70 bc f6 23 3d bc
       -0.088540174 -0.022967696 -0.014690579 -0.011544218
000040 54 98 ea bc 07 c9 45 be 2e 93 96 bd a9 56 6a be
       -0.028637089 -0.19314967 -0.07352291 -0.2288462
000050 df 66 8f 3b 7f ee 6c be f3 d9 e8 3c ac 68 72 3e
       0.004376277 -0.23137854 0.028424239 0.23672742
000060 db 26 bc 3d c2 66 2f be f6 85 0b 3a 2a d7 60 3c
       0.091870986 -0.17129043 0.0005322391 0.013723174
000070 22 c8 b5 bd 1a 05 56 3d 13 8e bc 3d 7c 40 86 3d
       -0.08876063 0.05225096 0.09206786 0.06555268
000080 0c ea b5 bd fa 00 f7 3b 3e 79 bb 3d b0 61 a3 b9
       -0.088825315 0.007537958 0.091539845 -0.00031162566
000090 10 54 aa 3d ba 8d 98 bd 90 0b 4e bd a9 df c0 bd
       0.08316815 -0.07448907 -0.050303996 -0.0941766
0000a0 70 d7 69 bc 4c 7d 4e 3e dd 34 89 bd 1d e0 9c 3e
       -0.014272556 0.20164984 -0.06699536 0.30639735
0000b0 de 06 d0 3d 35 47 73 3e 02 fa 39 3c 92 b5 3f 3c
       0.1015756 0.23757632 0.01135111 0.011701005
0000c0 34 14 ae 3d a5 87 e9 3d 66 42 e1 bc b0 34 38 bc
       0.08499947 0.11402825 -0.027497482 -0.01124303
0000d0 b1 9c 58 bd eb 0d 9a 3c c5 0b ce 3c 68 e5 ee 39
       -0.052883808 0.018805465 0.025152097 0.00045565818
0000e0 5c 30 f1 3d 00 50 03 b9 be d8 70 bd fc 82 28 be
       0.11776802 -0.00012522936 -0.05880045 -0.16456217
0000f0 c4 a7 24 be 72 39 4f bc 89 21 40 bd 14 87 c2 3d
       -0.16079623 -0.012647973 -0.04690698 0.0949842
000100 37 79 cc 3c 38 30 68 3d ca 33 e7 ba 93 ab e5 3c
       0.024960143 0.05668661 -0.0017639336 0.028035915
000110 ab 11 8f ba 01 5f ec bc 4f 7f f9 3d 19 ef 82 3d
       -0.00109153 -0.028853895 0.12182485 0.063932605
000120 d7 54 0c 3e 2f d1 bd bd 38 ac 22 3c dc f9 68 3c
       0.13704239 -0.09268414 0.009928755 0.014219727
000130 b8 c2 a7 be f7 12 5e 3d 6d 0f 9d bc c7 2b fc bd
       -0.32765746 0.054217305 -0.019172395 -0.12313037
000140 23 47 3c 3c bc 73 f8 bd 81 24 03 3d 0b ef ac bc
       0.01149157 -0.121314496 0.032017235 -0.021110078
000150 91 fb ba be a8 82 64 3c c3 56 a6 bc 2a aa ae 3e
       -0.36520055 0.0139471665 -0.020305043 0.341142
000160 15 85 ab bc d7 29 3e be 68 e8 1c 3d 76 bb 93 3d
       -0.020937482 -0.18570648 0.038307577 0.0721349
000170 8e 35 be 3d f5 f8 0f be 0c c1 83 3d 07 7a b2 3c
       0.092875585 -0.14059813 0.06433305 0.021786703
000180 df 80 cd bc cd 73 b0 3d 4b db d2 bd 41 33 f5 3d
       -0.025085865 0.08615837 -0.10295733 0.119726665
000190 05 04 6f bc 2c ec b4 bd 64 34 6d bc a3 54 52 3c
       -0.014588361 -0.08834109 -0.014477823 0.012837562
0001a0 1b 7b 9b bc dd de 0c bd 4b 6d f9 bc 7f c9 86 3d
       -0.0189796 -0.034392226 -0.030447623 0.06581401
0001b0 59 36 36 3d 42 cd c9 3e bc 33 82 3c 5d e6 86 3c
       0.044485424 0.39414412 0.01589381 0.016467268
0001c0 61 9b 1c be d9 d9 05 be 8c 52 ed 3b c6 b9 a9 be
       -0.15293647 -0.13071384 0.0072425064 -0.33149546
0001d0 3e ab 84 bc cc d1 18 3e 1a ee 91 3c 3c bb 8e 3c
       -0.016194936 0.14923781 0.017813731 0.017423265
0001e0 17 63 3b bd b8 b3 96 3c 02 01 0b 3e 4a 14 72 3c
       -0.045748796 0.018396243 0.13574603 0.014775345
0001f0 3c d3 e5 bc 64 6e 54 be d3 7c 18 3c a5 2e f4 3d
       -0.028054826 -0.20745236 0.009307104 0.11922959
000200 b0 e4 49 bd ed 8c c1 3b 4c 7b f2 be 7a a3 8d bd
       -0.04929036 0.0059066922 -0.47359693 -0.06915946
000210 0d 4e ae 3e 0e 23 fe 3e 54 5c db bd 19 2b 1c 3d
       0.34043923 0.4963612 -0.107109696 0.03812704
000220 b6 c5 9c bc 71 62 2f be 0a ab b0 3c 81 dc 3a 3e
       -0.019137245 -0.17127396 0.021565933 0.18248178
000230 59 2f 95 bd 93 20 62 bd 9d a7 fe 3d 27 f7 fb 3b
       -0.072844215 -0.055206846 0.124343134 0.007689375
000240 89 43 64 3d 87 dd d0 bc f5 26 7a 3d 38 63 2c bd
       0.05572847 -0.025496257 0.06107231 -0.04208681
000250 73 2e e6 3d e0 83 c3 bc 3a 2e b4 3d 52 40 e4 3c
       0.11239328 -0.023866594 0.087978795 0.027862702
000260 f5 16 15 bd 33 3d 43 bd fa 0f 2c bd 40 a5 5b be
       -0.036398847 -0.047665786 -0.042007424 -0.21449757
000270 62 39 30 be 21 0c 52 bd f0 a0 95 bd 49 b6 8f bd
       -0.1720939 -0.0512811 -0.07306087 -0.0701719
000280 31 7d 31 bd 7f 74 ad 3c 42 b9 0f be 6d b8 4b 3d
       -0.043332282 0.021173714 -0.14035514 0.04973643
000290 e1 aa df bc 12 31 40 3b bc 2f 01 3d c9 19 0b be
       -0.027303161 0.0029326123 0.031539664 -0.13584055
0002a0 4b 87 76 3d ba 92 87 bc 87 41 13 be ad f2 45 bc
       0.06018762 -0.016549457 -0.14380465 -0.012081784
0002b0 45 4e 0c bc 85 0a 3c 3e 00 40 b6 3d 22 6c 5c bd
       -0.008563583 0.18363388 0.08898926 -0.05381406
0002c0 cc 7d a4 be 7d d7 1e 3d 31 25 54 bc 1b ee 0c be
       -0.32127225 0.038779724 -0.01294832 -0.13762705
0002d0 d7 ce 35 3d 0b 0a 05 3e ab 59 ae bc 4e c5 3f bc
       0.04438671 0.12992112 -0.021282991 -0.011704756
0002e0 bc 2b 76 3d 70 ef 9c bd 9b 90 42 bd e0 3a 95 3e
       0.060100302 -0.076628566 -0.047501188 0.2914648
0002f0 62 7a 9f bd 61 7d b0 bd 36 ac 83 bb b6 87 37 3e
       -0.077870145 -0.08617664 -0.004018332 0.17922863
000300 45 19 53 3e 25 4f f6 bd 41 46 5f bd 11 2b 80 3d
       0.20615108 -0.12026814 -0.05451036 0.06258214
000310 6d 52 19 3d ad ea 99 3d 3a dc b0 3d aa 6b 88 bd
       0.037432123 0.07515464 0.08635755 -0.0666116
000320 ef d9 c3 3c 5d 02 8b 3b ff 6d a4 3d cd d4 76 3e
       0.02390763 0.004242225 0.080287926 0.24104615
000330 4d 97 13 3c cd 44 ea 3c 83 79 e6 3d b0 a1 e2 3b
       0.009008241 0.02859726 0.11253645 0.0069162473
000340 d2 5f f4 b9 53 b9 6e bc 94 2e 47 3d 0c 40 cc bd
       -0.00046610698 -0.014570552 0.048628405 -0.099731535
000350 f5 2d a8 bc 14 96 18 3e 58 23 b1 3d 96 ff 9f 3d
       -0.020529727 0.14901 0.086493194 0.07812421
000360 08 bd 5f 3d c3 32 27 bd ea 04 7f bd e5 a7 b3 3b
       0.054623634 -0.040819895 -0.062260546 0.005482661
000370 93 0f 8b bc f6 94 1d 3c 28 bf 66 bd b4 f8 c4 3d
       -0.0169752 0.009618035 -0.056334645 0.09617749
000380 c7 b3 99 be 6b 61 ca bb ec 8e 01 bd 73 23 86 3d
       -0.30019972 -0.006176164 -0.03163044 0.0654973
000390 4e 37 ef bd f5 88 2f 3b bd 76 ff 3c b5 c6 9a bc
       -0.116804704 0.0026784514 0.031184549 -0.018893579
0003a0 c8 31 9a 3d 4c f1 44 3c 09 c5 a9 be 05 15 d4 3c
       0.07529026 0.01202042 -0.33158138 0.02588893
0003b0 fc 10 93 3d a7 c4 2d be 5c 3d 85 3d e6 85 8b 3d
       0.07180974 -0.16969548 0.06505844 0.068126485
0003c0 81 b2 3c 3d df 66 8d 3d 81 19 dd bf 4b 33 8c 3d
       0.046068672 0.06904387 -1.7273408 0.06845721
0003d0 1e c4 5e bd ad 00 30 3d 00 84 9d bb b4 90 3e bd
       -0.05438625 0.042969394 -0.0048069954 -0.04652472
0003e0 63 08 06 be 15 bf 1a 3e 79 35 37 3c f5 22 ea bd
       -0.13089137 0.15111955 0.0111821825 -0.11432449
0003f0 85 0c 52 3e c1 0b 4b bd 46 8a 85 bd fa e1 3f 3d
       0.20512588 -0.049571756 -0.06520514 0.046846367

ensemble.0.module_list.0.output_quant.pre_transforms.0.weight f4 [256]
000000 60 92 21 3f 67 15 cf 3f 1d ab e6 3f 29 29 71 3f
       0.63113976 1.6178406 1.802097 0.9420343
000010 74 82 7c 3f ca bb 4f 3f 07 84 8f 3f 92 06 fc 3f
       0.98636556 0.8114592 1.1212167 1.9689505
000020 9d 75 07 40 89 de 5c 3f 81 61 a2 3f 1e 2d 57 3f
       2.1165535 0.8627706 1.2686006 0.8405322
000030 24 f3 41 3f 4a 3c a2 3f 00 00 80 3f 45 83 ab 3f
       0.7576163 1.2674649 1.0 1.3399435
000040 f7 a1 f3 3e 9f 5a d9 3f a2 21 90 3f 67 54 37 3f
       0.47584507 1.698078 1.1260264 0.7161316
000050 65 0f d6 3f 7e 69 dd 3f 53 74 6e 3f 48 3c 7e 3f
       1.6723448 1.7297819 0.93146247 0.9931073
000060 9f 83 76 3f c8 7b fd 3f bb 62 0e 40 00 00 80 3f
       0.9629459 1.98034 2.224776 1.0
000070 04 dd 2c 40 58 58 25 3f 81 eb e1 3f 8d 46 65 3f
       2.7009897 0.64587927 1.7649995 0.89560777
000080 fc 9c b1 3f e0 69 c8 3f a3 83 98 3f 7b b9 01 40
       1.3876033 1.565731 1.1915172 2.0269458
000090 94 dd 8f 3f 1b be 59 3f c9 cc 6f 3f 5b c4 dc 3e
       1.1239495 0.850557 0.9367185 0.43118557
0000a0 17 67 8c 3f 34 a4 53 3f 6c fb 40 40 a4 4b 1a 40
       1.096896 0.8267243 3.0153456 2.4108667
0000b0 b4 42 2b 3f cb cf 08 40 ac 3e a8 3f 27 0c 44 3f
       0.66898656 2.1376827 1.3144126 0.76581043
0000c0 b8 63 97 3f 35 08 c2 3f b6 67 4e 3f a4 e5 82 3f
       1.1827307 1.5158755 0.80627 1.0226331
0000d0 08 09 a5 3f cc 47 d0 3f 9d f3 a9 3f f6 5f af 3f
       1.2893381 1.6271911 1.327747 1.370116
0000e0 98 72 84 3f 00 00 80 3f cd 35 5e 3f 7d c0 a6 3f
       1.0347471 1.0 0.86800843 1.3027493
0000f0 b9 8e 82 3f 31 e8 34 40 91 46 5e 3f 28 e8 5d 3f
       1.0199805 2.8266718 0.86826426 0.8668237
000100 00 00 80 3f 81 c7 82 3f 25 63 01 40 09 03 bb 3f
       1.0 1.0217134 2.0216763 1.4610301
000110 69 75 08 40 00 00 80 3f 78 ac 6e 3f 00 5e 63 3f
       2.1321661 1.0 0.93231916 0.8881531
000120 2a 02 86 3f f5 5d a6 3f 5f f9 25 40 00 00 80 3f
       1.046941 1.2997423 2.5933454 1.0
000130 52 3a c4 3f 10 82 66 3f 27 bc e1 3f 10 a0 7e 3f
       1.5330298 0.9004221 1.7635545 0.99462986
000140 ae b1 99 3f 27 db 04 40 6b 5d a1 3f a5 63 cd 3f
       1.2007349 2.075876 1.2606634 1.6046034
000150 3e 43 09 40 b0 7c 96 3f 03 f8 8b 3f ca b2 d8 3f
       2.1447291 1.1756802 1.0935062 1.6929562
000160 2f 59 86 3f fa 3a 62 3f 06 46 4d 3f 8a e2 e7 3f
       1.0495967 0.8837124 0.8018497 1.8116009
000170 ec 1a 8d 3f 1f d0 4f 40 86 b3 96 3f 00 00 80 3f
       1.1023841 3.2470777 1.1773536 1.0
000180 ac 0e 8d 3f c2 3b 2b 3f 09 9d e4 3f 27 09 79 3f
       1.1020103 0.6688806 1.7860423 0.9727959
000190 00 00 80 3f 7c 63 1e 40 a2 fc ab 3f 20 df 9b bc
       1.0 2.474822 1.3436472 -0.019027293
0001a0 03 0c 44 3f 3f c4 7d 3f 5d 6c b8 3f b3 08 23 3e
       0.7658083 0.9912757 1.440807 0.15921287
0001b0 73 91 c5 3f 46 97 a9 3f 00 00 80 3f c2 0f f1 3f
       1.5435013 1.324929 1.0 1.8832934
0001c0 6f 91 e0 3f 23 af 12 40 3c ab 9b 3f 74 a5 4c 3f
       1.7544383 2.2919395 1.2161632 0.7993996
0001d0 00 00 80 3f 34 72 90 3f 00 00 80 3f 6a 04 d4 3f
       1.0 1.1284852 1.0 1.6563847
0001e0 63 3f 52 3f 2b 8b 12 40 08 e6 9f 3f ba b6 89 3f
       0.8212797 2.2897441 1.2492075 1.0758889
0001f0 00 00 80 3f 0b b9 d1 3f 2c 63 81 40 8a 16 1a 40
       1.0 1.6384596 4.043356 2.4076257
000200 b5 6f 99 3f 73 c5 89 3f 3e dd 3e 40 6a d6 54 3f
       1.1987215 1.0763382 2.9822536 0.8313967
000210 8b 99 56 3f e7 fb 88 3f ec cf 30 40 3a a6 c4 3f
       0.8382804 1.0701874 2.7626905 1.5363228
000220 63 fb ea 3f 14 d5 8b 3c 10 2d f0 3f 79 19 d4 3f
       1.8357967 0.017069377 1.8763752 1.6570274
000230 d1 33 d3 3f 0a 05 96 3f 20 8b 55 3f 3a 27 54 3f
       1.6500188 1.1720288 0.8341541 0.82872355
000240 70 34 a0 3f a5 03 3a 3f 0a cb b7 3f 80 39 50 3f
       1.2516003 0.7266181 1.4358838 0.8133774
000250 1a 62 74 3f 2f 8a 16 3f 72 67 c7 3f 5e 44 49 40
       0.9546219 0.588046 1.5578444 3.1447978
000260 67 e2 ab 3f be ce 77 3f 45 7d 66 3f 6b a7 42 3f
       1.3428468 0.9679984 0.90034896 0.7603671
000270 4c 2c c4 3f 54 6a b7 3f 08 e0 01 40 9a c4 d2 3f
       1.5326018 1.4329324 2.0292988 1.6466248
000280 24 1a aa 3f c4 f6 3f 3f 85 5b b6 3f 67 e4 39 3f
       1.3289227 0.7498591 1.424668 0.7261414
000290 1a da 85 3f 11 44 d4 3f 2a 8f 6c 40 9d 56 be 3f
       1.0457184 1.6583272 3.696238 1.4870182
0002a0 d3 45 4c 3f 00 00 80 3f 86 5e 81 3f 72 75 b1 3f
       0.79794043 1.0 1.0106971 1.3863966
0002b0 00 00 80 3f 2b b7 02 40 53 ff cf 3f 7a 9c b7 3f
       1.0 2.0424297 1.6249794 1.4344628
0002c0 dc f9 72 40 b3 a9 e1 3e 3d bd 8e 3f 46 45 67 40
       3.7965002 0.44074783 1.1151501 3.613603
0002d0 94 7c 48 40 80 3b dc 3f ed 93 b1 3f 00 00 80 3f
       3.1326036 1.7205658 1.3873268 1.0
0002e0 59 54 04 40 24 77 c9 3f b6 b8 95 3f 79 e9 05 40
       2.0676482 1.5739484 1.1696994 2.092375
0002f0 9d 08 f9 3f c2 6a 88 3f 07 f7 9b 3f 27 b5 95 3f
       1.9455754 1.065758 1.2184762 1.1695908
000300 96 8c b0 3f ec 96 a1 3f df 61 45 40 b4 87 d2 3f
       1.3792903 1.2624183 3.0840986 1.6447663
000310 33 a1 e9 3f 1e c3 4a 3f 37 08 20 3f 8e fd af 3f
       1.8252319 0.79203975 0.62512535 1.3749254
000320 01 c5 04 40 77 01 15 40 e2 a3 81 3f b0 2f b2 3f
       2.0745242 2.3282144 1.0128138 1.3920803
000330 69 2e 4d 3f c9 37 ac 3f 51 ea 06 40 ab 1d 17 3f
       0.8014894 1.3454524 2.1080515 0.59029645
000340 8f e3 6e 3f 00 00 80 3f 1f 2e 9e 3f e0 82 2f 3f
       0.93315977 1.0 1.2357825 0.68559074
000350 00 00 80 3f 3e 59 33 40 8c 15 bd 3f 93 e1 7f 3f
       1.0 2.802322 1.47722 0.99953574
000360 5e 98 a1 3f 03 aa 44 3f b7 78 a0 3f 00 00 80 3f
       1.2624624 0.7682192 1.2536839 1.0
000370 00 00 80 3f b9 fa b7 3f 4d 48 60 3f fe d3 9a 3f
       1.0 1.437339 0.8761032 1.2095945
000380 8f 15 ec 3f 50 80 34 40 00 00 80 3f 4a fb d9 3f
       1.8444079 2.8203316 1.0 1.7029812
000390 fa 98 8a 3f bf db ae 3f 68 39 e7 3f e8 14 92 3f
       1.0827935 1.3660811 1.8064394 1.141263
0003a0 6a 23 56 3f 72 93 e1 3f 74 f9 fe 3f ce f9 b5 3f
       0.8364779 1.7623122 1.9919877 1.4216859
0003b0 d7 1c ed 3f 87 cf 45 40 e9 b6 81 3f 08 9e 97 3f
       1.8524426 3.0907915 1.0133945 1.1845102
0003c0 de fa 47 3f 4b 36 b1 3f f9 e1 84 3f 66 f4 a9 3f
       0.7811717 1.3844694 1.0381461 1.327771
0003d0 79 e4 cc 3f 6e 21 9d 3f 48 15 ae 3f 49 ef 15 40
       1.6007224 1.2275827 1.3600245 2.3427298
0003e0 cb 8e c1 3f a2 c2 ea 3f bc ee 55 3f 07 d6 fa 3f
       1.5121702 1.8340647 0.83567405 1.9596566
0003f0 bb 35 10 40 b7 7f 81 3f 25 98 6b 3f 0e 7f 33 3d
       2.2532794 1.01171 0.9202903 0.04382234
