examples/jet_substructure/adaboost/adaboost_small_independent_ensemble_size32/best_accuracy.pth (torch, 172247 bytes, 100 tensors)

adaboost_labels f4 [5, 5]
000000 00 00 80 3f 00 00 80 be 00 00 80 be 00 00 80 be
       1.0 -0.25 -0.25 -0.25
000010 00 00 80 be 00 00 80 be 00 00 80 3f 00 00 80 be
       -0.25 -0.25 1.0 -0.25
000020 00 00 80 be 00 00 80 be 00 00 80 be 00 00 80 be
       -0.25 -0.25 -0.25 -0.25
000030 00 00 80 3f 00 00 80 be 00 00 80 be 00 00 80 be
       1.0 -0.25 -0.25 -0.25
000040 00 00 80 be 00 00 80 be 00 00 80 3f 00 00 80 be
       -0.25 -0.25 1.0 -0.25
000050 00 00 80 be 00 00 80 be 00 00 80 be 00 00 80 be
       -0.25 -0.25 -0.25 -0.25
000060 00 00 80 3f
       1.0

model.module_list.0.input_quant.pre_transforms.0.weight f4 [16]
000000 e2 4c fb 3e 62 e9 75 3f 23 80 8e 3f 4c 2b 96 3f
       0.49082094 0.9605924 1.1132854 1.1731963
000010 cc 64 55 3f ee 93 63 3f 37 2a 80 3f 8b 99 62 3f
       0.8335693 0.888976 1.0012883 0.8851554
000020 3d 4c 3f 3f 85 7c 40 3f 3c fb 70 3f de 4f 1d 3f
       0.74725705 0.7519 0.94133353 0.6144999
000030 b0 83 3b 3f 23 43 78 3f 42 82 1d 40 7b 84 54 3f
       0.73247814 0.9697744 2.4610753 0.8301465

model.module_list.0.input_quant.pre_transforms.0.bias f4 [16]
000000 3d 54 71 3e 03 50 2c 3e 6b 61 26 3e 6e eb 4e be
       0.2356729 0.16827397 0.162481 -0.20206997
000010 1d 43 42 be ab b5 7f 3e 31 18 44 3d 91 b3 24 3e
       -0.18970914 0.24971645 0.047874633 0.16084124
000020 1f 57 a9 bc e4 d2 2d be 38 f2 19 3e 28 55 08 3e
       -0.020671425 -0.1697498 0.15033805 0.13313735
000030 3e bd a1 3e 98 85 ed 3c 72 f7 9e be 84 f2 41 be
       0.31589693 0.028994367 -0.3104816 -0.18940169

model.module_list.0.input_quant.pre_transforms.0.running_mean f4 [16]
000000 d3 5f 54 3b 22 1b d8 ba a4 15 36 ba 44 23 72 ba
       0.0032405748 -0.0016487578 -0.0006945974 -0.00092368224
000010 f8 03 eb ba 37 77 09 bb e6 f6 0c bc 9f 33 4d bc
       -0.001793026 -0.0020975599 -0.008603787 -0.012524514
000020 e6 f6 0c bc 65 4c 1a bc 6f 80 d7 bb 16 94 0a bc
       -0.008603787 -0.009417628 -0.00657659 -0.008458158
000030 71 7a 23 bc 25 b2 47 bc aa 36 10 ba 19 aa 01 bc
       -0.009977923 -0.012188469 -0.00055013096 -0.00791409

model.module_list.0.input_quant.pre_transforms.0.running_var f4 [16]
000000 b9 85 7e 3f fb d1 81 3f 17 56 7f 3f bd f7 7f 3f
       0.99422795 1.0142206 0.9974074 0.99987394
000010 a8 21 80 3f 13 bd 7e 3f 60 97 7f 3f a7 de 7b 3f
       1.0010271 0.99507254 0.99840355 0.98386616
000020 60 97 7f 3f da 44 80 3f 92 f7 80 3f 30 a6 80 3f
       0.99840355 1.0021012 1.0075552 1.0050716
000030 77 c9 80 3f fd 91 7e 3f b7 09 80 3f 50 d9 7a 3f
       1.0061482 0.9944151 1.0002965 0.9798784

model.module_list.0.fc.weight f4 [64, 16]
000000 e2 91 d0 bd 6b b7 7d 3e 37 50 22 be c1 0e 66 be
       -0.10184075 0.24777 -0.15850912 -0.22466566
000010 34 13 6b 3e 86 4a 9b bc d5 6a 1e bd 10 ba f2 bd
       0.22956544 -0.018956434 -0.0386761 -0.11851895
000020 bd 26 e5 bd 57 cb 24 be 79 e8 e5 bb 8a 27 ce bd
       -0.11189029 -0.16093193 -0.0070162383 -0.10066135
000030 45 23 7e 3e d0 c9 f1 bc 78 23 71 3d ca e7 18 be
       0.24818142 -0.029515177 0.058871716 -0.1493217
000040 5d fc 2b 3c 27 27 29 bd 79 a8 63 3a c5 75 0a be
       0.01049718 -0.041297104 0.0008684467 -0.13521488
000050 f7 6e 84 bd 7f 83 9c bc 74 a2 17 3e c4 22 38 bd
       -0.06466477 -0.019105671 0.14808065 -0.04495503
000060 fc 41 35 3e 2f ec 64 3e f5 4a 4a be 9d 8b 29 bb
       0.17700952 0.22355722 -0.19755156 -0.002587057
000070 bd 90 a8 bd 51 be 4a 3e 95 0e 07 be af 8f d8 3d
       -0.08230732 0.19799162 -0.13189156 0.105742805
000080 d5 4e 5b be e1 0e 43 be ed 53 48 3e 79 51 7b be
       -0.21416791 -0.19048645 0.19563265 -0.24542798
000090 11 eb 5e 3d a2 8f 99 3d 0b bd be 3b 77 11 c8 3b
       0.054423396 0.07498099 0.0058208755 0.0061055976
0000a0 21 38 01 be f3 b5 44 be 72 33 1d be 00 4a 75 bd
       -0.12619068 -0.19210033 -0.15351656 -0.059885025
0000b0 3e 07 77 3e 5b 2f c8 bd 86 08 14 3c 42 9f 9a bd
       0.24123856 -0.09774657 0.009035235 -0.07549907
0000c0 cb b1 c3 3c fc 50 72 3e 7f a6 4b bc 95 04 2b be
       0.02388849 0.23663706 -0.0124298325 -0.16700967
0000d0 c3 48 5c be 50 fd eb bd 7f 94 5e 3e 95 63 e7 bd
       -0.21512131 -0.11522925 0.21736334 -0.11298291
0000e0 de 97 9d be 07 04 06 bc 10 2a 71 3c 4e 13 73 3e
       -0.30779928 -0.008179671 0.014719501 0.23737833
0000f0 93 d2 45 3d 5b 92 c8 3c e8 aa 52 be fd 49 a2 bd
       0.048296522 0.02448385 -0.20573008 -0.079242684
000100 9f 53 00 bd 4b e3 c6 bb 86 71 91 3d c5 0c e9 3d
       -0.031329747 -0.006069576 0.07101731 0.11379389
000110 67 cd f9 3b c7 92 fa 3c da 9f 53 3d 25 c3 66 3e
       0.007623363 0.030587567 0.05166612 0.22535379
000120 34 78 bb bc 3a ee 4c 3e 5c 2f 70 be 03 6b be 3d
       -0.022884466 0.20012751 -0.23455566 0.092977546
000130 61 f5 de bb 44 1d 94 be 0d 01 24 3d b9 a1 e3 3d
       -0.006804154 -0.28928578 0.040040065 0.111148305
000140 fd 37 00 be e5 45 dc bd b9 52 dc 3d 3d f1 e2 3d
       -0.12521358 -0.10755519 0.107579656 0.11081169
000150 81 6f 82 be 12 18 56 bd cb b2 c2 bc 63 f5 40 3e
       -0.25475696 -0.05226905 -0.023766896 0.18843608
000160 73 0d 28 3e 22 8e 85 bd bf 19 8a bd 8d 1d ac bc
       0.1641138 -0.0652125 -0.06743192 -0.021010185
000170 a1 14 7d be e6 45 16 3c 35 c3 45 3e 9c 9a 6c 3e
       -0.247149 0.0091719385 0.19312747 0.23105854
000180 15 8f 2c 3d dc b8 b4 3d 80 a6 f2 3c 49 9c a3 3d
       0.04212864 0.08824322 0.029620409 0.079887934
000190 62 d7 4e 3d 66 65 16 3e 28 f6 2c 3e ff cc 85 bc
       0.050498374 0.14687118 0.16890776 -0.016333101
0001a0 81 e6 78 be 4d 28 68 be ad 60 67 3c 72 1c 17 be
       -0.2430668 -0.22671624 0.01412217 -0.14756945
0001b0 33 6f c8 bd 01 c2 05 be 3a 32 25 be 73 4a 5f 3e
       -0.097868346 -0.13062288 -0.16132441 0.21805744
0001c0 1a c1 91 bd 0b 9b c6 3c 82 53 16 be af d9 2c be
       -0.07116909 0.024243852 -0.14680293 -0.16879915
0001d0 5f 52 bf bc 9c 1a 4d be 87 c4 72 be 4f 15 0c bd
       -0.023354707 -0.20029682 -0.23707782 -0.03420001
0001e0 30 2b f2 3d 59 03 61 3d 3a e2 53 3e 2f 4f 5e 3e
       0.118246436 0.054934833 0.20691767 0.21709894
0001f0 42 a6 12 3e 49 51 a0 3d 1b c3 fe bd a4 c6 37 3e
       0.14321235 0.07828004 -0.12439557 0.17946869
000200 3a ba d5 3d 40 be 71 be 98 7e 3b 3e 44 e4 50 be
       0.104359105 -0.23607731 0.1831001 -0.20399576
000210 70 35 6a 3d 5c 5d 54 3e 76 16 d9 3d 9d 2d 61 be
       0.05717987 0.20738739 0.10599987 -0.21990056
000220 1f b5 81 3d 64 00 39 3d c7 16 7f 3d 94 da 36 bc
       0.06333374 0.04516639 0.06227758 -0.0111605115
000230 f4 da 13 be 4a 21 e9 bd 44 b3 3a bd a3 7e 44 3e
       -0.14438993 -0.113833025 -0.045581117 0.19188933
000240 ce b0 75 3e cb 12 81 bd 29 13 a6 bd 98 61 76 3d
       0.23993227 -0.063024126 -0.08109123 0.060151666
000250 4f ef 5e be c7 27 03 3e bf cf fe bd bc 59 31 be
       -0.21770976 0.12808143 -0.12441968 -0.17319387
000260 99 a9 63 be 5c 53 52 3e 0a f4 73 3e 48 c4 e9 3d
       -0.22232665 0.20539612 0.23823562 0.11414391
000270 cf 47 7d bd 96 af 55 3e 75 05 26 bd 63 50 c9 bd
       -0.06183606 0.20867762 -0.040532548 -0.09829786
000280 0b c8 87 bd f3 36 69 3e bd 50 48 be 56 bf 76 be
       -0.06629952 0.22774868 -0.19562049 -0.24096426
000290 d5 51 ef 3d 6a 65 4b 3e 82 f6 56 be 45 bf 24 be
       0.1168553 0.19862905 -0.20992473 -0.16088589
0002a0 5b 44 a0 3a 1d d1 a7 3d 0d ef 2c 3e 45 dc ff bd
       0.0012227403 0.08194182 0.16888066 -0.12493185
0002b0 36 a6 f4 bd 42 bc 52 3d ab 3f 3c 3e b4 18 2f bc
       -0.11945765 0.051449068 0.18383662 -0.010687042
0002c0 94 ae 30 bd 6a 52 c3 bd e0 b2 70 3e 24 39 31 be
       -0.04313524 -0.095372036 0.23505735 -0.17306954
0002d0 ca f6 8f be 85 55 63 3e c9 b0 da 3c 61 0f 04 be
       -0.28117973 0.22200592 0.026695626 -0.12896492
0002e0 0a 86 75 be 7e 5d 18 bd b0 0f 73 3c e4 d7 b7 bc
       -0.23976913 -0.037198536 0.014835283 -0.022441812
0002f0 00 64 f3 3c 86 e6 b2 3d 09 70 7e 3e 74 08 36 3d
       0.02971077 0.08735375 0.24847426 0.044441655
000300 36 f2 d3 bd 37 73 84 bd 5b c4 9f be cb 4a ca bc
       -0.103489324 -0.06467288 -0.31204495 -0.024693867
000310 b0 58 31 3e 35 d6 0c 3e 11 38 42 be 61 12 1a 3d
       0.17318988 0.13753588 -0.189667 0.037615184
000320 46 26 16 bd 88 b7 76 bd aa bb 38 3e c8 7a b6 3d
       -0.036657594 -0.060233623 0.18040338 0.089101374
000330 2a b3 f7 bd c8 52 70 be 7e e5 39 be 86 bd 54 3e
       -0.1209472 -0.23469079 -0.1815395 0.20775422
000340 4f a3 03 be 57 5a fd 3d 9c 8a b2 bd ff b3 42 3e
       -0.12855266 0.123707466 -0.08717844 0.19013976
000350 28 74 37 3e d2 14 20 3e ed f2 ab bd a9 e3 df 3d
       0.17915404 0.15632942 -0.08395944 0.109320946
000360 82 e4 16 3e 65 42 e0 bd 2e 9e 90 bd 31 ec 1e 3e
       0.14735606 -0.10950164 -0.070614204 0.15519787
000370 7a b9 71 3e 95 2f 63 bd 06 83 91 3d 05 72 1f 3e
       0.2360591 -0.0554653 0.07105069 0.15570839
000380 cf 9c 47 3e ec ad 36 3d 71 18 5d 3e f9 6e 61 be
       0.19493411 0.04459946 0.21591355 -0.22014989
000390 90 44 72 be 63 a6 fd 3d 7f a0 e6 3c 9d 11 20 3d
       -0.23658967 0.123852514 0.028152702 0.039079297
0003a0 01 77 5f 3d 4f b3 8d 3c 5e 9b 14 be c0 b1 f0 bc
       0.05455685 0.017297415 -0.14512393 -0.029381633
0003b0 0b 92 ca 3c b2 49 4e 3d 6b bb c3 bd 32 e4 15 3e
       0.024727842 0.05036325 -0.095572315 0.14637831
0003c0 d6 fa 98 bd 00 12 8a 3d ab 8d bd 3c 71 d5 60 3e
       -0.07469718 0.067417145 0.023138842 0.21956421
0003d0 f2 d3 d1 3c 23 0c 49 be 3d ec a5 3c c3 06 21 3e
       0.025613759 -0.19633536 0.020254249 0.15725236
0003e0 61 d1 03 3e 34 80 31 3e 96 50 19 bd 1a 1f 55 3d
       0.1287284 0.17334062 -0.03743037 0.052031614
0003f0 2f 5e 01 3b 19 ea 04 bd 59 e6 a4 bd 9b da d4 3e
       0.0019739976 -0.032449815 -0.08051748 0.41573033

model.module_list.0.fc.bias f4 [64]
000000 78 4a 83 3d 8d b6 15 3e 7a 2c 12 bd 3d 12 d2 3d
       0.06410688 0.14620419 -0.035686947 0.10257385
000010 1c a7 c7 bc b9 db 3a 3e e2 43 29 be 0e 0e e3 3b
       -0.024371676 0.1824788 -0.16529801 0.0069291657
000020 22 7d 48 3e 68 75 d3 bd b9 c1 31 be e2 b7 c0 bd
       0.19578984 -0.10325128 -0.17359056 -0.09410073
000030 8d dc 44 bd 29 50 65 be 6c ca 6c 3e c1 d3 a1 3d
       -0.048061896 -0.2239386 0.23124093 0.07901717
000040 0d e9 1d be eb 6a 10 3e 96 92 13 3e c1 3f 9a 3b
       -0.15420933 0.14103286 0.14411387 0.004707307
000050 c1 84 32 be 6e 6b 2b be 02 34 f2 bd c8 f7 2a be
       -0.17433454 -0.167402 -0.11826326 -0.16696084
000060 64 ea 09 3e a8 7c 9b 3d 13 ef 36 be a3 fe b2 bc
       0.13468319 0.07592136 -0.17864637 -0.021849936
000070 1e 2e 32 3e 4f 2c 24 3e 74 d7 6b be ba 5e 7a be
       0.17400405 0.16032527 -0.23031408 -0.24450198
000080 d2 93 fb 3d 01 a7 1c be 6b 1d ad bd a2 c4 6d 3e
       0.12284054 -0.15298082 -0.08452877 0.2321954
000090 c9 b0 49 be f8 86 a4 bd a0 18 a7 3c 51 20 a7 3c
       -0.19696344 -0.08033556 0.020397484 0.020401152
0000a0 26 54 6d bd a0 1f a2 bd 8c ac fe bd 51 3c d8 bd
       -0.05794158 -0.07916188 -0.124352545 -0.105583794
0000b0 56 29 2e be 0d 93 3e 3c 4c 0d eb bd db 76 64 bd
       -0.17007956 0.011631739 -0.114771456 -0.055777412
0000c0 23 61 5f be dd 22 2a bd ac 70 11 3e 8f 22 0e be
       -0.21814398 -0.041537154 0.14203137 -0.1388037
0000d0 89 72 a2 3d 52 38 ab be e9 54 86 ba 8e 59 a0 3d
       0.07932002 -0.33441406 -0.0010248694 0.07829581
0000e0 8c a8 ea bd ee db f1 3d c0 35 99 3c a5 67 6c be
       -0.11457929 0.118095264 0.018702388 -0.23086412
0000f0 f8 6b 70 3e 35 ea 20 be dc de 0d 3e 50 56 c9 bc
       0.23478687 -0.15714343 0.13854545 -0.02457729

model.module_list.0.fc.mask.mask f4 [64, 16]
000000 00 00 00 00 00 00 80 3f 00 00 00 00 00 00 00 00
       0.0 1.0 0.0 0.0
000010 00 00 00 00 00 00 00 00 00 00 00 00 00 00 00 00
       0.0 0.0 0.0 0.0
000020 00 00 80 3f 00 00 00 00 00 00 00 00 00 00 00 00
       1.0 0.0 0.0 0.0
000030 00 00 00 00 00 00 80 3f 00 00 00 00 00 00 00 00
       0.0 1.0 0.0 0.0
000040 00 00 00 00 00 00 80 3f 00 00 00 00 00 00 00 00
       0.0 1.0 0.0 0.0
000050 00 00 00 00 00 00 80 3f 00 00 00 00 00 00 00 00
       0.0 1.0 0.0 0.0
000060 00 00 00 00 00 00 00 00 00 00 00 00 00 00 00 00
       0.0 0.0 0.0 0.0
000070 00 00 00 00 00 00 00 00 00 00 00 00 00 00 80 3f
       0.0 0.0 0.0 1.0
000080 00 00 00 00 00 00 80 3f 00 00 00 00 00 00 00 00
       0.0 1.0 0.0 0.0
000090 00 00 00 00 00 00 00 00 00 00 00 00 00 00 80 3f
       0.0 0.0 0.0 1.0
0000a0 00 00 00 00 00 00 00 00 00 00 00 00 00 00 00 00
       0.0 0.0 0.0 0.0
0000b0 00 00 80 3f 00 00 00 00 00 00 00 00 00 00 00 00
       1.0 0.0 0.0 0.0
0000c0 00 00 00 00 00 00 00 00 00 00 80 3f 00 00 00 00
       0.0 0.0 1.0 0.0
0000d0 00 00 00 00 00 00 00 00 00 00 00 00 00 00 00 00
       0.0 0.0 0.0 0.0
0000e0 00 00 80 3f 00 00 80 3f 00 00 00 00 00 00 00 00
       1.0 1.0 0.0 0.0
0000f0 00 00 00 00 00 00 00 00 00 00 00 00 00 00 00 00
       0.0 0.0 0.0 0.0
000100 00 00 00 00 00 00 00 00 00 00 00 00 00 00 00 00
       0.0 0.0 0.0 0.0
000110 00 00 00 00 00 00 00 00 00 00 00 00 00 00 00 00
       0.0 0.0 0.0 0.0
000120 00 00 00 00 00 00 00 00 00 00 00 00 00 00 00 00
       0.0 0.0 0.0 0.0
000130 00 00 80 3f 00 00 80 3f 00 00 80 3f 00 00 00 00
       1.0 1.0 1.0 0.0
000140 00 00 00 00 00 00 00 00 00 00 00 00 00 00 00 00
       0.0 0.0 0.0 0.0
000150 00 00 80 3f 00 00 80 3f 00 00 00 00 00 00 00 00
       1.0 1.0 0.0 0.0
000160 00 00 00 00 00 00 80 3f 00 00 00 00 00 00 00 00
       0.0 1.0 0.0 0.0
000170 00 00 00 00 00 00 00 00 00 00 00 00 00 00 00 00
       0.0 0.0 0.0 0.0
000180 00 00 00 00 00 00 00 00 00 00 00 00 00 00 00 00
       0.0 0.0 0.0 0.0
000190 00 00 00 00 00 00 00 00 00 00 00 00 00 00 80 3f
       0.0 0.0 0.0 1.0
0001a0 00 00 00 00 00 00 00 00 00 00 80 3f 00 00 00 00
       0.0 0.0 1.0 0.0
0001b0 00 00 00 00 00 00 00 00 00 00 80 3f 00 00 00 00
       0.0 0.0 1.0 0.0
0001c0 00 00 00 00 00 00 00 00 00 00 00 00 00 00 80 3f
       0.0 0.0 0.0 1.0
0001d0 00 00 80 3f 00 00 00 00 00 00 80 3f 00 00 00 00
       1.0 0.0 1.0 0.0
0001e0 00 00 00 00 00 00 00 00 00 00 00 00 00 00 00 00
       0.0 0.0 0.0 0.0
0001f0 00 00 00 00 00 00 00 00 00 00 00 00 00 00 00 00
       0.0 0.0 0.0 0.0
000200 00 00 00 00 00 00 00 00 00 00 00 00 00 00 00 00
       0.0 0.0 0.0 0.0
000210 00 00 80 3f 00 00 00 00 00 00 00 00 00 00 00 00
       1.0 0.0 0.0 0.0
000220 00 00 00 00 00 00 00 00 00 00 00 00 00 00 00 00
       0.0 0.0 0.0 0.0
000230 00 00 80 3f 00 00 00 00 00 00 00 00 00 00 80 3f
       1.0 0.0 0.0 1.0
000240 00 00 80 3f 00 00 00 00 00 00 00 00 00 00 00 00
       1.0 0.0 0.0 0.0
000250 00 00 00 00 00 00 00 00 00 00 00 00 00 00 00 00
       0.0 0.0 0.0 0.0
000260 00 00 00 00 00 00 00 00 00 00 00 00 00 00 80 3f
       0.0 0.0 0.0 1.0
000270 00 00 00 00 00 00 00 00 00 00 80 3f 00 00 00 00
       0.0 0.0 1.0 0.0
000280 00 00 00 00 00 00 00 00 00 00 00 00 00 00 00 00
       0.0 0.0 0.0 0.0
000290 00 00 80 3f 00 00 00 00 00 00 00 00 00 00 00 00
       1.0 0.0 0.0 0.0
0002a0 00 00 80 3f 00 00 00 00 00 00 00 00 00 00 00 00
       1.0 0.0 0.0 0.0
0002b0 00 00 80 3f 00 00 00 00 00 00 00 00 00 00 00 00
       1.0 0.0 0.0 0.0
0002c0 00 00 00 00 00 00 80 3f 00 00 00 00 00 00 00 00
       0.0 1.0 0.0 0.0
0002d0 00 00 80 3f 00 00 00 00 00 00 00 00 00 00 00 00
       1.0 0.0 0.0 0.0
0002e0 00 00 00 00 00 00 00 00 00 00 00 00 00 00 00 00
       0.0 0.0 0.0 0.0
0002f0 00 00 00 00 00 00 80 3f 00 00 00 00 00 00 00 00
       0.0 1.0 0.0 0.0
000300 00 00 00 00 00 00 00 00 00 00 80 3f 00 00 00 00
       0.0 0.0 1.0 0.0
000310 00 00 00 00 00 00 00 00 00 00 00 00 00 00 80 3f
       0.0 0.0 0.0 1.0
000320 00 00 00 00 00 00 00 00 00 00 00 00 00 00 00 00
       0.0 0.0 0.0 0.0
000330 00 00 80 3f 00 00 00 00 00 00 00 00 00 00 00 00
       1.0 0.0 0.0 0.0
000340 00 00 00 00 00 00 00 00 00 00 00 00 00 00 00 00
       0.0 0.0 0.0 0.0
000350 00 00 00 00 00 00 80 3f 00 00 80 3f 00 00 00 00
       0.0 1.0 1.0 0.0
000360 00 00 00 00 00 00 00 00 00 00 00 00 00 00 00 00
       0.0 0.0 0.0 0.0
000370 00 00 00 00 00 00 80 3f 00 00 00 00 00 00 00 00
       0.0 1.0 0.0 0.0
000380 00 00 00 00 00 00 00 00 00 00 00 00 00 00 00 00
       0.0 0.0 0.0 0.0
000390 00 00 00 00 00 00 80 3f 00 00 80 3f 00 00 80 3f
       0.0 1.0 1.0 1.0
0003a0 00 00 00 00 00 00 00 00 00 00 00 00 00 00 00 00
       0.0 0.0 0.0 0.0
0003b0 00 00 00 00 00 00 00 00 00 00 00 00 00 00 00 00
       0.0 0.0 0.0 0.0
0003c0 00 00 00 00 00 00 80 3f 00 00 00 00 00 00 00 00
       0.0 1.0 0.0 0.0
0003d0 00 00 00 00 00 00 00 00 00 00 00 00 00 00 00 00
       0.0 0.0 0.0 0.0
0003e0 00 00 00 00 00 00 00 00 00 00 00 00 00 00 00 00
       0.0 0.0 0.0 0.0
0003f0 00 00 00 00 00 00 80 3f 00 00 00 00 00 00 80 3f
       0.0 1.0 0.0 1.0

model.module_list.0.output_quant.pre_transforms.0.weight f4 [64]
000000 67 66 7f 3f 82 16 65 3f 48 9d 82 3f 92 67 7f 3f
       0.9976563 0.8948747 1.0204248 0.9976741
000010 4b c9 8a 3f 52 42 86 3f 05 43 a9 3f 1f 41 88 3f
       1.084268 1.0488989 1.3223578 1.0644873
000020 b2 41 83 3f 67 66 7f 3f 01 7e 8b 3f c6 23 90 3f
       1.0254424 0.9976563 1.0897828 1.1260917
000030 78 0e 8f 3f 6d ac 6a 3f 6f 62 82 3f a2 f5 6a 3f
       1.117629 0.9166935 1.018629 0.91781056
000040 ea 0e 7c 3f 59 9d 6c 3f 67 66 7f 3f e5 3c 8b 3f
       0.9846026 0.92427593 0.9976563 1.0877959
000050 b4 b4 80 3f 3b 42 9a 3f 0f 73 81 3f 9f e2 83 3f
       1.0055146 1.2051462 1.0113238 1.0303534
000060 2c 50 7e 3f 01 06 87 3f 50 4f 8b 3f 56 b4 71 3f
       0.9934108 1.0548707 1.0883579 0.94415796
000070 67 66 7f 3f fb de 6b 3f 67 66 7f 3f 67 66 7f 3f
       0.9976563 0.92137116 0.9976563 0.9976563
000080 fb db 66 3f 24 dd 7a 3f 6e 25 6a 3f 67 66 7f 3f
       0.90179414 0.97993684 0.91463363 0.9976563
000090 4b 80 89 3f 67 66 7f 3f 67 66 7f 3f 01 17 90 3f
       1.0742277 0.9976563 0.9976563 1.125702
0000a0 8f c6 92 3f 43 b0 88 3f 67 66 7f 3f 0f 9f 8e 3f
       1.1466845 1.0678791 0.9976563 1.1142291
0000b0 67 66 7f 3f d5 c7 78 3f 5f a0 6a 3f 6c 97 85 3f
       0.9976563 0.9717992 0.91650957 1.0436835
0000c0 98 d1 89 3f 89 4b 8f 3f 67 66 7f 3f ec 91 81 3f
       1.0767088 1.1194927 0.9976563 1.0122657
0000d0 4b 06 85 3f e6 b4 97 3f 0e d5 9a 3f 2f c8 77 3f
       1.0392545 1.1852081 1.2096269 0.9678983
0000e0 67 66 7f 3f 09 ba 90 3f 67 66 7f 3f 35 a9 66 3f
       0.9976563 1.1306773 0.9976563 0.9010194
0000f0 67 66 7f 3f ce 38 77 3f 72 b8 8e 3f 67 66 7f 3f
       0.9976563 0.9657105 1.1150038 0.9976563

model.module_list.0.output_quant.pre_transforms.0.bias f4 [64]
000000 00 00 00 00 fa 26 0c be 26 65 0a 3d db a0 4c bd
       0.0 -0.13686743 0.03378787 -0.04995809
000010 d6 f2 f9 3d 0a e7 6f 3e d0 95 d8 3e 74 6d 06 3e
       0.122045204 0.23427978 0.42301798 0.1312769
000020 fa b2 fd bb 00 00 00 00 75 45 f1 ba 66 da 26 3e
       -0.007742283 0.0 -0.0018407541 0.1629425
000030 e4 6d 76 3d 18 6f 0b be e7 4b fa 3d dc 6f 6c bc
       0.060163394 -0.13616598 0.122215085 -0.014430966
000040 5e 85 13 bd 73 14 c8 3c 00 00 00 00 18 c3 28 3e
       -0.03601586 0.024423813 0.0 0.16480672
000050 8c cc 91 3e 1c 6c 23 3e ba 75 4d bc 52 df 29 3d
       0.2847637 0.15959209 -0.012540275 0.04147274
000060 ea f5 23 bd bd a1 29 be 23 5f 0c 3e 3c 26 6c bd
       -0.040029444 -0.16565605 0.13708167 -0.05765365
000070 00 00 00 00 45 f0 bf 3c 00 00 00 00 00 00 00 00
       0.0 0.02343 0.0 0.0
000080 ba b6 be bd 2f 3a 82 bd de e4 87 be 00 00 00 00
       -0.09312196 -0.06358754 -0.265418 0.0
000090 10 cf 83 3e 00 00 00 00 00 00 00 00 0c 68 22 3e
       0.25743914 0.0 0.0 0.15860003
0000a0 94 73 57 3e 9b e7 43 bc 00 00 00 00 3a 7f 34 3d
       0.21040183 -0.0119570745 0.0 0.044066645
0000b0 00 00 00 00 10 10 55 bd 93 49 9b bd b8 21 6f 3d
       0.0 -0.05201727 -0.075823925 0.058381766
0000c0 94 4c 00 3e 79 3f 9b 3e 00 00 00 00 b3 2b 3e bc
       0.12529212 0.30321863 0.0 -0.011607098
0000d0 f0 77 9f 3d 91 75 49 3d e3 e1 02 3d f6 13 ee bd
       0.07786548 0.049184386 0.031953704 -0.11624901
0000e0 00 00 00 00 4e 58 99 3d 00 00 00 00 46 04 5e be
       0.0 0.07487546 0.0 -0.21681318
0000f0 00 00 00 00 2b d9 11 bd c4 fc ce bd 00 00 00 00
       0.0 -0.0356075 -0.10106805 0.0

model.module_list.0.output_quant.pre_transforms.0.running_mean f4 [64]
000000 00 33 c1 3d b0 43 ee 3d 10 85 52 bd 14 56 45 3e
       0.094335556 0.11634004 -0.05139643 0.19271117
000010 33 db f7 3c 8c 9e a1 3e 7c 16 fe bd a9 a7 12 3e
       0.03025589 0.31566274 -0.12406632 0.1432177
000020 a7 fb e4 3d 43 fc 1a be c6 b4 55 be 71 7b 3d bb
       0.111808114 -0.15135293 -0.20869741 -0.0028912688
000030 1b 64 73 3c 49 2a 77 be 8f a8 33 3e a8 23 81 bd
       0.01485541 -0.24137224 0.17544769 -0.06305629
000040 b0 46 98 bd 26 d9 d8 3d 9d c7 0c 3e 59 71 95 bd
       -0.074353576 0.10588293 0.13748021 -0.0729701
000050 02 ff 11 be 95 f5 8d bd 70 97 69 be 84 5a 21 be
       -0.14257434 -0.06931607 -0.22811675 -0.15757185
000060 4a 00 75 3e e1 16 00 3e a4 bb e2 bd 00 08 a5 3d
       0.23925892 0.12508728 -0.11070946 0.080581665
000070 9c 15 36 3e 71 b8 34 3e 5f 1f 75 be 55 ed 92 be
       0.17781681 0.17648484 -0.23937748 -0.28696695
000080 6e 02 26 3e 6a aa 07 bd ad 65 08 be df 49 7d 3e
       0.16211864 -0.033121504 -0.13320036 0.24735211
000090 b2 48 6f be ed b7 61 be 8a 9d a6 bd c4 49 1e bd
       -0.23367575 -0.22042818 -0.08135517 -0.038644567
0000a0 23 d8 20 3c 12 20 05 be 71 89 c7 bc 5f 06 9c bd
       0.009817156 -0.13000515 -0.02435753 -0.07618403
0000b0 f9 15 38 be 10 ff 06 3d ee cb 93 be 43 18 f1 bd
       -0.17977132 0.03295809 -0.28866524 -0.11772206
0000c0 40 a0 c5 bd a5 d8 ee bb bf b4 35 3e 4b 55 cd bd
       -0.09649706 -0.0072890096 0.1774473 -0.10026034
0000d0 c2 57 3b 3e ac f9 d6 be ed f0 33 be 95 f2 e4 3d
       0.18295196 -0.4198736 -0.17572375 0.11179081
0000e0 3a 58 3b be f9 8f 0f 3e 61 22 9f 3d 94 0a 97 be
       -0.18295375 0.14019765 0.07770229 -0.29500258
0000f0 f9 67 9d 3e 29 6e 48 be 71 8e 83 3e 4a ef 0b 3d
       0.30743387 -0.19573273 0.25694612 0.03416375

model.module_list.0.output_quant.pre_transforms.0.running_var f4 [64]
000000 a7 12 4c 3c 2c f0 9a 3a fb 5f 5b 3c fa 0c 64 3c
       0.012455619 0.0011820844 0.013389583 0.0139191095
000010 10 33 8b 3c 7a 3d 6b 3c 52 35 8c 3b a3 78 69 3c
       0.016992122 0.014357919 0.004278817 0.014249953
000020 b8 8f e1 3b 3b 7b 13 3c f4 8e 40 3b 9e 05 7a 3c
       0.0068835877 0.009001548 0.0029382082 0.015260128
000030 c3 95 80 3c 6d d6 a0 3b a8 e8 54 3b 37 0f e9 3c
       0.015696412 0.004908374 0.0032487307 0.028449638
000040 8f 02 5c 3c 75 f5 30 3c 07 ee 23 3b 2f de e7 3b
       0.013428344 0.010800709 0.0025013702 0.007076047
000050 72 65 de 3b b7 c6 78 3c c0 bf f6 3c 1e b1 4a 3a
       0.0067869956 0.015184096 0.03012073 0.0007732081
000060 3a e3 1b 3c e8 bf 52 3b e3 90 c4 3b 2c 46 46 3c
       0.009514624 0.0032157842 0.005998717 0.012101691
000070 5c 09 39 3b bf 5e b7 3c bf c8 03 3b 7e fe 95 3b
       0.0028234338 0.022384046 0.0020108668 0.004577457
000080 f4 8b 82 3c 81 59 ec 3c 65 db 27 3b 62 2f 29 3b
       0.015935875 0.028851273 0.0025612947 0.0025815596
000090 ee 9c a4 3c 97 a9 9e 3c 54 52 67 3c ab cf 2d 3c
       0.020094361 0.019367976 0.01411875 0.010608594
0000a0 03 f8 c7 3b 91 a3 2b 3c f7 5d 38 3c e6 dc e4 3b
       0.0061025633 0.010476009 0.011252872 0.006984341
0000b0 b1 83 7e 39 db 43 1d 3b 83 27 94 3c 25 62 b9 3b
       0.00024272387 0.0023996744 0.018085247 0.0056574517
0000c0 85 42 9e 3c d4 f8 b4 3c d4 38 84 3c d2 ee 00 3b
       0.019318828 0.022091307 0.016140379 0.0019673598
0000d0 de ea 1c 3c 2c e5 5e 3c 0e 5c a4 3c a0 1d fa 3b
       0.009577481 0.0136044435 0.020063426 0.007632926
0000e0 94 ee ba 3c bc aa b1 3b ed ab 23 3c 8c fe a9 3b
       0.022818841 0.0054219645 0.009989721 0.005187815
0000f0 28 6a 46 3c 31 e6 22 3c c6 41 8c 3c 0e ac db 3b
       0.012110271 0.009942577 0.017121207 0.00670386

model.module_list.1.input_quant.pre_transforms.0.weight f4 [64]
000000 67 66 7f 3f 82 16 65 3f 48 9d 82 3f 92 67 7f 3f
       0.9976563 0.8948747 1.0204248 0.9976741
000010 4b c9 8a 3f 52 42 86 3f 05 43 a9 3f 1f 41 88 3f
       1.084268 1.0488989 1.3223578 1.0644873
000020 b2 41 83 3f 67 66 7f 3f 01 7e 8b 3f c6 23 90 3f
       1.0254424 0.9976563 1.0897828 1.1260917
000030 78 0e 8f 3f 6d ac 6a 3f 6f 62 82 3f a2 f5 6a 3f
       1.117629 0.9166935 1.018629 0.91781056
000040 ea 0e 7c 3f 59 9d 6c 3f 67 66 7f 3f e5 3c 8b 3f
       0.9846026 0.92427593 0.9976563 1.0877959
000050 b4 b4 80 3f 3b 42 9a 3f 0f 73 81 3f 9f e2 83 3f
       1.0055146 1.2051462 1.0113238 1.0303534
000060 2c 50 7e 3f 01 06 87 3f 50 4f 8b 3f 56 b4 71 3f
       0.9934108 1.0548707 1.0883579 0.94415796
000070 67 66 7f 3f fb de 6b 3f 67 66 7f 3f 67 66 7f 3f
       0.9976563 0.92137116 0.9976563 0.9976563
000080 fb db 66 3f 24 dd 7a 3f 6e 25 6a 3f 67 66 7f 3f
       0.90179414 0.97993684 0.91463363 0.9976563
000090 4b 80 89 3f 67 66 7f 3f 67 66 7f 3f 01 17 90 3f
       1.0742277 0.9976563 0.9976563 1.125702
0000a0 8f c6 92 3f 43 b0 88 3f 67 66 7f 3f 0f 9f 8e 3f
       1.1466845 1.0678791 0.9976563 1.1142291
0000b0 67 66 7f 3f d5 c7 78 3f 5f a0 6a 3f 6c 97 85 3f
       0.9976563 0.9717992 0.91650957 1.0436835
0000c0 98 d1 89 3f 89 4b 8f 3f 67 66 7f 3f ec 91 81 3f
       1.0767088 1.1194927 0.9976563 1.0122657
0000d0 4b 06 85 3f e6 b4 97 3f 0e d5 9a 3f 2f c8 77 3f
       1.0392545 1.1852081 1.2096269 0.9678983
0000e0 67 66 7f 3f 09 ba 90 3f 67 66 7f 3f 35 a9 66 3f
       0.9976563 1.1306773 0.9976563 0.9010194
0000f0 67 66 7f 3f ce 38 77 3f 72 b8 8e 3f 67 66 7f 3f
       0.9976563 0.9657105 1.1150038 0.9976563

model.module_list.1.input_quant.pre_transforms.0.bias f4 [64]
000000 00 00 00 00 fa 26 0c be 26 65 0a 3d db a0 4c bd
       0.0 -0.13686743 0.03378787 -0.04995809
000010 d6 f2 f9 3d 0a e7 6f 3e d0 95 d8 3e 74 6d 06 3e
       0.122045204 0.23427978 0.42301798 0.1312769
000020 fa b2 fd bb 00 00 00 00 75 45 f1 ba 66 da 26 3e
       -0.007742283 0.0 -0.0018407541 0.1629425
000030 e4 6d 76 3d 18 6f 0b be e7 4b fa 3d dc 6f 6c bc
       0.060163394 -0.13616598 0.122215085 -0.014430966
000040 5e 85 13 bd 73 14 c8 3c 00 00 00 00 18 c3 28 3e
       -0.03601586 0.024423813 0.0 0.16480672
000050 8c cc 91 3e 1c 6c 23 3e ba 75 4d bc 52 df 29 3d
       0.2847637 0.15959209 -0.012540275 0.04147274
000060 ea f5 23 bd bd a1 29 be 23 5f 0c 3e 3c 26 6c bd
       -0.040029444 -0.16565605 0.13708167 -0.05765365
000070 00 00 00 00 45 f0 bf 3c 00 00 00 00 00 00 00 00
       0.0 0.02343 0.0 0.0
000080 ba b6 be bd 2f 3a 82 bd de e4 87 be 00 00 00 00
       -0.09312196 -0.06358754 -0.265418 0.0
000090 10 cf 83 3e 00 00 00 00 00 00 00 00 0c 68 22 3e
       0.25743914 0.0 0.0 0.15860003
0000a0 94 73 57 3e 9b e7 43 bc 00 00 00 00 3a 7f 34 3d
       0.21040183 -0.0119570745 0.0 0.044066645
0000b0 00 00 00 00 10 10 55 bd 93 49 9b bd b8 21 6f 3d
       0.0 -0.05201727 -0.075823925 0.058381766
0000c0 94 4c 00 3e 79 3f 9b 3e 00 00 00 00 b3 2b 3e bc
       0.12529212 0.30321863 0.0 -0.011607098
0000d0 f0 77 9f 3d 91 75 49 3d e3 e1 02 3d f6 13 ee bd
       0.07786548 0.049184386 0.031953704 -0.11624901
0000e0 00 00 00 00 4e 58 99 3d 00 00 00 00 46 04 5e be
       0.0 0.07487546 0.0 -0.21681318
0000f0 00 00 00 00 2b d9 11 bd c4 fc ce bd 00 00 00 00
       0.0 -0.0356075 -0.10106805 0.0

model.module_list.1.input_quant.pre_transforms.0.running_mean f4 [64]
000000 00 33 c1 3d b0 43 ee 3d 10 85 52 bd 14 56 45 3e
       0.094335556 0.11634004 -0.05139643 0.19271117
000010 33 db f7 3c 8c 9e a1 3e 7c 16 fe bd a9 a7 12 3e
       0.03025589 0.31566274 -0.12406632 0.1432177
000020 a7 fb e4 3d 43 fc 1a be c6 b4 55 be 71 7b 3d bb
       0.111808114 -0.15135293 -0.20869741 -0.0028912688
000030 1b 64 73 3c 49 2a 77 be 8f a8 33 3e a8 23 81 bd
       0.01485541 -0.24137224 0.17544769 -0.06305629
000040 b0 46 98 bd 26 d9 d8 3d 9d c7 0c 3e 59 71 95 bd
       -0.074353576 0.10588293 0.13748021 -0.0729701
000050 02 ff 11 be 95 f5 8d bd 70 97 69 be 84 5a 21 be
       -0.14257434 -0.06931607 -0.22811675 -0.15757185
000060 4a 00 75 3e e1 16 00 3e a4 bb e2 bd 00 08 a5 3d
       0.23925892 0.12508728 -0.11070946 0.080581665
000070 9c 15 36 3e 71 b8 34 3e 5f 1f 75 be 55 ed 92 be
       0.17781681 0.17648484 -0.23937748 -0.28696695
000080 6e 02 26 3e 6a aa 07 bd ad 65 08 be df 49 7d 3e
       0.16211864 -0.033121504 -0.13320036 0.24735211
000090 b2 48 6f be ed b7 61 be 8a 9d a6 bd c4 49 1e bd
       -0.23367575 -0.22042818 -0.08135517 -0.038644567
0000a0 23 d8 20 3c 12 20 05 be 71 89 c7 bc 5f 06 9c bd
       0.009817156 -0.13000515 -0.02435753 -0.07618403
0000b0 f9 15 38 be 10 ff 06 3d ee cb 93 be 43 18 f1 bd
       -0.17977132 0.03295809 -0.28866524 -0.11772206
0000c0 40 a0 c5 bd a5 d8 ee bb bf b4 35 3e 4b 55 cd bd
       -0.09649706 -0.0072890096 0.1774473 -0.10026034
0000d0 c2 57 3b 3e ac f9 d6 be ed f0 33 be 95 f2 e4 3d
       0.18295196 -0.4198736 -0.17572375 0.11179081
0000e0 3a 58 3b be f9 8f 0f 3e 61 22 9f 3d 94 0a 97 be
       -0.18295375 0.14019765 0.07770229 -0.29500258
0000f0 f9 67 9d 3e 29 6e 48 be 71 8e 83 3e 4a ef 0b 3d
       0.30743387 -0.19573273 0.25694612 0.03416375

model.module_list.1.input_quant.pre_transforms.0.running_var f4 [64]
000000 a7 12 4c 3c 2c f0 9a 3a fb 5f 5b 3c fa 0c 64 3c
       0.012455619 0.0011820844 0.013389583 0.0139191095
000010 10 33 8b 3c 7a 3d 6b 3c 52 35 8c 3b a3 78 69 3c
       0.016992122 0.014357919 0.004278817 0.014249953
000020 b8 8f e1 3b 3b 7b 13 3c f4 8e 40 3b 9e 05 7a 3c
       0.0068835877 0.009001548 0.0029382082 0.015260128
000030 c3 95 80 3c 6d d6 a0 3b a8 e8 54 3b 37 0f e9 3c
       0.015696412 0.004908374 0.0032487307 0.028449638
000040 8f 02 5c 3c 75 f5 30 3c 07 ee 23 3b 2f de e7 3b
       0.013428344 0.010800709 0.0025013702 0.007076047
000050 72 65 de 3b b7 c6 78 3c c0 bf f6 3c 1e b1 4a 3a
       0.0067869956 0.015184096 0.03012073 0.0007732081
000060 3a e3 1b 3c e8 bf 52 3b e3 90 c4 3b 2c 46 46 3c
       0.009514624 0.0032157842 0.005998717 0.012101691
000070 5c 09 39 3b bf 5e b7 3c bf c8 03 3b 7e fe 95 3b
       0.0028234338 0.022384046 0.0020108668 0.004577457
000080 f4 8b 82 3c 81 59 ec 3c 65 db 27 3b 62 2f 29 3b
       0.015935875 0.028851273 0.0025612947 0.0025815596
000090 ee 9c a4 3c 97 a9 9e 3c 54 52 67 3c ab cf 2d 3c
       0.020094361 0.019367976 0.01411875 0.010608594
0000a0 03 f8 c7 3b 91 a3 2b 3c f7 5d 38 3c e6 dc e4 3b
       0.0061025633 0.010476009 0.011252872 0.006984341
0000b0 b1 83 7e 39 db 43 1d 3b 83 27 94 3c 25 62 b9 3b
       0.00024272387 0.0023996744 0.018085247 0.0056574517
0000c0 85 42 9e 3c d4 f8 b4 3c d4 38 84 3c d2 ee 00 3b
       0.019318828 0.022091307 0.016140379 0.0019673598
0000d0 de ea 1c 3c 2c e5 5e 3c 0e 5c a4 3c a0 1d fa 3b
       0.009577481 0.0136044435 0.020063426 0.007632926
0000e0 94 ee ba 3c bc aa b1 3b ed ab 23 3c 8c fe a9 3b
       0.022818841 0.0054219645 0.009989721 0.005187815
0000f0 28 6a 46 3c 31 e6 22 3c c6 41 8c 3c 0e ac db 3b
       0.012110271 0.009942577 0.017121207 0.00670386

model.module_list.1.fc.weight f4 [32, 64]
000000 7c 47 6a 3d 49 3c 0a 3c af d0 fe 3c 29 20 63 bd
       0.05719708 0.008437225 0.031105367 -0.055450592
000010 7e c9 4d bd 92 cc 4e bd 8e 88 1b bd e9 5e 62 bc
       -0.050240986 -0.050488062 -0.037972026 -0.013816574
000020 33 eb bb bc e7 88 78 bc c2 bc d3 bd 59 8f c9 bd
       -0.0229393 -0.015169359 -0.10338737 -0.098417945
000030 a4 5f 37 3d fd fe 5e bd 22 c7 53 3c b2 13 e9 3d
       0.044768944 -0.054442395 0.012925895 0.1138071
000040 e5 3b ca 3d ef ee bc bd 90 19 ea 3b f0 24 75 bb
       0.09874705 -0.092252605 0.0071441606 -0.003740605
000050 89 cf 82 bd 8c 17 2e bd 9d f9 9f bc 6a bd b2 3d
       -0.063872404 -0.042502925 -0.019528205 0.08727534
000060 c1 cc dd 3c 68 9d f5 3d e9 7b 28 3d f4 4c f0 3d
       0.027075173 0.119929135 0.041133795 0.11733428
000070 4e 40 b2 3d c6 bd 8f 3d 92 ad 16 3d a0 06 d9 bd
       0.087036714 0.07018618 0.036786623 -0.10596967
000080 a2 ca d5 bb 4a 52 f7 3d a6 39 16 3c 10 28 f4 bd
       -0.0065244 0.12076242 0.009169018 -0.11921704
000090 fb cf 45 bc 64 f1 59 bd 4b 31 ac bd bc ce 77 3d
       -0.012073512 -0.053208724 -0.084078394 0.06049989
0000a0 c9 54 e8 3c 50 ec d2 3d dc ab 30 bd c7 7f 79 3d
       0.028360741 0.10298979 -0.043132648 0.060912874
0000b0 42 59 4b 3c 5a 74 94 3d ea 5c d9 bd d7 43 f9 bc
       0.012411417 0.07248755 -0.10613425 -0.030427856
0000c0 08 6a 2e bd 0b 7f bd bb e0 df 91 3d 80 c9 6f 3d
       -0.042581588 -0.005782967 0.07122779 0.058541775
0000d0 5b 27 43 bc 5d d3 27 3b 85 16 fc bd 87 a0 fb 3d
       -0.011911239 0.002560816 -0.12308983 0.122864775
0000e0 32 50 4b bd ed a4 a9 bc c2 8c 4e 3b 64 c7 eb bd
       -0.049637027 -0.020708526 0.0031517004 -0.1151264
0000f0 39 85 a4 3d 7f 60 48 bd 17 13 89 bd 7f 20 89 3d
       0.08033223 -0.04892015 -0.06693094 0.06695651
000100 9f b7 00 3d 33 04 82 bd e1 e2 f8 3d 6c 28 2e 3d
       0.031425115 -0.06348457 0.12152649 0.042519018
000110 d9 b3 a2 3d e9 24 2b bd b9 aa 23 3d 89 74 61 3c
       0.079444595 -0.041783247 0.039957736 0.013760694
000120 d7 a6 bf 3d 75 6e a9 bd be 27 94 3c 4f 18 85 bc
       0.09357994 -0.08273021 0.018085357 -0.016246943
000130 7e cf 0b be 38 62 93 3d ab 8e e5 3d 20 7b 37 3d
       -0.1365337 0.07196468 0.112088524 0.044795156
000140 33 77 7a 3d 16 0c 9a bc 70 3f 76 3c 60 7b ec 3c
       0.061148833 -0.018804591 0.015029773 0.028867424
000150 0b 1d d0 ba ee f1 d7 bd 40 59 b7 bd 66 eb 9c 3d
       -0.0015877796 -0.10544191 -0.0895257 0.07662086
000160 23 36 89 bd 44 d8 99 3d f1 5e 8a 3d ff 9d 48 3d
       -0.06699779 0.075119525 0.0675639 0.0489788
000170 bb f2 00 bd 1d ba e8 3d 30 11 6d bc 8b 9c 47 bd
       -0.031481486 0.11363623 -0.01446943 -0.048733275
000180 ad 0c ac 3c 55 71 9f 3d 73 be 7a 3d 19 a5 dd 3b
       0.021002138 0.07785288 0.061216783 0.006764066
000190 56 6c 56 3d a4 d4 b1 bd 5b b6 79 3d 4a b1 56 bd
       0.05234941 -0.08683136 0.060964923 -0.05241517
0001a0 a0 a2 9c bd b7 61 a6 bd 40 67 99 bd 3f b5 8a bc
       -0.07648206 -0.081241064 -0.074903965 -0.016932128
0001b0 99 52 e0 3c 87 04 7a bd 7d 22 ff bd d2 8b f1 3d
       0.027383136 -0.061039474 -0.1245775 0.11794247
0001c0 44 74 eb 3d a5 52 86 bd 2d 4f bf 3d 5d b4 c8 bd
       0.11496785 -0.06558732 0.093412735 -0.098000266
0001d0 37 57 a3 bd 9d f4 fe 3d 6f 92 88 3b 72 82 23 bd
       -0.07975619 0.12449 0.004167847 -0.039919324
0001e0 d4 1e 2e bd d5 e7 67 bd df 9d 47 bd 9d d8 fc 3d
       -0.04250987 -0.056617577 -0.048734542 0.12346003
0001f0 05 aa c5 bd ac 8d b9 bd ff 98 0c bd c7 b2 85 bc
       -0.09651569 -0.09060225 -0.034325596 -0.0163206
000200 75 34 db 3d 94 04 38 3c 82 ba cb 3b 46 cf 93 3d
       0.10703365 0.01123156 0.006217302 0.07217269
000210 b9 c3 c3 3d 2a c6 9a bd ea 76 f0 bd b6 a1 53 3d
       0.095588155 -0.07557328 -0.11741431 0.05166789
000220 d6 ea e3 3d ae 9d 1d bd 36 d2 4c bd 31 59 85 3d
       0.11128776 -0.038480453 -0.05000516 0.065111525
000230 cc 20 f1 bd 4f d3 8c bb 9e 61 f2 bd 7e 00 69 3c
       -0.11773834 -0.004297651 -0.11835025 0.014221309
000240 3b 2a e7 bd 53 ec bd 3c bc 4a d3 3d a6 41 19 3b
       -0.11287352 0.023183977 0.10316989 0.0023385077
000250 8e fd 17 bd 2b 4a c9 3b 90 21 3c 3d 6a f4 f1 3d
       -0.037107043 0.0061428747 0.045930445 0.118141964
000260 cf aa 87 bd 62 0a 95 3d 52 cb d8 bd 05 f4 fb 3d
       -0.06624376 0.07277371 -0.10585655 0.123024024
000270 7d 90 5c bd 66 aa 9a bc 60 93 b3 3d 84 40 93 3d
       -0.053848732 -0.01888008 0.08768344 0.0719004
000280 24 48 73 bd 64 d8 33 bc 95 8d c8 bd 9d 05 2b 3b
       -0.05939497 -0.0109768845 -0.0979263 0.0026095875
000290 7b a5 e8 bd e6 e3 cc bd e3 9a 88 3d c3 cd 0d bd
       -0.11359688 -0.10004406 0.06670167 -0.034620058
0002a0 92 ef 56 bd 14 1b b1 bc 64 41 f7 bd 06 bf e9 3d
       -0.052474566 -0.021619357 -0.12073019 0.11413388
0002b0 e7 38 7c bb c4 dc 0f bd 95 5d 5a bd e1 db 81 3d
       -0.0038486065 -0.035122648 -0.053311903 0.06340767
0002c0 9c 28 e2 bd 8b 83 44 3d 4e 3d b7 bd 37 ab 48 bd
       -0.11042902 0.04797701 -0.0894724 -0.04899141
0002d0 a5 d4 9f bd 87 ea 9f bd 0f fa 88 bc 68 6f b8 bd
       -0.078042306 -0.078084044 -0.0167208 -0.09005624
0002e0 01 60 ab bd 80 29 f8 bd 97 2e 07 3d f5 80 c3 bd
       -0.08367921 -0.121172905 0.033003416 -0.09546081
0002f0 a0 30 6f bc a0 73 f6 bc 4e 16 cf bd 3b ee aa bd
       -0.014598995 -0.030084431 -0.10111676 -0.0834622
000300 d4 f4 33 bc 04 c4 ba 3d bb 98 07 bd a9 3c 95 3d
       -0.010983665 0.09119418 -0.03310464 0.07286961
000310 eb 97 3c 3d e7 b4 bf bd e6 f0 1a 3d 52 17 0b be
       0.046043318 -0.09360676 0.037827395 -0.13583115
000320 8e ff 91 bd 5a 6f f6 3d a9 f4 f8 3d 96 1b 91 bd
       -0.07128821 0.120329574 0.1215604 -0.0708534
000330 80 0d 77 3c e5 65 fb bd 3d 04 8b bd 8c 93 ae 3c
       0.015078902 -0.12275294 -0.06787918 0.02131059
000340 c8 bb eb bd c8 56 30 bd 38 e7 70 bd 51 75 bf bd
       -0.11510426 -0.04305151 -0.058814257 -0.09348548
000350 31 01 88 3d 33 c8 a6 bd e9 03 e0 3d fb d3 be 3c
       0.06640852 -0.08143654 0.10938246 0.02329444
000360 39 bd 29 3d a0 b5 b7 bd 62 e7 d8 3b ae e1 ea 3d
       0.041440222 -0.08970189 0.00661938 0.11468826
000370 03 a9 84 bd 37 44 48 bd ff 0c 45 bd 4a 2f d6 bc
       -0.06477549 -0.04889318 -0.048108097 -0.026145596
000380 4c f7 97 3d e9 86 81 3d e8 4a 34 bd ce dc b0 3d
       0.07420215 0.0632456 -0.04401675 0.08635865
000390 5c 8f ea bd c6 9e 19 bd 4d 15 a1 bc 54 ec ad bb
       -0.11453125 -0.037504934 -0.019663477 -0.0053077135
0003a0 ff dd 01 bc d8 ff 30 3d f5 91 2a 3d 43 5a db bd
       -0.007926463 0.04321274 0.0416431 -0.107105754
0003b0 6e 6b 53 3d 02 29 4c 3c ff 57 a4 3d f7 ca 87 bc
       0.051616125 0.012460949 0.080245964 -0.016576273
0003c0 45 0a e9 bd 7a 91 0f 3d fe 62 51 bd b7 0a a3 bd
       -0.11378912 0.035050847 -0.051119797 -0.07961028
0003d0 dc ff b7 bc a3 79 ca 3d 64 3f d1 bd 36 aa 4c bd
       -0.02246087 0.098864816 -0.10217169 -0.049967013
0003e0 4a f7 f2 bd 8d 39 a9 bc bf 41 09 3d 2f 46 7d 3d
       -0.11863573 -0.020657325 0.033509966 0.06183451
0003f0 3e 40 1d bd 29 f1 c0 3d a9 fd 62 3d 14 63 93 3d
       -0.038391344 0.09420998 0.05541769 0.07196632

model.module_list.1.fc.bias f4 [32]
000000 8e d8 18 bd 7e d8 f3 3d b5 dd 16 be 2a b4 24 3d
       -0.037315898 0.11906527 -0.14733012 0.04021088
000010 1d 94 0c 3d e1 86 8c 3d 17 12 05 bc e0 36 8e bd
       0.03432094 0.068616636 -0.008121989 -0.0694406
000020 2a 6c 7f 3d e7 73 92 bd 30 42 f4 3d 0b ef b5 bd
       0.062359013 -0.07151013 0.11926687 -0.088834845
000030 69 65 d9 3d b0 69 60 bd c8 b8 75 3d b6 04 cb bd
       0.106150456 -0.05478829 0.059990674 -0.09913008
000040 1a 1e 39 3d 16 5a 41 3d 2d fa dd 3b d7 a3 a4 bd
       0.045194723 0.047205053 0.006774208 -0.080390625
000050 08 8e c8 3d 7d 7e d7 3d d1 df 57 3c 28 8b 9f bc
       0.09792715 0.105221726 0.013175921 -0.019475535
000060 d8 72 16 be 79 fc d1 bd a0 8f bc 3c df 63 81 3d
       -0.14692247 -0.102532335 0.023017704 0.06317877
000070 47 49 c0 bd 80 39 f9 3b ae 63 eb bd f9 7f ec 3d
       -0.093889765 0.0076057315 -0.11493622 0.11547846

model.module_list.1.fc.mask.mask f4 [32, 64]
000000 00 00 00 00 00 00 80 3f 00 00 00 00 00 00 00 00
       0.0 1.0 0.0 0.0
000010 00 00 00 00 00 00 00 00 00 00 00 00 00 00 00 00
       0.0 0.0 0.0 0.0
000020 00 00 00 00 00 00 00 00 00 00 00 00 00 00 80 3f
       0.0 0.0 0.0 1.0
000030 00 00 00 00 00 00 00 00 00 00 00 00 00 00 00 00
       0.0 0.0 0.0 0.0
000040 00 00 00 00 00 00 00 00 00 00 00 00 00 00 00 00
       0.0 0.0 0.0 0.0
000050 00 00 00 00 00 00 00 00 00 00 00 00 00 00 00 00
       0.0 0.0 0.0 0.0
000060 00 00 00 00 00 00 00 00 00 00 00 00 00 00 00 00
       0.0 0.0 0.0 0.0
000070 00 00 00 00 00 00 80 3f 00 00 00 00 00 00 00 00
       0.0 1.0 0.0 0.0
000080 00 00 00 00 00 00 00 00 00 00 00 00 00 00 00 00
       0.0 0.0 0.0 0.0
000090 00 00 00 00 00 00 00 00 00 00 00 00 00 00 00 00
       0.0 0.0 0.0 0.0
0000a0 00 00 00 00 00 00 00 00 00 00 00 00 00 00 00 00
       0.0 0.0 0.0 0.0
0000b0 00 00 00 00 00 00 00 00 00 00 00 00 00 00 00 00
       0.0 0.0 0.0 0.0
0000c0 00 00 00 00 00 00 00 00 00 00 00 00 00 00 00 00
       0.0 0.0 0.0 0.0
0000d0 00 00 00 00 00 00 00 00 00 00 00 00 00 00 00 00
       0.0 0.0 0.0 0.0
0000e0 00 00 00 00 00 00 00 00 00 00 00 00 00 00 00 00
       0.0 0.0 0.0 0.0
0000f0 00 00 00 00 00 00 00 00 00 00 00 00 00 00 00 00
       0.0 0.0 0.0 0.0
000100 00 00 00 00 00 00 00 00 00 00 00 00 00 00 00 00
       0.0 0.0 0.0 0.0
000110 00 00 00 00 00 00 00 00 00 00 00 00 00 00 00 00
       0.0 0.0 0.0 0.0
000120 00 00 00 00 00 00 00 00 00 00 00 00 00 00 00 00
       0.0 0.0 0.0 0.0
000130 00 00 80 3f 00 00 00 00 00 00 00 00 00 00 00 00
       1.0 0.0 0.0 0.0
000140 00 00 00 00 00 00 00 00 00 00 00 00 00 00 00 00
       0.0 0.0 0.0 0.0
000150 00 00 80 3f 00 00 00 00 00 00 00 00 00 00 00 00
       1.0 0.0 0.0 0.0
000160 00 00 00 00 00 00 00 00 00 00 00 00 00 00 00 00
       0.0 0.0 0.0 0.0
000170 00 00 00 00 00 00 00 00 00 00 00 00 00 00 00 00
       0.0 0.0 0.0 0.0
000180 00 00 00 00 00 00 00 00 00 00 00 00 00 00 00 00
       0.0 0.0 0.0 0.0
000190 00 00 00 00 00 00 00 00 00 00 00 00 00 00 00 00
       0.0 0.0 0.0 0.0
0001a0 00 00 00 00 00 00 00 00 00 00 00 00 00 00 00 00
       0.0 0.0 0.0 0.0
0001b0 00 00 00 00 00 00 00 00 00 00 00 00 00 00 00 00
       0.0 0.0 0.0 0.0
0001c0 00 00 00 00 00 00 00 00 00 00 00 00 00 00 00 00
       0.0 0.0 0.0 0.0
0001d0 00 00 00 00 00 00 00 00 00 00 00 00 00 00 80 3f
       0.0 0.0 0.0 1.0
0001e0 00 00 00 00 00 00 00 00 00 00 00 00 00 00 00 00
       0.0 0.0 0.0 0.0
0001f0 00 00 00 00 00 00 00 00 00 00 00 00 00 00 00 00
       0.0 0.0 0.0 0.0
000200 00 00 00 00 00 00 00 00 00 00 00 00 00 00 00 00
       0.0 0.0 0.0 0.0
000210 00 00 00 00 00 00 00 00 00 00 00 00 00 00 00 00
       0.0 0.0 0.0 0.0
000220 00 00 80 3f 00 00 00 00 00 00 00 00 00 00 00 00
       1.0 0.0 0.0 0.0
000230 00 00 00 00 00 00 00 00 00 00 00 00 00 00 00 00
       0.0 0.0 0.0 0.0
000240 00 00 00 00 00 00 00 00 00 00 00 00 00 00 00 00
       0.0 0.0 0.0 0.0
000250 00 00 00 00 00 00 00 00 00 00 00 00 00 00 00 00
       0.0 0.0 0.0 0.0
000260 00 00 00 00 00 00 00 00 00 00 00 00 00 00 00 00
       0.0 0.0 0.0 0.0
000270 00 00 00 00 00 00 00 00 00 00 00 00 00 00 00 00
       0.0 0.0 0.0 0.0
000280 00 00 00 00 00 00 00 00 00 00 00 00 00 00 00 00
       0.0 0.0 0.0 0.0
000290 00 00 00 00 00 00 00 00 00 00 00 00 00 00 00 00
       0.0 0.0 0.0 0.0
0002a0 00 00 00 00 00 00 00 00 00 00 00 00 00 00 00 00
       0.0 0.0 0.0 0.0
0002b0 00 00 00 00 00 00 80 3f 00 00 00 00 00 00 00 00
       0.0 1.0 0.0 0.0
0002c0 00 00 80 3f 00 00 00 00 00 00 00 00 00 00 00 00
       1.0 0.0 0.0 0.0
0002d0 00 00 00 00 00 00 00 00 00 00 00 00 00 00 00 00
       0.0 0.0 0.0 0.0
0002e0 00 00 00 00 00 00 00 00 00 00 00 00 00 00 00 00
       0.0 0.0 0.0 0.0
0002f0 00 00 00 00 00 00 00 00 00 00 00 00 00 00 00 00
       0.0 0.0 0.0 0.0
000300 00 00 00 00 00 00 00 00 00 00 00 00 00 00 80 3f
       0.0 0.0 0.0 1.0
000310 00 00 00 00 00 00 00 00 00 00 00 00 00 00 80 3f
       0.0 0.0 0.0 1.0
000320 00 00 00 00 00 00 00 00 00 00 00 00 00 00 00 00
       0.0 0.0 0.0 0.0
000330 00 00 00 00 00 00 00 00 00 00 00 00 00 00 00 00
       0.0 0.0 0.0 0.0
000340 00 00 00 00 00 00 00 00 00 00 00 00 00 00 00 00
       0.0 0.0 0.0 0.0
000350 00 00 00 00 00 00 00 00 00 00 00 00 00 00 00 00
       0.0 0.0 0.0 0.0
000360 00 00 00 00 00 00 00 00 00 00 00 00 00 00 00 00
       0.0 0.0 0.0 0.0
000370 00 00 00 00 00 00 00 00 00 00 00 00 00 00 00 00
       0.0 0.0 0.0 0.0
000380 00 00 00 00 00 00 00 00 00 00 00 00 00 00 00 00
       0.0 0.0 0.0 0.0
000390 00 00 00 00 00 00 00 00 00 00 00 00 00 00 00 00
       0.0 0.0 0.0 0.0
0003a0 00 00 00 00 00 00 00 00 00 00 00 00 00 00 00 00
       0.0 0.0 0.0 0.0
0003b0 00 00 00 00 00 00 00 00 00 00 00 00 00 00 00 00
       0.0 0.0 0.0 0.0
0003c0 00 00 00 00 00 00 00 00 00 00 00 00 00 00 00 00
       0.0 0.0 0.0 0.0
0003d0 00 00 00 00 00 00 00 00 00 00 00 00 00 00 00 00
       0.0 0.0 0.0 0.0
0003e0 00 00 00 00 00 00 00 00 00 00 00 00 00 00 00 00
       0.0 0.0 0.0 0.0
0003f0 00 00 00 00 00 00 80 3f 00 00 00 00 00 00 00 00
       0.0 1.0 0.0 0.0

model.module_list.1.output_quant.pre_transforms.0.weight f4 [32]
000000 4a 0f 71 3f fe e7 9b 3f ad 15 48 3f fa fb 5a 3f
       0.94163954 1.2180173 0.78158075 0.85540736
000010 50 31 7c 3f 64 3c 87 3f dd ee 98 3f 53 03 71 3f
       0.98512745 1.0565305 1.1947895 0.941457
000020 31 81 79 3f b2 6d 84 3f 06 78 81 3f 5b 60 83 3f
       0.97462755 1.0345976 1.0114753 1.026378
000030 56 c7 aa 3f f8 91 85 3f 8d 86 7f 3f e7 93 86 3f
       1.3342083 1.0435171 0.99814683 1.0513886
000040 4d 7f 58 3f 8c aa 6f 3f f7 a1 9b 3f df 28 8b 3f
       0.84569246 0.9361961 1.2158803 1.0871848
000050 71 af 91 3f 7b 8c 8d 3f dd 79 8d 3f 0f c4 90 3f
       1.1381665 1.1058496 1.1052815 1.1309832
000060 5f 0b 55 3f 32 65 9f 3f 2c ef 84 3f 0a 0c 7f 3f
       0.83220476 1.2452757 1.038549 0.99627745
000070 e1 f2 81 3f 67 66 7f 3f e4 e0 89 3f 7a 66 95 3f
       1.0152246 0.9976563 1.0771756 1.1671898

model.module_list.1.output_quant.pre_transforms.0.bias f4 [32]
000000 ea 20 39 bd c6 ce 37 3e e9 b8 62 3e 7c 7a 65 be
       -0.045197405 0.17949972 0.2214085 -0.22410005
000010 49 56 ef 3d ff e2 19 3e c0 33 a6 3e 5c a3 cf 3a
       0.116863795 0.15027998 0.32461357 0.0015841532
000020 db d0 64 bd 4f ee 14 3e 1e 1a 52 3d 7a 0c c2 3d
       -0.055863243 0.14544033 0.05129444 0.09475036
000030 65 d7 5a 3e b7 49 5c bc 82 b6 94 3d 40 36 09 3e
       0.21371229 -0.013445309 0.07261373 0.13399601
000040 8f 19 89 3d 13 56 a5 bc 35 e0 02 bd c0 7a 16 3d
       0.06694328 -0.020182645 -0.0319521 0.036738157
000050 e4 86 4e 3d c0 0d de bc 83 34 0f 3e ae 6e 42 3e
       0.05042161 -0.027106166 0.13984875 0.18987533
000060 9e 2c 9c bd a3 08 88 3e b7 91 0e 3e 8e 98 bc 3e
       -0.076256976 0.2656909 0.13922773 0.3683514
000070 19 83 e5 3d 00 00 00 00 54 ee 0b bd 29 1a 8d 3e
       0.112066455 0.0 -0.034162834 0.2755902

model.module_list.1.output_quant.pre_transforms.0.running_mean f4 [32]
000000 43 f9 5b bd 41 b8 25 3d 4f d4 3f be 94 f2 22 3d
       -0.05370451 0.04045892 -0.18733333 0.03978212
000010 f7 84 ed 3d 40 a3 cb 3d 5a a3 64 bd b4 9a 0b be
       0.11597627 0.09943247 -0.055819847 -0.13633233
000020 f1 39 59 3d f6 e3 28 bc a7 ac 12 3e 4a 1a 22 be
       0.053033773 -0.010308256 0.14323674 -0.15830341
000030 40 ae f4 3d de b8 ba bc 83 50 15 3e 9d ff 8b bd
       0.11947298 -0.02279323 0.14581494 -0.06835864
000040 01 0c ea 3d b0 42 17 3d f1 96 80 3d 45 88 15 be
       0.11428071 0.036928833 0.0627879 -0.14602764
000050 d4 7b 2c 3e 2f 5d ed 3d ce 4e a7 bd 6c a5 90 bd
       0.16844112 0.11590039 -0.08169328 -0.07062802
000060 93 27 a3 bd 69 1f 2b be 32 ba eb 3d 46 2c 86 3d
       -0.079665326 -0.16711201 0.11510123 0.06551413
000070 44 93 11 be 14 94 b8 3d e1 bd 56 bd 0d 16 9f 3d
       -0.14216334 0.09012619 -0.052427176 0.07767878

model.module_list.1.output_quant.pre_transforms.0.running_var f4 [32]
000000 46 be 78 3b 48 f2 90 3b 8a a7 ea 3b 9c 24 c0 3b
       0.0037955209 0.0044234134 0.0071610855 0.005863739
000010 bc 92 27 3b 50 9e 95 3b fb 75 95 3b 54 4c 08 3c
       0.0025569638 0.0045659915 0.0045611835 0.008318979
000020 d2 2e 80 3b cc c7 e2 3b b9 95 56 3b 59 94 ae 3b
       0.0039118314 0.0069207903 0.003274305 0.005327743
000030 ea da 0f 3c a4 bc db 3a ca 64 48 3c 68 5b 50 3b
       0.0087802205 0.0016764593 0.012231061 0.0031792764
000040 4c 9f 77 3b 61 ba 2b 3b 12 9f 9d 3b 45 af e8 3b
       0.0037784157 0.002620362 0.0048102224 0.007100972
000050 28 b8 66 3c 9b 7c 88 3b c3 42 bb 3b 4d e6 51 3b
       0.014081992 0.0041652448 0.0057147457 0.003202814
000060 a2 da 63 3b a8 53 0c 3c c7 08 96 3b 13 25 19 3b
       0.0034767766 0.008564867 0.004578683 0.0023368045
000070 ec e6 23 3b 4d 6f 30 3b 38 7c 5b 3b b6 e3 ad 3a
       0.0025009466 0.002692181 0.0033490788 0.0013266716

model.module_list.2.input_quant.pre_transforms.0.weight f4 [32]
000000 4a 0f 71 3f fe e7 9b 3f ad 15 48 3f fa fb 5a 3f
       0.94163954 1.2180173 0.78158075 0.85540736
000010 50 31 7c 3f 64 3c 87 3f dd ee 98 3f 53 03 71 3f
       0.98512745 1.0565305 1.1947895 0.941457
000020 31 81 79 3f b2 6d 84 3f 06 78 81 3f 5b 60 83 3f
       0.97462755 1.0345976 1.0114753 1.026378
000030 56 c7 aa 3f f8 91 85 3f 8d 86 7f 3f e7 93 86 3f
       1.3342083 1.0435171 0.99814683 1.0513886
000040 4d 7f 58 3f 8c aa 6f 3f f7 a1 9b 3f df 28 8b 3f
       0.84569246 0.9361961 1.2158803 1.0871848
000050 71 af 91 3f 7b 8c 8d 3f dd 79 8d 3f 0f c4 90 3f
       1.1381665 1.1058496 1.1052815 1.1309832
000060 5f 0b 55 3f 32 65 9f 3f 2c ef 84 3f 0a 0c 7f 3f
       0.83220476 1.2452757 1.038549 0.99627745
000070 e1 f2 81 3f 67 66 7f 3f e4 e0 89 3f 7a 66 95 3f
       1.0152246 0.9976563 1.0771756 1.1671898

model.module_list.2.input_quant.pre_transforms.0.bias f4 [32]
000000 ea 20 39 bd c6 ce 37 3e e9 b8 62 3e 7c 7a 65 be
       -0.045197405 0.17949972 0.2214085 -0.22410005
000010 49 56 ef 3d ff e2 19 3e c0 33 a6 3e 5c a3 cf 3a
       0.116863795 0.15027998 0.32461357 0.0015841532
000020 db d0 64 bd 4f ee 14 3e 1e 1a 52 3d 7a 0c c2 3d
       -0.055863243 0.14544033 0.05129444 0.09475036
000030 65 d7 5a 3e b7 49 5c bc 82 b6 94 3d 40 36 09 3e
       0.21371229 -0.013445309 0.07261373 0.13399601
000040 8f 19 89 3d 13 56 a5 bc 35 e0 02 bd c0 7a 16 3d
       0.06694328 -0.020182645 -0.0319521 0.036738157
000050 e4 86 4e 3d c0 0d de bc 83 34 0f 3e ae 6e 42 3e
       0.05042161 -0.027106166 0.13984875 0.18987533
000060 9e 2c 9c bd a3 08 88 3e b7 91 0e 3e 8e 98 bc 3e
       -0.076256976 0.2656909 0.13922773 0.3683514
000070 19 83 e5 3d 00 00 00 00 54 ee 0b bd 29 1a 8d 3e
       0.112066455 0.0 -0.034162834 0.2755902

model.module_list.2.input_quant.pre_transforms.0.running_mean f4 [32]
000000 43 f9 5b bd 41 b8 25 3d 4f d4 3f be 94 f2 22 3d
       -0.05370451 0.04045892 -0.18733333 0.03978212
000010 f7 84 ed 3d 40 a3 cb 3d 5a a3 64 bd b4 9a 0b be
       0.11597627 0.09943247 -0.055819847 -0.13633233
000020 f1 39 59 3d f6 e3 28 bc a7 ac 12 3e 4a 1a 22 be
       0.053033773 -0.010308256 0.14323674 -0.15830341
000030 40 ae f4 3d de b8 ba bc 83 50 15 3e 9d ff 8b bd
       0.11947298 -0.02279323 0.14581494 -0.06835864
000040 01 0c ea 3d b0 42 17 3d f1 96 80 3d 45 88 15 be
       0.11428071 0.036928833 0.0627879 -0.14602764
000050 d4 7b 2c 3e 2f 5d ed 3d ce 4e a7 bd 6c a5 90 bd
       0.16844112 0.11590039 -0.08169328 -0.07062802
000060 93 27 a3 bd 69 1f 2b be 32 ba eb 3d 46 2c 86 3d
       -0.079665326 -0.16711201 0.11510123 0.06551413
000070 44 93 11 be 14 94 b8 3d e1 bd 56 bd 0d 16 9f 3d
       -0.14216334 0.09012619 -0.052427176 0.07767878

model.module_list.2.input_quant.pre_transforms.0.running_var f4 [32]
000000 46 be 78 3b 48 f2 90 3b 8a a7 ea 3b 9c 24 c0 3b
       0.0037955209 0.0044234134 0.0071610855 0.005863739
000010 bc 92 27 3b 50 9e 95 3b fb 75 95 3b 54 4c 08 3c
       0.0025569638 0.0045659915 0.0045611835 0.008318979
000020 d2 2e 80 3b cc c7 e2 3b b9 95 56 3b 59 94 ae 3b
       0.0039118314 0.0069207903 0.003274305 0.005327743
000030 ea da 0f 3c a4 bc db 3a ca 64 48 3c 68 5b 50 3b
       0.0087802205 0.0016764593 0.012231061 0.0031792764
000040 4c 9f 77 3b 61 ba 2b 3b 12 9f 9d 3b 45 af e8 3b
       0.0037784157 0.002620362 0.0048102224 0.007100972
000050 28 b8 66 3c 9b 7c 88 3b c3 42 bb 3b 4d e6 51 3b
       0.014081992 0.0041652448 0.0057147457 0.003202814
000060 a2 da 63 3b a8 53 0c 3c c7 08 96 3b 13 25 19 3b
       0.0034767766 0.008564867 0.004578683 0.0023368045
000070 ec e6 23 3b 4d 6f 30 3b 38 7c 5b 3b b6 e3 ad 3a
       0.0025009466 0.002692181 0.0033490788 0.0013266716
