examples/hgcal_autoencoder/sml_avg_emd_hp_grid_search/weak2_lr0.005_warm_restart_freq100_wd0.0001/checkpoint_epoch195_loss=0.034.pth (torch, 418809 bytes, 73 tensors)

encoder.module_list.0.fc.weight f4 [64, 64]
000000 29 97 f1 3c c3 a0 6d 3d ba 22 4b bd ba 3d 22 3d
       0.029491024 0.058014642 -0.049593665 0.03960965
000010 fe d1 e2 bc 43 a5 1f 3d bd 2a 56 3d 28 a7 7c bb
       -0.027688023 0.038975965 0.052286852 -0.0038551781
000020 19 c2 b0 3d 5a d3 82 bd 48 08 1c 3d 04 e9 43 3d
       0.08630771 -0.06387968 0.038093835 0.047829643
000030 ff 3a 9a 3c 90 bb 54 c0 c4 85 26 3d b3 4b 5a bd
       0.01882696 -3.323948 0.040654913 -0.05329485
000040 fe c0 64 bc 44 14 99 3d 4e 97 65 3d 65 cb b8 3d
       -0.013962029 0.074745685 0.0560525 0.090231694
000050 f9 90 77 bc 44 ec b3 3c 40 3e 01 bd d9 43 ef 3a
       -0.015110248 0.021963246 -0.031553507 0.0018254473
000060 92 35 2b 3d a2 bb b5 bd 3d 04 2d 3d f9 1a 9d 3d
       0.041799136 -0.08873679 0.04224037 0.0767116
000070 5b d1 11 bc 02 9c 6e 3d 53 37 4e 3d f5 77 f3 bc
       -0.008900012 0.05825425 0.05034573 -0.029720286
000080 be fe 3d 3d 52 cb f5 3c 9d 0b 96 3c 45 2c 75 bd
       0.04638552 0.030004177 0.018316085 -0.05985667
000090 1b b2 5b 3d 58 70 97 3d 5d 69 b9 3d d6 fd 62 3d
       0.05363665 0.07394475 0.090532996 0.055417858
0000a0 3d c1 fc bc d3 89 b5 bd 4c e3 3a 3d 15 fe 37 3c
       -0.030853862 -0.088641785 0.045626923 0.0112300115
0000b0 65 d4 39 3d 65 1d 95 bc 2e 44 5f bb bb 49 0f bd
       0.04536857 -0.018202493 -0.0034067738 -0.034982424
0000c0 b3 8e 05 3d 8e 85 e6 bb 76 5a b4 bd 90 f6 b3 3c
       0.03260679 -0.007034964 -0.088063166 0.021968156
0000d0 0f fe 9e 3d 6a 94 b0 bd 61 85 37 3c 58 a5 fb 3c
       0.077633016 -0.08622058 0.011201234 0.03071849
0000e0 e6 0f f5 3f e4 33 4a 3d 83 3b 97 3d ca 86 16 3c
       1.9145477 0.049365893 0.07384398 0.00918741
0000f0 f3 89 94 bd 5a 23 4d bd 87 99 6e bd ed 63 86 3d
       -0.07252874 -0.050082542 -0.058251884 0.06562028
000100 41 79 a1 bd 83 b9 b9 bc c5 75 b3 3d f2 fa b9 bd
       -0.078844555 -0.022671467 0.08762697 -0.09081067
000110 b9 60 85 bd 84 d2 b1 bc ea 55 85 3d db 9a d1 bc
       -0.06512589 -0.021706827 0.065105274 -0.025586536
000120 9e f2 5f bc 26 92 fd 3c 51 1c f9 3c 75 91 80 3d
       -0.013668684 0.030953478 0.03040901 0.06277744
000130 20 b9 16 bd f6 4a f5 bb bb 6b 91 3d 19 d9 78 bc
       -0.036797643 -0.0074857427 0.07100626 -0.015188479
000140 7b 00 02 bd a3 d3 87 bd 2e 81 5f bb ec da 94 ba
       -0.03173874 -0.066321634 -0.0034104097 -0.0011356748
000150 97 83 93 3c 94 e1 82 3d 11 8b f9 3c d8 76 76 3d
       0.018007083 0.06390682 0.03046182 0.060171932
000160 ce f6 3c bd 7f ff 5c 3d dc a3 b6 3d 58 6c 22 bd
       -0.04613381 0.053954598 0.089179724 -0.039654106
000170 be 38 01 3d 85 bb 31 3c d4 08 a5 bb 4b d7 f8 3c
       0.031548254 0.010847931 -0.005036453 0.030376097
000180 1d b3 99 3d 40 ae 9c 3d b3 21 31 bd e3 4c b9 3d
       0.07504866 0.07650423 -0.04324503 0.09047868
000190 2f 8d 7a bd a8 c4 b9 bd c8 02 94 bd 5b 8b a0 bd
       -0.0611698 -0.09070712 -0.07227093 -0.0783908
0001a0 42 a1 a2 bd 62 e9 19 bd c9 16 8e 3d 0c 43 0c 3d
       -0.07940914 -0.037576087 0.0693794 0.03424363
0001b0 ca a5 ea 3b b0 c6 29 3d d6 6e ae 3d 47 51 72 3d
       0.007160877 0.04144925 0.08517234 0.059159543
0001c0 3e a3 e0 bc 0c 35 b9 3d 08 d7 81 3d 7b 63 bb bc
       -0.02742159 0.09043321 0.06339842 -0.022874584
0001d0 14 8b 54 bd 2b d7 1e bd be 3c 80 bc dc db d1 bb
       -0.051890448 -0.03877942 -0.015653964 -0.006404383
0001e0 cc e4 3b bd d3 d9 89 3c 7f 38 8d bd f1 7e 55 3d
       -0.045872495 0.0168275 -0.068955414 0.052123014
0001f0 2c b2 93 3d bc da 36 3d 85 ec 81 bd d3 f5 8d bd
       0.07211718 0.044642195 -0.06343941 -0.06931653
000200 ff a1 02 3d 44 97 fb bc 20 57 43 3d ed 63 86 3d
       0.031892773 -0.030711778 0.04769051 0.06562028
000210 a9 30 36 bd b0 69 a2 3d 9a 4b 67 3d 95 78 34 bd
       -0.04448 0.079303145 0.056468584 -0.04406031
000220 c8 ea c0 bc c7 d9 10 bd 89 0f 53 bd ea 70 53 bd
       -0.023549452 -0.03536394 -0.051528487 -0.051621355
000230 e6 c4 80 bd 93 9c 0e 3d 79 a6 94 bc b9 44 2b 3d
       -0.062875554 0.03481729 -0.018145787 0.041813586
000240 2d c1 f7 bc 77 19 b3 bd f5 00 b5 bc c2 0a aa bd
       -0.03024348 -0.087450914 -0.022095183 -0.08302833
000250 07 d8 d9 3c 26 0a 32 3d 81 1d 89 bd 2e 06 9f bd
       0.026592268 0.04346671 -0.066950805 -0.077648506
000260 b3 b1 b4 3d 88 31 b5 3d 20 3a 9f bd 5f 5e 8e 3d
       0.08822956 0.08847338 -0.07774758 0.069515936
000270 d0 17 1d bd 2d 0d bc 3c 80 8e c2 bc d7 b9 3a bd
       -0.038352787 0.022955501 -0.02374959 -0.045587387
000280 20 2d 2d bc 6a 2d 75 3d 51 39 32 3d 44 17 84 3d
       -0.010569841 0.059857763 0.043511692 0.0644975
000290 54 9c b7 bd 5a 86 ae bd 9f 8a b5 3b 83 a4 81 bd
       -0.08965364 -0.08521719 0.0055402066 -0.06330206
0002a0 a8 1f 87 bd 07 78 9a bd 7c 8c 56 3d 9f 29 3d bb
       -0.06597835 -0.07542425 0.05238007 -0.002886392
0002b0 dc b7 84 bd 93 7a 89 bc 8b 89 77 bd e4 a2 6a bd
       -0.06480381 -0.01678208 -0.060433906 -0.05728425
0002c0 16 9a ae 3d 34 47 26 3c 53 f1 89 3d d2 9f eb 3c
       0.08525483 0.010148812 0.06735482 0.028762732
0002d0 68 07 b7 3d e0 ae b5 bd 50 57 3f bd 78 66 b4 bd
       0.089369595 -0.088712454 -0.046714127 -0.08808607
0002e0 53 16 8a bb 7a 4d 8c bd 83 b1 b9 bd cd 71 9a 3c
       -0.004214087 -0.06850715 -0.09067061 0.018853093
0002f0 ee 63 3a bd 6d c7 7c 3d 22 c7 06 3d 41 6c d9 bc
       -0.045505457 0.061713625 0.03290475 -0.026540877
000300 27 34 98 bd 41 60 86 bd 58 38 77 3d cc af b6 3d
       -0.07431822 -0.06561328 0.060356468 0.08920249
000310 83 cf b4 3d 1b ae 10 3c b4 12 24 bc 3c b9 a1 bb
       0.08828642 0.0088305725 -0.010014225 -0.0049354117
000320 cd a4 8a 3d 2e 85 e4 3a 06 28 66 bd c7 b8 6c 3d
       0.067697145 0.001743471 -0.056190513 0.057793405
000330 4d b3 99 3d e0 dc ff 3b e6 7f 01 3d 2d 8a 81 bc
       0.07504902 0.007808313 0.031616114 -0.015812958
000340 29 d0 f1 3b 09 99 4c 3d ba d9 3b 3d 1c 8f b3 bd
       0.007379551 0.049950633 0.045861937 -0.0876753
000350 9a 5f a1 3d d4 8b d7 bb 17 71 82 bd d9 e7 7b bd
       0.07879563 -0.006577948 -0.063692264 -0.061500404
000360 f7 2e 7f bd 45 e7 da ba 1c a5 a5 bc d9 6a 8e 3d
       -0.06230065 -0.0016701004 -0.020220332 0.06953973
000370 61 8d 7a bd 15 db 95 bb b1 cc bb bc fe 42 e4 bc
       -0.061169986 -0.0045732358 -0.022924753 -0.027863976
000380 6f 98 99 3d b4 6a 86 bd be 7a 74 3d 4a 0d 80 bd
       0.074997775 -0.06563321 0.05968737 -0.06252535
000390 d8 c6 87 bd 28 ba c1 bc 81 41 99 3c 4d 5f bb bc
       -0.06629723 -0.023648337 0.018707993 -0.022872591
0003a0 54 31 a3 bb ca b7 a6 3d b6 02 a4 bd 1e 6c 3d 3d
       -0.0049802456 0.08140524 -0.080083296 0.046245687
0003b0 ec f2 56 3b 6b 4c 80 3d e5 80 b4 3d ca bc 9c bd
       0.0032798601 0.062645756 0.08813647 -0.07653196
0003c0 ab 21 8f b9 34 22 24 3d bb eb 97 bd f3 ca ea 3c
       -0.0002730017 0.04007168 -0.07418009 0.028661227
0003d0 82 d7 a4 bd 50 1f 75 3c 56 ac a9 3d f8 3d c2 3c
       -0.08048917 0.014961079 0.082848236 0.02371119
0003e0 80 8d 99 3d 58 67 69 bc 65 6b a0 3d bf 4f 86 3c
       0.07497692 -0.0142458305 0.07832984 0.016395448
0003f0 07 a4 13 bc f0 7e 8d 3d f6 e4 5e 3d 7f 74 03 bd
       -0.009011275 0.06908977 0.054417573 -0.03209352

encoder.module_list.0.fc.bias f4 [64]
000000 93 68 6b bc 0f 3f 78 3d 54 e4 cf 3b 42 fb bc 3d
       -0.014368194 0.060607012 0.0063443575 0.09227611
000010 01 6b 4d bc 16 08 09 be 5e 97 14 bc 3e 35 34 3d
       -0.012537719 -0.13381991 -0.009069292 0.04399609
000020 1c 2d bd 3d 37 e5 41 ba 76 6a 7b 3b 82 5a 71 bd
       0.092371196 -0.00073965214 0.0038363016 -0.058924206
000030 19 74 74 3d 95 4b f0 bd 5c f6 6f bd 69 2a 94 bd
       0.05968103 -0.11733166 -0.058584556 -0.072346516
000040 9c 19 68 3d 9e c7 2b be af 2f 91 bd 99 b8 a2 3d
       0.056665048 -0.16775367 -0.07089173 0.079453655
000050 4c 51 13 bd a0 33 7e 3c 3d e7 6d bd 62 37 e9 bd
       -0.035966203 0.015515238 -0.058081854 -0.113875166
000060 01 fe 5f bd c6 f0 05 3d d2 b6 38 3c 03 27 7d 3d
       -0.054685596 0.032700323 0.0112740565 0.061804783
000070 e1 17 ae 3d 09 b0 e3 3d 51 40 97 3b 64 31 ce 3c
       0.08500648 0.111175604 0.0046158214 0.025170036
000080 ef 03 4a bd 36 c8 c7 3c f7 d1 49 bd 10 f4 94 bd
       -0.049320158 0.02438746 -0.049272504 -0.07273114
000090 bf 17 47 bc 70 a3 a1 bd 8c 40 1e bd b1 1e 0e bc
       -0.012151658 -0.07892501 -0.038635775 -0.00867431
0000a0 72 09 e4 be b1 43 60 bd 8d e6 0d c0 42 4b b3 3d
       -0.44538456 -0.054752056 -2.2171967 0.08754589
0000b0 54 0c 54 bc 83 58 0e ba c1 2b 45 3d 37 f9 93 bd
       -0.012942392 -0.00054300594 0.04813743 -0.07225268
0000c0 84 e8 ab 3c 4f 13 25 bd f0 0b ef be a2 61 93 bd
       0.020984896 -0.040301617 -0.46688795 -0.07196356
0000d0 40 eb 27 bc 21 b4 81 bd e8 40 45 bd 9c 56 c4 bd
       -0.010248959 -0.06333185 -0.048157603 -0.09586832
0000e0 ec 48 9f 3d 6a 43 2b 3e cd e3 a8 3d 69 5f e0 3d
       0.077775806 0.16724935 0.082465746 0.10955698
0000f0 99 69 85 3d 28 5f ec bd 0c fd f5 bd 60 f4 0e 3c
       0.06514282 -0.11541587 -0.120111555 0.008725256

encoder.module_list.0.fc.mask.mask f4 [64, 64]
000000 00 00 00 00 00 00 00 00 00 00 00 00 00 00 00 00
       0.0 0.0 0.0 0.0
000010 00 00 00 00 00 00 00 00 00 00 00 00 00 00 00 00
       0.0 0.0 0.0 0.0
000020 00 00 00 00 00 00 00 00 00 00 00 00 00 00 00 00
       0.0 0.0 0.0 0.0
000030 00 00 00 00 00 00 80 3f 00 00 00 00 00 00 00 00
       0.0 1.0 0.0 0.0
000040 00 00 00 00 00 00 00 00 00 00 00 00 00 00 00 00
       0.0 0.0 0.0 0.0
000050 00 00 00 00 00 00 00 00 00 00 00 00 00 00 00 00
       0.0 0.0 0.0 0.0
000060 00 00 00 00 00 00 00 00 00 00 00 00 00 00 00 00
       0.0 0.0 0.0 0.0
000070 00 00 00 00 00 00 00 00 00 00 00 00 00 00 00 00
       0.0 0.0 0.0 0.0
000080 00 00 00 00 00 00 00 00 00 00 00 00 00 00 00 00
       0.0 0.0 0.0 0.0
000090 00 00 00 00 00 00 00 00 00 00 00 00 00 00 00 00
       0.0 0.0 0.0 0.0
0000a0 00 00 00 00 00 00 00 00 00 00 00 00 00 00 00 00
       0.0 0.0 0.0 0.0
0000b0 00 00 00 00 00 00 00 00 00 00 00 00 00 00 00 00
       0.0 0.0 0.0 0.0
0000c0 00 00 00 00 00 00 00 00 00 00 00 00 00 00 00 00
       0.0 0.0 0.0 0.0
0000d0 00 00 00 00 00 00 00 00 00 00 00 00 00 00 00 00
       0.0 0.0 0.0 0.0
0000e0 00 00 80 3f 00 00 00 00 00 00 00 00 00 00 00 00
       1.0 0.0 0.0 0.0
0000f0 00 00 00 00 00 00 00 00 00 00 00 00 00 00 00 00
       0.0 0.0 0.0 0.0
000100 00 00 00 00 00 00 00 00 00 00 00 00 00 00 00 00
       0.0 0.0 0.0 0.0
000110 00 00 00 00 00 00 00 00 00 00 00 00 00 00 00 00
       0.0 0.0 0.0 0.0
000120 00 00 00 00 00 00 00 00 00 00 00 00 00 00 00 00
       0.0 0.0 0.0 0.0
000130 00 00 00 00 00 00 00 00 00 00 00 00 00 00 00 00
       0.0 0.0 0.0 0.0
000140 00 00 00 00 00 00 00 00 00 00 00 00 00 00 80 3f
       0.0 0.0 0.0 1.0
000150 00 00 00 00 00 00 00 00 00 00 00 00 00 00 00 00
       0.0 0.0 0.0 0.0
000160 00 00 00 00 00 00 00 00 00 00 00 00 00 00 00 00
       0.0 0.0 0.0 0.0
000170 00 00 00 00 00 00 00 00 00 00 00 00 00 00 00 00
       0.0 0.0 0.0 0.0
000180 00 00 00 00 00 00 00 00 00 00 00 00 00 00 00 00
       0.0 0.0 0.0 0.0
000190 00 00 80 3f 00 00 00 00 00 00 00 00 00 00 00 00
       1.0 0.0 0.0 0.0
0001a0 00 00 00 00 00 00 00 00 00 00 00 00 00 00 00 00
       0.0 0.0 0.0 0.0
0001b0 00 00 00 00 00 00 00 00 00 00 00 00 00 00 00 00
       0.0 0.0 0.0 0.0
0001c0 00 00 00 00 00 00 00 00 00 00 00 00 00 00 00 00
       0.0 0.0 0.0 0.0
0001d0 00 00 00 00 00 00 00 00 00 00 00 00 00 00 00 00
       0.0 0.0 0.0 0.0
0001e0 00 00 00 00 00 00 00 00 00 00 00 00 00 00 00 00
       0.0 0.0 0.0 0.0
0001f0 00 00 00 00 00 00 00 00 00 00 00 00 00 00 00 00
       0.0 0.0 0.0 0.0
000200 00 00 00 00 00 00 00 00 00 00 00 00 00 00 00 00
       0.0 0.0 0.0 0.0
000210 00 00 00 00 00 00 00 00 00 00 00 00 00 00 00 00
       0.0 0.0 0.0 0.0
000220 00 00 00 00 00 00 00 00 00 00 00 00 00 00 00 00
       0.0 0.0 0.0 0.0
000230 00 00 00 00 00 00 00 00 00 00 00 00 00 00 00 00
       0.0 0.0 0.0 0.0
000240 00 00 00 00 00 00 00 00 00 00 00 00 00 00 00 00
       0.0 0.0 0.0 0.0
000250 00 00 00 00 00 00 00 00 00 00 00 00 00 00 00 00
       0.0 0.0 0.0 0.0
000260 00 00 00 00 00 00 00 00 00 00 00 00 00 00 00 00
       0.0 0.0 0.0 0.0
000270 00 00 00 00 00 00 80 3f 00 00 00 00 00 00 00 00
       0.0 1.0 0.0 0.0
000280 00 00 00 00 00 00 00 00 00 00 00 00 00 00 00 00
       0.0 0.0 0.0 0.0
000290 00 00 00 00 00 00 00 00 00 00 00 00 00 00 00 00
       0.0 0.0 0.0 0.0
0002a0 00 00 00 00 00 00 00 00 00 00 00 00 00 00 00 00
       0.0 0.0 0.0 0.0
0002b0 00 00 00 00 00 00 80 3f 00 00 00 00 00 00 00 00
       0.0 1.0 0.0 0.0
0002c0 00 00 00 00 00 00 00 00 00 00 00 00 00 00 00 00
       0.0 0.0 0.0 0.0
0002d0 00 00 00 00 00 00 00 00 00 00 00 00 00 00 00 00
       0.0 0.0 0.0 0.0
0002e0 00 00 00 00 00 00 00 00 00 00 00 00 00 00 00 00
       0.0 0.0 0.0 0.0
0002f0 00 00 00 00 00 00 00 00 00 00 00 00 00 00 00 00
       0.0 0.0 0.0 0.0
000300 00 00 00 00 00 00 00 00 00 00 00 00 00 00 00 00
       0.0 0.0 0.0 0.0
000310 00 00 00 00 00 00 00 00 00 00 00 00 00 00 00 00
       0.0 0.0 0.0 0.0
000320 00 00 00 00 00 00 80 3f 00 00 00 00 00 00 00 00
       0.0 1.0 0.0 0.0
000330 00 00 00 00 00 00 00 00 00 00 00 00 00 00 00 00
       0.0 0.0 0.0 0.0
000340 00 00 00 00 00 00 00 00 00 00 00 00 00 00 00 00
       0.0 0.0 0.0 0.0
000350 00 00 00 00 00 00 00 00 00 00 00 00 00 00 00 00
       0.0 0.0 0.0 0.0
000360 00 00 00 00 00 00 00 00 00 00 00 00 00 00 00 00
       0.0 0.0 0.0 0.0
000370 00 00 00 00 00 00 00 00 00 00 00 00 00 00 00 00
       0.0 0.0 0.0 0.0
000380 00 00 00 00 00 00 00 00 00 00 00 00 00 00 00 00
       0.0 0.0 0.0 0.0
000390 00 00 00 00 00 00 00 00 00 00 00 00 00 00 00 00
       0.0 0.0 0.0 0.0
0003a0 00 00 00 00 00 00 00 00 00 00 00 00 00 00 00 00
       0.0 0.0 0.0 0.0
0003b0 00 00 00 00 00 00 00 00 00 00 00 00 00 00 00 00
       0.0 0.0 0.0 0.0
0003c0 00 00 80 3f 00 00 00 00 00 00 00 00 00 00 00 00
       1.0 0.0 0.0 0.0
0003d0 00 00 00 00 00 00 00 00 00 00 00 00 00 00 00 00
       0.0 0.0 0.0 0.0
0003e0 00 00 00 00 00 00 00 00 00 00 00 00 00 00 00 00
       0.0 0.0 0.0 0.0
0003f0 00 00 00 00 00 00 00 00 00 00 00 00 00 00 00 00
       0.0 0.0 0.0 0.0

encoder.module_list.0.output_quant.pre_transforms.0.weight f4 [64]
000000 99 b5 83 3f 53 a2 d6 3e d9 10 48 40 21 36 3a 3f
       1.0289794 0.4192072 3.1260283 0.72738844
000010 99 3f 04 40 7d d0 b9 3f 6e a1 6e 3e 48 ce d9 3f
       2.0663817 1.451675 0.23303768 1.7016077
000020 21 36 3a 3f cd 80 9f 3f d1 5e 19 40 3e b4 9c 3f
       0.72738844 1.2461182 2.3964121 1.2242506
000030 18 db 31 3f 36 11 b8 3f 21 36 3a 3f 94 df d7 3f
       0.69474936 1.4380252 0.72738844 1.6865106
000040 21 36 3a 3f 1a 8e ce 3f 09 0d d4 3f 0a e4 34 3f
       0.72738844 1.6137116 1.6566478 0.7066046
000050 cb a3 12 40 ae 0c ea 3f 05 e0 cf 3f 34 f4 af 3f
       2.2912471 1.828512 1.624024 1.37464
000060 fb 96 9e 3f 00 93 3a 3f 13 95 8f 3f 3a 5f d8 3e
       1.2389826 0.72880554 1.1217369 0.42260152
000070 ff 7a b9 3f 88 f5 ca 3f 88 78 ab 3f 53 36 95 3f
       1.449066 1.585618 1.3396158 1.1657203
000080 72 5c 15 40 a4 7d 88 40 6f 34 d4 3f 84 d5 ea 3f
       2.3337674 4.265337 1.6578501 1.834641
000090 7e 89 0e 40 21 36 3a 3f f6 ff 34 3f 01 da 5a 3e
       2.2271419 0.72738844 0.70703065 0.21372224
0000a0 59 c7 4f 3f 27 99 14 40 ad b3 0f 41 21 36 3a 3f
       0.81163555 2.3218477 8.981366 0.72738844
0000b0 0a 44 9e 3f fd 31 9c 3f 95 6f 13 40 d7 53 e2 3f
       1.2364514 1.2202755 2.3036854 1.7681836
0000c0 37 44 e0 3f 4d 8a 9f 3f 0c 84 02 40 8d 54 39 3f
       1.7520818 1.2464081 2.0393095 0.7239464
0000d0 21 36 3a 3f 9b 7b 09 40 e2 44 42 3e 40 f4 21 3e
       0.72738844 2.1481693 0.18971589 0.1581583
0000e0 41 a3 8b 3f d9 c1 b7 3f 03 1e 21 40 fa 12 09 40
       1.0909196 1.4356033 2.5174568 2.1417832
0000f0 10 34 d0 3f 70 d2 b6 3f 47 89 42 40 21 36 3a 3f
       1.6265888 1.428297 3.0396287 0.72738844

encoder.module_list.0.output_quant.pre_transforms.0.bias f4 [64]
000000 4a ba ec 40 eb 3e a8 bd 7a ed 03 3f 00 00 00 00
       7.3977404 -0.08215126 0.51534235 0.0
000010 7f f7 58 3f 8c c0 11 3f 39 59 26 bf 19 fa 34 41
       0.8475265 0.5693443 -0.6497989 11.311059
000020 00 00 00 00 40 94 c2 40 55 83 6e c0 fa ad 8a 3f
       0.0 6.080597 -3.7267659 1.0834343
000030 8d b6 60 bd 88 a1 16 be 00 00 00 00 ad af 16 3f
       -0.054861594 -0.14710057 0.0 0.5886181
000040 00 00 00 00 88 e2 28 3f 2c 0f fd 40 e8 8d 2b bd
       0.0 0.6597066 7.908102 -0.04188338
000050 25 58 3a 41 ae 55 65 bf 93 04 d2 40 61 d4 08 3f
       11.64652 -0.8958386 6.5630584 0.53449064
000060 c6 b7 9b 3e b8 6a 9f bb 71 2a bd 40 a6 07 63 be
       0.30413646 -0.004865017 5.911431 -0.22170886
000070 cd f0 38 41 29 12 36 41 17 31 31 41 2a 3a c1 40
       11.558789 11.379434 11.074485 6.03835
000080 15 91 3a 41 bb a3 31 41 a7 f8 10 41 0b e4 31 be
       11.66042 11.102473 9.060706 -0.17372148
000090 2b b4 a7 3e 00 00 00 00 04 e7 16 bd 06 2f 91 be
       0.32754645 0.0 -0.036841407 -0.2835619
0000a0 17 1b 57 be dc 06 5d 3f eb 19 a6 40 00 00 00 00
       -0.21006428 0.8633859 5.190664 0.0
0000b0 ab d6 bf 40 05 ae 30 41 7b 54 8a 3e 40 9c 22 3f
       5.9949546 11.042485 0.27017578 0.6351967
0000c0 31 e8 2c 41 78 2b 04 3f 9d 7f 3a 41 28 8a 53 bd
       10.806687 0.5162883 11.656156 -0.051645428
0000d0 00 00 00 00 e4 a9 3a 41 45 ea 04 be b3 04 8d be
       0.0 11.666477 -0.12979992 -0.27542648
0000e0 3d 15 98 40 ee fa 36 41 98 6b 5f 3e 52 7c b3 3e
       4.7525926 11.436262 0.21818388 0.35055786
0000f0 5e 11 35 41 30 60 0f 3f 7e 6e 37 41 00 00 00 00
       11.31674 0.56006145 11.464476 0.0

encoder.module_list.0.output_quant.pre_transforms.0.running_mean f4 [64]
000000 7f 02 53 bd 8a 21 78 3d 47 0b e1 3b c9 12 bd 3d
       -0.051516052 0.06057886 0.0068677994 0.092320986
000010 65 ae 0b 3e d6 c8 3a 3d d5 f3 20 bc b1 f7 c1 bd
       0.13640745 0.04560169 -0.009823759 -0.094710715
000020 ea 53 c3 3d 50 24 50 3c a8 4e 90 3b 50 13 19 3d
       0.0953749 0.01270397 0.004403908 0.037371933
000030 29 76 74 3d 46 23 e9 3c d3 8b 69 bd 08 37 cd 3d
       0.059683 0.028459202 -0.057018112 0.10020262
000040 35 a0 70 3d b5 7f 08 bc 30 7e 33 bd 3a b3 a2 3d
       0.058746535 -0.008331229 -0.043821514 0.07944341
000050 fc 81 15 bd 67 b7 34 bc 36 eb f1 bc 52 c8 d0 3c
       -0.036500916 -0.011030055 -0.029531103 0.025486145
000060 24 1b fe 3e c3 ef 05 3d d9 e2 bf b9 cf 79 72 3d
       0.49630082 0.032699358 -0.00036599374 0.059198197
000070 23 49 8f bd fd b9 d5 bc 51 21 45 bd 16 ed 01 3d
       -0.069963716 -0.026089663 -0.048127476 0.031720243
000080 5a 46 4b bd d2 e9 c1 3c 20 86 17 be 68 03 9e 3d
       -0.04962764 0.023671065 -0.14797258 0.077154934
000090 e5 7f 40 bc 92 80 a4 bd c0 49 1e bd 81 5d 1e bc
       -0.011749242 -0.08032335 -0.038644552 -0.009665848
0000a0 4f 3c e4 be 03 d2 b7 3d 81 d1 13 c0 3b 4b b3 3d
       -0.44577262 0.089756034 -2.309662 0.087545834
0000b0 b5 21 91 3b 1b 04 41 bd 56 cb 47 3d 2f 9a 99 3d
       0.004429067 -0.047123056 0.0487779 0.07500111
0000c0 4f 48 fd bd 1c ef 92 3d 3e 50 ef be 27 65 93 bd
       -0.123673074 0.07174513 -0.46740907 -0.07197028
0000d0 b7 b9 45 bc f8 99 82 bd 67 cd 4d bd 26 da cf bd
       -0.012068204 -0.063770235 -0.050244715 -0.101490304
0000e0 dc 35 8c bd 63 db 99 3c 04 56 aa 3d 35 7d e1 3d
       -0.0684621 0.01878137 0.083171874 0.110102095
0000f0 84 6d a1 bd 9c 61 1b 3d 46 d9 f6 bd d8 7a ea 3b
       -0.078822166 0.037934884 -0.1205316 0.0071557574

encoder.module_list.0.output_quant.pre_transforms.0.running_var f4 [64]
000000 8e 18 23 3e fc fe 30 32 82 41 a6 36 f5 ad 22 33
       0.15927336 1.0302525e-08 4.9548116e-06 3.7876777e-08
000010 53 0a 3b 3e ec 29 6d 3e 0f 48 00 37 a4 6a 0e 3e
       0.18265657 0.23160523 7.646172e-06 0.13907868
000020 d3 4e 88 38 34 10 16 3e 47 47 89 36 85 07 58 3e
       6.4996675e-05 0.14654619 4.091216e-06 0.21096618
000030 19 d7 77 2e 81 f5 0c 3e 36 bf 15 38 c5 78 7b 3e
       5.6352343e-11 0.13765527 3.5702447e-05 0.24557789
000040 d4 57 75 38 29 86 2e 3e 1b 3d 05 3e bc ba b0 30
       5.849435e-05 0.17043366 0.13011591 1.2858759e-09
000050 fe 53 51 36 a0 d8 3b 3e ae c0 0a 3e 0d ee 09 3e
       3.1192317e-06 0.18344355 0.13550064 0.13469715
000060 7f 34 8a 40 c0 32 4e 2d 6f b8 00 3e a0 29 b9 38
       4.318908 1.1721013e-11 0.12570356 8.829241e-05
000070 bf 54 2a 3e 12 fa f8 3d 28 bb 15 3e 36 2e 12 3e
       0.1663389 0.12157072 0.14622176 0.1427544
000080 62 87 3e 36 9a 40 e2 36 fc e1 06 3e aa 87 1c 3e
       2.839101e-06 6.7428455e-06 0.13172144 0.15286127
000090 df 28 18 36 34 48 ca 37 f1 c7 89 30 c5 61 65 37
       2.2673555e-06 2.4113899e-05 1.0024889e-09 1.3672227e-05
0000a0 5d ad 0a 36 b8 46 29 3e fc 32 f0 3d 0d 16 3f 23
       2.0664513e-06 0.16530883 0.117284745 1.03588e-17
0000b0 b7 ba 18 3e d9 95 18 3e 83 f1 90 36 7f f1 22 3e
       0.14914976 0.14900912 4.31965e-06 0.15912436
0000c0 5f 49 cb 3e d0 73 86 3e 80 e1 7f 36 fd be 18 30
       0.39704415 0.26260233 3.812922e-06 5.556869e-10
0000d0 45 ec 46 38 a8 11 3f 36 52 34 7b 38 25 0a e5 39
       4.742692e-05 2.8471495e-06 5.989179e-05 0.00043685842
0000e0 79 a5 83 3e b7 b2 26 3e e1 e7 96 36 08 00 67 36
       0.25712183 0.16279112 4.4973426e-06 3.44217e-06
0000f0 50 b2 0b 3e 5d cb 2c 3e 23 2e 87 36 be 44 0d 38
       0.1364224 0.16874452 4.0286845e-06 3.368104e-05

encoder.module_list.1.input_quant.pre_transforms.0.weight f4 [64]
000000 99 b5 83 3f 53 a2 d6 3e d9 10 48 40 21 36 3a 3f
       1.0289794 0.4192072 3.1260283 0.72738844
000010 99 3f 04 40 7d d0 b9 3f 6e a1 6e 3e 48 ce d9 3f
       2.0663817 1.451675 0.23303768 1.7016077
000020 21 36 3a 3f cd 80 9f 3f d1 5e 19 40 3e b4 9c 3f
       0.72738844 1.2461182 2.3964121 1.2242506
000030 18 db 31 3f 36 11 b8 3f 21 36 3a 3f 94 df d7 3f
       0.69474936 1.4380252 0.72738844 1.6865106
000040 21 36 3a 3f 1a 8e ce 3f 09 0d d4 3f 0a e4 34 3f
       0.72738844 1.6137116 1.6566478 0.7066046
000050 cb a3 12 40 ae 0c ea 3f 05 e0 cf 3f 34 f4 af 3f
       2.2912471 1.828512 1.624024 1.37464
000060 fb 96 9e 3f 00 93 3a 3f 13 95 8f 3f 3a 5f d8 3e
       1.2389826 0.72880554 1.1217369 0.42260152
000070 ff 7a b9 3f 88 f5 ca 3f 88 78 ab 3f 53 36 95 3f
       1.449066 1.585618 1.3396158 1.1657203
000080 72 5c 15 40 a4 7d 88 40 6f 34 d4 3f 84 d5 ea 3f
       2.3337674 4.265337 1.6578501 1.834641
000090 7e 89 0e 40 21 36 3a 3f f6 ff 34 3f 01 da 5a 3e
       2.2271419 0.72738844 0.70703065 0.21372224
0000a0 59 c7 4f 3f 27 99 14 40 ad b3 0f 41 21 36 3a 3f
       0.81163555 2.3218477 8.981366 0.72738844
0000b0 0a 44 9e 3f fd 31 9c 3f 95 6f 13 40 d7 53 e2 3f
       1.2364514 1.2202755 2.3036854 1.7681836
0000c0 37 44 e0 3f 4d 8a 9f 3f 0c 84 02 40 8d 54 39 3f
       1.7520818 1.2464081 2.0393095 0.7239464
0000d0 21 36 3a 3f 9b 7b 09 40 e2 44 42 3e 40 f4 21 3e
       0.72738844 2.1481693 0.18971589 0.1581583
0000e0 41 a3 8b 3f d9 c1 b7 3f 03 1e 21 40 fa 12 09 40
       1.0909196 1.4356033 2.5174568 2.1417832
0000f0 10 34 d0 3f 70 d2 b6 3f 47 89 42 40 21 36 3a 3f
       1.6265888 1.428297 3.0396287 0.72738844

encoder.module_list.1.input_quant.pre_transforms.0.bias f4 [64]
000000 4a ba ec 40 eb 3e a8 bd 7a ed 03 3f 00 00 00 00
       7.3977404 -0.08215126 0.51534235 0.0
000010 7f f7 58 3f 8c c0 11 3f 39 59 26 bf 19 fa 34 41
       0.8475265 0.5693443 -0.6497989 11.311059
000020 00 00 00 00 40 94 c2 40 55 83 6e c0 fa ad 8a 3f
       0.0 6.080597 -3.7267659 1.0834343
000030 8d b6 60 bd 88 a1 16 be 00 00 00 00 ad af 16 3f
       -0.054861594 -0.14710057 0.0 0.5886181
000040 00 00 00 00 88 e2 28 3f 2c 0f fd 40 e8 8d 2b bd
       0.0 0.6597066 7.908102 -0.04188338
000050 25 58 3a 41 ae 55 65 bf 93 04 d2 40 61 d4 08 3f
       11.64652 -0.8958386 6.5630584 0.53449064
000060 c6 b7 9b 3e b8 6a 9f bb 71 2a bd 40 a6 07 63 be
       0.30413646 -0.004865017 5.911431 -0.22170886
000070 cd f0 38 41 29 12 36 41 17 31 31 41 2a 3a c1 40
       11.558789 11.379434 11.074485 6.03835
000080 15 91 3a 41 bb a3 31 41 a7 f8 10 41 0b e4 31 be
       11.66042 11.102473 9.060706 -0.17372148
000090 2b b4 a7 3e 00 00 00 00 04 e7 16 bd 06 2f 91 be
       0.32754645 0.0 -0.036841407 -0.2835619
0000a0 17 1b 57 be dc 06 5d 3f eb 19 a6 40 00 00 00 00
       -0.21006428 0.8633859 5.190664 0.0
0000b0 ab d6 bf 40 05 ae 30 41 7b 54 8a 3e 40 9c 22 3f
       5.9949546 11.042485 0.27017578 0.6351967
0000c0 31 e8 2c 41 78 2b 04 3f 9d 7f 3a 41 28 8a 53 bd
       10.806687 0.5162883 11.656156 -0.051645428
0000d0 00 00 00 00 e4 a9 3a 41 45 ea 04 be b3 04 8d be
       0.0 11.666477 -0.12979992 -0.27542648
0000e0 3d 15 98 40 ee fa 36 41 98 6b 5f 3e 52 7c b3 3e
       4.7525926 11.436262 0.21818388 0.35055786
0000f0 5e 11 35 41 30 60 0f 3f 7e 6e 37 41 00 00 00 00
       11.31674 0.56006145 11.464476 0.0

encoder.module_list.1.input_quant.pre_transforms.0.running_mean f4 [64]
000000 7f 02 53 bd 8a 21 78 3d 47 0b e1 3b c9 12 bd 3d
       -0.051516052 0.06057886 0.0068677994 0.092320986
000010 65 ae 0b 3e d6 c8 3a 3d d5 f3 20 bc b1 f7 c1 bd
       0.13640745 0.04560169 -0.009823759 -0.094710715
000020 ea 53 c3 3d 50 24 50 3c a8 4e 90 3b 50 13 19 3d
       0.0953749 0.01270397 0.004403908 0.037371933
000030 29 76 74 3d 46 23 e9 3c d3 8b 69 bd 08 37 cd 3d
       0.059683 0.028459202 -0.057018112 0.10020262
000040 35 a0 70 3d b5 7f 08 bc 30 7e 33 bd 3a b3 a2 3d
       0.058746535 -0.008331229 -0.043821514 0.07944341
000050 fc 81 15 bd 67 b7 34 bc 36 eb f1 bc 52 c8 d0 3c
       -0.036500916 -0.011030055 -0.029531103 0.025486145
000060 24 1b fe 3e c3 ef 05 3d d9 e2 bf b9 cf 79 72 3d
       0.49630082 0.032699358 -0.00036599374 0.059198197
000070 23 49 8f bd fd b9 d5 bc 51 21 45 bd 16 ed 01 3d
       -0.069963716 -0.026089663 -0.048127476 0.031720243
000080 5a 46 4b bd d2 e9 c1 3c 20 86 17 be 68 03 9e 3d
       -0.04962764 0.023671065 -0.14797258 0.077154934
000090 e5 7f 40 bc 92 80 a4 bd c0 49 1e bd 81 5d 1e bc
       -0.011749242 -0.08032335 -0.038644552 -0.009665848
0000a0 4f 3c e4 be 03 d2 b7 3d 81 d1 13 c0 3b 4b b3 3d
       -0.44577262 0.089756034 -2.309662 0.087545834
0000b0 b5 21 91 3b 1b 04 41 bd 56 cb 47 3d 2f 9a 99 3d
       0.004429067 -0.047123056 0.0487779 0.07500111
0000c0 4f 48 fd bd 1c ef 92 3d 3e 50 ef be 27 65 93 bd
       -0.123673074 0.07174513 -0.46740907 -0.07197028
0000d0 b7 b9 45 bc f8 99 82 bd 67 cd 4d bd 26 da cf bd
       -0.012068204 -0.063770235 -0.050244715 -0.101490304
0000e0 dc 35 8c bd 63 db 99 3c 04 56 aa 3d 35 7d e1 3d
       -0.0684621 0.01878137 0.083171874 0.110102095
0000f0 84 6d a1 bd 9c 61 1b 3d 46 d9 f6 bd d8 7a ea 3b
       -0.078822166 0.037934884 -0.1205316 0.0071557574

encoder.module_list.1.input_quant.pre_transforms.0.running_var f4 [64]
000000 8e 18 23 3e fc fe 30 32 82 41 a6 36 f5 ad 22 33
       0.15927336 1.0302525e-08 4.9548116e-06 3.7876777e-08
000010 53 0a 3b 3e ec 29 6d 3e 0f 48 00 37 a4 6a 0e 3e
       0.18265657 0.23160523 7.646172e-06 0.13907868
000020 d3 4e 88 38 34 10 16 3e 47 47 89 36 85 07 58 3e
       6.4996675e-05 0.14654619 4.091216e-06 0.21096618
000030 19 d7 77 2e 81 f5 0c 3e 36 bf 15 38 c5 78 7b 3e
       5.6352343e-11 0.13765527 3.5702447e-05 0.24557789
000040 d4 57 75 38 29 86 2e 3e 1b 3d 05 3e bc ba b0 30
       5.849435e-05 0.17043366 0.13011591 1.2858759e-09
000050 fe 53 51 36 a0 d8 3b 3e ae c0 0a 3e 0d ee 09 3e
       3.1192317e-06 0.18344355 0.13550064 0.13469715
000060 7f 34 8a 40 c0 32 4e 2d 6f b8 00 3e a0 29 b9 38
       4.318908 1.1721013e-11 0.12570356 8.829241e-05
000070 bf 54 2a 3e 12 fa f8 3d 28 bb 15 3e 36 2e 12 3e
       0.1663389 0.12157072 0.14622176 0.1427544
000080 62 87 3e 36 9a 40 e2 36 fc e1 06 3e aa 87 1c 3e
       2.839101e-06 6.7428455e-06 0.13172144 0.15286127
000090 df 28 18 36 34 48 ca 37 f1 c7 89 30 c5 61 65 37
       2.2673555e-06 2.4113899e-05 1.0024889e-09 1.3672227e-05
0000a0 5d ad 0a 36 b8 46 29 3e fc 32 f0 3d 0d 16 3f 23
       2.0664513e-06 0.16530883 0.117284745 1.03588e-17
0000b0 b7 ba 18 3e d9 95 18 3e 83 f1 90 36 7f f1 22 3e
       0.14914976 0.14900912 4.31965e-06 0.15912436
0000c0 5f 49 cb 3e d0 73 86 3e 80 e1 7f 36 fd be 18 30
       0.39704415 0.26260233 3.812922e-06 5.556869e-10
0000d0 45 ec 46 38 a8 11 3f 36 52 34 7b 38 25 0a e5 39
       4.742692e-05 2.8471495e-06 5.989179e-05 0.00043685842
0000e0 79 a5 83 3e b7 b2 26 3e e1 e7 96 36 08 00 67 36
       0.25712183 0.16279112 4.4973426e-06 3.44217e-06
0000f0 50 b2 0b 3e 5d cb 2c 3e 23 2e 87 36 be 44 0d 38
       0.1364224 0.16874452 4.0286845e-06 3.368104e-05

encoder.module_list.1.fc.weight f4 [128, 64]
000000 72 e5 a9 bd f5 b1 05 3b 05 85 ee bc 10 db c3 3c
       -0.08295716 0.002040026 -0.029116163 0.023908168
000010 23 22 1c bd 02 99 2d bd b2 ab 6a bc 2d c2 8e bd
       -0.038118493 -0.042382248 -0.014323162 -0.0697063
000020 c1 9c bc bc fe 4f b3 3d f0 7b b9 bd e1 b5 8f bd
       -0.023023965 0.08755492 -0.09056842 -0.070171125
000030 3a c0 3e 3d 1c fe ab bd c5 8b 8a bd 50 71 ab bb
       0.04657004 -0.08398077 -0.0676494 -0.0052320138
000040 bf 95 06 3d 41 35 34 bd 5e e6 eb 3b b9 00 b7 bd
       0.032857653 -0.0439961 0.007199093 -0.08935685
000050 3b 0e b5 bd 1d b7 d5 bc ca e7 a9 3d c5 0d 93 bc
       -0.08840605 -0.026088292 0.082961634 -0.017950902
000060 1f 23 06 3d e0 05 5e 3d 03 a9 bb 3b 18 9d 81 bd
       0.032748338 0.05420482 0.005726935 -0.063287914
000070 fc 38 14 bd f8 73 29 bd f0 fb 0d c0 7e 08 83 bc
       -0.036187157 -0.041370362 -2.218502 -0.01599526
000080 0f 51 7a 3d 52 b4 7f bd c8 dc ab 3d 9c 1a fc 39
       0.06111246 -0.062427826 0.0839172 0.0004808501
000090 e0 35 58 3d 93 18 0b bd bc 77 3b bd 25 15 0c 3d
       0.052785754 -0.033958983 -0.045768484 0.034199852
0000a0 d0 0d 42 3d b1 1c 20 bd 47 49 f4 3c 96 6f 0d 3d
       0.047376454 -0.039089862 0.029820098 0.034530245
0000b0 da 1d 6d bd ee 7f ff 3b d7 c8 9b 3d 0a 60 b9 3c
       -0.057889797 0.007797233 0.076066665 0.022628803
0000c0 e3 7b 9f bd be 7f 9f bd ba c8 9a bc 48 1c 5e 3d
       -0.077873014 -0.07788037 -0.018894542 0.05422619
0000d0 01 34 4e 3d 38 07 83 bc fc 60 44 bd 87 5e 1c bd
       0.050342564 -0.015994653 -0.047944054 -0.038176086
0000e0 ab 01 18 bd 67 ff b5 b9 37 fb 10 bd 46 7d 3b 3d
       -0.037110966 -0.000347133 -0.035395827 0.045773767
0000f0 d1 69 9a 3c 16 eb 80 40 6e 54 97 3d 5f 1d 98 bd
       0.018849285 4.028697 0.073891506 -0.07427477
000100 75 36 5c 3b 27 7b 4d bb 2f 42 94 3c 98 e2 81 bd
       0.0033601795 -0.0031353922 0.018097965 -0.063420475
000110 e3 72 84 3d 58 55 9c 3d f3 81 56 bd de 34 80 bd
       0.064672254 0.076334655 -0.052370023 -0.062600836
000120 a2 b8 aa 3d 08 76 27 3d 1a ff 62 bd e0 59 5a bd
       0.08335997 0.040884048 -0.055419065 -0.053308368
000130 8a da 4e 3d 61 7f 72 3c 61 45 83 bb bb 7d ea 3c
       0.050501384 0.014800877 -0.0040060733 0.028624406
000140 9f 8e 92 3c 66 f8 e7 bc a7 32 bc 3c 0c bb 5a 3c
       0.017890273 -0.028316688 0.022973372 0.0133502595
000150 91 e4 92 3d dc d4 b9 bc c3 2a 0b 3d 50 99 97 3d
       0.07172502 -0.022684507 0.033976328 0.07402289
000160 42 d2 46 bd 34 21 ed bc 6e 96 e7 3b 64 8b a5 bc
       -0.04854036 -0.028946497 0.007067493 -0.020208068
000170 5e 44 6d 3d 66 d7 76 3d 24 b0 84 bd 6d ef 80 bc
       0.05792653 0.060264014 -0.06478909 -0.015739167
000180 c3 c7 88 3c 0d 4c 9b 3d 33 b2 d6 3c 86 60 e6 3c
       0.016696816 0.07582865 0.026208019 0.028122198
000190 92 fa 80 3d 1e ac 6c 3b 28 2a 18 3d db db 4b bb
       0.062977925 0.0036113332 0.03714958 -0.0031106386
0001a0 9e b5 2f bc e3 25 3c bc 4c 20 fe bc d2 d7 3b bd
       -0.010724453 -0.011483642 -0.03102126 -0.04586012
0001b0 6c 6d a6 bc cd 00 97 bd 0a a4 a5 3d 1a b1 51 3d
       -0.020315848 -0.073731996 0.080879286 0.051194288
0001c0 9e dc 1c 3c 24 ce a0 bd eb 1b 9e 3d be 99 a4 bd
       0.009574084 -0.07851818 0.07720169 -0.080371365
0001d0 28 f5 00 bd 7e f6 ad bb 1e 7b 1a 3c 66 7e 2e 3d
       -0.0314838 -0.005308925 0.0094287675 0.04260101
0001e0 b5 39 83 3d 65 30 3c bc 2e d4 68 3d 68 ce b7 bd
       0.06407491 -0.0114861475 0.056842975 -0.08974916
0001f0 fc 3a 9c bd ba 7c aa bd de ce 61 bd 04 3e 1d 3d
       -0.07628438 -0.08324571 -0.055128925 0.03838922
000200 b8 d7 d8 bc d1 f6 d9 bb cf e1 b6 bd 1a d2 38 3d
       -0.02647005 -0.0066517373 -0.08929788 0.045122243
000210 8f 68 b1 3d d1 c8 14 3d 53 b0 b2 bd 37 3f 1f bd
       0.08662521 0.036324326 -0.087250374 -0.038878646
000220 64 60 40 bd 33 fa 6e bd ed 06 f4 3c bc fa ac 3c
       -0.046966925 -0.058344077 0.029788459 0.021115653
000230 44 c6 21 3c 82 37 82 3c 25 4e 3b bd 83 19 2d be
       0.00987393 0.015895609 -0.04572882 -0.16904263
000240 aa 79 01 3d 85 66 73 bb f3 24 f7 bc 02 1f 30 bd
       0.03161017 -0.0037139964 -0.030168986 -0.04299832
000250 af ee 8b 3d da 74 9f 3c aa 3a b2 bd c0 59 d0 bc
       0.06832635 0.019464899 -0.087025955 -0.025433421
000260 21 eb 56 3d f9 63 1c bc 22 dd 83 bc 8e 67 e3 bb
       0.05247033 -0.00954532 -0.016096655 -0.006939835
000270 28 b3 41 bd 31 58 18 3f 26 65 b8 bd 9f 51 b6 bd
       -0.047289997 0.5950957 -0.090036675 -0.08902287
000280 1a 64 8d 3d 73 38 bb bc 6d 7e 00 bd 26 6a 2e c1
       0.069038585 -0.022854066 -0.03137057 -10.900915
000290 b5 6e 92 3d c9 cc 2c 3d 92 50 9b 3d c6 ce ad bd
       0.07150022 0.042187486 0.07583727 -0.084867045
0002a0 53 77 37 bd da 69 82 3d a4 ee a2 3c 8b d6 ea 3c
       -0.04479153 0.06367846 0.019889183 0.028666755
0002b0 6e 0d 01 bd fd d9 1b bd 06 59 68 bd 69 b3 d9 3c
       -0.03150695 -0.038049687 -0.056725524 0.026574807
0002c0 19 3a 84 bd dc 5b 84 bd 82 ef 05 3d 28 0d aa 3d
       -0.06456394 -0.06462833 0.032699116 0.083032906
0002d0 86 02 97 3d ad 4b 1b 3d 27 a6 b7 bd ad ca b1 3d
       0.07373528 0.037913967 -0.08967238 0.086812355
0002e0 79 56 b6 bd 78 f5 1b bd 5e 90 5d 3d e0 ec 5a bd
       -0.08903212 -0.038075894 0.054092757 -0.053448558
0002f0 d1 0c 74 3d 24 ba a9 bd 98 66 1e 3b 46 f3 2e bd
       0.059582535 -0.08287457 0.0024170037 -0.042712472
000300 b6 ec e4 3c b8 d0 b1 3d c5 52 b9 3d 59 97 36 bd
       0.027944904 0.08682388 0.0904899 -0.04457793
000310 6e 05 2f 3c 60 a1 be 3b 79 14 b9 bd cb ea 90 3b
       0.010682447 0.0058175772 -0.09037108 0.0044225208
000320 bc 2d 2d 3c 6a b6 84 bd 79 bf 56 bc 63 91 0a bc
       0.010569986 -0.06480105 -0.013107174 -0.008457514
000330 b1 ee fe 3c b8 3f 83 3d ed 11 96 bd cc 77 a9 3d
       0.031119676 0.06408638 -0.07327638 0.082748026
000340 d9 d4 b9 3b 19 82 59 bd b7 9f 85 3d dd 88 8b bd
       0.0056711254 -0.053102586 0.06524604 -0.06813214
000350 af 9d 4a 3c 5c e0 28 3d 7c f8 03 bd a9 d5 4e 3d
       0.012366696 0.04122959 -0.032219395 0.05049673
000360 98 68 98 bd be c8 01 bd 3f 17 d1 bb e2 47 a1 bd
       -0.07441825 -0.031685583 -0.006380945 -0.07875039
000370 50 b4 26 bd 85 f7 b3 bd 12 8e 9e bf 69 12 bd bc
       -0.040699303 -0.08787445 -1.2387106 -0.023080068
000380 62 bb b1 3d c0 bd be bc 9b f6 81 38 c9 45 15 3d
       0.086783186 -0.02328384 6.197133e-05 0.036443505
000390 84 65 27 3d ae e9 3b bc f7 13 8b bd 83 c4 b2 3d
       0.040868297 -0.011469288 -0.06790917 0.08728888
0003a0 3b 98 0e 3d 7b 72 5e 3d cc 7d ad bd 48 45 b7 bd
       0.034813147 0.054308396 -0.084712595 -0.08948761
0003b0 af d1 a3 bd 02 c0 d9 3c 27 d6 2b 3d a3 28 d1 bc
       -0.07998978 0.026580814 0.04195228 -0.025532072
0003c0 4a 70 9a bd 05 d7 1e bc 88 3a a8 3d 89 3f 5b 3d
       -0.07540949 -0.009694819 0.08214289 0.05352739
0003d0 2d 68 8f bd 1b c0 83 bd 64 95 93 bd 18 82 98 bb
       -0.07002292 -0.064331256 -0.072062284 -0.0046541803
0003e0 bd 27 ba bc 3d 48 79 c1 3a a3 55 bd f5 72 7c bd
       -0.022724027 -15.580136 -0.052157618 -0.06163307
0003f0 d8 c3 40 bd 57 f4 9b bd a0 41 83 3d cf 7c 19 bd
       -0.04706177 -0.076149635 0.06409001 -0.037472542

encoder.module_list.1.fc.bias f4 [128]
000000 41 31 14 3e 4c f5 c8 3d d7 9c c0 3d 9d bc 52 3d
       0.14471914 0.09812412 0.09404915 0.051449407
000010 08 26 55 3d 08 52 ed bd 61 ab fc 3e 50 b5 00 3d
       0.052038223 -0.11587912 0.49349502 0.031422913
000020 b8 da 3a bd c1 62 a5 be e6 67 e7 3d 7b c9 ba 3d
       -0.045618743 -0.32301906 0.11299114 0.091204606
000030 34 62 10 3d 68 70 4a be 14 df 5e 3d 74 fe ca bd
       0.035249904 -0.19769442 0.054411963 -0.09911814
000040 8c cd 0a 3f da 08 cf 3d 4c 56 ea 3d 78 e5 cc 3c
       0.5421989 0.1010911 0.11442241 0.025011763
000050 7a a8 8d bd 08 50 0d 3e e8 df bc 3c 3c ac e4 3d
       -0.069169 0.13800061 0.023055986 0.111656636
000060 70 c7 ea bd 36 19 f5 bd 90 dc c9 bc 08 97 ed bd
       -0.11463821 -0.11967699 -0.024641305 -0.116010725
000070 c1 a5 35 bd 50 97 8d 3d e4 ca 67 bf 3c c4 b2 3d
       -0.04434753 0.06913626 -0.9054396 0.08728835
000080 5c 45 16 3d 34 d8 71 3d e0 80 5f 3c c8 07 26 bd
       0.03668724 0.059044078 0.013641566 -0.040534765
000090 6e 66 b0 3d b0 56 94 bc 37 2c bc 3d 30 bf de 3c
       0.08613287 -0.018107742 0.09188121 0.027190775
0000a0 dc 41 ad 3c 50 26 7e bc 39 01 3c be 52 e6 f0 bd
       0.021149568 -0.015512064 -0.18359841 -0.1176268
0000b0 54 d7 0d 3d 28 b8 48 3d c4 10 90 3d b9 86 60 3b
       0.03462918 0.04900375 0.07034448 0.0034259988
0000c0 48 50 96 3c e0 5e 81 bc 22 95 ba 3d 90 8e 1d bc
       0.018348828 -0.01579231 0.09110476 -0.009616509
0000d0 bc 03 bf be e4 8f 8d 3d 40 63 9c 3c a9 87 55 3d
       -0.37307537 0.069122106 0.019090295 0.05213133
0000e0 c8 3c 74 bd 76 fb a1 3d 00 80 6d 39 b0 a6 39 be
       -0.059628278 0.079092905 0.00022649765 -0.18129992
0000f0 38 b2 2a 3d 64 a7 d3 3d a0 14 92 3e 5c 2f 32 3d
       0.04167387 0.103346616 0.2853136 0.043502197
000100 38 6c 81 3d d0 dd 89 3d 68 52 d6 3c 5c f9 8c 3d
       0.06319469 0.067317605 0.026162341 0.06883499
000110 b9 ce 9e bd fc 98 9e bd c4 b2 46 bd 5d cd 47 bd
       -0.07754273 -0.07744023 -0.048510328 -0.048779834
000120 60 b4 44 bd cc 68 85 3d ad 0d 0d 3e 0e aa 9b 3d
       -0.04802358 0.06514129 0.13774748 0.07600795
000130 08 33 3d bd 6e 8c f6 bd 7e fa f3 bd 4c ce 72 bd
       -0.046191245 -0.120385036 -0.11913012 -0.05927877
000140 6f bc b2 be 87 d9 74 3e d5 ec 03 3f c0 a5 65 bb
       -0.34909388 0.23911105 0.5153325 -0.0035041422
000150 fc 16 e6 bd 60 a6 a0 be 35 9c 3e be 5c 4e 48 3d
       -0.11234853 -0.31376934 -0.18614276 0.048902854
000160 2a ba af 3d d3 d9 4a 3e 94 6e ae bd 64 22 1d 3d
       0.0858043 0.19809656 -0.08517185 0.038362876
000170 e6 b3 dc bd c8 73 ce bc 5b b5 31 3e 82 29 ae 3d
       -0.107765004 -0.025201693 0.17354338 0.08504011
000180 c0 ac 14 bd 34 48 9e bd d0 bb e6 3c 80 da 70 bc
       -0.03629756 -0.077286154 0.028165728 -0.014700532
000190 12 c0 cd 3d 08 b5 1e bd 08 3f 67 bd 54 56 e2 be
       0.100464 -0.038746864 -0.056456596 -0.44206488
0001a0 90 f4 fb 3d 58 09 88 3d aa 86 94 bd 38 69 e3 bd
       0.12302506 0.06642407 -0.07252248 -0.11104053
0001b0 53 76 ac 3d 30 21 c1 bd 52 48 87 3e f0 61 f7 bd
       0.08421006 -0.09430158 0.26422364 -0.12079227
0001c0 60 f4 e3 3c 30 45 7f 3c d4 e3 fb bd 34 f8 31 3e
       0.027826488 0.01558046 -0.12299314 0.17379838
0001d0 54 15 81 3e c8 61 e7 bd 30 ca d9 3c c0 55 3c 3b
       0.25211585 -0.11297947 0.026585668 0.0028737634
0001e0 a0 a6 ba bc fb e1 a3 3e 00 76 95 ba b0 4b 6d 3c
       -0.022784531 0.32008347 -0.0011402965 0.014483377
0001f0 91 4b 68 be 90 19 b9 bd ee 71 a7 3e 2a 36 f4 3d
       -0.22685076 -0.09038079 0.3270411 0.119243935

encoder.module_list.1.fc.mask.mask f4 [128, 64]
000000 00 00 00 00 00 00 00 00 00 00 00 00 00 00 00 00
       0.0 0.0 0.0 0.0
000010 00 00 00 00 00 00 00 00 00 00 00 00 00 00 00 00
       0.0 0.0 0.0 0.0
000020 00 00 00 00 00 00 00 00 00 00 00 00 00 00 00 00
       0.0 0.0 0.0 0.0
000030 00 00 00 00 00 00 00 00 00 00 00 00 00 00 00 00
       0.0 0.0 0.0 0.0
000040 00 00 00 00 00 00 00 00 00 00 00 00 00 00 00 00
       0.0 0.0 0.0 0.0
000050 00 00 00 00 00 00 00 00 00 00 00 00 00 00 00 00
       0.0 0.0 0.0 0.0
000060 00 00 00 00 00 00 00 00 00 00 00 00 00 00 00 00
       0.0 0.0 0.0 0.0
000070 00 00 00 00 00 00 00 00 00 00 80 3f 00 00 00 00
       0.0 0.0 1.0 0.0
000080 00 00 00 00 00 00 00 00 00 00 00 00 00 00 00 00
       0.0 0.0 0.0 0.0
000090 00 00 00 00 00 00 00 00 00 00 00 00 00 00 00 00
       0.0 0.0 0.0 0.0
0000a0 00 00 00 00 00 00 00 00 00 00 00 00 00 00 00 00
       0.0 0.0 0.0 0.0
0000b0 00 00 00 00 00 00 00 00 00 00 00 00 00 00 00 00
       0.0 0.0 0.0 0.0
0000c0 00 00 00 00 00 00 00 00 00 00 00 00 00 00 00 00
       0.0 0.0 0.0 0.0
0000d0 00 00 00 00 00 00 00 00 00 00 00 00 00 00 00 00
       0.0 0.0 0.0 0.0
0000e0 00 00 00 00 00 00 80 3f 00 00 00 00 00 00 00 00
       0.0 1.0 0.0 0.0
0000f0 00 00 00 00 00 00 80 3f 00 00 00 00 00 00 00 00
       0.0 1.0 0.0 0.0
000100 00 00 80 3f 00 00 00 00 00 00 00 00 00 00 00 00
       1.0 0.0 0.0 0.0
000110 00 00 00 00 00 00 00 00 00 00 00 00 00 00 00 00
       0.0 0.0 0.0 0.0
000120 00 00 00 00 00 00 00 00 00 00 00 00 00 00 00 00
       0.0 0.0 0.0 0.0
000130 00 00 00 00 00 00 00 00 00 00 00 00 00 00 00 00
       0.0 0.0 0.0 0.0
000140 00 00 00 00 00 00 00 00 00 00 00 00 00 00 00 00
       0.0 0.0 0.0 0.0
000150 00 00 00 00 00 00 00 00 00 00 00 00 00 00 00 00
       0.0 0.0 0.0 0.0
000160 00 00 00 00 00 00 80 3f 00 00 00 00 00 00 00 00
       0.0 1.0 0.0 0.0
000170 00 00 00 00 00 00 00 00 00 00 00 00 00 00 00 00
       0.0 0.0 0.0 0.0
000180 00 00 00 00 00 00 00 00 00 00 00 00 00 00 00 00
       0.0 0.0 0.0 0.0
000190 00 00 00 00 00 00 00 00 00 00 00 00 00 00 00 00
       0.0 0.0 0.0 0.0
0001a0 00 00 00 00 00 00 00 00 00 00 00 00 00 00 00 00
       0.0 0.0 0.0 0.0
0001b0 00 00 80 3f 00 00 00 00 00 00 00 00 00 00 00 00
       1.0 0.0 0.0 0.0
0001c0 00 00 00 00 00 00 00 00 00 00 00 00 00 00 00 00
       0.0 0.0 0.0 0.0
0001d0 00 00 00 00 00 00 00 00 00 00 00 00 00 00 00 00
       0.0 0.0 0.0 0.0
0001e0 00 00 00 00 00 00 00 00 00 00 00 00 00 00 00 00
       0.0 0.0 0.0 0.0
0001f0 00 00 00 00 00 00 00 00 00 00 00 00 00 00 00 00
       0.0 0.0 0.0 0.0
000200 00 00 00 00 00 00 00 00 00 00 00 00 00 00 00 00
       0.0 0.0 0.0 0.0
000210 00 00 00 00 00 00 00 00 00 00 00 00 00 00 00 00
       0.0 0.0 0.0 0.0
000220 00 00 00 00 00 00 00 00 00 00 00 00 00 00 00 00
       0.0 0.0 0.0 0.0
000230 00 00 00 00 00 00 00 00 00 00 00 00 00 00 80 3f
       0.0 0.0 0.0 1.0
000240 00 00 00 00 00 00 00 00 00 00 00 00 00 00 00 00
       0.0 0.0 0.0 0.0
000250 00 00 00 00 00 00 00 00 00 00 00 00 00 00 00 00
       0.0 0.0 0.0 0.0
000260 00 00 00 00 00 00 00 00 00 00 00 00 00 00 00 00
       0.0 0.0 0.0 0.0
000270 00 00 00 00 00 00 80 3f 00 00 00 00 00 00 00 00
       0.0 1.0 0.0 0.0
000280 00 00 00 00 00 00 00 00 00 00 00 00 00 00 80 3f
       0.0 0.0 0.0 1.0
000290 00 00 00 00 00 00 00 00 00 00 00 00 00 00 00 00
       0.0 0.0 0.0 0.0
0002a0 00 00 00 00 00 00 00 00 00 00 00 00 00 00 00 00
       0.0 0.0 0.0 0.0
0002b0 00 00 00 00 00 00 00 00 00 00 00 00 00 00 00 00
       0.0 0.0 0.0 0.0
0002c0 00 00 00 00 00 00 00 00 00 00 00 00 00 00 00 00
       0.0 0.0 0.0 0.0
0002d0 00 00 00 00 00 00 00 00 00 00 00 00 00 00 00 00
       0.0 0.0 0.0 0.0
0002e0 00 00 00 00 00 00 00 00 00 00 00 00 00 00 00 00
       0.0 0.0 0.0 0.0
0002f0 00 00 00 00 00 00 00 00 00 00 00 00 00 00 00 00
       0.0 0.0 0.0 0.0
000300 00 00 00 00 00 00 00 00 00 00 00 00 00 00 00 00
       0.0 0.0 0.0 0.0
000310 00 00 00 00 00 00 00 00 00 00 00 00 00 00 00 00
       0.0 0.0 0.0 0.0
000320 00 00 00 00 00 00 00 00 00 00 00 00 00 00 00 00
       0.0 0.0 0.0 0.0
000330 00 00 00 00 00 00 00 00 00 00 00 00 00 00 00 00
       0.0 0.0 0.0 0.0
000340 00 00 00 00 00 00 00 00 00 00 00 00 00 00 00 00
       0.0 0.0 0.0 0.0
000350 00 00 00 00 00 00 00 00 00 00 00 00 00 00 00 00
       0.0 0.0 0.0 0.0
000360 00 00 00 00 00 00 00 00 00 00 00 00 00 00 00 00
       0.0 0.0 0.0 0.0
000370 00 00 00 00 00 00 00 00 00 00 80 3f 00 00 00 00
       0.0 0.0 1.0 0.0
000380 00 00 00 00 00 00 00 00 00 00 00 00 00 00 00 00
       0.0 0.0 0.0 0.0
000390 00 00 00 00 00 00 00 00 00 00 00 00 00 00 00 00
       0.0 0.0 0.0 0.0
0003a0 00 00 00 00 00 00 00 00 00 00 00 00 00 00 00 00
       0.0 0.0 0.0 0.0
0003b0 00 00 80 3f 00 00 00 00 00 00 00 00 00 00 00 00
       1.0 0.0 0.0 0.0
0003c0 00 00 00 00 00 00 00 00 00 00 00 00 00 00 00 00
       0.0 0.0 0.0 0.0
0003d0 00 00 00 00 00 00 00 00 00 00 00 00 00 00 00 00
       0.0 0.0 0.0 0.0
0003e0 00 00 00 00 00 00 80 3f 00 00 00 00 00 00 00 00
       0.0 1.0 0.0 0.0
0003f0 00 00 00 00 00 00 00 00 00 00 00 00 00 00 00 00
       0.0 0.0 0.0 0.0

encoder.module_list.1.output_quant.pre_transforms.0.weight f4 [128]
000000 4a cc db 3f 21 36 3a 3f 61 bb ca 3f 02 ca d7 3f
       1.7171719 0.72738844 1.5838434 1.6858523
000010 21 36 3a 3f 21 36 3a 3f 1f c0 e3 3f 21 36 3a 3f
       0.72738844 0.72738844 1.7793006 0.72738844
000020 21 36 3a 3f dd 91 c1 3f 21 36 3a 3f 46 66 3e 3e
       0.72738844 1.5122639 0.72738844 0.18593702
000030 21 36 3a 3f 90 ce c5 3f 21 36 3a 3f 21 36 3a 3f
       0.72738844 1.5453663 0.72738844 0.72738844
000040 d2 66 e9 3f 21 36 3a 3f 21 36 3a 3f 21 36 3a 3f
       1.8234503 0.72738844 0.72738844 0.72738844
000050 21 36 3a 3f 1f 1c 22 3e 21 36 3a 3f 21 36 3a 3f
       0.72738844 0.1583104 0.72738844 0.72738844
000060 21 36 3a 3f 21 36 3a 3f 21 36 3a 3f 21 36 3a 3f
       0.72738844 0.72738844 0.72738844 0.72738844
000070 8c 57 0c 40 21 36 3a 3f f4 0b 50 3f 21 36 3a 3f
       2.1928434 0.72738844 0.8126824 0.72738844
000080 21 36 3a 3f 21 36 3a 3f 21 36 3a 3f 21 36 3a 3f
       0.72738844 0.72738844 0.72738844 0.72738844
000090 21 36 3a 3f 21 36 3a 3f d9 16 f0 3f 21 36 3a 3f
       0.72738844 0.72738844 1.8756973 0.72738844
0000a0 4a 7e 04 40 3e 46 aa 3f 9d e4 ec 3f 21 36 3a 3f
       2.070208 1.3302686 1.8507267 0.72738844
0000b0 21 36 3a 3f 21 36 3a 3f 21 36 3a 3f 69 4a d9 3f
       0.72738844 0.72738844 0.72738844 1.6975833
0000c0 21 36 3a 3f 21 36 3a 3f 21 36 3a 3f 21 36 3a 3f
       0.72738844 0.72738844 0.72738844 0.72738844
0000d0 8e f6 8d 3f 1c 72 dc 3f 21 36 3a 3f 4b 46 db 3f
       1.1090868 1.7222323 0.72738844 1.7130827
0000e0 21 36 3a 3f 21 36 3a 3f 21 36 3a 3f 95 c8 fe 3f
       0.72738844 0.72738844 0.72738844 1.9904963
0000f0 21 36 3a 3f 21 36 3a 3f 74 98 fb 3e be 6d cb 3f
       0.72738844 0.72738844 0.4913975 1.5892866
000100 53 43 1c 3f 21 36 3a 3f 21 36 3a 3f 21 36 3a 3f
       0.6104023 0.72738844 0.72738844 0.72738844
000110 d8 2f 0d 40 21 36 3a 3f 21 36 3a 3f e4 68 c7 3f
       2.2060452 0.72738844 0.72738844 1.5578885
000120 21 36 3a 3f 21 36 3a 3f c9 fd ad 40 21 36 3a 3f
       0.72738844 0.72738844 5.4372296 0.72738844
000130 21 36 3a 3f 21 36 3a 3f 21 36 3a 3f 21 36 3a 3f
       0.72738844 0.72738844 0.72738844 0.72738844
000140 b8 3a 17 40 1f c8 00 40 74 93 f2 3f 21 36 3a 3f
       2.362959 2.0122144 1.8951249 0.72738844
000150 21 36 3a 3f a2 1d fa 3f 38 11 15 40 21 36 3a 3f
       0.72738844 1.9540293 2.329176 0.72738844
000160 c1 dc 51 40 2d f2 e6 3f 21 36 3a 3f 21 36 3a 3f
       3.2790987 1.8042656 0.72738844 0.72738844
000170 21 36 3a 3f 21 36 3a 3f c9 9e e7 3f 21 36 3a 3f
       0.72738844 0.72738844 1.8095332 0.72738844
000180 21 36 3a 3f 21 36 3a 3f 21 36 3a 3f 21 36 3a 3f
       0.72738844 0.72738844 0.72738844 0.72738844
000190 21 36 3a 3f 21 36 3a 3f 21 36 3a 3f 49 1a b9 3f
       0.72738844 0.72738844 0.72738844 1.4461147
0001a0 80 3f 01 40 21 36 3a 3f 21 36 3a 3f 21 36 3a 3f
       2.0195007 0.72738844 0.72738844 0.72738844
0001b0 00 d8 b4 3f 21 36 3a 3f e6 b8 cb 3f 21 36 3a 3f
       1.4128418 0.72738844 1.5915802 0.72738844
0001c0 21 36 3a 3f 21 36 3a 3f 21 36 3a 3f 63 58 a2 3f
       0.72738844 0.72738844 0.72738844 1.2683223
0001d0 cc 6a db 3f 21 36 3a 3f 21 36 3a 3f 21 36 3a 3f
       1.7141967 0.72738844 0.72738844 0.72738844
0001e0 21 36 3a 3f ac 5c 12 41 21 36 3a 3f 21 36 3a 3f
       0.72738844 9.147625 0.72738844 0.72738844
0001f0 38 d3 cf 3f 21 36 3a 3f c0 cb 90 3f 54 5a 88 40
       1.6236334 0.72738844 1.131218 4.2610264

encoder.module_list.1.output_quant.pre_transforms.0.bias f4 [128]
000000 20 14 84 3e 00 00 00 00 8b 54 47 41 a2 67 66 bf
       0.25796604 0.0 12.45814 -0.9000188
000010 00 00 00 00 00 00 00 00 6c 4b 1c bf 00 00 00 00
       0.0 0.0 -0.61052585 0.0
000020 00 00 00 00 23 78 cc 40 00 00 00 00 84 99 0a bf
       0.0 6.389665 0.0 -0.54140496
000030 00 00 00 00 11 a1 3b 41 00 00 00 00 00 00 00 00
       0.0 11.726823 0.0 0.0
000040 27 c0 8c 3f 00 00 00 00 00 00 00 00 00 00 00 00
       1.099614 0.0 0.0 0.0
000050 00 00 00 00 98 bc fa be 00 00 00 00 00 00 00 00
       0.0 -0.4897201 0.0 0.0
000060 00 00 00 00 00 00 00 00 00 00 00 00 00 00 00 00
       0.0 0.0 0.0 0.0
000070 76 2f 16 bf 00 00 00 00 19 95 32 c0 00 00 00 00
       -0.5866617 0.0 -2.7903502 0.0
000080 00 00 00 00 00 00 00 00 00 00 00 00 00 00 00 00
       0.0 0.0 0.0 0.0
000090 00 00 00 00 00 00 00 00 d4 bb 02 3e 00 00 00 00
       0.0 0.0 0.12766963 0.0
0000a0 19 5c 32 41 b6 8b d6 40 5f 40 e6 3f 00 00 00 00
       11.147485 6.7045546 1.7988394 0.0
0000b0 00 00 00 00 00 00 00 00 00 00 00 00 85 3a d0 3d
       0.0 0.0 0.0 0.10167412
0000c0 00 00 00 00 00 00 00 00 00 00 00 00 00 00 00 00
       0.0 0.0 0.0 0.0
0000d0 e5 3e a6 40 1e 0f 86 40 00 00 00 00 78 a5 2e 3f
       5.1951776 4.1893454 0.0 0.68221235
0000e0 00 00 00 00 00 00 00 00 00 00 00 00 61 61 3a 41
       0.0 0.0 0.0 11.648774
0000f0 00 00 00 00 00 00 00 00 c0 14 98 bf b9 ae d3 3d
       0.0 0.0 -1.1881332 0.1033606
000100 cf 34 d4 be 00 00 00 00 00 00 00 00 00 00 00 00
       -0.4144654 0.0 0.0 0.0
000110 70 b5 34 41 00 00 00 00 00 00 00 00 5c d4 cc 40
       11.294296 0.0 0.0 6.400923
000120 00 00 00 00 00 00 00 00 a9 22 87 3f 00 00 00 00
       0.0 0.0 1.0557452 0.0
000130 00 00 00 00 00 00 00 00 00 00 00 00 00 00 00 00
       0.0 0.0 0.0 0.0
000140 a9 dd 4c 41 d6 6e 38 41 1a 84 4e 3f 00 00 00 00
       12.804116 11.52706 0.8067032 0.0
000150 00 00 00 00 a7 f8 35 41 71 35 3e 41 00 00 00 00
       0.0 11.373206 11.888047 0.0
000160 45 e9 06 c0 8d f9 86 40 00 00 00 00 00 00 00 00
       -2.1079876 4.2179627 0.0 0.0
000170 00 00 00 00 00 00 00 00 16 94 d9 3e 00 00 00 00
       0.0 0.0 0.42495793 0.0
000180 00 00 00 00 00 00 00 00 00 00 00 00 00 00 00 00
       0.0 0.0 0.0 0.0
000190 00 00 00 00 00 00 00 00 00 00 00 00 1d 6c cb 40
       0.0 0.0 0.0 6.3569474
0001a0 d7 33 40 41 00 00 00 00 00 00 00 00 00 00 00 00
       12.012656 0.0 0.0 0.0
0001b0 db 0c 4f 40 00 00 00 00 10 6f fe 40 00 00 00 00
       3.2351596 0.0 7.9510574 0.0
0001c0 00 00 00 00 00 00 00 00 00 00 00 00 f7 62 03 41
       0.0 0.0 0.0 8.211661
0001d0 e3 c1 4c 3d 00 00 00 00 00 00 00 00 00 00 00 00
       0.049989592 0.0 0.0 0.0
0001e0 00 00 00 00 5b 81 26 c0 00 00 00 00 00 00 00 00
       0.0 -2.6016452 0.0 0.0
0001f0 39 27 87 3e 00 00 00 00 cd 45 10 41 16 1b 95 41
       0.26397112 0.0 9.017041 18.638226
