examples/hgcal_autoencoder/sml_avg_emd_hp_grid_search/weak2_lr0.005_warm_restart_freq50_wd0.0001/best_loss.pth (torch, 418745 bytes, 73 tensors)

encoder.module_list.0.fc.weight f4 [64, 64]
0	0x3d197be3	0.037471663
1	0x3d96ceaf	0.073636405
2	0xbd8004af	-0.06250893
3	0x3d4fb013	0.050705027
4	0xbd112f50	-0.03544551
5	0x3d4c1633	0.04982586
6	0x3d871424	0.065956384
7	0xbb9ff453	-0.0048814206
8	0x3dde45bf	0.10853147
9	0xbda742f0	-0.08167064
10	0x3d45bf0b	0.048277896
11	0x3d79733f	0.060900923
12	0x3cc24567	0.023714734
13	0xbfd133a8	-1.6343889
14	0x3d53bb44	0.051692262
15	0xbd8b4027	-0.067993455
16	0xbc91fbab	-0.0178202
17	0x3dc0b74a	0.094099596
18	0x3d9266d3	0.071485184
19	0x3de8adf7	0.11361306
20	0xbc9d3893	-0.019192016
21	0x3ce1ac01	0.027547838
22	0xbd252623	-0.040319573
23	0x3b17ef03	0.0023183234
24	0x3d585a40	0.052820444
25	0xbde418e2	-0.111375585
26	0x3d5ac324	0.053408757
27	0x3dc7d1b7	0.09756797
28	0xbc387326	-0.011257922
29	0x3d977053	0.07394471
30	0x3d81b8fb	0.0633411
31	0xbd1aa83b	-0.037758093
32	0x3d7332e3	0.0593747
33	0x3d1bfcf7	0.038083043
34	0x3cbd068a	0.023074407
35	0xbd9b9d89	-0.07598407
36	0x3d8ca1f5	0.06866828
37	0x3dbee022	0.09320094
38	0x3de9f5c3	0.114238285
39	0x3d913fc1	0.07092238
40	0xbd200a0f	-0.039072093
41	0xbde3e500	-0.11127663
42	0x3d6d4703	0.05792905
43	0x3c676577	0.014123312
44	0x3d6b0027	0.057373192
45	0xbcbc1672	-0.022959922
46	0xbb8fa5b7	-0.0043837684
47	0xbd35eb86	-0.044414066
48	0x3d2b4dc1	0.0418222
49	0xbc12ddf3	-0.00896405
50	0xbde26e40	-0.11056185
51	0x3ce1ba6c	0.027554713
52	0x3dcafd4d	0.099115945
53	0xbdde1810	-0.10844433
54	0x3c66a457	0.014077268
55	0x3d1f1d7b	0.038846474
56	0x3f8e98d3	1.1140388
57	0x3d7f7c35	0.062374312
58	0x3dbe90e2	0.09304978
59	0x3c3da082	0.011573913
60	0xbdbb7eb1	-0.09155024
61	0xbd81299d	-0.06306765
62	0xbd976e6f	-0.073941104
63	0x3dac4da1	0.08413244
64	0xbdce2721	-0.10066057
65	0xbceabd3f	-0.028654693
66	0x3de10af9	0.10988421
67	0xbdeb6019	-0.114929385
68	0xbdab1695	-0.083539166
69	0xbcdf562a	-0.027262766
70	0x3dab099d	0.08351443
71	0xbd03e69d	-0.03220235
72	0xbc8ffcef	-0.017576663
73	0x3d209f07	0.03921416
74	0x3d1dd9f0	0.03853792
75	0x3da41826	0.080124184
76	0xbd3ddf6e	-0.046355657
77	0xbc1baff3	-0.009502399
78	0x3db80d86	0.089869544
79	0xbc9dc388	-0.019258276
80	0xbd2655a0	-0.040609002
81	0xbdae0461	-0.08496929
82	0xbb8fc437	-0.0043874043
83	0xb9c3a21a	-0.00037314073
84	0x3cba66d7	0.022754116
85	0x3da7512a	0.08169778
86	0x3d1dfedb	0.038573127
87	0x3d9c64fb	0.07636448
88	0xbd71e7f7	-0.05905911
89	0x3d8e0e99	0.06936378
90	0x3de5396f	0.11192595
91	0xbd4ff09b	-0.05076657
92	0x3d251d88	0.040311366
93	0x3c5f3f2b	0.0136259
94	0xbbd28d17	-0.0064255106
95	0x3d1dc2ee	0.038515978
96	0x3dc181cf	0.09448587
97	0x3dc71b11	0.097219594
98	0xbd5ea559	-0.054356907
99	0x3de9aee3	0.1141031
100	0xbd9e63b4	-0.077338606
101	0xbdead8fb	-0.11467167
102	0xbdbaee82	-0.09127523
103	0xbdcd2ea3	-0.10018661
104	0xbdd02585	-0.10163406
105	0xbd41d699	-0.047323797
106	0x3db4b894	0.08824268
107	0x3d324c76	0.04352995
108	0x3c151ab3	0.009100604
109	0x3d56e8c4	0.052468076
110	0x3ddc4f6b	0.10757335
111	0x3d99f7f7	0.07517999
112	0xbd10553f	-0.035237547
113	0x3de97a95	0.11400334
114	0x3da614dc	0.08109447
115	0xbcee798f	-0.029110698
116	0xbd86269f	-0.06550335
117	0xbd4abbf7	-0.049495663
118	0xbca393c8	-0.019967929
119	0xbc042979	-0.0080665285
120	0xbd6fb65f	-0.058523532
121	0x3cafd40b	0.021463415
122	0xbdb393ba	-0.08768411
123	0x3d86b1f9	0.06576914
124	0x3dba9887	0.091111235
125	0x3d6590b7	0.056046214
126	0xbda6366f	-0.08115851
127	0xbdb4902a	-0.088165596
128	0x3d271195	0.040788252
129	0xbd1f11bf	-0.038835283
130	0x3d78e15b	0.06076179
131	0x3dac4da1	0.08413244
132	0xbd649ae5	-0.05581178
133	0x3dcfedf3	0.10152807
134	0x3d9340f9	0.07190127
135	0xbd62afea	-0.055343546
136	0xbcf699d8	-0.030102655
137	0xbd377b92	-0.04479558
138	0xbd852edc	-0.06503078
139	0xbd8571a2	-0.06515814
140	0xbda46887	-0.080277495
141	0x3d353e5e	0.04424893
142	0xbcbb9d1e	-0.022902068
143	0x3d586e74	0.05283971
144	0xbd1d593a	-0.03841517
145	0xbde0acdf	-0.109704725
146	0xbce3566e	-0.027751174
147	0xbdd72cd6	-0.10506599
148	0x3d0a3f1b	0.03375159
149	0x3d5f8dcc	0.054578587
150	0xbdaf46ce	-0.08558427
151	0xbdcb0af1	-0.09914196
152	0x3de303de	0.11084722
153	0x3de38907	0.1111012
154	0xbdcb6237	-0.09930842
155	0x3db5002a	0.08837922
156	0xbd47cc67	-0.048778918
157	0xbc99370a	-0.018703002
158	0xbcf818bb	-0.03028523
159	0xbd6cffab	-0.05786101
160	0xbc5af9a8	-0.013365187
161	0x3d9b9e39	0.07598538
162	0x3d5fbcf7	0.05462357
163	0x3da94c1d	0.082664706
164	0xbde6c90f	-0.11268818
165	0xbddc610e	-0.10760699
166	0x3be3e5d4	0.006954888
167	0xbda5c5ec	-0.08094391
168	0xbdad2ee7	-0.084562115
169	0xbdc2a042	-0.09503223
170	0x3d874bff	0.06606292
171	0xbb723d27	-0.003696272
172	0xbdaa4bf3	-0.083152674
173	0xbcaf8c9b	-0.02142935
174	0xbd9d3301	-0.07675744
175	0xbd95190b	-0.07280167
176	0x3ddc6fdb	0.10763522
177	0x3c53918e	0.012913121
178	0x3dafe5ab	0.085887276
179	0x3d15a993	0.03653867
180	0x3de5db2b	0.112234436
181	0xbde40b98	-0.11135024
182	0xbd7538cf	-0.05986863
183	0xbde28884	-0.110611945
184	0xbbb0016b	-0.005371263
185	0xbdb25a5e	-0.087086424
186	0xbdeaa953	-0.11458077
187	0x3cc296eb	0.023753604
188	0xbd6c60e7	-0.0577096
189	0x3da00f37	0.07815402
190	0x3d2cc4ad	0.042179752
191	0xbd09a01b	-0.033599954
192	0xbdbf96fb	-0.09354969
193	0xbdac4939	-0.084124036
194	0x3d9cf61b	0.076641284
195	0x3de54a7d	0.11195848
196	0x3de322ec	0.11090645
197	0x3c374fe6	0.011188483
198	0xbc5196f7	-0.0127923405
199	0xbbcea717	-0.0063065398
200	0x3db075b0	0.08616197
201	0x3b11ddc3	0.0022257424
202	0xbd92af2f	-0.0716232
203	0x3d964a1f	0.07338356
204	0x3dc18219	0.09448642
205	0x3c22fdfd	0.009948251
206	0x3d258cb7	0.0404174
207	0xbca59cc5	-0.020216355
208	0x3c19a1e3	0.009376976
209	0x3d80da93	0.0629169
210	0x3d6f9b43	0.05849768
211	0xbde12995	-0.10994259
212	0x3dce0623	0.10059764
213	0xbc0807a5	-0.008302604
214	0xbda6e0ad	-0.08148322
215	0xbd9f54e7	-0.07779866
216	0xbda1ee41	-0.079067715
217	0xbb0bec77	-0.002135066
218	0xbcd3257e	-0.025774714
219	0x3db50ca4	0.08840302
220	0xbd9e63ce	-0.0773388
221	0xbbbcd422	-0.005762593
222	0xbcef7b4f	-0.029233603
223	0xbd11bcab	-0.03558032
224	0x3dc15c81	0.09441472
225	0xbdac55c3	-0.08414795
226	0x3d9b3305	0.075780906
227	0xbda349a4	-0.0797303
228	0xbdadf787	-0.08494478
229	0xbcf74f4c	-0.030189179
230	0x3cc0efd7	0.023551865
231	0xbcee6f4f	-0.02910581
232	0xbbd0b597	-0.0063693034
233	0x3dd3dc9d	0.10344813
234	0xbdd186f9	-0.10230822
235	0x3d728cf3	0.05921645
236	0x3b879325	0.004137414
237	0x3da3ac47	0.07991844
238	0x3de2be11	0.110714085
239	0xbdc7337d	-0.097266175
240	0xb9b5c376	-0.0003466864
241	0x3d51a677	0.051184144
242	0xbdbf4a6c	-0.09340367
243	0x3d152fef	0.036422666
244	0xbdd25bc5	-0.1027141
245	0x3c9b95c3	0.01899231
246	0x3dd6ce6a	0.10488589
247	0x3cf7c833	0.03024683
248	0x3dc14ed6	0.09438865
249	0xbc9464bb	-0.018114438
250	0x3dcd0959	0.100115485
251	0x3cac3569	0.021021562
252	0xbc3a8971	-0.011385308
253	0x3db3f1a6	0.08786325
254	0x3d8f761b	0.07004949
255	0xbd282721	-0.04105294

encoder.module_list.0.fc.bias f4 [64]
0	0xbc797e9c	-0.01522794
1	0x3e033a73	0.12815265
2	0xbc01032f	-0.007874294
3	0x3dbcfb42	0.09227611
4	0xbd422c69	-0.047405634
5	0xbd35aa9c	-0.04435216
6	0x3ba2a024	0.004962938
7	0x3c7dfb47	0.015501804
8	0x3dbd2d1c	0.092371196
9	0xbb0d39b4	-0.0021549286
10	0xbe23dc97	-0.16002117
11	0x3c5fb77b	0.013654585
12	0x3d5001e7	0.050783064
13	0x3cdbfd5e	0.026854213
14	0xbd6ff65c	-0.058584556
15	0xbd9caa17	-0.076496296
16	0x3d68199c	0.056665048
17	0xbdcd0f4a	-0.10012682
18	0x3cae7932	0.021298025
19	0x3d98e13f	0.07464837
20	0x3dc7ae6e	0.09750067
21	0x3ce33793	0.02773646
22	0x3cc51836	0.024059396
23	0xbd5be2c1	-0.053683046
24	0xbd7f51cb	-0.062333863
25	0x3d2ad4bf	0.041706797
26	0x3bb2574e	0.0054425364
27	0x3e183ec1	0.14867689
28	0xbda21788	-0.079146445
29	0x3d5b2595	0.053502638
30	0xbcb77f47	-0.022399558
31	0xbd3a4042	-0.045471437
32	0xbdbc8645	-0.092052974
33	0xbdc99e3c	-0.09844634
34	0xbdb45cc5	-0.08806757
35	0x3b89e906	0.0042086868
36	0xbe8976e6	-0.26848525
37	0xbda1a370	-0.07892501
38	0xbdce3463	-0.10068586
39	0x3d11219a	0.035432436
40	0x397676e3	0.00023504677
41	0xbd1a13d8	-0.03761658
42	0xbea77b53	-0.32711276
43	0x3db34b42	0.08754589
44	0xba682ea9	-0.00088570506
45	0x3c84a98a	0.016194124
46	0x3e278202	0.16358188
47	0xbd14171e	-0.03615486
48	0x3d7767ed	0.060401846
49	0xbd3fdb74	-0.046840146
50	0xbccb1867	-0.02479191
51	0xbda0d657	-0.07853382
52	0xbc27eb40	-0.010248959
53	0xbcf480fd	-0.029846663
54	0x3d670875	0.05640455
55	0x3d2c2b13	0.042033266
56	0x3d62f557	0.055409756
57	0x3d594621	0.053045396
58	0x3cbdd128	0.023171023
59	0xbd75beed	-0.059996534
60	0xbcb853d7	-0.022500915
61	0xbd4e57ed	-0.05037682
62	0xbd6987fb	-0.057014447
63	0x3c0ef460	0.008725256

encoder.module_list.0.fc.mask.mask f4 [64, 64]
0	0x00000000	0.0
1	0x00000000	0.0
2	0x00000000	0.0
3	0x00000000	0.0
4	0x00000000	0.0
5	0x00000000	0.0
6	0x00000000	0.0
7	0x00000000	0.0
8	0x00000000	0.0
9	0x00000000	0.0
10	0x00000000	0.0
11	0x00000000	0.0
12	0x00000000	0.0
13	0x3f800000	1.0
14	0x00000000	0.0
15	0x00000000	0.0
16	0x00000000	0.0
17	0x00000000	0.0
18	0x00000000	0.0
19	0x00000000	0.0
20	0x00000000	0.0
21	0x00000000	0.0
22	0x00000000	0.0
23	0x00000000	0.0
24	0x00000000	0.0
25	0x00000000	0.0
26	0x00000000	0.0
27	0x00000000	0.0
28	0x00000000	0.0
29	0x00000000	0.0
30	0x00000000	0.0
31	0x00000000	0.0
32	0x00000000	0.0
33	0x00000000	0.0
34	0x00000000	0.0
35	0x00000000	0.0
36	0x00000000	0.0
37	0x00000000	0.0
38	0x00000000	0.0
39	0x00000000	0.0
40	0x00000000	0.0
41	0x00000000	0.0
42	0x00000000	0.0
43	0x00000000	0.0
44	0x00000000	0.0
45	0x00000000	0.0
46	0x00000000	0.0
47	0x00000000	0.0
48	0x00000000	0.0
49	0x00000000	0.0
50	0x00000000	0.0
51	0x00000000	0.0
52	0x00000000	0.0
53	0x00000000	0.0
54	0x00000000	0.0
55	0x00000000	0.0
56	0x3f800000	1.0
57	0x00000000	0.0
58	0x00000000	0.0
59	0x00000000	0.0
60	0x00000000	0.0
61	0x00000000	0.0
62	0x00000000	0.0
63	0x00000000	0.0
64	0x00000000	0.0
65	0x00000000	0.0
66	0x00000000	0.0
67	0x00000000	0.0
68	0x00000000	0.0
69	0x00000000	0.0
70	0x00000000	0.0
71	0x00000000	0.0
72	0x00000000	0.0
73	0x00000000	0.0
74	0x00000000	0.0
75	0x00000000	0.0
76	0x00000000	0.0
77	0x00000000	0.0
78	0x00000000	0.0
79	0x00000000	0.0
80	0x00000000	0.0
81	0x00000000	0.0
82	0x00000000	0.0
83	0x3f800000	1.0
84	0x00000000	0.0
85	0x00000000	0.0
86	0x00000000	0.0
87	0x00000000	0.0
88	0x00000000	0.0
89	0x00000000	0.0
90	0x00000000	0.0
91	0x00000000	0.0
92	0x00000000	0.0
93	0x00000000	0.0
94	0x00000000	0.0
95	0x00000000	0.0
96	0x00000000	0.0
97	0x00000000	0.0
98	0x00000000	0.0
99	0x00000000	0.0
100	0x3f800000	1.0
101	0x00000000	0.0
102	0x00000000	0.0
103	0x00000000	0.0
104	0x00000000	0.0
105	0x00000000	0.0
106	0x00000000	0.0
107	0x00000000	0.0
108	0x00000000	0.0
109	0x00000000	0.0
110	0x00000000	0.0
111	0x00000000	0.0
112	0x00000000	0.0
113	0x00000000	0.0
114	0x00000000	0.0
115	0x00000000	0.0
116	0x00000000	0.0
117	0x00000000	0.0
118	0x00000000	0.0
119	0x00000000	0.0
120	0x00000000	0.0
121	0x00000000	0.0
122	0x00000000	0.0
123	0x00000000	0.0
124	0x00000000	0.0
125	0x00000000	0.0
126	0x00000000	0.0
127	0x00000000	0.0
128	0x00000000	0.0
129	0x00000000	0.0
130	0x00000000	0.0
131	0x00000000	0.0
132	0x00000000	0.0
133	0x00000000	0.0
134	0x00000000	0.0
135	0x00000000	0.0
136	0x00000000	0.0
137	0x00000000	0.0
138	0x00000000	0.0
139	0x00000000	0.0
140	0x00000000	0.0
141	0x00000000	0.0
142	0x00000000	0.0
143	0x00000000	0.0
144	0x00000000	0.0
145	0x00000000	0.0
146	0x00000000	0.0
147	0x00000000	0.0
148	0x00000000	0.0
149	0x00000000	0.0
150	0x00000000	0.0
151	0x00000000	0.0
152	0x00000000	0.0
153	0x00000000	0.0
154	0x00000000	0.0
155	0x00000000	0.0
156	0x00000000	0.0
157	0x3f800000	1.0
158	0x00000000	0.0
159	0x00000000	0.0
160	0x00000000	0.0
161	0x00000000	0.0
162	0x00000000	0.0
163	0x00000000	0.0
164	0x00000000	0.0
165	0x00000000	0.0
166	0x00000000	0.0
167	0x00000000	0.0
168	0x00000000	0.0
169	0x00000000	0.0
170	0x00000000	0.0
171	0x00000000	0.0
172	0x00000000	0.0
173	0x3f800000	1.0
174	0x00000000	0.0
175	0x00000000	0.0
176	0x00000000	0.0
177	0x00000000	0.0
178	0x00000000	0.0
179	0x00000000	0.0
180	0x00000000	0.0
181	0x00000000	0.0
182	0x00000000	0.0
183	0x00000000	0.0
184	0x00000000	0.0
185	0x00000000	0.0
186	0x00000000	0.0
187	0x00000000	0.0
188	0x00000000	0.0
189	0x00000000	0.0
190	0x00000000	0.0
191	0x00000000	0.0
192	0x00000000	0.0
193	0x00000000	0.0
194	0x00000000	0.0
195	0x00000000	0.0
196	0x00000000	0.0
197	0x00000000	0.0
198	0x00000000	0.0
199	0x00000000	0.0
200	0x00000000	0.0
201	0x3f800000	1.0
202	0x00000000	0.0
203	0x00000000	0.0
204	0x00000000	0.0
205	0x00000000	0.0
206	0x00000000	0.0
207	0x00000000	0.0
208	0x00000000	0.0
209	0x00000000	0.0
210	0x00000000	0.0
211	0x00000000	0.0
212	0x00000000	0.0
213	0x00000000	0.0
214	0x00000000	0.0
215	0x00000000	0.0
216	0x00000000	0.0
217	0x00000000	0.0
218	0x00000000	0.0
219	0x00000000	0.0
220	0x00000000	0.0
221	0x00000000	0.0
222	0x00000000	0.0
223	0x00000000	0.0
224	0x00000000	0.0
225	0x00000000	0.0
226	0x00000000	0.0
227	0x00000000	0.0
228	0x00000000	0.0
229	0x00000000	0.0
230	0x00000000	0.0
231	0x00000000	0.0
232	0x00000000	0.0
233	0x00000000	0.0
234	0x00000000	0.0
235	0x00000000	0.0
236	0x00000000	0.0
237	0x00000000	0.0
238	0x00000000	0.0
239	0x00000000	0.0
240	0x3f800000	1.0
241	0x00000000	0.0
242	0x00000000	0.0
243	0x00000000	0.0
244	0x00000000	0.0
245	0x00000000	0.0
246	0x00000000	0.0
247	0x00000000	0.0
248	0x00000000	0.0
249	0x00000000	0.0
250	0x00000000	0.0
251	0x00000000	0.0
252	0x00000000	0.0
253	0x00000000	0.0
254	0x00000000	0.0
255	0x00000000	0.0

encoder.module_list.0.output_quant.pre_transforms.0.weight f4 [64]
0	0x3f0bc467	0.5459656
1	0x3f637649	0.88852364
2	0x3fe6c9d7	1.8030347
3	0x3f6bf367	0.9216828
4	0x3f811893	1.0085624
5	0x3f061f4d	0.5239151
6	0xbf8aefb0	-1.0854397
7	0x3f5e148a	0.8675009
8	0x3f6bf367	0.9216828
9	0x3f0f3241	0.55936056
10	0x3fa5ddfb	1.2958368
11	0x3f1cae26	0.6120323
12	0x3f1cd16c	0.6125705
13	0x3f236780	0.63829803
14	0x3f6bf367	0.9216828
15	0x3f2a50f8	0.665298
16	0x3f6bf367	0.9216828
17	0x3f2dddd9	0.6791664
18	0x3f265414	0.64972043
19	0x3f633861	0.887579
20	0x3f964a4e	1.1741426
21	0x3f308adc	0.6896188
22	0x3f1b2f4c	0.60619044
23	0x3f11b5bd	0.56917936
24	0x3f2f295a	0.6842247
25	0x3f6a16ee	0.9144124
26	0x3f035f27	0.51317066
27	0x3f71c85b	0.94446343
28	0x3f25ede3	0.6481611
29	0x3f391ebe	0.72312534
30	0x3f0d4757	0.5518698
31	0x3efeee35	0.49791113
32	0x3f9c2ec0	1.2201767
33	0x3ff686dd	1.9259907
34	0x3f91b211	1.1382467
35	0x3f75f404	0.96075463
36	0x3f22dc82	0.6361772
37	0x3f6bf367	0.9216828
38	0x40140621	2.312874
39	0x3f8d6190	1.1045399
40	0x3fa22f5b	1.2670702
41	0x3f18c8d6	0.5968145
42	0x3f78ce35	0.97189647
43	0x3f6bf367	0.9216828
44	0x3f0b965c	0.54526305
45	0x3f0059ee	0.5013722
46	0x3f93bd00	1.1542053
47	0x3f1cc045	0.6123088
48	0x3f7a4755	0.97765094
49	0x3f1ebfc5	0.6201137
50	0x3f8d7be9	1.1053439
51	0x3f69c1f8	0.913116
52	0x3f6bf367	0.9216828
53	0x3f8bf051	1.0932714
54	0x3f93ad8f	1.1537341
55	0x3f2ec118	0.6826339
56	0x3f5a9299	0.8537994
57	0x3f63d151	0.88991266
58	0x3f9f0b4a	1.242532
59	0x3f8e2eb0	1.1107998
60	0x3f2e8f69	0.68187577
61	0x3f3006a7	0.6876015
62	0x3fc3ee3f	1.5307082
63	0x3f6bf367	0.9216828

encoder.module_list.0.output_quant.pre_transforms.0.bias f4 [64]
0	0x408ada60	4.339157
1	0xbcb2f415	-0.021844903
2	0x40b11a60	5.5344696
3	0x00000000	0.0
4	0xc088929c	-4.2678967
5	0x3f00d0a8	0.50318384
6	0x40ab7453	5.3579497
7	0x40a9bb7e	5.304137
8	0x00000000	0.0
9	0x40319d48	2.7752247
10	0x3e91686d	0.28399983
11	0x3e92285f	0.28546426
12	0xbe9c93d9	-0.3058155
13	0x3e8e5108	0.27796197
14	0x00000000	0.0
15	0x3e86976b	0.26287398
16	0x00000000	0.0
17	0x3e924a65	0.28572384
18	0x40a2358c	5.0690365
19	0xbd2b8f81	-0.041884903
20	0x40acada2	5.3961954
21	0x3d105d12	0.03524501
22	0x40960d6d	4.689139
23	0x3e76b55c	0.2409262
24	0x3e77e8fe	0.24209973
25	0xbcc07070	-0.023491114
26	0x402fe7a3	2.748513
27	0xbf3f0b5c	-0.7462671
28	0x3e8a9151	0.27063993
29	0x40a718ed	5.2217927
30	0x3fd2110c	1.6411452
31	0x401230c1	2.2842257
32	0x40ab9c9f	5.362869
33	0x40af854e	5.4850225
34	0x3fad9d55	1.3563639
35	0x3e366bbf	0.1781454
36	0xbecfdd57	-0.40598556
37	0x00000000	0.0
38	0x40a1db7a	5.0580416
39	0x3e19b6d7	0.15011154
40	0x3e63e7ae	0.22256348
41	0x3e67fad4	0.22654277
42	0x3e17f3b9	0.14839067
43	0x00000000	0.0
44	0x402fe2b4	2.7482119
45	0x40a1f3e8	5.0610237
46	0x3e34c4e7	0.17653237
47	0x3e7d33b3	0.24726753
48	0x409bac90	4.8648148
49	0x3f585c51	0.84515864
50	0x40ab8db9	5.36105
51	0xbd538a28	-0.051645428
52	0x00000000	0.0
53	0x40ab659d	5.356154
54	0x3e295581	0.16536523
55	0x40b56ffd	5.6699204
56	0xbba85b8f	-0.0051378678
57	0x408709e7	4.219959
58	0x3da23704	0.0792065
59	0x40ac96dc	5.3934155
60	0x3e3fc424	0.18727165
61	0x3e8f7d53	0.28025302
62	0x40a7a628	5.2390327
63	0x00000000	0.0

encoder.module_list.0.output_quant.pre_transforms.0.running_mean f4 [64]
0	0xbd0622b8	-0.032747954
1	0x3e0337f3	0.12814312
2	0xbc09288d	-0.0083714845
3	0x3dbd17ae	0.09233032
4	0x3d04a9aa	0.032388367
5	0x3c201ad5	0.009772022
6	0x3bafe524	0.005367892
7	0xbd8348ac	-0.064103454
8	0x3dc4ae70	0.09603584
9	0x3b46abeb	0.0030314873
10	0xbe227b38	-0.15867317
11	0x3d2dba11	0.042413775
12	0x3d4aea58	0.049539894
13	0x3dd7f766	0.105452344
14	0xbd68599b	-0.05672608
15	0x3c14b574	0.009076465
16	0x3d731c53	0.059353184
17	0xbc97e93a	-0.018543828
18	0x39b08db3	0.0003367491
19	0x3d98dd91	0.074641354
20	0x3dc690d9	0.09695596
21	0x3d1aacbc	0.03776239
22	0xbc6f87d8	-0.01461979
23	0x3caecb5e	0.021337207
24	0x3c9093c9	0.017648594
25	0x3d2abd52	0.041684456
26	0x3bc8400c	0.0061111506
27	0x3e18cfa9	0.14922966
28	0x3b6a1901	0.003572047
29	0xbcb105b2	-0.021609161
30	0xbcd4e607	-0.025988592
31	0xbcd50ec4	-0.026008017
32	0xbdbd3be8	-0.09239942
33	0xbdcaed4f	-0.09908544
34	0xbd4fbbd1	-0.050716225
35	0x3da8eb51	0.08248008
36	0xbe898580	-0.26859665
37	0xbda57ba7	-0.080802254
38	0xbdcf849a	-0.101327136
39	0x3d12972e	0.035788707
40	0x3a591894	0.00082815555
41	0x3d17fdb6	0.037107192
42	0xbea774e0	-0.32706356
43	0x3db34b3b	0.087545834
44	0xbbce5e3d	-0.006297855
45	0xbcd68aa9	-0.026189165
46	0x3e27f490	0.16401887
47	0x3d3fa35d	0.046786655
48	0xbcb2df5a	-0.021835018
49	0xbd1bbfe0	-0.038024783
50	0xbccf8c04	-0.02533532
51	0xbda0db7b	-0.078543626
52	0xbc497185	-0.012295132
53	0xbcf7abf8	-0.030233368
54	0x3d6925b9	0.05692074
55	0xbd16fdcb	-0.03686313
56	0x3d62f242	0.055406816
57	0x3c3a7616	0.011380693
58	0x3cc206e2	0.023684923
59	0xbd778bb8	-0.06043598
60	0x3d6427c7	0.055701997
61	0x3cbf42f2	0.023347352
62	0xbd6bb0c2	-0.057541616
63	0x3bd92849	0.006627117

encoder.module_list.0.output_quant.pre_transforms.0.running_var f4 [64]
0	0x3d3a782d	0.045524765
1	0x30ad2099	1.2596671e-09
2	0x364f0115	3.0846033e-06
3	0x336fb74f	5.5813242e-08
4	0x3d2329b9	0.03983471
5	0x3d62dcff	0.05538654
6	0x36012dd4	1.9249173e-06
7	0x3d3ff604	0.04686548
8	0x38d7d6e7	0.000102920276
9	0x3d47544b	0.048664372
10	0x37d24e42	2.5070392e-05
11	0x3d3982be	0.0452907
12	0x37b8ebc1	2.204429e-05
13	0x3d287c23	0.04113401
14	0x3858fe48	5.173523e-05
15	0x3d4dccd0	0.050244153
16	0x38c5e905	9.437095e-05
17	0x3d385990	0.04500729
18	0x3d12c1da	0.035829403
19	0x30234e19	5.941004e-10
20	0x3667d9ae	3.4548389e-06
21	0x3d598322	0.053103574
22	0x3d4d73c5	0.050159235
23	0x3d1cbcbd	0.038265932
24	0x3d413d92	0.04717786
25	0x31ce8788	6.010797e-09
26	0x3d14266b	0.03616945
27	0x3680fc5b	3.8440753e-06
28	0x3d41fbe0	0.047359347
29	0x3d191611	0.03737456
30	0x3d3f241a	0.04666529
31	0x3d6b289e	0.057411782
32	0x35ddce13	1.6525759e-06
33	0x36a8ee08	5.0345006e-06
34	0x3d79f399	0.06102333
35	0x3d24fb7f	0.040278908
36	0x34315c99	1.6518096e-07
37	0x382e7a49	4.159872e-05
38	0x36b02c03	5.2503324e-06
39	0x3600d72b	1.919873e-06
40	0x369099df	4.3094474e-06
41	0x3d2b6222	0.041841634
42	0x32fadd76	2.920454e-08
43	0x233f160d	1.03588e-17
44	0x3d355a6a	0.04427568
45	0x3d70001a	0.058593847
46	0x36166505	2.2410543e-06
47	0x3d56535a	0.052325584
48	0x3e038591	0.1284392
49	0x3d29ccd5	0.04145511
50	0x369b21fa	4.6233154e-06
51	0x30a0a44d	1.1688229e-09
52	0x386195b5	5.3783606e-05
53	0x361e9f11	2.3636424e-06
54	0x36843f18	3.9412516e-06
55	0x3d30104a	0.042984284
56	0x2f09e16c	1.2540163e-10
57	0x3d377ae8	0.044794947
58	0x36773c6e	3.6841043e-06
59	0x363f4061	2.8498691e-06
60	0x3d203bf0	0.03911966
61	0x3d22deeb	0.039763372
62	0x368bed93	4.17018e-06
63	0x385f1c6e	5.319382e-05

encoder.module_list.1.input_quant.pre_transforms.0.weight f4 [64]
0	0x3f0bc467	0.5459656
1	0x3f637649	0.88852364
2	0x3fe6c9d7	1.8030347
3	0x3f6bf367	0.9216828
4	0x3f811893	1.0085624
5	0x3f061f4d	0.5239151
6	0xbf8aefb0	-1.0854397
7	0x3f5e148a	0.8675009
8	0x3f6bf367	0.9216828
9	0x3f0f3241	0.55936056
10	0x3fa5ddfb	1.2958368
11	0x3f1cae26	0.6120323
12	0x3f1cd16c	0.6125705
13	0x3f236780	0.63829803
14	0x3f6bf367	0.9216828
15	0x3f2a50f8	0.665298
16	0x3f6bf367	0.9216828
17	0x3f2dddd9	0.6791664
18	0x3f265414	0.64972043
19	0x3f633861	0.887579
20	0x3f964a4e	1.1741426
21	0x3f308adc	0.6896188
22	0x3f1b2f4c	0.60619044
23	0x3f11b5bd	0.56917936
24	0x3f2f295a	0.6842247
25	0x3f6a16ee	0.9144124
26	0x3f035f27	0.51317066
27	0x3f71c85b	0.94446343
28	0x3f25ede3	0.6481611
29	0x3f391ebe	0.72312534
30	0x3f0d4757	0.5518698
31	0x3efeee35	0.49791113
32	0x3f9c2ec0	1.2201767
33	0x3ff686dd	1.9259907
34	0x3f91b211	1.1382467
35	0x3f75f404	0.96075463
36	0x3f22dc82	0.6361772
37	0x3f6bf367	0.9216828
38	0x40140621	2.312874
39	0x3f8d6190	1.1045399
40	0x3fa22f5b	1.2670702
41	0x3f18c8d6	0.5968145
42	0x3f78ce35	0.97189647
43	0x3f6bf367	0.9216828
44	0x3f0b965c	0.54526305
45	0x3f0059ee	0.5013722
46	0x3f93bd00	1.1542053
47	0x3f1cc045	0.6123088
48	0x3f7a4755	0.97765094
49	0x3f1ebfc5	0.6201137
50	0x3f8d7be9	1.1053439
51	0x3f69c1f8	0.913116
52	0x3f6bf367	0.9216828
53	0x3f8bf051	1.0932714
54	0x3f93ad8f	1.1537341
55	0x3f2ec118	0.6826339
56	0x3f5a9299	0.8537994
57	0x3f63d151	0.88991266
58	0x3f9f0b4a	1.242532
59	0x3f8e2eb0	1.1107998
60	0x3f2e8f69	0.68187577
61	0x3f3006a7	0.6876015
62	0x3fc3ee3f	1.5307082
63	0x3f6bf367	0.9216828

encoder.module_list.1.input_quant.pre_transforms.0.bias f4 [64]
0	0x408ada60	4.339157
1	0xbcb2f415	-0.021844903
2	0x40b11a60	5.5344696
3	0x00000000	0.0
4	0xc088929c	-4.2678967
5	0x3f00d0a8	0.50318384
6	0x40ab7453	5.3579497
7	0x40a9bb7e	5.304137
8	0x00000000	0.0
9	0x40319d48	2.7752247
10	0x3e91686d	0.28399983
11	0x3e92285f	0.28546426
12	0xbe9c93d9	-0.3058155
13	0x3e8e5108	0.27796197
14	0x00000000	0.0
15	0x3e86976b	0.26287398
16	0x00000000	0.0
17	0x3e924a65	0.28572384
18	0x40a2358c	5.0690365
19	0xbd2b8f81	-0.041884903
20	0x40acada2	5.3961954
21	0x3d105d12	0.03524501
22	0x40960d6d	4.689139
23	0x3e76b55c	0.2409262
24	0x3e77e8fe	0.24209973
25	0xbcc07070	-0.023491114
26	0x402fe7a3	2.748513
27	0xbf3f0b5c	-0.7462671
28	0x3e8a9151	0.27063993
29	0x40a718ed	5.2217927
30	0x3fd2110c	1.6411452
31	0x401230c1	2.2842257
32	0x40ab9c9f	5.362869
33	0x40af854e	5.4850225
34	0x3fad9d55	1.3563639
35	0x3e366bbf	0.1781454
36	0xbecfdd57	-0.40598556
37	0x00000000	0.0
38	0x40a1db7a	5.0580416
39	0x3e19b6d7	0.15011154
40	0x3e63e7ae	0.22256348
41	0x3e67fad4	0.22654277
42	0x3e17f3b9	0.14839067
43	0x00000000	0.0
44	0x402fe2b4	2.7482119
45	0x40a1f3e8	5.0610237
46	0x3e34c4e7	0.17653237
47	0x3e7d33b3	0.24726753
48	0x409bac90	4.8648148
49	0x3f585c51	0.84515864
50	0x40ab8db9	5.36105
51	0xbd538a28	-0.051645428
52	0x00000000	0.0
53	0x40ab659d	5.356154
54	0x3e295581	0.16536523
55	0x40b56ffd	5.6699204
56	0xbba85b8f	-0.0051378678
57	0x408709e7	4.219959
58	0x3da23704	0.0792065
59	0x40ac96dc	5.3934155
60	0x3e3fc424	0.18727165
61	0x3e8f7d53	0.28025302
62	0x40a7a628	5.2390327
63	0x00000000	0.0

encoder.module_list.1.input_quant.pre_transforms.0.running_mean f4 [64]
0	0xbd0622b8	-0.032747954
1	0x3e0337f3	0.12814312
2	0xbc09288d	-0.0083714845
3	0x3dbd17ae	0.09233032
4	0x3d04a9aa	0.032388367
5	0x3c201ad5	0.009772022
6	0x3bafe524	0.005367892
7	0xbd8348ac	-0.064103454
8	0x3dc4ae70	0.09603584
9	0x3b46abeb	0.0030314873
10	0xbe227b38	-0.15867317
11	0x3d2dba11	0.042413775
12	0x3d4aea58	0.049539894
13	0x3dd7f766	0.105452344
14	0xbd68599b	-0.05672608
15	0x3c14b574	0.009076465
16	0x3d731c53	0.059353184
17	0xbc97e93a	-0.018543828
18	0x39b08db3	0.0003367491
19	0x3d98dd91	0.074641354
20	0x3dc690d9	0.09695596
21	0x3d1aacbc	0.03776239
22	0xbc6f87d8	-0.01461979
23	0x3caecb5e	0.021337207
24	0x3c9093c9	0.017648594
25	0x3d2abd52	0.041684456
26	0x3bc8400c	0.0061111506
27	0x3e18cfa9	0.14922966
28	0x3b6a1901	0.003572047
29	0xbcb105b2	-0.021609161
30	0xbcd4e607	-0.025988592
31	0xbcd50ec4	-0.026008017
32	0xbdbd3be8	-0.09239942
33	0xbdcaed4f	-0.09908544
34	0xbd4fbbd1	-0.050716225
35	0x3da8eb51	0.08248008
36	0xbe898580	-0.26859665
37	0xbda57ba7	-0.080802254
38	0xbdcf849a	-0.101327136
39	0x3d12972e	0.035788707
40	0x3a591894	0.00082815555
41	0x3d17fdb6	0.037107192
42	0xbea774e0	-0.32706356
43	0x3db34b3b	0.087545834
44	0xbbce5e3d	-0.006297855
45	0xbcd68aa9	-0.026189165
46	0x3e27f490	0.16401887
47	0x3d3fa35d	0.046786655
48	0xbcb2df5a	-0.021835018
49	0xbd1bbfe0	-0.038024783
50	0xbccf8c04	-0.02533532
51	0xbda0db7b	-0.078543626
52	0xbc497185	-0.012295132
53	0xbcf7abf8	-0.030233368
54	0x3d6925b9	0.05692074
55	0xbd16fdcb	-0.03686313
56	0x3d62f242	0.055406816
57	0x3c3a7616	0.011380693
58	0x3cc206e2	0.023684923
59	0xbd778bb8	-0.06043598
60	0x3d6427c7	0.055701997
61	0x3cbf42f2	0.023347352
62	0xbd6bb0c2	-0.057541616
63	0x3bd92849	0.006627117

encoder.module_list.1.input_quant.pre_transforms.0.running_var f4 [64]
0	0x3d3a782d	0.045524765
1	0x30ad2099	1.2596671e-09
2	0x364f0115	3.0846033e-06
3	0x336fb74f	5.5813242e-08
4	0x3d2329b9	0.03983471
5	0x3d62dcff	0.05538654
6	0x36012dd4	1.9249173e-06
7	0x3d3ff604	0.04686548
8	0x38d7d6e7	0.000102920276
9	0x3d47544b	0.048664372
10	0x37d24e42	2.5070392e-05
11	0x3d3982be	0.0452907
12	0x37b8ebc1	2.204429e-05
13	0x3d287c23	0.04113401
14	0x3858fe48	5.173523e-05
15	0x3d4dccd0	0.050244153
16	0x38c5e905	9.437095e-05
17	0x3d385990	0.04500729
18	0x3d12c1da	0.035829403
19	0x30234e19	5.941004e-10
20	0x3667d9ae	3.4548389e-06
21	0x3d598322	0.053103574
22	0x3d4d73c5	0.050159235
23	0x3d1cbcbd	0.038265932
24	0x3d413d92	0.04717786
25	0x31ce8788	6.010797e-09
26	0x3d14266b	0.03616945
27	0x3680fc5b	3.8440753e-06
28	0x3d41fbe0	0.047359347
29	0x3d191611	0.03737456
30	0x3d3f241a	0.04666529
31	0x3d6b289e	0.057411782
32	0x35ddce13	1.6525759e-06
33	0x36a8ee08	5.0345006e-06
34	0x3d79f399	0.06102333
35	0x3d24fb7f	0.040278908
36	0x34315c99	1.6518096e-07
37	0x382e7a49	4.159872e-05
38	0x36b02c03	5.2503324e-06
39	0x3600d72b	1.919873e-06
40	0x369099df	4.3094474e-06
41	0x3d2b6222	0.041841634
42	0x32fadd76	2.920454e-08
43	0x233f160d	1.03588e-17
44	0x3d355a6a	0.04427568
45	0x3d70001a	0.058593847
46	0x36166505	2.2410543e-06
47	0x3d56535a	0.052325584
48	0x3e038591	0.1284392
49	0x3d29ccd5	0.04145511
50	0x369b21fa	4.6233154e-06
51	0x30a0a44d	1.1688229e-09
52	0x386195b5	5.3783606e-05
53	0x361e9f11	2.3636424e-06
54	0x36843f18	3.9412516e-06
55	0x3d30104a	0.042984284
56	0x2f09e16c	1.2540163e-10
57	0x3d377ae8	0.044794947
58	0x36773c6e	3.6841043e-06
59	0x363f4061	2.8498691e-06
60	0x3d203bf0	0.03911966
61	0x3d22deeb	0.039763372
62	0x368bed93	4.17018e-06
63	0x385f1c6e	5.319382e-05

encoder.module_list.1.fc.weight f4 [128, 64]
0	0xbdd70786	-0.10499482
1	0x3b2b7811	0.0026164094
2	0xbd175ecf	-0.03695565
3	0x3cf9654b	0.030443808
4	0xbd45f6e4	-0.048331156
5	0xbd5b7acc	-0.053583905
6	0xbc951e13	-0.018202817
7	0xbdb563f8	-0.08856958
8	0xbcf14a5f	-0.029454408
9	0x3de0e7b8	0.10981697
10	0xbdea23fd	-0.114326455
11	0xbdb657ac	-0.08903441
12	0x3d74a26f	0.05972522
13	0xbdd965a2	-0.10615088
14	0xbdb05ca8	-0.08611423
15	0xbbd8a9e8	-0.0066120513
16	0x3d2c8969	0.042123232
17	0xbd6227e5	-0.055213828
18	0x3c15d1e3	0.009144279
19	0xbde5d007	-0.11221319
20	0xbde36441	-0.11103106
21	0xbd06d212	-0.032915182
22	0x3dd709de	0.10499929
23	0xbcb9e48e	-0.022691991
24	0x3d2bffdd	0.041992057
25	0x3d8eea3b	0.0697827
26	0x3bef23e7	0.007297981
27	0xbda5ba55	-0.08092181
28	0xbd3b2854	-0.045692757
29	0xbd56960c	-0.05238919
30	0x3f6d0a8c	0.9259422
31	0xbca7785e	-0.020443138
32	0x3d9e45a4	0.07728127
33	0xbda2be9f	-0.07946514
34	0x3dd93932	0.10606612
35	0x3a1f7f33	0.0006084323
36	0x3d888934	0.066667944
37	0xbd30e976	-0.043191396
38	0xbd6eab2b	-0.058268707
39	0x3d320f42	0.043471582
40	0x3d77987f	0.060448166
41	0xbd4cad87	-0.049970176
42	0x3d1b1557	0.037862148
43	0x3d33dd2e	0.043912105
44	0xbd9683e1	-0.07349373
45	0x3c226cc3	0.009913626
46	0x3dc5379f	0.096297495
47	0x3ce9de8f	0.028548507
48	0xbdcbd0b1	-0.09951914
49	0xbdcbd72b	-0.099531494
50	0xbcc3194f	-0.023815779
51	0x3d8efb09	0.06981475
52	0x3d81b715	0.06333748
53	0xbca776ce	-0.020442393
54	0xbd79eb37	-0.061015334
55	0xbd4687af	-0.04846924
56	0xbd3f5ae0	-0.046717525
57	0xbf4a71b6	-0.7907976
58	0xbd379d02	-0.04482747
59	0x3d6eb8bf	0.058281656
60	0x3cc28af2	0.023747895
61	0xc017858b	-2.3675258
62	0x3dbeb642	0.09312107
63	0xbdbf74cf	-0.09348451
64	0x3b8d32b7	0.004309024
65	0xbb815719	-0.0039471504
66	0x3cbb3224	0.022851057
67	0xbda626ed	-0.08112893
68	0x3da9f109	0.08297927
69	0x3dc6708b	0.096894346
70	0xbd8745fa	-0.06605144
71	0xbda3877a	-0.079848245
72	0x3dd7dab6	0.10539763
73	0x3d54981c	0.051902875
74	0xbd91403b	-0.07092329
75	0xbd8b5fa9	-0.06805355
76	0x3d82163f	0.06351899
77	0x3c9a16b3	0.018809652
78	0xbba7d3b2	-0.0051216716
79	0x3d1503cf	0.036380585
80	0x3cb93b06	0.022611152
81	0xbd13975f	-0.03603303
82	0x3cf0751f	0.029352723
83	0x3c8bc7ff	0.017063139
84	0x3db9ad9e	0.09066318
85	0xbceb014f	-0.028687147
86	0x3d30fba6	0.04320874
87	0x3dbf0c9c	0.09328577
88	0xbd7c12cc	-0.061541364
89	0xbd1685cb	-0.03674869
90	0x3c136663	0.008996579
91	0xbcd30fa7	-0.0257643
92	0x3d9699e3	0.0735357
93	0x3d9cad65	0.0765026
94	0xbdaa42af	-0.083135
95	0xbca4aaf9	-0.020101057
96	0x3caef881	0.02135873
97	0x3dc41ed9	0.09576196
98	0x3d0761d5	0.033052284
99	0x3d12cb6f	0.03583854
100	0x3da4bc63	0.080437444
101	0x3b9642e3	0.0045856102
102	0x3d3f87fd	0.046760548
103	0xbb806e79	-0.0039194194
104	0xbc5d4481	-0.013505102
105	0xbc7055d7	-0.014668903
106	0xbd20f7df	-0.03929889
107	0xbd6f9693	-0.05849321
108	0xbcd3ab09	-0.025838392
109	0xbdbe3906	-0.0928822
110	0x3dd324c8	0.1030975
111	0x3d83fd7f	0.06444835
112	0x3c4768f7	0.012171022
113	0xbdcd74ad	-0.1003202
114	0x3dc98163	0.09839132
115	0xbdd21e01	-0.10259629
116	0xbd24b3ee	-0.040210657
117	0xbbdbd848	-0.0067091323
118	0x3c42a4e6	0.011880135
119	0x3d5c5b17	0.053797808
120	0x3da7c231	0.08191336
121	0xbc706f97	-0.014675043
122	0x3d9410a3	0.07229736
123	0xbde7192f	-0.112841
124	0xbdc62e1d	-0.09676764
125	0xbdd79ece	-0.105283365
126	0xbd90ce24	-0.07070568
127	0x3d480c97	0.04884013
128	0xbd0909f5	-0.03345676
129	0xbc0a8387	-0.00845421
130	0xbde59c81	-0.112114914
131	0x3d68b8b3	0.056816768
132	0x3ddeec35	0.10884897
133	0x3d3bc1de	0.045839183
134	0xbde033f9	-0.10947413
135	0xbd4b6ac3	-0.049662363
136	0xbd7620c1	-0.06008983
137	0xbd97b817	-0.07408159
138	0x3d1aefb7	0.037826266
139	0x3cdab678	0.026698336
140	0x3c4ec127	0.012619293
141	0x3ca6a449	0.02034201
142	0xbd6e4547	-0.058171537
143	0x3d4f3bb5	0.05059405
144	0x3d2582fa	0.040408112
145	0xbb9a9f83	-0.0047187223
146	0xbd1ce78f	-0.03830677
147	0xbd5da2a8	-0.0541102
148	0x3db1dbfa	0.08684535
149	0x3ccbc4df	0.024874149
150	0xbddfbe50	-0.10924971
151	0xbd02f139	-0.03196833
152	0x3d878d35	0.0661873
153	0xbc469567	-0.012120581
154	0xbca8e379	-0.02061628
155	0xbc116766	-0.00887475
156	0xbd77492c	-0.060372517
157	0x3f58f8f7	0.8475489
158	0xbde80a5f	-0.11330103
159	0xbde4c3f4	-0.111701876
160	0x3db3cdde	0.087795004
161	0xbcee101f	-0.029060422
162	0xbd23fa69	-0.04003373
163	0xc026778c	-2.6010466
164	0x3db91080	0.0903635
165	0x3d5a7934	0.053338245
166	0x3dc42905	0.09578136
167	0xbddbb090	-0.10727036
168	0xbd668ddb	-0.056287628
169	0x3da6d970	0.08146942
170	0x3cd072e7	0.025445415
171	0x3d15368f	0.036428984
172	0xbd24d9dc	-0.04024683
173	0xbd455cba	-0.048184134
174	0xbd93ca43	-0.07216313
175	0x3d09ef2b	0.033675354
176	0xbda98acf	-0.08278429
177	0xbda9c795	-0.082900204
178	0x3d2bc1ed	0.04193299
179	0x3dd72f3c	0.10507056
180	0x3dbe3b66	0.09288673
181	0x3d441e01	0.047880176
182	0xbde6d8c7	-0.11271816
183	0x3ddf4e53	0.10903611
184	0xbde4cae2	-0.11171509
185	0xbd459669	-0.048239145
186	0x3d8e9219	0.0696146
187	0xbd8bf08d	-0.06832991
188	0x3d9af2a9	0.07565815
189	0xbdd6dc38	-0.10491222
190	0x3b49fed7	0.0030822062
191	0xbd5cb2bf	-0.053881403
192	0x3d121187	0.035661247
193	0x3ddf545e	0.10904764
194	0x3de9bd87	0.114131026
195	0xbd652790	-0.055945933
196	0x3c5cc05d	0.013473597
197	0x3bf46c71	0.0074592163
198	0xbde93517	-0.11387079
199	0x3bb78c96	0.005601476
200	0x3c5afa78	0.0133653805
201	0xbdaa4a37	-0.083149366
202	0xbc876bf2	-0.016530965
203	0xbc306246	-0.010765618
204	0x3d2189d3	0.03943808
205	0x3da7cb35	0.081930555
206	0xbdbd0e6e	-0.09231268
207	0x3dd699e0	0.10478568
208	0x3beb0147	0.007171783
209	0xbd89b861	-0.067246206
210	0x3dab622d	0.08368335
211	0xbdb159c0	-0.086596966
212	0x3c7fb8a9	0.015607991
213	0x3d560270	0.05224842
214	0xbd2914b5	-0.041279513
215	0x3d821375	0.063513674
216	0xbdbfe0b4	-0.093690306
217	0xbd25fe88	-0.040525943
218	0xbc036b89	-0.008021244
219	0xbdcdee6b	-0.1005524
220	0xbd53da4c	-0.051721856
221	0xbde1bbdc	-0.110221595
222	0x3cb8c63f	0.022555469
223	0xbcf21847	-0.029552592
224	0x3ddf3f08	0.10900694
225	0xbcf49e19	-0.029860543
226	0x38a64632	7.928572e-05
227	0x3d3c3ed6	0.045958363
228	0x3d548798	0.051887125
229	0xbc6fc257	-0.014633737
230	0xbdb0e4da	-0.086374
231	0x3de049c2	0.10951568
232	0x3d353a06	0.04424479
233	0x3d8f345f	0.06992411
234	0xbddb5f96	-0.10711591
235	0xbde63ed1	-0.1124245
236	0x403b6f73	2.9286773
237	0x3d0a09bb	0.033700686
238	0x3d59305c	0.053024635
239	0xbd037a71	-0.03209919
240	0xbdc294a7	-0.095010094
241	0xbc4abbb7	-0.012373856
242	0x3dd55c9c	0.104180545
243	0x3d8c2cd3	0.06844487
244	0xbdb609f8	-0.0888862
245	0xbda8af39	-0.08236546
246	0xbdba79d4	-0.09105268
247	0xbbc00094	-0.005859444
248	0xbcebcf97	-0.02878551
249	0xbf46e039	-0.77685887
250	0xbd86c6b5	-0.06580869
251	0xbd9fc8d3	-0.07801976
252	0xbd7677c6	-0.06017282
253	0xbdc593f9	-0.09647364
254	0x3da7ce11	0.08193601
255	0xbd4139f9	-0.047174428

encoder.module_list.1.fc.bias f4 [128]
0	0xbdeb624c	-0.11493358
1	0x3dc8f54c	0.09812412
2	0x3e13e307	0.14442073
3	0x3e4b3ca5	0.19847353
4	0x3d552608	0.052038223
5	0xbded5208	-0.11587912
6	0x3dac8ef7	0.08425706
7	0x3d00b550	0.031422913
8	0xbd3adab8	-0.045618743
9	0xbeb744c7	-0.3579466
10	0x3de767e6	0.11299114
11	0x3f528866	0.8223938
12	0x3d106234	0.035249904
13	0x3e13ad24	0.14421517
14	0x3d5edf14	0.054411963
15	0xbdcafe74	-0.09911814
16	0x3eef2ead	0.46715298
17	0x3dcf08da	0.1010911
18	0x3dea564c	0.11442241
19	0x3ccce578	0.025011763
20	0xbd8da87a	-0.069169
21	0xbd8ed6c3	-0.06974556
22	0x3cbcdfe8	0.023055986
23	0x3de4ac3c	0.111656636
24	0xbdeac770	-0.11463821
25	0xbdf51936	-0.11967699
26	0xbcc9dc90	-0.024641305
27	0xbded9708	-0.116010725
28	0x3d481272	0.048845716
29	0x3d8d9750	0.06913626
30	0xbdb38220	-0.08765054
31	0x3db2c43c	0.08728835
32	0x3d16455c	0.03668724
33	0x3d71d834	0.059044078
34	0x3c5f80e0	0.013641566
35	0xbd2607c8	-0.040534765
36	0x3db0666e	0.08613287
37	0xbc9456b0	-0.018107742
38	0xbb8320b2	-0.0040017003
39	0x3cdebf30	0.027190775
40	0x3c845515	0.016153852
41	0xbe84ca6e	-0.25935692
42	0xbc5f095b	-0.01361307
43	0xbdf0e652	-0.1176268
44	0x3d0dd754	0.03462918
45	0x3d48b828	0.04900375
46	0x3d9010c4	0.07034448
47	0x3d9d0e76	0.07668774
48	0x3c965048	0.018348828
49	0xbc815ee0	-0.01579231
50	0x3dba9522	0.09110476
51	0xbc1d8e90	-0.009616509
52	0xbf201fa8	-0.62548304
53	0x3e9f5551	0.3111978
54	0x3c9c6340	0.019090295
55	0x3f07e975	0.530906
56	0xbd743cc8	-0.059628278
57	0x3da1fb76	0.079092905
58	0x396d8000	0.00022649765
59	0xbe5621f9	-0.20911397
60	0x3d2ab238	0.04167387
61	0x3dd3a764	0.103346616
62	0xbe32cfe5	-0.17462118
63	0x3e30c621	0.1726308
64	0xbe4e4a12	-0.20145443
65	0x3d89ddd0	0.067317605
66	0x3cd65268	0.026162341
67	0x3d8cf95c	0.06883499
68	0xbd44eb28	-0.048075825
69	0xbd9e98fc	-0.07744023
70	0xbd46b2c4	-0.048510328
71	0xbe4268e9	-0.18985333
72	0xbd44b460	-0.04802358
73	0x3d8568cc	0.06514129
74	0x3e27bbc4	0.1638022
75	0x3d9baa0e	0.07600795
76	0xbd3d3308	-0.046191245
77	0xbdf68c6e	-0.120385036
78	0xbdf3fa7e	-0.11913012
79	0xbd72ce4c	-0.05927877
80	0xbd3aa5df	-0.045568343
81	0x3e098d01	0.13432695
82	0x3e8985e7	0.26859972
83	0xbb65a5c0	-0.0035041422
84	0xbde616fc	-0.11234853
85	0x3b1cac6a	0.0023906478
86	0x3e115ed5	0.14196332
87	0x3d484e5c	0.048902854
88	0x3e2abc09	0.16673292
89	0x3d95034f	0.07276022
90	0xbdae6e94	-0.08517185
91	0x3d1d2264	0.038362876
92	0xbddcb3e6	-0.107765004
93	0xbcce73c8	-0.025201693
94	0x3ddd471e	0.1080458
95	0x3dae2982	0.08504011
96	0xbd14acc0	-0.03629756
97	0xbd9e4834	-0.077286154
98	0x3ce6bbd0	0.028165728
99	0xbc70da80	-0.014700532
100	0x3dcdc012	0.100464
101	0xbd1eb508	-0.038746864
102	0xbd673f08	-0.056456596
103	0x3cfe1f09	0.031020658
104	0x3dddac9d	0.10823939
105	0x3d880958	0.06642407
106	0xbd9486aa	-0.07252248
107	0xbde36938	-0.11104053
108	0xbe5b8853	-0.21438722
109	0xbdc12130	-0.09430158
110	0x3e7d7369	0.24751057
111	0xbdf761f0	-0.12079227
112	0x3ce3f460	0.027826488
113	0x3c7f4530	0.01558046
114	0xbdfbe3d4	-0.12299314
115	0xba395746	-0.00070701947
116	0xbde32c40	-0.110924244
117	0xbde761c8	-0.11297947
118	0x3cd9ca30	0.026585668
119	0x3b3c55c0	0.0028737634
120	0xbcbaa6a0	-0.022784531
121	0x3e6e244c	0.23256034
122	0xba957600	-0.0011402965
123	0x3c6d4bb0	0.014483377
124	0x3dad42a8	0.08459979
125	0xbdb91990	-0.09038079
126	0x3d57d54c	0.05269365
127	0xbe7ba90e	-0.24576208

encoder.module_list.1.fc.mask.mask f4 [128, 64]
0	0x00000000	0.0
1	0x00000000	0.0
2	0x00000000	0.0
3	0x00000000	0.0
4	0x00000000	0.0
5	0x00000000	0.0
6	0x00000000	0.0
7	0x00000000	0.0
8	0x00000000	0.0
9	0x00000000	0.0
10	0x00000000	0.0
11	0x00000000	0.0
12	0x00000000	0.0
13	0x00000000	0.0
14	0x00000000	0.0
15	0x00000000	0.0
16	0x00000000	0.0
17	0x00000000	0.0
18	0x00000000	0.0
19	0x00000000	0.0
20	0x00000000	0.0
21	0x00000000	0.0
22	0x00000000	0.0
23	0x00000000	0.0
24	0x00000000	0.0
25	0x00000000	0.0
26	0x00000000	0.0
27	0x00000000	0.0
28	0x00000000	0.0
29	0x00000000	0.0
30	0x3f800000	1.0
31	0x00000000	0.0
32	0x00000000	0.0
33	0x00000000	0.0
34	0x00000000	0.0
35	0x00000000	0.0
36	0x00000000	0.0
37	0x00000000	0.0
38	0x00000000	0.0
39	0x00000000	0.0
40	0x00000000	0.0
41	0x00000000	0.0
42	0x00000000	0.0
43	0x00000000	0.0
44	0x00000000	0.0
45	0x00000000	0.0
46	0x00000000	0.0
47	0x00000000	0.0
48	0x00000000	0.0
49	0x00000000	0.0
50	0x00000000	0.0
51	0x00000000	0.0
52	0x00000000	0.0
53	0x00000000	0.0
54	0x00000000	0.0
55	0x00000000	0.0
56	0x00000000	0.0
57	0x3f800000	1.0
58	0x00000000	0.0
59	0x00000000	0.0
60	0x00000000	0.0
61	0x3f800000	1.0
62	0x00000000	0.0
63	0x00000000	0.0
64	0x3f800000	1.0
65	0x00000000	0.0
66	0x00000000	0.0
67	0x00000000	0.0
68	0x00000000	0.0
69	0x00000000	0.0
70	0x00000000	0.0
71	0x00000000	0.0
72	0x00000000	0.0
73	0x00000000	0.0
74	0x00000000	0.0
75	0x00000000	0.0
76	0x00000000	0.0
77	0x00000000	0.0
78	0x00000000	0.0
79	0x00000000	0.0
80	0x00000000	0.0
81	0x00000000	0.0
82	0x00000000	0.0
83	0x00000000	0.0
84	0x00000000	0.0
85	0x00000000	0.0
86	0x00000000	0.0
87	0x00000000	0.0
88	0x00000000	0.0
89	0x3f800000	1.0
90	0x00000000	0.0
91	0x00000000	0.0
92	0x00000000	0.0
93	0x00000000	0.0
94	0x00000000	0.0
95	0x00000000	0.0
96	0x00000000	0.0
97	0x00000000	0.0
98	0x00000000	0.0
99	0x00000000	0.0
100	0x00000000	0.0
101	0x00000000	0.0
102	0x00000000	0.0
103	0x00000000	0.0
104	0x00000000	0.0
105	0x00000000	0.0
106	0x00000000	0.0
107	0x00000000	0.0
108	0x3f800000	1.0
109	0x00000000	0.0
110	0x00000000	0.0
111	0x00000000	0.0
112	0x00000000	0.0
113	0x00000000	0.0
114	0x00000000	0.0
115	0x00000000	0.0
116	0x00000000	0.0
117	0x00000000	0.0
118	0x00000000	0.0
119	0x00000000	0.0
120	0x00000000	0.0
121	0x00000000	0.0
122	0x00000000	0.0
123	0x00000000	0.0
124	0x00000000	0.0
125	0x00000000	0.0
126	0x00000000	0.0
127	0x00000000	0.0
128	0x00000000	0.0
129	0x00000000	0.0
130	0x00000000	0.0
131	0x00000000	0.0
132	0x00000000	0.0
133	0x00000000	0.0
134	0x00000000	0.0
135	0x00000000	0.0
136	0x00000000	0.0
137	0x00000000	0.0
138	0x00000000	0.0
139	0x00000000	0.0
140	0x00000000	0.0
141	0x00000000	0.0
142	0x00000000	0.0
143	0x3f800000	1.0
144	0x00000000	0.0
145	0x00000000	0.0
146	0x00000000	0.0
147	0x00000000	0.0
148	0x00000000	0.0
149	0x00000000	0.0
150	0x00000000	0.0
151	0x00000000	0.0
152	0x00000000	0.0
153	0x00000000	0.0
154	0x00000000	0.0
155	0x00000000	0.0
156	0x00000000	0.0
157	0x3f800000	1.0
158	0x00000000	0.0
159	0x00000000	0.0
160	0x00000000	0.0
161	0x00000000	0.0
162	0x00000000	0.0
163	0x3f800000	1.0
164	0x00000000	0.0
165	0x00000000	0.0
166	0x00000000	0.0
167	0x00000000	0.0
168	0x00000000	0.0
169	0x00000000	0.0
170	0x00000000	0.0
171	0x00000000	0.0
172	0x00000000	0.0
173	0x00000000	0.0
174	0x00000000	0.0
175	0x00000000	0.0
176	0x00000000	0.0
177	0x00000000	0.0
178	0x00000000	0.0
179	0x00000000	0.0
180	0x00000000	0.0
181	0x00000000	0.0
182	0x00000000	0.0
183	0x00000000	0.0
184	0x00000000	0.0
185	0x00000000	0.0
186	0x00000000	0.0
187	0x00000000	0.0
188	0x00000000	0.0
189	0x00000000	0.0
190	0x00000000	0.0
191	0x00000000	0.0
192	0x00000000	0.0
193	0x00000000	0.0
194	0x00000000	0.0
195	0x00000000	0.0
196	0x00000000	0.0
197	0x00000000	0.0
198	0x00000000	0.0
199	0x00000000	0.0
200	0x00000000	0.0
201	0x00000000	0.0
202	0x00000000	0.0
203	0x00000000	0.0
204	0x00000000	0.0
205	0x00000000	0.0
206	0x00000000	0.0
207	0x00000000	0.0
208	0x00000000	0.0
209	0x00000000	0.0
210	0x00000000	0.0
211	0x00000000	0.0
212	0x00000000	0.0
213	0x00000000	0.0
214	0x00000000	0.0
215	0x00000000	0.0
216	0x00000000	0.0
217	0x00000000	0.0
218	0x00000000	0.0
219	0x00000000	0.0
220	0x00000000	0.0
221	0x00000000	0.0
222	0x3f800000	1.0
223	0x00000000	0.0
224	0x00000000	0.0
225	0x00000000	0.0
226	0x00000000	0.0
227	0x00000000	0.0
228	0x00000000	0.0
229	0x00000000	0.0
230	0x00000000	0.0
231	0x00000000	0.0
232	0x00000000	0.0
233	0x00000000	0.0
234	0x00000000	0.0
235	0x00000000	0.0
236	0x3f800000	1.0
237	0x00000000	0.0
238	0x00000000	0.0
239	0x00000000	0.0
240	0x00000000	0.0
241	0x00000000	0.0
242	0x00000000	0.0
243	0x00000000	0.0
244	0x00000000	0.0
245	0x00000000	0.0
246	0x00000000	0.0
247	0x00000000	0.0
248	0x00000000	0.0
249	0x3f800000	1.0
250	0x00000000	0.0
251	0x00000000	0.0
252	0x00000000	0.0
253	0x00000000	0.0
254	0x00000000	0.0
255	0x00000000	0.0

encoder.module_list.1.output_quant.pre_transforms.0.weight f4 [128]
0	0x3f0f3137	0.5593447
1	0x3f6bf367	0.9216828
2	0x3f5037f1	0.8133536
3	0x3f7db3b0	0.99102306
4	0x3f6bf367	0.9216828
5	0x3f6bf367	0.9216828
6	0x3ed6e99a	0.419751
7	0x3f6bf367	0.9216828
8	0x3f6bf367	0.9216828
9	0x3f333ffd	0.70019513
10	0x3f6bf367	0.9216828
11	0x3f247f54	0.6425679
12	0x3f6bf367	0.9216828
13	0x3f01f650	0.5076647
14	0x3f6bf367	0.9216828
15	0x3f6bf367	0.9216828
16	0x3f351ffb	0.70751923
17	0x3f6bf367	0.9216828
18	0x3f6bf367	0.9216828
19	0x3f6bf367	0.9216828
20	0x3f6bf367	0.9216828
21	0x3f164948	0.5870557
22	0x3f6bf367	0.9216828
23	0x3f6bf367	0.9216828
24	0x3f6bf367	0.9216828
25	0x3f6bf367	0.9216828
26	0x3f6bf367	0.9216828
27	0x3f6bf367	0.9216828
28	0x3f283e9e	0.65720546
29	0x3f6bf367	0.9216828
30	0x3ec20317	0.37892982
31	0x3f6bf367	0.9216828
32	0x3f6bf367	0.9216828
33	0x3f6bf367	0.9216828
34	0x3f6bf367	0.9216828
35	0x3f6bf367	0.9216828
36	0x3f6bf367	0.9216828
37	0x3f6bf367	0.9216828
38	0x3f297ab5	0.6620286
39	0x3f6bf367	0.9216828
40	0x3f467583	0.7752306
41	0x3f073818	0.5281997
42	0x3ef52928	0.47882962
43	0x3f6bf367	0.9216828
44	0x3f6bf367	0.9216828
45	0x3f6bf367	0.9216828
46	0x3f6bf367	0.9216828
47	0x3fa023b3	1.2510895
48	0x3f6bf367	0.9216828
49	0x3f6bf367	0.9216828
50	0x3f6bf367	0.9216828
51	0x3f6bf367	0.9216828
52	0x3f22979d	0.63512594
53	0x3f716bab	0.94304913
54	0x3f6bf367	0.9216828
55	0x3f245964	0.641989
56	0x3f6bf367	0.9216828
57	0x3f6bf367	0.9216828
58	0x3f6bf367	0.9216828
59	0x3f66407e	0.8994216
60	0x3f6bf367	0.9216828
61	0x3f6bf367	0.9216828
62	0x3f455ad7	0.77091736
63	0x3f6ac135	0.9170106
64	0x3f1d8ba0	0.61541176
65	0x3f6bf367	0.9216828
66	0x3f6bf367	0.9216828
67	0x3f6bf367	0.9216828
68	0x3e2c1134	0.16803437
69	0x3f6bf367	0.9216828
70	0x3f6bf367	0.9216828
71	0x3f9c10d8	1.219264
72	0x3f6bf367	0.9216828
73	0x3f6bf367	0.9216828
74	0x3efd9c6e	0.4953341
75	0x3f6bf367	0.9216828
76	0x3f6bf367	0.9216828
77	0x3f6bf367	0.9216828
78	0x3f6bf367	0.9216828
79	0x3f6bf367	0.9216828
80	0x3f9fb673	1.2477554
81	0x3f3bfbd7	0.7343115
82	0x3f46e534	0.77693486
83	0x3f6bf367	0.9216828
84	0x3f6bf367	0.9216828
85	0x3f6c98f2	0.92420876
86	0x3f7cea3d	0.9879492
87	0x3f6bf367	0.9216828
88	0x3f5cd41b	0.8626115
89	0x3f24206f	0.6411199
90	0x3f6bf367	0.9216828
91	0x3f6bf367	0.9216828
92	0x3f6bf367	0.9216828
93	0x3f6bf367	0.9216828
94	0x3f468c4b	0.7755782
95	0x3f6bf367	0.9216828
96	0x3f6bf367	0.9216828
97	0x3f6bf367	0.9216828
98	0x3f6bf367	0.9216828
99	0x3f6bf367	0.9216828
100	0x3f6bf367	0.9216828
101	0x3f6bf367	0.9216828
102	0x3f6bf367	0.9216828
103	0x3f19cc4b	0.6007735
104	0x3f42489d	0.7589205
105	0x3f6bf367	0.9216828
106	0x3f6bf367	0.9216828
107	0x3f6bf367	0.9216828
108	0x3f1e358c	0.61800456
109	0x3f6bf367	0.9216828
110	0x3ee06696	0.43828267
111	0x3f6bf367	0.9216828
112	0x3f6bf367	0.9216828
113	0x3f6bf367	0.9216828
114	0x3f6bf367	0.9216828
115	0x3f328c41	0.6974526
116	0x3eec5542	0.46158797
117	0x3f6bf367	0.9216828
118	0x3f6bf367	0.9216828
119	0x3f6bf367	0.9216828
120	0x3f6bf367	0.9216828
121	0x3faf60e5	1.3701445
122	0x3f6bf367	0.9216828
123	0x3f6bf367	0.9216828
124	0x3f53c80c	0.8272712
125	0x3f6bf367	0.9216828
126	0x3f11ae97	0.5690703
127	0x3f0b8ca8	0.545115

encoder.module_list.1.output_quant.pre_transforms.0.bias f4 [128]
0	0x407f5b70	3.989956
1	0x00000000	0.0
2	0x40a322ba	5.097989
3	0xbe1a0f93	-0.15045004
4	0x00000000	0.0
5	0x00000000	0.0
6	0x4025dba0	2.5915298
7	0x00000000	0.0
8	0x00000000	0.0
9	0x40394bd9	2.8952544
10	0x00000000	0.0
11	0x3ee37f53	0.44433078
12	0x00000000	0.0
13	0x40399bd2	2.9001355
14	0x00000000	0.0
15	0x00000000	0.0
16	0x3f6b0033	0.9179718
17	0x00000000	0.0
18	0x00000000	0.0
19	0x00000000	0.0
20	0x00000000	0.0
21	0x409bf26a	4.8733416
22	0x00000000	0.0
23	0x00000000	0.0
24	0x00000000	0.0
25	0x00000000	0.0
26	0x00000000	0.0
27	0x00000000	0.0
28	0x3e22a721	0.15884067
29	0x00000000	0.0
30	0xbe9448f8	-0.2896192
31	0x00000000	0.0
32	0x00000000	0.0
33	0x00000000	0.0
34	0x00000000	0.0
35	0x00000000	0.0
36	0x00000000	0.0
37	0x00000000	0.0
38	0xbd30f411	-0.04320151
39	0x00000000	0.0
40	0x409b47b6	4.852504
41	0x4066e6e3	3.6078422
42	0x3e533438	0.20625389
43	0x00000000	0.0
44	0x00000000	0.0
45	0x00000000	0.0
46	0x00000000	0.0
47	0x3f8d4949	1.103799
48	0x00000000	0.0
49	0x00000000	0.0
50	0x00000000	0.0
51	0x00000000	0.0
52	0x403b2457	2.924093
53	0xc09ff6e4	-4.998888
54	0x00000000	0.0
55	0x3fd6f193	1.6792473
56	0x00000000	0.0
57	0x00000000	0.0
58	0x00000000	0.0
59	0x409d3bd3	4.9135528
60	0x00000000	0.0
61	0x00000000	0.0
62	0x407d403a	3.957045
63	0x3e199d30	0.15001369
64	0xbbf84200	-0.007576227
65	0x00000000	0.0
66	0x00000000	0.0
67	0x00000000	0.0
68	0xbebfde0b	-0.37474093
69	0x00000000	0.0
70	0x00000000	0.0
71	0x40aadd11	5.3394856
72	0x00000000	0.0
73	0x00000000	0.0
74	0x40a53f3b	5.1639686
75	0x00000000	0.0
76	0x00000000	0.0
77	0x00000000	0.0
78	0x00000000	0.0
79	0x00000000	0.0
80	0x40b43977	5.6320148
81	0x4085e6bb	4.1844153
82	0x3ec57647	0.385668
83	0x00000000	0.0
84	0x00000000	0.0
85	0x4097371e	4.725478
86	0x4095ee81	4.6853642
87	0x00000000	0.0
88	0x3ebfecd5	0.37485376
89	0x402cdea5	2.7010891
90	0x00000000	0.0
91	0x00000000	0.0
92	0x00000000	0.0
93	0x00000000	0.0
94	0x40a30304	5.094118
95	0x00000000	0.0
96	0x00000000	0.0
97	0x00000000	0.0
98	0x00000000	0.0
99	0x00000000	0.0
100	0x00000000	0.0
101	0x00000000	0.0
102	0x00000000	0.0
103	0x402d945b	2.71218
104	0x40b949c0	5.7902527
105	0x00000000	0.0
106	0x00000000	0.0
107	0x00000000	0.0
108	0xbd469859	-0.048485134
109	0x00000000	0.0
110	0x40429e3e	3.0409083
111	0x00000000	0.0
112	0x00000000	0.0
113	0x00000000	0.0
114	0x00000000	0.0
115	0x400596aa	2.0873208
116	0x3fcd7224	1.6050458
117	0x00000000	0.0
118	0x00000000	0.0
119	0x00000000	0.0
120	0x00000000	0.0
121	0xbe85d7ef	-0.26141307
122	0x00000000	0.0
123	0x00000000	0.0
124	0x3ead1fc2	0.33813292
125	0x00000000	0.0
126	0x40abb022	5.3652506
127	0x410280da	8.156458

encoder.module_list.1.output_quant.pre_transforms.0.running_mean f4 [128]
0	0xc03500f0	-2.8281822
1	0x3d3a5a81	0.045496468
2	0x406fa8a8	3.744669
3	0x409de4b2	4.934167
4	0x3c2290c6	0.009922212
5	0xbdfa9347	-0.12235122
6	0x3da565f8	0.080760896
7	0x3d091457	0.033466663
8	0xbe710c03	-0.23539738
9	0x40a9c749	5.305577
10	0x3d93a68d	0.072095014
11	0xc184afdc	-16.585869
12	0xbf0eb335	-0.557422
13	0x40900781	4.500916
14	0x3ef3cfca	0.47619468
15	0xbdbe9146	-0.093050525
16	0xc1ade17a	-21.735096
17	0x3dcda5d2	0.10041393
18	0xbe5972b4	-0.21235162
19	0xbad0c648	-0.0015928233
20	0xbe1fbcda	-0.15599385
21	0xbf93248e	-1.1495531
22	0x3d2fd6c5	0.04292943
23	0xbec3ff19	-0.38280562
24	0x3f0d0fe1	0.55102354
25	0xbe4686e4	-0.19387394
26	0x3c8d43c2	0.017244224
27	0xbe6fa616	-0.234032
28	0x3f61d6dd	0.8821848
29	0x3daab213	0.08334746
30	0xbdb56da9	-0.08858807
31	0x3eb294e7	0.34879228
32	0x3eb378f8	0.3505323
33	0x3d454bc2	0.04816795
34	0xbe6db9d5	-0.2321542
35	0xbe61014c	-0.21973151
36	0xbe2d4d36	-0.16923985
37	0xbd805f21	-0.062681444
38	0x400977ee	2.147945
39	0x3dba28dd	0.09089825
40	0x40d4d786	6.651309
41	0x419780e3	18.937933
42	0x3fabdcf8	1.3426809
43	0x3b1935d3	0.002337803
44	0x3ec9d076	0.39416856
45	0xbddc1410	-0.10746014
46	0x3db3e42a	0.08783753
47	0xc0bf7e72	-5.984185
48	0xbedc8b93	-0.43075237
49	0x3ec3a431	0.38211206
50	0x3db52a3c	0.08845946
51	0xbc3d2afc	-0.011545893
52	0x40a08903	5.016725
53	0xc16decd2	-14.870317
54	0x3e65131d	0.22370572
55	0xc1869f36	-16.82774
56	0xbd47ea64	-0.048807517
57	0x3e87d317	0.26528236
58	0xbaf35487	-0.001856462
59	0x40e8c7bc	7.2743816
60	0x3f1d7b70	0.61516476
61	0xbe4219c7	-0.18955146
62	0xc03627b4	-2.8461733
63	0x3f67469c	0.90342116
64	0x3e51212a	0.20422807
65	0xbc38eea4	-0.011287365
66	0x3db7fdf2	0.08983983
67	0x3f3c79ab	0.7362315
68	0xbd2489d5	-0.04017051
69	0xbdb48309	-0.088140555
70	0xbdeec1ed	-0.11658082
71	0xbd86cb83	-0.065817855
72	0xbe7841e7	-0.2424389
73	0x3e398a10	0.18119073
74	0xc095565d	-4.6667924
75	0x3e91b122	0.28455454
76	0xbef26570	-0.47343016
77	0xbe261dbe	-0.16222283
78	0xbdf9bbbb	-0.1219401
79	0x3d305b13	0.043055605
80	0x40b40a9f	5.6262965
81	0xbff2d4d3	-1.8971199
82	0xc101c40d	-8.110364
83	0xbf10b502	-0.56526196
84	0xbd8c5a1b	-0.06853124
85	0x416ed22b	14.926311
86	0x40a99e34	5.300562
87	0x3da62ede	0.08114408
88	0xc189a006	-17.203136
89	0x3e153ebb	0.14574711
90	0xbe08d742	-0.13363364
91	0x3f1567b7	0.5836138
92	0xbe55b646	-0.20870313
93	0xbebcab7a	-0.36849576
94	0x40e2b66d	7.084769
95	0xbf030686	-0.5118183
96	0xbe9dc667	-0.3081543
97	0xbed13eb3	-0.40868148
98	0x3e94bdf2	0.29051167
99	0xbe5973e0	-0.21235609
100	0x3df84073	0.12121668
101	0xbda72c9b	-0.08162805
102	0xbd941ef7	-0.072324686
103	0x413ee838	11.931694
104	0xbfc73c9b	-1.556537
105	0x3d7e1e4a	0.062040605
106	0xbd32c245	-0.0436423
107	0x3e8e9895	0.27850786
108	0x4008a4a7	2.1350496
109	0x3d6b6aab	0.057474773
110	0xc18ebff2	-17.843723
111	0xbdd6ee0f	-0.10494625
112	0x3eb08c08	0.34481835
113	0xbbe29e13	-0.0069158166
114	0xbe549b06	-0.20762262
115	0xc10e28ac	-8.88493
116	0x40ad4b75	5.415461
117	0xbde9637b	-0.113959275
118	0x3c3c1e8a	0.01148189
119	0xbdd1a627	-0.10236769
120	0xbf077302	-0.52909863
121	0x3e746f95	0.2387069
122	0x3eebffd9	0.46093634
123	0x3e7ec244	0.24878794
124	0xc0ba20e8	-5.816517
125	0x3efdac46	0.49545497
126	0x3e20d1d0	0.15705037
127	0xbf013d73	-0.5048439
