examples/mnist/averaging/small_deg2_ensemble_size2/best_accuracy.pth (torch, 774341 bytes, 160 tensors)

ensemble.0.module_list.0.mask f4 [14, 4]
000000 00 00 80 3f 00 00 00 00 00 00 00 00 00 00 00 00
       1.0 0.0 0.0 0.0
000010 00 00 00 00 00 00 80 3f 00 00 00 00 00 00 00 00
       0.0 1.0 0.0 0.0
000020 00 00 00 00 00 00 00 00 00 00 80 3f 00 00 00 00
       0.0 0.0 1.0 0.0
000030 00 00 00 00 00 00 00 00 00 00 00 00 00 00 80 3f
       0.0 0.0 0.0 1.0
000040 00 00 00 40 00 00 00 00 00 00 00 00 00 00 00 00
       2.0 0.0 0.0 0.0
000050 00 00 80 3f 00 00 80 3f 00 00 00 00 00 00 00 00
       1.0 1.0 0.0 0.0
000060 00 00 80 3f 00 00 00 00 00 00 80 3f 00 00 00 00
       1.0 0.0 1.0 0.0
000070 00 00 80 3f 00 00 00 00 00 00 00 00 00 00 80 3f
       1.0 0.0 0.0 1.0
000080 00 00 00 00 00 00 00 40 00 00 00 00 00 00 00 00
       0.0 2.0 0.0 0.0
000090 00 00 00 00 00 00 80 3f 00 00 80 3f 00 00 00 00
       0.0 1.0 1.0 0.0
0000a0 00 00 00 00 00 00 80 3f 00 00 00 00 00 00 80 3f
       0.0 1.0 0.0 1.0
0000b0 00 00 00 00 00 00 00 00 00 00 00 40 00 00 00 00
       0.0 0.0 2.0 0.0
0000c0 00 00 00 00 00 00 00 00 00 00 80 3f 00 00 80 3f
       0.0 0.0 1.0 1.0
0000d0 00 00 00 00 00 00 00 00 00 00 00 00 00 00 00 40
       0.0 0.0 0.0 2.0

ensemble.0.module_list.0.input_quant.pre_transforms.0.weight f4 [784]
000000 93 35 5a 3f 16 5a 5d 3f f2 a7 56 3f f2 a7 56 3f
       0.85238 0.86465585 0.83850014 0.83850014
000010 11 b1 5d 3f 5a 68 53 3f 6e 37 51 3f 4f 74 3f 3f
       0.86598307 0.825811 0.81725204 0.7478685
000020 f1 ac 4c 3f 3d 34 3f 3f b7 54 6f 3f 5f b9 69 3f
       0.7995139 0.74689084 0.9348864 0.9129848
000030 bf 15 7a 3f f2 a7 56 3f 48 cc 59 3f f2 30 0f 3f
       0.9768943 0.83850014 0.85077333 0.5593406
000040 45 04 53 3f c8 05 7a 3f 9b e1 4f 3f dc b1 1f 3f
       0.8242839 0.9766507 0.8120362 0.62380767
000050 f0 66 54 3f d8 7a 65 3f f2 a7 56 3f fc 58 67 3f
       0.8296957 0.8964057 0.83850014 0.90370154
000060 53 28 57 3f f2 a7 56 3f 0b e1 43 3f 36 0b 56 3f
       0.84045905 0.83850014 0.76515263 0.83610857
000070 07 f2 59 3f 00 9e 46 3f a6 e9 5d 3f b7 48 4d 3f
       0.8513493 0.7758484 0.86684644 0.8018908
000080 ab ae 97 3f 26 d5 70 3f f2 a7 56 3f c0 95 96 3f
       1.185018 0.9407524 0.83850014 1.176445
000090 e6 33 12 3f 64 c6 51 3f 26 6c 7b 3f c1 17 8d 3f
       0.5711044 0.81943345 0.98211896 1.1022874
0000a0 c8 0f 03 bf f2 a7 56 3f 18 77 1d 3f da bb 38 3f
       -0.51195955 0.83850014 0.6150985 0.7216164
0000b0 44 ea 90 3f f2 a7 56 3f 6d 7a 83 3f 66 01 1d bd
       1.1321492 0.83850014 1.0271736 -0.03833141
0000c0 da f9 2b 3f 50 66 38 3f fe 66 3d 3e f2 a7 56 3f
       0.6717812 0.72031116 0.1849632 0.83850014
0000d0 2b 35 6d 3f 4f ee 79 3f 52 c3 4b 3f 7c 2f 6f 3f
       0.9265925 0.97629255 0.7959491 0.9343183
0000e0 3d b5 5a 3f e3 5d 41 3f f2 a7 56 3f 92 6c cf 3f
       0.854328 0.75533885 0.83850014 1.6205008
0000f0 f2 a7 56 3f f2 a7 56 3f 5e c5 77 3f f2 a7 56 3f
       0.83850014 0.83850014 0.96785533 0.83850014
000100 2d 9a 12 3f 2b 20 9a 3f f2 a7 56 3f 3e bd 86 3e
       0.57266504 1.2041067 0.83850014 0.26316255
000110 a8 21 f3 3f 13 9b 6f 3f 09 a4 06 3f 63 8a 81 bf
       1.8994646 0.93596 0.5259405 -1.0120357
000120 83 07 be 3f e4 fc b8 3f 07 09 8f 3f c1 61 5f 3f
       1.4846042 1.4452176 1.117463 0.87258536
000130 c6 d0 5a 3f f2 a7 56 3f b1 1f 10 3f 91 79 51 3f
       0.85474813 0.83850014 0.5629836 0.8182612
000140 42 24 81 3f de 37 1e 3f 7c b6 52 3f ad 61 59 3f
       1.008919 0.61803997 0.823097 0.84914666
000150 cd e8 54 3f 1f 77 43 3f 0d 54 d1 3f eb cf 8d 3f
       0.83167726 0.7635364 1.6353775 1.1079077
000160 72 38 f2 3e f2 a7 56 3f 0a 3d 0f 3f 13 69 e7 3f
       0.4730869 0.83850014 0.55952513 1.8078941
000170 8c 17 2a 3f 27 ca 78 3f 4b 7a 41 3f 41 2c 2d 40
       0.6644218 0.9718346 0.7557723 2.705826
000180 95 e4 a6 3f 45 fe 15 40 f1 83 6d 3f 38 7e ff 3f
       1.3038508 2.3436444 0.9277945 1.9960394
000190 dc f5 6c 3f 16 e5 f0 3f f2 a7 56 3f 1d ff c6 3f
       0.9256265 1.8819911 0.83850014 1.5546604
0001a0 cf 38 6f 3f b3 60 29 3f 94 f0 7f 3f ed d1 80 3f
       0.9344606 0.66163176 0.9997647 1.0064064
0001b0 ea 1c 44 3f 86 d6 ca 3e f2 a7 56 3f 53 4d 2a 3f
       0.7660662 0.39616793 0.83850014 0.6652424
0001c0 2c a2 67 3f 4a ef 5a 3f f2 a7 56 3f c9 98 21 3f
       0.9048183 0.85521376 0.83850014 0.63123757
0001d0 f2 a7 56 3f f2 a7 56 3f bf fa 13 40 1c 63 61 3f
       0.83850014 0.83850014 2.3121793 0.88041854
0001e0 53 f3 9e 3f 85 55 02 3f 71 7d aa 3f 16 48 87 3f
       1.2418007 0.5091174 1.3319532 1.0568874
0001f0 3d 5a 5b 3f f2 a7 56 3f f8 cf 14 3f f2 a7 56 3f
       0.8568457 0.83850014 0.58129835 0.83850014
000200 7d 78 e8 3e 2e 3e 90 3f 60 6f 01 40 ed e9 bf 3f
       0.45404425 1.1268976 2.0224228 1.4993263
000210 7d 38 cb 3f 9b 58 6a 3e e9 a5 a0 3e f2 a7 56 3f
       1.5876614 0.22885363 0.3137658 0.83850014
000220 81 09 f3 3e f2 a7 56 3f 93 6e 1e 3f ef 2f a4 3f
       0.47468188 0.83850014 0.6188747 1.2827128
000230 82 8c 5c 3f 73 5b 20 3f 28 f1 63 3d ae 67 8c 3f
       0.861519 0.6263954 0.055649906 1.096914
000240 e1 76 a4 3e 0e d4 40 40 9b 62 12 3f 9f b7 d4 3f
       0.32121947 3.0129428 0.5718171 1.6618537
000250 9f 22 8e 3f f2 a7 56 3f d9 fd 18 40 f2 a7 56 3f
       1.1104316 0.83850014 2.3904936 0.83850014
000260 98 79 99 3f 97 3a f5 3f 66 74 64 3f 27 e2 6f 3f
       1.1990232 1.9158505 0.8924011 0.93704456
000270 64 52 51 3f 87 2e e5 3f f2 a7 56 3f 7d d9 84 3f
       0.81766343 1.7904824 0.83850014 1.0378872
000280 1d fe 6e 3f d4 c6 8e 3f ff ab 9d 3f cf 0a 8c 3e
       0.93356496 1.1154428 1.2318114 0.27351996
000290 fb 93 d8 3f 74 9d f6 3e d6 04 e7 3f 5c 0f a6 3f
       1.692016 0.48167002 1.8048351 1.2973437
0002a0 be e4 4e 3f f2 a7 56 3f f2 a7 56 3f 27 de a6 3f
       0.8081778 0.83850014 0.83850014 1.3036546
0002b0 3c 3e 8e 3f f2 a7 56 3f f2 a7 56 3f 5d 10 d3 3f
       1.1112742 0.83850014 0.83850014 1.6489369
0002c0 96 a5 28 40 24 12 87 3e 66 12 ed 3f d8 79 f3 3e
       2.6351066 0.26381028 1.852124 0.47553897
0002d0 66 b3 29 3f d8 ac e7 3e 98 80 a0 3f 03 87 48 3f
       0.66289365 0.45249057 1.2539244 0.7833101
0002e0 47 f0 bf 3f bf e8 75 40 22 12 49 3f 98 52 9e 3f
       1.4995202 3.8423307 0.78543293 1.2368956
0002f0 b5 a2 4c 3f f9 b6 55 3f 37 b4 90 3f f2 a7 56 3f
       0.7993577 0.8348232 1.1304997 0.83850014
000300 ae 7e fd 3f a2 7a 25 40 10 e6 52 3f c2 f6 2a 3f
       1.9804285 2.58561 0.823823 0.6678277
000310 f2 a7 56 3f f2 a7 56 3f 70 54 a2 3e f2 a7 56 3f
       0.83850014 0.83850014 0.31705046 0.83850014
000320 56 33 f1 3f f2 a7 56 3f 3d af cf 3e f6 89 73 3f
       1.8843791 0.83850014 0.40563384 0.95132387
000330 3f c7 cb 3e 1a 52 67 3f d3 54 d9 3f 39 b6 c0 3f
       0.3980045 0.9035965 1.6979011 1.505561
000340 f2 a7 56 3f f2 a7 56 3f 2a 1f 0c 3f f2 a7 56 3f
       0.83850014 0.83850014 0.5473505 0.83850014
000350 05 5f 19 3f d9 de dd 3e 76 66 70 3f 56 c1 97 3f
       0.59910613 0.43334082 0.93906343 1.1855876
000360 80 40 2e 3f 46 25 06 3f b2 72 d2 3f 6d 93 0b 3f
       0.6806717 0.52400625 1.6441252 0.5452183
000370 af 0d 83 40 8c 4a c7 3f 98 df c9 3f bf 3f 68 3f
       4.0954204 1.5569625 1.577136 0.9072227
000380 f2 a7 56 3f 99 31 9c 3e 45 de 82 3e 72 08 a0 3f
       0.83850014 0.3050659 0.25560203 1.2502577
000390 18 10 1b 40 6c 32 d6 3f 9b ed 10 40 f2 a7 56 3f
       2.4228573 1.6734138 2.2645023 0.83850014
0003a0 ba 56 29 3f a3 d5 c2 3f 8a a5 84 3f 11 6c 5d 3f
       0.6614796 1.5221447 1.0363019 0.8649302
0003b0 8f dc 2e 3f b6 f0 08 3f 42 c9 aa 3f 50 b4 be 3e
       0.68305296 0.53492296 1.3342669 0.37246943
0003c0 e6 19 a7 3f 86 cc d1 3e f2 a7 56 3f 44 9b 93 3f
       1.3054779 0.40976351 0.83850014 1.1531758
0003d0 34 7c 18 40 f2 a7 56 3f 0f ec b0 3f f9 57 1b 3f
       2.3825808 0.83850014 1.3822039 0.6068111
0003e0 7b 4f 44 40 f2 a7 56 3f 7f 6c 03 3f f2 a7 56 3f
       3.067351 0.83850014 0.51337427 0.83850014
0003f0 e5 aa 28 3f f2 a7 56 3f 80 b9 f4 3f 21 e8 24 40
       0.65885764 0.83850014 1.911911 2.576668

ensemble.0.module_list.0.input_quant.pre_transforms.0.bias f4 [784]
000000 4a 76 da b9 af b4 b9 3e 00 00 00 00 00 00 00 00
       -0.00041668332 0.36270663 0.0 0.0
000010 f8 37 dc be b4 5c 23 bf 47 84 02 bd bf 69 6e be
       -0.4301145 -0.6381333 -0.03186443 -0.23282526
000020 e2 04 b9 3d 77 82 bd be b2 af d0 3d 80 9a e2 3e
       0.090341344 -0.370136 0.10189761 0.442585
000030 ae 93 36 3d 00 00 00 00 72 10 d0 3e 0a f0 34 be
       0.044574432 0.0 0.40637547 -0.17669693
000040 9e b1 31 be 56 10 df 3d ac 21 f6 bd 4f 39 f0 bd
       -0.17352912 0.10891788 -0.12018141 -0.11729681
000050 b5 6f 8b be 34 84 08 3f 00 00 00 00 20 33 c3 3e
       -0.27233663 0.53326726 0.0 0.38124943
000060 f8 c8 4f 3e 00 00 00 00 7c e4 22 bf 1f fa c0 bc
       0.20291507 0.0 -0.6362989 -0.023556767
000070 06 b6 0a 3d 10 a1 3f 3b 17 bb 63 bd d3 37 24 be
       0.033864997 0.0029240288 -0.055598345 -0.1603692
000080 92 89 05 be 6f 43 d9 3e 00 00 00 00 9e b9 28 bf
       -0.1304076 0.4243426 0.0 -0.6590823
000090 5d 10 df 3e 25 41 ea 3e 7f e8 2c bf f3 26 80 bd
       0.43567172 0.45752826 -0.6754226 -0.06257429
0000a0 85 ea a4 bc 00 00 00 00 db fe 4e 3e c8 5e 8f bf
       -0.020131359 0.0 0.20214407 -1.12008
0000b0 85 3a 66 bd 00 00 00 00 35 eb 32 3c 22 f7 fa bd
       -0.056208152 0.0 0.010920336 -0.12254168
0000c0 0a 95 07 be 4b 01 df 3e 90 a9 e4 3d 00 00 00 00
       -0.13240448 0.43555674 0.11165154 0.0
0000d0 de 98 13 bf 0f ee 4b 3d 9e e9 cd bd d1 d1 c6 3e
       -0.5765513 0.049787577 -0.100543246 0.38831952
0000e0 1e b3 9c 3e a1 39 1b be 00 00 00 00 94 10 16 bd
       0.30605406 -0.15158702 0.0 -0.036636904
0000f0 00 00 00 00 00 00 00 00 c0 f4 bc bd 00 00 00 00
       0.0 0.0 -0.0922637 0.0
000100 32 27 a2 bd cc 72 02 3d 00 00 00 00 47 2d a8 be
       -0.07917632 0.03184776 0.0 -0.32847044
000110 a0 23 53 bc 35 be b4 bd d7 d5 02 3f 07 e0 34 3d
       -0.012886912 -0.088253416 0.51107544 0.04415896
000120 10 f0 5c 3d d9 60 fe bd c3 45 1b bd 74 2b b9 bc
       0.05393988 -0.12420816 -0.037908327 -0.022603728
000130 41 60 e0 be 00 00 00 00 a3 ce 1f bf ae ca f0 be
       -0.43823436 0.0 -0.6242468 -0.47029632
000140 ed cc 4a bf fc a4 4b bf 7e 10 c7 3d 0a cd 1f bd
       -0.7921894 -0.7954862 0.097199425 -0.0390139
000150 b1 77 17 be 55 44 ea bd f8 bf 5c be 6a eb 34 bf
       -0.14791752 -0.114388146 -0.21557605 -0.70671713
000160 da 69 0e 3f 00 00 00 00 a2 d3 53 3e 0c 91 e1 be
       0.55630267 0.0 0.206862 -0.44055974
000170 3c 63 dc 3e c3 cc 7a be 05 fd 52 bd 8b 56 53 bc
       0.4304446 -0.24492173 -0.05151083 -0.012899051
000180 b8 bd b2 be d1 30 16 be 74 80 8c bd 6b 96 ae be
       -0.3491037 -0.1466706 -0.06860438 -0.34099135
000190 3f 8b be 3d 12 a8 3a 3d 00 00 00 00 ef 31 6c 3e
       0.09303903 0.04557044 0.0 0.23065923
0001a0 a9 00 91 bf 74 e3 06 3f 07 99 72 be 1d 8d 0e be
       -1.1328326 0.52690816 -0.23691188 -0.13921018
0001b0 84 61 5d be 6d ae d4 3e 00 00 00 00 82 3a 43 bf
       -0.2161923 0.41539326 0.0 -0.7626115
0001c0 ba 7a ec 3d ab 89 a3 bd 00 00 00 00 5a e1 f2 3e
       0.11546846 -0.079852425 0.0 0.47437555
0001d0 00 00 00 00 00 00 00 00 ab a8 0e be 82 c6 f0 bd
       0.0 0.0 -0.13931529 -0.11756612
0001e0 0d 07 2b bd a2 e7 9b be 7a b7 37 3e 50 3c 18 3f
       -0.04175477 -0.3045016 0.17941085 0.5946703
0001f0 b7 20 bb be 00 00 00 00 69 d7 3d be 00 00 00 00
       -0.36548397 0.0 -0.18539204 0.0
000200 77 c6 b3 be 26 08 e6 3d 48 b9 01 be dd 3d 4d 3e
       -0.35112354 0.11232023 -0.12668335 0.2004313
000210 c9 e6 5b 3e 3c 1b d3 3e eb 18 ec 3e 00 00 00 00
       0.21474756 0.41231716 0.4611276 0.0
000220 e5 5b 96 bf 00 00 00 00 08 50 05 3f 69 fb 14 be
       -1.1746794 0.0 0.52075243 -0.1454903
000230 58 e1 d9 3e 05 51 37 bf 4a 1c a6 3d 95 11 e7 3e
       0.42554736 -0.71608 0.081108645 0.45130602
000240 18 61 3a bd fe 71 4a be 83 89 c8 be 57 c7 b9 bc
       -0.045502752 -0.19770047 -0.39167413 -0.02267806
000250 ca dd f1 bd 00 00 00 00 e9 3c 1a 3f 00 00 00 00
       -0.11809881 0.0 0.6024919 0.0
000260 2d f9 0a 3e 30 b3 0a 3f bf 8e 48 3e 9a e7 91 be
       0.13571616 0.5417967 0.19585703 -0.2849701
000270 49 7d b7 bc d9 32 5c 3f 00 00 00 00 5f 79 ee bc
       -0.022398608 0.8601509 0.0 -0.029110609
000280 aa 54 57 3e 31 91 87 3e 1e 3f 8a bd 38 26 ca be
       0.2102839 0.2647796 -0.0675032 -0.39482284
000290 74 12 5f 3c ec b3 57 be 43 ce 2a be 4e ff db be
       0.013615239 -0.21064728 -0.16680245 -0.4296822
0002a0 d8 28 26 bd 00 00 00 00 00 00 00 00 36 77 45 be
       -0.040566295 0.0 0.0 -0.19283757
0002b0 93 1b 05 bf 00 00 00 00 00 00 00 00 9f 4f 9a 3b
       -0.519952 0.0 0.0 0.0047091986
0002c0 5b 37 f0 bd 3f ee e8 be 2c f2 2a bf 53 89 23 be
       -0.11729308 -0.45494267 -0.66775775 -0.15970354
0002d0 b0 c6 c8 3b 65 30 0c be f0 90 e0 3c 9a 91 50 bd
       0.006127201 -0.13690336 0.027412862 -0.050920106
0002e0 af 59 1f 3f 50 bb ad be e3 35 3d bf 47 c6 a6 3e
       0.6224622 -0.3393197 -0.7391035 0.3257315
0002f0 40 6a 5a 3e 95 68 8e 3d 3e 56 82 be 00 00 00 00
       0.21329594 0.06953541 -0.25456423 0.0
000300 00 a7 9d be 7a e0 8c be d9 5b 59 3c 8b ed 4d bd
       -0.30791473 -0.27515012 0.013266527 -0.050275367
000310 00 00 00 00 00 00 00 00 92 d3 f8 3d 00 00 00 00
       0.0 0.0 0.12149729 0.0
000320 46 9f 00 3d 00 00 00 00 c2 33 b8 be c8 04 f8 3d
       0.031401895 0.0 -0.35976988 0.12110287
000330 9d 40 9f be ce bd ca 3d 5c bc 2f 3f e4 1c 46 3f
       -0.31103984 0.098994836 0.6864679 0.77387834
000340 00 00 00 00 00 00 00 00 00 52 88 bd 00 00 00 00
       0.0 0.0 -0.06656265 0.0
000350 46 1a 53 3e a5 db db bd 6a ea 04 3f 66 c7 ea 3e
       0.20615491 -0.10735253 0.5192019 0.45855254
000360 bf 13 d7 bd e9 b8 1c be 7c b4 91 3e 02 d1 02 bf
       -0.10501813 -0.15304913 0.2845801 -0.5110017
000370 17 ae af 3e 81 70 a5 be d0 4e 67 bd 09 10 1e bf
       0.34312508 -0.32312396 -0.056471646 -0.6174322
000380 00 00 00 00 27 4d 84 bc 59 21 0d be 65 20 4f b9
       0.0 -0.01615007 -0.13782252 -0.00019753126
000390 7f 7c 47 be c5 c6 89 be 37 ac 30 3e 00 00 00 00
       -0.19481085 -0.26909462 0.17253195 0.0
0003a0 11 99 42 be 2b 58 cd 3e a6 05 6f 3e 9b 39 ad 3e
       -0.19003703 0.4010633 0.23341998 0.33833012
0003b0 57 43 92 be bd 9f 68 3d cc e4 84 3f 8f ff 17 be
       -0.28567 0.056792963 1.0382323 -0.14843582
0003c0 73 a8 7e 3f e0 ff 97 3f 00 00 00 00 53 06 c8 3d
       0.99475783 1.1874962 0.0 0.09766831
0003d0 af 64 82 3d 00 00 00 00 ac 02 e5 3d da 82 a5 3d
       0.0636686 0.0 0.1118215 0.080815986
0003e0 5e 3f fc 3e 00 00 00 00 89 ee d8 bd 00 00 00 00
       0.49267095 0.0 -0.10592372 0.0
0003f0 25 c3 ce 3c 00 00 00 00 5e 62 88 bf e6 f2 f0 be
       0.025239537 0.0 -1.0655019 -0.47060317

ensemble.0.module_list.0.input_quant.pre_transforms.0.running_mean f4 [784]
000000 6e 32 d9 be 6e 32 d9 be 6e 32 d9 be 6e 32 d9 be
       -0.42421287 -0.42421287 -0.42421287 -0.42421287
000010 6e 32 d9 be 6e 32 d9 be 6e 32 d9 be 6e 32 d9 be
       -0.42421287 -0.42421287 -0.42421287 -0.42421287
000020 6e 32 d9 be 6e 32 d9 be 6e 32 d9 be 6e 32 d9 be
       -0.42421287 -0.42421287 -0.42421287 -0.42421287
000030 48 32 d9 be 15 32 d9 be 6e 32 d9 be 6e 32 d9 be
       -0.42421174 -0.42421022 -0.42421287 -0.42421287
000040 6e 32 d9 be 6e 32 d9 be 6e 32 d9 be 6e 32 d9 be
       -0.42421287 -0.42421287 -0.42421287 -0.42421287
000050 6e 32 d9 be 6e 32 d9 be 6e 32 d9 be 6e 32 d9 be
       -0.42421287 -0.42421287 -0.42421287 -0.42421287
000060 6e 32 d9 be 6e 32 d9 be 6e 32 d9 be 6e 32 d9 be
       -0.42421287 -0.42421287 -0.42421287 -0.42421287
000070 6e 32 d9 be 6e 32 d9 be 6e 32 d9 be 6e 32 d9 be
       -0.42421287 -0.42421287 -0.42421287 -0.42421287
000080 6e 32 d9 be 6e 32 d9 be 39 05 d9 be 47 cf d8 be
       -0.42421287 -0.42421287 -0.42386797 -0.4234564
000090 c5 ae d8 be c5 c8 d8 be d6 e2 d8 be b0 82 d8 be
       -0.4232084 -0.42340675 -0.42360562 -0.42287207
0000a0 d5 b9 d7 be e0 9c d7 be 87 e0 d7 be 4f 58 d8 be
       -0.42133966 -0.42111874 -0.42163488 -0.42254874
0000b0 ee b5 d7 be 3c 18 d8 be a9 b0 d8 be 8a a9 d8 be
       -0.4213099 -0.4220599 -0.4232228 -0.42316848
0000c0 35 29 d9 be d5 31 d9 be 69 32 d9 be 6e 32 d9 be
       -0.4241425 -0.4242083 -0.42421272 -0.42421287
0000d0 6e 32 d9 be 6e 32 d9 be 6e 32 d9 be 6e 32 d9 be
       -0.42421287 -0.42421287 -0.42421287 -0.42421287
0000e0 6e 32 d9 be 6e 32 d9 be 6e 32 d9 be 38 32 d9 be
       -0.42421287 -0.42421287 -0.42421287 -0.42421126
0000f0 5e 32 d9 be 6e 32 d9 be 49 de d8 be fe 1d d8 be
       -0.4242124 -0.42421287 -0.4235709 -0.42210382
000100 12 4b d7 be 68 b3 d5 be 54 d9 d3 be d2 b5 d1 be
       -0.42049462 -0.4173844 -0.41376746 -0.4095903
000110 aa 95 cd be ef b7 ca be 98 6c c5 be 48 e0 c1 be
       -0.40153247 -0.39593455 -0.38559413 -0.37866426
000120 37 07 c0 be 09 f6 c1 be eb 3e c5 be 3f 2e cb be
       -0.37505504 -0.37883022 -0.38524565 -0.3968372
000130 ab 6a d0 be 53 10 d4 be 95 4c d6 be 83 31 d8 be
       -0.4070638 -0.41418704 -0.41855302 -0.42225274
000140 b6 0c d9 be 52 32 d9 be 6e 32 d9 be 6e 32 d9 be
       -0.4239251 -0.42421204 -0.42421287 -0.42421287
000150 6e 32 d9 be 6e 32 d9 be 31 30 d9 be 81 31 d9 be
       -0.42421287 -0.42421287 -0.4241958 -0.4242058
000160 bb 31 d9 be 52 b3 d8 be d4 c3 d7 be 7d f3 d5 be
       -0.42420754 -0.4232431 -0.42141593 -0.4178733
000170 bb 45 d2 be 2e f6 c9 be d9 41 c1 be b4 bb b4 be
       -0.41068825 -0.39445633 -0.3774555 -0.35299456
000180 b4 7f a7 be 98 7a 9c be eb 70 8e be 8f 73 85 be
       -0.32714617 -0.30562282 -0.27820525 -0.26064727
000190 c7 e5 82 be d5 05 8a be 38 fa 98 be 0e 4f aa be
       -0.2556593 -0.26957574 -0.29878402 -0.3326344
0001a0 f4 5e bd be 9d 4d c9 be f4 5a d3 be c6 61 d6 be
       -0.36986506 -0.39317027 -0.4128033 -0.4187147
0001b0 38 ee d7 be 46 04 d9 be 0e 2f d9 be 6e 32 d9 be
       -0.42173934 -0.42386073 -0.42418712 -0.42421287
0001c0 6e 32 d9 be 6e 32 d9 be d7 29 d9 be 3c 13 d9 be
       -0.42421287 -0.42421287 -0.42414734 -0.42397487
0001d0 ec d5 d8 be 9b 56 d6 be 74 bf d2 be c9 c3 ca be
       -0.4235071 -0.4186295 -0.41161692 -0.39602497
0001e0 f0 ea ba be ab 5b a4 be 44 f7 82 be 3e 89 34 be
       -0.36507368 -0.32101187 -0.25579274 -0.17630479
0001f0 c6 21 ae bd 1f fc 2a 3c e6 e9 c1 3d e1 00 17 3e
       -0.085025355 0.010436087 0.09468441 0.14746429
000200 a5 5b 03 3e dc a9 82 3d 57 3e 08 bd 84 ac 09 be
       0.12827928 0.06380054 -0.033262577 -0.13444716
000210 1d fc 73 be b4 b6 a2 be 4d b6 bb be 02 35 cb be
       -0.23826642 -0.31780016 -0.36662522 -0.3968888
000220 16 88 d3 be ef 0a d8 be d0 13 d9 be c5 2d d9 be
       -0.41314763 -0.42195842 -0.42397928 -0.42417732
000230 6e 32 d9 be 6e 32 d9 be 29 25 d9 be 4e f3 d8 be
       -0.42421287 -0.42421287 -0.42411163 -0.42373127
000240 c4 f9 d6 be 82 8b d0 be 4a 89 c3 be ea 67 ab be
       -0.4198743 -0.40731436 -0.3819068 -0.33477718
000250 60 fd 84 be c1 4a 25 be 80 3c 0c bd 83 6e 0e 3e
       -0.2597456 -0.16141798 -0.034237385 0.13909344
000260 bf 79 a8 3e ba c1 02 3f a4 47 26 3f ae 27 3b 3f
       0.32905385 0.51076853 0.64953065 0.7310742
000270 07 26 36 3f 22 24 16 3f 31 80 ce 3e c2 96 55 3e
       0.71151775 0.58648884 0.40332177 0.20858291
000280 4b 69 2c 3b b9 cc 21 be f0 bc 8a be c6 8e af be
       0.0026307877 -0.15800752 -0.27097273 -0.34288615
000290 e4 f1 c4 be f3 d6 d2 be ff b5 d7 be 65 32 d9 be
       -0.38465798 -0.41179618 -0.4213104 -0.4242126
0002a0 6e 32 d9 be b4 31 d9 be 9b 17 d9 be 62 28 d8 be
       -0.42421287 -0.42420733 -0.42400822 -0.4221831
0002b0 ac 64 d1 be 9e ac c3 be 2d f4 a6 be 54 c1 6c be
       -0.4089712 -0.38217634 -0.32608166 -0.23120624
0002c0 40 bb ec bd 9d b3 18 3d ec 97 7c 3e 97 73 fd 3e
       -0.115591526 0.037280668 0.24667329 0.4950225
0002d0 ac c8 37 3f e9 a2 6e 3f a2 ea 8a 3f 2e f1 93 3f
       0.71790576 0.9321733 1.0852854 1.1557977
0002e0 25 ae 8e 3f c4 90 7d 3f ff fa 47 3f 19 3b 08 3f
       1.1146895 0.9904902 0.78117365 0.53215176
0002f0 5f 5e 84 3e 39 a9 86 3c ea 2f 35 be c6 e7 93 be
       0.2585325 0.016438114 -0.17694059 -0.28887767
000300 c5 87 b7 be 1c e1 cb be d7 83 d6 be cc 05 d9 be
       -0.3584577 -0.39820182 -0.4189746 -0.42387235
000310 6e 32 d9 be db 2b d9 be 8e d6 d8 be 65 bb d4 be
       -0.42421287 -0.42416272 -0.42351192 -0.4154922
000320 2f 27 c8 be 9f ba af be 37 d8 80 be 78 0c 04 be
       -0.39092395 -0.34322068 -0.2516496 -0.12895381
000330 00 97 13 3d ce 94 82 3e 71 62 05 3f db da 49 3f
       0.036032677 0.25504154 0.52103335 0.7884957
000340 28 86 7f 3f 24 bf 95 3f bc fe a0 3f 45 53 a4 3f
       0.9981408 1.1698956 1.2577739 1.2837912
000350 37 61 a3 3f 8a 1b 9b 3f 16 d8 85 3f 59 e0 46 3f
       1.2764043 1.2117779 1.0456569 0.7768608
000360 71 fa eb 3e 79 4d 1c 3e 9c c6 b5 bd e7 85 70 be
       0.4608951 0.15263928 -0.08875772 -0.2348858
000370 69 9b a7 be 32 ab c4 be c3 e9 d4 be bb 24 d9 be
       -0.32735756 -0.38411862 -0.41584596 -0.42410836
000380 6b 32 d9 be 7e 1d d9 be 86 e3 d6 be 87 bc ce be
       -0.42421278 -0.42405313 -0.41970462 -0.4037821
000390 df 6c bb be cf 4c 9d be 05 65 4f be 99 38 3a bd
       -0.366065 -0.30722663 -0.2025338 -0.045464132
0003a0 0b b0 2e 3e bc 5a e1 3e 8f f4 3b 3f ec d7 76 3f
       0.17059343 0.44014537 0.7342004 0.9642322
0003b0 80 47 8b 3f 80 b6 91 3f 6f 34 90 3f 7b b4 91 3f
       1.0881195 1.138382 1.1266001 1.1383203
0003c0 f0 56 93 3f fd af 94 3f ee 5c 8d 3f d0 7d 61 3f
       1.1510906 1.1616207 1.1043985 0.880826
0003d0 4e 13 10 3f ee 87 80 3e a7 5d af bc 43 6e 50 be
       0.56279457 0.25103706 -0.021406962 -0.20354562
0003e0 d3 e3 a3 be 8f 6c c4 be 16 98 d5 be 1f ca d8 be
       -0.32009754 -0.38364074 -0.41717595 -0.42341706
0003f0 6e 32 d9 be cb f0 d8 be c4 85 d4 be 3e 57 cc be
       -0.42421287 -0.4237121 -0.41508305 -0.3991031

ensemble.0.module_list.0.input_quant.pre_transforms.0.running_var f4 [784]
000000 4a 20 52 25 4a 20 52 25 4a 20 52 25 4a 20 52 25
       1.8225536e-16 1.8225536e-16 1.8225536e-16 1.8225536e-16
000010 4a 20 52 25 4a 20 52 25 4a 20 52 25 4a 20 52 25
       1.8225536e-16 1.8225536e-16 1.8225536e-16 1.8225536e-16
000020 4a 20 52 25 4a 20 52 25 4a 20 52 25 4a 20 52 25
       1.8225536e-16 1.8225536e-16 1.8225536e-16 1.8225536e-16
000030 53 90 fd 35 c5 f7 17 37 84 3a 94 2e ad f6 03 2a
       1.8891973e-06 9.05799e-06 6.740655e-11 1.172072e-13
000040 4a 20 52 25 4a 20 52 25 4a 20 52 25 4a 20 52 25
       1.8225536e-16 1.8225536e-16 1.8225536e-16 1.8225536e-16
000050 4a 20 52 25 4a 20 52 25 4a 20 52 25 4a 20 52 25
       1.8225536e-16 1.8225536e-16 1.8225536e-16 1.8225536e-16
000060 4a 20 52 25 4a 20 52 25 4a 20 52 25 4a 20 52 25
       1.8225536e-16 1.8225536e-16 1.8225536e-16 1.8225536e-16
000070 4a 20 52 25 4a 20 52 25 4a 20 52 25 4a 20 52 25
       1.8225536e-16 1.8225536e-16 1.8225536e-16 1.8225536e-16
000080 7c da 24 29 13 54 b1 2a 35 0e e9 39 db 3b 03 3b
       3.660482e-14 3.1499854e-13 0.00044451808 0.002002469
000090 1a e3 4a 3b cf cf 00 3b 34 eb d4 3a 89 11 2b 3b
       0.0030958117 0.0019655114 0.0016244412 0.002610298
0000a0 4a 35 04 3c 3b 6e ee 3b ed d7 d0 3b d7 8e 6d 3b
       0.008069346 0.007276324 0.0063733966 0.003624847
0000b0 cc 5f fa 3b 4f 29 92 3b 54 a5 ef 3a 45 6a 51 3b
       0.0076408144 0.004460491 0.0018283525 0.003195421
0000c0 b7 04 0b 39 2e 8b d9 36 69 80 fd 34 2b 94 83 29
       0.0001325783 6.4833066e-06 4.7218353e-07 5.843272e-14
0000d0 4a 20 52 25 4a 20 52 25 4a 20 52 25 4a 20 52 25
       1.8225536e-16 1.8225536e-16 1.8225536e-16 1.8225536e-16
0000e0 4a 20 52 25 4a 20 52 25 f3 41 db 29 0a 6b 2b 35
       1.8225536e-16 1.8225536e-16 9.736994e-14 6.3858226e-07
0000f0 4a fa a4 33 28 20 35 32 18 e1 7f 3a 47 72 bf 3b
       7.6823724e-08 1.0542898e-08 0.00097610196 0.0058424803
000100 98 56 e1 3b 5c 58 8f 3c c9 6b cc 3c 0e f8 03 3d
       0.006876778 0.017498188 0.02495374 0.032218985
000110 c6 f4 6a 3d 8d b0 8a 3d a3 5c c1 3d b8 97 e8 3d
       0.05736234 0.06771956 0.09441497 0.11357063
000120 f4 5a 00 3e e7 f3 e7 3d 2f c1 c9 3d 34 3e 8a 3d
       0.12534696 0.113258176 0.098513 0.067501456
000130 4f 7c 30 3d 64 27 c3 3c 0c 73 62 3c 6e b4 6c 3b
       0.0430873 0.023822494 0.013821375 0.0036118287
000140 b3 01 b1 39 db f4 fd 35 4a 20 52 25 4a 20 52 25
       0.00033761337 1.8921231e-06 1.8225536e-16 1.8225536e-16
000150 4a 20 52 25 4a 20 52 25 eb bb 22 36 26 f9 ef 36
       1.8225536e-16 1.8225536e-16 2.4249264e-06 7.1517597e-06
000160 c8 ba 30 36 49 20 a6 3a b1 14 cb 3b c3 e0 6e 3c
       2.6334765e-06 0.0012674417 0.006197535 0.014579955
000170 4f 7a ee 3c b9 7b 9b 3d 3c 9f ed 3d 81 da 36 3e
       0.029111056 0.075919576 0.11602637 0.1785679
000180 4c f6 78 3e a9 ce 93 3e cd 5f b6 3e 48 99 cf 3e
       0.24312705 0.28868607 0.35619965 0.40546632
000190 d4 59 d0 3e 38 49 c1 3e ff 16 9e 3e e2 a8 65 3e
       0.40693533 0.37751174 0.3087692 0.22427705
0001a0 c7 74 04 3e 49 b3 9e 3d e7 c0 b7 3c ea 1c 6f 3c
       0.12935172 0.0774904 0.02243085 0.014594296
0001b0 64 ed b1 3b fb 89 eb 39 46 dd 83 37 4a 20 52 25
       0.0054299105 0.00044925496 1.5719455e-05 1.8225536e-16
0001c0 4a 20 52 25 70 1b 07 31 a2 05 14 38 9c 24 6a 39
       1.8225536e-16 1.9660682e-09 3.5291196e-05 0.00022329617
0001d0 d5 d6 7f 3a 74 2c 3a 3c d8 bf ee 3c df 61 85 3d
       0.00097594905 0.0113631375 0.029144213 0.06512808
0001e0 85 ed 0e 3e df 24 7e 3e 35 45 d0 3e 46 07 16 3f
       0.13957794 0.24818753 0.406778 0.5860485
0001f0 a9 f4 44 3f e1 b9 73 3f 50 12 8f 3f cc 70 9a 3f
       0.7693582 0.95205504 1.1177464 1.2065673
000200 36 1f 95 3f 24 79 87 3f 53 da 63 3f d0 d9 2b 3f
       1.165015 1.0583844 0.8900501 0.6712923
000210 ba 14 de 3e 68 56 79 3e 30 42 0c 3e 6b 9a 80 3d
       0.43375188 0.24349368 0.13697124 0.06279453
000220 a9 ff c2 3c 82 52 65 3b 7d 24 df 39 e5 aa e0 37
       0.023803549 0.0034991805 0.0004256106 2.678246e-05
000230 4a 20 52 25 4a 20 52 25 ac 81 f9 38 eb 17 62 3a
       1.8225536e-16 1.8225536e-16 0.000118973985 0.000862478
000240 c3 8f ff 3b 2f df 1a 3d aa c7 c7 3d 50 9e 55 3e
       0.00779912 0.0378105 0.0975488 0.20861173
000250 4a c8 c8 3e ea ed 19 3f a5 ca 5e 3f e5 08 98 3f
       0.39215308 0.60128653 0.8702796 1.1877714
000260 2b aa be 3f 59 bf dc 3f 3e 9a eb 3f 9d a1 f4 3f
       1.4895681 1.7245895 1.8406446 1.911182
000270 c3 4c f0 3f 6e 7d e2 3f 22 bb c6 3f 2f fb a7 3f
       1.8773426 1.7694528 1.5525858 1.312353
000280 96 f3 6b 3f b8 fa 1b 3f 42 01 b5 3e 53 b4 43 3e
       0.9216856 0.6092944 0.35352522 0.19111757
000290 5f c9 b9 3d 7c 9d c0 3c 98 99 b1 3b 4c 6f db 34
       0.090716116 0.023512594 0.005419921 4.0872908e-07
0002a0 4a 20 52 25 12 88 99 34 3c 06 26 39 d8 ca 29 3b
       1.8225536e-16 2.8597475e-07 0.00015833316 0.0025908258
0002b0 ba be 10 3d bf 4b c2 3d 35 7c 6e 3e 08 be ea 3e
       0.03533814 0.09487104 0.23289569 0.45848107
0002c0 6a 2a 3c 3f 57 ec 83 3f 6e c1 ad 3f d0 80 d7 3f
       0.7350222 1.03065 1.3574655 1.6836185
0002d0 8b b0 f1 3f 9b c8 ff 3f 56 bf 01 40 5d 6b 03 40
       1.8882002 1.9983095 2.0273032 2.053428
0002e0 67 8d 02 40 e6 40 02 40 64 0e f5 3f 1f 46 de 3f
       2.0398805 2.035211 1.9145017 1.7365149
0002f0 f3 08 b1 3f ce cf 7a 3f 17 03 10 3f 3f 5a 9f 3e
       1.3830856 0.97973335 0.56254715 0.3112354
000300 08 83 11 3e 80 8c 64 3d 6a 89 20 3c d7 de 05 3a
       0.1421014 0.055798054 0.009798387 0.0005106753
000310 ed 58 88 2d 80 47 9e 37 35 95 4f 3a d6 5d 97 3c
       1.5500901e-11 1.8868363e-05 0.0007918657 0.018477362
000320 1f 76 9d 3d 7a c7 43 3e 9b 4e d2 3e 22 d9 32 3f
       0.076885454 0.19119063 0.41075596 0.6986257
000330 b3 6f 82 3f 33 d6 ae 3f cb fd d6 3f cd de ef 3f
       1.0190338 1.3659118 1.6796201 1.8739868
000340 70 e4 fa 3f 15 6b fb 3f 43 44 fc 3f cf 8c fb 3f
       1.9600964 1.9642054 1.9708332 1.9652346
000350 b1 fa fb 3f 77 87 fe 3f 62 a5 ff 3f 62 db f3 3f
       1.968588 1.988509 1.9972346 1.9051325
000360 ce 8f d3 3f e1 7e 9a 3f 59 7a 42 3f c4 13 e9 3e
       1.6528261 1.206997 0.7596794 0.45522892
000370 32 f4 66 3e d9 1f c3 3d 97 cf 95 3c fd 05 4f 38
       0.2255409 0.09527559 0.018287463 4.9358223e-05
000380 06 55 24 34 17 d2 91 39 90 61 23 3c 35 08 3f 3d
       1.5304622e-07 0.00027813084 0.009971991 0.046638686
000390 8f a7 14 3e 30 a6 94 3e 66 55 05 3f 8f dd 57 3f
       0.14517044 0.2903304 0.5208343 0.84322447
0003a0 11 d3 9f 3f b6 4c ce 3f 22 cf ee 3f f6 4f fd 3f
       1.2486287 1.611716 1.8656962 1.9790027
0003b0 7d de fd 3f 36 93 01 40 9f 12 00 40 18 b8 ff 3f
       1.9833523 2.02461 2.0011365 1.9978056
0003c0 fd 59 fb 3f 20 01 fe 3f ea ac 00 40 0c 19 fa 3f
       1.9636837 1.9844093 2.0105538 1.9538894
0003d0 53 8c e3 3f a5 56 b0 3f 68 ae 68 3f 9d b9 03 3f
       1.7777199 1.3776442 0.9089112 0.514551
0003e0 1c c9 7e 3e c8 db c3 3d 92 55 39 3c f1 d3 e2 3a
       0.24881405 0.09563404 0.011311905 0.0017305595
0003f0 52 a2 c2 2d 08 93 9d 3a 07 61 b3 3c 0a c2 85 3d
       2.2127331e-11 0.0012021968 0.021896852 0.06531151

ensemble.0.module_list.0.fc.weight f4 [600, 14]
000000 7b 7f 3b be 41 fd 35 3f 69 d9 5f 3e be de 02 bf
       -0.18310349 0.7108956 0.21860279 -0.5112113
000010 69 5e 11 3d 65 7e 7c be 19 68 d1 3c 0d 6d 50 3d
       0.035490427 -0.2465759 0.025562333 0.05088525
000020 8b 4c 72 3f 89 4b 3b be 2a 21 ff bd 6e db 15 3e
       0.94648045 -0.18290533 -0.124574974 0.14634487
000030 81 d2 7a be 63 57 c5 bf eb 8e ee 3e 68 2f 14 3d
       -0.24494363 -1.5417293 0.46593413 0.036178023
000040 d5 d7 3f 3e d3 fc 63 3e ee a9 9d 3e ab 36 ea be
       0.18734677 0.22264414 0.3079371 -0.45744833
000050 ea 02 27 3e 52 00 4c bf c9 e8 b0 be 6f 1a b0 bd
       0.16309705 -0.7968799 -0.345526 -0.08598792
000060 b5 f4 7d 3e f9 59 f7 3d a7 78 b2 3f 8b e9 0f 3f
       0.2480038 0.12077708 1.394307 0.56215733
000070 f6 61 0d 3d bc af 38 3e 3e 42 34 3e e5 26 04 3e
       0.03451725 0.18035787 0.17603394 0.12905462
000080 46 1e 94 3d 61 af 27 3e 12 9e 30 be 03 79 5a 3e
       0.07232337 0.16375495 -0.17247799 0.21335225
000090 79 d4 97 bc 7e dd b7 3c 42 a4 46 3e c9 47 e0 bd
       -0.018533932 0.022444483 0.19398597 -0.10951192
0000a0 b7 57 51 be 11 dc f4 3d 7b 9c 51 be d1 97 ff bd
       -0.20443617 0.11956037 -0.20469849 -0.124801286
0000b0 cc 32 32 bd a8 92 07 3e f5 4a eb bd f9 f8 a4 3d
       -0.043505475 0.13239539 -0.11488906 0.080553
0000c0 a1 f3 08 3d d9 76 14 bd 2a 3c 33 be f5 c8 9c 3c
       0.033435468 -0.036246154 -0.1750342 0.019138793
0000d0 b6 36 4a be 5a 61 58 be 48 08 02 3e 4f 0e eb 3c
       -0.19747433 -0.21130887 0.12698472 0.028693346
0000e0 13 f2 a7 3f 20 d8 8e 3f d1 07 76 3d 13 45 4d 3d
       1.312075 1.1159706 0.060066048 0.050114702
0000f0 a4 4b 80 be 96 ad ee bf 4d 36 74 3f 1f b2 e2 3e
       -0.2505771 -1.8646724 0.95395356 0.4427652
000100 cb 29 43 3f 8c 88 cc 3f d1 3a 21 be 06 86 79 3d
       0.76235646 1.5979171 -0.15745093 0.06091883
000110 74 1f 46 bc 4f 59 ae be ef 24 bc 3e 22 02 52 3f
       -0.01209246 -0.34052512 0.36746928 0.82034504
000120 5b b7 18 40 57 87 36 3e 27 1f fd 3d 0d 44 ea 3e
       2.3861911 0.17825066 0.123594575 0.45755044
000130 04 9f 62 be 0d 73 59 bf e6 1b bb be c2 55 08 bf
       -0.22130972 -0.8494118 -0.36544722 -0.53255856
000140 db 6f 4d bf db be dd 3f 99 5d 03 bf 1f f4 38 bf
       -0.802488 1.732387 -0.51314694 -0.722475
000150 0f a3 d9 3e 73 db 5a 3f a1 29 11 be 1d 69 9b bf
       0.42507216 0.854911 -0.14176036 -1.2141453
000160 d0 a7 4c 3f 82 4c 29 3f d4 7a 20 3e 95 cc b8 be
       0.7994356 0.66132367 0.15671855 -0.36093584
000170 09 e2 4b be dc 05 15 3e 95 31 85 be a4 5c 42 3c
       -0.19910444 0.14553016 -0.2601439 0.011862908
000180 a5 09 14 be 00 4c 25 bf 79 fc 3c 3d fd 69 d5 3c
       -0.14456804 -0.6456909 0.046139214 0.026051516
000190 f5 25 dc 3c 73 75 0b be f0 cf 2b 3e e8 c6 92 3d
       0.026873568 -0.13619022 0.1677854 0.071668446
0001a0 79 bb b1 bc 40 32 31 3e 74 99 3e be 24 d6 5a 3d
       -0.02169584 0.17304325 -0.18613225 0.053426877
0001b0 88 7f fc bd 0e 2e e6 bd ad 6f 3a 3e e1 ff 55 3e
       -0.12329012 -0.11239253 0.18206663 0.20898391
0001c0 ac 8a 8d 3d 8f eb 56 3f ce b2 aa bf 8e 47 b5 be
       0.06911215 0.83953184 -1.3335817 -0.35406154
0001d0 24 56 84 3c 99 2d 6e be 87 2a 0d bd cc b4 03 3e
       0.016154356 -0.23259582 -0.034464385 0.12861937
0001e0 77 81 4e bf ba cf 12 be 7a 1a b8 bd e3 42 68 c0
       -0.806663 -0.14337054 -0.08989425 -3.6290824
0001f0 7b 6b 9c be 67 3b 51 be a2 44 d2 bd 82 87 19 be
       -0.3055075 -0.20432816 -0.10266997 -0.14993098
000200 c1 08 8c 3e ee c9 46 3e 5d 23 60 3f 5d 64 65 3e
       0.2735043 0.19412968 0.8755396 0.22401567
000210 ff e8 20 bc 24 de d9 3d 21 50 c7 be 2c 4f f8 3e
       -0.009821176 0.10638073 -0.3892832 0.48497903
000220 43 39 4c be 42 c7 83 3d 7b d1 35 3e 88 91 18 be
       -0.19943719 0.0643449 0.17755692 -0.14899266
000230 ab b5 c2 3d 08 59 f5 be e6 e2 57 3f 4c ea ba be
       0.09507307 -0.47919488 0.84330595 -0.3650688
000240 92 44 7d bd 78 e5 12 3f bd 66 50 bf d2 3d f8 3e
       -0.061832972 0.5738139 -0.81406766 0.48484665
000250 da 34 a2 be 79 23 40 bf 10 65 01 3c 24 2c 3e be
       -0.31680948 -0.75054127 0.00789763 -0.18571526
000260 30 11 c2 be 1e 9b 40 3f 58 4d 2c 3f 69 94 92 3b
       -0.37903738 0.7523669 0.6730552 0.0044732583
000270 38 9e af 3e 4e f9 94 3e ae 97 68 3f a4 83 1a be
       0.343004 0.29096454 0.90856445 -0.1508928
000280 33 8e 8d be e4 62 a3 be d9 f7 9e 3e ee ed 14 3f
       -0.27647552 -0.31911385 0.31048468 0.5817555
000290 43 5e 18 3f 4e f1 99 bf e2 e0 a1 3f f9 c0 f1 be
       0.5951883 -1.2026765 1.2646754 -0.4721754
0002a0 b5 aa 98 3e 0a 5c da 3e 13 8d 05 3f b7 f4 ce 3d
       0.2981774 0.42648345 0.5216839 0.101052694
0002b0 9d 0f 1b 3d df 2e cc 3e 7a 3e 9d 3d 9c c6 0c 3e
       0.037856687 0.3987951 0.07677932 0.13747638
0002c0 bb 13 90 3f 41 73 4c 3f 4b b8 80 bd bb 58 08 bf
       1.1256021 0.79863364 -0.06285151 -0.5326039
0002d0 dd c0 16 3e f1 c6 db 3d 14 10 43 3e 75 a9 48 be
       0.14722009 0.107313044 0.19049102 -0.19595893
0002e0 45 83 e2 3e 80 b5 aa be 41 82 43 3e ec 9c c6 3e
       0.44240776 -0.333416 0.19092657 0.38791597
0002f0 61 15 b5 be f2 25 91 3e 83 e8 5e 3e ba 0a 55 be
       -0.35367873 0.28349262 0.21768384 -0.20804873
000300 cb 63 e4 3e 2a 79 1b 3f c1 47 bf 3e b7 f5 80 3e
       0.44607386 0.60731757 0.3735943 0.25187466
000310 12 d9 58 be 37 40 49 3e 44 5d 32 be a3 71 07 be
       -0.21176556 0.19653402 -0.1741839 -0.13226943
000320 d2 42 be bd 83 2a 2f bd 5e 7e c4 bc 93 4e 9d 3c
       -0.09290089 -0.04276515 -0.023986038 0.019202506
000330 4b 15 32 3e d2 0d 11 be 63 2c 44 be 62 71 0d 3e
       0.17390935 -0.14165428 -0.19157557 0.13812783
000340 77 33 0e 3e 94 f7 d4 3d 69 64 8d bd 1b 1a dc ba
       0.1388682 0.10398784 -0.06903917 -0.0016792448
000350 e6 b8 8c 3d 5b 0f 10 3d 98 37 ff 3d a4 7d 3c bd
       0.06871204 0.035170894 0.124617755 -0.046018258
000360 67 cc 20 3d 15 12 65 3e 2b 0f 3b be 8f 37 61 be
       0.039257433 0.22370179 -0.18267505 -0.2199385
000370 a0 1f f4 3d b7 fe 2e be 9d 11 52 3e 11 20 75 3d
       0.119200945 -0.17089354 0.20514531 0.059845034
000380 ec 5f 5c 3f e9 2f 3b 3e 7b 8c 1b bf fd 69 43 bf
       0.86083865 0.18279995 -0.6076123 -0.763336
000390 d5 c1 25 3f a1 2a 0a 3f 0b 4a 7d 3d eb 77 a0 be
       0.6474889 0.53971297 0.06183819 -0.3134149
0003a0 6b 50 b9 3e 61 c3 04 bf 9f bb 0a bf 57 d4 24 3e
       0.36194167 -0.51860625 -0.5419254 0.16096626
0003b0 82 9e d1 3e cb e6 2e 3e b4 de 0d 3d 38 7e d7 bd
       0.40941244 0.17080228 0.034636214 -0.10522121
0003c0 d4 ab 90 3d e3 d2 69 3f b1 9d 6f 3d d8 15 61 3e
       0.070640236 0.9133741 0.058499996 0.21980989
0003d0 b6 51 81 bd a5 92 bf 3e 14 6d cb 3d b9 2b bd 3d
       -0.06314413 0.37416568 0.099329144 0.09236855
0003e0 86 eb 98 3e f6 c5 65 be 88 6f 23 bf 16 66 7d bf
       0.2986719 -0.22438797 -0.6384206 -0.98983896
0003f0 82 e8 31 3f ad fd ca bd ba 7a ff be c6 1f 3e be
       0.69495404 -0.09911666 -0.4989832 -0.18566808

ensemble.0.module_list.0.fc.bias f4 [600]
000000 2a cb ea 3b 71 a7 0c bc 2e 3c 90 3c 83 0f db bc
       0.0071653323 -0.008584843 0.01760682 -0.026740795
000010 46 2a 23 3d 01 7a 85 3d d5 4c a9 3c 9c 0b 8b 3b
       0.039835237 0.06517411 0.02066652 0.0042433273
000020 b9 28 05 3d 94 69 10 3e 00 85 db 3c 07 b0 21 bc
       0.03250954 0.14102775 0.026796818 -0.009868628
000030 ef 75 4d 3d ee 5c a6 3d 25 71 4a bc ba 23 f8 bc
       0.0501613 0.08123194 -0.012356077 -0.030290473
000040 97 4c e8 3c cd 1d b0 3d e8 b2 3d be b3 32 48 bc
       0.028356833 0.08599434 -0.18525279 -0.012219119
000050 25 a0 a4 3a f2 b6 14 3d 87 79 a2 bc 1e f1 06 3d
       0.0012559934 0.036307283 -0.01983334 0.03294479
000060 47 b2 9a bd 1c f2 03 3d 89 16 84 3d e5 3a 7b bc
       -0.07553535 0.032213315 0.06449611 -0.015333866
000070 43 cf f2 bc 3e 53 a3 3c 25 d5 e5 3b 13 59 9d 3b
       -0.029639846 0.019937154 0.007013934 0.0048018782
000080 d1 44 d3 3c 77 9f f8 3d 03 bd ec bb 6c 31 b8 3c
       0.02578965 0.121397905 -0.0072246804 0.022484504
000090 27 10 12 bd 5d 37 5d bc d1 68 05 bd de ce 90 3c
       -0.035659935 -0.013501969 -0.032570664 0.017676767
0000a0 22 dd 97 3d 8a d7 ab 3b b5 fe 0a bd b7 48 50 3d
       0.074152246 0.0052442 -0.033934314 0.050850596
0000b0 03 79 ab 3c ca b5 67 bc e9 be da bd 78 36 25 bc
       0.020931726 -0.014142463 -0.106809445 -0.010083787
0000c0 ad c1 65 bb f4 b0 e8 3d 53 25 1e bc a6 26 99 bd
       -0.0035058067 0.11361876 -0.0096524535 -0.07478075
0000d0 96 dd 8b 3d d5 ec 98 bd 94 29 c0 3c 2e c9 5c bc
       0.068293735 -0.07467047 0.023457326 -0.013475699
0000e0 a5 90 a8 bc b0 c1 10 bd dc 79 62 bc 1b cd db bd
       -0.020576784 -0.035340965 -0.013822999 -0.1073248
0000f0 4c 2e a0 bc 77 22 ca bb 01 35 41 bc fc 65 88 3c
       -0.019553326 -0.0061686593 -0.011792422 0.016650192
000100 d3 fa da 3c 25 2b 14 ba 7c 55 54 bc f7 ab 4f 3c
       0.02673093 -0.0005652181 -0.012959834 0.012675277
000110 44 9f aa bc 94 6d ca bd d7 e8 56 bd 93 88 89 ba
       -0.020827897 -0.098841816 -0.052468147 -0.0010492973
000120 26 69 05 bd b7 18 37 bb 39 e3 b8 bd 27 a0 4b bb
       -0.03257098 -0.0027938315 -0.09027714 -0.00310708
000130 c9 b0 23 3d 66 5e 33 3c 34 2a 93 bd 21 0e 54 3d
       0.039963517 0.010947799 -0.07185784 0.051771287
000140 58 81 03 be 8e 93 ca 3c 2a 79 3a bc 7d 71 98 bd
       -0.1284231 0.024728563 -0.011381427 -0.07443521
000150 ee 33 08 3b 8a c7 0a bc ef d6 4d 3d 25 cf ec bd
       0.0020782906 -0.008470425 0.050253805 -0.11562947
000160 ce 71 0d bd 6e 94 7e 3c 21 46 4c 3c cf 20 8d bd
       -0.03453236 0.015538318 0.012467892 -0.06891023
000170 57 6f 0c 3d a3 00 85 bc bf 08 b1 bc b6 3f 98 bd
       0.03428587 -0.016235655 -0.021610616 -0.07434027
000180 e9 2f c7 3d 25 95 f7 b9 4a 32 5e 3c 00 70 1c 3c
       0.09725935 -0.00047222633 0.0135617945 0.009548187
000190 d3 40 a7 bb ab d1 36 3d 57 9b 20 bc 37 07 21 3b
       -0.005104163 0.04463355 -0.009802661 0.002457095
0001a0 ea 88 23 3d a3 28 f7 bc ee a7 f1 bc 93 2e bf bc
       0.039925493 -0.030170744 -0.02949902 -0.023337638
0001b0 a2 ac bb 3d 1c bf d7 39 f7 e7 c3 3c 6d 5d 3c 3d
       0.091637865 0.00041150383 0.02391432 0.045987535
0001c0 81 00 b9 bc e0 76 0b bd 46 8d 2c 3d f6 36 0a bd
       -0.022583248 -0.034048915 0.042126916 -0.03374382
0001d0 dc 6a 6b 3b 6c e6 72 bd 7a 74 a2 3c 4d 02 5a bc
       0.0035921847 -0.05930178 0.019830931 -0.013306213
0001e0 85 00 0a bd c2 68 6a bc 16 41 aa bd fe d6 db 3c
       -0.0336919 -0.014307203 -0.083131954 0.026835915
0001f0 27 22 f2 bc 56 2a 8c bd 25 87 24 3d ac 51 a2 3c
       -0.0295573 -0.068440124 0.040167946 0.019814335
000200 6e 87 e7 b9 89 ed 49 3c 05 bc 01 3d fc 2f ff 3c
       -0.00044160656 0.012324699 0.03167345 0.03115081
000210 61 17 ec bc 01 73 19 3d bd f8 8a 3d e5 d1 d4 bb
       -0.028819742 0.037463192 0.06785724 -0.006494748
000220 32 95 44 bd 1c ae ad 3b a7 cb 04 3d 5d ab a3 bd
       -0.047993846 0.0053002965 0.03242078 -0.07991669
000230 a4 b3 38 3e f3 fe 6d 3c a5 61 d0 bc 98 43 94 3c
       0.18037277 0.014526117 -0.025437186 0.018098637
000240 9c a0 8e bc b8 a4 db bc 3e be 50 3c eb 14 ed 3c
       -0.017410569 -0.026811942 0.01274067 0.028940639
000250 1c 9f 33 3c a8 73 39 bd 90 9e f2 3d 25 b5 ad bb
       0.010963228 -0.045276314 0.1184665 -0.005301135
000260 93 65 65 bb df 9e 84 bd f5 aa 03 bd 9e b1 fe 3d
       -0.003500317 -0.06475615 -0.03214546 0.124362215
000270 79 ff 65 bb 2d 34 6d 3e 98 6e 6d bc aa 5f 20 bd
       -0.00350949 0.23164435 -0.0144917 -0.039153732
000280 17 1a 59 bc cd 2e ae bd a4 80 31 3c 2e 57 f1 bb
       -0.013250849 -0.0850502 0.010833893 -0.007365129
000290 b3 b7 e9 bc d3 df 2c 3c c9 29 70 bc 89 5b 3e bb
       -0.028529977 0.010551411 -0.0146584 -0.0029046258
0002a0 e8 c7 11 bc 6e 53 26 3a 90 1e 01 3f 57 fa 30 bc
       -0.008897759 0.00063448295 0.5043726 -0.010801873
0002b0 8a ce 97 bb 4a 52 73 b9 bf 7d b3 bd 8a c2 76 3c
       -0.0046327757 -0.00023204941 -0.087642185 0.01506103
0002c0 7c 2e 1c 3c b8 28 79 3c b1 85 76 3c 11 ee ec 3c
       0.009532567 0.015207462 0.015046523 0.028922113
0002d0 3b 0b ef 3d ee c1 8d 3c e0 7f 01 bc 71 16 08 bd
       0.11672064 0.017304387 -0.007904023 -0.033224527
0002e0 29 af 60 be 0a eb c7 3b 5c e6 1d bd 0b 93 7a 3b
       -0.21941818 0.006101017 -0.038549766 0.0038234617
0002f0 b1 fc 0b bb 22 80 16 3d 9e 13 eb 3c b4 bf 45 be
       -0.0021360333 0.03674329 0.028695878 -0.1931141
000300 13 4d 45 bc bb 97 94 3d 8a 44 3c bc e1 1f 51 3c
       -0.012042302 0.07255503 -0.01149095 0.012763948
000310 d6 a8 1f bd f9 a1 0f bc 78 63 93 bd 78 98 de 3d
       -0.038979374 -0.008766645 -0.071967065 0.10868925
000320 d3 63 61 bd 2d ce bc bc 41 7c 05 3d 28 9b e3 bd
       -0.05502684 -0.023047531 0.0325892 -0.11113578
000330 91 e8 82 3d 3f 22 06 bd 23 31 f7 bc e3 8b 95 3d
       0.06392015 -0.032747503 -0.030174797 0.07302072
000340 f5 07 2a 3d d3 10 62 bc 13 ec 9f 3b f6 73 c9 3b
       0.041511495 -0.0137979565 0.004880437 0.006147857
000350 a5 19 f0 bb 55 31 91 bc 73 34 1d 3c c4 4f 96 bd
       -0.007327276 -0.017723719 0.009595024 -0.07339433
000360 72 f3 19 bd 45 fc 82 3c 24 9f 83 bc 91 33 fa 3c
       -0.037585683 0.015989432 -0.016067095 0.030542167
000370 05 8c e8 3c dc 66 22 3a 37 bc 16 bc 63 b4 cc bd
       0.028387079 0.0006195137 -0.009200147 -0.099953435
000380 1e 48 ed 3b c2 64 ba 3d 5e 22 8b 3d 59 73 83 3d
       0.007241263 0.09101249 0.067936644 0.06418485
000390 65 41 fe bc b0 fc bd 3d ec aa 14 3d 69 1c bb bd
       -0.031037042 0.09276712 0.036295816 -0.09136278
0003a0 2e 65 f1 3c 4e 36 9c bc 4e 1d ac 3c a9 c7 da 3d
       0.029467192 -0.019068863 0.021010067 0.106826134
0003b0 a5 6d db bb 8e 85 02 bd 35 71 09 bc 14 0b 09 bc
       -0.0066964203 -0.03186565 -0.008388807 -0.008364458
0003c0 05 68 ab 3c 3c 03 dd 3c 12 52 a1 be 45 34 ab 3c
       0.020923624 0.026979081 -0.31507927 0.020898947
0003d0 66 9f ea bc 25 97 65 bb 27 40 9b bc 05 34 e2 bc
       -0.02864046 -0.0035032716 -0.018951489 -0.027612695
0003e0 c6 a5 02 3d 9f 9f 5c 3d a2 e6 63 bc 97 dc 08 bd
       0.031896375 0.053863164 -0.013909968 -0.033413496
0003f0 53 a1 99 bc 53 8d 36 bc 85 9e c6 bd de 49 17 3c
       -0.018753683 -0.011142093 -0.09698204 0.00923392

ensemble.0.module_list.0.output_quant.pre_transforms.0.weight f4 [600]
000000 27 51 23 3f 35 5e 9b 3f f2 a7 56 3f f2 a7 56 3f
       0.63795704 1.2138125 0.83850014 0.83850014
000010 8a 98 b2 3f 66 a3 08 3f 5d f5 2b 3f f2 a7 56 3f
       1.3952801 0.53374326 0.6717127 0.83850014
000020 c1 1e 16 3f 90 78 e0 3f d7 1e 46 3f 23 49 59 3f
       0.58640677 1.7536793 0.7739081 0.8487722
000030 e3 40 61 3f 7a b7 c6 3f f2 a7 56 3f f2 a7 56 3f
       0.87989634 1.5524743 0.83850014 0.83850014
000040 a8 37 b5 3f ab c9 6a 3f 3d c3 48 3f f2 a7 56 3f
       1.415761 0.9171397 0.7842291 0.83850014
000050 f2 a7 56 3f 9e a7 11 3f f2 a7 56 3f f2 a7 56 3f
       0.83850014 0.5689639 0.83850014 0.83850014
000060 b0 7b 70 3f f2 a7 56 3f 36 fc 28 3f f2 a7 56 3f
       0.9393873 0.83850014 0.66009843 0.83850014
000070 f2 a7 56 3f f2 a7 56 3f f2 a7 56 3f f2 a7 56 3f
       0.83850014 0.83850014 0.83850014 0.83850014
000080 f2 a7 56 3f 7e ae 36 3f e3 be 15 3f f2 a7 56 3f
       0.83850014 0.71360004 0.58494395 0.83850014
000090 9a 6f 31 3f 92 72 c4 3f 80 7e 14 3f f2 a7 56 3f
       0.69310915 1.5347464 0.58005524 0.83850014
0000a0 e6 8a 45 3f f2 a7 56 3f f2 a7 56 3f 78 d6 b9 3f
       0.7716507 0.83850014 0.83850014 1.4518576
0000b0 f2 a7 56 3f f2 a7 56 3f c1 3c d5 3e 1a 09 1a 3f
       0.83850014 0.83850014 0.41647914 0.6017014
0000c0 80 29 2a 3f e9 d6 e2 3f f2 a7 56 3f 78 ae 8d 3f
       0.66469574 1.7721835 0.83850014 1.1068869
0000d0 54 0c 0b 3f f7 46 50 3f 92 58 2c 3f f2 a7 56 3f
       0.54315686 0.81358284 0.6732265 0.83850014
0000e0 e0 6c 29 3f f2 a7 56 3f f2 a7 56 3f ff 03 2d 3f
       0.66181755 0.83850014 0.83850014 0.6758422
0000f0 f2 a7 56 3f f2 a7 56 3f f2 a7 56 3f 7c a6 41 3f
       0.83850014 0.83850014 0.83850014 0.7564466
000100 f2 a7 56 3f f2 a7 56 3f f2 a7 56 3f f2 a7 56 3f
       0.83850014 0.83850014 0.83850014 0.83850014
000110 36 25 e1 3f 2b c5 34 3f a1 4c 23 3f f2 a7 56 3f
       1.7589481 0.70613354 0.637888 0.83850014
000120 f2 a7 56 3f f2 a7 56 3f 27 c3 0c 3f ad f6 15 3f
       0.83850014 0.83850014 0.5498528 0.5857952
000130 f0 67 2d 3f 30 c9 23 3f ad 49 19 3f 21 45 e7 3f
       0.6773672 0.6397886 0.59878045 1.8067971
000140 58 f8 12 3f f2 a7 56 3f f2 a7 56 3f a5 ec e3 3e
       0.5741019 0.83850014 0.83850014 0.44516483
000150 f2 a7 56 3f f2 a7 56 3f 4b 4b 13 3f 6e 06 9d 3f
       0.83850014 0.83850014 0.5753676 1.2267587
000160 ed 37 19 3f 16 1d 31 3f f2 a7 56 3f 89 38 5d 3f
       0.5985096 0.69185007 0.83850014 0.8641439
000170 f2 a7 56 3f f2 a7 56 3f f4 fb 26 3f 5a 92 4a 3f
       0.83850014 0.83850014 0.652282 0.79129565
000180 9d 30 0d 3f f2 a7 56 3f f2 a7 56 3f f2 a7 56 3f
       0.55152303 0.83850014 0.83850014 0.83850014
000190 f2 a7 56 3f d2 b0 3a 3f b8 9d cd 3e f2 a7 56 3f
       0.83850014 0.72926056 0.40159392 0.83850014
0001a0 b1 e0 34 3f f2 a7 56 3f f2 a7 56 3f f2 a7 56 3f
       0.7065535 0.83850014 0.83850014 0.83850014
0001b0 ed 16 64 3f 36 12 58 3f f2 a7 56 3f b1 0d d4 3f
       0.8909748 0.8440279 0.83850014 1.6566678
0001c0 f2 a7 56 3f f2 a7 56 3f da ac 5a 3f f2 a7 56 3f
       0.83850014 0.83850014 0.8542 0.83850014
0001d0 f2 a7 56 3f 62 b5 83 3f f2 a7 56 3f 5b fb b3 3f
       0.83850014 1.0289729 0.83850014 1.4061083
0001e0 f2 a7 56 3f ee 9b a7 3f 65 c3 16 3f f2 a7 56 3f
       0.83850014 1.3094461 0.588919 0.83850014
0001f0 72 30 5e 3f 0b 93 72 3f f0 03 d9 3e f2 a7 56 3f
       0.8679267 0.9475562 0.42385817 0.83850014
000200 f2 a7 56 3f 19 85 59 3f ae 9f 26 3f f2 a7 56 3f
       0.83850014 0.84968716 0.650874 0.83850014
000210 f2 a7 56 3f 48 fd 2b 3f 7f ec 3c 3f 37 e8 24 3f
       0.83850014 0.6718335 0.73798364 0.6441683
000220 27 67 5d 3f f2 a7 56 3f f2 a7 56 3f 78 6d 5b 3f
       0.86485523 0.83850014 0.83850014 0.8571391
000230 b4 77 c4 3e f2 a7 56 3f 5d d1 34 3f bf dd 23 3f
       0.38372576 0.83850014 0.70631963 0.6401023
000240 f2 a7 56 3f eb a0 22 3f 5e 16 97 3f 06 50 1d 3f
       0.83850014 0.6352679 1.1803701 0.6145023
000250 f2 a7 56 3f 55 bd aa 3f e6 99 ae 3f f2 a7 56 3f
       0.83850014 1.333903 1.3640716 0.83850014
000260 fe 2e 3a 3f d0 76 34 3f f0 22 32 3f 5c e7 b7 3f
       0.72727954 0.70493793 0.6958456 1.436748
000270 f7 e2 8d 3f 89 9b 98 3f 81 1a 14 3f 41 5f 33 3f
       1.1084889 1.1922466 0.5785294 0.7006722
000280 f2 a7 56 3f c3 66 9f 3f 9a 77 60 3f 38 86 32 3f
       0.83850014 1.2453235 0.876825 0.6973605
000290 f2 a7 56 3f f2 a7 56 3f 61 44 8e 3f e8 4c 1d 3f
       0.83850014 0.83850014 1.1114618 0.61445475
0002a0 a8 41 4b 3f f2 a7 56 3f 3f 93 8c 3f f2 a7 56 3f
       0.7939706 0.83850014 1.0982436 0.83850014
0002b0 f2 a7 56 3f f2 a7 56 3f 76 e1 9c 3f f2 a7 56 3f
       0.83850014 0.83850014 1.2256305 0.83850014
0002c0 f2 a7 56 3f f2 a7 56 3f 7b 17 52 3f 17 2c 35 3f
       0.83850014 0.83850014 0.8206708 0.707704
0002d0 d6 d3 ab 3d f2 a7 56 3f f2 a7 56 3f 57 99 d6 3f
       0.08390014 0.83850014 0.83850014 1.6765546
0002e0 39 f3 df 3e f2 a7 56 3f 3d 54 24 3f 83 ce 5c 3f
       0.43740252 0.83850014 0.6419104 0.8625261
0002f0 02 02 12 3f 59 99 1c 3f f2 a7 56 3f 94 a8 7c 3f
       0.57034314 0.6117149 0.83850014 0.9869473
000300 f2 a7 56 3f fc ce bc 3f f2 a7 56 3f f2 a7 56 3f
       0.83850014 1.4750667 0.83850014 0.83850014
000310 08 38 57 3f f5 5c 38 3f 4c 29 9b 3f 88 40 9b 3f
       0.8406987 0.7201684 1.2121978 1.2129068
000320 c5 8f 76 3f 55 b7 bf 3e cb 7d 27 3f 72 18 0b 3f
       0.96313125 0.3744456 0.6542632 0.54334176
000330 51 43 21 3f f2 a7 56 3f 39 1b db 3f be 63 64 3f
       0.6299334 0.83850014 1.7117683 0.89214694
000340 fa a2 b6 3e f2 a7 56 3f f2 a7 56 3f c7 9a 23 3f
       0.35671216 0.83850014 0.83850014 0.63908046
000350 f2 a7 56 3f f9 c5 d3 3e f2 a7 56 3f b3 19 a5 3f
       0.83850014 0.4136198 0.83850014 1.2898468
000360 ee 07 0c 40 a9 52 6e 3f fc 9a 9c 3f f2 a7 56 3f
       2.187984 0.9309488 1.2234797 0.83850014
000370 f2 a7 56 3f f2 a7 56 3f f2 a7 56 3f 18 c3 0e 3f
       0.83850014 0.83850014 0.83850014 0.5576644
000380 d6 fe 64 3f 7b be 2f 3f d3 21 9d 3e 40 2f 51 3f
       0.8945135 0.68650025 0.30689868 0.8171272
000390 3a 71 1b 3f 61 18 3b 3f b8 4c 11 3f d5 4d 97 3f
       0.60719645 0.73084074 0.5675769 1.1820627
0003a0 f2 a7 56 3f f2 a7 56 3f f2 a7 56 3f f5 17 59 3f
       0.83850014 0.83850014 0.83850014 0.8480218
0003b0 f2 a7 56 3f a9 36 6c 3f d4 bc 04 3f 95 88 5f 3f
       0.83850014 0.92270905 0.5185063 0.8731778
0003c0 f2 a7 56 3f f2 a7 56 3f 77 01 73 3f e9 60 9e 3f
       0.83850014 0.83850014 0.9492411 1.2373325
0003d0 2d a3 27 3f f2 a7 56 3f 00 0d 44 3f f2 a7 56 3f
       0.6548336 0.83850014 0.76582336 0.83850014
0003e0 f2 a7 56 3f 9d 02 59 3f ca 9f 5a 3f c5 e8 7a 3f
       0.83850014 0.8476961 0.8540007 0.9801143
0003f0 f2 a7 56 3f f2 a7 56 3f a4 1f 32 3f ae 7d 25 3f
       0.83850014 0.83850014 0.6957953 0.64644897
