examples/hgcal_autoencoder/sml_avg_emd_hp_grid_search/weak2_lr0.001_warm_restart_freq100_wd1e-05/best_loss.pth (torch, 418681 bytes, 73 tensors)

encoder.module_list.0.fc.weight f4 [64, 64]
0.040492415 0.07967791 -0.067853615 0.054854378 -0.038425118 0.05397521 0.07154821 -0.0052855164
0.11719836 -0.088575915 0.052411318 0.06591798 0.02571036 -0.014289545 0.055916727 -0.07383573
-0.019330576 0.10177836 0.07752669 0.123402715 -0.020702392 0.029803187 -0.04366906 0.0025071204
0.05706343 -0.120969415 0.057651743 0.10586667 -0.012151167 0.079986215 0.068685785 -0.040778846
0.06426953 0.041103795 0.024910703 -0.08202557 0.07451056 0.10054612 0.12402794 0.07689205
-0.04230486 -0.120811075 0.06282388 0.015347019 0.06226802 -0.024796218 -0.0047489107 -0.047987044
0.045303762 -0.009719238 -0.119727746 0.029813007 0.10741465 -0.117109865 0.015300974 0.04207924
0.010980766 0.06759331 0.100394964 0.012492061 -0.09888077 -0.068412334 -0.07998261 0.09109557
-0.10895927 -0.031102106 0.11877397 -0.12471904 -0.09050229 -0.029448047 0.090477556 -0.034874693
-0.019037232 0.042446926 0.041649297 0.08672017 -0.05002825 -0.010257587 0.0970155 -0.020804614
-0.044016376 -0.091932416 -0.0047525465 -0.0008414326 0.024553388 0.08860847 0.04171531 0.082405984
-0.063953936 0.075206056 0.12170763 -0.05491592 0.04365921 0.014717758 -0.0069441795 0.041608155
0.102319136 0.1055183 -0.058703378 0.123892754 -0.08373831 -0.12446132 -0.09853701 -0.10848531
-0.109932765 -0.05127278 0.095388636 0.04710293 0.009855792 0.056711063 0.11606163 0.08122149
-0.038158685 0.12379299 0.087884516 -0.03155811 -0.07098192 -0.053645015 -0.0216043 -0.008734614
-0.06341836 0.023230195 -0.094830066 0.071314156 0.09833202 0.06094104 -0.08796136 -0.09531155
0.044231474 -0.04206805 0.06577885 0.09109557 -0.06067072 0.10982677 0.07794277 -0.05993569
-0.032593623 -0.04836856 -0.07039121 -0.07055041 -0.08690414 0.04782191 -0.024738327 0.057082698
-0.041439265 -0.11853923 -0.030093998 -0.11355196 0.036672726 0.058956727 -0.09256159 -0.107440665
0.12012403 0.1205304 -0.107607126 0.095525175 -0.05292827 3.416011e-05 -0.03279376 -0.06275584
-0.014425933 0.082026884 0.059008136 0.08962783 -0.12247783 -0.11610648 0.0075508505 -0.08770384
-0.09152524 -0.10304515 0.07168138 -0.0040021986 -0.0901158 -0.023184776 -0.08279894 -0.07884318
0.11614412 0.013964266 0.0929656 0.039559424 0.12202409 -0.120928854 -0.06480247 -0.119784996
-0.005814761 -0.09423238 -0.124370426 0.02575609 -0.06260443 0.08461955 0.045661315 -0.036521092
-0.10110633 -0.09108716 0.08268279 0.12174559 0.1202188 0.012081727 -0.013829678 -0.0068252087
0.09330793 0.0024145395 -0.0776647 0.07942507 0.10231991 0.010759294 0.04378645 -0.021902412
0.010132164 0.06826158 0.063392505 -0.11885737 0.108896345 -0.009016097 -0.08835101 -0.08426419
-0.08553325 -0.0023176372 -0.027851239 0.09554897 -0.08373855 -0.006221667 -0.031681016 -0.03860107
0.10221952 -0.09111108 0.08182241 -0.086247504 -0.0919079 -0.032692507 0.025482342 -0.031553224
-0.0068879724 0.111928865 -0.11060692 0.06411128 0.0044906884 0.08647327 0.119911015 -0.10556488
-0.0003746003 0.055333495 -0.10089913 0.03944342 -0.1110128 0.020502687 0.113371864 0.03275536
0.10218303 -0.019624814 0.10841419 0.022762343 -0.012287006 0.09500921 0.07589176 -0.044534504
00000000: 60db 253d 2c2e a33d d6f6 8abd fcae 603d
00000010: a863 1dbd 1c15 5d3d de87 923d 2032 adbb
00000020: b205 f03d 4a67 b5bd 40ad 563d 0200 873d
00000030: 889e d23c b21e 6abc f008 653d 3037 97bd
00000040: 285b 9ebc 2c71 d03d 50c6 9e3d 90ba fc3d
00000050: 1098 a9bc d025 f43c 54de 32bd 804e 243b
00000060: 58bb 693d d0be f7bd 3c24 6c3d a0d0 d83d
00000070: b015 47bc d0cf a33d 22ab 8c3d b807 27bd
00000080: be9f 833d 745c 283d 8811 cc3c 06fd a7bd
00000090: fe98 983d 20eb cd3d 5c02 fe3d 9479 9d3d
000000a0: dc47 2dbd cc6b f7bd cea9 803d 1072 7b3c
000000b0: c00c 7f3d 7021 cbbc c09c 9bbb 108e 44bd
000000c0: 7090 393d 703d 1fbc d233 f5bd 683a f43c
000000d0: 36fc db3d 4cd7 efbd f0b0 7a3c 485b 2c3d
000000e0: ace8 333c 5c6e 8a3d e09b cd3d 80ab 4c3c
000000f0: 0082 cabd c41b 8cbd eccd a3bd 5090 ba3d
00000100: 0a26 dfbd d8c9 febc c43f f33d b26c ffbd
00000110: 4459 b9bd 083d f1bc 4c4c b93d c4d8 0ebd
00000120: f8f3 9bbc d4dc 2d3d 7498 2a3d 589a b13d
00000130: 6cea 4cbd 700f 28bc 10b0 c63d 706e aabc
00000140: 844a 34bd 1047 bcbd 40bb 9bbb 9693 5cba
00000150: 3024 c93c 5c78 b53d acdd 2a3d 78c4 a83d
00000160: 48fa 82bd a205 9a3d da41 f93d 84ef 60bd
00000170: 00d4 323d c022 713c 008c e3bb 506d 2a3d
00000180: b28c d13d fa19 d83d f472 70bd 7cbb fd3d
00000190: fe7e abbd 94e5 febd c6cd c9bd 8c2d debd
000001a0: 6e24 e1bd 6803 52bd 1e5b c33d 00ef 403d
000001b0: 307a 213c dc49 683d b8b1 ed3d 7457 a63d
000001c0: 484c 1cbd 2e87 fd3d ccfc b33d 1443 01bd
000001d0: f85e 91bd e0ba 5bbd 80fb b0bc a01b 0fbc
000001e0: 7ce1 81bd 404d be3c 4436 c2bd 280d 923d
000001f0: 4c62 c93d 509d 793d 1625 b4bd b432 c3bd
00000200: 102c 353d 8c4f 2cbd 10b7 863d 5090 ba3d
00000210: dc81 78bd dcec e03d 76a0 9f3d 207f 75bd
00000220: e480 05bd 1c1e 46bd 4429 90bd bc7c 90bd
00000230: ccfa b1bd e8e0 433d 08a8 cabc 8ccf 693d
00000240: 38bc 29bd b2c4 f2bd b087 f6bc ee8d e8bd
00000250: 2436 163d 9c7c 713d ee90 bdbd da09 dcbd
00000260: 9603 f63d a4d8 f63d 2061 dcbd b4a2 c33d
00000270: 50cb 58bd 2447 0f38 c052 06bd 2286 80bd
00000280: c05a 6cbc b6fd a73d 84b2 713d cc8e b73d
00000290: a8d5 fabd 3cc9 edbd 206d f73b 129e b3bd
000002a0: 9671 bbbd 5609 d3bd b0cd 923d e024 83bb
000002b0: a28e b8bd 00ee bdbc 7e92 a9bd 8878 a1bd
000002c0: f8dc ed3d 60ca 643c c064 be3d 1009 223d
000002d0: c4e7 f93d 8ca9 f7bd 28b7 84bd d651 f5bd
000002e0: c089 bebb e8fc c0bd ecb5 febd 70fe d23c
000002f0: c036 80bd 044d ad3d 5c07 3b3d 2497 15bd
00000300: d610 cfbd e88b babd 9855 a93d c055 f93d
00000310: 4635 f63d 70f2 453c e095 62bc 00a6 dfbb
00000320: 3a18 bf3d 403d 1e3b ac0e 9fbd 9ca9 a23d
00000330: 1a8d d13d c047 303c 6c59 333d b06c b3bc
00000340: 6001 263c bacc 8b3d eed3 813d 7e6b f3bd
00000350: 0c05 df3d 40b8 13bc 60f1 b4bd b492 acbd
00000360: 0e2c afbd 80e3 17bb 4828 e4bc 2eaf c33d
00000370: 1e7f abbd 20df cbbb f4c3 01bd 281c 1ebd
00000380: 7858 d13d 7298 babd 8292 a73d 88a2 b0bd
00000390: 363a bcbd 94e8 05bd 58c0 d03c f43d 01bd
000003a0: 80b4 e1bb f63a e53d e285 e2bd c64c 833d
000003b0: a026 933b e618 b13d e893 f53d 6632 d8bd
000003c0: 0066 c4b9 60a5 623d 34a4 cebd 6c8f 213d
000003d0: ae5a e3bd 40f5 a73c 822f e83d 7c2a 063d
000003e0: 5645 d13d 38c4 a0bc 4208 de3d 1878 ba3c
000003f0: 704f 49bc 3094 c23d 246d 9b3d d069 36bd

encoder.module_list.0.fc.bias f4 [64]
0.017833475 0.09489281 -0.03664208 0.09227611 0.03606692 0.017938768 0.07962755 0.012178397
0.092371196 0.0025569764 -0.06250901 -0.06083237 -0.34648433 0.00083553 -0.058584556 -0.0059683667
0.056665048 -0.005065873 -0.03360759 0.08878182 0.038998593 -0.0032030095 0.012752801 0.013078373
-0.02060017 -0.30525902 -0.052601013 0.029852439 -0.031728372 -0.07218125 -0.13061588 0.0088017555
-0.024797317 -0.025298554 -0.014476396 -0.08696859 0.11442756 -0.07892501 0.07956895 0.004972303
0.24977922 -0.00679763 0.18736117 0.08754589 -0.03145263 -0.02872765 -0.055651043 0.002675983
-0.023049533 0.0217152 -0.009588011 -0.10256637 -0.010248959 -0.08391442 0.08309173 -0.0057260003
0.049106434 0.017854428 -0.042145576 0.10137029 0.016198348 -0.06613547 -0.03870397 0.008725256
00000000: 8217 923c 2957 c23d 0116 16bd 42fb bc3d
00000010: e8ba 133d 53f4 923c c513 a33d e687 473c
00000020: 1c2d bd3d f292 273b b904 80bd 5d2b 79bd
00000030: 6566 b1be 7807 5b3a 5cf6 6fbd 4a92 c3bb
00000040: 9c19 683d 9fff a5bb 1da8 09bd 3ed3 b53d
00000050: fdbc 1f3d 95e9 51bb 20f1 503c ac46 563c
00000060: b0c1 a8bc e94a 9cbe 2974 57bd 1a8d f43c
00000070: 9cf5 01bd c3d3 93bd 2bc0 05be 3d35 103c
00000080: be23 cbbc ea3e cfbc 682e 6dbc 971c b2bd
00000090: ff58 ea3d 70a3 a1bd 0cf5 a23d b3ee a23b
000000a0: 20c6 7f3e a7be debb 9bdb 3f3e 424b b33d
000000b0: 79d4 00bd 4056 ebbc 59f2 63bd 8b5f 2f3b
000000c0: 60d2 bcbc 13e4 b13c 0817 1dbc 510e d2bd
000000d0: 40eb 27bc 53db abbd ff2b aa3d 2ca1 bbbb
000000e0: d423 493d 7343 923c d7a0 2cbd 3a9b cf3d
000000f0: 66b2 843c 0972 87bd 0e88 1ebd 60f4 0e3c

encoder.module_list.0.fc.mask.mask f4 [64, 64]
0.0 0.0 0.0 0.0 0.0 0.0 0.0 0.0
0.0 0.0 0.0 0.0 0.0 1.0 0.0 0.0
0.0 0.0 0.0 0.0 0.0 0.0 0.0 0.0
0.0 0.0 0.0 0.0 0.0 0.0 0.0 0.0
0.0 0.0 0.0 0.0 0.0 0.0 0.0 0.0
0.0 0.0 0.0 0.0 0.0 0.0 0.0 0.0
0.0 0.0 0.0 0.0 0.0 0.0 0.0 0.0
1.0 0.0 0.0 0.0 0.0 0.0 0.0 0.0
0.0 0.0 0.0 0.0 0.0 0.0 0.0 0.0
0.0 0.0 0.0 0.0 0.0 0.0 0.0 0.0
0.0 0.0 0.0 1.0 0.0 0.0 0.0 0.0
0.0 0.0 0.0 0.0 0.0 0.0 0.0 0.0
0.0 0.0 0.0 0.0 1.0 0.0 0.0 0.0
0.0 0.0 0.0 0.0 0.0 0.0 0.0 0.0
0.0 0.0 0.0 0.0 0.0 0.0 0.0 0.0
0.0 0.0 0.0 0.0 0.0 0.0 0.0 0.0
0.0 0.0 0.0 0.0 0.0 0.0 0.0 0.0
0.0 0.0 0.0 0.0 0.0 0.0 0.0 0.0
0.0 0.0 0.0 0.0 0.0 0.0 0.0 0.0
0.0 0.0 0.0 0.0 0.0 1.0 0.0 0.0
0.0 0.0 0.0 0.0 0.0 0.0 0.0 0.0
0.0 0.0 0.0 0.0 0.0 1.0 0.0 0.0
0.0 0.0 0.0 0.0 0.0 0.0 0.0 0.0
0.0 0.0 0.0 0.0 0.0 0.0 0.0 0.0
0.0 0.0 0.0 0.0 0.0 0.0 0.0 0.0
0.0 1.0 0.0 0.0 0.0 0.0 0.0 0.0
0.0 0.0 0.0 0.0 0.0 0.0 0.0 0.0
0.0 0.0 0.0 0.0 0.0 0.0 0.0 0.0
0.0 0.0 0.0 0.0 0.0 0.0 0.0 0.0
0.0 0.0 0.0 0.0 0.0 0.0 0.0 0.0
1.0 0.0 0.0 0.0 0.0 0.0 0.0 0.0
0.0 0.0 0.0 0.0 0.0 0.0 0.0 0.0
00000000: 0000 0000 0000 0000 0000 0000 0000 0000
00000010: 0000 0000 0000 0000 0000 0000 0000 0000
00000020: 0000 0000 0000 0000 0000 0000 0000 0000
00000030: 0000 0000 0000 803f 0000 0000 0000 0000
00000040: 0000 0000 0000 0000 0000 0000 0000 0000
00000050: 0000 0000 0000 0000 0000 0000 0000 0000
00000060: 0000 0000 0000 0000 0000 0000 0000 0000
00000070: 0000 0000 0000 0000 0000 0000 0000 0000
00000080: 0000 0000 0000 0000 0000 0000 0000 0000
00000090: 0000 0000 0000 0000 0000 0000 0000 0000
000000a0: 0000 0000 0000 0000 0000 0000 0000 0000
000000b0: 0000 0000 0000 0000 0000 0000 0000 0000
000000c0: 0000 0000 0000 0000 0000 0000 0000 0000
000000d0: 0000 0000 0000 0000 0000 0000 0000 0000
000000e0: 0000 803f 0000 0000 0000 0000 0000 0000
000000f0: 0000 0000 0000 0000 0000 0000 0000 0000
00000100: 0000 0000 0000 0000 0000 0000 0000 0000
00000110: 0000 0000 0000 0000 0000 0000 0000 0000
00000120: 0000 0000 0000 0000 0000 0000 0000 0000
00000130: 0000 0000 0000 0000 0000 0000 0000 0000
00000140: 0000 0000 0000 0000 0000 0000 0000 803f
00000150: 0000 0000 0000 0000 0000 0000 0000 0000
00000160: 0000 0000 0000 0000 0000 0000 0000 0000
00000170: 0000 0000 0000 0000 0000 0000 0000 0000
00000180: 0000 0000 0000 0000 0000 0000 0000 0000
00000190: 0000 803f 0000 0000 0000 0000 0000 0000
000001a0: 0000 0000 0000 0000 0000 0000 0000 0000
000001b0: 0000 0000 0000 0000 0000 0000 0000 0000
000001c0: 0000 0000 0000 0000 0000 0000 0000 0000
000001d0: 0000 0000 0000 0000 0000 0000 0000 0000
000001e0: 0000 0000 0000 0000 0000 0000 0000 0000
000001f0: 0000 0000 0000 0000 0000 0000 0000 0000
00000200: 0000 0000 0000 0000 0000 0000 0000 0000
00000210: 0000 0000 0000 0000 0000 0000 0000 0000
00000220: 0000 0000 0000 0000 0000 0000 0000 0000
00000230: 0000 0000 0000 0000 0000 0000 0000 0000
00000240: 0000 0000 0000 0000 0000 0000 0000 0000
00000250: 0000 0000 0000 0000 0000 0000 0000 0000
00000260: 0000 0000 0000 0000 0000 0000 0000 0000
00000270: 0000 0000 0000 803f 0000 0000 0000 0000
00000280: 0000 0000 0000 0000 0000 0000 0000 0000
00000290: 0000 0000 0000 0000 0000 0000 0000 0000
000002a0: 0000 0000 0000 0000 0000 0000 0000 0000
000002b0: 0000 0000 0000 803f 0000 0000 0000 0000
000002c0: 0000 0000 0000 0000 0000 0000 0000 0000
000002d0: 0000 0000 0000 0000 0000 0000 0000 0000
000002e0: 0000 0000 0000 0000 0000 0000 0000 0000
000002f0: 0000 0000 0000 0000 0000 0000 0000 0000
00000300: 0000 0000 0000 0000 0000 0000 0000 0000
00000310: 0000 0000 0000 0000 0000 0000 0000 0000
00000320: 0000 0000 0000 803f 0000 0000 0000 0000
00000330: 0000 0000 0000 0000 0000 0000 0000 0000
00000340: 0000 0000 0000 0000 0000 0000 0000 0000
00000350: 0000 0000 0000 0000 0000 0000 0000 0000
00000360: 0000 0000 0000 0000 0000 0000 0000 0000
00000370: 0000 0000 0000 0000 0000 0000 0000 0000
00000380: 0000 0000 0000 0000 0000 0000 0000 0000
00000390: 0000 0000 0000 0000 0000 0000 0000 0000
000003a0: 0000 0000 0000 0000 0000 0000 0000 0000
000003b0: 0000 0000 0000 0000 0000 0000 0000 0000
000003c0: 0000 803f 0000 0000 0000 0000 0000 0000
000003d0: 0000 0000 0000 0000 0000 0000 0000 0000
000003e0: 0000 0000 0000 0000 0000 0000 0000 0000
000003f0: 0000 0000 0000 0000 0000 0000 0000 0000

encoder.module_list.0.output_quant.pre_transforms.0.weight f4 [64]
0.36575624 0.96457773 0.9161588 1.0 0.485219 0.48367563 0.97999537 0.355463
1.0 0.38865727 0.3503682 0.3644428 0.548036 0.5981463 1.0 0.30865198
1.0 0.24658923 0.3093129 0.96397525 0.43599802 0.38646075 0.23391622 0.3947412
0.24335924 0.58007205 0.30462292 0.983531 0.24175078 0.46338993 0.53177243 0.37074253
0.7529359 0.9770579 0.41659272 0.5240851 2.049015 1.0 0.99426836 0.9804505
0.6367414 0.49793032 2.1274703 1.0 0.20205651 0.49860573 0.7945005 0.57961696
0.35920092 0.23298639 0.52459735 0.5338829 1.0 0.4619645 0.6125848 0.5845216
0.4545522 0.41945148 3.3283634 1.0005066 0.42439377 0.52927566 0.96627635 1.0
00000000: 6744 bb3e 91ee 763f 6289 6a3f 0000 803f
00000010: a06e f83e 55a4 f73e fae0 7a3f 3fff b53e
00000020: 0000 803f 16fe c63e 7663 b33e 3f98 ba3e
00000030: 164c 0c3f 1e20 193f 0000 803f a207 9e3e
00000040: 0000 803f e381 7c3e 435e 9e3e 15c7 763f
00000050: 223b df3e 2fde c53e bc87 6f3e 851b ca3e
00000060: 2a33 793e 9a7f 143f 89f7 9b3e b0c8 7b3f
00000070: 848d 773e 7241 ed3e 3d22 083f f7d1 bd3e
00000080: 68c0 403f 7720 7a3f a44b d53e 712a 063f
00000090: 1023 0340 0000 803f 5f88 7e3f cefe 7a3f
000000a0: 7c01 233f b9f0 fe3e 7928 0840 0000 803f
000000b0: e7e7 4e3e 4049 ff3e 6364 4b3f c761 143f
000000c0: 2fe9 b73e fc93 6e3e 034c 063f 8dac 083f
000000d0: 0000 803f 9c86 ec3e 5cd2 1c3f 35a3 153f
000000e0: 11bb e83e 58c2 d63e e803 5540 9a10 803f
000000f0: 244a d93e 9c7e 073f e35d 773f 0000 803f

encoder.module_list.0.output_quant.pre_transforms.0.bias f4 [64]
1.3007675 -0.033044416 -0.10630245 0.0 0.081733085 0.058970977 -0.009952739 2.0263302
0.0 1.0081832 1.9233664 0.16400006 2.08596 0.11956388 0.0 0.06997039
0.0 0.09561694 0.10652342 -0.039160483 0.032429766 0.15944016 1.318927 1.8846846
0.0929792 1.9522054 0.8642499 -0.016448285 0.09864456 1.9177792 1.9192115 1.356053
1.9918642 -0.014191483 1.0077513 1.913626 1.4649801 0.0 -0.010289695 -0.053125575
2.031877 0.027542707 0.6680999 0.0 1.0126683 1.9618101 -0.14618419 0.10550159
1.3099216 1.9355309 0.053452786 0.058551498 0.0 0.05762542 1.9550843 -0.018389357
0.048234347 1.884069 0.29921317 -0.0039116656 2.0227516 1.961702 2.039272 0.0
00000000: 8d7f a63f 9559 07bd 19b5 d9bd 0000 0000
00000010: ad63 a73d 8d8b 713d d010 23bc 65af 0140
00000020: 0000 0000 260c 813f df30 f63f a2ef 273e
00000030: 5e80 0540 e8dd f43d 0000 0000 a34c 8f3d
00000040: 0000 0000 d0d2 c33d f328 da3d be66 20bd
00000050: 13d5 043d 4844 233e 9ad2 a83f 583d f13f
00000060: e16b be3d dee1 f93f 7b3f 5d3f 8ebe 86bc
00000070: 2906 ca3d ca79 f53f b9a8 f53f 2593 ad3f
00000080: 68f5 fe3f 6583 68bc fffd 803f b2f1 f43f
00000090: 7884 bb3f 0000 0000 1c96 28bc 349a 59bd
000000a0: 460a 0240 3ea1 e13c 9808 2b3f 0000 0000
000000b0: 1d9f 813f 981c fb3f 4fb1 15be 3811 d83d
000000c0: 83ab a73f 7abf f73f 4ff1 5a3d b2d3 6f3d
000000d0: 0000 0000 a208 6c3d 3440 fa3f 47a5 96bc
000000e0: 6191 453d 2c29 f13f 7832 993e 6e2d 80bb
000000f0: c374 0140 0d19 fb3f 6f83 0240 0000 0000

encoder.module_list.0.output_quant.pre_transforms.0.running_mean f4 [64]
0.017743222 0.09487123 -0.036641233 0.09233634 0.036589067 0.018241901 0.07962182 -0.013677446
0.096339285 0.002576 -0.064262636 -0.060496416 -0.34677133 0.0014853847 -0.056495804 0.023558019
0.059357487 0.027934214 0.0001809361 0.08877931 0.03942245 -0.0029746857 0.015516052 -0.005453143
0.004433062 -0.30557036 -0.052489568 0.029839037 -0.0013362722 -0.072906524 -0.13121496 0.017959896
-0.025178317 -0.02530692 -0.010405011 -0.08765693 0.21201797 -0.08091365 0.07956463 0.004972072
0.2491601 -0.0063332613 0.18677892 0.087545834 -0.029668923 -0.028995097 -0.055872828 0.0032593224
-0.023586553 6.342793e-05 -0.009323674 -0.10227592 -0.012508383 -0.08360316 0.08280266 -0.005226884
0.049447846 -0.010346245 -0.041646708 0.101367064 -0.024645753 -0.066413775 -0.03900967 0.0067007835
00000000: 3c5a 913c d94b c23d 1e15 16bd d61a bd3d
00000010: 6bde 153d 0a70 953c c410 a33d 5e17 60bc
00000020: 884d c53d 1cd2 283b 219c 83bd 17cb 77bd
00000030: 038c b1be 3db1 c23a 2568 67bd bffc c03c
00000040: d620 733d 4bd6 e43c aab9 3d39 edd1 b53d
00000050: 6f79 213d f2f2 42bb 0a37 7e3c 47b0 b2bb
00000060: 3843 913b b873 9cbe 4dff 56bd ff70 f43c
00000070: db25 afba 0450 95bd 375d 06be a220 933c
00000080: c242 cebc 7550 cfbc c779 2abc 7a85 b3bd
00000090: 3d1b 593e 0eb6 a5bd c8f2 a23d c3ec a23b
000000a0: d323 7f3e 3f87 cfbb f942 3f3e 3b4b b33d
000000b0: 3e0c f3bc 2087 edbc e8da 64bd 5b9a 553b
000000c0: 9638 c1bc 9c04 8538 53c2 18bc 0a76 d1bd
000000d0: f6ef 4cbc 2238 abbd 7194 a93d 4846 abbb
000000e0: d389 4a3d 4c83 29bc bd95 2abd 8999 cf3d
000000f0: e4e5 c9bc f203 88bd 9bc8 1fbd 3f92 db3b

encoder.module_list.0.output_quant.pre_transforms.0.running_var f4 [64]
3.8679764e-06 6.3821113e-09 9.913773e-12 7.164326e-08 1.8056988e-06 1.3360329e-06 4.722345e-10 0.0054352037
0.00011962212 3.6345498e-06 5.1360938e-05 5.961961e-06 1.268777e-06 3.0424933e-06 6.071626e-05 0.0065970994
0.000106008534 0.0069197225 0.009427136 8.409172e-11 2.8478294e-06 3.467771e-06 0.0063946038 0.0026204074
0.0046735266 1.3129198e-06 3.3699453e-06 2.720715e-09 0.0060637575 3.7274826e-06 2.3509879e-06 0.0065426934
2.2194572e-06 8.812327e-10 0.0051153814 3.0123556e-06 0.13436884 5.2353607e-05 2.801233e-10 8.739416e-13
5.398745e-06 2.5019403e-06 4.7655967e-06 1.03588e-17 0.006809876 1.1808784e-06 6.549871e-07 2.6690755e-06
0.0077191824 0.0034181888 1.0530765e-06 1.1268959e-06 7.054084e-05 1.5536043e-06 1.1463167e-06 1.760933e-06
1.5946677e-06 0.0066176774 3.4582556e-06 1.4766116e-10 0.013965786 1.1205419e-06 1.2452132e-06 5.4310465e-05
00000000: aac9 8136 a549 db31 aa67 2e2d 4cda 9933
00000010: 575b f235 be51 b335 8cce 0130 cb19 b23b
00000020: a3dd fa38 17e9 7336 636c 5738 db0c c836
00000030: d94a aa35 a32d 4c36 96a9 7e38 7b2c d83b
00000040: e650 de38 d7be e23b 4674 1a3c 6eeb b82e
00000050: 561d 3f36 dab7 6836 d389 d13b 24bb 2b3b
00000060: 6224 993b 9537 b035 3827 6236 53f7 3a31
00000070: 7cb2 c63b aa25 7a36 aac5 1d36 1764 d63b
00000080: fcf1 1436 3d3b 7230 ee9e a73b e027 4a36
00000090: fc97 093e 4296 5b38 daff 992f 21fe 752b
000000a0: de26 b536 02e7 2736 2ae8 9f36 0d16 3f23
000000b0: 6125 df3b ac7e 9e35 5fd2 2f35 5e1e 3336
000000c0: 32f1 fc3b b103 603b 6f57 8d35 d93f 9735
000000d0: 53ef 9338 7085 d035 24db 9935 3259 ec35
000000e0: 5d08 d635 1ad9 d83b 6114 6836 ec5a 222f
000000f0: c1d0 643c 8765 9635 3321 a735 6bcb 6338

encoder.module_list.1.input_quant.pre_transforms.0.weight f4 [64]
0.36575624 0.96457773 0.9161588 1.0 0.485219 0.48367563 0.97999537 0.355463
1.0 0.38865727 0.3503682 0.3644428 0.548036 0.5981463 1.0 0.30865198
1.0 0.24658923 0.3093129 0.96397525 0.43599802 0.38646075 0.23391622 0.3947412
0.24335924 0.58007205 0.30462292 0.983531 0.24175078 0.46338993 0.53177243 0.37074253
0.7529359 0.9770579 0.41659272 0.5240851 2.049015 1.0 0.99426836 0.9804505
0.6367414 0.49793032 2.1274703 1.0 0.20205651 0.49860573 0.7945005 0.57961696
0.35920092 0.23298639 0.52459735 0.5338829 1.0 0.4619645 0.6125848 0.5845216
0.4545522 0.41945148 3.3283634 1.0005066 0.42439377 0.52927566 0.96627635 1.0
00000000: 6744 bb3e 91ee 763f 6289 6a3f 0000 803f
00000010: a06e f83e 55a4 f73e fae0 7a3f 3fff b53e
00000020: 0000 803f 16fe c63e 7663 b33e 3f98 ba3e
00000030: 164c 0c3f 1e20 193f 0000 803f a207 9e3e
00000040: 0000 803f e381 7c3e 435e 9e3e 15c7 763f
00000050: 223b df3e 2fde c53e bc87 6f3e 851b ca3e
00000060: 2a33 793e 9a7f 143f 89f7 9b3e b0c8 7b3f
00000070: 848d 773e 7241 ed3e 3d22 083f f7d1 bd3e
00000080: 68c0 403f 7720 7a3f a44b d53e 712a 063f
00000090: 1023 0340 0000 803f 5f88 7e3f cefe 7a3f
000000a0: 7c01 233f b9f0 fe3e 7928 0840 0000 803f
000000b0: e7e7 4e3e 4049 ff3e 6364 4b3f c761 143f
000000c0: 2fe9 b73e fc93 6e3e 034c 063f 8dac 083f
000000d0: 0000 803f 9c86 ec3e 5cd2 1c3f 35a3 153f
000000e0: 11bb e83e 58c2 d63e e803 5540 9a10 803f
000000f0: 244a d93e 9c7e 073f e35d 773f 0000 803f

encoder.module_list.1.input_quant.pre_transforms.0.bias f4 [64]
1.3007675 -0.033044416 -0.10630245 0.0 0.081733085 0.058970977 -0.009952739 2.0263302
0.0 1.0081832 1.9233664 0.16400006 2.08596 0.11956388 0.0 0.06997039
0.0 0.09561694 0.10652342 -0.039160483 0.032429766 0.15944016 1.318927 1.8846846
0.0929792 1.9522054 0.8642499 -0.016448285 0.09864456 1.9177792 1.9192115 1.356053
1.9918642 -0.014191483 1.0077513 1.913626 1.4649801 0.0 -0.010289695 -0.053125575
2.031877 0.027542707 0.6680999 0.0 1.0126683 1.9618101 -0.14618419 0.10550159
1.3099216 1.9355309 0.053452786 0.058551498 0.0 0.05762542 1.9550843 -0.018389357
0.048234347 1.884069 0.29921317 -0.0039116656 2.0227516 1.961702 2.039272 0.0
00000000: 8d7f a63f 9559 07bd 19b5 d9bd 0000 0000
00000010: ad63 a73d 8d8b 713d d010 23bc 65af 0140
00000020: 0000 0000 260c 813f df30 f63f a2ef 273e
00000030: 5e80 0540 e8dd f43d 0000 0000 a34c 8f3d
00000040: 0000 0000 d0d2 c33d f328 da3d be66 20bd
00000050: 13d5 043d 4844 233e 9ad2 a83f 583d f13f
00000060: e16b be3d dee1 f93f 7b3f 5d3f 8ebe 86bc
00000070: 2906 ca3d ca79 f53f b9a8 f53f 2593 ad3f
00000080: 68f5 fe3f 6583 68bc fffd 803f b2f1 f43f
00000090: 7884 bb3f 0000 0000 1c96 28bc 349a 59bd
000000a0: 460a 0240 3ea1 e13c 9808 2b3f 0000 0000
000000b0: 1d9f 813f 981c fb3f 4fb1 15be 3811 d83d
000000c0: 83ab a73f 7abf f73f 4ff1 5a3d b2d3 6f3d
000000d0: 0000 0000 a208 6c3d 3440 fa3f 47a5 96bc
000000e0: 6191 453d 2c29 f13f 7832 993e 6e2d 80bb
000000f0: c374 0140 0d19 fb3f 6f83 0240 0000 0000

encoder.module_list.1.input_quant.pre_transforms.0.running_mean f4 [64]
0.017743222 0.09487123 -0.036641233 0.09233634 0.036589067 0.018241901 0.07962182 -0.013677446
0.096339285 0.002576 -0.064262636 -0.060496416 -0.34677133 0.0014853847 -0.056495804 0.023558019
0.059357487 0.027934214 0.0001809361 0.08877931 0.03942245 -0.0029746857 0.015516052 -0.005453143
0.004433062 -0.30557036 -0.052489568 0.029839037 -0.0013362722 -0.072906524 -0.13121496 0.017959896
-0.025178317 -0.02530692 -0.010405011 -0.08765693 0.21201797 -0.08091365 0.07956463 0.004972072
0.2491601 -0.0063332613 0.18677892 0.087545834 -0.029668923 -0.028995097 -0.055872828 0.0032593224
-0.023586553 6.342793e-05 -0.009323674 -0.10227592 -0.012508383 -0.08360316 0.08280266 -0.005226884
0.049447846 -0.010346245 -0.041646708 0.101367064 -0.024645753 -0.066413775 -0.03900967 0.0067007835
00000000: 3c5a 913c d94b c23d 1e15 16bd d61a bd3d
00000010: 6bde 153d 0a70 953c c410 a33d 5e17 60bc
00000020: 884d c53d 1cd2 283b 219c 83bd 17cb 77bd
00000030: 038c b1be 3db1 c23a 2568 67bd bffc c03c
00000040: d620 733d 4bd6 e43c aab9 3d39 edd1 b53d
00000050: 6f79 213d f2f2 42bb 0a37 7e3c 47b0 b2bb
00000060: 3843 913b b873 9cbe 4dff 56bd ff70 f43c
00000070: db25 afba 0450 95bd 375d 06be a220 933c
00000080: c242 cebc 7550 cfbc c779 2abc 7a85 b3bd
00000090: 3d1b 593e 0eb6 a5bd c8f2 a23d c3ec a23b
000000a0: d323 7f3e 3f87 cfbb f942 3f3e 3b4b b33d
000000b0: 3e0c f3bc 2087 edbc e8da 64bd 5b9a 553b
000000c0: 9638 c1bc 9c04 8538 53c2 18bc 0a76 d1bd
000000d0: f6ef 4cbc 2238 abbd 7194 a93d 4846 abbb
000000e0: d389 4a3d 4c83 29bc bd95 2abd 8999 cf3d
000000f0: e4e5 c9bc f203 88bd 9bc8 1fbd 3f92 db3b

encoder.module_list.1.input_quant.pre_transforms.0.running_var f4 [64]
3.8679764e-06 6.3821113e-09 9.913773e-12 7.164326e-08 1.8056988e-06 1.3360329e-06 4.722345e-10 0.0054352037
0.00011962212 3.6345498e-06 5.1360938e-05 5.961961e-06 1.268777e-06 3.0424933e-06 6.071626e-05 0.0065970994
0.000106008534 0.0069197225 0.009427136 8.409172e-11 2.8478294e-06 3.467771e-06 0.0063946038 0.0026204074
0.0046735266 1.3129198e-06 3.3699453e-06 2.720715e-09 0.0060637575 3.7274826e-06 2.3509879e-06 0.0065426934
2.2194572e-06 8.812327e-10 0.0051153814 3.0123556e-06 0.13436884 5.2353607e-05 2.801233e-10 8.739416e-13
5.398745e-06 2.5019403e-06 4.7655967e-06 1.03588e-17 0.006809876 1.1808784e-06 6.549871e-07 2.6690755e-06
0.0077191824 0.0034181888 1.0530765e-06 1.1268959e-06 7.054084e-05 1.5536043e-06 1.1463167e-06 1.760933e-06
1.5946677e-06 0.0066176774 3.4582556e-06 1.4766116e-10 0.013965786 1.1205419e-06 1.2452132e-06 5.4310465e-05
00000000: aac9 8136 a549 db31 aa67 2e2d 4cda 9933
00000010: 575b f235 be51 b335 8cce 0130 cb19 b23b
00000020: a3dd fa38 17e9 7336 636c 5738 db0c c836
00000030: d94a aa35 a32d 4c36 96a9 7e38 7b2c d83b
00000040: e650 de38 d7be e23b 4674 1a3c 6eeb b82e
00000050: 561d 3f36 dab7 6836 d389 d13b 24bb 2b3b
00000060: 6224 993b 9537 b035 3827 6236 53f7 3a31
00000070: 7cb2 c63b aa25 7a36 aac5 1d36 1764 d63b
00000080: fcf1 1436 3d3b 7230 ee9e a73b e027 4a36
00000090: fc97 093e 4296 5b38 daff 992f 21fe 752b
000000a0: de26 b536 02e7 2736 2ae8 9f36 0d16 3f23
000000b0: 6125 df3b ac7e 9e35 5fd2 2f35 5e1e 3336
000000c0: 32f1 fc3b b103 603b 6f57 8d35 d93f 9735
000000d0: 53ef 9338 7085 d035 24db 9935 3259 ec35
000000e0: 5d08 d635 1ad9 d83b 6114 6836 ec5a 222f
000000f0: c1d0 643c 8765 9635 3321 a735 6bcb 6338

encoder.module_list.1.fc.weight f4 [128, 64]
-0.11348079 0.0028340071 -0.039976403 0.03295234 -0.052473456 -0.05782689 -0.019713193 -0.09571554
-0.03190182 0.1186779 -0.12411611 -0.096180364 0.06463857 -0.11463685 -0.093260184 -0.0071424246
0.045604795 -0.05977516 0.009899467 -0.12200284 -0.120418176 -0.035695344 0.11348526 -0.02447848
0.04547362 0.07562497 0.007909834 -0.087677315 -0.04933743 -0.056632176 0.7046193 -0.022174552
0.08366664 -0.085930675 0.114552096 0.00065894425 0.07243766 -0.046764374 -0.063163534 0.04704456
0.065464795 -0.054119527 0.0408829 0.047485083 -0.07953523 0.010721818 0.10452129 0.03099592
-0.10781784 -0.1078302 -0.02582863 0.075657025 0.068682164 -0.022173658 -0.066032395 -0.052618593
-0.050480947 -0.44897053 -0.048400447 0.06317648 0.02574943 1.0589995 0.10046625 -0.10104115
0.0046741664 -0.004281193 0.024674565 -0.087925866 0.089942396 0.10519305 -0.07166703 -0.086389035
0.1138836 0.05614586 -0.076893255 -0.07389583 0.068863675 0.020320028 -0.0055567026 0.039401338
0.024397641 -0.039053783 0.031800136 0.018523708 0.097809136 -0.03113456 0.04678172 0.100663334
-0.06664984 -0.03976944 0.009751767 -0.027838975 0.07957721 0.0825441 -0.09009813 -0.021764055
0.023099512 0.1038965 0.035866722 0.038859293 0.08709608 0.0049632043 0.050538868 -0.004253462
-0.014585614 -0.01589261 -0.042531654 -0.063388035 -0.027946755 -0.100227386 0.111402914 0.06979303
0.0132083595 -0.1086189 0.10669002 -0.11089499 -0.04353836 -0.0072395056 0.012881935 0.058045655
0.08886717 -0.01589875 0.07833886 -0.122630656 -0.105066344 -0.11376934 -0.076603115 0.052989483
-0.03637232 -0.009184495 -0.12190457 0.061711594 0.11756122 0.049511775 -0.11827569 -0.053811714
-0.065055266 -0.0801231 0.04084702 0.02881983 0.013656631 0.022053197 -0.06306636 0.055706494
0.043775305 -0.0050963163 -0.04132752 -0.058442965 0.09399131 0.026948825 -0.11801921 -0.03464067
0.07183686 -0.013157919 -0.022357062 -0.009624109 -0.06537834 0.76998377 -0.123090684 -0.12144621
0.09494096 -0.031507835 -0.04332605 0.7795084 0.09750946 0.05758123 0.10391913 -0.11575633
-0.061182454 0.08833444 0.02752009 0.039449736 -0.04358177 -0.05230193 -0.07820463 0.036596492
-0.089747414 -0.08986333 0.045414552 0.113556534 0.100231916 0.05194731 -0.12250781 0.1177751
-0.12146163 -0.052366108 0.07545687 -0.074172184 0.081699654 -0.113398194 0.0033415407 -0.058157116
0.038682 0.11778827 0.12392068 -0.06083393 0.014543608 0.008072466 -0.123660445 0.006048098
0.014426127 -0.09011249 -0.017939389 -0.011658862 0.042670846 0.08888781 -0.09965786 0.11327165
0.0077836365 -0.07308848 0.090646476 -0.09374292 0.016927153 0.056491405 -0.044761077 0.068858355
-0.10125637 -0.043916702 -0.008689329 -0.108851105 -0.055961117 -0.119255945 0.4961359 -0.032000005
0.11774176 -0.032316923 8.5935e-05 0.049630955 0.05613011 -0.015857443 -0.093519956 0.11832318
0.047817767 0.075766385 -0.11560188 -0.12221415 2.5753052 0.036621824 0.05726762 -0.03477153
-0.10301933 -0.013411194 0.11266652 0.07428715 -0.09603216 -0.08932859 -0.09825882 -0.006333083
-0.031232923 -0.10988696 -0.0713636 -0.08448529 -0.06515011 -0.10472679 0.08889435 -0.051063657
00000000: 9e68 e8bd c0ba 393b 4cbe 23bd 08f9 063d
00000010: 68ee 56bd e4db 6cbd 907d a1bc 8206 c4bd
00000020: 7cab 02bd 660d f33d 9630 febd 36fa c4bd
00000030: 3a61 843d bac6 eabd 32ff bebd 000b eabb
00000040: 18cc 3a3d ccd6 74bd 6031 223c a0dc f9bd
00000050: ce9d f6bd 4835 12bd f66a e83d 1887 c8bc
00000060: 8c42 3a3d 44e1 9a3d 4098 013c 2a90 b3bd
00000070: 0c16 4abd 24f7 67bd ee61 343f 68a7 b5bc
00000080: 6a59 ab3d 6cfc afbd 4a9a ea3d 00bd 2c3a
00000090: 325a 943d 008c 3fbd e25b 81bd ccb1 403d
000000a0: 6812 863d 70ac 5dbd d474 273d b87f 423d
000000b0: 5ee3 a2bd 90aa 2f3c 420f d63d 28eb fd3c
000000c0: 9acf dcbd 14d6 dcbd 9096 d3bc 12f2 9a3d
000000d0: 3ca9 8c3d 88a5 b5bc fe3b 87bd 9886 57bd
000000e0: 1cc5 4ebd 77df e5be 8c3f 46bd ac62 813d
000000f0: 78f0 d23c 4c8d 873f 40c1 cd3d aaee cebd
00000100: c029 993b 4049 8cbb 5022 ca3c 7a12 b4bd
00000110: b833 b83d 746f d73d 2ac6 92bd bcec b0bd
00000120: ce3b e93d 34f9 653d 367a 9dbd b256 97bd
00000130: 6608 8d3d 3076 a63c 0015 b6bb 4c63 213d
00000140: 90dd c73c dcf6 1fbd dc40 023d 08bf 973c
00000150: 2850 c83d e80d ffbc 309e 3f3d 9428 ce3d
00000160: b67f 88bd 48e5 22bd e0c5 1f3c 900e e4bc
00000170: 60f9 a23d e20c a93d 5e85 b8bd 884a b2bc
00000180: 303b bd3c b0c7 d43d fce8 123d ec2a 1f3d
00000190: 6e5f b23d 60a2 a23b d801 4f3d a060 8bbb
000001a0: 80f8 6ebc 3831 82bc ac35 2ebd 96d1 81bd
000001b0: 98f0 e4bc 0444 cdbd 3627 e43d a6ef 8e3d
000001c0: e067 583c 9673 debd 4c80 da3d ea1c e3bd
000001d0: 4855 32bd 6039 edbb c00e 533c 48c1 6d3d
000001e0: feff b53d 183e 82bc 2070 a03d c825 fbbd
000001f0: 062d d7bd e6ff e8bd 18e2 9cbd 800b 593d
00000200: 24fb 14bd 907a 16bc 1aa9 f9bd 4cc5 7c3d
00000210: f0c3 f03d dccc 4a3d 863a f2bd ac69 5cbd
00000220: b23b 85bd 9417 a4bd 344f 273d 9017 ec3c
00000230: 10c0 5f3c e8a8 b43c f028 81bd 7e2c 643d
00000240: bc4d 333d 00ff a6bb 0c47 29bd e461 6fbd
00000250: 847e c03d c8c3 dc3c 0eb4 f1bd 60e3 0dbd
00000260: 341f 933d 5094 57bc 2826 b7bc 70ae 1dbc
00000270: 14e5 85bd a81d 453f f816 fcbd cab8 f8bd
00000280: 6870 c23d 5c0e 01bd a876 31bd dd8d 473f
00000290: 0ab3 c73d 4cda 6b3d 8ed3 d43d a811 edbd
000002a0: 749a 7abd b0e8 b43d d071 e13c 0c96 213d
000002b0: cc82 32bd 8c3a 56bd c029 a0bd 34e6 153d
000002c0: 7ecd b7bd 440a b8bd 9c04 3a3d 5490 e83d
000002d0: 6446 cd3d b4c6 543d 60e5 fabd 1234 f13d
000002e0: e0c0 f8bd d87d 56bd 2289 9a3d 96e7 97bd
000002f0: 2652 a73d 503d e8bd c0fd 5a3b 2836 6ebd
00000300: 0471 1e3d fa3a f13d 20ca fd3d 002d 79bd
00000310: 5048 6e3c 6042 043c b041 fdbd 202f c63b
00000320: 905b 6c3c e68c b8bd a0f5 92bc d004 3fbc
00000330: a0c7 2e3d d00a b63d 6c19 ccbd f8fa e73d
00000340: e00d ff3b 6aaf 95bd dca4 b93d 4afc bfbd
00000350: d0aa 8a3c 8863 673d 6457 37bd 9c05 8d3d
00000360: 805f cfbd 00e2 33bd b05d 0ebc 54ed debd
00000370: 7c37 65bd 763c f4bd 8605 fe3e 7012 03bd
00000380: 9822 f13d c05e 04bd 0038 b438 d449 4b3d
00000390: b0e8 653d 78e7 81bc 6487 bfbd 6c53 f23d
000003a0: 90dc 433d 682b 9b3d aec0 ecbd 6a4b fabd
000003b0: cdd1 2440 c400 163d 7491 6a3d 986c 0ebd
000003c0: ccfb d2bd a0ba 5bbc b4bd e63d dc23 983d
000003d0: 82ac c4bd e8f1 b6bd ec3b c9bd c085 cfbb
000003e0: 30dc ffbc 6a0c e1bd 1427 92bd a006 adbd
000003f0: 6c6d 85bd 007b d6bd 3e0e b63d 2028 51bd

encoder.module_list.1.fc.bias f4 [128]
-0.75174904 0.09812412 -0.6648199 -0.48901367 0.052038223 -0.11587912 -0.35744235 0.031422913
-0.045618743 -0.83114874 0.11299114 -0.77565765 0.035249904 0.32087395 0.054411963 -0.09911814
-1.0298305 0.1010911 0.11442241 0.025011763 -0.069169 0.07961414 0.023055986 0.111656636
-0.11463821 -0.11967699 -0.024641305 -0.116010725 -0.21315414 0.06913626 0.039459962 0.08728835
0.03668724 0.059044078 0.013641566 -0.040534765 0.08613287 -0.018107742 0.013605325 0.027190775
0.1561063 1.4766622 1.250467 -0.1176268 0.03462918 0.04900375 0.07034448 0.35473958
0.018348828 -0.01579231 0.09110476 -0.009616509 -1.266236 0.04275766 0.019090295 0.42430347
-0.059628278 0.079092905 0.00022649765 -0.30384696 0.04167387 0.103346616 1.137896 -0.2887912
-0.013412285 0.067317605 0.026162341 0.06883499 0.3215248 -0.07744023 -0.048510328 -0.21545549
-0.04802358 0.06514129 0.30740023 0.07600795 -0.046191245 -0.120385036 -0.11913012 -0.05927877
1.3486992 0.83177847 0.03691249 -0.0035041422 -0.11234853 0.08515196 -0.12013745 0.048902854
0.13102505 0.037029408 -0.08517185 0.038362876 -0.107765004 -0.025201693 -0.009677772 0.08504011
-0.03629756 -0.077286154 0.028165728 -0.014700532 0.100464 -0.038746864 -0.056456596 -0.05811398
0.055287804 0.06642407 -0.07252248 -0.11104053 0.2640074 -0.09430158 0.18629958 -0.12079227
0.027826488 0.01558046 -0.12299314 0.10236624 0.023244305 -0.11297947 0.026585668 0.0028737634
-0.022784531 0.041473746 -0.0011402965 0.014483377 0.6377488 -0.09038079 0.9164529 0.45437112
00000000: a072 40bf 4cf5 c83d a331 2abf 0060 fabe
00000010: 0826 553d 0852 edbd af02 b7be 50b5 003d
00000020: b8da 3abd 2ac6 54bf e667 e73d 8091 46bf
00000030: 3462 103d 9749 a43e 14df 5e3d 74fe cabd
00000040: 7cd1 83bf da08 cf3d 4c56 ea3d 78e5 cc3c
00000050: 7aa8 8dbd bd0c a33d e8df bc3c 3cac e43d
00000060: 70c7 eabd 3619 f5bd 90dc c9bc 0897 edbd
00000070: 1445 5abe 5097 8d3d c5a0 213d 3cc4 b23d
00000080: 5c45 163d 34d8 713d e080 5f3c c807 26bd
00000090: 6e66 b03d b056 94bc dee8 5e3c 30bf de3c
000000a0: 54da 1f3e 4403 bd3f 4d0f a03f 52e6 f0bd
000000b0: 54d7 0d3d 28b8 483d c410 903d 6da0 b53e
000000c0: 4850 963c e05e 81bc 2295 ba3d 908e 1dbc
000000d0: 0514 a2bf a822 2f3d 4063 9c3c 4e3e d93e
000000e0: c83c 74bd 76fb a13d 0080 6d39 d491 9bbe
000000f0: 38b2 2a3d 64a7 d33d 93a6 913f 71dc 93be
00000100: 33bf 5bbc d0dd 893d 6852 d63c 5cf9 8c3d
00000110: e69e a43e fc98 9ebd c4b2 46bd 5da0 5cbe
00000120: 60b4 44bd cc68 853d 9063 9d3e 0eaa 9b3d
00000130: 0833 3dbd 6e8c f6bd 7efa f3bd 4cce 72bd
00000140: 2da2 ac3f 6fef 543f 8d31 173d c0a5 65bb
00000150: fc16 e6bd 2764 ae3d a00a f6bd 5c4e 483d
00000160: 6e2b 063e 26ac 173d 946e aebd 6422 1d3d
00000170: e6b3 dcbd c873 cebc 858f 1ebc 8229 ae3d
00000180: c0ac 14bd 3448 9ebd d0bb e63c 80da 70bc
00000190: 12c0 cd3d 08b5 1ebd 083f 67bd ed08 6ebd
000001a0: 7775 623d 5809 883d aa86 94bd 3869 e3bd
000001b0: fa2b 873e 3021 c1bd 51c5 3e3e f061 f7bd
000001c0: 60f4 e33c 3045 7f3c d4e3 fbbd 64a5 d13d
000001d0: d76a be3c c861 e7bd 30ca d93c c055 3c3b
000001e0: a0a6 babc 60e0 293d 0076 95ba b04b 6d3c
000001f0: 8143 233f 9019 b9bd a89c 6a3f 55a3 e83e

encoder.module_list.1.fc.mask.mask f4 [128, 64]
0.0 0.0 0.0 0.0 0.0 0.0 0.0 0.0
0.0 0.0 0.0 0.0 0.0 0.0 0.0 0.0
0.0 0.0 0.0 0.0 0.0 0.0 0.0 0.0
0.0 0.0 0.0 0.0 0.0 0.0 1.0 0.0
0.0 0.0 0.0 0.0 0.0 0.0 0.0 0.0
0.0 0.0 0.0 0.0 0.0 0.0 0.0 0.0
0.0 0.0 0.0 0.0 0.0 0.0 0.0 0.0
0.0 1.0 0.0 0.0 0.0 1.0 0.0 0.0
1.0 0.0 0.0 0.0 0.0 0.0 0.0 0.0
0.0 0.0 0.0 0.0 0.0 0.0 0.0 0.0
0.0 0.0 0.0 0.0 0.0 0.0 0.0 0.0
0.0 1.0 0.0 0.0 0.0 0.0 0.0 0.0
0.0 0.0 0.0 0.0 0.0 0.0 0.0 0.0
0.0 0.0 0.0 0.0 1.0 0.0 0.0 0.0
0.0 0.0 0.0 0.0 0.0 0.0 0.0 0.0
0.0 0.0 0.0 0.0 0.0 0.0 0.0 0.0
0.0 0.0 0.0 0.0 0.0 0.0 0.0 0.0
0.0 0.0 0.0 0.0 0.0 0.0 0.0 1.0
0.0 0.0 0.0 0.0 0.0 0.0 0.0 0.0
0.0 0.0 0.0 0.0 0.0 1.0 0.0 0.0
0.0 0.0 0.0 1.0 0.0 0.0 0.0 0.0
0.0 0.0 0.0 0.0 0.0 0.0 0.0 0.0
0.0 0.0 0.0 0.0 0.0 0.0 0.0 0.0
0.0 0.0 0.0 0.0 0.0 0.0 0.0 0.0
0.0 0.0 0.0 0.0 0.0 0.0 0.0 0.0
0.0 0.0 0.0 0.0 0.0 0.0 0.0 0.0
0.0 0.0 0.0 0.0 0.0 0.0 0.0 0.0
0.0 0.0 0.0 0.0 0.0 0.0 1.0 0.0
0.0 0.0 0.0 0.0 0.0 0.0 0.0 0.0
0.0 0.0 0.0 0.0 1.0 0.0 0.0 0.0
0.0 0.0 0.0 0.0 0.0 0.0 0.0 0.0
0.0 1.0 0.0 0.0 0.0 0.0 0.0 0.0
00000000: 0000 0000 0000 0000 0000 0000 0000 0000
00000010: 0000 0000 0000 0000 0000 0000 0000 0000
00000020: 0000 0000 0000 0000 0000 0000 0000 0000
00000030: 0000 0000 0000 0000 0000 0000 0000 0000
00000040: 0000 0000 0000 0000 0000 0000 0000 0000
00000050: 0000 0000 0000 0000 0000 0000 0000 0000
00000060: 0000 0000 0000 0000 0000 0000 0000 0000
00000070: 0000 0000 0000 0000 0000 803f 0000 0000
00000080: 0000 0000 0000 0000 0000 0000 0000 0000
00000090: 0000 0000 0000 0000 0000 0000 0000 0000
000000a0: 0000 0000 0000 0000 0000 0000 0000 0000
000000b0: 0000 0000 0000 0000 0000 0000 0000 0000
000000c0: 0000 0000 0000 0000 0000 0000 0000 0000
000000d0: 0000 0000 0000 0000 0000 0000 0000 0000
000000e0: 0000 0000 0000 803f 0000 0000 0000 0000
000000f0: 0000 0000 0000 803f 0000 0000 0000 0000
00000100: 0000 803f 0000 0000 0000 0000 0000 0000
00000110: 0000 0000 0000 0000 0000 0000 0000 0000
00000120: 0000 0000 0000 0000 0000 0000 0000 0000
00000130: 0000 0000 0000 0000 0000 0000 0000 0000
00000140: 0000 0000 0000 0000 0000 0000 0000 0000
00000150: 0000 0000 0000 0000 0000 0000 0000 0000
00000160: 0000 0000 0000 803f 0000 0000 0000 0000
00000170: 0000 0000 0000 0000 0000 0000 0000 0000
00000180: 0000 0000 0000 0000 0000 0000 0000 0000
00000190: 0000 0000 0000 0000 0000 0000 0000 0000
000001a0: 0000 0000 0000 0000 0000 0000 0000 0000
000001b0: 0000 803f 0000 0000 0000 0000 0000 0000
000001c0: 0000 0000 0000 0000 0000 0000 0000 0000
000001d0: 0000 0000 0000 0000 0000 0000 0000 0000
000001e0: 0000 0000 0000 0000 0000 0000 0000 0000
000001f0: 0000 0000 0000 0000 0000 0000 0000 0000
00000200: 0000 0000 0000 0000 0000 0000 0000 0000
00000210: 0000 0000 0000 0000 0000 0000 0000 0000
00000220: 0000 0000 0000 0000 0000 0000 0000 0000
00000230: 0000 0000 0000 0000 0000 0000 0000 803f
00000240: 0000 0000 0000 0000 0000 0000 0000 0000
00000250: 0000 0000 0000 0000 0000 0000 0000 0000
00000260: 0000 0000 0000 0000 0000 0000 0000 0000
00000270: 0000 0000 0000 803f 0000 0000 0000 0000
00000280: 0000 0000 0000 0000 0000 0000 0000 803f
00000290: 0000 0000 0000 0000 0000 0000 0000 0000
000002a0: 0000 0000 0000 0000 0000 0000 0000 0000
000002b0: 0000 0000 0000 0000 0000 0000 0000 0000
000002c0: 0000 0000 0000 0000 0000 0000 0000 0000
000002d0: 0000 0000 0000 0000 0000 0000 0000 0000
000002e0: 0000 0000 0000 0000 0000 0000 0000 0000
000002f0: 0000 0000 0000 0000 0000 0000 0000 0000
00000300: 0000 0000 0000 0000 0000 0000 0000 0000
00000310: 0000 0000 0000 0000 0000 0000 0000 0000
00000320: 0000 0000 0000 0000 0000 0000 0000 0000
00000330: 0000 0000 0000 0000 0000 0000 0000 0000
00000340: 0000 0000 0000 0000 0000 0000 0000 0000
00000350: 0000 0000 0000 0000 0000 0000 0000 0000
00000360: 0000 0000 0000 0000 0000 0000 0000 0000
00000370: 0000 0000 0000 0000 0000 803f 0000 0000
00000380: 0000 0000 0000 0000 0000 0000 0000 0000
00000390: 0000 0000 0000 0000 0000 0000 0000 0000
000003a0: 0000 0000 0000 0000 0000 0000 0000 0000
000003b0: 0000 803f 0000 0000 0000 0000 0000 0000
000003c0: 0000 0000 0000 0000 0000 0000 0000 0000
000003d0: 0000 0000 0000 0000 0000 0000 0000 0000
000003e0: 0000 0000 0000 803f 0000 0000 0000 0000
000003f0: 0000 0000 0000 0000 0000 0000 0000 0000

encoder.module_list.1.output_quant.pre_transforms.0.weight f4 [128]
0.23572367 1.0 0.39034495 0.21900769 1.0 1.0 0.3185365 1.0
1.0 0.45441043 1.0 0.38198465 1.0 0.2079787 1.0 1.0
0.30366307 1.0 1.0 1.0 1.0 0.3687653 1.0 1.0
1.0 1.0 1.0 1.0 0.32828328 1.0 0.4267986 1.0
1.0 1.0 1.0 1.0 1.0 1.0 0.31063122 1.0
0.35434446 0.33816293 0.32934344 1.0 1.0 1.0 1.0 0.19667733
1.0 1.0 1.0 1.0 0.23570766 0.3068925 1.0 0.29138863
1.0 1.0 1.0 0.42235884 1.0 1.0 0.24063429 0.23044898
0.50315094 1.0 1.0 1.0 0.40496114 1.0 1.0 0.35397238
1.0 1.0 0.7283738 1.0 1.0 1.0 1.0 1.0
0.21920112 0.3375212 1.0379487 1.0 1.0 0.93841904 0.32917058 1.0
6.64832 0.3198045 1.0 1.0 1.0 1.0 0.30457938 1.0
1.0 1.0 1.0 1.0 1.0 1.0 1.0 1.1612339
4.111068 1.0 1.0 1.0 0.23320237 1.0 0.2806109 1.0
1.0 1.0 1.0 0.3751127 0.39067763 1.0 1.0 1.0
1.0 1.1073432 1.0 1.0 0.35448563 1.0 0.20456462 0.43241137
00000000: 8c61 713e 0000 803f 4bdb c73e 8d43 603e
00000010: 0000 803f 0000 803f 3717 a33e 0000 803f
00000020: 0000 803f 7ca8 e83e 0000 803f 7e93 c33e
00000030: 0000 803f 5ef8 543e 0000 803f 0000 803f
00000040: ba79 9b3e 0000 803f 0000 803f 0000 803f
00000050: 0000 803f cece bc3e 0000 803f 0000 803f
00000060: 0000 803f 0000 803f 0000 803f 0000 803f
00000070: bf14 a83e 0000 803f 5985 da3e 0000 803f
00000080: 0000 803f 0000 803f 0000 803f 0000 803f
00000090: 0000 803f 0000 803f 0e0b 9f3e 0000 803f
000000a0: a36c b53e b123 ad3e b49f a83e 0000 803f
000000b0: 0000 803f 0000 803f 0000 803f c865 493e
000000c0: 0000 803f 0000 803f 0000 803f 0000 803f
000000d0: 595d 713e 0421 9d3e 0000 803f e430 953e
000000e0: 0000 803f 0000 803f 0000 803f 6b3f d83e
000000f0: 0000 803f 0000 803f d668 763e d1fa 6b3e
00000100: 80ce 003f 0000 803f 0000 803f 0000 803f
00000110: 1157 cf3e 0000 803f 0000 803f de3b b53e
00000120: 0000 803f 0000 803f b576 3a3f 0000 803f
00000130: 0000 803f 0000 803f 0000 803f 0000 803f
00000140: 4276 603e 94cf ac3e 81db 843f 0000 803f
00000150: 0000 803f 3b3c 703f 0c89 a83e 0000 803f
00000160: 0abf d440 6abd a33e 0000 803f 0000 803f
00000170: 0000 803f 0000 803f d4f1 9b3e 0000 803f
00000180: 0000 803f 0000 803f 0000 803f 0000 803f
00000190: 0000 803f 0000 803f 0000 803f 50a3 943f
000001a0: de8d 8340 0000 803f 0000 803f 0000 803f
000001b0: 9acc 6e3e 0000 803f 3bac 8f3e 0000 803f
000001c0: 0000 803f 0000 803f 0000 803f c60e c03e
000001d0: e606 c83e 0000 803f 0000 803f 0000 803f
000001e0: 0000 803f 6cbd 8d3f 0000 803f 0000 803f
000001f0: 247f b53e 0000 803f 6379 513e 0665 dd3e

encoder.module_list.1.output_quant.pre_transforms.0.bias f4 [128]
1.6054378 0.0 2.0638487 1.2128748 0.0 0.0 0.15408054 0.0
0.0 -0.10508493 0.0 2.1905324 0.0 1.118316 0.0 0.0
2.2298837 0.0 0.0 0.0 0.0 2.2194176 0.0 0.0
0.0 0.0 0.0 0.0 0.06022881 0.0 -0.017615136 0.0
0.0 0.0 0.0 0.0 0.0 0.0 0.31901088 0.0
2.221747 0.016794136 0.043314952 0.0 0.0 0.0 0.0 1.2149061
0.0 0.0 0.0 0.0 0.911028 0.30805376 0.0 0.79842985
0.0 0.0 0.0 2.1905966 0.0 0.0 0.73645145 1.1905442
2.5713573 0.0 0.0 0.0 1.5037649 0.0 0.0 0.11941282
0.0 0.0 -1.1543431 0.0 0.0 0.0 0.0 0.0
0.21245143 0.047234472 1.8007151 0.0 0.0 0.38700172 1.4088005 0.0
3.0775554 0.9072321 0.0 0.0 0.0 0.0 0.010178151 0.0
0.0 0.0 0.0 0.0 0.0 0.0 0.0 1.6352973
-0.6877533 0.0 0.0 0.0 1.0379587 0.0 1.048978 0.0
0.0 0.0 0.0 2.4407668 2.247482 0.0 0.0 0.0
0.0 0.0038961605 0.0 0.0 0.0638561 0.0 1.1776226 0.1637204
00000000: fc7e cd3f 0000 0000 1916 0440 7b3f 9b3f
00000010: 0000 0000 0000 0000 4ac7 1d3e 0000 0000
00000020: 0000 0000 c536 d7bd 0000 0000 af31 0c40
00000030: 0000 0000 fb24 8f3f 0000 0000 0000 0000
00000040: 6ab6 0e40 0000 0000 0000 0000 0000 0000
00000050: 0000 0000 f00a 0e40 0000 0000 0000 0000
00000060: 0000 0000 0000 0000 0000 0000 0000 0000
00000070: 7cb2 763d 0000 0000 9e4d 90bc 0000 0000
00000080: 0000 0000 0000 0000 0000 0000 0000 0000
00000090: 0000 0000 0000 0000 6555 a33e 0000 0000
000000a0: 1a31 0e40 db93 893c 056b 313d 0000 0000
000000b0: 0000 0000 0000 0000 0000 0000 0b82 9b3f
000000c0: 0000 0000 0000 0000 0000 0000 0000 0000
000000d0: 2239 693f 39b9 9d3e 0000 0000 e665 4c3f
000000e0: 0000 0000 0000 0000 0000 0000 bc32 0c40
000000f0: 0000 0000 0000 0000 1588 3c3f c163 983f
00000100: 1e91 2440 0000 0000 0000 0000 0000 0000
00000110: 5e7b c03f 0000 0000 0000 0000 b58e f43d
00000120: 0000 0000 0000 0000 84c1 93bf 0000 0000
00000130: 0000 0000 0000 0000 0000 0000 0000 0000
00000140: de8c 593e ef78 413d d57d e63f 0000 0000
00000150: 0000 0000 1725 c63e 9353 b43f 0000 0000
00000160: abf6 4440 5d40 683f 0000 0000 0000 0000
00000170: 0000 0000 0000 0000 42c2 263c 0000 0000
00000180: 0000 0000 0000 0000 0000 0000 0000 0000
00000190: 0000 0000 0000 0000 0000 0000 6c51 d13f
000001a0: 9a10 30bf 0000 0000 0000 0000 0000 0000
000001b0: d5db 843f 0000 0000 e944 863f 0000 0000
000001c0: 0000 0000 0000 0000 0000 0000 8635 1c40
000001d0: bfd6 0f40 0000 0000 0000 0000 0000 0000
000001e0: 0000 0000 ba56 7f3b 0000 0000 0000 0000
000001f0: fdc6 823d 0000 0000 56bc 963f 52a6 273e

encoder.module_list.1.output_quant.pre_transforms.0.running_mean f4 [128]
1.8408402 -0.0011317532 2.3044078 2.861103 0.054987893 -0.22706959 1.9487237 0.11820766
-0.070515834 1.2577784 0.108541355 1.7174209 0.19555452 0.16061461 0.15952763 -0.087705225
0.9664639 0.091645636 0.18066984 -0.070328325 -0.07239247 -0.07302336 0.04467474 -0.11745078
0.28815213 -0.16320473 0.029858535 -0.31770492 -0.0836146 0.20023371 0.03986127 0.17904216
0.013878036 0.28430972 -0.30256096 -0.10102344 -0.03641282 -0.003820549 0.051735748 0.12202041
-0.082155004 -0.6316786 -0.8974161 -0.030852402 0.19720457 -0.030635437 0.1681884 -1.2513041
0.013262411 0.20259936 0.13591027 -0.037336607 0.3930297 0.5932006 0.03497105 -1.4229201
-0.06472602 -0.0695619 0.079577774 0.741065 0.051232938 0.15858442 -0.7853217 0.99692047
-0.013882286 0.03704869 0.04540519 -0.020264171 -0.8307697 -0.3358519 -0.2248274 0.44018143
-0.14882351 0.06514132 0.2666749 0.10364345 -0.02130677 -0.120356895 -0.122308135 -0.021139732
-1.5554552 -1.9447545 -0.22156516 -0.23944828 -0.08704429 0.04829338 0.061288234 0.079331346
-2.0837076 -0.05629319 -0.12555893 0.13164136 -0.12804027 -0.076825425 -0.61167926 0.08300263
-0.008166857 -0.2729648 0.19687624 -0.08152364 0.30106893 0.13040537 0.09867051 0.034451794
4.2866464 0.062203728 -0.06447892 -0.013315518 0.26439744 -0.040534243 0.035777394 -0.123807326
0.04303882 0.023756469 -0.18538107 0.10021356 -0.10783354 -0.12883271 0.034895007 -0.055403706
-0.07712289 0.6571704 0.290009 0.11433568 -0.568018 0.123442255 -0.15660657 -0.6522145
00000000: a7a0 eb3f 5657 94ba 6b7b 1340 501c 3740
00000010: fc3a 613d ee84 68be c76f f93f dc16 f23d
00000020: 9b6a 90bd e2fe a03f ee4a de3d 73d4 db3f
00000030: 723f 483e 2878 243e 365b 233e cc9e b3bd
00000040: 2e6a 773f b5b0 bb3d 8401 393e 4c08 90bd
00000050: 8142 94bd 458d 95bd dcfc 363d 098a f0bd
00000060: ad88 933e 241f 27be e399 f43c 38aa a2be
00000070: 223e abbd 110a 4d3e 9245 233d d456 373e
00000080: b460 633c 0b91 913e 45e9 9abe 61e5 cebd
00000090: 9c25 15bd 2d62 7abb dde8 533d d6e5 f93d
000000a0: e240 a8bd b0b5 21bf 10bd 65bf 2dbe fcbc
000000b0: ffef 493e 2bf7 fabc 9439 2c3e bc2a a0bf
000000c0: 954a 593c 3576 4f3e 102c 0b3e 45ee 18bd
000000d0: 303b c93e ffdb 173f ce3d 0f3d 3f22 b6bf
000000e0: 138f 84bd 7876 8ebd acf9 a23d 70b6 3d3f
000000f0: a1d9 513d f463 223e d80a 49bf 2e36 7f3f
00000100: 8772 63bc 5ec0 173d cbfa 393d 0c01 a6bc
00000110: 53ad 54bf c8f4 abbe 2739 66be 765f e13e
00000120: 3165 18be d068 853d 9d89 883e 0443 d43d
00000130: 898b aebc ad7d f6bd b07c fabd 3b2d adbc
00000140: 2819 c7bf b7ed f8bf fae1 62be ee31 75be
00000150: 4744 b2bd 47cf 453d 5f09 7b3d 7978 a23d
00000160: 775b 05c0 b093 66bd 8592 00be fecc 063e
00000170: fd1c 03be a656 9dbd 0397 1cbf 48fd a93d
00000180: 48ce 05bc 0bc2 8bbe ed99 493e def5 a6bd
00000190: b525 9a3e fc88 053e c413 ca3d 531d 0d3d
000001a0: 352c 8940 56c9 7e3d 860d 84bd 5529 5abc
000001b0: 1a5f 873e 3c07 26bd 518b 123d b28e fdbd
000001c0: 7949 303d ed9c c23c 89d4 3dbe c43c cd3d
000001d0: d5d7 dcbd b9ec 03be 11ee 0e3d ffee 62bd
000001e0: 9bf2 9dbd 523c 283f 0f7c 943e d328 ea3d
000001f0: a169 11bf 4bcf fc3d 795d 20be 88f7 26bf

encoder.module_list.1.output_quant.pre_transforms.0.running_var f4 [128]
0.08865297 9.3838426e-05 0.07407421 0.26775903 0.0013823782 0.0013818246 0.036522973 0.0012329598
0.0008132504 0.04219567 0.0011376659 0.04866475 0.00082649477 0.031810515 0.00057691283 0.00031004698
0.06643755 0.0028732922 0.00051555573 0.00020328407 0.0003304474 0.06514777 0.0020848045 0.0018122522
0.00081158057 0.0007464318 0.0022249415 0.00092464837 0.046962358 0.00034887815 2.7618487e-06 0.00093921967
0.0009265163 0.00045274748 0.0020412274 0.00011715965 0.0014698248 0.0002339814 0.039075233 0.0005582094
0.06663043 0.032290712 0.038316485 0.00080822024 0.0017877918 0.00023324421 0.000111491914 0.0852895
0.0003228886 0.0007958382 0.0005893202 0.0009359944 0.026910393 0.1829047 0.00021797653 0.12550493
5.9473e-06 0.00070037495 8.378129e-05 0.07244353 0.00154958 0.00077678834 0.04880449 0.06519069
2.6135099e-06 9.745884e-05 0.00056296744 0.0018687542 0.091096304 0.0006888673 0.001514602 0.07316663
0.00030182293 6e-45 5.2306328e-05 0.00011991593 0.00071912986 5.814039e-05 0.0019690923 0.00049313135
0.11404107 0.042611964 0.28466415 0.0009724469 0.0017559152 2.2669634e-05 0.07856591 0.0025599885
0.13419513 0.14623508 0.00058467255 0.0005789555 0.0030110201 0.002832304 0.07364959 0.00059438054
0.00041327171 0.0006857166 0.00084450946 0.00014523054 0.00079588155 0.0008489369 0.0004921402 0.30795658
0.28143096 0.00039368827 0.00023265935 0.0026844204 0.0857618 0.0016401438 0.065328 1.7685761e-07
0.0007797944 0.0004206382 0.00038055456 3.7355643e-05 0.062386002 0.0024451623 0.0028482566 0.0017016471
0.0007000209 0.06609454 0.000582123 0.0030145945 0.035415206 0.0017308597 0.035205152 0.055479094
00000000: b08f b53d 1fcb c438 38b4 973d b617 893e
00000010: ea30 b53a 571e b53a 1d99 153d 449b a13a
00000020: 4f30 553a 5ed5 2c3d bc1d 953a b054 473d
00000030: 20a9 583a be4b 023d f73b 173a cd8d a239
00000040: 6910 883d d84d 3c3b 5c26 073a a728 5539
00000050: e63f ad39 326c 853d 37a1 083b 1889 ed3a
00000060: 40c0 543a 31ac 433a 53d0 113b 1a64 723a
00000070: 9a5b 403d a2e9 b639 3358 3936 f735 763a
00000080: 75e1 723a bd5e ed39 1dc6 053b 9cb3 f538
00000090: 23a7 c03a e758 7539 5a0d 203d cc54 123a
000000a0: 8975 883d 4443 043d bff1 1c3d bede 533a
000000b0: 5754 ea3a 0493 7439 c4d0 e938 43ac ae3d
000000c0: 6049 a939 cc9f 503a 9c7c 1a3a 855d 753a
000000d0: 2f73 dc3c 5f4b 3b3e a190 6439 5d84 003e
000000e0: eb8e c736 5e99 373a bdb3 af38 465d 943d
000000f0: 471b cb3a 62a1 4b3a 38e7 473d b282 853d
00000100: c263 2f36 d162 cc38 1b94 133a fcf0 f43a
00000110: b390 ba3d 1a95 343a 9c85 c63a 63d8 953d
00000120: fd3d 9e39 0400 0000 7e63 5b38 607b fb38
00000130: fd83 3c3a c5db 7338 e30b 013b 7c45 013a
00000140: 5d8e e93d e289 2e3d 80bf 913e cfeb 7e3a
00000150: bd26 e63a ab2a be37 2ae7 a03d 7bc5 273b
00000160: 736a 093e a6be 153e b644 193a 0cc5 173a
00000170: 8954 453b 2d9e 393b 99d5 963d 34d0 1b3a
00000180: 64ac d839 a9c1 333a 1262 5d3a 0749 1839
00000190: b5a2 503a 318b 5e3a f802 013a 7cac 9d3e
000001a0: b817 903e f267 ce39 05f6 7339 1aed 2f3b
000001b0: e2a3 af3d 18fa d63a b0ca 853d 40e6 3d34
000001c0: 1e6b 4c3a 1a89 dc39 2b85 c739 51ae 1c38
000001d0: 7788 7f3d 043f 203b d1a9 3a3b cd09 df3a
000001e0: 9b81 373a 935c 873d 9d99 183a 8190 453b
000001f0: 890f 113d 04de e23a 4733 103d 0c3e 633d
