examples/jet_substructure/input_quants/small_inpq_6_2_ensemble_size1_seed1/best_accuracy.pth (torch, 212403 bytes, 147 tensors)

ensemble.0.input_quant.pre_transforms.0.weight f4 [16]
00000000: 7cb6 9b3e e41e b23e 4558 573f fe81 0840
00000010: 79c6 5a3e 8757 4f3f 3897 b03e f452 ef3e
00000020: c899 873e 0deb 4d3e 6abe 953e 5e27 b93e
00000030: ebe4 993e cb72 1f3e 1735 983f 2189 ad3e
0.30412662 0.34789193 0.84119064 2.132934 0.21364774 0.8099293 0.3449037 0.46742976
0.26484513 0.20109196 0.29246837 0.36162847 0.30057463 0.15571134 1.1891202 0.33893684

ensemble.0.input_quant.pre_transforms.0.bias f4 [16]
00000000: a895 3a3f cfc0 f73c bf03 4cbe 7273 7f3e
00000010: b85c 7ebe 2740 3d3e 26ac 8bbd 13e2 8f3e
00000020: ded8 95be 0231 0ebd 6b45 d13d 2480 0f3e
00000030: df54 dabd 1083 9cbd 440a c03c 132f 02be
0.7288461 0.030243305 -0.19923304 0.24946383 -0.24840057 0.18481503 -0.06819944 0.28102168
-0.2926702 -0.034714706 0.102183186 0.14013726 -0.10660719 -0.07642186 0.023442395 -0.1271327

ensemble.0.input_quant.pre_transforms.0.running_mean f4 [16]
00000000: 8125 f1bb 62cd 3d3b e77c 11bc 5f46 26bc
00000010: c46e 0fbc 94f5 1fbc 481d e83b e42b c13b
00000020: 481d e83b bbd5 d33b 51d6 cc3b ccaf 4f3b
00000030: 721f ed3b afb9 a23b c70f 18bc cde2 9a3b
-0.007359207 0.002896153 -0.008879877 -0.010148614 -0.008754436 -0.00976314 0.0070835687 0.0058951247
0.0070835687 0.0064646876 0.0062511344 0.0031690476 0.0072364146 0.004965983 -0.009281105 0.004726744

ensemble.0.input_quant.pre_transforms.0.running_var f4 [16]
00000000: eba2 7e3f 6a30 803f 4921 7e3f 4730 7d3f
00000010: 6946 7d3f 2b3e 7b3f 5fe2 813f a652 823f
00000020: 5fe2 813f 894b 803f e06b 803f de5b 803f
00000030: 9a5d 803f c8c7 803f c9a8 7e3f 3b53 803f
0.99467343 1.0014775 0.9926954 0.9890179 0.9893556 0.98141736 1.0147208 1.0181472
1.0147208 1.0023052 1.0032921 1.0028036 1.0028565 1.0060968 0.99476296 1.00254

ensemble.0.fc.weight f4 [16, 16]
00000000: 6ada 4a3a 3e2e 3ebe 1405 233e 4f3b 143e
00000010: aa18 2abe 893e 3d3d 13af 5bbd 0702 4d3e
00000020: bd2f a33b 0a51 abbc 8299 38bd 6fe6 c8bd
00000030: b3df 133e ae24 d3bd 45a7 3b3e 74b8 093e
00000040: 759e 2dbe 74e1 203e 6c69 6dbb b90d fd3d
00000050: b4ca c1bd f8bf 0e3d 4405 d03b d921 533c
00000060: c53f 16bd 9913 a9bc 80da d2bd 7312 1d3e
00000070: 268f bc3d d6f2 c2bd d039 e9bc 15f3 38bd
00000080: b068 6fbd bb64 013d 5e1b 463e 34d2 49be
00000090: ba79 38bd c1fb c6be e01b 0e3e 79ac 3ebe
000000a0: 8584 3f3d 88a0 3b3d 3a43 e13d 49c5 2a3d
000000b0: 1cf5 db3c 7dca 473e 4118 05bd 3a4f 1a3e
000000c0: ea53 db3d 55ba 47bd 8aae 47bd 4ad7 cd3d
000000d0: 2456 aebd 9e5f ef3c 44a7 1dbe 8164 093e
000000e0: 91d6 1fbe fe0f 4d3d 2ecc 33be 9178 83be
000000f0: 7c23 04bd b7f1 ccbd 7d0e 0dbd 0f15 193d
00000100: b288 b6bc 0607 1a3e e820 2cbe aaf3 0b3e
00000110: 6c02 1dbe 8317 adbd d988 28bc e171 f3bd
00000120: d7fc bd3d b6d0 443e afc1 86bd 01c4 19bd
00000130: a584 073d 858b c13e 4ac8 4c3e 838f 713d
00000140: 7bd5 4b3d 5c19 443e 25c3 dabd 750c f63d
00000150: 2f5d ebbd c97d 693d b01f b3be f7ba d4bc
00000160: 9620 3a3e f430 3f3e 68b2 25bd 857d c6bd
00000170: 4758 aebc fd23 063e 6e85 4f3d b9f5 8cbd
00000180: c32a b3bd ee31 063e cd9a 07be 5013 a4bd
00000190: 116b f7bc 55f9 3f3e 22e2 1d3e 0a6f 1b3e
000001a0: 7ff9 0abe b5c6 8d3d 378d dfbe 2ffd cb3d
000001b0: 1aeb 073e 69b2 20be 2f0f 26be 581b bc3c
000001c0: aa91 4abe da46 143e dbb2 14be cc3c eebd
000001d0: f170 6a3a cdae e93d d567 333e 83b6 173d
000001e0: a128 c33e befd ac3d 2481 493e ee5b 4abd
000001f0: a5b3 50bd 39e0 7dbd 3869 0bbd 2cd0 2dbe
00000200: ae36 753d 4c66 9d3e c95f d33d 015d 01be
00000210: 7245 3a3e 6e2d 06ba 2dc0 c6bb 7f39 32be
00000220: 63c7 b3bd 29b3 843d d158 c73c 0c40 03be
00000230: 3d76 3e3e 353d ac3d fa91 e23d 8b6e eebd
00000240: 5af2 a5bd 6744 803d 86cd 40be ec60 c03d
00000250: fa9f 293c 6e3b 033e 2fb7 1d3e cd9c 7f3e
00000260: 71e0 d53d 7007 993b 8580 483e e36a b6bc
00000270: 78b4 fcbd 6552 dbbc a6bd 1abe f0fc efbd
00000280: cc7d 333d 33df 1e3e 1263 273e be35 73bf
00000290: 2786 2f3e 5b73 373e ab9b f6bd f14c 7abd
000002a0: 54f0 ba3d c658 a1bd a304 0cbd fecc 2d3e
000002b0: ea22 8fbc 7d9f 3ebd b0fd a83d 4706 493e
000002c0: 670a b1bd 8198 d6bc 2bcd 36be df67 c23c
000002d0: 63b0 a93c c9e0 093e 18d4 27be cb33 febd
000002e0: 33ec 1f3e fa36 b9bd d83c 583c 57b0 303e
000002f0: e919 9bbe f1be 4dbc ce49 42be f09c 28be
00000300: 5834 45be 7ce0 44bc e1d3 1fbe a39b 263e
00000310: 4a5c 32be 9ca0 73bd 461e b03d 2467 adbd
00000320: 2ddd 193e 7829 b33e 3845 453e abd7 e93c
00000330: c050 fa3d 6e26 35be 729a aebd 8cb4 b73d
00000340: 532e 9cbd 8d5f 873d 76fc f7bd 6b23 233d
00000350: 3a07 c93c 8041 e2bd f748 a0bb 9e1c 1f3e
00000360: ddbd 17be 3b28 083d 64fb de3d fa29 3d3e
00000370: 9a1d 3bbe f201 ba3d d79d dabc 6f7b 0c3e
00000380: 9775 35be dce3 edbc f86d c9bc a2af ebbc
00000390: 4372 6c3c 973e 553c 6f68 d93d 18f5 20be
000003a0: 38ce 10be c513 c7bb 97a7 41be 086f 493e
000003b0: 21d5 123e 44b5 b5bd 5b3b 123e 2236 b8bd
000003c0: e348 b4ba 7e6f 2fbe 3fa0 e33b 5960 893d
000003d0: deb6 88be d9a4 e33d a1fe 00bb efad db3d
000003e0: ad0d 4a3e 8a43 0fbe ddb8 0fbe 8ddf 1a3e
000003f0: 0b69 30bd dc7e 13be 4610 da3c 285e 0dbe
0.00077382347 -0.18572327 0.15919906 0.1447575 -0.16610971 0.046202216 -0.05363376 0.20020305
0.004980056 -0.020912666 -0.04506827 -0.09809577 0.14440803 -0.103097305 0.18325527 0.1344927
-0.16954978 0.15711004 -0.0036226166 0.12356133 -0.09462491 0.034851044 0.006348284 0.012886488
-0.03668191 -0.020639228 -0.10295582 0.15339069 0.09206991 -0.095189735 -0.02846995 -0.045153696
-0.058449447 0.031590205 0.19346377 -0.19709092 -0.045037962 -0.38863948 0.13877821 -0.1862048
0.04675724 0.04580739 0.109991506 0.041692052 0.026850276 0.19510837 -0.032493833 0.15069285
0.10709365 -0.048761684 -0.048750438 0.10050829 -0.08512524 0.029220399 -0.15395838 0.13417245
-0.15609194 0.05006408 -0.17558357 -0.25677922 -0.032260403 -0.10007041 -0.034437645 0.0373736
-0.022281978 0.15041742 -0.16809428 0.13667169 -0.15332955 -0.0845175 -0.010286533 -0.11886955
0.09276741 0.19220242 -0.06579911 -0.03754044 0.033085484 0.37801757 0.19998279 0.058974754
0.049764138 0.19150299 -0.10681752 0.12014095 -0.11492383 0.057004724 -0.34985113 -0.025968058
0.18176493 0.18671018 -0.040453345 -0.0969191 -0.021282328 0.13099666 0.050664358 -0.068828054
-0.087483905 0.13104984 -0.13242646 -0.08011496 -0.03020242 0.18747456 0.15418294 0.15179077
-0.13571738 0.06922666 -0.43662426 0.099604 0.13273278 -0.15693058 -0.1621673 0.022962257
-0.19782129 0.14480153 -0.14521353 -0.1163269 0.0008943221 0.11410294 0.17520078 0.03703929
0.38116935 0.08446835 0.1967817 -0.049404077 -0.050952572 -0.061981414 -0.03403589 -0.16973943
0.0598666 0.3074211 0.10321004 -0.12633134 0.18190554 -0.0005118464 -0.0060653896 -0.17404746
-0.087782644 0.064794846 0.024334343 -0.128174 0.18599792 0.08410112 0.11062999 -0.11642178
-0.081028655 0.06263047 -0.18828401 0.093934864 0.010353083 0.1281564 0.1540191 0.24962159
0.104431994 0.004670076 0.19580276 -0.022267764 -0.12339109 -0.026772687 -0.15111408 -0.11718166
0.04382114 0.15514831 0.16346386 -0.9500388 0.17141019 0.17915098 -0.1204141 -0.061108533
0.0912787 -0.0787826 -0.03418411 0.1697273 -0.017472703 -0.04653882 0.08251512 0.19631301
-0.08644562 -0.026195766 -0.17851703 0.02373117 0.02071399 0.13464655 -0.16389501 -0.124122225
0.15617447 -0.09043689 0.0131981 0.17254768 -0.30293205 -0.012557731 -0.18973467 -0.16466117
-0.19258249 -0.012016412 -0.15608169 0.16270308 -0.17418018 -0.05947934 0.08599524 -0.08466938
0.15025778 0.34992576 0.19264686 0.028545221 0.12222433 -0.17690441 -0.08525552 0.089699835
-0.07626023 0.06610022 -0.121087 0.0398287 0.024539579 -0.110476494 -0.0048915106 0.1553826
-0.14818521 0.03324149 0.10887793 0.18473044 -0.18273011 0.09082402 -0.026686592 0.13718961
-0.17720638 -0.029039316 -0.02458857 -0.028770272 0.014431539 0.013015411 0.10615622 -0.15718496
-0.14141166 -0.0060753548 -0.18911587 0.19671261 0.14339115 -0.08872464 0.14280455 -0.089947
-0.0013754632 -0.17132375 0.006946593 0.0670783 -0.26702017 0.111154266 -0.001968302 0.107265346
0.1973178 -0.13990608 -0.14035363 0.1512434 -0.043068927 -0.14403862 0.026619088 -0.13805449

ensemble.0.fc.bias f4 [16]
00000000: 720b 503e 3263 ee3d 1dee 163f af40 883d
00000010: af07 473e 8bfe 983c b770 a93d b3c5 67be
00000020: 96ba 14bd fcd0 70be 77f1 8bbe f2f9 933d
00000030: f605 bdbc e91c 803e f573 003e 8995 823e
0.20316866 0.11640014 0.5895708 0.066529624 0.19436525 0.018676063 0.08273452 -0.2263401
-0.036310755 -0.23517221 -0.2733266 0.07225408 -0.023074131 0.25022057 0.12544234 0.2550471

ensemble.0.fc.mask.mask f4 [16, 16]
00000000: 0000 0000 0000 0000 0000 803f 0000 0000
00000010: 0000 0000 0000 0000 0000 0000 0000 0000
00000020: 0000 0000 0000 0000 0000 0000 0000 0000
00000030: 0000 0000 0000 0000 0000 0000 0000 0000
00000040: 0000 0000 0000 0000 0000 0000 0000 0000
00000050: 0000 0000 0000 0000 0000 0000 0000 0000
00000060: 0000 0000 0000 0000 0000 0000 0000 0000
00000070: 0000 0000 0000 0000 0000 0000 0000 803f
00000080: 0000 0000 0000 0000 0000 0000 0000 0000
00000090: 0000 0000 0000 803f 0000 0000 0000 0000
000000a0: 0000 0000 0000 0000 0000 0000 0000 0000
000000b0: 0000 0000 0000 0000 0000 0000 0000 0000
000000c0: 0000 0000 0000 0000 0000 0000 0000 0000
000000d0: 0000 0000 0000 0000 0000 0000 0000 0000
000000e0: 0000 0000 0000 0000 0000 0000 0000 803f
000000f0: 0000 0000 0000 0000 0000 0000 0000 0000
00000100: 0000 0000 0000 0000 0000 0000 0000 0000
00000110: 0000 0000 0000 0000 0000 0000 0000 0000
00000120: 0000 0000 0000 0000 0000 0000 0000 0000
00000130: 0000 0000 0000 803f 0000 0000 0000 0000
00000140: 0000 0000 0000 0000 0000 0000 0000 0000
00000150: 0000 0000 0000 0000 0000 803f 0000 0000
00000160: 0000 0000 0000 0000 0000 0000 0000 0000
00000170: 0000 0000 0000 0000 0000 0000 0000 0000
00000180: 0000 0000 0000 0000 0000 0000 0000 0000
00000190: 0000 0000 0000 0000 0000 0000 0000 0000
000001a0: 0000 0000 0000 0000 0000 803f 0000 0000
000001b0: 0000 0000 0000 0000 0000 0000 0000 0000
000001c0: 0000 0000 0000 0000 0000 0000 0000 0000
000001d0: 0000 0000 0000 0000 0000 0000 0000 0000
000001e0: 0000 803f 0000 0000 0000 0000 0000 0000
000001f0: 0000 0000 0000 0000 0000 0000 0000 0000
00000200: 0000 0000 0000 803f 0000 0000 0000 0000
00000210: 0000 0000 0000 0000 0000 0000 0000 0000
00000220: 0000 0000 0000 0000 0000 0000 0000 0000
00000230: 0000 0000 0000 0000 0000 0000 0000 0000
00000240: 0000 0000 0000 0000 0000 0000 0000 0000
00000250: 0000 0000 0000 0000 0000 0000 0000 803f
00000260: 0000 0000 0000 0000 0000 0000 0000 0000
00000270: 0000 0000 0000 0000 0000 0000 0000 0000
00000280: 0000 0000 0000 0000 0000 0000 0000 803f
00000290: 0000 0000 0000 0000 0000 0000 0000 0000
000002a0: 0000 0000 0000 0000 0000 0000 0000 0000
000002b0: 0000 0000 0000 0000 0000 0000 0000 0000
000002c0: 0000 0000 0000 0000 0000 0000 0000 0000
000002d0: 0000 0000 0000 0000 0000 0000 0000 0000
000002e0: 0000 0000 0000 0000 0000 0000 0000 0000
000002f0: 0000 803f 0000 0000 0000 0000 0000 0000
00000300: 0000 0000 0000 0000 0000 0000 0000 0000
00000310: 0000 0000 0000 0000 0000 0000 0000 0000
00000320: 0000 0000 0000 803f 0000 0000 0000 0000
00000330: 0000 0000 0000 0000 0000 0000 0000 0000
00000340: 0000 0000 0000 0000 0000 0000 0000 0000
00000350: 0000 0000 0000 0000 0000 0000 0000 0000
00000360: 0000 0000 0000 0000 0000 0000 0000 0000
00000370: 0000 0000 0000 0000 0000 803f 0000 0000
00000380: 0000 803f 0000 0000 0000 0000 0000 0000
00000390: 0000 0000 0000 0000 0000 0000 0000 0000
000003a0: 0000 0000 0000 0000 0000 0000 0000 0000
000003b0: 0000 0000 0000 0000 0000 0000 0000 0000
000003c0: 0000 0000 0000 0000 0000 0000 0000 0000
000003d0: 0000 803f 0000 0000 0000 0000 0000 0000
000003e0: 0000 0000 0000 0000 0000 0000 0000 0000
000003f0: 0000 0000 0000 0000 0000 0000 0000 0000
0.0 0.0 1.0 0.0 0.0 0.0 0.0 0.0
0.0 0.0 0.0 0.0 0.0 0.0 0.0 0.0
0.0 0.0 0.0 0.0 0.0 0.0 0.0 0.0
0.0 0.0 0.0 0.0 0.0 0.0 0.0 1.0
0.0 0.0 0.0 0.0 0.0 1.0 0.0 0.0
0.0 0.0 0.0 0.0 0.0 0.0 0.0 0.0
0.0 0.0 0.0 0.0 0.0 0.0 0.0 0.0
0.0 0.0 0.0 1.0 0.0 0.0 0.0 0.0
0.0 0.0 0.0 0.0 0.0 0.0 0.0 0.0
0.0 0.0 0.0 0.0 0.0 1.0 0.0 0.0
0.0 0.0 0.0 0.0 0.0 0.0 1.0 0.0
0.0 0.0 0.0 0.0 0.0 0.0 0.0 0.0
0.0 0.0 0.0 0.0 0.0 0.0 0.0 0.0
0.0 0.0 1.0 0.0 0.0 0.0 0.0 0.0
0.0 0.0 0.0 0.0 0.0 0.0 0.0 0.0
1.0 0.0 0.0 0.0 0.0 0.0 0.0 0.0
0.0 1.0 0.0 0.0 0.0 0.0 0.0 0.0
0.0 0.0 0.0 0.0 0.0 0.0 0.0 0.0
0.0 0.0 0.0 0.0 0.0 0.0 0.0 1.0
0.0 0.0 0.0 0.0 0.0 0.0 0.0 0.0
0.0 0.0 0.0 1.0 0.0 0.0 0.0 0.0
0.0 0.0 0.0 0.0 0.0 0.0 0.0 0.0
0.0 0.0 0.0 0.0 0.0 0.0 0.0 0.0
0.0 0.0 0.0 0.0 1.0 0.0 0.0 0.0
0.0 0.0 0.0 0.0 0.0 0.0 0.0 0.0
0.0 1.0 0.0 0.0 0.0 0.0 0.0 0.0
0.0 0.0 0.0 0.0 0.0 0.0 0.0 0.0
0.0 0.0 0.0 0.0 0.0 0.0 1.0 0.0
1.0 0.0 0.0 0.0 0.0 0.0 0.0 0.0
0.0 0.0 0.0 0.0 0.0 0.0 0.0 0.0
0.0 0.0 0.0 0.0 1.0 0.0 0.0 0.0
0.0 0.0 0.0 0.0 0.0 0.0 0.0 0.0

ensemble.1.module_list.0.input_quant.pre_transforms.0.weight f4 [16]
00000000: 71c1 123f 3997 003f ca60 da3e ad1a f33e
00000010: 12f7 f13e af68 093f 261c d53e 5c45 c73e
00000020: 9135 ca3e 4a49 f53e ef46 2a40 7599 db3e
00000030: e05b a73e 1150 ec3e f7ec 823e 12f6 b63e
0.5732642 0.5023075 0.4265197 0.4748129 0.47258812 0.5367536 0.41623038 0.38920105
0.39493993 0.47907478 2.6605794 0.42890516 0.32687283 0.46154836 0.25571415 0.35734612

ensemble.1.module_list.0.input_quant.pre_transforms.0.bias f4 [16]
00000000: c7e0 3ebe c476 c33e e14e 873e da12 d73d
00000010: 6c03 3f3e da2d d93e c0fb 9d3d 2dd7 90be
00000020: 86f0 943e 0825 6a3e f552 563f 2a57 a93e
00000030: 3c79 fa3d b042 f23d 6aab 18bf 4380 003f
-0.18640433 0.38176548 0.26427367 0.105016425 0.18653649 0.42417794 0.07714033 -0.28289166
0.29089755 0.22865689 0.8372033 0.33074313 0.12230155 0.11829126 -0.5963656 0.5019571

ensemble.1.module_list.0.input_quant.pre_transforms.0.running_mean f4 [16]
00000000: 6783 3b3e a7bf fc3d fc51 1c3f 2063 483d
00000010: 87a5 243e 9ad0 3b3d ad5e 553d 4204 a5be
00000020: 68cf 97bc dffc 4ebe 66b6 3fbe 0962 c83d
00000030: c0f2 19bd f0a6 7f3e 0bd6 663d e488 a33e
0.18311845 0.12341242 0.610626 0.048922658 0.16078769 0.045853235 0.052092243 -0.3222981
-0.018531516 -0.2021365 -0.18721923 0.09784324 -0.03758502 0.24966025 0.05635647 0.31940377

ensemble.1.module_list.0.input_quant.pre_transforms.0.running_var f4 [16]
00000000: 9cf5 203b 2317 1339 a2a0 393c 26bf a13b
00000010: 53f2 603b 3954 083c d659 493c fcda b73b
00000020: f03a af3b c8b1 883b 0287 d73d cbdc be3b
00000030: bc5b 9c3b bf79 be38 25b0 d638 f833 313b
0.0024560457 0.00014027632 0.011329802 0.0049361167 0.0034324124 0.0083208615 0.012289485 0.005610822
0.005347602 0.004171584 0.105237976 0.0058246604 0.004771678 9.082583e-05 0.00010237125 0.0027039032

ensemble.1.module_list.0.fc.weight f4 [64, 16]
00000000: 8f56 99bc 2d2d 38be a583 41be 7877 40be
00000010: 1043 453e 7fcf 1a3e 61c2 203e a548 4ebd
00000020: 32d7 303e fcd8 58bd cba8 0e3e 0977 d5bb
00000030: 2e60 c1bd c1b9 64bd 497e 2fbd f4ad 10bf
00000040: 1a52 753d a4a1 79bd 99a5 bc3d 3be4 023e
00000050: 218e 02bd ab8f a9bc a427 243d 0ae0 093e
00000060: 3376 04be 902c 90bc 01e9 88bd f502 343e
00000070: 6a94 613c 4718 f9bf 6aa4 b93c f764 363e
00000080: 42e0 0a3e 5c2a 40be a456 10be 802f 473e
00000090: e0ef ee3c 5504 30be 2133 81bd 57b0 b33d
000000a0: d3f5 2bbd 6fdf 1dbe 2152 fdbd 6d7f d4bd
000000b0: 7e8c 00bc d6f9 a03d c737 c53d c19c c7bd
000000c0: 94c9 09bd e0c6 1ebe 0545 1b3e ceda 4c3e
000000d0: fb95 00bc 7d0a e63c 4341 2fbd 3cdf a3bb
000000e0: 3457 943d e414 32be 17ce 4b3c 45f8 26be
000000f0: 6c3f 4dbe 9843 23bf beb6 82bd adef 01be
00000100: cf35 083d 03d6 053c 9722 fa3c 2f52 e5bd
00000110: a73f 49be 66f3 743e 5398 a7bd 6561 8abd
00000120: 183a 173e bf13 663e 208a bb3d 520c 65bd
00000130: eb14 23be f6d9 233d e50d e7be d55b cb3c
00000140: d0dd 773e bacd 1a3e b2ca 0bbe 5c63 323e
00000150: 4313 113e 2733 1b3e 66d5 8f3e 531e 3e3d
00000160: 3b32 20bc ceb6 51bb 7172 a3bd aab7 3cbe
00000170: 9133 3b3e f94a 2a3c 2f56 c13d 6502 dcbe
00000180: 4da4 6b3d 35b4 fcbd 0bc4 1fbe d7b8 1c3e
00000190: 1bb6 9b3d 0aa7 ca3d f7a7 4bbe e0c3 5d3c
000001a0: 1982 3fbe a8ef bbbc 1bd0 2dbc fc71 10be
000001b0: 7529 4bbe fe1a ad3a 6bbb 383e d92e 393e
000001c0: 9724 603f acf3 11bd 3dec 2bbe 4467 20be
000001d0: 670c 61bd 997e 473e d193 0f3e a517 3e3c
000001e0: 255d 413e 607c 123d 49cd 253e 6ad2 bb3d
000001f0: 56aa 403e 7de5 0c3d c329 26be 4bb2 30be
00000200: 07e5 d3bd 08a5 293e c15e 3a3f 77de 6f3d
00000210: f575 1cbe d38f 14be 2495 273e ce90 aabc
00000220: 4da8 bd3d 0aec cabc f439 45bd 1a51 463b
00000230: 0117 ac3d 5631 9e3d fc46 1dbe 59f7 0fbb
00000240: 8a57 cbbd 1cd5 0a3e 5b30 cb3d cd42 e13d
00000250: 4ec4 3a3e d1c1 c93d ad1e 4dbe 664b 4f3d
00000260: 3ff4 0cbe a00e db3c 656a 0c3b 307d 4b3e
00000270: 1132 0cbe fa4c 49be 2dcb 5bbd eb64 043d
00000280: 616c 163e cc92 263e bd56 1e3e f76f 813d
00000290: d360 6abd efcc 2dbd 9b64 e0bd c9a4 203d
000002a0: 20d9 0ebe 6e4a 8d3d 3ba8 043e 0752 2e3e
000002b0: 474f 4abe 4896 283e 79d0 00be 5712 86bc
000002c0: ee70 3b3e ec2f de3d a12d 82bd 7c1c f23d
000002d0: 37db 47be fb8d 203e ee75 473e 902e 15bc
000002e0: 152e 073d 7ce4 40bd f9d4 01be 50f7 b9bd
000002f0: b0fb 59bc f10c 28be 9312 26be b261 b43c
00000300: e395 05be 942c dfbd 1e00 e3ba c34e d8bd
00000310: b212 3e3e 4b69 94bd 27ee e3bd bd83 5abd
00000320: 6d96 27be 1944 d33d e085 303e 476a ecbd
00000330: c4e2 88bc ae03 823f 239d 14be b6ab 82bc
00000340: d661 27be 09e4 36be 2055 9f39 d70a eabd
00000350: 6408 de3d 4bd3 7dbd 2be2 debe 7dc6 2fbe
00000360: d9e4 a83d a846 3e3e 5b89 f6bc e438 fdbd
00000370: 8176 48be 7edf 443e 2937 ad3d 5c2f 9b3e
00000380: 0ac1 0b3d 410d ce3d 24e1 913d ecb3 c83d
00000390: 2143 003e 7e81 e83c e2e9 303e da1d ff3d
000003a0: 4b44 c9bb 107e b7bd 4ea3 593c cf0a 203e
000003b0: dff0 013e 0680 a6bd 29aa 2bbd 3c32 a33d
000003c0: 5ac0 9a3d 15ea 2c3f ed8b c73d 85cf 823d
000003d0: 15cd 3d3d f127 41be 6c5f 97bd 18fa ad3c
000003e0: 2fe1 0ebe 78ff 33be ac78 0a3e 0199 8b3d
000003f0: 6fd8 25be d5b0 02be ec7a 393e 1b20 ec3d
-0.018718032 -0.17985983 -0.18897875 -0.18795574 0.19263864 0.15118216 0.1569915 -0.050362248
0.1726959 -0.052941307 0.13931577 -0.0065144342 -0.09442173 -0.05584121 -0.042845044 -0.5651543
0.05989275 -0.06094517 0.09211273 0.12782376 -0.031873826 -0.020698389 0.040076867 0.1346437
-0.12935714 -0.017599374 -0.06685067 0.17579253 0.013768295 -1.9460534 0.022661407 0.17811953
0.1356211 -0.18766159 -0.14095551 0.19451714 0.029167116 -0.17189153 -0.0630858 0.087738685
-0.041982483 -0.15417264 -0.123691805 -0.10375867 -0.007845996 0.078601524 0.09629779 -0.09746695
-0.033639506 -0.15505552 0.15163048 0.20005342 -0.007848258 0.028081173 -0.042786848 -0.005000977
0.07243195 -0.17390782 0.012439272 -0.16305645 -0.20043725 -0.63775015 -0.063825116 -0.12689085
0.03325444 0.0081687 0.030534072 -0.11197316 -0.19653188 0.23920974 -0.081833504 -0.06756858
0.14768255 0.2246847 0.09157205 -0.055919953 -0.15925948 0.040002786 -0.45127788 0.024824062
0.24205709 0.15117541 -0.13651541 0.17420715 0.14167504 0.15156232 0.28092498 0.04641564
-0.009777601 -0.003199983 -0.07980812 -0.18429437 0.1828139 0.010393851 0.09440266 -0.42970577
0.057529736 -0.12339059 -0.15602128 0.15304886 0.07603093 0.098951414 -0.19888292 0.01353547
-0.18701972 -0.022941425 -0.010608698 -0.14105982 -0.19840033 0.0013206897 0.18040244 0.18084277
0.8755583 -0.035632774 -0.16789337 -0.15664393 -0.05494347 0.19481887 0.14021231 0.011602317
0.18883188 0.035763144 0.16191591 0.09170993 0.18814978 0.034398545 -0.16226868 -0.17255513
-0.10346418 0.1656686 0.72800833 0.05856177 -0.15279372 -0.1450799 0.16365486 -0.020821001
0.092606165 -0.024770755 -0.04815097 0.0030260743 0.08402825 0.07724254 -0.1535911 -0.00219675
-0.09928806 0.13557857 0.099213324 0.10999069 0.18238947 0.09851421 -0.20031233 0.050609015
-0.13765047 0.026740372 0.002142572 0.19871974 -0.13690974 -0.1965827 -0.05366056 0.032322805
0.14689781 0.16266936 0.15462776 0.06320184 -0.057221245 -0.042431768 -0.10956689 0.03921965
-0.13950014 0.06898962 0.129548 0.17023478 -0.19756804 0.16463578 -0.12579526 -0.016366167
0.18304798 0.10848984 -0.06356359 0.11821839 -0.19517218 0.15679161 0.1947858 -0.00910534
0.03300293 -0.0470929 -0.12678899 -0.09080374 -0.013304636 -0.16411187 -0.16218023 0.022019241
-0.13045458 -0.108971745 -0.001731876 -0.105618976 0.18561819 -0.072466455 -0.11129408 -0.05334829
-0.16365977 0.10315723 0.1723857 -0.11543708 -0.016709693 1.0157373 -0.14513068 -0.015951019
-0.16345915 -0.17860426 0.00030390266 -0.11427849 0.10841444 -0.061969083 -0.43531927 -0.17165561
0.08246774 0.1858164 -0.030094793 -0.12364367 -0.19576456 0.1922588 0.084577866 0.3030957
0.034119643 0.10061122 0.0712302 0.097999424 0.12525608 0.02838206 0.17276719 0.124568656
-0.0061421744 -0.089595914 0.013283564 0.15629123 0.12689541 -0.08129887 -0.041910324 0.07968566
0.075562194 0.6754468 0.097434856 0.063872375 0.04633816 -0.18862893 -0.07391247 0.021237418
-0.13953088 -0.17577922 0.13522595 0.068162926 -0.16195844 -0.12762769 0.18113297 0.11529561

ensemble.1.module_list.0.fc.bias f4 [64]
00000000: 8e4a 0fbe 3047 99be 7007 483e f281 d93d
00000010: b8bd 243e aea9 d53d 80e9 d7bc 73b5 0cbc
00000020: e98c b83d 34c5 88bd ec7d 13be bc18 553e
00000030: ffe3 9c3c 3950 b13e 106e efbd 7104 2fbe
00000040: 5b02 3dbe edf8 1cbc d0a0 84bc 4f40 df3e
00000050: 88a9 00bd 1131 b83e 1a49 08be bd75 003e
00000060: 879b a5bd 14d9 cb3d 1e01 833e 0ae4 2cbe
00000070: 7299 9b3d bbfc bcbe bfaf 88bd e077 cebd
00000080: dcab dbbc ec86 b5be c0de 71bd a88e 71be
00000090: 48ff 163d a505 583d a17e b83a a4c3 613e
000000a0: cdfd b93d 2b14 d8bd 1360 6fbd d826 f8bd
000000b0: c870 02be 0cbe 063d 198f be3d d42d 5f3e
000000c0: 002f ef3b edaf fbbd 2c20 5c3e 38c2 803d
000000d0: 40f3 5cbd 642b 1a3e 47b6 893e 4ade abbe
000000e0: 9047 5bbe 18fa 37be 6026 5cbe e89c 99bd
000000f0: d86c bb3d bfe8 99be 6634 7abe bbea 96bc
-0.13993284 -0.29937124 0.19534087 0.10620488 0.16087997 0.104327545 -0.026356459 -0.008588183
0.090112515 -0.066782385 -0.14403504 0.20810217 0.019151686 0.34631518 -0.11690915 -0.17091538
-0.1845793 -0.009580833 -0.016189963 0.4360375 -0.031411678 0.35974935 -0.13309136 0.12544914
-0.08086305 0.09953514 0.2558679 -0.16883865 0.07597627 -0.36911568 -0.06674146 -0.10081458
-0.026815347 -0.354545 -0.05905032 -0.23589575 0.03686455 0.052739758 0.0014075824 0.22047287
0.09081612 -0.10550722 -0.058441233 -0.12116784 -0.12738335 0.032896087 0.093046375 0.21794826
0.007299304 -0.122894146 0.21496648 0.06287044 -0.05394292 0.15055615 0.2689688 -0.3356803
-0.21414018 -0.17966497 -0.21499014 -0.075006306 0.0915162 -0.30060384 -0.24434051 -0.018422475

ensemble.1.module_list.0.fc.mask.mask f4 [64, 16]
00000000: 0000 0000 0000 0000 0000 0000 0000 0000
00000010: 0000 0000 0000 803f 0000 803f 0000 0000
00000020: 0000 0000 0000 0000 0000 0000 0000 0000
00000030: 0000 0000 0000 0000 0000 0000 0000 803f
00000040: 0000 0000 0000 0000 0000 0000 0000 0000
00000050: 0000 0000 0000 803f 0000 0000 0000 0000
00000060: 0000 0000 0000 0000 0000 0000 0000 0000
00000070: 0000 803f 0000 803f 0000 0000 0000 0000
00000080: 0000 0000 0000 0000 0000 803f 0000 0000
00000090: 0000 0000 0000 0000 0000 0000 0000 0000
000000a0: 0000 0000 0000 0000 0000 0000 0000 803f
000000b0: 0000 803f 0000 0000 0000 0000 0000 0000
000000c0: 0000 0000 0000 0000 0000 0000 0000 0000
000000d0: 0000 803f 0000 803f 0000 0000 0000 0000
000000e0: 0000 0000 0000 0000 0000 0000 0000 0000
000000f0: 0000 0000 0000 803f 0000 0000 0000 0000
00000100: 0000 0000 0000 0000 0000 0000 0000 0000
00000110: 0000 0000 0000 803f 0000 0000 0000 0000
00000120: 0000 0000 0000 803f 0000 0000 0000 0000
00000130: 0000 0000 0000 0000 0000 803f 0000 0000
00000140: 0000 803f 0000 0000 0000 0000 0000 0000
00000150: 0000 0000 0000 0000 0000 803f 0000 0000
00000160: 0000 0000 0000 0000 0000 0000 0000 0000
00000170: 0000 0000 0000 0000 0000 0000 0000 803f
00000180: 0000 0000 0000 0000 0000 0000 0000 0000
00000190: 0000 0000 0000 0000 0000 0000 0000 803f
000001a0: 0000 803f 0000 0000 0000 0000 0000 0000
000001b0: 0000 0000 0000 0000 0000 803f 0000 0000
000001c0: 0000 803f 0000 0000 0000 0000 0000 0000
000001d0: 0000 0000 0000 0000 0000 803f 0000 0000
000001e0: 0000 0000 0000 0000 0000 0000 0000 803f
000001f0: 0000 0000 0000 0000 0000 0000 0000 0000
00000200: 0000 0000 0000 0000 0000 803f 0000 0000
00000210: 0000 0000 0000 803f 0000 0000 0000 0000
00000220: 0000 803f 0000 0000 0000 0000 0000 0000
00000230: 0000 0000 0000 0000 0000 0000 0000 0000
00000240: 0000 0000 0000 0000 0000 803f 0000 0000
00000250: 0000 0000 0000 0000 0000 0000 0000 803f
00000260: 0000 0000 0000 0000 0000 0000 0000 0000
00000270: 0000 0000 0000 0000 0000 0000 0000 803f
00000280: 0000 0000 0000 0000 0000 0000 0000 0000
00000290: 0000 803f 0000 0000 0000 0000 0000 803f
000002a0: 0000 0000 0000 0000 0000 0000 0000 0000
000002b0: 0000 0000 0000 0000 0000 0000 0000 803f
000002c0: 0000 0000 0000 0000 0000 0000 0000 0000
000002d0: 0000 0000 0000 0000 0000 0000 0000 0000
000002e0: 0000 803f 0000 0000 0000 803f 0000 0000
000002f0: 0000 803f 0000 0000 0000 0000 0000 0000
00000300: 0000 0000 0000 0000 0000 0000 0000 0000
00000310: 0000 0000 0000 0000 0000 0000 0000 0000
00000320: 0000 0000 0000 0000 0000 0000 0000 0000
00000330: 0000 803f 0000 803f 0000 0000 0000 803f
00000340: 0000 0000 0000 0000 0000 0000 0000 0000
00000350: 0000 0000 0000 0000 0000 803f 0000 803f
00000360: 0000 0000 0000 0000 0000 0000 0000 0000
00000370: 0000 0000 0000 0000 0000 0000 0000 803f
00000380: 0000 0000 0000 0000 0000 0000 0000 0000
00000390: 0000 803f 0000 0000 0000 0000 0000 0000
000003a0: 0000 0000 0000 803f 0000 0000 0000 0000
000003b0: 0000 803f 0000 0000 0000 0000 0000 0000
000003c0: 0000 0000 0000 803f 0000 0000 0000 0000
000003d0: 0000 0000 0000 0000 0000 0000 0000 0000
000003e0: 0000 0000 0000 0000 0000 0000 0000 0000
000003f0: 0000 0000 0000 803f 0000 803f 0000 0000
0.0 0.0 0.0 0.0 0.0 1.0 1.0 0.0
0.0 0.0 0.0 0.0 0.0 0.0 0.0 1.0
0.0 0.0 0.0 0.0 0.0 1.0 0.0 0.0
0.0 0.0 0.0 0.0 1.0 1.0 0.0 0.0
0.0 0.0 1.0 0.0 0.0 0.0 0.0 0.0
0.0 0.0 0.0 1.0 1.0 0.0 0.0 0.0
0.0 0.0 0.0 0.0 1.0 1.0 0.0 0.0
0.0 0.0 0.0 0.0 0.0 1.0 0.0 0.0
0.0 0.0 0.0 0.0 0.0 1.0 0.0 0.0
0.0 1.0 0.0 0.0 0.0 0.0 1.0 0.0
1.0 0.0 0.0 0.0 0.0 0.0 1.0 0.0
0.0 0.0 0.0 0.0 0.0 0.0 0.0 1.0
0.0 0.0 0.0 0.0 0.0 0.0 0.0 1.0
1.0 0.0 0.0 0.0 0.0 0.0 1.0 0.0
1.0 0.0 0.0 0.0 0.0 0.0 1.0 0.0
0.0 0.0 0.0 1.0 0.0 0.0 0.0 0.0
0.0 0.0 1.0 0.0 0.0 1.0 0.0 0.0
1.0 0.0 0.0 0.0 0.0 0.0 0.0 0.0
0.0 0.0 1.0 0.0 0.0 0.0 0.0 1.0
0.0 0.0 0.0 0.0 0.0 0.0 0.0 1.0
0.0 0.0 0.0 0.0 1.0 0.0 0.0 1.0
0.0 0.0 0.0 0.0 0.0 0.0 0.0 1.0
0.0 0.0 0.0 0.0 0.0 0.0 0.0 0.0
1.0 0.0 1.0 0.0 1.0 0.0 0.0 0.0
0.0 0.0 0.0 0.0 0.0 0.0 0.0 0.0
0.0 0.0 0.0 0.0 1.0 1.0 0.0 1.0
0.0 0.0 0.0 0.0 0.0 0.0 1.0 1.0
0.0 0.0 0.0 0.0 0.0 0.0 0.0 1.0
0.0 0.0 0.0 0.0 1.0 0.0 0.0 0.0
0.0 1.0 0.0 0.0 1.0 0.0 0.0 0.0
0.0 1.0 0.0 0.0 0.0 0.0 0.0 0.0
0.0 0.0 0.0 0.0 0.0 1.0 1.0 0.0

ensemble.1.module_list.0.output_quant.pre_transforms.0.weight f4 [64]
00000000: 0ce2 443f 5aeb c93f fd49 4d3f 291e f13f
00000010: 53d8 843e ccaf 653f fd49 4d3f cd56 113f
00000020: 3dd2 ea3e fd49 4d3f fd49 4d3f fd49 4d3f
00000030: 536b 913f 31ac 473e fd49 4d3f c9c3 e53e
00000040: cb9c 533f 399c 283f 3cec 9f3f 4df7 9f3e
00000050: fd49 4d3f e88b 403e fd49 4d3f c779 fe3e
00000060: 94f4 5a3f 3c00 823e a8a1 f93e 1de7 213e
00000070: 3c43 fb3e af02 a73f 9293 263e 7ca5 6c3e
00000080: 00e8 773f f5fe a43f d8b5 933e fd49 4d3f
00000090: 957d 723f 591f 423e c57d d43f 02cf 233f
000000a0: 7bd8 853e b7c0 983e c59c 013f af98 5e3e
000000b0: 4c4f 063f 8794 813e ed4d a63f fd49 4d3f
000000c0: fd49 4d3f 0827 713f fd49 4d3f fd49 4d3f
000000d0: fd49 4d3f 6833 043f 2d19 643f ae21 023f
000000e0: 7f2c f93e b050 f83d fd49 4d3f fd49 4d3f
000000f0: fd49 4d3f ed45 e63e fd49 4d3f 7810 693f
0.7690742 1.5774949 0.8019102 1.8837329 0.25946292 0.8972137 0.8019102 0.5677307
0.45863524 0.8019102 0.8019102 0.8019102 1.1360878 0.1949928 0.8019102 0.44875935
0.8266112 0.65863377 1.2493968 0.31243363 0.8019102 0.1880337 0.8019102 0.49702284
0.85529447 0.25390804 0.48756146 0.15810819 0.49074733 1.3047694 0.16267231 0.23110002
0.9683838 1.2890307 0.28849673 0.8019102 0.9472287 0.1895727 1.6600882 0.63987744
0.26141724 0.2983453 0.50629836 0.21737932 0.5246475 0.2530863 1.2992531 0.8019102
0.8019102 0.9420018 0.8019102 0.8019102 0.8019102 0.5164094 0.89100915 0.5083264
0.4866676 0.12124765 0.8019102 0.8019102 0.8019102 0.44975224 0.8019102 0.91040754

ensemble.1.module_list.0.output_quant.pre_transforms.0.bias f4 [64]
00000000: 9d31 703f d90e 0ebf 0000 0000 e7e0 b03e
00000010: fb9a 843f 53f1 22bf 0000 0000 f14e 26bf
00000020: f0c2 a7bc 0000 0000 0000 0000 0000 0000
00000030: 2128 1abf 3202 473f 0000 0000 9aaa 723d
00000040: 6bfa 6e3f 32da 923d afe4 acbe b629 8abe
00000050: 0000 0000 f43b 0a3e 0000 0000 27ba 23be
00000060: 3f51 27bf 25a9 8d3d efd3 f6be 60a6 e73d
00000070: f9f9 6fbe 97ae 3e3f 1979 2f3e ae3a dbbc
00000080: 0ce7 85bf 80d6 a8bd 92c7 81be 0000 0000
00000090: 87e6 3a3e 6805 0d3e faf0 70be 6277 923f
000000a0: ec44 f33d d93b 163f ad4d 0fbf 1fa6 a03d
000000b0: ae40 1e3f 7c11 a33e 08c9 093f 0000 0000
000000c0: 0000 0000 6dc0 a83b 0000 0000 0000 0000
000000d0: 0000 0000 c861 153f 5965 703f 7873 173f
000000e0: 1128 3d3e bcb5 193e 0000 0000 0000 0000
000000f0: 0000 0000 d2dd 5abe 0000 0000 39db 71bf
0.93825704 -0.55491406 0.0 0.34546587 1.0359796 -0.6364948 0.0 -0.64964205
-0.020478696 0.0 0.0 0.0 -0.6021748 0.77737725 0.0 0.05924473
0.9335086 0.07170524 -0.33768222 -0.26984948 0.0 0.13499433 0.0 -0.1598898
-0.65358347 0.069170274 -0.48208568 0.113110304 -0.23435201 0.7448515 0.17136039 -0.02676138
-1.0461135 -0.08244038 -0.25347573 0.0 0.18252002 0.13771594 -0.23529425 1.1442683
0.1187838 0.5868507 -0.559779 0.07844185 0.61817443 0.31849277 0.53822374 0.0
0.0 0.005149892 0.0 0.0 0.0 0.5835233 0.93904644 0.59160566
0.18472315 0.15010732 0.0 0.0 0.0 -0.2137368 0.0 -0.9447513

ensemble.1.module_list.0.output_quant.pre_transforms.0.running_mean f4 [64]
00000000: ea5a 82be ce96 a53d 1c86 533e 12cb 6e3e
00000010: 6690 db3e 094d ddbd cb47 13be d963 b9be
00000020: bfc2 753d 93c0 babd d72b 20be 11f3 5d3e
00000030: ea05 38be 0320 133f 21cb 1ebe a377 7fbe
00000040: 455a 30be bbde 82be 8ff2 bdbd d351 96bd
00000050: fff8 45bd 5144 0a3f a906 0dbe eac6 be3b
00000060: 1132 bcbc 8e37 f43d 24bd 813e a147 adbd
00000070: b569 ebbc e02e e5be ffcd 97be 33e3 50be
00000080: 2975 ccbe db91 043d 8ef0 6a3d 9b12 67be
00000090: 511e 3b3d 99e8 7fbd bcae 90bc cbcb bd3e
000000a0: 85f4 323e 6751 063e 3f02 b2bd 8810 66be
000000b0: 95ca e0bd 3ac8 5cba 95c2 be3d 7b2b 5e3e
000000c0: 5ae9 0d3b 3a57 36be 64ac 3f3e 86cf 393b
000000d0: ed90 37bd df7c 22be a5d6 e43e f2e2 9cbe
000000e0: 4cec 4bbe e159 51be bd54 75be 9af3 a7bd
000000f0: f6d5 ab3d 8896 a9be d0b5 98be e288 c1be
-0.25459987 0.08085404 0.20656627 0.23319653 0.42883605 -0.10805709 -0.14382856 -0.3620899
0.060000177 -0.09118762 -0.15641724 0.21674754 -0.17971006 0.5747072 -0.15507175 -0.24947982
-0.17221935 -0.25560555 -0.0927478 -0.073398255 -0.048333164 0.5401049 -0.13772072 0.0058220522
-0.022973092 0.11924659 0.25339615 -0.08460928 -0.028736928 -0.44762325 -0.2964935 -0.2039917
-0.39933136 0.03236566 0.057358317 -0.22565691 0.04568321 -0.06247768 -0.017661445 0.37069544
0.1747609 0.1311699 -0.08691835 -0.22467244 -0.109761395 -0.000842217 0.09314457 0.21696274
0.002165398 -0.17806712 0.18718106 0.0028352453 -0.044815946 -0.15867947 0.4469501 -0.30641896
-0.19914359 -0.20444442 -0.23958106 -0.0820076 0.08390419 -0.3312266 -0.29826212 -0.37799746

ensemble.1.module_list.0.output_quant.pre_transforms.0.running_var f4 [64]
00000000: fd0c 023d 8827 3e3f f9ef 9f3b 9893 a93d
00000010: 1488 123c 19ee 503d 51dc 9c3b dcf5 063e
00000020: a363 9d3d aeae 1e3b 6b90 ef39 3322 933b
00000030: 4a7a 4c3e 0d9b 033d 141f 6e3b 8e9b 6f3d
00000040: 2efe 813e 9535 0e3d e6f3 4d3e a026 603c
00000050: 8e18 e13a 41d1 f13c 40f0 e53a 8e5f bb3c
00000060: ef47 533d d314 f13c 33d9 8e3d 220a b43c
00000070: 3bfa ec3c 90f6 bf3c 9361 443d 1026 153d
00000080: 9ece 373e 3b21 303e 7054 013d cfd3 483a
00000090: a8b5 c03d 431f 9e3d f774 8e3d beb9 0e3d
000000a0: da50 883d d147 323d 83ee a73d d278 793d
000000b0: d715 c83d e4cf 993c 482d 0e3d e108 c73b
000000c0: 2454 203c 0678 3d3e 9f42 e839 c586 3e3b
000000d0: 56f0 153c b1ed ea3e bb18 d53c f140 113d
000000e0: 0f19 7b3d e1e0 1a3d a7e7 f33b 5b56 c13c
000000f0: 8307 ea3b 1498 a13d 6466 893b f5b6 a33e
0.031750668 0.7427907 0.004880902 0.082801044 0.008943576 0.051008318 0.004787006 0.13179725
0.0768502 0.0024213004 0.00045693232 0.004490161 0.19968525 0.03213029 0.0036334442 0.058497958
0.25389236 0.03471907 0.20112571 0.013681084 0.0017173456 0.029518725 0.0017542914 0.022872712
0.051582273 0.029428875 0.06975021 0.021977488 0.028927913 0.023433 0.047944617 0.036413252
0.17949912 0.17200176 0.031574667 0.00076609565 0.09409648 0.077208064 0.06955903 0.034845106
0.06656046 0.04352552 0.081997894 0.06090624 0.097697906 0.018775888 0.034711152 0.0060740565
0.009785686 0.18502817 0.00044300125 0.0029072028 0.009151539 0.4588447 0.026012769 0.035462324
0.061303195 0.037812117 0.0074433866 0.023600748 0.0071420087 0.07890335 0.004193114 0.31975523

ensemble.1.module_list.1.input_quant.pre_transforms.0.weight f4 [64]
00000000: 0ce2 443f 5aeb c93f fd49 4d3f 291e f13f
00000010: 53d8 843e ccaf 653f fd49 4d3f cd56 113f
00000020: 3dd2 ea3e fd49 4d3f fd49 4d3f fd49 4d3f
00000030: 536b 913f 31ac 473e fd49 4d3f c9c3 e53e
00000040: cb9c 533f 399c 283f 3cec 9f3f 4df7 9f3e
00000050: fd49 4d3f e88b 403e fd49 4d3f c779 fe3e
00000060: 94f4 5a3f 3c00 823e a8a1 f93e 1de7 213e
00000070: 3c43 fb3e af02 a73f 9293 263e 7ca5 6c3e
00000080: 00e8 773f f5fe a43f d8b5 933e fd49 4d3f
00000090: 957d 723f 591f 423e c57d d43f 02cf 233f
000000a0: 7bd8 853e b7c0 983e c59c 013f af98 5e3e
000000b0: 4c4f 063f 8794 813e ed4d a63f fd49 4d3f
000000c0: fd49 4d3f 0827 713f fd49 4d3f fd49 4d3f
000000d0: fd49 4d3f 6833 043f 2d19 643f ae21 023f
000000e0: 7f2c f93e b050 f83d fd49 4d3f fd49 4d3f
000000f0: fd49 4d3f ed45 e63e fd49 4d3f 7810 693f
0.7690742 1.5774949 0.8019102 1.8837329 0.25946292 0.8972137 0.8019102 0.5677307
0.45863524 0.8019102 0.8019102 0.8019102 1.1360878 0.1949928 0.8019102 0.44875935
0.8266112 0.65863377 1.2493968 0.31243363 0.8019102 0.1880337 0.8019102 0.49702284
0.85529447 0.25390804 0.48756146 0.15810819 0.49074733 1.3047694 0.16267231 0.23110002
0.9683838 1.2890307 0.28849673 0.8019102 0.9472287 0.1895727 1.6600882 0.63987744
0.26141724 0.2983453 0.50629836 0.21737932 0.5246475 0.2530863 1.2992531 0.8019102
0.8019102 0.9420018 0.8019102 0.8019102 0.8019102 0.5164094 0.89100915 0.5083264
0.4866676 0.12124765 0.8019102 0.8019102 0.8019102 0.44975224 0.8019102 0.91040754

ensemble.1.module_list.1.input_quant.pre_transforms.0.bias f4 [64]
00000000: 9d31 703f d90e 0ebf 0000 0000 e7e0 b03e
00000010: fb9a 843f 53f1 22bf 0000 0000 f14e 26bf
00000020: f0c2 a7bc 0000 0000 0000 0000 0000 0000
00000030: 2128 1abf 3202 473f 0000 0000 9aaa 723d
00000040: 6bfa 6e3f 32da 923d afe4 acbe b629 8abe
00000050: 0000 0000 f43b 0a3e 0000 0000 27ba 23be
00000060: 3f51 27bf 25a9 8d3d efd3 f6be 60a6 e73d
00000070: f9f9 6fbe 97ae 3e3f 1979 2f3e ae3a dbbc
00000080: 0ce7 85bf 80d6 a8bd 92c7 81be 0000 0000
00000090: 87e6 3a3e 6805 0d3e faf0 70be 6277 923f
000000a0: ec44 f33d d93b 163f ad4d 0fbf 1fa6 a03d
000000b0: ae40 1e3f 7c11 a33e 08c9 093f 0000 0000
000000c0: 0000 0000 6dc0 a83b 0000 0000 0000 0000
000000d0: 0000 0000 c861 153f 5965 703f 7873 173f
000000e0: 1128 3d3e bcb5 193e 0000 0000 0000 0000
000000f0: 0000 0000 d2dd 5abe 0000 0000 39db 71bf
0.93825704 -0.55491406 0.0 0.34546587 1.0359796 -0.6364948 0.0 -0.64964205
-0.020478696 0.0 0.0 0.0 -0.6021748 0.77737725 0.0 0.05924473
0.9335086 0.07170524 -0.33768222 -0.26984948 0.0 0.13499433 0.0 -0.1598898
-0.65358347 0.069170274 -0.48208568 0.113110304 -0.23435201 0.7448515 0.17136039 -0.02676138
-1.0461135 -0.08244038 -0.25347573 0.0 0.18252002 0.13771594 -0.23529425 1.1442683
0.1187838 0.5868507 -0.559779 0.07844185 0.61817443 0.31849277 0.53822374 0.0
0.0 0.005149892 0.0 0.0 0.0 0.5835233 0.93904644 0.59160566
0.18472315 0.15010732 0.0 0.0 0.0 -0.2137368 0.0 -0.9447513

ensemble.1.module_list.1.input_quant.pre_transforms.0.running_mean f4 [64]
00000000: ea5a 82be ce96 a53d 1c86 533e 12cb 6e3e
00000010: 6690 db3e 094d ddbd cb47 13be d963 b9be
00000020: bfc2 753d 93c0 babd d72b 20be 11f3 5d3e
00000030: ea05 38be 0320 133f 21cb 1ebe a377 7fbe
00000040: 455a 30be bbde 82be 8ff2 bdbd d351 96bd
00000050: fff8 45bd 5144 0a3f a906 0dbe eac6 be3b
00000060: 1132 bcbc 8e37 f43d 24bd 813e a147 adbd
00000070: b569 ebbc e02e e5be ffcd 97be 33e3 50be
00000080: 2975 ccbe db91 043d 8ef0 6a3d 9b12 67be
00000090: 511e 3b3d 99e8 7fbd bcae 90bc cbcb bd3e
000000a0: 85f4 323e 6751 063e 3f02 b2bd 8810 66be
000000b0: 95ca e0bd 3ac8 5cba 95c2 be3d 7b2b 5e3e
000000c0: 5ae9 0d3b 3a57 36be 64ac 3f3e 86cf 393b
000000d0: ed90 37bd df7c 22be a5d6 e43e f2e2 9cbe
000000e0: 4cec 4bbe e159 51be bd54 75be 9af3 a7bd
000000f0: f6d5 ab3d 8896 a9be d0b5 98be e288 c1be
-0.25459987 0.08085404 0.20656627 0.23319653 0.42883605 -0.10805709 -0.14382856 -0.3620899
0.060000177 -0.09118762 -0.15641724 0.21674754 -0.17971006 0.5747072 -0.15507175 -0.24947982
-0.17221935 -0.25560555 -0.0927478 -0.073398255 -0.048333164 0.5401049 -0.13772072 0.0058220522
-0.022973092 0.11924659 0.25339615 -0.08460928 -0.028736928 -0.44762325 -0.2964935 -0.2039917
-0.39933136 0.03236566 0.057358317 -0.22565691 0.04568321 -0.06247768 -0.017661445 0.37069544
0.1747609 0.1311699 -0.08691835 -0.22467244 -0.109761395 -0.000842217 0.09314457 0.21696274
0.002165398 -0.17806712 0.18718106 0.0028352453 -0.044815946 -0.15867947 0.4469501 -0.30641896
-0.19914359 -0.20444442 -0.23958106 -0.0820076 0.08390419 -0.3312266 -0.29826212 -0.37799746

ensemble.1.module_list.1.input_quant.pre_transforms.0.running_var f4 [64]
00000000: fd0c 023d 8827 3e3f f9ef 9f3b 9893 a93d
00000010: 1488 123c 19ee 503d 51dc 9c3b dcf5 063e
00000020: a363 9d3d aeae 1e3b 6b90 ef39 3322 933b
00000030: 4a7a 4c3e 0d9b 033d 141f 6e3b 8e9b 6f3d
00000040: 2efe 813e 9535 0e3d e6f3 4d3e a026 603c
00000050: 8e18 e13a 41d1 f13c 40f0 e53a 8e5f bb3c
00000060: ef47 533d d314 f13c 33d9 8e3d 220a b43c
00000070: 3bfa ec3c 90f6 bf3c 9361 443d 1026 153d
00000080: 9ece 373e 3b21 303e 7054 013d cfd3 483a
00000090: a8b5 c03d 431f 9e3d f774 8e3d beb9 0e3d
000000a0: da50 883d d147 323d 83ee a73d d278 793d
000000b0: d715 c83d e4cf 993c 482d 0e3d e108 c73b
000000c0: 2454 203c 0678 3d3e 9f42 e839 c586 3e3b
000000d0: 56f0 153c b1ed ea3e bb18 d53c f140 113d
000000e0: 0f19 7b3d e1e0 1a3d a7e7 f33b 5b56 c13c
000000f0: 8307 ea3b 1498 a13d 6466 893b f5b6 a33e
0.031750668 0.7427907 0.004880902 0.082801044 0.008943576 0.051008318 0.004787006 0.13179725
0.0768502 0.0024213004 0.00045693232 0.004490161 0.19968525 0.03213029 0.0036334442 0.058497958
0.25389236 0.03471907 0.20112571 0.013681084 0.0017173456 0.029518725 0.0017542914 0.022872712
0.051582273 0.029428875 0.06975021 0.021977488 0.028927913 0.023433 0.047944617 0.036413252
0.17949912 0.17200176 0.031574667 0.00076609565 0.09409648 0.077208064 0.06955903 0.034845106
0.06656046 0.04352552 0.081997894 0.06090624 0.097697906 0.018775888 0.034711152 0.0060740565
0.009785686 0.18502817 0.00044300125 0.0029072028 0.009151539 0.4588447 0.026012769 0.035462324
0.061303195 0.037812117 0.0074433866 0.023600748 0.0071420087 0.07890335 0.004193114 0.31975523

ensemble.1.module_list.1.fc.weight f4 [32, 64]
00000000: 14bb bcbd 1e63 283d 16bf 93bd 83a1 1ebd
00000010: 6743 733e 3fcc 61bd bd64 87bc 71ac 8e3d
00000020: fed0 533d 7e3e 8abd ef9d 853d 3f91 a73c
00000030: 2319 433c 4d2a 0e3c 26e7 4abd e853 aabd
00000040: 8335 bc3c bebd b13d d8b6 a8bd d5c4 b63d
00000050: 7887 553d 1ded 863d ce47 7a3d af23 9b3d
00000060: ec00 523c af7d 4b3e 8f8c 6cbd a2db a6bd
00000070: 028a 9a3b 8266 563c 80f0 9e3c 79e8 06bf
00000080: b57c 8e3d 8281 5fbd 1a1d b4bd 73da c93d
00000090: 141a c03c 805d a53d 69fe d43b efdf bb3d
000000a0: 36e4 4bbb ab75 23bd 01fd 463d 5d1f 9b3c
000000b0: c4de 1dbd 9dd9 b8bc 3b69 3a3d 645b 8d3d
000000c0: 3a5a a0bd 8795 8dbd 0a85 813d e7c6 933d
000000d0: 62f2 5fbc 8516 18bd 039e 0d3d cd5a a63d
000000e0: 4682 86bd b9b0 c33c 97ad 633d e188 e53c
000000f0: 6269 c03d 7f23 bfbd ab3c 6b3d d27c 17bc
00000100: e5a4 4abd c02e c23c 2382 bbbc 7bd7 b43d
00000110: 94d9 90bd e2d2 5a3c f030 17bd d4ad 5e3d
00000120: 7fd8 9b3d 03af 8b3d 765c 043d e23e bdbd
00000130: 00cd 5d3c fb17 67bd 52f4 ff3c 737e 653c
00000140: 71fc acbd d264 92bd e971 4fbd d2d5 b5bd
00000150: 6bc0 1fbd 1b3e 1bbd c4e6 653d d6d9 443d
00000160: 133c 9abd b337 5ebc 8e4b c33c 198a d1bc
00000170: 727b c63c 8eea 10bc 489c b5bd 22a6 aa3d
00000180: e224 94bd 5994 1c3e ea8e 2f3c 9384 fa3c
00000190: e346 053d 555e de3c c90e a5bd 9530 a7bd
000001a0: 819e ad3d a9b9 aabd 251a f4bc cdb0 713d
000001b0: c246 9c3d 6ce4 d93d af54 16bd 6b54 213d
000001c0: 2a85 303d a388 59bf 0018 8cbd a98d f43b
000001d0: 7848 b63d 05ee 06bd f0bf ff3c fbc7 983d
000001e0: dd4b 6a3d 5a67 233d ddc6 fabc fc98 6d3d
000001f0: e587 c3bd 1f99 e93b f2e8 593c 3207 bdbc
00000200: 8495 be3d 221b c2bd 0122 82bd 0aa2 ac3d
00000210: 6f44 e2bc 5a35 8e3c a7ad 233c 8790 a83d
00000220: 3586 b13a bc2c f8bc 7873 19bd 2d33 04bd
00000230: 006e 8fbd 3e61 103d 8465 ccbb 57d8 81bd
00000240: 4c29 debc 6a0e adbc ad7d 093d b357 8dbd
00000250: db10 c73d 8467 bdbd c3b8 c73d a36f 5f3a
00000260: 27c3 1b3d f7f5 0a3d 9942 b0bd e1aa b8bd
00000270: 49be 813c ea95 b8bc 5bf5 37bd ad95 32bd
00000280: 3341 89bd 2b5e 303d 62a0 a6bd 17f4 4dbd
00000290: 0802 913e 6585 2d3d b474 15bd 1b87 c4bd
000002a0: 55a8 463d 481c f7be 5610 46bd 6437 b43d
000002b0: 6a25 4dbd 2980 8e3d dd25 98be 1d00 a4bd
000002c0: 3f93 d33c 8ddb 52bd 14f5 e0bc 5bbb 523b
000002d0: cc42 94bd 55b6 1c3d 2547 903d c315 aebc
000002e0: 284b 3c3d 13d6 b4bd cfe8 1f3c a530 56bd
000002f0: 1d2f 443b b53d 07bd 69e3 5ebd 8bcb ccbc
00000300: 92e1 bcbd 67c6 da3e 7669 3cbd e628 c73d
00000310: e469 4dbd 8904 2abb e181 eabc 5ca8 a1bd
00000320: 8abf e83c c232 97bd 1764 1c3d abb6 26bd
00000330: c985 353d 9dec 863d c3fb 9d3d bb5b c13d
00000340: 8bca 78be 515c cbbd 66a2 05bd 0738 c6bd
00000350: fb6e 883c 53aa b9bd d1c0 85bc 5b50 a93d
00000360: f818 65bb a3f3 e03a f17f be3d fb63 4bbd
00000370: 1b62 bebd b6b8 593d 727e 8b3d 83aa 09bc
00000380: fd79 a2bd e809 b13c cc05 fb3c f38e 8ebd
00000390: 24e0 39bd b1ba 143a c203 733d 7994 01ba
000003a0: cb46 5c3e 5afd c03d eeb1 cf3c b280 7abd
000003b0: e2ea 46bd 4cf0 d7bc 6c0f 103c 98cb 7bbd
000003c0: f593 c3bd 53ea f4bc 7efa 94bd ff4b 083d
000003d0: 3f2d 5abd 75ac f6bc dbab 2e3d 0091 aa3c
000003e0: 9467 913a 3945 693d c5c6 91bd c666 d63c
000003f0: 32b1 f23b 0b5f c4bd e3ec f13c 54b1 89bd
-0.0921537 0.04111015 -0.07214181 -0.03872825 0.2375618 -0.055126425 -0.016527528 0.06966484
0.051712982 -0.06750201 0.06524264 0.020455 0.0119078485 0.0086770775 -0.049536847 -0.08316785
0.022974735 0.086787686 -0.08238 0.089242615 0.052131146 0.065881945 0.061103635 0.075751655
0.012817603 0.19872163 -0.057751235 -0.081473604 0.004716159 0.013085963 0.019401789 -0.52698475
0.0695738 -0.054566868 -0.08794613 0.09856119 0.023449935 0.08074474 0.0065000546 0.09173571
-0.0031111366 -0.03990714 0.048581127 0.018935854 -0.038542524 -0.022564704 0.04551051 0.06902197
-0.07829709 -0.06913286 0.06324203 0.07215672 -0.013668628 -0.03713085 0.03457452 0.081227876
-0.065678164 0.023887979 0.05558547 0.02801937 0.093951 -0.09332942 0.057430904 -0.009246068
-0.049473662 0.023703933 -0.022889202 0.08830162 -0.0707275 0.013355942 -0.036911905 0.054364994
0.07609653 0.0682049 0.03231474 -0.092405096 0.013537645 -0.056419354 0.03124443 0.014007199
-0.08446587 -0.07148136 -0.050645743 -0.088786736 -0.039001863 -0.037901025 0.05612828 0.048059307
-0.075309895 -0.013563084 0.023839738 -0.025578545 0.024228785 -0.008844985 -0.08867699 0.083324686
-0.07233597 0.15290965 0.010715226 0.030580794 0.032538306 0.02714459 -0.08059461 -0.08163563
0.08477498 -0.08336193 -0.029797623 0.0590065 0.076306835 0.10639271 -0.036701854 0.039387148
0.043095745 -0.84974116 -0.06840515 0.0074631763 0.08900541 -0.032941837 0.031219453 0.07460018
0.057201255 0.039893486 -0.030612404 0.058007225 -0.09547404 0.007128849 0.013300167 -0.02307472
0.093058616 -0.094778314 -0.06354142 0.08429344 -0.027620522 0.017359424 0.009990132 0.082306914
0.0013544025 -0.030294769 -0.037463635 -0.032275368 -0.07003403 0.035248987 -0.0062376875 -0.06340092
-0.027119301 -0.021125037 0.03356712 -0.06901493 0.09720012 -0.0924826 0.097520374 0.000852341
0.03802791 0.033925977 -0.086064525 -0.090169676 0.015837805 -0.022532422 -0.044911724 -0.043599773
-0.06701889 0.043058556 -0.08136059 -0.05028161 0.28321862 0.042363543 -0.03648825 -0.09596082
0.048500378 -0.48263764 -0.048355423 0.087996274 -0.05008451 0.06958038 -0.29716387 -0.08007834
0.025827048 -0.05147891 -0.027460612 0.003215513 -0.07239303 0.038259823 0.0704482 -0.021250611
0.045970112 -0.08829894 0.009760096 -0.052292485 0.0029935308 -0.033017833 -0.054416094 -0.0249994
-0.092227116 0.42729494 -0.045999013 0.09724598 -0.050149813 -0.0025942645 -0.028626384 -0.0789344
0.028411645 -0.07382728 0.03818139 -0.04070155 0.04431704 0.06588099 0.07714035 0.09441324
-0.24296014 -0.09929717 -0.03262558 -0.09678655 0.016654482 -0.0906569 -0.016327294 0.0826728
-0.003495751 0.0017162453 0.09301747 -0.049655896 -0.09296056 0.05315467 0.06811227 -0.00840247
-0.07933424 0.021611169 0.030642413 -0.06960859 -0.045379773 0.0005673571 0.059329756 -0.00049430836
0.2151138 0.09423323 0.025353398 -0.06115789 -0.048563845 -0.0263597 0.008792739 -0.06147346
-0.09549705 -0.02989689 -0.0727434 0.0332756 -0.053265806 -0.03011153 0.042644363 0.020821095
0.0011093491 0.05695078 -0.071179904 0.026172053 0.0074063772 -0.095884405 0.029531902 -0.06723276

ensemble.1.module_list.1.fc.bias f4 [32]
00000000: e60b d53e fe57 c0be 528c 0fbc ff02 c33d
00000010: 990b f6bb 95b2 bdbd 26f0 3ebe 6609 23be
00000020: a85b a63d 5ba8 473e cb6f ac3d 7bc3 663e
00000030: 2000 96be f8c8 e6bd 6b53 353d e8c6 3dbd
00000040: a0d9 81bc d4a2 debd c012 d13d f2ed 1cbd
00000050: c7d0 033e ab2a 333d 76c0 b9bd c2cd 6abe
00000060: f007 4c3e 06a3 9ebd f477 1abd f490 86bc
00000070: 0cc9 a43c eaae e9bd 33e3 b2be 8a41 993e
0.4161064 -0.37567133 -0.008761482 0.09522056 -0.0075087068 -0.092625774 -0.18646297 -0.15921554
0.08122951 0.19497816 0.0841976 0.22535507 -0.2929697 -0.112688005 0.044269007 -0.04633227
-0.015850842 -0.10870901 0.102086544 -0.03831286 0.12872611 0.043741863 -0.09069912 -0.22930053
0.19924903 -0.07745938 -0.037712052 -0.01642654 0.020115398 -0.11410315 -0.34938964 0.29932815

ensemble.1.module_list.1.fc.mask.mask f4 [32, 64]
00000000: 0000 0000 0000 0000 0000 0000 0000 0000
00000010: 0000 803f 0000 0000 0000 0000 0000 0000
00000020: 0000 0000 0000 0000 0000 0000 0000 0000
00000030: 0000 0000 0000 0000 0000 0000 0000 0000
00000040: 0000 0000 0000 0000 0000 0000 0000 0000
00000050: 0000 0000 0000 0000 0000 0000 0000 0000
00000060: 0000 0000 0000 803f 0000 0000 0000 0000
00000070: 0000 0000 0000 0000 0000 0000 0000 803f
00000080: 0000 0000 0000 0000 0000 0000 0000 0000
00000090: 0000 0000 0000 0000 0000 0000 0000 0000
000000a0: 0000 0000 0000 0000 0000 0000 0000 0000
000000b0: 0000 0000 0000 0000 0000 0000 0000 0000
000000c0: 0000 0000 0000 0000 0000 0000 0000 0000
000000d0: 0000 0000 0000 0000 0000 0000 0000 0000
000000e0: 0000 0000 0000 0000 0000 0000 0000 0000
000000f0: 0000 0000 0000 0000 0000 0000 0000 0000
00000100: 0000 0000 0000 0000 0000 0000 0000 0000
00000110: 0000 0000 0000 0000 0000 0000 0000 0000
00000120: 0000 0000 0000 0000 0000 0000 0000 0000
00000130: 0000 0000 0000 0000 0000 0000 0000 0000
00000140: 0000 0000 0000 0000 0000 0000 0000 0000
00000150: 0000 0000 0000 0000 0000 0000 0000 0000
00000160: 0000 0000 0000 0000 0000 0000 0000 0000
00000170: 0000 0000 0000 0000 0000 0000 0000 0000
00000180: 0000 0000 0000 803f 0000 0000 0000 0000
00000190: 0000 0000 0000 0000 0000 0000 0000 0000
000001a0: 0000 0000 0000 0000 0000 0000 0000 0000
000001b0: 0000 0000 0000 803f 0000 0000 0000 0000
000001c0: 0000 0000 0000 803f 0000 0000 0000 0000
000001d0: 0000 0000 0000 0000 0000 0000 0000 0000
000001e0: 0000 0000 0000 0000 0000 0000 0000 0000
000001f0: 0000 0000 0000 0000 0000 0000 0000 0000
00000200: 0000 0000 0000 0000 0000 0000 0000 0000
00000210: 0000 0000 0000 0000 0000 0000 0000 0000
00000220: 0000 0000 0000 0000 0000 0000 0000 0000
00000230: 0000 0000 0000 0000 0000 0000 0000 0000
00000240: 0000 0000 0000 0000 0000 0000 0000 0000
00000250: 0000 0000 0000 0000 0000 0000 0000 0000
00000260: 0000 0000 0000 0000 0000 0000 0000 0000
00000270: 0000 0000 0000 0000 0000 0000 0000 0000
00000280: 0000 0000 0000 0000 0000 0000 0000 0000
00000290: 0000 803f 0000 0000 0000 0000 0000 0000
000002a0: 0000 0000 0000 803f 0000 0000 0000 0000
000002b0: 0000 0000 0000 0000 0000 803f 0000 0000
000002c0: 0000 0000 0000 0000 0000 0000 0000 0000
000002d0: 0000 0000 0000 0000 0000 0000 0000 0000
000002e0: 0000 0000 0000 0000 0000 0000 0000 0000
000002f0: 0000 0000 0000 0000 0000 0000 0000 0000
00000300: 0000 0000 0000 803f 0000 0000 0000 0000
00000310: 0000 0000 0000 0000 0000 0000 0000 0000
00000320: 0000 0000 0000 0000 0000 0000 0000 0000
00000330: 0000 0000 0000 0000 0000 0000 0000 0000
00000340: 0000 803f 0000 0000 0000 0000 0000 0000
00000350: 0000 0000 0000 0000 0000 0000 0000 0000
00000360: 0000 0000 0000 0000 0000 0000 0000 0000
00000370: 0000 0000 0000 0000 0000 0000 0000 0000
00000380: 0000 0000 0000 0000 0000 0000 0000 0000
00000390: 0000 0000 0000 0000 0000 0000 0000 0000
000003a0: 0000 803f 0000 0000 0000 0000 0000 0000
000003b0: 0000 0000 0000 0000 0000 0000 0000 0000
000003c0: 0000 0000 0000 0000 0000 0000 0000 0000
000003d0: 0000 0000 0000 0000 0000 0000 0000 0000
000003e0: 0000 0000 0000 0000 0000 0000 0000 0000
000003f0: 0000 0000 0000 0000 0000 0000 0000 0000
0.0 0.0 0.0 0.0 1.0 0.0 0.0 0.0
0.0 0.0 0.0 0.0 0.0 0.0 0.0 0.0
0.0 0.0 0.0 0.0 0.0 0.0 0.0 0.0
0.0 1.0 0.0 0.0 0.0 0.0 0.0 1.0
0.0 0.0 0.0 0.0 0.0 0.0 0.0 0.0
0.0 0.0 0.0 0.0 0.0 0.0 0.0 0.0
0.0 0.0 0.0 0.0 0.0 0.0 0.0 0.0
0.0 0.0 0.0 0.0 0.0 0.0 0.0 0.0
0.0 0.0 0.0 0.0 0.0 0.0 0.0 0.0
0.0 0.0 0.0 0.0 0.0 0.0 0.0 0.0
0.0 0.0 0.0 0.0 0.0 0.0 0.0 0.0
0.0 0.0 0.0 0.0 0.0 0.0 0.0 0.0
0.0 1.0 0.0 0.0 0.0 0.0 0.0 0.0
0.0 0.0 0.0 0.0 0.0 1.0 0.0 0.0
0.0 1.0 0.0 0.0 0.0 0.0 0.0 0.0
0.0 0.0 0.0 0.0 0.0 0.0 0.0 0.0
0.0 0.0 0.0 0.0 0.0 0.0 0.0 0.0
0.0 0.0 0.0 0.0 0.0 0.0 0.0 0.0
0.0 0.0 0.0 0.0 0.0 0.0 0.0 0.0
0.0 0.0 0.0 0.0 0.0 0.0 0.0 0.0
0.0 0.0 0.0 0.0 1.0 0.0 0.0 0.0
0.0 1.0 0.0 0.0 0.0 0.0 1.0 0.0
0.0 0.0 0.0 0.0 0.0 0.0 0.0 0.0
0.0 0.0 0.0 0.0 0.0 0.0 0.0 0.0
0.0 1.0 0.0 0.0 0.0 0.0 0.0 0.0
0.0 0.0 0.0 0.0 0.0 0.0 0.0 0.0
1.0 0.0 0.0 0.0 0.0 0.0 0.0 0.0
0.0 0.0 0.0 0.0 0.0 0.0 0.0 0.0
0.0 0.0 0.0 0.0 0.0 0.0 0.0 0.0
1.0 0.0 0.0 0.0 0.0 0.0 0.0 0.0
0.0 0.0 0.0 0.0 0.0 0.0 0.0 0.0
0.0 0.0 0.0 0.0 0.0 0.0 0.0 0.0

ensemble.1.module_list.1.output_quant.pre_transforms.0.weight f4 [32]
00000000: 94eb da3e 7db6 b73e fb4d 043f a0be 263f
00000010: 0547 b83e 283e d13e 16ee 033f 4122 2b3f
00000020: 55f0 6d3f 0d04 333f 8f94 c03f de2a bb3e
00000030: ec51 db3e fd49 4d3f 0851 153f fd49 4d3f
00000040: 3eaa 033f fd49 4d3f 409f 5b3f 44ed c33e
00000050: 3a67 063f b073 a33e fd49 4d3f 622a b83e
00000060: 5b4a ab3f 5681 293f c84f 463f 8bac 3a3f
00000070: 14bc 293f cb8e 413f 9153 f23e fcf3 253f
0.42757857 0.35881415 0.5168149 0.6513462 0.35991684 0.40867734 0.51535165 0.6684914
0.9294484 0.69928056 1.5045336 0.36556143 0.4283594 0.8019102 0.5832677 0.8019102
0.51431644 0.8019102 0.8578987 0.38266957 0.5250126 0.319242 0.8019102 0.35969836
1.3382066 0.66212976 0.77465487 0.7291953 0.6630261 0.7560851 0.4732938 0.64825416
