examples/jet_substructure/polylut_averaging/averaging_jscxl_deg2_ensemble_size2/checkpoint.pth (torch, 265441 bytes, 198 tensors)

ensemble.0.module_list.0.mask f4 [5, 2]
1.0 0.0 0.0 1.0 2.0 0.0 1.0 1.0
0.0 2.0
00000000: 0000 803f 0000 0000 0000 0000 0000 803f
00000010: 0000 0040 0000 0000 0000 803f 0000 803f
00000020: 0000 0000 0000 0040

ensemble.0.module_list.0.input_quant.pre_transforms.0.weight f4 [16]
1.6774566 1.435034 1.9525366 3.0337465 2.7009447 1.2109799 1.3178763 1.2767055
1.1590859 1.1256516 1.3793089 2.0874708 1.7363895 1.8024318 2.093416 1.3440298
00000000: e6b6 d63f 32af b73f b8ec f93f e728 4240
00000010: 47dc 2c40 6401 9b3f 2cb0 a83f 166b a33f
00000020: ed5c 943f 5a15 903f 328d b03f 1f99 0540
00000030: 0342 de3f 16b6 e63f 87fa 0540 2b09 ac3f

ensemble.0.module_list.0.input_quant.pre_transforms.0.bias f4 [16]
-0.14948443 2.7643015 -0.6507319 -0.4863722 0.056195647 -1.9698684 0.7700302 -0.6825419
0.44665956 0.29058036 0.085565425 -0.10629303 1.002962 -0.377981 -0.3299611 -1.0936263
00000000: 7212 19be 51ea 3040 5e96 26bf c705 f9be
00000010: 682d 663d a624 fcbf b320 453f 11bb 2ebf
00000020: 90b0 e43e f3c6 943e ed3c af3d 29b0 d9bd
00000030: 0f61 803f ba86 c1be a9f0 a8be f2fb 8bbf

ensemble.0.module_list.0.input_quant.pre_transforms.0.running_mean f4 [16]
-0.006049364 0.002530906 -0.0037830246 -0.0035711739 -0.0035743166 -0.0037896512 -0.0025623369 -0.0036435036
-0.0025623369 0.00047230782 0.0029423116 0.00063635985 -0.00021482981 -0.0029517994 -0.00304201 0.0072954246
00000000: be39 c6bb 8edd 253b 9fec 77bb 5b0a 6abb
00000010: 153f 6abb cc5b 78bb e1ec 27bb d9c7 6ebb
00000020: e1ec 27bb 15a0 f739 ccd3 403b 63d1 263a
00000030: f043 61b9 fa72 41bb 755c 47bb 750e ef3b

ensemble.0.module_list.0.input_quant.pre_transforms.0.running_var f4 [16]
1.0131419 1.0103446 1.005838 1.0080317 0.9993144 0.9928918 0.99382204 0.993691
0.99382204 0.9963188 1.0043979 1.0049354 0.99468714 0.9918092 1.00422 1.034012
00000000: a2ae 813f f952 813f 4dbf 803f 2f07 813f
00000010: 12d3 7f3f 282e 7e3f 1f6b 7e3f 8962 7e3f
00000020: 1f6b 7e3f c00e 7f3f 1c90 803f b9a1 803f
00000030: d1a3 7e3f 35e7 7d3f 488a 803f 815a 843f

ensemble.0.module_list.0.fc.weight f4 [128, 5]
4.195606 3.7475548 4.45035 -5.1191916 -0.2256275 -4.470912 -9.376803 0.20149165
0.8867183 1.1864036 3.360881 0.1183448 -5.3545074 -2.9431098 -3.6291933 -0.6185361
8.009194 0.38059455 0.04323312 3.7662644 15.799591 -2.0284386 -2.3490686 0.47768468
1.3991753 9.853387 -4.8483934 -0.54436314 1.7411696 -1.9953693 0.13394062 -0.17934535
0.023770867 0.074193954 0.06961797 0.011566628 0.07846718 0.41205826 0.022521608 -0.446604
-9.575168 3.2212658 2.5448172 1.5065734 -2.7784379 11.800658 -2.273428 -4.224198
1.4384438 0.28716373 0.20678334 0.021490019 -0.30123404 0.09262611 -0.16847557 -0.37305105
0.062653825 0.22731821 -0.41425833 -0.10495323 0.34775507 0.074069954 0.022650942 0.18640524
-0.35884222 -0.35584718 0.18841505 -0.112528175 0.37954834 -0.08548331 7.782738 -5.5461636
-0.6916156 -1.702612 -2.578733 0.14466146 0.39019495 0.39658663 0.2095057 -0.44450006
-0.03080079 -0.18100527 0.52877545 -0.7645342 -0.33523437 -3.002207 3.9480019 -4.549189
3.635205 2.462073 -7.1696997 2.76579 2.9770193 -1.1673223 -1.7758229 -0.11361654
0.046600297 0.3163683 -0.1960787 0.2838703 -0.124801934 0.4266785 0.08881979 -0.19544894
-0.04587707 1.2772353 -15.305867 -0.4289785 -1.2966652 1.8331685 -0.04502093 0.2760265
0.3571623 -0.3977584 0.3888411 -7.5705566 -2.0584433 -11.132953 -1.0887781 0.54666805
3.988628 6.2834406 -3.6510043 -2.6326327 -3.3366346 -3.8693693 2.468725 10.297034
1.6594855 -1.7296524 7.582799 -0.9165145 0.4507117 1.5002925 4.965097 10.44625
2.4985738 1.660118 3.7999344 -0.3689023 -12.087878 3.3543885 -0.48422024 -1.8996235
-1.0980383 8.9702635 5.3584123 0.39063993 -0.20868535 1.2011684 0.094101034 -0.44677952
0.24278729 0.15952085 0.004916221 0.13628481 0.02164521 0.045013573 0.385989 -0.36281672
0.09012897 -0.065764636 -0.2619444 -0.17995487 -0.4227855 6.921944 7.3914876 -0.77077305
2.7008286 1.1743214 2.821391 -4.364676 -6.973717 -3.8964252 -0.5423755 0.22324923
-0.10268688 -0.3273356 0.14115576 -0.30615452 -2.6658964 -7.9639187 0.37599322 0.82753855
-2.99627 -0.17752667 -0.12947378 0.15338965 0.18626396 -0.37243897 22.986952 -1.994935
-1.1144432 -0.8069662 0.043842737 -0.10165481 -0.057434954 0.18028295 0.030309426 -0.19720322
-2.474946 -9.763056 -1.3624479 -1.5687993 6.9336467 -1.5710094 -39.611965 -0.38051325
-0.6573836 1.5567003 -0.040837966 -0.5796742 0.15722206 0.46994603 0.039602306 -8.416996
5.167672 1.9034592 0.20225868 -2.6265936 -5.0807877 -7.27485 -3.0494888 -1.4834442
0.27221733 -0.98321295 -17.920208 -0.020909555 1.0800788 -0.2168429 -4.2925515 0.4115197
5.7378235 -3.5128477 5.718228 -7.0892253 -8.599458 0.1990784 -3.233562 -0.66430545
-8.295722 4.4542894 3.9312465 -0.36505204 1.692014 4.4159617 -3.0707593 2.1704812
0.43776378 6.465183 -5.799803 0.9426391 2.731069 -3.8752468 -3.513341 -7.5755916
00000000: 6842 8640 f0d7 6f40 4469 8e40 6bd0 a3c0
00000010: e50a 67be b611 8fc0 6307 16c1 d453 4e3e
00000020: f8ff 623f 13dc 973f ad18 5740 c25e f23d
00000030: 2058 abc0 e95b 3cc0 b444 68c0 6258 1ebf
00000040: a925 0041 4add c23e 3615 313d 7a0a 7140
00000050: 20cb 7c41 f0d1 01c0 2457 16c0 1693 f43e
00000060: 2d18 b33f 79a7 1d41 0a26 9bc0 625b 0bbf
00000070: a5de de3f 4368 ffbf bb27 093e 4fa6 37be
00000080: 1fbb c23c 00f3 973d de93 8e3d f481 3d3c
00000090: 67b3 a03d 4df9 d23e 3c7f b83c 48a9 e4be
000000a0: e333 19c1 3829 4e40 49de 2240 66d7 c03f
000000b0: edd1 31c0 7fcf 3c41 d87f 11c0 a12c 87c0
000000c0: ed1e b83f 2007 933e 03bf 533e d60b b03c
000000d0: 593b 9abe c2b2 bd3d dc84 2cbe 8c00 bfbe
000000e0: a650 803d 1bc6 683e ab19 d4be b8f1 d6bd
000000f0: f40c b23e fdb1 973d 788e b93c 04e1 3e3e
00000100: 2bba b7be 9a31 b6be e0ef 403e 2c75 e6bd
00000110: 2954 c23e e011 afbd 310c f940 2c7a b1c0
00000120: b80d 31bf 31ef d9bf f609 25c0 2222 143e
00000130: a2c7 c73e 670d cb3e aa88 563e 8395 e3be
00000140: f051 fcbc 7259 39be d45d 073f 83b8 43bf
00000150: d7a3 abbe 2924 40c0 10ac 7c40 f592 91c0
00000160: 33a7 6840 9b92 1d40 2e6e e5c0 b402 3140
00000170: 7c87 3e40 d16a 95bf 2a4e e3bf caaf e8bd
00000180: f4df 3e3d 07fb a13e dbc8 48be 7357 913e
00000190: 2898 ffbd 9b75 da3e 26e7 b53d c423 48be
000001a0: 98e9 3bbd 727c a33f d5e4 74c1 12a3 dbbe
000001b0: 20f9 a5bf 44a5 ea3f de67 38bd 5853 8d3e
000001c0: fadd b63e fda6 cbbe 2e16 c73e 0042 f2c0
000001d0: 89bd 03c0 9320 32c1 155d 8bbf 70f2 0b3f
000001e0: ae45 7f40 f211 c940 0eaa 69c0 0e7d 28c0
000001f0: 6c8b 55c0 bfa3 77c0 97ff 1d40 a7c0 2441
00000200: 056a d43f 4065 ddbf 4aa6 f240 b2a0 6abf
00000210: afc3 e63e 9609 c03f 13e2 9e40 d723 2741
00000220: a2e8 1f40 bf7e d43f 2032 7340 c3e0 bcbe
00000230: f367 41c1 4dae 5640 b7eb f7be dd26 f3bf
00000240: 858c 8cbf 3386 0f41 1d78 ab40 f501 c83e
00000250: 9db1 55be e3bf 993f 0bb8 c03d 49c0 e4be
00000260: 3b9d 783e 6f59 233e 4018 a13b 3f8e 0b3e
00000270: 4c51 b13c 2760 383d 5aa0 c53e 1dc3 b9be
00000280: 8a95 b83d 9caf 86bd 941d 86be 1746 38be
00000290: 5777 d8be 9180 dd40 1187 ec40 6251 45bf
000002a0: 60da 2c40 2a50 963f ac91 3440 6dab 8bc0
000002b0: b128 dfc0 085f 79c0 1fd9 0abf 729b 643e
000002c0: 804d d2bd 8898 a7be 238b 103e 49c0 9cbe
000002d0: 0c9e 2ac0 6cd8 fec0 2f82 c03e 91d9 533f
000002e0: e3c2 3fc0 8dc9 35be c694 04be 2d12 1d3e
000002f0: fbbb 3e3e 52b0 bebe 47e5 b741 085a ffbf
00000300: 13a6 8ebf 5695 4ebf 7194 333d 6630 d0bd
00000310: ea40 6bbd 189c 383e 794b f83c a4ef 49be
00000320: 8465 1ec0 7a35 1cc1 b164 aebf 6ace c8bf
00000330: 6fe0 dd40 d616 c9bf a772 1ec2 a2d2 c2be
00000340: 4b4a 28bf f541 c73f b645 27bd 8765 14bf
00000350: d2fe 203e c49c f03e 0736 223d 04ac 06c1
00000360: 925d a540 8da4 f33f e61c 4f3e 1c1a 28c0
00000370: d095 a2c0 92cb e8c0 d32a 43c0 80e1 bdbf
00000380: 1260 8b3e d8b3 7bbf 965c 8fc1 844a abbc
00000390: 0640 8a3f 110c 5ebe 955c 89c0 b6b2 d23e
000003a0: 409c b740 7fd2 60c0 b9fb b640 efda e2c0
000003b0: 6197 09c1 35db 4b3e aef2 4ec0 ec0f 2abf
000003c0: 47bb 04c1 8a89 8e40 8b99 7b40 1ae8 babe
000003d0: ea93 d83f 8f4f 8d40 5287 44c0 2ae9 0a40
000003e0: 9322 e03e c7e2 ce40 fc97 b9c0 cc50 713f
000003f0: d6c9 2e40 0b04 78c0 94da 60c0 3f6b f2c0

ensemble.0.module_list.0.fc.bias f4 [128]
-0.026982358 -0.15991157 -0.1967856 0.11783409 0.1572519 0.14127743 0.016509593 0.21737695
-0.21607614 -0.05334297 -0.20881492 -0.05088201 0.14695704 -0.0788492 0.09539738 0.03515953
0.21011941 -0.17237382 -0.04274844 0.1359835 0.16473556 -0.13745016 0.16197386 0.024655115
-0.09129262 0.21971112 0.08625922 0.11686136 -0.12569597 0.30870602 -0.16571093 -0.018437982
0.09319943 0.12031961 -0.061918925 -0.24569985 0.25270775 0.23956108 0.004497999 -0.092056066
0.2164969 0.19083188 0.0429497 -0.07842957 -0.060868487 0.025952026 -0.16863592 0.07461805
0.05029188 0.16948965 0.017018268 0.10106803 0.018808216 0.21146794 0.14490426 0.11489624
-0.27816424 -0.2290684 -0.11839991 0.17454271 -0.010219931 -0.038663685 0.19367763 0.2023572
-0.20967302 0.035914112 0.06705119 0.18604398 0.043526124 -0.001025247 0.04276763 -0.119539
0.068661146 0.09978735 -0.07759741 0.03929103 -0.027514659 -0.25066066 0.07264211 -0.027504206
0.013804357 -0.17135459 -0.19407995 -0.07993002 0.07243168 -0.099746466 -0.033240203 0.0074234223
-0.12911353 0.058903966 -0.032860495 -0.033853352 -0.042584106 -0.031849667 0.023382694 0.17243746
-0.09459995 0.20654494 -0.1682837 0.040328503 0.038312584 0.10413247 -0.12050166 0.17516658
0.12068992 -0.09353551 0.21755578 -0.15802239 -0.23748505 -0.006345004 -0.16965774 -0.21132055
-0.13597639 0.054017622 -0.0528853 0.011872321 0.24802403 0.049325474 0.20322472 0.039152477
-0.1684714 -0.00480327 0.09746972 -0.13361847 0.07348861 0.20887184 0.12956104 0.017480224
00000000: 1b0a ddbc dcbf 23be 2a82 49be 0053 f13d
00000010: a406 213e 08ab 103e 203f 873c 1098 5e3e
00000020: 1043 5dbe 287e 5abd 94d3 55be a869 50bd
00000030: e87b 163e b07b a1bd b45f c33d 7003 103d
00000040: 8b29 573e c382 30be fd18 2fbd 423f 0b3e
00000050: 70b0 283e bcbf 0cbe 7adc 253e 86f9 c93c
00000060: a0f7 babd f4fb 603e ada8 b03d 0255 ef3d
00000070: 72b6 00be b70e 9e3e 20b0 29be 400b 97bc
00000080: 58df be3d 216a f63d b39e 7dbd be98 7bbe
00000090: e962 813e 804f 753e f363 933b e487 bcbd
000000a0: 5db1 5d3e 6f69 433e 06ec 2f3d af9f a0bd
000000b0: 3c51 79bd 5899 d43c e5ae 2cbe 59d1 983d
000000c0: dcfe 4d3d b28e 2d3e e569 8b3c c1fc ce3d
000000d0: b013 9a3c 0d8b 583e c861 143e b84e eb3d
000000e0: 8b6b 8ebe e890 6abe a77b f2bd 53bb 323e
000000f0: 7f71 27bc d05d 1ebd 6e53 463e ba36 4f3e
00000100: 86b4 56be ad1a 133d 2252 893d 5082 3e3e
00000110: 7348 323d 9561 86ba 1c2d 2f3d ddd0 f4bd
00000120: 379e 8c3d 4f5d cc3d 64eb 9ebd a2ef 203d
00000130: 6c66 e1bc 9856 80be 63c5 943d 8050 e1bc
00000140: ab2b 623c 9477 2fbe e5bc 46be 5ab2 a3bd
00000150: 1057 943d e047 ccbd e126 08bd 2e40 f33b
00000160: 5636 04be 4945 713d ba98 06bd d0a9 0abd
00000170: ac6c 2ebd cc74 02bd 108d bf3c 7293 303e
00000180: 9ebd c1bd 8480 533e 9052 2cbe 802f 253d
00000190: a8ed 1c3d 6843 d53d 93c9 f6bd de5e 333e
000001a0: 472c f73d 8c8f bfbd f1c6 5e3e 9fd0 21be
000001b0: 482f 73be c0e9 cfbb c2ba 2dbe 6a64 58be
000001c0: 653d 0bbe 9541 5d3d 429e 58bd 2084 423c
000001d0: 03fa 7d3e 8209 4a3d 241a 503e 595e 203d
000001e0: c483 2cbe c064 9dbb 349e c73d 48d3 08be
000001f0: 3281 963d 80e2 553e a6ab 043e b032 8f3c

ensemble.0.module_list.0.output_quant.pre_transforms.0.weight f4 [128]
1.8823411 2.3812532 2.4425814 2.3147795 2.40178 1.8602643 1.0 1.0
2.3106568 7.5582356 1.0 1.0 1.0 1.0 3.4086442 1.0
0.31575954 4.2567835 1.9741541 1.0 1.0 2.1595485 1.0 6.6400037
1.0508306 3.7701871 1.8299271 1.7788085 3.3408036 2.347014 1.0 1.0
1.0 1.712874 4.6467247 1.0 2.4782953 1.0 1.6386787 1.0
3.2737353 2.3989627 0.15748619 1.9047558 2.48443 1.786995 2.905854 3.8059022
5.6952305 2.7436576 4.750366 1.9594214 1.9727274 6.3768845 2.555818 1.0
1.7759056 1.0 3.820254 6.0907307 3.2316322 1.0 0.22921106 1.9398992
1.273704 3.07931 0.430501 2.4911845 12.34634 4.890039 3.9880965 1.9051927
3.0670364 1.5637659 1.0 7.172118 2.3367136 4.0279717 1.915328 1.0
2.2789984 1.0 1.4662545 2.0819392 1.9702468 3.4849274 2.6820614 -0.12813857
1.0 3.3637857 4.1182 1.0 2.9836984 3.659152 1.0 8.616594
2.0658882 0.42723304 3.1414819 2.3196857 1.0 1.0 4.3312182 1.0
1.80492 1.0 2.9928162 2.3795063 1.0 1.0 1.0 3.6950822
2.0328488 2.3172631 2.650943 1.0 1.9473293 2.1180682 1.0 2.3728893
3.0901663 1.0 1.0 2.050307 8.133794 3.1805828 1.6645116 1.0
00000000: 8ef0 f03f 7466 1840 4153 1c40 5925 1440
00000010: c3b6 1940 241d ee3f 0000 803f 0000 803f
00000020: cde1 1340 11dd f140 0000 803f 0000 803f
00000030: 0000 803f 0000 803f 3a27 5a40 0000 803f
00000040: 3cab a13e 9237 8840 15b1 fc3f 0000 803f
00000050: 0000 803f 0b36 0a40 0000 803f e97a d440
00000060: 9e81 863f bf4a 7140 0d3b ea3f ffaf e33f
00000070: bacf 5540 7a35 1640 0000 803f 0000 803f
00000080: 0000 803f 753f db3f f8b1 9440 0000 803f
00000090: 649c 1e40 0000 803f 39c0 d13f 0000 803f
000000a0: e184 5140 9b88 1940 0f44 213e 0acf f33f
000000b0: e700 1f40 41bc e43f 83f9 3940 e793 7340
000000c0: 543f b640 1698 2f40 0003 9840 52ce fa3f
000000d0: 5582 fc3f 700f cc40 8692 2340 0000 803f
000000e0: e050 e33f 0000 803f 0b7f 7440 44e7 c240
000000f0: 10d3 4e40 0000 803f 4eb6 6a3e 9e4e f83f
00000100: bc08 a33f 6a13 4540 a16a dc3e 916f 1f40
00000110: 9c8a 4541 337b 9c40 f93c 7f40 5bdd f33f
00000120: 534a 4440 7b29 c83f 0000 803f fe81 e540
00000130: b78c 1540 25e5 8040 7829 f53f 0000 803f
00000140: 1cdb 1140 0000 803f 3aae bb3f 7e3e 0540
00000150: 0c31 fc3f 0d09 5f40 e5a6 2b40 c236 03be
00000160: 0000 803f 4448 5740 4bc8 8340 0000 803f
00000170: eaf4 3e40 8c2f 6a40 0000 803f 92dd 0941
00000180: 8337 0440 4abe da3e 0a0e 4940 bb75 1440
00000190: 0000 803f 0000 803f 5799 8a40 0000 803f
000001a0: 9e07 e73f 0000 803f 4d8a 3f40 d549 1840
000001b0: 0000 803f 0000 803f 0000 803f 3a7c 6c40
000001c0: 321a 0240 0a4e 1440 0da9 2940 0000 803f
000001d0: 1642 f93f 6e8e 0740 0000 803f 6bdd 1740
000001e0: 49c5 4540 0000 803f 0000 803f 3b38 0340
000001f0: 0524 0241 ab8e 4b40 b70e d53f 0000 803f

ensemble.0.module_list.0.output_quant.pre_transforms.0.bias f4 [128]
-0.83901036 3.4504066 3.927538 -2.7744806 4.019805 3.439022 0.0 0.0
0.86895716 -0.24272093 0.0 0.0 0.0 0.0 -0.58943766 0.0
-0.9988131 2.0656881 2.4895506 0.0 0.0 5.499227 0.0 -4.0441985
2.1246655 -0.32502595 2.7175748 -2.34013 0.65975183 3.1704423 0.0 0.0
0.0 1.2630634 1.5867858 0.0 6.553475 0.0 2.791278 0.0
1.1026365 4.284651 -0.98452884 0.9267592 2.9177094 5.206978 -2.2118115 1.3060108
0.715152 0.21842211 -0.87409127 3.0194848 2.2222452 0.7086137 2.4332395 0.0
3.1149867 0.0 0.989854 -1.5510138 1.9048934 0.0 -1.0074214 2.7061696
0.28930292 -0.01849515 -0.95483077 3.8909268 6.020787 -2.1069763 3.4427338 3.7097611
-0.6228084 3.0221393 0.0 5.4874473 4.298556 5.157122 2.5680404 0.0
0.37809047 0.0 1.4870932 -0.8045769 3.3004212 1.656334 4.3259645 -0.62175626
0.0 0.514023 2.9486864 0.0 2.9463239 -0.19284268 0.0 0.4891467
0.85074824 -1.0997616 2.360041 3.5963666 0.0 0.0 0.903895 0.0
1.747131 0.0 1.4071153 0.2609426 0.0 0.0 0.0 -2.730942
4.0823927 2.8325908 3.8305383 0.0 3.5778444 1.8710551 0.0 3.501499
-0.85066754 0.0 0.0 4.3986845 -2.9957037 2.3884 4.9595494 0.0
00000000: 62c9 56bf 76d3 5c40 c85c 7b40 1791 31c0
00000010: 3ea2 8040 f018 5c40 0000 0000 0000 0000
00000020: fa73 5e3f d68b 78be 0000 0000 0000 0000
00000030: 0000 0000 0000 0000 63e5 16bf 0000 0000
00000040: 37b2 7fbf 3c34 0440 cc54 1f40 0000 0000
00000050: 0000 0000 abf9 af40 0000 0000 136a 81c0
00000060: 85fa 0740 cd69 a6be bfec 2d40 b1c4 15c0
00000070: 7fe5 283f 87e8 4a40 0000 0000 0000 0000
00000080: 0000 0000 10ac a13f cc1b cb3f 0000 0000
00000090: 11b6 d140 0000 0000 4ca4 3240 0000 0000
000000a0: 3123 8d3f dc1b 8940 150a 7cbf 1740 6d3f
000000b0: c0bb 3a40 909f a640 528e 0dc0 5d2b a73f
000000c0: 3414 373f 0caa 5f3e 72c4 5fbf 3d3f 4140
000000d0: 4439 0e40 b567 353f 32ba 1b40 0000 0000
000000e0: f15b 4740 0000 0000 1267 7d3f 9f87 c6bf
000000f0: 8cd3 f33f 0000 0000 2ff3 80bf e231 2d40
00000100: 831f 943e 2483 97bc ca6f 74bf f204 7940
00000110: 49aa c040 b3d8 06c0 c055 5c40 ba6c 6d40
00000120: 5f70 1fbf bb6a 4140 0000 0000 2b99 af40
00000130: c58d 8940 2507 a540 c65a 2440 0000 0000
00000140: 1395 c13e 0000 0000 1259 be3f c0f8 4dbf
00000150: 1a3a 5340 c102 d43f 4d6e 8a40 6b2b 1fbf
00000160: 0000 0000 0397 033f 47b7 3c40 0000 0000
00000170: 9290 3c40 8d78 45be 0000 0000 7071 fa3e
00000180: a3ca 593f fdc4 8cbf e90a 1740 df2a 6640
00000190: 0000 0000 0000 0000 aa65 673f 0000 0000
000001a0: fda1 df3f 0000 0000 5b1c b43f 459a 853e
000001b0: 0000 0000 0000 0000 0000 0000 c1c7 2ec0
000001c0: f6a2 8240 2b49 3540 8a27 7540 0000 0000
000001d0: 67fb 6440 bc7e ef3f 0000 0000 8f18 6040
000001e0: 59c5 59bf 0000 0000 0000 0000 06c2 8c40
000001f0: 9cb9 3fc0 8cdb 1840 a1b4 9e40 0000 0000

ensemble.0.module_list.0.output_quant.pre_transforms.0.running_mean f4 [128]
-14.101846 24.869562 -41.3541 13.745252 -23.23722 -5.60985 0.4075642 -1.3377244
11.430166 -37.821846 -2.7982428 -1.1398777 -1.643557 -3.1627045 -11.542477 1.7576437
2.4227173 -12.408487 14.362833 1.7480049 -0.98386043 36.122795 2.5182905 -81.190544
-31.04703 61.627068 31.975178 -0.8691261 12.23854 12.328496 3.1963673 -0.47606298
-3.1276145 5.7793493 -65.32379 -2.0958178 -2.99167 -1.2126297 -0.6274865 -0.15033168
38.362392 81.11412 1.8854581 0.00072442996 -7.8605533 33.531876 34.11115 -1.5322418
33.13139 24.22055 8.90564 30.15596 -33.481365 16.37489 -35.26839 0.43836027
7.169288 -0.036977462 81.33187 -42.91651 40.063717 1.7651147 7.477292 -68.98472
-44.489403 24.503971 -12.851289 -13.287242 23.792803 50.465916 -7.5162635 11.696084
15.738711 16.331856 -1.972455 -19.141026 4.927842 17.78957 9.431782 -3.7851205
4.6034627 1.874088 -46.264145 -39.226677 15.034109 33.858093 -57.224777 0.9711636
0.2424766 64.31117 -86.66739 -3.427243 13.063875 40.978714 -0.5968634 -29.805967
20.461615 -2.4806612 28.243254 -14.395235 -0.6852507 -1.815098 6.5173054 -1.4396077
74.95182 -0.080912456 -5.662263 -27.017237 2.2403922 1.653081 0.107719995 -90.48665
-19.692554 -13.514125 -60.711155 1.3937395 -16.29161 -13.890397 3.7377362 21.25924
-31.613459 0.59182084 2.206295 -40.507175 -39.806816 14.259979 4.456353 -2.068132
00000000: 29a1 61c1 ddf4 c641 996a 25c2 8dec 5b41
00000010: d4e5 b9c1 e483 b3c0 41ac d03e 8e3a abbf
00000020: f6e1 3641 9249 17c2 6916 33c0 83e7 91bf
00000030: 1360 d2bf c069 4ac0 fcad 38c1 78fa e03f
00000040: cd0d 1b40 2a89 46c1 2ace 6541 a0be df3f
00000050: 47de 7bbf be7d 1042 ac2b 2140 8f61 a2c2
00000060: 5160 f8c1 1e82 7642 2acd ff41 0c7f 5ebf
00000070: 0fd1 4341 8541 4541 4891 4c40 87be f3be
00000080: d62a 48c0 6ef0 b840 c8a5 82c2 e121 06c0
00000090: 8577 3fc0 7337 9bbf f5a2 20bf 8cf0 19be
000000a0: 1773 1942 6e3a a242 b156 f13f ace7 3d3a
000000b0: a789 fbc0 a420 0642 d171 0842 8020 c4bf
000000c0: 8b86 0442 b0c3 c141 807d 0e41 683f f141
000000d0: ebec 05c2 c6ff 8241 d512 0dc2 c270 e03e
000000e0: cf6a e540 ae75 17bd eba9 a242 82aa 2bc2
000000f0: 3f41 2042 47ef e13f fa45 ef40 2df8 89c2
00000100: 26f5 31c2 2208 c441 e19e 4dc1 8b98 54c1
00000110: a957 be41 19dd 4942 3b85 f0c0 2923 3b41
00000120: c3d1 7b41 a4a7 8241 6879 fcbf d220 99c1
00000130: e2b0 9d40 0a51 8e41 94e8 1641 6a3f 72c0
00000140: 914f 9340 1ee2 ef3f 7c0e 39c2 1ee8 1cc2
00000150: b68b 7041 b06e 0742 2ce6 64c2 2d9e 783f
00000160: c94b 783e 529f 8042 b455 adc2 f357 5bc0
00000170: a205 5141 34ea 2342 0acc 18bf 9f72 eec1
00000180: 63b1 a341 27c3 1ec0 2ff2 e141 e252 66c1
00000190: 976c 2fbf 2255 e8bf c48d d040 1145 b8bf
000001a0: 55e7 9542 6eb5 a5bd 4231 b5c0 4d23 d8c1
000001b0: 9662 0f40 2998 d33f 4d9c dc3d 2af9 b4c2
000001c0: 5a8a 9dc1 db39 58c1 39d8 72c2 0e66 b23f
000001d0: 3855 82c1 113f 5ec1 1237 6f40 ec12 aa41
000001e0: 5de8 fcc1 9281 173f f033 0d40 5907 22c2
000001f0: 2e3a 1fc2 e028 6441 729a 8e40 465c 04c0

ensemble.0.module_list.0.output_quant.pre_transforms.0.running_var f4 [128]
400.32288 601.06836 339.2558 380.8885 1592.3567 108.05248 0.371743 8.065507
294.76447 1683.5308 3.3047254 2.4409447 1.9572755 4.556804 274.38467 8.224723
29.364042 1156.5973 520.2683 2.1625311 1.2100191 665.5962 3.5799372 4286.789
485.0129 3462.2876 380.20926 83.20778 1326.6282 31.2026 6.926035 3.7083669
7.7544994 356.5317 1769.9717 2.7382567 433.37158 4.6988635 901.59753 0.48677677
1996.3987 3371.4636 5.885134 74.30585 233.47046 614.3273 608.0135 1844.9115
1002.7966 409.0089 1337.7799 939.4871 573.3232 2833.0264 903.89355 1.431882
39.358955 1.6909521 2531.7217 1690.5277 1714.04 3.2640038 54.18469 852.4291
2937.559 500.22086 135.82275 915.4927 1908.9762 4282.9673 32.28405 486.14645
166.70769 337.33844 4.093405 701.4819 443.80276 421.11996 262.0828 9.37096
52.766544 4.8650246 346.09628 840.1383 1107.1274 331.43994 3248.9597 1.1989695
0.29545048 1854.7899 1369.032 2.7971418 230.05482 2226.554 6.9563904 799.3584
1434.3298 11.597196 819.2705 576.9483 0.54677445 2.0505471 823.96704 2.2467089
3828.2605 2.457012 839.2247 2234.8628 4.649547 8.376581 1.4481173 732.18726
326.82785 689.3159 1215.8926 11.122753 669.3301 1736.017 5.2506294 396.25537
1795.4092 2.074101 4.5471134 441.46442 1363.7341 77.59298 484.3638 4.8388443
00000000: 5429 c843 6044 1644 bea0 a943 ba71 be43
00000010: 6a0b c744 df1a d842 1955 be3e 510c 0141
00000020: da61 9343 fc70 d244 9f80 5340 7038 1c40
00000030: 0188 fa3f 57d1 9140 3d31 8943 7798 0341
00000040: 8fe9 ea41 1d93 9044 2c11 0244 e966 0a40
00000050: e8e1 9a3f 2866 2644 b11d 6540 50f6 8545
00000060: a781 f243 9a64 5845 c91a be43 626a a642
00000070: 1ad4 a544 ed9e f941 14a2 dd40 e255 6d40
00000080: dc24 f840 0f44 b243 183f dd44 993f 2f40
00000090: 90af d843 175d 9640 3e66 6144 ce3a f93e
000000a0: c28c f944 6bb7 5245 0553 bc40 989c 9442
000000b0: 7078 6943 f294 1944 dd00 1844 2b9d e644
000000c0: fbb2 7a44 2481 cc43 f538 a744 2ddf 6a44
000000d0: af54 0f44 6c10 3145 30f9 6144 e947 b73f
000000e0: 926f 1d42 1e71 d83f 8c3b 1e45 e350 d344
000000f0: 4841 d644 70e5 5040 1fbd 5842 761b 5544
00000100: f298 3745 451c fa43 a0d2 0743 88df 6444
00000110: 3d9f ee44 bdd7 8545 de22 0142 bf12 f343
00000120: 2bb5 2643 52ab a843 2cfd 8240 d75e 2f44
00000130: c1e6 dd43 5b8f d243 990a 8343 74ef 1541
00000140: f110 5342 48ae 9b40 530c ad43 da08 5244
00000150: 1464 8a44 50b8 a543 5b0f 4b45 d577 993f
00000160: 4945 973e 47d9 e744 0621 ab44 5f04 3340
00000170: 090e 6643 dd28 0b45 c09a de40 f0d6 4744
00000180: 8e4a b344 1d8e 3941 50d1 4c44 b13c 1044
00000190: 69f9 0b3f 2a3c 0340 e4fd 4d44 14ca 0f40
000001a0: 2b44 6f45 af3f 1d40 61ce 5144 cead 0b45
000001b0: 17c9 9440 7a06 0641 e85b b93f fc0b 3744
000001c0: f769 a343 3854 2c44 90fc 9744 ccf6 3141
000001d0: 2055 2744 8b00 d944 2805 a840 b020 c643
000001e0: 186d e044 12be 0440 f481 9140 72bb dc43
000001f0: 7e77 aa44 9b2f 9b42 912e f243 d0d7 9a40

ensemble.0.module_list.1.mask f4 [9, 3]
1.0 0.0 0.0 0.0 1.0 0.0 0.0 0.0
1.0 2.0 0.0 0.0 1.0 1.0 0.0 1.0
0.0 1.0 0.0 2.0 0.0 0.0 1.0 1.0
0.0 0.0 2.0
00000000: 0000 803f 0000 0000 0000 0000 0000 0000
00000010: 0000 803f 0000 0000 0000 0000 0000 0000
00000020: 0000 803f 0000 0040 0000 0000 0000 0000
00000030: 0000 803f 0000 803f 0000 0000 0000 803f
00000040: 0000 0000 0000 803f 0000 0000 0000 0040
00000050: 0000 0000 0000 0000 0000 803f 0000 803f
00000060: 0000 0000 0000 0000 0000 0040

ensemble.0.module_list.1.input_quant.pre_transforms.0.weight f4 [128]
1.8823411 2.3812532 2.4425814 2.3147795 2.40178 1.8602643 1.0 1.0
2.3106568 7.5582356 1.0 1.0 1.0 1.0 3.4086442 1.0
0.31575954 4.2567835 1.9741541 1.0 1.0 2.1595485 1.0 6.6400037
1.0508306 3.7701871 1.8299271 1.7788085 3.3408036 2.347014 1.0 1.0
1.0 1.712874 4.6467247 1.0 2.4782953 1.0 1.6386787 1.0
3.2737353 2.3989627 0.15748619 1.9047558 2.48443 1.786995 2.905854 3.8059022
5.6952305 2.7436576 4.750366 1.9594214 1.9727274 6.3768845 2.555818 1.0
1.7759056 1.0 3.820254 6.0907307 3.2316322 1.0 0.22921106 1.9398992
1.273704 3.07931 0.430501 2.4911845 12.34634 4.890039 3.9880965 1.9051927
3.0670364 1.5637659 1.0 7.172118 2.3367136 4.0279717 1.915328 1.0
2.2789984 1.0 1.4662545 2.0819392 1.9702468 3.4849274 2.6820614 -0.12813857
1.0 3.3637857 4.1182 1.0 2.9836984 3.659152 1.0 8.616594
2.0658882 0.42723304 3.1414819 2.3196857 1.0 1.0 4.3312182 1.0
1.80492 1.0 2.9928162 2.3795063 1.0 1.0 1.0 3.6950822
2.0328488 2.3172631 2.650943 1.0 1.9473293 2.1180682 1.0 2.3728893
3.0901663 1.0 1.0 2.050307 8.133794 3.1805828 1.6645116 1.0
00000000: 8ef0 f03f 7466 1840 4153 1c40 5925 1440
00000010: c3b6 1940 241d ee3f 0000 803f 0000 803f
00000020: cde1 1340 11dd f140 0000 803f 0000 803f
00000030: 0000 803f 0000 803f 3a27 5a40 0000 803f
00000040: 3cab a13e 9237 8840 15b1 fc3f 0000 803f
00000050: 0000 803f 0b36 0a40 0000 803f e97a d440
00000060: 9e81 863f bf4a 7140 0d3b ea3f ffaf e33f
00000070: bacf 5540 7a35 1640 0000 803f 0000 803f
00000080: 0000 803f 753f db3f f8b1 9440 0000 803f
00000090: 649c 1e40 0000 803f 39c0 d13f 0000 803f
000000a0: e184 5140 9b88 1940 0f44 213e 0acf f33f
000000b0: e700 1f40 41bc e43f 83f9 3940 e793 7340
000000c0: 543f b640 1698 2f40 0003 9840 52ce fa3f
000000d0: 5582 fc3f 700f cc40 8692 2340 0000 803f
000000e0: e050 e33f 0000 803f 0b7f 7440 44e7 c240
000000f0: 10d3 4e40 0000 803f 4eb6 6a3e 9e4e f83f
00000100: bc08 a33f 6a13 4540 a16a dc3e 916f 1f40
00000110: 9c8a 4541 337b 9c40 f93c 7f40 5bdd f33f
00000120: 534a 4440 7b29 c83f 0000 803f fe81 e540
00000130: b78c 1540 25e5 8040 7829 f53f 0000 803f
00000140: 1cdb 1140 0000 803f 3aae bb3f 7e3e 0540
00000150: 0c31 fc3f 0d09 5f40 e5a6 2b40 c236 03be
00000160: 0000 803f 4448 5740 4bc8 8340 0000 803f
00000170: eaf4 3e40 8c2f 6a40 0000 803f 92dd 0941
00000180: 8337 0440 4abe da3e 0a0e 4940 bb75 1440
00000190: 0000 803f 0000 803f 5799 8a40 0000 803f
000001a0: 9e07 e73f 0000 803f 4d8a 3f40 d549 1840
000001b0: 0000 803f 0000 803f 0000 803f 3a7c 6c40
000001c0: 321a 0240 0a4e 1440 0da9 2940 0000 803f
000001d0: 1642 f93f 6e8e 0740 0000 803f 6bdd 1740
000001e0: 49c5 4540 0000 803f 0000 803f 3b38 0340
000001f0: 0524 0241 ab8e 4b40 b70e d53f 0000 803f

ensemble.0.module_list.1.input_quant.pre_transforms.0.bias f4 [128]
-0.83901036 3.4504066 3.927538 -2.7744806 4.019805 3.439022 0.0 0.0
0.86895716 -0.24272093 0.0 0.0 0.0 0.0 -0.58943766 0.0
-0.9988131 2.0656881 2.4895506 0.0 0.0 5.499227 0.0 -4.0441985
2.1246655 -0.32502595 2.7175748 -2.34013 0.65975183 3.1704423 0.0 0.0
0.0 1.2630634 1.5867858 0.0 6.553475 0.0 2.791278 0.0
1.1026365 4.284651 -0.98452884 0.9267592 2.9177094 5.206978 -2.2118115 1.3060108
0.715152 0.21842211 -0.87409127 3.0194848 2.2222452 0.7086137 2.4332395 0.0
3.1149867 0.0 0.989854 -1.5510138 1.9048934 0.0 -1.0074214 2.7061696
0.28930292 -0.01849515 -0.95483077 3.8909268 6.020787 -2.1069763 3.4427338 3.7097611
-0.6228084 3.0221393 0.0 5.4874473 4.298556 5.157122 2.5680404 0.0
0.37809047 0.0 1.4870932 -0.8045769 3.3004212 1.656334 4.3259645 -0.62175626
0.0 0.514023 2.9486864 0.0 2.9463239 -0.19284268 0.0 0.4891467
0.85074824 -1.0997616 2.360041 3.5963666 0.0 0.0 0.903895 0.0
1.747131 0.0 1.4071153 0.2609426 0.0 0.0 0.0 -2.730942
4.0823927 2.8325908 3.8305383 0.0 3.5778444 1.8710551 0.0 3.501499
-0.85066754 0.0 0.0 4.3986845 -2.9957037 2.3884 4.9595494 0.0
00000000: 62c9 56bf 76d3 5c40 c85c 7b40 1791 31c0
00000010: 3ea2 8040 f018 5c40 0000 0000 0000 0000
00000020: fa73 5e3f d68b 78be 0000 0000 0000 0000
00000030: 0000 0000 0000 0000 63e5 16bf 0000 0000
00000040: 37b2 7fbf 3c34 0440 cc54 1f40 0000 0000
00000050: 0000 0000 abf9 af40 0000 0000 136a 81c0
00000060: 85fa 0740 cd69 a6be bfec 2d40 b1c4 15c0
00000070: 7fe5 283f 87e8 4a40 0000 0000 0000 0000
00000080: 0000 0000 10ac a13f cc1b cb3f 0000 0000
00000090: 11b6 d140 0000 0000 4ca4 3240 0000 0000
000000a0: 3123 8d3f dc1b 8940 150a 7cbf 1740 6d3f
000000b0: c0bb 3a40 909f a640 528e 0dc0 5d2b a73f
000000c0: 3414 373f 0caa 5f3e 72c4 5fbf 3d3f 4140
000000d0: 4439 0e40 b567 353f 32ba 1b40 0000 0000
000000e0: f15b 4740 0000 0000 1267 7d3f 9f87 c6bf
000000f0: 8cd3 f33f 0000 0000 2ff3 80bf e231 2d40
00000100: 831f 943e 2483 97bc ca6f 74bf f204 7940
00000110: 49aa c040 b3d8 06c0 c055 5c40 ba6c 6d40
00000120: 5f70 1fbf bb6a 4140 0000 0000 2b99 af40
00000130: c58d 8940 2507 a540 c65a 2440 0000 0000
00000140: 1395 c13e 0000 0000 1259 be3f c0f8 4dbf
00000150: 1a3a 5340 c102 d43f 4d6e 8a40 6b2b 1fbf
00000160: 0000 0000 0397 033f 47b7 3c40 0000 0000
00000170: 9290 3c40 8d78 45be 0000 0000 7071 fa3e
00000180: a3ca 593f fdc4 8cbf e90a 1740 df2a 6640
00000190: 0000 0000 0000 0000 aa65 673f 0000 0000
000001a0: fda1 df3f 0000 0000 5b1c b43f 459a 853e
000001b0: 0000 0000 0000 0000 0000 0000 c1c7 2ec0
000001c0: f6a2 8240 2b49 3540 8a27 7540 0000 0000
000001d0: 67fb 6440 bc7e ef3f 0000 0000 8f18 6040
000001e0: 59c5 59bf 0000 0000 0000 0000 06c2 8c40
000001f0: 9cb9 3fc0 8cdb 1840 a1b4 9e40 0000 0000

ensemble.0.module_list.1.input_quant.pre_transforms.0.running_mean f4 [128]
-14.101846 24.869562 -41.3541 13.745252 -23.23722 -5.60985 0.4075642 -1.3377244
11.430166 -37.821846 -2.7982428 -1.1398777 -1.643557 -3.1627045 -11.542477 1.7576437
2.4227173 -12.408487 14.362833 1.7480049 -0.98386043 36.122795 2.5182905 -81.190544
-31.04703 61.627068 31.975178 -0.8691261 12.23854 12.328496 3.1963673 -0.47606298
-3.1276145 5.7793493 -65.32379 -2.0958178 -2.99167 -1.2126297 -0.6274865 -0.15033168
38.362392 81.11412 1.8854581 0.00072442996 -7.8605533 33.531876 34.11115 -1.5322418
33.13139 24.22055 8.90564 30.15596 -33.481365 16.37489 -35.26839 0.43836027
7.169288 -0.036977462 81.33187 -42.91651 40.063717 1.7651147 7.477292 -68.98472
-44.489403 24.503971 -12.851289 -13.287242 23.792803 50.465916 -7.5162635 11.696084
15.738711 16.331856 -1.972455 -19.141026 4.927842 17.78957 9.431782 -3.7851205
4.6034627 1.874088 -46.264145 -39.226677 15.034109 33.858093 -57.224777 0.9711636
0.2424766 64.31117 -86.66739 -3.427243 13.063875 40.978714 -0.5968634 -29.805967
20.461615 -2.4806612 28.243254 -14.395235 -0.6852507 -1.815098 6.5173054 -1.4396077
74.95182 -0.080912456 -5.662263 -27.017237 2.2403922 1.653081 0.107719995 -90.48665
-19.692554 -13.514125 -60.711155 1.3937395 -16.29161 -13.890397 3.7377362 21.25924
-31.613459 0.59182084 2.206295 -40.507175 -39.806816 14.259979 4.456353 -2.068132
00000000: 29a1 61c1 ddf4 c641 996a 25c2 8dec 5b41
00000010: d4e5 b9c1 e483 b3c0 41ac d03e 8e3a abbf
00000020: f6e1 3641 9249 17c2 6916 33c0 83e7 91bf
00000030: 1360 d2bf c069 4ac0 fcad 38c1 78fa e03f
00000040: cd0d 1b40 2a89 46c1 2ace 6541 a0be df3f
00000050: 47de 7bbf be7d 1042 ac2b 2140 8f61 a2c2
00000060: 5160 f8c1 1e82 7642 2acd ff41 0c7f 5ebf
00000070: 0fd1 4341 8541 4541 4891 4c40 87be f3be
00000080: d62a 48c0 6ef0 b840 c8a5 82c2 e121 06c0
00000090: 8577 3fc0 7337 9bbf f5a2 20bf 8cf0 19be
000000a0: 1773 1942 6e3a a242 b156 f13f ace7 3d3a
000000b0: a789 fbc0 a420 0642 d171 0842 8020 c4bf
000000c0: 8b86 0442 b0c3 c141 807d 0e41 683f f141
000000d0: ebec 05c2 c6ff 8241 d512 0dc2 c270 e03e
000000e0: cf6a e540 ae75 17bd eba9 a242 82aa 2bc2
000000f0: 3f41 2042 47ef e13f fa45 ef40 2df8 89c2
00000100: 26f5 31c2 2208 c441 e19e 4dc1 8b98 54c1
00000110: a957 be41 19dd 4942 3b85 f0c0 2923 3b41
00000120: c3d1 7b41 a4a7 8241 6879 fcbf d220 99c1
00000130: e2b0 9d40 0a51 8e41 94e8 1641 6a3f 72c0
00000140: 914f 9340 1ee2 ef3f 7c0e 39c2 1ee8 1cc2
00000150: b68b 7041 b06e 0742 2ce6 64c2 2d9e 783f
00000160: c94b 783e 529f 8042 b455 adc2 f357 5bc0
00000170: a205 5141 34ea 2342 0acc 18bf 9f72 eec1
00000180: 63b1 a341 27c3 1ec0 2ff2 e141 e252 66c1
00000190: 976c 2fbf 2255 e8bf c48d d040 1145 b8bf
000001a0: 55e7 9542 6eb5 a5bd 4231 b5c0 4d23 d8c1
000001b0: 9662 0f40 2998 d33f 4d9c dc3d 2af9 b4c2
000001c0: 5a8a 9dc1 db39 58c1 39d8 72c2 0e66 b23f
000001d0: 3855 82c1 113f 5ec1 1237 6f40 ec12 aa41
000001e0: 5de8 fcc1 9281 173f f033 0d40 5907 22c2
000001f0: 2e3a 1fc2 e028 6441 729a 8e40 465c 04c0

ensemble.0.module_list.1.input_quant.pre_transforms.0.running_var f4 [128]
400.32288 601.06836 339.2558 380.8885 1592.3567 108.05248 0.371743 8.065507
294.76447 1683.5308 3.3047254 2.4409447 1.9572755 4.556804 274.38467 8.224723
29.364042 1156.5973 520.2683 2.1625311 1.2100191 665.5962 3.5799372 4286.789
485.0129 3462.2876 380.20926 83.20778 1326.6282 31.2026 6.926035 3.7083669
7.7544994 356.5317 1769.9717 2.7382567 433.37158 4.6988635 901.59753 0.48677677
1996.3987 3371.4636 5.885134 74.30585 233.47046 614.3273 608.0135 1844.9115
1002.7966 409.0089 1337.7799 939.4871 573.3232 2833.0264 903.89355 1.431882
39.358955 1.6909521 2531.7217 1690.5277 1714.04 3.2640038 54.18469 852.4291
2937.559 500.22086 135.82275 915.4927 1908.9762 4282.9673 32.28405 486.14645
166.70769 337.33844 4.093405 701.4819 443.80276 421.11996 262.0828 9.37096
52.766544 4.8650246 346.09628 840.1383 1107.1274 331.43994 3248.9597 1.1989695
0.29545048 1854.7899 1369.032 2.7971418 230.05482 2226.554 6.9563904 799.3584
1434.3298 11.597196 819.2705 576.9483 0.54677445 2.0505471 823.96704 2.2467089
3828.2605 2.457012 839.2247 2234.8628 4.649547 8.376581 1.4481173 732.18726
326.82785 689.3159 1215.8926 11.122753 669.3301 1736.017 5.2506294 396.25537
1795.4092 2.074101 4.5471134 441.46442 1363.7341 77.59298 484.3638 4.8388443
00000000: 5429 c843 6044 1644 bea0 a943 ba71 be43
00000010: 6a0b c744 df1a d842 1955 be3e 510c 0141
00000020: da61 9343 fc70 d244 9f80 5340 7038 1c40
00000030: 0188 fa3f 57d1 9140 3d31 8943 7798 0341
00000040: 8fe9 ea41 1d93 9044 2c11 0244 e966 0a40
00000050: e8e1 9a3f 2866 2644 b11d 6540 50f6 8545
00000060: a781 f243 9a64 5845 c91a be43 626a a642
00000070: 1ad4 a544 ed9e f941 14a2 dd40 e255 6d40
00000080: dc24 f840 0f44 b243 183f dd44 993f 2f40
00000090: 90af d843 175d 9640 3e66 6144 ce3a f93e
000000a0: c28c f944 6bb7 5245 0553 bc40 989c 9442
000000b0: 7078 6943 f294 1944 dd00 1844 2b9d e644
000000c0: fbb2 7a44 2481 cc43 f538 a744 2ddf 6a44
000000d0: af54 0f44 6c10 3145 30f9 6144 e947 b73f
000000e0: 926f 1d42 1e71 d83f 8c3b 1e45 e350 d344
000000f0: 4841 d644 70e5 5040 1fbd 5842 761b 5544
00000100: f298 3745 451c fa43 a0d2 0743 88df 6444
00000110: 3d9f ee44 bdd7 8545 de22 0142 bf12 f343
00000120: 2bb5 2643 52ab a843 2cfd 8240 d75e 2f44
00000130: c1e6 dd43 5b8f d243 990a 8343 74ef 1541
00000140: f110 5342 48ae 9b40 530c ad43 da08 5244
00000150: 1464 8a44 50b8 a543 5b0f 4b45 d577 993f
00000160: 4945 973e 47d9 e744 0621 ab44 5f04 3340
00000170: 090e 6643 dd28 0b45 c09a de40 f0d6 4744
00000180: 8e4a b344 1d8e 3941 50d1 4c44 b13c 1044
00000190: 69f9 0b3f 2a3c 0340 e4fd 4d44 14ca 0f40
000001a0: 2b44 6f45 af3f 1d40 61ce 5144 cead 0b45
000001b0: 17c9 9440 7a06 0641 e85b b93f fc0b 3744
000001c0: f769 a343 3854 2c44 90fc 9744 ccf6 3141
000001d0: 2055 2744 8b00 d944 2805 a840 b020 c643
000001e0: 186d e044 12be 0440 f481 9140 72bb dc43
000001f0: 7e77 aa44 9b2f 9b42 912e f243 d0d7 9a40

ensemble.0.module_list.1.fc.weight f4 [64, 9]
5.9929013 10.377379 -9.50885 0.6375168 -1.984422 -3.5347013 -0.60573316 2.9522505
4.8473816 13.654227 2.6706443 -1.4512317 2.781169 2.5286448 -0.50958467 1.4726372
-4.7565856 -4.5166683 -6.3426914 6.34986 22.56451 -0.20186472 -1.1905972 2.639996
-1.6033823 5.3644605 -0.79679084 -0.09470622 0.22562575 -0.1224823 0.17682537 0.074685775
0.08413911 -0.2538868 0.10848586 -0.24067394 6.588732 -9.130386 17.588005 -1.2538694
-1.1676142 -1.6634786 0.71642804 2.0658689 0.24523503 -9.809748 -6.593538 -0.0070095924
-0.29562017 -2.4017634 -0.1342718 -0.40335545 -0.14782138 0.073204555 -3.1334856 0.15281712
10.529493 2.4678895 2.773878 6.234291 -0.17116888 0.5882794 2.1401293 2.1480865
-8.918596 10.165683 2.0316002 -1.4668535 5.1278987 0.38179344 2.387496 5.180239
-16.80714 6.6012335 -4.637732 1.0815519 -2.7880108 2.0359144 -0.6354249 -0.39545128
-0.2639673 -12.689494 0.6394207 12.210195 4.4609118 0.15966773 2.32659 0.59545535
0.4942937 -0.045931228 -0.23358569 -0.31975436 0.09102833 0.28339955 0.22870493 -0.065236054
-0.24099922 -0.031086843 0.2769372 -0.078848824 2.004988 1.9505093 -0.2567718 0.07052592
0.14248982 5.555482 5.2419944 -0.5618018 -0.3239085 -0.047181647 0.1757782 -0.29581246
-0.22126004 0.19687304 0.24212787 -0.00239261 -0.2747379 -2.5431368 9.775469 0.43799573
6.188656 -4.151843 -0.8617067 -0.60329396 -1.6189615 -1.6479672 5.41432 -12.811005
-3.365208 -2.0513883 5.72637 -5.904479 -0.48182562 5.042018 -0.55425924 -0.22432856
0.21785335 -0.20332634 -0.1336004 0.30998474 0.14212689 -0.06812879 -0.3170751 -0.07270329
-5.246397 -4.4231167 -15.294823 -1.0859897 -0.35096577 0.21232285 -0.41861036 3.665077
-1.6911308 7.441197 7.8560944 5.70941 -0.31511477 -0.43974674 4.8886046 -2.2741177
2.3907747 6.3539677 -2.0363655 -0.8624534 11.282738 3.7094338 -3.1496646 -4.1528068
1.594367 3.3357112 1.45267 12.510122 3.334677 -2.7614558 -3.2375286 0.120564885
-5.262497 -1.8366215 5.6929307 0.6247608 0.14822368 -0.18808565 -0.17027073 0.052905284
0.22338152 0.09222579 -0.038774095 -0.29837686 0.086262986 -7.165976 -10.037287 -9.680626
-0.6548053 2.7322211 3.2154787 -3.5378237 -0.8187852 -0.15356535 -3.5709836 5.5343046
6.733167 -0.34529918 -1.001792 -4.5945663 2.794334 6.162379 -2.3415928 -0.2597811
0.0835623 0.32105273 0.332916 0.28561383 0.31457865 -0.1964651 0.19305682 -0.2226547
1.9851946 -18.5981 3.5023963 -0.7436538 1.1087848 1.8864068 -7.6922 -8.185241
-2.2910058 9.156568 3.8747506 0.56507033 7.44995 -2.793748 0.6598745 -1.7800605
-2.529739 1.6616839 0.106507584 0.15491681 -0.14659595 -0.052297913 0.12659645 -0.09393116
-0.102208816 -0.07794285 0.19486885 7.805114 17.8647 -3.2101052 -0.35573107 0.25309122
1.6460962 0.058628544 1.3945507 0.6333302 -1.0310402 -4.6346827 -3.9691308 -3.7455997
00000000: d9c5 bf40 bf09 2641 4024 18c1 4d34 233f
00000010: 8a01 febf 8c38 62c0 5411 1bbf acf1 3c40
00000020: c01d 9b40 b777 5a41 d6eb 2a40 f6c1 b9bf
00000030: acfe 3140 51d5 2140 2474 02bf 607f bc3f
00000040: f335 98c0 8c88 90c0 54f7 cac0 0e32 cb40
00000050: 1e84 b441 a0b5 4ebe 7d65 98bf b2f5 2840
00000060: a23b cdbf a9a9 ab40 7cfa 4bbf 56f5 c1bd
00000070: 700a 673e 00d8 fabd b611 353e dbf4 983d
00000080: 2051 ac3d 73fd 81be d62d de3d 3b73 76be
00000090: e4d6 d240 1016 12c1 3cb4 8c41 cb7e a0bf
000000a0: 6274 95bf deec d4bf d467 373f 3237 0440
000000b0: e41e 7b3e baf4 1cc1 43fe d2c0 b9b0 e5bb
000000c0: 875b 97be 7eb6 19c0 8c7e 09be 9b84 cebe
000000d0: 7d5e 17be 45ec 953d 078b 48c0 177c 1c3e
000000e0: ce78 2841 e7f1 1d40 3887 3140 507f c740
000000f0: e546 2fbe 7b99 163f e1f7 0840 407a 0940
00000100: 92b2 0ec1 a3a6 2241 bd05 0240 dbc1 bbbf
00000110: bf17 a440 6e7a c33e bccc 1840 85c4 a540
00000120: 0675 86c1 4e3d d340 4d68 94c0 4b70 8a3f
00000130: c56e 32c0 6c4c 0240 35ab 22bf 9778 cabe
00000140: b926 87be 2b08 4bc1 13b1 233f f55c 4341
00000150: cabf 8e40 f07f 233e dae6 1440 c36f 183f
00000160: 1014 fd3e 6222 3cbd 1631 6fbe d8b6 a3be
00000170: 106d ba3d bf19 913e a031 6a3e 7b9a 85bd
00000180: 80c8 76be d6a9 febc b6ca 8d3e 7e7b a1bd
00000190: b951 0040 4aaa f93f 9877 83be e56f 903d
000001a0: dae8 113e 82c6 b140 6bbe a740 3ed2 0fbf
000001b0: 56d7 a5be 8b41 41bd 33ff 333e bb74 97be
000001c0: fe91 62be 1699 493e 5ef0 773e 56cd 1cbb
000001d0: 72aa 8cbe c1c2 22c0 5268 1c41 fa40 e03e
000001e0: 7809 c640 e6db 84c0 cf98 5cbf 7971 1abf
000001f0: 213a cfbf 97f0 d2bf 1c42 ad40 e0f9 4cc1
00000200: 915f 57c0 f249 03c0 6c3e b740 7ef1 bcc0
00000210: d9b1 f6be 3658 a140 efe3 0dbf 63b6 65be
00000220: f314 5f3e c834 50be 8bce 08be 52b6 9e3e
00000230: b689 113e 1b87 8bbd ab57 a2be 76e5 94bd
00000240: 7ce2 a7c0 2c8a 8dc0 98b7 74c1 b601 8bbf
00000250: c9b1 b3be 296b 593e 1954 d6be 9f90 6a40
00000260: f976 d8bf 491e ee40 2065 fb40 7db3 b640
00000270: b956 a1be 7c26 e1be 736f 9c40 258b 11c0
00000280: 7402 1940 b453 cb40 d053 02c0 bfc9 5cbf
00000290: 1886 3441 5d67 6d40 1b94 49c0 cbe3 84c0
000002a0: 3814 cc3f 4b7c 5540 17f1 b93f 7629 4841
000002b0: 596b 5540 b1bb 30c0 ab33 4fc0 b9ea f63d
000002c0: 6066 a8c0 6a16 ebbf 7d2c b640 53f0 1f3f
000002d0: f3c7 173e 8699 40be 735b 2ebe 36b3 583d
000002e0: 20be 643e e0e0 bc3d 96d1 1ebd dac4 98be
000002f0: a6aa b03d ad4f e5c0 ba98 20c1 d8e3 1ac1
00000300: 52a1 27bf b6dc 2e40 67ca 4d40 b46b 62c0
00000310: e89b 51bf 3c40 1dbe ff8a 64c0 0619 b140
00000320: 1b76 d740 0ecb b0be b83a 80bf b006 93c0
00000330: 5ed6 3240 3532 c540 a8dc 15c0 0702 85be
00000340: b622 ab3d 0661 a43e f773 aa3e fa3b 923e
00000350: 7410 a13e 262e 49be b0b0 453e 98ff 63be
00000360: db1a fe3f e9c8 94c1 4327 6040 1860 3ebf
00000370: a9ec 8d3f c775 f13f 8126 f6c0 bff6 02c1
00000380: d79f 12c0 4d81 1241 eafb 7740 73a8 103f
00000390: fe65 ee40 c4cc 32c0 89ed 283f 06d9 e3bf
000003a0: 3ee7 21c0 0fb2 d43f a620 da3d 83a2 1e3e
000003b0: 401d 16be 5636 56bd 80a2 013e fb5e c0bd
000003c0: db52 d1bd 80a0 9fbd b38b 473e 7ec3 f940
000003d0: e8ea 8e41 5d72 4dc0 6222 b6be 2c95 813e
000003e0: 48b3 d23f 7c24 703d a380 b23f ee21 223f
000003f0: 20f9 83bf 524f 94c0 3d06 7ec0 e8b7 6fc0

ensemble.0.module_list.1.fc.bias f4 [64]
0.076469265 -0.16852123 -0.01297592 -0.0808808 0.049975704 -0.029542942 0.034824863 0.078197055
-0.05968252 -0.06933514 0.07698071 0.031368855 -0.017567007 0.11131987 0.0634999 0.061650977
0.13228694 -0.092053 0.10004285 -0.07604459 -0.023901561 -0.00484528 0.044830635 0.017886901
0.10183565 0.02877749 -0.020800596 -0.32681894 0.07209915 -0.0047635054 0.012823452 -0.10139433
-0.08587564 0.00032212495 0.08399712 -0.06776457 0.0041083046 0.13781555 -0.02638225 -0.016428797
0.015637917 0.10949345 0.07463988 0.017104244 -0.075909846 0.03698464 0.02503274 -0.037473474
0.06209628 0.033266235 -0.029550722 -0.027451789 -0.052595146 -0.0076980586 0.0032815558 0.0963508
0.008230352 -0.077545255 0.045019586 0.012726653 0.0071217082 0.026910095 0.08309385 -0.06944147
00000000: eb9b 9c3d d490 2cbe f498 54bc d5a4 a5bd
00000010: 53b3 4c3d 0a04 f2bc 84a4 0e3d c725 a03d
00000020: a875 74bd 95ff 8dbd 10a8 9d3d a17c 003d
00000030: afe8 8fbc acfb e33d 3c0c 823d bc85 7c3d
00000040: 3a76 073e 4986 bcbd 44e3 cc3d 44bd 9bbd
00000050: 35cd c3bc 28c5 9ebb 54a0 373d 8d87 923c
00000060: 368f d03d c5be eb3c 0366 aabc d054 a7be
00000070: b8a8 933d 2e17 9cbb 7519 523c d5a7 cfbd
00000080: 91df afbd e1e2 a839 af06 ac3d 27c8 8abd
00000090: f59e 863b 851f 0d3e 971f d8bc af95 86bc
000000a0: 171b 803c 1a3e e03d cbdc 983d 331e 8c3c
000000b0: 9f76 9bbd 357d 173d 7611 cd3c c97d 19bd
000000c0: ab58 7e3d 2d42 083d 5b14 f2bc 93e2 e0bc
000000d0: 026e 57bd ff3f fcbb 5f0f 573b 9153 c53d
000000e0: 99d8 063c 0cd0 9ebd 7566 383d 7483 503c
000000f0: 385d e93b 8f72 dc3c 1c2d aa3d 5437 8ebd

ensemble.0.module_list.1.output_quant.pre_transforms.0.weight f4 [64]
1.9441139 4.739954 2.6838074 1.0 2.3762593 1.7539735 2.098762 1.6014593
1.0175422 2.023096 1.0 2.1621952 1.0 2.4160197 2.9462914 1.0
2.43952 1.5536271 1.5988736 2.5020263 1.0 3.4206393 1.8276784 1.0
2.449729 2.1892235 1.0 2.1883705 2.4203644 2.2851987 1.0 3.24984
2.407358 2.8186834 7.986554 2.1440039 7.442513 1.6523926 1.0 1.7867831
3.6029599 1.9333146 2.1211984 1.6719116 2.0678046 2.927301 1.0 2.118795
3.255283 2.1104255 2.7850306 2.3849568 1.0 1.0 2.5865726 2.5679157
1.0 1.9816129 2.0853195 3.2802384 2.5329554 2.0365858 1.0 3.5994132
00000000: b9d8 f83f b4ad 9740 80c3 2b40 0000 803f
00000010: a214 1840 3482 e03f 1e52 0640 9efc cc3f
00000020: d33e 823f 687a 0140 0000 803f 6861 0a40
00000030: 0000 803f 11a0 1a40 0a90 3c40 0000 803f
00000040: 1821 1c40 41dd c63f e4a7 cc3f 3321 2040
00000050: 0000 803f c1eb 5a40 5ef1 e93f 0000 803f
00000060: 5cc8 1c40 3d1c 0c40 0000 803f 430e 0c40
00000070: 40e7 1a40 b240 1240 0000 803f 61fd 4f40
00000080: 2712 1a40 4f65 3440 da91 ff40 5c37 0940
00000090: 1129 ee40 9a81 d33f 0000 803f 4fb5 e43f
000000a0: e596 6640 da76 f73f b7c1 0740 3301 d63f
000000b0: e956 0440 e658 3b40 0000 803f 569a 0740
000000c0: 8f56 5040 3611 0740 f13d 3240 22a3 1840
000000d0: 0000 803f 0000 803f 688a 2540 bb58 2440
000000e0: 0000 803f 7ea5 fd3f e075 0540 6def 5140
000000f0: f11b 2240 6c57 0240 0000 803f c95c 6640

ensemble.0.module_list.1.output_quant.pre_transforms.0.bias f4 [64]
1.68738 2.184332 3.4004579 0.0 1.9516158 0.7508667 0.90698105 1.3662664
2.0168736 1.7839993 0.0 1.546557 0.0 0.55006707 1.3603704 0.0
2.0517113 2.4797304 3.2195737 0.09631462 0.0 1.8553207 3.620868 0.0
3.1510966 -1.218287 0.0 3.536993 -0.23374681 1.704156 0.0 1.8066158
3.3548048 2.7613966 2.0174525 2.4466856 0.84982723 4.111677 0.0 0.9467002
-0.3825538 1.2023318 3.4511 2.0021167 2.2895386 2.5092218 0.0 2.3254607
-2.761038 2.2227685 3.1445224 0.13033356 0.0 0.0 2.7602057 -0.3539059
0.0 0.66157323 3.995795 -0.4311203 2.3544245 4.009949 0.0 1.8679001
00000000: 11fc d73f 18cc 0b40 1aa1 5940 0000 0000
00000010: 8cce f93f cd38 403f e92f 683f d1e1 ae3f
00000020: 7514 0140 175a e43f 0000 0000 94f5 c53f
00000030: 0000 0000 32d1 0c3f 9e20 ae3f 0000 0000
00000040: 3d4f 0340 e7b3 1e40 7f0d 4e40 9940 c53d
00000050: 0000 0000 267b ed3f 4dbc 6740 0000 0000
00000060: 91ab 4940 d4f0 9bbf 0000 0000 185e 6240
00000070: 535b 6fbe c921 da3f 0000 0000 303f e73f
00000080: 1fb5 5640 b9ba 3040 f11d 0140 7f96 1c40
00000090: 478e 593f dc92 8340 0000 0000 f25a 723f
000000a0: 17de c3be 02e6 993f d3de 5c40 ae22 0040
000000b0: cd87 1240 1797 2040 0000 0000 59d4 1440
000000c0: d9b4 30c0 d741 0e40 db3f 4940 2976 053e
000000d0: 0000 0000 0000 0000 36a7 3040 2733 b5be
000000e0: 0000 0000 dd5c 293f 1bbb 7f40 cdbb dcbe
000000f0: e4ae 1640 8151 8040 0000 0000 5a17 ef3f

ensemble.0.module_list.1.output_quant.pre_transforms.0.running_mean f4 [64]
53.597557 121.60195 51.178307 -2.2500317 43.508858 -72.9259 72.45411 65.02837
-58.652126 105.98564 3.1582544 117.54035 -3.974172 -20.803421 9.340271 -1.2983005
-121.40284 166.67635 97.54373 -66.63064 -0.062154677 -118.776535 124.06339 0.7633553
-256.95264 31.677355 0.8348541 88.81986 -235.50565 -26.24749 -6.479223 40.158684
139.63971 -57.04335 -61.86173 50.321815 111.83091 -50.984406 1.1809123 183.7509
234.06573 -136.30894 -160.10219 -13.527505 36.01422 -166.25443 -5.8698916 48.068573
-163.17064 98.31593 -62.059376 45.92656 11.027908 -1.8493654 139.79851 -44.253807
-0.06699095 20.984287 -89.282745 -34.300808 58.102074 -42.121284 -11.994034 -57.43436
00000000: e663 5642 3334 f342 96b6 4c42 8500 10c0
00000010: 1209 2e42 10da 91c2 81e8 9042 870e 8242
00000020: c79b 6ac2 a6f8 d342 d720 4a40 a914 eb42
00000030: d658 7ec0 686d a6c1 c071 1541 b62e a6bf
00000040: 41ce f2c2 25ad 2643 6416 c342 e342 85c2
00000050: e795 7ebd 968d edc2 7520 f842 416b 433f
00000060: f079 80c3 396b fd41 00b9 553f c5a3 b142
00000070: 7281 6bc3 dcfa d1c1 cb55 cfc0 7ea2 2042
00000080: c4a3 0b43 642c 64c2 6972 77c2 8a49 4942
00000090: 6da9 df42 08f0 4bc2 2228 973f 3bc0 3743
000000a0: d410 6a43 174f 08c3 291a 20c3 a970 58c1
000000b0: 900e 1042 2241 26c3 27d6 bbc0 3846 4042
000000c0: af2b 23c3 c2a1 c442 cd3c 78c2 ccb4 3742
000000d0: 5072 3041 01b8 ecbf 6bcc 0b43 e603 31c2
000000e0: 8d32 89bd d2df a741 c490 b2c2 0734 09c2
000000f0: 8668 6842 327c 28c2 90e7 3fc1 c9bc 65c2

ensemble.0.module_list.1.output_quant.pre_transforms.0.running_var f4 [64]
1523.2227 35847.92 2477.266 30.440832 2726.951 1033.0823 4173.279 4533.105
396.636 1142.1414 65.66624 26246.635 15.976359 1746.77 1331.6138 1.7258
3428.9932 7595.4106 731.5744 1767.236 0.0013772361 5675.81 7748.3794 11.254813
28233.352 8849.812 9.318093 1408.1167 17452.562 4826.019 11.626746 813.84827
9273.739 1297.5524 5719.0273 1940.5852 6682.381 2203.942 16.191214 14042.008
3472.6619 8523.238 3646.9236 3293.0994 11195.31 4986.887 18.90053 6133.713
10084.112 18057.873 14291.8125 826.7739 34.179264 6.856843 5023.658 1650.1377
0.08282583 1045.6241 5445.448 390.89966 4594.3184 1305.5339 12.550467 4177.958
00000000: 2067 be44 ec07 0c47 42d4 1a45 d386 f341
00000010: 376f 2a45 a222 8144 3b6a 8245 d7a8 8d45
00000020: 6851 c643 86c4 8e44 1d55 8342 450d cd46
00000030: 2b9f 7f41 a458 da44 a473 a644 04e7 dc3f
00000040: e44f 5645 495b ed45 c3e4 3644 8de7 dc44
00000050: 6084 b43a 7b5e b145 0923 f245 b713 3441
00000060: b492 dc46 3f47 0a46 e916 1541 bc03 b044
00000070: 2059 8846 27d0 9645 2707 3a41 4a76 4b44
00000080: f5e6 1046 ad31 a244 38b8 b245 ba92 f244
00000090: 0cd3 d045 12bf 0945 9b87 8141 0868 5b46
000000a0: 970a 5945 f42c 0546 c7ee 6345 97d1 4d45
000000b0: 3ded 2e46 19d7 9b45 4934 9741 b4ad bf45
000000c0: 7390 1d46 bf13 8d46 404f 5f46 88b1 4e44
000000d0: 91b7 0842 426b db40 44fd 9c45 6844 ce44
000000e0: 97a0 a93d f9b3 8244 962b aa45 2873 c343
000000f0: 8c92 8f45 1631 a344 b6ce 4841 aa8f 8245

ensemble.0.module_list.2.mask f4 [9, 3]
1.0 0.0 0.0 0.0 1.0 0.0 0.0 0.0
1.0 2.0 0.0 0.0 1.0 1.0 0.0 1.0
0.0 1.0 0.0 2.0 0.0 0.0 1.0 1.0
0.0 0.0 2.0
00000000: 0000 803f 0000 0000 0000 0000 0000 0000
00000010: 0000 803f 0000 0000 0000 0000 0000 0000
00000020: 0000 803f 0000 0040 0000 0000 0000 0000
00000030: 0000 803f 0000 803f 0000 0000 0000 803f
00000040: 0000 0000 0000 803f 0000 0000 0000 0040
00000050: 0000 0000 0000 0000 0000 803f 0000 803f
00000060: 0000 0000 0000 0000 0000 0040

ensemble.0.module_list.2.input_quant.pre_transforms.0.weight f4 [64]
1.9441139 4.739954 2.6838074 1.0 2.3762593 1.7539735 2.098762 1.6014593
1.0175422 2.023096 1.0 2.1621952 1.0 2.4160197 2.9462914 1.0
2.43952 1.5536271 1.5988736 2.5020263 1.0 3.4206393 1.8276784 1.0
2.449729 2.1892235 1.0 2.1883705 2.4203644 2.2851987 1.0 3.24984
2.407358 2.8186834 7.986554 2.1440039 7.442513 1.6523926 1.0 1.7867831
3.6029599 1.9333146 2.1211984 1.6719116 2.0678046 2.927301 1.0 2.118795
3.255283 2.1104255 2.7850306 2.3849568 1.0 1.0 2.5865726 2.5679157
1.0 1.9816129 2.0853195 3.2802384 2.5329554 2.0365858 1.0 3.5994132
00000000: b9d8 f83f b4ad 9740 80c3 2b40 0000 803f
00000010: a214 1840 3482 e03f 1e52 0640 9efc cc3f
00000020: d33e 823f 687a 0140 0000 803f 6861 0a40
00000030: 0000 803f 11a0 1a40 0a90 3c40 0000 803f
00000040: 1821 1c40 41dd c63f e4a7 cc3f 3321 2040
00000050: 0000 803f c1eb 5a40 5ef1 e93f 0000 803f
00000060: 5cc8 1c40 3d1c 0c40 0000 803f 430e 0c40
00000070: 40e7 1a40 b240 1240 0000 803f 61fd 4f40
00000080: 2712 1a40 4f65 3440 da91 ff40 5c37 0940
00000090: 1129 ee40 9a81 d33f 0000 803f 4fb5 e43f
000000a0: e596 6640 da76 f73f b7c1 0740 3301 d63f
000000b0: e956 0440 e658 3b40 0000 803f 569a 0740
000000c0: 8f56 5040 3611 0740 f13d 3240 22a3 1840
000000d0: 0000 803f 0000 803f 688a 2540 bb58 2440
000000e0: 0000 803f 7ea5 fd3f e075 0540 6def 5140
000000f0: f11b 2240 6c57 0240 0000 803f c95c 6640

ensemble.0.module_list.2.input_quant.pre_transforms.0.bias f4 [64]
1.68738 2.184332 3.4004579 0.0 1.9516158 0.7508667 0.90698105 1.3662664
2.0168736 1.7839993 0.0 1.546557 0.0 0.55006707 1.3603704 0.0
2.0517113 2.4797304 3.2195737 0.09631462 0.0 1.8553207 3.620868 0.0
3.1510966 -1.218287 0.0 3.536993 -0.23374681 1.704156 0.0 1.8066158
3.3548048 2.7613966 2.0174525 2.4466856 0.84982723 4.111677 0.0 0.9467002
-0.3825538 1.2023318 3.4511 2.0021167 2.2895386 2.5092218 0.0 2.3254607
-2.761038 2.2227685 3.1445224 0.13033356 0.0 0.0 2.7602057 -0.3539059
0.0 0.66157323 3.995795 -0.4311203 2.3544245 4.009949 0.0 1.8679001
00000000: 11fc d73f 18cc 0b40 1aa1 5940 0000 0000
00000010: 8cce f93f cd38 403f e92f 683f d1e1 ae3f
00000020: 7514 0140 175a e43f 0000 0000 94f5 c53f
00000030: 0000 0000 32d1 0c3f 9e20 ae3f 0000 0000
00000040: 3d4f 0340 e7b3 1e40 7f0d 4e40 9940 c53d
00000050: 0000 0000 267b ed3f 4dbc 6740 0000 0000
00000060: 91ab 4940 d4f0 9bbf 0000 0000 185e 6240
00000070: 535b 6fbe c921 da3f 0000 0000 303f e73f
00000080: 1fb5 5640 b9ba 3040 f11d 0140 7f96 1c40
00000090: 478e 593f dc92 8340 0000 0000 f25a 723f
000000a0: 17de c3be 02e6 993f d3de 5c40 ae22 0040
000000b0: cd87 1240 1797 2040 0000 0000 59d4 1440
000000c0: d9b4 30c0 d741 0e40 db3f 4940 2976 053e
000000d0: 0000 0000 0000 0000 36a7 3040 2733 b5be
000000e0: 0000 0000 dd5c 293f 1bbb 7f40 cdbb dcbe
000000f0: e4ae 1640 8151 8040 0000 0000 5a17 ef3f
