examples/mnist/bagging/bagging_ensemble_size32/best_accuracy.pth (torch, 228895 bytes, 118 tensors)

model.module_list.0.mask f4 [6, 6]
1.0 0.0 0.0 0.0 0.0 0.0 0.0 1.0
0.0 0.0 0.0 0.0 0.0 0.0 1.0 0.0
0.0 0.0 0.0 0.0 0.0 1.0 0.0 0.0
0.0 0.0 0.0 0.0 1.0 0.0 0.0 0.0
0.0 0.0 0.0 1.0
00000000: 0000 803f 0000 0000 0000 0000 0000 0000
00000010: 0000 0000 0000 0000 0000 0000 0000 803f
00000020: 0000 0000 0000 0000 0000 0000 0000 0000
00000030: 0000 0000 0000 0000 0000 803f 0000 0000
00000040: 0000 0000 0000 0000 0000 0000 0000 0000
00000050: 0000 0000 0000 803f 0000 0000 0000 0000
00000060: 0000 0000 0000 0000 0000 0000 0000 0000
00000070: 0000 803f 0000 0000 0000 0000 0000 0000
00000080: 0000 0000 0000 0000 0000 0000 0000 803f

model.module_list.0.input_quant.pre_transforms.0.weight f4 [784]
1.0 1.0 1.0 1.0 1.0 1.0 1.0 1.0
0.9999999 1.0 1.0000008 1.0 1.0748794 1.1626742 0.85189414 1.0384958
1.0 1.0 0.9999998 0.9999999 1.0 1.0 1.0000013 1.0
1.0 0.9999998 1.0 1.0 1.0 0.99999994 1.0 1.0
0.9423246 1.0014404 1.2556682 1.1715797 0.5178437 1.2989985 1.67373 1.395072
0.48075184 1.0 0.77886915 1.3879449 0.9740218 1.4762936 0.45537367 0.48751208
1.7051375 1.7606654 0.5535464 1.2244935 0.99999344 1.0 1.0 1.0
1.0 1.0 1.1135308 1.3555478 1.0 0.5815007 1.4706335 1.0
1.0 1.16907 2.0261967 0.41579717 0.33459505 1.2769496 0.49611932 1.0
1.8629888 0.46402523 0.8807438 0.37330088 2.187846 0.7356014 1.0 1.388803
0.91100854 0.94039094 0.9999987 0.9999995 1.0 1.0 0.54453856 1.5359163
1.6509285 1.0 1.8995967 1.6671516 1.3133774 0.5473771 1.7137506 0.6963302
1.7776624 2.2799835 1.0 1.0 1.7596439 1.0 1.900523 2.2015855
0.9557445 1.28343 0.668882 1.7467996 1.4275726 1.8290558 1.0 1.0
1.0 0.695185 0.54782265 0.49798515 1.2988209 1.2105601 1.329447 1.0
1.277287 0.5825325 1.7053277 1.0325468 1.0 1.3035256 1.0142512 1.8392531
1.0 0.7903246 1.39186 1.4192854 0.45042956 1.5964679 2.368146 0.94430494
1.5386409 0.4377203 1.7491466 1.0238714 1.0 1.0 1.0 1.6710502
1.0 1.0519823 1.4987538 0.71492255 0.8473498 1.1990154 1.3689601 0.9046213
1.6819555 1.0724528 1.0 1.44886 2.4825888 0.095813975 1.6524006 1.1899356
1.600195 2.352577 1.2544692 0.98893434 0.9807781 0.7145632 0.8017926 0.8823943
1.0 1.4192588 0.4725316 1.6566684 1.0482758 1.0907452 0.5107181 2.2678761
1.0 1.0603836 1.3113769 0.565122 0.8651891 1.0 1.0 1.0
1.1290919 1.4171678 0.60542303 0.7144867 1.0321307 1.9826254 1.2338082 0.34535414
1.0 1.1250767 0.39647064 1.7533282 1.08515 1.0 0.6316722 0.5747797
0.38323852 1.0057265 0.46554613 1.383185 0.20994057 1.2625755 1.452618 1.9511585
0.6300234 1.0 1.0399399 1.4059339 0.97446835 0.56073344 1.0 1.5291505
0.9410051 0.87986547 1.809875 2.4859931 2.0866487 1.0 0.53322333 0.87012255
1.0 0.41689184 1.0754362 1.8676174 0.41581646 0.93549746 1.810904 1.0
0.77050805 1.7469932 1.0765383 0.6333405 0.59556866 0.43962508 1.3484432 0.49237978
0.5163012 0.9075228 1.0 1.1209663 1.9309497 1.2145717 1.4248568 0.5177336
0.9486624 1.3792698 1.8537034 1.209962 1.2175308 0.9066018 0.67864245 0.3282117
00000000: 0000 803f 0000 803f 0000 803f 0000 803f
00000010: 0000 803f 0000 803f 0000 803f 0000 803f
00000020: feff 7f3f 0000 803f 0700 803f 0000 803f
00000030: a695 893f 82d2 943f bc15 5a3f 6eed 843f
00000040: 0000 803f 0000 803f fdff 7f3f feff 7f3f
00000050: 0000 803f 0000 803f 0b00 803f 0000 803f
00000060: 0000 803f fdff 7f3f 0000 803f 0000 803f
00000070: 0000 803f ffff 7f3f 0000 803f 0000 803f
00000080: 2f3c 713f 332f 803f bcb9 a03f 53f6 953f
00000090: 6891 043f 9545 a63f c93c d63f b891 b23f
000000a0: 1b25 f63e 0000 803f f863 473f 2ea8 b13f
000000b0: 7e59 793f 30f7 bc3f bd26 e93e 2f9b f93e
000000c0: f241 da3f 7c5d e13f 38b5 0d3f 34bc 9c3f
000000d0: 92ff 7f3f 0000 803f 0000 803f 0000 803f
000000e0: 0000 803f 0000 803f 2d88 8e3f 9782 ad3f
000000f0: 0000 803f 3bdd 143f b83d bc3f 0000 803f
00000100: 0000 803f 16a4 953f 35ad 0140 5ee3 d43e
00000110: 0b50 ab3e 1673 a33f 5a03 fe3e 0000 803f
00000120: 6b76 ee3f b794 ed3e 6d78 613f 4b21 bf3e
00000130: ab05 0c40 6050 3c3f 0000 803f 4cc4 b13f
00000140: db37 693f 76bd 703f eaff 7f3f f8ff 7f3f
00000150: 0000 803f 0000 803f e166 0b3f e898 c43f
00000160: a051 d33f 0000 803f fc25 f33f 3965 d53f
00000170: c01c a83f e820 0c3f 2e5c db3f b242 323f
00000180: 718a e33f 40eb 1140 0000 803f 0000 803f
00000190: 033c e13f 0000 803f 5644 f33f c7e6 0c40
000001a0: acab 743f 6f47 a43f da3b 2b3f 2197 df3f
000001b0: b3ba b63f 801e ea3f 0000 803f 0000 803f
000001c0: 0000 803f a5f7 313f 1b3e 0c3f e9f7 fe3e
000001d0: c33f a63f a2f3 9a3f 522b aa3f 0000 803f
000001e0: 247e a33f da20 153f 2e48 da3f 7e2a 843f
000001f0: 0000 803f edd9 a63f fcd2 813f a56c eb3f
00000200: 0000 803f b752 4a3f 7828 b23f 25ab b53f
00000210: b49e e63e 0f59 cc3f b48f 1740 f8bd 713f
00000220: 2ff2 c43f e01c e03e 09e4 df3f 380e 833f
00000230: 0000 803f 0000 803f 0000 803f f9e4 d53f
00000240: 0000 803f 5ba7 863f 2ad7 bf3f 2a05 373f
00000250: ebeb 583f 5679 993f 163a af3f 4395 673f
00000260: 514a d73f 2246 893f 0000 803f 3f74 b93f
00000270: bce2 1e40 1e3a c43d dd81 d33f cf4f 983f
00000280: 31d3 cc3f 9f90 1640 7292 a03f cd2a 7d3f
00000290: 4614 7b3f 9ded 363f 4842 4d3f 98e4 613f
000002a0: 0000 803f 46aa b53f a9ef f13e b60d d43f
000002b0: e72d 863f 8a9d 8b3f 6cbe 023f e224 1140
000002c0: 0000 803f a6ba 873f 33db a73f d6ab 103f
000002d0: 087d 5d3f 0000 803f 0000 803f 0000 803f
000002e0: 1586 903f c165 b53f 01fd 1a3f 9ae8 363f
000002f0: dc1c 843f abc6 fd3f 6ded 9d3f 42d2 b03e
00000300: 0000 803f 8302 903f 33fe ca3e 0f6d e03f
00000310: 32e6 8a3f 0000 803f 45b5 213f c324 133f
00000320: d737 c43e a5bb 803f 105c ee3e 350c b13f
00000330: a9fa 563e 139c a13f 63ef b93f 90bf f93f
00000340: 3749 213f 0000 803f c01c 853f a4f5 b33f
00000350: c276 793f 3a8c 0f3f 0000 803f 34bb c33f
00000360: b6e5 703f dd3e 613f fca9 e73f 831a 1f40
00000370: a78b 0540 0000 803f 5381 083f 5ac0 5e3f
00000380: 0000 803f d972 d53e e5a7 893f 160e ef3f
00000390: e5e5 d43e c37c 6f3f b4cb e73f 0000 803f
000003a0: 0440 453f 799d df3f 02cc 893f 9a22 223f
000003b0: 3077 183f 8a16 e13e c999 ac3f 3419 fc3e
000003c0: 512c 043f 6a53 683f 0000 803f d37b 8f3f
000003d0: 5c29 f73f 1677 9b3f b561 b63f 308a 043f
000003e0: 8adb 723f ea8b b03f 2746 ed3f 09e0 9a3f
000003f0: 0dd8 9b3f 0e17 683f 83bb 2d3f 5d0b a83e

model.module_list.0.input_quant.pre_transforms.0.bias f4 [784]
-0.03505826 0.01631925 0.0 -0.004984625 0.00439695 0.04550974 0.0 -0.010421016
0.027114488 -0.00094199454 0.16777825 -0.06796041 -0.07700705 -0.17957234 0.14445116 -0.051384613
0.0 0.010578967 -0.06037939 0.16072443 0.01066007 0.0 -0.0025459614 0.01878812
0.0 -0.20761223 0.012432707 0.0 0.0 -0.018222293 0.039618865 0.0007055335
-0.012783414 -0.03234159 -0.2701624 -0.18942341 0.5009158 -0.25900653 -0.89038944 -0.44672266
0.5151101 0.0 0.1703415 -0.2927892 -0.031754486 -0.53614503 0.52339864 0.4861877
-0.52563316 -0.7935244 0.4575395 -0.23654845 -0.19355787 0.009436915 -0.000607951 -0.0032194254
0.0 0.0 -0.11142185 -0.31571087 0.0 0.45020464 -0.1507178 0.0
0.0 -0.24989639 -0.057319194 0.48665863 -0.812791 -0.12006075 0.53061545 0.0
-0.3698065 0.5283956 0.32061562 0.48429346 -0.8346692 0.056979515 0.0 -0.27010438
0.059457593 0.07028201 0.018864837 -0.008941388 0.0 0.0 0.45791867 -0.5831562
-0.64283234 0.0 -0.7501423 -0.65823287 -0.2829254 0.5114508 -0.15510646 0.22072601
-0.6754084 -0.45119923 0.0 0.0 -0.10420364 0.0 -0.124841 -0.07342158
-0.5645557 -0.04286203 0.54074156 -0.8881413 -0.06993512 -0.76158243 0.0 0.0031589975
1.8421722e-05 0.30885398 0.44774398 0.5165633 -0.22503318 -0.18369332 -0.29603004 0.0
-0.10446142 0.5829702 -0.38158572 -0.5768737 0.0 0.19561519 -0.41587752 0.24654011
0.0 0.15038598 -0.06308439 -1.0004536 -0.2945232 -0.3964535 -0.18475142 -0.024351196
-0.4763328 0.43665224 -0.8525746 -0.040862035 0.042483382 -0.11334115 0.0 -0.7027122
0.0 -0.27339333 -0.08581233 0.19963028 -0.4892261 -0.012488618 0.46205664 -0.44357944
0.3411073 -0.21633795 0.0 0.32259437 1.415524 -0.19259574 0.30251262 -0.48695296
-0.12299696 0.10150984 -0.4118903 -0.07373714 -0.14425477 0.25487554 0.20514272 0.11525136
-0.09495356 -0.48335546 0.52536225 -0.76347953 -0.13846688 -0.48717457 0.6152073 -0.021006547
0.0 0.33887598 0.061543275 -0.34192213 -0.009681892 0.0 0.0 0.0
0.67414486 0.5437719 -0.31014928 -0.24762772 -0.15691797 0.14235334 -0.3996994 -0.3740783
0.0 -0.36083773 0.5050581 -0.74642986 -0.09038511 0.0 0.4674886 0.4766325
-0.6830331 -0.16453739 0.6078536 -0.2713836 0.60096043 -0.005366937 0.29389232 -0.08418881
-0.21829952 0.0 0.5799011 0.9802845 0.27560034 -0.34141862 0.0 0.4858822
-0.14978996 -0.22996035 0.41424912 0.2223344 -0.259814 0.0 0.5203545 0.08467743
0.0 0.46271932 -0.25517327 -0.49574924 0.5038069 -0.5248947 0.11194501 0.0
-0.39250785 0.40928647 0.6606743 0.6402599 -0.106829956 -0.22254488 0.70853174 -0.30481353
0.7082924 0.19507067 0.0 0.19703679 0.60280406 -0.1003809 0.0057905316 0.7028734
-0.31947213 -0.55494267 -0.7285993 -0.22458547 -0.22308736 -0.05407775 -0.2932932 0.4766818
00000000: 4099 0fbd f3af 853c 0000 0000 1156 a3bb
00000010: 4a14 903b 6c68 3a3d 0000 0000 e9bc 2abc
00000020: 341f de3c 2ff0 76ba 10ce 2b3e d42e 8bbd
00000030: dfb5 9dbd d0e1 37be 01eb 133e ac78 52bd
00000040: 0000 0000 6753 2d3c 6150 77bd f294 243e
00000050: 93a7 2e3c 0000 0000 25da 26bb 8be9 993c
00000060: 0000 0000 4d98 54be 8db2 4b3c 0000 0000
00000070: 0000 0000 eb46 95bc 6447 223d 8df3 383a
00000080: 8671 51bc 9d78 04bd ba52 8abe 36f8 41be
00000090: 053c 003f 819c 84be 90f0 63bf d5b8 e4be
000000a0: 41de 033f 0000 0000 016e 2e3e 77e8 95be
000000b0: fe10 02bd cd40 09bf 74fd 053f 98ed f83e
000000c0: e58f 06bf 6a24 4bbf 9e42 ea3e c239 72be
000000d0: 0934 46be 4a9d 1a3c e75e 1fba fffc 52bb
000000e0: 0000 0000 0000 0000 2431 e4bd dba4 a1be
000000f0: 0000 0000 3981 e63e c455 1abe 0000 0000
00000100: 0000 0000 d7e4 7fbe 88c7 6abd 522b f93e
00000110: 1213 50bf 69e2 f5bd 6ad6 073f 0000 0000
00000120: 4757 bdbe ef44 073f bb27 a43e 50f5 f73e
00000130: e1ac 55bf 5a63 693d 0000 0000 1f4b 8abe
00000140: ce89 733d 04f0 8f3d 6e8a 9a3c e67e 12bc
00000150: 0000 0000 0000 0000 5174 ea3e ba49 15bf
00000160: a990 24bf 0000 0000 5309 40bf f381 28bf
00000170: 99db 90be 71ee 023f 3ad4 1ebe 0006 623e
00000180: 91e7 2cbf 9603 e7be 0000 0000 0000 0000
00000190: b868 d5bd 0000 0000 a3ac ffbd 0e5e 96bd
000001a0: b986 10bf 1990 2fbd 0a6e 0a3f 3a5d 63bf
000001b0: 253a 8fbd 11f7 42bf 0000 0000 2f07 4f3b
000001c0: 5988 9a37 1c22 9e3e b33e e53e 7e3d 043f
000001d0: 196f 66be 1a1a 3cbe 4091 97be 0000 0000
000001e0: deef d5bd 893d 153f 345f c3be ffad 13bf
000001f0: 0000 0000 594f 483e e6ed d4be 0375 7c3e
00000200: 0000 0000 c8fe 193e 6332 81bd dd0e 80bf
00000210: bfcb 96be f4fb cabe 7a2f 3dbe 297c c7bc
00000220: e5e1 f3be e290 df3e 5442 5abf f35e 27bd
00000230: 0e03 2e3d 681f e8bd 0000 0000 f2e4 33bf
00000240: 0000 0000 36fa 8bbe 60be afbd e16b 4c3e
00000250: d87b fabe 0f9d 4cbc b092 ec3e d81c e3be
00000260: 9ea5 ae3e b287 5dbe 0000 0000 172b a53e
00000270: e42f b53f d137 45be efe2 9a3e e651 f9be
00000280: d5e5 fbbd 64e4 cf3d 49e3 d2be 7f03 97bd
00000290: 86b7 13be 0c7f 823e ef10 523e e808 ec3d
000002a0: 0377 c2bd 5e7a f7be 247e 063f 6573 43bf
000002b0: 43ca 0dbe f26e f9be 3a7e 1d3f ec15 acbc
000002c0: 0000 0000 2781 ad3e cd14 7c3d 6b10 afbe
000002d0: cca0 1ebc 0000 0000 0000 0000 0000 0000
000002e0: c294 2c3f a334 0b3f e3cb 9ebe 1f92 7dbe
000002f0: 1baf 20be 13c5 113e 66a5 ccbe 3187 bfbe
00000300: 0000 0000 b9bf b8be 7d4b 013f 0716 3fbf
00000310: d41b b9bd 0000 0000 aa5a ef3e 2d09 f43e
00000320: 42db 2ebf 7d7c 28be 4b9c 1b3f cbf2 8abe
00000330: 8bd8 193f 21dd afbb 0e79 963e 2f6b acbd
00000340: e989 5fbe 0000 0000 6674 143f edf3 7a3f
00000350: 7d1b 8d3e 6cce aebe 0000 0000 8dc5 f83e
00000360: 8a62 19be ba7a 6bbe 7618 d43e a1ab 633e
00000370: 5706 85be 0000 0000 f435 053f 5c6b ad3d
00000380: 0000 0000 8ce9 ec3e 12a6 82be d8d2 fdbe
00000390: 7df9 003f 805f 06bf 6d43 e53d 0000 0000
000003a0: caf6 c8be ff8d d13e f321 293f 13e8 233f
000003b0: aac9 dabd cee2 63be 5662 353f 8510 9cbe
000003c0: a752 353f 9bc0 473e 0000 0000 03c4 493e
000003d0: 5e51 1a3f 8094 cdbd 80be bd3b 83ef 333f
000003e0: da91 a3be b910 0ebf 7c85 3abf bcf9 65be
000003f0: 0371 64be a180 5dbd 872a 96be a30f f43e

model.module_list.0.input_quant.pre_transforms.0.running_mean f4 [784]
-0.42421287 -0.42421287 -0.42421287 -0.42421287 -0.42421287 -0.42421287 -0.42421287 -0.42421287
-0.42421287 -0.42421287 -0.42421287 -0.42421287 -0.42421287 -0.42421287 -0.42421287 -0.42421287
-0.42421287 -0.42421287 -0.42421287 -0.42421287 -0.42421287 -0.42421287 -0.42421287 -0.42421287
-0.42421287 -0.42421287 -0.42421287 -0.42421287 -0.42421287 -0.42421287 -0.42421287 -0.42421287
-0.42421287 -0.42421287 -0.42421287 -0.4241341 -0.42370996 -0.4233547 -0.42287442 -0.42362574
-0.42252252 -0.42285514 -0.42397586 -0.4227607 -0.42152905 -0.4229832 -0.42408663 -0.42416778
-0.4241941 -0.42420942 -0.42421204 -0.42421287 -0.42421287 -0.42421287 -0.42421287 -0.42421287
-0.42421287 -0.42421287 -0.42421287 -0.4242126 -0.4242128 -0.42421287 -0.42378384 -0.4220345
-0.4206442 -0.41643795 -0.41206998 -0.4083666 -0.40345508 -0.39218998 -0.375106 -0.37415075
-0.37955078 -0.38549438 -0.40113842 -0.40336838 -0.41271186 -0.41838095 -0.42189652 -0.42401007
-0.42417082 -0.42418605 -0.42421287 -0.42421287 -0.42421287 -0.42421287 -0.42421287 -0.42420977
-0.42421255 -0.42325518 -0.41820386 -0.4107025 -0.40623677 -0.39618286 -0.37828487 -0.36444747
-0.34050268 -0.31010428 -0.2810978 -0.2664163 -0.26747343 -0.28250128 -0.31508365 -0.34099665
-0.3727527 -0.3963892 -0.4124536 -0.42048934 -0.42255116 -0.4240726 -0.42420885 -0.42421287
-0.42421287 -0.4242085 -0.4239116 -0.42421067 -0.42380616 -0.41458613 -0.4041268 -0.38179526
-0.36310032 -0.32543576 -0.26415038 -0.20048589 -0.10591308 0.0031552762 0.078103624 0.11536538
0.111416444 0.05655677 -0.045024894 -0.15134732 -0.23997954 -0.315563 -0.3564507 -0.38836873
-0.41098425 -0.42241535 -0.42421213 -0.42421287 -0.42421287 -0.42421287 -0.42421198 -0.42395794
-0.41868123 -0.40117988 -0.36997536 -0.32985583 -0.26343328 -0.16931573 -0.03709146 0.09756339
0.28834248 0.4828682 0.6247168 0.7118604 0.6914 0.5700613 0.39410725 0.18451817
-0.015300183 -0.16275144 -0.26601496 -0.3276165 -0.3840355 -0.41513243 -0.4228503 -0.4236185
-0.42421287 -0.42421287 -0.42412913 -0.42150283 -0.4120211 -0.38454118 -0.3273812 -0.2497096
-0.127505 0.032816723 0.21699025 0.44636825 0.698898 0.91360164 1.0831742 1.1505893
1.1077664 0.9610962 0.79571676 0.55022913 0.23505521 -0.0026827306 -0.16542691 -0.27154213
-0.35888976 -0.40408462 -0.42045575 -0.42261449 -0.42421287 -0.42420965 -0.42392763 -0.41778633
-0.39497226 -0.35116175 -0.2728004 -0.15519683 0.036260594 0.25476167 0.4819604 0.75028944
1.0102241 1.1953905 1.2938867 1.3420186 1.2952234 1.1730516 1.004157 0.77137357
0.45715964 0.14891863 -0.06821629 -0.2319393 -0.34008777 -0.39289907 -0.42086145 -0.4239574
-0.42421287 -0.42413083 -0.42129177 -0.40661424 -0.3720048 -0.30797938 -0.21449491 -0.05369837
0.17638552 0.40964496 0.68313706 0.95274335 1.1435324 1.1909193 1.1868372 1.1878741
1.165474 1.1248482 1.0610702 0.8779816 0.57058644 0.24491897 -0.0120797 -0.20259465
-0.3280698 -0.38649097 -0.4193135 -0.42421287 -0.42421287 -0.4241356 -0.42019844 -0.4013498
00000000: 6e32 d9be 6e32 d9be 6e32 d9be 6e32 d9be
00000010: 6e32 d9be 6e32 d9be 6e32 d9be 6e32 d9be
00000020: 6e32 d9be 6e32 d9be 6e32 d9be 6e32 d9be
00000030: 6e32 d9be 6e32 d9be 6e32 d9be 6e32 d9be
00000040: 6e32 d9be 6e32 d9be 6e32 d9be 6e32 d9be
00000050: 6e32 d9be 6e32 d9be 6e32 d9be 6e32 d9be
00000060: 6e32 d9be 6e32 d9be 6e32 d9be 6e32 d9be
00000070: 6e32 d9be 6e32 d9be 6e32 d9be 6e32 d9be
00000080: 6e32 d9be 6e32 d9be 6e32 d9be 1b28 d9be
00000090: 83f0 d8be f2c1 d8be ff82 d8be 79e5 d8be
000000a0: df54 d8be 7880 d8be 5d13 d9be 1774 d8be
000000b0: a8d2 d7be 4191 d8be e221 d9be 852c d9be
000000c0: f82f d9be fa31 d9be 5232 d9be 6e32 d9be
000000d0: 6e32 d9be 6e32 d9be 6e32 d9be 6e32 d9be
000000e0: 6e32 d9be 6e32 d9be 6e32 d9be 6532 d9be
000000f0: 6c32 d9be 6e32 d9be 32fa d8be e814 d8be
00000100: ad5e d7be 5b37 d5be d6fa d2be 6d15 d1be
00000110: aa91 cebe 20cd c8be e50d c0be b090 bfbe
00000120: 7b54 c2be 855f c5be 0462 cdbe 4d86 cebe
00000130: f84e d3be 0736 d6be d202 d8be d917 d9be
00000140: eb2c d9be ea2e d9be 6e32 d9be 6e32 d9be
00000150: 6e32 d9be 6e32 d9be 6e32 d9be 0632 d9be
00000160: 6332 d9be e7b4 d8be d11e d6be 9947 d2be
00000170: 44fe cfbe 7bd8 cabe 8eae c1be dc98 babe
00000180: 5e56 aebe fdc5 9ebe 0dec 8fbe b867 88be
00000190: 47f2 88be 02a4 90be a552 a1be 1d97 aebe
000001a0: 71d9 bebe 86f3 cabe 1e2d d3be 614a d7be
000001b0: a058 d8be 0b20 d9be e731 d9be 6e32 d9be
000001c0: 6e32 d9be db31 d9be f10a d9be 2432 d9be
000001d0: 1ffd d8be a244 d4be b5e9 cebe ab7a c3be
000001e0: 49e8 b9be 849f a6be b83e 87be 2c4c 4dbe
000001f0: f5e8 d8bd c0c8 4e3b cbf4 9f3d af44 ec3d
00000200: 4e2e e43d 12a8 673d 066c 38bd cbfa 1abe
00000210: 32bd 75be 7991 a1be b580 b6be 44d8 c6be
00000220: 876c d2be d346 d8be 5532 d9be 6e32 d9be
00000230: 6e32 d9be 6e32 d9be 5032 d9be 0411 d9be
00000240: 635d d6be 7367 cdbe 696d bdbe dde2 a8be
00000250: bae0 86be 1a61 2dbe 37ed 17bd 51cf c73d
00000260: a0a1 933e 803a f73e 71ed 1f3f 7c3c 363f
00000270: 97ff 303f 8aef 113f 6dc8 c93e 55f2 3c3e
00000280: 9ead 7abc 50a8 26be 1d33 88be 5abd a7be
00000290: 4da0 c4be 3d8c d4be d67f d8be 86e4 d8be
000002a0: 6e32 d9be 6e32 d9be 7427 d9be 38cf d7be
000002b0: 6ef4 d2be 95e2 c4be 829e a7be e0b3 7fbe
000002c0: ac90 02be d46a 063d b132 5e3e 618a e43e
000002d0: fbea 323f cce1 693f 74a5 8a3f 8346 933f
000002e0: 4acb 8d3f 670a 763f 18b4 4b3f d1db 0c3f
000002f0: 50b2 703e c0d0 2fbb ac65 29be 9207 8bbe
00000300: 66c0 b7be 2ee4 cebe fa45 d7be ed60 d8be
00000310: 6e32 d9be 0232 d9be 0b0d d9be 17e8 d5be
00000320: ce39 cabe 79cb b3be 7eac 8bbe ebeb 1ebe
00000330: fd85 143d 1f70 823e 83c3 f63e f812 403f
00000340: 064f 813f 8e02 993f 149e a53f 44c7 ab3f
00000350: e1c9 a53f 8e26 963f 3788 803f bd78 453f
00000360: d410 ea3e 207e 183e fbb4 8bbd 7f81 6dbe
00000370: fc1f aebe 112a c9be 277b d7be f210 d9be
00000380: 6e32 d9be ad27 d9be 8eb3 d7be be2f d0be
00000390: 6a77 bebe 79af 9dbe 8ea4 5bbe d2f2 5bbd
000003a0: 689e 343e fcbc d13e 12e2 2e3f fde6 733f
000003b0: 455f 923f 0b70 983f 48ea 973f 420c 983f
000003c0: 412e 953f 07fb 8f3f 26d1 873f 67c3 603f
000003d0: f411 123f 0acc 7a3e efe9 45bc f974 4fbe
000003e0: c4f8 a7be 25e2 c5be 42b0 d6be 6e32 d9be
000003f0: 6e32 d9be 4d28 d9be 4024 d7be b97d cdbe

model.module_list.0.input_quant.pre_transforms.0.running_var f4 [784]
1.8284772e-16 1.8284772e-16 1.8284772e-16 1.8284772e-16 1.8284772e-16 1.8284772e-16 1.8284772e-16 1.8284772e-16
1.8284772e-16 1.8284772e-16 1.8284772e-16 1.8284772e-16 1.8284817e-16 1.8285299e-16 1.8285059e-16 1.8284772e-16
1.8284772e-16 1.8284772e-16 1.8284772e-16 1.8284772e-16 1.8284772e-16 1.8284772e-16 1.8284772e-16 1.8284772e-16
1.8284772e-16 1.8284772e-16 1.8284772e-16 1.8284772e-16 1.8284772e-16 1.8284772e-16 1.8284772e-16 1.8284772e-16
1.9045963e-16 2.485305e-16 1.7793033e-11 4.1533633e-05 0.0015961287 0.0013848082 0.003963184 0.0009853704
0.0043258495 0.002775548 0.00061484217 0.0030254507 0.0065355445 0.0033190313 4.038231e-05 0.0001349658
2.3122471e-05 1.0765848e-05 1.4925033e-06 1.8316794e-16 1.8284772e-16 1.8284772e-16 1.8284772e-16 1.8284772e-16
1.8284772e-16 1.8284772e-16 1.8285796e-16 1.5493778e-07 3.5719903e-08 1.6218673e-08 0.00047794034 0.004625158
0.010109359 0.019911818 0.02943033 0.039923903 0.04669646 0.0705959 0.13594851 0.11856619
0.1106306 0.095860176 0.049879458 0.05254355 0.029616835 0.015189359 0.0049592513 0.00017383053
0.00013539124 5.662084e-05 1.8284772e-16 1.8284772e-16 1.8284772e-16 1.8284772e-16 3.0572426e-15 2.931398e-06
1.6404364e-07 0.00075291906 0.012853728 0.03408039 0.046701815 0.06783067 0.118537016 0.13848007
0.18862294 0.2752616 0.34737712 0.3797779 0.3885163 0.35605043 0.26652393 0.20779581
0.1269542 0.06792489 0.022869902 0.0073605464 0.0026038273 0.00016451682 6.2997224e-06 1.8284772e-16
1.8284772e-16 2.1881579e-06 0.00012275745 2.1616902e-06 0.00044592898 0.02067787 0.048731368 0.10858796
0.14808826 0.23121506 0.37967014 0.53139967 0.7344785 0.9649395 1.0922958 1.1475083
1.173627 1.0484467 0.85941964 0.6373587 0.43590862 0.25742555 0.16264297 0.08300149
0.026149232 0.0032773225 5.909483e-07 5.854961e-15 1.8284772e-16 1.8284772e-16 6.541067e-07 0.000132306
0.0071190563 0.052248515 0.13275668 0.23183003 0.38062194 0.6035776 0.88020283 1.1249826
1.3960346 1.677963 1.8015729 1.8903356 1.8897082 1.7483323 1.5464319 1.236568
0.90489393 0.5950557 0.3694371 0.22696747 0.085244104 0.021228295 0.0018481677 0.0006204139
1.8284772e-16 2.774005e-13 6.433715e-05 0.006983219 0.028031431 0.08681139 0.23264316 0.41850394
0.7004107 1.0095011 1.3287942 1.5977095 1.8629079 2.008382 2.0482259 2.0361533
2.0465937 2.025636 1.971948 1.7782875 1.3413117 0.93862665 0.5993176 0.37356234
0.14908731 0.046856765 0.0084551675 0.0035242615 1.8284784e-16 2.6154432e-06 0.00070855906 0.0106460545
0.067527376 0.16358699 0.35772154 0.6103929 1.0345374 1.4105164 1.631472 1.8427626
1.9529674 1.9851135 1.9440002 1.9823925 1.9860543 1.9436451 1.9793133 1.9280479
1.6422677 1.2095835 0.7987288 0.4537365 0.19264707 0.06912283 0.0050964085 0.00030280792
1.6427892e-15 8.2600454e-05 0.0076176957 0.03646571 0.12873974 0.29575095 0.5265736 0.8385644
1.2777183 1.5974472 1.8180149 1.975896 2.0009706 2.0028555 1.9982728 2.0155654
2.0139997 1.9650639 1.9766109 1.9915168 1.7594055 1.3603494 0.93876237 0.51199883
0.22239955 0.08798676 0.011521639 6.606809e-08 7.4887783e-11 9.227381e-05 0.011673923 0.059625633
00000000: 1fcf 5225 1fcf 5225 1fcf 5225 1fcf 5225
00000010: 1fcf 5225 1fcf 5225 1fcf 5225 1fcf 5225
00000020: 1fcf 5225 1fcf 5225 1fcf 5225 1fcf 5225
00000030: 41cf 5225 add0 5225 f8cf 5225 1fcf 5225
00000040: 1fcf 5225 1fcf 5225 1fcf 5225 1fcf 5225
00000050: 1fcf 5225 1fcf 5225 1fcf 5225 1fcf 5225
00000060: 1fcf 5225 1fcf 5225 1fcf 5225 1fcf 5225
00000070: 1fcf 5225 1fcf 5225 1fcf 5225 1fcf 5225
00000080: c395 5b25 a144 8f25 5982 9c2d 6634 2e38
00000090: 3135 d13a 7482 b53a 99dd 813b 8b27 813a
000000a0: dbbf 8d3b f8e5 353b 5c2d 213a a446 463b
000000b0: 1f28 d63b 1b84 593b 2d60 2938 9b85 0d39
000000c0: 21f7 c137 f79e 3437 0652 c835 a22d 5325
000000d0: 1fcf 5225 1fcf 5225 1fcf 5225 1fcf 5225
000000e0: 1fcf 5225 1fcf 5225 25d2 5225 f95c 2634
000000f0: 736a 1933 3d51 8b32 1194 fa39 a38e 973b
00000100: baa1 253c 1c1e a33c e017 f13c 3f87 233d
00000110: ca44 3f3d 9594 903d 1636 0b3e d5d2 f23d
00000120: 4c92 e23d 5752 c43d 674e 4c3d e837 573d
00000130: 019f f23c cadc 783c 3781 a23b 4746 3639
00000140: cff7 0d39 2a7c 6d38 1fcf 5225 1fcf 5225
00000150: 1fcf 5225 1fcf 5225 2c4c 5c27 09b9 4436
00000160: f923 3034 8b5f 453a 7198 523c e197 0b3d
00000170: 674a 3f3d ceea 8a3d 89c3 f23d b8cd 0d3e
00000180: 5f26 413e 17ef 8c3e 6adb b13e 4072 c23e
00000190: 9ceb c63e 3e4c b63e d375 883e 6dc8 543e
000001a0: 4800 023e 341c 8b3d a959 bb3c bd30 f13b
000001b0: f9a4 2a3b 2682 2c39 3462 d336 1fcf 5225
000001c0: 1fcf 5225 44d8 1236 74b8 0039 8e11 1136
000001d0: 93cb e939 a364 a93c 8b9a 473d 5d63 de3d
000001e0: 73a4 173e a4c3 6c3e 2064 c23e cf09 083f
000001f0: c806 3c3f 4606 773f 59d0 8b3f 8de1 923f
00000200: 6939 963f 8033 863f ed02 5c3f f129 233f
00000210: 6a2f df3e 48cd 833e e18b 263e affc a93d
00000220: ea36 d63c 59c8 563b a8a1 1e35 7cf2 d227
00000230: 1fcf 5225 1fcf 5225 df95 2f35 9fbb 0a39
00000240: f946 e93b 8a02 563d 5ef1 073e da64 6d3e
00000250: e1e0 c23e 1084 1a3f f954 613f 6eff 8f3f
00000260: 43b1 b23f 7ec7 d63f f199 e63f 84f6 f13f
00000270: f5e1 f13f 5ac9 df3f 7bf1 c53f dc47 9e3f
00000280: 21a7 673f 9255 183f dc26 bd3e 296a 683e
00000290: 7694 ae3d f6e6 ad3c 383e f23a 46a3 223a
000002a0: 1fcf 5225 a029 9c2a bfec 8638 7dd3 e43b
000002b0: 2ca2 e53c 2cca b13d 023a 6e3e 2646 d63e
000002c0: 1e4e 333f 5537 813f ee15 aa3f bf81 cc3f
000002d0: c473 ee3f 5589 0040 2216 0340 5650 0240
000002e0: 64fb 0240 05a4 0140 cb68 fc3f ed9e e33f
000002f0: 1ab0 ab3f d649 703f e16c 193f 9043 bf3e
00000300: 58aa 183e e1ec 3f3d 8b87 0a3c 4cf7 663b
00000310: 28cf 5225 f984 2f36 98be 393a ca6c 2e3c
00000320: cb4b 8a3d 5983 273e 4727 b73e b642 1c3f
00000330: b96b 843f cd8b b43f 13d4 d03f a5df eb3f
00000340: d6fa f93f 3318 fe3f 00d5 f83f 0abf fd3f
00000350: 0737 fe3f 5dc9 f83f 235a fd3f 46ca f63f
00000360: d435 d23f a2d3 9a3f 7e79 4c3f 2750 e83e
00000370: 4645 453e 4590 8d3d c6ff a63b 31c2 9e39
00000380: 39c0 ec26 c839 ad38 dd9d f93b 115d 153d
00000390: 5ad4 033e ab6c 973e 87cd 063f 28ac 563f
000003a0: 468c a33f 2679 cc3f b6b4 e83f 29ea fc3f
000003b0: e70f 0040 c92e 0040 67c7 ff3f 06ff 0040
000003c0: 5fe5 0040 3787 fb3f 9601 fd3f 06ea fe3f
000003d0: 3334 e13f ee1f ae3f bb52 703f 5b12 033f
000003e0: b5bc 633e 6732 b43d 42c5 3c3c 51e1 8d33
000003f0: 13ae a42e 2083 c138 fb43 3f3c 023a 743d

model.module_list.0.fc.weight f4 [256, 6]
0.669493 0.38489428 -0.75064474 -0.67034423 0.33189434 0.16554642 -0.46230933 0.06739852
0.38271984 -0.52056456 -1.1055084 -0.15261732 1.064517 0.1855213 -0.883688 0.2429414
-0.19055969 -0.19626062 -0.31666118 -0.8807773 1.3870347 0.25377712 0.2382184 -0.066966265
0.11130448 -0.2072749 -0.2139212 -0.31479713 0.3188189 0.41340664 0.07228489 -0.2557502
0.7321557 -0.088896275 -0.7896223 -0.15586695 -0.6273786 -0.05348301 -0.6805639 0.23277758
-0.8699335 -0.4450502 0.027454227 0.515014 0.7632028 0.25297162 0.35997552 -0.28803796
0.8787593 1.0625376 -0.09245958 -0.02471766 -0.04330309 -0.14769645 0.13761309 0.5379325
0.55550987 0.58967024 -0.14961033 -0.38118392 0.33213302 -0.08062981 0.7064076 -0.6765544
-0.04230842 0.22506633 0.38879162 -0.00171483 -0.2300151 -0.4255535 0.31460026 0.30264422
-0.022939818 0.6229741 -0.5185047 -0.2662981 0.9778933 -0.61688536 0.19505063 -0.16765895
0.008045289 1.6239709 0.12463363 0.19378506 -0.25287047 0.09212608 -0.3026311 0.37456056
0.23961757 0.24244416 -0.29516974 0.16527408 -0.11154507 0.48918277 0.48817945 0.35648915
0.027549783 -0.81375617 0.65099245 -0.011578341 0.50114 -0.55108607 -0.5436131 -0.6195886
-0.6854813 0.35646456 0.597811 0.9570139 0.556913 0.059675038 -0.2834267 -0.1917601
1.1974949 0.299322 -0.34122524 -0.1662597 -0.33849815 -0.6667988 0.32738593 0.11874853
-0.4566589 -0.67026365 0.39421925 -0.4621219 -0.28181186 0.6475275 0.2291005 0.42791516
-0.4767875 -0.20121542 -0.5956149 0.6299225 -0.3250786 0.41266626 1.0370913 -0.21774906
-0.41362974 0.6815652 -0.14346197 -0.26461366 -0.13383149 -0.80513436 -0.0031304806 0.05934307
-0.32121277 -0.57253814 0.021879911 -0.23094364 -0.83619875 -1.1029885 -0.021746065 -0.12204937
0.24119225 -0.18430717 0.92413515 0.0939755 -1.1293263 0.78521985 -0.6382587 -0.13296793
-0.34588867 0.30640697 -0.36973423 0.03342945 -0.26447073 -0.15617116 0.02068133 -0.32487893
0.006501175 -1.0616527 -0.31212303 0.045745645 -0.12171035 0.083833136 -0.21887209 -0.07928395
0.59174603 0.67790544 -0.088126995 0.8165567 0.14605722 0.40693283 -0.1511968 -1.2149882
0.29552564 -0.013141624 0.30377817 0.8213151 0.9900513 0.17826429 0.36503178 0.49770734
-0.11780218 -0.98435295 -0.11815704 0.26969516 0.82922035 -0.009680403 -0.63852286 0.72318906
-0.1433088 0.22888908 1.2568449 -0.432623 -0.02364094 0.41788492 0.41719046 -0.004656056
-0.63579196 -0.17580011 0.15301989 0.2875163 0.44782266 0.74039245 0.755797 0.55831385
0.079160705 -0.69857395 0.08811208 0.5028671 -0.738781 -0.018881429 -0.04049434 0.21658461
0.62868434 -0.220171 -0.31834745 -0.62386084 -0.021534089 0.1552475 -0.6627972 0.65398836
0.999513 0.23259507 -0.40507877 -0.6725246 0.42530316 -0.21787205 0.9937307 0.71664184
-0.23585586 0.9729202 0.15759309 -0.041576803 0.2634419 0.29232326 0.5040176 0.5123001
-0.31248224 -0.49006984 -0.3536418 -0.3387082 -0.6623904 0.016174428 -0.015686527 -0.5530801
00000000: e563 2b3f dd10 c53e 412a 40bf ae9b 2bbf
00000010: 0eee a93e 0085 293e cfb3 ecbe 3c08 8a3d
00000020: dbf3 c33e b843 05bf 4d81 8dbf b747 1cbe
00000030: 1842 883f 4cf9 3d3e 6039 62bf a1c5 783e
00000040: 1422 43be 8bf8 48be 6a21 a2be 9f7a 61bf
00000050: 5a8a b13f 13ef 813e 86ef 733e 9c25 89bd
00000060: 9af3 e33d df3f 54be 290e 5bbe 172d a1be
00000070: 3b3c a33e 09aa d33e 1a0a 943d b1f1 82be
00000080: 8e6e 3b3f 400f b6bd b024 4abf 969b 1fbe
00000090: e29b 20bf 0011 5bbd 7039 2ebf 3f5d 6e3e
000000a0: f6b3 5ebf 9fdd e3be b0e7 e03c f5d7 033f
000000b0: 4261 433f 7f85 813e b64e b83e b679 93be
000000c0: 5ff6 603f 3b01 883f 735b bdbd b17c cabc
000000d0: 955e 31bd bd3d 17be 72ea 0c3e f2b5 093f
000000e0: e535 0e3f a1f4 163f 7333 19be 8a2a c3be
000000f0: 570d aa3e 3e21 a5bd 21d7 343f ab32 2dbf
00000100: 984b 2dbd ca77 663e b20f c73e 26c4 e0ba
00000110: 1489 6bbe 26e2 d9be 4913 a13e 2ff4 9a3e
00000120: 49ec bbbc 3b7b 1f3f b9bc 04bf 3958 88be
00000130: 3757 7a3f 33ec 1dbf 5abb 473e caae 2bbe
00000140: 63d0 033c 47de cf3f eb3f ff3d 976f 463e
00000150: 3d78 81be 99ac bc3d 77f2 9abe 67c6 bf3e
00000160: 4f5e 753e 4843 783e 7d20 97be 9c3d 293e
00000170: be71 e4bd 2a76 fa3e a8f2 f93e bf85 b63e
00000180: 15b0 e13c 5352 50bf 71a7 263f 15b3 3dbc
00000190: b64a 003f fa13 0dbf 3a2a 0bbf 5c9d 1ebf
000001a0: b47b 2fbf 8682 b63e 240a 193f ddfe 743f
000001b0: da91 0e3f d06d 743d 4e1d 91be c25c 44be
000001c0: 8347 993f bc40 993e 13b5 aebe fc3f 2abe
000001d0: a14f adbe 53b3 2abf 219f a73e 6e32 f33d
000001e0: 32cf e9be 6696 2bbf 1bd7 c93e 3e9b ecbe
000001f0: a549 90be 5dc4 253f 5299 6a3e b217 db3e
00000200: 7e1d f4be 6a0b 4ebe 387a 18bf 9a42 213f
00000210: b470 a6be fe48 d33e 68bf 843f 9cf9 5ebe
00000220: 47c7 d3be 0f7b 2e3f b2e7 12be 717b 87be
00000230: 1f0b 09be 491d 4ebf c028 4dbb b811 733d
00000240: 0076 a4be dc91 12bf 803d b33c 7d7c 6cbe
00000250: 1f11 56bf ba2e 8dbf ce24 b2bc 05f5 f9bd
00000260: 1afb 763e 05bb 3cbe 1f94 6c3f 3a76 c03d
00000270: c48d 90bf 2b04 493f ec64 23bf bf28 08be
00000280: 5218 b1be 60e1 9c3e ce4d bdbe 52ed 083d
00000290: b568 87be 55eb 1fbe e46b a93c 8856 a6be
000002a0: cf07 d53b 3ce4 87bf 97ce 9fbe c95f 3b3d
000002b0: 4743 f9bd b5b0 ab3d 0120 60be a05f a2bd
000002c0: ab7c 173f 368b 2d3f ed7b b4bd dc09 513f
000002d0: 0690 153e 8059 d03e 55d3 1abe bc84 9bbf
000002e0: 234f 973e f74f 57bc d088 9b3e b541 523f
000002f0: 0174 7d3f ea8a 363e 72e5 ba3e 7fd3 fe3e
00000300: 4542 f1bd 8efe 7bbf 51fc f1bd 7c15 8a3e
00000310: c947 543f 8e9a 1ebc 3c76 23bf eb22 393f
00000320: 8bbf 12be e661 6a3e 4be0 a03f c380 ddbe
00000330: a5aa c1bc 03f5 d53e fd99 d53e d491 98bb
00000340: 43c3 22bf f204 34be 3fb1 1c3e 5635 933e
00000350: 0349 e53e 5c8a 3d3f ea7b 413f a8ed 0e3f
00000360: 021f a23d bed5 32bf 1b74 b43d e6bb 003f
00000370: c020 3dbf 3aad 9abc 65dd 25bd 5bc8 5d3e
00000380: 75f1 203f 8274 61be 70fe a2be 58b5 1fbf
00000390: 4268 b0bc 33f9 1e3e 14ad 29bf c86b 273f
000003a0: 15e0 7f3f 672d 6e3e 7c66 cfbe 922a 2cbf
000003b0: 56c1 d93e da19 5fbe 2365 7e3f d775 373f
000003c0: 3384 71be 4c11 793f 1560 213e 704c 2abd
000003d0: dbe1 863e 65ab 953e 4c07 013f 1926 033f
000003e0: acfd 9fbe 6fea fabe 8a10 b5be 296b adbe
000003f0: 6b92 29bf 3c80 843c 0881 80bc a896 0dbf

model.module_list.0.fc.bias f4 [256]
-0.17961639 0.06478264 0.032476258 0.09189188 -0.0682502 0.117987946 0.012416128 -0.07014915
0.050276287 -0.03453454 -0.23662657 0.06545263 -0.05995141 -0.029171506 -0.014690579 -0.018464817
0.03888554 -0.050777946 0.079005554 -0.16494335 -0.1815446 0.124172166 0.23493026 0.02593354
0.021963617 -0.007956066 0.25531414 0.013723174 0.028160179 -0.019883249 0.0067797457 -0.022228654
-0.0870446 -0.0064242915 0.10424546 -0.10973522 0.0067249704 -0.1312099 0.033299554 -0.02294711
0.086964376 -0.2566086 -0.064076744 0.26451352 -0.20584385 -0.049935643 -0.04348401 -0.04933838
0.111297205 0.11996783 0.009574089 -0.057971433 -0.0022192134 -0.016457776 0.062911116 0.007792413
0.096544914 -0.00012522936 0.009702762 0.06341734 -0.041890107 -0.03193266 -0.0684643 -0.124651745
0.024960143 0.041323364 0.22290522 0.023363518 -0.06400185 -0.028853895 -0.03680341 -0.061774068
-0.13706104 -0.010413779 0.00497808 0.014219727 -0.02047199 -0.0005089021 0.0056053326 0.03324846
0.012551542 -0.11855711 -0.083106115 0.0021868323 0.03241605 -0.08252997 -0.13196237 0.09292319
-0.013363997 0.012539272 -0.015540319 -0.011587381 0.07876021 -0.020849321 0.069062635 0.021786703
0.14142516 0.0035415664 -0.0015779448 -0.022936553 -0.014588361 0.022783872 -0.037975408 -0.035540167
-0.034899782 -0.06884178 0.1473833 -0.1259302 -0.0145464605 -0.04453071 0.01589381 -0.01455018
-0.088298425 0.025048355 -0.01779332 -0.20665415 -0.016194936 -0.096674174 0.017813731 0.0108992215
-0.05288484 0.06063031 -0.09977637 -0.10599198 -0.028054826 0.02161532 -0.11915022 -0.0953075
-0.07442312 0.030182183 -0.03824356 0.11224395 -0.1326649 0.7716365 -0.09639385 -0.010308891
-0.002919499 -0.03824048 -0.039836094 -0.035936616 0.14318141 -0.06139009 0.24243343 0.041623935
0.008407874 0.05715002 -0.14999805 0.042187355 -0.0759466 0.1253562 -0.13655269 -0.14594087
0.014927427 -0.014899267 -0.07565989 0.09050001 0.016474225 -0.012025928 -0.0559556 0.018861195
0.03181397 0.053547084 0.11388034 -0.058900718 0.2716936 0.0823116 -0.04178991 -0.017388673
-0.028710373 -0.016549457 -0.07043022 0.06260016 -0.008563583 -0.021469489 0.07747838 -0.18470916
-0.55076617 0.8461542 0.028749926 0.057324935 0.0030343314 -0.19126414 0.089491524 -0.011704756
-0.01055923 -0.17350854 0.054744326 -0.0456018 0.033136703 -0.03579233 0.19464093 -0.15401757
-0.0476128 0.022765901 -0.06324785 0.07685041 0.16533041 -0.52325046 0.063263915 0.026623292
0.11669445 0.048296146 0.016628873 0.045501705 -0.05344123 -0.047165792 0.10543308 -0.073490664
-0.016327348 -0.014570552 0.086551994 0.26706538 -0.020529727 -0.038171127 -0.14802048 -0.22878614
-0.020508533 -0.013019479 0.05880349 0.005482661 -0.0169752 0.06719137 -0.02249816 -0.011122522
0.007867624 0.026618497 -0.03163044 -0.06363172 -0.022276595 -0.099721804 0.16145302 0.0017870567
-0.31099886 0.053177994 0.15092716 -0.011544544 0.05355555 -0.060540624 0.028460955 0.115669146
-0.13993245 -0.25122094 0.30741695 -0.009826069 0.07782628 -0.0017680981 0.023166606 -0.16105425
-0.042040307 0.0046813744 -0.09372783 -0.25050977 -0.0915462 0.057313908 -0.17421259 0.029243618
00000000: 5ced 37be c3ac 843d d305 053d cf31 bc3d
00000010: c3c6 8bbd aaa3 f13d 046d 4b3c 5caa 8fbd
00000020: 82ee 4d3d 1774 0dbd 3c4e 72be 070c 863d
00000030: 9c8f 75bd 15f9 eebc c1b0 70bc 8743 97bc
00000040: 7246 1f3d 89fc 4fbd aacd a13d e9e6 28be
00000050: d4e6 39be fa4d fe3d 8f91 703e 9372 d43c
00000060: 0bed b33c 295a 02bc 89b8 823e 2ad7 603c
00000070: 2db0 e63c 32e2 a2bc a128 de3b de18 b6bc
00000080: 7044 b2bd dd82 d2bb a57e d53d dcbc e0bd
00000090: 245d dc3b e35b 06be 1d65 083d 94fb bbbc
000000a0: 611a b23d 3462 83be ab3a 83bd 516e 873e
000000b0: bbc8 52be 5189 4cbd 4a1c 32bd 0b17 4abd
000000c0: caef e33d b2b1 f53d a4dc 1c3c 7473 6dbd
000000d0: 3970 11bb 75d2 86bc 8bd7 803d 7f57 ff3b
000000e0: 57b9 c53d 0050 03b9 55f8 1e3c f3e0 813d
000000f0: f694 2bbd d2cb 02bd 0337 8cbd 6a49 ffbd
00000100: 3779 cc3c b042 293d 4441 643e d964 bf3c
00000110: 6713 83bd 015f ecbc 2cbf 16bd ce06 7dbd
00000120: bb59 0cbe 8e9e 2abc 291f a33b dcf9 683c
00000130: e0b4 a7bc d867 05ba f0ac b73b 8a2f 083d
00000140: fca4 4d3c 12ce f2bd 8a33 aabd f550 0f3b
00000150: b1c6 043d 7905 a9bd 2521 07be 834e be3d
00000160: abf4 5abc 8571 4d3c d29c 7ebc 00d9 3dbc
00000170: 084d a13d 32cc aabc b670 8d3d 077a b23c
00000180: c2d1 103e a019 683b 0bd3 ceba 70e5 bbbc
00000190: 0504 6fbc 3ea5 ba3c 1a8c 1bbd 9192 11bd
000001a0: 13f3 0ebd ebfc 8cbd a6eb 163e d9f3 00be
000001b0: 4754 6ebc d565 36bd bc33 823c e163 6ebc
000001c0: ced5 b4bd 3532 cd3c 4cc3 91bc 259d 53be
000001d0: 3eab 84bc 1cfd c5bd 1aee 913c a692 323c
000001e0: c69d 58bd 7d57 783d 8e57 ccbd 5312 d9bd
000001f0: 3cd3 e5bc 9d12 b13c 0805 f4bd 9430 c3bd
00000200: 266b 98bd a040 f73c 47a5 1cbd 28e0 e53d
00000210: 4fd9 07be f889 453f 246a c5bd 9fe6 28bc
00000220: 1155 3fbb 0da2 1cbd 2c2b 23bd 4632 13bd
00000230: 269e 123e 2d74 7bbd 7840 783e dc7d 2a3d
00000240: 2ec1 093c 2416 6a3d 1799 19be a6cc 2c3d
00000250: e489 9bbd 605d 003e 78d4 0bbe 8671 15be
00000260: 2b92 743c 0e1c 74bc 93f3 9abd 1258 b93d
00000270: f4f4 863c 6608 45bc b331 65bd cb82 9a3c
00000280: 5e4f 023d 3054 5b3d 183a e93d e141 71bd
00000290: 6c1b 8b3e fc92 a83d e62b 2bbd b172 8ebc
000002a0: 0432 ebbc ba92 87bc b83d 90bd 8334 803d
000002b0: 454e 0cbc c8e0 afbc fcac 9e3d 6624 3dbe
000002c0: 03ff 0cbf 909d 583f f784 eb3c 8dcd 6a3d
000002d0: a2db 463b bfda 43be 5547 b73d 4ec5 3fbc
000002e0: 9f00 2dbc 39ac 31be 963b 603d f4c8 3abd
000002f0: 5aba 073d fa9a 12bd f44f 473e c8b6 1dbe
00000300: a405 43bd 8e7f ba3c 1788 81bd bf63 9d3d
00000310: 604c 293e bef3 05bf 8390 813d 1719 da3c
00000320: 80fd ee3d 2ed2 453d 4639 883c ff5f 3a3d
00000330: 31e5 5abd eb30 41bd 4ced d73d 4682 96bd
00000340: eec0 85bc 53b9 6ebc 2c42 b13d cbbc 883e
00000350: f52d a8bc 5459 1cbd ae92 17be ea46 6abe
00000360: 8301 a8bc a74f 55bc eedb 703d e5a7 b33b
00000370: 930f 8bbc a19b 893d 104e b8bc 3d3b 36bc
00000380: 35e7 003c 090f da3c ec8e 01bd 5951 82bd
00000390: 687d b6bc f23a ccbd f153 253e ac3b ea3a
000003a0: 3e3b 9fbe 2bd1 593d a68c 1a3e 5425 3dbc
000003b0: 105d 5b3d 72f9 77bd f326 e93c f2e3 ec3d
000003c0: 744a 0fbe 08a0 80be c165 9d3e 85fd 20bc
000003d0: 6263 9f3d 87bf e7ba e5c7 bd3c 68eb 24be
000003e0: 7532 2cbd 3766 993b 60f4 bfbd d142 80be
000003f0: 937c bbbd fdc1 6a3d c964 32be 5090 ef3c

model.module_list.0.output_quant.pre_transforms.0.weight f4 [256]
0.68499327 0.75822586 0.69885015 0.6915738 0.77671194 0.79080135 1.5232806 1.2884452
1.1874042 0.6258132 0.99282384 0.18868057 0.7720571 0.83198905 1.0 0.66585225
1.0910066 1.0456556 1.0572114 0.6390334 0.8563793 1.911653 0.6257358 1.3663181
1.2888209 0.75222117 1.253575 1.0 2.842516 0.40653214 0.76732945 1.6932817
0.77844423 0.6223714 0.9682237 1.205344 0.84927505 0.83149266 0.583763 0.76621115
0.74137896 0.7557628 1.2824411 1.4138234 0.7790613 0.79772973 1.0599171 0.6257691
0.777203 0.7759747 2.2415407 0.7296826 0.7646122 2.1790178 0.9194686 0.75791484
0.94260687 1.0 0.8165879 1.1903155 0.8299757 1.0122895 0.67374337 0.74133784
1.0 1.6687948 1.2127833 0.921547 1.1662909 1.0 0.8679106 0.6823159
0.8434309 0.8245631 0.9288744 1.0 0.983453 1.2597196 0.80776167 1.0501521
1.548814 0.9650214 0.56908697 0.699115 0.75956494 0.53566325 0.83966804 1.2464788
0.7310084 0.87795794 1.034565 0.7840349 0.67886937 0.17730696 1.3554616 1.0
1.4386641 0.7450784 1.2107089 1.6117382 1.0 0.5614051 1.4361137 0.55841005
0.8388159 1.1753736 1.908899 1.1190295 0.65690446 0.5600452 1.0 0.6438582
1.113425 1.6936922 0.82920116 0.9482469 1.0 0.5641562 1.0 0.9542297
0.6344696 1.4004728 1.2474741 0.6793425 1.0 0.59713715 0.55248624 0.6625917
0.59432775 0.79165214 0.5527601 0.7511768 0.9897911 0.86507064 1.1441367 1.0902115
0.6351718 1.0907223 0.56137383 0.7802925 1.267283 1.2380334 0.81984067 0.83252853
0.7347891 0.61314654 0.88447076 1.3000296 0.8281665 0.8866517 0.41278905 0.9246741
0.7122598 0.4412153 0.654334 1.2215567 1.0232822 0.53966933 1.2244928 1.0404351
0.91594595 1.5885432 1.6888027 0.9781963 0.82789195 0.8467454 0.84230393 0.7899311
0.907897 1.0 1.9073727 1.1039346 1.0 1.0281994 0.67321783 0.7633857
0.845096 0.67102677 0.6631339 1.4176707 1.141473 0.71252406 0.9916537 1.0
1.6915838 0.8506023 0.96555036 1.1742388 1.0261468 0.866159 0.75285935 0.6225975
1.1161828 1.221065 0.8601278 0.8940914 0.471695 2.2951689 0.6621841 1.6136123
0.98797655 0.49795914 0.79049885 1.4481008 0.6065447 1.2005476 1.0610753 0.6079801
1.0018119 1.0 0.51637316 0.7726872 1.0 1.9391942 0.8720759 0.8436885
1.6763042 0.3452144 0.7213295 1.0 1.0 1.6134553 0.5197465 0.7236997
0.90078986 1.4265814 1.0 0.647316 1.0737917 0.8978539 0.5901256 1.0608374
2.333228 0.8345417 0.47765633 2.0856638 1.30689 1.2101842 0.60979843 0.8056783
0.90431434 0.90298 1.4211845 1.2368349 0.86091346 0.65138763 0.7814924 0.88579303
0.8092607 1.1687918 0.6581684 1.1556582 0.80186224 0.9449187 0.4010492 0.66822
00000000: b85b 2f3f 171b 423f d8e7 323f fb0a 313f
00000010: 98d6 463f f571 4a3f dcfa c23f c6eb a43f
00000020: dcfc 973f 4b35 203f b429 7e3f 7b35 413e
00000030: 89a5 453f 3cfd 543f 0000 803f 4b75 2a3f
00000040: 1ba6 8b3f 0bd8 853f b452 873f b197 233f
00000050: ac3b 5b3f 0cb1 f43f 3930 203f 83e3 ae3f
00000060: 15f8 a43f 9191 403f 2575 a03f 0000 803f
00000070: c8eb 3540 fb24 d03e b46f 443f 74bd d83f
00000080: 1f48 473f bb53 1f3f 82dd 773f b648 9a3f
00000090: 176a 593f b4dc 543f 7e71 153f 6a26 443f
000000a0: 03cb 3d3f ac79 413f 0827 a43f 2af8 b43f
000000b0: 9070 473f 0438 4c3f 5dab 873f 6732 203f
000000c0: c7f6 463f 47a6 463f 6775 0f40 7bcc 3a3f
000000d0: a0bd 433f 0775 0b40 4b62 6b3f b506 423f
000000e0: af4e 713f 0000 803f e80b 513f 425c 983f
000000f0: 4a79 543f b492 813f 727a 2c3f 51c8 3d3f
00000100: 0000 803f 119b d53f 7c3c 9b3f 81ea 6b3f
00000110: 0549 953f 0000 803f 642f 5e3f 41ac 2e3f
00000120: 16eb 573f 9116 533f b6ca 6d3f 0000 803f
00000130: 93c3 7b3f 7e3e a13f 78c9 4e3f 626b 863f
00000140: 8a3f c63f a40b 773f afaf 113f 33f9 323f
00000150: d972 423f 3a21 093f 7cf4 563f 9e8c 9f3f
00000160: 5e23 3b3f dac1 603f a06c 843f 83b6 483f
00000170: 62ca 2d3f f58f 353e c47f ad3f 0000 803f
00000180: 2526 b83f 75bd 3e3f 82f8 9a3f 704d ce3f
00000190: 0000 803f 3fb8 0f3f 93d2 b73f f6f3 0e3f
000001a0: a4bc 563f a472 963f cd56 f43f 5c3c 8f3f
000001b0: e42a 283f 1f5f 0f3f 0000 803f e4d3 243f
000001c0: b684 8e3f e8ca d83f 8746 543f 4fc0 723f
000001d0: 0000 803f 8a6c 103f 0000 803f 6648 743f
000001e0: 9a6c 223f b142 b33f 3bad 9f3f 64e9 2d3f
000001f0: 0000 803f fbdd 183f bd6f 0d3f 9c9f 293f
00000200: dd25 183f b7a9 4a3f b081 0d3f 1f4d 403f
00000210: f362 7d3f 4575 5d3f 1273 923f 0d8c 8b3f
00000220: 9e9a 223f ca9c 8b3f 32b6 0f3f 40c1 473f
00000230: 5436 a23f e177 9e3f 14e1 513f 9720 553f
00000240: 231b 3c3f 2cf7 1c3f ad6c 623f 5f67 a63f
00000250: b802 543f 9bfb 623f 1659 d33e 71b7 6c3f
00000260: a956 363f f9e6 e13e 6f82 273f f85b 9c3f
00000270: e9fa 823f c527 0a3f 2ebc 9c3f fa2c 853f
00000280: 6f7b 6a3f 6255 cb3f b02a d83f 136b 7a3f
00000290: baf0 533f 4ec4 583f 3ba1 573f ed38 4a3f
000002a0: f06b 683f 0000 803f ca24 f43f bb4d 8d3f
000002b0: 0000 803f 0a9c 833f 0158 2c3f 3f6d 433f
000002c0: 3658 583f 69c8 2b3f 25c3 293f 3c76 b53f
000002d0: ca1b 923f fa67 363f 04dd 7d3f 0000 803f
000002e0: d185 d83f 13c1 593f 4f2e 773f 754d 963f
000002f0: c758 833f 99bc 5d3f 64bb 403f 8d62 1f3f
00000300: 14df 8e3f dc4b 9c3f 5631 5c3f 2de3 643f
00000310: 0282 f13e 0ce4 1240 e684 293f d98a ce3f
00000320: 08ec 7c3f 80f4 fe3e 225e 4a3f 5e5b b93f
00000330: 8346 1b3f 8bab 993f 51d1 873f 95a4 1b3f
00000340: 5f3b 803f 0000 803f 0831 043f d4ce 453f
00000350: 0000 803f 8437 f83f 5e40 5f3f f8fb 573f
00000360: 2391 d63f f1bf b03e 0da9 383f 0000 803f
00000370: 0000 803f b485 ce3f 1b0e 053f 6244 393f
00000380: 2a9a 663f 389a b63f 0000 803f 80b6 253f
00000390: 0272 893f c1d9 653f 7912 173f 85c9 873f
000003a0: 9c53 1540 86a4 553f 5f8f f43e 847b 0540
000003b0: 2c48 a73f 51e7 9a3f c01b 1c3f ef40 4e3f
000003c0: 2581 673f b329 673f 60e9 b53f 9b50 9e3f
000003d0: d364 5c3f 57c1 263f e30f 483f 55c3 623f
000003e0: b62b 4f3f f89a 953f b97d 283f 9cec 933f
000003f0: d846 4d3f 31e6 713f 5256 cd3e 7710 2b3f

model.module_list.0.output_quant.pre_transforms.0.bias f4 [256]
0.7038689 0.82520694 -0.29652414 0.7134647 0.54325426 -0.23475069 -0.68582195 -0.46888453
0.79570913 0.65665185 0.7713844 -0.70731574 0.6128923 0.91810673 0.0 -0.651208
-0.19289349 0.49771303 0.07343646 1.2462983 -0.34927136 0.43340048 0.48598167 0.43082613
0.2409932 -0.3489484 0.29111567 0.0 1.1545898 0.49996704 0.63180524 0.49928442
0.8845245 0.53083915 -0.64948624 0.70109177 0.80076486 -0.4189196 0.54010874 0.60601467
0.6825322 0.3276435 -0.048543658 0.7490747 0.8073127 0.29691273 0.24186459 -0.2623781
0.61426294 0.53300476 0.843016 0.76993966 0.019773122 0.21233676 1.011847 0.9533163
-0.46778134 0.0 0.4360745 0.3343796 0.32884824 0.0884718 0.8229863 0.47493982
0.0 0.59548366 -0.26544306 -0.12985429 0.41566503 0.0 0.6926668 0.7215837
0.5882527 0.87988657 -0.25441873 0.0 -0.062291335 0.32778776 0.9766501 0.52030724
-0.15308952 -0.13929124 0.78275394 0.81641036 1.0822215 1.1766305 0.4591771 0.8886689
0.19899897 -0.7307643 0.5199161 0.7400715 0.63829464 -0.57174236 0.007070265 0.0
0.24375992 0.55183583 0.7566355 0.008088784 0.0 1.2757998 0.49518308 -0.6359448
0.42043337 -0.055273637 0.9417069 1.0148183 -0.43062857 -0.77328974 0.0 0.50324
-0.4063422 -0.23318844 0.52427346 0.50363296 0.0 0.42403764 0.0 0.88449174
1.0244927 -0.09205665 -0.04465035 0.6181199 0.0 0.8555527 0.33527485 0.29913887
0.8468379 0.9892768 0.16807158 0.6548283 0.47500265 1.0870177 0.36493373 0.6245571
0.73314595 0.13434815 -0.7929286 1.1024626 0.04443586 0.07883504 0.9169375 -0.0061961
0.5386577 0.48939654 0.67854494 0.7585201 -0.2906647 1.0584627 -0.5464596 1.2754693
0.5081823 0.4739874 0.56868047 1.2554603 0.5390811 -0.033101752 -0.15200067 0.5695398
-0.0530254 0.28707388 0.89647216 0.27101868 0.38355237 -0.019086655 0.91496927 -0.0032674954
0.8019134 0.0 0.4960191 1.140645 0.0 -0.6812383 0.28867495 0.3663278
0.4572502 0.7356951 0.67920554 1.5195181 0.17537281 0.6619398 0.24170248 0.0
0.45423424 0.42909285 0.5179926 0.14875765 1.1871985 0.17072321 0.7461906 0.8732966
-0.07601555 -0.047150925 0.077527136 0.98282564 -0.40857434 0.86819315 0.5869916 0.4707608
0.43140584 0.7964515 -0.749023 0.21116222 0.056143545 0.7423861 -0.20078844 0.5012738
-0.25075382 0.0 0.4561445 -0.09897234 0.0 0.06565296 0.43526655 0.82013965
0.04782931 0.2127877 1.0609952 0.0 0.0 0.32490745 -0.19599117 0.8119018
0.2978233 -0.011363896 0.0 0.19084428 1.1064711 0.5661748 1.0260962 -0.8443328
-0.017078096 0.59656566 0.38145667 1.052252 -0.05612753 0.064563476 0.7239961 0.83675486
0.597112 0.3892881 1.2822863 0.101334065 0.80519825 0.4032508 0.5896631 0.42163038
0.1744698 -1.0994335 0.73357457 1.0699506 0.9994958 0.910808 0.3951741 -0.27916768
00000000: c130 343f c340 533f 03d2 97be 9fa5 363f
00000010: b612 0b3f 7c62 70be 0792 2fbf a211 f0be
00000020: 98b3 4b3f 561a 283f 7379 453f a512 35bf
00000030: 83e6 1c3f 0b09 6b3f 0000 0000 91b5 26bf
00000040: df85 45be 3ed4 fe3e db65 963d b486 9f3f
00000050: b2d3 b2be abe6 dd3e 97d2 f83e 3e95 dc3e
00000060: ecc6 763e 5da9 b2be 1d0d 953e 0000 0000
00000070: 99c9 933f aefb ff3e fdbd 213f 35a2 ff3e
00000080: 3370 623f 13e5 073f bb44 26bf c07a 333f
00000090: edfe 4c3f a17c d6be 9144 0a3f c723 1b3f
000000a0: 6eba 2e3f e4c0 a73e b7d5 46bd 5cc3 3f3f
000000b0: 0cac 4e3f f204 983e 5aab 773e 6c56 86be
000000c0: 5640 1d3f 0073 083f e6cf 573f c41a 453f
000000d0: 3efb a13c cf6e 593e 3484 813f 890c 743f
000000e0: 0981 efbe 0000 0000 2845 df3e ce33 ab3e
000000f0: cc5e a83e b430 b53d 3baf 523f 502b f33e
00000100: 0000 0000 9e71 183f 27e8 87be 86f8 04be
00000110: 0cd2 d43e 0000 0000 9d52 313f b6b9 383f
00000120: bb97 163f 3f40 613f 2c43 82be 0000 0000
00000130: 3325 7fbd ccd3 a73e be05 7a3f db32 053f
00000140: 80c3 1cbe 5da2 0ebe 9062 483f 4500 513f
00000150: 3c86 8a3f d49b 963f 4319 eb3e ce7f 633f
00000160: 63c6 4b3e 5f13 3bbf 3919 053f 5375 3d3f
00000170: 4767 233f b55d 12bf aead e73b 0000 0000
00000180: 339c 793e 1d45 0d3f ddb2 413f d286 043c
00000190: 0000 0000 684d a33f a388 fd3e 47cd 22bf
000001a0: 0b43 d73e 9c66 62bd b413 713f 91e5 813f
000001b0: 597b dcbe 51f6 45bf 0000 0000 56d4 003f
000001c0: 160c d0be f3c8 6ebe c936 063f 17ee 003f
000001d0: 0000 0000 761b d93e 0000 0000 0d6e 623f
000001e0: 9422 833f 3288 bcbd 49e3 36bd 1b3d 1e3f
000001f0: 0000 0000 8005 5b3f 25a9 ab3e bb28 993e
00000200: 5eca 583f 3f41 7d3f f51a 2c3e d4a2 273f
00000210: 8c33 f33e 6523 8b3f 98d8 ba3e f9e2 1f3f
00000220: 74af 3b3f 9092 093e 5efd 4abf 7f1d 8d3f
00000230: 6002 363d 4474 a13d 6abc 6a3f a708 cbbb
00000240: 79e5 093f 2f92 fa3e 1fb5 2d3f 602e 423f
00000250: 01d2 94be b57b 873f c7e4 0bbf 9442 a33f
00000260: 3c18 023f 7aae f23e 0b95 113f ecb2 a03f
00000270: 3801 0a3f b495 07bd 10a6 1bbe 5ccd 113f
00000280: 2931 59bd 59fb 923e 337f 653f f6c2 8a3e
00000290: fa60 c43e 9e5b 9cbc 6d3b 6a3f 7a23 56bb
000002a0: 324a 4d3f 0000 0000 37f6 fd3e a800 923f
000002b0: 0000 0000 a265 2ebf 34cd 933e 518f bb3e
000002c0: b31c ea3e 8456 3c3f 6ae0 2d3f 927f c23f
000002d0: ee94 333e e374 293f db80 773e 0000 0000
000002e0: 6491 e83e 0fb2 db3e 2a9b 043f ed53 183e
000002f0: 1ff6 973f 11d2 2e3e 5906 3f3f 5e90 5f3f
00000300: 0aae 9bbd 5421 41bd 8cc6 9e3d 769a 7b3f
00000310: a830 d1be e841 5e3f 1545 163f 8f07 f13e
00000320: 3ae1 dc3e 3fe4 4b3f f9bf 3fbf e93a 583e
00000330: c6f6 653d 040d 3e3f 7c9b 4dbe 7b53 003f
00000340: ce62 80be 0000 0000 c68b e93e 03b2 cabd
00000350: 0000 0000 0f75 863d 42db de3e acf4 513f
00000360: abe8 433d 05e5 593e b1ce 873f 0000 0000
00000370: 0000 0000 455a a63e e9b1 48be ccd8 4f3f
00000380: 4c7c 983e a22f 3abc 0000 0000 af6c 433e
00000390: d8a0 8d3f d5f0 103f 1f57 833f 3226 58bf
000003a0: 5de7 8bbc 87b8 183f 4a4e c33e 32b0 863f
000003b0: fbe5 65bd db39 843d cf57 393f 9135 563f
000003c0: 55dc 183f c550 c73e f521 a43f 3c88 cf3d
000003d0: 7921 4e3f e476 ce3e 29f4 163f f0df d73e
000003e0: 36a8 323e 3dba 8cbf 8bcb 3b3f 24f4 883f
000003f0: f5de 7f3f b72a 693f 4254 ca3e 11ef 8ebe
