examples/jet_substructure/input_quants/small_inpq_16_2_ensemble_size1_seed1/best_accuracy.pth (torch, 212339 bytes, 147 tensors)

ensemble.0.input_quant.pre_transforms.0.weight f4 [16]
000000 d8 35 50 3f 87 e0 42 3f ea f3 9f 3f 92 67 f1 3f
       0.8133216 0.7612385 1.2496312 1.8859732
000010 82 b8 b0 3e 20 8d 93 3f 10 f1 03 3f 6c 28 c2 3e
       0.34515768 1.1527443 0.5153971 0.37921464
000020 28 8d 2b 3f b5 87 b1 3e ad d3 0c 3f 88 c2 40 3f
       0.6701226 0.3467385 0.5501049 0.7529683
000030 18 1e 04 3f 8c 92 cc 3e bd 3e 03 40 96 65 29 3f
       0.5160842 0.39955556 2.0507042 0.6617063

ensemble.0.input_quant.pre_transforms.0.bias f4 [16]
000000 f0 14 39 be b8 ca b4 3d c4 c3 f2 3d e1 1e 8e bd
       -0.18074393 0.08827728 0.118537456 -0.069394834
000010 3c 7a 10 be b4 94 f6 3e ca 31 c7 be 53 58 7c 3d
       -0.14109129 0.48160326 -0.38905174 0.06160767
000020 99 fb 11 3e d7 01 eb bc 5c 9e 80 3e 35 c6 1c 3f
       0.14256133 -0.0286874 0.2512082 0.6123994
000030 21 fa e7 3c 4b 58 66 3e 52 4e 42 3b 99 20 bb be
       0.028317513 0.22494619 0.0029648733 -0.36548308

ensemble.0.input_quant.pre_transforms.0.running_mean f4 [16]
000000 58 55 3e 3c a9 d5 09 bc 67 66 38 bc 1e 48 41 bc
       0.011617027 -0.008412757 -0.011254883 -0.011796979
000010 70 0c df bb 66 ae 06 bc f1 9d bf 3b 8e dd 78 3b
       -0.0068069026 -0.008220291 0.0058476855 0.0037973854
000020 f1 9d bf 3b 59 2f 51 bb 63 54 02 bc 52 f1 08 bc
       0.0058476855 -0.003191909 -0.00795469 -0.0083583165
000030 9e 7e d1 ba 97 2b 03 bb fc 90 1f bc 2c b0 36 bc
       -0.001598317 -0.0020014995 -0.009739157 -0.011150401

ensemble.0.input_quant.pre_transforms.0.running_var f4 [16]
000000 0e b4 80 3f 8b 73 81 3f 07 f6 7c 3f f6 07 7b 3f
       1.0054948 1.0113386 0.9881291 0.9805902
000010 16 43 7e 3f 9b 7e 7b 3f f7 13 81 3f 0c 91 80 3f
       0.99321115 0.9824006 1.0084218 1.0044265
000020 f7 13 81 3f 30 70 80 3f 09 0a 80 3f 0e 75 7e 3f
       1.0084218 1.0034237 1.0003062 0.9939736
000030 4e d9 80 3f 95 ac 7f 3f 39 9a 7c 3f 0d e2 7a 3f
       1.0066316 0.99872714 0.98672825 0.98001176

ensemble.0.fc.weight f4 [16, 16]
000000 d2 e5 78 3a ea 26 69 be 1b da f0 bc c5 9e 35 3e
       0.0009494695 -0.22768751 -0.029400876 0.17736347
000010 96 86 50 be e4 ff 67 3d fa fa 86 bd 96 80 7b 3e
       -0.2036384 0.05664052 -0.06590839 0.2456077
000020 cf f4 c7 3b f8 fb d1 bc 16 60 62 bd d4 36 f6 bd
       0.0061021815 -0.025632843 -0.055267416 -0.120221764
000030 4f 33 35 3e ad a1 01 be de 36 66 3e 39 f0 28 3e
       0.17695354 -0.1265933 0.22481868 0.16497888
000040 8e e0 54 be c9 4d 45 3e 77 d2 91 bb 91 60 1b 3e
       -0.20788786 0.19267954 -0.004450138 0.15173556
000050 e8 6e ed bd f4 f7 2e 3d db f8 fe 3b c9 9f 81 3c
       -0.11593419 0.042716935 0.0077811307 0.015823262
000060 e9 48 38 bd e8 33 cf bc 3f 6d 01 be 00 7d 40 3e
       -0.044991408 -0.025293306 -0.1263933 0.18797684
000070 46 33 e7 3d f0 fc ee bd b8 40 0f bd 85 b8 98 bd
       0.112890765 -0.11669338 -0.03497383 -0.07457069
000080 5f 1a 93 bd b6 ee 1e 3d 26 ed 72 3e d8 6a 77 be
       -0.07182764 0.03880187 0.23723277 -0.24161851
000090 4e 40 62 bd 96 be aa be ca 28 2e 3e 2a d8 69 be
       -0.055237107 -0.3334853 0.17007747 -0.22836366
0000a0 9c de 6a 3d 91 2f 66 3d 21 3c 0a 3e 60 6c 51 3d
       0.057341203 0.056197707 0.134995 0.051128745
0000b0 7e 26 07 3d 15 f6 74 3e 1d 34 23 bd 2c 1d 3d 3e
       0.032995693 0.23921998 -0.03984462 0.1846816
0000c0 ac c2 06 3e ed e5 74 bd 22 da 74 bd 34 6d fc 3d
       0.13160199 -0.059789587 -0.05977834 0.12325516
0000d0 af ca d5 bd a7 13 13 3d 8c 36 41 be 81 73 28 3e
       -0.104390495 0.035907414 -0.18868464 0.16450311
0000e0 a5 f1 43 be b2 90 7b 3d 18 63 5c be fd a4 98 bd
       -0.19135149 0.06141729 -0.21522176 -0.07453344
0000f0 ce fd 21 bd a2 6a fb bd 7c df 2c bd 4a 71 3b 3d
       -0.039548688 -0.12276198 -0.04220532 0.045762338
000100 e6 c5 df bc 60 af 3c 3e 2a e8 52 be a4 b6 2b 3e
       -0.027316045 0.18426275 -0.20596376 0.1676889
000110 20 69 40 be cc 3d d4 bd 58 92 4e bc a5 7a 15 be
       -0.18790102 -0.10363349 -0.012608133 -0.14597566
000120 fc f1 e8 3d 4a 4e 71 3e 71 68 a5 bd 0a 60 3c bd
       0.1137428 0.23565021 -0.08076561 -0.045990027
000130 b5 2e 26 3d ca 88 91 3d 3c 2e 7b 3e 43 5a 94 3d
       0.040571887 0.071061686 0.24529356 0.072437786
000140 7a 1c 7a 3d 24 76 70 3e 27 5e 06 be f6 1a 17 3e
       0.061062314 0.23482567 -0.13121854 0.14756379
000150 80 8c 10 be c4 6a 8f 3d d6 90 85 bd 41 9b 02 bd
       -0.14116096 0.07002786 -0.06521766 -0.031886343
000160 46 1e 64 3e 2a 76 6a 3e 20 f5 4a bd c8 67 f3 bd
       0.22277173 0.22896639 -0.049550176 -0.11885029
000170 4f cd d5 bc e7 9e 24 3e 6b 64 7e 3d 70 c6 ac bd
       -0.026098875 0.16076241 0.062107485 -0.084362864
000180 d2 7e db bd 55 b0 24 3e dd 44 26 be 9e 16 c9 bd
       -0.107175484 0.1608289 -0.16237207 -0.09818767
000190 85 ef 17 bd 0a 67 6b 3e 26 80 41 3e bc b2 3e 3e
       -0.037093658 0.22988525 0.18896541 0.18622869
0001a0 9e 82 2a be 34 b9 ad 3d 55 95 b6 bd 76 47 fa 3d
       -0.16651389 0.0848259 -0.089152016 0.12220661
0001b0 00 a2 26 3e 77 1a 45 be 26 79 4b be a2 ba e6 3c
       0.16272736 -0.19248377 -0.19870433 0.028165165
0001c0 1e 7c 78 be 27 ae 35 3e 04 5c 36 be ed 57 12 be
       -0.24266097 0.17742215 -0.17808539 -0.14291354
0001d0 a0 fb 8f 3a 94 86 0f 3e c6 d7 5b 3e 1a f4 39 3d
       0.0010985024 0.14016181 0.2146903 0.04539881
0001e0 3d fd 90 3d b0 21 d4 3d c8 01 77 3e ea 32 78 bd
       0.07079551 0.10357988 0.24121773 -0.06059543
0001f0 45 cc 7f bd ec d4 9b bd a8 0c 2b bd 6b 17 55 be
       -0.062450666 -0.07608971 -0.041760117 -0.20809714
000200 89 97 96 3d a4 48 4f 3d 4d c8 01 3e b2 e4 1e be
       0.07353122 0.050606385 0.12674065 -0.15516928
000210 2a 5c 64 3e b5 aa 24 ba d4 b4 f3 bb 5e 65 5a be
       0.22300783 -0.0006281541 -0.007437328 -0.21327731
000220 fe 59 dc bd 99 b2 a2 3d 74 75 f4 3c fc 00 21 be
       -0.10759352 0.07944221 0.029841162 -0.15723032
000230 bc 86 69 3e 24 08 d3 3d 39 13 0b 3e f1 7d 12 be
       0.22805303 0.10304287 0.13581552 -0.14305855
000240 b4 52 cb bd 32 7a 9d 3d 16 43 6c be 7c d6 eb 3d
       -0.09927884 0.076893225 -0.23072466 0.11515519
000250 98 da 4f 3c 5e fc 20 3e f8 4c 41 3e 83 e0 82 bd
       0.012686394 0.1572127 0.18877017 -0.063904785
000260 a3 60 03 3e da 5f bb 3b 99 b7 75 3e 36 9f df bc
       0.12829833 0.0057182135 0.23995818 -0.027297597
000270 f7 30 1b be a8 c1 06 bd f8 bd 3d be c5 7c 13 be
       -0.15155397 -0.03289953 -0.18529499 -0.14403065
000280 66 f2 5b 3d da 9e 42 3e 10 2d 4d 3e 51 cf 05 3d
       0.053697966 0.1900591 0.20036721 0.032668415
000290 00 1d 57 3e 00 f2 60 3e 68 74 17 be d1 cf 99 bd
       0.21007156 0.21967316 -0.14790499 -0.07510341
0002a0 2a 58 e5 3d 6d eb c5 bd a4 cc 2b bd f3 13 55 3e
       0.111984566 -0.096640445 -0.041943207 0.20808391
0002b0 fc 91 af bc d4 c4 69 bd 04 1a cf 3d ef 60 76 3e
       -0.021431915 -0.057072476 0.10112384 0.24060415
0002c0 ba fe d8 bd 49 c2 03 bd dc 15 60 be 14 37 ee 3c
       -0.1059546 -0.032167707 -0.21883339 0.029078998
0002d0 68 f5 cf 3c b3 20 29 3e b4 bc 4d be ee 03 1c be
       0.025385574 0.1651638 -0.20091516 -0.15235874
0002e0 f5 0b 44 3e 4a 14 e3 bd 49 b5 84 3c ae 8b 58 3e
       0.19145186 -0.11087854 0.016199725 0.21147034
0002f0 5c 65 3b bd 81 50 7c bc 1c 0f 6e be 1c a8 4e be
       -0.04575096 -0.015400053 -0.23247951 -0.20181316
000300 ea e0 71 be 34 64 71 bc db ed 43 be 58 33 4c 3e
       -0.23620954 -0.014733363 -0.19133703 0.19941461
000310 e0 8c 5a be db 96 95 bd 6e bb d7 3d b4 97 d4 bd
       -0.21342802 -0.07304164 0.10533796 -0.103804976
000320 9a 82 3c 3e 6f 8e 7f 3d 4a f6 71 3e 98 9c 0f 3d
       0.18409196 0.062391695 0.23629108 0.03506145
000330 d5 d1 19 3e 62 0f 5e be 0d 1c d6 bd 0a 51 e1 3d
       0.15021451 -0.21685556 -0.10454569 0.11001785
000340 46 7e bf bd 9d 09 a6 3d c1 64 18 be 2f e4 47 3d
       -0.093502566 0.08107302 -0.14882185 0.048801597
000350 30 62 f6 3c 2f de 0a be 31 8d c4 bb b8 e6 42 3e
       0.030076116 -0.13561319 -0.0059982766 0.19033325
000360 31 fc 39 be 9e ef 26 3d 59 de 08 3e e8 e7 67 3e
       -0.1816261 0.04075586 0.13366069 0.22647059
000370 56 90 65 be 86 f6 e3 3d 5f 57 a3 3e 26 4c 2c 3e
       -0.22418341 0.11131005 0.31902596 0.16825923
000380 e3 4d af bd ef 1c 12 bd 4b e7 f6 bc e4 c7 10 bd
       -0.085597776 -0.035672124 -0.030139586 -0.03534688
000390 47 3b 91 3c 19 fd 82 3c ad 6f 05 3e 6d 6a 45 be
       0.017728461 0.015989827 0.13030882 -0.1927888
0003a0 f6 9f 31 be 54 21 f4 bb 9a 41 6d be db e8 76 3e
       -0.17346177 -0.007450262 -0.23169556 0.24112265
0003b0 35 e7 33 3e f2 ba de bd ed 44 33 3e 92 ef e1 bd
       0.17568667 -0.10875501 0.17506762 -0.110320225
0003c0 56 f5 dc ba 74 04 57 be 57 d1 0b 3c ff 6b a8 3d
       -0.0016857784 -0.20997792 0.008533797 0.082237236
0003d0 8f 1e 3f 3d ab d5 0b 3e 5e 6c 1e bb 53 fa 06 3e
       0.046660002 0.13655727 -0.0024173479 0.13181429
0003e0 6e cc 77 3e 20 b8 2f be 4c 4e 30 be 9c f7 3d 3e
       0.24199077 -0.17160082 -0.17217368 0.18551487
0003f0 48 1a 58 bd fd b0 34 be 49 e7 05 3d 4a 3b 2d be
       -0.05275944 -0.1764564 0.032691274 -0.16917148

ensemble.0.fc.bias f4 [16]
000000 02 9a 2e 3e a9 84 95 3d 07 e9 1d 3e a3 d7 45 bd
       0.17050937 0.073006935 0.15420924 -0.04830135
000010 74 0c 4a 3d 72 25 ca bc 36 53 08 be a2 de 3e bd
       0.049328282 -0.024676058 -0.13312992 -0.046599038
000020 86 35 03 3e f2 8a 43 be 34 92 35 3e 96 d9 bb bd
       0.12813386 -0.19095972 0.17731553 -0.091723606
000030 08 96 ad bd a7 cf f4 3c 5d d1 ab 3d d0 3f 88 bd
       -0.08475882 0.029884173 0.08389542 -0.06652796

ensemble.0.fc.mask.mask f4 [16, 16]
000000 00 00 00 00 00 00 00 00 00 00 80 3f 00 00 00 00
       0.0 0.0 1.0 0.0
000010 00 00 00 00 00 00 00 00 00 00 00 00 00 00 00 00
       0.0 0.0 0.0 0.0
000020 00 00 00 00 00 00 00 00 00 00 00 00 00 00 00 00
       0.0 0.0 0.0 0.0
000030 00 00 00 00 00 00 00 00 00 00 00 00 00 00 00 00
       0.0 0.0 0.0 0.0
000040 00 00 00 00 00 00 00 00 00 00 00 00 00 00 00 00
       0.0 0.0 0.0 0.0
000050 00 00 00 00 00 00 00 00 00 00 00 00 00 00 00 00
       0.0 0.0 0.0 0.0
000060 00 00 00 00 00 00 00 00 00 00 00 00 00 00 00 00
       0.0 0.0 0.0 0.0
000070 00 00 00 00 00 00 00 00 00 00 00 00 00 00 80 3f
       0.0 0.0 0.0 1.0
000080 00 00 00 00 00 00 00 00 00 00 00 00 00 00 00 00
       0.0 0.0 0.0 0.0
000090 00 00 00 00 00 00 80 3f 00 00 00 00 00 00 00 00
       0.0 1.0 0.0 0.0
0000a0 00 00 00 00 00 00 00 00 00 00 00 00 00 00 00 00
       0.0 0.0 0.0 0.0
0000b0 00 00 00 00 00 00 00 00 00 00 00 00 00 00 00 00
       0.0 0.0 0.0 0.0
0000c0 00 00 00 00 00 00 00 00 00 00 00 00 00 00 00 00
       0.0 0.0 0.0 0.0
0000d0 00 00 00 00 00 00 00 00 00 00 00 00 00 00 00 00
       0.0 0.0 0.0 0.0
0000e0 00 00 00 00 00 00 00 00 00 00 00 00 00 00 80 3f
       0.0 0.0 0.0 1.0
0000f0 00 00 00 00 00 00 00 00 00 00 00 00 00 00 00 00
       0.0 0.0 0.0 0.0
000100 00 00 00 00 00 00 00 00 00 00 00 00 00 00 00 00
       0.0 0.0 0.0 0.0
000110 00 00 00 00 00 00 00 00 00 00 00 00 00 00 00 00
       0.0 0.0 0.0 0.0
000120 00 00 00 00 00 00 00 00 00 00 00 00 00 00 00 00
       0.0 0.0 0.0 0.0
000130 00 00 00 00 00 00 80 3f 00 00 00 00 00 00 00 00
       0.0 1.0 0.0 0.0
000140 00 00 00 00 00 00 00 00 00 00 00 00 00 00 00 00
       0.0 0.0 0.0 0.0
000150 00 00 00 00 00 00 00 00 00 00 80 3f 00 00 00 00
       0.0 0.0 1.0 0.0
000160 00 00 00 00 00 00 00 00 00 00 00 00 00 00 00 00
       0.0 0.0 0.0 0.0
000170 00 00 00 00 00 00 00 00 00 00 00 00 00 00 00 00
       0.0 0.0 0.0 0.0
000180 00 00 00 00 00 00 00 00 00 00 00 00 00 00 00 00
       0.0 0.0 0.0 0.0
000190 00 00 00 00 00 00 00 00 00 00 00 00 00 00 00 00
       0.0 0.0 0.0 0.0
0001a0 00 00 00 00 00 00 00 00 00 00 80 3f 00 00 00 00
       0.0 0.0 1.0 0.0
0001b0 00 00 00 00 00 00 00 00 00 00 00 00 00 00 00 00
       0.0 0.0 0.0 0.0
0001c0 00 00 00 00 00 00 00 00 00 00 00 00 00 00 00 00
       0.0 0.0 0.0 0.0
0001d0 00 00 00 00 00 00 00 00 00 00 00 00 00 00 00 00
       0.0 0.0 0.0 0.0
0001e0 00 00 80 3f 00 00 00 00 00 00 00 00 00 00 00 00
       1.0 0.0 0.0 0.0
0001f0 00 00 00 00 00 00 00 00 00 00 00 00 00 00 00 00
       0.0 0.0 0.0 0.0
000200 00 00 00 00 00 00 80 3f 00 00 00 00 00 00 00 00
       0.0 1.0 0.0 0.0
000210 00 00 00 00 00 00 00 00 00 00 00 00 00 00 00 00
       0.0 0.0 0.0 0.0
000220 00 00 00 00 00 00 00 00 00 00 00 00 00 00 00 00
       0.0 0.0 0.0 0.0
000230 00 00 00 00 00 00 00 00 00 00 00 00 00 00 00 00
       0.0 0.0 0.0 0.0
000240 00 00 00 00 00 00 00 00 00 00 00 00 00 00 00 00
       0.0 0.0 0.0 0.0
000250 00 00 00 00 00 00 00 00 00 00 00 00 00 00 80 3f
       0.0 0.0 0.0 1.0
000260 00 00 00 00 00 00 00 00 00 00 00 00 00 00 00 00
       0.0 0.0 0.0 0.0
000270 00 00 00 00 00 00 00 00 00 00 00 00 00 00 00 00
       0.0 0.0 0.0 0.0
000280 00 00 00 00 00 00 00 00 00 00 00 00 00 00 80 3f
       0.0 0.0 0.0 1.0
000290 00 00 00 00 00 00 00 00 00 00 00 00 00 00 00 00
       0.0 0.0 0.0 0.0
0002a0 00 00 00 00 00 00 00 00 00 00 00 00 00 00 00 00
       0.0 0.0 0.0 0.0
0002b0 00 00 00 00 00 00 00 00 00 00 00 00 00 00 00 00
       0.0 0.0 0.0 0.0
0002c0 00 00 00 00 00 00 00 00 00 00 00 00 00 00 00 00
       0.0 0.0 0.0 0.0
0002d0 00 00 00 00 00 00 00 00 00 00 00 00 00 00 00 00
       0.0 0.0 0.0 0.0
0002e0 00 00 00 00 00 00 00 00 00 00 00 00 00 00 00 00
       0.0 0.0 0.0 0.0
0002f0 00 00 80 3f 00 00 00 00 00 00 00 00 00 00 00 00
       1.0 0.0 0.0 0.0
000300 00 00 00 00 00 00 00 00 00 00 00 00 00 00 00 00
       0.0 0.0 0.0 0.0
000310 00 00 00 00 00 00 00 00 00 00 00 00 00 00 00 00
       0.0 0.0 0.0 0.0
000320 00 00 00 00 00 00 80 3f 00 00 00 00 00 00 00 00
       0.0 1.0 0.0 0.0
000330 00 00 00 00 00 00 00 00 00 00 00 00 00 00 00 00
       0.0 0.0 0.0 0.0
000340 00 00 00 00 00 00 00 00 00 00 00 00 00 00 00 00
       0.0 0.0 0.0 0.0
000350 00 00 00 00 00 00 00 00 00 00 00 00 00 00 00 00
       0.0 0.0 0.0 0.0
000360 00 00 00 00 00 00 00 00 00 00 00 00 00 00 00 00
       0.0 0.0 0.0 0.0
000370 00 00 00 00 00 00 00 00 00 00 80 3f 00 00 00 00
       0.0 0.0 1.0 0.0
000380 00 00 80 3f 00 00 00 00 00 00 00 00 00 00 00 00
       1.0 0.0 0.0 0.0
000390 00 00 00 00 00 00 00 00 00 00 00 00 00 00 00 00
       0.0 0.0 0.0 0.0
0003a0 00 00 00 00 00 00 00 00 00 00 00 00 00 00 00 00
       0.0 0.0 0.0 0.0
0003b0 00 00 00 00 00 00 00 00 00 00 00 00 00 00 00 00
       0.0 0.0 0.0 0.0
0003c0 00 00 00 00 00 00 00 00 00 00 00 00 00 00 00 00
       0.0 0.0 0.0 0.0
0003d0 00 00 80 3f 00 00 00 00 00 00 00 00 00 00 00 00
       1.0 0.0 0.0 0.0
0003e0 00 00 00 00 00 00 00 00 00 00 00 00 00 00 00 00
       0.0 0.0 0.0 0.0
0003f0 00 00 00 00 00 00 00 00 00 00 00 00 00 00 00 00
       0.0 0.0 0.0 0.0

ensemble.1.module_list.0.input_quant.pre_transforms.0.weight f4 [16]
000000 e8 85 75 3f a7 08 29 3f 34 d8 89 3f bc 80 4d 3f
       0.9590745 0.6602883 1.0769105 0.8027456
000010 6b ee 21 3f d1 7b f0 3e 71 cd 33 3f 08 21 2a 3f
       0.6325442 0.46969464 0.70235354 0.6645665
000020 ec 42 28 3f 34 a0 0d 3f 21 19 a9 3f a8 ba 1f 3f
       0.65727115 0.55322576 1.3210794 0.6239419
000030 0a 33 0b 3f bb 79 ad 3f 37 bb 4e 3f a4 f1 1d 3f
       0.54374754 1.3552774 0.8075442 0.6169684

ensemble.1.module_list.0.input_quant.pre_transforms.0.bias f4 [16]
000000 b1 a2 fa bd bb e5 d0 3e 89 db 2c be fe 67 d6 be
       -0.12238062 0.4080027 -0.16880621 -0.41876215
000010 06 63 2c 3e 3a 29 31 3f 17 f9 cc 3d 76 9b 72 bc
       0.1683465 0.6920353 0.100084476 -0.014807573
000020 60 ef 11 be 08 39 fb 3e 1d 26 9a bd 68 a2 ca 3e
       -0.1425147 0.4906695 -0.07526801 0.3957703
000030 44 f2 13 be da 9f 8f bd 74 58 39 3e c9 36 23 bf
       -0.14447886 -0.07012911 0.18100148 -0.6375547

ensemble.1.module_list.0.input_quant.pre_transforms.0.running_mean f4 [16]
000000 56 4b 31 3e 0a 56 d5 3d 4b ea 22 3e 0e f3 84 bd
       0.17313895 0.10416801 0.15909688 -0.064916715
000010 ed 29 5c 3d 50 5c 78 3b e0 5f 0b be 14 08 54 bd
       0.05375092 0.003789682 -0.13610792 -0.051765516
000020 0e 99 fd 3d 4c d5 3c be b6 40 2a 3e 60 0f b4 bd
       0.123827085 -0.18440741 0.16626248 -0.08791995
000030 f3 1a c6 bd a7 dd 2b 3c 79 b7 d6 3d db 25 aa bd
       -0.09673109 0.010489858 0.104842134 -0.083080016

ensemble.1.module_list.0.input_quant.pre_transforms.0.running_var f4 [16]
000000 ea 9b 94 39 05 46 93 3a f7 9a ac 3c 2b bf af 3a
       0.00028344925 0.0011236077 0.021069987 0.0013408413
000010 7a 7a 54 3a 61 e9 08 3a 26 8f f7 3a 0f 11 a0 3a
       0.00081054086 0.00052227644 0.0018887266 0.0012212115
000020 23 e2 13 3a 85 8e 0a 3a 75 36 b3 39 59 5e da 39
       0.0005641302 0.00052855193 0.00034182114 0.00041650495
000030 e0 56 e9 39 c7 f9 1a 3d 54 77 fb 3a d5 07 87 39
       0.0004450595 0.037835862 0.0019185343 0.00025755042

ensemble.1.module_list.0.fc.weight f4 [64, 16]
000000 5a c2 bb bc 14 e4 61 be 28 16 6d be 08 ed 6b be
       -0.022919822 -0.22059661 -0.23152983 -0.23039639
000010 96 f3 71 3e f8 28 47 3e 3b 80 8c 3e 81 f2 7c bd
       0.23628077 0.19449222 0.27441582 -0.061754707
000020 4c be 58 3e 05 13 85 bd 1a d4 2e 3e d9 24 03 bc
       0.21166342 -0.06497768 0.17073098 -0.008004391
000030 a4 eb ec bd 1b 9e 8c bd 7b 14 57 bd 2c d4 f1 3c
       -0.115683824 -0.06866094 -0.052509766 0.029520117
000040 0a ab 96 3d 21 75 99 bd 77 4d e7 3d 1e 96 20 3e
       0.07356842 -0.07493044 0.11294072 0.15682265
000050 8e 2b 20 bd ed 86 94 3e d8 2e 49 3d c7 1f 29 3e
       -0.039104037 0.2900919 0.04911694 0.16516028
000060 71 69 22 be 3c e9 b0 bc ef d0 a7 bd 16 a5 5c 3e
       -0.15860535 -0.02159559 -0.08194148 0.2154735
000070 e8 21 9b bd dd 19 03 be 36 87 e3 3c fc 96 5f 3e
       -0.075748265 -0.12802835 0.027774435 0.2183494
000080 61 69 2a 3e ec 9f 6b be 2c 17 31 be 64 4a 74 3e
       0.16641761 -0.23010224 -0.17293996 0.23856503
000090 b7 ce 12 3d 7d a1 57 be a6 ab 9e bd 1e 2b dc 3d
       0.03584167 -0.21057697 -0.07747583 0.107504115
0000a0 d8 b6 52 bd ee 7c 41 be 0d 85 1b be 27 73 02 be
       -0.051443905 -0.18895313 -0.15187474 -0.1273924
0000b0 de cd 1d bc 31 72 c5 3d 7c e5 f1 3d ea c7 f4 bd
       -0.009631602 0.09640921 0.11811349 -0.11952193
0000c0 fb 03 29 bd 46 80 42 be 04 72 3e 3e be 49 7b 3e
       -0.04126356 -0.18994245 0.18598181 0.24539849
0000d0 f7 4a 65 3e ac 5e 14 3e 5f d2 56 bd 3d d5 c8 bb
       0.22391878 0.1448924 -0.05244672 -0.0061289356
0000e0 1f c7 b5 3d 88 3b 5a be f2 13 7a 3c da ad 4c be
       0.0887587 -0.21311772 0.015263544 -0.19988194
0000f0 80 c4 7b be b5 c1 18 be 4a 5c a0 bd d2 87 1f be
       -0.24586678 -0.14917643 -0.07830103 -0.15579155
000100 59 01 27 3d 75 2b 24 3c 65 b9 19 3d 5f fa 0c be
       0.04077277 0.010020127 0.03753032 -0.13767384
000110 65 a7 76 be 32 e0 3c be 00 76 cd bd f3 d0 a9 bd
       -0.24087293 -0.18444899 -0.10032272 -0.08291807
000120 c0 63 39 3e f3 e0 07 3e 4b 17 e6 3d 84 ce 8c bd
       0.18104458 0.13269405 0.112349115 -0.06875327
000130 3b d1 47 be b2 cd 48 3d 67 c6 90 3c d2 90 f9 3c
       -0.19513409 0.04902429 0.01767273 0.030464564
000140 96 4d 99 be e0 d7 3d 3e 24 7f 2b be f2 93 5a 3e
       -0.29942006 0.18539381 -0.16747719 0.21345499
000150 f4 f1 31 3e 50 5e 3e 3e 58 d4 b0 3d dc 15 69 3d
       0.17377454 0.18590665 0.08634251 0.056905612
000160 31 6e 44 bc 79 98 80 bb 42 4b c8 bd 8a 62 67 be
       -0.011989162 -0.003924426 -0.09779979 -0.22596183
000170 b8 aa 65 3e d8 cf 50 3c c0 df ec 3d 24 84 0d 3e
       0.22428405 0.012744866 0.115661144 0.13819939
000180 92 bf 90 3d d3 30 1b be 83 d7 43 be 62 15 40 3e
       0.07067789 -0.15155344 -0.1912518 0.18758157
000190 76 01 bf 3d 52 9e f8 3d f4 e7 79 be 67 2e 88 3c
       0.093264505 0.12139572 -0.2440489 0.016623689
0001a0 06 db 6a be aa 87 e6 bc 59 17 55 bc 00 35 31 be
       -0.22935113 -0.028140862 -0.013006055 -0.17305374
0001b0 38 4f 79 be 98 41 d4 3a d0 8c 62 3e 00 0b 63 3e
       -0.24346626 0.0016193865 0.22124028 0.22172165
0001c0 60 da 54 be a1 fb 32 bd a4 aa 52 be c7 b8 44 be
       -0.20786428 -0.043697003 -0.20572907 -0.19211112
0001d0 7f 1a 8a bd 3c 9b 74 3e b9 00 a9 3d b4 0e 69 3c
       -0.06743335 0.23887342 0.08252091 0.014224697
0001e0 08 e8 6c 3e 6b 8a 33 3d 5e 1a 4b 3e 92 aa fe 3d
       0.23135388 0.043833178 0.19834277 0.124348775
0001f0 e6 1f 6c 3e 34 b6 2c 3d 66 9c 4b be 8c 8e 58 be
       0.23059043 0.04216595 -0.1988388 -0.21148127
000200 37 1a 02 be 70 e2 4f 3e 67 8d a5 3e a3 6c 93 3d
       -0.12705313 0.20301223 0.32334444 0.07198455
000210 6c cc 3f be b9 68 6a be 18 72 4d 3e a8 2d d1 bc
       -0.18730325 -0.22891511 0.20063055 -0.025534466
000220 07 85 49 3e 52 fd f8 bc 34 e8 71 bd 14 35 73 3b
       0.19679652 -0.03039423 -0.059059337 0.0037110494
000230 5c dd d2 3d a2 db c1 3d 9a bb 40 be 1c ae 30 bb
       0.10296127 0.0946572 -0.18821564 -0.0026959246
000240 82 8b f9 bd 3b 5e 2a 3e 6a 58 f9 3d d9 3b 0a 3e
       -0.12184812 0.16637509 0.12175067 0.13499393
000250 f6 11 65 3e 6d 51 f7 3d 6a a1 7b be e3 19 7e 3d
       0.22370133 0.120760776 -0.24573293 0.062036406
000260 f6 c4 2c be 29 94 06 3d 1c 3b 2c 3b d0 b7 79 3e
       -0.1687201 0.03285614 0.002628035 0.24386525
000270 c8 02 2c be 27 b8 76 be de 0b 87 bd bd 53 22 3d
       -0.16797936 -0.24093686 -0.0659406 0.03963064
000280 93 79 38 3e 4a 27 4c 3e 26 01 42 3e 46 fd 9e 3d
       0.18015127 0.19936863 0.1894575 0.07763152
000290 70 f1 8f bd e3 13 55 bd 33 b8 09 be 99 0a 45 3d
       -0.070284724 -0.05202092 -0.13449173 0.04810581
0002a0 82 23 2f be 7c 22 ad 3d 8d a4 22 3e a3 c5 55 3e
       -0.17103389 0.08453843 0.15883084 0.20876174
0002b0 2c 24 78 be e6 a0 4e 3e 9a 2e 1e be c5 88 a4 bc
       -0.24232548 0.20178565 -0.15447465 -0.020084748
0002c0 ae f9 65 3e a1 72 08 3e c6 c5 9f bd b7 b2 14 3e
       0.22458526 0.13324977 -0.07801394 0.145213
0002d0 e6 08 75 be f5 ee 44 3e 91 92 74 3e fc fd 36 bc
       -0.23929176 0.1923178 0.23884036 -0.011168953
0002e0 25 d8 25 3d 0c 5a 6c bd 1e 6d 1f be de e9 e3 bd
       0.040489335 -0.057703063 -0.15568969 -0.11128591
0002f0 e9 d6 85 bc 8a 06 4e be b8 7d 4b be 76 17 dd 3c
       -0.016337829 -0.20119682 -0.19872177 0.026988726
000300 51 e3 23 be 63 f8 08 be 57 68 0b bb e3 be 04 be
       -0.16004683 -0.13376002 -0.0021271908 -0.12963443
000310 66 09 69 3e 5f e3 b5 bd 55 10 0c be b5 3b 86 bd
       0.22757491 -0.08881258 -0.13678105 -0.06554357
000320 ac 73 4d be 9f b6 01 3e 92 48 58 3e 53 36 11 be
       -0.20063657 0.1266732 0.21121433 -0.1418088
000330 df 24 51 3c aa 30 b7 3e 28 3e 36 be c6 fd c5 bd
       0.012765138 0.35779315 -0.17797148 -0.09667544
000340 0a 2b 4d be 5c 2e 60 be da 2c c3 39 7c bb 0f be
       -0.2003595 -0.21892685 0.00037226715 -0.14036363
000350 b3 5d 08 3e a6 cd 9b bd 47 ca 6e bc 36 20 d0 bd
       0.13316993 -0.07607584 -0.014574594 -0.10162394
000360 a8 fc ce 3d ae 42 69 3e 1b 6a 17 bd 97 77 1b be
       0.10106784 0.22779343 -0.036966424 -0.15182339
000370 91 ad 75 be d2 62 71 3e 64 62 d4 3d 35 9f 70 3e
       -0.23991992 0.23572853 0.10370329 0.23498233
000380 44 72 2b 3d c7 ac fc 3d 10 e7 b2 3d 90 f4 f5 3d
       0.04185702 0.12337642 0.08735478 0.12009537
000390 9c 78 1d 3e a8 d3 0e 3d fe d4 58 3e fa 8c 1c 3e
       0.1537804 0.03486982 0.21175 0.15288153
0003a0 03 ad f6 bb 46 03 e1 bd 99 98 85 3c 60 2e 44 3e
       -0.007527949 -0.109869525 0.016308116 0.19158316
0003b0 04 89 1f 3e 2c 10 cc bd c8 5e 52 bd 2f f8 c7 3d
       0.15579611 -0.09964022 -0.05135992 0.09764134
0003c0 4a c2 bd 3d 5a 04 11 3e ad ae f4 3d 12 7b a0 3d
       0.09265573 0.14161816 0.11947379 0.07835974
0003d0 74 bc 68 3d b8 a8 6c be 08 8b b9 bd 71 4b d5 3c
       0.056820348 -0.23111236 -0.09059721 0.02603695
0003e0 0c 32 2f be dc a0 5c be 67 f2 29 3e c0 41 ab 3d
       -0.17108935 -0.21545738 0.16596375 0.0836215
0003f0 e8 2b 4b be 65 ef a3 3e 83 de a6 3b 19 0d 11 3e
       -0.19840968 0.3201858 0.0050924434 0.14165153

ensemble.1.module_list.0.fc.bias f4 [64]
000000 dc 26 2a be 2c 3d 71 be 70 07 48 3e 49 33 88 3e
       -0.16616386 -0.23558491 0.19534087 0.26601627
000010 55 31 f8 3d 6c 7c 9b 3e 80 e9 d7 bc 60 7f ed 3d
       0.12118784 0.30368364 -0.026356459 0.115965605
000020 93 f7 01 3e 34 c5 88 bd ec 7d 13 be bc 18 55 3e
       0.12692098 -0.066782385 -0.14403504 0.20810217
000030 1a 5c bd 3b e5 24 8b 3c 10 6e ef bd 59 0b d1 bd
       0.0057788016 0.016985366 -0.11690915 -0.102072425
000040 59 d9 44 bd 2c 52 a3 bd ba f9 05 3e 8a 65 30 3e
       -0.04805884 -0.079746574 0.13083544 0.17226234
000050 88 a9 00 bd 33 e9 77 3e 1a 49 08 be d1 c0 b8 bc
       -0.031411678 0.24210052 -0.13309136 -0.02255288
000060 40 13 44 be 07 52 11 3d 26 c0 37 3e 8d aa 5d be
       -0.19147968 0.035478618 0.17944393 -0.21647091
000070 f6 1e 00 3e fc 81 3f be de d7 95 bd 5e e4 9a bd
       0.1251181 -0.18701929 -0.07316564 -0.07563089
000080 c7 7b 0b 3d e5 0d 9f bd ae 43 2a 3d a8 8e 71 be
       0.03405359 -0.07766322 0.04156845 -0.23589575
000090 e7 29 40 3e db 5b bd bd a0 cc 21 be d4 79 4b 3e
       0.18765984 -0.09246036 -0.15800714 0.19870692
0000a0 5b 39 52 3c 20 c0 40 be e3 d7 8c bd bf af b8 bd
       0.012831057 -0.1882329 -0.068771146 -0.09017896
0000b0 52 05 b7 bd c7 46 24 3d 12 3f f0 ba d4 2d 5f 3e
       -0.08936562 0.04010656 -0.0018329343 0.21794826
0000c0 00 2f ef 3b cb dd 6a be 2c 20 5c 3e 38 c2 80 3d
       0.007299304 -0.2293617 0.21496648 0.06287044
0000d0 40 f3 5c bd b0 02 17 3e 00 69 02 3e 55 73 5d be
       -0.05394292 0.14747119 0.12735367 -0.21626027
0000e0 1f 1a 4b be 9c e7 27 be 60 26 5c be e8 9c 99 bd
       -0.19834183 -0.16396946 -0.21499014 -0.075006306
0000f0 d8 6c bb 3d ba 4b d8 bd 66 34 7a be 94 6a 93 be
       0.0915162 -0.10561319 -0.24434051 -0.2879225

ensemble.1.module_list.0.fc.mask.mask f4 [64, 16]
000000 00 00 00 00 00 00 00 00 00 00 00 00 00 00 00 00
       0.0 0.0 0.0 0.0
000010 00 00 00 00 00 00 80 3f 00 00 80 3f 00 00 00 00
       0.0 1.0 1.0 0.0
000020 00 00 00 00 00 00 00 00 00 00 00 00 00 00 00 00
       0.0 0.0 0.0 0.0
000030 00 00 00 00 00 00 00 00 00 00 00 00 00 00 80 3f
       0.0 0.0 0.0 1.0
000040 00 00 00 00 00 00 00 00 00 00 00 00 00 00 00 00
       0.0 0.0 0.0 0.0
000050 00 00 00 00 00 00 80 3f 00 00 00 00 00 00 00 00
       0.0 1.0 0.0 0.0
000060 00 00 00 00 00 00 00 00 00 00 00 00 00 00 00 00
       0.0 0.0 0.0 0.0
000070 00 00 80 3f 00 00 80 3f 00 00 00 00 00 00 00 00
       1.0 1.0 0.0 0.0
000080 00 00 00 00 00 00 00 00 00 00 80 3f 00 00 00 00
       0.0 0.0 1.0 0.0
000090 00 00 00 00 00 00 00 00 00 00 00 00 00 00 00 00
       0.0 0.0 0.0 0.0
0000a0 00 00 00 00 00 00 00 00 00 00 00 00 00 00 80 3f
       0.0 0.0 0.0 1.0
0000b0 00 00 80 3f 00 00 00 00 00 00 00 00 00 00 00 00
       1.0 0.0 0.0 0.0
0000c0 00 00 00 00 00 00 00 00 00 00 00 00 00 00 00 00
       0.0 0.0 0.0 0.0
0000d0 00 00 80 3f 00 00 80 3f 00 00 00 00 00 00 00 00
       1.0 1.0 0.0 0.0
0000e0 00 00 00 00 00 00 00 00 00 00 00 00 00 00 00 00
       0.0 0.0 0.0 0.0
0000f0 00 00 00 00 00 00 80 3f 00 00 00 00 00 00 00 00
       0.0 1.0 0.0 0.0
000100 00 00 00 00 00 00 00 00 00 00 00 00 00 00 00 00
       0.0 0.0 0.0 0.0
000110 00 00 00 00 00 00 80 3f 00 00 00 00 00 00 00 00
       0.0 1.0 0.0 0.0
000120 00 00 00 00 00 00 80 3f 00 00 00 00 00 00 00 00
       0.0 1.0 0.0 0.0
000130 00 00 00 00 00 00 00 00 00 00 80 3f 00 00 00 00
       0.0 0.0 1.0 0.0
000140 00 00 80 3f 00 00 00 00 00 00 00 00 00 00 00 00
       1.0 0.0 0.0 0.0
000150 00 00 00 00 00 00 00 00 00 00 80 3f 00 00 00 00
       0.0 0.0 1.0 0.0
000160 00 00 00 00 00 00 00 00 00 00 00 00 00 00 00 00
       0.0 0.0 0.0 0.0
000170 00 00 00 00 00 00 00 00 00 00 00 00 00 00 80 3f
       0.0 0.0 0.0 1.0
000180 00 00 00 00 00 00 00 00 00 00 00 00 00 00 00 00
       0.0 0.0 0.0 0.0
000190 00 00 00 00 00 00 00 00 00 00 00 00 00 00 80 3f
       0.0 0.0 0.0 1.0
0001a0 00 00 80 3f 00 00 00 00 00 00 00 00 00 00 00 00
       1.0 0.0 0.0 0.0
0001b0 00 00 00 00 00 00 00 00 00 00 80 3f 00 00 00 00
       0.0 0.0 1.0 0.0
0001c0 00 00 80 3f 00 00 00 00 00 00 00 00 00 00 00 00
       1.0 0.0 0.0 0.0
0001d0 00 00 00 00 00 00 00 00 00 00 80 3f 00 00 00 00
       0.0 0.0 1.0 0.0
0001e0 00 00 00 00 00 00 00 00 00 00 00 00 00 00 80 3f
       0.0 0.0 0.0 1.0
0001f0 00 00 00 00 00 00 00 00 00 00 00 00 00 00 00 00
       0.0 0.0 0.0 0.0
000200 00 00 00 00 00 00 00 00 00 00 80 3f 00 00 00 00
       0.0 0.0 1.0 0.0
000210 00 00 00 00 00 00 80 3f 00 00 00 00 00 00 00 00
       0.0 1.0 0.0 0.0
000220 00 00 80 3f 00 00 00 00 00 00 00 00 00 00 00 00
       1.0 0.0 0.0 0.0
000230 00 00 00 00 00 00 00 00 00 00 00 00 00 00 00 00
       0.0 0.0 0.0 0.0
000240 00 00 00 00 00 00 00 00 00 00 80 3f 00 00 00 00
       0.0 0.0 1.0 0.0
000250 00 00 00 00 00 00 00 00 00 00 00 00 00 00 80 3f
       0.0 0.0 0.0 1.0
000260 00 00 00 00 00 00 00 00 00 00 00 00 00 00 00 00
       0.0 0.0 0.0 0.0
000270 00 00 00 00 00 00 00 00 00 00 00 00 00 00 80 3f
       0.0 0.0 0.0 1.0
000280 00 00 00 00 00 00 00 00 00 00 00 00 00 00 00 00
       0.0 0.0 0.0 0.0
000290 00 00 80 3f 00 00 00 00 00 00 00 00 00 00 80 3f
       1.0 0.0 0.0 1.0
0002a0 00 00 00 00 00 00 00 00 00 00 00 00 00 00 00 00
       0.0 0.0 0.0 0.0
0002b0 00 00 00 00 00 00 00 00 00 00 00 00 00 00 80 3f
       0.0 0.0 0.0 1.0
0002c0 00 00 00 00 00 00 00 00 00 00 00 00 00 00 00 00
       0.0 0.0 0.0 0.0
0002d0 00 00 00 00 00 00 00 00 00 00 00 00 00 00 00 00
       0.0 0.0 0.0 0.0
0002e0 00 00 80 3f 00 00 00 00 00 00 80 3f 00 00 00 00
       1.0 0.0 1.0 0.0
0002f0 00 00 80 3f 00 00 00 00 00 00 00 00 00 00 00 00
       1.0 0.0 0.0 0.0
000300 00 00 00 00 00 00 00 00 00 00 00 00 00 00 00 00
       0.0 0.0 0.0 0.0
000310 00 00 00 00 00 00 00 00 00 00 00 00 00 00 00 00
       0.0 0.0 0.0 0.0
000320 00 00 00 00 00 00 00 00 00 00 00 00 00 00 00 00
       0.0 0.0 0.0 0.0
000330 00 00 80 3f 00 00 80 3f 00 00 00 00 00 00 80 3f
       1.0 1.0 0.0 1.0
000340 00 00 00 00 00 00 00 00 00 00 00 00 00 00 00 00
       0.0 0.0 0.0 0.0
000350 00 00 00 00 00 00 00 00 00 00 80 3f 00 00 80 3f
       0.0 0.0 1.0 1.0
000360 00 00 00 00 00 00 00 00 00 00 00 00 00 00 00 00
       0.0 0.0 0.0 0.0
000370 00 00 00 00 00 00 00 00 00 00 00 00 00 00 80 3f
       0.0 0.0 0.0 1.0
000380 00 00 00 00 00 00 00 00 00 00 00 00 00 00 00 00
       0.0 0.0 0.0 0.0
000390 00 00 80 3f 00 00 00 00 00 00 00 00 00 00 00 00
       1.0 0.0 0.0 0.0
0003a0 00 00 00 00 00 00 80 3f 00 00 00 00 00 00 00 00
       0.0 1.0 0.0 0.0
0003b0 00 00 80 3f 00 00 00 00 00 00 00 00 00 00 00 00
       1.0 0.0 0.0 0.0
0003c0 00 00 00 00 00 00 80 3f 00 00 00 00 00 00 00 00
       0.0 1.0 0.0 0.0
0003d0 00 00 00 00 00 00 00 00 00 00 00 00 00 00 00 00
       0.0 0.0 0.0 0.0
0003e0 00 00 00 00 00 00 00 00 00 00 00 00 00 00 00 00
       0.0 0.0 0.0 0.0
0003f0 00 00 00 00 00 00 80 3f 00 00 80 3f 00 00 00 00
       0.0 1.0 1.0 0.0

ensemble.1.module_list.0.output_quant.pre_transforms.0.weight f4 [64]
000000 42 3e d7 3f d7 75 47 3f d2 cf 7b 3f 8e b3 86 3f
       1.6815875 0.77914184 0.98363984 1.0523546
000010 06 49 30 3f 89 30 a1 3f d2 cf 7b 3f 59 0d 61 3f
       0.68861425 1.2592937 0.98363984 0.8791099
000020 d3 f4 b5 3f d2 cf 7b 3f d2 cf 7b 3f d2 cf 7b 3f
       1.421534 0.98363984 0.98363984 0.98363984
000030 9c 13 86 3f dc 0e 49 3f d2 cf 7b 3f 08 2b f1 3e
       1.0474734 0.785383 0.98363984 0.47103143
000040 91 6c 8c 3f 74 3d 3c 3f af 34 8f 3f c4 f4 79 3f
       1.0970632 0.7353127 1.1187953 0.9763911
000050 d2 cf 7b 3f 23 66 88 3f d2 cf 7b 3f 4c 6e 3c 3f
       0.98363984 1.065617 0.98363984 0.736058
000060 6a fd 45 3f 37 f2 59 3f 03 ea 1b 3f 51 dc 70 3f
       0.77339804 0.85135216 0.6090395 0.94086176
000070 ff 3e 8f 3f db 5a 84 3f 65 bc 0a 3f 51 69 73 3f
       1.11911 1.0340227 0.5419372 0.95082575
000080 d7 7d 5c 3f 96 cf 2c 3f 33 64 29 3f d2 cf 7b 3f
       0.86129516 0.6750425 0.66168517 0.98363984
000090 09 d3 6f 3f 68 9b 9b 3f 26 00 61 3f 31 40 69 3f
       0.9368139 1.2156801 0.8789085 0.91113573
0000a0 6f e4 89 3f 54 0d 58 3f 41 60 67 3f 41 f1 a7 3f
       1.0772837 0.8439534 0.90381247 1.31205
0000b0 66 e0 ac 3f f3 54 fd 3e b3 98 92 3f d2 cf 7b 3f
       1.3505981 0.49478874 1.145285 0.98363984
0000c0 d2 cf 7b 3f 15 b4 26 3f d2 cf 7b 3f d2 cf 7b 3f
       0.98363984 0.65118533 0.98363984 0.98363984
0000d0 d2 cf 7b 3f dc 5d 30 3f 63 36 7b 3f b4 8e 6b 3f
       0.98363984 0.6889322 0.9812986 0.9201462
0000e0 a7 65 da 3e 75 c5 3a 3f d2 cf 7b 3f d2 cf 7b 3f
       0.4265568 0.72957546 0.98363984 0.98363984
0000f0 d2 cf 7b 3f 6c 3a a1 3f d2 cf 7b 3f 86 9f 87 3f
       0.98363984 1.2595954 0.98363984 1.0595558

ensemble.1.module_list.0.output_quant.pre_transforms.0.bias f4 [64]
000000 18 0a ff 3e 34 d8 ae be 00 00 00 00 2d 95 1a 3f
       0.49812388 -0.34149325 0.0 0.60383874
000010 74 ce e1 be 5d 46 74 bd 00 00 00 00 09 5d 77 3e
       -0.44102824 -0.059637416 0.0 0.24156584
000020 4f 4a bb 3e 00 00 00 00 00 00 00 00 00 00 00 00
       0.3658013 0.0 0.0 0.0
000030 42 c8 0c be 8c e1 3a bf 00 00 00 00 21 28 0c 3f
       -0.13748267 -0.7300041 0.0 0.5474873
000040 fd 46 24 3f f3 22 82 3f e3 87 44 3f ab 0d b4 bb
       0.6417082 1.0166916 0.76769847 -0.0054947934
000050 00 00 00 00 73 fc 82 3b 00 00 00 00 eb 8a 98 be
       0.0 0.0039973794 0.0 -0.29793486
000060 6e f1 33 3f 97 21 b2 bd ba f3 bf 3d 27 c2 84 bd
       0.7029027 -0.08697813 0.09372659 -0.06482344
000070 b0 a9 2e 3e 10 f2 fd 3d 14 43 99 3c 8d f9 8d be
       0.17056918 0.123996854 0.018708743 -0.27729455
000080 c6 1c 2f bf 7e bb 06 3f 08 c2 2b bf 00 00 00 00
       -0.6840328 0.5262984 -0.67092943 0.0
000090 00 60 8d be 8b 15 b3 3e c7 f0 65 be 6a 25 4c 3d
       -0.27612305 0.34977373 -0.2245513 0.04984037
0000a0 b8 2e 0a be 39 9a 8c bd f7 e6 e3 be 57 a8 1c 3e
       -0.13494384 -0.06865353 -0.4451215 0.15298592
0000b0 6a f1 99 3e a7 fc c4 bd 81 f2 b0 3e 00 00 00 00
       0.30066997 -0.09618502 0.34560016 0.0
0000c0 00 00 00 00 3f a8 44 3e 00 00 00 00 00 00 00 00
       0.0 0.19204806 0.0 0.0
0000d0 00 00 00 00 3f b6 16 3d 16 74 fb bd 87 00 5e 3e
       0.0 0.036794897 -0.12278001 0.21679889
0000e0 8b 66 93 3e fd 5f be 3e 00 00 00 00 00 00 00 00
       0.28789172 0.37182608 0.0 0.0
0000f0 00 00 00 00 8a d0 47 3d 00 00 00 00 ed fa 84 be
       0.0 0.048782863 0.0 -0.2597269

ensemble.1.module_list.0.output_quant.pre_transforms.0.running_mean f4 [64]
000000 b3 83 49 be 85 b0 ae bd 53 fc 71 3e 98 a1 98 3e
       -0.19679146 -0.08529762 0.2363141 0.29810786
000010 ad 0e a4 3d d3 69 89 3e c6 79 0a 3d ec 29 1f 3e
       0.08010612 0.2683855 0.03380754 0.15543336
000020 3c 64 90 bd d7 57 11 be 5f 12 05 be f6 db 92 3e
       -0.07050368 -0.14193664 -0.1299529 0.28683442
000030 3b 88 b3 bc de 18 fe bd eb c0 69 be 01 dd 33 be
       -0.021915546 -0.12407087 -0.22827499 -0.17564775
000040 26 81 96 3d 2d ed 07 be 47 4a 66 be 69 b1 48 3e
       0.07348852 -0.13274069 -0.22489272 0.19598927
000050 fc 06 68 bd 6a 9d e0 3d 83 ff cf bd e1 6b d8 bd
       -0.056647286 0.10967524 -0.10156157 -0.10567451
000060 31 c3 fd bd c2 b4 49 bb 64 7b 70 3e 21 28 3b be
       -0.123907454 -0.0030777906 0.2348457 -0.18277027
000070 0e 2d 8c 3e 0d 67 02 be 14 40 3f be af 17 31 be
       0.27378124 -0.12734623 -0.18676788 -0.17294191
000080 5f 71 d1 bc f8 41 0f bc 9f 81 62 be f8 28 93 be
       -0.025566755 -0.0087437555 -0.22119759 -0.28742194
000090 85 20 82 3e 69 1b cb 3d ea ee a2 be ec 3d 94 3e
       0.25415435 0.099173374 -0.31822902 0.28953493
0000a0 55 5e 06 3e 59 cc be 3b fd 5e b0 be 86 07 34 be
       0.13121922 0.0058227 -0.3444747 -0.17580995
0000b0 a6 91 8f bd c9 f8 6f bd d0 ac f5 bd 37 f2 37 3e
       -0.07010202 -0.05858687 -0.11995852 0.17963491
0000c0 ea 48 84 bd 3a a5 ae be 27 02 60 3e 04 05 85 bc
       -0.0645922 -0.34110433 0.21875821 -0.016237743
0000d0 71 74 7a bd b9 6e 61 3e 85 7b 93 3d 2d cf a5 be
       -0.061146203 0.22014894 0.07201294 -0.32384625
0000e0 e9 03 4a be 57 ee 24 3d 0b c0 57 be 9b e2 72 3d
       -0.19728054 0.04026636 -0.21069352 0.05929814
0000f0 4a d7 15 3e 12 da 97 be 52 85 7d be 02 c5 cf be
       0.14632908 -0.29658562 -0.24757889 -0.40579993

ensemble.1.module_list.0.output_quant.pre_transforms.0.running_var f4 [64]
000000 fa 2e 0e 3d e8 2d a1 3c a8 be 87 3c 4e 80 05 3d
       0.03471277 0.01967521 0.016570404 0.032593064
000010 e8 02 3a 3b 66 3e 84 3d d5 ec bb 3b 8f e9 29 3d
       0.002838308 0.06457214 0.0057350197 0.041482504
000020 4e 17 09 3d 81 79 a7 3b 41 44 9e 3a 44 fe 08 3c
       0.03346949 0.00511092 0.0012074785 0.008361403
000030 a4 3a 50 3d 6c dd 45 3c a4 66 2c 3d b7 3c 41 3d
       0.050837174 0.012076717 0.042090073 0.047177043
000040 31 42 14 3d 47 82 e9 3c 55 45 1a 3e 67 4d d3 3c
       0.036195938 0.028504504 0.1506551 0.025793744
000050 87 30 b1 3b 6b 6f 1a 3d fc 4f 28 3b b0 81 f6 3c
       0.0054073962 0.037703913 0.002568244 0.030091137
000060 7c bd db 3c 34 7b ca 3c 3e a1 c7 3b fc f0 05 3c
       0.026823752 0.024716951 0.0060922196 0.008175131
000070 a2 40 91 3c b0 cd c6 3c 6d f8 ca 3c 08 3d ef 3c
       0.017731015 0.024268001 0.024776662 0.029203907
000080 c1 64 44 3d 27 2b b4 3c 4a 77 91 3c 2a d9 50 3a
       0.04794765 0.021993233 0.017757077 0.000796693
000090 ec 48 a3 3c f1 51 89 3d 37 77 94 3c 1a d3 5c 3c
       0.019932233 0.06705082 0.018123252 0.013478065
0000a0 13 b8 ff 3c 42 30 e9 3c ea f6 b6 3d f2 9f b7 3d
       0.031215703 0.028465394 0.08933814 0.08966054
0000b0 25 b2 3c 3d 25 94 af 3c 0f f3 67 3d 9f ba 4b 3c
       0.04606833 0.021432946 0.056628283 0.012434631
0000c0 e4 54 82 3c b2 fa eb 3c ec 81 bd 3a aa 5e 5a 3d
       0.01590962 0.028806064 0.0014458275 0.053312935
0000d0 0d b8 b4 3c 60 aa 02 3d c5 20 bf 3b 2f b4 33 3d
       0.022060419 0.031900764 0.005832764 0.04387301
0000e0 89 10 32 3c d0 06 59 3d c5 3c ef 3c 39 94 b7 3d
       0.0108682 0.052985013 0.029203782 0.08963818
0000f0 22 dc 74 3c 95 bd c1 3d 5e 85 35 3c a7 bf e2 3d
       0.014945062 0.09459988 0.0110791605 0.11071711

ensemble.1.module_list.1.input_quant.pre_transforms.0.weight f4 [64]
000000 42 3e d7 3f d7 75 47 3f d2 cf 7b 3f 8e b3 86 3f
       1.6815875 0.77914184 0.98363984 1.0523546
000010 06 49 30 3f 89 30 a1 3f d2 cf 7b 3f 59 0d 61 3f
       0.68861425 1.2592937 0.98363984 0.8791099
000020 d3 f4 b5 3f d2 cf 7b 3f d2 cf 7b 3f d2 cf 7b 3f
       1.421534 0.98363984 0.98363984 0.98363984
000030 9c 13 86 3f dc 0e 49 3f d2 cf 7b 3f 08 2b f1 3e
       1.0474734 0.785383 0.98363984 0.47103143
000040 91 6c 8c 3f 74 3d 3c 3f af 34 8f 3f c4 f4 79 3f
       1.0970632 0.7353127 1.1187953 0.9763911
000050 d2 cf 7b 3f 23 66 88 3f d2 cf 7b 3f 4c 6e 3c 3f
       0.98363984 1.065617 0.98363984 0.736058
000060 6a fd 45 3f 37 f2 59 3f 03 ea 1b 3f 51 dc 70 3f
       0.77339804 0.85135216 0.6090395 0.94086176
000070 ff 3e 8f 3f db 5a 84 3f 65 bc 0a 3f 51 69 73 3f
       1.11911 1.0340227 0.5419372 0.95082575
000080 d7 7d 5c 3f 96 cf 2c 3f 33 64 29 3f d2 cf 7b 3f
       0.86129516 0.6750425 0.66168517 0.98363984
000090 09 d3 6f 3f 68 9b 9b 3f 26 00 61 3f 31 40 69 3f
       0.9368139 1.2156801 0.8789085 0.91113573
0000a0 6f e4 89 3f 54 0d 58 3f 41 60 67 3f 41 f1 a7 3f
       1.0772837 0.8439534 0.90381247 1.31205
0000b0 66 e0 ac 3f f3 54 fd 3e b3 98 92 3f d2 cf 7b 3f
       1.3505981 0.49478874 1.145285 0.98363984
0000c0 d2 cf 7b 3f 15 b4 26 3f d2 cf 7b 3f d2 cf 7b 3f
       0.98363984 0.65118533 0.98363984 0.98363984
0000d0 d2 cf 7b 3f dc 5d 30 3f 63 36 7b 3f b4 8e 6b 3f
       0.98363984 0.6889322 0.9812986 0.9201462
0000e0 a7 65 da 3e 75 c5 3a 3f d2 cf 7b 3f d2 cf 7b 3f
       0.4265568 0.72957546 0.98363984 0.98363984
0000f0 d2 cf 7b 3f 6c 3a a1 3f d2 cf 7b 3f 86 9f 87 3f
       0.98363984 1.2595954 0.98363984 1.0595558

ensemble.1.module_list.1.input_quant.pre_transforms.0.bias f4 [64]
000000 18 0a ff 3e 34 d8 ae be 00 00 00 00 2d 95 1a 3f
       0.49812388 -0.34149325 0.0 0.60383874
000010 74 ce e1 be 5d 46 74 bd 00 00 00 00 09 5d 77 3e
       -0.44102824 -0.059637416 0.0 0.24156584
000020 4f 4a bb 3e 00 00 00 00 00 00 00 00 00 00 00 00
       0.3658013 0.0 0.0 0.0
000030 42 c8 0c be 8c e1 3a bf 00 00 00 00 21 28 0c 3f
       -0.13748267 -0.7300041 0.0 0.5474873
000040 fd 46 24 3f f3 22 82 3f e3 87 44 3f ab 0d b4 bb
       0.6417082 1.0166916 0.76769847 -0.0054947934
000050 00 00 00 00 73 fc 82 3b 00 00 00 00 eb 8a 98 be
       0.0 0.0039973794 0.0 -0.29793486
000060 6e f1 33 3f 97 21 b2 bd ba f3 bf 3d 27 c2 84 bd
       0.7029027 -0.08697813 0.09372659 -0.06482344
000070 b0 a9 2e 3e 10 f2 fd 3d 14 43 99 3c 8d f9 8d be
       0.17056918 0.123996854 0.018708743 -0.27729455
000080 c6 1c 2f bf 7e bb 06 3f 08 c2 2b bf 00 00 00 00
       -0.6840328 0.5262984 -0.67092943 0.0
000090 00 60 8d be 8b 15 b3 3e c7 f0 65 be 6a 25 4c 3d
       -0.27612305 0.34977373 -0.2245513 0.04984037
0000a0 b8 2e 0a be 39 9a 8c bd f7 e6 e3 be 57 a8 1c 3e
       -0.13494384 -0.06865353 -0.4451215 0.15298592
0000b0 6a f1 99 3e a7 fc c4 bd 81 f2 b0 3e 00 00 00 00
       0.30066997 -0.09618502 0.34560016 0.0
0000c0 00 00 00 00 3f a8 44 3e 00 00 00 00 00 00 00 00
       0.0 0.19204806 0.0 0.0
0000d0 00 00 00 00 3f b6 16 3d 16 74 fb bd 87 00 5e 3e
       0.0 0.036794897 -0.12278001 0.21679889
0000e0 8b 66 93 3e fd 5f be 3e 00 00 00 00 00 00 00 00
       0.28789172 0.37182608 0.0 0.0
0000f0 00 00 00 00 8a d0 47 3d 00 00 00 00 ed fa 84 be
       0.0 0.048782863 0.0 -0.2597269

ensemble.1.module_list.1.input_quant.pre_transforms.0.running_mean f4 [64]
000000 b3 83 49 be 85 b0 ae bd 53 fc 71 3e 98 a1 98 3e
       -0.19679146 -0.08529762 0.2363141 0.29810786
000010 ad 0e a4 3d d3 69 89 3e c6 79 0a 3d ec 29 1f 3e
       0.08010612 0.2683855 0.03380754 0.15543336
000020 3c 64 90 bd d7 57 11 be 5f 12 05 be f6 db 92 3e
       -0.07050368 -0.14193664 -0.1299529 0.28683442
000030 3b 88 b3 bc de 18 fe bd eb c0 69 be 01 dd 33 be
       -0.021915546 -0.12407087 -0.22827499 -0.17564775
000040 26 81 96 3d 2d ed 07 be 47 4a 66 be 69 b1 48 3e
       0.07348852 -0.13274069 -0.22489272 0.19598927
000050 fc 06 68 bd 6a 9d e0 3d 83 ff cf bd e1 6b d8 bd
       -0.056647286 0.10967524 -0.10156157 -0.10567451
000060 31 c3 fd bd c2 b4 49 bb 64 7b 70 3e 21 28 3b be
       -0.123907454 -0.0030777906 0.2348457 -0.18277027
000070 0e 2d 8c 3e 0d 67 02 be 14 40 3f be af 17 31 be
       0.27378124 -0.12734623 -0.18676788 -0.17294191
000080 5f 71 d1 bc f8 41 0f bc 9f 81 62 be f8 28 93 be
       -0.025566755 -0.0087437555 -0.22119759 -0.28742194
000090 85 20 82 3e 69 1b cb 3d ea ee a2 be ec 3d 94 3e
       0.25415435 0.099173374 -0.31822902 0.28953493
0000a0 55 5e 06 3e 59 cc be 3b fd 5e b0 be 86 07 34 be
       0.13121922 0.0058227 -0.3444747 -0.17580995
0000b0 a6 91 8f bd c9 f8 6f bd d0 ac f5 bd 37 f2 37 3e
       -0.07010202 -0.05858687 -0.11995852 0.17963491
0000c0 ea 48 84 bd 3a a5 ae be 27 02 60 3e 04 05 85 bc
       -0.0645922 -0.34110433 0.21875821 -0.016237743
0000d0 71 74 7a bd b9 6e 61 3e 85 7b 93 3d 2d cf a5 be
       -0.061146203 0.22014894 0.07201294 -0.32384625
0000e0 e9 03 4a be 57 ee 24 3d 0b c0 57 be 9b e2 72 3d
       -0.19728054 0.04026636 -0.21069352 0.05929814
0000f0 4a d7 15 3e 12 da 97 be 52 85 7d be 02 c5 cf be
       0.14632908 -0.29658562 -0.24757889 -0.40579993

ensemble.1.module_list.1.input_quant.pre_transforms.0.running_var f4 [64]
000000 fa 2e 0e 3d e8 2d a1 3c a8 be 87 3c 4e 80 05 3d
       0.03471277 0.01967521 0.016570404 0.032593064
000010 e8 02 3a 3b 66 3e 84 3d d5 ec bb 3b 8f e9 29 3d
       0.002838308 0.06457214 0.0057350197 0.041482504
000020 4e 17 09 3d 81 79 a7 3b 41 44 9e 3a 44 fe 08 3c
       0.03346949 0.00511092 0.0012074785 0.008361403
000030 a4 3a 50 3d 6c dd 45 3c a4 66 2c 3d b7 3c 41 3d
       0.050837174 0.012076717 0.042090073 0.047177043
000040 31 42 14 3d 47 82 e9 3c 55 45 1a 3e 67 4d d3 3c
       0.036195938 0.028504504 0.1506551 0.025793744
000050 87 30 b1 3b 6b 6f 1a 3d fc 4f 28 3b b0 81 f6 3c
       0.0054073962 0.037703913 0.002568244 0.030091137
000060 7c bd db 3c 34 7b ca 3c 3e a1 c7 3b fc f0 05 3c
       0.026823752 0.024716951 0.0060922196 0.008175131
000070 a2 40 91 3c b0 cd c6 3c 6d f8 ca 3c 08 3d ef 3c
       0.017731015 0.024268001 0.024776662 0.029203907
000080 c1 64 44 3d 27 2b b4 3c 4a 77 91 3c 2a d9 50 3a
       0.04794765 0.021993233 0.017757077 0.000796693
000090 ec 48 a3 3c f1 51 89 3d 37 77 94 3c 1a d3 5c 3c
       0.019932233 0.06705082 0.018123252 0.013478065
0000a0 13 b8 ff 3c 42 30 e9 3c ea f6 b6 3d f2 9f b7 3d
       0.031215703 0.028465394 0.08933814 0.08966054
0000b0 25 b2 3c 3d 25 94 af 3c 0f f3 67 3d 9f ba 4b 3c
       0.04606833 0.021432946 0.056628283 0.012434631
0000c0 e4 54 82 3c b2 fa eb 3c ec 81 bd 3a aa 5e 5a 3d
       0.01590962 0.028806064 0.0014458275 0.053312935
0000d0 0d b8 b4 3c 60 aa 02 3d c5 20 bf 3b 2f b4 33 3d
       0.022060419 0.031900764 0.005832764 0.04387301
0000e0 89 10 32 3c d0 06 59 3d c5 3c ef 3c 39 94 b7 3d
       0.0108682 0.052985013 0.029203782 0.08963818
0000f0 22 dc 74 3c 95 bd c1 3d 5e 85 35 3c a7 bf e2 3d
       0.014945062 0.09459988 0.0110791605 0.11071711
