examples/jet_substructure/input_quants/small_inpq_16_2_ensemble_size1_seed1/checkpoint.pth (torch, 212339 bytes, 147 tensors)

ensemble.0.input_quant.pre_transforms.0.weight f4 [16]
0	0x3f2de5ee	0.6792897
1	0x3f08d1b8	0.53445005
2	0x3fb9fc99	1.4530212
3	0x40089576	2.1341224
4	0x3e822554	0.25419104
5	0x3f8e7f95	1.1132685
6	0x3ed24861	0.41070846
7	0x3eb8261d	0.35966578
8	0x3ed47ac9	0.41499928
9	0x3e8d9ec3	0.27660188
10	0x3ebe7c61	0.3720427
11	0x3ecad413	0.39614925
12	0x3e9bb613	0.3041235
13	0x3e8c10db	0.2735661
14	0x401284ac	2.2893476
15	0x3eb3bd18	0.35105205

ensemble.0.input_quant.pre_transforms.0.bias f4 [16]
0	0xbe67c1ab	-0.22632472
1	0xbeaff66d	-0.34367695
2	0x3dfee719	0.12446422
3	0x3e933d9b	0.2875794
4	0x3d6f9f69	0.058501635
5	0x3f112873	0.56702346
6	0xbe0a37ad	-0.13497801
7	0x3e2754ae	0.16340896
8	0xbec371f1	-0.38172868
9	0xbd0f6689	-0.035009895
10	0x3ed04e91	0.4068494
11	0x3ecf2c0f	0.40463302
12	0x3d7c09c4	0.06153275
13	0x3d9db364	0.07700232
14	0xbd67cc4d	-0.05659132
15	0xbe898b16	-0.26863927

ensemble.0.input_quant.pre_transforms.0.running_mean f4 [16]
0	0xbb8448e8	-0.0040370114
1	0x3b9b3d01	0.004737497
2	0x3ba93826	0.005164164
3	0x3b5e1fee	0.0033893543
4	0x3aa4aea8	0.0012564259
5	0xbb6f2cbc	-0.003649517
6	0xbbdbbf60	-0.0067061633
7	0xbc18394c	-0.009291004
8	0xbbdbbf60	-0.0067061633
9	0xbb0f1fba	-0.002183898
10	0x399de234	0.00030113908
11	0xbb550171	-0.003250208
12	0xbb85895d	-0.004075213
13	0xbc084f06	-0.008319622
14	0x3ba3efdf	0.00500296
15	0x3bb38b8e	0.0054792827

ensemble.0.input_quant.pre_transforms.0.running_var f4 [16]
0	0x3f7f2026	0.9965843
1	0x3f7c5352	0.98564637
2	0x3f7edde6	0.9955734
3	0x3f803701	1.0016786
4	0x3f7dd043	0.9914591
5	0x3f7e41aa	0.99318945
6	0x3f7ca127	0.986834
7	0x3f7c6cf8	0.98603773
8	0x3f7ca127	0.986834
9	0x3f7f6721	0.9976674
10	0x3f7f25e1	0.99667174
11	0x3f7fc8c7	0.99915737
12	0x3f7e32de	0.9929637
13	0x3f7e983d	0.9945105
14	0x3f7f59e9	0.99746567
15	0x3f81778b	1.0114607

ensemble.0.fc.weight f4 [16, 16]
0	0x3a6186ef	0.00086031755
1	0xbe535dd1	-0.20641257
2	0xbe4fb4eb	-0.20283858
3	0x3e24b4e3	0.16084628
4	0xbe3d0462	-0.18458703
5	0x3d526061	0.051361445
6	0xbd7448e5	-0.05963983
7	0x3e63e99a	0.2225708
8	0x3bb55d6a	0.0055348175
9	0xbcbe6a6a	-0.023244102
10	0xbd4d4a20	-0.05011952
11	0xbddf5f68	-0.10906869
12	0x3e244f24	0.16045815
13	0xbdead357	-0.11466091
14	0x3e50b9f6	0.20383438
15	0x3e1910c2	0.14947799
16	0xbe40f41c	-0.1884312
17	0x3e32ec24	0.17472893
18	0xbb843309	-0.004034404
19	0x3e0cea53	0.13761263
20	0xbdd767d2	-0.10517849
21	0x3d1ea83f	0.03873467
22	0x3be733c6	0.0070557324
23	0x3c6acf8f	0.014331712
24	0xbd271b70	-0.04079765
25	0xbcbbe7bc	-0.022937648
26	0xbdea706e	-0.114472255
27	0x3e2eac71	0.17057969
28	0x3dd1a260	0.10236049
29	0xbdd8bad7	-0.10582512
30	0xbd01bd99	-0.031674955
31	0xbced4054	-0.028961338
32	0xbd8546e4	-0.06507662
33	0x3d101224	0.03517355
34	0x3e5c55e0	0.21517134
35	0xbe6062ca	-0.21912685
36	0xbd4d2a58	-0.05008921
37	0xbeed28d4	-0.46320212
38	0x3e1dfa51	0.1542752
39	0xbe5402cb	-0.2070419
40	0x3d54f434	0.051990703
41	0x3d50b339	0.05095217
42	0x3dfa43f7	0.122199945
43	0x3d3ddcc8	0.04635313
44	0x3cf498ee	0.029858079
45	0x3e5e3a2e	0.21701881
46	0xbd13fa16	-0.036127172
47	0x3e2b9532	0.16756132
48	0x3df3d962	0.11906697
49	0xbd5e2a06	-0.054239295
50	0xbd5e1e3b	-0.05422805
51	0x3de4d638	0.111736715
52	0xbdc1d786	-0.09464936
53	0x3d0540d8	0.032532543
54	0xbe2f4142	-0.17114738
55	0x3e18bccf	0.14915775
56	0xbe31b0b7	-0.17352568
57	0x3d63f9b6	0.055658065
58	0xbe47e440	-0.19520664
59	0xbd52294c	-0.051308915
60	0xbd12f288	-0.035875827
61	0xbde3d6c7	-0.1112495
62	0xbd1cdf39	-0.03829882
63	0x3d2a0f78	0.04151866
64	0xbccae895	-0.024769107
65	0x3e2b2766	0.16714248
66	0xbe3f45c0	-0.18678951
67	0x3e1bb6a9	0.15206398
68	0xbe2e9b93	-0.17051534
69	0xbdc06b43	-0.093954585
70	0xbc3b529a	-0.011433268
71	0xbe07794f	-0.1322987
72	0x3dd32c6a	0.10311206
73	0x3e5acd60	0.21367407
74	0xbd95eeb7	-0.07320922
75	0xbd2ade97	-0.041716184
76	0x3d16b428	0.036792904
77	0xbe58bf6e	-0.21166775
78	0x3e63a2d9	0.2223009
79	0x3d86782e	0.06565891
80	0x3d629152	0.05531437
81	0x3e59f74f	0.21285747
82	0xbdf31b48	-0.11870438
83	0x3e09025d	0.13379808
84	0xbe0307c3	-0.1279593
85	0x3d81e607	0.06342702
86	0xbe9dc51f	-0.30814454
87	0xbceca7d9	-0.02888863
88	0x3e4edf9e	0.2020249
89	0x3e549a35	0.2076195
90	0xbd381aba	-0.044947363
91	0xbddcd082	-0.10781957
92	0xbcc1da26	-0.023663592
93	0x3e153bdb	0.14573614
94	0x3d66b1f0	0.05632204
95	0xbd9cc675	-0.0765504
96	0xbdc711ce	-0.09720193
97	0x3e154d49	0.14580263
98	0xbe16ca50	-0.14725614
99	0xbdb65847	-0.08903556
100	0xbd09cec3	-0.03364445
101	0x3e5571e6	0.2084423
102	0x3e2f7c20	0.17137194
103	0x3e2ced0b	0.168873
104	0xbe1a8e1b	-0.15093271
105	0x3d9da526	0.07697515
106	0xbe483c6d	-0.195543
107	0x3de2bc13	0.110710286
108	0x3e172773	0.14761142
109	0xbe32bd19	-0.17454948
110	0xbe38850a	-0.180195
111	0x3cd12e09	0.025534647
112	0xbe61381f	-0.21994065
113	0x3e24c445	0.16090496
114	0xbe2558c6	-0.16147146
115	0xbe04a275	-0.12952597
116	0x3a8276e3	0.0009953644
117	0x3e0201d7	0.12696014
118	0x3e475ff8	0.19470203
119	0x3d28a0f2	0.041169114
120	0x3de822e8	0.11334783
121	0x3dc0517e	0.093905434
122	0x3e600e22	0.21880391
123	0xbd60fbcd	-0.054927636
124	0xbd67ef84	-0.056624904
125	0xbd8d594c	-0.06901798
126	0xbd1b1825	-0.037864823
127	0xbe412a58	-0.18863809
128	0x3d88901a	0.0666811
129	0x3ebc5ba9	0.3678868
130	0x3deb2097	0.114808254
131	0xbe10098e	-0.14066145
132	0x3e4f12cf	0.20222019
133	0xba1547a9	-0.0005694577
134	0xbbdd184a	-0.0067472802
135	0xbe460871	-0.19339158
136	0xbdc7dc29	-0.09758789
137	0x3d938748	0.07203537
138	0x3cddb98d	0.027066017
139	0xbe120f18	-0.1426357
140	0x3e53b740	0.20675373
141	0x3dbf6310	0.093450665
142	0x3dfbe393	0.12299266
143	0xbe04bdb9	-0.12962998
144	0xbdb86501	-0.0900364
145	0x3d8ec776	0.06971638
146	0xbe564df2	-0.20928171
147	0x3dd5e158	0.104433715
148	0x3c3c80e0	0.011505336
149	0x3e120a7a	0.14261809
150	0x3e2f512d	0.1712081
151	0xbe4efd11	-0.20213725
152	0x3dedf0f2	0.11618222
153	0x3baa007c	0.005188046
154	0x3e5ef03a	0.21771327
155	0xbccac84a	-0.024753708
156	0xbe0cbab9	-0.13743104
157	0xbcf3d785	-0.029765854
158	0xbe2c2cd7	-0.1681398
159	0xbe05a43a	-0.13050929
160	0x3d477a98	0.0487009
161	0x3e308398	0.17237699
162	0x3e39fc3e	0.18162629
163	0x3e1d694a	0.15372196
164	0x3e431344	0.19050318
165	0x3e4bf417	0.19917332
166	0xbe0953a6	-0.13410816
167	0xbd8b72ef	-0.06809031
168	0x3dcfe88b	0.10151776
169	0xbdb36376	-0.08759205
170	0xbd1bcca9	-0.038036976
171	0x3e4126e0	0.18862486
172	0xbc9f214f	-0.019425062
173	0xbd53f1e0	-0.05174434
174	0x3dbbcfd6	0.09170501
175	0x3e5f8225	0.2182699
176	0xbdc4b92f	-0.096056335
177	0xbceea965	-0.029133508
178	0xbe4b30e3	-0.19842868
179	0x3cd81346	0.026376378
180	0x3cbc9355	0.023019472
181	0x3e193cd4	0.1496461
182	0xbe3a8be2	-0.18217424
183	0xbe0d8315	-0.13819535
184	0x3e31cac8	0.17362511
185	0xbdcdef5f	-0.10055422
186	0x3c7066eb	0.014672975
187	0x3e444fd7	0.19171081
188	0xbe6a3fea	-0.22875944
189	0xbc64b985	-0.013960247
190	0xbe57f27a	-0.21088591
191	0xbe3b66b1	-0.18300892
192	0xbe5b49ec	-0.21414918
193	0xbc5ae119	-0.0133593315
194	0xbe31ad4e	-0.17351267
195	0x3e391a00	0.18076324
196	0xbe462ff3	-0.19354229
197	0xbd879585	-0.066203155
198	0x3dc3ab63	0.09554174
199	0xbdc0bae4	-0.094106466
200	0x3e2afb5c	0.16697448
201	0x3d835ef1	0.06414593
202	0x3e5b5f04	0.21422964
203	0x3d0217db	0.03176103
204	0x3e0b74f3	0.13618831
205	0xbe4960e8	-0.19665873
206	0xbdc22614	-0.09479919
207	0x3dcc47c1	0.099746235
208	0xbdadb432	-0.08481635
209	0x3d968f10	0.07351506
210	0xbe0a2615	-0.1349109
211	0x3d354ffa	0.044265725
212	0x3cdf832e	0.027284231
213	0xbdfb797f	-0.12279033
214	0xbbb2342c	-0.0054383483
215	0x3e30c727	0.1726347
216	0xbe28a84c	-0.1647045
217	0x3d177511	0.036976878
218	0x3df7b335	0.12094728
219	0x3e524a1b	0.20536081
220	0xbe501c4a	-0.20323291
221	0x3dcebe37	0.10094874
222	0x3fb95f6a	1.4482243
223	0x3e1c4c2b	0.15263431
224	0xbe0cc1b9	-0.13745774
225	0xbd04753b	-0.032338362
226	0xbcdff88a	-0.027340192
227	0xbd034327	-0.032046463
228	0x3c83b170	0.01607582
229	0x3c6d4388	0.014481433
230	0x3df1a037	0.11798137
231	0xbe32ffc8	-0.17480385
232	0xbe210cac	-0.1572749
233	0xbbdd7250	-0.006758012
234	0xbe573ec1	-0.21020032
235	0x3e5ff99a	0.21872559
236	0x3e233134	0.15936738
237	0xbdca0388	-0.09863955
238	0x3e22976e	0.15878078
239	0xbdccdef8	-0.100034654
240	0xbac8662a	-0.0015289236
241	0xbe42fc9b	-0.19041674
242	0x3bfd49b7	0.0077297348
243	0x3d98b8a7	0.07457095
244	0x3c195f48	0.009361096
245	0x3dfd5084	0.12368873
246	0xbb0f9fb0	-0.002191525
247	0x3df44797	0.11927717
248	0x3e60a5b2	0.21938208
249	0xbe1f4773	-0.155546
250	0xbe1fdc48	-0.15611374
251	0x3e2c5221	0.16828205
252	0xbd43fae1	-0.04784668
253	0xbe23e8a4	-0.16006714
254	0x3cf2594d	0.029583598
255	0xbe1d32ae	-0.15351364

ensemble.0.fc.bias f4 [16]
0	0x3ebf6557	0.37382004
1	0x3ee7b1eb	0.45252928
2	0x3e88a2f3	0.2668682
3	0xbe0654b4	-0.13118249
4	0x3bb69440	0.005571872
5	0xbe40fce0	-0.18846464
6	0xbe57c339	-0.21070565
7	0x3d9823a7	0.07428675
8	0x3ebc9f3d	0.3684024
9	0xbdeb9898	-0.11503714
10	0x3d8f0f59	0.06985349
11	0xbdc5396f	-0.09630095
12	0xbf2b1aec	-0.66837955
13	0x3e1ed54e	0.15511057
14	0x3d6d2bb6	0.057903014
15	0xbe3e8550	-0.18605542

ensemble.0.fc.mask.mask f4 [16, 16]
0	0x00000000	0.0
1	0x00000000	0.0
2	0x3f800000	1.0
3	0x00000000	0.0
4	0x00000000	0.0
5	0x00000000	0.0
6	0x00000000	0.0
7	0x00000000	0.0
8	0x00000000	0.0
9	0x00000000	0.0
10	0x00000000	0.0
11	0x00000000	0.0
12	0x00000000	0.0
13	0x00000000	0.0
14	0x00000000	0.0
15	0x00000000	0.0
16	0x00000000	0.0
17	0x00000000	0.0
18	0x00000000	0.0
19	0x00000000	0.0
20	0x00000000	0.0
21	0x00000000	0.0
22	0x00000000	0.0
23	0x00000000	0.0
24	0x00000000	0.0
25	0x00000000	0.0
26	0x00000000	0.0
27	0x00000000	0.0
28	0x00000000	0.0
29	0x00000000	0.0
30	0x00000000	0.0
31	0x3f800000	1.0
32	0x00000000	0.0
33	0x00000000	0.0
34	0x00000000	0.0
35	0x00000000	0.0
36	0x00000000	0.0
37	0x3f800000	1.0
38	0x00000000	0.0
39	0x00000000	0.0
40	0x00000000	0.0
41	0x00000000	0.0
42	0x00000000	0.0
43	0x00000000	0.0
44	0x00000000	0.0
45	0x00000000	0.0
46	0x00000000	0.0
47	0x00000000	0.0
48	0x00000000	0.0
49	0x00000000	0.0
50	0x00000000	0.0
51	0x00000000	0.0
52	0x00000000	0.0
53	0x00000000	0.0
54	0x00000000	0.0
55	0x00000000	0.0
56	0x00000000	0.0
57	0x00000000	0.0
58	0x00000000	0.0
59	0x3f800000	1.0
60	0x00000000	0.0
61	0x00000000	0.0
62	0x00000000	0.0
63	0x00000000	0.0
64	0x00000000	0.0
65	0x00000000	0.0
66	0x00000000	0.0
67	0x00000000	0.0
68	0x00000000	0.0
69	0x00000000	0.0
70	0x00000000	0.0
71	0x00000000	0.0
72	0x00000000	0.0
73	0x00000000	0.0
74	0x00000000	0.0
75	0x00000000	0.0
76	0x00000000	0.0
77	0x3f800000	1.0
78	0x00000000	0.0
79	0x00000000	0.0
80	0x00000000	0.0
81	0x00000000	0.0
82	0x00000000	0.0
83	0x00000000	0.0
84	0x00000000	0.0
85	0x00000000	0.0
86	0x3f800000	1.0
87	0x00000000	0.0
88	0x00000000	0.0
89	0x00000000	0.0
90	0x00000000	0.0
91	0x00000000	0.0
92	0x00000000	0.0
93	0x00000000	0.0
94	0x00000000	0.0
95	0x00000000	0.0
96	0x00000000	0.0
97	0x00000000	0.0
98	0x00000000	0.0
99	0x00000000	0.0
100	0x00000000	0.0
101	0x00000000	0.0
102	0x00000000	0.0
103	0x00000000	0.0
104	0x00000000	0.0
105	0x00000000	0.0
106	0x3f800000	1.0
107	0x00000000	0.0
108	0x00000000	0.0
109	0x00000000	0.0
110	0x00000000	0.0
111	0x00000000	0.0
112	0x00000000	0.0
113	0x00000000	0.0
114	0x00000000	0.0
115	0x00000000	0.0
116	0x00000000	0.0
117	0x00000000	0.0
118	0x00000000	0.0
119	0x00000000	0.0
120	0x3f800000	1.0
121	0x00000000	0.0
122	0x00000000	0.0
123	0x00000000	0.0
124	0x00000000	0.0
125	0x00000000	0.0
126	0x00000000	0.0
127	0x00000000	0.0
128	0x00000000	0.0
129	0x3f800000	1.0
130	0x00000000	0.0
131	0x00000000	0.0
132	0x00000000	0.0
133	0x00000000	0.0
134	0x00000000	0.0
135	0x00000000	0.0
136	0x00000000	0.0
137	0x00000000	0.0
138	0x00000000	0.0
139	0x00000000	0.0
140	0x00000000	0.0
141	0x00000000	0.0
142	0x00000000	0.0
143	0x00000000	0.0
144	0x00000000	0.0
145	0x00000000	0.0
146	0x00000000	0.0
147	0x00000000	0.0
148	0x00000000	0.0
149	0x00000000	0.0
150	0x00000000	0.0
151	0x3f800000	1.0
152	0x00000000	0.0
153	0x00000000	0.0
154	0x00000000	0.0
155	0x00000000	0.0
156	0x00000000	0.0
157	0x00000000	0.0
158	0x00000000	0.0
159	0x00000000	0.0
160	0x00000000	0.0
161	0x00000000	0.0
162	0x00000000	0.0
163	0x3f800000	1.0
164	0x00000000	0.0
165	0x00000000	0.0
166	0x00000000	0.0
167	0x00000000	0.0
168	0x00000000	0.0
169	0x00000000	0.0
170	0x00000000	0.0
171	0x00000000	0.0
172	0x00000000	0.0
173	0x00000000	0.0
174	0x00000000	0.0
175	0x00000000	0.0
176	0x00000000	0.0
177	0x00000000	0.0
178	0x00000000	0.0
179	0x00000000	0.0
180	0x00000000	0.0
181	0x00000000	0.0
182	0x00000000	0.0
183	0x00000000	0.0
184	0x00000000	0.0
185	0x00000000	0.0
186	0x00000000	0.0
187	0x00000000	0.0
188	0x3f800000	1.0
189	0x00000000	0.0
190	0x00000000	0.0
191	0x00000000	0.0
192	0x00000000	0.0
193	0x00000000	0.0
194	0x00000000	0.0
195	0x00000000	0.0
196	0x00000000	0.0
197	0x00000000	0.0
198	0x00000000	0.0
199	0x00000000	0.0
200	0x00000000	0.0
201	0x3f800000	1.0
202	0x00000000	0.0
203	0x00000000	0.0
204	0x00000000	0.0
205	0x00000000	0.0
206	0x00000000	0.0
207	0x00000000	0.0
208	0x00000000	0.0
209	0x00000000	0.0
210	0x00000000	0.0
211	0x00000000	0.0
212	0x00000000	0.0
213	0x00000000	0.0
214	0x00000000	0.0
215	0x00000000	0.0
216	0x00000000	0.0
217	0x00000000	0.0
218	0x00000000	0.0
219	0x00000000	0.0
220	0x00000000	0.0
221	0x00000000	0.0
222	0x3f800000	1.0
223	0x00000000	0.0
224	0x3f800000	1.0
225	0x00000000	0.0
226	0x00000000	0.0
227	0x00000000	0.0
228	0x00000000	0.0
229	0x00000000	0.0
230	0x00000000	0.0
231	0x00000000	0.0
232	0x00000000	0.0
233	0x00000000	0.0
234	0x00000000	0.0
235	0x00000000	0.0
236	0x00000000	0.0
237	0x00000000	0.0
238	0x00000000	0.0
239	0x00000000	0.0
240	0x00000000	0.0
241	0x00000000	0.0
242	0x00000000	0.0
243	0x00000000	0.0
244	0x3f800000	1.0
245	0x00000000	0.0
246	0x00000000	0.0
247	0x00000000	0.0
248	0x00000000	0.0
249	0x00000000	0.0
250	0x00000000	0.0
251	0x00000000	0.0
252	0x00000000	0.0
253	0x00000000	0.0
254	0x00000000	0.0
255	0x00000000	0.0

ensemble.1.module_list.0.input_quant.pre_transforms.0.weight f4 [16]
0	0x3f1a766d	0.60336953
1	0x3f1116be	0.56675327
2	0x3f45c537	0.7725405
3	0x3f1d4d0c	0.6144569
4	0x3fa0904f	1.254404
5	0x3f156f6c	0.5837314
6	0x3f05d74f	0.5228166
7	0x3edb9b3f	0.4289188
8	0x3f34370b	0.7039649
9	0x3eeabb1e	0.45845884
10	0x3f91a396	1.1378047
11	0x3f027e6f	0.5097417
12	0x3f1d7690	0.61509037
13	0x3fa29526	1.2701766
14	0x3f378476	0.71686494
15	0x3f14f0a6	0.581797

ensemble.1.module_list.0.input_quant.pre_transforms.0.bias f4 [16]
0	0x3e2bc3b5	0.16773875
1	0x3ebffef5	0.37499204
2	0xbcc96281	-0.024583103
3	0xbd83f142	-0.06442501
4	0xbee4b82c	-0.44671762
5	0x3e8b1e33	0.27171478
6	0xbd88897f	-0.0666685
7	0xbef6e864	-0.48224175
8	0xbf1b80e7	-0.60743564
9	0x3e1e2aab	0.15445964
10	0xbf8258c8	-1.0183344
11	0x3ea69395	0.3253447
12	0x3e5a67b5	0.21328624
13	0x3ca746e1	0.02041954
14	0x3eac08d7	0.33600494
15	0xbe31b78b	-0.17355172

ensemble.1.module_list.0.input_quant.pre_transforms.0.running_mean f4 [16]
0	0x3ec3c2ce	0.38234562
1	0x3eece68d	0.46269646
2	0x3e6ed5c1	0.23323728
3	0xbe10bcdc	-0.14134544
4	0x3caf2879	0.021381604
5	0xbde7b41f	-0.11313652
6	0xbe80b6ae	-0.25139374
7	0x3cef19ff	0.0291872
8	0x3e7ddf4d	0.24792214
9	0xbde89cc2	-0.11358024
10	0x3d3b1e20	0.045683026
11	0xbd9e33b8	-0.07724708
12	0xbf2deeea	-0.6794268
13	0x3de994c3	0.11405327
14	0x3db7b2ad	0.089696266
15	0xbe3e088a	-0.18557945

ensemble.1.module_list.0.input_quant.pre_transforms.0.running_var f4 [16]
0	0x3c1d67c1	0.009607256
1	0x388fc9db	6.85637e-05
2	0x3cc251ec	0.023720704
3	0x3982ddfd	0.00024960926
4	0x3b5bd75a	0.0033545108
5	0x3c25a00c	0.010108959
6	0x3b6e6534	0.003637624
7	0x3a7b1003	0.0009577276
8	0x3bc1973e	0.005907922
9	0x3b810c14	0.0039382074
10	0x3ba70cf8	0.0050979815
11	0x3b9387cc	0.0045022722
12	0x399ddf23	0.00030111623
13	0x3f054aab	0.5206706
14	0x3b4fdd7d	0.003171771
15	0x36b3c8d7	5.3579965e-06

ensemble.1.module_list.0.fc.weight f4 [64, 16]
0	0xbcaa5784	-0.020793684
1	0xbe4cd485	-0.20002945
2	0xbe57134f	-0.2100346
3	0xbe55f7e4	-0.20895344
4	0x3e5b5c50	0.21421933
5	0x3e029bf2	0.12754801
6	0x3e42e295	0.19031747
7	0xbd655b85	-0.055995483
8	0x3e447d5b	0.19188444
9	0xbd7108b8	-0.058846205
10	0x3e1e8b90	0.15482926
11	0xbbed8003	-0.007247926
12	0xbdd6eb2f	-0.104940765
13	0xbd7e9a33	-0.062158775
14	0xbd430b66	-0.047618292
15	0x3e97aa17	0.29621956
16	0x3d88a171	0.066714175
17	0xbd8b183f	-0.06791734
18	0x3dd1bab2	0.102406874
19	0x3e11a8f5	0.14224608
20	0xbd11475f	-0.035468455
21	0x3dfa044b	0.1220785
22	0x3d366ea4	0.04453911
23	0x3e193bfd	0.1496429
24	0xbe13453f	-0.14381884
25	0xbca06183	-0.019577747
26	0xbd98414f	-0.074343316
27	0x3e482001	0.19543459
28	0xbd530b77	-0.051524606
29	0xbf2b7ba2	-0.66985524
30	0x3cce60af	0.025192587
31	0x3e4ac1df	0.19800518
32	0x3e1a74de	0.15083644
33	0xbe55aac8	-0.20865929
34	0xbe208f48	-0.15679657
35	0x3e5d902d	0.2163703
36	0x3d0502cd	0.032473374
37	0xbe439172	-0.19098452
38	0xbd8fdb07	-0.07024198
39	0x3dc7b27f	0.09750842
40	0xbd3f188a	-0.04665426
41	0xbe2f796d	-0.17136164
42	0xbe0d0ecf	-0.1377518
43	0xbdec5f3a	-0.115416005
44	0xbc0f1890	-0.0087338835
45	0x3db30486	0.08741097
46	0x3ddb4e36	0.10708277
47	0xbdde0c03	-0.10842135
48	0xbd1922b8	-0.037386626
49	0xbe3068d6	-0.17227492
50	0x3e2cb8dd	0.16867395
51	0x3e63ba96	0.22239146
52	0x3d088d81	0.033338074
53	0x3d6fe71c	0.058570012
54	0xbd42ce60	-0.047560096
55	0xbbb61bed	-0.005557528
56	0x3da4dac2	0.08049537
57	0xbe45de9b	-0.19323198
58	0x3c62895c	0.013826694
59	0xbe39809a	-0.18115464
60	0xbe642d84	-0.22282988
61	0xbfe3df2e	-1.7802484
62	0xbd91765b	-0.07102653
63	0xbe10a3a3	-0.14124922
64	0x3d1786cc	0.036993787
65	0x3c14d457	0.009083829
66	0x3d0b5c83	0.034023773
67	0xbdff355c	-0.12461349
68	0xbe5fc6aa	-0.21853128
69	0xbe9f2170	-0.31080198
70	0xbdba452e	-0.09095226
71	0xbd99dfb8	-0.07513374
72	0x3e282293	0.16419439
73	0x3e9977f4	0.2997433
74	0x3dd09cd1	0.1018616
75	0xbd7eef7f	-0.06224012
76	0xbe354028	-0.17700255
77	0x3d3614f7	0.044453587
78	0xbda59fcf	-0.08087122
79	0x3ce21323	0.027597016
80	0xbea37348	-0.3192389
81	0x3e2c3e86	0.16820726
82	0xbe1b8473	-0.15187244
83	0x3e463705	0.19356926
84	0x3e2157d5	0.15756162
85	0x3e2ca6ff	0.16860579
86	0x3e865f2d	0.26244488
87	0x3d534de6	0.05158796
88	0xbc3217c1	-0.010869921
89	0xbb691291	-0.0035564045
90	0xbdb5a1e1	-0.088687666
91	0xbe51ce44	-0.2048884
92	0x3e5034b2	0.20332602
93	0x3c3d4869	0.011552908
94	0x3dd6e048	0.10491997
95	0x3e85da3a	0.26143056
96	0x3d833ad5	0.06407706
97	0xbe0cba95	-0.1374305
98	0xbe319932	-0.17343596
99	0x3e2e4b4e	0.17020914
100	0x3dad3762	0.08457829
101	0x3de14f47	0.11001449
102	0xbe62604d	-0.22107048
103	0x3c767bb1	0.015044139
104	0xbe54f198	-0.20795286
105	0xbcd10259	-0.025513815
106	0xbc412a46	-0.011789864
107	0xbe20aaa0	-0.15690088
108	0xbe61dc91	-0.22056796
109	0x3ac06ebe	0.0014681441
110	0x3e4d6c09	0.20060743
111	0x3e4de615	0.201073
112	0xbef65e88	-0.48118997
113	0xbd224fbf	-0.039626833
114	0xbe3f0d5b	-0.18657438
115	0xbe325fc0	-0.17419338
116	0xbd7a04de	-0.061039798
117	0x3e5ddf55	0.21667226
118	0x3da3d4eb	0.07999595
119	0x3c534738	0.012895398
120	0x3e56e7e0	0.20986891
121	0x3d22d873	0.039757203
122	0x3e383b94	0.17991477
123	0x3e1969bf	0.14981745
124	0x3e562ac2	0.20914748
125	0x3d1cb639	0.03825972
126	0xbe38a293	-0.18030767
127	0xbe44522b	-0.1917197
128	0xbdebb8f3	-0.11509886
129	0x3e3c8664	0.18410641
130	0x3edeee59	0.4354122
131	0x3d859418	0.06522387
132	0xbe2e0258	-0.16993082
133	0xbe18b7d5	-0.14913876
134	0x3e3a4146	0.18188962
135	0xbcbd9f85	-0.023147354
136	0x3e8c03d2	0.27346665
137	0xbce19a07	-0.027539266
138	0xbd5b50ee	-0.053543977
139	0x3b5c9dce	0.0033663395
140	0x3dbf3bd9	0.09337587
141	0x3dafcb54	0.08583704
142	0xbe2ee0fa	-0.17078009
143	0xbb202663	-0.0024436943
144	0xbde20e7d	-0.1103792
145	0x3e1a69b8	0.15079391
146	0x3de1e40a	0.11029823
147	0x3dfa4370	0.12219894
148	0x3e4faef0	0.20281577
149	0x3de0505a	0.10952826
150	0xbe640a6e	-0.22269604
151	0x3d666af3	0.05625434
152	0xbe1cc4fb	-0.15309517
153	0x3cf3841c	0.02972608
154	0x3b1c3b21	0.0023838955
155	0x3e623541	0.22090627
156	0xbe1c02cd	-0.15235443
157	0xbe5fd636	-0.21859059
158	0xbd746901	-0.059670452
159	0x3d1333f7	0.03593823
160	0x3e27480c	0.16336077
161	0x3e39100e	0.1807253
162	0x3e2ff0bb	0.17181675
163	0x3d901e9f	0.070370905
164	0xbd826cb3	-0.06368389
165	0xbd4126d0	-0.047156155
166	0xbdf94666	-0.121716306
167	0x3d32ae8d	0.043623496
168	0xbe1ec760	-0.15505743
169	0x3d9d1c22	0.076713815
170	0x3e137afc	0.14402384
171	0x3e41d27a	0.18927947
172	0xbe60edbe	-0.21965691
173	0x3e3b6009	0.18298353
174	0xbe0f65fe	-0.1400375
175	0xbc9525b9	-0.018206464
176	0x3e50817b	0.20361893
177	0x3df6e7bd	0.12055919
178	0xbd90e197	-0.07074278
179	0x3e06beb0	0.13158679
180	0xbe5e4ae8	-0.21708262
181	0x3e329537	0.17439733
182	0x3e5dd6aa	0.21663919
183	0xbc25e558	-0.010125481
184	0x3d165d98	0.03671035
185	0xbd5664e8	-0.052342325
186	0xbe1088ef	-0.14114736
187	0xbdceb395	-0.10092846
188	0xbc724300	-0.014786482
189	0xbe3ad18d	-0.18244
190	0xbe3888cf	-0.18020938
191	0x3cc87f42	0.024474744
192	0xbe148c33	-0.14506607
193	0xbdf7e465	-0.1210411
194	0xbafc8304	-0.001926512
195	0xbdf078d6	-0.117417976
196	0x3e534245	0.20630749
197	0xbda4f3a1	-0.08054281
198	0xbdfdab3d	-0.12386177
199	0xbd72d664	-0.05928649
200	0xbe3a42da	-0.18189564
201	0x3deafd3b	0.11474081
202	0x3e441d3d	0.19151779
203	0xbe03ad72	-0.12859133
204	0x3bba1e52	0.005679884
205	0x40089a56	2.13442
206	0xbe253aea	-0.16135755
207	0x3d02c931	0.031930152
208	0xbe39fa38	-0.18161857
209	0xbe4b47c1	-0.1985159
210	0x39b10550	0.0003376403
211	0xbe0236bf	-0.12716196
212	0x3df6c035	0.12048379
213	0xbd8d52d5	-0.069005646
214	0x3d837845	0.06419424
215	0xbdeb78c6	-0.11497645
216	0x3dbbb4bc	0.09165332
217	0x3e5377bb	0.20651142
218	0xbd094959	-0.033517215
219	0xbe0d0159	-0.13770045
220	0xbe5ee632	-0.217675
221	0x3e5adfda	0.21374455
222	0x3dc08ae9	0.09401495
223	0x3f0fd0a6	0.5617775
224	0x3d1b79b8	0.037957877
225	0x3de515cb	0.11185797
226	0x3da23d37	0.07921832
227	0x3ddf284e	0.108963594
228	0x3e0ec608	0.1394273
229	0x3d015e2b	0.031583946
230	0x3e44926e	0.19196483
231	0x3e0dfd83	0.13866238
232	0xbbdfcc15	-0.0068297484
233	0xbdcc01d5	-0.09961287
234	0x3c71e479	0.014763945
235	0x3e31ea1c	0.17374462
236	0x3e10a4d5	0.14125378
237	0xbdb8faef	-0.09032237
238	0xbd3ec389	-0.046573196
239	0x3db56024	0.08856228
240	0x3dac2fd0	0.08407557
241	0x3e12e3d0	0.14344716
242	0x3dddf2c6	0.10837321
243	0x3d91914a	0.0710779
244	0x3d52facd	0.051508714
245	0xbe56add6	-0.2096475
246	0xbda849db	-0.08217212
247	0x3cc15e5e	0.023604568
248	0xbe1ed158	-0.15509546
249	0xbe481c33	-0.19542007
250	0x3e19fde4	0.15038258
251	0x3d9b4d3d	0.075830914
252	0xbe384835	-0.17996295
253	0x3f375791	0.7161799
254	0x3d6b2e24	0.05741705
255	0x3e03885c	0.12844986

ensemble.1.module_list.0.fc.bias f4 [64]
0	0xbdbaa222	-0.09112956
1	0xbe7d8508	-0.24757779
2	0x3e480770	0.19534087
3	0x3e987062	0.2977324
4	0x3d664193	0.05621488
5	0x3e9b0209	0.3027499
6	0xbcd7e980	-0.026356459
7	0xbc285b09	-0.010275611
8	0x3df55795	0.119795956
9	0xbd88c534	-0.066782385
10	0xbe137dec	-0.14403504
11	0x3e5518bc	0.20810217
12	0xbb184607	-0.00232351
13	0x3ca7b0b6	0.020470005
14	0xbdef6e10	-0.11690915
15	0x3cfbade8	0.030722573
16	0xbe028fd9	-0.12750186
17	0xbd4bee51	-0.049787823
18	0x3db0f7d5	0.0864102
19	0x3eb264fe	0.34842676
20	0xbd00a988	-0.031411678
21	0x3e774200	0.24146271
22	0xbe08491a	-0.13309136
23	0xbd89adc2	-0.06722595
24	0xbd4ec91b	-0.050484758
25	0xbc6e0b12	-0.014529007
26	0x3dce687b	0.10078522
27	0xbe8d9872	-0.2765537
28	0x3bb9baa6	0.005668002
29	0xbdc27a44	-0.094959766
30	0xbda999d8	-0.082812965
31	0xbe022f43	-0.12713341
32	0xbd9c776c	-0.076399654
33	0xbe5ceea9	-0.21575417
34	0x3d79def4	0.06100364
35	0xbe718ea8	-0.23589575
36	0x3e66c7f3	0.22537212
37	0xbda2ee3a	-0.07955594
38	0xbc8742d4	-0.016511358
39	0x3e381925	0.17978342
40	0x3c806f56	0.01567809
41	0xbd443a05	-0.047906894
42	0x3ce20bfa	0.027593601
43	0xbd91c9b2	-0.071185485
44	0xbd80c8b7	-0.06288283
45	0x3ccd0766	0.025027942
46	0xbd51a4ef	-0.051182684
47	0x3e5f2dd4	0.21794826
48	0x3bef2f00	0.007299304
49	0xbe65bd58	-0.2243551
50	0x3e5c202c	0.21496648
51	0x3d80c238	0.06287044
52	0xbd5cf340	-0.05394292
53	0x3e472c97	0.19450603
54	0x3e8648dd	0.26227465
55	0xbe8753cc	-0.2643112
56	0xbe8f9e91	-0.28050664
57	0xbe6235c9	-0.2209083
58	0xbe5c2660	-0.21499014
59	0xbd999ce8	-0.075006306
60	0x3dbb6cd8	0.0915162
61	0xbd47eec0	-0.048811674
62	0xbe7a3466	-0.24434051
63	0xbe4f2379	-0.20228375

ensemble.1.module_list.0.fc.mask.mask f4 [64, 16]
0	0x00000000	0.0
1	0x00000000	0.0
2	0x00000000	0.0
3	0x00000000	0.0
4	0x00000000	0.0
5	0x3f800000	1.0
6	0x3f800000	1.0
7	0x00000000	0.0
8	0x00000000	0.0
9	0x00000000	0.0
10	0x00000000	0.0
11	0x00000000	0.0
12	0x00000000	0.0
13	0x00000000	0.0
14	0x00000000	0.0
15	0x3f800000	1.0
16	0x00000000	0.0
17	0x00000000	0.0
18	0x00000000	0.0
19	0x00000000	0.0
20	0x00000000	0.0
21	0x3f800000	1.0
22	0x00000000	0.0
23	0x00000000	0.0
24	0x00000000	0.0
25	0x00000000	0.0
26	0x00000000	0.0
27	0x00000000	0.0
28	0x3f800000	1.0
29	0x3f800000	1.0
30	0x00000000	0.0
31	0x00000000	0.0
32	0x00000000	0.0
33	0x00000000	0.0
34	0x3f800000	1.0
35	0x00000000	0.0
36	0x00000000	0.0
37	0x00000000	0.0
38	0x00000000	0.0
39	0x00000000	0.0
40	0x00000000	0.0
41	0x00000000	0.0
42	0x00000000	0.0
43	0x3f800000	1.0
44	0x3f800000	1.0
45	0x00000000	0.0
46	0x00000000	0.0
47	0x00000000	0.0
48	0x00000000	0.0
49	0x00000000	0.0
50	0x00000000	0.0
51	0x00000000	0.0
52	0x3f800000	1.0
53	0x3f800000	1.0
54	0x00000000	0.0
55	0x00000000	0.0
56	0x00000000	0.0
57	0x00000000	0.0
58	0x00000000	0.0
59	0x00000000	0.0
60	0x00000000	0.0
61	0x3f800000	1.0
62	0x00000000	0.0
63	0x00000000	0.0
64	0x00000000	0.0
65	0x00000000	0.0
66	0x00000000	0.0
67	0x00000000	0.0
68	0x00000000	0.0
69	0x3f800000	1.0
70	0x00000000	0.0
71	0x00000000	0.0
72	0x00000000	0.0
73	0x3f800000	1.0
74	0x00000000	0.0
75	0x00000000	0.0
76	0x00000000	0.0
77	0x00000000	0.0
78	0x3f800000	1.0
79	0x00000000	0.0
80	0x3f800000	1.0
81	0x00000000	0.0
82	0x00000000	0.0
83	0x00000000	0.0
84	0x00000000	0.0
85	0x00000000	0.0
86	0x3f800000	1.0
87	0x00000000	0.0
88	0x00000000	0.0
89	0x00000000	0.0
90	0x00000000	0.0
91	0x00000000	0.0
92	0x00000000	0.0
93	0x00000000	0.0
94	0x00000000	0.0
95	0x3f800000	1.0
96	0x00000000	0.0
97	0x00000000	0.0
98	0x00000000	0.0
99	0x00000000	0.0
100	0x00000000	0.0
101	0x00000000	0.0
102	0x00000000	0.0
103	0x3f800000	1.0
104	0x3f800000	1.0
105	0x00000000	0.0
106	0x00000000	0.0
107	0x00000000	0.0
108	0x00000000	0.0
109	0x00000000	0.0
110	0x3f800000	1.0
111	0x00000000	0.0
112	0x3f800000	1.0
113	0x00000000	0.0
114	0x00000000	0.0
115	0x00000000	0.0
116	0x00000000	0.0
117	0x00000000	0.0
118	0x3f800000	1.0
119	0x00000000	0.0
120	0x00000000	0.0
121	0x00000000	0.0
122	0x00000000	0.0
123	0x3f800000	1.0
124	0x00000000	0.0
125	0x00000000	0.0
126	0x00000000	0.0
127	0x00000000	0.0
128	0x00000000	0.0
129	0x00000000	0.0
130	0x3f800000	1.0
131	0x00000000	0.0
132	0x00000000	0.0
133	0x3f800000	1.0
134	0x00000000	0.0
135	0x00000000	0.0
136	0x3f800000	1.0
137	0x00000000	0.0
138	0x00000000	0.0
139	0x00000000	0.0
140	0x00000000	0.0
141	0x00000000	0.0
142	0x00000000	0.0
143	0x00000000	0.0
144	0x00000000	0.0
145	0x00000000	0.0
146	0x3f800000	1.0
147	0x00000000	0.0
148	0x00000000	0.0
149	0x00000000	0.0
150	0x00000000	0.0
151	0x3f800000	1.0
152	0x00000000	0.0
153	0x00000000	0.0
154	0x00000000	0.0
155	0x00000000	0.0
156	0x00000000	0.0
157	0x00000000	0.0
158	0x00000000	0.0
159	0x3f800000	1.0
160	0x00000000	0.0
161	0x00000000	0.0
162	0x00000000	0.0
163	0x00000000	0.0
164	0x3f800000	1.0
165	0x00000000	0.0
166	0x00000000	0.0
167	0x3f800000	1.0
168	0x00000000	0.0
169	0x00000000	0.0
170	0x00000000	0.0
171	0x00000000	0.0
172	0x00000000	0.0
173	0x00000000	0.0
174	0x00000000	0.0
175	0x3f800000	1.0
176	0x00000000	0.0
177	0x00000000	0.0
178	0x00000000	0.0
179	0x00000000	0.0
180	0x00000000	0.0
181	0x00000000	0.0
182	0x00000000	0.0
183	0x00000000	0.0
184	0x3f800000	1.0
185	0x00000000	0.0
186	0x3f800000	1.0
187	0x00000000	0.0
188	0x3f800000	1.0
189	0x00000000	0.0
190	0x00000000	0.0
191	0x00000000	0.0
192	0x00000000	0.0
193	0x00000000	0.0
194	0x00000000	0.0
195	0x00000000	0.0
196	0x00000000	0.0
197	0x00000000	0.0
198	0x00000000	0.0
199	0x00000000	0.0
200	0x00000000	0.0
201	0x00000000	0.0
202	0x00000000	0.0
203	0x00000000	0.0
204	0x3f800000	1.0
205	0x3f800000	1.0
206	0x00000000	0.0
207	0x3f800000	1.0
208	0x00000000	0.0
209	0x00000000	0.0
210	0x00000000	0.0
211	0x00000000	0.0
212	0x00000000	0.0
213	0x00000000	0.0
214	0x3f800000	1.0
215	0x3f800000	1.0
216	0x00000000	0.0
217	0x00000000	0.0
218	0x00000000	0.0
219	0x00000000	0.0
220	0x00000000	0.0
221	0x00000000	0.0
222	0x00000000	0.0
223	0x3f800000	1.0
224	0x00000000	0.0
225	0x00000000	0.0
226	0x00000000	0.0
227	0x00000000	0.0
228	0x3f800000	1.0
229	0x00000000	0.0
230	0x00000000	0.0
231	0x00000000	0.0
232	0x00000000	0.0
233	0x3f800000	1.0
234	0x00000000	0.0
235	0x00000000	0.0
236	0x3f800000	1.0
237	0x00000000	0.0
238	0x00000000	0.0
239	0x00000000	0.0
240	0x00000000	0.0
241	0x3f800000	1.0
242	0x00000000	0.0
243	0x00000000	0.0
244	0x00000000	0.0
245	0x00000000	0.0
246	0x00000000	0.0
247	0x00000000	0.0
248	0x00000000	0.0
249	0x00000000	0.0
250	0x00000000	0.0
251	0x00000000	0.0
252	0x00000000	0.0
253	0x3f800000	1.0
254	0x3f800000	1.0
255	0x00000000	0.0

ensemble.1.module_list.0.output_quant.pre_transforms.0.weight f4 [64]
0	0x3f820dc0	1.0160446
1	0x3fa34a03	1.2756962
2	0x3f6438d6	0.89149225
3	0x3f761cf3	0.96137923
4	0x3f26ccc4	0.651562
5	0x3fd2e0d9	1.6474868
6	0x3f6438d6	0.89149225
7	0x3f1e85cf	0.61922926
8	0x3ee453f9	0.44595316
9	0x3f6438d6	0.89149225
10	0x3f6438d6	0.89149225
11	0x3f6438d6	0.89149225
12	0x400ef19c	2.2334967
13	0x3f3fcc3a	0.74921
14	0x3f6438d6	0.89149225
15	0x3f84d9db	1.0378984
16	0x3edc3fb0	0.4301734
17	0x3eabfd42	0.33591658
18	0x3fc39a38	1.5281439
19	0x3f83aad9	1.0286514
20	0x3f6438d6	0.89149225
21	0x3f8a830f	1.0821246
22	0x3f6438d6	0.89149225
23	0x3f114f7e	0.5676192
24	0x3eb1803c	0.34668148
25	0x3f228f3f	0.63499826
26	0x3e976fc0	0.29577446
27	0x3f4e2c7e	0.8053664
28	0x3edb4447	0.4282553
29	0x3ef15565	0.47135463
30	0x3e4cc345	0.19996364
31	0x3f5dba92	0.8661281
32	0x3f36fd3f	0.7148017
33	0x3f427b23	0.7596914
34	0x3f2ee4fa	0.6831814
35	0x3f6438d6	0.89149225
36	0x3ed9ccd5	0.42539087
37	0x3f34406a	0.7041079
38	0x3f60e9cd	0.8785675
39	0x3f1f4729	0.62217957
40	0x3ecc114b	0.39856943
41	0x3e84277d	0.25811377
42	0x3f158017	0.58398575
43	0x3eb1bc4b	0.3471397
44	0x3f081707	0.53160137
45	0x3e4a1e77	0.19738184
46	0x3eefc1a0	0.46827412
47	0x3f6438d6	0.89149225
48	0x3f6438d6	0.89149225
49	0x3e8320e3	0.25611028
50	0x3f6438d6	0.89149225
51	0x3f6438d6	0.89149225
52	0x3f6438d6	0.89149225
53	0x3f3a98cb	0.72889394
54	0x3f37b3e8	0.7175889
55	0x3f1dd82b	0.6165797
56	0x3f8095cf	1.0045718
57	0x3e9d7661	0.30754378
58	0x3f6438d6	0.89149225
59	0x3f6438d6	0.89149225
60	0x3f6438d6	0.89149225
61	0x3f3514e0	0.7073498
62	0x3f6438d6	0.89149225
63	0x3f4410d5	0.76588184

ensemble.1.module_list.0.output_quant.pre_transforms.0.bias f4 [64]
0	0x3fa50bc6	1.2894218
1	0xbe4ac14a	-0.19800296
2	0x00000000	0.0
3	0x3f07dbb5	0.5306962
4	0xbf124fec	-0.571532
5	0xbe91c060	-0.28467083
6	0x00000000	0.0
7	0xbebdbcfc	-0.37058246
8	0xbe00f077	-0.1259173
9	0x00000000	0.0
10	0x00000000	0.0
11	0x00000000	0.0
12	0xbf20cd5c	-0.62813354
13	0xbf850992	-1.0393546
14	0x00000000	0.0
15	0x3f8fd2b8	1.1236181
16	0x3ef6329c	0.48085487
17	0x3ef32d19	0.47495344
18	0x3f34e831	0.70666796
19	0x3e1ffeff	0.15624617
20	0x00000000	0.0
21	0xbe47b084	-0.19500929
22	0x00000000	0.0
23	0xbe989c5d	-0.29806796
24	0x3eac1d05	0.3361589
25	0x3ee257ac	0.44207513
26	0xbdf48542	-0.119394794
27	0xbf3cc19c	-0.73732924
28	0x3e466f2d	0.19378348
29	0x3ca93eaf	0.020659773
30	0x3e3f141e	0.18660018
31	0x3e958e30	0.29210043
32	0xbf0b4bd0	-0.54412556
33	0x3f2169ab	0.6305186
34	0xbf5c32ec	-0.860152
35	0x00000000	0.0
36	0xbe6439a6	-0.22287616
37	0x3f7103bc	0.94146323
38	0xbf218f04	-0.6310885
39	0xbf0d5b0c	-0.5521705
40	0xbeae7847	-0.3407614
41	0x3d0150fa	0.031571366
42	0xbf044564	-0.5166838
43	0x3eb8d22b	0.36097845
44	0x3e3503a5	0.17677172
45	0x3e6119e1	0.21982528
46	0x3ec3ba51	0.38228086
47	0x00000000	0.0
48	0x00000000	0.0
49	0x3d1aa09c	0.037750825
50	0x00000000	0.0
51	0x00000000	0.0
52	0x00000000	0.0
53	0x3f52e5e2	0.82382023
54	0xbf133690	-0.5750513
55	0xbec25afc	-0.3796004
56	0x3ee276dd	0.4423131
57	0x3d0aa6af	0.033850368
58	0x00000000	0.0
59	0x00000000	0.0
60	0x00000000	0.0
61	0xbd405930	-0.046960056
62	0x00000000	0.0
63	0xbed20ec4	-0.4102689

ensemble.1.module_list.0.output_quant.pre_transforms.0.running_mean f4 [64]
0	0xbe97474e	-0.2954659
1	0xbdc1b9ad	-0.09459243
2	0x3e68e332	0.22742918
3	0x3f2de39f	0.6792545
4	0x3cc293d6	0.023752134
5	0x3e13981c	0.14413494
6	0x3da68cdb	0.08132335
7	0x3d06ee35	0.032942016
8	0xbdcf788e	-0.10130416
9	0xbe0e7423	-0.1391149
10	0xbe1252e5	-0.14289434
11	0x3e86e979	0.2635
12	0xbefb3332	-0.49062496
13	0xbe3e6188	-0.18591893
14	0xbe2f7e8d	-0.17138119
15	0xbdea9275	-0.11453716
16	0xbc73bec5	-0.014877026
17	0xbe0c899d	-0.1372437
18	0xbec8bcb1	-0.3920646
19	0x3edff87b	0.43744263
20	0xbd8d95f7	-0.06913369
21	0x3dd463aa	0.10370572
22	0xbe0dcc2b	-0.13847415
23	0xbe0e5aab	-0.13901775
24	0xbce92d55	-0.028463999
25	0x3e4e9c43	0.20176797
26	0x3e1c4fe7	0.15264855
27	0xbe54ede3	-0.20793872
28	0x3e9e30bb	0.30896553
29	0xbe31c9c5	-0.17362125
30	0xbe0c7d2b	-0.13719623
31	0xbea565f2	-0.3230434
32	0xbde6bba1	-0.11266256
33	0xbcd5679c	-0.026050381
34	0xbe193efc	-0.14965433
35	0xbe86212d	-0.26197186
36	0x3e88b0ab	0.26697287
37	0x3c9bb636	0.019007783
38	0xbe000c7f	-0.12504767
39	0x3dfec6c5	0.12440256
40	0x3df3b509	0.11899764
41	0x3df2e14a	0.11859377
42	0xbf0580bb	-0.5214955
43	0xbd69ad23	-0.05704988
44	0x3cadbf75	0.021209458
45	0x3d2f55b1	0.04280633
46	0xbe0bb0ed	-0.1364171
47	0x3e1e6c85	0.15471084
48	0x3b68209c	0.0035419827
49	0xbe93be8e	-0.2885632
50	0x3e4fd05b	0.20294325
51	0x3ca323d5	0.019914547
52	0xbd7fb498	-0.062428087
53	0x3f14ccea	0.58125174
54	0x3debac68	0.11507493
55	0xbea951eb	-0.3307031
56	0xbeeaff4d	-0.45897904
57	0xbe9e9329	-0.3097165
58	0xbe4413ea	-0.19148222
59	0xbc157e91	-0.009124414
60	0x3e1f9d69	0.15587391
61	0xbe51850a	-0.20460907
62	0xbe8bb699	-0.27287748
63	0xbef5771d	-0.4794244

ensemble.1.module_list.0.output_quant.pre_transforms.0.running_var f4 [64]
0	0x3cbd0ac6	0.023076426
1	0x3e133395	0.14375146
2	0x3c197cda	0.009368146
3	0x3f88731b	1.0660127
4	0x3c2deda8	0.010615744
5	0x3da2ebc6	0.079551265
6	0x3bf04437	0.0073323506
7	0x3db3cedf	0.08779692
8	0x3d214c40	0.03937936
9	0x3b22f59a	0.0024865628
10	0x3ae622a6	0.0017557933
11	0x3b9cb9f7	0.004782911
12	0x3fcaae03	1.5834354
13	0x3d2b3df6	0.041807137
14	0x3b223545	0.002475099
15	0x3e313ed0	0.17309117
16	0x3d463897	0.048393812
17	0x3d3f017c	0.046632275
18	0x3e77a316	0.24183306
19	0x3d80c218	0.062870204
20	0x3b8774ed	0.0041338117
21	0x3e085dab	0.13316981
22	0x3b379ee5	0.0028018293
23	0x3d70428c	0.058657214
24	0x3d683b83	0.05669738
25	0x3da5e3d6	0.08100097
26	0x3cac80f0	0.021057576
27	0x3c8c5475	0.017130116
28	0x3ce028fa	0.02736329
29	0x3e12ecbf	0.14348124
30	0x3d34fad8	0.044184536
31	0x3d694bbf	0.056957003
32	0x3de0489b	0.109513484
33	0x3de311a4	0.11087349
34	0x3d28cfdc	0.041213855
35	0x39dd0a31	0.00042159998
36	0x3cce3cda	0.0251755
37	0x3bada70d	0.005299455
38	0x3df2b963	0.11851766
39	0x3d3e8cf6	0.04652115
40	0x3d1c570c	0.038168952
41	0x3d40b3f6	0.047046624
42	0x3eb21b58	0.34786487
43	0x3d916a80	0.071003914
44	0x3e9d5425	0.3072826
45	0x3c68c689	0.014207491
46	0x3dad6791	0.08467019
47	0x3be9a46d	0.007130197
48	0x3c3702d5	0.011170109
49	0x3dc17c61	0.094475515
50	0x3a27a33d	0.0006394869
51	0x3ce9fa1a	0.02856164
52	0x3c3c3cb3	0.011489081
53	0x3d34a9b5	0.044107158
54	0x3d08299a	0.0332428
55	0x3d745b36	0.059657298
56	0x3ca2c959	0.0198714
57	0x3d660c35	0.056163985
58	0x3c85229d	0.016251856
59	0x3d33debf	0.0439136
60	0x3c164b9d	0.009173301
61	0x3e24c0e8	0.16089213
62	0x3bea7bcf	0.0071558724
63	0x3f03a699	0.5142608

ensemble.1.module_list.1.input_quant.pre_transforms.0.weight f4 [64]
0	0x3f820dc0	1.0160446
1	0x3fa34a03	1.2756962
2	0x3f6438d6	0.89149225
3	0x3f761cf3	0.96137923
4	0x3f26ccc4	0.651562
5	0x3fd2e0d9	1.6474868
6	0x3f6438d6	0.89149225
7	0x3f1e85cf	0.61922926
8	0x3ee453f9	0.44595316
9	0x3f6438d6	0.89149225
10	0x3f6438d6	0.89149225
11	0x3f6438d6	0.89149225
12	0x400ef19c	2.2334967
13	0x3f3fcc3a	0.74921
14	0x3f6438d6	0.89149225
15	0x3f84d9db	1.0378984
16	0x3edc3fb0	0.4301734
17	0x3eabfd42	0.33591658
18	0x3fc39a38	1.5281439
19	0x3f83aad9	1.0286514
20	0x3f6438d6	0.89149225
21	0x3f8a830f	1.0821246
22	0x3f6438d6	0.89149225
23	0x3f114f7e	0.5676192
24	0x3eb1803c	0.34668148
25	0x3f228f3f	0.63499826
26	0x3e976fc0	0.29577446
27	0x3f4e2c7e	0.8053664
28	0x3edb4447	0.4282553
29	0x3ef15565	0.47135463
30	0x3e4cc345	0.19996364
31	0x3f5dba92	0.8661281
32	0x3f36fd3f	0.7148017
33	0x3f427b23	0.7596914
34	0x3f2ee4fa	0.6831814
35	0x3f6438d6	0.89149225
36	0x3ed9ccd5	0.42539087
37	0x3f34406a	0.7041079
38	0x3f60e9cd	0.8785675
39	0x3f1f4729	0.62217957
40	0x3ecc114b	0.39856943
41	0x3e84277d	0.25811377
42	0x3f158017	0.58398575
43	0x3eb1bc4b	0.3471397
44	0x3f081707	0.53160137
45	0x3e4a1e77	0.19738184
46	0x3eefc1a0	0.46827412
47	0x3f6438d6	0.89149225
48	0x3f6438d6	0.89149225
49	0x3e8320e3	0.25611028
50	0x3f6438d6	0.89149225
51	0x3f6438d6	0.89149225
52	0x3f6438d6	0.89149225
53	0x3f3a98cb	0.72889394
54	0x3f37b3e8	0.7175889
55	0x3f1dd82b	0.6165797
56	0x3f8095cf	1.0045718
57	0x3e9d7661	0.30754378
58	0x3f6438d6	0.89149225
59	0x3f6438d6	0.89149225
60	0x3f6438d6	0.89149225
61	0x3f3514e0	0.7073498
62	0x3f6438d6	0.89149225
63	0x3f4410d5	0.76588184

ensemble.1.module_list.1.input_quant.pre_transforms.0.bias f4 [64]
0	0x3fa50bc6	1.2894218
1	0xbe4ac14a	-0.19800296
2	0x00000000	0.0
3	0x3f07dbb5	0.5306962
4	0xbf124fec	-0.571532
5	0xbe91c060	-0.28467083
6	0x00000000	0.0
7	0xbebdbcfc	-0.37058246
8	0xbe00f077	-0.1259173
9	0x00000000	0.0
10	0x00000000	0.0
11	0x00000000	0.0
12	0xbf20cd5c	-0.62813354
13	0xbf850992	-1.0393546
14	0x00000000	0.0
15	0x3f8fd2b8	1.1236181
16	0x3ef6329c	0.48085487
17	0x3ef32d19	0.47495344
18	0x3f34e831	0.70666796
19	0x3e1ffeff	0.15624617
20	0x00000000	0.0
21	0xbe47b084	-0.19500929
22	0x00000000	0.0
23	0xbe989c5d	-0.29806796
24	0x3eac1d05	0.3361589
25	0x3ee257ac	0.44207513
26	0xbdf48542	-0.119394794
27	0xbf3cc19c	-0.73732924
28	0x3e466f2d	0.19378348
29	0x3ca93eaf	0.020659773
30	0x3e3f141e	0.18660018
31	0x3e958e30	0.29210043
32	0xbf0b4bd0	-0.54412556
33	0x3f2169ab	0.6305186
34	0xbf5c32ec	-0.860152
35	0x00000000	0.0
36	0xbe6439a6	-0.22287616
37	0x3f7103bc	0.94146323
38	0xbf218f04	-0.6310885
39	0xbf0d5b0c	-0.5521705
40	0xbeae7847	-0.3407614
41	0x3d0150fa	0.031571366
42	0xbf044564	-0.5166838
43	0x3eb8d22b	0.36097845
44	0x3e3503a5	0.17677172
45	0x3e6119e1	0.21982528
46	0x3ec3ba51	0.38228086
47	0x00000000	0.0
48	0x00000000	0.0
49	0x3d1aa09c	0.037750825
50	0x00000000	0.0
51	0x00000000	0.0
52	0x00000000	0.0
53	0x3f52e5e2	0.82382023
54	0xbf133690	-0.5750513
55	0xbec25afc	-0.3796004
56	0x3ee276dd	0.4423131
57	0x3d0aa6af	0.033850368
58	0x00000000	0.0
59	0x00000000	0.0
60	0x00000000	0.0
61	0xbd405930	-0.046960056
62	0x00000000	0.0
63	0xbed20ec4	-0.4102689

ensemble.1.module_list.1.input_quant.pre_transforms.0.running_mean f4 [64]
0	0xbe97474e	-0.2954659
1	0xbdc1b9ad	-0.09459243
2	0x3e68e332	0.22742918
3	0x3f2de39f	0.6792545
4	0x3cc293d6	0.023752134
5	0x3e13981c	0.14413494
6	0x3da68cdb	0.08132335
7	0x3d06ee35	0.032942016
8	0xbdcf788e	-0.10130416
9	0xbe0e7423	-0.1391149
10	0xbe1252e5	-0.14289434
11	0x3e86e979	0.2635
12	0xbefb3332	-0.49062496
13	0xbe3e6188	-0.18591893
14	0xbe2f7e8d	-0.17138119
15	0xbdea9275	-0.11453716
16	0xbc73bec5	-0.014877026
17	0xbe0c899d	-0.1372437
18	0xbec8bcb1	-0.3920646
19	0x3edff87b	0.43744263
20	0xbd8d95f7	-0.06913369
21	0x3dd463aa	0.10370572
22	0xbe0dcc2b	-0.13847415
23	0xbe0e5aab	-0.13901775
24	0xbce92d55	-0.028463999
25	0x3e4e9c43	0.20176797
26	0x3e1c4fe7	0.15264855
27	0xbe54ede3	-0.20793872
28	0x3e9e30bb	0.30896553
29	0xbe31c9c5	-0.17362125
30	0xbe0c7d2b	-0.13719623
31	0xbea565f2	-0.3230434
32	0xbde6bba1	-0.11266256
33	0xbcd5679c	-0.026050381
34	0xbe193efc	-0.14965433
35	0xbe86212d	-0.26197186
36	0x3e88b0ab	0.26697287
37	0x3c9bb636	0.019007783
38	0xbe000c7f	-0.12504767
39	0x3dfec6c5	0.12440256
40	0x3df3b509	0.11899764
41	0x3df2e14a	0.11859377
42	0xbf0580bb	-0.5214955
43	0xbd69ad23	-0.05704988
44	0x3cadbf75	0.021209458
45	0x3d2f55b1	0.04280633
46	0xbe0bb0ed	-0.1364171
47	0x3e1e6c85	0.15471084
48	0x3b68209c	0.0035419827
49	0xbe93be8e	-0.2885632
50	0x3e4fd05b	0.20294325
51	0x3ca323d5	0.019914547
52	0xbd7fb498	-0.062428087
53	0x3f14ccea	0.58125174
54	0x3debac68	0.11507493
55	0xbea951eb	-0.3307031
56	0xbeeaff4d	-0.45897904
57	0xbe9e9329	-0.3097165
58	0xbe4413ea	-0.19148222
59	0xbc157e91	-0.009124414
60	0x3e1f9d69	0.15587391
61	0xbe51850a	-0.20460907
62	0xbe8bb699	-0.27287748
63	0xbef5771d	-0.4794244

ensemble.1.module_list.1.input_quant.pre_transforms.0.running_var f4 [64]
0	0x3cbd0ac6	0.023076426
1	0x3e133395	0.14375146
2	0x3c197cda	0.009368146
3	0x3f88731b	1.0660127
4	0x3c2deda8	0.010615744
5	0x3da2ebc6	0.079551265
6	0x3bf04437	0.0073323506
7	0x3db3cedf	0.08779692
8	0x3d214c40	0.03937936
9	0x3b22f59a	0.0024865628
10	0x3ae622a6	0.0017557933
11	0x3b9cb9f7	0.004782911
12	0x3fcaae03	1.5834354
13	0x3d2b3df6	0.041807137
14	0x3b223545	0.002475099
15	0x3e313ed0	0.17309117
16	0x3d463897	0.048393812
17	0x3d3f017c	0.046632275
18	0x3e77a316	0.24183306
19	0x3d80c218	0.062870204
20	0x3b8774ed	0.0041338117
21	0x3e085dab	0.13316981
22	0x3b379ee5	0.0028018293
23	0x3d70428c	0.058657214
24	0x3d683b83	0.05669738
25	0x3da5e3d6	0.08100097
26	0x3cac80f0	0.021057576
27	0x3c8c5475	0.017130116
28	0x3ce028fa	0.02736329
29	0x3e12ecbf	0.14348124
30	0x3d34fad8	0.044184536
31	0x3d694bbf	0.056957003
32	0x3de0489b	0.109513484
33	0x3de311a4	0.11087349
34	0x3d28cfdc	0.041213855
35	0x39dd0a31	0.00042159998
36	0x3cce3cda	0.0251755
37	0x3bada70d	0.005299455
38	0x3df2b963	0.11851766
39	0x3d3e8cf6	0.04652115
40	0x3d1c570c	0.038168952
41	0x3d40b3f6	0.047046624
42	0x3eb21b58	0.34786487
43	0x3d916a80	0.071003914
44	0x3e9d5425	0.3072826
45	0x3c68c689	0.014207491
46	0x3dad6791	0.08467019
47	0x3be9a46d	0.007130197
48	0x3c3702d5	0.011170109
49	0x3dc17c61	0.094475515
50	0x3a27a33d	0.0006394869
51	0x3ce9fa1a	0.02856164
52	0x3c3c3cb3	0.011489081
53	0x3d34a9b5	0.044107158
54	0x3d08299a	0.0332428
55	0x3d745b36	0.059657298
56	0x3ca2c959	0.0198714
57	0x3d660c35	0.056163985
58	0x3c85229d	0.016251856
59	0x3d33debf	0.0439136
60	0x3c164b9d	0.009173301
61	0x3e24c0e8	0.16089213
62	0x3bea7bcf	0.0071558724
63	0x3f03a699	0.5142608

ensemble.1.module_list.1.fc.weight f4 [32, 64]
0	0xbdd1d1f7	-0.10245126
1	0x3d3b2cdf	0.04569709
2	0xbda429df	-0.08015799
3	0xbd303fbd	-0.043029536
4	0x3df8fb6c	0.1215733
5	0xbd7af3e4	-0.06126775
6	0xbc969440	-0.018381238
7	0x3d9e9015	0.07742325
8	0x3d6ba27f	0.057528015
9	0xbd99b119	-0.07504482
10	0x3d949541	0.072550304
11	0x3cba3c7e	0.022733923
12	0x3c58e576	0.0132383015
13	0x3c1e08be	0.009645639
14	0xbd6194bb	-0.05507348
15	0xbdbd552f	-0.09244763
16	0x3cd14834	0.025547124
17	0x3dc585c0	0.096446514
18	0xbdbb828d	-0.0915576
19	0x3dcb288d	0.09919844
20	0x3d6d919e	0.0580002
21	0x3d961ca0	0.073296785
22	0x3d8b7037	0.06808513
23	0x3dac9787	0.08427339
24	0x3c696ce6	0.014247155
25	0xbe90b5a6	-0.28263587
26	0xbd83be96	-0.06432836
27	0xbdb961fe	-0.09051894
28	0x3babf2c5	0.0052474462
29	0x3c6e7766	0.014554834
30	0x3cb096a0	0.021556199
31	0xbe86a305	-0.2629625
32	0x3d9e5b26	0.07732229
33	0xbd784818	-0.06061563
34	0xbdc83a61	-0.0977676
35	0x3de06c10	0.10958111
36	0x3cd59a80	0.026074648
37	0x3db7bc9d	0.08971522
38	0x3becfc03	0.0072321906
39	0x3dd0f2a0	0.10202527
40	0xbb62a12f	-0.0034580936
41	0xbd35a51b	-0.04434691
42	0x3d5d59cc	0.054040715
43	0x3cac9335	0.021066288
44	0xbd2f78c2	-0.042839773
45	0xbccd8a3b	-0.025090327
46	0x3d4f3e26	0.05059638
47	0x3d9d2f84	0.076750785
48	0xbdb24cbe	-0.08706044
49	0xbd9d71f6	-0.07687752
50	0x3d90360a	0.07041557
51	0x3da432ce	0.08017503
52	0xbc78ced4	-0.01518603
53	0xbd2900f4	-0.041260675
54	0x3d1d7ba8	0.038448006
55	0x3db8d4bf	0.09024953
56	0xbd95a842	-0.07307483
57	0x3cd989ae	0.026554909
58	0x3d7d5bc8	0.061855108
59	0x3cff6c0e	0.031179454
60	0x3dd5e9ce	0.10444985
61	0xbdd48bb7	-0.10378211
62	0x3d82f19f	0.06393742
63	0xbc286741	-0.010278524
64	0xbd614cf5	-0.055005033
65	0x3cd7d4f6	0.026346665
66	0xbcd094d4	-0.025461592
67	0x3dc90003	0.09814455
68	0xbda11bd2	-0.078666344
69	0x3c732f2c	0.01484279
70	0xbd28160c	-0.04103665
71	0x3d7765a5	0.06039967
72	0x3dad59c6	0.084643885
73	0x3d9b65b1	0.075877555
74	0x3d132b82	0.035930164
75	0xbdd260c1	-0.102723606
76	0x3c7684d1	0.015046314
77	0xbd809bad	-0.06279693
78	0x3d0e708e	0.03477531
79	0x3c7f61a0	0.01558724
80	0xbdc05031	-0.09390295
81	0xbda2c0e5	-0.07946948
82	0xbd6694a8	-0.056294113
83	0xbdca26cd	-0.09870682
84	0xbd319498	-0.0433546
85	0xbd2cb1f3	-0.042161893
86	0x3d7fc9f1	0.062448446
87	0x3d5ad8c9	0.0534294
88	0xbdab733e	-0.0837159
89	0xbc76ef84	-0.015071753
90	0x3cd91c15	0.026502648
91	0xbce8e32e	-0.02842864
92	0x3cdcce46	0.026953828
93	0xbc212f20	-0.009837896
94	0xbdc9e877	-0.09858792
95	0x3dbdb8f0	0.0926379
96	0xbda49b57	-0.08037441
97	0xbe7e7c01	-0.24851991
98	0x3c431c07	0.011908538
99	0x3d0b9063	0.034073245
100	0x3d143169	0.036179934
101	0x3cf71626	0.030161928
102	0xbdb76607	-0.08955007
103	0xbdb9be08	-0.09069449
104	0x3dc0f429	0.0942157
105	0xbdbdcffe	-0.09268187
106	0xbd07daa9	-0.033167515
107	0x3d8688d3	0.06569066
108	0x3dadceda	0.084867194
109	0x3e5cdcbc	0.21568578
110	0xbd27305a	-0.040817596
111	0x3d335f1b	0.04379187
112	0x3d441c63	0.047878634
113	0xbeecee7f	-0.46275708
114	0xbd9be5c3	-0.07612183
115	0x3c081ca1	0.008307607
116	0x3dcaa301	0.09894372
117	0xbd161d88	-0.036649257
118	0x3d0e50b1	0.034744922
119	0x3da9baae	0.082875594
120	0x3d825f73	0.06365862
121	0x3d3596ca	0.044333257
122	0xbd0bb37b	-0.034106713
123	0x3d844ba2	0.06459738
124	0xbdd95d73	-0.10613527
125	0x3c01f653	0.007932263
126	0x3c722eb2	0.014781641
127	0xbcd2246d	-0.025652135
128	0x3dd3e4e1	0.103463896
129	0xbdd7bf8f	-0.10534584
130	0xbd90d5f7	-0.070720606
131	0x3dbfdeff	0.09368705
132	0xbcfb7d2f	-0.03069934
133	0x3c9e13cb	0.019296547
134	0x3c35dd17	0.011100075
135	0x3dbb5a48	0.09148079
136	0x3ac54bde	0.0015052517
137	0xbd0a402e	-0.033752613
138	0xbd2a7e4e	-0.04162436
139	0xbd130239	-0.03589079
140	0xbd9f7eb3	-0.07787838
141	0x3d2099e2	0.039209254
142	0xbbe32c6f	-0.006932787
143	0xbd908c4d	-0.0705801
144	0xbcf6e11d	-0.03013664
145	0xbcc0622a	-0.023484308
146	0x3d18d5fb	0.037313443
147	0xbd9d2b4c	-0.07674274
148	0x3ddd6f2d	0.10812221
149	0xbdd28cc6	-0.10280757
150	0x3dde2874	0.108475596
151	0x3a7831c0	0.00094678625
152	0x3d2d446e	0.042301588
153	0x3d1a8a93	0.03772981
154	0xbdc3d01c	-0.09561178
155	0xbdcd5b7f	-0.10027217
156	0x3c90723f	0.017632602
157	0xbccd4688	-0.025058046
158	0xbd4c9365	-0.049945254
159	0xbd466c61	-0.048443202
160	0xbd989981	-0.074511535
161	0x3d43ee6f	0.04783481
162	0xbdb91f56	-0.0903918
163	0xbd64f642	-0.055898912
164	0x3e3455c4	0.17610842
165	0x3d40d925	0.047082085
166	0xbd263347	-0.040576246
167	0xbdda7758	-0.10667294
168	0x3d5cfe9d	0.053953756
169	0xbe94f9b6	-0.29096764
170	0xbd5c48ce	-0.05378037
171	0x3dc854ab	0.09781774
172	0xbd6411a6	-0.055680893
173	0x3d9e5e9a	0.077328876
174	0x3e8fd364	0.28090966
175	0xbdb64329	-0.088995285
176	0x3ceb5c43	0.028730517
177	0xbd6a71d6	-0.05723747
178	0xbcf9ec16	-0.030508082
179	0x3b6a46e9	0.0035747832
180	0xbda4beb3	-0.080441855
181	0x3d2e4892	0.042549677
182	0x3da07f0d	0.07836733
183	0xbcc18883	-0.023624664
184	0x3d515dd9	0.05111489
185	0xbdc8fe4a	-0.09814127
186	0x3c31c761	0.010850758
187	0xbd6e4189	-0.058167968
188	0x3b5a10b0	0.0033274107
189	0xbd166d38	-0.036725253
190	0xbd779b3a	-0.06045077
191	0xbce3a705	-0.027789602
192	0xbdd1fbaa	-0.10253079
193	0xbe54f7a1	-0.20797588
194	0xbd517c27	-0.05114379
195	0x3ddd8911	0.10817159
196	0xbd645b04	-0.05575086
197	0xbb3cee94	-0.0028828727
198	0xbd028197	-0.031861868
199	0xbdb3bb6e	-0.08775984
200	0x3d017d31	0.031613532
201	0xbda81860	-0.08207774
202	0x3d2deeda	0.042464115
203	0xbd393869	-0.045219813
204	0x3d49cf20	0.049269795
205	0x3d961c20	0.07329583
206	0x3daf95c1	0.08573485
207	0x3dd6e655	0.10493151
208	0x3e7d83cb	0.24757306
209	0xbde213a9	-0.11038906
210	0xbd149a47	-0.036279943
211	0xbddc7c3c	-0.10765883
212	0x3c97c749	0.018527644
213	0xbdce6698	-0.10078162
214	0xbc94bc7f	-0.018156288
215	0x3dbc2a04	0.09187701
216	0xbb7efc25	-0.0038907614
217	0x3af9ea8e	0.0019067095
218	0x3dd3c579	0.10340399
219	0xbd621bf7	-0.05520245
220	0xbdd39ad2	-0.10332264
221	0x3d71fded	0.059080053
222	0x3d9b2fba	0.075774625
223	0xbc1902d1	-0.00933905
224	0xbdb49725	-0.08817891
225	0x3cc4b897	0.0240138
226	0x3d0bd347	0.034137037
227	0xbd9e6d92	-0.07735743
228	0xbd4e9c69	-0.050442133
229	0x3a2562eb	0.00063089904
230	0x3d87398d	0.06602774
231	0xba10472f	-0.0005503771
232	0x3ea73ff5	0.32665983
233	0x3dd67f60	0.104735136
234	0x3ce6e070	0.028183192
235	0xbd8b8e55	-0.06814257
236	0xbd5d4648	-0.054022104
237	0xbcf01a5f	-0.02930945
238	0x3c204123	0.009781155
239	0xbd8c4101	-0.06848336
240	0xbdd96a84	-0.10616019
241	0xbd085861	-0.03328741
242	0xbda5a919	-0.080888934
243	0x3d17a0c3	0.03701855
244	0xbd7278b0	-0.059197128
245	0xbd095d17	-0.033536043
246	0x3d4238f8	0.04741761
247	0x3cbd9fc1	0.023147466
248	0x3aa1b3ac	0.0012336872
249	0x3d81c439	0.063362546
250	0xbda222d8	-0.07916802
251	0x3cee77aa	0.029109795
252	0x3c070db1	0.00824301
253	0xbdda489a	-0.10658379
254	0x3d06a6de	0.03287398
255	0xbd9909a2	-0.074725404

ensemble.1.module_list.1.fc.bias f4 [32]
0	0x3e13b165	0.1442314
1	0x3df35301	0.11881066
2	0x3e8b6363	0.27224264
3	0xbe08332a	-0.13300768
4	0xbdff25de	-0.124583945
5	0x3dad2b90	0.084555745
6	0x3d6c8f37	0.057753768
7	0x3dffff52	0.1249987
8	0xbe327e6f	-0.17431043
9	0x3dd72005	0.10504154
10	0xbc772cab	-0.015086333
11	0xbde24e81	-0.1105013
12	0xbe357651	-0.17720915
13	0xbde6c8f8	-0.112688005
14	0x3e3eca7d	0.1863193
15	0xbd3dc6e8	-0.04633227
16	0x3db2e8bf	0.08735799
17	0xbddea2d4	-0.10870901
18	0x3de70f7b	0.112822495
19	0x3a98999d	0.001164246
20	0x3e286b61	0.16447212
21	0xbd461a87	-0.048365142
22	0xbdb9c076	-0.09069912
23	0xbd8d6ea6	-0.0690587
24	0x3e4f941b	0.20271342
25	0xbd2543c7	-0.04034784
26	0xbe07abeb	-0.13249175
27	0xbc9f3e20	-0.019438803
28	0x3e6b0cbf	0.22954081
29	0xbd8e7d2a	-0.06957467
30	0xbd295915	-0.04134472
31	0x3e63833c	0.2221803
