examples/jet_substructure/test_runs/avg_refactor/averaging_small_ensemble_size2_test/checkpoint.pth (torch, 349171 bytes, 198 tensors)

ensemble.0.module_list.0.input_quant.pre_transforms.0.weight f4 [16]
0	0x3f3eddb6	0.74557054
1	0x3f820f08	1.0160837
2	0x3fb52495	1.4151789
3	0x3fc27406	1.5191658
4	0x3f50bc62	0.8153745
5	0x3f8d8539	1.1056281
6	0x3f8295b2	1.0201933
7	0x3f566eaa	0.8376261
8	0x3f84ea46	1.0383995
9	0x3f8e34aa	1.1109822
10	0x3f660852	0.89856446
11	0x3f55f679	0.8357921
12	0x3f468a7d	0.77555066
13	0x3f73b50d	0.95198137
14	0x3ffff3b9	1.9996253
15	0x3f93a20e	1.153383

ensemble.0.module_list.0.input_quant.pre_transforms.0.bias f4 [16]
0	0x3d67b595	0.056569654
1	0x3e3591f5	0.1773146
2	0xbbbfe570	-0.0058562085
3	0x3c150d79	0.00909745
4	0xbe1aba04	-0.15110022
5	0x3e08eea0	0.13372278
6	0xbd042ea4	-0.032271042
7	0x3e0ef620	0.13961077
8	0xbc8e0874	-0.017338015
9	0xbe491034	-0.19635087
10	0x3dff570f	0.12467777
11	0xbaf6da8f	-0.0018833446
12	0x3d7f1a12	0.062280722
13	0x3d14039c	0.036136255
14	0xbce3ee9a	-0.027823735
15	0xbe1358cc	-0.14389342

ensemble.0.module_list.0.input_quant.pre_transforms.0.running_mean f4 [16]
0	0x3c4f597e	0.012655614
1	0xbc2e0695	-0.0106216865
2	0xbc2b11a3	-0.010441217
3	0xbc13ff5e	-0.009033052
4	0xbc435f4d	-0.011924577
5	0xbbca860f	-0.006180532
6	0xbc359943	-0.011083904
7	0xbc296afb	-0.010340448
8	0xbc359943	-0.011083904
9	0xbbddaa91	-0.006764718
10	0xbb4ea278	-0.0031529944
11	0xba0d5373	-0.0005391158
12	0xbbe64171	-0.007026844
13	0xbb63cd53	-0.0034759834
14	0xbc242cfc	-0.010020491
15	0xbc40f287	-0.011776573

ensemble.0.module_list.0.input_quant.pre_transforms.0.running_var f4 [16]
0	0x3f806134	1.0029664
1	0x3f81fb9c	1.015491
2	0x3f7e8980	0.9942856
3	0x3f7c3907	0.98524517
4	0x3f803627	1.0016526
5	0x3f81c7ce	1.01391
6	0x3f8105d2	1.0079901
7	0x3f7dd00c	0.9914558
8	0x3f8105d2	1.0079901
9	0x3f808520	1.0040627
10	0x3f80d40a	1.0064709
11	0x3f8188ed	1.0119911
12	0x3f817800	1.0114746
13	0x3f812f38	1.0092535
14	0x3f7fe046	0.9995159
15	0x3f814ac7	1.0100945

ensemble.0.module_list.0.fc.weight f4 [64, 16]
0	0xbdd0bc0c	-0.10192117
1	0x3e7dea9e	0.2479653
2	0xbe227158	-0.1586355
3	0xbe663bee	-0.22483799
4	0x3e6b4364	0.22974926
5	0xbc9b68a4	-0.018970795
6	0xbd1e8bf6	-0.038707696
7	0xbdf2ea40	-0.11861086
8	0xbde553ea	-0.11197646
9	0xbe24ec78	-0.1610583
10	0xbbe615a6	-0.0070216237
11	0xbdce51b4	-0.100741774
12	0x3e7e5678	0.24837673
13	0xbcf1fa00	-0.029538155
14	0x3d7153a8	0.05891767
15	0xbe1905e8	-0.1494366
16	0x3c2c1d7e	0.010505078
17	0xbd4ca4e1	-0.04996193
18	0x3a63d5a6	0.0008691199
19	0xbe0a90e0	-0.13531828
20	0xbd848a12	-0.06471647
21	0x3c931f35	0.017959217
22	0x3e17c092	0.14819553
23	0xbd3846e8	-0.044989496
24	0x3e356620	0.17714739
25	0x3e65195c	0.22372955
26	0xbe4a721c	-0.19770092
27	0xbb29acbe	-0.0025890316
28	0xbda8b1de	-0.082370505
29	0x3e4ae578	0.19814098
30	0xbe0729b0	-0.13199496
31	0x3da978b6	0.08274977
32	0xbe5b7c02	-0.21434024
33	0xbdafd2ef	-0.08585154
34	0x3e487b14	0.195782
35	0xbe7b84ac	-0.24562329
36	0x3d5f183e	0.05446648
37	0x3d99adc0	0.07503843
38	0x3bbee432	0.005825543
39	0xbdc13020	-0.09433007
40	0xbe01533c	-0.12629408
41	0xbe44dd1a	-0.19224969
42	0xbe1d5190	-0.15363145
43	0xbd757a30	-0.05993098
44	0x3e971ff9	0.2951658
45	0xbdc85682	-0.09782125
46	0x3c1426a4	0.009042416
47	0xbd9abd60	-0.07555652
48	0x3cc3d8f2	0.023907159
49	0x3e72812c	0.23682088
50	0xbdc8b59f	-0.098002665
51	0xbe2b25b6	-0.16713604
52	0xbe5c75f0	-0.21529365
53	0xbdec2d80	-0.11532116
54	0x3e5ec1ac	0.21753567
55	0xbde790c2	-0.11306907
56	0xbe4bd239	-0.19904412
57	0x3cf617d4	0.030040659
58	0x3c715a40	0.01473099
59	0x3e73437e	0.23756215
60	0x3d45f9ba	0.04833386
61	0x3cc8b982	0.02450252
62	0xbe52d512	-0.20589092
63	0xbda26b1e	-0.07930587
64	0xbd006eba	-0.031355597
65	0xbbc70a72	-0.006074243
66	0x3d918fa4	0.071074754
67	0x3de939f2	0.11388005
68	0x3bfa009a	0.0076294662
69	0x3cfac5fa	0.03061198
70	0x3d53ca04	0.05170633
71	0x3e66f052	0.22552612
72	0xbcbb9c58	-0.022901699
73	0x3e4d1864	0.20028836
74	0xbe705f8c	-0.23473948
75	0x3dbe922a	0.09305222
76	0x371e2750	9.426687e-06
77	0xbe41d21d	-0.18927808
78	0x3dcdb814	0.10044876
79	0x3de3cee6	0.11123447
80	0xbe005318	-0.12531698
81	0xbddc7312	-0.107641354
82	0x3ddc7fe6	0.10766582
83	0x3de31e6a	0.110897854
84	0xbe3cce55	-0.18438084
85	0xbddba2ff	-0.107244484
86	0xbcc2d9f2	-0.023785565
87	0x3e411c8a	0.18858543
88	0x3e282e94	0.16424018
89	0xbdede30b	-0.11615571
90	0xbd8a34da	-0.06748362
91	0xbcac3eae	-0.021025982
92	0xbe7d47d4	-0.24734432
93	0x3c166404	0.009179119
94	0x3e45ea5c	0.19327682
95	0x3e6ccacc	0.23124236
96	0x3d2cb036	0.042160235
97	0x3db4dd00	0.08831215
98	0x3cf2d6b0	0.029643387
99	0x3da3bd6a	0.07995112
100	0x3d4f018c	0.050538585
101	0x3e168384	0.14698607
102	0x3e2d1749	0.16903414
103	0xbb9f873c	-0.004868416
104	0xbe7919b4	-0.24326211
105	0xbe68557a	-0.22688857
106	0x386b63b3	5.612122e-05
107	0xbe173a90	-0.14768434
108	0xbdc8965a	-0.09794302
109	0xbe05dd1c	-0.13072628
110	0xbe02b6cc	-0.12765044
111	0x3e5f77a0	0.21822977
112	0xbd91df38	-0.07122654
113	0x3cc6c232	0.024262521
114	0xbe1671a0	-0.14691782
115	0xbe388531	-0.18019558
116	0xbcc1c1b9	-0.023651944
117	0xbe4d44c6	-0.20045766
118	0xbe8399f6	-0.257034
119	0xbd0c306a	-0.03422586
120	0x3df25b60	0.11833835
121	0x3d613086	0.054977916
122	0x3e540c64	0.20707852
123	0x3e5e7c5c	0.21727127
124	0x3e12c460	0.14332724
125	0x3da0726a	0.07834323
126	0xbdfef64e	-0.12449323
127	0x3e37eac8	0.17960656
128	0x3dd5e464	0.10443953
129	0xbe71ee70	-0.23626113
130	0x3e3ba2bc	0.18323797
131	0xbe510e6e	-0.2041566
132	0x3e3fc7e8	0.18728602
133	0x3e548786	0.20754823
134	0x3dd940a0	0.10608029
135	0xbe615aca	-0.2200729
136	0x3d81d03a	0.06338544
137	0x3d392488	0.045200855
138	0x3d7f49fa	0.06232641
139	0xbc36feb8	-0.011169128
140	0xbe238d96	-0.1597198
141	0xbde94e77	-0.11391919
142	0xbd3ad768	-0.045615584
143	0x3da7d592	0.08195032
144	0x3e75e0fe	0.24011609
145	0xbd812de6	-0.063075826
146	0xbda6344a	-0.08115442
147	0x3d7691c8	0.06019762
148	0xbe5f1c7c	-0.2178821
149	0x3e0342e2	0.12818483
150	0xbdff02f2	-0.12451734
151	0xbe317de0	-0.17333174
152	0xbe63d6c6	-0.22249898
153	0x3e527d86	0.20555696
154	0x3e74243a	0.23841944
155	0x3de9f478	0.11423582
156	0xbd7d7b02	-0.061884888
157	0x3e55d9c0	0.20883846
158	0xbd262696	-0.040564142
159	0xbdc9778a	-0.098372534
160	0xbd87e326	-0.06635122
161	0x3e696420	0.22792101
162	0xbe4877e4	-0.19576985
163	0xbe76ef86	-0.24114808
164	0x3ddd3cbf	0.10802602
165	0x3e4b8f94	0.1987899
166	0xbe5720ac	-0.21008557
167	0xbe24e066	-0.16101226
168	0xbd6abda9	-0.05730978
169	0x3da7f23e	0.08200501
170	0x3e2d102e	0.16900703
171	0xbe000830	-0.12503123
172	0xbdeb5b69	-0.114920445
173	0x3d52e66c	0.05148928
174	0x3e3c66d2	0.18398598
175	0xbc2f3cd8	-0.010695659
176	0xbd30d2b8	-0.043169707
177	0xbd5dac4b	-0.05411939
178	0x3e70e310	0.23524117
179	0xbe315d48	-0.1732074
180	0xbe351eea	-0.17687574
181	0x3e6382b2	0.22217825
182	0x3cdaddf6	0.026717167
183	0xbe042a7c	-0.12906832
184	0xbe75b63a	-0.23995295
185	0xbd187b9c	-0.037227258
186	0x3c733fe0	0.014846772
187	0xbcb7fc08	-0.022459045
188	0x3cf39430	0.029733747
189	0x3e435457	0.19075142
190	0x3e7ea33c	0.24866956
191	0x3d362c98	0.04447612
192	0xbdd41c60	-0.103569746
193	0xbd848e52	-0.06472458
194	0xbe715179	-0.23566236
195	0xbcca71f2	-0.024712536
196	0x3e317cd4	0.17332774
197	0x3e0cf150	0.13763928
198	0xbe425f38	-0.18981636
199	0x3e46eafe	0.1942558
200	0xbd164464	-0.036686316
201	0xbd76e7b8	-0.060279578
202	0x3e38dfce	0.18054125
203	0x3db69eec	0.08917031
204	0xbda26eeb	-0.07931312
205	0xbe7082f8	-0.2348746
206	0xbe3a09a2	-0.18167737
207	0x3e54e7b0	0.20791507
208	0xbe03be6a	-0.12865606
209	0x3dfd8d8a	0.12380512
210	0xbdb2aec0	-0.08724737
211	0x3e42db26	0.19028911
212	0x3e37984c	0.1792919
213	0xbcfe09ee	-0.031010594
214	0xbe189044	-0.14898783
215	0x3de010d6	0.10940711
216	0x3e1702a0	0.14747095
217	0xbde06f92	-0.1095878
218	0xbd90bc4c	-0.07067165
219	0x3e1f0d52	0.15532425
220	0x3e71e9aa	0.23624292
221	0xbe07df74	-0.13268834
222	0x3d91a124	0.07110813
223	0x3e1f9326	0.15583476
224	0x3e47c3f6	0.19508347
225	0x3d36d210	0.044633925
226	0x3e5d459e	0.21608588
227	0xbe619c26	-0.22032222
228	0xbe7274c0	-0.23677349
229	0x3daa9481	0.08329106
230	0xbd4b2b57	-0.04960188
231	0x3ca10405	0.019655237
232	0x3d5fa42e	0.054599933
233	0x3c8dce6a	0.01731034
234	0xbe14b97c	-0.14523882
235	0xbcf0e1f0	-0.02940461
236	0x3ccab932	0.024746511
237	0x3d4e73dc	0.05040346
238	0xbdc3e292	-0.09564699
239	0x3e160250	0.1464932
240	0xbd9918f4	-0.074754626
241	0x3d025ce6	0.031826876
242	0x3cbdb4d2	0.02315751
243	0x3e61029e	0.21973655
244	0x3cd1fe1c	0.025633864
245	0xbe49334a	-0.19648471
246	0x3ca60d5e	0.020270046
247	0x3e2127e4	0.15737873
248	0x3e03ec7c	0.1288318
249	0x3e31a458	0.17347848
250	0xbd196eb4	-0.03745909
251	0x3d554944	0.052071825
252	0x3b01794a	0.0019756132
253	0xbdf33275	-0.11874858
254	0xbda5077a	-0.08058067
255	0x3ead7dfc	0.3388518

ensemble.0.module_list.0.fc.bias f4 [64]
0	0x3d834a78	0.06410688
1	0x3da9215a	0.082583144
2	0xbcae7278	-0.021294817
3	0x3dbfdcd6	0.09368293
4	0xbd406f72	-0.046981283
5	0x3e0d2c63	0.13786463
6	0xbe035974	-0.12827092
7	0xbb8b57d9	-0.0042524156
8	0x3e55875c	0.20852417
9	0xbdd37568	-0.10325128
10	0xbe36b6d2	-0.17843178
11	0xbdb4ccc3	-0.08828118
12	0xbd020ec2	-0.031752355
13	0xbe5f79b4	-0.2182377
14	0x3e72b19a	0.23700562
15	0x3db0b3c2	0.08628036
16	0xbe09e180	-0.13464928
17	0x3e115591	0.14192797
18	0x3e139296	0.14411387
19	0x3cb708ae	0.022343006
20	0xbe4be6f8	-0.19912326
21	0xbe2586b6	-0.1616467
22	0xbe0858cd	-0.13315125
23	0xbe24f932	-0.16110685
24	0x3dfba6eb	0.122876965
25	0x3d80d8a6	0.062913224
26	0xbe204362	-0.15650705
27	0xbd1cbe51	-0.038267437
28	0x3e322e1e	0.17400405
29	0x3e17abf7	0.14811693
30	0xbe6bd774	-0.23031408
31	0xbe7a5eba	-0.24450198
32	0x3e1a560f	0.15071891
33	0xbe228fc5	-0.15875156
34	0xbdc10fe4	-0.09426859
35	0x3e6dc4a2	0.2321954
36	0xbe5ce01e	-0.21569869
37	0xbda486f8	-0.08033556
38	0x3ca718a0	0.020397484
39	0x3d30077b	0.042975884
40	0xbdcf2c29	-0.10115845
41	0xbd9f130f	-0.07767307
42	0xbdfeac8c	-0.124352545
43	0xbdaf484d	-0.08558712
44	0xbe2e2956	-0.17007956
45	0x3cb3f362	0.02196664
46	0xbe082180	-0.13294029
47	0xbda7f2b6	-0.0820059
48	0xbe74ff02	-0.23925403
49	0xbd1e9e8f	-0.038725432
50	0x3e1170ac	0.14203137
51	0xbe06e1ee	-0.13172123
52	0x3dae8311	0.08521093
53	0xbe8137f1	-0.25237992
54	0x3d15855e	0.036504142
55	0x3dc73e24	0.09728649
56	0xbdeaa88c	-0.11457929
57	0x3de28c5c	0.11061928
58	0x3c9935c0	0.018702388
59	0xbe7559f9	-0.23960103
60	0x3e706bf8	0.23478687
61	0xbe21ab1c	-0.1578793
62	0x3e05ee0a	0.13079086
63	0xbcc95650	-0.02457729

ensemble.0.module_list.0.fc.mask.mask f4 [64, 16]
0	0x00000000	0.0
1	0x3f800000	1.0
2	0x00000000	0.0
3	0x00000000	0.0
4	0x00000000	0.0
5	0x00000000	0.0
6	0x00000000	0.0
7	0x00000000	0.0
8	0x3f800000	1.0
9	0x00000000	0.0
10	0x00000000	0.0
11	0x00000000	0.0
12	0x00000000	0.0
13	0x3f800000	1.0
14	0x00000000	0.0
15	0x00000000	0.0
16	0x00000000	0.0
17	0x3f800000	1.0
18	0x00000000	0.0
19	0x00000000	0.0
20	0x00000000	0.0
21	0x3f800000	1.0
22	0x00000000	0.0
23	0x00000000	0.0
24	0x00000000	0.0
25	0x00000000	0.0
26	0x00000000	0.0
27	0x00000000	0.0
28	0x00000000	0.0
29	0x00000000	0.0
30	0x00000000	0.0
31	0x3f800000	1.0
32	0x00000000	0.0
33	0x3f800000	1.0
34	0x00000000	0.0
35	0x00000000	0.0
36	0x00000000	0.0
37	0x00000000	0.0
38	0x00000000	0.0
39	0x3f800000	1.0
40	0x00000000	0.0
41	0x00000000	0.0
42	0x00000000	0.0
43	0x00000000	0.0
44	0x3f800000	1.0
45	0x00000000	0.0
46	0x00000000	0.0
47	0x00000000	0.0
48	0x00000000	0.0
49	0x00000000	0.0
50	0x3f800000	1.0
51	0x00000000	0.0
52	0x00000000	0.0
53	0x00000000	0.0
54	0x00000000	0.0
55	0x00000000	0.0
56	0x3f800000	1.0
57	0x3f800000	1.0
58	0x00000000	0.0
59	0x00000000	0.0
60	0x00000000	0.0
61	0x00000000	0.0
62	0x00000000	0.0
63	0x00000000	0.0
64	0x00000000	0.0
65	0x00000000	0.0
66	0x00000000	0.0
67	0x00000000	0.0
68	0x00000000	0.0
69	0x00000000	0.0
70	0x00000000	0.0
71	0x00000000	0.0
72	0x00000000	0.0
73	0x00000000	0.0
74	0x00000000	0.0
75	0x00000000	0.0
76	0x3f800000	1.0
77	0x3f800000	1.0
78	0x3f800000	1.0
79	0x00000000	0.0
80	0x00000000	0.0
81	0x00000000	0.0
82	0x00000000	0.0
83	0x00000000	0.0
84	0x3f800000	1.0
85	0x3f800000	1.0
86	0x00000000	0.0
87	0x00000000	0.0
88	0x00000000	0.0
89	0x3f800000	1.0
90	0x00000000	0.0
91	0x00000000	0.0
92	0x00000000	0.0
93	0x00000000	0.0
94	0x00000000	0.0
95	0x00000000	0.0
96	0x00000000	0.0
97	0x00000000	0.0
98	0x00000000	0.0
99	0x00000000	0.0
100	0x00000000	0.0
101	0x00000000	0.0
102	0x00000000	0.0
103	0x3f800000	1.0
104	0x00000000	0.0
105	0x00000000	0.0
106	0x3f800000	1.0
107	0x00000000	0.0
108	0x00000000	0.0
109	0x00000000	0.0
110	0x3f800000	1.0
111	0x00000000	0.0
112	0x00000000	0.0
113	0x00000000	0.0
114	0x00000000	0.0
115	0x3f800000	1.0
116	0x3f800000	1.0
117	0x00000000	0.0
118	0x3f800000	1.0
119	0x00000000	0.0
120	0x00000000	0.0
121	0x00000000	0.0
122	0x00000000	0.0
123	0x00000000	0.0
124	0x00000000	0.0
125	0x00000000	0.0
126	0x00000000	0.0
127	0x00000000	0.0
128	0x00000000	0.0
129	0x00000000	0.0
130	0x00000000	0.0
131	0x00000000	0.0
132	0x3f800000	1.0
133	0x00000000	0.0
134	0x00000000	0.0
135	0x00000000	0.0
136	0x00000000	0.0
137	0x00000000	0.0
138	0x00000000	0.0
139	0x00000000	0.0
140	0x3f800000	1.0
141	0x00000000	0.0
142	0x00000000	0.0
143	0x3f800000	1.0
144	0x3f800000	1.0
145	0x00000000	0.0
146	0x00000000	0.0
147	0x00000000	0.0
148	0x00000000	0.0
149	0x00000000	0.0
150	0x00000000	0.0
151	0x00000000	0.0
152	0x00000000	0.0
153	0x00000000	0.0
154	0x00000000	0.0
155	0x3f800000	1.0
156	0x00000000	0.0
157	0x00000000	0.0
158	0x3f800000	1.0
159	0x00000000	0.0
160	0x00000000	0.0
161	0x00000000	0.0
162	0x00000000	0.0
163	0x00000000	0.0
164	0x3f800000	1.0
165	0x00000000	0.0
166	0x00000000	0.0
167	0x00000000	0.0
168	0x3f800000	1.0
169	0x00000000	0.0
170	0x00000000	0.0
171	0x00000000	0.0
172	0x3f800000	1.0
173	0x00000000	0.0
174	0x00000000	0.0
175	0x00000000	0.0
176	0x00000000	0.0
177	0x3f800000	1.0
178	0x00000000	0.0
179	0x00000000	0.0
180	0x3f800000	1.0
181	0x00000000	0.0
182	0x00000000	0.0
183	0x00000000	0.0
184	0x00000000	0.0
185	0x00000000	0.0
186	0x00000000	0.0
187	0x00000000	0.0
188	0x00000000	0.0
189	0x3f800000	1.0
190	0x00000000	0.0
191	0x00000000	0.0
192	0x00000000	0.0
193	0x00000000	0.0
194	0x3f800000	1.0
195	0x00000000	0.0
196	0x00000000	0.0
197	0x00000000	0.0
198	0x00000000	0.0
199	0x3f800000	1.0
200	0x00000000	0.0
201	0x00000000	0.0
202	0x00000000	0.0
203	0x00000000	0.0
204	0x3f800000	1.0
205	0x00000000	0.0
206	0x00000000	0.0
207	0x00000000	0.0
208	0x00000000	0.0
209	0x00000000	0.0
210	0x00000000	0.0
211	0x00000000	0.0
212	0x00000000	0.0
213	0x3f800000	1.0
214	0x3f800000	1.0
215	0x00000000	0.0
216	0x00000000	0.0
217	0x00000000	0.0
218	0x00000000	0.0
219	0x00000000	0.0
220	0x00000000	0.0
221	0x3f800000	1.0
222	0x00000000	0.0
223	0x00000000	0.0
224	0x00000000	0.0
225	0x00000000	0.0
226	0x00000000	0.0
227	0x00000000	0.0
228	0x00000000	0.0
229	0x3f800000	1.0
230	0x3f800000	1.0
231	0x3f800000	1.0
232	0x00000000	0.0
233	0x00000000	0.0
234	0x00000000	0.0
235	0x00000000	0.0
236	0x00000000	0.0
237	0x00000000	0.0
238	0x00000000	0.0
239	0x00000000	0.0
240	0x00000000	0.0
241	0x3f800000	1.0
242	0x00000000	0.0
243	0x00000000	0.0
244	0x00000000	0.0
245	0x00000000	0.0
246	0x00000000	0.0
247	0x00000000	0.0
248	0x00000000	0.0
249	0x00000000	0.0
250	0x00000000	0.0
251	0x00000000	0.0
252	0x00000000	0.0
253	0x3f800000	1.0
254	0x00000000	0.0
255	0x3f800000	1.0

ensemble.0.module_list.0.output_quant.pre_transforms.0.weight f4 [64]
0	0x3f7f999a	0.9984375
1	0x3f88aff1	1.0678693
2	0x3f8870a7	1.0659379
3	0x3f803a5a	1.0017807
4	0x3f8e09ea	1.1096776
5	0x3f8718f4	1.055449
6	0x3f94905a	1.1606553
7	0x3f8fcf3e	1.123512
8	0x3f854c3d	1.0413891
9	0x3f7f999a	0.9984375
10	0x3f91d8c4	1.1394277
11	0x3f82a4d4	1.0206552
12	0x3f8bc7ee	1.0920389
13	0x3f731aa7	0.94962543
14	0x3f7502b1	0.9570723
15	0x3f87c201	1.060608
16	0x3f8c0dd4	1.094172
17	0x3f603119	0.8757492
18	0x3f7f999a	0.9984375
19	0x3f91f339	1.1402351
20	0x3f83d0c6	1.0298088
21	0x3f914dd6	1.1351879
22	0x3f75623b	0.9585301
23	0x3f895364	1.0728574
24	0x3f8cdc66	1.100476
25	0x3f8cc6ae	1.0998132
26	0x3f771fd7	0.9653296
27	0x3f76defe	0.9643401
28	0x3f7f999a	0.9984375
29	0x3f8461c9	1.0342342
30	0x3f7f999a	0.9984375
31	0x3f7f999a	0.9984375
32	0x3f6f8e34	0.9357636
33	0x3f720b1f	0.9454822
34	0x3f8b69da	1.0891678
35	0x3f7f999a	0.9984375
36	0x3f8479e9	1.0349704
37	0x3f7f999a	0.9984375
38	0x3f7f999a	0.9984375
39	0x3f86fd72	1.0546095
40	0x3f8fbd54	1.1229653
41	0x3f81dc41	1.0145341
42	0x3f7f999a	0.9984375
43	0x3f776cbc	0.9665029
44	0x3f7f999a	0.9984375
45	0x3f771fd4	0.9653294
46	0x3f93b135	1.1538454
47	0x3f8c4163	1.0957454
48	0x3f8adbee	1.0848367
49	0x3f85975c	1.0436816
50	0x3f7f999a	0.9984375
51	0x3f810c7e	1.0081937
52	0x3f7f09e0	0.99624443
53	0x3f8a5983	1.0808567
54	0x3f918d37	1.137122
55	0x3f82c833	1.0217346
56	0x3f7f999a	0.9984375
57	0x3f800894	1.0002618
58	0x3f7f999a	0.9984375
59	0x3f803018	1.0014677
60	0x3f7f999a	0.9984375
61	0x3f704ad7	0.93864197
62	0x3f8852dd	1.0650288
63	0x3f7f999a	0.9984375

ensemble.0.module_list.0.output_quant.pre_transforms.0.bias f4 [64]
0	0x00000000	0.0
1	0x3d3c5782	0.04598189
2	0x3ba855d7	0.005137186
3	0x3ca5d710	0.020244151
4	0x3e0cb0e4	0.13739353
5	0x3d5bed8d	0.053693343
6	0x3e057a93	0.1303504
7	0x3e57381f	0.21017502
8	0xbd089d0d	-0.0333529
9	0x00000000	0.0
10	0x3a476f54	0.0007607837
11	0x3d61ed32	0.055157848
12	0x3d90244d	0.07038174
13	0xbd261953	-0.040551495
14	0xbca18767	-0.019717885
15	0xbd927176	-0.07150547
16	0x3e197fca	0.14990154
17	0x3b953c37	0.0045542973
18	0x00000000	0.0
19	0x3e147e5c	0.14501327
20	0x3de2ed5a	0.110804275
21	0x3e0bef20	0.13665438
22	0xbd362d9e	-0.044477098
23	0x3d647fc5	0.055785913
24	0xbdffea9d	-0.12495921
25	0x3e4c0546	0.19923887
26	0x3b65faa7	0.0035092027
27	0xbb82aecc	-0.0039881226
28	0x00000000	0.0
29	0xbd03b596	-0.032155596
30	0x00000000	0.0
31	0x00000000	0.0
32	0x3d2865a1	0.041112546
33	0xbd32db58	-0.043666214
34	0x3e1a3e04	0.1506272
35	0x00000000	0.0
36	0x3e13011a	0.14355889
37	0x00000000	0.0
38	0x00000000	0.0
39	0x3c39496b	0.011309008
40	0x3e312adb	0.17301504
41	0xbd6b770b	-0.057486575
42	0x00000000	0.0
43	0xbc13c6c3	-0.009019556
44	0x00000000	0.0
45	0x3ade679d	0.0016968135
46	0x3e49560a	0.19661728
47	0x3e0027e3	0.12515216
48	0x3e13017d	0.14356036
49	0x3de89625	0.11356763
50	0x00000000	0.0
51	0x3d319e31	0.043363754
52	0xbc6163fd	-0.013756749
53	0xbe261ded	-0.16222353
54	0x3c730a3b	0.014833982
55	0x3d503b18	0.050837606
56	0x00000000	0.0
57	0xbb255d72	-0.00252327
58	0x00000000	0.0
59	0xbdf715a4	-0.120646745
60	0x00000000	0.0
61	0x3c061367	0.008183337
62	0xbcc75e8d	-0.024337078
63	0x00000000	0.0

ensemble.0.module_list.0.output_quant.pre_transforms.0.running_mean f4 [64]
0	0x3dc8b409	0.09799964
1	0x3d3eb62d	0.046560455
2	0xbd58755d	-0.0528463
3	0x3e2a3973	0.16623478
4	0xbcb26b7a	-0.021779764
5	0x3e94232d	0.28933087
6	0xbdd010fd	-0.1015949
7	0x3e1ae643	0.151269
8	0x3e0a6e03	0.13518529
9	0xbe3e4165	-0.18579634
10	0xbe3dead5	-0.18546613
11	0xbd7c8375	-0.061648805
12	0xbb1421ab	-0.0022603075
13	0xbe0782eb	-0.13233535
14	0x3e573d25	0.21019419
15	0xbb57b464	-0.0032913918
16	0x3c81941a	0.01581769
17	0x3e1a9f49	0.15099825
18	0x3dfc7df0	0.12328708
19	0xbda11263	-0.07864835
20	0xbe0312d1	-0.12800147
21	0xbd7f6646	-0.062353395
22	0xbe55b674	-0.20870382
23	0xbe015b9b	-0.12632601
24	0x3e715d80	0.23570824
25	0x3dbc50aa	0.09195073
26	0xbe0070f3	-0.12543087
27	0x3d7f1a1f	0.06228077
28	0x3e3a3289	0.1818334
29	0x3e3d722f	0.18500589
30	0xbe75c6dc	-0.2400164
31	0xbea0484a	-0.31305152
32	0x3e6e39ea	0.2326428
33	0x3c213d65	0.009841298
34	0xbde64627	-0.11243849
35	0x3e7c726f	0.24653028
36	0xbe69379a	-0.22775117
37	0xbe72ac42	-0.23698524
38	0xbdaecf43	-0.08535626
39	0xbc78c120	-0.015182763
40	0xbcaf0a6b	-0.021367272
41	0xbe06242c	-0.13099736
42	0xbd3a2722	-0.045447476
43	0xbd1c000f	-0.038085993
44	0xbe3cd927	-0.18442212
45	0x3d978996	0.07399289
46	0xbe80729d	-0.25087443
47	0xbe03d741	-0.12875082
48	0xbdeda715	-0.11604134
49	0xbbbb4a0e	-0.005715615
50	0x3e2e2693	0.17006902
51	0xbdcea822	-0.100906625
52	0x3e4eb3df	0.20185803
53	0xbea1eb5f	-0.31624886
54	0xbe0265f1	-0.127342
55	0x3dc3375b	0.095320426
56	0xbe1c0976	-0.15237984
57	0x3e0bb2da	0.13642445
58	0x3d7f7fb9	0.062377665
59	0xbe97df6f	-0.29662654
60	0x3ea381cb	0.31934962
61	0xbe6f2737	-0.23354803
62	0x3e8e4047	0.27783415
63	0x3d0d5100	0.034501076

ensemble.0.module_list.0.output_quant.pre_transforms.0.running_var f4 [64]
0	0x3c841564	0.016123481
1	0x3ac00c37	0.0014652078
2	0x3c3401df	0.010986774
3	0x3be646cb	0.007027482
4	0x3c60ea74	0.013727773
5	0x3ca6f996	0.020382684
6	0x3b6cda31	0.0036140794
7	0x3ca21bb2	0.019788597
8	0x3c41d1b5	0.011829783
9	0x3c682279	0.014168375
10	0x3bbf68d4	0.005841354
11	0x3c66bb72	0.014082776
12	0x3c993c81	0.018705608
13	0x3c6b515e	0.014362661
14	0x3ab10f01	0.00135085
15	0x3cc99aee	0.024610009
16	0x3cc753a3	0.024331873
17	0x3c85b9de	0.01632398
18	0x3b3f2340	0.0029165298
19	0x3c65160f	0.01398231
20	0x3c9ee78d	0.019397521
21	0x3c8845fe	0.016634937
22	0x3c652a8c	0.013987195
23	0x3b0af014	0.0021200227
24	0x3c4d6dda	0.012538398
25	0x3b31347a	0.0027039335
26	0x3c78ed4b	0.015193294
27	0x3c5c3410	0.013440147
28	0x3b7a04e9	0.00381499
29	0x3d19136b	0.037372034
30	0x3b1b4ab1	0.0023695643
31	0x3beda60a	0.0072524594
32	0x3c4a9c27	0.012366331
33	0x3d1d1621	0.038351182
34	0x3b27782d	0.0025553808
35	0x3b4e6075	0.0031490598
36	0x3cd7024e	0.026246216
37	0x3ce04241	0.027375342
38	0x3c88a2f7	0.01667927
39	0x3c255262	0.010090442
40	0x3c07e619	0.008294606
41	0x3c336b4f	0.010950877
42	0x3c738bb2	0.014864849
43	0x3b91d2f7	0.004450198
44	0x3986ed9d	0.00025735507
45	0x3b9d9a11	0.004809626
46	0x3ca01e0f	0.019545583
47	0x3bedf7a8	0.007262189
48	0x3cb30f67	0.02185793
49	0x3c9abc15	0.018888513
50	0x3cb4a569	0.02205153
51	0x3aaa3841	0.0012986736
52	0x3c4d0cb5	0.012515237
53	0x3c8f150d	0.017466092
54	0x3cf6b3b3	0.030114984
55	0x3c837845	0.01604856
56	0x3d053780	0.032523632
57	0x3c1d5cb6	0.009604624
58	0x3c62e317	0.013848088
59	0x3bca2ba5	0.0061697536
60	0x3c8b969b	0.017039588
61	0x3c26670c	0.010156404
62	0x3cc272f9	0.023736464
63	0x3c17c353	0.0092628775

ensemble.0.module_list.1.input_quant.pre_transforms.0.weight f4 [64]
0	0x3f7f999a	0.9984375
1	0x3f88aff1	1.0678693
2	0x3f8870a7	1.0659379
3	0x3f803a5a	1.0017807
4	0x3f8e09ea	1.1096776
5	0x3f8718f4	1.055449
6	0x3f94905a	1.1606553
7	0x3f8fcf3e	1.123512
8	0x3f854c3d	1.0413891
9	0x3f7f999a	0.9984375
10	0x3f91d8c4	1.1394277
11	0x3f82a4d4	1.0206552
12	0x3f8bc7ee	1.0920389
13	0x3f731aa7	0.94962543
14	0x3f7502b1	0.9570723
15	0x3f87c201	1.060608
16	0x3f8c0dd4	1.094172
17	0x3f603119	0.8757492
18	0x3f7f999a	0.9984375
19	0x3f91f339	1.1402351
20	0x3f83d0c6	1.0298088
21	0x3f914dd6	1.1351879
22	0x3f75623b	0.9585301
23	0x3f895364	1.0728574
24	0x3f8cdc66	1.100476
25	0x3f8cc6ae	1.0998132
26	0x3f771fd7	0.9653296
27	0x3f76defe	0.9643401
28	0x3f7f999a	0.9984375
29	0x3f8461c9	1.0342342
30	0x3f7f999a	0.9984375
31	0x3f7f999a	0.9984375
32	0x3f6f8e34	0.9357636
33	0x3f720b1f	0.9454822
34	0x3f8b69da	1.0891678
35	0x3f7f999a	0.9984375
36	0x3f8479e9	1.0349704
37	0x3f7f999a	0.9984375
38	0x3f7f999a	0.9984375
39	0x3f86fd72	1.0546095
40	0x3f8fbd54	1.1229653
41	0x3f81dc41	1.0145341
42	0x3f7f999a	0.9984375
43	0x3f776cbc	0.9665029
44	0x3f7f999a	0.9984375
45	0x3f771fd4	0.9653294
46	0x3f93b135	1.1538454
47	0x3f8c4163	1.0957454
48	0x3f8adbee	1.0848367
49	0x3f85975c	1.0436816
50	0x3f7f999a	0.9984375
51	0x3f810c7e	1.0081937
52	0x3f7f09e0	0.99624443
53	0x3f8a5983	1.0808567
54	0x3f918d37	1.137122
55	0x3f82c833	1.0217346
56	0x3f7f999a	0.9984375
57	0x3f800894	1.0002618
58	0x3f7f999a	0.9984375
59	0x3f803018	1.0014677
60	0x3f7f999a	0.9984375
61	0x3f704ad7	0.93864197
62	0x3f8852dd	1.0650288
63	0x3f7f999a	0.9984375

ensemble.0.module_list.1.input_quant.pre_transforms.0.bias f4 [64]
0	0x00000000	0.0
1	0x3d3c5782	0.04598189
2	0x3ba855d7	0.005137186
3	0x3ca5d710	0.020244151
4	0x3e0cb0e4	0.13739353
5	0x3d5bed8d	0.053693343
6	0x3e057a93	0.1303504
7	0x3e57381f	0.21017502
8	0xbd089d0d	-0.0333529
9	0x00000000	0.0
10	0x3a476f54	0.0007607837
11	0x3d61ed32	0.055157848
12	0x3d90244d	0.07038174
13	0xbd261953	-0.040551495
14	0xbca18767	-0.019717885
15	0xbd927176	-0.07150547
16	0x3e197fca	0.14990154
17	0x3b953c37	0.0045542973
18	0x00000000	0.0
19	0x3e147e5c	0.14501327
20	0x3de2ed5a	0.110804275
21	0x3e0bef20	0.13665438
22	0xbd362d9e	-0.044477098
23	0x3d647fc5	0.055785913
24	0xbdffea9d	-0.12495921
25	0x3e4c0546	0.19923887
26	0x3b65faa7	0.0035092027
27	0xbb82aecc	-0.0039881226
28	0x00000000	0.0
29	0xbd03b596	-0.032155596
30	0x00000000	0.0
31	0x00000000	0.0
32	0x3d2865a1	0.041112546
33	0xbd32db58	-0.043666214
34	0x3e1a3e04	0.1506272
35	0x00000000	0.0
36	0x3e13011a	0.14355889
37	0x00000000	0.0
38	0x00000000	0.0
39	0x3c39496b	0.011309008
40	0x3e312adb	0.17301504
41	0xbd6b770b	-0.057486575
42	0x00000000	0.0
43	0xbc13c6c3	-0.009019556
44	0x00000000	0.0
45	0x3ade679d	0.0016968135
46	0x3e49560a	0.19661728
47	0x3e0027e3	0.12515216
48	0x3e13017d	0.14356036
49	0x3de89625	0.11356763
50	0x00000000	0.0
51	0x3d319e31	0.043363754
52	0xbc6163fd	-0.013756749
53	0xbe261ded	-0.16222353
54	0x3c730a3b	0.014833982
55	0x3d503b18	0.050837606
56	0x00000000	0.0
57	0xbb255d72	-0.00252327
58	0x00000000	0.0
59	0xbdf715a4	-0.120646745
60	0x00000000	0.0
61	0x3c061367	0.008183337
62	0xbcc75e8d	-0.024337078
63	0x00000000	0.0

ensemble.0.module_list.1.input_quant.pre_transforms.0.running_mean f4 [64]
0	0x3dc8b409	0.09799964
1	0x3d3eb62d	0.046560455
2	0xbd58755d	-0.0528463
3	0x3e2a3973	0.16623478
4	0xbcb26b7a	-0.021779764
5	0x3e94232d	0.28933087
6	0xbdd010fd	-0.1015949
7	0x3e1ae643	0.151269
8	0x3e0a6e03	0.13518529
9	0xbe3e4165	-0.18579634
10	0xbe3dead5	-0.18546613
11	0xbd7c8375	-0.061648805
12	0xbb1421ab	-0.0022603075
13	0xbe0782eb	-0.13233535
14	0x3e573d25	0.21019419
15	0xbb57b464	-0.0032913918
16	0x3c81941a	0.01581769
17	0x3e1a9f49	0.15099825
18	0x3dfc7df0	0.12328708
19	0xbda11263	-0.07864835
20	0xbe0312d1	-0.12800147
21	0xbd7f6646	-0.062353395
22	0xbe55b674	-0.20870382
23	0xbe015b9b	-0.12632601
24	0x3e715d80	0.23570824
25	0x3dbc50aa	0.09195073
26	0xbe0070f3	-0.12543087
27	0x3d7f1a1f	0.06228077
28	0x3e3a3289	0.1818334
29	0x3e3d722f	0.18500589
30	0xbe75c6dc	-0.2400164
31	0xbea0484a	-0.31305152
32	0x3e6e39ea	0.2326428
33	0x3c213d65	0.009841298
34	0xbde64627	-0.11243849
35	0x3e7c726f	0.24653028
36	0xbe69379a	-0.22775117
37	0xbe72ac42	-0.23698524
38	0xbdaecf43	-0.08535626
39	0xbc78c120	-0.015182763
40	0xbcaf0a6b	-0.021367272
41	0xbe06242c	-0.13099736
42	0xbd3a2722	-0.045447476
43	0xbd1c000f	-0.038085993
44	0xbe3cd927	-0.18442212
45	0x3d978996	0.07399289
46	0xbe80729d	-0.25087443
47	0xbe03d741	-0.12875082
48	0xbdeda715	-0.11604134
49	0xbbbb4a0e	-0.005715615
50	0x3e2e2693	0.17006902
51	0xbdcea822	-0.100906625
52	0x3e4eb3df	0.20185803
53	0xbea1eb5f	-0.31624886
54	0xbe0265f1	-0.127342
55	0x3dc3375b	0.095320426
56	0xbe1c0976	-0.15237984
57	0x3e0bb2da	0.13642445
58	0x3d7f7fb9	0.062377665
59	0xbe97df6f	-0.29662654
60	0x3ea381cb	0.31934962
61	0xbe6f2737	-0.23354803
62	0x3e8e4047	0.27783415
63	0x3d0d5100	0.034501076

ensemble.0.module_list.1.input_quant.pre_transforms.0.running_var f4 [64]
0	0x3c841564	0.016123481
1	0x3ac00c37	0.0014652078
2	0x3c3401df	0.010986774
3	0x3be646cb	0.007027482
4	0x3c60ea74	0.013727773
5	0x3ca6f996	0.020382684
6	0x3b6cda31	0.0036140794
7	0x3ca21bb2	0.019788597
8	0x3c41d1b5	0.011829783
9	0x3c682279	0.014168375
10	0x3bbf68d4	0.005841354
11	0x3c66bb72	0.014082776
12	0x3c993c81	0.018705608
13	0x3c6b515e	0.014362661
14	0x3ab10f01	0.00135085
15	0x3cc99aee	0.024610009
16	0x3cc753a3	0.024331873
17	0x3c85b9de	0.01632398
18	0x3b3f2340	0.0029165298
19	0x3c65160f	0.01398231
20	0x3c9ee78d	0.019397521
21	0x3c8845fe	0.016634937
22	0x3c652a8c	0.013987195
23	0x3b0af014	0.0021200227
24	0x3c4d6dda	0.012538398
25	0x3b31347a	0.0027039335
26	0x3c78ed4b	0.015193294
27	0x3c5c3410	0.013440147
28	0x3b7a04e9	0.00381499
29	0x3d19136b	0.037372034
30	0x3b1b4ab1	0.0023695643
31	0x3beda60a	0.0072524594
32	0x3c4a9c27	0.012366331
33	0x3d1d1621	0.038351182
34	0x3b27782d	0.0025553808
35	0x3b4e6075	0.0031490598
36	0x3cd7024e	0.026246216
37	0x3ce04241	0.027375342
38	0x3c88a2f7	0.01667927
39	0x3c255262	0.010090442
40	0x3c07e619	0.008294606
41	0x3c336b4f	0.010950877
42	0x3c738bb2	0.014864849
43	0x3b91d2f7	0.004450198
44	0x3986ed9d	0.00025735507
45	0x3b9d9a11	0.004809626
46	0x3ca01e0f	0.019545583
47	0x3bedf7a8	0.007262189
48	0x3cb30f67	0.02185793
49	0x3c9abc15	0.018888513
50	0x3cb4a569	0.02205153
51	0x3aaa3841	0.0012986736
52	0x3c4d0cb5	0.012515237
53	0x3c8f150d	0.017466092
54	0x3cf6b3b3	0.030114984
55	0x3c837845	0.01604856
56	0x3d053780	0.032523632
57	0x3c1d5cb6	0.009604624
58	0x3c62e317	0.013848088
59	0x3bca2ba5	0.0061697536
60	0x3c8b969b	0.017039588
61	0x3c26670c	0.010156404
62	0x3cc272f9	0.023736464
63	0x3c17c353	0.0092628775

ensemble.0.module_list.1.fc.weight f4 [32, 64]
0	0x3d6a77ac	0.057243034
1	0xbd526e7b	-0.051374894
2	0x3cff03e2	0.031129781
3	0xbd634d56	-0.055493675
4	0xbd4df3a8	-0.050281197
5	0xbd4ef6bc	-0.050528273
6	0xbd1ba6ac	-0.038000748
7	0xbc628c16	-0.013827344
8	0xbcbc0f57	-0.022956533
9	0xbc78bc1a	-0.015181566
10	0xbdd3e6ec	-0.10346779
11	0xbd0648a1	-0.032784108
12	0x3d3783c8	0.04480341
13	0xbd5f2c2a	-0.054485478
14	0x3c53f14c	0.012935948
15	0x3de940df	0.11389326
16	0x3dca630c	0.09882173
17	0xbdbd1616	-0.09232728
18	0x3bea49c0	0.007149905
19	0xbb755520	-0.0037434772
20	0xbd82eaa4	-0.063924104
21	0xbd2e3bb0	-0.04253739
22	0xbca01abe	-0.019544002
23	0x3db2e18e	0.087344274
24	0x3cddf9ee	0.027096715
25	0x3df5cd98	0.120021045
26	0x3d289d0a	0.04116539
27	0x3df07d24	0.11742619
28	0x3db26472	0.08710565
29	0xbd7e1523	-0.062031876
30	0x3d16cbb0	0.036815345
31	0xbdd930ca	-0.10605009
32	0xbbd5f4cc	-0.006529426
33	0x3df7827a	0.12085433
34	0x3c1657c4	0.009176198
35	0xbdf45840	-0.11930895
36	0xbc45f722	-0.012082847
37	0xbd5a1b8e	-0.053248934
38	0xbdac526c	-0.08414158
39	0x3d77feec	0.060545847
40	0x3ce881f6	0.028382283
41	0x3dd3167a	0.103070214
42	0xbd30d000	-0.043167114
43	0x3d79b2fa	0.0609617
44	0x3c4b836c	0.01242147
45	0x3d949278	0.07254499
46	0xbdd98714	-0.10621467
47	0xbcf9770a	-0.03045227
48	0xbd2e8e2c	-0.042616054
49	0xbbbda632	-0.0057876343
50	0x3d91fdfe	0.07128523
51	0x3d6ff9b0	0.05858773
52	0xbc434e82	-0.011920573
53	0x3b27f47e	0.0025627906
54	0xbdfc49b8	-0.12318748
55	0x3dfbd3ba	0.12296243
56	0xbd4b7a5c	-0.049677238
57	0xbca9c60e	-0.020724323
58	0x3b4eb6ec	0.0031542135
59	0xbdebf794	-0.11521831
60	0x3da4a65a	0.080395415
61	0xbd4887a6	-0.04895749
62	0xbd892e32	-0.06698264
63	0x3d893b9a	0.06700821
64	0x3d00d2ba	0.031450965
65	0xbd821f4e	-0.06353627
66	0x3df91614	0.12162414
67	0x3d2e4c90	0.042553484
68	0x3da2d4fa	0.07950778
69	0xbd2b460a	-0.04181484
70	0x3d23cbda	0.03998933
71	0x3c61a1b6	0.013771465
72	0x3dbfcdfe	0.09365462
73	0xbda98f96	-0.0827934
74	0x3c9445dc	0.018099718
75	0xbc85336a	-0.016259868
76	0xbcee8211	-0.029114755
77	0x3d938056	0.072022125
78	0x3de5bbd8	0.11217469
79	0x3d379f44	0.044829622
80	0x3d7aaa66	0.06119766
81	0xbc9a2a34	-0.018818952
82	0x3c766fa0	0.015041262
83	0x3cecab90	0.028890401
84	0x3d8623bf	0.06549787
85	0xbdd81c18	-0.105522335
86	0xbdb77d64	-0.08959463
87	0x3d9d0984	0.076678306
88	0xbd89513e	-0.06704949
89	0x3d99f662	0.07517697
90	0x3d8a7a0c	0.0676156
91	0x3d48c526	0.04901614
92	0xbd010dd6	-0.031507336
93	0x3de8e74a	0.1137224
94	0xbc6d4160	-0.014480919
95	0xbd47c3b2	-0.048770614
96	0x3cac2dce	0.021017935
97	0x3d9f9276	0.07791607
98	0x3d7af1a6	0.06126561
99	0x3bddd246	0.0067694513
100	0x3d569680	0.05238962
101	0xbdb1f8c8	-0.086900294
102	0x3d79e98e	0.06101375
103	0xbd56db74	-0.05245538
104	0xbd9cc0be	-0.0765395
105	0xbda682d8	-0.08130425
106	0xbd99855e	-0.07496141
107	0xbc8ad05a	-0.016945053
108	0x3ce07fc6	0.027404677
109	0xbd7a37ba	-0.0610883
110	0xbdff55b0	-0.124675155
111	0x3df1bc02	0.11803438
112	0x3deba474	0.11505976
113	0xbd866dc0	-0.06563902
114	0x3dbf7654	0.09348741
115	0xbdc8db84	-0.09807494
116	0xbda37858	-0.07981938
117	0x3dff27d0	0.124587655
118	0x3b88ad8a	0.004171078
119	0xbd56ed48	-0.052472383
120	0xbd2e42f8	-0.042544335
121	0xbd681502	-0.05666066
122	0xbd47c506	-0.04877188
123	0x3dfd0bd0	0.12355769
124	0xbdc5d12c	-0.09659037
125	0xbdb9b1d0	-0.09067118
126	0xbd0cb41a	-0.034351446
127	0xbc85cde2	-0.016333524
128	0x3ddb61a2	0.10711981
129	0x3c3828b8	0.011240177
130	0x3bcbe4ac	0.006222328
131	0x3d93ed64	0.07223013
132	0x3dc3eae0	0.09566283
133	0xbd9ae448	-0.075630724
134	0xbdf0a71a	-0.11750622
135	0x3d53cbe0	0.051708102
136	0x3ddbb99b	0.10728761
137	0xbd1dbbcc	-0.038509175
138	0xbd4cfc60	-0.05004537
139	0x3d85744c	0.065163225
140	0xbdf150fc	-0.11783025
141	0xbb8cee6a	-0.004300882
142	0xbdf291ce	-0.11844216
143	0x3c692dab	0.0142320795
144	0xbde75768	-0.11295968
145	0x3cbe137a	0.023202647
146	0x3dd374e6	0.10325031
147	0x3b195fc4	0.0023403028
148	0xbd181bac	-0.037135765
149	0x3bc97152	0.006147542
150	0x3d3c467e	0.045965664
151	0x3df2249a	0.118233874
152	0xbd87c5ea	-0.06629546
153	0x3d952880	0.072831154
154	0xbdd8f57c	-0.105936974
155	0x3dfc2738	0.12312168
156	0xbd5cbdaa	-0.053891815
157	0xbc9ac884	-0.018894441
158	0x3db3b784	0.08775237
159	0x3d935ea2	0.07195784
160	0xbd737854	-0.059440926
161	0xbc33fc88	-0.010985501
162	0xbdc8b4bc	-0.09800097
163	0x3b2b26be	0.0026115621
164	0xbde8d2a8	-0.113683045
165	0xbdcd0e10	-0.10012448
166	0x3d88b5fe	0.06675337
167	0xbd0de8de	-0.034645908
168	0xbd5719bc	-0.052514777
169	0xbcb13f38	-0.02163659
170	0xbdf77194	-0.1208221
171	0x3de9ef36	0.11422579
172	0xbb7c6c1a	-0.0038516582
173	0xbc345d80	-0.01100862
174	0xbd5a8ac2	-0.053354986
175	0x3d81f6fc	0.06345937
176	0xbe03a852	-0.12857178
177	0x3d44aab2	0.04801435
178	0xbdb76172	-0.08954133
179	0xbd48d25e	-0.049028747
180	0xbd9ff5c6	-0.078105494
181	0xbda00ba8	-0.07814723
182	0xbc89152a	-0.016733725
183	0xbdb8938c	-0.09012517
184	0xbdab8122	-0.083742395
185	0xbdf859b0	-0.121264815
186	0x3d0749b2	0.033029266
187	0xbdc3a81c	-0.09553549
188	0xbc6f60d0	-0.014610484
189	0xbcf6a3d0	-0.030107409
190	0xbdcf4078	-0.10119718
191	0xbdab0f5c	-0.08352539
192	0xbc3418f8	-0.010992281
193	0x3dbae828	0.091263115
194	0xbd07b3d6	-0.03313049
195	0x3ddf2d4f	0.10897314
196	0x3d3cbf12	0.046080656
197	0xbdbfdc0e	-0.09368144
198	0x3d1b0f04	0.037856117
199	0xbe22d267	-0.15900575
200	0xbd921dac	-0.07134566
201	0x3df69f8a	0.120421484
202	0x3df927dc	0.12165806
203	0xbd9139b4	-0.07091084
204	0x3c773db0	0.015090391
205	0xbdfb9918	-0.1228506
206	0xbd8b1f58	-0.06793088
207	0x3caeb7b0	0.021327823
208	0xbdebebf8	-0.11519617
209	0xbd307aec	-0.043085977
210	0xbd711768	-0.058860213
211	0xbdbf9c78	-0.09356016
212	0x3d881c4c	0.06646022
213	0xbda6e954	-0.081499726
214	0x3de03116	0.109468624
215	0x3cbefb22	0.023313109
216	0x3d29de5a	0.041471817
217	0xbdb7d9c4	-0.08977082
218	0x3bd9118c	0.006624406
219	0x3deb11de	0.11478017
220	0xbd84c41e	-0.06482719
221	0xbd486b5e	-0.04893052
222	0xbd453426	-0.048145436
223	0xbcd65974	-0.026165701
224	0x3d98156a	0.074259594
225	0x3d81a204	0.0632973
226	0xbd346f0c	-0.044051215
227	0x3db100f2	0.086427584
228	0xbdeabf8c	-0.11462316
229	0xbd19bce4	-0.037533656
230	0xbca1366e	-0.019679274
231	0xbbae1078	-0.005312022
232	0xbc01f91a	-0.007932926
233	0x3d3123fc	0.043247208
234	0x3d2ab316	0.041674696
235	0xbddb8770	-0.10719192
236	0x3d539598	0.051656336
237	0x3c4c532c	0.012471002
238	0x3da47920	0.08030915
239	0xbc87e612	-0.016589198
240	0xbde93772	-0.113875285
241	0x3d0faf98	0.03507957
242	0xbd518d28	-0.051160008
243	0xbda32bd8	-0.07967347
244	0xbcb82400	-0.022478104
245	0x3dcaa0ca	0.09893949
246	0xbdd1698e	-0.10225211
247	0xbd4cd460	-0.050007224
248	0xbdf3277a	-0.11872764
249	0xbca95aae	-0.020673122
250	0x3d095cda	0.033535816
251	0x3d7d7962	0.061883338
252	0xbd1d5e5c	-0.038420066
253	0x3d64c33b	0.05585025
254	0x3d632ad6	0.055460773
255	0x3d938132	0.072023764

ensemble.0.module_list.1.fc.bias f4 [32]
0	0xbd84d362	-0.064856306
1	0x3ddaf6a6	0.10691576
2	0xbd6a2503	-0.057164203
3	0x3da9564b	0.08268412
4	0x3d1a0440	0.03760171
5	0x3dad77cd	0.08470116
6	0x3cc4bd6e	0.024016108
7	0xbda8b823	-0.08238246
8	0x3d63a0a3	0.055573117
9	0xbdabdcec	-0.08391747
10	0x3e0737ab	0.1320483
11	0xbdd56b3a	-0.104208425
12	0x3d411bed	0.047145773
13	0xbd911dd0	-0.070857644
14	0x3d7ad8c9	0.0612419
15	0xbe005742	-0.12533286
16	0x3cf3522d	0.02970227
17	0x3db70a8b	0.08937558
18	0xbc9eeb9c	-0.019399457
19	0xbdaf6099	-0.085633464
20	0x3d88be72	0.066769496
21	0x3da3a3d4	0.07990232
22	0xbd89018b	-0.066897474
23	0xbc866b05	-0.016408453
24	0xbde25802	-0.110519424
25	0xbde1b84f	-0.11021482
26	0x3d5c422d	0.053774048
27	0x3d64dee4	0.055876628
28	0xbdb51b00	-0.088430405
29	0x3bf93980	0.0076057315
30	0xbdf20df5	-0.11819068
31	0x3d7e97af	0.062156375

ensemble.0.module_list.1.fc.mask.mask f4 [32, 64]
0	0x00000000	0.0
1	0x3f800000	1.0
2	0x00000000	0.0
3	0x00000000	0.0
4	0x00000000	0.0
5	0x00000000	0.0
6	0x00000000	0.0
7	0x00000000	0.0
8	0x00000000	0.0
9	0x00000000	0.0
10	0x00000000	0.0
11	0x3f800000	1.0
12	0x00000000	0.0
13	0x00000000	0.0
14	0x00000000	0.0
15	0x00000000	0.0
16	0x00000000	0.0
17	0x00000000	0.0
18	0x00000000	0.0
19	0x00000000	0.0
20	0x00000000	0.0
21	0x00000000	0.0
22	0x00000000	0.0
23	0x00000000	0.0
24	0x00000000	0.0
25	0x00000000	0.0
26	0x00000000	0.0
27	0x00000000	0.0
28	0x00000000	0.0
29	0x3f800000	1.0
30	0x00000000	0.0
31	0x00000000	0.0
32	0x00000000	0.0
33	0x00000000	0.0
34	0x00000000	0.0
35	0x00000000	0.0
36	0x00000000	0.0
37	0x00000000	0.0
38	0x00000000	0.0
39	0x00000000	0.0
40	0x00000000	0.0
41	0x00000000	0.0
42	0x00000000	0.0
43	0x00000000	0.0
44	0x00000000	0.0
45	0x00000000	0.0
46	0x00000000	0.0
47	0x00000000	0.0
48	0x00000000	0.0
49	0x00000000	0.0
50	0x00000000	0.0
51	0x00000000	0.0
52	0x00000000	0.0
53	0x00000000	0.0
54	0x00000000	0.0
55	0x00000000	0.0
56	0x00000000	0.0
57	0x00000000	0.0
58	0x00000000	0.0
59	0x00000000	0.0
60	0x00000000	0.0
61	0x00000000	0.0
62	0x00000000	0.0
63	0x00000000	0.0
64	0x00000000	0.0
65	0x00000000	0.0
66	0x00000000	0.0
67	0x00000000	0.0
68	0x00000000	0.0
69	0x00000000	0.0
70	0x00000000	0.0
71	0x00000000	0.0
72	0x00000000	0.0
73	0x00000000	0.0
74	0x00000000	0.0
75	0x00000000	0.0
76	0x3f800000	1.0
77	0x00000000	0.0
78	0x00000000	0.0
79	0x00000000	0.0
80	0x00000000	0.0
81	0x00000000	0.0
82	0x00000000	0.0
83	0x00000000	0.0
84	0x3f800000	1.0
85	0x00000000	0.0
86	0x00000000	0.0
87	0x00000000	0.0
88	0x00000000	0.0
89	0x00000000	0.0
90	0x00000000	0.0
91	0x00000000	0.0
92	0x00000000	0.0
93	0x00000000	0.0
94	0x00000000	0.0
95	0x00000000	0.0
96	0x00000000	0.0
97	0x00000000	0.0
98	0x00000000	0.0
99	0x00000000	0.0
100	0x00000000	0.0
101	0x00000000	0.0
102	0x00000000	0.0
103	0x00000000	0.0
104	0x00000000	0.0
105	0x00000000	0.0
106	0x00000000	0.0
107	0x00000000	0.0
108	0x00000000	0.0
109	0x00000000	0.0
110	0x00000000	0.0
111	0x00000000	0.0
112	0x00000000	0.0
113	0x00000000	0.0
114	0x00000000	0.0
115	0x00000000	0.0
116	0x00000000	0.0
117	0x00000000	0.0
118	0x00000000	0.0
119	0x3f800000	1.0
120	0x00000000	0.0
121	0x00000000	0.0
122	0x00000000	0.0
123	0x00000000	0.0
124	0x00000000	0.0
125	0x00000000	0.0
126	0x00000000	0.0
127	0x00000000	0.0
128	0x00000000	0.0
129	0x00000000	0.0
130	0x00000000	0.0
131	0x00000000	0.0
132	0x00000000	0.0
133	0x00000000	0.0
134	0x00000000	0.0
135	0x00000000	0.0
136	0x3f800000	1.0
137	0x00000000	0.0
138	0x00000000	0.0
139	0x00000000	0.0
140	0x00000000	0.0
141	0x00000000	0.0
142	0x00000000	0.0
143	0x00000000	0.0
144	0x00000000	0.0
145	0x00000000	0.0
146	0x00000000	0.0
147	0x00000000	0.0
148	0x00000000	0.0
149	0x00000000	0.0
150	0x00000000	0.0
151	0x00000000	0.0
152	0x00000000	0.0
153	0x00000000	0.0
154	0x00000000	0.0
155	0x00000000	0.0
156	0x00000000	0.0
157	0x00000000	0.0
158	0x00000000	0.0
159	0x00000000	0.0
160	0x00000000	0.0
161	0x00000000	0.0
162	0x00000000	0.0
163	0x00000000	0.0
164	0x00000000	0.0
165	0x00000000	0.0
166	0x00000000	0.0
167	0x00000000	0.0
168	0x00000000	0.0
169	0x00000000	0.0
170	0x00000000	0.0
171	0x00000000	0.0
172	0x00000000	0.0
173	0x3f800000	1.0
174	0x00000000	0.0
175	0x00000000	0.0
176	0x3f800000	1.0
177	0x00000000	0.0
178	0x00000000	0.0
179	0x00000000	0.0
180	0x00000000	0.0
181	0x00000000	0.0
182	0x00000000	0.0
183	0x00000000	0.0
184	0x00000000	0.0
185	0x00000000	0.0
186	0x00000000	0.0
187	0x00000000	0.0
188	0x00000000	0.0
189	0x00000000	0.0
190	0x00000000	0.0
191	0x00000000	0.0
192	0x00000000	0.0
193	0x00000000	0.0
194	0x00000000	0.0
195	0x3f800000	1.0
196	0x00000000	0.0
197	0x00000000	0.0
198	0x00000000	0.0
199	0x3f800000	1.0
200	0x00000000	0.0
201	0x00000000	0.0
202	0x00000000	0.0
203	0x00000000	0.0
204	0x00000000	0.0
205	0x00000000	0.0
206	0x00000000	0.0
207	0x00000000	0.0
208	0x00000000	0.0
209	0x00000000	0.0
210	0x00000000	0.0
211	0x00000000	0.0
212	0x00000000	0.0
213	0x00000000	0.0
214	0x00000000	0.0
215	0x00000000	0.0
216	0x00000000	0.0
217	0x00000000	0.0
218	0x00000000	0.0
219	0x00000000	0.0
220	0x00000000	0.0
221	0x00000000	0.0
222	0x00000000	0.0
223	0x00000000	0.0
224	0x00000000	0.0
225	0x00000000	0.0
226	0x00000000	0.0
227	0x00000000	0.0
228	0x00000000	0.0
229	0x00000000	0.0
230	0x00000000	0.0
231	0x00000000	0.0
232	0x00000000	0.0
233	0x00000000	0.0
234	0x00000000	0.0
235	0x00000000	0.0
236	0x00000000	0.0
237	0x00000000	0.0
238	0x00000000	0.0
239	0x00000000	0.0
240	0x00000000	0.0
241	0x00000000	0.0
242	0x00000000	0.0
243	0x00000000	0.0
244	0x00000000	0.0
245	0x00000000	0.0
246	0x00000000	0.0
247	0x00000000	0.0
248	0x00000000	0.0
249	0x00000000	0.0
250	0x00000000	0.0
251	0x00000000	0.0
252	0x00000000	0.0
253	0x3f800000	1.0
254	0x00000000	0.0
255	0x00000000	0.0

ensemble.0.module_list.1.output_quant.pre_transforms.0.weight f4 [32]
0	0x3f8117e6	1.0085418
1	0x3f81b80f	1.0134295
2	0x3f8448ed	1.0334755
3	0x3f762552	0.96150696
4	0x3f6b33d4	0.9187596
5	0x3f95389a	1.1657898
6	0x3f80b8d3	1.0056404
7	0x3f779d11	0.9672404
8	0x3f8166b6	1.010947
9	0x3f6f48af	0.9347028
10	0x3f851ec0	1.0400009
11	0x3f8642a4	1.0489087
12	0x3f86a824	1.0520062
13	0x3f83ab8f	1.028673
14	0x3fa4b3d8	1.2867384
15	0x3f7e32ee	0.9929646
16	0x3f75d4e5	0.96027976
17	0x3f772be6	0.9655136
18	0x3f91dbe3	1.1395229
19	0x3f83d4e9	1.029935
20	0x3f88f6fb	1.0700372
21	0x3f7f2d4a	0.9967848
22	0x3f909bf0	1.1297588
23	0x3f984b76	1.1898029
24	0x3f51936f	0.8186559
25	0x3f9355a9	1.1510516
26	0x3f893a35	1.0720888
27	0x3f8bac23	1.0911907
28	0x3f930183	1.1484836
29	0x3f7f999a	0.9984375
30	0x3f8ac8a0	1.0842476
31	0x3f8f4981	1.1194307

ensemble.0.module_list.1.output_quant.pre_transforms.0.bias f4 [32]
0	0x3c82dd92	0.015974794
1	0xbcbc5f31	-0.02299461
2	0x3df41069	0.119171925
3	0xbe573b78	-0.2101878
4	0xbd2bd801	-0.041954044
5	0x3e467f51	0.19384505
6	0x3d6f9a82	0.05849696
7	0xbd14ffd7	-0.0363768
8	0x3c3ac6ea	0.011399964
9	0xbcdd7bf8	-0.027036652
10	0x39aebec8	0.0003333001
11	0xbca110f8	-0.019661412
12	0x3decf650	0.11570418
13	0x3d8b061b	0.06788274
14	0x3e9067e3	0.2820426
15	0x3daa17da	0.083053306
16	0x3d496b5e	0.04917466
17	0xbbe65b45	-0.007029923
18	0x3d9bdd75	0.07610599
19	0x3ca6b0d9	0.020348
20	0x3c97a21b	0.018509915
21	0x3cd53736	0.026027303
22	0x3df15684	0.1178408
23	0x3e04b8a6	0.12961063
24	0xbdcbb6f0	-0.09947002
25	0x3e4a7f50	0.19775128
26	0x3e1d22fe	0.1534538
27	0x3e30a377	0.17249857
28	0x3e23bda0	0.15990305
29	0x00000000	0.0
30	0x3da4ff42	0.08056499
31	0x3e6943a6	0.22779712

ensemble.0.module_list.1.output_quant.pre_transforms.0.running_mean f4 [32]
0	0xbdf66fc1	-0.12033034
1	0x3dd58b40	0.104269505
2	0xbdb2b29f	-0.087254755
3	0x3d8c0406	0.06836705
4	0x3ddfeaa5	0.10933427
5	0x3e247034	0.16058427
6	0xbcae241c	-0.021257453
7	0xbe2074c2	-0.1566954
8	0x3c883656	0.016627472
9	0xbc5d29ad	-0.013498706
10	0x3e4afdba	0.19823352
11	0xbe566cfa	-0.20940009
12	0xbcf43fd3	-0.02981559
13	0xbb463f19	-0.0030250011
14	0x3e3a9842	0.18222144
15	0xbe122e9d	-0.14275594
16	0x3dde95a6	0.10868387
17	0x3d137d4e	0.03600817
18	0x3d2a418a	0.04156641
19	0xbd98bdfd	-0.074581124
20	0x3e354f3c	0.17706007
21	0x3deb73d6	0.11496703
22	0xbe345d1a	-0.1761364
23	0xbd4ba1f7	-0.04971501
24	0xbca28541	-0.019838931
25	0xbe24f9fd	-0.16110988
26	0x3de39863	0.1111305
27	0x3dd241c9	0.10266454
28	0xbdfc759a	-0.12327118
29	0x3d9f02d6	0.07764213
30	0xbd014096	-0.031555735
31	0x3caa99c9	0.020825284

ensemble.0.module_list.1.output_quant.pre_transforms.0.running_var f4 [32]
0	0x3a5470ee	0.0008103986
1	0x3a846498	0.001010078
2	0x3c23613c	0.009971913
3	0x3b6e99fc	0.00364077
4	0x3b253998	0.002521133
5	0x3ad8ae1b	0.001653138
6	0x3b992922	0.004674093
7	0x3ba984b2	0.005173289
8	0x3b8bc9a5	0.0042659813
9	0x3b8ca510	0.004292138
10	0x3b903636	0.0044009937
11	0x3ba8fc5a	0.005157036
12	0x3c5d5eaf	0.013511344
13	0x3b063ff3	0.0020484894
14	0x3c7de9b3	0.015497613
15	0x3bf5e18d	0.0075036944
16	0x3bc4cecd	0.006006098
17	0x3b6edc77	0.0036447325
18	0x3bc4f526	0.0060106693
19	0x3b3f2a14	0.0029169368
20	0x3ca46891	0.020069392
21	0x3b3d240c	0.0028860597
22	0x3c067a17	0.008207819
23	0x3b110b56	0.0022132
24	0x3bc5964c	0.0060298797
25	0x3abdc7cf	0.0014479103
26	0x3bf6e276	0.0075343205
27	0x3b619e57	0.0034426653
28	0x3b4216b7	0.002961559
29	0x3c0b36d4	0.008496959
30	0x3bb99460	0.0056634396
31	0x3b25e76d	0.0025314942

ensemble.0.module_list.2.input_quant.pre_transforms.0.weight f4 [32]
0	0x3f8117e6	1.0085418
1	0x3f81b80f	1.0134295
2	0x3f8448ed	1.0334755
3	0x3f762552	0.96150696
4	0x3f6b33d4	0.9187596
5	0x3f95389a	1.1657898
6	0x3f80b8d3	1.0056404
7	0x3f779d11	0.9672404
8	0x3f8166b6	1.010947
9	0x3f6f48af	0.9347028
10	0x3f851ec0	1.0400009
11	0x3f8642a4	1.0489087
12	0x3f86a824	1.0520062
13	0x3f83ab8f	1.028673
14	0x3fa4b3d8	1.2867384
15	0x3f7e32ee	0.9929646
16	0x3f75d4e5	0.96027976
17	0x3f772be6	0.9655136
18	0x3f91dbe3	1.1395229
19	0x3f83d4e9	1.029935
20	0x3f88f6fb	1.0700372
21	0x3f7f2d4a	0.9967848
22	0x3f909bf0	1.1297588
23	0x3f984b76	1.1898029
24	0x3f51936f	0.8186559
25	0x3f9355a9	1.1510516
26	0x3f893a35	1.0720888
27	0x3f8bac23	1.0911907
28	0x3f930183	1.1484836
29	0x3f7f999a	0.9984375
30	0x3f8ac8a0	1.0842476
31	0x3f8f4981	1.1194307

ensemble.0.module_list.2.input_quant.pre_transforms.0.bias f4 [32]
0	0x3c82dd92	0.015974794
1	0xbcbc5f31	-0.02299461
2	0x3df41069	0.119171925
3	0xbe573b78	-0.2101878
4	0xbd2bd801	-0.041954044
5	0x3e467f51	0.19384505
6	0x3d6f9a82	0.05849696
7	0xbd14ffd7	-0.0363768
8	0x3c3ac6ea	0.011399964
9	0xbcdd7bf8	-0.027036652
10	0x39aebec8	0.0003333001
11	0xbca110f8	-0.019661412
12	0x3decf650	0.11570418
13	0x3d8b061b	0.06788274
14	0x3e9067e3	0.2820426
15	0x3daa17da	0.083053306
16	0x3d496b5e	0.04917466
17	0xbbe65b45	-0.007029923
18	0x3d9bdd75	0.07610599
19	0x3ca6b0d9	0.020348
20	0x3c97a21b	0.018509915
21	0x3cd53736	0.026027303
22	0x3df15684	0.1178408
23	0x3e04b8a6	0.12961063
24	0xbdcbb6f0	-0.09947002
25	0x3e4a7f50	0.19775128
26	0x3e1d22fe	0.1534538
27	0x3e30a377	0.17249857
28	0x3e23bda0	0.15990305
29	0x00000000	0.0
30	0x3da4ff42	0.08056499
31	0x3e6943a6	0.22779712

ensemble.0.module_list.2.input_quant.pre_transforms.0.running_mean f4 [32]
0	0xbdf66fc1	-0.12033034
1	0x3dd58b40	0.104269505
2	0xbdb2b29f	-0.087254755
3	0x3d8c0406	0.06836705
4	0x3ddfeaa5	0.10933427
5	0x3e247034	0.16058427
6	0xbcae241c	-0.021257453
7	0xbe2074c2	-0.1566954
8	0x3c883656	0.016627472
9	0xbc5d29ad	-0.013498706
10	0x3e4afdba	0.19823352
11	0xbe566cfa	-0.20940009
12	0xbcf43fd3	-0.02981559
13	0xbb463f19	-0.0030250011
14	0x3e3a9842	0.18222144
15	0xbe122e9d	-0.14275594
16	0x3dde95a6	0.10868387
17	0x3d137d4e	0.03600817
18	0x3d2a418a	0.04156641
19	0xbd98bdfd	-0.074581124
20	0x3e354f3c	0.17706007
21	0x3deb73d6	0.11496703
22	0xbe345d1a	-0.1761364
23	0xbd4ba1f7	-0.04971501
24	0xbca28541	-0.019838931
25	0xbe24f9fd	-0.16110988
26	0x3de39863	0.1111305
27	0x3dd241c9	0.10266454
28	0xbdfc759a	-0.12327118
29	0x3d9f02d6	0.07764213
30	0xbd014096	-0.031555735
31	0x3caa99c9	0.020825284

ensemble.0.module_list.2.input_quant.pre_transforms.0.running_var f4 [32]
0	0x3a5470ee	0.0008103986
1	0x3a846498	0.001010078
2	0x3c23613c	0.009971913
3	0x3b6e99fc	0.00364077
4	0x3b253998	0.002521133
5	0x3ad8ae1b	0.001653138
6	0x3b992922	0.004674093
7	0x3ba984b2	0.005173289
8	0x3b8bc9a5	0.0042659813
9	0x3b8ca510	0.004292138
10	0x3b903636	0.0044009937
11	0x3ba8fc5a	0.005157036
12	0x3c5d5eaf	0.013511344
13	0x3b063ff3	0.0020484894
14	0x3c7de9b3	0.015497613
15	0x3bf5e18d	0.0075036944
16	0x3bc4cecd	0.006006098
17	0x3b6edc77	0.0036447325
18	0x3bc4f526	0.0060106693
19	0x3b3f2a14	0.0029169368
20	0x3ca46891	0.020069392
21	0x3b3d240c	0.0028860597
22	0x3c067a17	0.008207819
23	0x3b110b56	0.0022132
24	0x3bc5964c	0.0060298797
25	0x3abdc7cf	0.0014479103
26	0x3bf6e276	0.0075343205
27	0x3b619e57	0.0034426653
28	0x3b4216b7	0.002961559
29	0x3c0b36d4	0.008496959
30	0x3bb99460	0.0056634396
31	0x3b25e76d	0.0025314942
