examples/hgcal_autoencoder/sml_avg_emd_hp_grid_search/weak1_lr0.001_warm_restart_freq100_wd0.01/best_loss.pth (torch, 900425 bytes, 92 tensors)

encoder.module_list.0.fc.weight f4 [128, 64]
0	0xb974aee4	-0.00023334805
1	0x3b3f6a9c	0.0029207831
2	0xba93395c	-0.0011232304
3	0xbb77d887	-0.003781827
4	0x3b594638	0.0033153426
5	0x3a7e13ff	0.00096923107
6	0xbafcf098	-0.0019297777
7	0x3b83b400	0.0040192604
8	0x3b9e2dcc	0.0048272368
9	0xba4da008	-0.0007843976
10	0x3aefe5e9	0.0018302771
11	0xbb79050b	-0.003799739
12	0x3b87efa9	0.0041484428
13	0x3b862da6	0.004094797
14	0xba5cb040	-0.0008418597
15	0xb8ca81c5	-9.656282e-05
16	0x3af39fa8	0.001858701
17	0xbb85c104	-0.004081847
18	0xba968954	-0.0011485019
19	0xbba51f28	-0.0050391145
20	0xbbac6433	-0.005260968
21	0x3a9f50be	0.00121548
22	0xbb893c0d	-0.004188067
23	0x380bda5d	3.334355e-05
24	0xbb5ac8c2	-0.003338382
25	0x3b2fe361	0.002683841
26	0x3b2a1133	0.0025950193
27	0xba4eb731	-0.0007885574
28	0xbabb7679	-0.0014302275
29	0xbbaa0c54	-0.005189458
30	0xbba5b9a9	-0.005057533
31	0xbb22f88f	-0.002486739
32	0x3a8128e1	0.0009854102
33	0xba28cf61	-0.0006439593
34	0x3b943b42	0.0045236656
35	0x3ae0e7a8	0.0017158883
36	0x3a2e9335	0.0006659509
37	0xbb645a5c	-0.0034843897
38	0xbb854a4f	-0.004067696
39	0x3b5289f9	0.0032125695
40	0xb9b36211	-0.00034214606
41	0x3ae4ac2e	0.0017446333
42	0x38010962	3.0764735e-05
43	0x3a42fd63	0.000743827
44	0x3b566cf7	0.0032718757
45	0xbb6e2c0e	-0.0036342177
46	0x3b2ef0c3	0.0026693798
47	0xbb054011	-0.0020332376
48	0x3a2ea9bf	0.00066628674
49	0x3ba9ea8b	0.0051854304
50	0xbb40cd6a	-0.0029419311
51	0x3ba975f1	0.0051715304
52	0xba7f7b7c	-0.00097458786
53	0x3b8651be	0.0040991
54	0xbb8eea23	-0.0043614074
55	0x3b861547	0.004091892
56	0xbaedde48	-0.001814791
57	0xba93e71e	-0.0011284088
58	0xba29db18	-0.0006479486
59	0x3b8d3a85	0.0043099546
60	0xbb309e75	-0.0026949917
61	0xba080f71	-0.0005190289
62	0x3b9f7b95	0.004867027
63	0x3a23407d	0.0006227566
64	0x3ba2b712	0.0049656713
65	0xba9c414b	-0.0011921314
66	0x3aa6205f	0.0012674442
67	0xb9204954	-0.00015286106
68	0xbb0d76cb	-0.0021585699
69	0x3a82ff6b	0.0009994333
70	0xbb869c33	-0.004107976
71	0x39c6efa0	0.00037944037
72	0xbb79200f	-0.0038013493
73	0x3b8c23a2	0.0042767087
74	0x3ae44327	0.0017415032
75	0xbba0b835	-0.0049047717
76	0x3b1f14b9	0.0024273826
77	0xbb9f1ca2	-0.004855708
78	0xbb2ad562	-0.0026067127
79	0x3ad8926c	0.0016523129
80	0x3ac5de13	0.001509609
81	0x3ae2874a	0.0017282751
82	0xbb630528	-0.0034640525
83	0x3aa4f245	0.0012584409
84	0xb9108b7b	-0.0001378487
85	0x3af04198	0.0018330095
86	0xbb84bc8b	-0.0040507964
87	0x3a255b90	0.00063078944
88	0xbb6087ef	-0.003426071
89	0xbc8bc926	-0.017063688
90	0x3b852121	0.004062787
91	0xba0d203e	-0.00053835276
92	0xbba45345	-0.0050148093
93	0xbb7b504a	-0.0038347417
94	0x3ab0b98c	0.0013483032
95	0x3aa34b18	0.0012458293
96	0x3b51dd30	0.0032022707
97	0xb928de3f	-0.00016104522
98	0xbacf375c	-0.0015809345
99	0x3aff40c8	0.0019474262
100	0xba05d654	-0.0005105485
101	0x3b2cc399	0.0026361702
102	0x3982c86a	0.00024944852
103	0x3b5fdbfd	0.0034158223
104	0xbb5f197a	-0.0034042285
105	0x3b2b9b05	0.0026184928
106	0x3b371f23	0.0027942143
107	0x3bacfb0e	0.0052789515
108	0x3b48e5e2	0.00306546
109	0x3b2cc5c2	0.002636299
110	0x3aa91ccb	0.0012902258
111	0xbb4665aa	-0.0030273
112	0xba6186b8	-0.00086031435
113	0x3b9f213c	0.004856257
114	0x38779869	5.9031332e-05
115	0x3adc6913	0.0016815983
116	0xbac24135	-0.0014820459
117	0xba3a1c2f	-0.00070995366
118	0x3b3b2b34	0.0028559687
119	0x39a56d49	0.00031552676
120	0x3b4fc944	0.0031705657
121	0xbb929b61	-0.004474089
122	0x3b90f54d	0.0044237734
123	0x3b9e5d00	0.004832864
124	0x3afc9adc	0.0019272226
125	0xba15a0eb	-0.00057078776
126	0x3b5a8b04	0.003334702
127	0x3b91ff16	0.0044554574
128	0x3b6ffb75	0.0036618386
129	0xbb42443b	-0.002964272
130	0x3b8be20f	0.0042688916
131	0x3b433c58	0.0029790606
132	0xb9b89943	-0.00035209404
133	0xbae02127	-0.0017099724
134	0xbc59d5c8	-0.013295598
135	0xbba24474	-0.004952008
136	0xbba34dcc	-0.0049836393
137	0xbaebfd6c	-0.0018004603
138	0xba8164a5	-0.0009871913
139	0x3b9d04ac	0.0047918167
140	0xbb3e1c05	-0.00290084
141	0x3b3d9380	0.0028927028
142	0x3b737f24	0.003715464
143	0x3b6c89ff	0.0036092994
144	0xbb59081e	-0.003311641
145	0xb8cd29a7	-9.78292e-05
146	0xbb4f6930	-0.003164839
147	0x3b8545ee	0.004067174
148	0x3b614bc7	0.0034377442
149	0x3b64aa17	0.003489142
150	0x3b836ddc	0.004010899
151	0xb91085c7	-0.00013782746
152	0x3af0d1ea	0.0018373106
153	0xbac9a9b2	-0.0015385656
154	0x3b086db6	0.0020817346
155	0xbb04ffd1	-0.002029408
156	0x3a11d5ba	0.0005563159
157	0x3b7e3f81	0.0038795175
158	0x3ace7c83	0.001575366
159	0xbcabebf8	-0.020986542
160	0xbae7e4dc	-0.0017692107
161	0xbb9744df	-0.0046163644
162	0xbad9050f	-0.0016557294
163	0x3ac5baab	0.0015085539
164	0x3b960ae2	0.004578934
165	0x394033ce	0.00018329846
166	0xbb1c65ea	-0.0023864456
167	0xba9dacf0	-0.0012029689
168	0x3ab633e7	0.0013900966
169	0x3bacd1d8	0.0052740388
170	0x3b1e9544	0.0024197856
171	0x39293d10	0.00016139844
172	0xbad04407	-0.0015889414
173	0xba294203	-0.0006456675
174	0xbb7c467a	-0.0038494156
175	0xbb8d0927	-0.0043040696
176	0xbb7a979c	-0.003823734
177	0x3b802522	0.0039106766
178	0x3aa5759b	0.001262355
179	0xbba4fd81	-0.005035103
180	0xbb815d21	-0.0039478694
181	0x39e094a1	0.00042835347
182	0xba86f687	-0.001029686
183	0x3ad7e0e9	0.0016470227
184	0x3a86fc77	0.0010298629
185	0xba256529	-0.00063093245
186	0xbb57ceac	-0.0032929583
187	0xbae1b9c7	-0.0017221504
188	0xbbaa1152	-0.005190053
189	0x3b85dfb0	0.0040855035
190	0xba77ff23	-0.00094603206
191	0x3b201fae	0.0024432945
192	0x3b173c03	0.0023076541
193	0x3b909237	0.0044119614
194	0xbb3ddbdb	-0.0028970155
195	0x3ba382af	0.004989944
196	0x3b6fd68f	0.0036596393
197	0xbb7c783a	-0.003852381
198	0xbadc21d9	-0.0016794755
199	0xba8e1f83	-0.0010843131
200	0x3a8cbe7f	0.0010737925
201	0x3b9ffeef	0.0048826854
202	0xbb0e1e6c	-0.0021685613
203	0x3b187d9f	0.0023268235
204	0xbb03f548	-0.0020135213
205	0x39b1837a	0.00033858028
206	0x3b659942	0.0035033976
207	0xbca9512e	-0.020668592
208	0xbb419360	-0.0029537305
209	0xbba067d5	-0.0048951902
210	0x3942f949	0.00018594148
211	0x3a4802cd	0.0007629812
212	0x3aaa33f1	0.001298545
213	0x3b8accb7	0.0042358297
214	0xba96df24	-0.0011510593
215	0x3ae175d8	0.0017201258
216	0x3a99e638	0.0011741584
217	0x3afd6d2c	0.0019334904
218	0xb8869b4a	-6.418543e-05
219	0x3ba42701	0.0050095324
220	0x3843101a	4.650662e-05
221	0xbad4f4d1	-0.0016247277
222	0xbb9f78f3	-0.004866713
223	0xbb718586	-0.0036853268
224	0xbac88a59	-0.001530002
225	0xbb94f70d	-0.0045460523
226	0xb9f83a4b	-0.00047345678
227	0x3b21850d	0.0024645955
228	0x3b6208f1	0.0034490193
229	0x39e2ef8a	0.0004328455
230	0x3b65eff6	0.0035085655
231	0xbb22a2db	-0.0024816308
232	0xba967628	-0.0011479305
233	0xbabb4c6e	-0.0014289746
234	0xbb4171ae	-0.0029517221
235	0xbb828c04	-0.0039839763
236	0x39a6e680	0.00031833723
237	0x3b41a2c0	0.002954647
238	0xbb6d85ec	-0.0036243154
239	0xb9b500af	-0.0003452352
240	0xbadb937e	-0.001675233
241	0x3b5a1624	0.0033277357
242	0xbb74a419	-0.0037329255
243	0x3b5b860f	0.0033496653
244	0xbae5ac7b	-0.0017522717
245	0x3a2baae5	0.00065485976
246	0xba2f39f0	-0.00066843536
247	0x3b59bc78	0.0033223908
248	0x3b38c0ec	0.0028191162
249	0xbadb22af	-0.001671871
250	0xbb2fa1d3	-0.0026799336
251	0x3abd46a3	0.0014440607
252	0xbb19d94e	-0.002347547
253	0x3b8fc6db	0.004387719
254	0x3b69adb5	0.0035656516
255	0x3b535e99	0.003225243

encoder.module_list.0.fc.bias f4 [128]
0	0x3ccba654	0.024859585
1	0x3c5193b6	0.012791565
2	0xbceadb0a	-0.0286689
3	0x3d6dccbf	0.05805659
4	0xbec32453	-0.3811365
5	0xbd5d6236	-0.05404874
6	0x3caf2b3e	0.021382924
7	0x3d8dc859	0.06922979
8	0xbe1aae47	-0.15105544
9	0xbd97411d	-0.07385466
10	0x3c991aa5	0.018689463
11	0x3d192564	0.037389174
12	0x3cdc6dc0	0.026907802
13	0xbde52f20	-0.11190629
14	0xbc7cb536	-0.015424063
15	0xbc31e98b	-0.010858904
16	0xbc44b480	-0.012005925
17	0xbd63863d	-0.05554794
18	0xbcd27bcf	-0.025693802
19	0x3d46664b	0.048437398
20	0xbd079227	-0.033098366
21	0x3bb68857	0.005570452
22	0xbbabb7e8	-0.005240429
23	0x3d645277	0.055742707
24	0xbca4427c	-0.020051233
25	0xbdc3da30	-0.095631
26	0xbc905c26	-0.017622065
27	0x37bfa000	2.284348e-05
28	0xbcd87299	-0.026421832
29	0xbd28b4c2	-0.04118801
30	0x3c81b9cd	0.015835667
31	0xbc303d70	-0.010756835
32	0xbd68374b	-0.056693356
33	0x3da1ef7e	0.07907008
34	0xbbd2fcdb	-0.006438834
35	0x3d2fc676	0.042913876
36	0x3de00e98	0.109402835
37	0xbbb22568	-0.005436588
38	0xbd19abb8	-0.03751728
39	0xbcbc18c4	-0.022961028
40	0x3df5f9fa	0.1201057
41	0x3cd8451e	0.026400145
42	0xb9a43287	-0.00031318163
43	0xbc66dfc0	-0.014091432
44	0xbd07c4cb	-0.03314666
45	0x3b7028a1	0.003664531
46	0xbc9f8461	-0.019472303
47	0xbde2a650	-0.11066878
48	0xbd201fbd	-0.039092768
49	0xbafe6efd	-0.0019411739
50	0x3dc1a36c	0.094549984
51	0x3d02eaa4	0.031962052
52	0x3b92fd22	0.004485742
53	0x3dd3e66f	0.10346686
54	0x3dcd6912	0.10029806
55	0x3e67ed87	0.22649203
56	0x3cdb8039	0.02679454
57	0x3d54518b	0.051835578
58	0x3df97479	0.121804185
59	0xbcdf8168	-0.027283385
60	0x3d0d3cce	0.034481816
61	0x3d576885	0.052589912
62	0x3d08f9c4	0.03344132
63	0x3dc17328	0.094457924
64	0xbb7c5540	-0.0038502961
65	0x3c02f0b9	0.007991963
66	0x3c9e1eba	0.019301761
67	0x3bfc8d56	0.0077072782
68	0x3c89fec0	0.016845107
69	0xba21f81f	-0.00061786355
70	0x3d5ea33c	0.05435489
71	0xbcb94c64	-0.022619434
72	0x3db84918	0.089983165
73	0xbb4d23f5	-0.003130195
74	0x3d7af6a9	0.06127039
75	0x3dd5d974	0.104418665
76	0x3db21801	0.08695985
77	0x3ca27287	0.019830002
78	0x3c61b247	0.013775415
79	0x3cda8e90	0.026679307
80	0xbc8c4445	-0.017122397
81	0x3cffd6de	0.031230386
82	0x3d8aae99	0.06771583
83	0x3d0a824f	0.03381568
84	0xbba81426	-0.005129355
85	0xbc5d4e40	-0.013507426
86	0xbb8e22c0	-0.0043376386
87	0xbdb303f4	-0.087409884
88	0xbe72ac51	-0.23698546
89	0xba3a31e7	-0.0007102773
90	0x3d19e9ab	0.03757636
91	0x3a2fd655	0.0006707658
92	0x3b133a63	0.002246522
93	0x3d67cfa9	0.056594525
94	0x3cb19d68	0.021681502
95	0xbd83bcc6	-0.0643249
96	0xbdff2636	-0.1245846
97	0x3ae190da	0.0017209307
98	0x3bb17ed7	0.005416732
99	0xbd4ad6ec	-0.04952137
100	0xbc79bf57	-0.015243373
101	0xbddc8da8	-0.10769206
102	0x3daaa8fb	0.08333012
103	0x3c02bb5b	0.007979239
104	0x3d60402b	0.054748695
105	0xbcf27077	-0.029594643
106	0x3d9e8b48	0.077414095
107	0xbca0b189	-0.019615905
108	0xbce523b9	-0.027971135
109	0x3d7b9c14	0.061428145
110	0xbe2858b7	-0.16440092
111	0xbd32b18c	-0.043626353
112	0x3c88d150	0.01670137
113	0x3cd93edc	0.026519231
114	0x3dff943c	0.12479445
115	0xbd1f0319	-0.038821314
116	0xbd30de14	-0.04318054
117	0xbd9901e2	-0.07471062
118	0xbdb8771e	-0.09007095
119	0x3dc39bca	0.09551199
120	0x3d2b2c9c	0.04179059
121	0x3b89a7a4	0.0042008925
122	0xbd4d3960	-0.050103545
123	0xbdbf1284	-0.093297035
124	0xbbe38c90	-0.0069442466
125	0xbcc290c9	-0.02375068
126	0x3d7a3449	0.06108502
127	0xbcb9cd0d	-0.022680784

encoder.module_list.0.fc.mask.mask f4 [128, 64]
0	0x00000000	0.0
1	0x00000000	0.0
2	0x00000000	0.0
3	0x00000000	0.0
4	0x00000000	0.0
5	0x00000000	0.0
6	0x00000000	0.0
7	0x00000000	0.0
8	0x00000000	0.0
9	0x00000000	0.0
10	0x00000000	0.0
11	0x00000000	0.0
12	0x00000000	0.0
13	0x00000000	0.0
14	0x00000000	0.0
15	0x3f800000	1.0
16	0x00000000	0.0
17	0x00000000	0.0
18	0x00000000	0.0
19	0x00000000	0.0
20	0x00000000	0.0
21	0x00000000	0.0
22	0x00000000	0.0
23	0x00000000	0.0
24	0x00000000	0.0
25	0x00000000	0.0
26	0x00000000	0.0
27	0x00000000	0.0
28	0x00000000	0.0
29	0x00000000	0.0
30	0x00000000	0.0
31	0x00000000	0.0
32	0x00000000	0.0
33	0x00000000	0.0
34	0x00000000	0.0
35	0x00000000	0.0
36	0x00000000	0.0
37	0x00000000	0.0
38	0x00000000	0.0
39	0x00000000	0.0
40	0x00000000	0.0
41	0x00000000	0.0
42	0x00000000	0.0
43	0x00000000	0.0
44	0x00000000	0.0
45	0x3f800000	1.0
46	0x00000000	0.0
47	0x00000000	0.0
48	0x00000000	0.0
49	0x00000000	0.0
50	0x00000000	0.0
51	0x00000000	0.0
52	0x00000000	0.0
53	0x00000000	0.0
54	0x00000000	0.0
55	0x00000000	0.0
56	0x00000000	0.0
57	0x00000000	0.0
58	0x00000000	0.0
59	0x00000000	0.0
60	0x00000000	0.0
61	0x00000000	0.0
62	0x00000000	0.0
63	0x00000000	0.0
64	0x00000000	0.0
65	0x00000000	0.0
66	0x00000000	0.0
67	0x00000000	0.0
68	0x00000000	0.0
69	0x00000000	0.0
70	0x00000000	0.0
71	0x00000000	0.0
72	0x00000000	0.0
73	0x00000000	0.0
74	0x00000000	0.0
75	0x00000000	0.0
76	0x00000000	0.0
77	0x00000000	0.0
78	0x00000000	0.0
79	0x00000000	0.0
80	0x00000000	0.0
81	0x00000000	0.0
82	0x00000000	0.0
83	0x00000000	0.0
84	0x00000000	0.0
85	0x00000000	0.0
86	0x00000000	0.0
87	0x00000000	0.0
88	0x00000000	0.0
89	0x3f800000	1.0
90	0x00000000	0.0
91	0x00000000	0.0
92	0x00000000	0.0
93	0x00000000	0.0
94	0x00000000	0.0
95	0x00000000	0.0
96	0x00000000	0.0
97	0x00000000	0.0
98	0x00000000	0.0
99	0x00000000	0.0
100	0x00000000	0.0
101	0x00000000	0.0
102	0x00000000	0.0
103	0x00000000	0.0
104	0x00000000	0.0
105	0x00000000	0.0
106	0x00000000	0.0
107	0x00000000	0.0
108	0x00000000	0.0
109	0x00000000	0.0
110	0x00000000	0.0
111	0x00000000	0.0
112	0x00000000	0.0
113	0x00000000	0.0
114	0x00000000	0.0
115	0x3f800000	1.0
116	0x00000000	0.0
117	0x00000000	0.0
118	0x00000000	0.0
119	0x00000000	0.0
120	0x00000000	0.0
121	0x00000000	0.0
122	0x00000000	0.0
123	0x00000000	0.0
124	0x00000000	0.0
125	0x00000000	0.0
126	0x00000000	0.0
127	0x00000000	0.0
128	0x00000000	0.0
129	0x00000000	0.0
130	0x00000000	0.0
131	0x00000000	0.0
132	0x00000000	0.0
133	0x00000000	0.0
134	0x3f800000	1.0
135	0x00000000	0.0
136	0x00000000	0.0
137	0x00000000	0.0
138	0x00000000	0.0
139	0x00000000	0.0
140	0x00000000	0.0
141	0x00000000	0.0
142	0x00000000	0.0
143	0x00000000	0.0
144	0x00000000	0.0
145	0x00000000	0.0
146	0x00000000	0.0
147	0x00000000	0.0
148	0x00000000	0.0
149	0x00000000	0.0
150	0x00000000	0.0
151	0x00000000	0.0
152	0x00000000	0.0
153	0x00000000	0.0
154	0x00000000	0.0
155	0x00000000	0.0
156	0x00000000	0.0
157	0x00000000	0.0
158	0x00000000	0.0
159	0x3f800000	1.0
160	0x00000000	0.0
161	0x00000000	0.0
162	0x00000000	0.0
163	0x00000000	0.0
164	0x00000000	0.0
165	0x00000000	0.0
166	0x00000000	0.0
167	0x00000000	0.0
168	0x00000000	0.0
169	0x00000000	0.0
170	0x00000000	0.0
171	0x00000000	0.0
172	0x00000000	0.0
173	0x00000000	0.0
174	0x00000000	0.0
175	0x00000000	0.0
176	0x00000000	0.0
177	0x00000000	0.0
178	0x00000000	0.0
179	0x00000000	0.0
180	0x00000000	0.0
181	0x00000000	0.0
182	0x00000000	0.0
183	0x00000000	0.0
184	0x00000000	0.0
185	0x00000000	0.0
186	0x00000000	0.0
187	0x00000000	0.0
188	0x00000000	0.0
189	0x00000000	0.0
190	0x00000000	0.0
191	0x00000000	0.0
192	0x00000000	0.0
193	0x00000000	0.0
194	0x00000000	0.0
195	0x00000000	0.0
196	0x00000000	0.0
197	0x00000000	0.0
198	0x00000000	0.0
199	0x00000000	0.0
200	0x00000000	0.0
201	0x00000000	0.0
202	0x00000000	0.0
203	0x00000000	0.0
204	0x00000000	0.0
205	0x00000000	0.0
206	0x00000000	0.0
207	0x3f800000	1.0
208	0x00000000	0.0
209	0x00000000	0.0
210	0x00000000	0.0
211	0x00000000	0.0
212	0x00000000	0.0
213	0x00000000	0.0
214	0x00000000	0.0
215	0x00000000	0.0
216	0x00000000	0.0
217	0x00000000	0.0
218	0x00000000	0.0
219	0x00000000	0.0
220	0x00000000	0.0
221	0x00000000	0.0
222	0x00000000	0.0
223	0x00000000	0.0
224	0x00000000	0.0
225	0x00000000	0.0
226	0x00000000	0.0
227	0x00000000	0.0
228	0x00000000	0.0
229	0x00000000	0.0
230	0x00000000	0.0
231	0x00000000	0.0
232	0x00000000	0.0
233	0x00000000	0.0
234	0x00000000	0.0
235	0x00000000	0.0
236	0x3f800000	1.0
237	0x00000000	0.0
238	0x00000000	0.0
239	0x00000000	0.0
240	0x00000000	0.0
241	0x00000000	0.0
242	0x00000000	0.0
243	0x00000000	0.0
244	0x00000000	0.0
245	0x00000000	0.0
246	0x00000000	0.0
247	0x00000000	0.0
248	0x00000000	0.0
249	0x00000000	0.0
250	0x00000000	0.0
251	0x00000000	0.0
252	0x00000000	0.0
253	0x00000000	0.0
254	0x00000000	0.0
255	0x00000000	0.0

encoder.module_list.0.output_quant.pre_transforms.0.weight f4 [128]
0	0x3d29a06d	0.04141276
1	0x3e478bf6	0.19486985
2	0x3e480171	0.195318
3	0x3ea0eb41	0.31429484
4	0x3f13c26b	0.57718533
5	0x3eabf65c	0.33586395
6	0x3f290d00	0.6603546
7	0x3ed131e4	0.40858376
8	0x3f13e951	0.5777789
9	0x3eb1554c	0.3463539
10	0x3d1c06d4	0.03809245
11	0x3d2d16f1	0.042258207
12	0x3d2d16f1	0.042258207
13	0x3d2400a8	0.04003969
14	0x3e0f24de	0.13978907
15	0x3d9c48fc	0.07631108
16	0x3d2d16f1	0.042258207
17	0x3e6f62c9	0.23377527
18	0x3d09d413	0.033649515
19	0x3d29001c	0.04125987
20	0x3d1ea8f5	0.03873535
21	0x3e5fa70a	0.21841064
22	0x3e524f5c	0.20538086
23	0x3d22c04d	0.039734174
24	0x3e2f7f6b	0.1713845
25	0x3d2d16f1	0.042258207
26	0x3e8f5951	0.2799783
27	0x3d2d16f1	0.042258207
28	0x3e88bcbf	0.26706502
29	0x3f03c1ab	0.5146739
30	0x3ecfe26b	0.4060243
31	0x3d2d16f1	0.042258207
32	0x3d090977	0.033456292
33	0x3ebc3c7d	0.367649
34	0x3e0eb9db	0.13938086
35	0x3dd07233	0.10178032
36	0x3d2d16f1	0.042258207
37	0x3e6025d3	0.21889429
38	0x3d2d16f1	0.042258207
39	0x3e958df0	0.29209852
40	0x3d2d16f1	0.042258207
41	0x3df68aa3	0.120381616
42	0x3e12f43f	0.14350985
43	0x3e5f0c2b	0.21781985
44	0x3d26ce8d	0.040724326
45	0x3eae4fb1	0.34045175
46	0x3ddebf62	0.10876347
47	0x3d2d16f1	0.042258207
48	0x3d2b991a	0.041894056
49	0x3e6ed73f	0.23324297
50	0x3d2d16f1	0.042258207
51	0x3ed3235e	0.4123792
52	0x3ccf4038	0.025299177
53	0x3d253bee	0.040340357
54	0x3d2d16f1	0.042258207
55	0x3ea63922	0.32465464
56	0x3d26e467	0.040745165
57	0x3d2ab785	0.041678924
58	0x3e1633e1	0.14668228
59	0x3d188959	0.03724036
60	0x3d19fc27	0.037593987
61	0x3d2d16f1	0.042258207
62	0x3d2d16f1	0.042258207
63	0x3e478d6f	0.19487546
64	0x3dc7264a	0.097241
65	0x3e87accf	0.2649903
66	0x3ed4973b	0.4152163
67	0x3d2832a2	0.041063912
68	0x3e1ebc94	0.15501624
69	0x3dc51c1a	0.096245006
70	0x3d2d16f1	0.042258207
71	0x3e7d6565	0.2474571
72	0x3d2d16f1	0.042258207
73	0x3df4d7a8	0.11955196
74	0x3edf1d64	0.4357711
75	0x3d0d1d60	0.034451842
76	0x3d2fa66a	0.042883314
77	0x3eb27046	0.34851283
78	0x3deb0bf1	0.11476887
79	0x3d2d16f1	0.042258207
80	0x3eb81850	0.3595605
81	0x3e348b55	0.17631276
82	0x3e0904de	0.13380763
83	0x3dfb28aa	0.122636154
84	0x3e464add	0.19364496
85	0x3d2d16f1	0.042258207
86	0x3d2d16f1	0.042258207
87	0x3d2d16f1	0.042258207
88	0x3f1a77b6	0.60338914
89	0x3e1da04f	0.15393184
90	0x3e47959c	0.19490665
91	0x3d06adb5	0.032880504
92	0x3e89fdbb	0.26951393
93	0x3e7c1e80	0.2462101
94	0x3d2a9ac7	0.041651513
95	0x3e884962	0.26618487
96	0x3d364e0f	0.044508036
97	0x3dcbba0e	0.099475965
98	0x3de964d2	0.11396183
99	0x3d2d16f1	0.042258207
100	0x3e3620d1	0.17785956
101	0x3d22fcfa	0.03979204
102	0x3d1777c5	0.036979456
103	0x3e830247	0.25587675
104	0x3ea10a0f	0.31452987
105	0x3dda4a6c	0.10658726
106	0x3e1d172a	0.15340868
107	0x3d209788	0.03920701
108	0x3d2273fb	0.03966139
109	0x3e018422	0.12648061
110	0x3f3d044f	0.738347
111	0x3d2d16f1	0.042258207
112	0x3d2d16f1	0.042258207
113	0x3e4a483e	0.1975412
114	0x3d2cea38	0.042215556
115	0x3d164666	0.03668823
116	0x3d2d16f1	0.042258207
117	0x3d24cdda	0.040235378
118	0x3e95c692	0.2925306
119	0x3d2d16f1	0.042258207
120	0x3d2d16f1	0.042258207
121	0x3dd28af1	0.10280407
122	0x3d2d16f1	0.042258207
123	0x3d2d16f1	0.042258207
124	0x3db6d5c3	0.089274906
125	0x3d1f953a	0.038960673
126	0x3e82d065	0.25549617
127	0x3f753324	0.9578116

encoder.module_list.0.output_quant.pre_transforms.0.bias f4 [128]
0	0xbccd4665	-0.02505798
1	0x3ef51425	0.47866932
2	0x3f1cdc56	0.61273706
3	0x3ede36db	0.43401226
4	0x3ec80840	0.39068794
5	0x3ee1791e	0.44037718
6	0x3ebeff5e	0.37304205
7	0x3ff11f2b	1.8837637
8	0xbdaa9e72	-0.08331002
9	0xbf556df5	-0.83370906
10	0xbe84426c	-0.25831926
11	0x00000000	0.0
12	0x00000000	0.0
13	0xbd4bc975	-0.04975267
14	0x3c9f9e39	0.019484626
15	0x3dcb78f9	0.09935183
16	0x00000000	0.0
17	0xbe95981b	-0.2921761
18	0xbe26b226	-0.16278896
19	0xbcbc177c	-0.022960417
20	0xbd9ef00b	-0.07760628
21	0xbe76d8e8	-0.2410618
22	0xbd80ae7b	-0.062832795
23	0xbd2b70d2	-0.04185564
24	0x3f074f51	0.528554
25	0x00000000	0.0
26	0x3d16450c	0.036686942
27	0x00000000	0.0
28	0xbe282098	-0.16418684
29	0x3e079947	0.13242064
30	0x3babd36f	0.0052437107
31	0xb8c2b0d1	-9.2835755e-05
32	0xbe2f082b	-0.1709296
33	0xbfa3452f	-1.2755488
34	0x3ce9a4f9	0.028521048
35	0x3f02c23b	0.5107762
36	0x00000000	0.0
37	0xbed846ce	-0.4224152
38	0x00000000	0.0
39	0x3dec2115	0.115297474
40	0x00000000	0.0
41	0xbd37e0fa	-0.04489229
42	0x3ed1713f	0.40906712
43	0xbdd30b72	-0.103049174
44	0xbd0cec85	-0.03440525
45	0xbf7388e1	-0.95130736
46	0x3d1c3e5f	0.03814542
47	0x00000000	0.0
48	0xbc3c2d38	-0.01148539
49	0x3eef699a	0.46760255
50	0x00000000	0.0
51	0x3fc75c64	1.557507
52	0xbd034c63	-0.03205527
53	0xbcc24944	-0.023716576
54	0x00000000	0.0
55	0x3ef1342e	0.47110122
56	0xbd228a8f	-0.03968292
57	0xbc9ea1d5	-0.019364277
58	0x3efde1ae	0.49586242
59	0xbdb09971	-0.086230166
60	0xbe3e2e57	-0.18572365
61	0x3b283e12	0.0025671762
62	0x00000000	0.0
63	0x3c9542ab	0.018220266
64	0x3ebea2b7	0.37233517
65	0x3ee7de42	0.45286757
66	0xbfa1ceb7	-1.2641209
67	0xbd461bd3	-0.04836638
68	0xbddb78d1	-0.10716403
69	0xbd2b3d20	-0.04180634
70	0x00000000	0.0
71	0x3ef5bdb5	0.47996297
72	0x00000000	0.0
73	0x3cf3f384	0.029779203
74	0x3f24fb9f	0.64446443
75	0xbe221912	-0.15829876
76	0xbcaaa566	-0.020830821
77	0x3e38eec2	0.18059829
78	0x3d2a3f5f	0.04156434
79	0x00000000	0.0
80	0xbeed337c	-0.46328342
81	0xbe23b6f4	-0.1598776
82	0x3cfd7f90	0.030944616
83	0x3d08bf9e	0.033385865
84	0xbf6516a1	-0.89487654
85	0x00000000	0.0
86	0x00000000	0.0
87	0x00000000	0.0
88	0x3eb87759	0.36028555
89	0x40290dbf	2.641464
90	0x3d75dda0	0.06002581
91	0xbde4672b	-0.1115249
92	0x3ee99b75	0.45626417
93	0x3ef93285	0.48671356
94	0xbca95117	-0.02066855
95	0x3f643f89	0.89159447
96	0xbb3f5cda	-0.002919963
97	0xbe234a5d	-0.15946336
98	0xbdf1f78f	-0.11814796
99	0x00000000	0.0
100	0x3f05e6df	0.52305406
101	0xbd9d6352	-0.076849595
102	0xbcc58781	-0.024112465
103	0xbed4763a	-0.4149645
104	0xbf29cba0	-0.6632633
105	0x3f08d311	0.5344706
106	0x3efebfbe	0.49755663
107	0xbd39b441	-0.04533792
108	0xbd0c9f44	-0.034331575
109	0x3f443b53	0.7665302
110	0x3eb3b561	0.3509932
111	0x00000000	0.0
112	0x00000000	0.0
113	0xbe076e9c	-0.13225788
114	0xbc5cbc46	-0.013472622
115	0xbdf6c6a3	-0.12049606
116	0x00000000	0.0
117	0xbd0fab76	-0.035075627
118	0xbf52ae7a	-0.8229748
119	0x00000000	0.0
120	0x00000000	0.0
121	0x3d7f2565	0.06229152
122	0x00000000	0.0
123	0x00000000	0.0
124	0x3efefbaa	0.4980138
125	0xbc9e448d	-0.019319797
126	0x3dae2b64	0.0850437
127	0x3e1e8c69	0.1548325

encoder.module_list.0.output_quant.pre_transforms.0.running_mean f4 [128]
0	0x3ccba0d2	0.024856959
1	0x3c4aa6f0	0.012368903
2	0xbcf2ea35	-0.029652694
3	0x3d6b79f2	0.057489343
4	0xbeb8dd93	-0.36106548
5	0xbd6017de	-0.05471026
6	0x3c145e1d	0.0090556415
7	0x3d8d108a	0.0688792
8	0xbe247a01	-0.16062166
9	0xbd9699b2	-0.07353534
10	0x3c974e16	0.018469851
11	0x3d1958fa	0.03743837
12	0x3cdc5739	0.02689706
13	0xbde53190	-0.11191094
14	0xbc757da4	-0.014983568
15	0xbc20f26d	-0.009823424
16	0xbc42aab4	-0.011881519
17	0xbd610e06	-0.054945014
18	0xbcd28bbd	-0.025701398
19	0x3d466478	0.04843566
20	0xbd079afa	-0.03310678
21	0x3bcc9b1d	0.006244077
22	0xbb977733	-0.004622364
23	0x3d644c86	0.05573704
24	0xbca7cbc2	-0.020482901
25	0xbdc40be6	-0.09572582
26	0xbc8ca6f8	-0.01716946
27	0x37bf9ffd	2.2843475e-05
28	0xbcd2b8fd	-0.025722975
29	0xbd273ac4	-0.040827528
30	0x3c889120	0.016670763
31	0xbc303d6f	-0.010756834
32	0xbd684d8b	-0.056714576
33	0x3da28b1f	0.079366915
34	0xbbbc2750	-0.005741991
35	0x3d2d3c64	0.04229392
36	0x3de03202	0.10947038
37	0xbb9feb06	-0.004880312
38	0xbd18aa75	-0.037271935
39	0xbc98e8ee	-0.018665757
40	0x3df622db	0.12018367
41	0x3ce0c0a0	0.0274356
42	0xba800b73	-0.0009769037
43	0xbc5b6b56	-0.01339229
44	0xbd07c83a	-0.033149935
45	0x3b9abd54	0.0047222767
46	0xbc8e9332	-0.017404173
47	0xbde2852c	-0.11060557
48	0xbd2020b1	-0.039093677
49	0xbb2a82f4	-0.0026017996
50	0x3dc1a36a	0.09454997
51	0x3cffdb20	0.031232417
52	0x3b92d012	0.0044803703
53	0x3dd3e57e	0.103465065
54	0x3dcda574	0.10041323
55	0x3e6793ac	0.22614926
56	0x3cdb7ece	0.026793864
57	0x3d5451ad	0.051835705
58	0x3df89cfb	0.12139317
59	0xbcdf94cb	-0.02729263
60	0x3d0d3d67	0.034482386
61	0x3d57685b	0.052589756
62	0x3d0965bf	0.0335443
63	0x3dc3056e	0.0952252
64	0xbb9413b7	-0.0045189518
65	0x3bf89bdd	0.0075869397
66	0x3ca27f39	0.019836055
67	0x3bfc8c0a	0.0077071236
68	0x3c8f74de	0.017511781
69	0x3b50df8d	0.0031871528
70	0x3d5ea334	0.05435486
71	0xbcbc8467	-0.023012353
72	0x3db8841f	0.09009575
73	0xbb0fe053	-0.0021953776
74	0x3d77adaf	0.060468372
75	0x3dd5c915	0.10438744
76	0x3db217b2	0.08695926
77	0xbbfd40f6	-0.007728691
78	0x3c60ed46	0.013728445
79	0x3cd97039	0.02654277
80	0xbc803b1f	-0.015653191
81	0x3d036ab0	0.032084167
82	0x3d8c7795	0.06858746
83	0x3d0fab97	0.03507575
84	0xbba2a1e6	-0.0049631475
85	0xbc5e06bc	-0.01355141
86	0xbb882cb9	-0.004155722
87	0xbdb3284a	-0.08747919
88	0xbe77ac5d	-0.24186845
89	0xba693690	-0.0008896375
90	0x3d1f88e4	0.03894891
91	0x3a2a5def	0.00064989825
92	0x3aea76db	0.0017888205
93	0x3d66bdcd	0.056333352
94	0x3cb19b2e	0.02168044
95	0xbd853194	-0.06503597
96	0xbdff264b	-0.12458476
97	0x3b0f8dab	0.002190451
98	0x3bd6c181	0.006553829
99	0xbd4aad2d	-0.04948156
100	0xbc8320b1	-0.0160068
101	0xbddc923f	-0.10770082
102	0x3daaa7ba	0.083327726
103	0x3c0e6249	0.008690425
104	0x3d63b782	0.05559493
105	0xbcf651cb	-0.030068299
106	0x3d9dba69	0.077015705
107	0xbca0bbe7	-0.019620849
108	0xbce52be7	-0.027975036
109	0x3d53b864	0.05168952
110	0xbe294d6d	-0.16533442
111	0xbd332695	-0.043737967
112	0x3c88d14c	0.016701363
113	0x3cdfb996	0.027310174
114	0x3dff93b5	0.12479345
115	0xbd1f1211	-0.03883559
116	0xbd3067ba	-0.04306767
117	0xbd9903b6	-0.07471411
118	0xbdb7a82a	-0.089676216
119	0x3dc3d36e	0.095618114
120	0x3d2b7b1c	0.041865453
121	0x3c8ac7e7	0.016941024
122	0xbd4cb213	-0.049974512
123	0xbdbf1281	-0.09329701
124	0xbbf60563	-0.0075079664
125	0xbcc29539	-0.023752796
126	0x3d7b8d79	0.061414216
127	0xbcea79da	-0.028622556

encoder.module_list.0.output_quant.pre_transforms.0.running_var f4 [128]
0	0x2ecb3ebc	9.242515e-11
1	0x363ef7ed	2.8456518e-06
2	0x36ca8e77	6.036654e-06
3	0x368dd38a	4.226754e-06
4	0x3bb155bd	0.005411832
5	0x3630b8d8	2.6333637e-06
6	0x3ae8f98b	0.0017774565
7	0x360ed711	2.1284834e-06
8	0x3a2fbd96	0.0006703971
9	0x35b2eb4f	1.3330517e-06
10	0x35217692	6.0149716e-07
11	0x348dcff7	2.641461e-07
12	0x30db6d2b	1.5965375e-09
13	0x2fa223df	2.9493116e-10
14	0x3624487f	2.4480103e-06
15	0x37bfd9ea	2.2870448e-05
16	0x33f8b826	1.1581896e-07
17	0x361023d9	2.1478538e-06
18	0x303f2b5b	6.9547007e-10
19	0x2e23c883	3.724e-11
20	0x308174ff	9.419238e-10
21	0x36524938	3.1335057e-06
22	0x362324e9	2.4310377e-06
23	0x2fd0037a	3.783745e-10
24	0x362efda7	2.6075666e-06
25	0x340ec8e6	1.3297867e-07
26	0x360ea1a5	2.1253738e-06
27	0x158f9598	5.799326e-26
28	0x36604250	3.34172e-06
29	0x3638501f	2.7464773e-06
30	0x36a8a9bd	5.0265503e-06
31	0x1e8f9598	1.5202584e-20
32	0x3134e314	2.6322526e-09
33	0x36038fe8	1.9604286e-06
34	0x364239eb	2.8941965e-06
35	0x369f267c	4.7430494e-06
36	0x336147b8	5.2452123e-08
37	0x363b131c	2.7876295e-06
38	0x34cb7650	3.789778e-07
39	0x38ebeca6	0.000112497524
40	0x33172c2b	3.5197598e-08
41	0x36f200f2	7.212272e-06
42	0x3753e93e	1.2630886e-05
43	0x36539011	3.1525308e-06
44	0x2f2105d5	1.4644937e-10
45	0x36eb7140	7.01673e-06
46	0x37cdeca2	2.4548095e-05
47	0x32e80ed9	2.7015107e-08
48	0x2d3b1b5f	1.0635797e-11
49	0x3634f674	2.6965545e-06
50	0x00000004	6e-45
51	0x366f708b	3.5679284e-06
52	0x2f530c29	1.9194658e-10
53	0x2e21377e	3.665645e-11
54	0x34125969	1.3629837e-07
55	0x35b2c6d7	1.3319903e-06
56	0x2cd30dbe	5.9985064e-12
57	0x2a23f67f	1.4562829e-13
58	0x36097f06	2.0488528e-06
59	0x308496ee	9.647161e-10
60	0x2d83f43c	1.5001438e-11
61	0x2170ae4f	8.154586e-19
62	0x34013b77	1.2035694e-07
63	0x367fca40	3.8115686e-06
64	0x37332069	1.06767775e-05
65	0x363ef058	2.8452105e-06
66	0x360eb761	2.126639e-06
67	0x2ab07193	3.1342688e-13
68	0x3645544c	2.9404355e-06
69	0x38c65c8c	9.458614e-05
70	0x2109b949	4.666263e-19
71	0x360df106	2.1150931e-06
72	0x34348d7e	1.6815281e-07
73	0x36b86b82	5.496143e-06
74	0x368eb9c8	4.2535576e-06
75	0x321926ec	8.914622e-09
76	0x2c892fc6	3.899078e-12
77	0x3c2bf67c	0.010495778
78	0x36cd0324	6.1098417e-06
79	0x348a958f	2.581332e-07
80	0x376ce343	1.411961e-05
81	0x3697f9d6	4.5292354e-06
82	0x36a9c832	5.0598983e-06
83	0x37595b57	1.2955475e-05
84	0x348eeadb	2.662044e-07
85	0x3412e270	1.3679687e-07
86	0x3490d5a0	2.6977523e-07
87	0x34356783	1.6894596e-07
88	0x39499bd1	0.000192269
89	0x350041ed	4.777965e-07
90	0x374a397a	1.2053521e-05
91	0x3162eed1	3.302308e-09
92	0x36912e8d	4.326756e-06
93	0x360f01dd	2.1309745e-06
94	0x2d7739d7	1.40531675e-11
95	0x364eddd1	3.0825506e-06
96	0x2b05e2fe	4.7566107e-13
97	0x38606a0e	5.3504533e-05
98	0x371041a7	8.598355e-06
99	0x3459e82a	2.029416e-07
100	0x366ab399	3.4973257e-06
101	0x3083d8a6	9.59308e-10
102	0x2e98454c	6.924469e-11
103	0x364cc6ca	3.051408e-06
104	0x36a2ed92	4.855633e-06
105	0x368b567d	4.1525914e-06
106	0x362873b9	2.510131e-06
107	0x2f9a9c10	2.8123326e-10
108	0x2f3ba552	1.7066284e-10
109	0x3a16e1b0	0.0005755676
110	0x373c7df1	1.1234996e-05
111	0x3416d67b	1.4047866e-07
112	0x00000004	6e-45
113	0x367fd2b8	3.8120615e-06
114	0x2d50da69	1.1871928e-11
115	0x31337b19	2.6117901e-09
116	0x341e4258	1.4739032e-07
117	0x2f34c810	1.6441981e-10
118	0x3604e1e1	1.9801012e-06
119	0x33e33ee5	1.0581952e-07
120	0x3475c53e	2.288916e-07
121	0x3b72193e	0.0036941315
122	0x3414753c	1.3826224e-07
123	0x218f9598	9.729654e-19
124	0x368b65ee	4.154389e-06
125	0x2e83573b	5.9726855e-11
126	0x36892940	4.0877203e-06
127	0x395bb6da	0.00020953585

encoder.module_list.1.input_quant.pre_transforms.0.weight f4 [128]
0	0x3d29a06d	0.04141276
1	0x3e478bf6	0.19486985
2	0x3e480171	0.195318
3	0x3ea0eb41	0.31429484
4	0x3f13c26b	0.57718533
5	0x3eabf65c	0.33586395
6	0x3f290d00	0.6603546
7	0x3ed131e4	0.40858376
8	0x3f13e951	0.5777789
9	0x3eb1554c	0.3463539
10	0x3d1c06d4	0.03809245
11	0x3d2d16f1	0.042258207
12	0x3d2d16f1	0.042258207
13	0x3d2400a8	0.04003969
14	0x3e0f24de	0.13978907
15	0x3d9c48fc	0.07631108
16	0x3d2d16f1	0.042258207
17	0x3e6f62c9	0.23377527
18	0x3d09d413	0.033649515
19	0x3d29001c	0.04125987
20	0x3d1ea8f5	0.03873535
21	0x3e5fa70a	0.21841064
22	0x3e524f5c	0.20538086
23	0x3d22c04d	0.039734174
24	0x3e2f7f6b	0.1713845
25	0x3d2d16f1	0.042258207
26	0x3e8f5951	0.2799783
27	0x3d2d16f1	0.042258207
28	0x3e88bcbf	0.26706502
29	0x3f03c1ab	0.5146739
30	0x3ecfe26b	0.4060243
31	0x3d2d16f1	0.042258207
32	0x3d090977	0.033456292
33	0x3ebc3c7d	0.367649
34	0x3e0eb9db	0.13938086
35	0x3dd07233	0.10178032
36	0x3d2d16f1	0.042258207
37	0x3e6025d3	0.21889429
38	0x3d2d16f1	0.042258207
39	0x3e958df0	0.29209852
40	0x3d2d16f1	0.042258207
41	0x3df68aa3	0.120381616
42	0x3e12f43f	0.14350985
43	0x3e5f0c2b	0.21781985
44	0x3d26ce8d	0.040724326
45	0x3eae4fb1	0.34045175
46	0x3ddebf62	0.10876347
47	0x3d2d16f1	0.042258207
48	0x3d2b991a	0.041894056
49	0x3e6ed73f	0.23324297
50	0x3d2d16f1	0.042258207
51	0x3ed3235e	0.4123792
52	0x3ccf4038	0.025299177
53	0x3d253bee	0.040340357
54	0x3d2d16f1	0.042258207
55	0x3ea63922	0.32465464
56	0x3d26e467	0.040745165
57	0x3d2ab785	0.041678924
58	0x3e1633e1	0.14668228
59	0x3d188959	0.03724036
60	0x3d19fc27	0.037593987
61	0x3d2d16f1	0.042258207
62	0x3d2d16f1	0.042258207
63	0x3e478d6f	0.19487546
64	0x3dc7264a	0.097241
65	0x3e87accf	0.2649903
66	0x3ed4973b	0.4152163
67	0x3d2832a2	0.041063912
68	0x3e1ebc94	0.15501624
69	0x3dc51c1a	0.096245006
70	0x3d2d16f1	0.042258207
71	0x3e7d6565	0.2474571
72	0x3d2d16f1	0.042258207
73	0x3df4d7a8	0.11955196
74	0x3edf1d64	0.4357711
75	0x3d0d1d60	0.034451842
76	0x3d2fa66a	0.042883314
77	0x3eb27046	0.34851283
78	0x3deb0bf1	0.11476887
79	0x3d2d16f1	0.042258207
80	0x3eb81850	0.3595605
81	0x3e348b55	0.17631276
82	0x3e0904de	0.13380763
83	0x3dfb28aa	0.122636154
84	0x3e464add	0.19364496
85	0x3d2d16f1	0.042258207
86	0x3d2d16f1	0.042258207
87	0x3d2d16f1	0.042258207
88	0x3f1a77b6	0.60338914
89	0x3e1da04f	0.15393184
90	0x3e47959c	0.19490665
91	0x3d06adb5	0.032880504
92	0x3e89fdbb	0.26951393
93	0x3e7c1e80	0.2462101
94	0x3d2a9ac7	0.041651513
95	0x3e884962	0.26618487
96	0x3d364e0f	0.044508036
97	0x3dcbba0e	0.099475965
98	0x3de964d2	0.11396183
99	0x3d2d16f1	0.042258207
100	0x3e3620d1	0.17785956
101	0x3d22fcfa	0.03979204
102	0x3d1777c5	0.036979456
103	0x3e830247	0.25587675
104	0x3ea10a0f	0.31452987
105	0x3dda4a6c	0.10658726
106	0x3e1d172a	0.15340868
107	0x3d209788	0.03920701
108	0x3d2273fb	0.03966139
109	0x3e018422	0.12648061
110	0x3f3d044f	0.738347
111	0x3d2d16f1	0.042258207
112	0x3d2d16f1	0.042258207
113	0x3e4a483e	0.1975412
114	0x3d2cea38	0.042215556
115	0x3d164666	0.03668823
116	0x3d2d16f1	0.042258207
117	0x3d24cdda	0.040235378
118	0x3e95c692	0.2925306
119	0x3d2d16f1	0.042258207
120	0x3d2d16f1	0.042258207
121	0x3dd28af1	0.10280407
122	0x3d2d16f1	0.042258207
123	0x3d2d16f1	0.042258207
124	0x3db6d5c3	0.089274906
125	0x3d1f953a	0.038960673
126	0x3e82d065	0.25549617
127	0x3f753324	0.9578116

encoder.module_list.1.input_quant.pre_transforms.0.bias f4 [128]
0	0xbccd4665	-0.02505798
1	0x3ef51425	0.47866932
2	0x3f1cdc56	0.61273706
3	0x3ede36db	0.43401226
4	0x3ec80840	0.39068794
5	0x3ee1791e	0.44037718
6	0x3ebeff5e	0.37304205
7	0x3ff11f2b	1.8837637
8	0xbdaa9e72	-0.08331002
9	0xbf556df5	-0.83370906
10	0xbe84426c	-0.25831926
11	0x00000000	0.0
12	0x00000000	0.0
13	0xbd4bc975	-0.04975267
14	0x3c9f9e39	0.019484626
15	0x3dcb78f9	0.09935183
16	0x00000000	0.0
17	0xbe95981b	-0.2921761
18	0xbe26b226	-0.16278896
19	0xbcbc177c	-0.022960417
20	0xbd9ef00b	-0.07760628
21	0xbe76d8e8	-0.2410618
22	0xbd80ae7b	-0.062832795
23	0xbd2b70d2	-0.04185564
24	0x3f074f51	0.528554
25	0x00000000	0.0
26	0x3d16450c	0.036686942
27	0x00000000	0.0
28	0xbe282098	-0.16418684
29	0x3e079947	0.13242064
30	0x3babd36f	0.0052437107
31	0xb8c2b0d1	-9.2835755e-05
32	0xbe2f082b	-0.1709296
33	0xbfa3452f	-1.2755488
34	0x3ce9a4f9	0.028521048
35	0x3f02c23b	0.5107762
36	0x00000000	0.0
37	0xbed846ce	-0.4224152
38	0x00000000	0.0
39	0x3dec2115	0.115297474
40	0x00000000	0.0
41	0xbd37e0fa	-0.04489229
42	0x3ed1713f	0.40906712
43	0xbdd30b72	-0.103049174
44	0xbd0cec85	-0.03440525
45	0xbf7388e1	-0.95130736
46	0x3d1c3e5f	0.03814542
47	0x00000000	0.0
48	0xbc3c2d38	-0.01148539
49	0x3eef699a	0.46760255
50	0x00000000	0.0
51	0x3fc75c64	1.557507
52	0xbd034c63	-0.03205527
53	0xbcc24944	-0.023716576
54	0x00000000	0.0
55	0x3ef1342e	0.47110122
56	0xbd228a8f	-0.03968292
57	0xbc9ea1d5	-0.019364277
58	0x3efde1ae	0.49586242
59	0xbdb09971	-0.086230166
60	0xbe3e2e57	-0.18572365
61	0x3b283e12	0.0025671762
62	0x00000000	0.0
63	0x3c9542ab	0.018220266
64	0x3ebea2b7	0.37233517
65	0x3ee7de42	0.45286757
66	0xbfa1ceb7	-1.2641209
67	0xbd461bd3	-0.04836638
68	0xbddb78d1	-0.10716403
69	0xbd2b3d20	-0.04180634
70	0x00000000	0.0
71	0x3ef5bdb5	0.47996297
72	0x00000000	0.0
73	0x3cf3f384	0.029779203
74	0x3f24fb9f	0.64446443
75	0xbe221912	-0.15829876
76	0xbcaaa566	-0.020830821
77	0x3e38eec2	0.18059829
78	0x3d2a3f5f	0.04156434
79	0x00000000	0.0
80	0xbeed337c	-0.46328342
81	0xbe23b6f4	-0.1598776
82	0x3cfd7f90	0.030944616
83	0x3d08bf9e	0.033385865
84	0xbf6516a1	-0.89487654
85	0x00000000	0.0
86	0x00000000	0.0
87	0x00000000	0.0
88	0x3eb87759	0.36028555
89	0x40290dbf	2.641464
90	0x3d75dda0	0.06002581
91	0xbde4672b	-0.1115249
92	0x3ee99b75	0.45626417
93	0x3ef93285	0.48671356
94	0xbca95117	-0.02066855
95	0x3f643f89	0.89159447
96	0xbb3f5cda	-0.002919963
97	0xbe234a5d	-0.15946336
98	0xbdf1f78f	-0.11814796
99	0x00000000	0.0
100	0x3f05e6df	0.52305406
101	0xbd9d6352	-0.076849595
102	0xbcc58781	-0.024112465
103	0xbed4763a	-0.4149645
104	0xbf29cba0	-0.6632633
105	0x3f08d311	0.5344706
106	0x3efebfbe	0.49755663
107	0xbd39b441	-0.04533792
108	0xbd0c9f44	-0.034331575
109	0x3f443b53	0.7665302
110	0x3eb3b561	0.3509932
111	0x00000000	0.0
112	0x00000000	0.0
113	0xbe076e9c	-0.13225788
114	0xbc5cbc46	-0.013472622
115	0xbdf6c6a3	-0.12049606
116	0x00000000	0.0
117	0xbd0fab76	-0.035075627
118	0xbf52ae7a	-0.8229748
119	0x00000000	0.0
120	0x00000000	0.0
121	0x3d7f2565	0.06229152
122	0x00000000	0.0
123	0x00000000	0.0
124	0x3efefbaa	0.4980138
125	0xbc9e448d	-0.019319797
126	0x3dae2b64	0.0850437
127	0x3e1e8c69	0.1548325

encoder.module_list.1.input_quant.pre_transforms.0.running_mean f4 [128]
0	0x3ccba0d2	0.024856959
1	0x3c4aa6f0	0.012368903
2	0xbcf2ea35	-0.029652694
3	0x3d6b79f2	0.057489343
4	0xbeb8dd93	-0.36106548
5	0xbd6017de	-0.05471026
6	0x3c145e1d	0.0090556415
7	0x3d8d108a	0.0688792
8	0xbe247a01	-0.16062166
9	0xbd9699b2	-0.07353534
10	0x3c974e16	0.018469851
11	0x3d1958fa	0.03743837
12	0x3cdc5739	0.02689706
13	0xbde53190	-0.11191094
14	0xbc757da4	-0.014983568
15	0xbc20f26d	-0.009823424
16	0xbc42aab4	-0.011881519
17	0xbd610e06	-0.054945014
18	0xbcd28bbd	-0.025701398
19	0x3d466478	0.04843566
20	0xbd079afa	-0.03310678
21	0x3bcc9b1d	0.006244077
22	0xbb977733	-0.004622364
23	0x3d644c86	0.05573704
24	0xbca7cbc2	-0.020482901
25	0xbdc40be6	-0.09572582
26	0xbc8ca6f8	-0.01716946
27	0x37bf9ffd	2.2843475e-05
28	0xbcd2b8fd	-0.025722975
29	0xbd273ac4	-0.040827528
30	0x3c889120	0.016670763
31	0xbc303d6f	-0.010756834
32	0xbd684d8b	-0.056714576
33	0x3da28b1f	0.079366915
34	0xbbbc2750	-0.005741991
35	0x3d2d3c64	0.04229392
36	0x3de03202	0.10947038
37	0xbb9feb06	-0.004880312
38	0xbd18aa75	-0.037271935
39	0xbc98e8ee	-0.018665757
40	0x3df622db	0.12018367
41	0x3ce0c0a0	0.0274356
42	0xba800b73	-0.0009769037
43	0xbc5b6b56	-0.01339229
44	0xbd07c83a	-0.033149935
45	0x3b9abd54	0.0047222767
46	0xbc8e9332	-0.017404173
47	0xbde2852c	-0.11060557
48	0xbd2020b1	-0.039093677
49	0xbb2a82f4	-0.0026017996
50	0x3dc1a36a	0.09454997
51	0x3cffdb20	0.031232417
52	0x3b92d012	0.0044803703
53	0x3dd3e57e	0.103465065
54	0x3dcda574	0.10041323
55	0x3e6793ac	0.22614926
56	0x3cdb7ece	0.026793864
57	0x3d5451ad	0.051835705
58	0x3df89cfb	0.12139317
59	0xbcdf94cb	-0.02729263
60	0x3d0d3d67	0.034482386
61	0x3d57685b	0.052589756
62	0x3d0965bf	0.0335443
63	0x3dc3056e	0.0952252
64	0xbb9413b7	-0.0045189518
65	0x3bf89bdd	0.0075869397
66	0x3ca27f39	0.019836055
67	0x3bfc8c0a	0.0077071236
68	0x3c8f74de	0.017511781
69	0x3b50df8d	0.0031871528
70	0x3d5ea334	0.05435486
71	0xbcbc8467	-0.023012353
72	0x3db8841f	0.09009575
73	0xbb0fe053	-0.0021953776
74	0x3d77adaf	0.060468372
75	0x3dd5c915	0.10438744
76	0x3db217b2	0.08695926
77	0xbbfd40f6	-0.007728691
78	0x3c60ed46	0.013728445
79	0x3cd97039	0.02654277
80	0xbc803b1f	-0.015653191
81	0x3d036ab0	0.032084167
82	0x3d8c7795	0.06858746
83	0x3d0fab97	0.03507575
84	0xbba2a1e6	-0.0049631475
85	0xbc5e06bc	-0.01355141
86	0xbb882cb9	-0.004155722
87	0xbdb3284a	-0.08747919
88	0xbe77ac5d	-0.24186845
89	0xba693690	-0.0008896375
90	0x3d1f88e4	0.03894891
91	0x3a2a5def	0.00064989825
92	0x3aea76db	0.0017888205
93	0x3d66bdcd	0.056333352
94	0x3cb19b2e	0.02168044
95	0xbd853194	-0.06503597
96	0xbdff264b	-0.12458476
97	0x3b0f8dab	0.002190451
98	0x3bd6c181	0.006553829
99	0xbd4aad2d	-0.04948156
100	0xbc8320b1	-0.0160068
101	0xbddc923f	-0.10770082
102	0x3daaa7ba	0.083327726
103	0x3c0e6249	0.008690425
104	0x3d63b782	0.05559493
105	0xbcf651cb	-0.030068299
106	0x3d9dba69	0.077015705
107	0xbca0bbe7	-0.019620849
108	0xbce52be7	-0.027975036
109	0x3d53b864	0.05168952
110	0xbe294d6d	-0.16533442
111	0xbd332695	-0.043737967
112	0x3c88d14c	0.016701363
113	0x3cdfb996	0.027310174
114	0x3dff93b5	0.12479345
115	0xbd1f1211	-0.03883559
116	0xbd3067ba	-0.04306767
117	0xbd9903b6	-0.07471411
118	0xbdb7a82a	-0.089676216
119	0x3dc3d36e	0.095618114
120	0x3d2b7b1c	0.041865453
121	0x3c8ac7e7	0.016941024
122	0xbd4cb213	-0.049974512
123	0xbdbf1281	-0.09329701
124	0xbbf60563	-0.0075079664
125	0xbcc29539	-0.023752796
126	0x3d7b8d79	0.061414216
127	0xbcea79da	-0.028622556

encoder.module_list.1.input_quant.pre_transforms.0.running_var f4 [128]
0	0x2ecb3ebc	9.242515e-11
1	0x363ef7ed	2.8456518e-06
2	0x36ca8e77	6.036654e-06
3	0x368dd38a	4.226754e-06
4	0x3bb155bd	0.005411832
5	0x3630b8d8	2.6333637e-06
6	0x3ae8f98b	0.0017774565
7	0x360ed711	2.1284834e-06
8	0x3a2fbd96	0.0006703971
9	0x35b2eb4f	1.3330517e-06
10	0x35217692	6.0149716e-07
11	0x348dcff7	2.641461e-07
12	0x30db6d2b	1.5965375e-09
13	0x2fa223df	2.9493116e-10
14	0x3624487f	2.4480103e-06
15	0x37bfd9ea	2.2870448e-05
16	0x33f8b826	1.1581896e-07
17	0x361023d9	2.1478538e-06
18	0x303f2b5b	6.9547007e-10
19	0x2e23c883	3.724e-11
20	0x308174ff	9.419238e-10
21	0x36524938	3.1335057e-06
22	0x362324e9	2.4310377e-06
23	0x2fd0037a	3.783745e-10
24	0x362efda7	2.6075666e-06
25	0x340ec8e6	1.3297867e-07
26	0x360ea1a5	2.1253738e-06
27	0x158f9598	5.799326e-26
28	0x36604250	3.34172e-06
29	0x3638501f	2.7464773e-06
30	0x36a8a9bd	5.0265503e-06
31	0x1e8f9598	1.5202584e-20
32	0x3134e314	2.6322526e-09
33	0x36038fe8	1.9604286e-06
34	0x364239eb	2.8941965e-06
35	0x369f267c	4.7430494e-06
36	0x336147b8	5.2452123e-08
37	0x363b131c	2.7876295e-06
38	0x34cb7650	3.789778e-07
39	0x38ebeca6	0.000112497524
40	0x33172c2b	3.5197598e-08
41	0x36f200f2	7.212272e-06
42	0x3753e93e	1.2630886e-05
43	0x36539011	3.1525308e-06
44	0x2f2105d5	1.4644937e-10
45	0x36eb7140	7.01673e-06
46	0x37cdeca2	2.4548095e-05
47	0x32e80ed9	2.7015107e-08
48	0x2d3b1b5f	1.0635797e-11
49	0x3634f674	2.6965545e-06
50	0x00000004	6e-45
51	0x366f708b	3.5679284e-06
52	0x2f530c29	1.9194658e-10
53	0x2e21377e	3.665645e-11
54	0x34125969	1.3629837e-07
55	0x35b2c6d7	1.3319903e-06
56	0x2cd30dbe	5.9985064e-12
57	0x2a23f67f	1.4562829e-13
58	0x36097f06	2.0488528e-06
59	0x308496ee	9.647161e-10
60	0x2d83f43c	1.5001438e-11
61	0x2170ae4f	8.154586e-19
62	0x34013b77	1.2035694e-07
63	0x367fca40	3.8115686e-06
64	0x37332069	1.06767775e-05
65	0x363ef058	2.8452105e-06
66	0x360eb761	2.126639e-06
67	0x2ab07193	3.1342688e-13
68	0x3645544c	2.9404355e-06
69	0x38c65c8c	9.458614e-05
70	0x2109b949	4.666263e-19
71	0x360df106	2.1150931e-06
72	0x34348d7e	1.6815281e-07
73	0x36b86b82	5.496143e-06
74	0x368eb9c8	4.2535576e-06
75	0x321926ec	8.914622e-09
76	0x2c892fc6	3.899078e-12
77	0x3c2bf67c	0.010495778
78	0x36cd0324	6.1098417e-06
79	0x348a958f	2.581332e-07
80	0x376ce343	1.411961e-05
81	0x3697f9d6	4.5292354e-06
82	0x36a9c832	5.0598983e-06
83	0x37595b57	1.2955475e-05
84	0x348eeadb	2.662044e-07
85	0x3412e270	1.3679687e-07
86	0x3490d5a0	2.6977523e-07
87	0x34356783	1.6894596e-07
88	0x39499bd1	0.000192269
89	0x350041ed	4.777965e-07
90	0x374a397a	1.2053521e-05
91	0x3162eed1	3.302308e-09
92	0x36912e8d	4.326756e-06
93	0x360f01dd	2.1309745e-06
94	0x2d7739d7	1.40531675e-11
95	0x364eddd1	3.0825506e-06
96	0x2b05e2fe	4.7566107e-13
97	0x38606a0e	5.3504533e-05
98	0x371041a7	8.598355e-06
99	0x3459e82a	2.029416e-07
100	0x366ab399	3.4973257e-06
101	0x3083d8a6	9.59308e-10
102	0x2e98454c	6.924469e-11
103	0x364cc6ca	3.051408e-06
104	0x36a2ed92	4.855633e-06
105	0x368b567d	4.1525914e-06
106	0x362873b9	2.510131e-06
107	0x2f9a9c10	2.8123326e-10
108	0x2f3ba552	1.7066284e-10
109	0x3a16e1b0	0.0005755676
110	0x373c7df1	1.1234996e-05
111	0x3416d67b	1.4047866e-07
112	0x00000004	6e-45
113	0x367fd2b8	3.8120615e-06
114	0x2d50da69	1.1871928e-11
115	0x31337b19	2.6117901e-09
116	0x341e4258	1.4739032e-07
117	0x2f34c810	1.6441981e-10
118	0x3604e1e1	1.9801012e-06
119	0x33e33ee5	1.0581952e-07
120	0x3475c53e	2.288916e-07
121	0x3b72193e	0.0036941315
122	0x3414753c	1.3826224e-07
123	0x218f9598	9.729654e-19
124	0x368b65ee	4.154389e-06
125	0x2e83573b	5.9726855e-11
126	0x36892940	4.0877203e-06
127	0x395bb6da	0.00020953585

encoder.module_list.1.fc.weight f4 [128, 128]
0	0xba9160b3	-0.0011091441
1	0xbb22c700	-0.0024837852
2	0xbb421923	-0.0029617033
3	0xbac37f37	-0.0014915232
4	0xbb6c860b	-0.0036090638
5	0xb89f411a	-7.593837e-05
6	0x3a88818b	0.0010414583
7	0xb9ab768f	-0.00032703995
8	0x3a67627d	0.00088266266
9	0xbb139460	-0.0022518858
10	0xbb262eb5	-0.002535743
11	0xbae1b925	-0.0017221315
12	0xbb278ba9	-0.0025565422
13	0xbb4d1c1b	-0.003129727
14	0xbb27442f	-0.0025522818
15	0xbb6de3c4	-0.003629909
16	0x38f1bd78	0.00011527067
17	0x3b04c3e5	0.0020258364
18	0xbb032b84	-0.002001495
19	0xbaabfe5a	-0.0013122067
20	0xbab1c8ef	-0.0013563911
21	0x3b12fb80	0.0022427738
22	0xbb4dfca9	-0.0031431115
23	0xbaa9efcb	-0.0012965141
24	0x3b05e752	0.0020432067
25	0xbab7be9b	-0.0014018597
26	0x39f816bb	0.00047319182
27	0x3ae6b6dc	0.0017602104
28	0x3b2a8bf5	0.0026023362
29	0xbb28c9b6	-0.0025754995
30	0x3b63b95a	0.003474793
31	0xbb17f0b0	-0.0023184232
32	0xbb0df58d	-0.0021661252
33	0x3b0e6c60	0.0021732077
34	0xbacf3403	-0.0015808347
35	0x3a53b776	0.0008076349
36	0x3b42c099	0.0029716848
37	0xba89c827	-0.001051192
38	0x3a9b8b6e	0.0011867115
39	0xbb3bf0e2	-0.0028677513
40	0x38b14206	8.4523155e-05
41	0xba929447	-0.0011183106
42	0x3b2ba420	0.0026190355
43	0x3b500df0	0.0031746589
44	0xba7103be	-0.0009193978
45	0xb9dade79	-0.00041745955
46	0x3a6e2a43	0.0009085277
47	0xba852947	-0.0010159396
48	0xbb063087	-0.0020475702
49	0xbb507304	-0.0031806836
50	0xbb16dc32	-0.002301943
51	0xbaa60356	-0.0012665789
52	0x3b54a11f	0.0032444668
53	0xbb6fb96d	-0.0036579028
54	0xb9b84eca	-0.00035153917
55	0xbaab7377	-0.0013080676
56	0x3adf788b	0.0017049474
57	0xbb0fc078	-0.0021934789
58	0xbaf6e258	-0.0018835766
59	0xb9ee3698	-0.00045435573
60	0xb8b07170	-8.4134634e-05
61	0x39025dea	0.00012432752
62	0x3b0d75fb	0.0021585214
63	0xbab0b34a	-0.0013481167
64	0xb97fdfd7	-0.00024402082
65	0xbb591189	-0.0033122024
66	0x3b6a28a8	0.00357298
67	0xbb25ee84	-0.0025319168
68	0xba238b91	-0.00062387536
69	0xba920c0b	-0.0011142505
70	0x3b2e3594	0.0026582228
71	0xbacfbfb1	-0.0015849975
72	0xbb2dac1d	-0.0026500293
73	0x3a6d646c	0.00090557965
74	0xb9926d0a	-0.0002792853
75	0xbaa10ab6	-0.0012286517
76	0xba8b2950	-0.001061717
77	0x3aa4b54c	0.0012566238
78	0xba9cf4df	-0.0011974833
79	0x3b17fb57	0.0023190582
80	0x3b1b647c	0.0023711016
81	0x3a840462	0.0010072107
82	0x3b3d367c	0.0028871587
83	0xbb321ea4	-0.0027178908
84	0xbaaa9a27	-0.0013015912
85	0x3b0d2a5e	0.0021540145
86	0x3b5097e7	0.0031828822
87	0xbb73406a	-0.0037117251
88	0x3b254ef9	0.0025224073
89	0x37579d20	1.2851582e-05
90	0x3b6121bd	0.0034352385
91	0xbaf420c0	-0.0018625483
92	0x3aa1f1b2	0.0012355356
93	0x3aceefdf	0.001578804
94	0x38b4685c	8.602507e-05
95	0x3ac2300c	0.0014815344
96	0x3a9d5ed4	0.001200641
97	0x3b5a2eb8	0.0033292007
98	0x3a94f40a	0.0011364233
99	0x3b30e406	0.0026991381
100	0x3b6b680e	0.0035920176
101	0xbb214117	-0.0024605447
102	0x3a8b6cea	0.0010637317
103	0x3b62cce6	0.0034606992
104	0xbae54163	-0.00174908
105	0xbac2a5af	-0.0014850403
106	0x3b71a1c4	0.0036870101
107	0xbb14b326	-0.0022689789
108	0xbaa7fb78	-0.0012816032
109	0xba3362a2	-0.00068430055
110	0xbab5365c	-0.0013825404
111	0xbb69c320	-0.0035669282
112	0xba488aec	-0.00076500955
113	0x39d8c6f5	0.00041346965
114	0xbadf7d35	-0.0017050864
115	0xbb45b81f	-0.003016956
116	0xbb5f113a	-0.0034037367
117	0xbad08523	-0.0015908818
118	0xbaa652ef	-0.0012689511
119	0xbad1ab85	-0.0015996551
120	0xba89ef48	-0.0010523582
121	0x39896bf3	0.00026211105
122	0x3b59d9e9	0.0033241457
123	0xbafe0ed3	-0.001938308
124	0xba16f821	-0.000575902
125	0x3a7025e2	0.00091609184
126	0x3b4003be	0.0029299106
127	0xbae4db92	-0.0017460457
128	0xba6c11d4	-0.0009005342
129	0xbb420ae0	-0.0029608533
130	0x3b7116f2	0.0036787358
131	0x3b516112	0.0031948728
132	0x3b6de653	0.0036300614
133	0xba601a33	-0.0008548826
134	0x39cbf441	0.0003890116
135	0x3b66025e	0.0035096626
136	0xbaebb43a	-0.0017982789
137	0xbb236129	-0.0024929738
138	0x3b5c9bad	0.0033662126
139	0xb829ede6	-4.05143e-05
140	0xbab78eec	-0.0014004386
141	0xb9b710bc	-0.00034916948
142	0x3b235ae9	0.0024926013
143	0x3a19f9d2	0.0005873713
144	0xba2dfccc	-0.0006637096
145	0x3b110992	0.0022130948
146	0x3b4e3ff1	0.0031471218
147	0x3a728caa	0.0009252528
148	0xba842a11	-0.0010083338
149	0x3a73d3cc	0.00093012745
150	0x3af8ff5f	0.0018997005
151	0x3a6da2cf	0.0009065093
152	0xbb02255c	-0.0019858694
153	0xba371f01	-0.0006985516
154	0x3b638518	0.0034716781
155	0x3b225168	0.002476776
156	0xb9bb4558	-0.00035719085
157	0x3b616408	0.0034391899
158	0xbb4be16c	-0.0031109704
159	0x39b29b56	0.0003406654
160	0xb99608b1	-0.00028616705
161	0x3b3700ad	0.0027923987
162	0xbb28085d	-0.002563975
163	0x39873b74	0.00025793503
164	0x3afd743c	0.0019337009
165	0xbb049686	-0.002023132
166	0xbb6b1710	-0.00358719
167	0xba3d1a98	-0.00072137406
168	0xbb5edf78	-0.003400771
169	0xbb2afe81	-0.0026091638
170	0xbb39afb7	-0.0028333494
171	0x3b11f06e	0.0022268551
172	0xbb2be1d0	-0.0026227124
173	0xba9bbc7e	-0.0011881737
174	0xbb54a93d	-0.0032449507
175	0xba52b1e6	-0.0008037373
176	0xba68e2b0	-0.0008883877
177	0xbb2324b0	-0.0024893694
178	0x3b696dd9	0.0035618453
179	0xbae878da	-0.0017736212
180	0xbae887cb	-0.0017740665
181	0xbaf2a512	-0.001851233
182	0xba6efa27	-0.0009116255
183	0xbaf7e20f	-0.0018911975
184	0x3b56ab74	0.0032756003
185	0x3b231f09	0.0024890325
186	0x3a0ac8d6	0.0005294209
187	0x3a9979c1	0.0011709259
188	0xb9b5a06e	-0.0003464254
189	0x3abebfcc	0.001455301
190	0xbb48af21	-0.0030621963
191	0x3b0da858	0.0021615233
192	0x3a08c285	0.0005216974
193	0xbb0a702a	-0.0021123984
194	0x3ad9b68b	0.0016610188
195	0xb7bd9177	-2.2598293e-05
196	0x3b69a875	0.0035653387
197	0x3b6178f5	0.0034404371
198	0xbb176372	-0.0023100046
199	0x3a2446bd	0.00062666443
200	0x3aeeb4f1	0.0018211884
201	0x3b6d516c	0.0036211861
202	0x3b463fa5	0.0030250337
203	0xbab2cc14	-0.0013641142
204	0xb8993596	-7.30559e-05
205	0xbb298938	-0.0025869142
206	0x3aeca903	0.001805574
207	0xba2892ef	-0.0006430586
208	0xbaeca649	-0.0018054928
209	0xbb12b3f4	-0.0022385092
210	0xbb68b29e	-0.0035506855
211	0x3a70850d	0.00091750995
212	0xba0dca05	-0.00054088264
213	0xbb70f3c6	-0.0036766394
214	0xbae0f606	-0.0017163164
215	0xbb6ec008	-0.0036430378
216	0x3d366266	0.044527434
217	0xbb062610	-0.0020469464
218	0xbb68240c	-0.0035421876
219	0xbabd3b9d	-0.0014437322
220	0x3a92c070	0.0011196267
221	0xbe217616	-0.15767702
222	0x3b70f794	0.0036768662
223	0x3b619ddf	0.0034426374
224	0xb9d44f29	-0.0004049477
225	0x3aee218d	0.0018167958
226	0x3af56056	0.0018720727
227	0xb9eaec73	-0.00044808126
228	0xbac50085	-0.0015030062
229	0x3a3597e6	0.00069272367
230	0xbb572487	-0.0032828168
231	0xbb374b58	-0.0027968492
232	0xba917bba	-0.0011099495
233	0xb99b5e59	-0.00029634198
234	0x3b67b368	0.0035354737
235	0xbb598c77	-0.0033195296
236	0xbac783ef	-0.0015221814
237	0x3b342316	0.0027486733
238	0xbb1f96de	-0.0024351398
239	0x3aa339ed	0.0012453176
240	0xbb3d91dd	-0.0028926053
241	0x3e7652ec	0.2405507
242	0x3aa9623f	0.0012922956
243	0xba9a957e	-0.001179382
244	0x3a1baabe	0.00059382233
245	0xb9e90765	-0.00044446732
246	0x3ac9a2f9	0.0015383653
247	0x3ae4ea2f	0.0017464812
248	0x3b126601	0.002233863
249	0x3b5243ec	0.0032083942
250	0xb86561bb	-5.4688873e-05
251	0x3b1ef5a8	0.002425531
252	0xbb15813a	-0.002281262
253	0xbb604221	-0.0034219103
254	0xbabd19ef	-0.0014427284
255	0x3b463415	0.0030243446
