examples/jet_substructure/jsc_single_models/uniform_input_medium_seed1/checkpoint.pth (torch, 169627 bytes, 99 tensors)

module_list.0.input_quant.pre_transforms.0.weight f4 [16]
000000 46 e3 d4 3e 61 53 11 3f 9b 70 04 3f ed c8 2c 40
       0.41579646 0.5676785 0.5173432 2.6997635
000010 2a 0c 3e 3f a0 e9 0e 40 b7 39 d4 3e 96 6f 0a 3f
       0.7423731 2.2330093 0.41450283 0.54076517
000020 1e 1f 96 3e ae 2d c7 3e 1d 31 d3 3e 64 f5 13 3f
       0.29320616 0.38902038 0.41248408 0.5779631
000030 a5 5c c7 3e 66 a7 00 3f e0 17 17 40 fe 6d c2 3e
       0.3893787 0.5025543 2.3608322 0.37974542

module_list.0.input_quant.pre_transforms.0.bias f4 [16]
000000 e2 b2 04 be 7b 33 26 3e 6a 61 39 be bb 1e 71 3e
       -0.12958863 0.16230576 -0.18103567 0.23546879
000010 a0 d7 a6 3e f4 47 83 3f be b4 e9 3d d0 a5 77 3e
       0.32586384 1.0256333 0.11411427 0.24184346
000020 8e a7 b4 bd fe 7e 54 3e f2 a9 53 3e 01 01 a5 3e
       -0.08821021 0.20751569 0.20670298 0.32227328
000030 a8 87 46 3e 62 96 64 3e a3 26 a1 be 10 5c e5 bd
       0.19387686 0.22322991 -0.3147479 -0.111992

module_list.0.input_quant.pre_transforms.0.running_mean f4 [16]
000000 3a 29 02 3b 2c 08 fd 3a 16 58 a0 3b 36 e0 b0 3a
       0.0019860999 0.0019304804 0.004893313 0.0013494554
000010 eb 6e 56 3a d5 f7 51 bb de 06 1d bb 2e 12 7f b9
       0.000817998 -0.0032038589 -0.0023960392 -0.00024325468
000020 de 06 1d bb bf eb 6c ba 41 84 8c ba 4c db 26 ba
       -0.0023960392 -0.00090378145 -0.0010720567 -0.0006365075
000030 84 8c 8c ba ee 40 e1 39 2c 9b 0b 3b d2 b0 6b bb
       -0.0010723029 0.0004296372 0.0021302206 -0.0035963547

module_list.0.input_quant.pre_transforms.0.running_var f4 [16]
000000 91 05 80 3f c3 df 7e 3f 23 68 7e 3f 21 fc 7c 3f
       1.0001699 0.99560183 0.9937765 0.9882222
000010 5d 0d 7d 3f b1 e9 78 3f 92 78 7f 3f 70 b1 7f 3f
       0.98848516 0.97231585 0.9979335 0.99880123
000020 92 78 7f 3f ec 28 81 3f 3b 19 81 3f ab 35 81 3f
       0.9979335 1.0090613 1.0085825 1.0094503
000030 c5 24 81 3f 58 1a 81 3f d9 3d 7c 3f 49 8f 7f 3f
       1.0089346 1.0086164 0.9853187 0.9982801

module_list.0.fc.weight f4 [64, 16]
000000 07 c0 0e be 75 f6 72 bc dd 2a 92 3d 28 28 a1 bb
       -0.1394044 -0.014829268 0.07137082 -0.004918117
000010 65 9c 2a 3f 15 5b 9d be a3 2f 8b bd df 07 f5 bd
       0.6664489 -0.30733553 -0.06796195 -0.11964392
000020 d6 1b e7 bd 1c 23 0f 3e 9b 29 19 3e 21 89 6b bd
       -0.11284606 0.13978237 0.14957277 -0.057503823
000030 83 2c f9 3b d7 24 9b 3d e4 ad a6 3c 0b 59 f5 be
       0.007604183 0.07575386 0.02034659 -0.47919497
000040 e3 1d c8 3d 1c 4c d5 3d d2 06 7a bf 20 1d ab bc
       0.097713254 0.10414907 -0.97666657 -0.020887911
000050 48 1e 1e 3e 11 14 18 3e 68 a6 c4 bd 39 4f 38 3d
       0.15441239 0.14851405 -0.09602052 0.044997428
000060 71 f1 2b 3d d8 9a e6 bd 00 1d be 3d 34 13 bb 3e
       0.041978303 -0.11260003 0.09282875 0.36538088
000070 1f 31 06 3b 21 51 df bd 2d 34 44 3d 22 0e 53 3d
       0.0020476056 -0.10904146 0.04790132 0.05152715
000080 4a e8 10 be f0 65 b8 3f 6c 66 90 bd a9 cc 92 bd
       -0.14151111 1.4406109 -0.070507854 -0.07167942
000090 d2 b9 16 be cf 91 e3 bb 95 c9 a4 bd 50 ba de 3b
       -0.14719322 -0.006944872 -0.08046261 0.0067971125
0000a0 42 9f fc be fe d8 f0 bd 2e 68 16 3e 64 d2 4c 3d
       -0.49340254 -0.11760138 0.14688179 0.05000533
0000b0 b6 b0 5f bd 94 aa aa bd c4 bf 17 be 05 6d 12 3e
       -0.054611884 -0.083333164 -0.14819247 0.142994
0000c0 fb 8c 03 bd b8 6f 0c 3d fe 71 cd 3b 54 fd c4 be
       -0.03211687 0.03428623 0.0062696924 -0.38474524
0000d0 09 3d c3 3d e9 65 c2 3d b7 2d 0c 3c fc 24 c5 bd
       0.09533126 0.09492094 0.008555821 -0.09626195
0000e0 f1 b2 93 bd ca 21 19 3b d8 a5 37 be df 89 c1 bd
       -0.07211865 0.0023366087 -0.17934358 -0.09450125
0000f0 b7 3d cf bc d2 11 8b bc 38 39 3c 3f f7 98 36 bd
       -0.025297983 -0.01697627 0.7352481 -0.044579472
000100 f6 32 b8 bc 81 99 84 bd e8 d2 1e be ef be 17 3e
       -0.022485238 -0.06474591 -0.15510142 0.14818929
000110 01 8d 04 3d f0 a7 2a 3f a5 47 a0 be 19 c6 2e bd
       0.032361034 0.666625 -0.3130466 -0.04266939
000120 a4 a2 23 be 80 d7 83 bd e7 4f e3 3d 5f 69 2a be
       -0.15980011 -0.06437588 0.110992245 -0.16641758
000130 ac ca 9e be 5a ea d8 3e 36 04 c8 3d 2f 0a 80 3d
       -0.31014 0.42366296 0.09766428 0.06251942
000140 e5 99 09 bd 07 05 52 bc 8a ed 03 bd b9 24 ac be
       -0.03359403 -0.012818581 -0.032208957 -0.33621767
000150 16 46 91 3d 90 31 6c bd e3 c8 c2 bd 6f e0 1d 3d
       0.07093446 -0.057664454 -0.09510972 0.038544115
000160 48 1b da be 0c 1a 04 bf 67 9c b1 3d aa d2 81 3d
       -0.4259894 -0.51602244 0.086724095 0.06339009
000170 0f ed 13 3e 4c 76 ec bd 96 01 c1 3a d4 e6 42 bf
       0.144459 -0.11546001 0.0014725204 -0.76133466
000180 56 05 c2 bd 55 05 c3 bd 4f 26 2f 3d 54 b9 91 3c
       -0.09473674 -0.095225014 0.042761143 0.017788567
000190 71 76 b1 bd 1c 78 f4 bd d7 fe 0f be 02 7f 2a 3e
       -0.08665169 -0.119369715 -0.14062057 0.16650012
0001a0 51 5f ec bc 5f c4 20 bd 1a 35 7f bd c7 e9 ad bd
       -0.028854044 -0.039249774 -0.0623065 -0.08491855
0001b0 44 f0 1e be 3d a4 cb bd 0f 10 d4 3d 95 6d 18 3d
       -0.15521342 -0.09943435 0.103546254 0.03721388
0001c0 6e a0 74 bd e6 44 83 bd 09 d0 dd 3d 5d 6e fa 3d
       -0.05972331 -0.06409626 0.10830695 0.122280814
0001d0 b5 94 27 3e 70 4e 4a 3d 6d 0b a8 3d cd 48 5f bc
       0.16365321 0.04939121 0.08205304 -0.013628197
0001e0 5c b0 ca bd 1f 72 2a be f9 18 d3 3d 6b 9b c9 bc
       -0.09896919 -0.16645096 0.103074975 -0.024610242
0001f0 bc d1 8e 3d 9a c1 08 3c 7f 3c 22 be 0d a2 aa bd
       0.069735974 0.008346939 -0.1584339 -0.0833169
000200 de 0b 43 3d 22 d5 0c bd ac 19 0c bf 6e 1e 73 3d
       0.04761874 -0.034382947 -0.5472667 0.059355192
000210 a5 ea d4 3b 97 46 5f bd 28 86 8c 3d 88 d0 12 3d
       0.0064976984 -0.05451068 0.06861526 0.035843402
000220 dc de 7f bd 0d 3e 1c 3e e3 73 ae 3d 7b fd 8c be
       -0.062468395 0.15258045 0.085181974 -0.2753714
000230 4d 79 be 3e 6a 39 13 be 30 3d 06 3f 19 1c 33 bd
       0.3720192 -0.1437737 0.52437115 -0.043727968
000240 d8 36 e0 bd f5 bd de 3d a0 2a 76 3d fc f0 2b 3d
       -0.109479606 0.10876075 0.060099244 0.041977867
000250 ba d6 09 bd 21 ba ce be ac 63 eb 3c 3f 91 06 3e
       -0.033652045 -0.4037638 0.02873405 0.13141344
000260 2b e6 c6 3c c9 84 bc 3e b4 87 2c 3e 96 59 6d 3b
       0.024279675 0.36820057 0.16848642 0.0036216727
000270 4a 5e 09 3e e4 a3 83 bd 7b da 1b 3e 37 5c 27 3f
       0.13414875 -0.06427744 0.15220062 0.65375084
000280 9c 45 b1 bd f4 89 f3 3d cc 1e 8f 3a a3 95 0b be
       -0.08655855 0.11891547 0.0010919212 -0.136313
000290 5e 50 92 bd e1 28 1d be 84 08 ff 3c 0f ff 8b bf
       -0.07144235 -0.15347625 0.03113199 -1.0937213
0002a0 2f 25 be 3d b5 37 12 bd 67 f8 ef bc 36 a9 a6 3d
       0.09284436 -0.035697658 -0.029293252 0.08137743
0002b0 2f 71 8d 3d 15 14 e5 bd 10 b6 7f 3d 28 ae 93 3d
       0.06906354 -0.11185471 0.062429488 0.07210952
0002c0 79 4a 7d 3d fb 54 63 3f 1c d2 d2 bd b7 a3 a9 be
       0.0618386 0.88801545 -0.102939814 -0.33132717
0002d0 05 2c 0f be 33 d8 1e 3e 85 4f 04 3d 9a 7f 12 3e
       -0.13981636 0.15512161 0.0323024 0.14306489
0002e0 a0 5a 35 3c 49 9d bc 3d 20 e7 81 3e 05 8e 0a be
       0.01106897 0.09209687 0.25371647 -0.13530739
0002f0 bd 10 df 3c f3 91 77 bc 0e 7e 8c bc 53 cd aa bd
       0.027229661 -0.015110481 -0.017149951 -0.08339944
000300 aa f3 65 3b fa 6a 47 3d c3 a7 7a 3d 01 24 0c be
       0.0035087862 0.048686005 0.061195146 -0.1368561
000310 82 7c 3b 3f 38 d7 e3 3d a7 e8 f2 be c9 02 f5 3d
       0.7323686 0.11125034 -0.47443125 0.11963422
000320 3e c0 08 be ee f5 26 3e dc e7 2a be b6 8b c7 3d
       -0.13354585 0.16304752 -0.1669001 0.097434446
000330 88 30 43 3c 4e bc 55 be c1 a4 bb bd d2 86 d0 3d
       0.011913426 -0.20872614 -0.09162284 0.10181965
000340 54 ea ab bd 46 96 19 be 3c a7 06 bf 47 59 0e 3f
       -0.08394304 -0.14998731 -0.5259893 0.55604976
000350 0a 24 2c 3e eb 8c 91 bc b5 4e 27 3e 45 2b df 3d
       0.16810623 -0.01776739 0.16338618 0.10896925
000360 af 20 63 bd ec 25 06 be e9 87 c2 3d 3d 41 e2 bc
       -0.05545109 -0.13100404 0.09498579 -0.027618999
000370 8a 5f 9f 3d 17 e2 14 be 89 23 fd 3d 3a 13 50 3d
       0.077818945 -0.14539371 0.123602934 0.050799586
000380 2e bf 9f bc bc f8 b0 be 60 e1 f6 bd e6 24 18 bd
       -0.019500341 -0.3456477 -0.120547056 -0.037144564
000390 70 8a d9 3a de 66 c8 bd 6e 9d 31 bd 58 70 e5 3e
       0.0016597044 -0.09785245 -0.043363027 0.44812274
0003a0 24 9b 25 3e 9f 6c c7 3e 56 da 15 3e c9 fd 0d 3e
       0.16172463 0.3895006 0.1463407 0.13866343
0003b0 63 d5 1b bf 3a 34 68 3d 9f bd 7f 3d 1c 88 fe bd
       -0.6087248 0.056690432 0.062436696 -0.124283046
0003c0 20 a5 9d be 7f 4d bc bd 48 ca dc 3c da f3 65 3d
       -0.30790043 -0.09194469 0.026951924 0.056140758
0003d0 83 ef 15 3e 8d 25 b6 bd 04 a9 08 be 29 d6 20 3e
       0.14642148 -0.08893881 -0.13345724 0.15706696
0003e0 ee 14 92 3d c7 17 a9 3d 77 e3 bd bd 8c 71 75 bd
       0.07132898 0.08256488 -0.09271901 -0.05992274
0003f0 49 a2 d0 3d 94 e0 17 be 50 1b 99 bf 3f 4d e2 3d
       0.101872034 -0.14831764 -1.196146 0.1104989

module_list.0.fc.bias f4 [64]
000000 93 54 37 bd c1 b3 14 bd 58 aa ad 3e 03 39 28 3e
       -0.04475839 -0.03630424 0.33919024 0.16427998
000010 ff ef 8c bd 16 dd 55 3d 94 f6 82 bd c0 be 94 bb
       -0.06881713 0.052212797 -0.06394687 -0.0045393407
000020 6c e7 a5 bd 3e 14 b6 3d 49 6f d3 bd 9b e0 3d be
       -0.08100781 0.0889058 -0.1032396 -0.18542711
000030 34 6d f6 bd c0 4c ae be c5 83 f9 3d 4b 5a c6 bd
       -0.120325476 -0.3404293 0.12183336 -0.09685191
000040 80 1d 56 3b 47 d7 64 be 0c e6 93 bd d8 57 4a 3b
       0.0032671392 -0.22347747 -0.07221612 0.0030875113
000050 98 d4 51 3d 88 71 a2 3e 4a 3f 56 3e ac dc 4f 3e
       0.051228136 0.31727242 0.2092258 0.20299023
000060 c2 15 c6 3d 4b e1 81 3d 0a a0 2a 3e 04 f0 04 3e
       0.09672119 0.06341799 0.16662613 0.12982184
000070 f5 0e f8 3d b0 36 bc 3c 80 0f 0e 3b 98 07 af 3d
       0.12112228 0.022975296 0.002167672 0.0854637
000080 df b7 e8 be 4f 31 52 bd cc 8d 1c 3e 85 33 19 3e
       -0.45452783 -0.051316556 0.15288466 0.1496106
000090 aa 5f 4c be 51 7e c1 3d a5 46 3d 3e c5 15 32 3d
       -0.19958368 0.09447921 0.1848398 0.043477792
0000a0 14 46 e9 3c 54 74 07 3e be 00 22 bd 33 fd 0d 3e
       0.028475799 0.1322797 -0.03955149 0.13866119
0000b0 d4 fc 41 be a8 da 20 3e 60 ac 1f be 94 4b 90 bd
       -0.18944103 0.1570841 -0.155931 -0.070456654
0000c0 e8 fc d9 bd 45 fa 98 3e 7a bd f6 3d 5c 83 24 bc
       -0.10643941 0.2987844 0.120478585 -0.010041084
0000d0 e1 90 7b bd 26 de 07 3e ba 2c 35 3e 52 e1 1d be
       -0.061417464 0.13268337 0.17692843 -0.15417984
0000e0 19 ce 91 be 90 e9 e8 3c 78 6b 77 be ce da 6c bd
       -0.28477553 0.028431684 -0.2416209 -0.057825856
0000f0 70 22 48 bc 62 0c 56 3e aa 50 ae be f5 a3 bd bd
       -0.012215242 0.20903161 -0.34045917 -0.09259788

module_list.0.fc.mask.mask f4 [64, 16]
000000 00 00 00 00 00 00 00 00 00 00 00 00 00 00 00 00
       0.0 0.0 0.0 0.0
000010 00 00 80 3f 00 00 80 3f 00 00 80 3f 00 00 00 00
       1.0 1.0 1.0 0.0
000020 00 00 00 00 00 00 00 00 00 00 00 00 00 00 00 00
       0.0 0.0 0.0 0.0
000030 00 00 00 00 00 00 00 00 00 00 00 00 00 00 80 3f
       0.0 0.0 0.0 1.0
000040 00 00 00 00 00 00 00 00 00 00 80 3f 00 00 00 00
       0.0 0.0 1.0 0.0
000050 00 00 00 00 00 00 00 00 00 00 00 00 00 00 80 3f
       0.0 0.0 0.0 1.0
000060 00 00 00 00 00 00 00 00 00 00 00 00 00 00 80 3f
       0.0 0.0 0.0 1.0
000070 00 00 80 3f 00 00 00 00 00 00 00 00 00 00 00 00
       1.0 0.0 0.0 0.0
000080 00 00 80 3f 00 00 80 3f 00 00 00 00 00 00 00 00
       1.0 1.0 0.0 0.0
000090 00 00 00 00 00 00 00 00 00 00 00 00 00 00 00 00
       0.0 0.0 0.0 0.0
0000a0 00 00 80 3f 00 00 80 3f 00 00 00 00 00 00 00 00
       1.0 1.0 0.0 0.0
0000b0 00 00 00 00 00 00 00 00 00 00 00 00 00 00 00 00
       0.0 0.0 0.0 0.0
0000c0 00 00 00 00 00 00 00 00 00 00 00 00 00 00 80 3f
       0.0 0.0 0.0 1.0
0000d0 00 00 00 00 00 00 00 00 00 00 00 00 00 00 00 00
       0.0 0.0 0.0 0.0
0000e0 00 00 00 00 00 00 00 00 00 00 80 3f 00 00 00 00
       0.0 0.0 1.0 0.0
0000f0 00 00 00 00 00 00 80 3f 00 00 80 3f 00 00 00 00
       0.0 1.0 1.0 0.0
000100 00 00 00 00 00 00 00 00 00 00 00 00 00 00 00 00
       0.0 0.0 0.0 0.0
000110 00 00 00 00 00 00 80 3f 00 00 80 3f 00 00 00 00
       0.0 1.0 1.0 0.0
000120 00 00 00 00 00 00 00 00 00 00 00 00 00 00 00 00
       0.0 0.0 0.0 0.0
000130 00 00 80 3f 00 00 80 3f 00 00 00 00 00 00 00 00
       1.0 1.0 0.0 0.0
000140 00 00 00 00 00 00 00 00 00 00 00 00 00 00 80 3f
       0.0 0.0 0.0 1.0
000150 00 00 00 00 00 00 00 00 00 00 00 00 00 00 00 00
       0.0 0.0 0.0 0.0
000160 00 00 80 3f 00 00 80 3f 00 00 00 00 00 00 00 00
       1.0 1.0 0.0 0.0
000170 00 00 00 00 00 00 00 00 00 00 00 00 00 00 80 3f
       0.0 0.0 0.0 1.0
000180 00 00 80 3f 00 00 00 00 00 00 00 00 00 00 00 00
       1.0 0.0 0.0 0.0
000190 00 00 00 00 00 00 00 00 00 00 00 00 00 00 80 3f
       0.0 0.0 0.0 1.0
0001a0 00 00 00 00 00 00 00 00 00 00 80 3f 00 00 80 3f
       0.0 0.0 1.0 1.0
0001b0 00 00 00 00 00 00 00 00 00 00 00 00 00 00 00 00
       0.0 0.0 0.0 0.0
0001c0 00 00 00 00 00 00 80 3f 00 00 80 3f 00 00 00 00
       0.0 1.0 1.0 0.0
0001d0 00 00 80 3f 00 00 00 00 00 00 00 00 00 00 00 00
       1.0 0.0 0.0 0.0
0001e0 00 00 00 00 00 00 00 00 00 00 00 00 00 00 00 00
       0.0 0.0 0.0 0.0
0001f0 00 00 00 00 00 00 00 00 00 00 80 3f 00 00 00 00
       0.0 0.0 1.0 0.0
000200 00 00 00 00 00 00 00 00 00 00 80 3f 00 00 00 00
       0.0 0.0 1.0 0.0
000210 00 00 00 00 00 00 00 00 00 00 00 00 00 00 00 00
       0.0 0.0 0.0 0.0
000220 00 00 00 00 00 00 00 00 00 00 00 00 00 00 80 3f
       0.0 0.0 0.0 1.0
000230 00 00 80 3f 00 00 00 00 00 00 80 3f 00 00 00 00
       1.0 0.0 1.0 0.0
000240 00 00 00 00 00 00 00 00 00 00 00 00 00 00 00 00
       0.0 0.0 0.0 0.0
000250 00 00 00 00 00 00 80 3f 00 00 00 00 00 00 00 00
       0.0 1.0 0.0 0.0
000260 00 00 00 00 00 00 80 3f 00 00 00 00 00 00 00 00
       0.0 1.0 0.0 0.0
000270 00 00 00 00 00 00 80 3f 00 00 00 00 00 00 80 3f
       0.0 1.0 0.0 1.0
000280 00 00 00 00 00 00 00 00 00 00 00 00 00 00 00 00
       0.0 0.0 0.0 0.0
000290 00 00 80 3f 00 00 00 00 00 00 80 3f 00 00 80 3f
       1.0 0.0 1.0 1.0
0002a0 00 00 80 3f 00 00 00 00 00 00 00 00 00 00 00 00
       1.0 0.0 0.0 0.0
0002b0 00 00 00 00 00 00 00 00 00 00 00 00 00 00 00 00
       0.0 0.0 0.0 0.0
0002c0 00 00 80 3f 00 00 80 3f 00 00 00 00 00 00 80 3f
       1.0 1.0 0.0 1.0
0002d0 00 00 00 00 00 00 00 00 00 00 00 00 00 00 00 00
       0.0 0.0 0.0 0.0
0002e0 00 00 00 00 00 00 00 00 00 00 80 3f 00 00 00 00
       0.0 0.0 1.0 0.0
0002f0 00 00 00 00 00 00 00 00 00 00 00 00 00 00 00 00
       0.0 0.0 0.0 0.0
000300 00 00 00 00 00 00 00 00 00 00 00 00 00 00 00 00
       0.0 0.0 0.0 0.0
000310 00 00 80 3f 00 00 80 3f 00 00 80 3f 00 00 00 00
       1.0 1.0 1.0 0.0
000320 00 00 00 00 00 00 00 00 00 00 00 00 00 00 00 00
       0.0 0.0 0.0 0.0
000330 00 00 00 00 00 00 80 3f 00 00 00 00 00 00 00 00
       0.0 1.0 0.0 0.0
000340 00 00 00 00 00 00 00 00 00 00 80 3f 00 00 80 3f
       0.0 0.0 1.0 1.0
000350 00 00 00 00 00 00 00 00 00 00 00 00 00 00 00 00
       0.0 0.0 0.0 0.0
000360 00 00 80 3f 00 00 00 00 00 00 00 00 00 00 80 3f
       1.0 0.0 0.0 1.0
000370 00 00 00 00 00 00 00 00 00 00 00 00 00 00 00 00
       0.0 0.0 0.0 0.0
000380 00 00 00 00 00 00 80 3f 00 00 00 00 00 00 00 00
       0.0 1.0 0.0 0.0
000390 00 00 00 00 00 00 00 00 00 00 00 00 00 00 80 3f
       0.0 0.0 0.0 1.0
0003a0 00 00 00 00 00 00 80 3f 00 00 00 00 00 00 00 00
       0.0 1.0 0.0 0.0
0003b0 00 00 80 3f 00 00 00 00 00 00 00 00 00 00 00 00
       1.0 0.0 0.0 0.0
0003c0 00 00 80 3f 00 00 00 00 00 00 00 00 00 00 00 00
       1.0 0.0 0.0 0.0
0003d0 00 00 00 00 00 00 00 00 00 00 00 00 00 00 00 00
       0.0 0.0 0.0 0.0
0003e0 00 00 00 00 00 00 00 00 00 00 80 3f 00 00 00 00
       0.0 0.0 1.0 0.0
0003f0 00 00 00 00 00 00 00 00 00 00 80 3f 00 00 80 3f
       0.0 0.0 1.0 1.0

module_list.0.output_quant.pre_transforms.0.weight f4 [64]
000000 f7 60 a1 3e f4 c3 13 3f dc 89 c2 3e f0 6d cd 3e
       0.3151929 0.57720876 0.37995803 0.40122938
000010 2d 87 75 3f f6 b8 12 3f 9e d6 2d 3f 9e d6 2d 3f
       0.95909387 0.5731348 0.67905605 0.67905605
000020 3f ab 6b 3e c8 21 f2 3e 9e 8f 28 3f 42 ad fe 3e
       0.23014544 0.47291398 0.6584414 0.4974156
000030 c7 19 88 3f 60 a6 6c 40 cf b9 bd 3e cc 0f d4 3f
       1.0632867 3.6976547 0.37055823 1.6567321
000040 9e d6 2d 3f fa ac a0 3e 42 e7 1d 3f 93 08 3d 3f
       0.67905605 0.3138197 0.61680996 0.7384121
000050 9a 77 3e 3f e6 53 bb 3e ba 93 62 3f 7d f4 a3 3e
       0.7440125 0.36587447 0.8850666 0.32022467
000060 06 a8 92 3f 70 61 88 3f 9e d6 2d 3f 29 a0 15 3f
       1.1457527 1.0654736 0.67905605 0.5844751
000070 dc 51 dd 3e 3b 24 a7 3e 9e d6 2d 3f f2 25 47 3f
       0.43226516 0.3264483 0.67905605 0.77792275
000080 fd 54 87 3f a1 64 88 3f bc f6 7d 3e 99 44 0b 3f
       1.0572811 1.065571 0.24801153 0.54401547
000090 7e ee 00 3f c1 c2 b2 3f 63 04 0b 3f b1 9e b4 3e
       0.5036391 1.3965684 0.5430357 0.35277322
0000a0 91 49 23 3f 72 a7 2f 3f cc b9 0a 3f e9 79 cd 3e
       0.6378413 0.68614876 0.54189754 0.40132073
0000b0 d1 25 db 3e 9e d6 2d 3f d5 30 4d 3f b3 6b 09 3f
       0.4280229 0.67905605 0.80152637 0.5367996
0000c0 1d 18 88 3f a3 fd 0f 40 a2 5a a8 3e b7 4a a5 3f
       1.0632359 2.2498558 0.32881647 1.2913426
0000d0 a0 6a 76 3f 9e d6 2d 3f ac 61 49 3f 4c c9 0e 3f
       0.96256447 0.67905605 0.7866466 0.55775905
0000e0 9f 02 43 3f b0 f8 46 3f 22 05 b3 3e 8e f3 e3 3e
       0.76175874 0.77723217 0.34964854 0.44521755
0000f0 3d 32 2f 3f 52 1f 41 3f 4c e7 c4 3e d7 53 e3 3e
       0.6843603 0.75438416 0.38457716 0.44399902

module_list.0.output_quant.pre_transforms.0.bias f4 [64]
000000 af e5 06 3f 55 64 0c 3e b6 e9 0a 3f 62 db fb 3d
       0.5269422 0.13710149 0.54262865 0.12297703
000010 a3 e4 2f 3f de 25 3e 3f 00 00 00 00 00 00 00 00
       0.68708247 0.7427653 0.0 0.0
000020 0a bc 47 3e ea dd ae ba 3f ee 0b bd d8 3a 89 3e
       0.19505325 -0.0013341282 -0.034162756 0.26802707
000030 9d 02 c3 3e 57 47 1a 3f a3 08 dc 3e 90 80 a3 bf
       0.3808793 0.60265106 0.4297534 -1.2773609
000040 00 00 00 00 8b cc 41 3e 10 e6 88 3d e8 de 4e bf
       0.0 0.18925683 0.06684506 -0.8080888
000050 27 eb ba 3e a4 e6 11 3f f8 67 64 3f da 86 d5 3d
       0.36507532 0.56992555 0.89221144 0.104261115
000060 78 4c 38 3e 9a 76 85 bf 00 00 00 00 6d 43 c5 bc
       0.1799792 -1.0426819 0.0 -0.024080003
000070 24 cc 2a 3f 42 e0 58 3f 00 00 00 00 f9 c0 c9 3e
       0.66717744 0.8471719 0.0 0.3940504
000080 1f 57 43 be cb d8 a7 bf 3f 25 08 3f a3 f9 8b 3e
       -0.19076203 -1.3113035 0.53181833 0.27338895
000090 c5 b5 72 be e7 72 a7 bf 1f 49 db 3e 52 25 71 3e
       -0.23702152 -1.308194 0.42829224 0.23549393
0000a0 3a 7f 25 bf 9b d7 5f 3e fe 27 a2 bc c0 06 9a 3e
       -0.6464726 0.2185959 -0.01979446 0.30083275
0000b0 1c 3a 9a 3e 00 00 00 00 12 68 76 be 3d 62 be 3c
       0.3012246 0.0 -0.24063137 0.023240203
0000c0 0f f7 f8 3e ff 33 aa bf 9b f7 20 3f db db 9c bd
       0.4862599 -1.3297118 0.62877816 -0.076591216
0000d0 6f a2 4c be 00 00 00 00 2c 1c 9b 3f ba f9 00 3e
       -0.19983838 0.0 1.2117972 0.12595263
0000e0 15 ea 83 be 53 dc 4a bf 5e f4 7d 3e 56 8c 16 3e
       -0.25764528 -0.7924244 0.2480025 0.14701971
0000f0 9d 26 e7 3e ad 3a 25 3e 36 92 18 3f 73 ec 08 3f
       0.45146647 0.16135664 0.595981 0.5348579

module_list.0.output_quant.pre_transforms.0.running_mean f4 [64]
000000 40 61 d4 3d c7 a9 95 3e 81 a4 0a 3f e5 f8 06 3e
       0.103701115 0.29231092 0.54157263 0.13180883
000010 1f 15 a9 bd b8 54 14 3f 2f 03 22 bd 2f 71 a7 bc
       -0.08255982 0.5794177 -0.039553817 -0.020439712
000020 b9 2b 8b bc 64 ec fa bd fc 09 5d bd 30 92 06 be
       -0.016988622 -0.12252119 -0.0539646 -0.13141704
000030 c5 68 d3 bd f0 64 9a be a7 a3 d6 3d eb 7f 66 3e
       -0.103227176 -0.30155134 0.10480433 0.22509734
000040 2f fb 51 3d 44 16 00 be 77 ac 0c bd 85 ee 6a bd
       0.051264938 -0.12508494 -0.034344163 -0.057356376
000050 e6 4d 1c 3f 8d 1f 2f 3e 17 ce 64 3e 3f d5 4a 3e
       0.61056364 0.1710188 0.22344242 0.1980791
000060 cd a1 4a 3f c3 f3 c6 be 23 12 30 3e ea 13 2b 3e
       0.7915314 -0.3885785 0.17194419 0.16706815
000070 83 35 bd 3e e9 79 93 3e bb 68 61 bc 9a ec 00 3f
       0.3695489 0.28803948 -0.01375788 0.50361025
000080 a9 d1 78 3e 74 44 47 bd 9e 7d 4a 3e b7 04 54 be
       0.24298729 -0.048649266 0.19774482 -0.20704924
000090 ea 30 39 bf 4b 5a 3e 3c d0 c9 0a 3e fe e2 58 3d
       -0.7234026 0.011618207 0.13553548 0.05295085
0000a0 c6 00 4b be 17 f1 10 3d 75 38 e8 bd 76 d1 d1 3e
       -0.19824514 0.03538617 -0.11338893 0.4098012
0000b0 b2 10 1f 3e 77 3e 4e 3e 98 1f 25 bf 00 7d 14 bf
       0.15533713 0.20141016 -0.64501333 -0.58003235
0000c0 7a c8 26 bf 0e 61 aa 3f 92 b1 b9 3e ba 76 07 3f
       -0.6514965 1.3310869 0.36268288 0.5291554
0000d0 a2 58 41 3f e5 75 2e 3e 27 09 73 3d a1 55 a1 be
       0.7552587 0.1703716 0.0593349 -0.31510642
0000e0 d4 10 81 be a3 27 3c be d5 9f 03 bf 61 ce cf bd
       -0.2520815 -0.18374495 -0.5141576 -0.101467855
0000f0 dc 35 3f bf 2f 2b 7f be b1 b7 2e be ce 7d 47 bd
       -0.7469156 -0.24918817 -0.1706226 -0.04870396

module_list.0.output_quant.pre_transforms.0.running_var f4 [64]
000000 72 cd df 3c 6b 7d 32 3e 78 55 b6 3e 3f 37 60 3d
       0.027319644 0.17430656 0.35612082 0.054740187
000010 c1 4b c2 3d 2b 76 86 3e 82 c2 3f 3b 66 03 2e 3b
       0.09487105 0.2626203 0.0029260223 0.0026552319
000020 2c b1 d0 3c 00 d9 90 3d 74 bb 37 3e 72 39 e4 3d
       0.025475107 0.070726395 0.17942601 0.11143769
000030 a7 7d 3d 3e 67 8a 91 3c e7 97 0d 3d 98 01 96 3e
       0.18504964 0.01776619 0.034568693 0.2929809
000040 b2 18 f5 3c 05 c9 47 3c 7f b6 4d 3d 3f 83 1d 3e
       0.029919002 0.012193923 0.05022287 0.15382098
000050 7d 81 36 3e b3 f7 20 3d 85 27 72 3e c6 32 e0 3b
       0.17822833 0.039298724 0.23647888 0.00684199
000060 90 cf 24 40 80 62 d7 3e 5f 5e 80 3c bf 3b 5e 3e
       2.5751686 0.42067337 0.01567 0.21702479
000070 d1 3e 4a 3f 5b ea 35 3d ff bd 15 3b 24 1d 40 3f
       0.790021 0.044412952 0.0022848842 0.75044465
000080 72 86 f6 3e 3f 41 5b 3e b5 6d 9a 3c da 18 54 3e
       0.4814945 0.21411608 0.01885114 0.20712605
000090 7f a1 ad 3e 3b d9 0e 3e 9d 3e 60 3e 68 9f 1a 3d
       0.33912274 0.13950054 0.21898885 0.037749678
0000a0 ab e3 c1 3d 1d 0a 3a 3d ae 72 f2 3d d5 8d 16 3d
       0.09467252 0.0454198 0.1183828 0.036756355
0000b0 df 2c f2 3d ad 4a 8e 3b 15 00 92 3f 23 95 8e 3d
       0.11824965 0.004342398 1.1406275 0.06962039
0000c0 41 26 14 3f 3c 8d b4 40 81 eb 15 3c ea e4 9c 3e
       0.5787087 5.6422405 0.009150387 0.30643398
0000d0 1d b4 24 3f 3b 77 1f 3b 6b 99 49 3d 45 86 be 3d
       0.6433733 0.0024332542 0.049218576 0.09302954
0000e0 27 1e 27 3e b2 7d e8 3d 56 6f d5 3d f5 be 44 3c
       0.16320096 0.113520995 0.10421626 0.012008418
0000f0 7d 79 47 40 43 29 f2 3d d9 99 d5 3e 65 69 48 3d
       3.11679 0.11824276 0.4171894 0.048928637

module_list.1.input_quant.pre_transforms.0.weight f4 [64]
000000 f7 60 a1 3e f4 c3 13 3f dc 89 c2 3e f0 6d cd 3e
       0.3151929 0.57720876 0.37995803 0.40122938
000010 2d 87 75 3f f6 b8 12 3f 9e d6 2d 3f 9e d6 2d 3f
       0.95909387 0.5731348 0.67905605 0.67905605
000020 3f ab 6b 3e c8 21 f2 3e 9e 8f 28 3f 42 ad fe 3e
       0.23014544 0.47291398 0.6584414 0.4974156
000030 c7 19 88 3f 60 a6 6c 40 cf b9 bd 3e cc 0f d4 3f
       1.0632867 3.6976547 0.37055823 1.6567321
000040 9e d6 2d 3f fa ac a0 3e 42 e7 1d 3f 93 08 3d 3f
       0.67905605 0.3138197 0.61680996 0.7384121
000050 9a 77 3e 3f e6 53 bb 3e ba 93 62 3f 7d f4 a3 3e
       0.7440125 0.36587447 0.8850666 0.32022467
000060 06 a8 92 3f 70 61 88 3f 9e d6 2d 3f 29 a0 15 3f
       1.1457527 1.0654736 0.67905605 0.5844751
000070 dc 51 dd 3e 3b 24 a7 3e 9e d6 2d 3f f2 25 47 3f
       0.43226516 0.3264483 0.67905605 0.77792275
000080 fd 54 87 3f a1 64 88 3f bc f6 7d 3e 99 44 0b 3f
       1.0572811 1.065571 0.24801153 0.54401547
000090 7e ee 00 3f c1 c2 b2 3f 63 04 0b 3f b1 9e b4 3e
       0.5036391 1.3965684 0.5430357 0.35277322
0000a0 91 49 23 3f 72 a7 2f 3f cc b9 0a 3f e9 79 cd 3e
       0.6378413 0.68614876 0.54189754 0.40132073
0000b0 d1 25 db 3e 9e d6 2d 3f d5 30 4d 3f b3 6b 09 3f
       0.4280229 0.67905605 0.80152637 0.5367996
0000c0 1d 18 88 3f a3 fd 0f 40 a2 5a a8 3e b7 4a a5 3f
       1.0632359 2.2498558 0.32881647 1.2913426
0000d0 a0 6a 76 3f 9e d6 2d 3f ac 61 49 3f 4c c9 0e 3f
       0.96256447 0.67905605 0.7866466 0.55775905
0000e0 9f 02 43 3f b0 f8 46 3f 22 05 b3 3e 8e f3 e3 3e
       0.76175874 0.77723217 0.34964854 0.44521755
0000f0 3d 32 2f 3f 52 1f 41 3f 4c e7 c4 3e d7 53 e3 3e
       0.6843603 0.75438416 0.38457716 0.44399902

module_list.1.input_quant.pre_transforms.0.bias f4 [64]
000000 af e5 06 3f 55 64 0c 3e b6 e9 0a 3f 62 db fb 3d
       0.5269422 0.13710149 0.54262865 0.12297703
000010 a3 e4 2f 3f de 25 3e 3f 00 00 00 00 00 00 00 00
       0.68708247 0.7427653 0.0 0.0
000020 0a bc 47 3e ea dd ae ba 3f ee 0b bd d8 3a 89 3e
       0.19505325 -0.0013341282 -0.034162756 0.26802707
000030 9d 02 c3 3e 57 47 1a 3f a3 08 dc 3e 90 80 a3 bf
       0.3808793 0.60265106 0.4297534 -1.2773609
000040 00 00 00 00 8b cc 41 3e 10 e6 88 3d e8 de 4e bf
       0.0 0.18925683 0.06684506 -0.8080888
000050 27 eb ba 3e a4 e6 11 3f f8 67 64 3f da 86 d5 3d
       0.36507532 0.56992555 0.89221144 0.104261115
000060 78 4c 38 3e 9a 76 85 bf 00 00 00 00 6d 43 c5 bc
       0.1799792 -1.0426819 0.0 -0.024080003
000070 24 cc 2a 3f 42 e0 58 3f 00 00 00 00 f9 c0 c9 3e
       0.66717744 0.8471719 0.0 0.3940504
000080 1f 57 43 be cb d8 a7 bf 3f 25 08 3f a3 f9 8b 3e
       -0.19076203 -1.3113035 0.53181833 0.27338895
000090 c5 b5 72 be e7 72 a7 bf 1f 49 db 3e 52 25 71 3e
       -0.23702152 -1.308194 0.42829224 0.23549393
0000a0 3a 7f 25 bf 9b d7 5f 3e fe 27 a2 bc c0 06 9a 3e
       -0.6464726 0.2185959 -0.01979446 0.30083275
0000b0 1c 3a 9a 3e 00 00 00 00 12 68 76 be 3d 62 be 3c
       0.3012246 0.0 -0.24063137 0.023240203
0000c0 0f f7 f8 3e ff 33 aa bf 9b f7 20 3f db db 9c bd
       0.4862599 -1.3297118 0.62877816 -0.076591216
0000d0 6f a2 4c be 00 00 00 00 2c 1c 9b 3f ba f9 00 3e
       -0.19983838 0.0 1.2117972 0.12595263
0000e0 15 ea 83 be 53 dc 4a bf 5e f4 7d 3e 56 8c 16 3e
       -0.25764528 -0.7924244 0.2480025 0.14701971
0000f0 9d 26 e7 3e ad 3a 25 3e 36 92 18 3f 73 ec 08 3f
       0.45146647 0.16135664 0.595981 0.5348579

module_list.1.input_quant.pre_transforms.0.running_mean f4 [64]
000000 40 61 d4 3d c7 a9 95 3e 81 a4 0a 3f e5 f8 06 3e
       0.103701115 0.29231092 0.54157263 0.13180883
000010 1f 15 a9 bd b8 54 14 3f 2f 03 22 bd 2f 71 a7 bc
       -0.08255982 0.5794177 -0.039553817 -0.020439712
000020 b9 2b 8b bc 64 ec fa bd fc 09 5d bd 30 92 06 be
       -0.016988622 -0.12252119 -0.0539646 -0.13141704
000030 c5 68 d3 bd f0 64 9a be a7 a3 d6 3d eb 7f 66 3e
       -0.103227176 -0.30155134 0.10480433 0.22509734
000040 2f fb 51 3d 44 16 00 be 77 ac 0c bd 85 ee 6a bd
       0.051264938 -0.12508494 -0.034344163 -0.057356376
000050 e6 4d 1c 3f 8d 1f 2f 3e 17 ce 64 3e 3f d5 4a 3e
       0.61056364 0.1710188 0.22344242 0.1980791
000060 cd a1 4a 3f c3 f3 c6 be 23 12 30 3e ea 13 2b 3e
       0.7915314 -0.3885785 0.17194419 0.16706815
000070 83 35 bd 3e e9 79 93 3e bb 68 61 bc 9a ec 00 3f
       0.3695489 0.28803948 -0.01375788 0.50361025
000080 a9 d1 78 3e 74 44 47 bd 9e 7d 4a 3e b7 04 54 be
       0.24298729 -0.048649266 0.19774482 -0.20704924
000090 ea 30 39 bf 4b 5a 3e 3c d0 c9 0a 3e fe e2 58 3d
       -0.7234026 0.011618207 0.13553548 0.05295085
0000a0 c6 00 4b be 17 f1 10 3d 75 38 e8 bd 76 d1 d1 3e
       -0.19824514 0.03538617 -0.11338893 0.4098012
0000b0 b2 10 1f 3e 77 3e 4e 3e 98 1f 25 bf 00 7d 14 bf
       0.15533713 0.20141016 -0.64501333 -0.58003235
0000c0 7a c8 26 bf 0e 61 aa 3f 92 b1 b9 3e ba 76 07 3f
       -0.6514965 1.3310869 0.36268288 0.5291554
0000d0 a2 58 41 3f e5 75 2e 3e 27 09 73 3d a1 55 a1 be
       0.7552587 0.1703716 0.0593349 -0.31510642
0000e0 d4 10 81 be a3 27 3c be d5 9f 03 bf 61 ce cf bd
       -0.2520815 -0.18374495 -0.5141576 -0.101467855
0000f0 dc 35 3f bf 2f 2b 7f be b1 b7 2e be ce 7d 47 bd
       -0.7469156 -0.24918817 -0.1706226 -0.04870396

module_list.1.input_quant.pre_transforms.0.running_var f4 [64]
000000 72 cd df 3c 6b 7d 32 3e 78 55 b6 3e 3f 37 60 3d
       0.027319644 0.17430656 0.35612082 0.054740187
000010 c1 4b c2 3d 2b 76 86 3e 82 c2 3f 3b 66 03 2e 3b
       0.09487105 0.2626203 0.0029260223 0.0026552319
000020 2c b1 d0 3c 00 d9 90 3d 74 bb 37 3e 72 39 e4 3d
       0.025475107 0.070726395 0.17942601 0.11143769
000030 a7 7d 3d 3e 67 8a 91 3c e7 97 0d 3d 98 01 96 3e
       0.18504964 0.01776619 0.034568693 0.2929809
000040 b2 18 f5 3c 05 c9 47 3c 7f b6 4d 3d 3f 83 1d 3e
       0.029919002 0.012193923 0.05022287 0.15382098
000050 7d 81 36 3e b3 f7 20 3d 85 27 72 3e c6 32 e0 3b
       0.17822833 0.039298724 0.23647888 0.00684199
000060 90 cf 24 40 80 62 d7 3e 5f 5e 80 3c bf 3b 5e 3e
       2.5751686 0.42067337 0.01567 0.21702479
000070 d1 3e 4a 3f 5b ea 35 3d ff bd 15 3b 24 1d 40 3f
       0.790021 0.044412952 0.0022848842 0.75044465
000080 72 86 f6 3e 3f 41 5b 3e b5 6d 9a 3c da 18 54 3e
       0.4814945 0.21411608 0.01885114 0.20712605
000090 7f a1 ad 3e 3b d9 0e 3e 9d 3e 60 3e 68 9f 1a 3d
       0.33912274 0.13950054 0.21898885 0.037749678
0000a0 ab e3 c1 3d 1d 0a 3a 3d ae 72 f2 3d d5 8d 16 3d
       0.09467252 0.0454198 0.1183828 0.036756355
0000b0 df 2c f2 3d ad 4a 8e 3b 15 00 92 3f 23 95 8e 3d
       0.11824965 0.004342398 1.1406275 0.06962039
0000c0 41 26 14 3f 3c 8d b4 40 81 eb 15 3c ea e4 9c 3e
       0.5787087 5.6422405 0.009150387 0.30643398
0000d0 1d b4 24 3f 3b 77 1f 3b 6b 99 49 3d 45 86 be 3d
       0.6433733 0.0024332542 0.049218576 0.09302954
0000e0 27 1e 27 3e b2 7d e8 3d 56 6f d5 3d f5 be 44 3c
       0.16320096 0.113520995 0.10421626 0.012008418
0000f0 7d 79 47 40 43 29 f2 3d d9 99 d5 3e 65 69 48 3d
       3.11679 0.11824276 0.4171894 0.048928637

module_list.1.fc.weight f4 [32, 64]
000000 18 f5 c5 bb 3a be 85 bc 8b 8a 07 3d 6c 81 86 3c
       -0.0060411803 -0.016326059 0.03309111 0.016419135
000010 6d 51 9c 3d f8 56 c0 3b 76 85 9c bd 9b 97 8d bb
       0.07632718 0.0058697425 -0.07642643 -0.0043210513
000020 6e ae 8d 3d 0e a8 06 bd fa 64 2a 3b 30 a5 95 3b
       0.069180354 -0.032875113 0.0026000128 0.004566811
000030 cb b6 71 bd a3 6f a5 3d 20 a2 a7 bc 15 f6 80 bd
       -0.059012216 0.08077934 -0.02046305 -0.062969364
000040 9f 23 76 bd fc 19 51 bd 53 b6 a7 bd 86 5e 85 3d
       -0.060092565 -0.05105017 -0.081890725 0.065121695
000050 3a 84 9b 3d a3 40 8f bd 4c 64 43 bd cb a1 28 3d
       0.075935796 -0.0699475 -0.047703072 0.041169923
000060 91 8b b9 bc 0e 6e a9 3d 1c 4d 31 bd bc 77 07 bd
       -0.022649558 0.082729444 -0.043286428 -0.033073172
000070 46 bc 8e bd ed 9c a5 3e 3e 22 6b 3d c8 7f 5d bc
       -0.06969504 0.32346287 0.057405703 -0.013519235
000080 ef 7e 9f bd c9 3d b1 3a 1a ad 41 bd c1 3c ce 3c
       -0.077878825 0.0013522442 -0.047284223 0.025175454
000090 37 e4 a9 3d f8 56 20 3d 12 28 91 3d 4f 36 82 bd
       0.08295482 0.03914544 0.07087721 -0.06358015
0000a0 99 c7 82 bd 6f 89 a9 bd cb 42 68 3d 2b 7a 7c bc
       -0.063857265 -0.082781665 0.056704324 -0.0154099865
0000b0 98 3b 05 3d 6c 06 60 bd d4 8e 29 bf 96 a5 a0 3d
       0.032527536 -0.054693624 -0.66233563 0.07844083
0000c0 d5 9d 69 3b 26 c0 92 3d ff 0a 6c bd 53 9a 08 3c
       0.0035647054 0.07165556 -0.057627674 0.008337575
0000d0 95 5f 9a bc 51 85 9e bd 88 55 31 bd 9e 51 b2 be
       -0.018844405 -0.07740272 -0.04329446 -0.34827894
0000e0 d9 b8 a6 bd 6e b8 76 3d 7a 87 43 bd 80 bf 93 bb
       -0.08140726 0.06023448 -0.047736622 -0.0045089126
0000f0 2a d2 6e ba 8c 3c a7 bd 03 7b 1d bd 1a 66 5f 3c
       -0.00091102964 -0.08165845 -0.03844739 0.013635183
000100 6f d9 c6 bc e2 94 4c 3d 56 03 1c bf d2 05 03 3d
       -0.024273602 0.049946673 -0.6094259 0.031987973
000110 3f 7a 43 3d bb 90 69 3c 41 b6 98 bd fc ad 17 3d
       0.047724005 0.014255698 -0.07456637 0.03703116
000120 1c 78 c2 bc fc c0 8e 3c 63 de e9 3c 63 78 c6 3c
       -0.023738913 0.017426006 0.028548425 0.024227327
000130 3a b0 7b 3d fa ca d4 3e 73 ff 7e bd ff e9 21 bd
       0.06144736 0.4156111 -0.062255334 -0.039529797
000140 a7 31 14 3d a9 8d ef ba d1 90 9d 3c a4 27 9b bd
       0.036180165 -0.0018276471 0.019234093 -0.0757592
000150 57 5c 0d bd c6 57 b4 ba 74 be 8d 3d 93 ee 7e bd
       -0.03451189 -0.0013759069 0.06921092 -0.06223924
000160 4f bb 9e 3c a7 0e 2c 3c 7c cb 16 bd 2f 42 16 3d
       0.019376425 0.01050154 -0.03681515 0.03668421
000170 0d 2d 99 3d 0b 3b 90 3d 13 63 9e bc 11 d6 7d bb
       0.07479296 0.070425116 -0.019334352 -0.003873233
000180 17 5c 67 bb 39 24 4b 3d 9f 52 3b bd 89 09 ad 3c
       -0.0035302693 0.04959509 -0.04573309 0.02112271
000190 40 9c 47 3d 67 6f 46 3d e7 eb 0b bd 8a 4f 46 3d
       0.048732996 0.048446085 -0.03416052 0.048415698
0001a0 18 ad 93 bd 3f 38 d6 bc da 39 8c 3d fd b2 ba be
       -0.072107494 -0.026149867 0.06846972 -0.36464682
0001b0 14 c9 4e 3b ae 63 a4 3d 99 a0 29 3c 49 c2 07 ba
       0.0031552957 0.08026825 0.010353231 -0.0005178792
0001c0 63 bd a8 3c a6 d7 76 bd e2 51 ab bd a7 79 24 3d
       0.02059812 -0.060264252 -0.08365227 0.04015508
0001d0 94 2e 15 bc cd e0 1d 3d 50 0e 8e bb 2b 8f 7b 3d
       -0.009105343 0.038544465 -0.0043352023 0.061415832
0001e0 6a f6 74 bd 89 08 32 bd b1 ce 99 bd 1c 86 8f bd
       -0.05980531 -0.04346517 -0.075101264 -0.07008001
0001f0 bc 84 86 3d 2b b4 94 bc 7f f8 2e bd 8d f1 a0 be
       0.06568286 -0.018152317 -0.042717453 -0.3143429
000200 2a 39 e7 bb fb 7c d2 bc 1e f7 4c 3c 2e 83 6c 3d
       -0.007056375 -0.025694361 0.012510089 0.05774229
000210 f9 98 9c bb 14 0a 7a bd 7e 99 c6 3c 6c 22 d9 bc
       -0.004778978 -0.061044767 0.024243113 -0.026505671
000220 45 f8 4b 3f 86 12 8a bd 91 25 aa bd 79 8d e7 3e
       0.79675704 -0.06741814 -0.083079465 0.45225123
000230 78 35 9b bd ce e9 60 3d 6f c0 9d bd fa ee 31 bc
       -0.07578558 0.054910474 -0.077027194 -0.010860199
000240 65 f9 86 bd d3 9f 71 bd f7 82 90 bd 59 07 44 bd
       -0.06590537 -0.05899031 -0.070562296 -0.04785857
000250 b0 f9 af 3b 69 0d 22 3c ed f3 1e bd f5 f1 4f 3d
       0.0053703412 0.009890893 -0.038806845 0.050767858
000260 22 74 03 bd 33 6a f8 bb 21 49 36 3d d0 9f 9f 3d
       -0.032093175 -0.0075810193 0.044503335 0.07794154
000270 1f 9d 93 3d 53 a0 a3 bd c3 fe 72 bd 91 aa 6c 3c
       0.07207703 -0.07989564 -0.05932499 0.014444963
000280 c1 4b 76 ba a6 94 84 3d 4d 4b 3e 3d ec f4 7c bd
       -0.00093954435 0.06473665 0.04645853 -0.061757013
000290 7f 88 a0 3d 99 1f cf 3c 19 b0 31 3d 4f 79 7f bc
       0.078385346 0.025283622 0.04338083 -0.015592887
0002a0 00 76 7d 3d 43 24 6c bd 46 68 19 3d b5 10 ac 3d
       0.06188011 -0.05765177 0.03745296 0.08401624
0002b0 0e c6 c9 3c fa bb f1 bc 84 65 37 3b a7 02 7c 3d
       0.024630573 -0.02950858 0.0027984092 0.061525967
0002c0 29 58 49 bd f8 7f 2d bd 88 c3 5d 3c ea 26 17 bd
       -0.04915634 -0.04235837 0.013535388 -0.036902346
0002d0 07 4a 9c 3e 2b 35 f9 bc bb 01 3e 3d ee 8c 95 bd
       0.30525228 -0.03042086 0.04638837 -0.07302271
0002e0 10 27 95 bd d1 7c 87 3d 13 18 42 bc 0b a6 98 bd
       -0.07282841 0.06615604 -0.01184656 -0.07453545
0002f0 e8 28 26 3d 2e 76 5d bd 51 51 9b bb e4 78 52 3d
       0.040566355 -0.054067783 -0.0047399183 0.05138482
000300 e9 54 43 bd 7e 99 85 bd 74 28 d7 3e 36 8f 89 3f
       -0.0476884 -0.06523417 0.4202305 1.074683
000310 77 a3 a2 bc e2 d7 7c 3d 27 40 92 3c e9 aa c6 3c
       -0.019853337 0.06172932 0.017852856 0.024251418
000320 a6 3b 9d bd e4 b2 56 bd 96 61 70 bd 84 bc a9 3d
       -0.07677393 -0.052416697 -0.058686815 0.082879096
000330 3e 91 02 bd cd 93 a7 3d 7d 1f ab 3d c4 3a 54 bd
       -0.031876795 0.08182488 0.08355615 -0.051813856
000340 94 28 14 3d 34 b5 b5 3d 00 37 a7 3d 82 ae 7a 3d
       0.03617151 0.088724524 0.08164787 0.06120158
000350 fd ac c3 3c a8 b6 34 3d 71 ad 3e bc 9c c3 32 bc
       0.023886198 0.044119507 -0.011638031 -0.010910895
000360 52 01 3b bc 21 99 1f bd 2d 3a 92 bd 1a 74 37 bc
       -0.011413889 -0.038964394 -0.071400024 -0.011197114
000370 19 1d d2 bc d2 eb 8d 3d 99 c1 9e 3d 28 21 9b bd
       -0.02564864 0.06929745 0.077517696 -0.075746834
000380 0d dc 89 bd 53 e3 2a bd 84 fb a9 bd ab 39 ca bb
       -0.067314245 -0.0417207 -0.08299926 -0.0061714253
000390 55 6a b6 3c 7d b3 13 bc 31 93 a8 3c 42 37 6a bc
       0.0222675 -0.009014961 0.020577999 -0.014295401
0003a0 6a 53 a8 bd c4 14 44 bd 0a 8f a8 bd 0a 15 45 bd
       -0.08219035 -0.047871366 -0.082304075 -0.048115768
0003b0 18 2b 4a bd 3e 90 7d 3d bb 34 f1 bc 2f 1d 8d bc
       -0.049357504 0.06190514 -0.02944409 -0.01722583
0003c0 2b c3 86 bd 8f 95 e4 bc 9c 8e 3a 3c 11 91 98 3c
       -0.06580194 -0.027903346 0.01138654 0.01862386
0003d0 1f c5 9d 3d d7 e5 0f 3d 15 81 ec bb 0a 08 80 3d
       0.077036135 0.0351313 -0.007217536 0.06251533
0003e0 77 8c 44 bd 91 b6 4d 3e be ca 8b 3c 62 ae c4 3c
       -0.04798552 0.20089175 0.017064448 0.024008933
0003f0 7f fe e7 bc 87 25 1c 3c 76 eb 0c 3d 6b 83 a7 bb
       -0.028319595 0.009530432 0.03440424 -0.005112102

module_list.1.fc.bias f4 [32]
000000 cc 32 1e 3d da 3f df bd 1e 12 a5 3d 2b 64 d9 3d
       0.038622662 -0.109008506 0.08060096 0.10614809
000010 1f e7 76 be 73 7c 63 3c 0d 48 0c bd 53 92 d9 3d
       -0.24111603 0.0138846515 -0.0342484 0.10623612
000020 a0 4a a7 3c 1b 7d 41 bd b1 48 4c bd 7c 93 0b 3d
       0.020421326 -0.04723845 -0.04987401 0.0340762
000030 8f 55 8b bd 4b ac e4 3d de 87 a4 3d 3a 11 cc 3d
       -0.068034284 0.11165675 0.08033727 0.09964223
000040 5c 6b 0f be a7 51 d7 bc f3 3e 60 3e 9e ff 78 bd
       -0.14005798 -0.026284052 0.21899013 -0.06079065
000050 43 81 42 be 72 03 55 3e d4 a4 b7 bd 21 0f ee bd
       -0.18994622 0.20802096 -0.08966985 -0.11623979
000060 84 07 34 3e 5c 63 a1 3d 99 72 6b be 0e ef 39 be
       0.17580992 0.078802794 -0.22992934 -0.18157598
000070 8d a4 bc 3d 80 34 82 3d de 07 95 bc 24 80 ee 3d
       0.09211073 0.0635767 -0.018192228 0.11645535

module_list.1.fc.mask.mask f4 [32, 64]
000000 00 00 00 00 00 00 00 00 00 00 00 00 00 00 00 00
       0.0 0.0 0.0 0.0
000010 00 00 00 00 00 00 00 00 00 00 00 00 00 00 00 00
       0.0 0.0 0.0 0.0
000020 00 00 00 00 00 00 00 00 00 00 00 00 00 00 00 00
       0.0 0.0 0.0 0.0
000030 00 00 00 00 00 00 00 00 00 00 00 00 00 00 00 00
       0.0 0.0 0.0 0.0
000040 00 00 00 00 00 00 00 00 00 00 00 00 00 00 00 00
       0.0 0.0 0.0 0.0
000050 00 00 00 00 00 00 00 00 00 00 00 00 00 00 00 00
       0.0 0.0 0.0 0.0
000060 00 00 00 00 00 00 00 00 00 00 00 00 00 00 00 00
       0.0 0.0 0.0 0.0
000070 00 00 00 00 00 00 80 3f 00 00 00 00 00 00 00 00
       0.0 1.0 0.0 0.0
000080 00 00 00 00 00 00 80 3f 00 00 00 00 00 00 00 00
       0.0 1.0 0.0 0.0
000090 00 00 00 00 00 00 00 00 00 00 00 00 00 00 00 00
       0.0 0.0 0.0 0.0
0000a0 00 00 00 00 00 00 00 00 00 00 00 00 00 00 00 00
       0.0 0.0 0.0 0.0
0000b0 00 00 00 00 00 00 00 00 00 00 80 3f 00 00 00 00
       0.0 0.0 1.0 0.0
0000c0 00 00 00 00 00 00 00 00 00 00 00 00 00 00 00 00
       0.0 0.0 0.0 0.0
0000d0 00 00 00 00 00 00 00 00 00 00 00 00 00 00 80 3f
       0.0 0.0 0.0 1.0
0000e0 00 00 00 00 00 00 00 00 00 00 00 00 00 00 00 00
       0.0 0.0 0.0 0.0
0000f0 00 00 00 00 00 00 00 00 00 00 00 00 00 00 00 00
       0.0 0.0 0.0 0.0
000100 00 00 00 00 00 00 00 00 00 00 80 3f 00 00 00 00
       0.0 0.0 1.0 0.0
000110 00 00 00 00 00 00 00 00 00 00 00 00 00 00 00 00
       0.0 0.0 0.0 0.0
000120 00 00 00 00 00 00 00 00 00 00 00 00 00 00 00 00
       0.0 0.0 0.0 0.0
000130 00 00 00 00 00 00 80 3f 00 00 00 00 00 00 00 00
       0.0 1.0 0.0 0.0
000140 00 00 00 00 00 00 00 00 00 00 00 00 00 00 00 00
       0.0 0.0 0.0 0.0
000150 00 00 00 00 00 00 00 00 00 00 00 00 00 00 00 00
       0.0 0.0 0.0 0.0
000160 00 00 00 00 00 00 00 00 00 00 00 00 00 00 00 00
       0.0 0.0 0.0 0.0
000170 00 00 00 00 00 00 00 00 00 00 00 00 00 00 00 00
       0.0 0.0 0.0 0.0
000180 00 00 00 00 00 00 00 00 00 00 00 00 00 00 00 00
       0.0 0.0 0.0 0.0
000190 00 00 00 00 00 00 00 00 00 00 00 00 00 00 00 00
       0.0 0.0 0.0 0.0
0001a0 00 00 00 00 00 00 00 00 00 00 00 00 00 00 80 3f
       0.0 0.0 0.0 1.0
0001b0 00 00 00 00 00 00 00 00 00 00 00 00 00 00 00 00
       0.0 0.0 0.0 0.0
0001c0 00 00 00 00 00 00 00 00 00 00 00 00 00 00 00 00
       0.0 0.0 0.0 0.0
0001d0 00 00 00 00 00 00 00 00 00 00 00 00 00 00 00 00
       0.0 0.0 0.0 0.0
0001e0 00 00 00 00 00 00 00 00 00 00 00 00 00 00 00 00
       0.0 0.0 0.0 0.0
0001f0 00 00 00 00 00 00 00 00 00 00 00 00 00 00 80 3f
       0.0 0.0 0.0 1.0
000200 00 00 00 00 00 00 00 00 00 00 80 3f 00 00 00 00
       0.0 0.0 1.0 0.0
000210 00 00 00 00 00 00 00 00 00 00 00 00 00 00 00 00
       0.0 0.0 0.0 0.0
000220 00 00 80 3f 00 00 00 00 00 00 00 00 00 00 80 3f
       1.0 0.0 0.0 1.0
000230 00 00 00 00 00 00 00 00 00 00 00 00 00 00 00 00
       0.0 0.0 0.0 0.0
000240 00 00 00 00 00 00 00 00 00 00 00 00 00 00 00 00
       0.0 0.0 0.0 0.0
000250 00 00 00 00 00 00 00 00 00 00 00 00 00 00 00 00
       0.0 0.0 0.0 0.0
000260 00 00 00 00 00 00 00 00 00 00 00 00 00 00 00 00
       0.0 0.0 0.0 0.0
000270 00 00 00 00 00 00 00 00 00 00 00 00 00 00 00 00
       0.0 0.0 0.0 0.0
000280 00 00 00 00 00 00 00 00 00 00 00 00 00 00 00 00
       0.0 0.0 0.0 0.0
000290 00 00 00 00 00 00 00 00 00 00 00 00 00 00 00 00
       0.0 0.0 0.0 0.0
0002a0 00 00 00 00 00 00 00 00 00 00 00 00 00 00 00 00
       0.0 0.0 0.0 0.0
0002b0 00 00 00 00 00 00 00 00 00 00 00 00 00 00 00 00
       0.0 0.0 0.0 0.0
0002c0 00 00 00 00 00 00 00 00 00 00 00 00 00 00 00 00
       0.0 0.0 0.0 0.0
0002d0 00 00 80 3f 00 00 00 00 00 00 00 00 00 00 00 00
       1.0 0.0 0.0 0.0
0002e0 00 00 00 00 00 00 00 00 00 00 00 00 00 00 00 00
       0.0 0.0 0.0 0.0
0002f0 00 00 00 00 00 00 00 00 00 00 00 00 00 00 00 00
       0.0 0.0 0.0 0.0
000300 00 00 00 00 00 00 00 00 00 00 80 3f 00 00 80 3f
       0.0 0.0 1.0 1.0
000310 00 00 00 00 00 00 00 00 00 00 00 00 00 00 00 00
       0.0 0.0 0.0 0.0
000320 00 00 00 00 00 00 00 00 00 00 00 00 00 00 00 00
       0.0 0.0 0.0 0.0
000330 00 00 00 00 00 00 00 00 00 00 00 00 00 00 00 00
       0.0 0.0 0.0 0.0
000340 00 00 00 00 00 00 80 3f 00 00 00 00 00 00 00 00
       0.0 1.0 0.0 0.0
000350 00 00 00 00 00 00 00 00 00 00 00 00 00 00 00 00
       0.0 0.0 0.0 0.0
000360 00 00 00 00 00 00 00 00 00 00 00 00 00 00 00 00
       0.0 0.0 0.0 0.0
000370 00 00 00 00 00 00 00 00 00 00 00 00 00 00 00 00
       0.0 0.0 0.0 0.0
000380 00 00 00 00 00 00 00 00 00 00 00 00 00 00 00 00
       0.0 0.0 0.0 0.0
000390 00 00 00 00 00 00 00 00 00 00 00 00 00 00 00 00
       0.0 0.0 0.0 0.0
0003a0 00 00 00 00 00 00 00 00 00 00 00 00 00 00 00 00
       0.0 0.0 0.0 0.0
0003b0 00 00 00 00 00 00 00 00 00 00 00 00 00 00 00 00
       0.0 0.0 0.0 0.0
0003c0 00 00 00 00 00 00 00 00 00 00 00 00 00 00 00 00
       0.0 0.0 0.0 0.0
0003d0 00 00 00 00 00 00 00 00 00 00 00 00 00 00 00 00
       0.0 0.0 0.0 0.0
0003e0 00 00 00 00 00 00 80 3f 00 00 00 00 00 00 00 00
       0.0 1.0 0.0 0.0
0003f0 00 00 00 00 00 00 00 00 00 00 00 00 00 00 00 00
       0.0 0.0 0.0 0.0

module_list.1.output_quant.pre_transforms.0.weight f4 [32]
000000 2d 3e f9 3e 3d ad 49 3f 25 d3 d0 3e 7a a0 6a 3f
       0.4868025 0.78779966 0.4078609 0.9165112
000010 f1 f0 69 3f 9d 95 57 3f 83 bd e1 3e 8d 31 36 3f
       0.9138327 0.84212667 0.44089898 0.7116936
000020 9e d6 2d 3f c6 d4 04 3f 8c 71 26 3f 6f 9a f1 3e
       0.67905605 0.51887167 0.6501701 0.47188136
000030 5e 7f 03 3f 9f 61 ca 3f 99 70 07 3f 5e fb 58 3f
       0.5136622 1.5811042 0.52906185 0.84758556
000040 33 17 83 3f 4d 26 26 3f 75 1f 04 3f c7 b4 12 3f
       1.0241455 0.6490219 0.516105 0.57307094
000050 ae c1 9b 3f 04 79 7b 3f b2 f9 14 3f 1f 07 f1 3e
       1.2168481 0.9823153 0.58193505 0.47075745
000060 80 28 8b 3f 9e 43 fe 3e 55 ea 0d 3f 26 3b 56 3f
       1.0871735 0.49660963 0.5543569 0.83684003
000070 b4 a8 0d 3f 61 1f 12 3f 10 50 d6 3e 41 31 19 3f
       0.55335546 0.5707913 0.41857958 0.5984078

module_list.1.output_quant.pre_transforms.0.bias f4 [32]
000000 ac c0 25 3f a4 86 b2 3e 3d 1a dd 3e ac 3b a8 3f
       0.6474712 0.34868348 0.4318408 1.314321
000010 a4 84 cd bf f2 f2 5f 3f b4 3e 2f 3f e8 19 30 3f
       -1.6056104 0.8748008 0.6845505 0.6878953
000020 00 00 00 00 2e ff 43 3f dc 9c bb 3e ec c4 43 3e
       0.0 0.7656125 0.36643112 0.19118088
000030 85 f8 a8 3e 36 af 1c 40 ef 28 8e 3f 30 5c 01 3f
       0.33002105 2.448194 1.1106242 0.5053129
000040 aa 5d fc be 3d 64 41 3f 49 1b a6 3e 66 7f 8d 3e
       -0.4929021 0.75543576 0.32442692 0.2763626
000050 45 5b 3f bf 01 4f 41 3f 32 5c 11 3e 9c 05 fd 3e
       -0.7474864 0.75511175 0.14195326 0.49418342
000060 64 db 80 3f 7b 47 7f bd cc 5e e3 3e 1d e1 29 3f
       1.0066953 -0.06232403 0.44408262 0.6635912
000070 ac ad ac 3d af a9 82 3d 7c 5d a8 3e 79 c3 37 3f
       0.08431563 0.06380021 0.32883823 0.7178264

module_list.1.output_quant.pre_transforms.0.running_mean f4 [32]
000000 e2 f5 a9 3c 8c ee 1a bf b2 76 01 3f 3f 80 20 3f
       0.020747129 -0.60520244 0.5057174 0.6269569
000010 47 11 f6 3e 3a a2 e8 3e 9b b1 cb bd da 25 e0 be
       0.48060057 0.4543627 -0.09945985 -0.43778878
000020 34 19 f8 3c 73 ee 20 bf 40 a0 99 3e b7 87 a5 3e
       0.030285455 -0.62863845 0.30005074 0.32330105
000030 3d 85 17 bd 27 ca 0b 3e 73 45 2b 3e ca 11 68 bf
       -0.0369923 0.13651334 0.16725712 -0.90652144
000040 d7 d3 03 be ef 46 74 bd b7 08 2c 3f 21 40 ef be
       -0.12873779 -0.05963796 0.672008 -0.46728614
000050 4f b3 aa 3d 2f 55 a2 3d 59 ae 99 3e b7 a8 f1 3d
       0.08334982 0.07926404 0.3001583 0.11799758
000060 a4 86 af 3e 3a de a6 3d 94 fd 13 bf 3e bc 5e bf
       0.3428241 0.08147855 -0.57808805 -0.87005985
000070 69 e7 24 3e 7c a6 54 bd 8c 47 43 3e b5 78 21 3f
       0.16103901 -0.051916584 0.19070262 0.6307481

module_list.1.output_quant.pre_transforms.0.running_var f4 [32]
000000 e7 f5 84 3d 58 8e b8 3d 42 49 39 3d bc fe 0a 3e
       0.06492215 0.09011525 0.04523588 0.13573736
000010 eb 75 39 3d 66 6c 95 3e e9 56 b6 3c 6e 32 84 3e
       0.04527847 0.29184264 0.022258239 0.25819725
000020 00 51 7c 3a a8 ae a4 3e 38 4d 82 3e 23 40 ca 3d
       0.0009625107 0.32164502 0.25449538 0.09875514
000030 69 45 9c 3d ad 92 82 3d f2 bb 4f 3d 9b bd 76 3e
       0.076304264 0.063756324 0.050716348 0.24095766
000040 cd 90 31 3d b7 5c 08 3d 58 e8 d0 3c 49 22 01 3e
       0.043350983 0.033291545 0.025501415 0.12610735
000050 38 38 94 3d 32 7a 1f 3e a3 7f d6 3e 53 80 40 3d
       0.072372854 0.15573958 0.41894254 0.04699738
000060 b4 73 6e 3d 9e 58 90 3d a6 18 88 3d e3 47 9c 3e
       0.05821581 0.070481524 0.06645326 0.30523595
000070 5b 80 85 3d 70 49 a8 3d 26 b9 a6 3c 1f 6f c1 3d
       0.065186225 0.08217132 0.020351958 0.09445023

module_list.2.input_quant.pre_transforms.0.weight f4 [32]
000000 2d 3e f9 3e 3d ad 49 3f 25 d3 d0 3e 7a a0 6a 3f
       0.4868025 0.78779966 0.4078609 0.9165112
000010 f1 f0 69 3f 9d 95 57 3f 83 bd e1 3e 8d 31 36 3f
       0.9138327 0.84212667 0.44089898 0.7116936
000020 9e d6 2d 3f c6 d4 04 3f 8c 71 26 3f 6f 9a f1 3e
       0.67905605 0.51887167 0.6501701 0.47188136
000030 5e 7f 03 3f 9f 61 ca 3f 99 70 07 3f 5e fb 58 3f
       0.5136622 1.5811042 0.52906185 0.84758556
000040 33 17 83 3f 4d 26 26 3f 75 1f 04 3f c7 b4 12 3f
       1.0241455 0.6490219 0.516105 0.57307094
000050 ae c1 9b 3f 04 79 7b 3f b2 f9 14 3f 1f 07 f1 3e
       1.2168481 0.9823153 0.58193505 0.47075745
000060 80 28 8b 3f 9e 43 fe 3e 55 ea 0d 3f 26 3b 56 3f
       1.0871735 0.49660963 0.5543569 0.83684003
000070 b4 a8 0d 3f 61 1f 12 3f 10 50 d6 3e 41 31 19 3f
       0.55335546 0.5707913 0.41857958 0.5984078

module_list.2.input_quant.pre_transforms.0.bias f4 [32]
000000 ac c0 25 3f a4 86 b2 3e 3d 1a dd 3e ac 3b a8 3f
       0.6474712 0.34868348 0.4318408 1.314321
000010 a4 84 cd bf f2 f2 5f 3f b4 3e 2f 3f e8 19 30 3f
       -1.6056104 0.8748008 0.6845505 0.6878953
000020 00 00 00 00 2e ff 43 3f dc 9c bb 3e ec c4 43 3e
       0.0 0.7656125 0.36643112 0.19118088
000030 85 f8 a8 3e 36 af 1c 40 ef 28 8e 3f 30 5c 01 3f
       0.33002105 2.448194 1.1106242 0.5053129
000040 aa 5d fc be 3d 64 41 3f 49 1b a6 3e 66 7f 8d 3e
       -0.4929021 0.75543576 0.32442692 0.2763626
000050 45 5b 3f bf 01 4f 41 3f 32 5c 11 3e 9c 05 fd 3e
       -0.7474864 0.75511175 0.14195326 0.49418342
000060 64 db 80 3f 7b 47 7f bd cc 5e e3 3e 1d e1 29 3f
       1.0066953 -0.06232403 0.44408262 0.6635912
000070 ac ad ac 3d af a9 82 3d 7c 5d a8 3e 79 c3 37 3f
       0.08431563 0.06380021 0.32883823 0.7178264

module_list.2.input_quant.pre_transforms.0.running_mean f4 [32]
000000 e2 f5 a9 3c 8c ee 1a bf b2 76 01 3f 3f 80 20 3f
       0.020747129 -0.60520244 0.5057174 0.6269569
000010 47 11 f6 3e 3a a2 e8 3e 9b b1 cb bd da 25 e0 be
       0.48060057 0.4543627 -0.09945985 -0.43778878
000020 34 19 f8 3c 73 ee 20 bf 40 a0 99 3e b7 87 a5 3e
       0.030285455 -0.62863845 0.30005074 0.32330105
000030 3d 85 17 bd 27 ca 0b 3e 73 45 2b 3e ca 11 68 bf
       -0.0369923 0.13651334 0.16725712 -0.90652144
000040 d7 d3 03 be ef 46 74 bd b7 08 2c 3f 21 40 ef be
       -0.12873779 -0.05963796 0.672008 -0.46728614
000050 4f b3 aa 3d 2f 55 a2 3d 59 ae 99 3e b7 a8 f1 3d
       0.08334982 0.07926404 0.3001583 0.11799758
000060 a4 86 af 3e 3a de a6 3d 94 fd 13 bf 3e bc 5e bf
       0.3428241 0.08147855 -0.57808805 -0.87005985
000070 69 e7 24 3e 7c a6 54 bd 8c 47 43 3e b5 78 21 3f
       0.16103901 -0.051916584 0.19070262 0.6307481

module_list.2.input_quant.pre_transforms.0.running_var f4 [32]
000000 e7 f5 84 3d 58 8e b8 3d 42 49 39 3d bc fe 0a 3e
       0.06492215 0.09011525 0.04523588 0.13573736
000010 eb 75 39 3d 66 6c 95 3e e9 56 b6 3c 6e 32 84 3e
       0.04527847 0.29184264 0.022258239 0.25819725
000020 00 51 7c 3a a8 ae a4 3e 38 4d 82 3e 23 40 ca 3d
       0.0009625107 0.32164502 0.25449538 0.09875514
000030 69 45 9c 3d ad 92 82 3d f2 bb 4f 3d 9b bd 76 3e
       0.076304264 0.063756324 0.050716348 0.24095766
000040 cd 90 31 3d b7 5c 08 3d 58 e8 d0 3c 49 22 01 3e
       0.043350983 0.033291545 0.025501415 0.12610735
000050 38 38 94 3d 32 7a 1f 3e a3 7f d6 3e 53 80 40 3d
       0.072372854 0.15573958 0.41894254 0.04699738
000060 b4 73 6e 3d 9e 58 90 3d a6 18 88 3d e3 47 9c 3e
       0.05821581 0.070481524 0.06645326 0.30523595
000070 5b 80 85 3d 70 49 a8 3d 26 b9 a6 3c 1f 6f c1 3d
       0.065186225 0.08217132 0.020351958 0.09445023
