examples/mnist/mnist_polylut/mnist_configs/mnist_small_polylut_deg3/checkpoint.pth (torch, 675782 bytes, 80 tensors)

module_list.0.mask f4 [34, 4]
00000000: 0000 803f 0000 0000 0000 0000 0000 0000
00000010: 0000 0000 0000 803f 0000 0000 0000 0000
00000020: 0000 0000 0000 0000 0000 803f 0000 0000
00000030: 0000 0000 0000 0000 0000 0000 0000 803f
00000040: 0000 0040 0000 0000 0000 0000 0000 0000
00000050: 0000 803f 0000 803f 0000 0000 0000 0000
00000060: 0000 803f 0000 0000 0000 803f 0000 0000
00000070: 0000 803f 0000 0000 0000 0000 0000 803f
00000080: 0000 0000 0000 0040 0000 0000 0000 0000
00000090: 0000 0000 0000 803f 0000 803f 0000 0000
000000a0: 0000 0000 0000 803f 0000 0000 0000 803f
000000b0: 0000 0000 0000 0000 0000 0040 0000 0000
000000c0: 0000 0000 0000 0000 0000 803f 0000 803f
000000d0: 0000 0000 0000 0000 0000 0000 0000 0040
000000e0: 0000 4040 0000 0000 0000 0000 0000 0000
000000f0: 0000 0040 0000 803f 0000 0000 0000 0000
00000100: 0000 0040 0000 0000 0000 803f 0000 0000
00000110: 0000 0040 0000 0000 0000 0000 0000 803f
00000120: 0000 803f 0000 0040 0000 0000 0000 0000
00000130: 0000 803f 0000 803f 0000 803f 0000 0000
00000140: 0000 803f 0000 803f 0000 0000 0000 803f
00000150: 0000 803f 0000 0000 0000 0040 0000 0000
00000160: 0000 803f 0000 0000 0000 803f 0000 803f
00000170: 0000 803f 0000 0000 0000 0000 0000 0040
00000180: 0000 0000 0000 4040 0000 0000 0000 0000
00000190: 0000 0000 0000 0040 0000 803f 0000 0000
000001a0: 0000 0000 0000 0040 0000 0000 0000 803f
000001b0: 0000 0000 0000 803f 0000 0040 0000 0000
000001c0: 0000 0000 0000 803f 0000 803f 0000 803f
000001d0: 0000 0000 0000 803f 0000 0000 0000 0040
000001e0: 0000 0000 0000 0000 0000 4040 0000 0000
000001f0: 0000 0000 0000 0000 0000 0040 0000 803f
00000200: 0000 0000 0000 0000 0000 803f 0000 0040
00000210: 0000 0000 0000 0000 0000 0000 0000 4040
1.0 0.0 0.0 0.0 0.0 1.0 0.0 0.0
0.0 0.0 1.0 0.0 0.0 0.0 0.0 1.0
2.0 0.0 0.0 0.0 1.0 1.0 0.0 0.0
1.0 0.0 1.0 0.0 1.0 0.0 0.0 1.0
0.0 2.0 0.0 0.0 0.0 1.0 1.0 0.0
0.0 1.0 0.0 1.0 0.0 0.0 2.0 0.0
0.0 0.0 1.0 1.0 0.0 0.0 0.0 2.0
3.0 0.0 0.0 0.0 2.0 1.0 0.0 0.0
2.0 0.0 1.0 0.0 2.0 0.0 0.0 1.0
1.0 2.0 0.0 0.0 1.0 1.0 1.0 0.0
1.0 1.0 0.0 1.0 1.0 0.0 2.0 0.0
1.0 0.0 1.0 1.0 1.0 0.0 0.0 2.0
0.0 3.0 0.0 0.0 0.0 2.0 1.0 0.0
0.0 2.0 0.0 1.0 0.0 1.0 2.0 0.0
0.0 1.0 1.0 1.0 0.0 1.0 0.0 2.0
0.0 0.0 3.0 0.0 0.0 0.0 2.0 1.0
0.0 0.0 1.0 2.0 0.0 0.0 0.0 3.0

module_list.0.input_quant.pre_transforms.1.weight f4 [784]
00000000: 79c5 183f 5aa7 563f dc8a d83e 5aa7 563f
00000010: 1811 863e 8050 c33e 6496 643f f2fa 703f
00000020: 5aa7 563f 1350 98bc 10f5 953e 57a7 813e
00000030: 6b9e e93d 9976 e73d e783 b33d 5aa7 563f
00000040: 17be 8b3e ddc6 613e c06d b63e cf40 db3d
00000050: 58e4 b73e 5aa7 563f 2cf0 903e 5aa7 563f
00000060: a47c 493f 5aa7 563f b11a b83e db4e 273f
00000070: e52b b03e df88 e33d 5aa7 563f e8f0 813f
00000080: 746b b63f 1631 f53e 5aa7 563f 3c58 313f
00000090: 298c c83e 5663 763f 5aa7 563f 07ce 4a3f
000000a0: 401d a33d e8e4 783e f12d 043f 8b8c 7a3e
000000b0: 16db 7a3f 0c3e 813f e005 883e 2b2e cf3e
000000c0: cd76 143e 7ce6 1d3f ef67 0c3f 6f54 453f
000000d0: 5aa7 563f da3a 1a3f 1bd9 2c3e 50e7 0e3e
000000e0: f2f3 373f 5aa7 563f c1c5 713f 66cb dc3d
000000f0: b650 073e de4a 183f 71f6 0f3f 5aa7 563f
00000100: fb50 183f 4759 1640 5aa7 563f 6a28 3c3f
00000110: 0975 c83e 9481 923e 5aa7 563f f938 5e40
00000120: 4854 0d3f 9d44 993e 4983 183e 5aa7 563f
00000130: 648b 873f 858f 8c3f 1b0f b33f c2b5 133f
00000140: b1a4 f13e 2a27 003e 6a17 2a3f a058 f73e
00000150: 5aa7 563f 5aa7 563f 545d e23e fe35 b53e
00000160: 9055 023f d338 283f 310f f53e 815f 253f
00000170: 7e85 763f c12c 2940 ab3f 0e40 57ce 3a3e
00000180: 2969 a83e 5aa7 563f e8a2 dabc 5aa7 563f
00000190: 53d3 ca3e c2dc 133f 7237 a63e 61d0 f83e
000001a0: 1558 1440 01bc 513f 0401 0d3f d653 213f
000001b0: 8746 3c3f 471e a33d 8366 013f 9248 e13e
000001c0: 297c 313e c823 7f3e 090d 073f 0467 a73e
000001d0: 78a2 803e 6cfb af3e 7521 5d3f 8635 e83f
000001e0: b663 9a3f 2a27 3140 5aa7 563f 5aa7 563f
000001f0: 2ed7 a63e a88d 2c3f 2242 603f 8102 3740
00000200: 10c6 f63f a3c9 4d3f 5aa7 563f 18f7 873e
00000210: 0760 4640 3831 673f 5aa7 563f b214 d93f
00000220: 2148 833f 5aa7 563f 1563 843e a3be 993e
00000230: 1726 763f 91de ee3e 861e 0d3f f11e a03f
00000240: 0d37 b33e 34e8 b13f 8544 9c3f 3663 703e
00000250: 5aa7 563f a9d8 9b3f 84fa f03e 53ff d83e
00000260: 2313 ab3f eb02 db3f 84e2 cc3f 5aa7 563f
00000270: e31e 693f 28f3 913f 9bf2 c23f 5aa7 563f
00000280: 8444 af3f 2b36 873f 520d da3f 7d17 d33e
00000290: f7c3 f83e 1b41 303f cab7 203f 7a92 403e
000002a0: 5aa7 563f 07d5 873e 93c1 b93e 6aef 533f
000002b0: 7090 8d3f 3719 2440 0139 9f3e aa2a 113f
000002c0: 2da9 4d3f 91b0 7f3f 56c4 4a40 3555 da3f
000002d0: 5aa7 563f b964 053f fb03 243f 2c05 293f
000002e0: 5aa7 563f 129b ff3f 6b87 283f 5aa7 563f
000002f0: 9494 643f e13b b53f 5aa7 563f 2044 f73f
00000300: 9bd6 4e3f 07b8 b53f 6f11 893f 5aa7 563f
00000310: b0aa 46bd 5aa7 563f c757 0e3d 95cd 543f
00000320: 5aa7 563f 8b27 7840 5aa7 563f 5aa7 563f
00000330: 932f 993f 39bb 5d3f 5aa7 563f a54d b63f
00000340: b68e 783f 6bd0 313f c2f2 e43f a4a5 a03f
00000350: 454c a53f ec1d ac3f 5aa7 563f 1f26 053f
00000360: 7fed 083f 8f48 4c3f 5aa7 563f fa57 ac3e
00000370: 5ef7 5a40 17d9 4a40 5dcd bd3e 3b58 073f
00000380: 5aa7 563f a3b9 5d3f 55d0 aa3e 4d2b dd3f
00000390: 2fda c73e 49c6 113f 5aa7 563f 5aa7 563f
000003a0: bd88 ac3f b1dc 503f b65e 6a3f c94a 083f
000003b0: ce70 723f 5aa7 563f c0d7 833f 0a4e 5a3f
000003c0: 8e64 093f 691b 093f f5ab cd3f d3e8 e33f
000003d0: 6a6e 173f 2e73 a03f 5aa7 563f d3af 243f
000003e0: 33a5 f43f a8bf b33f 5aa7 563f 67e0 233f
000003f0: 6d00 bc3e ba08 0b3f 4921 7a3f cac9 c33f
0.5967632 0.8384911 0.4229344 0.8384911 0.26184916 0.38147354 0.8929198 0.9413291
0.8384911 -0.01859287 0.2928853 0.25322983 0.11407169 0.113019176 0.08765393 0.8384911
0.27293465 0.22048517 0.35630608 0.10705721 0.359164 0.8384911 0.28308237 0.8384911
0.7870581 0.8384911 0.35957864 0.653547 0.3440849 0.111100905 0.8384911 1.0151644
1.4251542 0.47889012 0.8384911 0.6927526 0.39169434 0.96245325 0.8384911 0.7922062
0.07964563 0.24306071 0.516326 0.24467675 0.9799055 1.009706 0.26566982 0.4046491
0.14498444 0.61679816 0.5484609 0.7708196 0.8384911 0.6024605 0.16879694 0.13955426
0.71856606 0.8384911 0.94442374 0.10780983 0.13214383 0.5948924 0.56235415 0.8384911
0.59498566 2.349199 0.8384911 0.73499167 0.3915179 0.28614485 0.8384911 3.4722273
0.5520673 0.2993516 0.14893831 0.8384911 1.0589414 1.0981299 1.3988985 0.57699215
0.47195962 0.1251494 0.6644198 0.48309803 0.8384911 0.8384911 0.4421183 0.35392755
0.5091181 0.65711707 0.47863153 0.6459885 0.9629744 2.6433566 2.222636 0.18242775
0.3289273 0.8384911 -0.026689008 0.8384911 0.39614353 0.57758725 0.32464176 0.4859648
2.317876 0.81927496 0.55079675 0.6301855 0.73545116 0.07964759 0.50547045 0.4400068
0.1733252 0.24915993 0.52754265 0.32695782 0.25123954 0.34371507 0.86379176 1.8141334
1.2061679 2.7680154 0.8384911 0.8384911 0.32586044 0.6740365 0.8760091 2.8595278
1.9279194 0.803858 0.8384911 0.26555705 3.099611 0.90309477 0.8384911 1.6959441
1.0256387 0.8384911 0.25856844 0.30028257 0.9615187 0.4665418 0.551247 1.2509443
0.35002938 1.3898988 1.220841 0.23475346 0.8384911 1.2175494 0.47066128 0.42382297
1.3365215 1.7110265 1.6006627 0.8384911 0.91062754 1.140233 1.5230287 0.8384911
1.3692784 1.0563406 1.7035315 0.41228858 0.4858701 0.68849343 0.6278044 0.18805876
0.8384911 0.26529714 0.36280498 0.8278719 1.1059704 2.564039 0.31098178 0.56705725
0.80336267 0.99878794 3.1682334 1.7057253 0.8384911 0.52106816 0.64068574 0.66023517
0.8384911 1.9969199 0.6583163 0.8384911 0.8928921 1.4158899 0.8384911 1.9317665
0.8079621 1.4196786 1.0708445 0.8384911 -0.048502624 0.8384911 0.03475168 0.83126193
0.8384911 3.8774135 0.8384911 0.8384911 1.1967643 0.86613804 0.8384911 1.4242445
0.9709276 0.69458646 1.7886584 1.255055 1.2913901 1.3446631 0.8384911 0.52011293
0.5348739 0.79798216 0.8384911 0.3366087 3.421348 3.1695 0.37070742 0.52869004
0.8384911 0.86611384 0.3336207 1.7278839 0.39033648 0.56943184 0.8384911 0.8384911
1.3479229 0.8158675 0.9155077 0.53239113 0.94703376 0.8384911 1.0300217 0.8527533
0.5366906 0.5355745 1.6068102 1.7805427 0.59152853 1.253515 0.8384911 0.64330786
1.9112915 1.4042864 0.8384911 0.64014286 0.36719075 0.5431019 0.9770704 1.5295956

module_list.0.input_quant.pre_transforms.1.bias f4 [784]
00000000: 6c7d 9e3c 0000 0000 d179 c6bd 0000 0000
00000010: 2664 523e 25c4 c03e 88d6 c1bd 1fff c3bd
00000020: 0000 0000 1cad 1d3e 974f 053f 39d4 c53e
00000030: b468 6a3e d7e7 f73e 0cff 6c3e 0000 0000
00000040: 3214 1d3f 7954 203f 2d36 193f d782 2b3e
00000050: 1001 863e 0000 0000 63be 843e 0000 0000
00000060: 4caf a63d 0000 0000 c9f8 1f3f ea7e 86bd
00000070: bd24 4f3e a8ac 523e 0000 0000 69ca 3abe
00000080: 761d fbbe f48e 7c3e 0000 0000 42c1 243e
00000090: 1fde ee3d db22 c5bd 0000 0000 5691 073e
000000a0: 7d9d d53d b8dc 733e b5df cbbc 20b6 743e
000000b0: 4b91 14be a730 60bd e215 693e fd8d a23e
000000c0: 554d 563e 2cfa 973e 5d06 873d b3c2 5e3e
000000d0: 0000 0000 d1cd 703e ef14 6c3e 4219 aa3e
000000e0: 51d6 573e 0000 0000 e6f7 183c db17 073f
000000f0: 242b a93d 0ba0 3f3d 7967 8f3c 0000 0000
00000100: c0e4 3e3e 4666 dcbe 0000 0000 4172 a53e
00000110: 1d0c 0c3f 78a7 42bf 0000 0000 79c5 813e
00000120: 61fd 933e 0f49 1c3f fa86 a7be 0000 0000
00000130: bf4f e63c 2b8e 523d 9130 23bf d06a 543e
00000140: 19f3 f83e b125 0b3f 0cf2 1b3e 72b9 b93e
00000150: 0000 0000 0000 0000 9153 5c3e 8a79 7b3e
00000160: 2253 0e3f 10f1 813e 1049 873e be86 bb3c
00000170: 756b 51bd e3db bebe 33de 4c3e 1b81 27bf
00000180: 7edd 933d 0000 0000 6ce8 c23d 0000 0000
00000190: a6b9 06bf 285c 26be 1761 3dbf 210b 203f
000001a0: 5312 1abe c9d7 273e 0e39 9d3d 4074 5f3e
000001b0: c3b7 75bd 31d4 5d3d f3e1 5c3e f4d7 213f
000001c0: 47a8 823e 3055 db3e 1002 873e c9e1 0c3f
000001d0: 1f46 423e ec2a 533e 5a02 613d 7fd7 693d
000001e0: 842b 333e 767f 11be 0000 0000 0000 0000
000001f0: 295e 0dbf 4bcd af3d 5959 aebe d00d afbe
00000200: 7465 e33e f1eb f53d 0000 0000 3011 243f
00000210: 2bb8 e93e 2a02 b3bf 0000 0000 53e3 083e
00000220: 9a7e 12be 0000 0000 7590 223f feee cf3e
00000230: 26f7 02bd 56ba 1c3e d7ee 033e a774 b5be
00000240: e068 663e c058 e4be 40cd 98bd c4ab 14bf
00000250: 0000 0000 caa5 3abf 1001 e2be 7321 15bf
00000260: 95a2 043d 10f9 f53e 8957 5e3f 0000 0000
00000270: 7dc0 c6bc e74f 323e 5adf 7f3e 0000 0000
00000280: dafa 9cbd 78b7 c8be 3037 0fbf e4ab 06bf
00000290: c24a c3bf 5daf f93d 4329 22be e95a 073e
000002a0: 0000 0000 fbf0 0f3f 1aff 0f3f caf9 dd3d
000002b0: 81c4 133e 0043 49bf cc25 28bf 90be e7be
000002c0: 8ace 8bbe fe9a b8be 6a49 af3f fbd5 f83e
000002d0: 0000 0000 c0bc 93be f1a7 78be 83c3 58bd
000002e0: 0000 0000 7f81 9d3f 45ba 35be 0000 0000
000002f0: eb35 19bd 2c3e 8cbb 0000 0000 3b04 c53d
00000300: b30e 5d3d e280 c83c e1f5 7fbc 0000 0000
00000310: 18d5 533e 0000 0000 d504 f33e e668 383e
00000320: 0000 0000 04d3 9d3d 0000 0000 0000 0000
00000330: 2cd4 33be 1f73 41be 0000 0000 2137 fbbe
00000340: 6c48 763e 2c03 cabe 4f6a bb3f 4261 75bf
00000350: 753e 583f e6ef 4f3f 0000 0000 ed50 bebe
00000360: 3c0b f2be 42c9 673e 0000 0000 9776 53bf
00000370: f546 9abb 44b8 43be 0b8e 193f 8d23 493d
00000380: 0000 0000 0c8f 223e dd47 cfbd 55b6 1a3e
00000390: f813 40bf 48f5 b8bd 0000 0000 0000 0000
000003a0: 215c a53e 67bc 3d3e 7817 77ba 2279 8abe
000003b0: 4e71 933e 0000 0000 7586 bc3e 376d 033e
000003c0: 1954 44be a826 35be bb50 733f caa6 493f
000003d0: 98ba c7be 27f9 ab3e 0000 0000 f8bf e9be
000003e0: 4ed2 9abe b5d7 02bf 0000 0000 48ae 5a3d
000003f0: cfe2 763e caff b53e c694 1ebe 5fc7 8f3e
0.019346915 0.0 -0.096912034 0.0 0.20546016 0.37649646 -0.09464747 -0.09570145
0.0 0.15398067 0.5207457 0.38638476 0.22891504 0.48419067 0.23144168 0.0
0.6135894 0.62628895 0.5984829 0.1674913 0.26172686 0.0 0.25926504 0.0
0.08138904 0.0 0.6248899 -0.06567176 0.20228858 0.20573676 0.0 -0.18241276
-0.49045914 0.24663907 0.0 0.16089347 0.1166346 -0.09625789 0.0 0.13239035
0.10430429 0.23814666 -0.024886945 0.238976 -0.1450855 -0.0547339 0.22762254 0.31748953
0.20927937 0.29683053 0.065930106 0.2175396 0.0 0.23516013 0.2305486 0.33222395
0.21077849 0.0 0.009336447 0.52770776 0.082601815 0.04678349 0.017505394 0.0
0.18641949 -0.43046778 0.0 0.3231373 0.54705983 -0.7603679 0.0 0.25345972
0.2890425 0.6104898 -0.32720166 0.0 0.028114198 0.051405113 -0.6374598 0.2074387
0.4862297 0.5435439 0.15229052 0.36274296 0.0 0.0 0.21516253 0.24558082
0.555956 0.2537923 0.2642293 0.022891399 -0.05112787 -0.37277135 0.20006637 -0.65431374
0.07219981 0.0 0.09516987 0.0 -0.5262703 -0.16246092 -0.7397627 0.6251698
-0.15046053 0.16390909 0.07676898 0.2182169 -0.059989702 0.05415744 0.21570568 0.63220143
0.2551901 0.4283843 0.2636876 0.5503202 0.18972062 0.20621842 0.054933883 0.05709028
0.17497069 -0.14208779 0.0 0.0 -0.552218 0.085840784 -0.34052542 -0.34190226
0.4441334 0.12007893 0.0 0.64088726 0.45648322 -1.3985035 0.0 0.13367967
-0.14306107 0.0 0.63501674 0.40612024 -0.03197398 0.15305457 0.12884079 -0.3544056
0.22500944 -0.4459896 -0.07461023 -0.58074594 0.0 -0.72909224 -0.44141436 -0.58254164
0.032381613 0.48041582 0.8685232 0.0 -0.024261707 0.17413293 0.24987546 0.0
-0.07665034 -0.39202476 -0.55943584 -0.52606034 -1.5257189 0.12191651 -0.15836053 0.13218273
0.0 0.5622708 0.5624863 0.10838659 0.14430429 -0.7861786 -0.65682673 -0.45262575
-0.27306014 -0.3605575 1.3694279 0.48600754 0.0 -0.28854942 -0.24282815 -0.05292083
0.0 1.2305144 -0.17746837 0.0 -0.037404936 -0.0042798724 0.0 0.096199475
0.053969096 0.024475519 -0.015622587 0.0 0.20686758 0.0 0.47464624 0.18008766
0.0 0.07706264 0.0 0.0 -0.17561406 -0.18891571 0.0 -0.49065498
0.24051064 -0.39455545 1.4641818 -0.9585153 0.844703 0.8122543 0.0 -0.37171116
-0.47274196 0.22635368 0.0 -0.8260283 -0.004708166 -0.1911326 0.59982365 0.04910617
0.0 0.1587488 -0.10121129 0.15108617 -0.7503047 -0.09031159 0.0 0.0
0.3229685 0.18528901 -0.00094257994 -0.27045542 0.28797382 0.0 0.36821333 0.12834631
-0.19172706 -0.17690527 0.9504506 0.78770125 -0.39009547 0.33588526 0.0 -0.45654273
-0.30238575 -0.5111039 0.0 0.053388864 0.24109958 0.35546714 -0.1548644 0.28081796

module_list.0.input_quant.pre_transforms.1.running_mean f4 [784]
00000000: bce3 d8be d481 d9be a1e1 d8be 4969 d8be
00000010: 3bed d8be b533 d9be 0489 d9be 3470 d9be
00000020: 3290 d9be 1661 d9be 8c9f d9be 37b0 d9be
00000030: 6406 d9be 513c d9be f636 d9be 898f d8be
00000040: 50f9 d8be 155f d9be d041 d9be bb6c d9be
00000050: 05c7 d8be 5292 d8be 560a d9be ae3e d9be
00000060: 1299 d9be 9330 d9be b106 d9be 22fa d8be
00000070: 3d6f d9be c4aa d9be a766 d9be b0e1 d8be
00000080: 275b d9be 8be9 d9be 9b56 d9be bc0b d9be
00000090: 85b2 d8be c329 d9be 87ab d8be 7326 d9be
000000a0: 1325 d8be 133d d7be ff1d d7be a024 d7be
000000b0: 1178 d8be 8ee5 d7be be5e d9be 72fe d8be
000000c0: 28a2 d8be 71f6 d8be e681 d8be 26dc d8be
000000d0: 8c82 d9be cf73 d8be eb15 d9be a651 d9be
000000e0: df09 d9be 6a4f d9be 9f70 d9be 5e34 d9be
000000f0: d033 d9be 887b d9be 2f18 d9be 8532 d8be
00000100: f98d d7be 9c99 d7be 32a8 d5be 95e3 d2be
00000110: 311d cebe 52c9 c8be 8a19 c6be 6990 c4be
00000120: 53a7 c0be 9b33 c1be 4bb2 c5be 47de cabe
00000130: 28a7 d1be 9db8 d5be d8d7 d7be 1fa0 d8be
00000140: e683 d9be 76a8 d9be 2902 d9be 710a d8be
00000150: cb2d d9be 12f3 d8be 4072 d9be df35 d9be
00000160: e52c d9be 5cc1 d8be bb4a d7be aee3 d5be
00000170: 92d0 d0be 5bee c9be 9c12 c1be 4f36 b7be
00000180: 66f4 a8be 0d56 9bbe 6ae1 8ebe 0454 84be
00000190: 190b 83be deb7 8ebe 5aca 9fbe dfae adbe
000001a0: 95bb bcbe af3d cabe 1105 d4be 28d0 d6be
000001b0: ca28 d8be d76e d9be b460 d9be a617 d9be
000001c0: 740b d9be 1856 d9be de99 d9be cc2e d9be
000001d0: 6786 d9be b1e4 d5be 72bb cdbe be9a c5be
000001e0: 1c2e b3be 3c2b 97be 4379 77be f46f 26be
000001f0: d60d 94bd 106b 1d3d 67b8 fc3d 3dc3 2d3e
00000200: 6048 1a3e 194e 963d f93f 02bd 48b1 15be
00000210: 5ca9 6dbe 0f09 9cbe dec0 bcbe a420 cbbe
00000220: da80 d3be 9cc1 d6be c717 d9be 7f0d d9be
00000230: 42b1 d9be 963d d9be 123d d9be c8e9 d8be
00000240: c06e d6be 2b36 ccbe 161a b9be 6089 9ebe
00000250: 847e 69be 06a7 03be 1659 b1bc 5292 063e
00000260: b0eb a53e 3d0a 073f 6f81 293f d932 3d3f
00000270: ec13 383f a13b 1a3f fe4b ce3e 4891 503e
00000280: 5099 4e3c 7cca 1dbe 156f 89be ff06 acbe
00000290: 0e73 c5be 5067 d3be be5d d8be 1897 d8be
000002a0: ce3f d9be f445 d9be 408a d9be 0c46 d8be
000002b0: 2055 d3be 1394 c2be a4d6 a3be 6487 61be
000002c0: e5d1 a7bd 7b5c 903d 2047 7b3e 2fe5 fb3e
000002d0: ac99 3c3f a84e 743f 93a5 8a3f ba15 933f
000002e0: 51b1 8f3f e792 803f 9c40 4e3f b7f9 063f
000002f0: 7bf2 863e f0c0 a93c f0e2 28be 2d09 8ebe
00000300: 22ee b5be fe82 ccbe 6565 d6be b0f5 d8be
00000310: 8511 d9be 529e d8be 16b8 d9be ab2c d7be
00000320: abcb ccbe e90e b4be 06da 89be bb12 fcbd
00000330: 9cd1 853d a0ab 873e 3263 053f 559e 4a3f
00000340: 6486 803f 0742 933f c8fa 9f3f 30c8 a23f
00000350: cea5 a13f 930b 993f f190 873f f866 493f
00000360: 52c4 f23e b120 383e 3cab 9cbd e6c3 71be
00000370: a821 aabe 3698 c6be ed5f d6be e789 d8be
00000380: a5e4 d8be 3005 d8be 9734 d7be 40d1 d2be
00000390: 5e47 c5be 329c a7be 769c 63be 390c 55bd
000003a0: a69b 283e dabf d73e 1983 333f ed32 723f
000003b0: 19bc 873f a247 8d3f cefc 8a3f c12f 8b3f
000003c0: 5610 8e3f 4d57 8f3f e453 8c3f 47a7 653f
000003d0: b83c 183f 5e2e 8d3e f082 99bc e09d 59be
000003e0: d2c5 a5be 1417 c6be 8adf d6be ef87 d9be
000003f0: c5ba d8be b20d d8be e94e d6be ae68 cfbe
-0.42361248 -0.42481863 -0.4235964 -0.42267826 -0.42368492 -0.42422262 -0.42487347 -0.42468417
-0.42492825 -0.42456883 -0.42504537 -0.42517254 -0.42387688 -0.4242883 -0.42424744 -0.4229701
-0.4237771 -0.42455354 -0.42433023 -0.42465767 -0.4233934 -0.42299134 -0.42390698 -0.42430633
-0.42499596 -0.42419872 -0.42387918 -0.42378336 -0.4246768 -0.42513096 -0.4246113 -0.42359686
-0.42452356 -0.42560992 -0.42448887 -0.42391765 -0.423237 -0.42414674 -0.42318365 -0.42412147
-0.42215785 -0.42038783 -0.42015073 -0.4202013 -0.42279103 -0.42167324 -0.42455095 -0.42381626
-0.42311215 -0.4237552 -0.42286605 -0.4235546 -0.42482412 -0.42275855 -0.42399535 -0.42445105
-0.42390344 -0.424434 -0.42468736 -0.42422765 -0.42422342 -0.4247706 -0.42401263 -0.42226043
-0.42100504 -0.42109382 -0.41729885 -0.41189256 -0.40256646 -0.39216095 -0.3869136 -0.38391426
-0.37627658 -0.37734684 -0.3861259 -0.3962271 -0.40947843 -0.4174241 -0.42156863 -0.42309663
-0.42483443 -0.42511338 -0.4238446 -0.42195466 -0.4241775 -0.42372948 -0.42469978 -0.42423913
-0.42417064 -0.42335021 -0.42049202 -0.41775268 -0.40784127 -0.39439663 -0.3770951 -0.35783622
-0.3299896 -0.3033909 -0.27906352 -0.2584535 -0.25594404 -0.27874655 -0.3120907 -0.3392248
-0.36861864 -0.39500186 -0.41410115 -0.41955686 -0.4221862 -0.42467377 -0.4245659 -0.42400855
-0.4239155 -0.42448497 -0.42500204 -0.42418516 -0.42485353 -0.4177604 -0.40182072 -0.3859462
-0.34996116 -0.29525173 -0.24167351 -0.16253644 -0.072292015 0.03843218 0.123398595 0.16969009
0.15066671 0.07339115 -0.03179929 -0.14618409 -0.23209137 -0.3047566 -0.36865896 -0.3967334
-0.41309243 -0.41944587 -0.42400953 -0.4239311 -0.4251805 -0.424298 -0.42429405 -0.4236586
-0.4188137 -0.39885077 -0.36152714 -0.30964184 -0.22802168 -0.12856683 -0.021648925 0.13141754
0.32406378 0.5275 0.66213125 0.7390571 0.719054 0.60247236 0.40292352 0.2036792
0.012609795 -0.15409273 -0.2684256 -0.33599088 -0.38564342 -0.4128976 -0.4225902 -0.42302775
-0.42431492 -0.42436182 -0.4248829 -0.42240942 -0.41275883 -0.38003597 -0.31999695 -0.22024304
-0.08194331 0.07048889 0.24538851 0.4919829 0.73671985 0.9543252 1.0831779 1.1491005
1.1225988 1.0044831 0.80567336 0.52724785 0.26356873 0.020721883 -0.1649282 -0.27741376
-0.35533243 -0.3994369 -0.41874233 -0.42374945 -0.4239618 -0.4230829 -0.4252326 -0.42026266
-0.39999136 -0.35167626 -0.2692415 -0.1230826 0.065341204 0.26498127 0.52104485 0.79147846
1.0041013 1.1504525 1.2498407 1.2717342 1.2628725 1.1956657 1.0591108 0.7867274
0.47415406 0.17981221 -0.07649848 -0.23609886 -0.33228803 -0.38788003 -0.4187006 -0.4229271
-0.42361942 -0.42191458 -0.4203231 -0.4117527 -0.3853101 -0.32736355 -0.22227654 -0.05201361
0.16465625 0.4213856 0.70121914 0.94608957 1.0604278 1.1037486 1.08584 1.0873948
1.1098735 1.1198517 1.0963101 0.8970837 0.5946765 0.27574438 -0.018739194 -0.21251631
-0.32377487 -0.38689482 -0.41967422 -0.42486522 -0.42329994 -0.4219795 -0.4185708 -0.40509552

module_list.0.input_quant.pre_transforms.1.running_var f4 [784]
00000000: c8d6 073b 0386 cd3a 5b3a 083b 71fb 203b
00000010: 3ddc 053b 8102 ee3a 9d01 ca3a 3fa8 d33a
00000020: f4bc c63a 4acf da3a 6669 c03a 485d b93a
00000030: d56e 003b 00af e93a 53ec ec3a b346 193b
00000040: 1d5b 033b 13a7 db3a 0e04 e83a 49fe d53a
00000050: 24ca 0d3b f14b 173b 0f85 ff3a 42f6 e83a
00000060: 4303 c33a 4a2d ef3a 817a 003b 5c9d 023b
00000070: 6daa d43a 128d bb3a 4474 d83a 831e 083b
00000080: f636 dd3a c7b9 a13a 575d df3a 794d 083b
00000090: a59f 4a3b 99c8 323b 6da3 513b a3a8 9d3b
000000a0: 71de c13b c348 4f3c ba3a 563c 4fdc 093c
000000b0: 6d3b 983b 73e0 a93b 4a1f 093b c419 053b
000000c0: a138 263b 6693 043b 2568 503b 03ff 763b
000000d0: 7cb4 cc3a dfee 1e3b c5bb fa3a 0263 e13a
000000e0: dc83 ff3a d339 e23a 0063 d43a 0d3e ed3a
000000f0: 2c11 ee3a 9a5a cf3a 62c0 073b 4f73 5b3b
00000100: 4b6c 153c 9887 223c 0923 a03c c62c e43c
00000110: af4a 643d 6f34 ab3d a7d3 b93d 8890 c83d
00000120: 4c61 f53d 1270 f53d dd1c c43d 4ac1 963d
00000130: a8e4 1b3d 4b0c 8e3c 9708 ee3b 26a2 8d3b
00000140: 9eaa d53a 857d bc3a 4092 013b c0b7 343b
00000150: e299 f03a f884 043b e0d7 d33a 0bac ee3a
00000160: 16c3 f93a d5f3 1c3b 6a52 043c 7e21 573c
00000170: 7cc9 333d 315b 9e3d 5bea d33d 98a0 253e
00000180: 5ae9 6f3e bcc1 973e 2774 b23e 6075 ce3e
00000190: 80a9 d23e 9630 bc3e f220 8d3e 506b 5a3e
000001a0: e4db 073e 0d1d 913d bebb ef3c cb84 7f3c
000001b0: 21fb b13b 90c8 f13a 9097 da3a 18af f93a
000001c0: fb9d fe3a d22f df3a 2c40 bd3a 0de1 fe3a
000001d0: d7f6 ed3a d17c 583c 1617 573d 4ede a73d
000001e0: 73dd 333e f1de 9d3e c3ff e33e 0868 1b3f
000001f0: 0a0b 4f3f c381 813f de26 973f 34fc 9e3f
00000200: 6961 9b3f 967b 8a3f e7e3 603f 304a 233f
00000210: e3e7 ee3e 62b2 8d3e 62e6 053e 6643 8b3d
00000220: 04e2 f93c a253 143c 95da 023b cc74 003b
00000230: 9738 b93a 8dd6 e93a faf1 ee3a c171 1b3b
00000240: 4665 353c 8406 6c3d e49c 233e 05e9 8d3e
00000250: 948a f53e 51c7 353f f205 6e3f e9c4 963f
00000260: 84e6 be3f 3025 e03f 31bf f23f e965 fa3f
00000270: 13d5 f43f da22 e83f 9aa5 ca3f 1fb5 a43f
00000280: 7e44 743f ddef 1c3f 309f bb3e c9d2 4e3e
00000290: 8c94 bc3d bd89 c93c 95c4 d33b 7b8e 1b3b
000002a0: c000 e93a 7867 e63a ec9c c93a 0c05 ae3b
000002b0: 1840 f13c 5825 d53d 4a7c 853e 68e2 fb3e
000002c0: d11c 4d3f 88e6 8d3f 0a11 b13f db6c d73f
000002d0: ded7 f43f 2894 0240 043b 0440 79ba 0440
000002e0: 5bc9 0440 18fb 0540 b22a fe3f 9435 e13f
000002f0: 159c b43f 3156 793f ee0d 1e3f eb29 b73e
00000300: e55c 2b3e 7702 613d 69dd 343c 6fc3 1d3b
00000310: 73fe fa3a 82b3 163b 827b 473b 6e05 4c3c
00000320: 1cc0 543d 6d76 2e3e 9d7d bb3e cf27 343f
00000330: 25f6 8a3f 1e25 b53f 835d da3f 2ea1 f43f
00000340: a4f7 0040 d77f 0140 7557 0040 1c48 fe3f
00000350: e7be 0040 874e 0240 f2a9 0140 d9f1 f73f
00000360: fb9c d63f 99b3 a23f 1cd1 4a3f 9624 e03e
00000370: 1d32 603e f90e b33d fc7a 613c 702f 393b
00000380: 6972 073b 9d8f be3b ca9c 313c 1b5f f53c
00000390: 1327 b63d 9da3 6f3e 0350 f63e bf79 5a3f
000003a0: ecd6 a03f cb52 cc3f fbde ea3f ba12 ff3f
000003b0: 22da 0140 ec25 0240 55fa 0040 41ac 0040
000003c0: faed 0140 eac0 0140 c968 0340 9ebf 0040
000003d0: 4889 e93f 0e63 b93f dac8 6d3f 27c2 013f
000003e0: cb36 773e 97e0 a23d b15f 523c 3c21 d03a
000003f0: 326d 103b f367 c23b a5b4 933c 0e52 503d
0.0020727385 0.0015680197 0.0020786736 0.0024563933 0.0020425462 0.0018158705 0.0015411858 0.0016148164
0.0015162514 0.0016693857 0.0014679849 0.001414218 0.001959731 0.0017828643 0.0018075801 0.0023388087
0.0020043321 0.0016758166 0.0017701404 0.0016326393 0.0021635378 0.0023086036 0.0019494611 0.0017773586
0.0014878291 0.001824775 0.0019604268 0.001993022 0.0016225107 0.001430901 0.0016514142 0.002077014
0.0016877342 0.0012338691 0.0017041367 0.002079813 0.003091791 0.002728021 0.0031988278 0.004811363
0.0059164097 0.012651625 0.013075525 0.008414342 0.004645756 0.005184227 0.002092319 0.0020309547
0.0025363343 0.0020229458 0.0031800356 0.003768862 0.0015617753 0.0024251265 0.0019129446 0.0017195644
0.0019494253 0.0017259665 0.0016203821 0.0018100158 0.0018163077 0.0015819848 0.0020714034 0.0033485477
0.009120057 0.009920023 0.019547956 0.02785338 0.055735286 0.0835961 0.090735726 0.09793192
0.119814485 0.11984266 0.09575818 0.07361086 0.03805986 0.017339846 0.0072642076 0.004322308
0.0016301458 0.001438067 0.001977101 0.0027575344 0.0018356408 0.0020220857 0.0016162358 0.0018209232
0.0019055333 0.0023949046 0.00807629 0.013130544 0.043893322 0.07732237 0.10347434 0.16174543
0.2342886 0.29639995 0.34854242 0.40323925 0.41144943 0.36755818 0.27564198 0.21329999
0.13267475 0.07085619 0.029264327 0.015595625 0.005431548 0.0018446613 0.0016677249 0.0019049374
0.0019425744 0.0017027801 0.001443868 0.0019445732 0.0018155229 0.013213352 0.05251225 0.08196698
0.17564945 0.30834153 0.44531068 0.60705614 0.8087622 1.0117725 1.1808736 1.2420716
1.2139102 1.0818965 0.8784775 0.63785076 0.4666129 0.27675158 0.13076165 0.067999646
0.03050328 0.009053143 0.001996671 0.0019600866 0.0014131245 0.001784043 0.0018230074 0.0023718926
0.011071509 0.0576234 0.15977818 0.27716842 0.4795729 0.7100726 0.9297782 1.1778842
1.4914098 1.7511349 1.8964597 1.956235 1.9127525 1.8135636 1.5831788 1.2867774
0.9541701 0.613035 0.36644888 0.20197596 0.092080206 0.024601812 0.0064626434 0.0023736048
0.0017776713 0.0017578444 0.0015381849 0.00531066 0.029449508 0.104075134 0.26071388 0.49196172
0.80122095 1.1085978 1.3833325 1.6830095 1.9128377 2.0402927 2.066102 2.0738814
2.0747898 2.0934505 1.985678 1.7594476 1.4110132 0.9739714 0.61740005 0.35774168
0.16734655 0.05493399 0.011039116 0.0024072786 0.0019149318 0.0022995179 0.0030438607 0.012452466
0.051941022 0.17037363 0.36619273 0.70373243 1.0856367 1.4151952 1.7059788 1.9111688
2.0151148 2.0234277 2.005338 1.9865756 2.0116518 2.036043 2.0259976 1.9370681
1.6766657 1.2711059 0.79225326 0.43777913 0.21894117 0.0874309 0.013762232 0.0028257035
0.002066756 0.00581546 0.010840604 0.029952576 0.088941716 0.23402257 0.4810792 0.8534202
1.2565589 1.5962766 1.8349298 1.992759 2.0289388 2.0335646 2.015279 2.0105135
2.03015 2.0273995 2.0532706 2.0116954 1.824502 1.4483354 0.928846 0.5068688
0.24141996 0.07952993 0.012840197 0.0015879045 0.0022037742 0.005932802 0.018030474 0.050859503

module_list.0.fc.weight f4 [600, 34]
00000000: 6ddf ff3d cc88 4e3b 695f 88bd dc8f 343d
00000010: d498 563c 7823 e7bc 1f48 b23d ac3f 6b3c
00000020: d400 9d3d 31f9 0abe 39c3 26bd 734b 0cbd
00000030: b8d9 193d f0d3 4f3d 1189 12be e521 103e
00000040: 91d2 e33d f939 9a3d 181b 613d ab3b 6c3c
00000050: 3638 223d 8dc9 81bd 092d 13bd b6fc d5bc
00000060: 5dae 483c b5df a73d 460f 8e3b 7f11 ab3d
00000070: 310b 7d3d 377f 6dbd ffd3 12be cd09 323d
00000080: f29b ccbc 959a a73c 7b90 a7bc babf 90bf
00000090: ecfa 3c3f 40cc babe 0a8e dcbd 0856 c73c
000000a0: 63c4 ff3c 89ac 8e3e e4be 32be 89e4 15bf
000000b0: 84c5 45bf 511c 42bf 8e87 0cbf 717c 8a3e
000000c0: bdde 76be e3b6 efbd d6ee 0f3e 0db2 7f3e
000000d0: 908f b9bd 1200 84bd 62cb 543e 733d d23c
000000e0: ebfe bebe 8d68 e7be 5fb9 9f3e cc3a 8a3d
000000f0: 44b8 31bf 0b4f a8be c002 393e bcc6 313e
00000100: 5bb9 493f 6692 993f 9032 6fbe ecf2 75be
00000110: 210a 39be 2da0 4bbf 8aae 773a f044 b0bf
00000120: 78f4 92be 9d8a 01be 7427 d83e f0fe 64be
00000130: ad51 68bf 8123 c0b9 358f 5c3f 0bb1 e2bd
00000140: 810d f9be 0d58 9f3f 8985 0b3d ec4a 6dbe
00000150: 87f2 ee3e 4c98 02be 5b6c f7be ff80 81bc
00000160: b53f 903b cfb0 813e f94e 02bf 4877 483e
00000170: 9199 adbe e61a 66bf ec13 d63e 2b38 2a3e
00000180: 58cc 843d 29c4 62bf 6e55 2abd 632d 35bf
00000190: a7b2 d63e a59a a9bf fe34 e3be 31d9 9cbf
000001a0: aaa7 bf3d dec8 403e 9048 9dbe 0f88 4d3f
000001b0: a5ed 883e 1c0c f53e 15d1 2b3f ba70 e73e
000001c0: d545 613f 2668 41bf 15b2 0a3e e74d 153e
000001d0: 1885 b3bd 19d5 99be 5296 583e 5d50 9c3e
000001e0: 40d6 00bf dd6b 03bf ca8b dbbf 313d 833e
000001f0: 62c8 d1be 632b d43e e160 9cbf 5635 09bf
00000200: 1b00 9abf a248 25bf 30ac 39bf 18a4 27bf
00000210: 3eea 9b3d 4e17 ba3e b07d 663e 253b ce3d
00000220: b519 58bd 166a 863d 66c0 bcbc 898d 93bd
00000230: 19ef 9d3d b5db 0b3e e901 f4bd 8d51 b0bd
00000240: d262 bfbc 3bd8 f53d 0eb9 9bbb 7c91 e23d
00000250: c0b3 2dbd 18f8 cbbd f63e 8f3d 3b1e efbd
00000260: 0b06 97bd f314 93bd acc5 5ebd 8d53 d8bd
00000270: 1636 e4bd b6c1 4f3d 1176 34bd c5fe 803d
00000280: f26b f0bd 1a56 c13d 167d 113e 5939 153b
00000290: 7386 5e3d 0439 673c a5aa 83bc caa9 fe3d
000002a0: e4db 11bd 2888 a3bd a528 0dbf de91 0ebf
000002b0: 89f3 8a3d 65cc 643d 5c7f 05bf b865 883e
000002c0: 95a1 08bf aa15 0b3e 94fc c7be 6f8a 11bf
000002d0: ac49 3fbe 2fbf 253e e588 e9be 0d7d a9be
000002e0: 63fe fcbe f120 9abe 551f 84be b10e a3bd
000002f0: 84d2 33bd 96a6 fc3d b525 1d3e c9bb 26bf
00000300: 5a89 7b3e 2d23 863d ea38 b8be 7342 00bf
00000310: a41e ce3c 96c0 3abe 0533 c13d 05e2 90be
00000320: 652a 553d 2af4 babd 6707 8dbd 3c5c a3bc
00000330: 03a1 0d3e 1355 fbbd de14 993d 7a5e 01be
00000340: fee3 703d 7f0d 0fbe d001 68bd c2d8 033e
00000350: 50f6 c6bd e7f7 ac3d ffaf 053e 7383 85bd
00000360: 8357 ff3d a51d 8bbd 7de0 e13c 47b9 d5bd
00000370: 4898 8c3d 50bf cb3d 2885 023e 8356 d9bd
00000380: 3004 63bd 69aa 00be c398 adbd 8e26 5d3c
00000390: 0488 eabd dd78 85bd 19b9 e73d 8ae5 81bd
000003a0: 5937 f33b 718a 123e c998 573c b3cd b2bd
000003b0: d036 a7bb fdec 8cbd d07a ebbd 1105 563f
000003c0: 0166 7abe 3c89 b93e d33d a43c c3e7 993f
000003d0: 9bdf 26bf 65c1 163f 55c1 623f 1334 2fbf
000003e0: b853 3bbf 7da9 91bd 4451 78bf 57ab f6bd
000003f0: 9ef7 af3d 0698 ae3f 0efd 3ebf af15 743e
0.12493787 0.0031514643 -0.06658823 0.044082507 0.0130979605 -0.028215155 0.08705162 0.014358442
0.076661736 -0.13571621 -0.040713523 -0.03425164 0.03756115 0.05073923 -0.14310099 0.1407543
0.11124147 0.07530589 0.05495748 0.014418523 0.03960439 -0.06337271 -0.03593162 -0.026121479
0.012248603 0.081969656 0.004335317 0.083529465 0.06177825 -0.05798265 -0.14338683 0.043466378
-0.024976704 0.020459453 -0.020454636 -1.130851 0.73820376 -0.36483955 -0.10769279 0.024333015
0.031221574 0.2786601 -0.17455631 -0.5855184 -0.7725451 -0.7582446 -0.5489434 0.27048066
-0.24108405 -0.11704805 0.14055952 0.24970265 -0.090605855 -0.06445326 0.2078071 0.025664067
-0.37303862 -0.45196953 0.31196114 0.06749496 -0.6942179 -0.32872805 0.18067455 0.17360967
0.78798455 1.1997802 -0.23359132 -0.24018449 -0.1807027 -0.79541284 0.00094483106 -1.3771038
-0.2870214 -0.12650533 0.422176 -0.22362876 -0.9074963 -0.00036647546 0.86156017 -0.110689245
-0.48643115 1.2448746 0.034062896 -0.23173112 0.4666941 -0.12753409 -0.48324856 -0.01580858
0.0044021257 0.25330207 -0.5090175 0.19576752 -0.33906224 -0.89884794 0.41812074 0.16622989
0.06484288 -0.88580567 -0.04158538 -0.7077238 0.41933176 -1.3250319 -0.44376367 -1.2253782
0.09358151 0.18826625 -0.30719423 0.80285734 0.26743808 0.478608 0.6711591 0.4520319
0.8799718 -0.7554954 0.13544495 0.14580499 -0.0876562 -0.30045393 0.21151093 0.30530062
-0.5032692 -0.5133646 -1.7152035 0.25632623 -0.40973192 0.4143935 -1.2217065 -0.5359701
-1.2031282 -0.64563954 -0.7252836 -0.6548476 0.076130375 0.36345905 0.22508883 0.10069875
-0.05275889 0.06563203 -0.023040961 -0.0720473 0.0771162 0.1365803 -0.11914427 -0.086093046
-0.02336255 0.12004133 -0.004752285 0.11062905 -0.04240775 -0.099594295 0.06994431 -0.11675688
-0.073741995 -0.0718173 -0.054387733 -0.10562811 -0.111431286 0.050721847 -0.04405791 0.062985934
-0.11739339 0.09440251 0.14207873 0.0022769778 0.05432744 0.014112715 -0.01607258 0.124347284
-0.035610095 -0.07984954 -0.55140144 -0.55691326 0.06784732 0.05585899 -0.5214746 0.26640105
-0.53371555 0.13582483 -0.3905989 -0.5685186 -0.18680447 0.16186212 -0.45612255 -0.3310322
-0.49412832 -0.30103257 -0.25805154 -0.079617865 -0.043901935 0.12336461 0.15346415 -0.6513029
0.24564114 0.06549678 -0.35980922 -0.50101393 0.025161095 -0.18237528 0.09433559 -0.2829744
0.052042384 -0.09128602 -0.068861775 -0.019941442 0.13830952 -0.12272086 0.07474683 -0.12633696
0.05881118 -0.13969992 -0.056642354 0.12875655 -0.09714949 0.08445721 0.13055418 -0.065192126
0.124678634 -0.067927636 0.027572865 -0.104357295 0.06864983 0.09948599 0.12746108 -0.10612204
-0.055423915 -0.12565006 -0.084764026 0.013497962 -0.11451724 -0.065171935 0.113146015 -0.06342609
0.0074223694 0.14310624 0.013158985 -0.0873064 -0.0051029697 -0.068811394 -0.11498034 0.8360148
-0.24452974 0.36237514 0.020049011 1.2023853 -0.65184945 0.58888847 0.8857625 -0.68438834
-0.7317462 -0.071124054 -0.96999 -0.12044399 0.08592151 1.3640144 -0.7460488 0.23836397

module_list.0.fc.bias f4 [600]
00000000: f370 153c 9689 143e 4b07 263d 5b3f 2a3d
00000010: 2569 a43a b126 c0bc 539f f1bb 3f10 ce3c
00000020: 9194 87bd 258a e93b 0c54 ab3c 2c51 47be
00000030: 7600 453d 9585 833c 2e15 a73b 9a15 173e
00000040: 65dd da3b 8aee 98bc 155c 07bd 366a 6fbb
00000050: 05a1 f13c 326e 1f3d 8295 93bd 1305 d4bc
00000060: 0d9e c5bd 8365 0c3d 8e25 33bc bc25 e0bc
00000070: a709 853c c37b 0fbd 778e 8a3c aa9d a33c
00000080: 004c 5cbd 2795 a2bc ee3e 0e3c 44ff f0bc
00000090: fedd 9cbc ef5f 6dbd 715e cfbc 5b5b 21be
000000a0: c76b c23c 96bb d2bc a1f4 da3c c672 61bc
000000b0: 3ce0 853d df4a 0d3d fa5f 65bd 2537 c63c
000000c0: b85e e73a 8c7d 94bc 9e9b e63a 6c28 0dbd
000000d0: a197 d7bb 0370 2bbd 7cfc f4bc 2a44 e9bc
000000e0: 2512 1f3d 01ed b23c 30b8 933c e82f ba3c
000000f0: 7b3d 08bd b1fe ddbc ba52 b63c ca45 bc3c
00000100: 2549 4137 1813 ff3c 1ce2 6c3c 1376 f23b
00000110: 96f4 703c 23ac 0c3d 60ea 033d ef68 31be
00000120: e5ff a0bc 9a19 ec3c a94c 8dbd 2931 9a3d
00000130: d264 5bbe 01cc ff3a e59d 683c 67fb bbbc
00000140: caa5 a2bc df29 9abd 6e85 3ebc 1c52 26bc
00000150: 44fd 0c3d d6bd 7fbd 9553 d33c 6551 483c
00000160: f121 a73d 977d 08bc bf3b 923c 5bf1 3c3c
00000170: d775 423c f825 5ebc ca0b 9c3c a466 363d
00000180: f1a3 03bd aa50 08bd c187 edbc a06e 8b3c
00000190: 655c 0b3c e66c 043d 834d d83c 5b35 03bd
000001a0: d91b 8c3d 712b 7e3c eaec c13d d7d6 223d
000001b0: 7514 1cbd 036e 91bc 02c6 8abc dd3d 7bb9
000001c0: e54d 0a3c 7f3b 5cbd c1ca 2cbe a1a7 edbc
000001d0: 5841 a33d d368 bfbc 6ff6 15be 70d0 82bc
000001e0: 8c78 05bd ba04 5d3b e4cf 80bb aa9b 58bd
000001f0: 05ef 7abc 75b2 07be 8c66 d2bc 3dd9 02bd
00000200: 8eb7 0ebd 37ee 53bc dfb2 abbc 0e77 d5bc
00000210: cf44 243d b362 123c 346e e13d b060 ae3a
00000220: f1db 4e3d 25ad de3b 3331 92bc 0420 1fbd
00000230: ae9d 6abd 4c77 003b 5dc0 10bd f1c9 693c
00000240: 3eb9 e6bc 4c41 afba f5ee cfbd 9a90 e2bc
00000250: 3319 96bd a1cc 793c 907a dcbc f71a 953c
00000260: 7c36 6dbc af22 d53c b28a 8fbd 7c72 d73c
00000270: 6c93 8cbc f426 113f 8130 683c 8aa7 263d
00000280: 4a26 f8bb 01da b03a 9cab 3b3c 3c42 42bc
00000290: 3007 833d 2d4c 10bd 9364 8439 64b8 733c
000002a0: 7eb7 fa3c 2928 283d 8a59 0bbd 4e7f e33c
000002b0: 6583 d9bb 5de4 013e 634a b93d 630d 0bbd
000002c0: e779 ea3c dc31 033b 8ada 01bd 0151 cbbb
000002d0: 331b fa3d 0e46 f6bc 0846 023d b67b 9f3d
000002e0: dc0f ecbc 71de c63c 61e7 813d 45bd 18be
000002f0: ba68 0d3d d1bb e93c 08af fb3c c347 983c
00000300: 67e7 94bc 2e64 8cbb 1e5b 433e 8b86 b6bd
00000310: 8c09 573d 75b2 3e3c ce9b b4bb 815f 883c
00000320: 75de d8bc ed94 f2bb 5c72 2abb ac23 51bc
00000330: d880 9e3d f89e f13b 2cc6 e73c 64bb 543d
00000340: f07e 333e fceb 3e3c f74a 1ebc 3e8a 5bbe
00000350: 43bf d7bc bea7 843d fa83 f9bc 727b 283c
00000360: b314 063c c6e6 8c3b 4e7f 783d f386 633c
00000370: 0996 b73c 427a c53d 2ac6 b83d 9771 4f3c
00000380: 6c13 d6bc bc0f 26bc dcb2 f939 6f1d fb3c
00000390: 17d0 00bd d3b8 7b3c a522 0a3b 25d8 133b
000003a0: a597 13bb e4fd 0bbd 4251 023e 5290 113d
000003b0: a627 4fbd 25d9 b938 18d5 7abc b607 543c
000003c0: 38db 75bc b7e3 343d 93a1 93bc a45f aabc
000003d0: c883 f6bc 828d cabc 911c f8bc ec5d a03c
000003e0: 5096 863c 8dfd 39bc 52ef ca3d 0319 abbc
000003f0: 165f 08bd a599 033d 7028 91bc 9203 cc3b
0.0091211675 0.1450561 0.0405343 0.041564327 0.0012543543 -0.02345595 -0.0073737293 0.025154231
-0.06620134 0.007127064 0.0209141 -0.19464558 0.048096143 0.016054908 0.0050989604 0.14754334
0.0066792243 -0.018668432 -0.0330468 -0.0036531813 0.029495725 0.03892345 -0.07206251 -0.025881326
-0.096492864 0.034276497 -0.010934247 -0.027361743 0.016239954 -0.035030138 0.016913636 0.019972641
-0.053783417 -0.019846512 0.008681996 -0.029418595 -0.019148823 -0.057952818 -0.025313588 -0.15757506
0.023733033 -0.025724214 0.026727976 -0.013760274 0.0653691 0.03449523 -0.055999734 0.024196217
0.001765213 -0.018126272 0.0017593985 -0.034462377 -0.006579355 -0.04185487 -0.02990555 -0.028474886
0.038835663 0.021841528 0.018032163 0.022727922 -0.033261757 -0.027098985 0.022256244 0.022982497
1.1520727e-05 0.031137034 0.014458206 0.0073993294 0.014706751 0.03434385 0.03220594 -0.17325185
-0.01965327 0.028820802 -0.068993874 0.07528908 -0.21425179 0.0019515754 0.014197801 -0.022947026
-0.019854445 -0.075275175 -0.011628492 -0.010151412 0.03442122 -0.0624369 0.025796691 0.012226437
0.08160771 -0.008330724 0.017850755 0.011532153 0.0118689155 -0.013558857 0.01904859 0.04453148
-0.03213877 -0.033280052 -0.028995397 0.017020524 0.008505915 0.032330416 0.026404148 -0.032033306
0.06841249 0.015513287 0.09469016 0.03975567 -0.038105447 -0.017752653 -0.01694012 -0.00023960271
0.008441423 -0.053767677 -0.1687422 -0.029010596 0.07971448 -0.023365414 -0.14644788 -0.015968531
-0.032585666 0.003372474 -0.0039310325 -0.052882828 -0.015315776 -0.1325167 -0.025683664 -0.031945456
-0.03484302 -0.012935213 -0.020959316 -0.026057746 0.040104683 0.008934665 0.11007348 0.0013303962
0.05050272 0.006795543 -0.017845726 -0.03884889 -0.05727928 0.0019602356 -0.035339702 0.014269338
-0.028164502 -0.00133709 -0.10152999 -0.027656842 -0.07329025 0.015246541 -0.026913911 0.018201334
-0.014478322 0.026017515 -0.07008876 0.026299708 -0.01716014 0.5670006 0.0141717205 0.04068712
-0.007572924 0.0013492705 0.011454489 -0.011856612 0.06397855 -0.035228897 0.00025251936 0.014875505
0.030605074 0.041053925 -0.034020938 0.027770665 -0.006637978 0.1268477 0.09047391 -0.033948313
0.02862258 0.0020018732 -0.031702556 -0.006204725 0.12212219 -0.030062702 0.03180507 0.07787268
-0.028816156 0.02427599 0.0634296 -0.1491595 0.034523703 0.02853194 0.03072311 0.018588906
-0.018176747 -0.0042844033 0.19077727 -0.08912381 0.05249934 0.011639227 -0.0055117374 0.016647102
-0.026473263 -0.0074030072 -0.0026008105 -0.0127648525 0.07739419 0.007373687 0.028292738 0.051936522
0.17528892 0.011652943 -0.009661428 -0.21439454 -0.026336318 0.06477307 -0.03045844 0.010283338
0.008183646 0.0042999713 0.060668282 0.013887155 0.02241041 0.096424595 0.09022172 0.012661359
-0.026132308 -0.010135587 0.00047626242 0.030653683 -0.03144845 0.01536389 0.0021077779 0.0022559252
-0.0022520807 -0.034177676 0.1272631 0.035538025 -0.05057492 8.861934e-05 -0.015309595 0.012941292
-0.015005879 0.04416248 -0.01802138 -0.020797558 -0.030092135 -0.02472568 -0.030287059 0.019576035
0.016429096 -0.011351955 0.09908928 -0.02088595 -0.033293806 0.03212895 -0.017719477 0.0062260116

module_list.0.output_quant.pre_transforms.0.weight f4 [600]
00000000: 5aa7 563f 7863 0c3f f32a 4f3f 00f0 363f
00000010: 5aa7 563f f82f 473f 5aa7 563f 94cf 003f
00000020: 98d4 303f 5aa7 563f 6b7c c93e ff16 f83e
00000030: 9a54 163f 5aa7 563f 5aa7 563f 18c1 3d3f
00000040: 5aa7 563f 5aa7 563f b0e1 e63e 6169 553f
00000050: 5aa7 563f 48db fd3e f172 183f 5aa7 563f
00000060: 15f3 be3e 5aa7 563f cf6c 193f b844 1a3f
00000070: 5aa7 563f 5aa7 563f 5aa7 563f 3361 0d3f
00000080: 58c3 733f 5aa7 563f 5aa7 563f 1574 7a3f
00000090: 5aa7 563f aa07 a73e 5aa7 563f e35e 303f
000000a0: 5aa7 563f 8fb8 1c3f 51a0 d03e e5bb 473f
000000b0: ae95 853f 3ffb f53e 9509 263f 5aa7 563f
000000c0: 5aa7 563f 5aa7 563f 74a4 ee3e 5aa7 563f
000000d0: 2d3e 3f3f b077 4d3f 5aa7 563f 5aa7 563f
000000e0: 4ef1 223f 5aa7 563f 5aa7 563f 277c 003f
000000f0: 5aa7 563f 5aa7 563f 5aa7 563f 5aa7 563f
00000100: 5aa7 563f 5aa7 563f 5aa7 563f 5aa7 563f
00000110: 1264 f93e 5ce3 d83e 5aa7 563f 290e c43e
00000120: 5aa7 563f 5aa7 563f be4e ef3e 8c90 e33e
00000130: 8949 743f 5aa7 563f 5aa7 563f 5aa7 563f
00000140: 5aa7 563f 06f5 de3e 5aa7 563f 5aa7 563f
00000150: 5aa7 563f b6a9 e13e 5aa7 563f 5aa7 563f
00000160: 72bf 973e 5aa7 563f a7d1 493f 4873 dc3e
00000170: 5aa7 563f 1960 e83e 5aa7 563f 188d 523f
00000180: c496 0e3f 34a3 293f 9afc 193f 5aa7 563f
00000190: 5aa7 563f 5fa3 be3d 5aa7 563f 5aa7 563f
000001a0: 44a2 113f e5f4 0b3f 121a 133f 70bd 1a3f
000001b0: ef40 163f 5aa7 563f 33a3 2c3f ef11 1f3f
000001c0: 5aa7 563f 7ff6 943f 8758 f53e 5aa7 563f
000001d0: 784a ee3e 5aa7 563f 2f8f 9b3e 5aa7 563f
000001e0: 5aa7 563f c05c b23e 8718 fb3e 5a43 ad3e
000001f0: 5aa7 563f 2b74 e03e 5aa7 563f 1253 173f
00000200: 5aa7 563f 5aa7 563f a757 6c3f 5aa7 563f
00000210: 4601 013f 5aa7 563f 75bb 063f 0dd2 f53e
00000220: 55dd 273f 5aa7 563f 5aa7 563f f2ce 1e3f
00000230: 1130 0f3f 250c dd3e 0a7d 103f f035 c53e
00000240: 5aa7 563f 7f1e 0c3f a73e 9a3e 5aa7 563f
00000250: d0b1 023f 5aa7 563f bbea 443f 5aa7 563f
00000260: 5aa7 563f 7d85 c13e 72b6 0c3f 5aa7 563f
00000270: 5aa7 563f c911 403f 5aa7 563f e85b e03e
00000280: 5aa7 563f 5aa7 563f 5aa7 563f 5aa7 563f
00000290: 2a08 603f 5aa7 563f 5aa7 563f e84c 383f
000002a0: b9b1 0e3f 7954 143f 5aa7 563f 5aa7 563f
000002b0: b132 ee3e f960 243f caee f43e 5aa7 563f
000002c0: b91b 123f 5aa7 563f 2a12 1e3f 5aa7 563f
000002d0: 28ff 313f 5aa7 563f 5aa7 563f 76a7 0a3f
000002e0: 5aa7 563f 5aa7 563f 1267 5a3e a3a4 2e3f
000002f0: 5aa7 563f 5aa7 563f 5aa7 563f 329c b33e
00000300: 44e2 813f 5aa7 563f 17e3 193f be3b ff3e
00000310: 09a0 c33e 8d55 173f 1ea9 1f3f cb08 063f
00000320: 5aa7 563f d4ac e83e 5aa7 563f 09d2 173f
00000330: 33ac fb3d 5aa7 563f 5aa7 563f 3661 1a3f
00000340: 4370 953e 5aa7 563f 5aa7 563f 0f23 203f
00000350: 5aa7 563f 919e 073f 5aa7 563f cf36 6b3f
00000360: 5aa7 563f 11d8 f33e 3087 273f 5aa7 563f
00000370: 17be 093f 9cd1 3d3f ed19 e23e 5aa7 563f
00000380: 5aa7 563f 5aa7 563f 5aa7 563f 7954 ef3e
00000390: 5196 303f bb6f fb3e 5aa7 563f 5aa7 563f
000003a0: 5aa7 563f 5aa7 563f 71a4 183f 5aa7 563f
000003b0: 8d2f 163f 5aa7 563f 5aa7 563f 6d5d 3a3f
000003c0: 5aa7 563f 0675 0b3f 5aa7 563f 33f7 2c3f
000003d0: 0d24 133f 5e0f 423f 5aa7 563f 5aa7 563f
000003e0: 5aa7 563f 57a8 563f 9a21 fa3e a7d1 293f
000003f0: 5aa7 563f 95fc 4d3f e5cf f13e d737 323f
0.8384911 0.5483928 0.8092491 0.7145996 0.8384911 0.7780757 0.8384911 0.5031674
0.6907439 0.8384911 0.39352736 0.48455045 0.5872284 0.8384911 0.8384911 0.7412276
0.8384911 0.8384911 0.4509406 0.8336392 0.8384911 0.4958136 0.59550387 0.8384911
0.37294832 0.8384911 0.59931654 0.60261106 0.8384911 0.8384911 0.8384911 0.5522644
0.95219946 0.8384911 0.8384911 0.9783338 0.8384911 0.32623035 0.8384911 0.68894786
0.8384911 0.61219114 0.40747312 0.7802108 1.0436304 0.48043248 0.6485837 0.8384911
0.8384911 0.8384911 0.46609843 0.8384911 0.7470425 0.80260754 0.8384911 0.8384911
0.6364945 0.8384911 0.8384911 0.5018944 0.8384911 0.8384911 0.8384911 0.8384911
0.8384911 0.8384911 0.8384911 0.8384911 0.4870916 0.4236096 0.8384911 0.38292053
0.8384911 0.8384911 0.46739763 0.44446218 0.95424706 0.8384911 0.8384911 0.8384911
0.8384911 0.43546313 0.8384911 0.8384911 0.8384911 0.44074792 0.8384911 0.8384911
0.2963825 0.8384911 0.7883553 0.43056703 0.8384911 0.45385817 0.8384911 0.8224654
0.556988 0.66264653 0.60151064 0.8384911 0.8384911 0.09308504 0.8384911 0.8384911
0.5688822 0.54670554 0.57461655 0.6044531 0.5869283 0.8384911 0.6743652 0.6213674
0.8384911 1.1637725 0.47919104 0.8384911 0.4654119 0.8384911 0.30382678 0.8384911
0.8384911 0.34836388 0.4904215 0.33840448 0.8384911 0.4383863 0.8384911 0.5911113
0.8384911 0.8384911 0.92321247 0.8384911 0.5039257 0.8384911 0.52629787 0.4801182
0.655721 0.8384911 0.8384911 0.62034523 0.5593272 0.43173328 0.56440794 0.38517714
0.8384911 0.54734033 0.30125925 0.8384911 0.5105257 0.8384911 0.7692067 0.8384911
0.8384911 0.37797156 0.5496589 0.8384911 0.8384911 0.7502714 0.8384911 0.4382012
0.8384911 0.8384911 0.8384911 0.8384911 0.8751246 0.8384911 0.8384911 0.7199235
0.55739933 0.57941395 0.8384911 0.8384911 0.4652305 0.6421047 0.47838432 0.8384911
0.5707355 0.8384911 0.61746466 0.8384911 0.6952996 0.8384911 0.8384911 0.54161775
0.8384911 0.8384911 0.2132838 0.68219966 0.8384911 0.8384911 0.8384911 0.35080105
1.0147176 0.8384911 0.60112137 0.49850267 0.38208035 0.59114915 0.6236743 0.52357167
0.8384911 0.45444357 0.8384911 0.59304863 0.12288704 0.8384911 0.8384911 0.6030458
0.2918721 0.8384911 0.8384911 0.62553495 0.8384911 0.5297633 0.8384911 0.91880506
0.8384911 0.47625783 0.65440655 0.8384911 0.5380568 0.74147964 0.44160405 0.8384911
0.8384911 0.8384911 0.8384911 0.46744135 0.68979365 0.4910868 0.8384911 0.8384911
0.8384911 0.8384911 0.5962592 0.8384911 0.58666307 0.8384911 0.8384911 0.72798806
0.8384911 0.5447544 0.8384911 0.67564696 0.57476884 0.758047 0.8384911 0.8384911
0.8384911 0.83850616 0.4885376 0.6633553 0.8384911 0.80463535 0.47228923 0.69616455

module_list.0.output_quant.pre_transforms.0.bias f4 [600]
00000000: 0000 0000 63bb 113f aa4c 003f 8e4f 263f
00000010: 0000 0000 9c3d dabe 0000 0000 f471 1e3f
00000020: 136a 873e 0000 0000 ae60 8f3e 828c d13e
00000030: 6a38 f03e 0000 0000 0000 0000 ce20 7f3c
00000040: 0000 0000 0000 0000 6b39 d33e 9cd0 903e
00000050: 0000 0000 8054 383f 13c4 0d3f 0000 0000
00000060: b29c 893e 0000 0000 1f77 093f 1922 0a3f
00000070: 0000 0000 0000 0000 0000 0000 4abe 923e
00000080: 4011 2cbe 0000 0000 0000 0000 028e 59bd
00000090: 0000 0000 6f6a e73e 0000 0000 ede7 6d3f
000000a0: 0000 0000 ee1d 243f ba19 e73e 34e6 f63e
000000b0: 674f cfbd 6de2 b93e fd57 313f 0000 0000
000000c0: 0000 0000 0000 0000 38c7 8a3e 0000 0000
000000d0: 272e 783e 8edd 013e 0000 0000 0000 0000
000000e0: 0a8e e63e 0000 0000 0000 0000 4e02 4e3e
000000f0: 0000 0000 0000 0000 0000 0000 0000 0000
00000100: 0000 0000 0000 0000 0000 0000 0000 0000
00000110: c025 ee3e d0e1 ab3e 0000 0000 33f5 173e
00000120: 0000 0000 0000 0000 f478 913e 3e9e 383f
00000130: 64f3 ed3e 0000 0000 0000 0000 0000 0000
00000140: 0000 0000 687b b53e 0000 0000 0000 0000
00000150: 0000 0000 b632 993e 0000 0000 0000 0000
00000160: 4d86 07bf 0000 0000 7d6f 003f c3ae 0c3f
00000170: 0000 0000 0c9e 6b3e 0000 0000 6a9d 82bd
00000180: e6f2 0b3f 5e9c cc3e 7cd2 203f 0000 0000
00000190: 0000 0000 a93e 6fbf 0000 0000 0000 0000
000001a0: 7a3c 9c3e d9d3 bc3e ec3a 0f3f aea6 e73e
000001b0: 698b f63e 0000 0000 64b1 7e3d a925 e13e
000001c0: 0000 0000 1764 173f 662a cf3e 0000 0000
000001d0: 7a33 103e 0000 0000 8eeb 663f 0000 0000
000001e0: 0000 0000 e254 7d3e 2363 d83d ebb8 1f3f
000001f0: 0000 0000 a557 f23e 0000 0000 c071 3f3f
00000200: 0000 0000 0000 0000 e1e4 143f 0000 0000
00000210: a04f 043f 0000 0000 2353 333f 0377 aa3e
00000220: db0c 0bbe 0000 0000 0000 0000 6031 113f
00000230: c8ab 143f 8bd7 6f3c e3d6 4d3f 4889 893e
00000240: 0000 0000 ab31 0abf a4db 7e3f 0000 0000
00000250: 967e a43e 0000 0000 4cd2 c03e 0000 0000
00000260: 0000 0000 c5cd 973e 75a3 683e 0000 0000
00000270: 0000 0000 4127 693f 0000 0000 bc93 373f
00000280: 0000 0000 0000 0000 0000 0000 0000 0000
00000290: 5ef7 303f 0000 0000 0000 0000 e3f1 f23e
000002a0: 8d77 c73c 2460 283f 0000 0000 0000 0000
000002b0: 802a c63e 54c6 123f 1994 66be 0000 0000
000002c0: c59f 3b3f 0000 0000 6b70 4a3f 0000 0000
000002d0: 678e 323f 0000 0000 0000 0000 adfb 473f
000002e0: 0000 0000 0000 0000 08bc b7bc d78a ff3d
000002f0: 0000 0000 0000 0000 0000 0000 a432 343f
00000300: 918e 223f 0000 0000 b09d 2e3f f227 fd3e
00000310: 946c a33e 536a 2a3f 8cb1 d13e 37a5 f33e
00000320: 0000 0000 5824 173f 0000 0000 5e05 523f
00000330: 81ee 303e 0000 0000 0000 0000 174f 513f
00000340: b339 983d 0000 0000 0000 0000 d1a6 ba3e
00000350: 0000 0000 e771 f13e 0000 0000 697d 993f
00000360: 0000 0000 0376 223f d153 893e 0000 0000
00000370: 7143 cc3e 6103 9e3e afb3 b43e 0000 0000
00000380: 0000 0000 0000 0000 0000 0000 7021 873e
00000390: 16b6 113f 6d52 bd3e 0000 0000 0000 0000
000003a0: 0000 0000 0000 0000 2074 e13e 0000 0000
000003b0: b3c2 e33e 0000 0000 0000 0000 8060 b4be
000003c0: 0000 0000 2900 f53e 0000 0000 0ed3 3b3f
000003d0: 8d54 913e c90a b23e 0000 0000 0000 0000
000003e0: 0000 0000 a28a 73bd 68d2 e83e c622 dc3e
000003f0: 0000 0000 01de 553f 66a3 f23e b117 f4bd
0.0 0.56926554 0.5011698 0.6496514 0.0 -0.4262513 0.0 0.6189263
0.26448116 0.0 0.28003448 0.4092751 0.4691804 0.0 0.0 0.015571786
0.0 0.0 0.41254744 0.28284156 0.0 0.72003937 0.5537731 0.0
0.26877362 0.0 0.5369739 0.5395828 0.0 0.0 0.0 0.28660804
-0.16803455 0.0 0.0 -0.053113945 0.0 0.4519839 0.0 0.92932016
0.0 0.6410817 0.45136815 0.48222506 -0.10122567 0.36305562 0.69274884 0.0
0.0 0.0 0.27105117 0.0 0.24236356 0.12682173 0.0 0.0
0.45030242 0.0 0.0 0.20118067 0.0 0.0 0.0 0.0
0.0 0.0 0.0 0.0 0.46513176 0.3357072 0.0 0.1483963
0.0 0.0 0.28412592 0.7211646 0.46474755 0.0 0.0 0.0
0.0 0.35445714 0.0 0.0 0.0 0.29921502 0.0 0.0
-0.529393 0.0 0.5017012 0.54954165 0.0 0.23009509 0.0 -0.063776806
0.5466751 0.3996305 0.62821174 0.0 0.0 -0.93454987 0.0 0.0
0.3051489 0.36880377 0.5594928 0.45244354 0.48153237 0.0 0.06218089 0.43974045
0.0 0.591371 0.40462035 0.0 0.14082137 0.0 0.9020318 0.0
0.0 0.24739411 0.10565784 0.6239154 0.0 0.47332492 0.0 0.74782944
0.0 0.0 0.5816174 0.0 0.51684 0.0 0.7004873 0.33293924
-0.13579123 0.0 0.0 0.56715965 0.5807462 0.014638792 0.80406016 0.2686255
0.0 -0.5398204 0.99553895 0.0 0.32127827 0.0 0.37660444 0.0
0.0 0.29649177 0.22718604 0.0 0.0 0.9107552 0.0 0.717098
0.0 0.0 0.0 0.0 0.6912745 0.0 0.0 0.4745017
0.024348998 0.657717 0.0 0.0 0.387043 0.57333875 -0.22517432 0.0
0.73290664 0.0 0.79077786 0.0 0.6974854 0.0 0.0 0.781184
0.0 0.0 -0.022428527 0.124776535 0.0 0.0 0.0 0.7038977
0.6349879 0.0 0.6820936 0.49444538 0.31918776 0.6656849 0.4095577 0.47586986
0.0 0.5903983 0.0 0.8203944 0.17278482 0.0 0.0 0.81761307
0.0743288 0.0 0.0 0.36455396 0.0 0.47157213 0.0 1.1991397
0.0 0.6346132 0.2682176 0.0 0.39895204 0.30861953 0.35293338 0.0
0.0 0.0 0.0 0.26392698 0.56918466 0.36976948 0.0 0.0
0.0 0.0 0.4403391 0.0 0.4448448 0.0 0.0 -0.35229874
0.0 0.47851685 0.0 0.7336892 0.2838482 0.34773853 0.0 0.0
0.0 -0.059458382 0.45473027 0.4299528 0.0 0.83541876 0.47390288 -0.11918581
