examples/jet_substructure/jsc_single_models/uniform_input_large_seed16/checkpoint.pth (torch, 991659 bytes, 118 tensors)

module_list.0.input_quant.pre_transforms.0.weight f4 [16]
00000000: 37f4 de3e 4503 323f 106a f33e a214 3d40
00000010: 3b72 133f 3949 a83e 06aa 083f ece0 363f
00000020: adfd d53e 5640 d33e cdac f13e 603a 203f
00000030: 4cef f33e 63fd 0b3f 5fed e23f 3820 be3e
0.43545696 0.6953624 0.47541857 2.9543843 0.57596177 0.32868364 0.53384435 0.71436954
0.41795102 0.41260022 0.4720215 0.62589073 0.47643507 0.5468351 1.772869 0.37133956

module_list.0.input_quant.pre_transforms.0.bias f4 [16]
00000000: 3f37 b2bd 0b18 5d3e 54b2 3cbd 7840 a03e
00000010: befc aebc 771a d4be a393 e2be e24d b53e
00000020: 08f4 1e3d a44e 103e af34 823e d547 583e
00000030: 7426 aa3e 1307 553e ce42 a0be fb8c 3ebe
-0.087019436 0.21591203 -0.046068504 0.31299186 -0.021360751 -0.4142644 -0.44253263 0.35410982
0.038806945 0.14092499 0.2543082 0.21121152 0.33232462 0.2080348 -0.31300968 -0.18608467

module_list.0.input_quant.pre_transforms.0.running_mean f4 [16]
00000000: 3e4e 5fbc 43fb 4b3c 2548 8a3b 1340 ad3b
00000010: b9fa 623c de7f 833c 8263 a33c fca5 9c3c
00000020: 8263 a33c c153 a53c 260f 9a3c 9ffb 9a3c
00000030: b7c2 b13c 36fc a63c 4a9a 4f3b a080 273c
-0.013629494 0.012450042 0.004220026 0.0052871793 0.013853722 0.016052183 0.01994491 0.019122116
0.01994491 0.020181539 0.018806051 0.01891881 0.021699293 0.020383935 0.0031677657 0.010223538

module_list.0.input_quant.pre_transforms.0.running_var f4 [16]
00000000: a8b2 7e3f 6be4 783f a083 813f 9489 813f
00000010: 9be9 823f 6c72 843f a05e 803f 5941 7f3f
00000020: a05e 803f e94c 7f3f e2be 803f 7fe6 813f
00000030: b528 7e3f 9d62 803f 99c5 803f a7e7 7f3f
0.9949136 0.9722354 1.0118294 1.012011 1.0227541 1.0347419 1.0028877 0.9970909
1.0028877 0.9972673 1.0058253 1.0148467 0.99280864 1.0030094 1.0060302 0.9996285

module_list.0.fc.weight f4 [32, 16]
00000000: 03cd f4be a054 b5bc 4ea6 f43d df55 293d
00000010: 8dee 113a 0784 0b3c 6aef 13be 93f2 41bc
00000020: 75df f2bd 9ccd eebd 6255 b4bd 1b6f 693d
00000030: 826f 923d bc35 c7bd 2160 0a3e 1aab 3abf
00000040: 1b42 283e c459 733c 781f 1fbe 5e89 abbd
00000050: 32fb bc3c d762 0b3f 8e3d 813c 8643 e4bd
00000060: 3b58 0fbf 265d 263e 529f ee3d 5826 e13d
00000070: ae84 34bd b50d 8a3c 4e61 afbd 48a5 2d3e
00000080: 2958 dfbd d8a8 14be ce9c e83c 580c 113e
00000090: d2b9 ff3c 334d 25bc 25ca 233e d716 58bd
000000a0: f3ae 0f3e 4ccf 2a3e c3fe 35bf 426d 9dbd
000000b0: 2310 14be 1035 c53e d64f ab3d 4072 cf3d
000000c0: 0216 0b3d 637e 213e 1216 073e 7207 f93f
000000d0: 8feb 283e bc3a 0ebe 4eac 5a3d d3e4 413e
000000e0: 5520 e53d 3f0a c6bd 181d e63d 9c9f 8bbd
000000f0: 39af 97bd 814f 04be 939a ab3d 797e 5f3d
00000100: ef58 aabd b3ae 653d 7710 bebd 460b a03d
00000110: 23fc 2c3d b3c8 1bbe 4e02 79bd 1d7d e8bd
00000120: 016e c0bc d275 a4bd ca3a 2d3d a530 a13c
00000130: 05ef 193e 5c93 383d b144 2dc0 5d56 9f3d
00000140: 61dc 18be e9d2 ca3d 7ef7 113e 7679 7dbd
00000150: 4a86 58c0 8272 b73d 3fd8 ec3d 3c22 863d
00000160: 3df3 f7bd 3d0d abbc 6e43 833d 97df b1bd
00000170: 58bf f3bd bc41 68bd 63ba adbd 7952 a8bd
00000180: 2116 813d 7d4b 75bd ef55 1cbc e423 e73d
00000190: 9d55 12bf fdd5 04be 01c7 08be b59c d4bd
000001a0: 8dd9 8c3d ae7a 973d b2ca c83d 1c17 12be
000001b0: 6353 fb3e 5920 133e cdeb 013e 0e4e c03d
000001c0: cb2e 103e 359f 263d ac40 ca3d 7bdb 8fbc
000001d0: 8371 1dbd f18a e73d 27d8 26be 7ea9 2abe
000001e0: 33dc 9b3c a323 c6bd c77c a9bc ef1e 883d
000001f0: 9300 d1bc c5c8 1cbe f8d2 11c0 a388 1f3e
00000200: 2676 6b3d 91ef 853d c2a0 f3be 2ad7 aebc
00000210: cb19 e23c 0136 d1bd 91e9 153d 1975 58bd
00000220: cdef 2c3e d706 78bc 88fa 313b f234 ae3d
00000230: 4d87 e03b 2eea ef3c 4d1f e9bd 3a12 2b3f
00000240: 5e0d 0bbe d378 06bd 10af ddbd f23e 633f
00000250: 06e2 c23c 362e 073e 7c86 febb de6b 18be
00000260: 6e81 d2bd 66f4 be3e 26ed d53d e07b b13d
00000270: 6cc4 933c 16d3 d63c da02 923d dbf6 ab3b
00000280: f962 243b cf26 c03f 7fb0 a23c d6c4 c0bb
00000290: 991b e83d 0ed5 14be ab07 dd3d bfd4 243e
000002a0: e0e2 b83d 58c9 a33d 645e b5bd 1a17 9bbd
000002b0: df7d cc3d 2da2 cb3d b934 983d d7f4 8d3d
000002c0: ff4f 323e eb20 163d ccb8 963c 1d5a cf3d
000002d0: bdc9 233e c15a f03d 4f0a c3bd 4690 0cbe
000002e0: 2f78 8e3d 9e85 85bd 9c8b 31bd c7fb 553d
000002f0: bc02 bd3d 165c 183e 4878 d1bd c52c fcbf
00000300: cd2b c1bc c004 263e 0f6e e9bd 6f78 82bc
00000310: 83e4 73bf d802 20be 89bb 9d3d c64b 1bbe
00000320: c1e0 963e d4ff 1fbe c1bd 2cbc 8c84 563d
00000330: eba6 f03d 596b 073e f3d5 03be 0434 e4bc
00000340: 0196 153d ecde 9a3c ecf8 4a3b 0634 36bd
00000350: 61f7 c03c 0fc3 9c3e e65a 17bd 11ba 64ba
00000360: 53d0 e0bd 33eb fb3d d5be 073e e420 c4bd
00000370: 5c17 1dbe cf53 f6bd 933b 33c0 e857 30bb
00000380: 1dcb 143e 2f09 083d 95d5 dbbe 5ad0 113d
00000390: 9b73 acbd 70e5 b93b ac4d ce3d 851d 4ebd
000003a0: 7d88 e6bc 6609 14bf c3f8 643e a26c 1c3e
000003b0: 146a fbbd d830 453c 7ee8 14bd c14a 11be
000003c0: 7f17 30bd 328d 8d3d b33c 03be e17e 88c0
000003d0: 9c3e 44bd 5664 fb3a 76e3 033e 428c 203c
000003e0: afee 11bc d49e 24be 69a9 183c 59ad 3f3d
000003f0: 9d40 1c3d c4bb f13d 6535 d9bd 3e92 1abe
-0.47812662 -0.022135079 0.119457826 0.04134166 0.0005566858 0.0085153645 -0.14446798 -0.011837619
-0.11859027 -0.116603106 -0.08805348 0.056990724 0.07150175 -0.09727046 0.13513233 -0.7291733
0.16431467 0.014852945 -0.15539348 -0.0837581 0.023068998 0.5444769 0.015776422 -0.111456916
-0.55994004 0.16246471 0.11651482 0.109936416 -0.044071846 0.01685224 -0.08563481 0.16957581
-0.10905487 -0.14517534 0.028395083 0.14164865 0.031216536 -0.0100892065 0.15995081 -0.052756157
0.14031582 0.1668064 -0.7109186 -0.07686855 -0.1445928 0.38517046 0.08364837 0.10129213
0.033956535 0.15770869 0.13192013 1.9455397 0.16496108 -0.13889593 0.05338698 0.18934946
0.111878075 -0.09669923 0.11236018 -0.068175524 -0.07406468 -0.12920953 0.08379092 0.054563973
-0.08317744 0.05607481 -0.09280484 0.0781465 0.042232644 -0.1521328 -0.060793214 -0.113519885
-0.023489954 -0.08030285 0.042292394 0.019676516 0.15032585 0.045062408 -2.7073176 0.07780144
-0.14927818 0.09903509 0.14254567 -0.061883412 -3.3831964 0.089573875 0.11564683 0.065494984
-0.12106941 -0.020880336 0.064093456 -0.086852245 -0.1190173 -0.056703314 -0.08482816 -0.082188554
0.06303049 -0.059886444 -0.009541973 0.112861425 -0.57161885 -0.12972255 -0.13357164 -0.10381452
0.06877432 0.07396446 0.09804286 -0.14266628 0.49087057 0.14367808 0.12687607 0.09389888
0.1408035 0.040679175 0.098756164 -0.017560711 -0.03843833 0.11305798 -0.16293393 -0.16666219
0.019025898 -0.09674766 -0.020689381 0.06646525 -0.02551297 -0.15310962 -2.2785015 0.15579467
0.057485722 0.06539834 -0.47583586 -0.021342833 0.02760019 -0.102153786 0.0365997 -0.052846048
0.16888352 -0.0151383495 0.0027157385 0.08506192 0.0068520666 0.02928647 -0.11382923 0.66824687
-0.13579318 -0.03283007 -0.10824406 0.8876792 0.023789417 0.13201222 -0.0077674966 -0.14884898
-0.10278593 0.37295836 0.10445623 0.086662054 0.018037997 0.0262237 0.0712945 0.0052479333
0.0025083406 1.5011843 0.01985955 -0.0058828397 0.11333389 -0.14534399 0.10792478 0.16096781
0.09027648 0.07997388 -0.08855894 -0.07572766 0.099849455 0.09943042 0.07431931 0.06931465
0.17413329 0.036652487 0.018398665 0.101246096 0.15994926 0.1173606 -0.095234506 -0.13726911
0.06956517 -0.06519626 -0.043346033 0.052242067 0.09229037 0.14878878 -0.1022802 -1.9701163
-0.023580456 0.1621275 -0.11397945 -0.015926568 -0.95270556 -0.15626085 0.07701785 -0.15165624
0.2946835 -0.15624934 -0.010543288 0.0523725 0.11750587 0.13224544 -0.12874584 -0.027856834
0.036520008 0.018905126 0.0030971123 -0.044483207 0.02355546 0.30617568 -0.036951922 -0.0008725236
-0.10977235 0.1230072 0.1325639 -0.09576586 -0.15340942 -0.12027704 -2.8005111 -0.0026907865
0.14530607 0.033211883 -0.42936388 0.03559909 -0.084204875 0.005673103 0.100734085 -0.05032112
-0.028141255 -0.5782684 0.2236052 0.15275815 -0.12276092 0.012035571 -0.036354534 -0.14188673
-0.042991158 0.069116965 -0.12816124 -4.265488 -0.04791127 0.0019179683 0.12879738 0.009799065
-0.008907004 -0.16076213 0.009317734 0.046796177 0.038147558 0.118033916 -0.10605887 -0.1509485

module_list.0.fc.bias f4 [32]
00000000: 6c59 8bbd e07d 003f 1927 b1bc 9def 26bd
00000010: 3740 a1be 931c 6a3e eced 953d 0380 25be
00000020: 16c1 c53c fd07 13bd 42e2 a7be 24d1 583e
00000030: 769b a13e 5157 883c c521 a7be 2dff 02be
00000040: 5c06 abbd 3ee9 683d 1055 e23c c38b 8d3d
00000050: d5b0 203e 7bae 3e3e 131c 8cbe 1ecc b83d
00000060: 353e 02be 2300 41be be44 3fbe 547b a1bd
00000070: 7777 a5bd 95cc 903d 52ba 563e 01bf fcbd
-0.06804165 0.5019207 -0.021625089 -0.040755857 -0.31494305 0.22862463 0.073207706 -0.16162114
0.024139922 -0.03589629 -0.3278981 0.21173531 0.3156392 0.016643198 -0.32642952 -0.12792654
-0.08350822 0.056863062 0.027628452 0.06911423 0.15692456 0.18621247 -0.2736517 0.09023307
-0.12719043 -0.18847708 -0.18678567 -0.07884851 -0.08079427 0.07070271 0.20969513 -0.123411186

module_list.0.fc.mask.mask f4 [32, 16]
00000000: 0000 803f 0000 0000 0000 0000 0000 0000
00000010: 0000 0000 0000 0000 0000 0000 0000 0000
00000020: 0000 0000 0000 803f 0000 0000 0000 0000
00000030: 0000 0000 0000 0000 0000 0000 0000 803f
00000040: 0000 0000 0000 803f 0000 0000 0000 0000
00000050: 0000 0000 0000 803f 0000 0000 0000 0000
00000060: 0000 803f 0000 0000 0000 0000 0000 0000
00000070: 0000 0000 0000 0000 0000 0000 0000 0000
00000080: 0000 0000 0000 0000 0000 803f 0000 0000
00000090: 0000 0000 0000 0000 0000 0000 0000 0000
000000a0: 0000 0000 0000 0000 0000 803f 0000 0000
000000b0: 0000 0000 0000 803f 0000 0000 0000 0000
000000c0: 0000 0000 0000 0000 0000 0000 0000 803f
000000d0: 0000 0000 0000 0000 0000 0000 0000 803f
000000e0: 0000 0000 0000 0000 0000 0000 0000 803f
000000f0: 0000 0000 0000 0000 0000 0000 0000 0000
00000100: 0000 0000 0000 0000 0000 0000 0000 0000
00000110: 0000 0000 0000 0000 0000 803f 0000 0000
00000120: 0000 0000 0000 0000 0000 0000 0000 0000
00000130: 0000 803f 0000 0000 0000 803f 0000 0000
00000140: 0000 0000 0000 0000 0000 0000 0000 0000
00000150: 0000 803f 0000 0000 0000 803f 0000 0000
00000160: 0000 0000 0000 0000 0000 803f 0000 0000
00000170: 0000 0000 0000 0000 0000 0000 0000 0000
00000180: 0000 803f 0000 0000 0000 0000 0000 0000
00000190: 0000 803f 0000 0000 0000 0000 0000 0000
000001a0: 0000 0000 0000 0000 0000 0000 0000 0000
000001b0: 0000 803f 0000 0000 0000 0000 0000 0000
000001c0: 0000 0000 0000 0000 0000 0000 0000 0000
000001d0: 0000 0000 0000 0000 0000 0000 0000 0000
000001e0: 0000 803f 0000 0000 0000 0000 0000 803f
000001f0: 0000 0000 0000 0000 0000 803f 0000 0000
00000200: 0000 0000 0000 0000 0000 803f 0000 0000
00000210: 0000 0000 0000 0000 0000 0000 0000 803f
00000220: 0000 0000 0000 0000 0000 0000 0000 0000
00000230: 0000 0000 0000 0000 0000 0000 0000 803f
00000240: 0000 0000 0000 0000 0000 0000 0000 803f
00000250: 0000 0000 0000 0000 0000 0000 0000 0000
00000260: 0000 0000 0000 803f 0000 0000 0000 0000
00000270: 0000 0000 0000 803f 0000 0000 0000 0000
00000280: 0000 0000 0000 803f 0000 0000 0000 0000
00000290: 0000 0000 0000 803f 0000 0000 0000 0000
000002a0: 0000 0000 0000 0000 0000 0000 0000 0000
000002b0: 0000 803f 0000 0000 0000 0000 0000 0000
000002c0: 0000 803f 0000 0000 0000 0000 0000 0000
000002d0: 0000 0000 0000 0000 0000 0000 0000 0000
000002e0: 0000 0000 0000 0000 0000 0000 0000 803f
000002f0: 0000 0000 0000 0000 0000 0000 0000 803f
00000300: 0000 0000 0000 0000 0000 0000 0000 0000
00000310: 0000 803f 0000 0000 0000 0000 0000 0000
00000320: 0000 803f 0000 0000 0000 0000 0000 0000
00000330: 0000 0000 0000 803f 0000 0000 0000 0000
00000340: 0000 0000 0000 0000 0000 0000 0000 0000
00000350: 0000 0000 0000 803f 0000 803f 0000 0000
00000360: 0000 0000 0000 0000 0000 0000 0000 0000
00000370: 0000 0000 0000 0000 0000 803f 0000 0000
00000380: 0000 0000 0000 0000 0000 803f 0000 0000
00000390: 0000 0000 0000 0000 0000 0000 0000 0000
000003a0: 0000 0000 0000 803f 0000 803f 0000 0000
000003b0: 0000 0000 0000 0000 0000 0000 0000 0000
000003c0: 0000 0000 0000 803f 0000 0000 0000 803f
000003d0: 0000 0000 0000 0000 0000 0000 0000 803f
000003e0: 0000 0000 0000 0000 0000 0000 0000 0000
000003f0: 0000 0000 0000 0000 0000 0000 0000 0000
1.0 0.0 0.0 0.0 0.0 0.0 0.0 0.0
0.0 1.0 0.0 0.0 0.0 0.0 0.0 1.0
0.0 1.0 0.0 0.0 0.0 1.0 0.0 0.0
1.0 0.0 0.0 0.0 0.0 0.0 0.0 0.0
0.0 0.0 1.0 0.0 0.0 0.0 0.0 0.0
0.0 0.0 1.0 0.0 0.0 1.0 0.0 0.0
0.0 0.0 0.0 1.0 0.0 0.0 0.0 1.0
0.0 0.0 0.0 1.0 0.0 0.0 0.0 0.0
0.0 0.0 0.0 0.0 0.0 0.0 1.0 0.0
0.0 0.0 0.0 0.0 1.0 0.0 1.0 0.0
0.0 0.0 0.0 0.0 1.0 0.0 1.0 0.0
0.0 0.0 1.0 0.0 0.0 0.0 0.0 0.0
1.0 0.0 0.0 0.0 1.0 0.0 0.0 0.0
0.0 0.0 0.0 0.0 1.0 0.0 0.0 0.0
0.0 0.0 0.0 0.0 0.0 0.0 0.0 0.0
1.0 0.0 0.0 1.0 0.0 0.0 1.0 0.0
0.0 0.0 1.0 0.0 0.0 0.0 0.0 1.0
0.0 0.0 0.0 0.0 0.0 0.0 0.0 1.0
0.0 0.0 0.0 1.0 0.0 0.0 0.0 0.0
0.0 1.0 0.0 0.0 0.0 1.0 0.0 0.0
0.0 1.0 0.0 0.0 0.0 1.0 0.0 0.0
0.0 0.0 0.0 0.0 1.0 0.0 0.0 0.0
1.0 0.0 0.0 0.0 0.0 0.0 0.0 0.0
0.0 0.0 0.0 1.0 0.0 0.0 0.0 1.0
0.0 0.0 0.0 0.0 1.0 0.0 0.0 0.0
1.0 0.0 0.0 0.0 0.0 1.0 0.0 0.0
0.0 0.0 0.0 0.0 0.0 1.0 1.0 0.0
0.0 0.0 0.0 0.0 0.0 0.0 1.0 0.0
0.0 0.0 1.0 0.0 0.0 0.0 0.0 0.0
0.0 1.0 1.0 0.0 0.0 0.0 0.0 0.0
0.0 1.0 0.0 1.0 0.0 0.0 0.0 1.0
0.0 0.0 0.0 0.0 0.0 0.0 0.0 0.0

module_list.0.output_quant.pre_transforms.0.weight f4 [32]
00000000: 6a56 b63e 3918 eb3e 5938 8f3e 1857 093f
00000010: d0b0 ad3f 92e0 543f fe8e 303f d030 643f
00000020: 1e4f 943e 8a96 9f3f faba 033f 76eb 333f
00000030: d18c d93f c302 b53f 27db db3e 2c91 5a3f
00000040: 2a80 803e 5e54 c63e 1b76 323f f9b6 2f3f
00000050: 7efd b23e d514 013f 1cec cf3e c06d 263f
00000060: 40b8 0c3f 614e 003f a81b 7c3f d3e1 9b3f
00000070: e49d a93e 9027 9d3e 8147 c43f 1db1 193f
0.35612804 0.45916918 0.27972677 0.5364852 1.3569584 0.8315517 0.6896819 0.8913698
0.28966612 1.2467816 0.5145718 0.7028116 1.6996099 1.4141468 0.42940637 0.85377765
0.2509778 0.38736242 0.69711465 0.6863857 0.34959024 0.5042241 0.40609825 0.65011215
0.54968643 0.50119597 0.984797 1.2178291 0.33128273 0.30694246 1.5334321 0.6003588

module_list.0.output_quant.pre_transforms.0.bias f4 [32]
00000000: 5eb8 df3e ec62 0d3e 6f2b b53e 2f85 f73e
00000010: 8dcb 683f ed6b e4bd 6cf1 963f 4e9b bf3f
00000020: a4b0 ab3e 3c57 a6bf 35e0 803e acaa 9dbd
00000030: f3a0 7f3e e085 16bf 3476 8a3e 5696 123e
00000040: 2337 073f 94fc d73e 55ad 003f 4ec3 4abd
00000050: 9253 853e 3f09 203f 819f 0d3f 4104 4e3b
00000060: 0ed7 a43c de0d 0b3e 78b7 293f ce1f aa3e
00000070: 1355 1b3d 6249 9b3e 4a8e 1a40 2344 dabd
0.43695349 0.13807267 0.353847 0.483438 0.90935594 -0.11153398 1.1792426 1.496927
0.33533204 -1.2995372 0.25171056 -0.07698569 0.24963741 -0.5879803 0.27043307 0.14315161
0.52818507 0.4218489 0.50264484 -0.049502663 0.26040322 0.6251411 0.5532151 0.003143564
0.020122077 0.13579509 0.66295576 0.3322739 0.03792293 0.30329424 2.4149346 -0.10657527

module_list.0.output_quant.pre_transforms.0.running_mean f4 [32]
00000000: 94be ae3e 82ba 843e 5a2f 84bd 399f 0ebf
00000010: e5ea c93e 53df 7e3f 4320 843e 006f c63e
00000020: e6f2 e5bd 5404 98be e9b9 8cbd edb9 673f
00000030: e677 ff3e 8685 073f a099 37be 7bc8 843f
00000040: eb5d 163e 2af1 203e cbc5 de3e e32e b93e
00000050: 3611 f83e 156f cf3e 62d8 88bc b13b 853e
00000060: 9df6 50bf 37e0 02bd f298 f43d a81a 143f
00000070: 74e1 36be 25fe debe 6d68 903e 3537 95bf
0.34129775 0.25923544 -0.06454344 -0.55711704 0.39437023 0.99559516 0.25805864 0.3875656
-0.1122797 -0.29690802 -0.06871397 0.90518075 0.49896163 0.52938116 -0.17929697 1.0373682
0.14684264 0.15716997 0.4351028 0.36168584 0.4845063 0.40514436 -0.016704742 0.26022103
-0.816263 -0.03195211 0.119432345 0.57853174 -0.17859441 -0.43553272 0.2820467 -1.1657473

module_list.0.output_quant.pre_transforms.0.running_var f4 [32]
00000000: 0890 083d db5d 813d 18be 083d 447b b73f
00000010: 2948 2540 8c0a 3440 c6f2 e83d 9a3f ea3f
00000020: af47 3c3d 260e 9c3e a3d3 003f f704 113f
00000030: a705 673e d5d0 1f40 d9ea 5a3d aef1 dc40
00000040: d7e9 5c3e 2e3d 8b3d 1e12 663f 68d8 1c3e
00000050: 3d02 993d b6cd b23d f072 1f3d 1d87 483d
00000060: a841 0840 1da2 9d3d 37f0 533f d6b0 2240
00000070: a459 423d 0b14 a33d 126a 1c3e 2590 b540
0.033340484 0.0631673 0.033384413 1.4334493 2.5825293 2.8131437 0.1137443 1.830066
0.0459668 0.30479544 0.5032293 0.566482 0.2256075 2.497121 0.053446624 6.904502
0.21573578 0.067987785 0.89871395 0.15316927 0.0747113 0.087306425 0.038927972 0.04895698
2.1290073 0.07696936 0.82788414 2.5420432 0.04744877 0.07962807 0.15274838 5.673846

module_list.1.input_quant.pre_transforms.0.weight f4 [32]
00000000: 6a56 b63e 3918 eb3e 5938 8f3e 1857 093f
00000010: d0b0 ad3f 92e0 543f fe8e 303f d030 643f
00000020: 1e4f 943e 8a96 9f3f faba 033f 76eb 333f
00000030: d18c d93f c302 b53f 27db db3e 2c91 5a3f
00000040: 2a80 803e 5e54 c63e 1b76 323f f9b6 2f3f
00000050: 7efd b23e d514 013f 1cec cf3e c06d 263f
00000060: 40b8 0c3f 614e 003f a81b 7c3f d3e1 9b3f
00000070: e49d a93e 9027 9d3e 8147 c43f 1db1 193f
0.35612804 0.45916918 0.27972677 0.5364852 1.3569584 0.8315517 0.6896819 0.8913698
0.28966612 1.2467816 0.5145718 0.7028116 1.6996099 1.4141468 0.42940637 0.85377765
0.2509778 0.38736242 0.69711465 0.6863857 0.34959024 0.5042241 0.40609825 0.65011215
0.54968643 0.50119597 0.984797 1.2178291 0.33128273 0.30694246 1.5334321 0.6003588

module_list.1.input_quant.pre_transforms.0.bias f4 [32]
00000000: 5eb8 df3e ec62 0d3e 6f2b b53e 2f85 f73e
00000010: 8dcb 683f ed6b e4bd 6cf1 963f 4e9b bf3f
00000020: a4b0 ab3e 3c57 a6bf 35e0 803e acaa 9dbd
00000030: f3a0 7f3e e085 16bf 3476 8a3e 5696 123e
00000040: 2337 073f 94fc d73e 55ad 003f 4ec3 4abd
00000050: 9253 853e 3f09 203f 819f 0d3f 4104 4e3b
00000060: 0ed7 a43c de0d 0b3e 78b7 293f ce1f aa3e
00000070: 1355 1b3d 6249 9b3e 4a8e 1a40 2344 dabd
0.43695349 0.13807267 0.353847 0.483438 0.90935594 -0.11153398 1.1792426 1.496927
0.33533204 -1.2995372 0.25171056 -0.07698569 0.24963741 -0.5879803 0.27043307 0.14315161
0.52818507 0.4218489 0.50264484 -0.049502663 0.26040322 0.6251411 0.5532151 0.003143564
0.020122077 0.13579509 0.66295576 0.3322739 0.03792293 0.30329424 2.4149346 -0.10657527

module_list.1.input_quant.pre_transforms.0.running_mean f4 [32]
00000000: 94be ae3e 82ba 843e 5a2f 84bd 399f 0ebf
00000010: e5ea c93e 53df 7e3f 4320 843e 006f c63e
00000020: e6f2 e5bd 5404 98be e9b9 8cbd edb9 673f
00000030: e677 ff3e 8685 073f a099 37be 7bc8 843f
00000040: eb5d 163e 2af1 203e cbc5 de3e e32e b93e
00000050: 3611 f83e 156f cf3e 62d8 88bc b13b 853e
00000060: 9df6 50bf 37e0 02bd f298 f43d a81a 143f
00000070: 74e1 36be 25fe debe 6d68 903e 3537 95bf
0.34129775 0.25923544 -0.06454344 -0.55711704 0.39437023 0.99559516 0.25805864 0.3875656
-0.1122797 -0.29690802 -0.06871397 0.90518075 0.49896163 0.52938116 -0.17929697 1.0373682
0.14684264 0.15716997 0.4351028 0.36168584 0.4845063 0.40514436 -0.016704742 0.26022103
-0.816263 -0.03195211 0.119432345 0.57853174 -0.17859441 -0.43553272 0.2820467 -1.1657473

module_list.1.input_quant.pre_transforms.0.running_var f4 [32]
00000000: 0890 083d db5d 813d 18be 083d 447b b73f
00000010: 2948 2540 8c0a 3440 c6f2 e83d 9a3f ea3f
00000020: af47 3c3d 260e 9c3e a3d3 003f f704 113f
00000030: a705 673e d5d0 1f40 d9ea 5a3d aef1 dc40
00000040: d7e9 5c3e 2e3d 8b3d 1e12 663f 68d8 1c3e
00000050: 3d02 993d b6cd b23d f072 1f3d 1d87 483d
00000060: a841 0840 1da2 9d3d 37f0 533f d6b0 2240
00000070: a459 423d 0b14 a33d 126a 1c3e 2590 b540
0.033340484 0.0631673 0.033384413 1.4334493 2.5825293 2.8131437 0.1137443 1.830066
0.0459668 0.30479544 0.5032293 0.566482 0.2256075 2.497121 0.053446624 6.904502
0.21573578 0.067987785 0.89871395 0.15316927 0.0747113 0.087306425 0.038927972 0.04895698
2.1290073 0.07696936 0.82788414 2.5420432 0.04744877 0.07962807 0.15274838 5.673846

module_list.1.fc.weight f4 [64, 32]
00000000: 9c19 50bd 8fa0 8a3d 8ae8 883d 41e0 d73d
00000010: a393 54bf 662a 2dbc 07ad c8bd e849 96bd
00000020: 1211 c7bd 2484 d5bd 254c 78bd 252c cb3d
00000030: 86c8 bf3d 7ce1 aabd 6539 553d 3ff0 ecbd
00000040: 0bc1 87bc 7ca3 003d b959 9abd a920 46be
00000050: 3c75 58bd f3e7 e6bd 6de7 cabd d310 dd3d
00000060: 50da 35bd 8b08 8cbb 68c8 3bbd 681d 0bbf
00000070: be3f bdbd 5a01 c1bd 35c6 68bd a66e f43d
00000080: 1655 033d b8e1 c23d aa69 d53d e44b 99bd
00000090: b3b8 793d c539 6ebc 5cd5 a33d 34c0 68bd
000000a0: b720 34bd 937e c73d 6a2d e1be 5fd0 79bd
000000b0: 7803 723d b29b 13bd a79a e23d 2f09 1ebd
000000c0: 74fa b6bc 2f1a 92bd 6463 e4bd 750a 73be
000000d0: b3b6 8e3d 811c 43bd f0f0 6e3d 2845 613d
000000e0: 764a 12bd 2185 9c3d 96cf d93d d9a4 983c
000000f0: 5d65 f3bb cbf5 45bf 6246 623c c131 af3d
00000100: c6ab eb3c d09e 3dbd 9922 223d 723c 68bd
00000110: edeb a0bd 5717 a43d f8e9 d03d 33e0 8a3d
00000120: f009 d5bd 2096 473f 4146 9bbd 750c 3dbc
00000130: 4924 763d 4648 8c3d 5e6a b1bd fa0c 1d3d
00000140: b78e 853e 8457 9fbc 855e aebd 12c1 c03d
00000150: 7d95 bebc 80e5 65bd 4327 f33c b3a4 943e
00000160: 3598 873c d4c3 8dbd 8df9 a73c bb3e c1bc
00000170: 322c b8bd 2255 a2bd 9cfe bebd c50f 24bf
00000180: d2cd ee3d 8a12 8c3d 3b9e d3bb f7f5 623d
00000190: 193a 6cbd b655 393b 317c b3bd cb20 f03d
000001a0: 0438 c33d 3dbb 1a3b feb0 e33d 76e7 6ebd
000001b0: ddf9 983b 8532 59bd a3f7 3cbd 1d75 f1bd
000001c0: bf67 1bbf fe34 d93d 2333 cebd 1cf1 a63d
000001d0: 19e1 c53d b046 2c3f 778a 503d 66ae 29bd
000001e0: 4b49 3bbd 8710 60bd fa2d b43d 26be 45bd
000001f0: d4f9 b33d 6192 c5bd 8fcd 84bc 537a 4ebd
00000200: 9776 cd3d df9f 933b 8c33 3b3f 0ff2 d9bd
00000210: aff7 f3bd db6b 2abc d62b 9ebd 8db9 24bb
00000220: 830f b63d b7ae 82bd 801c d1bc 7b3d 15bd
00000230: e97c 663c 3a7d 3ebd c6f0 edbc 0660 1dbc
00000240: 3be6 393c d1ad ecbd b33a 4fbd 4490 9a3d
00000250: 8a5f c43d c71a c73b eb9b 3bb9 f12b 1ebd
00000260: 6077 22bd 3666 a5bc bda1 643d 3917 5bbc
00000270: 0180 343d 3c35 0fbf 0fc1 e03d 7ccb 98bd
00000280: cc82 1abc 741b 913d 899e bebd d286 d6bc
00000290: 9ec9 4c3d 6c65 8abd 1d78 c1bd 7469 8bbd
000002a0: 91ec ddbc 1555 0abd 5fa5 aa3d 2873 df3b
000002b0: f66f 29be b411 bd3c 22dc b73d fd3c e53c
000002c0: cf40 ca3d 6548 123d d2cd 883d 9aba 733d
000002d0: f38a e1bd 4403 403d 03cf ecbd 4bca b2bd
000002e0: cd41 40bd 893a 06bc 8213 21bf ab30 ed3d
000002f0: ea31 8dbd 55dc eabd 8b7d 57bc d35a f5be
00000300: e996 143f 98d2 01bd 65c9 b4bd dff9 8dbd
00000310: faee 95bd 9a35 8a3b dc11 d5bd d379 6b3d
00000320: fe19 d9be 5f24 bfbc c34a 823d f293 92bd
00000330: d7fb debd 4117 09bf 552d d8bd 3ee0 1f3d
00000340: c116 7cbd b5d9 37bd 157d df3d 0bbc b3bc
00000350: aa7b 98bd 317d c13d 5a8c 6bbd bc02 393d
00000360: f2bc 81bc 4199 523d 4d55 123d 9ba6 653c
00000370: d725 d13c a807 643d ecb8 31bd 89ec 83bd
00000380: 2126 383c 372b 5d3b 2d76 a03d a1c5 ec3d
00000390: 40a0 45bc 4dee 6abd 9a54 ba3d cfb1 743c
000003a0: 9909 e33b 3ef0 65bc 6f32 a6bc 8e7a 6d3c
000003b0: 3c79 d43d 7629 ad3d 1813 893d 1bc3 c7bc
000003c0: e8d2 87bd d5d6 6fbd 13af 803d 41d8 183d
000003d0: 209e cabd fded 89bd 4774 92bb 34de 42bc
000003e0: 5e63 ac3f 6fa9 5aba ee62 bf3d 0038 82bd
000003f0: f97f 30bd cf42 71bd 33bc 66bd b694 663f
-0.050805673 0.06768905 0.06684978 0.1054082 -0.83037776 -0.010569191 -0.09798627 -0.07338315
-0.09720053 -0.104255944 -0.060619492 0.09920529 0.09364419 -0.08343789 0.05205669 -0.11569261
-0.016571542 0.03140591 -0.075366445 -0.19348396 -0.05284618 -0.112747096 -0.09907422 0.107942246
-0.044397652 -0.0042734793 -0.04584542 -0.54341745 -0.092406735 -0.09424086 -0.05682965 0.11935167
0.032063566 0.09515709 0.104205444 -0.07485178 0.06096716 -0.0145401405 0.079996794 -0.056823924
-0.04397651 0.09740939 -0.4397996 -0.060989734 0.05908534 -0.036037154 0.11064654 -0.038582977
-0.022336222 -0.071339004 -0.1115177 -0.23734458 0.06968441 -0.047634605 0.058335245 0.054997593
-0.035715543 0.0764258 0.10635297 0.018633293 -0.007427855 -0.77328175 0.013810726 0.08554412
0.028768431 -0.046294034 0.039583776 -0.05669827 -0.07857499 0.08012264 0.10200876 0.06781044
-0.10402286 0.7796345 -0.07581759 -0.0115386145 0.060093198 0.068497226 -0.08662866 0.038342454
0.26085445 -0.01945091 -0.08514122 0.09411825 -0.023264641 -0.05612707 0.029681807 0.29031906
0.01655207 -0.06922117 0.020504737 -0.023589483 -0.089928046 -0.07926394 -0.09325907 -0.6408656
0.11660351 0.068394735 -0.0064580715 0.05541035 -0.057672594 0.0028279847 -0.08763922 0.11725005
0.095321685 0.0023610138 0.11117743 -0.058326207 0.004668458 -0.053026695 -0.046134602 -0.11789916
-0.6070518 0.106058106 -0.10068347 0.08151457 0.096620746 0.6729536 0.0509133 -0.041426085
-0.045724194 -0.05470326 0.08797832 -0.048277043 0.08787885 -0.0964706 -0.0162113 -0.050409626
0.10032385 0.004505142 0.7312553 -0.10641872 -0.11912476 -0.010401691 -0.07723205 -0.002513501
0.088896774 -0.063809805 -0.025526285 -0.036435585 0.014067867 -0.046506144 -0.029045474 -0.009605413
0.011346395 -0.1155659 -0.05059309 0.07547048 0.09588535 0.00607619 -0.00017891794 -0.038616125
-0.039664626 -0.02019034 0.05581831 -0.013372236 0.044067387 -0.55940604 0.10974323 -0.074606866
-0.0094305985 0.070853144 -0.09307582 -0.026187334 0.049996965 -0.06757626 -0.09446738 -0.06807223
-0.027090343 -0.033772547 0.08332323 0.0068191476 -0.16546616 0.02307973 0.08977534 0.027983183
0.098756425 0.035713572 0.06679882 0.05950413 -0.110128306 0.046878114 -0.11562922 -0.087299906
-0.046937753 -0.008192667 -0.6292039 0.11581548 -0.06894286 -0.11467806 -0.01315249 -0.47920856
0.5804277 -0.03169498 -0.088274755 -0.06932425 -0.07320972 0.0042178156 -0.10403797 0.057489228
-0.42402643 -0.023332773 0.06361916 -0.071571246 -0.108878784 -0.5355111 -0.105555214 0.039032213
-0.061545137 -0.044885356 0.109125294 -0.021940252 -0.07445462 0.094477065 -0.057506897 0.045168623
-0.015837166 0.051415686 0.03572588 0.014016773 0.025530739 0.055671364 -0.043389246 -0.064416
0.011239559 0.0033747682 0.0783504 0.11561132 -0.012062132 -0.057356168 0.09098168 0.014934971
0.0069286344 -0.014034329 -0.02028772 0.014494551 0.10374686 0.08455174 0.06693095 -0.024385026
-0.06632024 -0.05855449 0.06283393 0.03731561 -0.09893441 -0.06734846 -0.0044694277 -0.011893798
1.3467824 -0.00083412876 0.09345041 -0.063583374 -0.043090794 -0.058901604 -0.056331825 0.90070665

module_list.1.fc.bias f4 [64]
00000000: 10b1 b4be bed3 3d3d 941a f63d 1351 e43d
00000010: bc33 45bd 6378 d63e 94b0 70bc 84a6 323d
00000020: afd3 49be f771 48be 7951 14bd a35c edbe
00000030: a263 863d 5a61 8abe 4922 133d 3086 cb3b
00000040: 1352 be3e 058c 133e 5701 10be e7b8 583e
00000050: 732e 7f3e d2e3 46bc ba9c 4cbd f385 86bd
00000060: de86 993c ba37 50bd d543 a03b ef44 2abe
00000070: 49de e43d c50d f23d 54d4 813e a33d 36bc
00000080: 065f c23d 4e54 57bd 3141 c63e 9a58 8cbe
00000090: 35d5 793e f100 b23b ec68 8bbe 7e69 e53d
000000a0: 985d 53be 24ac db3d 8bf9 f33c ff82 9abd
000000b0: 288e 1a3e 5e82 c0bd 7d55 cebd a0bd debe
000000c0: 6a48 81bc 2cbb b2be 7d1f 1b3e 9d3e f2bd
000000d0: 9474 84be eafd 98bc 5fc6 80bd 7bc9 513e
000000e0: 2da9 8fbd 0190 c7bc 6b54 39be 1351 bd3c
000000f0: 6c7c d3be 1671 11be 8e72 ad3e fd43 17be
-0.35291338 0.04634451 0.12016788 0.11148276 -0.04814504 0.41888723 -0.014690537 0.043615833
-0.19709657 -0.19574724 -0.03621051 -0.4635974 0.06561972 -0.27027398 0.03592137 0.0062110648
0.37171993 0.14408882 -0.14063011 0.21164285 0.24920063 -0.0121392775 -0.049954154 -0.065685175
0.018741067 -0.050834395 0.0048908987 -0.16627859 0.1117521 0.118190326 0.25357306 -0.011123094
0.094907805 -0.052570634 0.38721612 -0.27411348 0.24397738 0.005432241 -0.27228487 0.11201762
-0.20641172 0.107261926 0.029782077 -0.07544517 0.15093291 -0.093998656 -0.10074899 -0.43504047
-0.0157816 -0.34908426 0.1514873 -0.11828349 -0.25870192 -0.018675763 -0.06287836 0.20487015
-0.070146896 -0.024360659 -0.18098609 0.023109948 -0.41305864 -0.14203295 0.3387646 -0.14772029

module_list.1.fc.mask.mask f4 [64, 32]
00000000: 0000 0000 0000 0000 0000 0000 0000 0000
00000010: 0000 803f 0000 0000 0000 803f 0000 0000
00000020: 0000 0000 0000 0000 0000 0000 0000 0000
00000030: 0000 0000 0000 0000 0000 0000 0000 0000
00000040: 0000 0000 0000 0000 0000 0000 0000 803f
00000050: 0000 0000 0000 0000 0000 0000 0000 0000
00000060: 0000 0000 0000 0000 0000 0000 0000 803f
00000070: 0000 0000 0000 0000 0000 0000 0000 0000
00000080: 0000 0000 0000 0000 0000 0000 0000 0000
00000090: 0000 0000 0000 0000 0000 0000 0000 0000
000000a0: 0000 0000 0000 0000 0000 803f 0000 0000
000000b0: 0000 0000 0000 0000 0000 0000 0000 0000
000000c0: 0000 0000 0000 0000 0000 0000 0000 803f
000000d0: 0000 0000 0000 803f 0000 0000 0000 0000
000000e0: 0000 0000 0000 0000 0000 0000 0000 0000
000000f0: 0000 0000 0000 803f 0000 0000 0000 0000
00000100: 0000 0000 0000 0000 0000 0000 0000 0000
00000110: 0000 0000 0000 0000 0000 0000 0000 0000
00000120: 0000 0000 0000 803f 0000 0000 0000 0000
00000130: 0000 0000 0000 0000 0000 0000 0000 0000
00000140: 0000 803f 0000 0000 0000 0000 0000 0000
00000150: 0000 0000 0000 0000 0000 0000 0000 803f
00000160: 0000 0000 0000 0000 0000 0000 0000 0000
00000170: 0000 0000 0000 0000 0000 0000 0000 803f
00000180: 0000 0000 0000 0000 0000 0000 0000 0000
00000190: 0000 0000 0000 0000 0000 0000 0000 0000
000001a0: 0000 0000 0000 0000 0000 0000 0000 0000
000001b0: 0000 0000 0000 0000 0000 803f 0000 0000
000001c0: 0000 803f 0000 0000 0000 0000 0000 0000
000001d0: 0000 0000 0000 803f 0000 0000 0000 803f
000001e0: 0000 0000 0000 0000 0000 0000 0000 0000
000001f0: 0000 0000 0000 0000 0000 0000 0000 0000
00000200: 0000 0000 0000 0000 0000 803f 0000 0000
00000210: 0000 0000 0000 0000 0000 0000 0000 0000
00000220: 0000 0000 0000 0000 0000 0000 0000 0000
00000230: 0000 0000 0000 0000 0000 0000 0000 0000
00000240: 0000 0000 0000 0000 0000 0000 0000 0000
00000250: 0000 803f 0000 0000 0000 0000 0000 0000
00000260: 0000 0000 0000 0000 0000 0000 0000 0000
00000270: 0000 0000 0000 803f 0000 0000 0000 803f
00000280: 0000 0000 0000 0000 0000 0000 0000 0000
00000290: 0000 0000 0000 0000 0000 0000 0000 0000
000002a0: 0000 0000 0000 0000 0000 0000 0000 0000
000002b0: 0000 803f 0000 0000 0000 0000 0000 0000
000002c0: 0000 0000 0000 0000 0000 0000 0000 0000
000002d0: 0000 0000 0000 0000 0000 0000 0000 803f
000002e0: 0000 0000 0000 0000 0000 803f 0000 0000
000002f0: 0000 0000 0000 0000 0000 0000 0000 803f
00000300: 0000 803f 0000 0000 0000 0000 0000 0000
00000310: 0000 0000 0000 0000 0000 0000 0000 0000
00000320: 0000 803f 0000 0000 0000 0000 0000 0000
00000330: 0000 0000 0000 803f 0000 0000 0000 0000
00000340: 0000 0000 0000 0000 0000 0000 0000 0000
00000350: 0000 0000 0000 0000 0000 0000 0000 803f
00000360: 0000 0000 0000 0000 0000 0000 0000 0000
00000370: 0000 0000 0000 0000 0000 0000 0000 0000
00000380: 0000 0000 0000 0000 0000 0000 0000 0000
00000390: 0000 0000 0000 0000 0000 0000 0000 0000
000003a0: 0000 0000 0000 0000 0000 803f 0000 803f
000003b0: 0000 0000 0000 0000 0000 0000 0000 0000
000003c0: 0000 0000 0000 0000 0000 0000 0000 0000
000003d0: 0000 0000 0000 0000 0000 0000 0000 0000
000003e0: 0000 803f 0000 0000 0000 0000 0000 0000
000003f0: 0000 0000 0000 0000 0000 0000 0000 803f
0.0 0.0 0.0 0.0 1.0 0.0 1.0 0.0
0.0 0.0 0.0 0.0 0.0 0.0 0.0 0.0
0.0 0.0 0.0 1.0 0.0 0.0 0.0 0.0
0.0 0.0 0.0 1.0 0.0 0.0 0.0 0.0
0.0 0.0 0.0 0.0 0.0 0.0 0.0 0.0
0.0 0.0 1.0 0.0 0.0 0.0 0.0 0.0
0.0 0.0 0.0 1.0 0.0 1.0 0.0 0.0
0.0 0.0 0.0 0.0 0.0 1.0 0.0 0.0
0.0 0.0 0.0 0.0 0.0 0.0 0.0 0.0
0.0 1.0 0.0 0.0 0.0 0.0 0.0 0.0
1.0 0.0 0.0 0.0 0.0 0.0 0.0 1.0
0.0 0.0 0.0 0.0 0.0 0.0 0.0 1.0
0.0 0.0 0.0 0.0 0.0 0.0 0.0 0.0
0.0 0.0 0.0 0.0 0.0 0.0 1.0 0.0
1.0 0.0 0.0 0.0 0.0 1.0 0.0 1.0
0.0 0.0 0.0 0.0 0.0 0.0 0.0 0.0
0.0 0.0 1.0 0.0 0.0 0.0 0.0 0.0
0.0 0.0 0.0 0.0 0.0 0.0 0.0 0.0
0.0 0.0 0.0 0.0 1.0 0.0 0.0 0.0
0.0 0.0 0.0 0.0 0.0 1.0 0.0 1.0
0.0 0.0 0.0 0.0 0.0 0.0 0.0 0.0
0.0 0.0 0.0 0.0 1.0 0.0 0.0 0.0
0.0 0.0 0.0 0.0 0.0 0.0 0.0 1.0
0.0 0.0 1.0 0.0 0.0 0.0 0.0 1.0
1.0 0.0 0.0 0.0 0.0 0.0 0.0 0.0
1.0 0.0 0.0 0.0 0.0 1.0 0.0 0.0
0.0 0.0 0.0 0.0 0.0 0.0 0.0 1.0
0.0 0.0 0.0 0.0 0.0 0.0 0.0 0.0
0.0 0.0 0.0 0.0 0.0 0.0 0.0 0.0
0.0 0.0 1.0 1.0 0.0 0.0 0.0 0.0
0.0 0.0 0.0 0.0 0.0 0.0 0.0 0.0
1.0 0.0 0.0 0.0 0.0 0.0 0.0 1.0

module_list.1.output_quant.pre_transforms.0.weight f4 [64]
00000000: 831d 533f 8473 c93e abc7 583f f338 2e3f
00000010: ed2c bc3e db84 173f 2ccd f33e 5b33 b23f
00000020: 7484 d13e 2343 f23e a694 113f 928d b43f
00000030: fe4f 033f 23bb ff3e 553d 083f 8c7f 473f
00000040: 0c59 1a3f 59ea db3f 8284 d23e ffe6 093f
00000050: 0d32 a23e 89e4 163f f77b 6d3f 51a5 963f
00000060: 4175 8d3f 8568 2d3f 08fe 8b3f f27d a43f
00000070: 30bd c33e ee4e e53e 9036 0640 6349 a93e
00000080: ba71 de3e 7cd1 5a3f 571d 903f 3ae7 943f
00000090: 5c4a ea3e f8de 923f 1631 b53e 98a8 f23e
000000a0: 7b67 403f fc47 9a3f efb6 4e3f 7c55 453f
000000b0: 0f52 063f 7fd8 d43e b9d3 f73e af02 263f
000000c0: 4a68 0f3f 7492 303f 436c b73e cd48 d73e
000000d0: 0754 6b3f cbe6 353f ffbb b83f d945 ee3e
000000e0: 2364 a43f df70 873f 7280 ee3e c38f 6b3f
000000f0: e362 133f 9427 0f3f 4b0d 473f 3c8b 573f
0.82466906 0.39345944 0.8467967 0.6805565 0.36753026 0.59187096 0.4761747 1.3921922
0.40921366 0.47316846 0.56867445 1.4105704 0.51293933 0.4994746 0.53218585 0.77928996
0.60292125 1.7180892 0.4111672 0.538681 0.3167881 0.58942467 0.9276728 1.17692
1.1051408 0.6773761 1.0936899 1.2850935 0.38230276 0.4478678 2.0970802 0.33063802
0.4344614 0.854759 1.1258954 1.1633065 0.45759857 1.1474295 0.35389012 0.47394252
0.751579 1.2053218 0.80747885 0.77083564 0.5246896 0.41571423 0.4840372 0.64847845
0.5601851 0.6897347 0.35824785 0.4204773 0.9192509 0.7105529 1.4432372 0.46537665
1.2843059 1.058132 0.4658237 0.9201624 0.57572764 0.55919766 0.7775466 0.8419683

module_list.1.output_quant.pre_transforms.0.bias f4 [64]
00000000: 9897 753d 7f7d 593f 121a fe3e 8145 4f3f
00000010: e58b ab3e 13b8 943e fcbd f13e 9247 c1bf
00000020: 7a10 fc3e d1c3 1b3f 7c9f 383c 12fa d33e
00000030: 509e bdbb 8fea 383f 3b56 3bbe 4399 843d
00000040: b7e1 ec3e bc52 823f 4169 f53e 5a56 ea3e
00000050: b63c bd3e 7507 3f3f b005 b43d 0411 95be
00000060: 6545 843e 05e2 663f a9b7 9a3e 7746 babe
00000070: f78f 863e 97bb 053f 53a1 26bf 4103 bc3e
00000080: 5b9a f63e ade9 89be 0246 86bd e43d 2f3e
00000090: 85ef 35bf 0261 c23f 2724 233f f69d 1a3f
000000a0: daef f1be 4b80 ce3f 0a1f 9a3e 92fb 0b3f
000000b0: 6abf e23e 7966 103f 4b35 c23e b723 973e
000000c0: 389a 103f e714 343f 40c9 453e 6883 8d3e
000000d0: bfab cc3e 2d13 2d3e 0906 593e 9f25 293f
000000e0: 7c97 50bf 6c0b fd3e 3c9f de3e 3168 87be
000000f0: 5336 0e3e 8fd6 433e aba8 083f 8ac5 cd3f
0.059959024 0.84957117 0.49629265 0.8096543 0.3350517 0.29046687 0.4721526 -1.5099967
0.4923132 0.6084567 0.011268493 0.41401726 -0.0057866946 0.7223291 -0.18294613 0.06474545
0.46265957 1.0181499 0.47931865 0.45769006 0.3696038 0.74620754 0.08790147 -0.29114544
0.25834194 0.9018863 0.30218247 -0.36381885 0.2628171 0.52239364 -0.6508991 0.36721233
0.4816464 -0.26936093 -0.06556322 0.17113453 -0.710686 1.5185854 0.6372704 0.6039728
-0.47253305 1.6132902 0.30101806 0.5468074 0.44286662 0.5640636 0.37931284 0.29519436
0.5648532 0.70344394 0.19315052 0.27639318 0.39974782 0.16901846 0.21193708 0.6607303
-0.81481147 0.49422777 0.4348086 -0.2644668 0.1388791 0.19124816 0.53382367 1.6075909

module_list.1.output_quant.pre_transforms.0.running_mean f4 [64]
00000000: 64df 9abf 71c5 e3be 4787 9b3e bddc d63d
00000010: d57d 493d b4e0 edbd fb46 52bd f17e 143f
00000020: edcf 9f3d ca41 6fbe 4dd0 f9be 881c 04bf
00000030: 1ad3 883d 6b98 a13c d075 273b 7c08 b7bd
00000040: c490 363f d7b5 a23e 71f7 c8bd e854 013f
00000050: 797e 363f 7001 f93e 4ba7 dcbe ace3 223f
00000060: bb06 bebe e38c 37be 2dd3 12be 9338 c13e
00000070: 091c 96be 87c5 603f bab8 2c3f 8e30 c5bd
00000080: cfad 3b3f f70f d7be 5f56 a53e 3b6c 17bf
00000090: e660 e8be e4f8 0abf af64 3bbf 735a 273f
000000a0: dc43 d93d fbf7 c1be 3086 8dbe 82de 24be
000000b0: 96bb a7be 33a3 ec3d 29c7 9abe 92b7 53bf
000000c0: 647d d03e 5a1a 05bf b5d2 1bbf 33e7 debd
000000d0: 7a88 ec3d 7b1e 06bd 6bbf 203f 034f d23d
000000e0: 0ee3 3d3f b0e7 72bf dff3 b6be 8527 4d3e
000000f0: 3d89 35be e007 1fbf cee0 9f3e c6b6 a2bc
-1.2099423 -0.44486573 0.30376646 0.10491321 0.04919227 -0.11615124 -0.051337224 0.580062
0.078033306 -0.2336494 -0.48791733 -0.51606035 0.066808894 0.019725999 0.00255524 -0.08937165
0.71314645 0.31779358 -0.09812821 0.5052018 0.7128673 0.4863391 -0.43096384 0.6362865
-0.3711451 -0.17924838 -0.1433837 0.37738475 -0.29318264 0.878014 0.6746937 -0.09628402
0.73312086 -0.42004368 0.32292458 -0.5914952 -0.45386428 -0.54286027 -0.73200506 0.6537239
0.10608646 -0.37884507 -0.2764144 -0.16100505 -0.32760304 0.11554565 -0.30230072 -0.8270198
0.40720665 -0.51993334 -0.6086839 -0.108839415 0.11549468 -0.032743912 0.6279208 0.102689765
0.7417458 -0.9488478 -0.35732934 0.20034607 -0.17728133 -0.6212139 0.312262 -0.019862544

module_list.1.output_quant.pre_transforms.0.running_var f4 [64]
00000000: b470 ac3e 36b0 c03c 2ee7 bd3c e821 963c
00000010: f598 b33c 1534 0c3d 2a0f 133e 09a7 263f
00000020: 2f2f 313d 558a 803d f70f 923d 8761 613c
00000030: 0c79 293d fea9 993d e3c3 bc3d e9a2 2f3e
00000040: 0b34 883d ce6d 1e3d 822d b53d a9a3 fd3c
00000050: 8cf9 543d d3f7 b13d 3c17 fa3e 3401 793e
00000060: 3eb1 153e 65cc cb3d 7294 f93c 1d21 b13d
00000070: c478 833d 3690 aa3e 25e4 f63c 9f74 f83c
00000080: a2df f33d 4f4f 1c3d f984 323e 4932 b33d
00000090: 0cfe 063d 3385 ce3e c8b3 103d da80 8d3e
000000a0: 3491 be3d b55f b33e 5b9a 293e c571 dd3e
000000b0: c675 533d fea3 6b3d aac5 603d 92a8 373d
000000c0: dcf6 223d 224f 443d 180e a23c 98c1 c03c
000000d0: c43d 9a3d d8f4 9b3d c613 c43e 1045 593d
000000e0: 3cb9 233e 3c0b 073e 9391 0d3d cdf7 103e
000000f0: 5327 0f3d 8411 c73d dd9b ff3c 3a6a 583d
0.33679736 0.023521524 0.023181524 0.018326715 0.021923522 0.034229357 0.14361253 0.65098625
0.04325789 0.06276385 0.07131951 0.0137561625 0.041375205 0.075031266 0.0921705 0.17151989
0.066505514 0.038678937 0.088465706 0.030961828 0.0519958 0.08689847 0.4884585 0.24316865
0.14618394 0.099510945 0.030466292 0.08648894 0.064195186 0.3331315 0.030138085 0.030329047
0.11907889 0.038161572 0.17433538 0.087498255 0.03295712 0.40335998 0.035327703 0.27637368
0.09305039 0.35033956 0.16562788 0.43250862 0.05162599 0.057529442 0.054876007 0.044838496
0.039786205 0.04792703 0.019782111 0.023529813 0.07531312 0.076150596 0.38296336 0.05304438
0.1598863 0.1318788 0.03456266 0.14157028 0.034949612 0.09720138 0.031202251 0.05283568

module_list.2.input_quant.pre_transforms.0.weight f4 [64]
00000000: 831d 533f 8473 c93e abc7 583f f338 2e3f
00000010: ed2c bc3e db84 173f 2ccd f33e 5b33 b23f
00000020: 7484 d13e 2343 f23e a694 113f 928d b43f
00000030: fe4f 033f 23bb ff3e 553d 083f 8c7f 473f
00000040: 0c59 1a3f 59ea db3f 8284 d23e ffe6 093f
00000050: 0d32 a23e 89e4 163f f77b 6d3f 51a5 963f
00000060: 4175 8d3f 8568 2d3f 08fe 8b3f f27d a43f
00000070: 30bd c33e ee4e e53e 9036 0640 6349 a93e
00000080: ba71 de3e 7cd1 5a3f 571d 903f 3ae7 943f
00000090: 5c4a ea3e f8de 923f 1631 b53e 98a8 f23e
000000a0: 7b67 403f fc47 9a3f efb6 4e3f 7c55 453f
000000b0: 0f52 063f 7fd8 d43e b9d3 f73e af02 263f
000000c0: 4a68 0f3f 7492 303f 436c b73e cd48 d73e
000000d0: 0754 6b3f cbe6 353f ffbb b83f d945 ee3e
000000e0: 2364 a43f df70 873f 7280 ee3e c38f 6b3f
000000f0: e362 133f 9427 0f3f 4b0d 473f 3c8b 573f
0.82466906 0.39345944 0.8467967 0.6805565 0.36753026 0.59187096 0.4761747 1.3921922
0.40921366 0.47316846 0.56867445 1.4105704 0.51293933 0.4994746 0.53218585 0.77928996
0.60292125 1.7180892 0.4111672 0.538681 0.3167881 0.58942467 0.9276728 1.17692
1.1051408 0.6773761 1.0936899 1.2850935 0.38230276 0.4478678 2.0970802 0.33063802
0.4344614 0.854759 1.1258954 1.1633065 0.45759857 1.1474295 0.35389012 0.47394252
0.751579 1.2053218 0.80747885 0.77083564 0.5246896 0.41571423 0.4840372 0.64847845
0.5601851 0.6897347 0.35824785 0.4204773 0.9192509 0.7105529 1.4432372 0.46537665
1.2843059 1.058132 0.4658237 0.9201624 0.57572764 0.55919766 0.7775466 0.8419683

module_list.2.input_quant.pre_transforms.0.bias f4 [64]
00000000: 9897 753d 7f7d 593f 121a fe3e 8145 4f3f
00000010: e58b ab3e 13b8 943e fcbd f13e 9247 c1bf
00000020: 7a10 fc3e d1c3 1b3f 7c9f 383c 12fa d33e
00000030: 509e bdbb 8fea 383f 3b56 3bbe 4399 843d
00000040: b7e1 ec3e bc52 823f 4169 f53e 5a56 ea3e
00000050: b63c bd3e 7507 3f3f b005 b43d 0411 95be
00000060: 6545 843e 05e2 663f a9b7 9a3e 7746 babe
00000070: f78f 863e 97bb 053f 53a1 26bf 4103 bc3e
00000080: 5b9a f63e ade9 89be 0246 86bd e43d 2f3e
00000090: 85ef 35bf 0261 c23f 2724 233f f69d 1a3f
000000a0: daef f1be 4b80 ce3f 0a1f 9a3e 92fb 0b3f
000000b0: 6abf e23e 7966 103f 4b35 c23e b723 973e
000000c0: 389a 103f e714 343f 40c9 453e 6883 8d3e
000000d0: bfab cc3e 2d13 2d3e 0906 593e 9f25 293f
000000e0: 7c97 50bf 6c0b fd3e 3c9f de3e 3168 87be
000000f0: 5336 0e3e 8fd6 433e aba8 083f 8ac5 cd3f
0.059959024 0.84957117 0.49629265 0.8096543 0.3350517 0.29046687 0.4721526 -1.5099967
0.4923132 0.6084567 0.011268493 0.41401726 -0.0057866946 0.7223291 -0.18294613 0.06474545
0.46265957 1.0181499 0.47931865 0.45769006 0.3696038 0.74620754 0.08790147 -0.29114544
0.25834194 0.9018863 0.30218247 -0.36381885 0.2628171 0.52239364 -0.6508991 0.36721233
0.4816464 -0.26936093 -0.06556322 0.17113453 -0.710686 1.5185854 0.6372704 0.6039728
-0.47253305 1.6132902 0.30101806 0.5468074 0.44286662 0.5640636 0.37931284 0.29519436
0.5648532 0.70344394 0.19315052 0.27639318 0.39974782 0.16901846 0.21193708 0.6607303
-0.81481147 0.49422777 0.4348086 -0.2644668 0.1388791 0.19124816 0.53382367 1.6075909

module_list.2.input_quant.pre_transforms.0.running_mean f4 [64]
00000000: 64df 9abf 71c5 e3be 4787 9b3e bddc d63d
00000010: d57d 493d b4e0 edbd fb46 52bd f17e 143f
00000020: edcf 9f3d ca41 6fbe 4dd0 f9be 881c 04bf
00000030: 1ad3 883d 6b98 a13c d075 273b 7c08 b7bd
00000040: c490 363f d7b5 a23e 71f7 c8bd e854 013f
00000050: 797e 363f 7001 f93e 4ba7 dcbe ace3 223f
00000060: bb06 bebe e38c 37be 2dd3 12be 9338 c13e
00000070: 091c 96be 87c5 603f bab8 2c3f 8e30 c5bd
00000080: cfad 3b3f f70f d7be 5f56 a53e 3b6c 17bf
00000090: e660 e8be e4f8 0abf af64 3bbf 735a 273f
000000a0: dc43 d93d fbf7 c1be 3086 8dbe 82de 24be
000000b0: 96bb a7be 33a3 ec3d 29c7 9abe 92b7 53bf
000000c0: 647d d03e 5a1a 05bf b5d2 1bbf 33e7 debd
000000d0: 7a88 ec3d 7b1e 06bd 6bbf 203f 034f d23d
000000e0: 0ee3 3d3f b0e7 72bf dff3 b6be 8527 4d3e
000000f0: 3d89 35be e007 1fbf cee0 9f3e c6b6 a2bc
-1.2099423 -0.44486573 0.30376646 0.10491321 0.04919227 -0.11615124 -0.051337224 0.580062
0.078033306 -0.2336494 -0.48791733 -0.51606035 0.066808894 0.019725999 0.00255524 -0.08937165
0.71314645 0.31779358 -0.09812821 0.5052018 0.7128673 0.4863391 -0.43096384 0.6362865
-0.3711451 -0.17924838 -0.1433837 0.37738475 -0.29318264 0.878014 0.6746937 -0.09628402
0.73312086 -0.42004368 0.32292458 -0.5914952 -0.45386428 -0.54286027 -0.73200506 0.6537239
0.10608646 -0.37884507 -0.2764144 -0.16100505 -0.32760304 0.11554565 -0.30230072 -0.8270198
0.40720665 -0.51993334 -0.6086839 -0.108839415 0.11549468 -0.032743912 0.6279208 0.102689765
0.7417458 -0.9488478 -0.35732934 0.20034607 -0.17728133 -0.6212139 0.312262 -0.019862544

module_list.2.input_quant.pre_transforms.0.running_var f4 [64]
00000000: b470 ac3e 36b0 c03c 2ee7 bd3c e821 963c
00000010: f598 b33c 1534 0c3d 2a0f 133e 09a7 263f
00000020: 2f2f 313d 558a 803d f70f 923d 8761 613c
00000030: 0c79 293d fea9 993d e3c3 bc3d e9a2 2f3e
00000040: 0b34 883d ce6d 1e3d 822d b53d a9a3 fd3c
00000050: 8cf9 543d d3f7 b13d 3c17 fa3e 3401 793e
00000060: 3eb1 153e 65cc cb3d 7294 f93c 1d21 b13d
00000070: c478 833d 3690 aa3e 25e4 f63c 9f74 f83c
00000080: a2df f33d 4f4f 1c3d f984 323e 4932 b33d
00000090: 0cfe 063d 3385 ce3e c8b3 103d da80 8d3e
000000a0: 3491 be3d b55f b33e 5b9a 293e c571 dd3e
000000b0: c675 533d fea3 6b3d aac5 603d 92a8 373d
000000c0: dcf6 223d 224f 443d 180e a23c 98c1 c03c
000000d0: c43d 9a3d d8f4 9b3d c613 c43e 1045 593d
000000e0: 3cb9 233e 3c0b 073e 9391 0d3d cdf7 103e
000000f0: 5327 0f3d 8411 c73d dd9b ff3c 3a6a 583d
0.33679736 0.023521524 0.023181524 0.018326715 0.021923522 0.034229357 0.14361253 0.65098625
0.04325789 0.06276385 0.07131951 0.0137561625 0.041375205 0.075031266 0.0921705 0.17151989
0.066505514 0.038678937 0.088465706 0.030961828 0.0519958 0.08689847 0.4884585 0.24316865
0.14618394 0.099510945 0.030466292 0.08648894 0.064195186 0.3331315 0.030138085 0.030329047
0.11907889 0.038161572 0.17433538 0.087498255 0.03295712 0.40335998 0.035327703 0.27637368
0.09305039 0.35033956 0.16562788 0.43250862 0.05162599 0.057529442 0.054876007 0.044838496
0.039786205 0.04792703 0.019782111 0.023529813 0.07531312 0.076150596 0.38296336 0.05304438
0.1598863 0.1318788 0.03456266 0.14157028 0.034949612 0.09720138 0.031202251 0.05283568

module_list.2.fc.weight f4 [192, 64]
00000000: 02ba e4bc 1b81 173d 70d4 a43d 99df 723d
00000010: 143f 58bc c808 0dbc ae6d f43b 0b6b d33c
00000020: ef92 1a3f 50a1 97bc b7fd 40bd c3a9 64bd
00000030: ab22 c73b 3bfe 02bc f213 ea3c 9607 c1bc
00000040: 3952 783d f7e4 8fbd 8e6d 263c a56a 983d
00000050: c8e9 d63c 6a7a 873c fa8f 1a3c 7229 a6bd
00000060: db91 983b 1e5a 99bd 01e1 3dbd d9ea 5cbd
00000070: 087d 503d 60f2 573d 119d a93b f48d 27bd
00000080: e536 59bc b1f3 9bbd 4968 953d 27c1 8abd
00000090: 1d03 eebc aca6 97bd 2092 603e 68b9 773d
000000a0: 22a3 243c a6d1 143f 6ca1 da3b d776 8a3c
000000b0: 2ac3 493d 5d47 d23b bc5a c43c 666b 983d
000000c0: 0aee 6cbc 210a 9bbc ef17 83bd 702f 613c
000000d0: 5e7c 8fbd 409d 68bd d260 9b3d 6a4b 8c3d
000000e0: 0937 39bc 238e fbbc 3907 99bc ca43 82bd
000000f0: 5a17 04bb 931d cd3c 9e53 d2bc 6ed2 813d
00000100: 3292 843d 8722 a4bd c010 53bd 306b 713d
00000110: 417c 9fbc 861e 813d c438 90bd ef2e 5f3d
00000120: 84a9 80bd 1f79 4b3d 3fb6 b93c 8a69 933d
00000130: 57d6 683d 3fbc d3bb f788 223b f960 003b
00000140: 1bff 40bd 54f7 413d d2ef 9cbd 24f5 a93c
00000150: f800 43bc a50b 70bd 52ea 5abb e16b 9ebd
00000160: b4ff 5d3d 2927 163c 8089 bb39 531d ab3d
00000170: a79e 84bd 69cd da3c bea8 02bd be70 263d
00000180: 21d7 1dbd 0051 82bc 1294 d7bc c13a 613d
00000190: ce55 513c 8ab8 093c e47a eb3c adb0 81bd
000001a0: e565 793d 3f5c 9f3d 8111 8ebd 28be 853d
000001b0: 4239 97bc abd3 a7bd 0d16 73ba c2ec 6d3d
000001c0: 7ca7 a53d 0647 65bd 140b 113c a41b 633c
000001d0: 2f0e 30bd 48a8 c43b 9655 1fbd 7946 953d
000001e0: ffdb 6fbc e05d 60bd ca71 63bd 16b1 1bbd
000001f0: 7e44 93bc 19c8 0e3b b399 0f3d 0895 91bd
00000200: aefa 093d 70da 033a 15b6 903d fbfb 88bd
00000210: 5b77 89bd 1454 923c 2c91 8abd ac6d 4a3d
00000220: f870 7a3d d7e4 90bc 9e5d ebbb 50e2 763d
00000230: a549 953d 7347 f8bc 6ac5 9f3d bfe4 9d3d
00000240: 8d52 4abd 49b2 7ebd 6008 403d 10be 243d
00000250: 0012 c8bc a1c8 0abd 6dcb 68bc f3a1 0d3c
00000260: 6af4 a2bd 0498 33bc ef1f 9f3d 63a3 85bd
00000270: 585c 633d 91f0 ea3c 73bb 94bd 267b 503d
00000280: 6495 2cbd 9774 41bd a02a 983c 9833 91ba
00000290: 09f3 973d 6e18 b9ba d71f 81bb 2954 90bb
000002a0: 67a4 20bc 8632 e5bc c7ca 09bd 84bb 65bd
000002b0: 82df 713d 9971 5bbc f485 373d 53d9 583d
000002c0: 05e5 25bc cfdc 72bd d265 813c c5e3 493d
000002d0: f609 d23c ca6d 81bd 3af9 8f3c 0d3b 33bd
000002e0: 8411 b6bc d0c5 3ebc 8678 b93c b22a 3f3d
000002f0: 8b63 34bd 0ef9 493d 31be 85bd 9f99 65bd
00000300: 1e75 503d 96d6 873d ee8e 38bd 667d e6bc
00000310: 295d 81bd dd11 afbc 5bf9 fdbc db80 8abd
00000320: aebd 503d 1498 53bd 288e 113d d142 13bd
00000330: eef5 983d 63be b9bc bf70 3b3d 5679 cf3c
00000340: de9d 34bd fea7 123d 32c1 913d a034 033d
00000350: 83ce 663d 7e6f a43d daa7 fa3c 22a0 08ba
00000360: 37be e73c d7f9 35bd 2340 153d ee7e fbbc
00000370: 7dbf a33b 24f7 4bbd 9896 5c3d 93d1 353d
00000380: b130 a4bc d464 1ebd 7c57 8d3d cd2c 6dbd
00000390: 84df 6abd 873e b83b 1688 96bc 67bb 7ebd
000003a0: 70a6 1f3d 4ec9 4abb 32f2 bfbc 2c65 9ebd
000003b0: 27e3 a23d f6ba 023d dddd 4e3d 4d73 05bd
000003c0: 75b1 85bd c8d1 e73b e807 69bc fb2c ab3d
000003d0: b257 d4bc b02e 9c3c b934 293d 57b7 a73d
000003e0: 4d40 9b3c 53a5 323d ee5f a5bb 780f a0bc
000003f0: eec9 913d b91b b83b b15d d1ba 9980 d7bb
-0.027920727 0.03698836 0.08048332 0.05929527 -0.013198633 -0.008608051 0.007459364 0.025807878
0.6038045 -0.018509537 -0.04711696 -0.05582596 0.006077131 -0.007995184 0.028573964 -0.023563188
0.06062529 -0.070260935 0.010157956 0.07442216 0.026234522 0.016537864 0.009433741 -0.08113374
0.004656059 -0.074878916 -0.04635716 -0.053934906 0.05090049 0.05272138 0.0051761945 -0.04090686
-0.013257717 -0.0761484 0.072952814 -0.06775122 -0.029054219 -0.07404837 0.21930742 0.06047955
0.0100486595 0.581324 0.006672075 0.01690237 0.04925839 0.0064171986 0.023969047 0.074423596
-0.01446105 -0.018925728 -0.06401049 0.01374422 -0.07006143 -0.05679059 0.075868264 0.068503216
-0.011304625 -0.030707425 -0.018680202 -0.06360586 -0.002015552 0.025038516 -0.025674637 0.063389644
0.06473197 -0.08014398 -0.051529646 0.058940113 -0.019468429 0.0630465 -0.07042077 0.05448812
-0.062823325 0.049676057 0.02266991 0.07197864 0.056845035 -0.0064616497 0.0024800876 0.001958905
-0.047118288 0.04735501 -0.076629296 0.020746775 -0.011902086 -0.058604855 -0.0033403826 -0.0773542
0.054198936 0.00916461 0.00035769865 0.083552025 -0.06475573 0.026709275 -0.031899206 0.040634863
-0.03853524 -0.015907764 -0.026315723 0.054987673 0.012776805 0.008405814 0.028745122 -0.06332526
0.06088819 0.077812664 -0.06936932 0.0653041 -0.01845992 -0.08194669 -0.0009273 0.058087118
0.08088586 -0.055975936 0.008852739 0.0138615705 -0.042982277 0.006001506 -0.03889998 0.07288832
-0.0146398535 -0.054777026 -0.05552844 -0.03801068 -0.017976996 0.0021786748 0.03505869 -0.071085036
0.033686332 0.0005029803 0.070659794 -0.066886865 -0.067122184 0.017862357 -0.067659706 0.049420998
0.06114289 -0.017687244 -0.007182791 0.060274422 0.07289437 -0.030307507 0.078013256 0.077096455
-0.049395133 -0.062181745 0.046882987 0.04022032 -0.024422646 -0.03388274 -0.014208657 0.008644569
-0.079567745 -0.010961536 0.07769763 -0.06525304 0.055507988 0.028679164 -0.072623156 0.050898694
-0.042134658 -0.04723033 0.018575013 -0.0011077998 0.07419402 -0.001412166 -0.003940563 -0.004404564
-0.009804822 -0.027978193 -0.03364065 -0.056087032 0.059051044 -0.013393783 0.044805482 0.05294163
-0.010125403 -0.05929261 0.015795622 0.049289484 0.025639515 -0.06319769 0.017574895 -0.043757487
-0.022225149 -0.011643842 0.022640478 0.046671577 -0.044040244 0.049309783 -0.06530417 -0.056054708
0.05089294 0.06632726 -0.045058183 -0.028135967 -0.06316597 -0.021370823 -0.031002691 -0.067628585
0.050962143 -0.051658705 0.03553596 -0.035952393 0.07468782 -0.022673791 0.04576182 0.025326412
-0.044095866 0.03580474 0.07116927 0.03203261 0.05634929 0.08029078 0.030597616 -0.000521185
0.028288944 -0.04442772 0.03643812 -0.030700173 0.0049971924 -0.04979624 0.053854555 0.04438932
-0.02004275 -0.038670376 0.06901452 -0.057904053 -0.057342067 0.005622688 -0.018375438 -0.06219044
0.038977087 -0.003094274 -0.023430917 -0.07734141 0.07953482 0.03191658 0.050504554 -0.032580663
-0.06527988 0.0070745684 -0.014223076 0.08358189 -0.025920723 0.019065231 0.041310046 0.08189266
0.01895156 0.043614697 -0.005046836 -0.019538626 0.07118593 0.005618539 -0.0015973357 -0.0065766093
