examples/jet_substructure/jsc_single_models/jsc-l/best_accuracy.pth (torch, 991659 bytes, 118 tensors)

module_list.0.input_quant.pre_transforms.0.weight f4 [16]
00000000: ff08 e53e e934 333f 305e d43e bfce 2c40
00000010: b37c 543f 283e 083f 9bd2 b83e 2d30 aa3f
00000020: f56f c13e 9701 f33e dfa6 dd3e 7e37 143f
00000030: ed35 ec3e db07 f93e fdf2 0140 0a3a ca3e
0.44733426 0.7000261 0.4147811 2.7001188 0.83002776 0.5321984 0.3609818 1.3295952
0.3778073 0.4746215 0.43291375 0.57897174 0.46134892 0.48638806 2.0304558 0.39497405

module_list.0.input_quant.pre_transforms.0.bias f4 [16]
00000000: 0a40 12be 7cb8 213e 26c3 2abe ae8a aa3e
00000010: 0018 9b3e e01c a6be 3131 13bd 27e2 8e3f
00000020: 445f 3abe 2152 803e 1e0c fd3d a40d f63d
00000030: a0e9 ec3d e39c 583c 5e32 51be def4 58be
-0.14282241 0.15793031 -0.16676006 0.3330893 0.30291748 -0.32443905 -0.035935584 1.1162766
-0.18200403 0.2506266 0.12355827 0.120143205 0.11567998 0.013220998 -0.2042937 -0.2118716

module_list.0.input_quant.pre_transforms.0.running_mean f4 [16]
00000000: e94f 19bc 6e6f d83b 0308 113c 0e57 153c
00000010: 4af1 3e3c 8c48 223c 4da5 cf3b 3dc1 fc3a
00000020: 4da5 cf3b fb57 8139 c945 27ba 04ad 7abb
00000030: 454a 0c3b 39bc 1eba 0979 403c 6c19 7d3c
-0.009357431 0.0066050803 0.008852008 0.009114994 0.0116542075 0.009904992 0.006336844 0.0019283664
0.006336844 0.00024670348 -0.0006380943 -0.0038250098 0.0021406573 -0.0006055269 0.011747607 0.015447956

module_list.0.input_quant.pre_transforms.0.running_var f4 [16]
00000000: 57be 7e3f 382e 7b3f ee20 803f 656c 813f
00000010: bce5 803f 681b 823f 10a4 803f 935f 7f3f
00000020: 10a4 803f e9a2 803f 6001 803f 80df 7e3f
00000030: 0851 803f 475c 803f bdde 803f 6f69 823f
0.99509186 0.981174 1.0010049 1.0111204 1.0070109 1.0164614 1.0050068 0.9975521
1.0050068 1.0049716 1.000042 0.99559784 1.0024729 1.0028161 1.0067974 1.0188426

module_list.0.fc.weight f4 [32, 16]
00000000: b324 4b3d 589a 493d 0178 c93d 8b8a b0bc
00000010: 1c14 c33d 4671 803b fdc9 3f3d 3395 afbc
00000020: ada6 19be eac7 ddbe 7337 b23b f6af 033e
00000030: 1f66 07b8 6a40 07be d326 0dbd 0922 243f
00000040: 8902 92bf 55c4 2abe c00e bd39 d3c1 c1bd
00000050: 51f8 03bd e8b2 adbd af35 08be 177e 403d
00000060: d587 183d 7125 193e a64c 38be c944 0cbe
00000070: 1f3d 22be d805 783d 8ca7 503d 5378 263e
00000080: 9ac6 e6bd a979 60bd 535e 13bd 2022 56bd
00000090: 5a5d d0bd 4359 14bd cf44 d9bc 4a60 593d
000000a0: 8c47 3cbd 6eb5 f03d 3554 9abd beae 2abe
000000b0: ad86 1f3e ae2b 8b3d 5e95 0cbd 375a bdbf
000000c0: ce0b 153d e3ee e7bd 3959 24be 41f4 10be
000000d0: b2d8 fbbd 3146 023f 6e77 f3bd e093 8c3d
000000e0: 9021 09be 0529 173e df4d 0c3e 83ae b43d
000000f0: 99f1 0abf 547e ab3b b36d 033c 54d0 f23d
00000100: 0d13 d4ba c08a 50bd 862c 1c3e 9bf6 98bb
00000110: 4d9a 8dbc 7eb2 f9bd 85ef ce3e 275d 1bbe
00000120: 25c8 b4bd 2725 8c3d 0dd2 203d 98e2 763d
00000130: 8a01 d6bd 9463 19be 6ce3 853d c8c9 4a3f
00000140: bb30 103e 10d7 153e 8e8b 593d 1d82 1b3e
00000150: 89cd 693d 0800 e1bc aeaa cbbd 1c1c df3c
00000160: 7c18 f9bd fd50 003d 2661 4fbd 55a9 c9bd
00000170: 7d75 29be 8b88 ebbd 8d44 84c0 4a78 0abe
00000180: 2ae4 0cbe 0fe0 093f 6190 17be 9fd9 b03d
00000190: 3011 02bf f921 173e 14ee 273e 39a7 23be
000001a0: 6607 febd d85b 1f3e 8bc9 afbd 0b48 273e
000001b0: d17f 803d 92a3 053e dc6e d3bd b65c f1bd
000001c0: 13a8 02be 8f93 18bc 50b4 79bd 7725 0c40
000001d0: 04f1 353e 06d5 e4bd b40a 70be c473 10be
000001e0: 6396 dfbc 1e91 dd3d cfc9 03be 71f1 083e
000001f0: f9bb 373d 75c3 ddbd a812 d0bd 3e59 a83d
00000200: 121b 103e 3d49 2ebd f489 803d 6cfd a1bc
00000210: 5f2a 20be bfae 1b3e 6537 433c 8625 843b
00000220: efa3 c2bd ef8a 59bd 4470 f3bc 62ab 223e
00000230: af41 1a3b 7451 32be 11c9 1c3d 499e ce3f
00000240: 9600 18be eb57 083d a59d a53c 6f52 bc3e
00000250: d530 b3bc 50b5 98bd 5029 d2bd 6822 f7bc
00000260: b58b 27bf 2227 f4bc fa92 183e 2e0f 18bb
00000270: 4e67 dd3b ed93 373d a2b6 23be 9b64 4bbc
00000280: d715 173d ed59 063d a735 06bc bb04 943d
00000290: 319f 033e e4f3 83bd 4e2e af3d 7d09 ec3d
000002a0: dd8e b63c 281a 623d 180a efbf b5ec 27be
000002b0: f5d0 a03d 2773 c83d d965 193e 0836 023e
000002c0: 3b1a 02be 2199 c2ba 8859 e7bd 6894 273d
000002d0: 5db9 593f 8083 82bd 687b 3abe fd05 12be
000002e0: 0383 83be 07ac be3d 732e 273e c5a3 e23c
000002f0: e58c 58bc 8916 fd3c 42d2 00be 7723 f6bc
00000300: ed31 473c 3c2b fd3d ee48 07bd d983 bbc0
00000310: c9a7 e43c fbb1 bbbd abb8 4e3d 187a 03be
00000320: 4395 e43d 776f c2bd 1bf6 513d cbf0 e43c
00000330: 65d1 b1bd e3dc ec3d 7ee8 643d 3b00 ac3c
00000340: 25dc edbd 9cca 72bc 08e5 8fbf b194 fcbd
00000350: 8762 1fbe 23fd 553e d851 cdbd 7eba 393d
00000360: 0fbe 8fbd 7a59 16bd 85e7 a0bd 44e6 dd3c
00000370: ad01 393e 0ce0 d13d fc88 c03c e81e 1b3e
00000380: 9c5d b23d 49c9 c93d c6fc bf3f 087b 13be
00000390: 03bc 893d 8907 c63c 56e6 e3bd e3b4 81bd
000003a0: 96e6 1ebe 492d 893d 08bb d3ba 57e7 59bd
000003b0: d481 723e ab41 be3d 922e 19be 33bb 603d
000003c0: 344b 3abf 71a9 3c3d be56 d03c 3577 8bbd
000003d0: ad87 0a3f ff94 32bd 3894 d63d 04c8 e73d
000003e0: 3d6d 20be 69fe ef3b 393c 7cbd b30b 3abe
000003f0: a433 1dbe b2e1 15bd 92a3 2dbd 2289 80bd
0.049595546 0.04921946 0.09837342 -0.021550437 0.0952532 0.0039197532 0.04682349 -0.021433448
-0.15004988 -0.43316585 0.005438739 0.12860093 -3.2281616e-05 -0.13208166 -0.034460854 0.64114434
-1.1407024 -0.16676457 0.0003605988 -0.09460797 -0.032219235 -0.08481389 -0.13301729 0.04699525
0.037238915 0.14955689 -0.17997989 -0.13698114 -0.15843628 0.060552448 0.050941035 0.16256838
-0.11268349 -0.054803524 -0.035978626 -0.052278638 -0.101740554 -0.03621794 -0.026522068 0.053070344
-0.04596667 0.11753355 -0.075355925 -0.16668221 0.15578718 0.067954406 -0.034322135 -1.4793156
0.03638821 -0.11324861 -0.1604966 -0.14155675 -0.12297191 0.50888354 -0.11888014 0.068641424
-0.1339171 0.14761741 0.1370158 0.08822348 -0.542749 0.0052335653 0.00802176 0.11856142
-0.0016179994 -0.050913572 0.1525136 -0.0046680695 -0.01728549 -0.12192248 0.40417114 -0.15172254
-0.08827237 0.06843024 0.03926282 0.06027469 -0.10449512 -0.14979392 0.06537518 0.79214144
0.14081089 0.14632821 0.053111605 0.15186353 0.05708078 -0.027465835 -0.09944664 0.027235083
-0.12162873 0.031327236 -0.050629757 -0.09846751 -0.16548724 -0.11500653 -4.133368 -0.13522449
-0.13758913 0.5385751 -0.1480117 0.08635258 -0.50807476 0.14759053 0.16399413 -0.15981759
-0.12403755 0.1556238 -0.08583363 0.16336076 0.06274379 0.13050678 -0.10323879 -0.11785261
-0.12759428 -0.009312524 -0.060962975 2.1897867 0.17767721 -0.111734435 -0.23441583 -0.14106661
-0.02729339 0.108186945 -0.12869953 0.13373353 0.044857 -0.10828296 -0.101598084 0.082201466
0.14072827 -0.042550314 0.062763125 -0.019774161 -0.15641163 0.15203379 0.011915063 0.0040327935
-0.09503924 -0.053111013 -0.029716618 0.1588569 0.0023537686 -0.17413884 0.03827769 1.6142055
-0.14843974 0.03328697 0.020216772 0.36781642 -0.02187387 -0.074564576 -0.10261786 -0.030167773
-0.6544755 -0.029803816 0.14899817 -0.0023202407 0.0067566996 0.044818807 -0.15987638 -0.012414123
0.036886062 0.032800604 -0.008191503 0.07227465 0.12853695 -0.06443003 0.08553754 0.11525247
0.02228492 0.055200726 -1.8674955 -0.1639889 0.078523554 0.097875886 0.14980258 0.12715924
-0.12705319 -0.0014846661 -0.112963736 0.040913016 0.85048467 -0.06372738 -0.18211138 -0.14260097
-0.25685892 0.09310155 0.16326313 0.027665982 -0.013217186 0.030894535 -0.12580207 -0.030046208
0.012157899 0.12361762 -0.033028536 -5.8598447 0.027912037 -0.091648065 0.05046908 -0.12839544
0.11161282 -0.094939165 0.051260095 0.02794685 -0.08682517 0.11565568 0.055885784 0.020996204
-0.11614255 -0.014818814 -1.124177 -0.12333048 -0.15564929 0.20897345 -0.10025376 0.04534387
-0.07018673 -0.036706425 -0.07856659 0.027087338 0.18067046 0.10247812 0.02350282 0.15148509
0.08709261 0.09852845 1.4999015 -0.14402401 0.067253135 0.024173515 -0.111279175 -0.063333295
-0.15517649 0.066980906 -0.0016153762 -0.05319914 0.23682338 0.09289869 -0.14959171 0.054866027
-0.72771 0.04606003 0.025431987 -0.06809846 0.54113275 -0.043599125 0.10477489 0.11317447
-0.15666671 0.007324029 -0.06158087 -0.18168525 -0.1535173 -0.036592193 -0.04239232 -0.06276156

module_list.0.fc.bias f4 [32]
00000000: 1aa7 2c3e 258c d33e 3609 44be 1a6c 2fbe
00000010: 3068 debd 1088 f0bd 1e75 073e e923 bdbd
00000020: 5bdf d33d d324 89be 9274 33be b093 953c
00000030: b0ae 5a3d 7dbb bebd fc65 4a3e aa2e ef3d
00000040: 99b3 f3bd dd18 273d d658 84be de88 e63e
00000050: 675a 3f3b 92d0 343e 614f f2bd 183c c0be
00000060: 642e 3cbe ebcc 22be dd51 e0be fac3 00bd
00000070: 6101 afbd 9f45 6c3d 666f bc3c 1ffb 79be
0.16860619 0.4131786 -0.19144139 -0.17131081 -0.10859716 -0.11744702 0.1322827 -0.09235365
0.10345336 -0.26785907 -0.17524937 0.0182589 0.05338925 -0.09313104 0.19765466 0.11678822
-0.1189949 0.040795196 -0.25849026 0.45026296 0.002919817 0.17657688 -0.118315466 -0.37545848
-0.18377072 -0.15898483 -0.43812457 -0.031436898 -0.08545185 0.057683583 0.023002338 -0.24412201

module_list.0.fc.mask.mask f4 [32, 16]
00000000: 0000 803f 0000 0000 0000 0000 0000 0000
00000010: 0000 0000 0000 0000 0000 0000 0000 0000
00000020: 0000 0000 0000 803f 0000 0000 0000 0000
00000030: 0000 0000 0000 0000 0000 0000 0000 803f
00000040: 0000 803f 0000 0000 0000 0000 0000 0000
00000050: 0000 0000 0000 0000 0000 803f 0000 0000
00000060: 0000 0000 0000 0000 0000 803f 0000 0000
00000070: 0000 0000 0000 0000 0000 0000 0000 0000
00000080: 0000 803f 0000 0000 0000 0000 0000 0000
00000090: 0000 0000 0000 0000 0000 0000 0000 0000
000000a0: 0000 0000 0000 0000 0000 0000 0000 0000
000000b0: 0000 803f 0000 0000 0000 0000 0000 803f
000000c0: 0000 0000 0000 0000 0000 0000 0000 0000
000000d0: 0000 0000 0000 803f 0000 0000 0000 0000
000000e0: 0000 0000 0000 0000 0000 803f 0000 0000
000000f0: 0000 803f 0000 0000 0000 0000 0000 0000
00000100: 0000 0000 0000 0000 0000 0000 0000 0000
00000110: 0000 0000 0000 803f 0000 803f 0000 0000
00000120: 0000 0000 0000 0000 0000 0000 0000 0000
00000130: 0000 0000 0000 0000 0000 0000 0000 803f
00000140: 0000 0000 0000 0000 0000 0000 0000 0000
00000150: 0000 0000 0000 0000 0000 0000 0000 803f
00000160: 0000 0000 0000 0000 0000 0000 0000 803f
00000170: 0000 0000 0000 0000 0000 803f 0000 0000
00000180: 0000 0000 0000 803f 0000 0000 0000 0000
00000190: 0000 803f 0000 0000 0000 803f 0000 0000
000001a0: 0000 0000 0000 0000 0000 0000 0000 0000
000001b0: 0000 0000 0000 0000 0000 0000 0000 0000
000001c0: 0000 0000 0000 0000 0000 0000 0000 803f
000001d0: 0000 803f 0000 0000 0000 803f 0000 0000
000001e0: 0000 0000 0000 0000 0000 0000 0000 0000
000001f0: 0000 0000 0000 0000 0000 0000 0000 0000
00000200: 0000 0000 0000 0000 0000 0000 0000 0000
00000210: 0000 0000 0000 803f 0000 0000 0000 0000
00000220: 0000 0000 0000 0000 0000 0000 0000 0000
00000230: 0000 0000 0000 803f 0000 0000 0000 803f
00000240: 0000 0000 0000 0000 0000 0000 0000 803f
00000250: 0000 0000 0000 0000 0000 0000 0000 0000
00000260: 0000 803f 0000 0000 0000 0000 0000 0000
00000270: 0000 803f 0000 0000 0000 0000 0000 0000
00000280: 0000 0000 0000 803f 0000 0000 0000 0000
00000290: 0000 0000 0000 0000 0000 0000 0000 0000
000002a0: 0000 803f 0000 0000 0000 803f 0000 0000
000002b0: 0000 0000 0000 0000 0000 0000 0000 0000
000002c0: 0000 0000 0000 0000 0000 0000 0000 0000
000002d0: 0000 803f 0000 0000 0000 803f 0000 0000
000002e0: 0000 803f 0000 0000 0000 0000 0000 0000
000002f0: 0000 0000 0000 0000 0000 0000 0000 0000
00000300: 0000 0000 0000 0000 0000 0000 0000 803f
00000310: 0000 0000 0000 0000 0000 0000 0000 0000
00000320: 0000 0000 0000 0000 0000 0000 0000 803f
00000330: 0000 803f 0000 0000 0000 0000 0000 0000
00000340: 0000 0000 0000 0000 0000 803f 0000 0000
00000350: 0000 0000 0000 803f 0000 0000 0000 0000
00000360: 0000 0000 0000 0000 0000 0000 0000 0000
00000370: 0000 803f 0000 0000 0000 0000 0000 0000
00000380: 0000 0000 0000 0000 0000 803f 0000 0000
00000390: 0000 0000 0000 0000 0000 803f 0000 0000
000003a0: 0000 0000 0000 0000 0000 0000 0000 0000
000003b0: 0000 803f 0000 0000 0000 0000 0000 0000
000003c0: 0000 803f 0000 0000 0000 0000 0000 0000
000003d0: 0000 803f 0000 0000 0000 0000 0000 0000
000003e0: 0000 0000 0000 0000 0000 0000 0000 803f
000003f0: 0000 0000 0000 0000 0000 0000 0000 0000
1.0 0.0 0.0 0.0 0.0 0.0 0.0 0.0
0.0 1.0 0.0 0.0 0.0 0.0 0.0 1.0
1.0 0.0 0.0 0.0 0.0 0.0 1.0 0.0
0.0 0.0 1.0 0.0 0.0 0.0 0.0 0.0
1.0 0.0 0.0 0.0 0.0 0.0 0.0 0.0
0.0 0.0 0.0 0.0 1.0 0.0 0.0 1.0
0.0 0.0 0.0 0.0 0.0 1.0 0.0 0.0
0.0 0.0 1.0 0.0 1.0 0.0 0.0 0.0
0.0 0.0 0.0 0.0 0.0 1.0 1.0 0.0
0.0 0.0 0.0 0.0 0.0 0.0 0.0 1.0
0.0 0.0 0.0 0.0 0.0 0.0 0.0 1.0
0.0 0.0 0.0 1.0 0.0 0.0 1.0 0.0
0.0 1.0 0.0 0.0 1.0 0.0 1.0 0.0
0.0 0.0 0.0 0.0 0.0 0.0 0.0 0.0
0.0 0.0 0.0 1.0 1.0 0.0 1.0 0.0
0.0 0.0 0.0 0.0 0.0 0.0 0.0 0.0
0.0 0.0 0.0 0.0 0.0 1.0 0.0 0.0
0.0 0.0 0.0 0.0 0.0 1.0 0.0 1.0
0.0 0.0 0.0 1.0 0.0 0.0 0.0 0.0
1.0 0.0 0.0 0.0 1.0 0.0 0.0 0.0
0.0 1.0 0.0 0.0 0.0 0.0 0.0 0.0
1.0 0.0 1.0 0.0 0.0 0.0 0.0 0.0
0.0 0.0 0.0 0.0 1.0 0.0 1.0 0.0
1.0 0.0 0.0 0.0 0.0 0.0 0.0 0.0
0.0 0.0 0.0 1.0 0.0 0.0 0.0 0.0
0.0 0.0 0.0 1.0 1.0 0.0 0.0 0.0
0.0 0.0 1.0 0.0 0.0 1.0 0.0 0.0
0.0 0.0 0.0 0.0 1.0 0.0 0.0 0.0
0.0 0.0 1.0 0.0 0.0 0.0 1.0 0.0
0.0 0.0 0.0 0.0 1.0 0.0 0.0 0.0
1.0 0.0 0.0 0.0 1.0 0.0 0.0 0.0
0.0 0.0 0.0 1.0 0.0 0.0 0.0 0.0

module_list.0.output_quant.pre_transforms.0.weight f4 [32]
00000000: 297a 003f d566 0a3f 85de 8e3f 387c 1c3f
00000010: e0bc e13e c823 823f 4329 e53e a087 403f
00000020: 28e0 233f ea2b 4f3f 165c f43e 62af ad3f
00000030: 88d5 1740 71d0 3a3f f8a1 2b3f 43d3 6d3f
00000040: 3078 903f 990c ca3e 2253 1e3f e78c 263f
00000050: 7b1e f73e a38a c73e 762c e23e f455 863f
00000060: c0d8 433f c03b bc3e 0314 763f b826 773f
00000070: fc70 513f 7e16 053f 844b df3e 7a26 343f
0.501864 0.5406316 1.1161658 0.6112704 0.44089413 1.016717 0.44758043 0.7520695
0.6401391 0.8092638 0.47726506 1.3569148 2.372408 0.72974306 0.6704402 0.92900485
1.1286678 0.39462736 0.618456 0.6505875 0.48265442 0.3897296 0.44174546 1.0494981
0.7650261 0.36764336 0.96124285 0.96543455 0.81813025 0.51987445 0.436123 0.7037121

module_list.0.output_quant.pre_transforms.0.bias f4 [32]
00000000: 12fc e0bd a3d9 3a3f 1fcf 3f3e 47bb 9d3e
00000010: 1c37 153e 884f 483e cfd3 9f3e 10cc 113e
00000020: f614 02bd cc93 2ebe f139 e13e 9444 c13e
00000030: 2199 afbf d602 423e 40c1 6d3f 0eb5 653f
00000040: 3e71 4cbe 7e4f 6b3f 5fdb 273f d1c9 1b3f
00000050: 545e 783f c2ba 043f 891a eb3e f811 3ebe
00000060: 9dc7 fb3e e6b2 0a3f 43f8 063f bfc6 ecbe
00000070: b237 ce3e c28e 383f 0ebf 3b3f b424 8e3d
-0.109855786 0.7298834 0.18731354 0.30806944 0.14571804 0.19561589 0.31216285 0.14238
-0.03175827 -0.17048568 0.43989518 0.37747633 -1.3718606 0.18946394 0.92873 0.8972939
-0.19965073 0.9191817 0.6556911 0.6085482 0.97018933 0.5184747 0.45918682 -0.18561542
0.4917573 0.5417923 0.5272257 -0.4624538 0.40276867 0.7209283 0.733384 0.06940594

module_list.0.output_quant.pre_transforms.0.running_mean f4 [32]
00000000: 72b9 efbd 79b9 4a3f 885e cc3e 5ae8 d4be
00000010: ba54 ddbe c443 203f fd32 1d3e 6e38 17bf
00000020: cb96 10bf d1f9 06be 88e2 9abd abdb ef3d
00000030: 44fb c03f e404 2e3e d58d 9abe 666b a93e
00000040: 03da b9bd c144 aa3e c473 a6be 2c5e 383f
00000050: b43c 653e bc92 653d 98e1 6ebe 370a 66bf
00000060: 4914 6cbc 9ae6 b0bc 6c40 79bf d3d5 2abf
00000070: 2210 bc3e 6ec5 95bd 0ac0 513e 641a e0be
-0.11705293 0.7918926 0.39915872 -0.4158352 -0.43228704 0.626034 0.15351482 -0.5907048
-0.5648009 -0.13181235 -0.07562739 0.1171182 1.507668 0.16994053 -0.30186334 0.3308975
-0.090747856 0.3325558 -0.32510197 0.72018695 0.22386438 0.05604814 -0.23328245 -0.89859337
-0.014409133 -0.021594334 -0.97363925 -0.6673252 0.36731058 -0.07313047 0.20483413 -0.43770134

module_list.0.output_quant.pre_transforms.0.running_var f4 [32]
00000000: 61c6 423d ac2e 3e3e 77b9 763e ee18 863d
00000010: 7607 e23d 4926 c940 7f06 523d b4f8 0240
00000020: 5c90 c43e 4de8 f43d b14b 1d3f e128 563e
00000030: 77c6 4d41 aa4a 2b3e 748e bf3e c767 8d3e
00000040: 25a7 ae3e 1874 023e b69f 133d 166b 073f
00000050: 0ea8 b53d a07c a03e fbdb ae3e 6721 3940
00000060: a26c 8b3f b1e7 ab3c b777 993f 0c5a 073f
00000070: 967f 383e 2c9d 123d 1b77 083e 4498 f83d
0.04755247 0.18572491 0.24094187 0.06547724 0.11036579 6.2859235 0.051275726 2.0464296
0.38391387 0.1195837 0.6144362 0.20914032 12.860953 0.16727701 0.3741337 0.27618238
0.34111896 0.12739599 0.036040984 0.52897775 0.088699445 0.3134508 0.34152207 2.8926637
1.0892527 0.020984503 1.1989659 0.52871776 0.1801742 0.035794422 0.13326685 0.12138417

module_list.1.input_quant.pre_transforms.0.weight f4 [32]
00000000: 297a 003f d566 0a3f 85de 8e3f 387c 1c3f
00000010: e0bc e13e c823 823f 4329 e53e a087 403f
00000020: 28e0 233f ea2b 4f3f 165c f43e 62af ad3f
00000030: 88d5 1740 71d0 3a3f f8a1 2b3f 43d3 6d3f
00000040: 3078 903f 990c ca3e 2253 1e3f e78c 263f
00000050: 7b1e f73e a38a c73e 762c e23e f455 863f
00000060: c0d8 433f c03b bc3e 0314 763f b826 773f
00000070: fc70 513f 7e16 053f 844b df3e 7a26 343f
0.501864 0.5406316 1.1161658 0.6112704 0.44089413 1.016717 0.44758043 0.7520695
0.6401391 0.8092638 0.47726506 1.3569148 2.372408 0.72974306 0.6704402 0.92900485
1.1286678 0.39462736 0.618456 0.6505875 0.48265442 0.3897296 0.44174546 1.0494981
0.7650261 0.36764336 0.96124285 0.96543455 0.81813025 0.51987445 0.436123 0.7037121

module_list.1.input_quant.pre_transforms.0.bias f4 [32]
00000000: 12fc e0bd a3d9 3a3f 1fcf 3f3e 47bb 9d3e
00000010: 1c37 153e 884f 483e cfd3 9f3e 10cc 113e
00000020: f614 02bd cc93 2ebe f139 e13e 9444 c13e
00000030: 2199 afbf d602 423e 40c1 6d3f 0eb5 653f
00000040: 3e71 4cbe 7e4f 6b3f 5fdb 273f d1c9 1b3f
00000050: 545e 783f c2ba 043f 891a eb3e f811 3ebe
00000060: 9dc7 fb3e e6b2 0a3f 43f8 063f bfc6 ecbe
00000070: b237 ce3e c28e 383f 0ebf 3b3f b424 8e3d
-0.109855786 0.7298834 0.18731354 0.30806944 0.14571804 0.19561589 0.31216285 0.14238
-0.03175827 -0.17048568 0.43989518 0.37747633 -1.3718606 0.18946394 0.92873 0.8972939
-0.19965073 0.9191817 0.6556911 0.6085482 0.97018933 0.5184747 0.45918682 -0.18561542
0.4917573 0.5417923 0.5272257 -0.4624538 0.40276867 0.7209283 0.733384 0.06940594

module_list.1.input_quant.pre_transforms.0.running_mean f4 [32]
00000000: 72b9 efbd 79b9 4a3f 885e cc3e 5ae8 d4be
00000010: ba54 ddbe c443 203f fd32 1d3e 6e38 17bf
00000020: cb96 10bf d1f9 06be 88e2 9abd abdb ef3d
00000030: 44fb c03f e404 2e3e d58d 9abe 666b a93e
00000040: 03da b9bd c144 aa3e c473 a6be 2c5e 383f
00000050: b43c 653e bc92 653d 98e1 6ebe 370a 66bf
00000060: 4914 6cbc 9ae6 b0bc 6c40 79bf d3d5 2abf
00000070: 2210 bc3e 6ec5 95bd 0ac0 513e 641a e0be
-0.11705293 0.7918926 0.39915872 -0.4158352 -0.43228704 0.626034 0.15351482 -0.5907048
-0.5648009 -0.13181235 -0.07562739 0.1171182 1.507668 0.16994053 -0.30186334 0.3308975
-0.090747856 0.3325558 -0.32510197 0.72018695 0.22386438 0.05604814 -0.23328245 -0.89859337
-0.014409133 -0.021594334 -0.97363925 -0.6673252 0.36731058 -0.07313047 0.20483413 -0.43770134

module_list.1.input_quant.pre_transforms.0.running_var f4 [32]
00000000: 61c6 423d ac2e 3e3e 77b9 763e ee18 863d
00000010: 7607 e23d 4926 c940 7f06 523d b4f8 0240
00000020: 5c90 c43e 4de8 f43d b14b 1d3f e128 563e
00000030: 77c6 4d41 aa4a 2b3e 748e bf3e c767 8d3e
00000040: 25a7 ae3e 1874 023e b69f 133d 166b 073f
00000050: 0ea8 b53d a07c a03e fbdb ae3e 6721 3940
00000060: a26c 8b3f b1e7 ab3c b777 993f 0c5a 073f
00000070: 967f 383e 2c9d 123d 1b77 083e 4498 f83d
0.04755247 0.18572491 0.24094187 0.06547724 0.11036579 6.2859235 0.051275726 2.0464296
0.38391387 0.1195837 0.6144362 0.20914032 12.860953 0.16727701 0.3741337 0.27618238
0.34111896 0.12739599 0.036040984 0.52897775 0.088699445 0.3134508 0.34152207 2.8926637
1.0892527 0.020984503 1.1989659 0.52871776 0.1801742 0.035794422 0.13326685 0.12138417

module_list.1.fc.weight f4 [64, 32]
00000000: 2b4f e0bc 902b 033d 2238 9f3b 4752 273e
00000010: 2477 3abc dc95 8d3f e0e9 9b3d 9714 72bd
00000020: 5e48 8abd db77 b8bb a3ce 58bd d73e a33d
00000030: 9cf9 afbd bfe2 87bd da68 00bc 4e27 33bd
00000040: b364 b93c 7f4a c33d 8c07 c03d 295b 243d
00000050: 21d1 0bbd 8082 b5bc 7696 d73a 1bda 6b3c
00000060: c41f 13bf 4a72 00bd 2a1d f43d 540b b53d
00000070: 8653 8e3c 597d 63bd c311 ba3d 6213 19bd
00000080: 6145 c1bd 937c c4bd 92d9 df3d 714b 723a
00000090: 4e48 a33c d866 e53d 0341 c7bd ba3c 4dbc
000000a0: 37b1 8abd 7709 abbc c38e b03d 0f23 b6bd
000000b0: 7f4b a8bb 6e09 b9bd fb30 de3d 9f9b b63d
000000c0: a096 063d 0575 c8bd 618a c3bd 4e66 dbbc
000000d0: f769 903b 79ff 24be 6b08 f53c 4c5b df3d
000000e0: 6c7e 053f 182a 233c 92b7 73bd 7538 1a3f
000000f0: f044 853d 6790 f73c d34c 4dbd 0de0 063d
00000100: 3cdf 89bd d5e0 22bd 477c a03e 0971 f2bd
00000110: 7c9a eabd 8e0f 1bbe 4565 093c 3326 693d
00000120: 4bb5 cc3d cb78 96bb fe4c c9bd 0d80 d93d
00000130: 7c04 ce3d 592b 24bd e242 51bb 3038 dc3d
00000140: 0b8e 8dbd 658d d1b9 a171 55bd dd1f e3bd
00000150: 627f f4bd 2d69 a2bd 6616 8c3d 417f b2bd
00000160: d6b2 0a3c abf2 5dbe d28c 8abf 20da a93c
00000170: eb3e 533d 0c30 713d b5bb edbc 7826 1bbd
00000180: 2017 27bf a5f8 bbb9 3acc 733d 259a 41bf
00000190: 2f6c a03d 06c9 733d 1412 d73b bad7 a5bd
000001a0: a742 cbbd a714 84bc 33dd f53d 6287 383c
000001b0: b245 92be e162 583d f8c2 dfbd 2b1c 893d
000001c0: f614 8bbc 8146 8b3d bbcd 5abd ae97 e0bd
000001d0: ccdf 08bc cf69 31bc eb64 e339 b5b6 1dbd
000001e0: 72ce 613d 28e1 393d dacc e43d 75c5 ddbd
000001f0: 2f1d 0cbb 573a 02bd cdae 46bd 37e7 e2bd
00000200: 35ae 213c 61df 1d3d e31d 91bd 9ded d4bd
00000210: 89e3 18bd bd28 61bd 9e7e 33bd 12a2 9dbd
00000220: d194 cdbd e844 abbd 657b edbd 7ae1 ca3d
00000230: 9cd3 453d 085e a63d 906d b9bd 98e2 afbd
00000240: 0555 d5bd ac6b 33bd b0f2 163f bb8b 2c3d
00000250: 0ecd 9c3d 1849 b73d 85c0 10bd 7cd9 b0bd
00000260: a562 2abc fe8f afbd 2493 133f 10fb b7bd
00000270: cc8a d13c f46a 813b 31de 703d d29d c8bd
00000280: 260c d13d c26c 71bd 0af5 053d 661e 633c
00000290: fc48 893e 874d c7bd 289e 973e a800 c93d
000002a0: 0af8 88bc d03a cb3d fb7e f43d 7dd3 ebbd
000002b0: 0a1c 56bd fcc4 10bd 1228 87bd 532e 293d
000002c0: ee2d dbbd 1431 11bd 4b71 0cbf 65a2 5cbc
000002d0: 42fc 93bd ef8c f23d 1726 abbd 8cba 2fbd
000002e0: 0f5d d13d 0a4e 1fbd e2b8 72bd 5007 f43d
000002f0: 9f85 4cbd c20f 963c fe69 7dbd e1f4 0abf
00000300: 078a ecbb 5738 c13c bdc6 3fbd 6fea cc3d
00000310: 7f17 c63b 7bb2 8ebd bd7c d2bd 47b4 a5bd
00000320: 1113 b6bd a1b8 293d 1602 f7bc f312 58bd
00000330: 9804 cdbe e559 9b3d dd15 cc3d ff20 e7bd
00000340: 90ee 30bb b2e1 983e b715 3a3f df14 ffbb
00000350: 2ddd fe3c 65c3 ec3d 2d6f c3bc 2c16 d1bd
00000360: efa7 63bd fabc ac3e 6ba0 abbc 6e81 563d
00000370: 053a 85bd e5ae ec3d 59d2 eb3d 72eb a43c
00000380: ed45 213d d803 4d3f 5582 e4bd 957e 1ebd
00000390: d421 b6be a7a4 4dbd 747e e33d 38f9 8abd
000003a0: dbbc 7e3d 4175 86bd 9ec0 a7bc f2c3 37bd
000003b0: 2570 84bd fe29 543d 091f c0bc 81a1 e93d
000003c0: e739 b5bc 5d0a b8bd ca5a f4bd 545a f63d
000003d0: 1528 ab3e 8178 883d 9418 8dbc bf3e 32bd
000003e0: 0a45 8a3d 2c37 89bc d259 cc3d b922 bb3d
000003f0: db61 91bc 532d 2abb ae6c 36be c3c9 893d
-0.0273815 0.032023966 0.0048589865 0.1633998 -0.011380944 1.1061358 0.076129675 -0.059101667
-0.06752084 -0.0056295223 -0.05293144 0.0797097 -0.08592531 -0.06635045 -0.007837499 -0.043738656
0.022631025 0.095356934 0.093764395 0.040126 -0.034134988 -0.022156954 0.0016448039 0.014395262
-0.57470345 -0.031358995 0.11919625 0.08840051 0.017373811 -0.055539463 0.09085419 -0.037372
-0.09437061 -0.09594073 0.1093017 0.0009242809 0.019931938 0.112012565 -0.09729197 -0.012526685
-0.06772082 -0.020878537 0.0862098 -0.08893406 -0.005135953 -0.09035002 0.10849186 0.08916401
0.03285849 -0.09787945 -0.09547878 -0.026782181 0.0044071632 -0.1611308 0.02991124 0.10906085
0.5214603 0.009958766 -0.05950124 0.60242397 0.065072894 0.030220224 -0.050122093 0.032928515
-0.06732032 -0.039765198 0.31344816 -0.11837966 -0.11455247 -0.15142652 0.008385961 0.056921195
0.099955164 -0.0045920364 -0.09829138 0.10620127 0.10059449 -0.040080402 -0.0031930734 0.107529044
-0.06911858 -0.00039968934 -0.052110318 -0.11090062 -0.11938359 -0.07930217 0.0684021 -0.08715678
0.008465489 -0.21674602 -1.0824225 0.020733893 0.051573675 0.05888371 -0.02902017 -0.037878484
-0.6526966 -0.00035852674 0.059520938 -0.7562583 0.078331344 0.059517883 0.0065634344 -0.08097787
-0.09924822 -0.016123129 0.12005081 0.0112627465 -0.28568798 0.052828673 -0.10925859 0.06694826
-0.016977768 0.06800557 -0.053418856 -0.109664306 -0.008354139 -0.010828449 0.00043372004 -0.03850432
0.055128522 0.04538074 0.11171885 -0.108286776 -0.00213797 -0.03179392 -0.048506547 -0.11079257
0.009868194 0.03854311 -0.070857786 -0.10396884 -0.03732637 -0.05497049 -0.043821923 -0.07696928
-0.1003815 -0.08362752 -0.11595801 0.099062875 0.04829751 0.08123404 -0.090541005 -0.08588141
-0.10416607 -0.043803856 0.5896406 0.042125445 0.076562986 0.089494884 -0.03533985 -0.08635232
-0.010399495 -0.08572386 0.57646394 -0.08983433 0.025578879 0.0039495174 0.05880565 -0.09795727
0.10207395 -0.05894161 0.03270439 0.013862228 0.26813495 -0.09731584 0.2961285 0.09814578
-0.016719837 0.09923327 0.11938282 -0.115149476 -0.052272834 -0.03534411 -0.0659944 0.041303944
-0.1070212 -0.035447195 -0.5486037 -0.013466452 -0.07225849 0.11843287 -0.083568744 -0.042902514
0.10222828 -0.038892783 -0.05925835 0.11915457 -0.04993212 0.01831806 -0.06186866 -0.54279906
-0.0072186026 0.023586435 -0.04682039 0.10005652 0.0060452814 -0.06967636 -0.10277698 -0.08091026
-0.088903554 0.04143584 -0.030152362 -0.052752446 -0.40042567 0.075855054 0.099651076 -0.112855904
-0.0026997663 0.29859692 0.72689384 -0.0077844705 0.031111324 0.11560706 -0.023856724 -0.10209307
-0.055580076 0.33737928 -0.020950517 0.052369528 -0.06505207 0.11556796 0.1151473 0.0201318
0.039373327 0.8008399 -0.11157671 -0.038694937 -0.35572684 -0.050205853 0.111081034 -0.06785816
0.062191825 -0.06565333 -0.02047759 -0.044864602 -0.06466702 0.05179786 -0.023452299 0.114077576
-0.022122337 -0.08986352 -0.11931379 0.120289475 0.33429018 0.06663609 -0.017223634 -0.04351687
0.067514494 -0.01674994 0.09978069 0.09137482 -0.017746856 -0.0025966957 -0.17814896 0.06727936

module_list.1.fc.bias f4 [64]
00000000: 843d 323e 284b ee3d d528 d0bd e0fa d33d
00000010: 2f12 143e a8b4 e2bd 8ba7 c43d 88bc 783d
00000020: 3be4 aabd e37d e3bd f92a cdbd 4e13 20bd
00000030: 8831 bc3d 5ac4 2ebe a144 0e3e 4583 67be
00000040: 5b48 07bd 75c6 863e 9986 943d a6b7 923e
00000050: 28ec e7bd 4fb6 d2bb 94ab 48bd 8396 19be
00000060: c8ca 9ebe 4de9 63bd 56d8 c83c 95c9 24be
00000070: e623 813e 6d13 aebc ee1c 4b3c 40e3 273d
00000080: 29f1 9fbe e473 903e 0f9a 21bd 2fd5 223e
00000090: 887f 2fbc 272b eebd 5943 1dbb 2b98 b03d
000000a0: ec50 553e a9f3 14bc b714 0dbe 757b 143e
000000b0: b726 d2bf 0d12 90be 2c12 55be ee83 1bbe
000000c0: 6026 233d af26 ef3d cd48 07be 32c0 323e
000000d0: 68c2 93bd 13b7 36be 2456 463e 1ea6 0cbe
000000e0: a88e 953d a835 753d c014 cc3d f079 5cbb
000000f0: f591 0ebb 053d 053e d1fd 193e ce67 413e
0.17406279 0.11635429 -0.10164038 0.10350585 0.14460061 -0.11069614 0.09602269 0.060726672
-0.08344313 -0.11107995 -0.10017962 -0.03908091 0.09189135 -0.1706709 0.13893367 -0.22608669
-0.033027988 0.26323286 0.07252235 0.28655738 -0.1132434 -0.0064304243 -0.048991755 -0.14998822
-0.31014085 -0.055642415 0.02451722 -0.16092522 0.252227 -0.021249497 0.012397034 0.040988207
-0.31238678 0.28213418 -0.039453562 0.15901636 -0.010711558 -0.116293244 -0.002399644 0.08622774
0.2083165 -0.009091296 -0.13777433 0.1450022 -1.6418065 -0.28138772 -0.20807713 -0.15187046
0.03983152 0.116773 -0.13211365 0.17456129 -0.072148144 -0.17843275 0.19368798 -0.13735244
0.073026 0.059865624 0.09964895 -0.0033642016 -0.0021754478 0.13011558 0.1503823 0.18887255

module_list.1.fc.mask.mask f4 [64, 32]
00000000: 0000 0000 0000 0000 0000 0000 0000 803f
00000010: 0000 0000 0000 803f 0000 0000 0000 0000
00000020: 0000 0000 0000 0000 0000 0000 0000 0000
00000030: 0000 0000 0000 0000 0000 0000 0000 0000
00000040: 0000 0000 0000 0000 0000 0000 0000 0000
00000050: 0000 0000 0000 0000 0000 0000 0000 0000
00000060: 0000 803f 0000 0000 0000 0000 0000 0000
00000070: 0000 0000 0000 0000 0000 0000 0000 803f
00000080: 0000 0000 0000 0000 0000 0000 0000 0000
00000090: 0000 0000 0000 0000 0000 0000 0000 0000
000000a0: 0000 0000 0000 0000 0000 0000 0000 0000
000000b0: 0000 0000 0000 0000 0000 0000 0000 0000
000000c0: 0000 0000 0000 0000 0000 0000 0000 0000
000000d0: 0000 0000 0000 803f 0000 0000 0000 0000
000000e0: 0000 803f 0000 0000 0000 0000 0000 803f
000000f0: 0000 0000 0000 803f 0000 0000 0000 0000
00000100: 0000 0000 0000 0000 0000 803f 0000 0000
00000110: 0000 0000 0000 803f 0000 0000 0000 0000
00000120: 0000 0000 0000 0000 0000 0000 0000 0000
00000130: 0000 0000 0000 0000 0000 0000 0000 0000
00000140: 0000 0000 0000 0000 0000 0000 0000 0000
00000150: 0000 0000 0000 0000 0000 0000 0000 0000
00000160: 0000 0000 0000 803f 0000 803f 0000 0000
00000170: 0000 0000 0000 0000 0000 0000 0000 0000
00000180: 0000 803f 0000 0000 0000 0000 0000 803f
00000190: 0000 0000 0000 0000 0000 0000 0000 0000
000001a0: 0000 0000 0000 0000 0000 0000 0000 0000
000001b0: 0000 803f 0000 0000 0000 0000 0000 0000
000001c0: 0000 0000 0000 0000 0000 0000 0000 0000
000001d0: 0000 0000 0000 0000 0000 0000 0000 0000
000001e0: 0000 0000 0000 0000 0000 0000 0000 0000
000001f0: 0000 0000 0000 803f 0000 0000 0000 0000
00000200: 0000 0000 0000 0000 0000 0000 0000 0000
00000210: 0000 803f 0000 0000 0000 0000 0000 0000
00000220: 0000 0000 0000 0000 0000 0000 0000 0000
00000230: 0000 0000 0000 0000 0000 0000 0000 0000
00000240: 0000 0000 0000 803f 0000 803f 0000 0000
00000250: 0000 0000 0000 0000 0000 0000 0000 0000
00000260: 0000 0000 0000 0000 0000 803f 0000 0000
00000270: 0000 0000 0000 0000 0000 0000 0000 0000
00000280: 0000 0000 0000 0000 0000 0000 0000 0000
00000290: 0000 803f 0000 0000 0000 803f 0000 0000
000002a0: 0000 0000 0000 0000 0000 0000 0000 0000
000002b0: 0000 0000 0000 0000 0000 0000 0000 0000
000002c0: 0000 0000 0000 0000 0000 803f 0000 0000
000002d0: 0000 0000 0000 0000 0000 0000 0000 0000
000002e0: 0000 0000 0000 0000 0000 0000 0000 0000
000002f0: 0000 0000 0000 0000 0000 0000 0000 803f
00000300: 0000 0000 0000 0000 0000 0000 0000 0000
00000310: 0000 0000 0000 0000 0000 0000 0000 0000
00000320: 0000 0000 0000 0000 0000 0000 0000 0000
00000330: 0000 803f 0000 0000 0000 0000 0000 0000
00000340: 0000 0000 0000 803f 0000 803f 0000 0000
00000350: 0000 0000 0000 0000 0000 0000 0000 0000
00000360: 0000 0000 0000 803f 0000 0000 0000 0000
00000370: 0000 0000 0000 0000 0000 0000 0000 0000
00000380: 0000 0000 0000 803f 0000 0000 0000 0000
00000390: 0000 803f 0000 0000 0000 0000 0000 0000
000003a0: 0000 0000 0000 0000 0000 0000 0000 0000
000003b0: 0000 0000 0000 0000 0000 0000 0000 0000
000003c0: 0000 0000 0000 0000 0000 0000 0000 0000
000003d0: 0000 803f 0000 0000 0000 0000 0000 0000
000003e0: 0000 0000 0000 0000 0000 0000 0000 0000
000003f0: 0000 0000 0000 0000 0000 803f 0000 0000
0.0 0.0 0.0 1.0 0.0 1.0 0.0 0.0
0.0 0.0 0.0 0.0 0.0 0.0 0.0 0.0
0.0 0.0 0.0 0.0 0.0 0.0 0.0 0.0
1.0 0.0 0.0 0.0 0.0 0.0 0.0 1.0
0.0 0.0 0.0 0.0 0.0 0.0 0.0 0.0
0.0 0.0 0.0 0.0 0.0 0.0 0.0 0.0
0.0 0.0 0.0 0.0 0.0 1.0 0.0 0.0
1.0 0.0 0.0 1.0 0.0 1.0 0.0 0.0
0.0 0.0 1.0 0.0 0.0 1.0 0.0 0.0
0.0 0.0 0.0 0.0 0.0 0.0 0.0 0.0
0.0 0.0 0.0 0.0 0.0 0.0 0.0 0.0
0.0 1.0 1.0 0.0 0.0 0.0 0.0 0.0
1.0 0.0 0.0 1.0 0.0 0.0 0.0 0.0
0.0 0.0 0.0 0.0 1.0 0.0 0.0 0.0
0.0 0.0 0.0 0.0 0.0 0.0 0.0 0.0
0.0 0.0 0.0 0.0 0.0 1.0 0.0 0.0
0.0 0.0 0.0 0.0 1.0 0.0 0.0 0.0
0.0 0.0 0.0 0.0 0.0 0.0 0.0 0.0
0.0 1.0 1.0 0.0 0.0 0.0 0.0 0.0
0.0 0.0 1.0 0.0 0.0 0.0 0.0 0.0
0.0 0.0 0.0 0.0 1.0 0.0 1.0 0.0
0.0 0.0 0.0 0.0 0.0 0.0 0.0 0.0
0.0 0.0 1.0 0.0 0.0 0.0 0.0 0.0
0.0 0.0 0.0 0.0 0.0 0.0 0.0 1.0
0.0 0.0 0.0 0.0 0.0 0.0 0.0 0.0
0.0 0.0 0.0 0.0 1.0 0.0 0.0 0.0
0.0 1.0 1.0 0.0 0.0 0.0 0.0 0.0
0.0 1.0 0.0 0.0 0.0 0.0 0.0 0.0
0.0 1.0 0.0 0.0 1.0 0.0 0.0 0.0
0.0 0.0 0.0 0.0 0.0 0.0 0.0 0.0
0.0 0.0 0.0 0.0 1.0 0.0 0.0 0.0
0.0 0.0 0.0 0.0 0.0 0.0 1.0 0.0

module_list.1.output_quant.pre_transforms.0.weight f4 [64]
00000000: c432 163f 6fb7 993f 7a1b 133f 7e19 013f
00000010: e233 e53e dbf5 e03e 45f8 073f e152 563f
00000020: bc09 1c3f 35f8 013f cf00 f03e da28 a53e
00000030: 9618 e03f e15d 073f 478f 333f de53 693f
00000040: 4540 043f 815a 323f b20b 1a41 e320 263f
00000050: c212 4b3f d129 e13e e58b 0e3f c798 2b3f
00000060: a2a9 063f 67b2 f13e 0819 0d3f e914 7e3f
00000070: 1ec0 4e3f 82dd 743f d74e d73e 45e1 6e40
00000080: eea9 383f 2ad1 683f 6748 b13f cc1e 9e3e
00000090: f0fa 963e 7a9f 263f 56f4 403f afd4 df3e
000000a0: 7de1 ad3f dc78 7e3f c557 333f b4e9 d43e
000000b0: 370d 673f 5947 ef3e a945 653f 174c 1b3f
000000c0: 5ba2 e63e 6c20 203f 9154 563f 1b10 d63e
000000d0: 4f98 073f 8106 013f 7293 443f 1278 3c3f
000000e0: d429 893f 150d 5d3f a490 283f cc85 923f
000000f0: 6e98 853f 8ef4 623f e3e1 9b3f a0bd f03e
0.5867121 1.2009104 0.574638 0.50429523 0.44766146 0.43937573 0.53113204 0.83720213
0.60952353 0.5076936 0.46875617 0.3225773 1.7507503 0.5287762 0.701405 0.91143596
0.5166057 0.6966935 9.627855 0.6489393 0.793255 0.43977216 0.5568221 0.67029995
0.5260259 0.47206423 0.5511632 0.99250656 0.807619 0.95650494 0.42052338 3.7324994
0.7213429 0.9094416 1.385022 0.3088287 0.29488325 0.6508709 0.7537283 0.43716952
1.3584439 0.99403167 0.700558 0.4158455 0.9025454 0.4673412 0.8955942 0.6066298
0.45045742 0.6254947 0.8372279 0.41809162 0.5296678 0.5040055 0.76787484 0.7362071
1.071589 0.86348087 0.65845704 1.1447082 1.0437143 0.8865441 1.217831 0.47019672

module_list.1.output_quant.pre_transforms.0.bias f4 [64]
00000000: 47b9 b03e f0df d0be 66d0 3c3f c6bb 0c3f
00000010: fd09 96bd b9bc 163f 176b c4be cbfa 9b3f
00000020: e659 9f3e a32b ee3e 4622 ac3a c888 323f
00000030: 7d83 50be be80 673e b7bf 993e 6822 b8bd
00000040: cdb8 003f 4828 0a3f f381 b73d 3ca9 aa3f
00000050: ed9b bdbe 4ea0 253f 2a6f e23e 6f0a d0ba
00000060: a73c fa3e 18ab 953f fee7 053f 7f9b 803e
00000070: 8226 8e3e 6c05 f63e 3aa7 133f ec66 913f
00000080: daa9 efbe f15b 1a3e 75a5 4f3f 8775 fe3e
00000090: 0f1a 253f b9f9 08be 2181 3a3f 1a30 783f
000000a0: bc68 eebe 3d2f fa3e c31c ef3e 8723 4e3f
000000b0: 0ecd ddbe 3867 d73e f220 e1bc 51bb dd3e
000000c0: 405f 583f b9ce 2f3f 82bf 863e 1294 613e
000000d0: 1e73 62bc 3fff 003f a69e 90be 226a 97be
000000e0: 9ae8 8a3e b50f 993e 1de0 1d3f 72b0 a0bf
000000f0: 87f4 ae3e 5085 29be b84c c5bf fff9 023f
0.34516355 -0.4079585 0.7375549 0.5497402 -0.07326124 0.5888172 -0.38362953 1.2185911
0.31123275 0.46517667 0.0013132773 0.6973996 -0.20362659 0.22607705 0.3002908 -0.089909375
0.50281984 0.53967714 0.08960333 1.3332896 -0.37033024 0.6469773 0.44225436 -0.001587225
0.488744 1.1692839 0.52307117 0.25118634 0.27763754 0.48051012 0.5767704 1.1359534
-0.46809274 0.15074135 0.8111184 0.4969904 0.6449289 -0.13376512 0.72853285 0.969484
-0.4656428 0.48864165 0.4670163 0.8052296 -0.43320507 0.42070937 -0.02748153 0.43306974
0.8452034 0.6867481 0.26317984 0.2202914 -0.013821391 0.50389475 -0.2824604 -0.2957316
0.27130586 0.29894796 0.61670095 -1.2553847 0.34170935 -0.16554761 -1.5414038 0.51162714

module_list.1.output_quant.pre_transforms.0.running_mean f4 [64]
00000000: 24df fd3e a1fe ff3e 9f00 2ebf 7c60 dabe
00000010: 5f17 4b3f 1c54 f9be c192 683f f144 3f3f
00000020: 533f 76bf 2491 37bf a821 09bf 5174 a03e
00000030: 3481 98bf 49a6 1e3e 4835 b23f f6a4 08bf
00000040: 59a0 18bf 35d4 213e 00ff 453d aba6 1dbf
00000050: 3187 433b 65f4 2a3f efec 343f 8520 17bf
00000060: eca0 7a3e ca71 bebe 203d 6e3f 326d f1bd
00000070: b54f b0be 7e34 47bf 5fd4 5dbe 382a fd3e
00000080: 1276 d5bd 4136 993f d2eb b7bf 154d b73e
00000090: b4a0 3cbe 62be 703d 26d4 f1be 98e4 cf3e
000000a0: ea3d 19bf 8e34 27bf fb85 23bf ba24 683f
000000b0: 306b e6bf c2a8 423f a0e2 32bf ceaf c13e
000000c0: e441 663f 86df 233e e3e0 3b3e b4e7 e43d
000000d0: 25f2 083f a951 07be fa18 dd3e 1e56 1f3f
000000e0: e644 8bbe 0bfd 883d 1180 dabe 6935 683f
000000f0: cded 3fbf b075 78bd c303 123f f90d a63e
0.49584305 0.49998954 -0.679697 -0.42651737 0.79332536 -0.48696983 0.9084893 0.7471457
-0.96190375 -0.7170584 -0.5356698 0.31338742 -1.191443 0.1549312 1.392251 -0.5337671
-0.5961967 0.15803607 0.04833889 -0.6158244 0.002983522 0.66779166 0.7067403 -0.59033996
0.2447545 -0.3719619 0.9306202 -0.117884055 -0.34435812 -0.7781447 -0.21663044 0.49446273
-0.10422911 1.1969682 -1.4368842 0.35800996 -0.18420678 0.058775313 -0.4723217 0.4060409
-0.598601 -0.6531457 -0.6387631 0.9068104 -1.8001461 0.76038754 -0.6987705 0.3782944
0.8994429 0.16003236 0.18347506 0.11177006 0.53494483 -0.13214745 0.43183118 0.6224078
-0.27201003 0.06688889 -0.42675832 0.907065 -0.7497223 -0.06065911 0.5703699 0.32432535

module_list.1.output_quant.pre_transforms.0.running_var f4 [64]
00000000: 0b23 ce3d 1abc c43d 8a7f ca3e db9c fd3d
00000010: a8ae 033d d305 8d3d bb67 863d cfeb f03d
00000020: 18a2 963e 5e93 8a3e 0a5c e73d 1879 b43d
00000030: 31e3 b93f c102 8c3e cfbd 9c3f 327d 5f3e
00000040: f0ec 553e 10b1 413e b96b e43d f2de 013d
00000050: bb90 963e 0980 3a3e 7e2b 743e 5540 333e
00000060: c9ba 553d c8e4 193d 32e6 683f 9435 963e
00000070: aea3 3c3d fc19 673f 660d 9c3e bf9b b53e
00000080: b462 f13d 897f f03e 4e04 c83e d500 233e
00000090: 46ac 873d d1b6 823d 85b8 e53e e5fe 183d
000000a0: c52f c83e 4d2b 843f 2c19 653e a582 283e
000000b0: 677e 5f3d e731 153d 7129 063e 2cec ed3e
000000c0: 51d9 1c3e 53ec ef3d de28 733e a335 f43d
000000d0: d0ba 113d fbed f93c 111f 403e ef69 033e
000000e0: 817b 973e c57c 353d 958c e13e 524e 053e
000000f0: 2bc8 b13d b000 973e 2f90 2d3e 8db4 fe3d
0.10065278 0.0960619 0.3955043 0.123834334 0.032148987 0.068858765 0.06562754 0.11763727
0.29420543 0.27065557 0.11296852 0.08812159 1.4522458 0.2734585 1.2245425 0.21825102
0.20891166 0.189152 0.11153359 0.031706758 0.29407296 0.18212904 0.23844716 0.1750501
0.052180085 0.0375717 0.9097625 0.29337752 0.046054535 0.90274024 0.30478972 0.35470387
0.11786404 0.46972302 0.39065784 0.15918286 0.066246554 0.06382526 0.4486734 0.03735246
0.39098945 1.0325714 0.22372884 0.16456087 0.054563906 0.036424544 0.13101746 0.46469247
0.15317275 0.11714997 0.23746058 0.11924293 0.03557855 0.030508986 0.18761851 0.12833379
0.29586414 0.044308443 0.44052568 0.13018158 0.08680757 0.29492712 0.16949533 0.12436781

module_list.2.input_quant.pre_transforms.0.weight f4 [64]
00000000: c432 163f 6fb7 993f 7a1b 133f 7e19 013f
00000010: e233 e53e dbf5 e03e 45f8 073f e152 563f
00000020: bc09 1c3f 35f8 013f cf00 f03e da28 a53e
00000030: 9618 e03f e15d 073f 478f 333f de53 693f
00000040: 4540 043f 815a 323f b20b 1a41 e320 263f
00000050: c212 4b3f d129 e13e e58b 0e3f c798 2b3f
00000060: a2a9 063f 67b2 f13e 0819 0d3f e914 7e3f
00000070: 1ec0 4e3f 82dd 743f d74e d73e 45e1 6e40
00000080: eea9 383f 2ad1 683f 6748 b13f cc1e 9e3e
00000090: f0fa 963e 7a9f 263f 56f4 403f afd4 df3e
000000a0: 7de1 ad3f dc78 7e3f c557 333f b4e9 d43e
000000b0: 370d 673f 5947 ef3e a945 653f 174c 1b3f
000000c0: 5ba2 e63e 6c20 203f 9154 563f 1b10 d63e
000000d0: 4f98 073f 8106 013f 7293 443f 1278 3c3f
000000e0: d429 893f 150d 5d3f a490 283f cc85 923f
000000f0: 6e98 853f 8ef4 623f e3e1 9b3f a0bd f03e
0.5867121 1.2009104 0.574638 0.50429523 0.44766146 0.43937573 0.53113204 0.83720213
0.60952353 0.5076936 0.46875617 0.3225773 1.7507503 0.5287762 0.701405 0.91143596
0.5166057 0.6966935 9.627855 0.6489393 0.793255 0.43977216 0.5568221 0.67029995
0.5260259 0.47206423 0.5511632 0.99250656 0.807619 0.95650494 0.42052338 3.7324994
0.7213429 0.9094416 1.385022 0.3088287 0.29488325 0.6508709 0.7537283 0.43716952
1.3584439 0.99403167 0.700558 0.4158455 0.9025454 0.4673412 0.8955942 0.6066298
0.45045742 0.6254947 0.8372279 0.41809162 0.5296678 0.5040055 0.76787484 0.7362071
1.071589 0.86348087 0.65845704 1.1447082 1.0437143 0.8865441 1.217831 0.47019672

module_list.2.input_quant.pre_transforms.0.bias f4 [64]
00000000: 47b9 b03e f0df d0be 66d0 3c3f c6bb 0c3f
00000010: fd09 96bd b9bc 163f 176b c4be cbfa 9b3f
00000020: e659 9f3e a32b ee3e 4622 ac3a c888 323f
00000030: 7d83 50be be80 673e b7bf 993e 6822 b8bd
00000040: cdb8 003f 4828 0a3f f381 b73d 3ca9 aa3f
00000050: ed9b bdbe 4ea0 253f 2a6f e23e 6f0a d0ba
00000060: a73c fa3e 18ab 953f fee7 053f 7f9b 803e
00000070: 8226 8e3e 6c05 f63e 3aa7 133f ec66 913f
00000080: daa9 efbe f15b 1a3e 75a5 4f3f 8775 fe3e
00000090: 0f1a 253f b9f9 08be 2181 3a3f 1a30 783f
000000a0: bc68 eebe 3d2f fa3e c31c ef3e 8723 4e3f
000000b0: 0ecd ddbe 3867 d73e f220 e1bc 51bb dd3e
000000c0: 405f 583f b9ce 2f3f 82bf 863e 1294 613e
000000d0: 1e73 62bc 3fff 003f a69e 90be 226a 97be
000000e0: 9ae8 8a3e b50f 993e 1de0 1d3f 72b0 a0bf
000000f0: 87f4 ae3e 5085 29be b84c c5bf fff9 023f
0.34516355 -0.4079585 0.7375549 0.5497402 -0.07326124 0.5888172 -0.38362953 1.2185911
0.31123275 0.46517667 0.0013132773 0.6973996 -0.20362659 0.22607705 0.3002908 -0.089909375
0.50281984 0.53967714 0.08960333 1.3332896 -0.37033024 0.6469773 0.44225436 -0.001587225
0.488744 1.1692839 0.52307117 0.25118634 0.27763754 0.48051012 0.5767704 1.1359534
-0.46809274 0.15074135 0.8111184 0.4969904 0.6449289 -0.13376512 0.72853285 0.969484
-0.4656428 0.48864165 0.4670163 0.8052296 -0.43320507 0.42070937 -0.02748153 0.43306974
0.8452034 0.6867481 0.26317984 0.2202914 -0.013821391 0.50389475 -0.2824604 -0.2957316
0.27130586 0.29894796 0.61670095 -1.2553847 0.34170935 -0.16554761 -1.5414038 0.51162714

module_list.2.input_quant.pre_transforms.0.running_mean f4 [64]
00000000: 24df fd3e a1fe ff3e 9f00 2ebf 7c60 dabe
00000010: 5f17 4b3f 1c54 f9be c192 683f f144 3f3f
00000020: 533f 76bf 2491 37bf a821 09bf 5174 a03e
00000030: 3481 98bf 49a6 1e3e 4835 b23f f6a4 08bf
00000040: 59a0 18bf 35d4 213e 00ff 453d aba6 1dbf
00000050: 3187 433b 65f4 2a3f efec 343f 8520 17bf
00000060: eca0 7a3e ca71 bebe 203d 6e3f 326d f1bd
00000070: b54f b0be 7e34 47bf 5fd4 5dbe 382a fd3e
00000080: 1276 d5bd 4136 993f d2eb b7bf 154d b73e
00000090: b4a0 3cbe 62be 703d 26d4 f1be 98e4 cf3e
000000a0: ea3d 19bf 8e34 27bf fb85 23bf ba24 683f
000000b0: 306b e6bf c2a8 423f a0e2 32bf ceaf c13e
000000c0: e441 663f 86df 233e e3e0 3b3e b4e7 e43d
000000d0: 25f2 083f a951 07be fa18 dd3e 1e56 1f3f
000000e0: e644 8bbe 0bfd 883d 1180 dabe 6935 683f
000000f0: cded 3fbf b075 78bd c303 123f f90d a63e
0.49584305 0.49998954 -0.679697 -0.42651737 0.79332536 -0.48696983 0.9084893 0.7471457
-0.96190375 -0.7170584 -0.5356698 0.31338742 -1.191443 0.1549312 1.392251 -0.5337671
-0.5961967 0.15803607 0.04833889 -0.6158244 0.002983522 0.66779166 0.7067403 -0.59033996
0.2447545 -0.3719619 0.9306202 -0.117884055 -0.34435812 -0.7781447 -0.21663044 0.49446273
-0.10422911 1.1969682 -1.4368842 0.35800996 -0.18420678 0.058775313 -0.4723217 0.4060409
-0.598601 -0.6531457 -0.6387631 0.9068104 -1.8001461 0.76038754 -0.6987705 0.3782944
0.8994429 0.16003236 0.18347506 0.11177006 0.53494483 -0.13214745 0.43183118 0.6224078
-0.27201003 0.06688889 -0.42675832 0.907065 -0.7497223 -0.06065911 0.5703699 0.32432535

module_list.2.input_quant.pre_transforms.0.running_var f4 [64]
00000000: 0b23 ce3d 1abc c43d 8a7f ca3e db9c fd3d
00000010: a8ae 033d d305 8d3d bb67 863d cfeb f03d
00000020: 18a2 963e 5e93 8a3e 0a5c e73d 1879 b43d
00000030: 31e3 b93f c102 8c3e cfbd 9c3f 327d 5f3e
00000040: f0ec 553e 10b1 413e b96b e43d f2de 013d
00000050: bb90 963e 0980 3a3e 7e2b 743e 5540 333e
00000060: c9ba 553d c8e4 193d 32e6 683f 9435 963e
00000070: aea3 3c3d fc19 673f 660d 9c3e bf9b b53e
00000080: b462 f13d 897f f03e 4e04 c83e d500 233e
00000090: 46ac 873d d1b6 823d 85b8 e53e e5fe 183d
000000a0: c52f c83e 4d2b 843f 2c19 653e a582 283e
000000b0: 677e 5f3d e731 153d 7129 063e 2cec ed3e
000000c0: 51d9 1c3e 53ec ef3d de28 733e a335 f43d
000000d0: d0ba 113d fbed f93c 111f 403e ef69 033e
000000e0: 817b 973e c57c 353d 958c e13e 524e 053e
000000f0: 2bc8 b13d b000 973e 2f90 2d3e 8db4 fe3d
0.10065278 0.0960619 0.3955043 0.123834334 0.032148987 0.068858765 0.06562754 0.11763727
0.29420543 0.27065557 0.11296852 0.08812159 1.4522458 0.2734585 1.2245425 0.21825102
0.20891166 0.189152 0.11153359 0.031706758 0.29407296 0.18212904 0.23844716 0.1750501
0.052180085 0.0375717 0.9097625 0.29337752 0.046054535 0.90274024 0.30478972 0.35470387
0.11786404 0.46972302 0.39065784 0.15918286 0.066246554 0.06382526 0.4486734 0.03735246
0.39098945 1.0325714 0.22372884 0.16456087 0.054563906 0.036424544 0.13101746 0.46469247
0.15317275 0.11714997 0.23746058 0.11924293 0.03557855 0.030508986 0.18761851 0.12833379
0.29586414 0.044308443 0.44052568 0.13018158 0.08680757 0.29492712 0.16949533 0.12436781

module_list.2.fc.weight f4 [192, 64]
00000000: c6e9 e0bb 1149 913d a823 4f3d 8bed 83bd
00000010: d5f7 0a3d 027e f93c 5336 07bd a813 663c
00000020: 48a2 d7bb 09b3 ed3c 2adb 413b e489 b2bc
00000030: 6841 2bbd 660e 223d c3e4 9c3d bf4d 10bd
00000040: 196d 6fbc cebf 37bd 589a 3d3d f17b 4f3d
00000050: 66be d0bc 5965 dabc d30c 23bd d368 acbd
00000060: 0feb d8bc 3071 18bd 414a 473c 5f8d 89bd
00000070: b290 af3c 214d a1be f317 6f3d 11d3 903c
00000080: 692c e63a 412b 703d e1bf 55bd faa5 35bd
00000090: 2de4 3e3d a41c 193b 1127 083d 5597 a73c
000000a0: 85d5 983b d97b 04bd 60ef 70bd 88c6 71bd
000000b0: 1657 77bd d8be ba3c 7f8a acbd 86ba 003d
000000c0: 8552 403d 1433 6a3c 9b86 9a3d 084e 1dbb
000000d0: 7c2a abbd c1d2 83bc fdf2 94bf eaa7 823b
000000e0: 6bf4 873d e15e 73b9 8779 11bd 2f43 603d
000000f0: 253b 6cbd bc84 35bc 104b 463d 793a 173b
00000100: 9d92 92bc afbb 42bd ef17 8ebd f847 883d
00000110: 6342 07bd 866b 6abc fa96 82bd c3e4 713d
00000120: fdd9 00bc fe0f ebbc faf0 af3c 438c 1f3d
00000130: 6e0d 30bb f979 ac3d 68aa 363d 9ab1 0b3f
00000140: 78da 8a3d 94d1 89bd 4e1a 943d 7e89 983e
00000150: 4f85 2f3b 12a4 f93e c1de ab3d 7e9a ef3c
00000160: 06a6 98bd ca6f 303d c899 583d f395 c43c
00000170: cf9e 94bb 9219 39bd 1513 693b df69 3cbd
00000180: 3d77 a1bd bb55 a8bd 7171 83bd 5521 8d3c
00000190: 7f68 50bd d762 1ebd 6ad5 883d b723 433d
000001a0: 363a 293a 5f6b 58bd b222 163c 7be0 a43c
000001b0: 92bc abbd 66d5 c1bc 27cb 9abd 8cb5 b739
000001c0: ad7e 723d 9694 ae3d 12fc 07bd 8be2 43bd
000001d0: 270a 8e3d c2e6 8d3d a01a 843d eb6d 94bd
000001e0: 6733 e03c cfbf 2ebd d3e9 873b 620a febc
000001f0: 0378 8d3d d807 b63c 145f ca3c f5fa 223c
00000200: 5059 98bd e2d2 90bd 7302 5ebd 83f6 97bd
00000210: f275 2bbc 39d1 c9bb 7744 833d 1436 523d
00000220: c5de 60ba 7362 a53d 1184 adbd 977c d03e
00000230: 0020 743d e170 423d ccdc 013d ba4a 59bd
00000240: 8180 b2bc b6e9 9dbd 275a 203d d6df 0c3c
00000250: b8ea c03c 4e8f 88bb c4a5 58bd fd54 71bd
00000260: b59a 9f3d 91ef aa3d aa41 88bd ec51 0ebd
00000270: 7a99 883d f46b 173c b3db 30bd 68e2 27bb
00000280: 179a 57bc 351d 9dbc f46a 22bc c501 9f3d
00000290: cb99 9abc 7d57 9a3d cf0b d13a eaf1 1ebc
000002a0: b53a 043d 2e81 0ebd 478d 0a3c 42b0 183d
000002b0: 336f 9d3d f79f a5bd 3bb4 aabd 145d 7d3c
000002c0: d8aa a3bb 16c2 243d a697 aa3d 331a a13d
000002d0: e573 ac3d 369e c33c 13e1 7e3d 427d 243f
000002e0: 9130 273d 34b5 8a3d 767a 8a3d de40 b6bc
000002f0: 647a ac3c 1314 4fbd 5195 18bf 8ec9 873c
00000300: c145 35bd c6fe f03c 7c60 a93d 3168 a5bd
00000310: 7501 613b b731 e2be 0893 ab3c 66c2 56bb
00000320: 5d1b 8e3d ec4b 063d 8c4d 45bc a111 1bbd
00000330: d11a 7dbd 4bca a9bd 5209 e83e 8f86 873c
00000340: 4cef 9bbd 34bb 8ebd dfff 7f3d 8ce4 243d
00000350: b45e b13c 365c af3c 95c9 a23d f24d c83c
00000360: 6a64 25bd b52a 4dbd e7fa 9f3d a17e e63b
00000370: 3b98 7fbd bb04 a63d 4c0b 89bd ee5e 583a
00000380: e3bf a9bd 5e8e 89bd c608 123d ce7c 493d
00000390: 5e82 c33c 9a20 943d 74b7 ab3c 3de3 ae3c
000003a0: dd7a 133c 12f6 5dbd 8076 3a3d f0ba 53bd
000003b0: b196 69bf aa8d adbd c194 8dbd d57f 73bd
000003c0: c922 513d 5053 61ba 4617 efb9 83e2 193d
000003d0: f259 4b3d 004d 73bd 3ce8 61bd 66a6 d73c
000003e0: 58d0 37bd 4bbb be3c 9c2b 83bc a0b5 ea3b
000003f0: fec0 7dbb fed3 973c bfc5 74bd 38d4 72bc
-0.0068638055 0.070940144 0.050571114 -0.06441792 0.033927757 0.030455593 -0.033010792 0.014042772
-0.0065806247 0.029016035 0.0029580095 -0.021794267 -0.041810423 0.039564513 0.0766082 -0.035230394
-0.014613413 -0.044860654 0.04628977 0.05065531 -0.025481414 -0.026659654 -0.039807152 -0.08418431
-0.026479272 -0.03721732 0.0121637 -0.067164175 0.0214313 -0.31504157 0.05837245 0.01767877
0.0017560843 0.058635 -0.052184943 -0.04434774 0.046604324 0.0023363018 0.03324038 0.020457903
0.0046641254 -0.032344673 -0.058822036 -0.059027225 -0.060385786 0.02279608 -0.084248535 0.031427883
0.046953697 0.014294405 0.07545205 -0.002400281 -0.083577126 -0.016091706 -1.1636654 0.003987302
0.06638416 -0.00023209631 -0.035516288 0.05475157 -0.057673592 -0.01107901 0.04841143 0.0023075624
-0.017892176 -0.04754227 -0.06938159 0.06654352 -0.033022296 -0.014307862 -0.06376453 0.059056055
-0.007864472 -0.02869415 0.021477211 0.038952123 -0.0026863473 0.08421702 0.044596106 0.54567873
0.06779951 -0.06729427 0.0723158 0.29792398 0.002678234 0.48757988 0.08392096 0.029248472
-0.074535415 0.04307536 0.052881032 0.023997283 -0.004535533 -0.0451904 0.0035564352 -0.045999404
-0.07884071 -0.08219477 -0.064181216 0.017227808 -0.050880905 -0.03866848 0.066813305 0.047641482
0.00064555125 -0.052836772 0.009163545 0.020126572 -0.08385576 -0.023661327 -0.075582795 0.00035039743
0.05920284 0.08524434 -0.033199377 -0.04782347 0.0693553 0.06928779 0.06450391 -0.07247528
0.02736826 -0.04266339 0.004147747 -0.03101081 0.06907656 0.022220537 0.02470354 0.009947528
-0.0743891 -0.07071473 -0.054201555 -0.07420065 -0.010465132 -0.0061589745 0.06409543 0.051321104
-0.0008578117 0.08075418 -0.08472455 0.40720055 0.05960083 0.04747093 0.03170471 -0.05304978
-0.021789791 -0.077105924 0.039148476 0.0085982885 0.023549423 -0.004167474 -0.05289246 -0.05891894
0.0779318 0.08346475 -0.066531494 -0.034746096 0.06669898 0.009242047 -0.04317827 -0.0025617126
-0.0131592965 -0.019178966 -0.009913195 0.077640094 -0.018872162 0.07536218 0.0015948954 -0.0097012315
0.03228255 -0.034791164 0.008456535 0.037277468 0.07687225 -0.080871515 -0.083351575 0.015464086
-0.0049947314 0.040224157 0.08329706 0.07866325 0.08420543 0.023879152 0.062226366 0.6425363
0.0408178 0.06772843 0.06761639 -0.022247728 0.021054454 -0.050556254 -0.5960284 0.016575601
-0.044255976 0.02941836 0.08270356 -0.080765136 0.0034333144 -0.44178554 0.020944133 -0.003276968
0.06938813 0.03278725 -0.012042414 -0.03785861 -0.061793152 -0.082905374 0.4531961 0.016543655
-0.07614002 -0.069693 0.062499877 0.04025702 0.021651603 0.021406274 0.07948605 0.02445123
-0.040378965 -0.050089557 0.07811528 0.0070341383 -0.062401038 0.08106371 -0.06691608 0.0008253892
-0.082885526 -0.067166075 0.0356529 0.04919129 0.023865875 0.07232781 0.0209615 0.02134859
0.009001461 -0.05418975 0.045523167 -0.05169195 -0.9124556 -0.08474286 -0.06913138 -0.059448082
0.051058564 -0.00085954834 -0.00045602972 0.037569534 0.049646325 -0.059399605 -0.055153117 0.026324462
-0.044876426 0.023282668 -0.016012006 0.0071627647 -0.0038719769 0.018533703 -0.059758898 -0.014821105
