examples/jet_substructure/single_model_results/jsc_xs/best_accuracy.pth (torch, 198893 bytes, 99 tensors)

module_list.0.mask f4 [9, 2]
000000 00 00 80 3f 00 00 00 00 00 00 00 00 00 00 80 3f
       1.0 0.0 0.0 1.0
000010 00 00 00 40 00 00 00 00 00 00 80 3f 00 00 80 3f
       2.0 0.0 1.0 1.0
000020 00 00 00 00 00 00 00 40 00 00 40 40 00 00 00 00
       0.0 2.0 3.0 0.0
000030 00 00 00 40 00 00 80 3f 00 00 80 3f 00 00 00 40
       2.0 1.0 1.0 2.0
000040 00 00 00 00 00 00 40 40
       0.0 3.0

module_list.0.input_quant.pre_transforms.1.weight f4 [16]
000000 45 12 02 3f ce 8e 26 3f 21 8f 24 3f e0 3a 3f 40
       0.5080913 0.6506165 0.642809 2.9879684
000010 3a 9b 63 3f 74 98 32 3f 76 09 d7 3e fc 05 0f 3f
       0.8890873 0.69763875 0.41999406 0.55868506
000020 7e d6 ec 3e b3 f1 07 3f 19 09 0c 3f 07 0e 29 3f
       0.46257395 0.5310318 0.5470138 0.6603703
000030 7f af 10 3f 5c 19 13 3f ea 72 68 3f 5a 2e ef 3e
       0.56517786 0.5746057 0.90800345 0.4671505

module_list.0.input_quant.pre_transforms.1.bias f4 [16]
000000 2b 34 28 be 0f 9b d0 3e 93 ea 16 be 6b 30 4e 3e
       -0.1642615 0.407433 -0.1473792 0.20135657
000010 8d ad af 3d bb db fc be 61 23 d3 bd 07 5d 41 be
       0.08578024 -0.4938639 -0.10309482 -0.18883143
000020 58 f9 b5 be ee 59 ed 3d 96 98 b9 3d 55 5f 4e 3c
       -0.35541797 0.11589418 0.090623066 0.012595971
000030 4d a8 12 3e 59 5b 05 3a bc b4 54 3e e8 d3 99 be
       0.14322014 0.0005087159 0.2077207 -0.30044484

module_list.0.input_quant.pre_transforms.1.running_mean f4 [16]
000000 43 6a 12 bc 87 b0 37 3c 6c ca a7 3b 0a 43 b4 3b
       -0.008936468 0.011211521 0.005120566 0.0055011557
000010 af c4 40 3c 3d 88 33 3c 08 01 47 3c 9f 83 f2 3b
       0.011765643 0.010957775 0.012146242 0.0074009444
000020 a4 ba 46 3c 96 12 06 3c 49 14 d1 3b f7 7e 4e 3b
       0.0121294595 0.008183142 0.006380592 0.0031508782
000030 04 d6 0e 3c ac c1 62 3b d4 18 c0 3b 07 27 b5 3b
       0.0087180175 0.00346003 0.0058623347 0.005528334

module_list.0.input_quant.pre_transforms.1.running_var f4 [16]
000000 f9 22 80 3f 45 7f 7c 3f af b4 80 3f 5a 6e 80 3f
       1.0010673 0.986317 1.005514 1.0033677
000010 9b 0c 82 3f ed f9 82 3f 87 54 7f 3f 10 26 7f 3f
       1.0160097 1.0232521 0.99738353 0.99667454
000020 1a 70 7f 3f cd 6e 7e 3f a4 d8 7e 3f 8b 7b 7f 3f
       0.9978043 0.9938782 0.9954932 0.99797887
000030 5e 96 7d 3f 89 35 7e 3f ed 1d 80 3f 9f 1e 80 3f
       0.9905757 0.9930044 1.0009133 1.0009345

module_list.0.fc.weight f4 [128, 9]
000000 15 62 d6 bf 4a 0a 14 3f 59 d3 9e 3e d7 f7 92 3d
       -1.6748682 0.578282 0.3102062 0.07176178
000010 b3 38 ab 3d e7 76 86 3e 1a 92 72 bc e3 a9 d2 be
       0.08360424 0.2626259 -0.014805341 -0.41145238
000020 50 ad a1 be 68 7c 5e be 8e 99 7d 3e 76 40 1f bd
       -0.3157754 -0.21727145 0.24765608 -0.038879834
000030 62 6e 8b 3e c6 30 5d be a0 da 8b be 56 b8 35 bc
       0.27232653 -0.21600637 -0.27315235 -0.011091312
000040 d3 3d 79 be c0 fa 7c be b9 b8 16 bf 76 cf 7f 3f
       -0.2433999 -0.24705029 -0.58875614 0.99925935
000050 c1 44 a8 3e 05 f4 d8 3c a0 ab 99 be 27 6d 16 bf
       0.32864955 0.026483545 -0.30013752 -0.58760303
000060 99 9e cd bd 66 bd 71 be 60 ca de bc 5c 4a ce 3e
       -0.10040016 -0.23607406 -0.02719611 0.40291107
000070 85 86 84 be d1 11 99 3f 0a b8 14 bf 10 95 c6 3b
       -0.2588388 1.1958562 -0.5809332 0.00606025
000080 86 d3 50 bf 22 5b ce 3e 22 27 e0 3e 81 13 94 bb
       -0.8157276 0.40303904 0.43779856 -0.0045189266
000090 8b 1c fc bd 6f a8 85 be 63 fc 1a be ea f4 97 3e
       -0.12310132 -0.26105067 -0.1513534 0.29679042
0000a0 76 0d 30 3d 73 c5 0b 3e d6 22 63 bc 33 c4 03 3e
       0.042981587 0.1364954 -0.013863286 0.12867813
0000b0 bf 2e a2 be db 07 93 3e 7c b1 3d bf f0 c9 04 bc
       -0.3167629 0.2871693 -0.74098945 -0.008104786
0000c0 ba 69 0b 3f bb ee a4 be 34 58 91 be 43 3c 9f 3e
       0.544582 -0.32213387 -0.28387606 0.31100664
0000d0 34 44 81 bf 38 52 40 3f e7 23 58 be 5a 3b aa bf
       -1.0098939 0.75125456 -0.21107446 -1.3299363
0000e0 43 b7 38 3e b7 75 c8 3e 99 66 cd be 4d 23 6f be
       0.18038659 0.3915231 -0.40117338 -0.2335331
0000f0 c4 4e e0 3b 2f 9d fa 3e 6d 13 e5 3e f1 11 88 bf
       0.006845327 0.48948047 0.44741383 -1.0630475
000100 77 a7 1b 3f 65 fe 8c 3e 85 c6 ba 3e c3 25 b0 be
       0.60802406 0.27537838 0.36479583 -0.3440381
000110 1f f4 96 3c 18 59 23 bf 68 5a 57 3e b3 8f 8a 3e
       0.018426953 -0.6380782 0.21030581 0.2706276
000120 33 33 a2 be 6c 92 98 3f 9b dc 11 3f f2 26 de be
       -0.31679687 1.1919684 0.5697724 -0.43389088
000130 db 83 c4 3e 08 e0 36 3d 06 1b 3d bd 66 bc d8 bd
       0.38381848 0.044647247 -0.04616835 -0.10582809
000140 28 be 11 bf ff e0 09 3f 6c e1 da 3e df ac 13 3d
       -0.5693078 0.5385894 0.42750108 0.036053535
000150 0a 78 99 bf a0 aa 18 bf b3 8d d2 3e 5d b9 4e be
       -1.1989758 -0.59635353 0.41123733 -0.20187898
000160 a3 15 bc bc 7c 9f bf 3e 0e 8d 76 bf 43 1f 31 3f
       -0.022959536 0.37426364 -0.9630898 0.69188327
000170 f7 ad a5 be 7b ad 93 3e 87 9d 31 3d f3 6c c1 3c
       -0.32359287 0.28843293 0.04336312 0.023611521
000180 1a 9a e9 be 53 13 a2 be dc 9e 13 3f 22 ba d2 be
       -0.45625383 -0.31655368 0.57664275 -0.41157633
000190 e0 d1 5f bf 9c 2e 61 bf 76 15 05 bf 32 da e8 bc
       -0.8742962 -0.87961745 -0.5198587 -0.028424356
0001a0 b4 74 b5 3b 1d 2f 18 3f 43 3c 0c 3f 22 2d 27 bb
       0.0055375937 0.5944689 0.5477945 -0.002550908
0001b0 f6 c9 71 bd 56 ca da 3d 2b 53 4f 3d ac 94 9e 3e
       -0.059030496 0.10683124 0.050616425 0.30972803
0001c0 78 e8 a8 3e 78 80 a3 3e e8 55 a6 be 76 6f 40 3e
       0.3298986 0.3193395 -0.32487416 0.18792519
0001d0 c8 f8 65 3e f4 bc 90 be e0 86 50 3f db 15 d4 3e
       0.22458184 -0.2826916 0.814558 0.41422924
0001e0 c8 f9 46 be 07 c4 e1 be 7f 59 63 bf 25 42 04 bf
       -0.19431221 -0.4409487 -0.88808435 -0.5166343
0001f0 42 e3 d9 3d b0 a2 4e be e1 58 77 bf 45 4d 25 3f
       0.10639049 -0.20179248 -0.96619993 0.6457103
000200 78 44 00 3f 84 00 02 3e 29 01 c5 be 76 b3 a3 be
       0.50104475 0.12695509 -0.38477448 -0.31972855
000210 d2 d8 28 3e 85 41 03 be dd 69 6b 3e 9b 5f 8a 3d
       0.1648896 -0.12817962 0.22989602 0.067565165
000220 52 ec 99 be 80 ad 14 3e 76 9e 02 bd 9b 6b aa bd
       -0.3006311 0.1451931 -0.0318894 -0.08321305
000230 fb 74 ef 3d c8 64 60 3e db c6 d5 bd 7b 3a 6a be
       0.11692234 0.21913445 -0.10438319 -0.22873871
000240 bf 9e f0 be 7b f2 ed 3e 67 1f 98 3c a0 a6 c3 be
       -0.46996114 0.4647406 0.018569661 -0.38213062
000250 4a d8 0e bf cc 5b a3 bf c0 91 a3 be ac 0d 09 be
       -0.5579878 -1.2762389 -0.31947136 -0.13384122
000260 23 03 46 3e 47 bd 50 bf 3e 4e 03 3f 76 c2 5f 3d
       0.19337134 -0.81538814 0.51291263 0.05462881
000270 f0 a4 1e be 75 c8 4c bf 14 c3 ea bd 16 a9 da be
       -0.15492606 -0.79993373 -0.114629894 -0.42707127
000280 f7 80 84 3f 09 a7 e5 3e 00 58 e0 bf e9 11 78 be
       1.0351857 0.44854 -1.7526855 -0.24225582
000290 07 df 47 3f 94 d2 93 3e 56 ad 87 3e 32 76 0e 3f
       0.7807469 0.28871596 0.26499432 0.556491
0002a0 f1 b9 0e 3f de 1f b7 3e 5e ae 05 3d 65 16 31 bf
       0.55752474 0.357665 0.032636993 -0.69174796
0002b0 84 19 51 3d 29 31 1c bf 6d 29 34 be c2 f4 28 bd
       0.051049724 -0.6101251 -0.17593928 -0.041249044
0002c0 1b 2e 77 3f ba f0 9b 3e 1f 06 10 bd b3 ee 1f be
       0.96554726 0.30457097 -0.035162088 -0.156184
0002d0 cb 7b 9f bd 46 58 b7 bd 2f 32 96 be f8 ee 65 be
       -0.077872835 -0.08952384 -0.29335162 -0.2245444
0002e0 eb 0e 17 be 33 17 78 be 20 c5 14 3e 56 4d 8b 3e
       -0.14751785 -0.242276 0.14528322 0.2720744
0002f0 fe 30 2f be c6 38 49 bf 78 07 08 3f 59 34 ab 3e
       -0.17108533 -0.78602254 0.53136396 0.33438376
000300 e2 e4 e5 be 4b 63 b5 bd fe 60 58 bf 28 ef 3b 3e
       -0.44901186 -0.08856829 -0.84523 0.1835295
000310 c1 2f 4a 3f f8 7e 94 be 22 ba 83 be a6 10 64 3e
       0.78979117 -0.2900312 -0.25727946 0.22271976
000320 f6 22 9b bd 80 96 08 3c 46 d3 36 3e 40 dd d2 3c
       -0.07575028 0.008336663 0.17854032 0.025740266
000330 7a 9d 99 be 1e 2e 40 be ab c5 b0 3d a6 56 93 3f
       -0.30002958 -0.18767592 0.08631452 1.1510818
000340 0b 10 0a bf 00 05 53 3f 1e c4 e3 3d 1a 6f 3d 3d
       -0.5393073 0.82429504 0.11121391 0.046248533
000350 f3 1c ad 3f 2d 76 07 3f af 36 ce bd 1d 77 cc 3e
       1.352446 0.52914697 -0.10069024 0.39934626
000360 9c 66 b9 bf af ec c3 be 0b 48 e1 3e 3e d5 64 3e
       -1.4484439 -0.38266513 0.44000277 0.2234697
000370 eb ae be be bc 49 0f 3e 2b 4e 5b 3d 46 ca dd be
       -0.37242827 0.13992971 0.053541344 -0.43318385
000380 cb 6f a3 3e 24 51 9d 3e d7 1d 42 3e bd 68 be 3f
       0.3192123 0.30725968 0.18956695 1.4875714
000390 8b 33 dd be 62 c8 7e be 21 3c a3 bf d8 be 60 3e
       -0.43203387 -0.24881127 -1.2752725 0.21947801
0003a0 fb 41 63 be 99 c2 98 3d 83 b3 48 be 78 dc 6d 3e
       -0.22193138 0.074589916 -0.19599728 0.23228633
0003b0 92 94 97 be 9e ea 27 be 20 5a dc bd 6e 73 80 be
       -0.29605538 -0.16398093 -0.107593775 -0.25088066
0003c0 6c 0c 8d be 80 f2 2d 3c 24 1c 83 be 5b cf 3f 3e
       -0.2754854 0.010616899 -0.25607407 0.18731444
0003d0 5b 0d e4 bd 40 d1 1a be ee 17 4d be d0 76 83 3e
       -0.1113536 -0.15118885 -0.2002866 0.25676584
0003e0 7e ef 70 3e 40 2c 5f bd bb 86 f2 bd 92 02 aa 3e
       0.23528859 -0.05448556 -0.11842104 0.33205086
0003f0 f9 e3 85 be cb 40 2e bf e2 26 5c bf ee be b3 bd
       -0.26150492 -0.68067616 -0.8599683 -0.08776651

module_list.0.fc.bias f4 [128]
000000 90 bf 94 be 0c 8d fd bd 47 7e a5 3c a5 83 68 3e
       -0.290524 -0.12380418 0.020201815 0.22706468
000010 a4 cb b8 3d e7 49 25 3e 19 09 e0 b9 9b 49 45 be
       0.09023216 0.16141473 -0.00042731388 -0.1926636
000020 4f cc 90 bc 92 9c 96 bd cf 7e 07 3e b6 5b e1 bd
       -0.017675547 -0.07354082 0.13231967 -0.110038206
000030 44 b7 d6 3d 20 e2 46 be 27 b7 2c 3e 90 9c a3 3c
       0.10484174 -0.19422197 0.16866742 0.019972116
000040 9c 83 37 3d 90 e3 ae 3d 7d 23 82 3e 1e da 07 3e
       0.044803247 0.08539498 0.254177 0.13266799
000050 f4 a9 f5 bd 28 a5 31 3e 96 46 79 be 97 d1 1c be
       -0.119953066 0.17348158 -0.24343333 -0.15314327
000060 37 63 cc bd f6 19 53 3d 92 02 02 3e 72 95 57 3e
       -0.09979861 0.05153843 0.12696293 0.21053103
000070 fd 4a 1a bd 73 c5 03 3e 45 4e cc bc 87 88 a3 3e
       -0.03766917 0.1286829 -0.024939666 0.319401
000080 02 2c 10 be ff df 19 3c 66 9b 02 be 6d e9 23 3c
       -0.14079288 0.009391784 -0.12754592 0.0100043835
000090 95 ce b2 bd 3a 88 0b 3d 91 62 05 be a9 32 60 be
       -0.08730809 0.034065463 -0.13025881 -0.21894325
0000a0 84 4e b8 3c 1a 28 95 3c 7c a6 ea bd 88 cf 04 be
       0.022498377 0.018207598 -0.114575356 -0.12969792
0000b0 54 61 2f 3e a2 ce 21 3e 28 eb a6 bd 50 ff 34 be
       0.17126971 0.1580148 -0.08150321 -0.17675519
0000c0 18 2e bf 3d 45 23 87 be 39 e9 07 3e ea bb 85 be
       0.093349636 -0.26394096 0.13272561 -0.2611993
0000d0 67 9a 2b be c2 27 08 be 86 73 db 3d 2f 1f d4 3d
       -0.16758119 -0.13296416 0.10715394 0.1035751
0000e0 60 57 b5 3d 2c 75 63 3e eb 3a 7f 3e f6 b4 c6 3d
       0.08854556 0.22212666 0.24924819 0.09702484
0000f0 43 9e 18 3d 50 90 2f 3e ca 3f 7e be 16 f2 1f be
       0.037260305 0.17144895 -0.24829021 -0.15619692
000100 a0 74 88 be 76 68 0b bd b5 13 ce 3d 40 b7 eb bd
       -0.26651478 -0.03403517 0.100623526 -0.115095615
000110 80 61 38 be f4 80 f3 bd 69 9b c0 bc ed 1b 1a 3c
       -0.18005943 -0.1188983 -0.023511605 0.009406072
000120 c8 4f 0c be cc 1f 17 3e 92 01 f8 bd c8 b1 e1 bd
       -0.13702309 0.14758223 -0.121096745 -0.11020237
000130 dc 1a b9 bd 9c 10 f3 bd 9a c1 1f 3e f2 59 e8 bd
       -0.09038326 -0.11868402 0.15601197 -0.11345281
000140 e0 4a c0 bd 60 30 15 3e f9 21 fc 3d cf dd 0f be
       -0.09389281 0.14569235 0.12311167 -0.14049457
000150 5d 29 06 be df 22 af 3a 00 48 8a 3a 6a 6d 00 be
       -0.13101716 0.0013361833 0.0010550022 -0.12541738
000160 5f 14 be bd 72 b9 23 3e 47 b2 8d be 81 8a 28 be
       -0.09281229 0.1598871 -0.27675077 -0.16459085
000170 0d 73 f5 bd e0 a3 34 3e 52 c3 15 be 05 de 76 bd
       -0.11984835 0.17640638 -0.1462529 -0.060270328
000180 92 ed 9f 3e 0a 18 b2 be f6 cd a1 3c b0 a7 e3 bd
       0.3123594 -0.34783965 0.01975153 -0.11115968
000190 39 9d 40 3d 10 4b cf bd ac 6d e3 bd 0e cb 18 bf
       0.04702494 -0.10121739 -0.111049026 -0.59684837
0001a0 6a 8b ab bd 77 3a e4 bc 68 f0 30 be 16 ad f6 bd
       -0.083762005 -0.02785991 -0.17279208 -0.12044732
0001b0 e9 54 f6 3d e0 6c cd be dd 54 36 be 3b d0 63 3e
       0.12027914 -0.40122128 -0.1780581 0.22247402
0001c0 5a b1 4a 3e b2 9d ef bd 81 51 f0 3c 88 df bc 3b
       0.19794217 -0.117 0.02933574 0.0057639517
0001d0 31 da 34 be 46 4f a6 bc 00 5d 20 bd 32 9e e0 3d
       -0.17661358 -0.020301472 -0.03915119 0.10967673
0001e0 48 54 5e 3d f8 2d 76 3e 83 ef 85 3d 84 dd 70 3e
       0.054279596 0.24040973 0.06539824 0.23522002
0001f0 2d 79 46 3e e4 78 60 bc 52 32 d4 3d e5 66 2b be
       0.19382162 -0.013700698 0.1036116 -0.1673847

module_list.0.output_quant.pre_transforms.0.weight f4 [128]
000000 68 07 94 3e 00 00 80 3f 5e 7b d8 3e c2 a2 85 3f
       0.289119 1.0 0.42281622 1.0440295
000010 00 00 80 3f 8d e6 19 3f 3f 0a 2d 3f f4 b6 21 3f
       1.0 0.6011742 0.6759376 0.6316979
000020 17 85 b4 3e 9c 21 bf 3e dd 9b 6c 3f e1 a6 be 3e
       0.3525779 0.3733033 0.9242533 0.37236694
000030 00 00 80 3f ed 55 d2 3f af 0a c6 3e 00 00 80 3f
       1.0 1.6432472 0.38680026 1.0
000040 44 ad 71 3f 7c 3f 95 3f 4a d4 48 3f 8f 22 e6 3e
       0.9440501 1.1659999 0.7844893 0.4494824
000050 00 00 80 3f 60 ca f0 3e 00 00 80 3f 1b af 05 3f
       1.0 0.470294 1.0 0.52220315
000060 ed f3 11 3f 59 0a ab 3f 00 00 80 3f 00 00 80 3f
       0.57012826 1.3362533 1.0 1.0
000070 1a 3c 27 3f 60 6a d5 3e ef 51 a1 3e ee 27 50 3f
       0.6532608 0.4168272 0.31507823 0.8131093
000080 00 00 80 3f 6c 16 27 3f 4c 88 97 3f c0 fd fa 3e
       1.0 0.6526859 1.183847 0.4902172
000090 4d 7c cf 3e 05 6b cc 3e a2 0b c4 3e d3 75 ee 3e
       0.4052452 0.399254 0.38290125 0.46574268
0000a0 b7 54 62 3f cb a3 6a 3f 47 2c 7c 3f 00 00 80 3f
       0.88410515 0.9165618 0.9850506 1.0
0000b0 00 00 80 3f 79 1f f4 3e df 9a de 3f 94 d9 ca 3e
       1.0 0.47680262 1.7391013 0.39619124
0000c0 00 00 80 3f ba eb ca 3e ce ee 1f 3f d1 4d e0 3e
       1.0 0.3963297 0.6247376 0.4380937
0000d0 6c 57 2c 3f 00 00 80 3f 83 d1 0f 40 20 3c c7 3e
       0.67320895 1.0 2.2471626 0.3891306
0000e0 aa d1 53 40 21 71 1f 3f 95 6c 5e 3f 46 c4 ce 3f
       3.3096719 0.62281996 0.86884433 1.6153648
0000f0 8c 05 f6 3e 00 00 80 3f fa b8 bf 3f 24 d7 23 3f
       0.48051107 1.0 1.4978325 0.64000154
000100 2b 18 da 3e 88 5d 9c 3f b6 5e bc 3e 00 00 80 3f
       0.42596564 1.2216043 0.3679101 1.0
000110 e5 15 2c 3f 19 d3 d4 3f 39 fc 90 3f cd 95 3d 3f
       0.6722091 1.6626922 1.1326972 0.740567
000120 f2 a7 f4 3e 6c 84 b4 3f 92 fe 90 3f 00 00 80 3f
       0.47784382 1.4102912 1.1327689 1.0
000130 00 00 80 3f 00 00 80 3f 00 00 80 3f 99 09 05 3f
       1.0 1.0 1.0 0.5196777
000140 00 00 80 3f 48 83 f5 3f d5 ed ce 3e 58 9e b7 3e
       1.0 1.9180689 0.40415826 0.35862994
000150 54 1f 6d 3f 46 9c 1d 3f 00 00 80 3f 00 00 80 3f
       0.9262593 0.6156658 1.0 1.0
000160 43 91 b0 3e 20 a8 51 3f 8f 09 50 3f 9b c1 d8 3e
       0.34485826 0.81897163 0.81264585 0.4233521
000170 8a fb 06 3f 00 00 80 3f be c9 bb 3e 8d 63 f7 3e
       0.5272757 1.0 0.36677355 0.4831814
000180 1c 66 fd 3e 5b 8d 85 3f 8a 35 9b 3e 00 00 80 3f
       0.49491966 1.0433763 0.30314285 1.0
000190 b4 9a ee 3e 00 00 80 3f eb b3 c7 3e b3 93 ef 3f
       0.46602404 1.0 0.39004454 1.8716949
0001a0 c7 c6 d5 3e 50 7b 09 3f c1 7a 0f 3f 8c ff a8 3f
       0.41753218 0.53703785 0.5604668 1.3202987
0001b0 d5 da 5d 3f 39 f2 1a 3f 51 19 95 3f 5d 58 d1 3f
       0.86662036 0.6052585 1.1648351 1.6355091
0001c0 00 00 80 3f 46 56 00 40 de 3c 0c 3f d4 f2 e1 3e
       1.0 2.0052657 0.54780376 0.44130576
0001d0 a1 6e fa 3e 3b 0b 5c 3f 00 00 80 3f 91 27 89 3f
       0.48912528 0.85954636 1.0 1.07152
0001e0 00 00 80 3f 00 00 80 3f 51 62 eb 3e 00 00 80 3f
       1.0 1.0 0.45973447 1.0
0001f0 73 7b c7 3e 00 c3 39 3f c2 3e 06 3f 09 52 7f 3f
       0.38961372 0.7256317 0.5243951 0.9973455

module_list.0.output_quant.pre_transforms.0.bias f4 [128]
000000 68 ff 14 3f 00 00 00 00 57 1f 0a 3f be 5a 8b 3f
       0.5820222 0.0 0.5395407 1.0887067
000010 00 00 00 00 43 49 51 3f aa ad 85 3e f2 49 40 3f
       0.0 0.81752414 0.26109058 0.7511283
000020 65 ee 8f 3e a0 44 4c 3f f9 22 2b bc ef 84 2a 3f
       0.28111568 0.79792213 -0.01044535 0.6660909
000030 00 00 00 00 1d 2c 39 3f 83 f2 2e 3f 00 00 00 00
       0.0 0.72332937 0.68338794 0.0
000040 78 0d 36 3f 99 53 08 bf 40 ff 65 3e 15 d9 37 3f
       0.711143 -0.5325256 0.22460651 0.71815616
000050 00 00 00 00 ea 72 42 3f 00 00 00 00 0b 80 04 3f
       0.0 0.75956595 0.0 0.5175788
000060 64 12 37 3f 7c d2 64 3d 00 00 00 00 00 00 00 00
       0.71512437 0.055864796 0.0 0.0
000070 0e 75 c0 3e 7d 2f 6a 3e df 5b 09 3f 6d 6e 92 3e
       0.37589306 0.22869678 0.5365581 0.28599873
000080 00 00 00 00 43 70 ed 3e 09 dd 84 be ce b5 12 3f
       0.0 0.4637471 -0.25949886 0.5730866
000090 46 65 9c 3e a5 d0 3d 3f 2d 02 18 bf 03 60 83 3e
       0.30546016 0.7414649 -0.5937832 0.2565919
0000a0 93 eb 11 3d 01 73 9c 3e 4c 1f 43 3f 00 00 00 00
       0.03562505 0.3055649 0.7621963 0.0
0000b0 00 00 00 00 4f 06 29 3f 67 1c 95 3f 3b 0c 0a 3f
       0.0 0.6602525 1.1649293 0.5392491
0000c0 00 00 00 00 55 5e ba 3e 82 5e 92 3d 4b db 20 3f
       0.0 0.36400095 0.07146932 0.62834615
0000d0 01 13 94 3e 00 00 00 00 6b 6a ed bf af 1b 22 3f
       0.2892075 0.0 -1.8548101 0.6332349
0000e0 2c c2 99 3e 55 e0 53 3e 21 0c f9 3b 22 5f 08 be
       0.30030954 0.20691045 0.007600323 -0.1331754
0000f0 47 09 b3 3e 00 00 00 00 23 fd 98 3f 7f af 43 3f
       0.34968016 0.0 1.1952251 0.7643966
000100 2a 04 3a 3f 1e 8b 87 be 4f 70 fb 3e 00 00 00 00
       0.72662604 -0.26473325 0.49109122 0.0
000110 ed ed 00 bd a3 bd 89 3d 3d ec 23 be 26 99 29 3f
       -0.031476904 0.067256235 -0.16008087 0.6624931
000120 78 20 13 3f d2 f8 2e bf 60 b1 09 3f 00 00 00 00
       0.5747142 -0.6834842 0.5378628 0.0
000130 00 00 00 00 00 00 00 00 00 00 00 00 3c 71 1c 3e
       0.0 0.0 0.0 0.1527757
000140 00 00 00 00 da 32 b9 3e ff e7 1f 3f cb c8 b7 3e
       0.0 0.3617161 0.6246337 0.3589538
000150 90 2a aa be fa 24 26 3e 00 00 00 00 00 00 00 00
       -0.33235598 0.16225043 0.0 0.0
000160 2c 55 32 3f c3 e1 41 be 6d 82 25 3e ca f6 a9 3e
       0.6966121 -0.18933778 0.16163035 0.33196098
000170 bf 9a be 3e 00 00 00 00 8a 34 f2 3e 9d fc 22 3e
       0.37227437 0.0 0.4730571 0.15916677
000180 05 14 3c 3e 1f 3e a6 3d f0 6d 30 3f 00 00 00 00
       0.18367012 0.081173174 0.6891775 0.0
000190 ee 34 e2 3e 00 00 00 00 f7 44 f1 3e 30 20 97 bf
       0.44181007 0.0 0.47122929 -1.1806698
0001a0 06 e4 15 3f 84 1f 0c 3f 2f 18 31 3f 51 b3 85 be
       0.5855106 0.5473559 0.69177526 -0.2611337
0001b0 ec a4 7c be 0c ec b4 3e 8a 21 42 bf 57 6c 29 be
       -0.24672288 0.3533634 -0.75832427 -0.16545235
0001c0 00 00 00 00 a7 e6 33 3f 49 3d fb 3e 20 fb c2 3e
       0.0 0.7027382 0.49070194 0.38082218
0001d0 71 82 df 3e 3c cd e1 3e 00 00 00 00 82 bd ed bd
       0.43654206 0.44101894 0.0 -0.11608411
0001e0 00 00 00 00 00 00 00 00 71 ee 5a 3f 00 00 00 00
       0.0 0.0 0.8552008 0.0
0001f0 ff ab aa 3d 12 88 ac 3f cf 6e 57 3f 68 f3 ab 3d
       0.08333587 1.3479025 0.84153455 0.083960354

module_list.0.output_quant.pre_transforms.0.running_mean f4 [128]
000000 77 f0 1f 3f b1 84 66 3e f4 4c de 3e e9 7a 5a 3f
       0.62476295 0.22511555 0.43418086 0.85343796
000010 d2 fd 83 3d ae 86 3f 3e b2 56 07 be c1 de 9b bd
       0.06444897 0.1870372 -0.13216665 -0.07610846
000020 71 2a 80 3c ef a9 09 bf 04 7a 64 be a5 cd da be
       0.015645238 -0.53774923 -0.2231217 -0.4273502
000030 07 69 08 3e c7 60 15 3f b4 e1 18 3e b8 f6 70 3e
       0.13321315 0.58350796 0.14929849 0.23531616
000040 e5 df 51 3f ef 9d a6 bd 10 97 85 3f e4 ec f4 be
       0.8198226 -0.08135592 1.0436726 -0.47836983
000050 b2 68 95 be 35 6f 14 3f b0 89 e9 bd 84 14 39 3f
       -0.2918144 0.5798219 -0.11403215 0.7229693
000060 48 06 aa 3e 1b 6f 29 3f be ce 90 3c e1 33 00 be
       0.33207917 0.6618516 0.017676707 -0.1251979
000070 46 5f 60 3e 61 d5 b3 bd 1b f5 8e be 73 78 92 bc
       0.21911344 -0.08780933 -0.27921376 -0.0178797
000080 a4 24 cd bd 7e aa 52 3f b2 44 a1 bd 4e db 46 3f
       -0.10016754 0.822914 -0.07874431 0.7767838
000090 a1 36 47 bf 92 36 83 3d a5 8f 25 be 71 ad 3b be
       -0.7781773 0.06406893 -0.16168077 -0.18327881
0000a0 cf b3 ac be 31 e2 ef 3e 9c de a7 3d 61 db 72 be
       -0.33730933 0.46852258 0.08196756 -0.23716499
0000b0 3a 25 b3 3e e9 c2 3e 3f c5 e5 56 3d c7 ec 36 3e
       0.3498934 0.7451616 0.05246522 0.17863761
0000c0 27 8e da bd 2e 54 5a bf 5b 26 bc 3d 58 f7 23 be
       -0.10671645 -0.852847 0.09187003 -0.16012323
0000d0 2e 18 0c be 84 86 8b 3d aa fd ad bf 7f 9f 7b be
       -0.13681099 0.06812766 -1.3593037 -0.24572562
0000e0 36 3e 14 3f 47 7f b9 3d 84 d4 a9 be e2 59 18 40
       0.57907426 0.09057479 -0.3316995 2.380486
0000f0 01 a4 c0 bc f7 38 f5 3d f2 ea 6f be 8e 12 bd 3d
       -0.023515703 0.11973756 -0.23429468 0.09232055
000100 58 1f 67 be f4 73 ce be 41 42 cc 3d ad ef 08 be
       -0.2257055 -0.4032284 0.099735744 -0.13372679
000110 8f d0 87 3e 28 d9 bf be ef a3 2c 3d 37 f3 2a bf
       0.26526305 -0.37470365 0.042148527 -0.66777366
000120 83 24 39 3f 01 e5 92 3e a6 3f 2c be f9 6b 4d be
       0.7232134 0.2869034 -0.16821155 -0.2006072
000130 79 81 87 3c a1 19 81 3d 54 24 a4 3d 9f d1 36 3d
       0.01654123 0.063037165 0.080147415 0.044633504
000140 60 7b 9c be 13 68 2e 3e f1 a5 0f 3f 88 c1 58 bf
       -0.30562878 0.17031889 0.5611258 -0.84670305
000150 4c fb 26 be 7c 89 67 bf 40 51 bf 3d b9 e9 a6 be
       -0.163068 -0.9044416 0.09341669 -0.3260019
000160 ea 52 b8 3e 27 02 18 3e 2d 05 9e be 5f 7b 5c be
       0.36000758 0.14844571 -0.30863324 -0.21531437
000170 2c da 1e be ff db ad 3d db c4 f7 be 2d 0b b2 be
       -0.15512913 0.084892265 -0.48392376 -0.3477415
000180 f8 41 8a be a5 91 a3 bf 57 a0 6b bd 05 fe 92 bd
       -0.27003455 -1.2778822 -0.05752596 -0.07177357
000190 5d 6a 04 bf 6c ca 1e 3e ee fa b9 be 75 46 26 bf
       -0.517248 0.15506905 -0.36324257 -0.6495126
0001a0 76 95 22 bf cf 7a 15 bf 64 2c cc 3e 70 f5 99 bf
       -0.6350931 -0.58390516 0.39877617 -1.2028027
0001b0 05 bd 27 3f 58 2f a6 bf e5 46 20 be d6 f1 32 3f
       0.65522796 -1.2983198 -0.15652044 0.6990026
0001c0 7d 7b 58 3e 6f e4 a7 bd 77 65 40 3f 3b 95 8f bc
       0.21140857 -0.08197867 0.75154823 -0.017527213
0001d0 87 5e 8f be 0a 89 08 3e 7a aa 86 bd 61 b0 00 bf
       -0.28001806 0.13333526 -0.065754846 -0.5026913
0001e0 ab fc 0a 3e cf 60 18 3e fb 2c 2f 3e 4c 7a 1e 3e
       0.13572948 0.1488068 0.17107002 0.1547634
0001f0 79 5e d5 3b 2c f9 31 3f 5b eb 23 bf ba 0e c0 be
       0.006511506 0.6952083 -0.64031 -0.37511235

module_list.0.output_quant.pre_transforms.0.running_var f4 [128]
000000 22 ee 0e 3f 71 dd 0d 3e 58 9b f0 3d 7a da 06 3f
       0.5583211 0.13854004 0.117483795 0.5267712
000010 50 e8 2e 3e 47 06 99 3d 09 63 05 3f ed d3 1a 3f
       0.17080808 0.074719004 0.5210424 0.60479623
000020 93 ac 06 3e 26 9c f5 3e 4c c4 26 3f 02 52 db 3e
       0.1315177 0.47970694 0.65143275 0.42836004
000030 0d 8c 0f 3d 16 13 1e 3f a8 bc 89 3d 88 64 8a 3c
       0.035045672 0.6174787 0.067254364 0.01689364
000040 4e d9 a2 3f 5b 6b de 3e f2 a1 4f 3f dd 73 91 3e
       1.2722566 0.4344128 0.81106484 0.2840871
000050 4b 6b 32 3d 5d 80 36 3e e4 e7 d5 3c e6 81 b6 3f
       0.043559354 0.17822404 0.02611155 1.4258392
000060 74 1e 2e 3f 9f 91 91 3f 22 dd 9e 3d a9 59 c3 3d
       0.6801522 1.1372565 0.077570215 0.09538586
000070 00 b9 0a 3f f0 5c 09 3e a0 1b 71 3e 25 9f 14 3f
       0.5418854 0.13414359 0.23545694 0.58055335
000080 63 ed b4 3d cc 4f 2f 40 a7 0a c0 3d fa 92 1d 3f
       0.088343404 2.7392454 0.09377032 0.61552393
000090 17 4e d9 3e 82 01 b0 3e 31 73 50 3f ad 91 a2 3e
       0.4244239 0.3437615 0.8142577 0.31751767
0000a0 63 dc 12 3f 9f fe d7 3e c8 51 6f 3e 40 51 18 3e
       0.57367533 0.42186448 0.23371041 0.14874744
0000b0 62 70 e8 3d 83 7f 4c 3f df b6 a0 3f bf 42 19 3f
       0.1134956 0.7988207 1.2555808 0.5986747
0000c0 bc 72 c4 3c 1e 81 77 3f c2 17 38 3e 29 ac fb 3c
       0.02398049 0.9668139 0.17977813 0.03072174
0000d0 a0 fe a3 3d 44 86 34 3d 54 4c 3b 40 7d 35 16 3e
       0.0800755 0.04407336 2.9265337 0.14668842
0000e0 e1 b2 5f 40 07 81 2b 3f 9b fa 87 3e 57 52 fd 3f
       3.495293 0.66993755 0.26558384 1.9790753
0000f0 c7 5b 34 40 f3 c4 6c 3d 6c 32 c6 3e 50 1d 0f 3f
       2.8181016 0.057805013 0.38710344 0.559041
000100 b1 51 f1 3d 32 86 2e 40 65 fe c6 3d 92 65 52 3d
       0.117831595 2.7269406 0.09716491 0.051366396
000110 1e 55 03 3f a3 35 cc 3e 09 01 1a 3e fa 5b 5d 3f
       0.51301754 0.39884672 0.15039457 0.8646847
000120 0f 4e bb 3e 10 f8 cf 3d ef c3 03 3e 37 32 84 3d
       0.3658299 0.10154736 0.12867711 0.0645489
000130 df f0 9a 3c 27 4a f3 3c 45 84 63 3d ba 29 76 3f
       0.018913684 0.029698445 0.055546064 0.9615742
000140 61 f9 d7 3c 8d dd 66 3f 30 3b 32 3f 89 5e 0e 3f
       0.02636403 0.9018181 0.6962156 0.55613
000150 77 be 18 40 99 c4 75 40 aa 3f a1 3d 28 3b d3 3d
       2.386625 3.8401244 0.07873471 0.103140175
000160 84 0b c3 3d ed 53 3f 3e e8 59 10 40 a6 53 41 3f
       0.09523681 0.18684359 2.2554874 0.7551826
000170 ab 61 e4 3d 47 ac 13 3d 13 6e d6 3d fd 5f b5 3e
       0.11151441 0.03605297 0.10470214 0.35424796
000180 b2 87 43 3f d3 ea 34 3f 4b 70 95 3c a1 23 df 3d
       0.7637893 0.70670813 0.018242022 0.108954675
000190 48 8e 4e 3e 42 30 a7 3e 5f eb 31 3f 1f 27 81 3e
       0.20171463 0.32654005 0.6949977 0.2522516
0001a0 70 f2 92 3f 38 8c a0 3e 5d 22 c4 3e 3b 6f a6 3f
       1.1480236 0.31356978 0.38307467 1.3002695
0001b0 df db 58 3f 9a 49 32 3e 59 6a d1 3d 37 a8 8d 3e
       0.84710497 0.1741089 0.10225362 0.276674
0001c0 c6 e8 4c 3c 0a 80 3d 40 f6 a2 fe 3e 33 ad 51 3e
       0.012506669 2.96094 0.49733704 0.20476227
0001d0 6c b2 d8 3e 87 7c f2 3e 27 92 45 3d d4 49 87 3f
       0.42323625 0.47360632 0.048235085 1.0569406
0001e0 ed 0a 06 3e 06 0d 87 3d 24 0c 02 3f 36 d8 b7 3c
       0.13090105 0.06594281 0.50799775 0.022441965
0001f0 67 32 2f 3e 96 03 e2 3e 98 4b a7 3f 7b a4 95 3d
       0.1710907 0.4414336 1.3069944 0.07306763

module_list.1.mask f4 [19, 3]
000000 00 00 80 3f 00 00 00 00 00 00 00 00 00 00 00 00
       1.0 0.0 0.0 0.0
000010 00 00 80 3f 00 00 00 00 00 00 00 00 00 00 00 00
       1.0 0.0 0.0 0.0
000020 00 00 80 3f 00 00 00 40 00 00 00 00 00 00 00 00
       1.0 2.0 0.0 0.0
000030 00 00 80 3f 00 00 80 3f 00 00 00 00 00 00 80 3f
       1.0 1.0 0.0 1.0
000040 00 00 00 00 00 00 80 3f 00 00 00 00 00 00 00 40
       0.0 1.0 0.0 2.0
000050 00 00 00 00 00 00 00 00 00 00 80 3f 00 00 80 3f
       0.0 0.0 1.0 1.0
000060 00 00 00 00 00 00 00 00 00 00 00 40 00 00 40 40
       0.0 0.0 2.0 3.0
000070 00 00 00 00 00 00 00 00 00 00 00 40 00 00 80 3f
       0.0 0.0 2.0 1.0
000080 00 00 00 00 00 00 00 40 00 00 00 00 00 00 80 3f
       0.0 2.0 0.0 1.0
000090 00 00 80 3f 00 00 00 40 00 00 00 00 00 00 80 3f
       1.0 2.0 0.0 1.0
0000a0 00 00 80 3f 00 00 80 3f 00 00 80 3f 00 00 00 00
       1.0 1.0 1.0 0.0
0000b0 00 00 00 40 00 00 00 00 00 00 40 40 00 00 00 00
       2.0 0.0 3.0 0.0
0000c0 00 00 00 00 00 00 00 40 00 00 80 3f 00 00 00 00
       0.0 2.0 1.0 0.0
0000d0 00 00 80 3f 00 00 00 40 00 00 00 00 00 00 00 00
       1.0 2.0 0.0 0.0
0000e0 00 00 40 40
       3.0

module_list.1.input_quant.pre_transforms.0.weight f4 [128]
000000 68 07 94 3e 00 00 80 3f 5e 7b d8 3e c2 a2 85 3f
       0.289119 1.0 0.42281622 1.0440295
000010 00 00 80 3f 8d e6 19 3f 3f 0a 2d 3f f4 b6 21 3f
       1.0 0.6011742 0.6759376 0.6316979
000020 17 85 b4 3e 9c 21 bf 3e dd 9b 6c 3f e1 a6 be 3e
       0.3525779 0.3733033 0.9242533 0.37236694
000030 00 00 80 3f ed 55 d2 3f af 0a c6 3e 00 00 80 3f
       1.0 1.6432472 0.38680026 1.0
000040 44 ad 71 3f 7c 3f 95 3f 4a d4 48 3f 8f 22 e6 3e
       0.9440501 1.1659999 0.7844893 0.4494824
000050 00 00 80 3f 60 ca f0 3e 00 00 80 3f 1b af 05 3f
       1.0 0.470294 1.0 0.52220315
000060 ed f3 11 3f 59 0a ab 3f 00 00 80 3f 00 00 80 3f
       0.57012826 1.3362533 1.0 1.0
000070 1a 3c 27 3f 60 6a d5 3e ef 51 a1 3e ee 27 50 3f
       0.6532608 0.4168272 0.31507823 0.8131093
000080 00 00 80 3f 6c 16 27 3f 4c 88 97 3f c0 fd fa 3e
       1.0 0.6526859 1.183847 0.4902172
000090 4d 7c cf 3e 05 6b cc 3e a2 0b c4 3e d3 75 ee 3e
       0.4052452 0.399254 0.38290125 0.46574268
0000a0 b7 54 62 3f cb a3 6a 3f 47 2c 7c 3f 00 00 80 3f
       0.88410515 0.9165618 0.9850506 1.0
0000b0 00 00 80 3f 79 1f f4 3e df 9a de 3f 94 d9 ca 3e
       1.0 0.47680262 1.7391013 0.39619124
0000c0 00 00 80 3f ba eb ca 3e ce ee 1f 3f d1 4d e0 3e
       1.0 0.3963297 0.6247376 0.4380937
0000d0 6c 57 2c 3f 00 00 80 3f 83 d1 0f 40 20 3c c7 3e
       0.67320895 1.0 2.2471626 0.3891306
0000e0 aa d1 53 40 21 71 1f 3f 95 6c 5e 3f 46 c4 ce 3f
       3.3096719 0.62281996 0.86884433 1.6153648
0000f0 8c 05 f6 3e 00 00 80 3f fa b8 bf 3f 24 d7 23 3f
       0.48051107 1.0 1.4978325 0.64000154
000100 2b 18 da 3e 88 5d 9c 3f b6 5e bc 3e 00 00 80 3f
       0.42596564 1.2216043 0.3679101 1.0
000110 e5 15 2c 3f 19 d3 d4 3f 39 fc 90 3f cd 95 3d 3f
       0.6722091 1.6626922 1.1326972 0.740567
000120 f2 a7 f4 3e 6c 84 b4 3f 92 fe 90 3f 00 00 80 3f
       0.47784382 1.4102912 1.1327689 1.0
000130 00 00 80 3f 00 00 80 3f 00 00 80 3f 99 09 05 3f
       1.0 1.0 1.0 0.5196777
000140 00 00 80 3f 48 83 f5 3f d5 ed ce 3e 58 9e b7 3e
       1.0 1.9180689 0.40415826 0.35862994
000150 54 1f 6d 3f 46 9c 1d 3f 00 00 80 3f 00 00 80 3f
       0.9262593 0.6156658 1.0 1.0
000160 43 91 b0 3e 20 a8 51 3f 8f 09 50 3f 9b c1 d8 3e
       0.34485826 0.81897163 0.81264585 0.4233521
000170 8a fb 06 3f 00 00 80 3f be c9 bb 3e 8d 63 f7 3e
       0.5272757 1.0 0.36677355 0.4831814
000180 1c 66 fd 3e 5b 8d 85 3f 8a 35 9b 3e 00 00 80 3f
       0.49491966 1.0433763 0.30314285 1.0
000190 b4 9a ee 3e 00 00 80 3f eb b3 c7 3e b3 93 ef 3f
       0.46602404 1.0 0.39004454 1.8716949
0001a0 c7 c6 d5 3e 50 7b 09 3f c1 7a 0f 3f 8c ff a8 3f
       0.41753218 0.53703785 0.5604668 1.3202987
0001b0 d5 da 5d 3f 39 f2 1a 3f 51 19 95 3f 5d 58 d1 3f
       0.86662036 0.6052585 1.1648351 1.6355091
0001c0 00 00 80 3f 46 56 00 40 de 3c 0c 3f d4 f2 e1 3e
       1.0 2.0052657 0.54780376 0.44130576
0001d0 a1 6e fa 3e 3b 0b 5c 3f 00 00 80 3f 91 27 89 3f
       0.48912528 0.85954636 1.0 1.07152
0001e0 00 00 80 3f 00 00 80 3f 51 62 eb 3e 00 00 80 3f
       1.0 1.0 0.45973447 1.0
0001f0 73 7b c7 3e 00 c3 39 3f c2 3e 06 3f 09 52 7f 3f
       0.38961372 0.7256317 0.5243951 0.9973455

module_list.1.input_quant.pre_transforms.0.bias f4 [128]
000000 68 ff 14 3f 00 00 00 00 57 1f 0a 3f be 5a 8b 3f
       0.5820222 0.0 0.5395407 1.0887067
000010 00 00 00 00 43 49 51 3f aa ad 85 3e f2 49 40 3f
       0.0 0.81752414 0.26109058 0.7511283
000020 65 ee 8f 3e a0 44 4c 3f f9 22 2b bc ef 84 2a 3f
       0.28111568 0.79792213 -0.01044535 0.6660909
000030 00 00 00 00 1d 2c 39 3f 83 f2 2e 3f 00 00 00 00
       0.0 0.72332937 0.68338794 0.0
000040 78 0d 36 3f 99 53 08 bf 40 ff 65 3e 15 d9 37 3f
       0.711143 -0.5325256 0.22460651 0.71815616
000050 00 00 00 00 ea 72 42 3f 00 00 00 00 0b 80 04 3f
       0.0 0.75956595 0.0 0.5175788
000060 64 12 37 3f 7c d2 64 3d 00 00 00 00 00 00 00 00
       0.71512437 0.055864796 0.0 0.0
000070 0e 75 c0 3e 7d 2f 6a 3e df 5b 09 3f 6d 6e 92 3e
       0.37589306 0.22869678 0.5365581 0.28599873
000080 00 00 00 00 43 70 ed 3e 09 dd 84 be ce b5 12 3f
       0.0 0.4637471 -0.25949886 0.5730866
000090 46 65 9c 3e a5 d0 3d 3f 2d 02 18 bf 03 60 83 3e
       0.30546016 0.7414649 -0.5937832 0.2565919
0000a0 93 eb 11 3d 01 73 9c 3e 4c 1f 43 3f 00 00 00 00
       0.03562505 0.3055649 0.7621963 0.0
0000b0 00 00 00 00 4f 06 29 3f 67 1c 95 3f 3b 0c 0a 3f
       0.0 0.6602525 1.1649293 0.5392491
0000c0 00 00 00 00 55 5e ba 3e 82 5e 92 3d 4b db 20 3f
       0.0 0.36400095 0.07146932 0.62834615
0000d0 01 13 94 3e 00 00 00 00 6b 6a ed bf af 1b 22 3f
       0.2892075 0.0 -1.8548101 0.6332349
0000e0 2c c2 99 3e 55 e0 53 3e 21 0c f9 3b 22 5f 08 be
       0.30030954 0.20691045 0.007600323 -0.1331754
0000f0 47 09 b3 3e 00 00 00 00 23 fd 98 3f 7f af 43 3f
       0.34968016 0.0 1.1952251 0.7643966
000100 2a 04 3a 3f 1e 8b 87 be 4f 70 fb 3e 00 00 00 00
       0.72662604 -0.26473325 0.49109122 0.0
000110 ed ed 00 bd a3 bd 89 3d 3d ec 23 be 26 99 29 3f
       -0.031476904 0.067256235 -0.16008087 0.6624931
000120 78 20 13 3f d2 f8 2e bf 60 b1 09 3f 00 00 00 00
       0.5747142 -0.6834842 0.5378628 0.0
000130 00 00 00 00 00 00 00 00 00 00 00 00 3c 71 1c 3e
       0.0 0.0 0.0 0.1527757
000140 00 00 00 00 da 32 b9 3e ff e7 1f 3f cb c8 b7 3e
       0.0 0.3617161 0.6246337 0.3589538
000150 90 2a aa be fa 24 26 3e 00 00 00 00 00 00 00 00
       -0.33235598 0.16225043 0.0 0.0
000160 2c 55 32 3f c3 e1 41 be 6d 82 25 3e ca f6 a9 3e
       0.6966121 -0.18933778 0.16163035 0.33196098
000170 bf 9a be 3e 00 00 00 00 8a 34 f2 3e 9d fc 22 3e
       0.37227437 0.0 0.4730571 0.15916677
000180 05 14 3c 3e 1f 3e a6 3d f0 6d 30 3f 00 00 00 00
       0.18367012 0.081173174 0.6891775 0.0
000190 ee 34 e2 3e 00 00 00 00 f7 44 f1 3e 30 20 97 bf
       0.44181007 0.0 0.47122929 -1.1806698
0001a0 06 e4 15 3f 84 1f 0c 3f 2f 18 31 3f 51 b3 85 be
       0.5855106 0.5473559 0.69177526 -0.2611337
0001b0 ec a4 7c be 0c ec b4 3e 8a 21 42 bf 57 6c 29 be
       -0.24672288 0.3533634 -0.75832427 -0.16545235
0001c0 00 00 00 00 a7 e6 33 3f 49 3d fb 3e 20 fb c2 3e
       0.0 0.7027382 0.49070194 0.38082218
0001d0 71 82 df 3e 3c cd e1 3e 00 00 00 00 82 bd ed bd
       0.43654206 0.44101894 0.0 -0.11608411
0001e0 00 00 00 00 00 00 00 00 71 ee 5a 3f 00 00 00 00
       0.0 0.0 0.8552008 0.0
0001f0 ff ab aa 3d 12 88 ac 3f cf 6e 57 3f 68 f3 ab 3d
       0.08333587 1.3479025 0.84153455 0.083960354

module_list.1.input_quant.pre_transforms.0.running_mean f4 [128]
000000 77 f0 1f 3f b1 84 66 3e f4 4c de 3e e9 7a 5a 3f
       0.62476295 0.22511555 0.43418086 0.85343796
000010 d2 fd 83 3d ae 86 3f 3e b2 56 07 be c1 de 9b bd
       0.06444897 0.1870372 -0.13216665 -0.07610846
000020 71 2a 80 3c ef a9 09 bf 04 7a 64 be a5 cd da be
       0.015645238 -0.53774923 -0.2231217 -0.4273502
000030 07 69 08 3e c7 60 15 3f b4 e1 18 3e b8 f6 70 3e
       0.13321315 0.58350796 0.14929849 0.23531616
000040 e5 df 51 3f ef 9d a6 bd 10 97 85 3f e4 ec f4 be
       0.8198226 -0.08135592 1.0436726 -0.47836983
000050 b2 68 95 be 35 6f 14 3f b0 89 e9 bd 84 14 39 3f
       -0.2918144 0.5798219 -0.11403215 0.7229693
000060 48 06 aa 3e 1b 6f 29 3f be ce 90 3c e1 33 00 be
       0.33207917 0.6618516 0.017676707 -0.1251979
000070 46 5f 60 3e 61 d5 b3 bd 1b f5 8e be 73 78 92 bc
       0.21911344 -0.08780933 -0.27921376 -0.0178797
000080 a4 24 cd bd 7e aa 52 3f b2 44 a1 bd 4e db 46 3f
       -0.10016754 0.822914 -0.07874431 0.7767838
000090 a1 36 47 bf 92 36 83 3d a5 8f 25 be 71 ad 3b be
       -0.7781773 0.06406893 -0.16168077 -0.18327881
0000a0 cf b3 ac be 31 e2 ef 3e 9c de a7 3d 61 db 72 be
       -0.33730933 0.46852258 0.08196756 -0.23716499
0000b0 3a 25 b3 3e e9 c2 3e 3f c5 e5 56 3d c7 ec 36 3e
       0.3498934 0.7451616 0.05246522 0.17863761
0000c0 27 8e da bd 2e 54 5a bf 5b 26 bc 3d 58 f7 23 be
       -0.10671645 -0.852847 0.09187003 -0.16012323
0000d0 2e 18 0c be 84 86 8b 3d aa fd ad bf 7f 9f 7b be
       -0.13681099 0.06812766 -1.3593037 -0.24572562
0000e0 36 3e 14 3f 47 7f b9 3d 84 d4 a9 be e2 59 18 40
       0.57907426 0.09057479 -0.3316995 2.380486
0000f0 01 a4 c0 bc f7 38 f5 3d f2 ea 6f be 8e 12 bd 3d
       -0.023515703 0.11973756 -0.23429468 0.09232055
000100 58 1f 67 be f4 73 ce be 41 42 cc 3d ad ef 08 be
       -0.2257055 -0.4032284 0.099735744 -0.13372679
000110 8f d0 87 3e 28 d9 bf be ef a3 2c 3d 37 f3 2a bf
       0.26526305 -0.37470365 0.042148527 -0.66777366
000120 83 24 39 3f 01 e5 92 3e a6 3f 2c be f9 6b 4d be
       0.7232134 0.2869034 -0.16821155 -0.2006072
000130 79 81 87 3c a1 19 81 3d 54 24 a4 3d 9f d1 36 3d
       0.01654123 0.063037165 0.080147415 0.044633504
000140 60 7b 9c be 13 68 2e 3e f1 a5 0f 3f 88 c1 58 bf
       -0.30562878 0.17031889 0.5611258 -0.84670305
000150 4c fb 26 be 7c 89 67 bf 40 51 bf 3d b9 e9 a6 be
       -0.163068 -0.9044416 0.09341669 -0.3260019
000160 ea 52 b8 3e 27 02 18 3e 2d 05 9e be 5f 7b 5c be
       0.36000758 0.14844571 -0.30863324 -0.21531437
000170 2c da 1e be ff db ad 3d db c4 f7 be 2d 0b b2 be
       -0.15512913 0.084892265 -0.48392376 -0.3477415
000180 f8 41 8a be a5 91 a3 bf 57 a0 6b bd 05 fe 92 bd
       -0.27003455 -1.2778822 -0.05752596 -0.07177357
000190 5d 6a 04 bf 6c ca 1e 3e ee fa b9 be 75 46 26 bf
       -0.517248 0.15506905 -0.36324257 -0.6495126
0001a0 76 95 22 bf cf 7a 15 bf 64 2c cc 3e 70 f5 99 bf
       -0.6350931 -0.58390516 0.39877617 -1.2028027
0001b0 05 bd 27 3f 58 2f a6 bf e5 46 20 be d6 f1 32 3f
       0.65522796 -1.2983198 -0.15652044 0.6990026
0001c0 7d 7b 58 3e 6f e4 a7 bd 77 65 40 3f 3b 95 8f bc
       0.21140857 -0.08197867 0.75154823 -0.017527213
0001d0 87 5e 8f be 0a 89 08 3e 7a aa 86 bd 61 b0 00 bf
       -0.28001806 0.13333526 -0.065754846 -0.5026913
0001e0 ab fc 0a 3e cf 60 18 3e fb 2c 2f 3e 4c 7a 1e 3e
       0.13572948 0.1488068 0.17107002 0.1547634
0001f0 79 5e d5 3b 2c f9 31 3f 5b eb 23 bf ba 0e c0 be
       0.006511506 0.6952083 -0.64031 -0.37511235

module_list.1.input_quant.pre_transforms.0.running_var f4 [128]
000000 22 ee 0e 3f 71 dd 0d 3e 58 9b f0 3d 7a da 06 3f
       0.5583211 0.13854004 0.117483795 0.5267712
000010 50 e8 2e 3e 47 06 99 3d 09 63 05 3f ed d3 1a 3f
       0.17080808 0.074719004 0.5210424 0.60479623
000020 93 ac 06 3e 26 9c f5 3e 4c c4 26 3f 02 52 db 3e
       0.1315177 0.47970694 0.65143275 0.42836004
000030 0d 8c 0f 3d 16 13 1e 3f a8 bc 89 3d 88 64 8a 3c
       0.035045672 0.6174787 0.067254364 0.01689364
000040 4e d9 a2 3f 5b 6b de 3e f2 a1 4f 3f dd 73 91 3e
       1.2722566 0.4344128 0.81106484 0.2840871
000050 4b 6b 32 3d 5d 80 36 3e e4 e7 d5 3c e6 81 b6 3f
       0.043559354 0.17822404 0.02611155 1.4258392
000060 74 1e 2e 3f 9f 91 91 3f 22 dd 9e 3d a9 59 c3 3d
       0.6801522 1.1372565 0.077570215 0.09538586
000070 00 b9 0a 3f f0 5c 09 3e a0 1b 71 3e 25 9f 14 3f
       0.5418854 0.13414359 0.23545694 0.58055335
000080 63 ed b4 3d cc 4f 2f 40 a7 0a c0 3d fa 92 1d 3f
       0.088343404 2.7392454 0.09377032 0.61552393
000090 17 4e d9 3e 82 01 b0 3e 31 73 50 3f ad 91 a2 3e
       0.4244239 0.3437615 0.8142577 0.31751767
0000a0 63 dc 12 3f 9f fe d7 3e c8 51 6f 3e 40 51 18 3e
       0.57367533 0.42186448 0.23371041 0.14874744
0000b0 62 70 e8 3d 83 7f 4c 3f df b6 a0 3f bf 42 19 3f
       0.1134956 0.7988207 1.2555808 0.5986747
0000c0 bc 72 c4 3c 1e 81 77 3f c2 17 38 3e 29 ac fb 3c
       0.02398049 0.9668139 0.17977813 0.03072174
0000d0 a0 fe a3 3d 44 86 34 3d 54 4c 3b 40 7d 35 16 3e
       0.0800755 0.04407336 2.9265337 0.14668842
0000e0 e1 b2 5f 40 07 81 2b 3f 9b fa 87 3e 57 52 fd 3f
       3.495293 0.66993755 0.26558384 1.9790753
0000f0 c7 5b 34 40 f3 c4 6c 3d 6c 32 c6 3e 50 1d 0f 3f
       2.8181016 0.057805013 0.38710344 0.559041
000100 b1 51 f1 3d 32 86 2e 40 65 fe c6 3d 92 65 52 3d
       0.117831595 2.7269406 0.09716491 0.051366396
000110 1e 55 03 3f a3 35 cc 3e 09 01 1a 3e fa 5b 5d 3f
       0.51301754 0.39884672 0.15039457 0.8646847
000120 0f 4e bb 3e 10 f8 cf 3d ef c3 03 3e 37 32 84 3d
       0.3658299 0.10154736 0.12867711 0.0645489
000130 df f0 9a 3c 27 4a f3 3c 45 84 63 3d ba 29 76 3f
       0.018913684 0.029698445 0.055546064 0.9615742
000140 61 f9 d7 3c 8d dd 66 3f 30 3b 32 3f 89 5e 0e 3f
       0.02636403 0.9018181 0.6962156 0.55613
000150 77 be 18 40 99 c4 75 40 aa 3f a1 3d 28 3b d3 3d
       2.386625 3.8401244 0.07873471 0.103140175
000160 84 0b c3 3d ed 53 3f 3e e8 59 10 40 a6 53 41 3f
       0.09523681 0.18684359 2.2554874 0.7551826
000170 ab 61 e4 3d 47 ac 13 3d 13 6e d6 3d fd 5f b5 3e
       0.11151441 0.03605297 0.10470214 0.35424796
000180 b2 87 43 3f d3 ea 34 3f 4b 70 95 3c a1 23 df 3d
       0.7637893 0.70670813 0.018242022 0.108954675
000190 48 8e 4e 3e 42 30 a7 3e 5f eb 31 3f 1f 27 81 3e
       0.20171463 0.32654005 0.6949977 0.2522516
0001a0 70 f2 92 3f 38 8c a0 3e 5d 22 c4 3e 3b 6f a6 3f
       1.1480236 0.31356978 0.38307467 1.3002695
0001b0 df db 58 3f 9a 49 32 3e 59 6a d1 3d 37 a8 8d 3e
       0.84710497 0.1741089 0.10225362 0.276674
0001c0 c6 e8 4c 3c 0a 80 3d 40 f6 a2 fe 3e 33 ad 51 3e
       0.012506669 2.96094 0.49733704 0.20476227
0001d0 6c b2 d8 3e 87 7c f2 3e 27 92 45 3d d4 49 87 3f
       0.42323625 0.47360632 0.048235085 1.0569406
0001e0 ed 0a 06 3e 06 0d 87 3d 24 0c 02 3f 36 d8 b7 3c
       0.13090105 0.06594281 0.50799775 0.022441965
0001f0 67 32 2f 3e 96 03 e2 3e 98 4b a7 3f 7b a4 95 3d
       0.1710907 0.4414336 1.3069944 0.07306763

module_list.1.fc.weight f4 [128, 19]
000000 3b 7b 85 bd 4d d7 4d bc 57 5f 1b be e6 37 09 be
       -0.06517645 -0.012563539 -0.15173088 -0.1340023
000010 e7 98 b5 bd 56 2e 75 3d 7d 9c 47 3d 13 76 60 bd
       -0.088670544 0.059858643 0.048733223 -0.054800104
000020 8b 93 31 be 69 5d 2f 3e 7e 72 5d bd 68 d0 8f bb
       -0.1734144 0.17125477 -0.054064266 -0.0043888576
000030 61 fa 0a be 29 42 1b be 72 2f b2 3d e2 40 9f bd
       -0.13572074 -0.15161957 0.08700456 -0.07776047
000040 88 40 bd bd 03 8c b7 bd c5 94 28 bc ac 34 52 be
       -0.09240824 -0.08962252 -0.010289376 -0.20527905
000050 b5 d8 60 3e c0 fc fc 3b 22 13 0f 3e 40 4a 2c 3e
       0.21957667 0.00772056 0.13972142 0.16825199
000060 b5 c1 e5 bd 37 9d 50 be ce 96 84 3d dc 1b 14 be
       -0.11218587 -0.20372473 0.06474076 -0.14463753
000070 9d 27 4a 3e 7b 9c 3e be ff 3d 24 be df f4 dc bd
       0.19741674 -0.1861438 -0.16039275 -0.10788893
000080 0d 43 e8 bc 08 51 3e be 1e 46 64 be 4f 7c 61 3e
       -0.028352285 -0.18585598 -0.22292373 0.22020076
000090 5b e9 04 3e f7 80 97 3d e1 ff a4 be 74 49 d5 3f
       0.12979643 0.07397645 -0.3222647 1.6663041
0000a0 1d 3d 1e be 85 93 ae 3e 03 45 df be 8e 62 82 bb
       -0.15453 0.34096923 -0.4360734 -0.003979034
0000b0 0b 17 9b 3e 1b b0 16 bf 06 24 5f 3e 9f 3f a9 be
       0.30291018 -0.58862466 0.21791086 -0.33056352
0000c0 d0 fd bf bf 56 2e d3 3e da 84 7e 3f 2a d4 82 3f
       -1.4999332 0.4124629 0.99421465 1.0220997
0000d0 26 62 73 ba e0 0f 25 bf e1 7a 1c 3f 10 21 35 be
       -0.00092843396 -0.6447735 0.61125 -0.17688394
0000e0 00 6c 5a be 78 a5 27 3f 69 d5 23 bf c2 9f 82 3f
       -0.21330261 0.6548686 -0.63997513 1.0205004
0000f0 ef 57 ba 3d 5d 9d c9 3d e9 4d db 3e 6d a0 2d be
       0.09098803 0.09844468 0.42832878 -0.16955729
000100 80 b0 19 3e ae 54 d0 bd b0 e6 f0 be 31 d6 7b be
       0.15008736 -0.10172401 -0.47051 -0.24593426
000110 f0 d6 54 bf 36 47 7f 3d 2a e1 94 3e 32 8b 06 be
       -0.8314047 0.06232377 0.29078037 -0.13139036
000120 80 80 e4 be 00 d8 34 3f 25 c3 46 3f 9b 55 af bd
       -0.44629288 0.7064209 0.77641517 -0.0856125
000130 48 47 ae bc 82 f4 11 3e ca e2 39 3c c1 2d 47 be
       -0.021274224 0.14253429 0.011345575 -0.19451047
000140 d4 3b 02 3e 5a ed a9 3b 49 82 0f be ae 99 47 3d
       0.12718135 0.005185765 -0.14014544 0.048730545
000150 13 79 9c 3c 0b a1 30 be 03 9a 89 3d 93 32 62 3e
       0.019100701 -0.17248933 0.067188285 0.22089605
000160 d1 86 fc bd 4c 3a f3 3d af 8e 42 be ab b7 53 be
       -0.12330402 0.118763536 -0.18999742 -0.20675533
000170 d6 0c 6a be 10 2b 4c be 26 43 c5 bd 04 6b 26 3e
       -0.22856459 -0.19938302 -0.09631948 0.1625176
000180 7d 30 59 3e 1f b8 5b be 08 35 ce 3d 3f f2 e0 3d
       0.21209903 -0.21456955 0.10068709 0.10983705
000190 4a cf 41 3e 70 00 ce 3d b9 99 2a be 01 fe df 3b
       0.18926731 0.10058677 -0.16660203 0.0068356995
0001a0 df fc 65 3e f3 98 29 be 23 56 3f 3e 2c 3c 02 3e
       0.22459744 -0.16562252 0.18685202 0.12718266
0001b0 df 17 a0 bd 38 e2 3b 3e 7c 31 57 be 9c 1f aa 3d
       -0.07817053 0.18348014 -0.2101497 0.0830681
0001c0 85 c9 97 3a 16 14 5e bd 4c 9e 49 3d 62 f3 c5 3d
       0.0011580443 -0.054218374 0.04922323 0.09665562
0001d0 08 f2 37 3e 66 5c 43 3e 83 12 d7 bd b7 97 34 be
       0.17963421 0.19078216 -0.10501578 -0.17636
0001e0 46 dd 4f be 78 c3 80 3d 38 46 7d 3d 74 f3 46 be
       -0.20299253 0.06287283 0.061834544 -0.19428807
0001f0 ef 43 52 3e ae 3a 2b 3e 06 a9 9c 3d 5a 1a 73 bd
       0.20533727 0.16721603 0.07649426 -0.059351303
000200 0c b8 2c be 5c 1d 11 be e1 c8 ca bd d8 0f ef 3d
       -0.16867083 -0.14171356 -0.09901596 0.11672944
000210 36 03 22 bd 4a e3 1f bf 9f c5 1d 3f af 84 1c 3f
       -0.039553843 -0.6245619 0.6162967 0.6113996
000220 f4 b8 99 3c e6 9d 06 3f 7b 08 cd bd 3d 08 3f 3d
       0.01876495 0.52584684 -0.10011383 0.046638716
000230 05 5c 13 bf 39 c1 40 be 5c ff fb 39 2b 13 f8 be
       -0.57562286 -0.18823709 0.00048064708 -0.48452124
000240 11 c0 eb 3e 37 12 4d bf 94 8c a0 3f e4 d4 bd be
       0.46044973 -0.8010592 1.2542901 -0.37076485
000250 3a 83 8e bb 84 0d 93 3e 00 73 47 bf 4c 16 5d 3f
       -0.0043491395 0.2872125 -0.7790985 0.8636215
000260 86 76 2c bf 29 61 90 3d 72 a7 5a 3f 46 82 a1 be
       -0.6736835 0.07049782 0.8541175 -0.31544703
000270 25 19 19 3f 15 bf 2c be 42 7c 4f be ef 1c ec 3d
       0.5980399 -0.16869767 -0.20262244 0.11528956
000280 f1 e6 c1 bc 98 c4 b4 be 21 6f 1f 3f b4 6d c7 3e
       -0.023669692 -0.3530624 0.62278944 0.38950884
000290 a4 37 36 3e fa a7 49 bf e6 99 e0 be e1 ab 8b bf
       0.17794663 -0.78771937 -0.43867415 -1.0911828
0002a0 c4 72 f2 3e 64 1c ad 3e e9 92 e8 be 45 22 9e bd
       0.47353184 0.33810723 -0.45424584 -0.0772138
0002b0 ff 5e c2 bd 8e 4f 23 3e 83 f2 9a 3d 57 c9 ed 3c
       -0.09490775 0.15948316 0.07565787 0.02902667
0002c0 3c eb a3 bd da 17 a8 3d fe a5 62 bc 97 ac a0 3d
       -0.08003852 0.08207674 -0.013833521 0.07845419
0002d0 72 58 54 be 17 01 13 be af eb 4d 3e 4f a4 37 be
       -0.20736864 -0.14355884 0.20109437 -0.17933773
0002e0 12 cd ff bd 75 2b 38 bc fb 71 fd 3b 6e c1 c4 bc
       -0.12490286 -0.01124083 0.007734535 -0.024018016
0002f0 d1 47 41 be 03 22 45 bd 79 55 38 bf e8 35 60 be
       -0.18875052 -0.04812814 -0.7200542 -0.21895564
000300 7b 22 cb bf ce 7b 8d bd 44 3f 4e 3f f1 8d 3e 3f
       -1.5869898 -0.069083795 0.80565286 0.74435335
000310 92 47 2e bd af 1f bc 3e 5f ae ba 3d 46 dc 8a be
       -0.042548724 0.36742923 0.0911529 -0.2712118
000320 0f 65 1c 3e 23 78 b7 bc bc de 39 3f 7a 67 12 bf
       0.15272926 -0.022396153 0.7260549 -0.5718914
000330 52 2d be be 8f 32 6d be 42 c2 b8 be 92 c2 a1 3e
       -0.37143952 -0.23163818 -0.36085707 0.31593758
000340 0d cc 0d 3d 51 86 d1 3a 20 d3 65 bd 5d 34 3d 3e
       0.034618426 0.0015985464 -0.056109548 0.18477006
000350 ea 94 f7 bc ec 26 17 3d b5 5a 1b 3c 53 64 22 be
       -0.030222375 0.036902353 0.009482075 -0.15858583
000360 cc b8 45 3e 14 53 61 be bb c6 29 3e bf ab 32 3e
       0.19308776 -0.22004348 0.16579716 0.17448328
000370 33 c6 8f 3d 49 32 15 3e 18 aa f3 bd f7 a1 19 3e
       0.070202254 0.14569964 -0.11897677 0.15003191
000380 6f 26 47 be 2f 8a ab 3c 24 ed 2d 3e 6f 4c 80 3d
       -0.19448255 0.020939915 0.16984993 0.062645786
000390 98 cf 44 3d 26 d6 fc bd 6f 58 f5 bd 8b 2f 56 be
       0.04804954 -0.12345533 -0.11979758 -0.20916574
0003a0 c2 dd 02 3e c1 e6 fc 3d 37 48 3f 3d 5d 85 0b 3d
       0.12779906 0.123487 0.04669973 0.034062732
0003b0 62 59 71 bd b8 40 4f 3d 63 24 8f bd 87 67 88 3d
       -0.058923133 0.05059883 -0.06989362 0.06660371
0003c0 af 15 d7 3d af 26 70 bd 70 13 78 3d 71 2c 4f bd
       0.10502183 -0.05863064 0.060565412 -0.050579492
0003d0 57 4b 95 bc 2b f1 10 3e 3a 13 5a be fd a2 66 bf
       -0.018224401 0.14154498 -0.21296397 -0.9009245
0003e0 0c 96 81 3f b4 de 8a bf d3 53 eb 3d ba 84 de 3e
       1.0123916 -1.0849214 0.114905976 0.43460637
0003f0 74 15 ed 3c 7f 49 3c bd 7b 52 dc 3e 12 fe e3 3d
       0.028940894 -0.04596853 0.43031678 0.111324444
