examples/jet_substructure/single_model_results/jsc_xs/checkpoint.pth (torch, 198239 bytes, 99 tensors)

module_list.0.mask f4 [9, 2]
00000000: 0000 803f 0000 0000 0000 0000 0000 803f
00000010: 0000 0040 0000 0000 0000 803f 0000 803f
00000020: 0000 0000 0000 0040 0000 4040 0000 0000
00000030: 0000 0040 0000 803f 0000 803f 0000 0040
00000040: 0000 0000 0000 4040
1.0 0.0 0.0 1.0 2.0 0.0 1.0 1.0
0.0 2.0 3.0 0.0 2.0 1.0 1.0 2.0
0.0 3.0

module_list.0.input_quant.pre_transforms.1.weight f4 [16]
00000000: be85 033f 5e6f 283f 49ee 273f 5797 4340
00000010: 0c70 653f 5f9c 2f3f 09fa d43e 9089 0e3f
00000020: 0c32 eb3e d98d 0e3f 827c 0a3f 88e1 2f3f
00000030: 5d08 123f 2960 173f 8f7b 6a3f 74a0 f53e
0.5137595 0.6579493 0.6559797 3.056112 0.89624095 0.6859798 0.41597012 0.55678654
0.4593662 0.5568519 0.54096234 0.6870351 0.5704401 0.59131104 0.91594785 0.4797398

module_list.0.input_quant.pre_transforms.1.bias f4 [16]
00000000: b52f 24be a67b c73e e560 12be fe4a 463e
00000010: 0b4e a63d 5fa7 fcbe 0ab3 d1bd a6f9 48be
00000020: 8835 b9be fe28 c13d c80b 9b3d 1547 0a3d
00000030: b7e4 383e 12b6 8a3c cd7b 573e 6aa0 95be
-0.16033824 0.38961524 -0.14294775 0.19364545 0.08120354 -0.49346444 -0.10239227 -0.19626483
-0.36173654 0.09431647 0.075706065 0.033759195 0.18055998 0.016932521 0.2104332 -0.2922395

module_list.0.input_quant.pre_transforms.1.running_mean f4 [16]
00000000: 3217 7fbb bd53 2abb a3cd b23b 847a c53b
00000010: 0082 863a 9578 82bb 3b33 e8bb 8d89 6abc
00000020: 3092 01bc d182 b0bb dbc8 d2ba 1cf9 b7ba
00000030: c7a5 a9bb 00fc e1bb 2a4c c43b 198d a93b
-0.0038923738 -0.0025989853 0.0054566427 0.006026568 0.0010262132 -0.0039816597 -0.0070861853 -0.014315021
-0.007908389 -0.0053866883 -0.0016081588 -0.0014036032 -0.005177233 -0.006896496 0.005990525 0.005174291

module_list.0.input_quant.pre_transforms.1.running_var f4 [16]
00000000: 57f2 813f 4c77 823f dd5f 813f 568c 813f
00000010: 4011 7e3f 1f09 783f 645a 793f 5201 783f
00000020: fbb7 793f 822e 803f 712d 813f 5245 813f
00000030: 768a 7f3f 6681 7f3f 828f 813f dfb6 813f
1.0152081 1.0192657 1.010738 1.0120952 0.9924507 0.9688892 0.9740355 0.96877015
0.97546357 1.0014193 1.0091993 1.009928 0.9982065 0.9980682 1.012192 1.0133933

module_list.0.fc.weight f4 [128, 9]
00000000: bf6c e3bf 19ab 1a3f 693e ac3e 824e 353e
00000010: 7ce7 c5bb 95db 873e 4561 7fbd 38d4 ccbe
00000020: e133 8fbe 687c 5ebe 8e99 7d3e 7640 1fbd
00000030: 626e 8b3e c630 5dbe a0da 8bbe 56b8 35bc
00000040: d33d 79be c0fa 7cbe 1f5d 0bbf 68e8 893f
00000050: a38d 013f f18c 873d e8f1 93be b9b4 dcbe
00000060: 7945 38bd 10c5 84be 3310 a8bd 432a c83e
00000070: 647d 8bbe bf7e a33f 430f 20bf fb5d 37bd
00000080: 3f99 56bf b2ed e43e 7b3d d63e a058 073c
00000090: 8b1c fcbd 6fa8 85be 63fc 1abe eaf4 973e
000000a0: 760d 303d 73c5 0b3e d622 63bc 33c4 033e
000000b0: bf2e a2be 4da2 ab3e 0dce 46bf 46b4 1fbc
000000c0: 46c3 213f fd9e acbe 6ced 9bbe baff 9e3e
000000d0: 0a09 87bf d4e1 383f 8d2e 26be 1016 a4bf
000000e0: c36c 453e 87f5 133f df62 00bf 6401 8fbe
000000f0: 131b 243d cc20 213f 9dea b03e dc97 8ebf
00000100: 6679 1d3f d7dd 833e 6bc0 c83e 537b bfbe
00000110: 011c 4c3d dd25 2dbf d915 703e 0774 853e
00000120: 2f08 98be 4e6e a03f 290c 193f 54a6 d1be
00000130: 7804 e63e 17cb 603d c7c9 f6bc f907 05be
00000140: f0a8 16bf 9869 1d3f fb44 043f 54df 973c
00000150: 26dd 95bf e30d 16bf 5250 7c3e e774 debe
00000160: 32a7 c9b9 d62c f43e c1b6 7ebf 7385 373f
00000170: 1aa7 aebe 9cfe a63e 754a 073e 123b 6ebd
00000180: 168f e1be 8abe 8abe b705 203f 9f6c c0be
00000190: 8e45 69bf f73c 7ebf 1c12 fcbe a8b1 9f3d
000001a0: 91f8 3ebc caa4 333f 951a fa3e ae98 6abd
000001b0: f6c9 71bd 56ca da3d 2b53 4f3d ac94 9e3e
000001c0: 78e8 a83e 7880 a33e e855 a6be 766f 403e
000001d0: c8f8 653e 6e48 bbbe a3f9 5a3f e088 dd3e
000001e0: 7ba7 85be 559b e3be c28e 6abf 77f7 ebbe
000001f0: 6d6f 9e3d 3c98 69be 68bb 78bf fa5b 383f
00000200: af20 063f 6690 113e 5428 c8be 378a 94be
00000210: d833 5e3e 8150 20be 66b0 533e 9b5f 8a3d
00000220: 52ec 99be 80ad 143e 769e 02bd 9b6b aabd
00000230: fb74 ef3d c864 603e dbc6 d5bd 7b3a 6abe
00000240: 6d88 f7be e681 003f 8557 513c b94f c3be
00000250: 82a1 16bf 7976 a8bf 25cc a7be ac6b f3bd
00000260: 4916 6e3e ae30 5bbf 2b3e 143f 304d 34bc
00000270: 6a2f 7ebe 6beb 47bf fe6a 8abd 77ab 04bf
00000280: f299 7b3f 6706 e93e 44c2 ecbf fbb1 82be
00000290: 8f50 543f a8b1 9c3e 3d31 8d3e 464f f43e
000002a0: 5d03 213f 2176 c43e b1a2 1d3d 68a8 38bf
000002b0: d070 d33d bcb3 23bf 5990 48be 19c2 1abd
000002c0: 5436 7f3f 847e 873e 7d00 8ebc 7a6e 64be
000002d0: cb7b 9fbd 4658 b7bd 2f32 96be f8ee 65be
000002e0: eb0e 17be 3317 78be 20c5 143e 564d 8b3e
000002f0: fe30 2fbe 33d4 5cbf fe42 0a3f a21c c13e
00000300: 71ea f9be 834f b6bd 61c2 4fbf 7302 8a3e
00000310: 81bf 4e3f dec1 89be 22ba 83be a610 643e
00000320: f622 9bbd 8096 083c 46d3 363e 40dd d23c
00000330: 7a9d 99be 1e2e 40be abc5 b03d f050 9a3f
00000340: 9f98 06bf 4f4c 7a3f 040f 3a3e 1fe0 283d
00000350: 876f ac3f 51b7 023f d984 ccbd 5b24 c63e
00000360: 6b0d cebf c617 b7be c3f5 0e3f 35c4 473e
00000370: 282b d1be 6887 ef3d 2ed7 0b3e 45f0 92be
00000380: 75e9 983e 5bbc 903e 42c0 453e 43da c63f
00000390: 39d3 d6be a611 b8be f833 a6bf fe25 4e3e
000003a0: 4657 93be 22cf de3d 83b3 48be 78dc 6d3e
000003b0: 9294 97be 9eea 27be 205a dcbd 6e73 80be
000003c0: 6c0c 8dbe 80f2 2d3c 241c 83be 5bcf 3f3e
000003d0: 5b0d e4bd 40d1 1abe ee17 4dbe d076 833e
000003e0: 7eef 703e 402c 5fbd bb86 f2bd 9202 aa3e
000003f0: 9149 64be 6b56 21bf be3c 67bf 502f c7bd
-1.7767562 0.60417324 0.33641365 0.1770573 -0.006039558 0.26534715 -0.062348623 -0.4000566
-0.27969268 -0.21727145 0.24765608 -0.038879834 0.27232653 -0.21600637 -0.27315235 -0.011091312
-0.2433999 -0.24705029 -0.54438967 1.077405 0.50606745 0.06618679 -0.28895497 -0.4310663
-0.04498813 -0.25931597 -0.08206215 0.39094743 -0.27244103 1.2773055 -0.6252329 -0.04476736
-0.83827585 0.44712597 0.4184378 0.008260876 -0.12310132 -0.26105067 -0.1513534 0.29679042
0.042981587 0.1364954 -0.013863286 0.12867813 -0.3167629 0.33522263 -0.7765816 -0.00974757
0.6318859 -0.33715048 -0.30454576 0.3105448 -1.0549634 0.72219586 -0.16228695 -1.2819233
0.1927977 0.5779652 -0.50150865 -0.27930748 0.040064882 0.6294067 0.34553996 -1.1140094
0.61513364 0.25755188 0.39209303 -0.37398776 0.049831394 -0.676359 0.23445834 0.26065084
-0.29693744 1.2533662 0.5978418 -0.4094721 0.44925284 0.05488118 -0.030125512 -0.12991323
-0.5885153 0.6148925 0.51667756 0.018539108 -1.1708114 -0.5861494 0.24640015 -0.43448564
-0.00038462278 0.47690457 -0.9949761 0.71688 -0.34111863 0.32616127 0.13211997 -0.058161803
-0.44054478 -0.27098495 0.6250872 -0.3758287 -0.9112176 -0.99311775 -0.49232566 0.07797557
-0.011655943 0.70173323 0.48848405 -0.057274513 -0.059030496 0.10683124 0.050616425 0.30972803
0.3298986 0.3193395 -0.32487416 0.18792519 0.22458184 -0.36578697 0.85537165 0.4326849
-0.2610434 -0.44454446 -0.9162408 -0.46087238 0.077360965 -0.22811979 -0.9716096 0.72015345
0.5239362 0.1421524 -0.39093268 -0.290117 0.21699464 -0.1565571 0.2067276 0.067565165
-0.3006311 0.1451931 -0.0318894 -0.08321305 0.11692234 0.21913445 -0.10438319 -0.22873871
-0.48346272 0.5019821 0.012777214 -0.3814676 -0.5884019 -1.3161155 -0.32772937 -0.11885771
0.23250689 -0.85621154 0.5790736 -0.011004731 -0.24822775 -0.78093594 -0.067586884 -0.51824135
0.98281777 0.45512697 -1.8496785 -0.25526413 0.8293542 0.3060429 0.27576628 0.4771673
0.62895757 0.38371375 0.038485233 -0.7213197 0.10324252 -0.6394613 -0.19586314 -0.037782762
0.99692273 0.2646371 -0.017334217 -0.22307768 -0.077872835 -0.08952384 -0.29335162 -0.2245444
-0.14751785 -0.242276 0.14528322 0.2720744 -0.17108533 -0.8626129 0.5400847 0.37717158
-0.48811677 -0.089018844 -0.81155974 0.26954994 0.8076096 -0.2690572 -0.25727946 0.22271976
-0.07575028 0.008336663 0.17854032 0.025740266 -0.30002958 -0.18767592 0.08631452 1.205595
-0.5257663 0.9777269 0.1816979 0.041229364 1.3471535 0.5106097 -0.09986276 0.38699612
-1.6097845 -0.35760325 0.5584375 0.19508441 -0.40853238 0.116957486 0.13656303 -0.28698936
0.29865614 0.28268704 0.19311622 1.5535358 -0.41958025 -0.35950965 -1.298461 0.2013168
-0.28777522 0.10879351 -0.19599728 0.23228633 -0.29605538 -0.16398093 -0.107593775 -0.25088066
-0.2754854 0.010616899 -0.25607407 0.18731444 -0.1113536 -0.15118885 -0.2002866 0.25676584
0.23528859 -0.05448556 -0.11842104 0.33205086 -0.22293688 -0.6302249 -0.9032706 -0.09725821

module_list.0.fc.bias f4 [128]
00000000: 61f6 91be 0c8d fdbd d611 eb3b adf7 5b3e
00000010: a4cb b83d 0c04 273e 0877 023c f875 4abe
00000020: e309 9dbc 6098 9ebd 3a3e 0e3e bf26 e5bd
00000030: 44b7 d63d 300b 46be d8fb 243e 909c a33c
00000040: cc5c 1e3d 3de2 c03d 2751 833e ffed f83d
00000050: f4a9 f5bd 331f 213e 9646 79be d2f0 26be
00000060: 2395 c2bd b34e 513d 9202 023e 7295 573e
00000070: f343 0bbd fdae fb3d 7298 85bc 054d a23e
00000080: 022c 10be 28a0 c33b 6b92 2abe 90f8 cb3b
00000090: ceba 9fbd 171f 153d 9162 05be dde7 64be
000000a0: 82d2 f73b 836f 933c 359e 29be 88cf 04be
000000b0: 5461 2f3e c601 203e 8a0d a6bd cfb4 2dbe
000000c0: 182e bf3d 6711 85be f73a 013e 5e2c 65be
000000d0: 5f4e 26be c227 08be a37d ca3d 19ce eb3d
000000e0: 6864 aa3d b7a8 703e 2ce2 9a3e 87cc c43d
000000f0: c424 253d 5090 2f3e 0596 8bbe 9441 20be
00000100: d2c1 88be 104b 4fbd 9869 dd3d 40b7 ebbd
00000110: b315 2cbe 7347 afbd db14 b9bc 2ddb ab3b
00000120: 2020 1dbe 66b5 2d3e 58a1 03be c8b1 e1bd
00000130: dc1a b9bd 9c10 f3bd 9ac1 1f3e 1afd cfbd
00000140: e04a c0bd 262e 123e 3b3d f93d 830a 00be
00000150: d7d9 09be 26f8 c43b 0048 8a3a 6a6d 00be
00000160: 6670 acbd 22ca 213e c1ea 90be 710e 2abe
00000170: 4fe2 03be e0a3 343e 6b50 10be b260 7bbd
00000180: 7b08 ac3e dbfe bcbe 6007 48bc b0a7 e3bd
00000190: 726a 3e3d 104b cfbd 9c35 f4bd f016 35bf
000001a0: 5516 c6bd 7558 c3bc 708e 33be 0dea 05be
000001b0: fc8b f53d 4965 d9be 00dc 3ebe 3686 583e
000001c0: 5ab1 4a3e 257c fcbd 2284 f83c d733 5c3c
000001d0: e422 43be e350 79bc 005d 20bd 8a77 fa3d
000001e0: 4854 5e3d f82d 763e 5758 923d 84dd 703e
000001f0: 09d9 433e 908b acbc f8b2 bc3d 2a5c 30be
-0.28508285 -0.12380418 0.007173757 0.214812 0.09023216 0.16310138 0.00796295 -0.19771564
-0.019169753 -0.07743907 0.13890925 -0.11189031 0.10484174 -0.19340205 0.16111696 0.019972116
0.038662717 0.094181515 0.25647852 0.12154769 -0.119953066 0.15734558 -0.24343333 -0.16302803
-0.09501102 0.051100444 0.12696293 0.21053103 -0.03400035 0.12289236 -0.016308043 0.31699386
-0.14079288 0.00597002 -0.16657417 0.0062246993 -0.07799302 0.036406603 -0.13025881 -0.22354074
0.0075629363 0.017997509 -0.16564257 -0.12969792 0.17126971 0.15625677 -0.08108051 -0.16963504
0.093349636 -0.2598984 0.1262015 -0.22380206 -0.16240834 -0.13296416 0.098872446 0.115139194
0.08319932 0.2350186 0.3025068 0.09609323 0.040318266 0.17144895 -0.27262893 -0.15650016
-0.26710373 -0.050608695 0.10811156 -0.115095615 -0.16805153 -0.0855855 -0.022592952 0.0052446336
-0.15344286 0.1696373 -0.12854517 -0.11020237 -0.09038326 -0.11868402 0.15601197 -0.10155697
-0.09389281 0.14275417 0.12169882 -0.1250401 -0.13462006 0.006011027 0.0010550022 -0.12541738
-0.08419876 0.15799764 -0.28304103 -0.16607071 -0.12879299 0.17640638 -0.14093177 -0.061371513
0.3360022 -0.3691319 -0.01220879 -0.11115968 0.046488233 -0.10121739 -0.11924288 -0.70738125
-0.09672228 -0.02384589 -0.17534804 -0.13077565 0.119895905 -0.42460087 -0.18638611 0.21144947
0.19794217 -0.12328366 0.030336443 0.013440094 -0.19056278 -0.015217039 -0.03915119 0.122298315
0.054279596 0.24040973 0.07145756 0.23522002 0.19125761 -0.021062642 0.09213823 -0.17222658

module_list.0.output_quant.pre_transforms.0.weight f4 [128]
00000000: 0b2b 963e 0000 803f 9ef4 a63e 8add 843f
00000010: 0000 803f 8dfd 183f 2956 323f 7855 203f
00000020: 7f9b b33e 07df c53e 4292 683f e3a5 bb3e
00000030: 0000 803f 3930 c83f 2b94 bf3e 0000 803f
00000040: 9f4d 693f 7c1a 993f 7ba8 433f efc4 ef3e
00000050: 0000 803f e2a0 ef3e 0000 803f 8782 eb3e
00000060: 53f0 213f 9d02 a73f 0000 803f 0000 803f
00000070: e01f 3c3f 8908 d73e f241 a13e 6fe4 583f
00000080: 0000 803f c477 293f 0243 9f3f 2795 e63e
00000090: 487f cc3e 27bb cc3e a20b c43e 414a f83e
000000a0: 1e5d 5d3f 071c a33f 3457 6e3f 0000 803f
000000b0: 0000 803f e1ba ee3e ccda ed3f 5bc7 cc3e
000000c0: 0000 803f 10c8 d63e ec7e 1a3f 7cc3 dd3e
000000d0: 47fb 3b3f 0000 803f 6430 1640 9d44 c73e
000000e0: 2a1c 7940 f151 133f a7dd 693f ac41 d93f
000000f0: ec00 f33e 0000 803f 9855 c73f 9c5a 163f
00000100: 5d93 e03e 06f5 9c3f d89c bf3e 0000 803f
00000110: 90a8 323f d6a8 eb3f e408 903f 8eed 383f
00000120: 577b ff3e d5eb ba3f e5ae 903f 0000 803f
00000130: 0000 803f 0000 803f 0000 803f 7736 ed3e
00000140: 0000 803f 9cc6 f03f 5e44 cd3e ec85 be3e
00000150: d56d 743f ed06 1a3f 0000 803f 0000 803f
00000160: 043c ac3e 6964 523f f5e6 4b3f dd4a ca3e
00000170: 21e8 0e3f 0000 803f f780 b23e 85bc db3e
00000180: 4c46 f93e a8ac 823f 3c1f a23e 0000 803f
00000190: 3391 ee3e 0000 803f 53e2 c13e 59b4 f23f
000001a0: 7d0e de3e 6c7a 0d3f 5ea0 0f3f cb1e af3f
000001b0: 38d5 6e3f b226 0e3f 5f80 973f 6690 d73f
000001c0: 0000 803f 7038 0a40 3e76 0f3f abb1 d23e
000001d0: b3f9 ee3e 6118 633f 0000 803f da8b 883f
000001e0: 0000 803f 0000 803f 13da da3e 0000 803f
000001f0: 6871 bd3e 535d 3e3f 3471 0b3f 7c93 7c3f
0.29329714 1.0 0.32608503 1.0380108 1.0 0.5976189 0.6966272 0.62630415
0.35079572 0.3864672 0.9084817 0.3665 1.0 1.5639716 0.3741773 1.0
0.91134065 1.1961207 0.76428956 0.46829936 1.0 0.4680243 1.0 0.45998022
0.6325733 1.3047673 1.0 1.0 0.7348614 0.419987 0.31495625 0.8472356
1.0 0.6619837 1.2442324 0.4503567 0.39940858 0.39986536 0.38290125 0.4849415
0.8647021 1.2742928 0.9310181 1.0 1.0 0.46626952 1.8582397 0.39995846
1.0 0.4194951 0.6034992 0.43313205 0.73430294 1.0 2.3467035 0.38919535
3.892344 0.5754691 0.9135384 1.6973166 0.4746164 1.0 1.5572996 0.5873201
0.4386243 1.2262275 0.3742435 1.0 0.69788456 1.84109 1.1252713 0.7223748
0.49898788 1.460322 1.1303374 1.0 1.0 1.0 1.0 0.46330616
1.0 1.8810611 0.40091223 0.3721155 0.9548009 0.6016682 1.0 1.0
0.33639538 0.82184464 0.7964929 0.3951024 0.5582295 1.0 0.34864017 0.42917266
0.48686445 1.020894 0.31664455 1.0 0.46595153 1.0 0.37867984 1.8961288
0.4337043 0.55264926 0.56104076 1.3681272 0.93294096 0.55527794 1.1836051 1.6840942
1.0 2.1596947 0.560398 0.41151175 0.4667488 0.88709074 1.0 1.0667679
1.0 1.0 0.42744502 1.0 0.37000585 0.7436115 0.5446961 0.98662543

module_list.0.output_quant.pre_transforms.0.bias f4 [128]
00000000: 21fc 1a3f 0000 0000 52a6 183f 7cd5 893f
00000010: 0000 0000 a8cb 513f a86d 7f3e 7c60 403f
00000020: 3f37 933e a5e4 423f 7f26 c8bc fe1d 2b3f
00000030: 0000 0000 5e17 333f ba1a 2a3f 0000 0000
00000040: f108 343f 6ae0 00bf 5f9c 773e 38f4 373f
00000050: 0000 0000 d90e 3c3f 0000 0000 b4c5 093f
00000060: c2cc 483f 3822 a73d 0000 0000 0000 0000
00000070: b1fe a53e 950a 833e 1760 043f dd30 873e
00000080: 0000 0000 e304 fa3e a625 a4be 5893 0d3f
00000090: 7539 9d3e ef1e 323f 2d02 18bf 6ac3 943e
000000a0: 5e6a 933d e1ad d03e 20f9 3a3f 0000 0000
000000b0: 0000 0000 599f 253f 8b56 973f 5643 143f
000000c0: 0000 0000 7633 c33e ba1f 9e3c 889e 223f
000000d0: 174c 683e 0000 0000 c2df f9bf d8b7 213f
000000e0: 8f24 a23e d045 6f3e 58c7 12bd 8de4 17be
000000f0: 63ae b23e 0000 0000 3285 9a3f 283f 323f
00000100: 1984 383f 1288 87be 8741 053f 0000 0000
00000110: bdea a7bd fe9e 233e 6e2e c9bd 54f6 2b3f
00000120: 066d 0e3f 5790 35bf 1fd1 0f3f 0000 0000
00000130: 0000 0000 0000 0000 0000 0000 a16c e43d
00000140: 0000 0000 13c6 ca3e c4a7 1c3f db46 be3e
00000150: a5d7 abbe 267a 343e 0000 0000 0000 0000
00000160: 24a3 3a3f 1b94 16be 9a02 ef3d cf86 a53e
00000170: 9662 b83e 0000 0000 983d ee3e 34e3 683e
00000180: 00a4 283e 4cfc ad3d e3ed 343f 0000 0000
00000190: 98ce de3e 0000 0000 d2b2 f83e 55a8 9ebf
000001a0: ece4 1c3f c8a8 fe3e f9f2 303f e05a 94be
000001b0: c4c7 1cbe 1ec7 b33e 72a0 3fbf e09d bebd
000001c0: 0000 0000 b4f4 453f e716 093f d874 c03e
000001d0: b3b7 d93e 07e9 d73e 0000 0000 41b2 bcbd
000001e0: 0000 0000 0000 0000 13d5 5b3f 0000 0000
000001f0: f32a 953d c4f8 ae3f 2110 563f f237 2b3d
0.6054097 0.0 0.59628785 1.0768275 0.0 0.8195138 0.24944174 0.75147223
0.28753087 0.76130134 -0.024432419 0.6684264 0.0 0.6995753 0.6644703 0.0
0.70326144 -0.5034243 0.24180745 0.71857023 0.0 0.73460156 0.0 0.53817296
0.78437436 0.081608236 0.0 0.0 0.32420877 0.2559401 0.5170912 0.26404467
0.0 0.48831853 -0.32059973 0.55302954 0.307079 0.6957845 -0.5937832 0.2905534
0.07198022 0.4075766 0.73036385 0.0 0.0 0.6469627 1.1823286 0.57915246
0.0 0.381252 0.019302238 0.6352315 0.22685276 0.0 -1.952141 0.6317115
0.31668517 0.23366475 -0.03583464 -0.14833279 0.34898672 0.0 1.2071898 0.6962762
0.72076565 -0.26471 0.5205311 0.0 -0.0819907 0.1597862 -0.09823309 0.6717274
0.55635107 -0.7092337 0.5617847 0.0 0.0 0.0 0.0 0.11153532
0.0 0.39604244 0.6119349 0.37163433 -0.3356296 0.17624721 0.0 0.0
0.7290518 -0.14704935 0.11670418 0.32329413 0.36012715 0.0 0.46531367 0.22742921
0.16468811 0.084953874 0.70675486 0.0 0.43516994 0.0 0.4857393 -1.2395121
0.6128681 0.49738145 0.69120747 -0.28975582 -0.1531058 0.35112852 -0.74854195 -0.09307456
0.0 0.7732651 0.5355057 0.37589145 0.42522964 0.42169973 0.0 -0.09213687
0.0 0.0 0.85872 0.0 0.072835825 1.3669667 0.8361836 0.0418014

module_list.0.output_quant.pre_transforms.0.running_mean f4 [128]
00000000: 346b 2f3f b324 623e f9a8 f73e a621 623f
00000010: 1f53 833d 2b70 443e 3ad4 4dbe 7ab1 abbd
00000020: dc57 233d cab7 0bbf 876e 50be cc18 e0be
00000030: b808 073e 46ad 233f acee 003e d0a5 6b3e
00000040: 98ae 4d3f c728 adbd af78 8d3f e96b 00bf
00000050: 2841 95be 3fb3 143f 5307 e5bd 89e9 3d3f
00000060: eba5 c93e 3bd4 283f cc20 323c 1ae3 f6bd
00000070: e569 ee3d 9205 b9bd 3fdf 90be ce00 56bd
00000080: 3c72 c7bd 379f 563f 94ec edbd ec6d 523f
00000090: d4f0 4abf 741c 19bd fc40 23be cd13 64be
000000a0: 96e3 b0be cb1a de3e d3f6 513c ee80 7fbe
000000b0: 4d43 b13e 8c95 483f 79ff 8b3d 680a 493e
000000c0: 88e1 d5bd d968 7bbf 3edc 1e3d fdc4 fabd
000000d0: 73b6 1ebe 4dd2 913d 1fd2 b9bf 1193 89be
000000e0: 485d 173f 199b 023d fae4 a1be 2bf7 1740
000000f0: 1cec 8f3d ec21 053e 60ed 89be 7d32 133e
00000100: acb3 75be c2ea dabe 1833 043e 0a69 14be
00000110: 338b 823e fe50 aebe 4f89 f43b e50d 32bf
00000120: da71 313f cbc1 963e 71cc 22be 8092 4fbe
00000130: 307d 8c3c 6e98 833d d014 983d 0855 383d
00000140: 8d7e 9dbe 7548 053e a034 203f 1a2a 54bf
00000150: 5030 59be b173 6fbf 9039 ad3d 56ad a6be
00000160: 5132 dc3e f183 023e 7079 b5be 1d1f 22be
00000170: 5fd4 55be dd83 b43d 9d21 01bf bf4c 98be
00000180: 8027 89be 6883 a9bf 92f1 0ebe 8715 90bd
00000190: 0258 05bf 00bd 1e3e ff59 dcbe d8fd 40bf
000001a0: 8cba 21bf 74c9 13bf 0719 db3e 4ff3 9fbf
000001b0: 5d00 e73e 24b3 aabf c248 35be ee19 313f
000001c0: be30 563e e0fc be3a 0c3c 253f 47d4 8c3c
000001d0: e43a 8fbe b68b 013e 0b15 65bd 111d f3be
000001e0: 5b2c 083e aa35 193e f48a 253e 84b7 1d3e
000001f0: 577f 193c 55e2 363f 51bd 1fbf e42f c8be
0.68522954 0.22084312 0.48371103 0.88332593 0.064123385 0.19183414 -0.2010049 -0.0838346
0.03987871 -0.54577315 -0.20354663 -0.4376892 0.1318692 0.6393627 0.12591046 0.23012471
0.80344534 -0.08455043 1.1052455 -0.5016466 -0.29151273 0.5808601 -0.111830376 0.7418447
0.39384398 0.6594884 0.010872077 -0.12055035 0.116412915 -0.090342656 -0.28295323 -0.05224686
-0.09738585 0.8383669 -0.11617389 0.8219898 -0.79273725 -0.03738065 -0.15942758 -0.22273178
-0.34548634 0.43379816 0.012815195 -0.24951527 0.3462166 0.7835319 0.06835837 0.19632876
-0.10443407 -0.9820686 0.038784258 -0.12244604 -0.15499286 0.0712019 -1.4517249 -0.26870015
0.5912671 0.031886194 -0.31620008 2.374461 0.07027456 0.13001221 -0.26938915 0.14374729
-0.2399432 -0.4275723 0.12910116 -0.14493194 0.25496826 -0.34046167 0.0074626575 -0.6955245
0.6931435 0.29444727 -0.158983 -0.20270729 0.017149538 0.06425558 0.07425845 0.045002967
-0.30760613 0.13015921 0.625803 -0.8287674 -0.21209836 -0.93535906 0.08458245 -0.3255412
0.43007138 0.12745644 -0.35444212 -0.15832181 -0.20881794 0.088142134 -0.50441915 -0.29746053
-0.2678795 -1.3243227 -0.1395934 -0.07035356 -0.52087414 0.15501785 -0.43037412 -0.75387335
-0.6317527 -0.5772927 0.42792532 -1.2496127 0.45117465 -1.3335919 -0.17703536 0.6918019
0.20917031 0.0014571212 0.6454475 0.017191065 -0.27974617 0.12650952 -0.05592827 -0.47483113
0.1329817 0.14961877 0.16166288 0.15402037 0.009368739 0.71439105 -0.6239825 -0.39099038

module_list.0.output_quant.pre_transforms.0.running_var f4 [128]
00000000: 1a19 203f 2863 0a3e 8486 a13d 7e11 1e3f
00000010: d5de 2c3e 941a ce3d 5540 253f c155 223f
00000020: 6cc7 1c3e 9c44 103f 5200 453f fd2e 013f
00000030: 4e9d 133d 7de2 3d3f 1e67 923d 2059 943c
00000040: 6fd5 ab3f 294f f93e c374 833f d14d 8f3e
00000050: c5f2 303d 2082 433e c20e e33c 5df3 b83f
00000060: 8b74 5f3f a1ba ab3f c84a ac3d fd6f bf3d
00000070: af79 023f c553 e43d 3561 763e 4650 203f
00000080: 65c7 c23d 76bf 2e40 c537 e43d 2aad 323f
00000090: 7652 e43e 7b8b a83e 5775 4f3f db08 c43e
000000a0: 1981 213f 523c b83e 79b3 723e 9980 1d3e
000000b0: 1dde eb3d 4248 6b3f 929a b13f 1a22 233f
000000c0: 10f7 c63c 2e4a 943f 7089 803e 849f fb3c
000000d0: 6eb2 bf3d d72f 303d 9103 4640 562b 353e
000000e0: a13d 7740 2dee 6c3f 5060 a13e 989e 0540
000000f0: 9096 4640 7246 7e3d b6a4 d83e 0bfa e13e
00000100: ca28 0a3e 033a 3e40 9dff cf3d 6666 553d
00000110: 5b67 033f ac93 053f 255d 3f3e 687e 783f
00000120: 45c4 c93e 35bc a43d f2d1 f73d f9cd 873d
00000130: ba5a 983c 51c5 ef3c 9725 603d 504d 863f
00000140: 5a6b de3c 1767 843f e5ea 293f c5a1 0e3f
00000150: 85c3 0d40 2239 7840 86b7 9d3d 269e cd3d
00000160: 1288 c23d f6ae 623e 4cdd 1040 f099 1e3f
00000170: 9e9f 043e acb3 0d3d 3909 e33d a3aa c13e
00000180: e4b7 583f ee20 3f3f ca6f 963c f839 e33d
00000190: f683 4c3e 1a35 a23e ea7d 233f 366b 813e
000001a0: 00a5 8f3f d1a4 bb3e 639c d13e 56fc 9c3f
000001b0: cc6a 3a3f a43c 2f3e ac3f e73d b974 d03e
000001c0: 6940 403c 14a1 6140 b299 d13e 5509 513e
000001d0: 90e9 e93e 3370 083f 79d1 593d 1e44 893f
000001e0: 764d 013e 8342 833d 3425 143f 8b40 b53c
000001f0: 59c5 3f3e 3732 eb3e 1005 b13f 5593 a63d
0.625383 0.13514388 0.07886985 0.6174544 0.16881879 0.10063663 0.6455129 0.634121
0.15310448 0.5635469 0.76953614 0.50462323 0.03603869 0.7417372 0.07148574 0.018108904
1.342451 0.48693207 1.0270008 0.27989057 0.043200273 0.19092607 0.027716998 1.4449269
0.87287205 1.341633 0.08412701 0.09347532 0.50966924 0.1114879 0.24060519 0.6262249
0.09510688 2.7304358 0.1114345 0.6979548 0.44594163 0.32918915 0.8103842 0.38288006
0.6308761 0.3598352 0.23701276 0.15381087 0.11516974 0.9190713 1.3875296 0.6372391
0.02428773 1.1585138 0.25104856 0.030715711 0.09360205 0.043014374 3.0939677 0.17692313
3.8631365 0.9255093 0.31518793 2.0878048 3.1029396 0.0620789 0.42313164 0.4413608
0.13492122 2.9722908 0.10156176 0.052099608 0.5132958 0.52178454 0.18687876 0.9706788
0.39407554 0.0804371 0.12100591 0.06631083 0.01859795 0.029268892 0.05472335 1.0492344
0.027150799 1.034396 0.66374046 0.5571559 2.2150586 3.878487 0.0770102 0.1003993
0.094986096 0.22137055 2.263507 0.6195364 0.12951514 0.034595177 0.110857435 0.37825498
0.84655595 0.7465962 0.018363852 0.11095041 0.19972214 0.31681138 0.63864005 0.25277108
1.1222229 0.36649182 0.40939626 1.2264507 0.7281921 0.17112976 0.11291441 0.40714052
0.011734107 3.5254564 0.40937573 0.20413716 0.45686007 0.532962 0.053178284 1.0723913
0.12627205 0.064091705 0.5786927 0.022125503 0.18727626 0.45936748 1.382967 0.0813357

module_list.1.mask f4 [19, 3]
00000000: 0000 803f 0000 0000 0000 0000 0000 0000
00000010: 0000 803f 0000 0000 0000 0000 0000 0000
00000020: 0000 803f 0000 0040 0000 0000 0000 0000
00000030: 0000 803f 0000 803f 0000 0000 0000 803f
00000040: 0000 0000 0000 803f 0000 0000 0000 0040
00000050: 0000 0000 0000 0000 0000 803f 0000 803f
00000060: 0000 0000 0000 0000 0000 0040 0000 4040
00000070: 0000 0000 0000 0000 0000 0040 0000 803f
00000080: 0000 0000 0000 0040 0000 0000 0000 803f
00000090: 0000 803f 0000 0040 0000 0000 0000 803f
000000a0: 0000 803f 0000 803f 0000 803f 0000 0000
000000b0: 0000 0040 0000 0000 0000 4040 0000 0000
000000c0: 0000 0000 0000 0040 0000 803f 0000 0000
000000d0: 0000 803f 0000 0040 0000 0000 0000 0000
000000e0: 0000 4040
1.0 0.0 0.0 0.0 1.0 0.0 0.0 0.0
1.0 2.0 0.0 0.0 1.0 1.0 0.0 1.0
0.0 1.0 0.0 2.0 0.0 0.0 1.0 1.0
0.0 0.0 2.0 3.0 0.0 0.0 2.0 1.0
0.0 2.0 0.0 1.0 1.0 2.0 0.0 1.0
1.0 1.0 1.0 0.0 2.0 0.0 3.0 0.0
0.0 2.0 1.0 0.0 1.0 2.0 0.0 0.0
3.0

module_list.1.input_quant.pre_transforms.0.weight f4 [128]
00000000: 0b2b 963e 0000 803f 9ef4 a63e 8add 843f
00000010: 0000 803f 8dfd 183f 2956 323f 7855 203f
00000020: 7f9b b33e 07df c53e 4292 683f e3a5 bb3e
00000030: 0000 803f 3930 c83f 2b94 bf3e 0000 803f
00000040: 9f4d 693f 7c1a 993f 7ba8 433f efc4 ef3e
00000050: 0000 803f e2a0 ef3e 0000 803f 8782 eb3e
00000060: 53f0 213f 9d02 a73f 0000 803f 0000 803f
00000070: e01f 3c3f 8908 d73e f241 a13e 6fe4 583f
00000080: 0000 803f c477 293f 0243 9f3f 2795 e63e
00000090: 487f cc3e 27bb cc3e a20b c43e 414a f83e
000000a0: 1e5d 5d3f 071c a33f 3457 6e3f 0000 803f
000000b0: 0000 803f e1ba ee3e ccda ed3f 5bc7 cc3e
000000c0: 0000 803f 10c8 d63e ec7e 1a3f 7cc3 dd3e
000000d0: 47fb 3b3f 0000 803f 6430 1640 9d44 c73e
000000e0: 2a1c 7940 f151 133f a7dd 693f ac41 d93f
000000f0: ec00 f33e 0000 803f 9855 c73f 9c5a 163f
00000100: 5d93 e03e 06f5 9c3f d89c bf3e 0000 803f
00000110: 90a8 323f d6a8 eb3f e408 903f 8eed 383f
00000120: 577b ff3e d5eb ba3f e5ae 903f 0000 803f
00000130: 0000 803f 0000 803f 0000 803f 7736 ed3e
00000140: 0000 803f 9cc6 f03f 5e44 cd3e ec85 be3e
00000150: d56d 743f ed06 1a3f 0000 803f 0000 803f
00000160: 043c ac3e 6964 523f f5e6 4b3f dd4a ca3e
00000170: 21e8 0e3f 0000 803f f780 b23e 85bc db3e
00000180: 4c46 f93e a8ac 823f 3c1f a23e 0000 803f
00000190: 3391 ee3e 0000 803f 53e2 c13e 59b4 f23f
000001a0: 7d0e de3e 6c7a 0d3f 5ea0 0f3f cb1e af3f
000001b0: 38d5 6e3f b226 0e3f 5f80 973f 6690 d73f
000001c0: 0000 803f 7038 0a40 3e76 0f3f abb1 d23e
000001d0: b3f9 ee3e 6118 633f 0000 803f da8b 883f
000001e0: 0000 803f 0000 803f 13da da3e 0000 803f
000001f0: 6871 bd3e 535d 3e3f 3471 0b3f 7c93 7c3f
0.29329714 1.0 0.32608503 1.0380108 1.0 0.5976189 0.6966272 0.62630415
0.35079572 0.3864672 0.9084817 0.3665 1.0 1.5639716 0.3741773 1.0
0.91134065 1.1961207 0.76428956 0.46829936 1.0 0.4680243 1.0 0.45998022
0.6325733 1.3047673 1.0 1.0 0.7348614 0.419987 0.31495625 0.8472356
1.0 0.6619837 1.2442324 0.4503567 0.39940858 0.39986536 0.38290125 0.4849415
0.8647021 1.2742928 0.9310181 1.0 1.0 0.46626952 1.8582397 0.39995846
1.0 0.4194951 0.6034992 0.43313205 0.73430294 1.0 2.3467035 0.38919535
3.892344 0.5754691 0.9135384 1.6973166 0.4746164 1.0 1.5572996 0.5873201
0.4386243 1.2262275 0.3742435 1.0 0.69788456 1.84109 1.1252713 0.7223748
0.49898788 1.460322 1.1303374 1.0 1.0 1.0 1.0 0.46330616
1.0 1.8810611 0.40091223 0.3721155 0.9548009 0.6016682 1.0 1.0
0.33639538 0.82184464 0.7964929 0.3951024 0.5582295 1.0 0.34864017 0.42917266
0.48686445 1.020894 0.31664455 1.0 0.46595153 1.0 0.37867984 1.8961288
0.4337043 0.55264926 0.56104076 1.3681272 0.93294096 0.55527794 1.1836051 1.6840942
1.0 2.1596947 0.560398 0.41151175 0.4667488 0.88709074 1.0 1.0667679
1.0 1.0 0.42744502 1.0 0.37000585 0.7436115 0.5446961 0.98662543

module_list.1.input_quant.pre_transforms.0.bias f4 [128]
00000000: 21fc 1a3f 0000 0000 52a6 183f 7cd5 893f
00000010: 0000 0000 a8cb 513f a86d 7f3e 7c60 403f
00000020: 3f37 933e a5e4 423f 7f26 c8bc fe1d 2b3f
00000030: 0000 0000 5e17 333f ba1a 2a3f 0000 0000
00000040: f108 343f 6ae0 00bf 5f9c 773e 38f4 373f
00000050: 0000 0000 d90e 3c3f 0000 0000 b4c5 093f
00000060: c2cc 483f 3822 a73d 0000 0000 0000 0000
00000070: b1fe a53e 950a 833e 1760 043f dd30 873e
00000080: 0000 0000 e304 fa3e a625 a4be 5893 0d3f
00000090: 7539 9d3e ef1e 323f 2d02 18bf 6ac3 943e
000000a0: 5e6a 933d e1ad d03e 20f9 3a3f 0000 0000
000000b0: 0000 0000 599f 253f 8b56 973f 5643 143f
000000c0: 0000 0000 7633 c33e ba1f 9e3c 889e 223f
000000d0: 174c 683e 0000 0000 c2df f9bf d8b7 213f
000000e0: 8f24 a23e d045 6f3e 58c7 12bd 8de4 17be
000000f0: 63ae b23e 0000 0000 3285 9a3f 283f 323f
00000100: 1984 383f 1288 87be 8741 053f 0000 0000
00000110: bdea a7bd fe9e 233e 6e2e c9bd 54f6 2b3f
00000120: 066d 0e3f 5790 35bf 1fd1 0f3f 0000 0000
00000130: 0000 0000 0000 0000 0000 0000 a16c e43d
00000140: 0000 0000 13c6 ca3e c4a7 1c3f db46 be3e
00000150: a5d7 abbe 267a 343e 0000 0000 0000 0000
00000160: 24a3 3a3f 1b94 16be 9a02 ef3d cf86 a53e
00000170: 9662 b83e 0000 0000 983d ee3e 34e3 683e
00000180: 00a4 283e 4cfc ad3d e3ed 343f 0000 0000
00000190: 98ce de3e 0000 0000 d2b2 f83e 55a8 9ebf
000001a0: ece4 1c3f c8a8 fe3e f9f2 303f e05a 94be
000001b0: c4c7 1cbe 1ec7 b33e 72a0 3fbf e09d bebd
000001c0: 0000 0000 b4f4 453f e716 093f d874 c03e
000001d0: b3b7 d93e 07e9 d73e 0000 0000 41b2 bcbd
000001e0: 0000 0000 0000 0000 13d5 5b3f 0000 0000
000001f0: f32a 953d c4f8 ae3f 2110 563f f237 2b3d
0.6054097 0.0 0.59628785 1.0768275 0.0 0.8195138 0.24944174 0.75147223
0.28753087 0.76130134 -0.024432419 0.6684264 0.0 0.6995753 0.6644703 0.0
0.70326144 -0.5034243 0.24180745 0.71857023 0.0 0.73460156 0.0 0.53817296
0.78437436 0.081608236 0.0 0.0 0.32420877 0.2559401 0.5170912 0.26404467
0.0 0.48831853 -0.32059973 0.55302954 0.307079 0.6957845 -0.5937832 0.2905534
0.07198022 0.4075766 0.73036385 0.0 0.0 0.6469627 1.1823286 0.57915246
0.0 0.381252 0.019302238 0.6352315 0.22685276 0.0 -1.952141 0.6317115
0.31668517 0.23366475 -0.03583464 -0.14833279 0.34898672 0.0 1.2071898 0.6962762
0.72076565 -0.26471 0.5205311 0.0 -0.0819907 0.1597862 -0.09823309 0.6717274
0.55635107 -0.7092337 0.5617847 0.0 0.0 0.0 0.0 0.11153532
0.0 0.39604244 0.6119349 0.37163433 -0.3356296 0.17624721 0.0 0.0
0.7290518 -0.14704935 0.11670418 0.32329413 0.36012715 0.0 0.46531367 0.22742921
0.16468811 0.084953874 0.70675486 0.0 0.43516994 0.0 0.4857393 -1.2395121
0.6128681 0.49738145 0.69120747 -0.28975582 -0.1531058 0.35112852 -0.74854195 -0.09307456
0.0 0.7732651 0.5355057 0.37589145 0.42522964 0.42169973 0.0 -0.09213687
0.0 0.0 0.85872 0.0 0.072835825 1.3669667 0.8361836 0.0418014

module_list.1.input_quant.pre_transforms.0.running_mean f4 [128]
00000000: 346b 2f3f b324 623e f9a8 f73e a621 623f
00000010: 1f53 833d 2b70 443e 3ad4 4dbe 7ab1 abbd
00000020: dc57 233d cab7 0bbf 876e 50be cc18 e0be
00000030: b808 073e 46ad 233f acee 003e d0a5 6b3e
00000040: 98ae 4d3f c728 adbd af78 8d3f e96b 00bf
00000050: 2841 95be 3fb3 143f 5307 e5bd 89e9 3d3f
00000060: eba5 c93e 3bd4 283f cc20 323c 1ae3 f6bd
00000070: e569 ee3d 9205 b9bd 3fdf 90be ce00 56bd
00000080: 3c72 c7bd 379f 563f 94ec edbd ec6d 523f
00000090: d4f0 4abf 741c 19bd fc40 23be cd13 64be
000000a0: 96e3 b0be cb1a de3e d3f6 513c ee80 7fbe
000000b0: 4d43 b13e 8c95 483f 79ff 8b3d 680a 493e
000000c0: 88e1 d5bd d968 7bbf 3edc 1e3d fdc4 fabd
000000d0: 73b6 1ebe 4dd2 913d 1fd2 b9bf 1193 89be
000000e0: 485d 173f 199b 023d fae4 a1be 2bf7 1740
000000f0: 1cec 8f3d ec21 053e 60ed 89be 7d32 133e
00000100: acb3 75be c2ea dabe 1833 043e 0a69 14be
00000110: 338b 823e fe50 aebe 4f89 f43b e50d 32bf
00000120: da71 313f cbc1 963e 71cc 22be 8092 4fbe
00000130: 307d 8c3c 6e98 833d d014 983d 0855 383d
00000140: 8d7e 9dbe 7548 053e a034 203f 1a2a 54bf
00000150: 5030 59be b173 6fbf 9039 ad3d 56ad a6be
00000160: 5132 dc3e f183 023e 7079 b5be 1d1f 22be
00000170: 5fd4 55be dd83 b43d 9d21 01bf bf4c 98be
00000180: 8027 89be 6883 a9bf 92f1 0ebe 8715 90bd
00000190: 0258 05bf 00bd 1e3e ff59 dcbe d8fd 40bf
000001a0: 8cba 21bf 74c9 13bf 0719 db3e 4ff3 9fbf
000001b0: 5d00 e73e 24b3 aabf c248 35be ee19 313f
000001c0: be30 563e e0fc be3a 0c3c 253f 47d4 8c3c
000001d0: e43a 8fbe b68b 013e 0b15 65bd 111d f3be
000001e0: 5b2c 083e aa35 193e f48a 253e 84b7 1d3e
000001f0: 577f 193c 55e2 363f 51bd 1fbf e42f c8be
0.68522954 0.22084312 0.48371103 0.88332593 0.064123385 0.19183414 -0.2010049 -0.0838346
0.03987871 -0.54577315 -0.20354663 -0.4376892 0.1318692 0.6393627 0.12591046 0.23012471
0.80344534 -0.08455043 1.1052455 -0.5016466 -0.29151273 0.5808601 -0.111830376 0.7418447
0.39384398 0.6594884 0.010872077 -0.12055035 0.116412915 -0.090342656 -0.28295323 -0.05224686
-0.09738585 0.8383669 -0.11617389 0.8219898 -0.79273725 -0.03738065 -0.15942758 -0.22273178
-0.34548634 0.43379816 0.012815195 -0.24951527 0.3462166 0.7835319 0.06835837 0.19632876
-0.10443407 -0.9820686 0.038784258 -0.12244604 -0.15499286 0.0712019 -1.4517249 -0.26870015
0.5912671 0.031886194 -0.31620008 2.374461 0.07027456 0.13001221 -0.26938915 0.14374729
-0.2399432 -0.4275723 0.12910116 -0.14493194 0.25496826 -0.34046167 0.0074626575 -0.6955245
0.6931435 0.29444727 -0.158983 -0.20270729 0.017149538 0.06425558 0.07425845 0.045002967
-0.30760613 0.13015921 0.625803 -0.8287674 -0.21209836 -0.93535906 0.08458245 -0.3255412
0.43007138 0.12745644 -0.35444212 -0.15832181 -0.20881794 0.088142134 -0.50441915 -0.29746053
-0.2678795 -1.3243227 -0.1395934 -0.07035356 -0.52087414 0.15501785 -0.43037412 -0.75387335
-0.6317527 -0.5772927 0.42792532 -1.2496127 0.45117465 -1.3335919 -0.17703536 0.6918019
0.20917031 0.0014571212 0.6454475 0.017191065 -0.27974617 0.12650952 -0.05592827 -0.47483113
0.1329817 0.14961877 0.16166288 0.15402037 0.009368739 0.71439105 -0.6239825 -0.39099038

module_list.1.input_quant.pre_transforms.0.running_var f4 [128]
00000000: 1a19 203f 2863 0a3e 8486 a13d 7e11 1e3f
00000010: d5de 2c3e 941a ce3d 5540 253f c155 223f
00000020: 6cc7 1c3e 9c44 103f 5200 453f fd2e 013f
00000030: 4e9d 133d 7de2 3d3f 1e67 923d 2059 943c
00000040: 6fd5 ab3f 294f f93e c374 833f d14d 8f3e
00000050: c5f2 303d 2082 433e c20e e33c 5df3 b83f
00000060: 8b74 5f3f a1ba ab3f c84a ac3d fd6f bf3d
00000070: af79 023f c553 e43d 3561 763e 4650 203f
00000080: 65c7 c23d 76bf 2e40 c537 e43d 2aad 323f
00000090: 7652 e43e 7b8b a83e 5775 4f3f db08 c43e
000000a0: 1981 213f 523c b83e 79b3 723e 9980 1d3e
000000b0: 1dde eb3d 4248 6b3f 929a b13f 1a22 233f
000000c0: 10f7 c63c 2e4a 943f 7089 803e 849f fb3c
000000d0: 6eb2 bf3d d72f 303d 9103 4640 562b 353e
000000e0: a13d 7740 2dee 6c3f 5060 a13e 989e 0540
000000f0: 9096 4640 7246 7e3d b6a4 d83e 0bfa e13e
00000100: ca28 0a3e 033a 3e40 9dff cf3d 6666 553d
00000110: 5b67 033f ac93 053f 255d 3f3e 687e 783f
00000120: 45c4 c93e 35bc a43d f2d1 f73d f9cd 873d
00000130: ba5a 983c 51c5 ef3c 9725 603d 504d 863f
00000140: 5a6b de3c 1767 843f e5ea 293f c5a1 0e3f
00000150: 85c3 0d40 2239 7840 86b7 9d3d 269e cd3d
00000160: 1288 c23d f6ae 623e 4cdd 1040 f099 1e3f
00000170: 9e9f 043e acb3 0d3d 3909 e33d a3aa c13e
00000180: e4b7 583f ee20 3f3f ca6f 963c f839 e33d
00000190: f683 4c3e 1a35 a23e ea7d 233f 366b 813e
000001a0: 00a5 8f3f d1a4 bb3e 639c d13e 56fc 9c3f
000001b0: cc6a 3a3f a43c 2f3e ac3f e73d b974 d03e
000001c0: 6940 403c 14a1 6140 b299 d13e 5509 513e
000001d0: 90e9 e93e 3370 083f 79d1 593d 1e44 893f
000001e0: 764d 013e 8342 833d 3425 143f 8b40 b53c
000001f0: 59c5 3f3e 3732 eb3e 1005 b13f 5593 a63d
0.625383 0.13514388 0.07886985 0.6174544 0.16881879 0.10063663 0.6455129 0.634121
0.15310448 0.5635469 0.76953614 0.50462323 0.03603869 0.7417372 0.07148574 0.018108904
1.342451 0.48693207 1.0270008 0.27989057 0.043200273 0.19092607 0.027716998 1.4449269
0.87287205 1.341633 0.08412701 0.09347532 0.50966924 0.1114879 0.24060519 0.6262249
0.09510688 2.7304358 0.1114345 0.6979548 0.44594163 0.32918915 0.8103842 0.38288006
0.6308761 0.3598352 0.23701276 0.15381087 0.11516974 0.9190713 1.3875296 0.6372391
0.02428773 1.1585138 0.25104856 0.030715711 0.09360205 0.043014374 3.0939677 0.17692313
3.8631365 0.9255093 0.31518793 2.0878048 3.1029396 0.0620789 0.42313164 0.4413608
0.13492122 2.9722908 0.10156176 0.052099608 0.5132958 0.52178454 0.18687876 0.9706788
0.39407554 0.0804371 0.12100591 0.06631083 0.01859795 0.029268892 0.05472335 1.0492344
0.027150799 1.034396 0.66374046 0.5571559 2.2150586 3.878487 0.0770102 0.1003993
0.094986096 0.22137055 2.263507 0.6195364 0.12951514 0.034595177 0.110857435 0.37825498
0.84655595 0.7465962 0.018363852 0.11095041 0.19972214 0.31681138 0.63864005 0.25277108
1.1222229 0.36649182 0.40939626 1.2264507 0.7281921 0.17112976 0.11291441 0.40714052
0.011734107 3.5254564 0.40937573 0.20413716 0.45686007 0.532962 0.053178284 1.0723913
0.12627205 0.064091705 0.5786927 0.022125503 0.18727626 0.45936748 1.382967 0.0813357

module_list.1.fc.weight f4 [128, 19]
00000000: 3b7b 85bd 4dd7 4dbc 575f 1bbe e637 09be
00000010: e798 b5bd 562e 753d 7d9c 473d 1376 60bd
00000020: 8b93 31be 695d 2f3e 7e72 5dbd 68d0 8fbb
00000030: 61fa 0abe 2942 1bbe 722f b23d e240 9fbd
00000040: 8840 bdbd 038c b7bd c594 28bc ac34 52be
00000050: b5d8 603e c0fc fc3b 2213 0f3e 404a 2c3e
00000060: b5c1 e5bd 379d 50be ce96 843d dc1b 14be
00000070: 9d27 4a3e 7b9c 3ebe ff3d 24be dff4 dcbd
00000080: 0d43 e8bc 0851 3ebe 1e46 64be 4f7c 613e
00000090: 5be9 043e f780 973d d0ec bfbe 7b12 e13f
000000a0: 6968 2fbe 2486 df3e 87b7 eebe 0edc febc
000000b0: e415 8a3e 9bcc 22bf 8d18 553e 2373 a1be
000000c0: c4ed b9bf b26e d73e 9bfc 7f3f e87a 8e3f
000000d0: 872d fbbc a80d 26bf 38e6 2f3f 75e4 62be
000000e0: 7cf5 4dbe 6363 303f 003c 35bf 6120 823f
000000f0: a9c4 b43d 1fd7 813d e3f2 e53e d421 37be
00000100: 2a92 ee3d 05dd 14be 269e f4be 8995 93be
00000110: 903e 63bf 36d0 de3d 285c 9c3e 8aeb 1dbe
00000120: 8dea d8be ee03 483f 3894 4b3f 29b2 77bd
00000130: 4847 aebc 82f4 113e cae2 393c c12d 47be
00000140: d43b 023e 5aed a93b 4982 0fbe ae99 473d
00000150: 1379 9c3c 0ba1 30be 039a 893d 9332 623e
00000160: d186 fcbd 4c3a f33d af8e 42be abb7 53be
00000170: d60c 6abe 102b 4cbe 2643 c5bd 046b 263e
00000180: 7d30 593e 1fb8 5bbe 0835 ce3d 3ff2 e03d
00000190: 4acf 413e 7000 ce3d b999 2abe 01fe df3b
000001a0: dffc 653e f398 29be 2356 3f3e 2c3c 023e
000001b0: df17 a0bd 38e2 3b3e 7c31 57be 9c1f aa3d
000001c0: 85c9 973a 1614 5ebd 4c9e 493d 62f3 c53d
000001d0: 08f2 373e 665c 433e 8312 d7bd b797 34be
000001e0: 46dd 4fbe 78c3 803d 3846 7d3d 74f3 46be
000001f0: ef43 523e ae3a 2b3e 06a9 9c3d 5a1a 73bd
00000200: 0cb8 2cbe 5c1d 11be e1c8 cabd d80f ef3d
00000210: 3603 22bd ec19 22bf 5280 193f 62a9 183f
00000220: 5bd9 a7bb 0976 083f d6a9 d33b d36f f53c
00000230: f000 29bf e16b 34be 42e1 263d 7413 d8be
00000240: 4930 f03e 6200 5abf ca42 aa3f 85c6 d4be
00000250: 027e 333d 4af2 653e 45a3 59bf 19e4 6f3f
00000260: 86ea 40bf dd5d aa3c e7ea 543f b7fc c7be
00000270: 20d4 0e3f 1644 5fbe 1a6b 45be 88e6 1a3d
00000280: 1cff 97bc ad3e d4be 3658 293f bcd5 d33e
00000290: eed5 3e3e 666c 5fbf 01e1 dfbe 6342 93bf
000002a0: 4687 f73e bc5f cb3e f196 e7be 4522 9ebd
000002b0: ff5e c2bd 8e4f 233e 83f2 9a3d 57c9 ed3c
000002c0: 3ceb a3bd da17 a83d fea5 62bc 97ac a03d
000002d0: 7258 54be 1701 13be afeb 4d3e 4fa4 37be
000002e0: 12cd ffbd 752b 38bc fb71 fd3b 6ec1 c4bc
000002f0: d147 41be 0322 45bd 17f4 52bf 6f6e 66bd
00000300: 3ab0 ddbf 16fd b5bd 382f 553f b92b 2a3f
00000310: e068 66bd 8b9a bd3e 7616 463d 6b2c a0be
00000320: 4e3e 623e 6611 c03d a502 263f 3f19 e9be
00000330: 5730 f5be d2d6 aabe ca41 b6be bec9 993e
00000340: a8ce d73d 5186 d13a 20d3 65bd 5d34 3d3e
00000350: ea94 f7bc ec26 173d b55a 1b3c 5364 22be
00000360: ccb8 453e 1453 61be bbc6 293e bfab 323e
00000370: 33c6 8f3d 4932 153e 18aa f3bd f7a1 193e
00000380: 6f26 47be 2f8a ab3c 24ed 2d3e 6f4c 803d
00000390: 98cf 443d 26d6 fcbd 6f58 f5bd 8b2f 56be
000003a0: c2dd 023e c1e6 fc3d 3748 3f3d 5d85 0b3d
000003b0: 6259 71bd b840 4f3d 6324 8fbd 8767 883d
000003c0: af15 d73d af26 70bd 7013 783d 712c 4fbd
000003d0: 574b 95bc 2bf1 103e 3a13 5abe 6885 7cbf
000003e0: dc13 833f a8c4 85bf 80e4 0e3e 39ab e33e
000003f0: d153 6b3d 6a2d a5bc cbed e83e deed 173e
-0.06517645 -0.012563539 -0.15173088 -0.1340023 -0.088670544 0.059858643 0.048733223 -0.054800104
-0.1734144 0.17125477 -0.054064266 -0.0043888576 -0.13572074 -0.15161957 0.08700456 -0.07776047
-0.09240824 -0.08962252 -0.010289376 -0.20527905 0.21957667 0.00772056 0.13972142 0.16825199
-0.11218587 -0.20372473 0.06474076 -0.14463753 0.19741674 -0.1861438 -0.16039275 -0.10788893
-0.028352285 -0.18585598 -0.22292373 0.22020076 0.12979643 0.07397645 -0.3748536 1.7583765
-0.17129673 0.4365703 -0.46624395 -0.03111079 0.26969826 -0.63593453 0.20810147 -0.31533155
-1.4525685 0.4207664 0.9999482 1.1131258 -0.030661358 -0.6486459 0.6871066 -0.22157462
-0.20113176 0.6890165 -0.7079468 1.0166131 0.088265724 0.06339859 0.4491187 -0.17883998
0.11648972 -0.14537437 -0.47776908 -0.28825024 -0.8876734 0.10879557 0.3053906 -0.15421882
-0.42366448 0.78130996 0.7952304 -0.06047264 -0.021274224 0.14253429 0.011345575 -0.19451047
0.12718135 0.005185765 -0.14014544 0.048730545 0.019100701 -0.17248933 0.067188285 0.22089605
-0.12330402 0.118763536 -0.18999742 -0.20675533 -0.22856459 -0.19938302 -0.09631948 0.1625176
0.21209903 -0.21456955 0.10068709 0.10983705 0.18926731 0.10058677 -0.16660203 0.0068356995
0.22459744 -0.16562252 0.18685202 0.12718266 -0.07817053 0.18348014 -0.2101497 0.0830681
0.0011580443 -0.054218374 0.04922323 0.09665562 0.17963421 0.19078216 -0.10501578 -0.17636
-0.20299253 0.06287283 0.061834544 -0.19428807 0.20533727 0.16721603 0.07649426 -0.059351303
-0.16867083 -0.14171356 -0.09901596 0.11672944 -0.039553843 -0.63320804 0.59961426 0.5963346
-0.0051223463 0.5330511 0.006459455 0.029960549 -0.66017056 -0.17619278 0.040742166 -0.42202342
0.4691184 -0.85156834 1.3301632 -0.41557708 0.043821342 0.22455707 -0.85014755 0.93707424
-0.75357854 0.02079671 0.8317093 -0.39059994 0.5579243 -0.21803316 -0.19279137 0.037817508
-0.018554263 -0.41454068 0.66150224 0.41374004 0.18636295 -0.8727478 -0.43726352 -1.1504635
0.48345393 0.39721477 -0.45232347 -0.0772138 -0.09490775 0.15948316 0.07565787 0.02902667
-0.08003852 0.08207674 -0.013833521 0.07845419 -0.20736864 -0.14355884 0.20109437 -0.17933773
-0.12490286 -0.01124083 0.007734535 -0.024018016 -0.18875052 -0.04812814 -0.824037 -0.05625766
-1.7319405 -0.08886163 0.83275175 0.66472965 -0.05625236 0.3703197 0.048361264 -0.31283888
0.2209408 0.093783185 0.64847785 -0.45527074 -0.47888443 -0.3336702 -0.35597068 0.3003673
0.105374634 0.0015985464 -0.056109548 0.18477006 -0.030222375 0.036902353 0.009482075 -0.15858583
0.19308776 -0.22004348 0.16579716 0.17448328 0.070202254 0.14569964 -0.11897677 0.15003191
-0.19448255 0.020939915 0.16984993 0.062645786 0.04804954 -0.12345533 -0.11979758 -0.20916574
0.12779906 0.123487 0.04669973 0.034062732 -0.058923133 0.05059883 -0.06989362 0.06660371
0.10502183 -0.05863064 0.060565412 -0.050579492 -0.018224401 0.14154498 -0.21296397 -0.9864106
1.0240436 -1.045064 0.13954353 0.4446657 0.05745298 -0.020163257 0.45493922 0.14836833

module_list.1.fc.bias f4 [128]
00000000: 9654 6cbb a9cf 343d f8e3 dd3c 4ce5 953d
00000010: 3963 55bc a8d0 9d3d 3224 11bd b06b b83a
00000020: b020 8e3d 0bcf 433d 4fc8 6a3d 3fc7 90bd
00000030: 4714 99bc 4c60 9a3d ad89 803d 5bdc ac3c
00000040: f856 5c3c 712c d93c de0c 123d 6431 e7bc
00000050: 5ad7 38bd 3c2c 5ebc 7d16 353d d608 b9bc
00000060: bd5e 843d 0658 a1bd 8f05 11bd 010c 3abc
00000070: 8482 333d 3cd4 87bd 4874 703d 6953 ca3b
00000080: cf40 833d 4ea0 0c3c 1406 78bd 9c97 1b3e
00000090: 4cc1 08bc 2729 fb3c 0c0d 7f3c dc77 08be
000000a0: cb39 01be b90f adbc 665f b43c 461f 763c
000000b0: 30bd d7be a95c f9bd 36cb b8bb 2444 08bd
000000c0: 0698 83bd 0eb4 f7bc 404a efbb 1c4b 0abc
000000d0: 3f98 843d 71fd 373d fede 1a3d 45e0 09bd
000000e0: ae6b 703d 484b 2bbd f08b 373c 2072 863d
000000f0: 4a43 0a3d 5765 c43b 6ad5 80bc ee6c 873d
00000100: b69d ebbc d429 56be b345 933d ac15 963c
00000110: 0b7d 973d 49d4 57bd b37a e13d ba89 d33c
00000120: 1117 03bd f84b 573b d487 b03d 061a 39bd
00000130: 0997 853d 76b5 b23d f0ec b53d 2a4a e63c
00000140: b352 3dbd d94e 9e3d ca14 323d d1cd 0c3d
00000150: c0cb 853d 52b0 aebd a106 943c 282d e7bc
00000160: c2eb 793c ac68 913d 14cb 013c 997f c5bb
00000170: 660a 833d e428 09bc f76c 003d 26ce 9bbc
00000180: 9404 693d 3612 37bc b2f7 3fbd ea5e 8b3c
00000190: d184 78bd 3e2b 6abd 2a7b 9fbd edb5 1cbc
000001a0: 2dda 05be c9cc 90bd ab2d 90bc 22fd 4a3d
000001b0: daca 4cbd 07ac 043d dac5 3a3a 0749 a93d
000001c0: 3d47 683e daae e33c d841 c13d 4d84 a03d
000001d0: e66e adbd b10c bb3e cf2a acbd 78e0 073e
000001e0: 6def 0a3c f624 8cbd 77b6 82bd 153d 913d
000001f0: 8535 783d 4a44 1a3d 640a 8abd 92f4 22bd
-0.003606116 0.044143353 0.027086243 0.073191255 -0.013024145 0.07705814 -0.03543491 0.0014070179
0.069398284 0.047804873 0.057319935 -0.07069253 -0.018686427 0.075378984 0.062762596 0.021101167
0.013448469 0.02651045 0.035656802 -0.028221793 -0.04512725 -0.013560351 0.0442109 -0.022587221
0.064633824 -0.07878117 -0.03540569 -0.011355401 0.04382564 -0.06632277 0.058704644 0.006174494
0.06408846 0.0085831415 -0.06055267 0.15194553 -0.008346867 0.030659271 0.015567075 -0.13326973
-0.12619703 -0.021125661 0.022018146 0.015022105 -0.42136526 -0.12175877 -0.005639459 -0.03326811
-0.064254805 -0.030237224 -0.0073025525 -0.008440759 0.06474351 0.044919435 0.03781032 -0.033661146
0.05869644 -0.04181984 0.011202797 0.06564736 0.033755578 0.005993526 -0.015726764 0.066125736
-0.028761726 -0.20914394 0.071910284 0.01832088 0.07396897 -0.052692685 0.11009731 0.02582251
-0.03200442 0.0032851677 0.08619657 -0.045190834 0.06522948 0.08726017 0.08883083 0.028111536
-0.046221446 0.07729883 0.043476857 0.03437597 0.06533003 -0.08529724 0.018069567 -0.028219774
0.015253963 0.07100043 0.007921953 -0.0060271737 0.06398468 -0.0083715655 0.031353917 -0.019019198
0.05688913 -0.011173775 -0.04686708 0.017013032 -0.06067354 -0.057170145 -0.077871636 -0.009564859
-0.13071509 -0.0707031 -0.017599901 0.049557813 -0.04999814 0.03239062 0.0007124819 0.08265882
0.22683425 0.027793337 0.09436387 0.07837734 -0.08468418 0.3653312 -0.084066026 0.13269222
0.008479935 -0.06842987 -0.06382459 0.070917286 0.060597915 0.03766278 -0.06740263 -0.03978402

module_list.1.output_quant.pre_transforms.0.weight f4 [128]
00000000: 0000 803f 0000 803f b048 de3e af2a 543f
00000010: 0000 803f 0000 803f 0000 803f c294 713f
00000020: 64d2 033f 0000 803f 3566 0c3f 0000 803f
00000030: 0000 803f 79a3 0f3f 0000 803f 0000 803f
00000040: 0000 803f 121c 913f 0000 803f 0000 803f
00000050: 0000 803f d436 303f 3f50 323f 3c57 883f
00000060: 0000 803f dbdf 403f 0000 803f 8348 693f
00000070: 0000 803f ff90 863f eaac 463f 702d 833f
00000080: 0000 803f 588b 213f 0000 803f f577 e93e
00000090: 12cf cb3e 0000 803f 0000 803f 698d 1f3f
000000a0: 14e1 153f 46c5 e03e 0000 803f d7c9 543f
000000b0: 6d96 6140 dcf6 863f 0000 803f 0000 803f
000000c0: 4fd9 163f 0000 803f be42 f63e ab7d fc3e
000000d0: 0000 803f 0000 803f 0012 153f 8f18 023f
000000e0: dd11 103f 0000 803f 7861 093f 0000 803f
000000f0: 0000 803f 468e 6e3f 3ace f43e 0000 803f
00000100: 0000 803f 7743 fd3e 0000 803f d850 c13e
00000110: 0000 803f 0000 803f cec2 e23e 69f3 d73e
00000120: 0000 803f 0000 803f fd3c ff3e 544c dc3e
00000130: 404d 1a3f b016 3e3f 9e53 ed3e 0000 803f
00000140: 0000 803f 921a 2a3f 1969 583f 77fb 173f
00000150: 4227 0e3f 0000 803f d764 f03e d0c8 103f
00000160: 511a f43e 7868 1d3f 0000 803f 4e5e d53e
00000170: 0000 803f 8fef 493f 3c24 9e3f 0000 803f
00000180: 0000 803f f94e cb3f 873d b73e ba0c f03e
00000190: 0000 803f 0000 803f 0000 803f 6ec9 373f
000001a0: eb4b 413f 0000 803f 0000 803f 0000 803f
000001b0: 81ac 283f 0000 803f 0000 803f 0000 803f
000001c0: 1f91 ef3e 685c 143f 9474 ba3e 0000 803f
000001d0: 93f2 033f 8954 c23e 89bc 033f 8f34 023f
000001e0: 0000 803f 0000 803f dc7e 093f 79cb f33e
000001f0: 0000 803f 0000 803f 5d5d c93e 0000 803f
1.0 1.0 0.4341483 0.8287763 1.0 1.0 1.0 0.9436761
0.51492906 1.0 0.54843456 1.0 1.0 0.56108814 1.0 1.0
1.0 1.1336691 1.0 1.0 1.0 0.6883366 0.69653696 1.0651622
1.0 0.75341576 1.0 0.9112627 1.0 1.0512999 0.77607596 1.0248241
1.0 0.63103247 1.0 0.45599332 0.3980642 1.0 1.0 0.6232515
0.58546567 0.43900508 1.0 0.83120483 3.5248063 1.0544086 1.0 1.0
0.58925337 1.0 0.48097795 0.49314627 1.0 1.0 0.5823059 0.50818723
0.5627726 1.0 0.5366435 1.0 1.0 0.9318584 0.47813588 1.0
1.0 0.49465534 1.0 0.3775699 1.0 1.0 0.4428925 0.42177895
1.0 1.0 0.49851218 0.43026984 0.60274124 0.7425337 0.46352857 1.0
1.0 0.66446793 0.84535366 0.5936808 0.5552865 1.0 0.46951935 0.56556416
0.47676328 0.6148753 1.0 0.4167351 1.0 0.7888116 1.2354808 1.0
1.0 1.5883476 0.3578913 0.4688471 1.0 1.0 1.0 0.7179173
0.75506467 1.0 1.0 1.0 0.6588822 1.0 1.0 1.0
0.46790406 0.579535 0.36417067 1.0 0.51542014 0.3795512 0.51459557 0.5086145
1.0 1.0 0.537092 0.47616175 1.0 1.0 0.39329043 1.0

module_list.1.output_quant.pre_transforms.0.bias f4 [128]
00000000: 0000 0000 0000 0000 e8cd ac3e a140 d43e
00000010: 0000 0000 0000 0000 0000 0000 9504 8cbe
00000020: 63bc 273f 0000 0000 a62f ca3e 0000 0000
00000030: 0000 0000 2bb3 253f 0000 0000 0000 0000
00000040: 0000 0000 0a55 5fbe 0000 0000 0000 0000
00000050: 0000 0000 092c 183e 8ddb 0b3f ee5d 13be
00000060: 0000 0000 93c8 e13e 0000 0000 7a37 033f
00000070: 0000 0000 4252 9cbd a469 fa3e 283a 70bd
00000080: 0000 0000 68f4 473f 0000 0000 44f1 393f
00000090: 354d 163f 0000 0000 0000 0000 a5be 063f
000000a0: 458b 743f 9cc4 493f 0000 0000 c852 f03d
000000b0: bbae 5cbf 2071 d43e 0000 0000 0000 0000
000000c0: 4a13 533f 0000 0000 3d90 5a3f f7fe be3e
000000d0: 0000 0000 0000 0000 d6b6 0a3f 1d3e aa3e
000000e0: 5cf1 e03e 0000 0000 8fb9 883f 0000 0000
000000f0: 0000 0000 2a82 d63d 1100 583f 0000 0000
00000100: 0000 0000 4f2f 713f 0000 0000 cb4b a13e
00000110: 0000 0000 0000 0000 2f0e c73e cff8 583f
00000120: 0000 0000 0000 0000 5a59 1d3f c370 0b3f
00000130: e21f 423e db93 af3d 1933 803f 0000 0000
00000140: 0000 0000 23b4 0c3f 8fc2 0cbd 73e1 5e3f
00000150: 7a17 5d3e 0000 0000 8ad2 bb3e 1507 613f
00000160: accd 593f bc77 e83e 0000 0000 ba97 d73e
00000170: 0000 0000 a068 ec3e ae07 353e 0000 0000
00000180: 0000 0000 f10f 3a3c 152b d83e 6a63 563f
00000190: 0000 0000 0000 0000 0000 0000 afb5 cf3e
000001a0: 0854 ba3e 0000 0000 0000 0000 0000 0000
000001b0: 6421 183f 0000 0000 0000 0000 0000 0000
000001c0: fb89 463e c734 063f ac12 773f 0000 0000
000001d0: 7bc7 f33e 3741 013c fbec 473f 21c1 103f
000001e0: 0000 0000 0000 0000 eddf 2b3f a708 e73e
000001f0: 0000 0000 0000 0000 6b1b 993e 0000 0000
0.0 0.0 0.33750844 0.41455558 0.0 0.0 0.0 -0.27347246
0.6552183 0.0 0.39489478 0.0 0.0 0.64726514 0.0 0.0
0.0 -0.21809784 0.0 0.0 0.0 0.14860548 0.5463188 -0.143913
0.0 0.44098338 0.0 0.51256526 0.0 -0.07632877 0.48908722 -0.058649212
0.0 0.7810731 0.0 0.7263377 0.5871156 0.0 0.0 0.5263465
0.9552501 0.7881563 0.0 0.11734539 -0.8620412 0.41492558 0.0 0.0
0.8245131 0.0 0.8537634 0.37303898 0.0 0.0 0.54185236 0.33250514
0.43934143 0.0 1.0681628 0.0 0.0 0.104740456 0.843751 0.0
0.0 0.9421281 0.0 0.31503138 0.0 0.0 0.3887801 0.8475465
0.0 0.0 0.61464465 0.54468936 0.18957475 0.08573123 1.0015594 0.0
0.0 0.54962367 -0.034365233 0.8706276 0.21590987 0.0 0.36684066 0.8790143
0.85079455 0.4540385 0.0 0.42107946 0.0 0.46173573 0.17678711 0.0
0.0 0.01135634 0.4222037 0.83745444 0.0 0.0 0.0 0.405683
0.36392236 0.0 0.0 0.0 0.5942595 0.0 0.0 0.0
0.19388573 0.5242428 0.96512866 0.0 0.4761313 0.007889084 0.7809598 0.5654469
0.0 0.0 0.6713856 0.4512379 0.0 0.0 0.2990373 0.0
