examples/jet_substructure/input_quants/small_inpq_16_2_ensemble_size1_seed2/checkpoint.pth (torch, 212403 bytes, 147 tensors)

ensemble.0.input_quant.pre_transforms.0.weight f4 [16]
0	0x3c8b655c	0.017016105
1	0x3efb7239	0.49110582
2	0x3fe10da6	1.758229
3	0x3fc0be05	1.5057989
4	0x3df82035	0.12115518
5	0x3f799769	0.9749666
6	0x3e925040	0.2857685
7	0x3e6d3b1b	0.23167078
8	0x3e207f39	0.15673532
9	0x3e2040b1	0.15649678
10	0x3e771e44	0.24132639
11	0x3df31661	0.11869503
12	0x3e370faf	0.17877077
13	0x3e0fbe95	0.14037545
14	0x3fbdf22d	1.4839531
15	0x3de4e7c6	0.1117702

ensemble.0.input_quant.pre_transforms.0.bias f4 [16]
0	0x3ee5d805	0.44891372
1	0xbe7ecb03	-0.2488213
2	0x3db5d42c	0.08878359
3	0x3f13df9e	0.5776309
4	0x3e9ecc70	0.31015348
5	0x3f6e350e	0.93049705
6	0x3f4158b5	0.7552598
7	0x3f2654e0	0.6497326
8	0x3ec4abcf	0.3841233
9	0x3f27032a	0.652392
10	0x3ea77147	0.3270361
11	0x3e80b9f2	0.25141865
12	0x3e559b21	0.20859958
13	0x3f9d8a83	1.2307895
14	0xbf056864	-0.5211241
15	0x3d9ba59c	0.07599947

ensemble.0.input_quant.pre_transforms.0.running_mean f4 [16]
0	0x3b6cbe4d	0.003612417
1	0x3b4ce034	0.0031261565
2	0xbbc7afd9	-0.0060939607
3	0xbc365577	-0.011128775
4	0xbc44be05	-0.012008195
5	0xbc449b55	-0.011999925
6	0xbc643712	-0.013929145
7	0xbc08439f	-0.008316903
8	0xbc643712	-0.013929145
9	0xbbb4c4b6	-0.005516614
10	0xbb315f08	-0.00270647
11	0xbb6f5af5	-0.003652272
12	0xbbfb61fc	-0.0076715928
13	0xbbc017b0	-0.005862199
14	0xbbf84169	-0.007576157
15	0xbc31592e	-0.010824485

ensemble.0.input_quant.pre_transforms.0.running_var f4 [16]
0	0x3f800707	1.0002145
1	0x3f7d31b6	0.9890398
2	0x3f7d4292	0.98929703
3	0x3f7b5444	0.98175454
4	0x3f7bc150	0.98341846
5	0x3f7968d1	0.9742556
6	0x3f7f3e99	0.9970489
7	0x3f80f50e	1.0074785
8	0x3f7f3e99	0.9970489
9	0x3f80a7f6	1.0051258
10	0x3f803975	1.0017534
11	0x3f8010fa	1.0005181
12	0x3f8148ae	1.0100305
13	0x3f80d047	1.0063561
14	0x3f7c833f	0.98637766
15	0x3f80d126	1.0063827

ensemble.0.fc.weight f4 [16, 16]
0	0xbe2aff59	-0.1669897
1	0xbe15d868	-0.14633334
2	0xbda4e2be	-0.0805106
3	0x3d776dbe	0.060407393
4	0xba25a7d8	-0.0006319261
5	0x3dea85e4	0.11451319
6	0x3dbbda9e	0.09172557
7	0xbb5f79e2	-0.0034099747
8	0x3cdebdce	0.027190115
9	0x3b87e33d	0.004146962
10	0xbe278d78	-0.1636256
11	0x3e240a9e	0.16019675
12	0x3d838053	0.0642096
13	0x3e2d3fba	0.16918841
14	0x3d01f884	0.031731144
15	0x3d4754c3	0.04866482
16	0xbb9539c4	-0.0045540053
17	0x3d4fef42	0.050765283
18	0x3d506e37	0.05088636
19	0x3d64e0d1	0.055878464
20	0xbd9017e7	-0.07035809
21	0xbcab7907	-0.020931734
22	0xbd41897e	-0.047250263
23	0x3e22db47	0.1590396
24	0xbdac81f4	-0.08423224
25	0xbe183905	-0.14865501
26	0xbd22d435	-0.039753158
27	0xbe15bc2a	-0.1462256
28	0x3d8c3434	0.068458945
29	0x3e23642f	0.15956186
30	0xbe2ca1c0	-0.16858578
31	0x3e8a042e	0.26956314
32	0xbce10ea2	-0.027472798
33	0xbcd732f2	-0.02626941
34	0xbddae1eb	-0.10687622
35	0xbd803778	-0.0626058
36	0x3d735920	0.059411168
37	0xbb1f0ffa	-0.0024270997
38	0xbcebe54f	-0.028795866
39	0xbcd0e7f2	-0.025501225
40	0x3d6a8a5e	0.057260863
41	0x3d25682b	0.040382545
42	0xbda54e66	-0.08071594
43	0xbe8220b7	-0.25415584
44	0xbd8d9eb3	-0.06915035
45	0x3d529d77	0.0514197
46	0xbe28e376	-0.1649302
47	0xbe1f0b17	-0.15531574
48	0x3d904da5	0.070460595
49	0xbdecffe5	-0.115722455
50	0x3d9d5980	0.076830864
51	0xbd990f2c	-0.07473597
52	0xbd989e26	-0.074520394
53	0x3df85d31	0.1212715
54	0x3d0e1dc5	0.03469636
55	0xbe292d6f	-0.16521238
56	0x3e028f57	0.12749992
57	0x3de6bf83	0.11266997
58	0xbde5824e	-0.11206494
59	0x3d1bfb07	0.038081195
60	0x3e158e24	0.14605004
61	0x3d1de5da	0.03854928
62	0xbe02cd10	-0.12773538
63	0x3e05343d	0.13008209
64	0xbcd527e7	-0.026020003
65	0x3e0bce41	0.13652898
66	0x3c9869cf	0.018605141
67	0xbe1fd32c	-0.156079
68	0xbe0c1318	-0.13679159
69	0xbdc1128c	-0.09427366
70	0xbdeb87de	-0.11500524
71	0xbdeccca3	-0.11562469
72	0xbf156646	-0.5835918
73	0xbd2b95b9	-0.041890834
74	0x3dca84bb	0.098885976
75	0xbe2d516c	-0.16925591
76	0x3d474726	0.048651837
77	0xbddbc8d4	-0.10731664
78	0x3d288158	0.041138977
79	0xbd3fb8f5	-0.04680725
80	0xbdcfc687	-0.10145288
81	0xbd434904	-0.047677055
82	0x3c591c62	0.013251396
83	0x3e2728d6	0.16324171
84	0xbd920fd1	-0.07131923
85	0xbe2546a4	-0.16140229
86	0xbd086df4	-0.033307984
87	0xbcee985a	-0.029125381
88	0xbd1eec76	-0.038799725
89	0xbf1fc09f	-0.6240329
90	0x3e115142	0.14191154
91	0x3dc3050e	0.095224485
92	0xbe1856fe	-0.14876935
93	0xbdc40dad	-0.09572921
94	0xbe2c364d	-0.16817589
95	0xbd302c19	-0.043010805
96	0xbe24a497	-0.16078411
97	0x3de80439	0.113289304
98	0xbd94ac77	-0.072594576
99	0x3c0d43d2	0.008622127
100	0x3e0984b9	0.13429536
101	0xbd6e0730	-0.058112323
102	0x3d1d925c	0.038469657
103	0x3df0adb4	0.11751881
104	0xbc1256ea	-0.008931855
105	0xbe298261	-0.16553642
106	0xbef982eb	-0.48732695
107	0x3dbba699	0.09162635
108	0xbd5194a4	-0.051167145
109	0xbd368bdc	-0.044566974
110	0x3dc29e5b	0.0950286
111	0xbda92989	-0.08259875
112	0xbf00dd2a	-0.5033747
113	0x3d656f5a	0.056014396
114	0x3b1834b8	0.0023224782
115	0xbdbde998	-0.0927307
116	0x3d398ba6	0.045299195
117	0x3d9ca98d	0.07649527
118	0xbdbefdee	-0.09325777
119	0xbd845649	-0.0646177
120	0xbe1d8383	-0.15382199
121	0xbd7a3ad0	-0.061091244
122	0x3e179a9b	0.14805071
123	0xbd78298f	-0.06058651
124	0xbb5d4a89	-0.003376635
125	0xbe193349	-0.1496097
126	0x3e19a00a	0.15002456
127	0x3e095c33	0.13414077
128	0xbe06afb5	-0.13152964
129	0x3ce1ad5b	0.027548483
130	0xbd0efde7	-0.03491011
131	0xbdb455d4	-0.08805433
132	0x3dd68537	0.104746275
133	0x3cc9e640	0.024645925
134	0xbe1528c6	-0.14566335
135	0xbdca9af8	-0.09892839
136	0x3dc8c6ae	0.0980352
137	0xbdbe855a	-0.093027785
138	0xbdb9b301	-0.090673454
139	0xbabd6b79	-0.0014451585
140	0x3e2ae1bb	0.16687672
141	0x3d604cb8	0.054760665
142	0xba13bb6c	-0.0005635533
143	0x3d96bf3b	0.07360693
144	0x3dc5f4bd	0.09665821
145	0xbe2d6048	-0.1693126
146	0xbd9f8264	-0.07788542
147	0x3da0f438	0.07859081
148	0x3d240583	0.04004432
149	0xbc281d84	-0.010260943
150	0xbd492378	-0.04910609
151	0x3ef549a5	0.4790775
152	0x3d2df4ad	0.04246967
153	0xbcf329b9	-0.02968298
154	0xbd06f5f1	-0.03294939
155	0xbdd99009	-0.10623176
156	0x3d00279e	0.031287782
157	0x3d133284	0.035936847
158	0xbd69142d	-0.056904007
159	0x3dbd1207	0.09231954
160	0x3da02542	0.07819606
161	0x3c74d66b	0.014943699
162	0xbdc34af2	-0.09535779
163	0x3e1b45f5	0.15163405
164	0x3da4d11e	0.080476984
165	0xbdb90499	-0.0903408
166	0xbe0951f4	-0.13410169
167	0x3d207c82	0.03918124
168	0x3c2e9501	0.0106556425
169	0xbcf1206c	-0.029434405
170	0x3e0a530f	0.13508247
171	0x3e039f97	0.12853847
172	0xbdc86219	-0.09784336
173	0xbf08ba81	-0.5340958
174	0x3d602e29	0.05473152
175	0x3e292416	0.16517672
176	0x3e0f8bda	0.14018193
177	0x3d0c4a0d	0.034250308
178	0x3ddd6486	0.10810189
179	0xbdb74fc0	-0.08950758
180	0xbc5302a5	-0.0128790485
181	0x3e0b5719	0.13607444
182	0xbdcce51f	-0.10004639
183	0x3c9e228e	0.019303586
184	0x3dbe0818	0.092788875
185	0xbbab0ad6	-0.0052197976
186	0xbd0bf877	-0.0341725
187	0x3dfe6672	0.12421884
188	0x3ecd1841	0.40057567
189	0xbca3b3be	-0.019983169
190	0x3d35f0b8	0.04441902
191	0xbd50d5af	-0.050985035
192	0x3c13afe9	0.009014108
193	0x3bf66d3d	0.0075203464
194	0xbe0f0d3e	-0.13969895
195	0x3eab4694	0.33452284
196	0xbe10e8e5	-0.14151342
197	0xbd0c6627	-0.034277108
198	0xbc5a62b8	-0.0133292
199	0x3dc0c36c	0.09412274
200	0x3d401c15	0.04690178
201	0xbde7d788	-0.11320406
202	0x3e1a693e	0.15079209
203	0xbd8cae0c	-0.06869134
204	0x3e08bf53	0.13354234
205	0xbd4c4fed	-0.04988091
206	0x3cc0a77c	0.023517363
207	0xbda54479	-0.08069701
208	0xbe0c3d1a	-0.13695183
209	0xbb4d8d99	-0.0031364916
210	0x39de2375	0.00042369557
211	0xbe054ca0	-0.13017511
212	0x3d868065	0.06567458
213	0x3f926c15	1.1439234
214	0x3e12da8d	0.14341183
215	0x3e0db5e8	0.13838923
216	0x3e234146	0.15942869
217	0x3dcc2b7c	0.099692315
218	0x3c67f82f	0.014158293
219	0xbcedb340	-0.029016137
220	0x3dae5731	0.08512724
221	0x3d300419	0.042972658
222	0x3b5ce216	0.0033704094
223	0xbd9c01c8	-0.07617527
224	0xbdc93dab	-0.09826215
225	0xbe0ad35c	-0.1355719
226	0xbefb15f8	-0.49040198
227	0x3e1d1ab5	0.15342219
228	0x3a4239fa	0.0007409152
229	0xbd619168	-0.05507031
230	0xbdbaf50a	-0.09128769
231	0xbda3f6fc	-0.08006093
232	0x3e037833	0.12838821
233	0xbcd7003d	-0.02624523
234	0x3cce7dcc	0.025206469
235	0x3df49fe0	0.11944556
236	0xbd944336	-0.07239382
237	0xbe2363bd	-0.15956016
238	0x3c7f4fd2	0.0155829955
239	0xbd521cdc	-0.051297054
240	0x3b6c07af	0.0036015322
241	0xbe2327ff	-0.15933226
242	0x3e135006	0.14385995
243	0xbd43de46	-0.0478194
244	0xbd978a6e	-0.0739945
245	0xbcadff80	-0.021239996
246	0xbd7ad57f	-0.061238762
247	0x3b3b0ab2	0.002854031
248	0x3e149022	0.14508107
249	0xbd33116e	-0.043717794
250	0x3c8a009a	0.01684599
251	0xbd8e8088	-0.06958109
252	0xbce8acad	-0.02840265
253	0xbdbfe3ab	-0.09369596
254	0x3e166125	0.14685495
255	0x3daade2f	0.083431594

ensemble.0.fc.bias f4 [16]
0	0x3bd69916	0.006549011
1	0x3da29a91	0.079396375
2	0xbea9490e	-0.3306355
3	0x3e8a2911	0.26984456
4	0xbea19970	-0.31562376
5	0xbc916cf7	-0.017752154
6	0x3e3731a5	0.17890032
7	0xbf2620ba	-0.64893687
8	0xbed1fabf	-0.41011617
9	0xbed46352	-0.41482025
10	0xbf4b5d1a	-0.79438937
11	0xbe803ae5	-0.25044933
12	0xbe4fbf75	-0.20287879
13	0xbe670611	-0.22560908
14	0xbe83c2c6	-0.25734538
15	0xbed96fe8	-0.4246819

ensemble.0.fc.mask.mask f4 [16, 16]
0	0x00000000	0.0
1	0x3f800000	1.0
2	0x00000000	0.0
3	0x00000000	0.0
4	0x00000000	0.0
5	0x00000000	0.0
6	0x00000000	0.0
7	0x00000000	0.0
8	0x00000000	0.0
9	0x00000000	0.0
10	0x00000000	0.0
11	0x00000000	0.0
12	0x00000000	0.0
13	0x00000000	0.0
14	0x00000000	0.0
15	0x00000000	0.0
16	0x00000000	0.0
17	0x00000000	0.0
18	0x00000000	0.0
19	0x00000000	0.0
20	0x00000000	0.0
21	0x00000000	0.0
22	0x00000000	0.0
23	0x00000000	0.0
24	0x00000000	0.0
25	0x00000000	0.0
26	0x00000000	0.0
27	0x00000000	0.0
28	0x00000000	0.0
29	0x00000000	0.0
30	0x00000000	0.0
31	0x3f800000	1.0
32	0x00000000	0.0
33	0x00000000	0.0
34	0x00000000	0.0
35	0x00000000	0.0
36	0x00000000	0.0
37	0x00000000	0.0
38	0x00000000	0.0
39	0x00000000	0.0
40	0x00000000	0.0
41	0x00000000	0.0
42	0x00000000	0.0
43	0x3f800000	1.0
44	0x00000000	0.0
45	0x00000000	0.0
46	0x00000000	0.0
47	0x00000000	0.0
48	0x00000000	0.0
49	0x00000000	0.0
50	0x00000000	0.0
51	0x00000000	0.0
52	0x3f800000	1.0
53	0x00000000	0.0
54	0x00000000	0.0
55	0x00000000	0.0
56	0x00000000	0.0
57	0x00000000	0.0
58	0x00000000	0.0
59	0x00000000	0.0
60	0x00000000	0.0
61	0x00000000	0.0
62	0x00000000	0.0
63	0x00000000	0.0
64	0x00000000	0.0
65	0x00000000	0.0
66	0x00000000	0.0
67	0x00000000	0.0
68	0x00000000	0.0
69	0x00000000	0.0
70	0x00000000	0.0
71	0x00000000	0.0
72	0x3f800000	1.0
73	0x00000000	0.0
74	0x00000000	0.0
75	0x00000000	0.0
76	0x00000000	0.0
77	0x00000000	0.0
78	0x00000000	0.0
79	0x00000000	0.0
80	0x00000000	0.0
81	0x00000000	0.0
82	0x00000000	0.0
83	0x00000000	0.0
84	0x00000000	0.0
85	0x00000000	0.0
86	0x00000000	0.0
87	0x00000000	0.0
88	0x00000000	0.0
89	0x3f800000	1.0
90	0x00000000	0.0
91	0x00000000	0.0
92	0x00000000	0.0
93	0x00000000	0.0
94	0x00000000	0.0
95	0x00000000	0.0
96	0x00000000	0.0
97	0x00000000	0.0
98	0x00000000	0.0
99	0x00000000	0.0
100	0x00000000	0.0
101	0x00000000	0.0
102	0x00000000	0.0
103	0x00000000	0.0
104	0x00000000	0.0
105	0x00000000	0.0
106	0x3f800000	1.0
107	0x00000000	0.0
108	0x00000000	0.0
109	0x00000000	0.0
110	0x00000000	0.0
111	0x00000000	0.0
112	0x3f800000	1.0
113	0x00000000	0.0
114	0x00000000	0.0
115	0x00000000	0.0
116	0x00000000	0.0
117	0x00000000	0.0
118	0x00000000	0.0
119	0x00000000	0.0
120	0x00000000	0.0
121	0x00000000	0.0
122	0x00000000	0.0
123	0x00000000	0.0
124	0x00000000	0.0
125	0x00000000	0.0
126	0x00000000	0.0
127	0x00000000	0.0
128	0x00000000	0.0
129	0x00000000	0.0
130	0x00000000	0.0
131	0x00000000	0.0
132	0x00000000	0.0
133	0x00000000	0.0
134	0x00000000	0.0
135	0x00000000	0.0
136	0x00000000	0.0
137	0x00000000	0.0
138	0x00000000	0.0
139	0x00000000	0.0
140	0x00000000	0.0
141	0x00000000	0.0
142	0x3f800000	1.0
143	0x00000000	0.0
144	0x00000000	0.0
145	0x00000000	0.0
146	0x00000000	0.0
147	0x00000000	0.0
148	0x00000000	0.0
149	0x00000000	0.0
150	0x00000000	0.0
151	0x3f800000	1.0
152	0x00000000	0.0
153	0x00000000	0.0
154	0x00000000	0.0
155	0x00000000	0.0
156	0x00000000	0.0
157	0x00000000	0.0
158	0x00000000	0.0
159	0x00000000	0.0
160	0x00000000	0.0
161	0x00000000	0.0
162	0x00000000	0.0
163	0x00000000	0.0
164	0x00000000	0.0
165	0x00000000	0.0
166	0x00000000	0.0
167	0x00000000	0.0
168	0x00000000	0.0
169	0x00000000	0.0
170	0x00000000	0.0
171	0x00000000	0.0
172	0x00000000	0.0
173	0x3f800000	1.0
174	0x00000000	0.0
175	0x00000000	0.0
176	0x00000000	0.0
177	0x00000000	0.0
178	0x00000000	0.0
179	0x00000000	0.0
180	0x00000000	0.0
181	0x00000000	0.0
182	0x00000000	0.0
183	0x00000000	0.0
184	0x00000000	0.0
185	0x00000000	0.0
186	0x00000000	0.0
187	0x00000000	0.0
188	0x3f800000	1.0
189	0x00000000	0.0
190	0x00000000	0.0
191	0x00000000	0.0
192	0x00000000	0.0
193	0x00000000	0.0
194	0x00000000	0.0
195	0x3f800000	1.0
196	0x00000000	0.0
197	0x00000000	0.0
198	0x00000000	0.0
199	0x00000000	0.0
200	0x00000000	0.0
201	0x00000000	0.0
202	0x00000000	0.0
203	0x00000000	0.0
204	0x00000000	0.0
205	0x00000000	0.0
206	0x00000000	0.0
207	0x00000000	0.0
208	0x00000000	0.0
209	0x00000000	0.0
210	0x00000000	0.0
211	0x00000000	0.0
212	0x00000000	0.0
213	0x3f800000	1.0
214	0x00000000	0.0
215	0x00000000	0.0
216	0x00000000	0.0
217	0x00000000	0.0
218	0x00000000	0.0
219	0x00000000	0.0
220	0x00000000	0.0
221	0x00000000	0.0
222	0x00000000	0.0
223	0x00000000	0.0
224	0x00000000	0.0
225	0x00000000	0.0
226	0x3f800000	1.0
227	0x00000000	0.0
228	0x00000000	0.0
229	0x00000000	0.0
230	0x00000000	0.0
231	0x00000000	0.0
232	0x00000000	0.0
233	0x00000000	0.0
234	0x00000000	0.0
235	0x00000000	0.0
236	0x00000000	0.0
237	0x00000000	0.0
238	0x00000000	0.0
239	0x00000000	0.0
240	0x00000000	0.0
241	0x00000000	0.0
242	0x00000000	0.0
243	0x00000000	0.0
244	0x00000000	0.0
245	0x00000000	0.0
246	0x3f800000	1.0
247	0x00000000	0.0
248	0x00000000	0.0
249	0x00000000	0.0
250	0x00000000	0.0
251	0x00000000	0.0
252	0x00000000	0.0
253	0x00000000	0.0
254	0x00000000	0.0
255	0x00000000	0.0

ensemble.1.module_list.0.input_quant.pre_transforms.0.weight f4 [16]
0	0x3ed46f5c	0.4149121
1	0x3e9805cb	0.2969192
2	0x3e9c2878	0.30499625
3	0x3ecdf6a6	0.4022724
4	0x3e49db5c	0.19712585
5	0x3f049b6a	0.51799643
6	0x3e961625	0.2931377
7	0x3ebf496d	0.37360707
8	0x3fc4364b	1.5329069
9	0x3e596a3d	0.21231933
10	0x3eb29056	0.34875745
11	0x3e864da9	0.26231125
12	0x3f689d33	0.90864867
13	0x3e997ddc	0.29978836
14	0x3f8d872c	1.1056876
15	0x3ea06f38	0.31334853

ensemble.1.module_list.0.input_quant.pre_transforms.0.bias f4 [16]
0	0x3f742167	0.9536347
1	0xbcba7a4e	-0.022763398
2	0x3d632059	0.05545077
3	0x3de58f5d	0.11208985
4	0x3e90848e	0.2822613
5	0xbeaec18e	-0.34132046
6	0x3e841ca7	0.2580311
7	0x3ed805ed	0.4219202
8	0xbf81daa1	-1.0144845
9	0x3e57c043	0.21069436
10	0xbee014c5	-0.43765846
11	0x3e88604d	0.26635972
12	0xbf786482	-0.9702836
13	0x3e44af7b	0.19207565
14	0x3f9ca9aa	1.2239277
15	0x3df1f6b5	0.11814634

ensemble.1.module_list.0.input_quant.pre_transforms.0.running_mean f4 [16]
0	0x3d86dcfe	0.0658512
1	0xbc442f04	-0.0119741
2	0xbe93ce66	-0.28868407
3	0x3e8e379a	0.27776796
4	0xbe97dbc8	-0.29659867
5	0xbe274305	-0.1633416
6	0x3e62f122	0.22162297
7	0xbf2a4eae	-0.66526306
8	0xbed1e612	-0.40995842
9	0xbea19666	-0.31560057
10	0xbf8605f1	-1.0470563
11	0xbea9d0b1	-0.3316703
12	0xbe70ab5e	-0.23502871
13	0xbd058714	-0.032599524
14	0xbe4b1cd4	-0.19835216
15	0xbee2219c	-0.44166267

ensemble.1.module_list.0.input_quant.pre_transforms.0.running_var f4 [16]
0	0x3939c825	0.00017717535
1	0x3a6575e3	0.0008753223
2	0x3a6ecbeb	0.00091093656
3	0x38ab1d50	8.159375e-05
4	0x3c07ad80	0.008281112
5	0x3c13832e	0.009003444
6	0x3c5c4cdf	0.013446062
7	0x389a02f9	7.343846e-05
8	0x33347066	4.201174e-08
9	0x3bef5fe5	0.0073051327
10	0x27207398	2.2267124e-15
11	0x3b96b799	0.0045995233
12	0x3c825537	0.015909774
13	0x3d889261	0.066685446
14	0x3d195b2a	0.037440456
15	0x3913ec1d	0.00014106972

ensemble.1.module_list.0.fc.weight f4 [64, 16]
0	0xbd8dde9f	-0.06927227
1	0x3e2c893c	0.16849226
2	0xbddc9e28	-0.107723534
3	0xbe1cc24e	-0.15308496
4	0x3e1fe84b	0.15615956
5	0xbc52af35	-0.012859155
6	0xbcd756cf	-0.02628651
7	0xbda5354f	-0.080668084
8	0xbd9c0132	-0.076174155
9	0xbddff6ba	-0.10935731
10	0xbb9ca1d6	-0.0047800345
11	0xbd8c6850	-0.068558335
12	0x3e2cdcb7	0.16881071
13	0xbca4a9bd	-0.020100469
14	0x3d244325	0.040103097
15	0xbdcfd0e4	-0.101472646
16	0x3be98253	0.0071261316
17	0xbe926dab	-0.28599295
18	0x3a1b0f56	0.0005915066
19	0xbdbc2330	-0.09186399
20	0xbd3412f0	-0.043963373
21	0x3d840918	0.06447047
22	0x3dce34b0	0.10068643
23	0xbcfa7770	-0.03057453
24	0x3df60821	0.12013269
25	0x3e1bd7b7	0.15219007
26	0xbe09a11a	-0.13440362
27	0xbae6700c	-0.0017581
28	0xbd6514f8	-0.0559282
29	0x3e09f520	0.13472414
30	0xbdb7c99a	-0.08973999
31	0x3ed203da	0.41018564
32	0xbe154753	-0.1457799
33	0xbf2a7199	-0.66579586
34	0x3e084720	0.13308382
35	0xbe2afd91	-0.1669829
36	0x3d17d867	0.03707161
37	0x3d5088fe	0.050911896
38	0x3b81b6ab	0.0039585433
39	0xbd9290da	-0.071565345
40	0xbdaffca0	-0.08593106
41	0xbe05e821	-0.13076831
42	0xbdd598a1	-0.10429502
43	0xbd26f825	-0.040763993
44	0x3ec94eba	0.39317876
45	0xbd8834bd	-0.06650684
46	0x3bc9010f	0.0061341594
47	0xbd51de3f	-0.05123734
48	0x3c851245	0.016244063
49	0x3e24f278	0.1610812
50	0xbe44d805	-0.1922303
51	0xbde85406	-0.11344151
52	0xbe15de0e	-0.14635488
53	0xbda09757	-0.07841366
54	0x3e17ac3f	0.148118
55	0xbd9dae6e	-0.076992854
56	0xbd7804eb	-0.060551565
57	0xbe4434a4	-0.19160706
58	0x3c2448c5	0.010027115
59	0x3e2564cb	0.1615173
60	0x3d06b03d	0.032882918
61	0x3c886f86	0.016654741
62	0xbe0f6d74	-0.14006597
63	0xbd5c9546	-0.053853296
64	0xbcaeba89	-0.021329181
65	0xbb876cd6	-0.0041328473
66	0x3d45a191	0.048249785
67	0x3d9e9e33	0.07745018
68	0x3baa3dca	0.005195354
69	0x3caaa05a	0.020828415
70	0x3d100164	0.035157576
71	0x3e1d5125	0.15362985
72	0xbc7eae44	-0.015544478
73	0x3e0b893d	0.13626571
74	0xbe23af8d	-0.15984936
75	0x3d817d69	0.06322748
76	0xbeeb55a5	-0.4596378
77	0xbb4910d2	-0.0030680192
78	0xbf0a4bbb	-0.54021806
79	0x3d9b0b16	0.07570474
80	0xbdae9408	-0.085243285
81	0xbd95dbd3	-0.07317319
82	0x3d95e5d1	0.073192246
83	0x3d9a7d32	0.0754341
84	0x3dc5e17f	0.096621506
85	0x3dae69d5	0.085162796
86	0xbc8466bc	-0.016162269
87	0x3e033844	0.12814432
88	0x3de41cfb	0.1113834
89	0x3f16003f	0.58594126
90	0xbd3b9cd4	-0.04580386
91	0xbc69adb6	-0.014262607
92	0xbe2c163b	-0.16805355
93	0x3bcc3503	0.0062319054
94	0x3e06a57e	0.13149068
95	0x3e21178f	0.15731643
96	0x3cea3603	0.028590208
97	0x3d75573a	0.05989764
98	0x3ca527dc	0.020160608
99	0x3d5e8feb	0.05433647
100	0x3d0cdc91	0.034390036
101	0x3dcc5ef5	0.09979049
102	0x3deade7b	0.11468216
103	0x3f020fa1	0.508051
104	0xbe299bdf	-0.16563366
105	0xbe1e2331	-0.15443112
106	0xbea5e12a	-0.3239835
107	0xbdcd5be7	-0.100272946
108	0xbd88589b	-0.06657525
109	0xbdb5d655	-0.08878771
110	0x3efcd1f0	0.4937892
111	0x3e181df4	0.14855176
112	0xbd462926	-0.048379086
113	0x3c873351	0.016503962
114	0xbdcc460d	-0.099742986
115	0xbe0be383	-0.13661008
116	0xbebb5fbf	-0.36596486
117	0xbe0ba7e2	-0.13638261
118	0xbf146b6c	-0.5797641
119	0xbcbe8ae2	-0.023259584
120	0x3da4e1ac	0.08050856
121	0x3d1911e6	0.037370585
122	0x3e102e58	0.14080179
123	0x3e178452	0.1479657
124	0x3dc760c3	0.09735253
125	0x3d59a409	0.05313495
126	0xbdad5ba1	-0.084647425
127	0x3df9e262	0.12201382
128	0x3d91aeba	0.071134046
129	0xbe24a26c	-0.16077584
130	0x3dfeb678	0.12437147
131	0xbe0e1043	-0.13873391
132	0x3c82d09b	0.015968611
133	0x3e1092b1	0.14118458
134	0x3d93b614	0.07212463
135	0xbe193263	-0.14960627
136	0x3d30b31e	0.04313957
137	0x3cfb8fb1	0.030708166
138	0x3d2d91e3	0.042375457
139	0xbbf88159	-0.007583779
140	0xbf43bb30	-0.764575
141	0xbd9ea8a6	-0.07747011
142	0xbcfdaf20	-0.030967295
143	0x3d122d09	0.03568748
144	0x3e274c41	0.16337682
145	0xbd2fbe4b	-0.042906087
146	0xbd616286	-0.0550256
147	0x3d27c3ca	0.040958203
148	0xbe17db28	-0.14829695
149	0x3db25739	0.08708043
150	0xbdad63b9	-0.08466286
151	0xbdf11a08	-0.11772543
152	0xbe1b1009	-0.15142836
153	0x3e0f225a	0.13977948
154	0x3e25fdec	0.16210145
155	0x3d9f0ec3	0.077664874
156	0xbd2c3912	-0.042046614
157	0x3e11a627	0.14223538
158	0xbce150b6	-0.027504306
159	0xbd88de4c	-0.06683025
160	0xbd388f52	-0.045058556
161	0x3e1eb4a8	0.15498602
162	0xbe08453d	-0.13307662
163	0xbe28030d	-0.16407414
164	0x3b672dfd	0.0035275214
165	0x3e0a58d8	0.13510454
166	0xbe12717f	-0.14301108
167	0xbddfe8ee	-0.109331
168	0xbd9b279b	-0.075759135
169	0x3d63b79d	0.05559503
170	0x3dead31f	0.114660494
171	0xbdae3b58	-0.08507413
172	0xbecf4176	-0.4047963
173	0x3d0f7923	0.035027634
174	0x3dffbaed	0.12486825
175	0xbbedf2d3	-0.007261613
176	0xbcf03854	-0.029323734
177	0xbe353c2f	-0.1769874
178	0x3e23f5ec	0.1601178
179	0xbdf0f2b7	-0.11765044
180	0xbef7c16f	-0.48389766
181	0x3e1ace3a	0.15117732
182	0x3c94dbfa	0.0181713
183	0xbdb38313	-0.08765235
184	0xbe2727aa	-0.16323724
185	0xbccf351c	-0.02529388
186	0x3c256324	0.010094438
187	0xbc79fbdb	-0.015257801
188	0x3ca59723	0.02021367
189	0xbe9ab514	-0.30216277
190	0x3e2d1e83	0.1690617
191	0x3cf73ac5	0.03017939
192	0xbd903acd	-0.07042465
193	0xbd341809	-0.043968234
194	0x3daa97a4	0.083297044
195	0xbc89a105	-0.016800413
196	0x3df118d7	0.11772316
197	0x3dbf87ac	0.09352049
198	0xbe041a05	-0.1290055
199	0x3c42cc2a	0.011889497
200	0xbccc0592	-0.024905
201	0xbd27fcf7	-0.04101273
202	0x3dfb2f64	0.122648984
203	0x3d77f755	0.06053861
204	0xbf3f8041	-0.74805075
205	0xbe23c282	-0.15992168
206	0xbdfca7c7	-0.123366885
207	0x3e10f05c	0.1415419
208	0xbdb2e584	-0.08735183
209	0x3dac4649	0.08411843
210	0xbd72676b	-0.05918066
211	0x3e04679e	0.12930152
212	0x3df967b1	0.12177981
213	0xbedaa96f	-0.42707393
214	0xbe1b8b85	-0.15189941
215	0x3d986b5e	0.07442354
216	0x3dcd074d	0.10011158
217	0xbd989723	-0.07450702
218	0xbd446aed	-0.047953535
219	0x3dd7d8ae	0.10539375
220	0x3e249ef0	0.16076255
221	0xbee19cb1	-0.4406486
222	0x3d45bf53	0.048278164
223	0x3dd87ab2	0.10570277
224	0x3e07d10b	0.13263337
225	0x3cf8432f	0.030305473
226	0x3e16857e	0.1469936
227	0xbe1969db	-0.14981787
228	0xbe24ec88	-0.16105855
229	0xbe68c7ae	-0.22732422
230	0xbe33a835	-0.17544635
231	0xbe91b3fc	-0.2845763
232	0x3d18333b	0.037158232
233	0x3c4084ce	0.011750413
234	0xbdc9c429	-0.09851868
235	0xbca3f535	-0.020014385
236	0x3c89d4a4	0.016825028
237	0x3d0c7d9b	0.034299474
238	0xbd8517e1	-0.06498695
239	0x3dcb93c9	0.09940297
240	0xbd4fee58	-0.05076441
241	0x3e3a7b94	0.18211204
242	0x3c80e14a	0.015732426
243	0x3e18f636	0.14937672
244	0x3c8ecb02	0.017430786
245	0xbe08b243	-0.13349251
246	0x3c6131ac	0.013744753
247	0x3dda926c	0.10672459
248	0x3db32360	0.087469816
249	0x3df145ec	0.11780915
250	0xbcd04688	-0.025424257
251	0x3d113c5d	0.035457958
252	0x3ab0359f	0.0013443715
253	0x3ea8f576	0.32999772
254	0xbd601237	-0.05470487
255	0x3ea03912	0.3129354

ensemble.1.module_list.0.fc.bias f4 [64]
0	0x3d834a78	0.06410688
1	0x3e4604ca	0.19337764
2	0xbe179118	-0.14801443
3	0x3ea2dbd1	0.31808332
4	0xbe039184	-0.12848479
5	0x3f008f31	0.5021849
6	0x3da048bb	0.07826372
7	0xbdb2a064	-0.08721998
8	0x3e8f805a	0.28027612
9	0xbdd37568	-0.10325128
10	0x3cd2d47f	0.025736092
11	0xbe76ece5	-0.24113806
12	0x3d213cb2	0.039364524
13	0xbea8c165	-0.32960048
14	0x3dff4693	0.12464633
15	0x3ec30e9a	0.38097078
16	0xbef7ad34	-0.4837433
17	0xbcf7cdf4	-0.030249573
18	0x3e139296	0.14411387
19	0x3c85f348	0.016351357
20	0xbed70486	-0.4199564
21	0x3d7a936a	0.06117574
22	0x3d930d95	0.07180325
23	0xbe99d38d	-0.30044213
24	0x3eb61cfb	0.35568985
25	0x3e01e9a8	0.12686789
26	0xbedc29ba	-0.43000585
27	0xbe22691f	-0.15860413
28	0x3e322e1e	0.17400405
29	0x3e08cbef	0.13359044
30	0xbe6bd774	-0.23031408
31	0xbe7a5eba	-0.24450198
32	0xbe00cdb0	-0.12578464
33	0xbe7c56c2	-0.2464247
34	0x3d18b770	0.037284315
35	0x3e6dc4a2	0.2321954
36	0x3ced6d81	0.02898288
37	0xbda486f8	-0.08033556
38	0x3ca718a0	0.020397484
39	0xbddc7bf4	-0.1076583
40	0xbbe082dc	-0.006851537
41	0x3eed031d	0.46291438
42	0xbdfeac8c	-0.124352545
43	0xbedd9e70	-0.4328494
44	0xbe2e2956	-0.17007956
45	0xbc1beacb	-0.009516428
46	0xbe9558aa	-0.29169208
47	0x3a7f93d9	0.0009749509
48	0xbea93805	-0.33050552
49	0xbdfbf34e	-0.12302266
50	0x3e1170ac	0.14203137
51	0xbe4d9579	-0.2007655
52	0xb8c49c38	-9.375106e-05
53	0xbe9fcf14	-0.31212676
54	0xbea7c1f2	-0.32765156
55	0xbe03b28f	-0.12861083
56	0xbdeaa88c	-0.11457929
57	0xbe8d835f	-0.2763929
58	0x3c9935c0	0.018702388
59	0xbe679fda	-0.22619572
60	0x3e706bf8	0.23478687
61	0xbe880594	-0.26566756
62	0x3e696eb6	0.22796139
63	0xbcc95650	-0.02457729

ensemble.1.module_list.0.fc.mask.mask f4 [64, 16]
0	0x00000000	0.0
1	0x3f800000	1.0
2	0x00000000	0.0
3	0x00000000	0.0
4	0x00000000	0.0
5	0x00000000	0.0
6	0x00000000	0.0
7	0x00000000	0.0
8	0x3f800000	1.0
9	0x00000000	0.0
10	0x00000000	0.0
11	0x00000000	0.0
12	0x00000000	0.0
13	0x3f800000	1.0
14	0x00000000	0.0
15	0x00000000	0.0
16	0x00000000	0.0
17	0x3f800000	1.0
18	0x00000000	0.0
19	0x00000000	0.0
20	0x00000000	0.0
21	0x3f800000	1.0
22	0x00000000	0.0
23	0x00000000	0.0
24	0x00000000	0.0
25	0x00000000	0.0
26	0x00000000	0.0
27	0x00000000	0.0
28	0x00000000	0.0
29	0x00000000	0.0
30	0x00000000	0.0
31	0x3f800000	1.0
32	0x00000000	0.0
33	0x3f800000	1.0
34	0x00000000	0.0
35	0x00000000	0.0
36	0x00000000	0.0
37	0x00000000	0.0
38	0x00000000	0.0
39	0x3f800000	1.0
40	0x00000000	0.0
41	0x00000000	0.0
42	0x00000000	0.0
43	0x00000000	0.0
44	0x3f800000	1.0
45	0x00000000	0.0
46	0x00000000	0.0
47	0x00000000	0.0
48	0x00000000	0.0
49	0x00000000	0.0
50	0x3f800000	1.0
51	0x00000000	0.0
52	0x00000000	0.0
53	0x00000000	0.0
54	0x00000000	0.0
55	0x00000000	0.0
56	0x3f800000	1.0
57	0x3f800000	1.0
58	0x00000000	0.0
59	0x00000000	0.0
60	0x00000000	0.0
61	0x00000000	0.0
62	0x00000000	0.0
63	0x00000000	0.0
64	0x00000000	0.0
65	0x00000000	0.0
66	0x00000000	0.0
67	0x00000000	0.0
68	0x00000000	0.0
69	0x00000000	0.0
70	0x00000000	0.0
71	0x00000000	0.0
72	0x00000000	0.0
73	0x00000000	0.0
74	0x00000000	0.0
75	0x00000000	0.0
76	0x3f800000	1.0
77	0x3f800000	1.0
78	0x3f800000	1.0
79	0x00000000	0.0
80	0x00000000	0.0
81	0x00000000	0.0
82	0x00000000	0.0
83	0x00000000	0.0
84	0x3f800000	1.0
85	0x3f800000	1.0
86	0x00000000	0.0
87	0x00000000	0.0
88	0x00000000	0.0
89	0x3f800000	1.0
90	0x00000000	0.0
91	0x00000000	0.0
92	0x00000000	0.0
93	0x00000000	0.0
94	0x00000000	0.0
95	0x00000000	0.0
96	0x00000000	0.0
97	0x00000000	0.0
98	0x00000000	0.0
99	0x00000000	0.0
100	0x00000000	0.0
101	0x00000000	0.0
102	0x00000000	0.0
103	0x3f800000	1.0
104	0x00000000	0.0
105	0x00000000	0.0
106	0x3f800000	1.0
107	0x00000000	0.0
108	0x00000000	0.0
109	0x00000000	0.0
110	0x3f800000	1.0
111	0x00000000	0.0
112	0x00000000	0.0
113	0x00000000	0.0
114	0x00000000	0.0
115	0x3f800000	1.0
116	0x3f800000	1.0
117	0x00000000	0.0
118	0x3f800000	1.0
119	0x00000000	0.0
120	0x00000000	0.0
121	0x00000000	0.0
122	0x00000000	0.0
123	0x00000000	0.0
124	0x00000000	0.0
125	0x00000000	0.0
126	0x00000000	0.0
127	0x00000000	0.0
128	0x00000000	0.0
129	0x00000000	0.0
130	0x00000000	0.0
131	0x00000000	0.0
132	0x3f800000	1.0
133	0x00000000	0.0
134	0x00000000	0.0
135	0x00000000	0.0
136	0x00000000	0.0
137	0x00000000	0.0
138	0x00000000	0.0
139	0x00000000	0.0
140	0x3f800000	1.0
141	0x00000000	0.0
142	0x00000000	0.0
143	0x3f800000	1.0
144	0x3f800000	1.0
145	0x00000000	0.0
146	0x00000000	0.0
147	0x00000000	0.0
148	0x00000000	0.0
149	0x00000000	0.0
150	0x00000000	0.0
151	0x00000000	0.0
152	0x00000000	0.0
153	0x00000000	0.0
154	0x00000000	0.0
155	0x3f800000	1.0
156	0x00000000	0.0
157	0x00000000	0.0
158	0x3f800000	1.0
159	0x00000000	0.0
160	0x00000000	0.0
161	0x00000000	0.0
162	0x00000000	0.0
163	0x00000000	0.0
164	0x3f800000	1.0
165	0x00000000	0.0
166	0x00000000	0.0
167	0x00000000	0.0
168	0x3f800000	1.0
169	0x00000000	0.0
170	0x00000000	0.0
171	0x00000000	0.0
172	0x3f800000	1.0
173	0x00000000	0.0
174	0x00000000	0.0
175	0x00000000	0.0
176	0x00000000	0.0
177	0x3f800000	1.0
178	0x00000000	0.0
179	0x00000000	0.0
180	0x3f800000	1.0
181	0x00000000	0.0
182	0x00000000	0.0
183	0x00000000	0.0
184	0x00000000	0.0
185	0x00000000	0.0
186	0x00000000	0.0
187	0x00000000	0.0
188	0x00000000	0.0
189	0x3f800000	1.0
190	0x00000000	0.0
191	0x00000000	0.0
192	0x00000000	0.0
193	0x00000000	0.0
194	0x3f800000	1.0
195	0x00000000	0.0
196	0x00000000	0.0
197	0x00000000	0.0
198	0x00000000	0.0
199	0x3f800000	1.0
200	0x00000000	0.0
201	0x00000000	0.0
202	0x00000000	0.0
203	0x00000000	0.0
204	0x3f800000	1.0
205	0x00000000	0.0
206	0x00000000	0.0
207	0x00000000	0.0
208	0x00000000	0.0
209	0x00000000	0.0
210	0x00000000	0.0
211	0x00000000	0.0
212	0x00000000	0.0
213	0x3f800000	1.0
214	0x3f800000	1.0
215	0x00000000	0.0
216	0x00000000	0.0
217	0x00000000	0.0
218	0x00000000	0.0
219	0x00000000	0.0
220	0x00000000	0.0
221	0x3f800000	1.0
222	0x00000000	0.0
223	0x00000000	0.0
224	0x00000000	0.0
225	0x00000000	0.0
226	0x00000000	0.0
227	0x00000000	0.0
228	0x00000000	0.0
229	0x3f800000	1.0
230	0x3f800000	1.0
231	0x3f800000	1.0
232	0x00000000	0.0
233	0x00000000	0.0
234	0x00000000	0.0
235	0x00000000	0.0
236	0x00000000	0.0
237	0x00000000	0.0
238	0x00000000	0.0
239	0x00000000	0.0
240	0x00000000	0.0
241	0x3f800000	1.0
242	0x00000000	0.0
243	0x00000000	0.0
244	0x00000000	0.0
245	0x00000000	0.0
246	0x00000000	0.0
247	0x00000000	0.0
248	0x00000000	0.0
249	0x00000000	0.0
250	0x00000000	0.0
251	0x00000000	0.0
252	0x00000000	0.0
253	0x3f800000	1.0
254	0x00000000	0.0
255	0x3f800000	1.0

ensemble.1.module_list.0.output_quant.pre_transforms.0.weight f4 [64]
0	0x3f2dd69e	0.67905605
1	0x3e19d42c	0.15022343
2	0x3f0f2946	0.55922353
3	0x3e783301	0.24238206
4	0x3f304814	0.6885998
5	0x3e235553	0.15950517
6	0x3f69fb8c	0.91399455
7	0x3ed53372	0.41640812
8	0x3f94863a	1.1603463
9	0x3f2dd69e	0.67905605
10	0x3f97ca80	1.1858673
11	0x3f7212d6	0.9455999
12	0x3ff9f1c7	1.952691
13	0x3f487778	0.78307295
14	0x3ecb3428	0.3968823
15	0x3f0b3ed2	0.5439273
16	0x3f12dd10	0.57368565
17	0x3e3a59d0	0.18198323
18	0x3f2dd69e	0.67905605
19	0x3f31d00c	0.6945808
20	0x3f164b47	0.58708614
21	0x3e5c2616	0.21498904
22	0x3f57f23d	0.84354
23	0x3f2f9da6	0.6859993
24	0x3ea9973f	0.33123204
25	0x3ff892eb	1.9419836
26	0x3ef8e363	0.48610982
27	0x404f05b8	3.234724
28	0x3f2dd69e	0.67905605
29	0x3efbe2d0	0.49196482
30	0x3f2dd69e	0.67905605
31	0x3f2dd69e	0.67905605
32	0x3e7742ac	0.24146527
33	0x3e6637f2	0.22482279
34	0x3f5ecb31	0.87028795
35	0x3f2dd69e	0.67905605
36	0x3ed14203	0.40870675
37	0x3f2dd69e	0.67905605
38	0x3f2dd69e	0.67905605
39	0x3f036a6d	0.5133427
40	0x3f43d20c	0.7649238
41	0x3f06c1e6	0.52639616
42	0x3f2dd69e	0.67905605
43	0x3f725aa7	0.94669574
44	0x3f2dd69e	0.67905605
45	0x3ef1685d	0.47149935
46	0x3ea42486	0.32059115
47	0x3ead7faf	0.33886477
48	0x3f4b4323	0.7939932
49	0x3f2daa61	0.678381
50	0x3f2dd69e	0.67905605
51	0x3e6207b6	0.22073254
52	0x3fa1666c	1.2609382
53	0x3f1d57d7	0.6146216
54	0x3dfece10	0.12441647
55	0x3ee9cae8	0.45662618
56	0x3f2dd69e	0.67905605
57	0x3e8d7b9e	0.27633375
58	0x3f2dd69e	0.67905605
59	0x3ea071a4	0.313367
60	0x3f2dd69e	0.67905605
61	0x3f24a47e	0.64313495
62	0x3e2a88dc	0.1665377
63	0x3f2dd69e	0.67905605

ensemble.1.module_list.0.output_quant.pre_transforms.0.bias f4 [64]
0	0x00000000	0.0
1	0x3e818a50	0.25300837
2	0x3e062682	0.13100627
3	0x3d5bb047	0.053634908
4	0xbed32834	-0.4124161
5	0x3e40ab5e	0.18815371
6	0x3f01a531	0.5064269
7	0xbddbff69	-0.10742075
8	0x3db9370b	0.09043702
9	0x00000000	0.0
10	0x3dcb2a28	0.0992015
11	0x3f08ba25	0.53409034
12	0xbc15da58	-0.0091462955
13	0x3ef65e67	0.48118898
14	0x3ecb9b79	0.39767054
15	0x3eceee4c	0.4041618
16	0x3f915392	1.1353629
17	0x3f111fa8	0.5668893
18	0x00000000	0.0
19	0x3f9b67f0	1.2141094
20	0xbf39206c	-0.72315097
21	0x3e441ee3	0.19152407
22	0x3f126bdc	0.5719583
23	0x3f0269b6	0.5094255
24	0x3e679b3b	0.2261781
25	0xbdd71513	-0.105020665
26	0xbea65f6b	-0.32494673
27	0x3c1b4e5e	0.009479133
28	0x00000000	0.0
29	0xbf3df37e	-0.74199665
30	0x00000000	0.0
31	0x00000000	0.0
32	0x3eca33a4	0.39492524
33	0x3df11a30	0.11772573
34	0x3f1b7003	0.6071779
35	0x00000000	0.0
36	0x3d4ac0d3	0.049500298
37	0x00000000	0.0
38	0x00000000	0.0
39	0xbe666f2a	-0.22503343
40	0xbf6bd5e7	-0.92123264
41	0x3e067a4b	0.13132589
42	0x00000000	0.0
43	0x3ef8df51	0.48607877
44	0x00000000	0.0
45	0x3f715457	0.9426932
46	0x3ebb7262	0.36610705
47	0xbdf6cc5c	-0.12050697
48	0x3da3e661	0.08002926
49	0x3f88ce22	1.0687907
50	0x00000000	0.0
51	0x3e431194	0.19049674
52	0x3f96e8d5	1.1789805
53	0xbe81e032	-0.2536636
54	0x3e5ffcbf	0.21873759
55	0x3f4348b9	0.7628284
56	0x00000000	0.0
57	0x3f266666	0.65
58	0x00000000	0.0
59	0x3db4ad8f	0.08822166
60	0x00000000	0.0
61	0xbf60360e	-0.8758248
62	0x3f5a2a81	0.85221106
63	0x00000000	0.0

ensemble.1.module_list.0.output_quant.pre_transforms.0.running_mean f4 [64]
0	0x3d67c6ba	0.056586005
1	0x3e3a2b51	0.18180586
2	0xbdcc5cdc	-0.09978649
3	0x3ec17882	0.37787253
4	0xbcf5f86b	-0.030025681
5	0x3ee666fa	0.4500044
6	0x3e7fb154	0.24969989
7	0xbd8c75c6	-0.06858401
8	0x3ef1c0ba	0.4721735
9	0xbda424c4	-0.08014825
10	0x3e230af0	0.15922141
11	0xbe37f5e3	-0.17964892
12	0x3e62b8a9	0.22140755
13	0xbe307748	-0.17233002
14	0x3e3014e6	0.17195472
15	0x3e85240a	0.26004058
16	0xbec80850	-0.39068842
17	0xbe29d53a	-0.16585246
18	0x3e0d48d0	0.13797307
19	0x3d16b68f	0.036795195
20	0xbefad2ea	-0.4898904
21	0x3e4d407a	0.20044127
22	0x3e1eb52e	0.15498802
23	0xbe14ca24	-0.14530236
24	0x3eba640a	0.3640445
25	0x3f2dc34d	0.6787613
26	0xbef51503	-0.47867593
27	0x3d024f28	0.03181377
28	0x3e32d153	0.17462663
29	0x3e970ae1	0.29500487
30	0xbe879cd2	-0.26486832
31	0xbe668893	-0.22513036
32	0xbd65fccd	-0.056149293
33	0xbe8303b2	-0.25588757
34	0x3dcdfa49	0.10057504
35	0x3e7912c1	0.2432356
36	0xbec16a0a	-0.37776214
37	0xbe0b8c2c	-0.1362769
38	0xbb3e09fa	-0.0028997646
39	0xbe65ba0b	-0.22434251
40	0xbe81270b	-0.252251
41	0x3e6c4402	0.23072818
42	0xbe05d867	-0.13070832
43	0xbef30e47	-0.4747183
44	0xbe331fa5	-0.1749254
45	0x3dfb644a	0.12274988
46	0xbeb5639e	-0.35427564
47	0xbe287681	-0.16451456
48	0xbe445f7b	-0.19177048
49	0x3d7d4615	0.061834414
50	0x3e33c3ea	0.17555204
51	0xbddbeffb	-0.10739132
52	0x3c80608f	0.015671043
53	0xbe82fa70	-0.25581694
54	0xbeae1ac7	-0.34004804
55	0x3dc04041	0.093872555
56	0xbe1b9410	-0.151932
57	0xbe93b18f	-0.28846404
58	0x3bdd9421	0.006762043
59	0xbedfb983	-0.43696222
60	0x3e6fb14b	0.23407476
61	0xbe1f25df	-0.1554179
62	0x3e4b9264	0.19880062
63	0x3c9875ac	0.018610798

ensemble.1.module_list.0.output_quant.pre_transforms.0.running_var f4 [64]
0	0x3a86e46d	0.0010291465
1	0x3c94a837	0.018146617
2	0x3c71c189	0.014755615
3	0x3a8954e4	0.001047757
4	0x3b9cc984	0.0047847647
5	0x3c184a9b	0.009295131
6	0x3c8668a7	0.016407324
7	0x3cd872f7	0.026422007
8	0x3d06e5c8	0.03293398
9	0x39e5d9b9	0.000438405
10	0x3c165794	0.009176154
11	0x3c59387b	0.013258095
12	0x3d0449f1	0.03229708
13	0x3ca823e2	0.020524923
14	0x3bbe5580	0.0058085322
15	0x3c542c42	0.012950005
16	0x3c993421	0.018701615
17	0x39920967	0.00027854295
18	0x3aa9c29d	0.0012951676
19	0x3c006959	0.007837617
20	0x3c6b5735	0.0143640535
21	0x3bca6a59	0.0061772284
22	0x3bf8046e	0.0075688874
23	0x3c4aa38e	0.012368096
24	0x3c4a545e	0.012349216
25	0x3b9c96bd	0.0047787116
26	0x3c876fda	0.016532827
27	0x3c99e9e9	0.018788295
28	0x3a51975a	0.00079952704
29	0x3c5f63d6	0.013634643
30	0x38c3cd37	9.336549e-05
31	0x39810aa3	0.00024612722
32	0x3ca47a91	0.020077975
33	0x3c25b73b	0.010114486
34	0x3c8158e9	0.015789466
35	0x3a2910bf	0.0006449334
36	0x3985e804	0.00025540602
37	0x3b44f437	0.003005279
38	0x3abe04d5	0.001449729
39	0x3b8855c5	0.004160615
40	0x3d296aec	0.041361734
41	0x3cd01060	0.025398433
42	0x3b7bc4f8	0.0038416963
43	0x3da86853	0.08223023
44	0x38892de6	6.541218e-05
45	0x3c30b690	0.010785714
46	0x3cbaec14	0.022817649
47	0x3c8d8b74	0.01727841
48	0x3c85aeb3	0.016318655
49	0x3d53a9fe	0.05167579
50	0x3adb134c	0.0016714125
51	0x3c59fa44	0.013304297
52	0x3c9c1fd2	0.019058142
53	0x3cec41af	0.028839914
54	0x3ca5a6fa	0.020221222
55	0x3cc58dc2	0.024115447
56	0x3aa2a59d	0.0012408976
57	0x3b5e94ca	0.0033963197
58	0x3adbf86c	0.001678241
59	0x3c9d27c3	0.019183999
60	0x3a223a92	0.0006188537
61	0x3c30f073	0.010799515
62	0x3c098357	0.00839313
63	0x39fc642f	0.00048139828

ensemble.1.module_list.1.input_quant.pre_transforms.0.weight f4 [64]
0	0x3f2dd69e	0.67905605
1	0x3e19d42c	0.15022343
2	0x3f0f2946	0.55922353
3	0x3e783301	0.24238206
4	0x3f304814	0.6885998
5	0x3e235553	0.15950517
6	0x3f69fb8c	0.91399455
7	0x3ed53372	0.41640812
8	0x3f94863a	1.1603463
9	0x3f2dd69e	0.67905605
10	0x3f97ca80	1.1858673
11	0x3f7212d6	0.9455999
12	0x3ff9f1c7	1.952691
13	0x3f487778	0.78307295
14	0x3ecb3428	0.3968823
15	0x3f0b3ed2	0.5439273
16	0x3f12dd10	0.57368565
17	0x3e3a59d0	0.18198323
18	0x3f2dd69e	0.67905605
19	0x3f31d00c	0.6945808
20	0x3f164b47	0.58708614
21	0x3e5c2616	0.21498904
22	0x3f57f23d	0.84354
23	0x3f2f9da6	0.6859993
24	0x3ea9973f	0.33123204
25	0x3ff892eb	1.9419836
26	0x3ef8e363	0.48610982
27	0x404f05b8	3.234724
28	0x3f2dd69e	0.67905605
29	0x3efbe2d0	0.49196482
30	0x3f2dd69e	0.67905605
31	0x3f2dd69e	0.67905605
32	0x3e7742ac	0.24146527
33	0x3e6637f2	0.22482279
34	0x3f5ecb31	0.87028795
35	0x3f2dd69e	0.67905605
36	0x3ed14203	0.40870675
37	0x3f2dd69e	0.67905605
38	0x3f2dd69e	0.67905605
39	0x3f036a6d	0.5133427
40	0x3f43d20c	0.7649238
41	0x3f06c1e6	0.52639616
42	0x3f2dd69e	0.67905605
43	0x3f725aa7	0.94669574
44	0x3f2dd69e	0.67905605
45	0x3ef1685d	0.47149935
46	0x3ea42486	0.32059115
47	0x3ead7faf	0.33886477
48	0x3f4b4323	0.7939932
49	0x3f2daa61	0.678381
50	0x3f2dd69e	0.67905605
51	0x3e6207b6	0.22073254
52	0x3fa1666c	1.2609382
53	0x3f1d57d7	0.6146216
54	0x3dfece10	0.12441647
55	0x3ee9cae8	0.45662618
56	0x3f2dd69e	0.67905605
57	0x3e8d7b9e	0.27633375
58	0x3f2dd69e	0.67905605
59	0x3ea071a4	0.313367
60	0x3f2dd69e	0.67905605
61	0x3f24a47e	0.64313495
62	0x3e2a88dc	0.1665377
63	0x3f2dd69e	0.67905605

ensemble.1.module_list.1.input_quant.pre_transforms.0.bias f4 [64]
0	0x00000000	0.0
1	0x3e818a50	0.25300837
2	0x3e062682	0.13100627
3	0x3d5bb047	0.053634908
4	0xbed32834	-0.4124161
5	0x3e40ab5e	0.18815371
6	0x3f01a531	0.5064269
7	0xbddbff69	-0.10742075
8	0x3db9370b	0.09043702
9	0x00000000	0.0
10	0x3dcb2a28	0.0992015
11	0x3f08ba25	0.53409034
12	0xbc15da58	-0.0091462955
13	0x3ef65e67	0.48118898
14	0x3ecb9b79	0.39767054
15	0x3eceee4c	0.4041618
16	0x3f915392	1.1353629
17	0x3f111fa8	0.5668893
18	0x00000000	0.0
19	0x3f9b67f0	1.2141094
20	0xbf39206c	-0.72315097
21	0x3e441ee3	0.19152407
22	0x3f126bdc	0.5719583
23	0x3f0269b6	0.5094255
24	0x3e679b3b	0.2261781
25	0xbdd71513	-0.105020665
26	0xbea65f6b	-0.32494673
27	0x3c1b4e5e	0.009479133
28	0x00000000	0.0
29	0xbf3df37e	-0.74199665
30	0x00000000	0.0
31	0x00000000	0.0
32	0x3eca33a4	0.39492524
33	0x3df11a30	0.11772573
34	0x3f1b7003	0.6071779
35	0x00000000	0.0
36	0x3d4ac0d3	0.049500298
37	0x00000000	0.0
38	0x00000000	0.0
39	0xbe666f2a	-0.22503343
40	0xbf6bd5e7	-0.92123264
41	0x3e067a4b	0.13132589
42	0x00000000	0.0
43	0x3ef8df51	0.48607877
44	0x00000000	0.0
45	0x3f715457	0.9426932
46	0x3ebb7262	0.36610705
47	0xbdf6cc5c	-0.12050697
48	0x3da3e661	0.08002926
49	0x3f88ce22	1.0687907
50	0x00000000	0.0
51	0x3e431194	0.19049674
52	0x3f96e8d5	1.1789805
53	0xbe81e032	-0.2536636
54	0x3e5ffcbf	0.21873759
55	0x3f4348b9	0.7628284
56	0x00000000	0.0
57	0x3f266666	0.65
58	0x00000000	0.0
59	0x3db4ad8f	0.08822166
60	0x00000000	0.0
61	0xbf60360e	-0.8758248
62	0x3f5a2a81	0.85221106
63	0x00000000	0.0

ensemble.1.module_list.1.input_quant.pre_transforms.0.running_mean f4 [64]
0	0x3d67c6ba	0.056586005
1	0x3e3a2b51	0.18180586
2	0xbdcc5cdc	-0.09978649
3	0x3ec17882	0.37787253
4	0xbcf5f86b	-0.030025681
5	0x3ee666fa	0.4500044
6	0x3e7fb154	0.24969989
7	0xbd8c75c6	-0.06858401
8	0x3ef1c0ba	0.4721735
9	0xbda424c4	-0.08014825
10	0x3e230af0	0.15922141
11	0xbe37f5e3	-0.17964892
12	0x3e62b8a9	0.22140755
13	0xbe307748	-0.17233002
14	0x3e3014e6	0.17195472
15	0x3e85240a	0.26004058
16	0xbec80850	-0.39068842
17	0xbe29d53a	-0.16585246
18	0x3e0d48d0	0.13797307
19	0x3d16b68f	0.036795195
20	0xbefad2ea	-0.4898904
21	0x3e4d407a	0.20044127
22	0x3e1eb52e	0.15498802
23	0xbe14ca24	-0.14530236
24	0x3eba640a	0.3640445
25	0x3f2dc34d	0.6787613
26	0xbef51503	-0.47867593
27	0x3d024f28	0.03181377
28	0x3e32d153	0.17462663
29	0x3e970ae1	0.29500487
30	0xbe879cd2	-0.26486832
31	0xbe668893	-0.22513036
32	0xbd65fccd	-0.056149293
33	0xbe8303b2	-0.25588757
34	0x3dcdfa49	0.10057504
35	0x3e7912c1	0.2432356
36	0xbec16a0a	-0.37776214
37	0xbe0b8c2c	-0.1362769
38	0xbb3e09fa	-0.0028997646
39	0xbe65ba0b	-0.22434251
40	0xbe81270b	-0.252251
41	0x3e6c4402	0.23072818
42	0xbe05d867	-0.13070832
43	0xbef30e47	-0.4747183
44	0xbe331fa5	-0.1749254
45	0x3dfb644a	0.12274988
46	0xbeb5639e	-0.35427564
47	0xbe287681	-0.16451456
48	0xbe445f7b	-0.19177048
49	0x3d7d4615	0.061834414
50	0x3e33c3ea	0.17555204
51	0xbddbeffb	-0.10739132
52	0x3c80608f	0.015671043
53	0xbe82fa70	-0.25581694
54	0xbeae1ac7	-0.34004804
55	0x3dc04041	0.093872555
56	0xbe1b9410	-0.151932
57	0xbe93b18f	-0.28846404
58	0x3bdd9421	0.006762043
59	0xbedfb983	-0.43696222
60	0x3e6fb14b	0.23407476
61	0xbe1f25df	-0.1554179
62	0x3e4b9264	0.19880062
63	0x3c9875ac	0.018610798

ensemble.1.module_list.1.input_quant.pre_transforms.0.running_var f4 [64]
0	0x3a86e46d	0.0010291465
1	0x3c94a837	0.018146617
2	0x3c71c189	0.014755615
3	0x3a8954e4	0.001047757
4	0x3b9cc984	0.0047847647
5	0x3c184a9b	0.009295131
6	0x3c8668a7	0.016407324
7	0x3cd872f7	0.026422007
8	0x3d06e5c8	0.03293398
9	0x39e5d9b9	0.000438405
10	0x3c165794	0.009176154
11	0x3c59387b	0.013258095
12	0x3d0449f1	0.03229708
13	0x3ca823e2	0.020524923
14	0x3bbe5580	0.0058085322
15	0x3c542c42	0.012950005
16	0x3c993421	0.018701615
17	0x39920967	0.00027854295
18	0x3aa9c29d	0.0012951676
19	0x3c006959	0.007837617
20	0x3c6b5735	0.0143640535
21	0x3bca6a59	0.0061772284
22	0x3bf8046e	0.0075688874
23	0x3c4aa38e	0.012368096
24	0x3c4a545e	0.012349216
25	0x3b9c96bd	0.0047787116
26	0x3c876fda	0.016532827
27	0x3c99e9e9	0.018788295
28	0x3a51975a	0.00079952704
29	0x3c5f63d6	0.013634643
30	0x38c3cd37	9.336549e-05
31	0x39810aa3	0.00024612722
32	0x3ca47a91	0.020077975
33	0x3c25b73b	0.010114486
34	0x3c8158e9	0.015789466
35	0x3a2910bf	0.0006449334
36	0x3985e804	0.00025540602
37	0x3b44f437	0.003005279
38	0x3abe04d5	0.001449729
39	0x3b8855c5	0.004160615
40	0x3d296aec	0.041361734
41	0x3cd01060	0.025398433
42	0x3b7bc4f8	0.0038416963
43	0x3da86853	0.08223023
44	0x38892de6	6.541218e-05
45	0x3c30b690	0.010785714
46	0x3cbaec14	0.022817649
47	0x3c8d8b74	0.01727841
48	0x3c85aeb3	0.016318655
49	0x3d53a9fe	0.05167579
50	0x3adb134c	0.0016714125
51	0x3c59fa44	0.013304297
52	0x3c9c1fd2	0.019058142
53	0x3cec41af	0.028839914
54	0x3ca5a6fa	0.020221222
55	0x3cc58dc2	0.024115447
56	0x3aa2a59d	0.0012408976
57	0x3b5e94ca	0.0033963197
58	0x3adbf86c	0.001678241
59	0x3c9d27c3	0.019183999
60	0x3a223a92	0.0006188537
61	0x3c30f073	0.010799515
62	0x3c098357	0.00839313
63	0x39fc642f	0.00048139828

ensemble.1.module_list.1.fc.weight f4 [32, 64]
0	0x3d1f5e1e	0.038908117
1	0x3eb87e24	0.36033738
2	0x3cad644c	0.02116599
3	0xbd1aa0b1	-0.037750904
4	0xbd0c2efa	-0.034224488
5	0xbd0cd882	-0.034386165
6	0xbcd3061e	-0.025759753
7	0xbc1a19a6	-0.009405529
8	0xbc7f4c9d	-0.015582231
9	0xbc29513a	-0.010334307
10	0xbd901428	-0.070350945
11	0xbe08ed0b	-0.13371675
12	0x3cf94cd7	0.030432148
13	0xbd17e558	-0.037083954
14	0x3c101ae5	0.008795475
15	0x3d9ea15e	0.07745622
16	0x3d899981	0.06718732
17	0xbd80529d	-0.06265757
18	0x3b9f3e2f	0.004859708
19	0xbb26dfd3	-0.0025463
20	0xbd31e63a	-0.04343245
21	0xbcec5855	-0.028850714
22	0xbc592955	-0.013254483
23	0x3d72b86f	0.05925792
24	0x3c97208d	0.018448139
25	0x3da73ba8	0.081656754
26	0x3ce4eda1	0.027945342
27	0x3da3bf9f	0.07995533
28	0x3d720d95	0.059094984
29	0x3d9bb08f	0.07602035
30	0x3cccbf28	0.024993494
31	0xbd93af8b	-0.072112165
32	0xbb91bc43	-0.0044474914
33	0x3da85f4a	0.082213
34	0x3bcc243b	0.006229905
35	0xbda624dc	-0.08112499
36	0xbc06ae33	-0.008220243
37	0xbd144fb0	-0.03620881
38	0xbd69bde0	-0.057065845
39	0x3d28b30f	0.04118639
40	0x3c9e34bb	0.019312253
41	0x3d8f9259	0.070103355
42	0xbcf034c0	-0.029322028
43	0x3d2a0a86	0.041513942
44	0x3c0a5189	0.008442291
45	0x3d499397	0.04921302
46	0xbd93dc2b	-0.07219728
47	0xbca9e2c5	-0.020738015
48	0xbcecc103	-0.028900629
49	0xbb80d636	-0.003931786
50	0x3d465335	0.048419196
51	0x3d236b4d	0.039897252
52	0xbc04ba41	-0.008101047
53	0x3ae3b9dd	0.0017374117
54	0xbdab82e9	-0.083745785
55	0x3dab3128	0.08358985
56	0xbd0a4c17	-0.03376397
57	0xbc66942e	-0.014073415
58	0x3b0ca9ee	0.002146359
59	0xbda071df	-0.07834219
60	0x3d5fa8d5	0.05460437
61	0xbd084f05	-0.033278484
62	0xbd3a35da	-0.045461513
63	0x3d3a48e1	0.04547966
64	0x3caf32f8	0.021386608
65	0xbd3111a7	-0.043229725
66	0x3da99875	0.08281032
67	0x3cec6ea5	0.028861353
68	0x3d5d2148	0.053986818
69	0xbce87413	-0.028375661
70	0x3cdea313	0.02717737
71	0x3c196dff	0.009364604
72	0x3d826737	0.06367343
73	0xbd664463	-0.056217562
74	0x3c492d6f	0.012278899
75	0xbc34f74f	-0.011045291
76	0x3dc9608d	0.09832869
77	0x3d483134	0.04887505
78	0x3d9c58e1	0.0763414
79	0x3cf970d1	0.030449303
80	0x3d2a922e	0.041643314
81	0xbc512e1e	-0.012767343
82	0x3c27aead	0.010234517
83	0x3ca0fdb2	0.019652221
84	0xbef206f6	-0.47270936
85	0xbd92f58b	-0.0717574
86	0xbd794477	-0.06085631
87	0x3d5522f6	0.052035294
88	0xbd3a6730	-0.045508564
89	0x3d50e517	0.050999727
90	0x3d3c01ef	0.04590028
91	0x3d08771b	0.033316713
92	0xbcaf8f9d	-0.021430785
93	0x3d9e72d5	0.07736746
94	0xbc21623a	-0.009850079
95	0xbd07d0e0	-0.033158183
96	0x3c699a97	0.0142580485
97	0x3d5879e6	0.052850626
98	0x3d2abc36	0.0416834
99	0x3b96fda6	0.004607874
100	0x3d121451	0.035663906
101	0xbd71929b	-0.058977704
102	0x3d2a3017	0.04154977
103	0xbd124217	-0.03570756
104	0xbd54c348	-0.051944047
105	0xbd61d0f0	-0.0551309
106	0xbd505e92	-0.05087144
107	0xbc3c730d	-0.01150204
108	0x3c989f72	0.018630717
109	0xbd2a596c	-0.041589186
110	0xbdad9b37	-0.084768705
111	0x3da47f80	0.08032131
112	0x3da03ab9	0.078237005
113	0xbd36b798	-0.044608682
114	0x3d8224fb	0.0635471
115	0xbd88871b	-0.06666394
116	0xbd5e211e	-0.0542308
117	0x3dad7a79	0.084706254
118	0x3b39880a	0.0028309845
119	0x3f08df7f	0.5346603
120	0xbcec61f6	-0.028855305
121	0xbd1df491	-0.038563315
122	0xbd07d1b4	-0.033158973
123	0x3dabf576	0.08396427
124	0xbd869452	-0.065712586
125	0xbd7c311a	-0.061570264
126	0xbcbf3dc6	-0.023344886
127	0xbc35c205	-0.011093621
128	0x3d953a9c	0.072865695
129	0x3bfa444e	0.007637537
130	0x3b8a8cb5	0.0042281994
131	0x3d48b274	0.04899831
132	0x3d851d1c	0.06499693
133	0xbd521c75	-0.05129667
134	0xbda3d3a6	-0.07999353
135	0x3d100299	0.035158727
136	0x3c41f9aa	0.01183931
137	0xbcd64737	-0.026157005
138	0xbd0b76e8	-0.034048945
139	0x3d3545a2	0.04425586
140	0xbda440b2	-0.08020152
141	0xbb3f8481	-0.0029223266
142	0xbda4fa69	-0.080555744
143	0x3c1e9854	0.009679873
144	0xbd9d938d	-0.07694159
145	0x3c812759	0.015765833
146	0x3d8fc8fa	0.07020755
147	0x3ad036af	0.0015885438
148	0xbcceb1c3	-0.025231248
149	0x3b88d9df	0.004176363
150	0x3cff9864	0.031200595
151	0x3da4c51c	0.08045408
152	0xbd387e2f	-0.045042213
153	0x3d4a5a88	0.049402744
154	0xbd9385e3	-0.07203271
155	0x3dab7139	0.08371205
156	0xbd1615f3	-0.036642026
157	0xbc51f0de	-0.012813775
158	0x3d73d146	0.05952575
159	0x3d4814f6	0.048848115
160	0xbd25845b	-0.040409427
161	0xbbf438a9	-0.0074530435
162	0xbd886c69	-0.066613026
163	0x3ae854f1	0.001772551
164	0xbd9e6713	-0.077345036
165	0xbd8b82a1	-0.06812025
166	0x3d39925e	0.045305602
167	0xbcc09cc0	-0.023512244
168	0xbd126ee5	-0.03575029
169	0xbc70c832	-0.014696168
170	0xbda85384	-0.08219054
171	0x3d9f0c5b	0.077660285
172	0xbb2b9352	-0.002618034
173	0x3e53db70	0.20689178
174	0xbd14a486	-0.036289714
175	0x3d30e5f4	0.04318805
176	0x3ed7f7e5	0.42181316
177	0x3d05b6ba	0.032644965
178	0xbd791c1d	-0.060817827
179	0xbd088066	-0.033325575
180	0xbd58f2ec	-0.052966043
181	0xbd59140d	-0.052997638
182	0xbc3a1282	-0.011356952
183	0xbd7ad970	-0.06124252
184	0xbd68b8cd	-0.056816865
185	0xbda8fc76	-0.08251278
186	0x3cb7eee8	0.022452787
187	0xbd84f21f	-0.064914934
188	0xbc22eeef	-0.0099446615
189	0xbca7cef8	-0.020484433
190	0xbd8d0074	-0.06884852
191	0xbd684054	-0.056701973
192	0xbbf4649e	-0.0074582836
193	0x3d7dca0f	0.061960276
194	0xbcb86837	-0.022510631
195	0x3e16dfad	0.14733763
196	0x3d0009f2	0.031259485
197	0xbd826fe7	-0.06369
198	0x3cd24de0	0.0256719
199	0xbe97fc94	-0.2968489
200	0xbd467cba	-0.048458792
201	0x3da7cc51	0.08193267
202	0x3da9a931	0.08284224
203	0xbd451f00	-0.048125267
204	0x3c28372c	0.01026706
205	0xbdab092c	-0.08351359
206	0xbd3ceb60	-0.04612291
207	0x3c6cf74e	0.014463259
208	0xbda06a37	-0.07832759
209	0xbcefc847	-0.029270304
210	0xbd2413ad	-0.040057827
211	0xbd824657	-0.063610725
212	0x3d38c91c	0.045113668
213	0xbd6253a4	-0.055255547
214	0x3d987b74	0.07445422
215	0x3c81c74d	0.015842104
216	0x3ce6b2b6	0.028161388
217	0xbd79c942	-0.06098295
218	0x3b939c10	0.004504688
219	0x3d9fbfa5	0.07800225
220	0xbd34581b	-0.044029336
221	0xbd083e34	-0.033262447
222	0xbd062da0	-0.032758355
223	0xbc91f4de	-0.017816957
224	0x3d4ea7b4	0.050452903
225	0x3d307a1c	0.043085203
226	0xbcf4bec7	-0.029876126
227	0x3d70748e	0.058704905
228	0xbd9f9405	-0.07791904
229	0xbcd09b21	-0.025464596
230	0xbc5aa17c	-0.013344165
231	0xbb6c2422	-0.003603228
232	0xbbb0e8a9	-0.005398829
233	0x3cf0a07f	0.029373406
234	0x3ce7e024	0.02830512
235	0xbd954d52	-0.07290138
236	0x3d0fdecf	0.035124596
237	0x3c0ae073	0.008476364
238	0x3d5f7d09	0.054562602
239	0xbc3890d1	-0.011264996
240	0xbd9e9d0a	-0.077447966
241	0x3cc2e4f9	0.023790823
242	0xbd0e6b8a	-0.034770526
243	0xbd5da40c	-0.054111525
244	0xbc7a3b75	-0.015272965
245	0x3d89c081	0.0672617
246	0xbd8e4df7	-0.06948464
247	0xbd0b58b3	-0.034020137
248	0xbda557f4	-0.08073416
249	0xbc65fc46	-0.014037197
250	0x3cba786d	0.022762502
251	0x3d2c37e9	0.042045508
252	0xbcd5af9c	-0.026084714
253	0x3da0e66c	0.078564495
254	0x3d1a864e	0.03772574
255	0x3d4831e8	0.04887572

ensemble.1.module_list.1.fc.bias f4 [32]
0	0x3d0dea16	0.03464707
1	0xbd97ab5c	-0.07405731
2	0xbd92ce7b	-0.07168289
3	0x3edf1878	0.43573356
4	0x3dc01b51	0.0938021
5	0x3e76c169	0.24097218
6	0x3f03a496	0.51423013
7	0xbf34b390	-0.7058649
8	0x3ef19b2d	0.47188702
9	0x3de8f4ff	0.11374854
10	0xbdc12012	-0.09429945
11	0x3c1a3e30	0.009414241
12	0x3fb92d0a	1.446687
13	0xbec17f47	-0.37792417
14	0xbe57dcea	-0.21080366
15	0xbeab1179	-0.33411768
16	0xbf0fe523	-0.5620901
17	0xbea70de2	-0.3262778
18	0xbbd6514e	-0.006540454
19	0xbe8e7934	-0.27826846
20	0xbea1edc5	-0.31626716
21	0x3ec13c4d	0.37741318
22	0xbd594ead	-0.053053547
23	0x3d82b2b7	0.063817434
24	0xbe1c3095	-0.15252908
25	0xbe23c963	-0.15994792
26	0xbe54c2ba	-0.20777407
27	0xbd2de8bd	-0.042458285
28	0x3dab14a4	0.08353546
29	0x3bf93980	0.0076057315
30	0xbd717988	-0.05895379
31	0xbdc5742a	-0.09641297
