examples/hgcal_autoencoder/sml_avg_emd_hp_grid_search/weak2_lr0.005_warm_restart_freq100_wd1e-05/best_loss.pth (torch, 418681 bytes, 73 tensors)

encoder.module_list.0.fc.weight f4 [64, 64]
0.03945861 0.0776103 -0.065786004 0.053820573 -0.037391312 0.052941404 0.0694806 -0.0051562907
0.11513075 -0.086508304 0.051377513 0.06385037 0.025193457 -2.8968112 0.05488292 -0.07176812
-0.018813673 0.09971075 0.07545908 0.121335104 -0.02018549 0.029286284 -0.042635255 0.0024425075
0.056029625 -0.118901804 0.056617938 0.10379906 -0.0118927155 0.077918604 0.066618174 -0.03974504
0.06235096 0.04006999 0.0243938 -0.07995796 0.07244295 0.09847851 0.12196033 0.07482444
-0.041271053 -0.118743464 0.061628133 0.0150885675 0.061234213 -0.024279315 -0.004619685 -0.04695324
0.044269957 -0.009460786 -0.117660135 0.029296104 0.10534704 -0.115042254 0.015042523 0.041045435
1.6252443 0.065525696 0.09832735 0.012233609 -0.09681316 -0.06634472 -0.077915 0.089027956
-0.10689166 -0.030585203 0.11670636 -0.12265143 -0.08843468 -0.028931145 0.088409945 -0.033840887
-0.01852033 0.04141312 0.04061549 0.08465256 -0.048994444 -0.0099991355 0.09494789 -0.020287711
-0.04298257 -0.089864805 -0.004623321 -0.014293655 0.024036486 0.08654086 0.040681504 0.080338374
-0.062193163 0.073138446 0.11964002 -0.053882115 0.042625405 0.014459306 -0.006814954 0.04057435
0.100251526 0.103450686 -0.057669573 0.12182514 -0.0816707 -0.12239371 -0.0964694 -0.1064177
-0.107865155 -0.050238974 0.093321025 0.046069123 0.009597341 0.055677257 0.11399402 0.07915388
-0.03712488 0.12172538 0.085816905 -0.030887153 -0.06891431 -0.05261121 -0.021087397 -0.008476162
-0.061925374 0.022713292 -0.092762455 0.069246545 0.09626441 0.059907235 -0.08589375 -0.09324394
0.04319767 -0.041034244 0.06371124 0.089027956 -0.059636913 0.10775916 0.07587516 -0.058901884
-0.031559817 -0.047334753 -0.0683236 -0.0684828 -0.08483653 0.046788104 -0.024221424 0.056048892
-0.04040546 -0.11647162 -0.029577095 -0.11148435 0.03563892 0.057922922 -0.09049398 -0.105373055
0.11805642 0.118462786 -0.105539516 0.093457565 -0.051894464 0.026754763 -0.031759955 -0.061594114
-0.014167482 0.07995927 0.05797433 0.08756022 -0.12041022 -0.11403887 0.007421625 -0.08563623
-0.08945763 -0.10097754 0.06961377 -0.0038896115 -0.08804819 -0.022667874 -0.08073133 -0.076775566
0.11407651 0.013705814 0.09089799 0.03852562 0.11995648 -0.11886124 -0.06273486 -0.117717385
-0.0056855353 -0.09216477 -0.122302815 0.025239188 -0.06151841 0.08255194 0.04462751 -0.035487287
-0.09903872 -0.08901955 0.08061518 0.119677976 0.11815119 0.011823276 -0.013571227 -0.006695983
0.09124032 0.0023499266 -0.07559709 0.077357456 0.1002523 0.010500843 0.042752646 -0.02138551
0.009873712 0.06619397 0.061912447 -0.11678976 0.106828734 -0.008757645 -0.0862834 -0.08219658
-0.083465636 -0.0022530244 -0.027334336 0.09348136 -0.08167094 -0.0060924413 -0.030948605 -0.037567265
0.10015191 -0.08904347 0.0797548 -0.08417989 -0.08984029 -0.0316587 0.024965439 -0.03088471
-0.0067587467 0.109861255 -0.10853931 0.062271833 0.004361463 0.08440566 0.117843404 -0.10349727
-0.0003665237 0.05429969 -0.09883152 0.038409613 -0.10894519 0.019985784 0.11130425 0.031721555
0.10011542 -0.019107912 0.10634658 0.02224544 -0.012028554 0.0929416 0.07382415 -0.0435007
00000000: 5a9f 213d 26f2 9e3d d0ba 86bd f672 5c3d
00000010: a227 19bd 16d9 583d d84b 8e3d 1af6 a8bb
00000020: acc9 eb3d 442b b1bd 3a71 523d fcc3 823d
00000030: 8262 ce3c 5b65 39c0 eacc 603d 2afb 92bd
00000040: 221f 9abc 2635 cc3d 4a8a 9a3d 8a7e f83d
00000050: 0a5c a5bc cae9 ef3c 4ea2 2ebd 7a12 203b
00000060: 527f 653d ca82 f3bd 36e8 673d 9a94 d43d
00000070: aad9 42bc ca93 9f3d 1c6f 883d b2cb 22bd
00000080: b863 7f3d 6e20 243d 82d5 c73c 00c1 a3bd
00000090: f85c 943d 1aaf c93d 56c6 f93d 8e3d 993d
000000a0: d60b 29bd c62f f3bd c86d 7c3d 0a36 773c
000000b0: bad0 7a3d 6ae5 c6bc ba60 97bb 0a52 40bd
000000c0: 6a54 353d 6a01 1bbc ccf7 f0bd 62fe ef3c
000000d0: 30c0 d73d 469b ebbd ea74 763c 421f 283d
000000e0: 0108 d03f 5632 863d da5f c93d 7a6f 483c
000000f0: fa45 c6bd bedf 87bd e691 9fbd 4a54 b63d
00000100: 04ea dabd d28d fabc be03 ef3d ac30 fbbd
00000110: 3e1d b5bd 0201 edbc 4610 b53d be9c 0abd
00000120: f2b7 97bc cea0 293d 6e5c 263d 525e ad3d
00000130: 66ae 48bd 6ad3 23bc 0a74 c23d 6a32 a6bc
00000140: 7e0e 30bd 0a0b b8bd 3a7f 97bb ef2f 6abc
00000150: 2ae8 c43c 563c b13d a6a1 263d 7288 a43d
00000160: 42be 7ebd 9cc9 953d d405 f53d 7eb3 5cbd
00000170: fa97 2e3d bae6 6c3c fa4f dfbb 4a31 263d
00000180: ac50 cd3d f4dd d33d ee36 6cbd 767f f93d
00000190: f842 a7bd 8ea9 fabd c091 c5bd 86f1 d9bd
000001a0: 68e8 dcbd 62c7 4dbd 181f bf3d fab2 3c3d
000001b0: 2a3e 1d3c d60d 643d b275 e93d 6e1b a23d
000001c0: 4210 18bd 284b f93d c6c0 af3d 0e07 fdbc
000001d0: f222 8dbd da7e 57bd 7abf acbc 9adf 0abc
000001e0: 76a5 7dbd 3a11 ba3c 3efa bdbd 22d1 8d3d
000001f0: 4626 c53d 4a61 753d 10e9 afbd aef6 bebd
00000200: 0af0 303d 8613 28bd 0a7b 823d 4a54 b63d
00000210: d645 74bd d6b0 dc3d 7064 9b3d 1a43 71bd
00000220: de44 01bd 16e2 41bd 3eed 8bbd b640 8cbd
00000230: c6be adbd e2a4 3f3d 026c c6bc 8693 653d
00000240: 3280 25bd ac88 eebd aa4b f2bc e851 e4bd
00000250: 1efa 113d 9640 6d3d e854 b9bd d4cd d7bd
00000260: 90c7 f13d 9e9c f23d 1a25 d8bd ae66 bf3d
00000270: 4a8f 54bd ce2c db3c ba16 02bd 1c4a 7cbd
00000280: ba1e 68bc b0c1 a33d 7e76 6d3d c652 b33d
00000290: a299 f6bd 368d e9bd 1a31 f33b 0c62 afbd
000002a0: 9035 b7bd 50cd cebd aa91 8e3d dae8 7ebb
000002b0: 9c52 b4bd fab1 b9bc 7856 a5bd 823c 9dbd
000002c0: f2a0 e93d 5a8e 603c ba28 ba3d 0acd 1d3d
000002d0: beab f53d 866d f3bd 227b 80bd d015 f1bd
000002e0: ba4d babb e2c0 bcbd e679 fabd 6ac2 ce3c
000002f0: bafa 7bbd fe10 a93d 56cb 363d 1e5b 11bd
00000300: d0d4 cabd e24f b6bd 9219 a53d ba19 f53d
00000310: 40f9 f13d 6ab6 413c da59 5ebc fa69 dbbb
00000320: 34dc ba3d 3a01 1a3b a6d2 9abd 966d 9e3d
00000330: 1451 cd3d ba0b 2c3c 661d 2f3d aa30 afbc
00000340: 5ac5 213c b490 873d e897 7d3d 782f efbd
00000350: 06c9 da3d 3a7c 0fbc 5ab5 b0bd ae56 a8bd
00000360: 08f0 aabd 7aa7 13bb 42ec dfbc 2873 bf3d
00000370: 1843 a7bd 1aa3 c7bb ee87 fdbc 22e0 19bd
00000380: 721c cd3d 6c5c b6bd 7c56 a33d 8266 acbd
00000390: 30fe b7bd 8eac 01bd 5284 cc3c ee01 fdbc
000003a0: 7a78 ddbb f0fe e03d dc49 debd c010 7f3d
000003b0: 9aea 8e3b e0dc ac3d e257 f13d 60f6 d3bd
000003c0: fa29 c0b9 5a69 5e3d 2e68 cabd 6653 1d3d
000003d0: a81e dfbd 3ab9 a33c 7cf3 e33d 76ee 013d
000003e0: 5009 cd3d 3288 9cbc 3ccc d93d 123c b63c
000003f0: 6a13 45bc 2a58 be3d 1e31 973d ca2d 32bd

encoder.module_list.0.fc.bias f4 [64]
0.0343003 -0.060116943 0.0034751317 0.09227611 -0.27760088 -0.072791174 -0.1104769 -0.60199535
0.092371196 -0.00048508344 -0.11808762 -0.04298329 0.043460205 -0.081353374 -0.058584556 -0.051259056
0.056665048 -0.08058329 -0.116883025 0.049662143 -0.10573145 -0.019887188 0.11558246 -0.059013195
-0.064503804 0.009073683 0.028770689 -0.07627158 -0.12259117 0.10480267 0.039269786 0.02576868
-0.032516066 -0.014343931 -0.025486853 -0.03259511 0.09107661 -0.07892501 0.48891962 0.0012469167
-0.08173164 -0.059461102 -0.040312205 0.08754589 0.019589087 0.015458012 0.08809458 -0.038722955
0.020444723 0.0017423194 -0.18888348 -0.1140596 -0.010248959 -0.014384168 0.15757202 -0.07497177
-0.012171628 0.08643737 -0.06252209 -0.10890484 0.008102958 -0.09466323 -0.07686072 0.008725256
00000000: 797e 0c3d 2f3d 76bd 09bf 633b 42fb bc3d
00000010: b421 8ebe 8a13 95bd b741 e2bd 5e1c 1abf
00000020: 1c2d bd3d cc52 feb9 ecd7 f1bd 3f0f 30bd
00000030: 5403 323d 999c a6bd 5cf6 6fbd 04f5 51bd
00000040: 9c19 683d da08 a5bd 5e60 efbd 886a 4b3d
00000050: bb89 d8bd 75ea a2bc 7fb6 ec3d d2b7 71bd
00000060: 921a 84bd c9a9 143c 82b0 eb3c 4634 9cbd
00000070: 1411 fbbd c8a2 d63d 5bd9 203d d718 d33c
00000080: 912f 05bd cf02 6bbc cec9 d0bc 7382 05bd
00000090: 6086 ba3d 70a3 a1bd ac53 fa3e 956f a33a
000000a0: eb62 a7bd 7c8d 73bd 691e 25bd 424b b33d
000000b0: 4b79 a03c 9a43 7d3c ee6a b43d f69b 1ebd
000000c0: b17b a73c 8a5e e43a ac6a 41be 1498 e9bd
000000d0: 40eb 27bc 93ab 6bbc 8f5a 213e cd8a 99bd
000000e0: 826b 47bc 1306 b13d 950b 80bd 8009 dfbd
000000f0: 45c2 043c ccde c1bd 2769 9dbd 60f4 0e3c

encoder.module_list.0.fc.mask.mask f4 [64, 64]
0.0 0.0 0.0 0.0 0.0 0.0 0.0 0.0
0.0 0.0 0.0 0.0 0.0 1.0 0.0 0.0
0.0 0.0 0.0 0.0 0.0 0.0 0.0 0.0
0.0 0.0 0.0 0.0 0.0 0.0 0.0 0.0
0.0 0.0 0.0 0.0 0.0 0.0 0.0 0.0
0.0 0.0 0.0 0.0 0.0 0.0 0.0 0.0
0.0 0.0 0.0 0.0 0.0 0.0 0.0 0.0
1.0 0.0 0.0 0.0 0.0 0.0 0.0 0.0
0.0 0.0 0.0 0.0 0.0 0.0 0.0 0.0
0.0 0.0 0.0 0.0 0.0 0.0 0.0 0.0
0.0 0.0 0.0 1.0 0.0 0.0 0.0 0.0
0.0 0.0 0.0 0.0 0.0 0.0 0.0 0.0
0.0 0.0 0.0 0.0 1.0 0.0 0.0 0.0
0.0 0.0 0.0 0.0 0.0 0.0 0.0 0.0
0.0 0.0 0.0 0.0 0.0 0.0 0.0 0.0
0.0 0.0 0.0 0.0 0.0 0.0 0.0 0.0
0.0 0.0 0.0 0.0 0.0 0.0 0.0 0.0
0.0 0.0 0.0 0.0 0.0 0.0 0.0 0.0
0.0 0.0 0.0 0.0 0.0 0.0 0.0 0.0
0.0 0.0 0.0 0.0 0.0 1.0 0.0 0.0
0.0 0.0 0.0 0.0 0.0 0.0 0.0 0.0
0.0 0.0 0.0 0.0 0.0 1.0 0.0 0.0
0.0 0.0 0.0 0.0 0.0 0.0 0.0 0.0
0.0 0.0 0.0 0.0 0.0 0.0 0.0 0.0
0.0 0.0 0.0 0.0 0.0 0.0 0.0 0.0
0.0 1.0 0.0 0.0 0.0 0.0 0.0 0.0
0.0 0.0 0.0 0.0 0.0 0.0 0.0 0.0
0.0 0.0 0.0 0.0 0.0 0.0 0.0 0.0
0.0 0.0 0.0 0.0 0.0 0.0 0.0 0.0
0.0 0.0 0.0 0.0 0.0 0.0 0.0 0.0
1.0 0.0 0.0 0.0 0.0 0.0 0.0 0.0
0.0 0.0 0.0 0.0 0.0 0.0 0.0 0.0
00000000: 0000 0000 0000 0000 0000 0000 0000 0000
00000010: 0000 0000 0000 0000 0000 0000 0000 0000
00000020: 0000 0000 0000 0000 0000 0000 0000 0000
00000030: 0000 0000 0000 803f 0000 0000 0000 0000
00000040: 0000 0000 0000 0000 0000 0000 0000 0000
00000050: 0000 0000 0000 0000 0000 0000 0000 0000
00000060: 0000 0000 0000 0000 0000 0000 0000 0000
00000070: 0000 0000 0000 0000 0000 0000 0000 0000
00000080: 0000 0000 0000 0000 0000 0000 0000 0000
00000090: 0000 0000 0000 0000 0000 0000 0000 0000
000000a0: 0000 0000 0000 0000 0000 0000 0000 0000
000000b0: 0000 0000 0000 0000 0000 0000 0000 0000
000000c0: 0000 0000 0000 0000 0000 0000 0000 0000
000000d0: 0000 0000 0000 0000 0000 0000 0000 0000
000000e0: 0000 803f 0000 0000 0000 0000 0000 0000
000000f0: 0000 0000 0000 0000 0000 0000 0000 0000
00000100: 0000 0000 0000 0000 0000 0000 0000 0000
00000110: 0000 0000 0000 0000 0000 0000 0000 0000
00000120: 0000 0000 0000 0000 0000 0000 0000 0000
00000130: 0000 0000 0000 0000 0000 0000 0000 0000
00000140: 0000 0000 0000 0000 0000 0000 0000 803f
00000150: 0000 0000 0000 0000 0000 0000 0000 0000
00000160: 0000 0000 0000 0000 0000 0000 0000 0000
00000170: 0000 0000 0000 0000 0000 0000 0000 0000
00000180: 0000 0000 0000 0000 0000 0000 0000 0000
00000190: 0000 803f 0000 0000 0000 0000 0000 0000
000001a0: 0000 0000 0000 0000 0000 0000 0000 0000
000001b0: 0000 0000 0000 0000 0000 0000 0000 0000
000001c0: 0000 0000 0000 0000 0000 0000 0000 0000
000001d0: 0000 0000 0000 0000 0000 0000 0000 0000
000001e0: 0000 0000 0000 0000 0000 0000 0000 0000
000001f0: 0000 0000 0000 0000 0000 0000 0000 0000
00000200: 0000 0000 0000 0000 0000 0000 0000 0000
00000210: 0000 0000 0000 0000 0000 0000 0000 0000
00000220: 0000 0000 0000 0000 0000 0000 0000 0000
00000230: 0000 0000 0000 0000 0000 0000 0000 0000
00000240: 0000 0000 0000 0000 0000 0000 0000 0000
00000250: 0000 0000 0000 0000 0000 0000 0000 0000
00000260: 0000 0000 0000 0000 0000 0000 0000 0000
00000270: 0000 0000 0000 803f 0000 0000 0000 0000
00000280: 0000 0000 0000 0000 0000 0000 0000 0000
00000290: 0000 0000 0000 0000 0000 0000 0000 0000
000002a0: 0000 0000 0000 0000 0000 0000 0000 0000
000002b0: 0000 0000 0000 803f 0000 0000 0000 0000
000002c0: 0000 0000 0000 0000 0000 0000 0000 0000
000002d0: 0000 0000 0000 0000 0000 0000 0000 0000
000002e0: 0000 0000 0000 0000 0000 0000 0000 0000
000002f0: 0000 0000 0000 0000 0000 0000 0000 0000
00000300: 0000 0000 0000 0000 0000 0000 0000 0000
00000310: 0000 0000 0000 0000 0000 0000 0000 0000
00000320: 0000 0000 0000 803f 0000 0000 0000 0000
00000330: 0000 0000 0000 0000 0000 0000 0000 0000
00000340: 0000 0000 0000 0000 0000 0000 0000 0000
00000350: 0000 0000 0000 0000 0000 0000 0000 0000
00000360: 0000 0000 0000 0000 0000 0000 0000 0000
00000370: 0000 0000 0000 0000 0000 0000 0000 0000
00000380: 0000 0000 0000 0000 0000 0000 0000 0000
00000390: 0000 0000 0000 0000 0000 0000 0000 0000
000003a0: 0000 0000 0000 0000 0000 0000 0000 0000
000003b0: 0000 0000 0000 0000 0000 0000 0000 0000
000003c0: 0000 803f 0000 0000 0000 0000 0000 0000
000003d0: 0000 0000 0000 0000 0000 0000 0000 0000
000003e0: 0000 0000 0000 0000 0000 0000 0000 0000
000003f0: 0000 0000 0000 0000 0000 0000 0000 0000

encoder.module_list.0.output_quant.pre_transforms.0.weight f4 [64]
0.7602729 1.6290983 0.38803065 0.9834591 1.2029424 0.9840727 0.039729264 13.648509
0.9834591 0.9448505 1.8636589 0.88940024 0.9262005 0.9820827 0.9834591 1.0893052
0.9834591 1.0692456 1.5133331 0.9456489 1.7142277 0.74074715 0.9365452 1.512079
0.84710306 0.983559 0.8270364 0.594271 1.270993 0.8984953 1.1083657 0.81864023
1.6712505 1.7384379 0.7297673 1.3515425 1.6748669 0.9834591 1.3683572 0.22584052
1.6051491 2.0912092 0.9572863 0.9834591 0.80430436 0.7827315 1.8079808 1.1434058
1.0172592 0.68558383 1.6379776 0.9748623 0.9834591 1.6899701 0.21534604 1.8298051
0.38815254 0.97154105 2.4516861 1.4912283 0.9641198 1.0370644 2.6658661 0.9834591
00000000: 3fa1 423f 4b86 d03f f4ab c63e fac3 7b3f
00000010: 04fa 993f 30ec 7b3f 27bb 223d 4b60 5a41
00000020: fac3 7b3f b9e1 713f 608c ee3f bcaf 633f
00000030: 7a1b 6d3f c669 7b3f fac3 7b3f 5a6e 8b3f
00000040: fac3 7b3f 0add 883f e6b4 c13f 0c16 723f
00000050: d06b db3f 9ba1 3d3f 6dc1 6f3f ce8b c13f
00000060: bfdb 583f 86ca 7b3f a8b8 533f 2522 183f
00000070: e6af a23f ca03 663f edde 8d3f 6892 513f
00000080: 89eb d53f 2285 de3f 08d2 3a3f 58ff ac3f
00000090: 0a62 d63f fac3 7b3f 5426 af3f bd42 673e
000000a0: 8775 cd3f 5fd6 0540 b710 753f fac3 7b3f
000000b0: e4e6 4d3f 1761 483f ea6b e73f 1f5b 923f
000000c0: 8d35 823f 6c82 2f3f 40a9 d13f 9390 793f
000000d0: fac3 7b3f f150 d83f ac83 5c3e 0e37 ea3f
000000e0: eebb c63e eab6 783f 6de8 1c40 92e0 be3f
000000f0: 8ed0 763f 87be 843f 8d9d 2a40 fac3 7b3f

encoder.module_list.0.output_quant.pre_transforms.0.bias f4 [64]
5.227398 8.020176 8.516734 0.0 7.7816014 0.3658952 -0.747282 0.6865966
0.0 4.106557 0.029512376 0.7495835 -0.057367697 0.39389753 0.0 0.33573848
0.0 0.30711272 7.6825676 -0.041768305 8.121495 3.0337052 4.850469 0.5536367
0.2059554 -0.018736655 4.079353 -0.35176936 0.4529167 7.9073625 5.107038 4.1080728
8.144955 0.24543643 7.951879 0.44174618 -0.31039092 0.0 0.18728895 -0.07588186
0.22588687 0.630866 -0.04177533 0.0 3.3857408 7.522506 8.141644 0.41984934
5.1294956 2.9961476 8.022862 -0.05216446 0.0 0.22959875 -0.11182252 -7.148702
-0.19933426 7.9396305 0.03033188 8.018696 7.476296 0.381374 7.8479066 0.0
00000000: d846 a740 a452 0041 8b44 0841 0000 0000
00000010: e102 f940 9e56 bb3e e04d 3fbf cbc4 2f3f
00000020: 0000 0000 ea68 8340 f0c3 f13c b4e4 3f3f
00000030: 64fa 6abd f0ac c93e 0000 0000 eae5 ab3e
00000040: 0000 0000 e13d 9d3e 98d7 f540 3e15 2bbd
00000050: a5f1 0141 3a28 4240 0b37 9b40 23bb 0d3f
00000060: f9e5 523e 9d7d 99bc 0f8a 8240 1d1b b4be
00000070: b3e4 e73e 1d09 fd40 db6c a340 5575 8340
00000080: bc51 0241 b053 7b3e cb75 fe40 8e2c e23e
00000090: 8feb 9ebe 0000 0000 adc8 3f3e f367 9bbd
000000a0: e34e 673e 6f80 213f 9c1c 2bbd 0000 0000
000000b0: faaf 5840 5fb8 f040 2c44 0241 7ef6 d63e
000000c0: d424 a440 e2c0 3f40 a55d 0041 67aa 55bd
000000d0: 0000 0000 ef1b 6b3e 3503 e5bd 2bc2 e4c0
000000e0: 481e 4cbe 7411 fe40 907a f83c 944c 0041
000000f0: d13d ef40 7443 c33e 0d22 fb40 0000 0000

encoder.module_list.0.output_quant.pre_transforms.0.running_mean f4 [64]
-0.0059018577 -0.060492977 0.0042291884 0.092325985 -0.39012787 0.045968067 -0.10846093 -0.70869756
0.09630514 -0.0029064398 -0.11748734 0.20590205 0.043439157 0.039073516 -0.056552 0.06791527
0.059375837 0.04277558 -0.23409578 0.04965856 -0.10619014 0.048288394 0.12029514 0.06332016
0.12571684 0.009073203 0.019222317 -0.07974664 0.018064119 -0.009149754 -0.030605838 0.027274212
-0.032987602 -0.013965325 -0.14816295 0.082805485 0.09142633 -0.08082233 0.49512228 0.0010266001
-0.08133634 0.094410464 -0.04038365 0.087545834 0.0399916 -0.048212286 0.08739937 0.08253128
-0.058749393 0.066671625 -0.1892717 -0.11408665 -0.012472691 -0.014011622 0.15619616 0.040287063
-0.015799124 -0.026045261 -0.06207919 -0.10932665 -0.11896866 0.06359234 -0.07722626 0.006531828
00000000: 5f64 c1bb 7cc7 77bd 0195 8a3b 6815 bd3d
00000010: d7be c7be 0349 3c3d c420 debd 346d 35bf
00000020: a13b c53d f879 3ebb 349d f0bd fdd7 523e
00000030: 42ed 313d 8d0b 203d 12a3 67bd 2917 8b3d
00000040: 1434 733d 7235 2f3d ceb6 6fbe c666 4b3d
00000050: 377a d9bd 0dca 453d 4c5d f63d 00ae 813d
00000060: eabb 003e c6a7 143c 1f78 9d3c 3552 a3bd
00000070: 34fb 933c dae8 15bc 18b9 fabc 2b6e df3c
00000080: 021e 07bd d2ce 64bc 07b8 17be ec95 a93d
00000090: ba3d bb3d 2e86 a5bd ab80 fd3e fc8e 863a
000000a0: ab93 a6bd 465a c13d 5469 25bd 3b4b b33d
000000b0: 3bce 233d 3f7a 45bd 71fe b23d 2906 a93d
000000c0: 34a3 70bd 228b 883d 71d0 41be 43a6 e9bd
000000d0: 425a 4cbc 0191 65bc e3f1 1f3e 0c04 253d
000000e0: 2a6d 81bc df5c d5bc c046 7ebd a7e6 dfbd
000000f0: d7a5 f3bd b33c 823d cd28 9ebd f208 d63b

encoder.module_list.0.output_quant.pre_transforms.0.running_var f4 [64]
0.11709479 1.992178e-06 7.7018485e-06 5.2116025e-08 0.09661704 0.09941994 5.6242898e-05 0.081939474
0.000111520196 0.10657034 6.256856e-06 1.5321738 6.4223693e-09 0.10070655 6.219969e-05 0.09730221
0.00011089708 0.10325245 0.10679852 1.5095193e-10 3.48651e-06 0.14974874 0.08069916 0.116768636
0.60758424 2.9334788e-12 0.09029121 0.00016587008 0.13834392 0.0917821 0.13573076 0.1149321
3.2431058e-06 1.8219206e-06 0.28057262 0.089457326 1.8126376e-06 4.7081605e-05 0.0005281625 8.15097e-07
2.2148595e-06 0.23066063 7.30582e-08 1.03588e-17 0.09515299 0.118611954 6.781645e-06 0.11444973
0.16848181 0.124653034 1.9731992e-06 8.6803675e-09 6.818587e-05 1.9999495e-06 2.4639954e-05 0.08912244
0.00016858584 0.091933005 2.5713e-06 2.4250967e-06 0.36110565 0.16777153 2.3354357e-06 6.0985236e-05
00000000: 65cf ef3d 5cb1 0536 3037 0137 2dd6 5f33
00000010: 28df c53d ae9c cb3d 5ae6 6b38 e2cf a73d
00000020: f3df e938 8d41 da3d fcf1 d136 451e c43f
00000030: c2ab dc31 3c3f ce3d 3471 8238 6246 c73d
00000040: 6b91 e838 0576 d33d 2fb9 da3d 31f9 252f
00000050: c9f9 6936 bc57 193e 9a45 a53d 6524 ef3d
00000060: a48a 1b3f db6c 4e2c 99ea b83d 69ed 2d39
00000070: 07aa 0d3e 41f8 bb3d 01fd 0a3e 8561 eb3d
00000080: 22a4 5936 b788 f435 37a7 8f3e 6735 b73d
00000090: c149 f335 7d79 4538 6374 0a3a 0acd 5a35
000000a0: ffa2 1436 4d32 6c3e 2ce4 9c33 0d16 3f23
000000b0: 92df c23d d3ea f23d e38d e336 9f64 ea3d
000000c0: 7f86 2c3e 174a ff3d 4e6b 0436 a920 1532
000000d0: 03ff 8e38 df36 0636 e6b1 ce37 d385 b63d
000000e0: 6bc6 3039 5f47 bc3d 998e 2c36 d8be 2236
000000f0: d7e2 b83e 4dcc 2b3e 7bba 1c36 66ca 7f38

encoder.module_list.1.input_quant.pre_transforms.0.weight f4 [64]
0.7602729 1.6290983 0.38803065 0.9834591 1.2029424 0.9840727 0.039729264 13.648509
0.9834591 0.9448505 1.8636589 0.88940024 0.9262005 0.9820827 0.9834591 1.0893052
0.9834591 1.0692456 1.5133331 0.9456489 1.7142277 0.74074715 0.9365452 1.512079
0.84710306 0.983559 0.8270364 0.594271 1.270993 0.8984953 1.1083657 0.81864023
1.6712505 1.7384379 0.7297673 1.3515425 1.6748669 0.9834591 1.3683572 0.22584052
1.6051491 2.0912092 0.9572863 0.9834591 0.80430436 0.7827315 1.8079808 1.1434058
1.0172592 0.68558383 1.6379776 0.9748623 0.9834591 1.6899701 0.21534604 1.8298051
0.38815254 0.97154105 2.4516861 1.4912283 0.9641198 1.0370644 2.6658661 0.9834591
00000000: 3fa1 423f 4b86 d03f f4ab c63e fac3 7b3f
00000010: 04fa 993f 30ec 7b3f 27bb 223d 4b60 5a41
00000020: fac3 7b3f b9e1 713f 608c ee3f bcaf 633f
00000030: 7a1b 6d3f c669 7b3f fac3 7b3f 5a6e 8b3f
00000040: fac3 7b3f 0add 883f e6b4 c13f 0c16 723f
00000050: d06b db3f 9ba1 3d3f 6dc1 6f3f ce8b c13f
00000060: bfdb 583f 86ca 7b3f a8b8 533f 2522 183f
00000070: e6af a23f ca03 663f edde 8d3f 6892 513f
00000080: 89eb d53f 2285 de3f 08d2 3a3f 58ff ac3f
00000090: 0a62 d63f fac3 7b3f 5426 af3f bd42 673e
000000a0: 8775 cd3f 5fd6 0540 b710 753f fac3 7b3f
000000b0: e4e6 4d3f 1761 483f ea6b e73f 1f5b 923f
000000c0: 8d35 823f 6c82 2f3f 40a9 d13f 9390 793f
000000d0: fac3 7b3f f150 d83f ac83 5c3e 0e37 ea3f
000000e0: eebb c63e eab6 783f 6de8 1c40 92e0 be3f
000000f0: 8ed0 763f 87be 843f 8d9d 2a40 fac3 7b3f

encoder.module_list.1.input_quant.pre_transforms.0.bias f4 [64]
5.227398 8.020176 8.516734 0.0 7.7816014 0.3658952 -0.747282 0.6865966
0.0 4.106557 0.029512376 0.7495835 -0.057367697 0.39389753 0.0 0.33573848
0.0 0.30711272 7.6825676 -0.041768305 8.121495 3.0337052 4.850469 0.5536367
0.2059554 -0.018736655 4.079353 -0.35176936 0.4529167 7.9073625 5.107038 4.1080728
8.144955 0.24543643 7.951879 0.44174618 -0.31039092 0.0 0.18728895 -0.07588186
0.22588687 0.630866 -0.04177533 0.0 3.3857408 7.522506 8.141644 0.41984934
5.1294956 2.9961476 8.022862 -0.05216446 0.0 0.22959875 -0.11182252 -7.148702
-0.19933426 7.9396305 0.03033188 8.018696 7.476296 0.381374 7.8479066 0.0
00000000: d846 a740 a452 0041 8b44 0841 0000 0000
00000010: e102 f940 9e56 bb3e e04d 3fbf cbc4 2f3f
00000020: 0000 0000 ea68 8340 f0c3 f13c b4e4 3f3f
00000030: 64fa 6abd f0ac c93e 0000 0000 eae5 ab3e
00000040: 0000 0000 e13d 9d3e 98d7 f540 3e15 2bbd
00000050: a5f1 0141 3a28 4240 0b37 9b40 23bb 0d3f
00000060: f9e5 523e 9d7d 99bc 0f8a 8240 1d1b b4be
00000070: b3e4 e73e 1d09 fd40 db6c a340 5575 8340
00000080: bc51 0241 b053 7b3e cb75 fe40 8e2c e23e
00000090: 8feb 9ebe 0000 0000 adc8 3f3e f367 9bbd
000000a0: e34e 673e 6f80 213f 9c1c 2bbd 0000 0000
000000b0: faaf 5840 5fb8 f040 2c44 0241 7ef6 d63e
000000c0: d424 a440 e2c0 3f40 a55d 0041 67aa 55bd
000000d0: 0000 0000 ef1b 6b3e 3503 e5bd 2bc2 e4c0
000000e0: 481e 4cbe 7411 fe40 907a f83c 944c 0041
000000f0: d13d ef40 7443 c33e 0d22 fb40 0000 0000

encoder.module_list.1.input_quant.pre_transforms.0.running_mean f4 [64]
-0.0059018577 -0.060492977 0.0042291884 0.092325985 -0.39012787 0.045968067 -0.10846093 -0.70869756
0.09630514 -0.0029064398 -0.11748734 0.20590205 0.043439157 0.039073516 -0.056552 0.06791527
0.059375837 0.04277558 -0.23409578 0.04965856 -0.10619014 0.048288394 0.12029514 0.06332016
0.12571684 0.009073203 0.019222317 -0.07974664 0.018064119 -0.009149754 -0.030605838 0.027274212
-0.032987602 -0.013965325 -0.14816295 0.082805485 0.09142633 -0.08082233 0.49512228 0.0010266001
-0.08133634 0.094410464 -0.04038365 0.087545834 0.0399916 -0.048212286 0.08739937 0.08253128
-0.058749393 0.066671625 -0.1892717 -0.11408665 -0.012472691 -0.014011622 0.15619616 0.040287063
-0.015799124 -0.026045261 -0.06207919 -0.10932665 -0.11896866 0.06359234 -0.07722626 0.006531828
00000000: 5f64 c1bb 7cc7 77bd 0195 8a3b 6815 bd3d
00000010: d7be c7be 0349 3c3d c420 debd 346d 35bf
00000020: a13b c53d f879 3ebb 349d f0bd fdd7 523e
00000030: 42ed 313d 8d0b 203d 12a3 67bd 2917 8b3d
00000040: 1434 733d 7235 2f3d ceb6 6fbe c666 4b3d
00000050: 377a d9bd 0dca 453d 4c5d f63d 00ae 813d
00000060: eabb 003e c6a7 143c 1f78 9d3c 3552 a3bd
00000070: 34fb 933c dae8 15bc 18b9 fabc 2b6e df3c
00000080: 021e 07bd d2ce 64bc 07b8 17be ec95 a93d
00000090: ba3d bb3d 2e86 a5bd ab80 fd3e fc8e 863a
000000a0: ab93 a6bd 465a c13d 5469 25bd 3b4b b33d
000000b0: 3bce 233d 3f7a 45bd 71fe b23d 2906 a93d
000000c0: 34a3 70bd 228b 883d 71d0 41be 43a6 e9bd
000000d0: 425a 4cbc 0191 65bc e3f1 1f3e 0c04 253d
000000e0: 2a6d 81bc df5c d5bc c046 7ebd a7e6 dfbd
000000f0: d7a5 f3bd b33c 823d cd28 9ebd f208 d63b

encoder.module_list.1.input_quant.pre_transforms.0.running_var f4 [64]
0.11709479 1.992178e-06 7.7018485e-06 5.2116025e-08 0.09661704 0.09941994 5.6242898e-05 0.081939474
0.000111520196 0.10657034 6.256856e-06 1.5321738 6.4223693e-09 0.10070655 6.219969e-05 0.09730221
0.00011089708 0.10325245 0.10679852 1.5095193e-10 3.48651e-06 0.14974874 0.08069916 0.116768636
0.60758424 2.9334788e-12 0.09029121 0.00016587008 0.13834392 0.0917821 0.13573076 0.1149321
3.2431058e-06 1.8219206e-06 0.28057262 0.089457326 1.8126376e-06 4.7081605e-05 0.0005281625 8.15097e-07
2.2148595e-06 0.23066063 7.30582e-08 1.03588e-17 0.09515299 0.118611954 6.781645e-06 0.11444973
0.16848181 0.124653034 1.9731992e-06 8.6803675e-09 6.818587e-05 1.9999495e-06 2.4639954e-05 0.08912244
0.00016858584 0.091933005 2.5713e-06 2.4250967e-06 0.36110565 0.16777153 2.3354357e-06 6.0985236e-05
00000000: 65cf ef3d 5cb1 0536 3037 0137 2dd6 5f33
00000010: 28df c53d ae9c cb3d 5ae6 6b38 e2cf a73d
00000020: f3df e938 8d41 da3d fcf1 d136 451e c43f
00000030: c2ab dc31 3c3f ce3d 3471 8238 6246 c73d
00000040: 6b91 e838 0576 d33d 2fb9 da3d 31f9 252f
00000050: c9f9 6936 bc57 193e 9a45 a53d 6524 ef3d
00000060: a48a 1b3f db6c 4e2c 99ea b83d 69ed 2d39
00000070: 07aa 0d3e 41f8 bb3d 01fd 0a3e 8561 eb3d
00000080: 22a4 5936 b788 f435 37a7 8f3e 6735 b73d
00000090: c149 f335 7d79 4538 6374 0a3a 0acd 5a35
000000a0: ffa2 1436 4d32 6c3e 2ce4 9c33 0d16 3f23
000000b0: 92df c23d d3ea f23d e38d e336 9f64 ea3d
000000c0: 7f86 2c3e 174a ff3d 4e6b 0436 a920 1532
000000d0: 03ff 8e38 df36 0636 e6b1 ce37 d385 b63d
000000e0: 6bc6 3039 5f47 bc3d 998e 2c36 d8be 2236
000000f0: d7e2 b83e 4dcc 2b3e 7bba 1c36 66ca 7f38

encoder.module_list.1.fc.weight f4 [128, 64]
-0.11141318 0.0027693943 -0.038942598 0.031918533 -0.05143965 -0.056793086 -0.01919629 -0.09364793
-0.031059008 0.11661029 -0.1220485 -0.094112754 0.06257096 -0.11256924 -0.09119257 -0.007013199
0.04457099 -0.058741353 0.009641016 -0.11993523 -0.118350565 -0.03466154 0.11141765 -0.023961578
0.044439815 0.07355736 0.0077319415 -0.085609704 -0.048303626 -0.05559837 0.05854953 -0.02165765
0.08159903 -0.083863065 0.112484485 0.00064279104 0.07037005 -0.04573057 -0.06179796 0.046010755
0.063397184 -0.053085722 0.039849095 0.046451278 -0.07746762 0.010463366 0.10245368 0.030479018
-0.10575023 -0.105762586 -0.025311727 0.073589414 0.06661455 -0.021656755 -0.063964784 -0.051584788
-0.04944714 -2.4566724 -0.04736664 0.061804436 0.025232527 2.2931585 0.09839864 -0.09897354
0.004544941 -0.0041519674 0.024157662 -0.085858256 0.087874785 0.10312544 -0.06959942 -0.084321424
0.11181599 0.055112056 -0.074825644 -0.07182822 0.066796064 0.019803125 -0.005427477 0.038367532
0.023880739 -0.038019978 0.031008165 0.018006805 0.095741525 -0.030617658 0.045747913 0.09859572
-0.06458223 -0.038735636 0.009493316 -0.027322073 0.0775096 0.08047649 -0.08803052 -0.021247152
0.02258261 0.10182889 0.034832917 0.037825488 0.08502847 0.0048339786 0.049505062 -0.0041242363
-0.014327163 -0.015500354 -0.04149785 -0.061910212 -0.027429853 -0.098159775 0.1093353 0.06772542
0.012949908 -0.10655129 0.10462241 -0.10882738 -0.042504556 -0.00711028 0.012623483 0.05701185
0.08679956 -0.015503423 0.07627125 -0.120563045 -0.10299873 -0.11170173 -0.074535504 0.051955678
-0.035338514 -0.008926043 -0.119836956 0.06067779 0.11549361 0.04847797 -0.11620808 -0.05277791
-0.062987655 -0.078055486 0.039813213 0.028302927 0.01339818 0.021536294 -0.061749376 1.768394
0.0427415 -0.0049670907 -0.040293716 -0.05740916 0.0919237 0.026431922 -0.1159516 -0.033606865
0.06976925 -0.012899468 -0.021840159 -0.009365657 -0.06331073 2.088433 -0.121023074 -0.1193786
0.09287335 -0.030862015 -0.042292245 -2.74547 0.09544185 0.056547426 0.10185152 -0.11368872
-0.06014865 0.08626683 0.027003188 0.03841593 -0.042547964 -0.051268123 -0.07613702 0.035562687
-0.0876798 -0.08779572 0.044380747 0.11148892 0.098164305 0.050913505 -0.1204402 0.11570749
-0.11939402 -0.051332302 0.07338926 -0.07210457 0.079632044 -0.11133058 0.0032769279 -0.05712331
0.037648194 0.11572066 0.12185307 -0.059800126 0.0142851565 0.007814014 -0.121592835 0.0059188725
0.014167676 -0.08804488 -0.017422486 -0.011400411 0.04163704 0.0868202 -0.09759025 0.11120404
0.007654411 -0.07102087 0.088578865 -0.09167531 0.01641025 0.0554576 -0.04372727 0.066790745
-0.09918876 -0.042882897 -0.008430878 -0.106783494 -0.05492731 -0.117188334 0.046957746 -0.0311081
0.11567415 -0.031283118 8.3915846e-05 0.04859715 0.055096306 -0.01548277 -0.091452345 0.11625557
0.04678396 0.073698774 -0.11353427 -0.12014654 1.9022181 0.03558802 0.056233816 -0.033737727
-0.10095172 -0.013152743 0.11059891 0.072219536 -0.09396455 -0.08726098 -0.09619121 -0.0062038573
-0.03071602 -2.9484046 -0.06929599 -0.08241768 -0.0630825 -0.10265918 0.08682674 -0.05002985
00000000: 982c e4bd ba7e 353b 4682 1fbd 02bd 023d
00000010: 62b2 52bd de9f 68bd 8a41 9dbc 7cca bfbd
00000020: 766f febc 60d1 ee3d 90f4 f9bd 30be c0bd
00000030: 3425 803d b48a e6bd 2cc3 babd face e5bb
00000040: 1290 363d c69a 70bd 5af5 1d3c 9aa0 f5bd
00000050: c861 f2bd 42f9 0dbd f02e e43d 124b c4bc
00000060: 8606 363d 3ea5 963d 3a5c fd3b 2454 afbd
00000070: 06da 45bd 1ebb 63bd a2d1 6f3d 626b b1bc
00000080: 641d a73d 66c0 abbd 445e e63d fa80 283a
00000090: 2c1e 903d fa4f 3bbd dc1f 7dbd c675 3c3d
000000a0: 62d6 813d 6a70 59bd ce38 233d b243 3e3d
000000b0: 58a7 9ebd 8a6e 2b3c 3cd3 d13d 22af f93c
000000c0: 9493 d8bd 0e9a d8bd 8a5a cfbc 0cb6 963d
000000d0: 366d 883d 8269 b1bc f8ff 82bd 924a 53bd
000000e0: 1689 4abd 1f3a 1dc0 8603 42bd a626 7d3d
000000f0: 72b4 ce3c 1cc3 1240 3a85 c93d a4b2 cabd
00000100: baed 943b 3a0d 88bb 4ae6 c53c 74d6 afbd
00000110: b2f7 b33d 6e33 d33d 248a 8ebd b6b0 acbd
00000120: c8ff e43d 2ebd 613d 303e 99bd ac1a 93bd
00000130: 60cc 883d 2a3a a23c fad8 b1bb 4627 1d3d
00000140: 8aa1 c33c d6ba 1bbd d604 fe3c 0283 933c
00000150: 2214 c43d e2d1 fabc 2a62 3b3d 8eec c93d
00000160: b043 84bd 42a9 1ebd da89 1b3c 8ad2 dfbc
00000170: 5abd 9e3d dcd0 a43d 5849 b4bd 820e aebc
00000180: 2aff b83c aa8b d03d f6ac 0e3d e6ee 1a3d
00000190: 6823 ae3d 5a66 9e3b d2c5 4a3d 9a24 87bb
000001a0: 7abc 6abc 32f5 7dbc a6f9 29bd 9095 7dbd
000001b0: 92b4 e0bc fe07 c9bd 30eb df3d a0b3 8a3d
000001c0: da2b 543c 9037 dabd 4644 d63d e4e0 debd
000001d0: 4219 2ebd 5afd e8bb bad2 4e3c 4285 693d
000001e0: f8c3 b13d 1202 7ebc 1a34 9c3d c2e9 f6bd
000001f0: 00f1 d2bd e0c3 e4bd 12a6 98bd 7acf 543d
00000200: 1ebf 10bd 8a3e 12bc 146d f5bd 4689 783d
00000210: ea87 ec3d d690 463d 80fe edbd a62d 58bd
00000220: acff 80bd 8edb 9fbd 2e13 233d 8adb e73c
00000230: 0a84 5b3c e26c b03c eaec 7cbd bc5a e23f
00000240: b611 2f3d fac2 a2bb 060b 25bd de25 6bbd
00000250: 7e42 bc3d c287 d83c 0878 edbd 5aa7 09bd
00000260: 2ee3 8e3d 4a58 53bc 22ea b2bc 6a72 19bc
00000270: 0ea9 81bd e3a8 0540 f2da f7bd c47c f4bd
00000280: 6234 be3d 56d2 fcbc a23a 2dbd c8b5 2fc0
00000290: 0477 c33d 469e 673d 8897 d03d a2d5 e8bd
000002a0: 6e5e 76bd aaac b03d ca35 dd3c 065a 1d3d
000002b0: c646 2ebd 86fe 51bd baed 9bbd 2eaa 113d
000002c0: 7891 b3bd 3ece b3bd 96c8 353d 4e54 e43d
000002d0: 5e0a c93d ae8a 503d 5aa9 f6bd 0cf8 ec3d
000002e0: da84 f4bd d241 52bd 1c4d 963d 90ab 93bd
000002f0: 2016 a33d 4a01 e4bd bac1 563b 22fa 69bd
00000300: fe34 1a3d f4fe ec3d 1a8e f93d faf0 74bd
00000310: 4a0c 6a3c 5a06 003c aa05 f9bd 1af3 c13b
00000320: 8a1f 683c e050 b4bd 9ab9 8ebc cac8 3abc
00000330: 9a8b 2a3d cace b13d 66dd c7bd f2be e33d
00000340: dad1 fa3b 6473 91bd d668 b53d 44c0 bbbd
00000350: ca6e 863c 8227 633d 5e1b 33bd 96c9 883d
00000360: 7a23 cbbd faa5 2fbd aa21 0abc 4eb1 dabd
00000370: 76fb 60bd 7000 f0bd c456 403d 6ad6 febc
00000380: 92e6 ec3d ba22 00bd fafb af38 ce0d 473d
00000390: aaac 613d 72ab 7dbc 5e4b bbbd 6617 ee3d
000003a0: 8aa0 3f3d 62ef 963d a884 e8bd 640f f6bd
000003b0: e27b f33f bec4 113d 6e55 663d 9230 0abd
000003c0: c6bf cebd 9a7e 57bc ae81 e23d d6e7 933d
000003d0: 7c70 c0bd e2b5 b2bd e6ff c4bd ba49 cbbb
000003e0: 2aa0 fbbc a9b2 3cc0 0eeb 8dbd 9aca a8bd
000003f0: 6631 81bd fa3e d2bd 38d2 b13d 1aec 4cbd

encoder.module_list.1.fc.bias f4 [128]
-0.074168585 0.09812412 0.14112812 0.11745359 0.052038223 -0.11587912 0.049958434 0.031422913
-0.045618743 -0.45704755 0.11299114 0.013064325 0.035249904 0.40601665 0.054411963 -0.09911814
0.61237186 0.1010911 0.11442241 0.025011763 -0.069169 0.20389587 0.023055986 0.111656636
-0.11463821 -0.11967699 -0.024641305 -0.116010725 0.10876454 0.06913626 -0.6277753 0.08728835
0.03668724 0.059044078 0.013641566 -0.040534765 0.08613287 -0.018107742 0.11199141 0.027190775
-0.11725794 -0.054326337 -0.4981084 -0.1176268 0.03462918 0.04900375 0.07034448 -0.23877493
0.018348828 -0.01579231 0.09110476 -0.009616509 -1.4888455 -0.27923158 0.019090295 0.2883573
-0.059628278 0.079092905 0.00022649765 -0.29543296 0.04167387 0.103346616 -0.13181756 -0.027643878
0.07369436 0.067317605 0.026162341 0.06883499 -0.13961302 -0.07744023 -0.048510328 -0.12268799
-0.04802358 0.06514129 0.104357935 0.07600795 -0.046191245 -0.120385036 -0.11913012 -0.05927877
0.32725456 0.29390714 -0.043678988 -0.0035041422 -0.11234853 0.28170568 -0.099993505 0.048902854
0.08781641 0.10794828 -0.08517185 0.038362876 -0.107765004 -0.025201693 -0.040605266 0.08504011
-0.03629756 -0.077286154 0.028165728 -0.014700532 0.100464 -0.038746864 -0.056456596 -0.3007762
0.03311737 0.06642407 -0.07252248 -0.11104053 -0.09343267 -0.09430158 0.0757912 -0.12079227
0.027826488 0.01558046 -0.12299314 0.06660195 0.13969252 -0.11297947 0.026585668 0.0028737634
-0.022784531 0.04468933 -0.0011402965 0.014483377 -0.27266452 -0.09038079 0.3440477 -0.11640717
00000000: b3e5 97bd 4cf5 c83d e483 103e 828b f03d
00000010: 0826 553d 0852 edbd 37a1 4c3d 50b5 003d
00000020: b8da 3abd 2302 eabe e667 e73d c00b 563c
00000030: 3462 103d 6ae1 cf3e 14df 5e3d 74fe cabd
00000040: 67c4 1c3f da08 cf3d 4c56 ea3d 78e5 cc3c
00000050: 7aa8 8dbd 14ca 503e e8df bc3c 3cac e43d
00000060: 70c7 eabd 3619 f5bd 90dc c9bc 0897 edbd
00000070: f1bf de3d 5097 8d3d e2b5 20bf 3cc4 b23d
00000080: 5c45 163d 34d8 713d e080 5f3c c807 26bd
00000090: 6e66 b03d b056 94bc c15b e53d 30bf de3c
000000a0: ee24 f0bd 4b85 5ebd 1008 ffbe 52e6 f0bd
000000b0: 54d7 0d3d 28b8 483d c410 903d 6a81 74be
000000c0: 4850 963c e05e 81bc 2295 ba3d 908e 1dbc
000000d0: 7d92 bebf 71f7 8ebe 4063 9c3c 91a3 933e
000000e0: c83c 74bd 76fb a13d 0080 6d39 fd42 97be
000000f0: 38b2 2a3d 64a7 d33d 2ffb 06be 6a75 e2bc
00000100: 12ed 963d d0dd 893d 6852 d63c 5cf9 8c3d
00000110: b7f6 0ebe fc98 9ebd c4b2 46bd d743 fbbd
00000120: 60b4 44bd cc68 853d 9db9 d53d 0eaa 9b3d
00000130: 0833 3dbd 6e8c f6bd 7efa f3bd 4cce 72bd
00000140: e98d a73e ff7a 963e bde8 32bd c0a5 65bb
00000150: fc16 e6bd ba3b 903e 65c9 ccbd 5c4e 483d
00000160: 17d9 b33d fd13 dd3d 946e aebd 6422 1d3d
00000170: e6b3 dcbd c873 cebc b551 26bd 8229 ae3d
00000180: c0ac 14bd 3448 9ebd d0bb e63c 80da 70bc
00000190: 12c0 cd3d 08b5 1ebd 083f 67bd 57ff 99be
000001a0: 14a6 073d 5809 883d aa86 94bd 3869 e3bd
000001b0: a159 bfbd 3021 c1bd 6b38 9b3d f061 f7bd
000001c0: 60f4 e33c 3045 7f3c d4e3 fbbd 9a66 883d
000001d0: 8e0b 0f3e c861 e7bd 30ca d93c c055 3c3b
000001e0: a0a6 babc 290c 373d 0076 95ba b04b 6d3c
000001f0: af9a 8bbe 9019 b9bd 0527 b03e e266 eebd

encoder.module_list.1.fc.mask.mask f4 [128, 64]
0.0 0.0 0.0 0.0 0.0 0.0 0.0 0.0
0.0 0.0 0.0 0.0 0.0 0.0 0.0 0.0
0.0 0.0 0.0 0.0 0.0 0.0 0.0 0.0
0.0 0.0 0.0 0.0 0.0 0.0 1.0 0.0
0.0 0.0 0.0 0.0 0.0 0.0 0.0 0.0
0.0 0.0 0.0 0.0 0.0 0.0 0.0 0.0
0.0 0.0 0.0 0.0 0.0 0.0 0.0 0.0
0.0 1.0 0.0 0.0 0.0 1.0 0.0 0.0
1.0 0.0 0.0 0.0 0.0 0.0 0.0 0.0
0.0 0.0 0.0 0.0 0.0 0.0 0.0 0.0
0.0 0.0 0.0 0.0 0.0 0.0 0.0 0.0
0.0 1.0 0.0 0.0 0.0 0.0 0.0 0.0
0.0 0.0 0.0 0.0 0.0 0.0 0.0 0.0
0.0 0.0 0.0 0.0 1.0 0.0 0.0 0.0
0.0 0.0 0.0 0.0 0.0 0.0 0.0 0.0
0.0 0.0 0.0 0.0 0.0 0.0 0.0 0.0
0.0 0.0 0.0 0.0 0.0 0.0 0.0 0.0
0.0 0.0 0.0 0.0 0.0 0.0 0.0 1.0
0.0 0.0 0.0 0.0 0.0 0.0 0.0 0.0
0.0 0.0 0.0 0.0 0.0 1.0 0.0 0.0
0.0 0.0 0.0 1.0 0.0 0.0 0.0 0.0
0.0 0.0 0.0 0.0 0.0 0.0 0.0 0.0
0.0 0.0 0.0 0.0 0.0 0.0 0.0 0.0
0.0 0.0 0.0 0.0 0.0 0.0 0.0 0.0
0.0 0.0 0.0 0.0 0.0 0.0 0.0 0.0
0.0 0.0 0.0 0.0 0.0 0.0 0.0 0.0
0.0 0.0 0.0 0.0 0.0 0.0 0.0 0.0
0.0 0.0 0.0 0.0 0.0 0.0 1.0 0.0
0.0 0.0 0.0 0.0 0.0 0.0 0.0 0.0
0.0 0.0 0.0 0.0 1.0 0.0 0.0 0.0
0.0 0.0 0.0 0.0 0.0 0.0 0.0 0.0
0.0 1.0 0.0 0.0 0.0 0.0 0.0 0.0
00000000: 0000 0000 0000 0000 0000 0000 0000 0000
00000010: 0000 0000 0000 0000 0000 0000 0000 0000
00000020: 0000 0000 0000 0000 0000 0000 0000 0000
00000030: 0000 0000 0000 0000 0000 0000 0000 0000
00000040: 0000 0000 0000 0000 0000 0000 0000 0000
00000050: 0000 0000 0000 0000 0000 0000 0000 0000
00000060: 0000 0000 0000 0000 0000 0000 0000 0000
00000070: 0000 0000 0000 0000 0000 803f 0000 0000
00000080: 0000 0000 0000 0000 0000 0000 0000 0000
00000090: 0000 0000 0000 0000 0000 0000 0000 0000
000000a0: 0000 0000 0000 0000 0000 0000 0000 0000
000000b0: 0000 0000 0000 0000 0000 0000 0000 0000
000000c0: 0000 0000 0000 0000 0000 0000 0000 0000
000000d0: 0000 0000 0000 0000 0000 0000 0000 0000
000000e0: 0000 0000 0000 803f 0000 0000 0000 0000
000000f0: 0000 0000 0000 803f 0000 0000 0000 0000
00000100: 0000 803f 0000 0000 0000 0000 0000 0000
00000110: 0000 0000 0000 0000 0000 0000 0000 0000
00000120: 0000 0000 0000 0000 0000 0000 0000 0000
00000130: 0000 0000 0000 0000 0000 0000 0000 0000
00000140: 0000 0000 0000 0000 0000 0000 0000 0000
00000150: 0000 0000 0000 0000 0000 0000 0000 0000
00000160: 0000 0000 0000 803f 0000 0000 0000 0000
00000170: 0000 0000 0000 0000 0000 0000 0000 0000
00000180: 0000 0000 0000 0000 0000 0000 0000 0000
00000190: 0000 0000 0000 0000 0000 0000 0000 0000
000001a0: 0000 0000 0000 0000 0000 0000 0000 0000
000001b0: 0000 803f 0000 0000 0000 0000 0000 0000
000001c0: 0000 0000 0000 0000 0000 0000 0000 0000
000001d0: 0000 0000 0000 0000 0000 0000 0000 0000
000001e0: 0000 0000 0000 0000 0000 0000 0000 0000
000001f0: 0000 0000 0000 0000 0000 0000 0000 0000
00000200: 0000 0000 0000 0000 0000 0000 0000 0000
00000210: 0000 0000 0000 0000 0000 0000 0000 0000
00000220: 0000 0000 0000 0000 0000 0000 0000 0000
00000230: 0000 0000 0000 0000 0000 0000 0000 803f
00000240: 0000 0000 0000 0000 0000 0000 0000 0000
00000250: 0000 0000 0000 0000 0000 0000 0000 0000
00000260: 0000 0000 0000 0000 0000 0000 0000 0000
00000270: 0000 0000 0000 803f 0000 0000 0000 0000
00000280: 0000 0000 0000 0000 0000 0000 0000 803f
00000290: 0000 0000 0000 0000 0000 0000 0000 0000
000002a0: 0000 0000 0000 0000 0000 0000 0000 0000
000002b0: 0000 0000 0000 0000 0000 0000 0000 0000
000002c0: 0000 0000 0000 0000 0000 0000 0000 0000
000002d0: 0000 0000 0000 0000 0000 0000 0000 0000
000002e0: 0000 0000 0000 0000 0000 0000 0000 0000
000002f0: 0000 0000 0000 0000 0000 0000 0000 0000
00000300: 0000 0000 0000 0000 0000 0000 0000 0000
00000310: 0000 0000 0000 0000 0000 0000 0000 0000
00000320: 0000 0000 0000 0000 0000 0000 0000 0000
00000330: 0000 0000 0000 0000 0000 0000 0000 0000
00000340: 0000 0000 0000 0000 0000 0000 0000 0000
00000350: 0000 0000 0000 0000 0000 0000 0000 0000
00000360: 0000 0000 0000 0000 0000 0000 0000 0000
00000370: 0000 0000 0000 0000 0000 803f 0000 0000
00000380: 0000 0000 0000 0000 0000 0000 0000 0000
00000390: 0000 0000 0000 0000 0000 0000 0000 0000
000003a0: 0000 0000 0000 0000 0000 0000 0000 0000
000003b0: 0000 803f 0000 0000 0000 0000 0000 0000
000003c0: 0000 0000 0000 0000 0000 0000 0000 0000
000003d0: 0000 0000 0000 0000 0000 0000 0000 0000
000003e0: 0000 0000 0000 803f 0000 0000 0000 0000
000003f0: 0000 0000 0000 0000 0000 0000 0000 0000

encoder.module_list.1.output_quant.pre_transforms.0.weight f4 [128]
1.5456425 0.9834591 1.0665647 1.186193 0.9834591 0.9834591 1.4083565 0.9834591
0.9834591 1.0097543 0.9834591 0.9366662 0.9834591 0.9495056 0.9834591 0.9834591
1.3253852 0.9834591 0.9834591 0.9834591 0.9834591 1.2124404 0.9834591 0.9834591
0.9834591 0.9834591 0.9834591 0.9834591 1.438629 0.9834591 0.8048818 0.9834591
0.9834591 0.9834591 0.9834591 0.9834591 0.9834591 0.9834591 1.3176036 0.9834591
1.3125196 0.84007823 1.0046461 0.9834591 0.9834591 0.9834591 0.9834591 4.1289635
0.9834591 0.9834591 0.9834591 0.9834591 0.76954067 1.4781356 0.9834591 1.1344438
0.9834591 0.9834591 0.9834591 1.3033451 0.9834591 0.9834591 0.82747525 1.4409404
1.308937 0.9834591 0.9834591 0.9834591 0.9204903 0.9834591 0.9834591 1.1841532
0.9834591 0.9834591 0.6160479 0.9834591 0.9834591 0.9834591 0.9834591 0.9834591
1.7569486 1.1515152 1.2670358 0.9834591 0.9834591 1.4492568 1.3010204 0.9834591
3.1291137 1.4560891 0.9834591 0.9834591 0.9834591 0.9834591 1.2589073 0.9834591
0.9834591 0.9834591 0.9834591 0.9834591 0.9834591 0.9834591 0.9834591 1.0928502
1.3228279 0.9834591 0.9834591 0.9834591 1.0831152 0.9834591 1.4300975 0.9834591
0.9834591 0.9834591 0.9834591 0.8297654 5.7427645 0.9834591 0.9834591 0.9834591
0.9834591 0.84780765 0.9834591 0.9834591 0.72719073 0.9834591 0.751562 1.5448794
00000000: 9dd7 c53f fac3 7b3f 3185 883f 2cd5 973f
00000010: fac3 7b3f fac3 7b3f 0745 b43f fac3 7b3f
00000020: fac3 7b3f a13f 813f fac3 7b3f 5bc9 6f3f
00000030: fac3 7b3f cd12 733f fac3 7b3f fac3 7b3f
00000040: 39a6 a93f fac3 7b3f fac3 7b3f fac3 7b3f
00000050: fac3 7b3f 3f31 9b3f fac3 7b3f fac3 7b3f
00000060: fac3 7b3f fac3 7b3f fac3 7b3f fac3 7b3f
00000070: ff24 b83f fac3 7b3f bc0c 4e3f fac3 7b3f
00000080: fac3 7b3f fac3 7b3f fac3 7b3f fac3 7b3f
00000090: fac3 7b3f fac3 7b3f 3ca7 a83f fac3 7b3f
000000a0: a400 a83f 5e0f 573f 3e98 803f fac3 7b3f
000000b0: fac3 7b3f fac3 7b3f fac3 7b3f 7820 8440
000000c0: fac3 7b3f fac3 7b3f fac3 7b3f fac3 7b3f
000000d0: 9e00 453f 8c33 bd3f fac3 7b3f 7435 913f
000000e0: fac3 7b3f fac3 7b3f fac3 7b3f 03d4 a63f
000000f0: fac3 7b3f fac3 7b3f 6bd5 533f bc70 b83f
00000100: 3f8b a73f fac3 7b3f fac3 7b3f fac3 7b3f
00000110: 41a5 6b3f fac3 7b3f fac3 7b3f 5592 973f
00000120: fac3 7b3f fac3 7b3f 51b5 1d3f fac3 7b3f
00000130: fac3 7b3f fac3 7b3f fac3 7b3f fac3 7b3f
00000140: b1e3 e03f da64 933f 3b2e a23f fac3 7b3f
00000150: fac3 7b3f 3f81 b93f d687 a63f fac3 7b3f
00000160: 6643 4840 2161 ba3f fac3 7b3f fac3 7b3f
00000170: fac3 7b3f fac3 7b3f e023 a13f fac3 7b3f
00000180: fac3 7b3f fac3 7b3f fac3 7b3f fac3 7b3f
00000190: fac3 7b3f fac3 7b3f fac3 7b3f 84e2 8b3f
000001a0: 6d52 a93f fac3 7b3f fac3 7b3f fac3 7b3f
000001b0: 85a3 8a3f fac3 7b3f 6f0d b73f fac3 7b3f
000001c0: fac3 7b3f fac3 7b3f fac3 7b3f 816b 543f
000001d0: bac4 b740 fac3 7b3f fac3 7b3f fac3 7b3f
000001e0: fac3 7b3f ec09 593f fac3 7b3f fac3 7b3f
000001f0: 2c29 3a3f fac3 7b3f 5e66 403f 9cbe c53f

encoder.module_list.1.output_quant.pre_transforms.0.bias f4 [128]
-0.2574683 0.0 5.2470884 -0.12555553 0.0 0.0 9.342707 0.0
0.0 3.6841078 0.0 4.4169097 0.0 8.18193 0.0 0.0
0.35716182 0.0 0.0 0.0 0.0 0.3986011 0.0 0.0
0.0 0.0 0.0 0.0 0.27852082 0.0 -0.3752877 0.0
0.0 0.0 0.0 0.0 0.0 0.0 0.28463197 0.0
8.270423 5.01357 6.9457455 0.0 0.0 0.0 0.0 2.7761846
0.0 0.0 0.0 0.0 5.4001975 7.6967597 0.0 2.7693722
0.0 0.0 0.0 8.139473 0.0 0.0 -0.13887587 -0.28373647
-0.7632019 0.0 0.0 0.0 4.274462 0.0 0.0 4.0162315
0.0 0.0 5.4193206 0.0 0.0 0.0 0.0 0.0
9.666025 5.582382 0.84044987 0.0 0.0 8.052427 4.379352 0.0
-3.6266875 3.03578 0.0 0.0 0.0 0.0 7.330666 0.0
0.0 0.0 0.0 0.0 0.0 0.0 0.0 4.1644254
8.198916 0.0 0.0 0.0 7.7036757 0.0 6.0633855 0.0
0.0 0.0 0.0 6.006142 -2.1544108 0.0 0.0 0.0
0.0 -0.55052716 0.0 0.0 4.405412 0.0 5.1372676 -7.868865
00000000: e3d2 83be 0000 0000 26e8 a740 a191 00be
00000010: 0000 0000 0000 0000 ba7b 1541 0000 0000
00000020: 0000 0000 6cc8 6b40 0000 0000 5357 8d40
00000030: 0000 0000 2fe9 0241 0000 0000 0000 0000
00000040: eadd b63e 0000 0000 0000 0000 0000 0000
00000050: 0000 0000 7215 cc3e 0000 0000 0000 0000
00000060: 0000 0000 0000 0000 0000 0000 0000 0000
00000070: 489a 8e3e 0000 0000 b625 c0be 0000 0000
00000080: 0000 0000 0000 0000 0000 0000 0000 0000
00000090: 0000 0000 0000 0000 48bb 913e 0000 0000
000000a0: a753 0441 2a6f a040 8c43 de40 0000 0000
000000b0: 0000 0000 0000 0000 0000 0000 02ad 3140
000000c0: 0000 0000 0000 0000 0000 0000 0000 0000
000000d0: 6bce ac40 db4b f640 0000 0000 653d 3140
000000e0: 0000 0000 0000 0000 0000 0000 483b 0241
000000f0: 0000 0000 0000 0000 7a35 0ebe e845 91be
00000100: 3361 43bf 0000 0000 0000 0000 0000 0000
00000110: 65c8 8840 0000 0000 0000 0000 f884 8040
00000120: 0000 0000 0000 0000 136b ad40 0000 0000
00000130: 0000 0000 0000 0000 0000 0000 0000 0000
00000140: 0aa8 1a41 e0a2 b240 b927 573f 0000 0000
00000150: 0000 0000 bed6 0041 a723 8c40 0000 0000
00000160: a61b 68c0 384a 4240 0000 0000 0000 0000
00000170: 0000 0000 0000 0000 d194 ea40 0000 0000
00000180: 0000 0000 0000 0000 0000 0000 0000 0000
00000190: 0000 0000 0000 0000 0000 0000 f942 8540
000001a0: c32e 0341 0000 0000 0000 0000 0000 0000
000001b0: 8384 f640 0000 0000 4107 c240 0000 0000
000001c0: 0000 0000 0000 0000 0000 0000 5132 c040
000001d0: dee1 09c0 0000 0000 0000 0000 0000 0000
000001e0: 0000 0000 59ef 0cbf 0000 0000 0000 0000
000001f0: 23f9 8c40 0000 0000 7f64 a440 becd fbc0

encoder.module_list.1.output_quant.pre_transforms.0.running_mean f4 [128]
-18.368595 0.02622761 15.962571 -16.368788 -0.21651664 0.38091812 48.421135 0.051960047
-0.3765583 18.243359 0.03265841 2.6320388 -0.91587716 41.070694 0.04911235 -0.092638284
-51.055317 0.06767821 -0.39619863 -0.3578718 -0.1554356 2.841638 0.8801068 -0.5100587
1.196902 -0.28015962 0.08034101 -0.86134255 1.5089809 0.09371235 -0.45610717 -0.25855955
0.5381713 0.043261025 -0.2958479 -0.23732537 0.08068787 -0.36057702 -16.836992 0.213382
17.525099 117.55455 21.836515 0.068202786 0.69235694 -0.18965703 -0.131084 -27.65432
-0.68737566 -0.31523028 -0.41981965 0.17985496 18.30396 42.789177 0.0856311 -41.117622
-0.059697334 0.36715144 -0.004949505 22.573845 0.94565773 0.18454252 -19.615198 1.3107451
7.582564 -0.055331 0.13115574 0.43925056 19.649044 -0.10832714 -0.2882329 15.836383
-0.36267132 -0.6771604 0.11401832 0.41716233 -0.09689776 -0.18641542 -0.112868115 0.5528449
19.72433 -8.729933 1.8177584 -1.0433441 0.89143854 21.272787 36.917297 0.087845415
27.442991 -11.889649 -0.41740683 0.8085751 -0.1286949 -0.659918 17.445219 0.06510953
-0.46884182 -0.20523052 0.05352423 -0.3357247 0.12206771 -0.0998067 -0.09290621 24.634636
24.608957 -0.12518874 0.03852887 -0.070244014 16.997522 0.084300116 -14.985812 0.6840894
0.5319743 -0.26719502 -1.201889 27.097261 22.209429 -0.10723211 0.012753887 0.29965183
-0.8249719 0.0446893 0.7112931 0.3832343 3.9834402 0.8459175 -12.1477585 -4.7714663
00000000: e2f2 92c1 49db d63c b166 7f41 47f3 82c1
00000010: 8ab6 5dbe b307 c33e 3eaf 4142 0fd4 543d
00000020: 40cc c0be 66f2 9141 d3c4 053d 5373 2840
00000030: ed76 6abf 6448 2442 082a 493d 24b9 bdbd
00000040: a538 4cc2 e09a 8a3d 8cda cabe f93a b7be
00000050: 832a 1fbe 66dd 3540 ae4e 613f 3593 02bf
00000060: 1634 993f 1571 8fbe d489 a43d f280 5cbf
00000070: 4926 c13f 43ec bf3d e186 e9be eb61 84be
00000080: 98c5 093f 7932 313d 6079 97be 6c05 73be
00000090: af3f a53d 8d9d b8be 29b2 86c1 d080 5a3e
000000a0: 6733 8c41 ee1b eb42 2fb1 ae41 e7ad 8b3d
000000b0: 4e3e 313f 7435 42be e23a 06be 0c3c ddc1
000000c0: daf7 2fbf dd65 a1be 9af2 d6be e62b 383e
000000d0: 836e 9241 1e28 2b42 5c5f af3d 7278 24c2
000000e0: 3185 74bd 46fb bb3e 752f a2bb 3c97 b441
000000f0: a016 723f b7f8 3c3e edeb 9cc1 7fc6 a73f
00000100: 5da4 f240 c2a2 62bd b14d 063e 73e5 e03e
00000110: 3e31 9d41 9fda ddbd 4393 93be d361 7d41
00000120: 0eb0 b9be 625a 2dbf 7082 e93d 4d96 d53e
00000130: 5572 c6bd afe3 3ebe 6627 e7bd 3e87 0d3f
00000140: 6ecb 9d41 cead 0bc1 4fac e83f 4d8c 85bf
00000150: 5135 643f ab2e aa41 50ab 1342 4ce8 b33d
00000160: 3f8b db41 013c 3ec1 59b6 d5be c7fe 4e3f
00000170: 99c8 03be 63f0 28bf cf8f 8b41 2558 853d
00000180: 090c f0be f327 52be 393c 5b3d 1ce4 abbe
00000190: a3fe f93d 7567 ccbd 9c45 bebd bc13 c541
000001a0: 25df c441 7a31 00be 73d0 1d3d 18dc 8fbd
000001b0: edfa 8741 8aa5 ac3d e3c5 6fc1 7c20 2f3f
000001c0: 782f 083f c9cd 88be 80d7 99bf 31c7 d841
000001d0: e9ac b141 829c dbbd aef5 503c f76b 993e
000001e0: 5c31 53bf 210c 373d 4e17 363f 4937 c43e
000001f0: aff0 7e40 0d8e 583f 385d 42c1 daaf 98c0

encoder.module_list.1.output_quant.pre_transforms.0.running_var f4 [128]
10.778386 0.0004277057 19.107878 9.924414 0.020371638 0.0040617916 29.234707 0.002826929
0.010682882 8.178431 0.0031260657 10.750261 0.017135516 27.345411 0.0067034317 0.00047543176
10.616339 0.023265691 0.01000654 0.0020421206 0.005139234 24.126806 0.020594424 0.012087166
0.017102506 0.012446698 0.029573327 0.005171294 8.086772 0.004197099 0.000460669 0.015941134
0.009225019 0.0013140864 0.022405097 0.0019039209 0.094787516 0.0023905863 7.160594 0.00576924
10.925693 405.0629 21.676851 0.025737643 0.024997514 0.0028414102 0.0035888196 270.95035
0.0053442223 0.009995901 0.0056238407 0.006117031 4.001197 38.2006 0.003916509 12.35429
1.34006e-06 0.019555546 0.00012324286 13.380408 0.034565657 0.018781984 3.53369 7.8271394
0.88137215 0.0016597782 0.0044590356 0.03198106 17.437576 0.009034347 0.0019658706 9.738528
0.0043471376 0.006606155 3.1941347 0.0002620633 0.0034716644 4.171314e-05 0.008344717 0.014036942
18.551727 11.577134 9.92705 0.013093691 0.039873194 2.6582425 14.698036 0.015356904
7.962292 15.7191515 0.0072094137 0.009831947 0.010666091 0.011554976 13.443449 0.0076426226
0.0028424324 0.0074395407 0.010794566 0.0042545693 0.009421309 0.009990559 0.022844017 12.121606
19.097761 0.0041805073 0.0033371407 0.0125365835 13.402093 0.005865893 12.134511 0.010139893
0.00333528 0.00748866 0.0047885804 13.495811 21.512753 0.019852914 0.016891252 0.10576025
0.005212987 2.5897e-18 0.011440077 0.010789923 15.941785 0.019398583 7.5643606 121.85741
00000000: 4574 2c41 b03d e039 efdc 9841 66ca 1e41
00000010: 6ce2 a63c c718 853b aee0 e941 0044 393b
00000020: 4107 2f3c dada 0241 aede 4c3b 1201 2c41
00000030: c85f 8c3c 67c3 da41 76a8 db3b 5f43 f939
00000040: 86dc 2941 b197 be3c 79f2 233c 19d5 053b
00000050: 0567 a83b b303 c141 a3b5 a83c 4009 463c
00000060: 8e1a 8c3c 3ced 4b3c c343 f23c f573 a93b
00000070: 6b63 0141 d187 893b f285 f139 fb96 823c
00000080: 8924 173c 6c3d ac3a e58a b73c fc8c f93a
00000090: f51f c23d 62ab 1c3b 9623 e540 e50b bd3b
000000a0: a3cf 2e41 0d88 ca43 316a ad41 c0d7 d23c
000000b0: 96c7 cc3c f436 3a3b 6732 6b3b a579 8743
000000c0: 961e af3b d9c5 233c 3248 b83b 6071 c83b
000000d0: ce09 8040 6acd 1842 0f56 803b 2cab 4541
000000e0: 1cdc b335 f432 a03c c13a 0139 2716 5641
000000f0: b894 0d3d addc 993c fa27 6240 ed77 fa40
00000100: 9ba1 613f ea8c d93a 1a1d 923b 92fe 023d
00000110: 2880 8b41 cc04 143c d6d5 003b 03d1 1b41
00000120: 6f72 8e3b 7278 d83b b46c 4c40 8a65 8939
00000130: dd84 633b 25f5 2e38 48b8 083c 34fb 653c
00000140: f069 9441 f13b 3941 32d5 1e41 ec86 563c
00000150: 1352 233d a520 2a40 282b 6b41 869b 7b3c
00000160: 19cb fe40 a581 7b41 f23c ec3b 2d16 213c
00000170: d4c0 2e3c 1551 3d3c 5e18 5741 f76e fa3b
00000180: 1a48 3a3b 64c7 f33b b1db 303c ea69 8b3b
00000190: d65b 1a3c 71af 233c 6023 bb3c 19f2 4141
000001a0: 37c8 9841 a3fc 883b eeb3 5a3b 3e66 4d3c
000001b0: f96e 5641 ad36 c03b f526 4241 cb21 263c
000001c0: b794 5a3b 6f63 f53b 86e9 9c3b d8ee 5741
000001d0: 1e1a ac41 94a2 a23c 865f 8a3c d498 d83d
000001e0: b4d1 aa3b 0d16 3f22 296f 3b3c 38c8 303c
000001f0: 8d11 7f41 c7e9 9e3c 3e0f f240 feb6 f342
