examples/jet_substructure/jsc_single_models/jsc-m/best_accuracy.pth (torch, 169627 bytes, 99 tensors)

module_list.0.input_quant.pre_transforms.0.weight f4 [16]
00000000: 4fa6 c83e acbc ff3e 162a 373f 9a47 3b40
00000010: 23a5 373f 9aa5 b13e 9e1a cc3e a304 0b3f
00000020: e690 b03e b240 bf3e ddb0 ae3e 5494 023f
00000030: 4964 dc3e de37 ea3e 9274 0d40 fbed b43e
0.39189383 0.49948633 0.71548593 2.9262452 0.71736354 0.34696656 0.39864057 0.5430395
0.3448555 0.37354046 0.3411931 0.5100758 0.43045262 0.45745748 2.21024 0.35337815

module_list.0.input_quant.pre_transforms.0.bias f4 [16]
00000000: 0a64 e8bd 6dd9 563e c9cb e83d 57a6 463e
00000010: 6e81 a23e 2730 66be 4b3e 1a3e 8d5c 983e
00000020: 3fa1 50be 0427 903e 0284 c73d c094 803e
00000030: 243b 533e 01d1 083e c4ef 89be 1288 babd
-0.11347206 0.20981379 0.11366994 0.19399391 0.31739372 -0.22479306 0.15062825 0.2975811
-0.2037401 0.28154767 0.09741975 0.25113487 0.20628029 0.13360979 -0.2694074 -0.091079846

module_list.0.input_quant.pre_transforms.0.running_mean f4 [16]
00000000: ae7c 0fbb 49b0 fd3a 03b2 17bb 8cc3 68bb
00000010: 9cff aeba 7cf7 1cbb 6f53 2a3b 2228 ee3a
00000020: 6f53 2a3b 35d7 81ba b7ac c7ba 74d8 4dbb
00000030: 8436 553a c04a 8e39 9ffa 18bb 8f37 313b
-0.0021894383 0.0019354905 -0.0023146875 -0.0035516946 -0.0013351324 -0.0023951223 0.0025989672 0.001816992
0.0025989672 -0.0009906056 -0.0015233968 -0.0031409534 0.00081334286 0.00027140044 -0.0023342741 0.0027041172

module_list.0.input_quant.pre_transforms.0.running_var f4 [16]
00000000: f524 813f d0e4 7d3f f123 7f3f 83bf 7c3f
00000010: 79c2 7f3f cd5e 7f3f c58e 803f 20b2 803f
00000020: c58e 803f 4b0d 803f 0798 7e3f 8531 7f3f
00000030: 728a 803f a1de 803f aaa6 7e3f 9ca0 803f
1.0089403 0.99177265 0.9966422 0.98729724 0.99906117 0.9975403 1.004357 1.005436
1.004357 1.0004057 0.99450725 0.99684936 1.004225 1.0067941 0.9947306 1.0049014

module_list.0.fc.weight f4 [64, 16]
00000000: 6943 8e3d fa7b 1fbe d891 4a3d 9a09 143e
00000010: 9fdb afbc b13a 52bf 43fe 12bc 1fa7 d0bd
00000020: 4ffa 5d3d 9cf9 9a3e 59cd 9a3e 577b ab3d
00000030: dd46 403c 3013 273d afe2 1abe 1dd6 1d3e
00000040: 90a2 0f3e 98f4 17bd d7b5 323e 1ab9 8b3f
00000050: 9597 30be 1697 1a3e f0ac 1bbe 8922 9fbd
00000060: 5475 d03d b0fc b2bd e460 123e 4c5f 25be
00000070: 76aa c3bd 7bba 0c3e 7718 8cbe 2e46 0cbe
00000080: 8d67 17be 2b4e 233e edb4 72be 1e6d d43d
00000090: 0cea 08bf ea09 f0bc 8bb1 763d 9774 2fbc
000000a0: a4d3 28be 1870 adbd d778 b1bd 90f6 f83e
000000b0: 1485 2dbe 2b9d a73d 6909 43bc 1f02 f7bb
000000c0: 1f6a 253d e23c da3d 800a d0bd 3dd9 29be
000000d0: af7b 7a3d 19e2 d43d 1810 c93d 2f04 67be
000000e0: 4e01 ae3e 70e2 d0bc 6983 3a3e 5326 a8bd
000000f0: 3a95 203d 6c8d 39bd c9cb 4a3d 794b cabf
00000100: 0d90 0abd 9d7d f53d 4392 98bd 3662 82bc
00000110: bd06 e3bd f339 38be aea7 17bb a965 173e
00000120: 1677 20be 69bf 03be 1606 d43d 517a 743d
00000130: 1c59 bbbb 0fb8 213c 3d46 d0bf 6d94 0ebe
00000140: f9b5 c4bd fdd9 c4bd cd36 16bd 3d7d f439
00000150: 11b4 0abe 0618 0b3f e8b8 023d 0a2d 123e
00000160: 39c5 d6bd 7513 1b3d 6dfc 123e f84d 0b3e
00000170: 964b 8abd cb75 64be 89d2 5cc0 c276 6cbc
00000180: eef4 8f3f 7915 13be 9194 1ebb 8629 443e
00000190: 2199 4b3e 5468 34be eaf3 223e d363 0a3e
000001a0: 2d4a 1f3e 7784 50bd ad69 853d 0981 95be
000001b0: f7d7 8a3e 02f6 ec3c b99d c13d 9c1f 0d3e
000001c0: b868 2c3e c60c ccbd 84fe bebc e1bc 2e3d
000001d0: c996 9f3e 1ce5 8cbd 8329 ed3d 7122 5cbd
000001e0: 2719 10be 9853 d4bc ff60 d03d 7ccd fc3d
000001f0: 5fe4 3abd 947b 013e 0205 a1bf 89a0 24be
00000200: 1cf0 0e3d 7b48 673d f227 1d3d 5a96 bfbc
00000210: 3710 e33d b1e2 3bbe 9269 5e3d 07e3 043d
00000220: baec 043e e0ab 1fbe 01e3 68bd 2fc6 e2be
00000230: 26d2 ae3d 7985 7e3d 3357 3d3d ea14 2b3f
00000240: 06fc 363e b133 19be 066c a8bd d018 843d
00000250: b4c1 1c3d c0e8 51bc fb02 103e 5673 e73d
00000260: a82c 253e 942f 3e3d c5e8 b33d 9eb4 febd
00000270: 2726 ea3d 048a 8d3d 669c b83d 7424 f63c
00000280: fd72 c3bd fb43 9f3d 26a6 1c3e 886d 3e3c
00000290: a604 ccbc 458d 42be 17b6 b33e f5a8 d33c
000002a0: 07f6 e4be c96d 21be 8595 51bd 9006 20bf
000002b0: 479b 1bbe aa58 54bd 7db0 0ebe 2420 afbd
000002c0: e5e3 3f3e facb 01be 25d4 0b3e b9a5 603d
000002d0: a71e f43e 3f0a 3cbd c624 483f 6949 09bd
000002e0: d7c9 4e3d 2226 89bc 75e3 013e 0f1f 0cbe
000002f0: 5fb8 3ebe 6309 6dbe 1e9c d93b dbd6 163e
00000300: 122c 223d 5f54 83bd b5bd ebbc 0884 1b3f
00000310: 9a24 a2bd 220e 3ebc f0f1 1e3e 6cc4 373e
00000320: 0fa5 2b3d 5177 033c ab61 0bbe 3fcc 523d
00000330: 9a53 7dbd 2d5e 41be 97b3 b3bd ddb1 3e3f
00000340: 1a42 043f 9eca ddbd c062 9b3e b061 fcbd
00000350: dc2c a83d f643 45bf 3186 353e d80c cc3d
00000360: 94b5 fb3d 2e00 39be 3c72 de3d a6c1 e33c
00000370: 3cb5 363e 7cef 82bc 90f9 0d3e ff7b acbd
00000380: dd2d e63c c73e 153e e3e1 1f3e bd48 8b3f
00000390: 5809 dcbd 894c a1bd ad3d ef3b 451b ab3e
000003a0: 9206 1d3e 856e 033e 9f5c 793d 6dfb 87bc
000003b0: f681 7fbe 55ad de3c 2bcc 32bd 77a2 cc3d
000003c0: 3c23 adbd 5d3c fdbd f7a5 163e dd67 44bd
000003d0: 1a50 983c ddb2 023d 1bb3 41bd 6fc9 593e
000003e0: dc78 3ebe c65b 243e 19ff 693c 24a7 e0be
000003f0: 36bd 27be d236 aebd 3cb6 753d 7cef 373f
0.06946451 -0.15574637 0.049455494 0.14456788 -0.021467028 -0.82120806 -0.0089717535 -0.10188126
0.05419379 0.30268562 0.30234793 0.083731346 0.011735645 0.040789783 -0.15125535 0.15413709
0.14026856 -0.037098497 0.17452179 1.0915864 -0.17245324 0.15096697 -0.15202689 -0.07770259
0.101786286 -0.087396026 0.14294773 -0.16149634 -0.09553997 0.13743012 -0.27362415 -0.13698646
-0.14785595 0.15947787 -0.2370183 0.10372375 -0.5348213 -0.029301602 0.060227912 -0.0107089495
-0.16486984 -0.08468646 -0.086656265 0.48625612 -0.16945297 0.08184274 -0.011904099 -0.0075380947
0.040384408 0.10656144 -0.10158253 -0.16586776 0.06115311 0.10394687 0.09817523 -0.2256019
0.3398537 -0.025498599 0.18214191 -0.08210435 0.039204814 -0.045300886 0.04951075 -1.5804282
-0.033828784 0.119868495 -0.07449772 -0.015915971 -0.110852696 -0.17990856 -0.0023140716 0.14784874
-0.15670428 -0.12865986 0.10352723 0.059686963 -0.00571741 0.009870543 -1.6271435 -0.13923807
-0.09605021 -0.096118905 -0.036673356 0.00046632616 -0.13545252 0.5433353 0.03191462 0.14274994
-0.10486836 0.037860353 0.14354105 0.13603961 -0.06752698 -0.2231056 -3.45035 -0.014432611
1.1246622 -0.1436366 -0.002419744 0.19156465 0.19882633 -0.17617923 0.15913358 0.13514642
0.1555564 -0.05090758 0.06514297 -0.2920001 0.27117893 0.0289259 0.09453911 0.1378159
0.16836822 -0.09963374 -0.023314722 0.042660598 0.31169727 -0.06879637 0.11580183 -0.053743783
-0.14072095 -0.025918767 0.101747505 0.123438805 -0.045627948 0.12644798 -1.2579653 -0.16076864
0.034896955 0.056465607 0.038368173 -0.023387123 0.11087077 -0.18348195 0.0542999 0.032443073
0.12980929 -0.15592909 -0.056857113 -0.44291827 0.085361764 0.06213901 0.046225738 0.6682879
0.17869577 -0.14961125 -0.08223729 0.06450045 0.038270667 -0.01281184 0.14063637 0.113012955
0.16130316 0.046432093 0.08784632 -0.12436794 0.11433058 0.0691109 0.09014206 0.03004668
-0.09543417 0.07776638 0.15297756 0.011622794 -0.02490456 -0.18999203 0.3509986 0.0258374
-0.44718954 -0.15764536 -0.051167984 -0.62510014 -0.15195952 -0.05184237 -0.13934512 -0.08551052
0.18739279 -0.12675467 0.13655145 0.054845545 0.47679636 -0.04590821 0.7818111 -0.033517275
0.05048546 -0.016741816 0.12684424 -0.13683723 -0.1862502 -0.23148112 0.006640925 0.14730398
0.03959281 -0.06412577 -0.028776983 0.6074834 -0.079171374 -0.011600049 0.1552198 0.17946023
0.04190546 0.008024053 -0.13611476 0.051464316 -0.061847307 -0.18883581 -0.087744884 0.7449015
0.5166336 -0.10829662 0.30348778 -0.1232332 0.08211681 -0.77056825 0.17726971 0.09963387
0.12290493 -0.18066475 0.10861632 0.0278023 0.17842573 -0.015983336 0.13864732 -0.08422088
0.028098041 0.14574729 0.15613513 1.0881573 -0.1074397 -0.07875926 0.0073010535 0.33419243
0.15334538 0.12835129 0.060879346 -0.016599381 -0.2495192 0.02718226 -0.04365174 0.09991925
-0.08453986 -0.12365029 0.14711748 -0.047950614 0.018592883 0.03190886 -0.04728995 0.21268247
-0.18600792 0.16050634 0.014282011 -0.43877518 -0.16380772 -0.0850655 0.059988245 0.718498

module_list.0.fc.bias f4 [64]
00000000: dbd9 123e 5ecc 8b3e 1d03 2c3c 9f1e 0ebd
00000010: df44 a43d e26a c8be 9151 82bd 8bb6 083c
00000020: 6dee 2d3e b816 bc3d 133d 843e d077 8dbe
00000030: 6938 c3be b6c2 c93a 98ad ad3e 06e3 d93d
00000040: 3624 ec3e e27c 44be 3c30 8a3e b948 95bc
00000050: c7b2 a9bd 5722 8e3e 5f2d 8c3e f55c 873e
00000060: 4df9 5e3e 545f b63d 0517 e4ba e444 933c
00000070: 0c36 5abe 581c 923d b060 8fbe 3866 e1bd
00000080: d593 e4bc f8bd 483e e4a4 2bbe bbeb e1bd
00000090: 5d0b fbbd 6faa b1bc b286 383e 5040 81bd
000000a0: 26bb 3f3e 59c6 433e 5f23 95be 7f8d 8dbe
000000b0: b80f 8d3e 2218 f1bb 50b9 dfbd 79a8 c03d
000000c0: 0753 983e 1447 f13d 482f 66be cff1 23be
000000d0: 9e09 36be af58 d1bd b9a2 e9bd c721 613e
000000e0: a4b2 b1bd a516 253e 63da 29bd 60c6 593e
000000f0: 0112 a1bc 884c a73e cee1 5a3d 5f8f 1fbd
0.14340918 0.27304357 0.010498789 -0.03469717 0.080209486 -0.39144045 -0.06363214 0.008344303
0.16985483 0.09184021 0.25827846 -0.27630472 -0.38128975 0.0015393111 0.33921504 0.106390044
0.46121377 -0.19188264 0.26989925 -0.018223153 -0.08286052 0.27760574 0.27378365 0.26438108
0.21774788 0.08904901 -0.001740188 0.017977186 -0.2130968 0.071343124 -0.28003454 -0.11005825
-0.027902523 0.19603717 -0.1676212 -0.1103129 -0.12258027 -0.021687714 0.18020132 -0.06311095
0.18723735 0.19118632 -0.29128549 -0.27647015 0.27551055 -0.007357613 -0.109240174 0.094071336
0.29750845 0.11781135 -0.22478974 -0.16010211 -0.17777106 -0.10221993 -0.1140799 0.21985541
-0.08676651 0.1612192 -0.041468035 0.2126708 -0.019661905 0.32675576 0.053438 -0.03895509

module_list.0.fc.mask.mask f4 [64, 16]
00000000: 0000 0000 0000 0000 0000 0000 0000 0000
00000010: 0000 0000 0000 803f 0000 803f 0000 0000
00000020: 0000 0000 0000 803f 0000 803f 0000 0000
00000030: 0000 0000 0000 0000 0000 0000 0000 0000
00000040: 0000 0000 0000 803f 0000 0000 0000 803f
00000050: 0000 0000 0000 803f 0000 0000 0000 0000
00000060: 0000 0000 0000 0000 0000 0000 0000 0000
00000070: 0000 0000 0000 0000 0000 803f 0000 0000
00000080: 0000 803f 0000 0000 0000 803f 0000 0000
00000090: 0000 803f 0000 0000 0000 0000 0000 0000
000000a0: 0000 0000 0000 0000 0000 0000 0000 803f
000000b0: 0000 0000 0000 0000 0000 0000 0000 0000
000000c0: 0000 0000 0000 0000 0000 803f 0000 0000
000000d0: 0000 0000 0000 0000 0000 0000 0000 803f
000000e0: 0000 803f 0000 0000 0000 0000 0000 0000
000000f0: 0000 0000 0000 0000 0000 0000 0000 803f
00000100: 0000 0000 0000 0000 0000 0000 0000 0000
00000110: 0000 0000 0000 0000 0000 0000 0000 0000
00000120: 0000 803f 0000 803f 0000 0000 0000 0000
00000130: 0000 803f 0000 0000 0000 803f 0000 0000
00000140: 0000 0000 0000 0000 0000 0000 0000 0000
00000150: 0000 0000 0000 803f 0000 0000 0000 0000
00000160: 0000 0000 0000 803f 0000 0000 0000 0000
00000170: 0000 0000 0000 803f 0000 803f 0000 0000
00000180: 0000 803f 0000 0000 0000 0000 0000 0000
00000190: 0000 803f 0000 0000 0000 0000 0000 0000
000001a0: 0000 0000 0000 0000 0000 0000 0000 803f
000001b0: 0000 803f 0000 0000 0000 0000 0000 0000
000001c0: 0000 0000 0000 0000 0000 803f 0000 0000
000001d0: 0000 803f 0000 0000 0000 0000 0000 803f
000001e0: 0000 0000 0000 0000 0000 0000 0000 0000
000001f0: 0000 0000 0000 0000 0000 803f 0000 0000
00000200: 0000 0000 0000 0000 0000 0000 0000 0000
00000210: 0000 803f 0000 0000 0000 0000 0000 0000
00000220: 0000 803f 0000 0000 0000 0000 0000 803f
00000230: 0000 0000 0000 0000 0000 0000 0000 803f
00000240: 0000 0000 0000 803f 0000 0000 0000 0000
00000250: 0000 0000 0000 803f 0000 0000 0000 0000
00000260: 0000 803f 0000 0000 0000 0000 0000 0000
00000270: 0000 803f 0000 0000 0000 0000 0000 0000
00000280: 0000 0000 0000 0000 0000 0000 0000 0000
00000290: 0000 0000 0000 0000 0000 803f 0000 0000
000002a0: 0000 803f 0000 0000 0000 803f 0000 803f
000002b0: 0000 0000 0000 0000 0000 0000 0000 0000
000002c0: 0000 0000 0000 0000 0000 0000 0000 0000
000002d0: 0000 803f 0000 0000 0000 803f 0000 0000
000002e0: 0000 0000 0000 0000 0000 803f 0000 0000
000002f0: 0000 0000 0000 803f 0000 0000 0000 0000
00000300: 0000 0000 0000 0000 0000 0000 0000 803f
00000310: 0000 803f 0000 0000 0000 0000 0000 0000
00000320: 0000 0000 0000 0000 0000 0000 0000 803f
00000330: 0000 0000 0000 0000 0000 0000 0000 803f
00000340: 0000 803f 0000 0000 0000 803f 0000 0000
00000350: 0000 0000 0000 803f 0000 0000 0000 0000
00000360: 0000 0000 0000 0000 0000 0000 0000 803f
00000370: 0000 0000 0000 0000 0000 0000 0000 0000
00000380: 0000 0000 0000 0000 0000 0000 0000 803f
00000390: 0000 0000 0000 0000 0000 0000 0000 803f
000003a0: 0000 0000 0000 0000 0000 0000 0000 0000
000003b0: 0000 803f 0000 803f 0000 0000 0000 0000
000003c0: 0000 0000 0000 0000 0000 0000 0000 0000
000003d0: 0000 0000 0000 0000 0000 0000 0000 803f
000003e0: 0000 0000 0000 0000 0000 0000 0000 803f
000003f0: 0000 0000 0000 803f 0000 0000 0000 803f
0.0 0.0 0.0 0.0 0.0 1.0 1.0 0.0
0.0 1.0 1.0 0.0 0.0 0.0 0.0 0.0
0.0 1.0 0.0 1.0 0.0 1.0 0.0 0.0
0.0 0.0 0.0 0.0 0.0 0.0 1.0 0.0
1.0 0.0 1.0 0.0 1.0 0.0 0.0 0.0
0.0 0.0 0.0 1.0 0.0 0.0 0.0 0.0
0.0 0.0 1.0 0.0 0.0 0.0 0.0 1.0
1.0 0.0 0.0 0.0 0.0 0.0 0.0 1.0
0.0 0.0 0.0 0.0 0.0 0.0 0.0 0.0
1.0 1.0 0.0 0.0 1.0 0.0 1.0 0.0
0.0 0.0 0.0 0.0 0.0 1.0 0.0 0.0
0.0 1.0 0.0 0.0 0.0 1.0 1.0 0.0
1.0 0.0 0.0 0.0 1.0 0.0 0.0 0.0
0.0 0.0 0.0 1.0 1.0 0.0 0.0 0.0
0.0 0.0 1.0 0.0 1.0 0.0 0.0 1.0
0.0 0.0 0.0 0.0 0.0 0.0 1.0 0.0
0.0 0.0 0.0 0.0 1.0 0.0 0.0 0.0
1.0 0.0 0.0 1.0 0.0 0.0 0.0 1.0
0.0 1.0 0.0 0.0 0.0 1.0 0.0 0.0
1.0 0.0 0.0 0.0 1.0 0.0 0.0 0.0
0.0 0.0 0.0 0.0 0.0 0.0 1.0 0.0
1.0 0.0 1.0 1.0 0.0 0.0 0.0 0.0
0.0 0.0 0.0 0.0 1.0 0.0 1.0 0.0
0.0 0.0 1.0 0.0 0.0 1.0 0.0 0.0
0.0 0.0 0.0 1.0 1.0 0.0 0.0 0.0
0.0 0.0 0.0 1.0 0.0 0.0 0.0 1.0
1.0 0.0 1.0 0.0 0.0 1.0 0.0 0.0
0.0 0.0 0.0 1.0 0.0 0.0 0.0 0.0
0.0 0.0 0.0 1.0 0.0 0.0 0.0 1.0
0.0 0.0 0.0 0.0 1.0 1.0 0.0 0.0
0.0 0.0 0.0 0.0 0.0 0.0 0.0 1.0
0.0 0.0 0.0 1.0 0.0 1.0 0.0 1.0

module_list.0.output_quant.pre_transforms.0.weight f4 [64]
00000000: b3c1 903e d657 5e3f 2e83 ac3e 6df2 d13e
00000010: 5f86 f43e c696 5f3f fdf7 b93e f95a b13e
00000020: 9e1b d93e f448 443f 8134 323f 0f0e ee3e
00000030: 44cd 9c3f 56bf b03e 605f cd3e 6405 b53e
00000040: 48f8 a63e 9323 9a3f 9e55 d33e 0f81 b23f
00000050: 9e05 1440 6469 883f e4dd b63f 84ae d33f
00000060: 3d9a 6e3f f448 443f 0e30 763f 4350 413f
00000070: 7de8 d53f f448 443f 261b 273f 45ef ea3e
00000080: 174f 873e f448 443f 99c1 d43e 1949 be3e
00000090: ccb1 9a3e 1ad9 303f f275 523f b227 343f
000000a0: f448 443f 3db1 763e 28a6 353f 00f6 fc3e
000000b0: 8099 4e3f 2f98 823e e94a 4c3f 4270 013f
000000c0: 4b20 4d3f 22ba 8c3f 7229 dc3e ec56 7e3e
000000d0: f448 443f 5044 4e3f da9e b83e 1e59 3740
000000e0: f448 443f dd21 063f 8884 1d3f f448 443f
000000f0: d371 113f c879 463f 896d 1d3f 7119 e03e
0.2827278 0.86852777 0.33693832 0.4100527 0.47758767 0.87339437 0.36322013 0.3463972
0.42403883 0.7667382 0.69611365 0.464951 1.2250142 0.34520978 0.40111828 0.35355675
0.326113 1.2042106 0.41276258 1.3945636 2.3128428 1.0657163 1.4286466 1.6537633
0.932041 0.7667382 0.96167076 0.75513095 1.6711575 0.7667382 0.652758 0.45885673
0.26427528 0.7667382 0.41553953 0.37165144 0.30213773 0.6908127 0.8221122 0.7037307
0.7667382 0.24091049 0.7095666 0.49406433 0.8070297 0.25506732 0.79801804 0.50561917
0.801274 1.0994303 0.4300037 0.24837846 0.7667382 0.80572987 0.36058694 2.8648143
0.7667382 0.5239542 0.6153035 0.7667382 0.56814307 0.77529573 0.6149526 0.4376941

module_list.0.output_quant.pre_transforms.0.bias f4 [64]
00000000: a64b 2d3f 1d8c 083f 5dd2 fb3d 7311 933e
00000010: 51ba a93e 969d 5fbe 504d 013f 0f51 763e
00000020: 9fce b5be 0000 0000 33a1 95be 67a3 4abe
00000030: fd28 183f 791f 123f ebda 723e a381 5e3e
00000040: 4b9d 813e 4959 1dbe 7e52 44be cb60 c03e
00000050: 504f 90bf 505e 83be e0f9 65bf 7e64 663e
00000060: 10a7 723d 0000 0000 f27c d4be 7554 2cbf
00000070: 6303 d2bf 0000 0000 3c3d bcbe cf47 613f
00000080: 27e2 883e 0000 0000 8c09 903d 26d2 e73e
00000090: 10db b53e 7732 95be e2a4 aabf 3355 6dbf
000000a0: 0000 0000 8e70 ac3e 454a a63e 845b 2abe
000000b0: fc8c 033e 4c6d dc3e 8648 a3be 8509 abbe
000000c0: 825d b539 b9ae 86bf 0d62 823e b92c 883e
000000d0: 0000 0000 d788 983c d7d2 613e a317 99bf
000000e0: 0000 0000 49ad fe3d 83c1 4b3d 0000 0000
000000f0: 27ff 263f c02c 183e 252f 54bf 0234 453f
0.67693555 0.53338796 0.12295983 0.2872425 0.3314996 -0.21837458 0.50508595 0.24054359
-0.35509202 0.0 -0.29224548 -0.19788896 0.59437543 0.57079273 0.23716323 0.2172914
0.25315318 -0.15366091 -0.19172093 0.37573847 -1.1274204 -0.25657892 -0.89834404 0.22499272
0.059241354 0.0 -0.41501576 -0.6731637 -1.6407284 0.0 -0.36765468 0.88000196
0.2673504 0.0 0.07033071 0.45277518 0.35518694 -0.29140064 -1.3331568 -0.9270813
0.0 0.33679622 0.32478538 -0.16636473 0.1284675 0.43052137 -0.31891268 -0.334057
0.0003459268 -1.0522071 0.25465432 0.2659662 0.0 0.018619938 0.22053085 -1.1960338
0.0 0.12435395 0.049745094 0.0 0.6523308 0.14860821 -0.82884437 0.7703248

module_list.0.output_quant.pre_transforms.0.running_mean f4 [64]
00000000: 5a02 fd3e 6da5 6abd 7a53 d93d 9da9 af3e
00000010: 2136 e03e a123 be3c 13cc d2be b462 673e
00000020: 3857 9cbd 0ffe df3c 3714 db3e 40f7 bebe
00000030: 9acd 47bf 702f 1f3e 1abb e33c c523 bebd
00000040: b8f0 093f bb2e 13bf 6c52 273d 158c 933e
00000050: a33c b63e 6dfe 923d 065f 053f af51 373f
00000060: a7d0 9b3e fb5b 583d 0c42 9a3d d7da 65be
00000070: 77f4 17bf 7f79 683d f80c 0bbf 191c f9bc
00000080: 4a31 76be 9c15 843e 9507 edbe 22a3 15be
00000090: 5e79 70be 2e9e 09bf 1c87 29bc a1d2 95be
000000a0: d2c2 1f3e f1e6 883e 6508 37bf b53c 81be
000000b0: 29c0 e93e 93c1 a33e b95c 91bc 28cd 763e
000000c0: f520 7fbe b765 92be 76be 81be 7275 fdbe
000000d0: ac99 0cbe f49e 0fbe b3b1 46be 52fc 133f
000000e0: 5707 3abe ec94 093e 3d52 db3e e173 ce3d
000000f0: e217 763e 1d42 8b3e e09d f5be 1031 473e
0.49415857 -0.05728667 0.10611625 0.34309092 0.43791297 0.023210349 -0.4117132 0.22596246
-0.07633823 0.027342824 0.4278886 -0.37298012 -0.780481 0.1554544 0.027799178 -0.09284166
0.5388293 -0.5749318 0.040850088 0.28817812 0.35593137 0.07177434 0.5209812 0.71609014
0.30432627 0.052822094 0.07532129 -0.22446762 -0.593574 0.056756493 -0.54316664 -0.030408906
-0.2404224 0.25797737 -0.46294847 -0.14613011 -0.23483798 -0.5375699 -0.010347154 -0.2926226
0.15601662 0.26738694 -0.71497184 -0.25241628 0.4565442 0.31983623 -0.017744409 0.24101698
-0.24914916 -0.28593227 -0.25340623 -0.49503666 -0.13730496 -0.1402548 -0.19403724 0.57806885
-0.18166862 0.13435715 0.4283618 0.10080696 0.24032548 0.27198878 -0.47972012 0.1945231

module_list.0.output_quant.pre_transforms.0.running_var f4 [64]
00000000: 4e44 a33d 01db 3a3e 5d19 143e 65e3 963e
00000010: e043 0e3f 7211 0c40 9454 df3d 010d 7c3e
00000020: dbfd 853d 9240 093c 649d 873d 043d e73d
00000030: 4b23 3b3e ac37 8e3d 9b95 833e 7dd0 5c3d
00000040: 7394 df3c 23de 463e a654 d43d c2a8 0e3e
00000050: c3d3 133f 8585 a93b 225a a13d 9043 2b3e
00000060: 4c5c 583e e310 343b 41b8 4f3d 05a0 f43d
00000070: 90aa 4e3f 7b9c 503a 8e65 713d c5f0 eb3d
00000080: ee9f 273c 81a9 3e3b 2d86 8d3e e338 e53d
00000090: 0c4c b53d 95b0 bc3e 04db 743e d85d fe3c
000000a0: 9197 9b3b cd5b 8a3d c951 883f 2489 ea3d
000000b0: 8a6d a43d c398 9f3d c606 fb3d 7dd0 883d
000000c0: 395d c53f 9a1f 153f a337 6e3d 4a6d 303d
000000d0: 9e53 353b 8a70 253c 3c6d 903c f782 df3e
000000e0: 3fc4 953b 87b1 c63d 99c1 023e b048 743b
000000f0: 4c00 913d c1b8 e93d 9897 9e3e 7196 e33c
0.079720125 0.18247606 0.144628 0.29470363 0.5557232 2.1885648 0.10904804 0.24614336
0.0654256 0.008377211 0.06621817 0.11290935 0.18275182 0.06944212 0.25700077 0.053909767
0.027292466 0.19420676 0.10367708 0.13931563 0.57745 0.0051733875 0.078785196 0.16724992
0.21128958 0.0027475886 0.050712828 0.11944584 0.8072901 0.0007957888 0.05893474 0.115205325
0.010231001 0.0029092731 0.2764143 0.11192491 0.088523954 0.3685347 0.23911673 0.031050608
0.0047482927 0.06755791 1.0649959 0.11451939 0.080287054 0.07792809 0.12257151 0.06680391
1.5419074 0.58251345 0.058158528 0.043072976 0.0027668248 0.010097632 0.017630212 0.43654606
0.0045705135 0.097018294 0.12769164 0.003727477 0.07080135 0.11412192 0.30975032 0.027781697

module_list.1.input_quant.pre_transforms.0.weight f4 [64]
00000000: b3c1 903e d657 5e3f 2e83 ac3e 6df2 d13e
00000010: 5f86 f43e c696 5f3f fdf7 b93e f95a b13e
00000020: 9e1b d93e f448 443f 8134 323f 0f0e ee3e
00000030: 44cd 9c3f 56bf b03e 605f cd3e 6405 b53e
00000040: 48f8 a63e 9323 9a3f 9e55 d33e 0f81 b23f
00000050: 9e05 1440 6469 883f e4dd b63f 84ae d33f
00000060: 3d9a 6e3f f448 443f 0e30 763f 4350 413f
00000070: 7de8 d53f f448 443f 261b 273f 45ef ea3e
00000080: 174f 873e f448 443f 99c1 d43e 1949 be3e
00000090: ccb1 9a3e 1ad9 303f f275 523f b227 343f
000000a0: f448 443f 3db1 763e 28a6 353f 00f6 fc3e
000000b0: 8099 4e3f 2f98 823e e94a 4c3f 4270 013f
000000c0: 4b20 4d3f 22ba 8c3f 7229 dc3e ec56 7e3e
000000d0: f448 443f 5044 4e3f da9e b83e 1e59 3740
000000e0: f448 443f dd21 063f 8884 1d3f f448 443f
000000f0: d371 113f c879 463f 896d 1d3f 7119 e03e
0.2827278 0.86852777 0.33693832 0.4100527 0.47758767 0.87339437 0.36322013 0.3463972
0.42403883 0.7667382 0.69611365 0.464951 1.2250142 0.34520978 0.40111828 0.35355675
0.326113 1.2042106 0.41276258 1.3945636 2.3128428 1.0657163 1.4286466 1.6537633
0.932041 0.7667382 0.96167076 0.75513095 1.6711575 0.7667382 0.652758 0.45885673
0.26427528 0.7667382 0.41553953 0.37165144 0.30213773 0.6908127 0.8221122 0.7037307
0.7667382 0.24091049 0.7095666 0.49406433 0.8070297 0.25506732 0.79801804 0.50561917
0.801274 1.0994303 0.4300037 0.24837846 0.7667382 0.80572987 0.36058694 2.8648143
0.7667382 0.5239542 0.6153035 0.7667382 0.56814307 0.77529573 0.6149526 0.4376941

module_list.1.input_quant.pre_transforms.0.bias f4 [64]
00000000: a64b 2d3f 1d8c 083f 5dd2 fb3d 7311 933e
00000010: 51ba a93e 969d 5fbe 504d 013f 0f51 763e
00000020: 9fce b5be 0000 0000 33a1 95be 67a3 4abe
00000030: fd28 183f 791f 123f ebda 723e a381 5e3e
00000040: 4b9d 813e 4959 1dbe 7e52 44be cb60 c03e
00000050: 504f 90bf 505e 83be e0f9 65bf 7e64 663e
00000060: 10a7 723d 0000 0000 f27c d4be 7554 2cbf
00000070: 6303 d2bf 0000 0000 3c3d bcbe cf47 613f
00000080: 27e2 883e 0000 0000 8c09 903d 26d2 e73e
00000090: 10db b53e 7732 95be e2a4 aabf 3355 6dbf
000000a0: 0000 0000 8e70 ac3e 454a a63e 845b 2abe
000000b0: fc8c 033e 4c6d dc3e 8648 a3be 8509 abbe
000000c0: 825d b539 b9ae 86bf 0d62 823e b92c 883e
000000d0: 0000 0000 d788 983c d7d2 613e a317 99bf
000000e0: 0000 0000 49ad fe3d 83c1 4b3d 0000 0000
000000f0: 27ff 263f c02c 183e 252f 54bf 0234 453f
0.67693555 0.53338796 0.12295983 0.2872425 0.3314996 -0.21837458 0.50508595 0.24054359
-0.35509202 0.0 -0.29224548 -0.19788896 0.59437543 0.57079273 0.23716323 0.2172914
0.25315318 -0.15366091 -0.19172093 0.37573847 -1.1274204 -0.25657892 -0.89834404 0.22499272
0.059241354 0.0 -0.41501576 -0.6731637 -1.6407284 0.0 -0.36765468 0.88000196
0.2673504 0.0 0.07033071 0.45277518 0.35518694 -0.29140064 -1.3331568 -0.9270813
0.0 0.33679622 0.32478538 -0.16636473 0.1284675 0.43052137 -0.31891268 -0.334057
0.0003459268 -1.0522071 0.25465432 0.2659662 0.0 0.018619938 0.22053085 -1.1960338
0.0 0.12435395 0.049745094 0.0 0.6523308 0.14860821 -0.82884437 0.7703248

module_list.1.input_quant.pre_transforms.0.running_mean f4 [64]
00000000: 5a02 fd3e 6da5 6abd 7a53 d93d 9da9 af3e
00000010: 2136 e03e a123 be3c 13cc d2be b462 673e
00000020: 3857 9cbd 0ffe df3c 3714 db3e 40f7 bebe
00000030: 9acd 47bf 702f 1f3e 1abb e33c c523 bebd
00000040: b8f0 093f bb2e 13bf 6c52 273d 158c 933e
00000050: a33c b63e 6dfe 923d 065f 053f af51 373f
00000060: a7d0 9b3e fb5b 583d 0c42 9a3d d7da 65be
00000070: 77f4 17bf 7f79 683d f80c 0bbf 191c f9bc
00000080: 4a31 76be 9c15 843e 9507 edbe 22a3 15be
00000090: 5e79 70be 2e9e 09bf 1c87 29bc a1d2 95be
000000a0: d2c2 1f3e f1e6 883e 6508 37bf b53c 81be
000000b0: 29c0 e93e 93c1 a33e b95c 91bc 28cd 763e
000000c0: f520 7fbe b765 92be 76be 81be 7275 fdbe
000000d0: ac99 0cbe f49e 0fbe b3b1 46be 52fc 133f
000000e0: 5707 3abe ec94 093e 3d52 db3e e173 ce3d
000000f0: e217 763e 1d42 8b3e e09d f5be 1031 473e
0.49415857 -0.05728667 0.10611625 0.34309092 0.43791297 0.023210349 -0.4117132 0.22596246
-0.07633823 0.027342824 0.4278886 -0.37298012 -0.780481 0.1554544 0.027799178 -0.09284166
0.5388293 -0.5749318 0.040850088 0.28817812 0.35593137 0.07177434 0.5209812 0.71609014
0.30432627 0.052822094 0.07532129 -0.22446762 -0.593574 0.056756493 -0.54316664 -0.030408906
-0.2404224 0.25797737 -0.46294847 -0.14613011 -0.23483798 -0.5375699 -0.010347154 -0.2926226
0.15601662 0.26738694 -0.71497184 -0.25241628 0.4565442 0.31983623 -0.017744409 0.24101698
-0.24914916 -0.28593227 -0.25340623 -0.49503666 -0.13730496 -0.1402548 -0.19403724 0.57806885
-0.18166862 0.13435715 0.4283618 0.10080696 0.24032548 0.27198878 -0.47972012 0.1945231

module_list.1.input_quant.pre_transforms.0.running_var f4 [64]
00000000: 4e44 a33d 01db 3a3e 5d19 143e 65e3 963e
00000010: e043 0e3f 7211 0c40 9454 df3d 010d 7c3e
00000020: dbfd 853d 9240 093c 649d 873d 043d e73d
00000030: 4b23 3b3e ac37 8e3d 9b95 833e 7dd0 5c3d
00000040: 7394 df3c 23de 463e a654 d43d c2a8 0e3e
00000050: c3d3 133f 8585 a93b 225a a13d 9043 2b3e
00000060: 4c5c 583e e310 343b 41b8 4f3d 05a0 f43d
00000070: 90aa 4e3f 7b9c 503a 8e65 713d c5f0 eb3d
00000080: ee9f 273c 81a9 3e3b 2d86 8d3e e338 e53d
00000090: 0c4c b53d 95b0 bc3e 04db 743e d85d fe3c
000000a0: 9197 9b3b cd5b 8a3d c951 883f 2489 ea3d
000000b0: 8a6d a43d c398 9f3d c606 fb3d 7dd0 883d
000000c0: 395d c53f 9a1f 153f a337 6e3d 4a6d 303d
000000d0: 9e53 353b 8a70 253c 3c6d 903c f782 df3e
000000e0: 3fc4 953b 87b1 c63d 99c1 023e b048 743b
000000f0: 4c00 913d c1b8 e93d 9897 9e3e 7196 e33c
0.079720125 0.18247606 0.144628 0.29470363 0.5557232 2.1885648 0.10904804 0.24614336
0.0654256 0.008377211 0.06621817 0.11290935 0.18275182 0.06944212 0.25700077 0.053909767
0.027292466 0.19420676 0.10367708 0.13931563 0.57745 0.0051733875 0.078785196 0.16724992
0.21128958 0.0027475886 0.050712828 0.11944584 0.8072901 0.0007957888 0.05893474 0.115205325
0.010231001 0.0029092731 0.2764143 0.11192491 0.088523954 0.3685347 0.23911673 0.031050608
0.0047482927 0.06755791 1.0649959 0.11451939 0.080287054 0.07792809 0.12257151 0.06680391
1.5419074 0.58251345 0.058158528 0.043072976 0.0027668248 0.010097632 0.017630212 0.43654606
0.0045705135 0.097018294 0.12769164 0.003727477 0.07080135 0.11412192 0.30975032 0.027781697

module_list.1.fc.weight f4 [32, 64]
00000000: 8f96 bbbc 0b96 a93c 8a6d d8bd c1a7 b0bd
00000010: d918 b2bd ab6c aa3c 3fc0 be3d 2b51 ce3e
00000020: c286 8dbd 8811 86bd 1bec d7bc 08d3 473d
00000030: 7951 babd 8fb4 893d b9e4 9c3d cc55 48bd
00000040: dd35 c2bd f875 323d d50a d7bb baa0 f03c
00000050: 7783 903d dc03 523d e146 9fbd 440b 193d
00000060: d9e7 2e3d a03f e9bc 621c 853d c506 adbd
00000070: 8e45 8dbd 3c62 433d c7a1 98bc 4787 8fbc
00000080: 7208 81bd 6060 eb3a 05f3 343f 8bc1 893d
00000090: 380f ffbc 6ec5 64bd 6c14 803d 0a4f ba3b
000000a0: 75a5 57bd 8f92 69bd 872e a13d e9ed bb3d
000000b0: f5a5 083d cf7d 27bd 8d9f 223d 5b5e 043d
000000c0: a1b6 1abd a344 903d a4e8 39bd b9e0 a73d
000000d0: ab8f ac3d 5bc4 09bc 8d3b 14bd 8d48 f73c
000000e0: fb43 8dbd 6f5d 97bd fec4 aabc dc72 4cbd
000000f0: 0334 adbd 3541 1ebd a7cd 16bb 6ad9 c23c
00000100: f6f2 23bd 994b b73b ee63 193d c9d2 aa3d
00000110: 5a52 3bbd ee7c 2bbe fadd a43d 295c d3bc
00000120: 303c a83d f143 b0bc 2358 833d 5885 1c3d
00000130: 2a20 b73b e9a4 b23d d1f6 13bd dddf b4bd
00000140: 765f b0bc 9418 8fbd b243 8f3d e9f7 8d3d
00000150: 1ad0 a8bd 0061 a53d 7388 a0bd 75fc 17bd
00000160: d61f 5abc 9e16 4c3d ba5d 943d 08f1 6cbd
00000170: 2059 cabc 149c 86bc 0816 943d 86d2 b7bd
00000180: 7308 5e3d 716f 563d ec3a 4cbd 81f2 2cbd
00000190: acc1 993d ead0 c0bd 2a9c ba3d 6178 5a3d
000001a0: 39cc e63c c746 a73d 8d3c 5d39 318a a43b
000001b0: edc2 55bd ef94 63bc 1ebb 863d 706c 3e3c
000001c0: 283f 153e 190f 5b3d ba9a a93d 4f23 233b
000001d0: 6134 b4bc 404a 86bd 506c 90bd 15b6 78bf
000001e0: 8fc4 bdbd 1a8e 54bd 60d7 90bd 0463 333d
000001f0: d708 a7bd 7191 753d b06e 9f3d 1bff cb3c
00000200: 6b16 11bd bf0f 193d eb3e bd3d fd16 f73c
00000210: 8e9d c33c 7899 72bc 0d94 513b 6b5e 783d
00000220: dfc3 58bd 685e 4f3d 28f3 d4ba b4cc fcbc
00000230: 928e c5ba 9537 eb3c 0293 34bd 4561 5abd
00000240: 00a3 603c 3baf ac3c 54b0 863b eca0 64bb
00000250: 5c96 823d c713 c03d 820a 38bd 471d 21bc
00000260: c04f 42be 8fa5 3abd dbd2 fabc a1c6 85bd
00000270: f09a 96bd a7b6 8dbd 6f62 9a3c 2995 833d
00000280: cc1b dbbc 513b 2d3a 37ba 2ebd 01ba 183c
00000290: 88af 353d 558c 903c 4933 9f3c fc82 06bd
000002a0: c502 54bb a0db 5abd f8ca f2bb 122d 8dbc
000002b0: c043 5bbd ba47 593d 0d56 e73c 3e46 95bd
000002c0: f0d0 22bf a335 ea3e 8f80 7d3d c89f b5bd
000002d0: 5d8d 79bd 4b40 aebd d7be 613d e113 603c
000002e0: 664c 4f3d b16b 56bd 287b af3c 5272 86bd
000002f0: cb58 b23d 74f7 d3bb e815 86bd ac11 1dbd
00000300: 7f6c 9abd 205e b13d c88e 18bd 2424 f6bc
00000310: 03df 45bd a742 0bbd a4bc 9bbd 504c abbc
00000320: 1ae6 08bd 2ccb 3fbd d1dd 703d 6d55 fe3a
00000330: f529 1c3d 7839 0ebd 0155 a2bc e353 c1bd
00000340: a838 9cbd 6823 88bd 0953 2fbd 1904 4a3e
00000350: dfc6 c1bc 5fa8 bebd a711 b93c 48b6 78bd
00000360: 2d59 a63d 16bc d13c ccf6 24bd 48b1 adbb
00000370: 5dfa 8dbd de26 9c3d de90 933d 6363 e23c
00000380: c03a 0ebd cf8e 2a3c 8d7b 9a3b ff25 0cbd
00000390: e7ec 12bd 95e2 953d 2271 bbbc 6623 5e3d
000003a0: 5dd8 e3bb 2562 893d 3a23 da3c 2643 7fbd
000003b0: 1621 cfbc 1b02 1bbf c7be 3a3e 4a25 2bbd
000003c0: 7f60 d13c 2cbe 463d 0bb8 013f 8bb4 a03d
000003d0: 5a8a a53d 7857 dd3c a209 323c 90eb 8d3c
000003e0: c1d9 aebd 94f2 78bd c5a8 843d 2299 813d
000003f0: 2692 8f3d 1def 8d3d c273 0cbc dcf8 8dbc
-0.02289894 0.020701429 -0.10567768 -0.086257465 -0.086961456 0.02080377 0.09314012 0.402963
-0.06910469 -0.065463126 -0.026357701 0.04878524 -0.09097571 0.06723892 0.07660813 -0.048909947
-0.0948293 0.043569535 -0.0065625706 0.029373515 0.07056325 0.05127321 -0.07777191 0.03736426
0.042701576 -0.028472722 0.06499554 -0.08448557 -0.06898032 0.047701105 -0.018631829 -0.01752056
-0.06300439 0.0017957799 0.7068332 0.067263685 -0.031135187 -0.055852346 0.06253895 0.0056856917
-0.052648026 -0.057024535 0.078702025 0.09176237 0.033361394 -0.040891465 0.03970294 0.032316547
-0.037771825 0.070443414 -0.04538788 0.08197159 0.0842584 -0.008408631 -0.036189605 0.030185962
-0.06897732 -0.07390868 -0.020845886 -0.049914226 -0.08457186 -0.038636405 -0.0023010762 0.023785312
-0.040026627 0.0055937287 0.037448816 0.08340985 -0.045732833 -0.16746876 0.08050151 -0.025800781
0.08214605 -0.021516772 0.06413295 0.038213104 0.005588551 0.0872286 -0.036124054 -0.08831761
-0.021529894 -0.0698711 0.06995334 0.06932051 -0.08242817 0.08075142 -0.078385256 -0.037105996
-0.013313254 0.049826257 0.072444394 -0.057847053 -0.024700701 -0.016431846 0.072307646 -0.08975701
0.054207277 0.052352373 -0.04986088 -0.042223457 0.07507643 -0.09414847 0.09111817 0.05333746
0.028173553 0.081677966 0.0002109876 0.0050213565 -0.05218785 -0.013890489 0.065786585 0.011622533
0.14574873 0.053481195 0.08281465 0.0024892872 -0.021997632 -0.06557131 -0.07051909 -0.97152835
-0.09266006 -0.05189333 -0.070723295 0.0437956 -0.08155983 0.059953157 0.07784784 0.024901917
-0.03542177 0.037368532 0.09240516 0.030162329 0.023878839 -0.014807098 0.0031979114 0.06063692
-0.052921172 0.050627142 -0.0016246783 -0.030859329 -0.0015072396 0.028713027 -0.04408551 -0.05331542
0.013710737 0.02107965 0.0041103754 -0.0034885956 0.06376335 0.09378772 -0.044931896 -0.00983364
-0.18975735 -0.045568045 -0.030618122 -0.06532026 -0.07353771 -0.06919604 0.018845765 0.064249344
-0.026746653 0.0006608265 -0.042658057 0.009321691 0.044356853 0.01764504 0.019433634 -0.03283976
-0.0032350284 -0.053432107 -0.0074094497 -0.017233405 -0.05353141 0.05304692 0.028239274 -0.07288788
-0.63600063 0.45744047 0.06189018 -0.088683665 -0.06092583 -0.08508357 0.05511364 0.0136766145
0.05060997 -0.052348796 0.02142103 -0.065647736 0.08708342 -0.0064687077 -0.06547147 -0.03834693
-0.07540225 0.08660531 -0.03724554 -0.03004653 -0.048308384 -0.03399911 -0.0760434 -0.020910412
-0.033422567 -0.04682462 0.05880529 0.0019404121 0.03812595 -0.034722775 -0.019815924 -0.09439828
-0.07627994 -0.06647378 -0.042803798 0.19728126 -0.0236544 -0.09309458 0.022591425 -0.060720712
0.08122478 0.025602382 -0.040274426 -0.0053006746 -0.06932519 0.07624601 0.072053656 0.027635282
-0.034723997 0.010410025 0.0047144354 -0.034215923 -0.03587046 0.07318608 -0.022881094 0.054232977
-0.0069532827 0.06708173 0.026628125 -0.062319897 -0.025284331 -0.6055009 0.18236838 -0.04178361
0.025558708 0.048521206 0.5067145 0.07846936 0.08083029 0.027019247 0.010866554 0.017324239
-0.08537627 -0.060778216 0.06477503 0.06328036 0.070102975 0.06930373 -0.008572521 -0.01733058

module_list.1.fc.bias f4 [32]
00000000: a5c0 79bd 3d3a 5abe 837a b2bd 8513 f3bd
00000010: 1b64 0cbe 71b6 7bbd 59e0 a53e e461 f0bc
00000020: a72b 13bc 7b10 903e 2d3d af3e e3b0 173d
00000030: f9e3 b23d 70c9 20be f9a4 8dbe a76c 92bd
00000040: 4897 c83d 4d29 3b3c 1184 e2bc 7ded 7cbd
00000050: 6103 5b3d d75b 03be bcc7 ef3d 3649 2ebd
00000060: dedf 0ebe 7b49 bf3d 34f8 e03d 4648 123e
00000070: 059b 753e 6677 8e3c 35e4 77bd 2d9d 1cbe
-0.060974736 -0.21311279 -0.087147735 -0.118689574 -0.13710062 -0.061453287 0.32397726 -0.029343553
-0.0089825755 0.28137574 0.3422636 0.037033927 0.087348886 -0.15701842 -0.27664927 -0.0714963
0.097944796 0.011423421 -0.027650865 -0.061749924 0.05347002 -0.12828003 0.11708018 -0.04255029
-0.13952586 0.09340187 0.10984841 0.14285383 0.23984917 0.017390918 -0.06052037 -0.15294333

module_list.1.fc.mask.mask f4 [32, 64]
00000000: 0000 0000 0000 0000 0000 803f 0000 0000
00000010: 0000 0000 0000 0000 0000 0000 0000 803f
00000020: 0000 0000 0000 0000 0000 0000 0000 0000
00000030: 0000 0000 0000 0000 0000 0000 0000 0000
00000040: 0000 0000 0000 0000 0000 0000 0000 0000
00000050: 0000 0000 0000 0000 0000 0000 0000 0000
00000060: 0000 0000 0000 0000 0000 0000 0000 0000
00000070: 0000 0000 0000 0000 0000 0000 0000 0000
00000080: 0000 0000 0000 0000 0000 803f 0000 0000
00000090: 0000 0000 0000 0000 0000 0000 0000 0000
000000a0: 0000 0000 0000 0000 0000 0000 0000 0000
000000b0: 0000 0000 0000 0000 0000 0000 0000 0000
000000c0: 0000 0000 0000 803f 0000 0000 0000 0000
000000d0: 0000 0000 0000 0000 0000 0000 0000 0000
000000e0: 0000 0000 0000 0000 0000 0000 0000 0000
000000f0: 0000 0000 0000 0000 0000 0000 0000 0000
00000100: 0000 0000 0000 0000 0000 803f 0000 0000
00000110: 0000 0000 0000 803f 0000 0000 0000 0000
00000120: 0000 0000 0000 0000 0000 0000 0000 0000
00000130: 0000 0000 0000 0000 0000 0000 0000 0000
00000140: 0000 0000 0000 0000 0000 0000 0000 0000
00000150: 0000 0000 0000 0000 0000 0000 0000 0000
00000160: 0000 0000 0000 0000 0000 0000 0000 0000
00000170: 0000 0000 0000 0000 0000 0000 0000 0000
00000180: 0000 0000 0000 0000 0000 0000 0000 0000
00000190: 0000 0000 0000 0000 0000 0000 0000 0000
000001a0: 0000 0000 0000 0000 0000 0000 0000 0000
000001b0: 0000 0000 0000 0000 0000 0000 0000 0000
000001c0: 0000 803f 0000 0000 0000 0000 0000 0000
000001d0: 0000 0000 0000 0000 0000 0000 0000 803f
000001e0: 0000 0000 0000 0000 0000 0000 0000 0000
000001f0: 0000 0000 0000 0000 0000 0000 0000 0000
00000200: 0000 0000 0000 0000 0000 0000 0000 0000
00000210: 0000 0000 0000 0000 0000 0000 0000 0000
00000220: 0000 0000 0000 0000 0000 803f 0000 0000
00000230: 0000 0000 0000 0000 0000 0000 0000 0000
00000240: 0000 0000 0000 0000 0000 0000 0000 0000
00000250: 0000 0000 0000 0000 0000 0000 0000 0000
00000260: 0000 803f 0000 0000 0000 0000 0000 0000
00000270: 0000 0000 0000 0000 0000 0000 0000 0000
00000280: 0000 0000 0000 0000 0000 0000 0000 0000
00000290: 0000 0000 0000 0000 0000 0000 0000 0000
000002a0: 0000 0000 0000 0000 0000 0000 0000 0000
000002b0: 0000 0000 0000 0000 0000 0000 0000 0000
000002c0: 0000 803f 0000 803f 0000 0000 0000 0000
000002d0: 0000 0000 0000 0000 0000 0000 0000 0000
000002e0: 0000 0000 0000 0000 0000 0000 0000 0000
000002f0: 0000 0000 0000 0000 0000 0000 0000 0000
00000300: 0000 0000 0000 0000 0000 0000 0000 0000
00000310: 0000 0000 0000 0000 0000 0000 0000 0000
00000320: 0000 0000 0000 0000 0000 0000 0000 0000
00000330: 0000 0000 0000 0000 0000 0000 0000 0000
00000340: 0000 0000 0000 0000 0000 0000 0000 803f
00000350: 0000 0000 0000 0000 0000 0000 0000 0000
00000360: 0000 0000 0000 0000 0000 0000 0000 0000
00000370: 0000 0000 0000 0000 0000 0000 0000 0000
00000380: 0000 0000 0000 0000 0000 0000 0000 0000
00000390: 0000 0000 0000 0000 0000 0000 0000 0000
000003a0: 0000 0000 0000 0000 0000 0000 0000 0000
000003b0: 0000 0000 0000 803f 0000 803f 0000 0000
000003c0: 0000 0000 0000 0000 0000 803f 0000 0000
000003d0: 0000 0000 0000 0000 0000 0000 0000 0000
000003e0: 0000 0000 0000 0000 0000 0000 0000 0000
000003f0: 0000 0000 0000 0000 0000 0000 0000 0000
0.0 0.0 1.0 0.0 0.0 0.0 0.0 1.0
0.0 0.0 0.0 0.0 0.0 0.0 0.0 0.0
0.0 0.0 0.0 0.0 0.0 0.0 0.0 0.0
0.0 0.0 0.0 0.0 0.0 0.0 0.0 0.0
0.0 0.0 1.0 0.0 0.0 0.0 0.0 0.0
0.0 0.0 0.0 0.0 0.0 0.0 0.0 0.0
0.0 1.0 0.0 0.0 0.0 0.0 0.0 0.0
0.0 0.0 0.0 0.0 0.0 0.0 0.0 0.0
0.0 0.0 1.0 0.0 0.0 1.0 0.0 0.0
0.0 0.0 0.0 0.0 0.0 0.0 0.0 0.0
0.0 0.0 0.0 0.0 0.0 0.0 0.0 0.0
0.0 0.0 0.0 0.0 0.0 0.0 0.0 0.0
0.0 0.0 0.0 0.0 0.0 0.0 0.0 0.0
0.0 0.0 0.0 0.0 0.0 0.0 0.0 0.0
1.0 0.0 0.0 0.0 0.0 0.0 0.0 1.0
0.0 0.0 0.0 0.0 0.0 0.0 0.0 0.0
0.0 0.0 0.0 0.0 0.0 0.0 0.0 0.0
0.0 0.0 1.0 0.0 0.0 0.0 0.0 0.0
0.0 0.0 0.0 0.0 0.0 0.0 0.0 0.0
1.0 0.0 0.0 0.0 0.0 0.0 0.0 0.0
0.0 0.0 0.0 0.0 0.0 0.0 0.0 0.0
0.0 0.0 0.0 0.0 0.0 0.0 0.0 0.0
1.0 1.0 0.0 0.0 0.0 0.0 0.0 0.0
0.0 0.0 0.0 0.0 0.0 0.0 0.0 0.0
0.0 0.0 0.0 0.0 0.0 0.0 0.0 0.0
0.0 0.0 0.0 0.0 0.0 0.0 0.0 0.0
0.0 0.0 0.0 1.0 0.0 0.0 0.0 0.0
0.0 0.0 0.0 0.0 0.0 0.0 0.0 0.0
0.0 0.0 0.0 0.0 0.0 0.0 0.0 0.0
0.0 0.0 0.0 0.0 0.0 1.0 1.0 0.0
0.0 0.0 1.0 0.0 0.0 0.0 0.0 0.0
0.0 0.0 0.0 0.0 0.0 0.0 0.0 0.0

module_list.1.output_quant.pre_transforms.0.weight f4 [32]
00000000: 111a e53e 81bb 0840 a125 0d40 05c6 c93e
00000010: 1913 823f 2e16 093f 7b75 f73e 2ad1 073f
00000020: 01ca a63e e2e7 053f e1d2 7d3e 1e95 c33e
00000030: 5eed 3c3f 70d4 b23e b8d9 953e 3bc6 383f
00000040: 932b 993e 66f4 903f 2d63 5e3e 9728 1f3f
00000050: 0bb5 0f3f 914a 0a3f 5635 013f 6e46 d93e
00000060: 006a 233f 04a7 103f 6db2 593f efd4 5a3f
00000070: 8b82 c53e 2c6c 923e 9c5c 1c3f 4582 073f
0.4474645 2.1364443 2.2054217 0.3940889 1.0162078 0.5354947 0.48331818 0.53053534
0.32575992 0.5230695 0.24787475 0.38199705 0.73799694 0.34927702 0.2926767 0.72177476
0.29916057 1.1324584 0.2171752 0.6217131 0.56135625 0.5402003 0.5047201 0.42436546
0.6383362 0.56504846 0.8503788 0.8548116 0.3857616 0.28598154 0.6107881 0.5293315

module_list.1.output_quant.pre_transforms.0.bias f4 [32]
00000000: 2e96 61bd a320 aabf 4fe6 0f3e bb4c 4e3f
00000010: 3b35 22be 7a26 d63e 9350 2b3d 24dc c63e
00000020: 59dc 253e f607 c33e 7b97 913e dc75 513e
00000030: 5b91 203d 2270 7e3e 39e3 b93e cfba 52bd
00000040: 0c46 eb3e a874 3fbf 4d27 243e 5f61 1cbe
00000050: 6c8a e43d f4b4 c03e 759a 193f c0ea 133f
00000060: 5a79 133e 0436 1b3f de8f afbd f2ff 32be
00000070: 8805 5e3f ea49 d53e 7623 f33e 3f03 2c3f
-0.055074863 -1.329121 0.140527 0.8058583 -0.15840618 0.4182623 0.04182489 0.3883983
0.16197337 0.3809201 0.28435883 0.20455116 0.03920112 0.24847463 0.3630617 -0.051447686
0.4595188 -0.7478738 0.16030617 -0.15271519 0.111592144 0.37638056 0.6000131 0.57780075
0.1440176 0.60629296 -0.08572362 -0.17480448 0.8672719 0.41657954 0.47487992 0.67192453

module_list.1.output_quant.pre_transforms.0.running_mean f4 [32]
00000000: 614f 503e 7168 15bf a0e4 72be d9ab eebd
00000010: 0af8 dcbe ca49 d4be d775 ba3e ea59 98be
00000020: d32e 913d 9a0b 0c3f 92ed 203f 3879 123e
00000030: e540 383d b83e 09bd 01f8 14bf e68c 883e
00000040: 6307 0ebe 35e6 a3be 040d 173e defe 87be
00000050: a1e1 59be 14d6 06be 3d73 d7bd 17d0 db3d
00000060: 52d9 8c3d c91d d93e bb14 b8be e416 0b3e
00000070: 5466 273e f415 d53e 14ce 4abd 50d2 ad3d
0.2034278 -0.5836249 -0.23720026 -0.11653871 -0.4315799 -0.41462547 0.3641803 -0.297561
0.07089009 0.547052 0.62862504 0.14304054 0.044983763 -0.03350708 -0.58190924 0.26669997
-0.13870005 -0.32011572 0.14751059 -0.26561636 -0.21277477 -0.13167602 -0.10520027 0.10733049
0.06877388 0.42405537 -0.35953316 0.13582951 0.16347629 0.4161831 -0.049512938 0.084873796

module_list.1.output_quant.pre_transforms.0.running_var f4 [32]
00000000: d272 c43c ab25 3f3e 8f9b 553c bc05 363c
00000010: bff1 333e 79e7 403e 22b8 b93d f9a9 863c
00000020: 937c a13d c05d ea3d 725e 6c3d 2fcc 393d
00000030: 69eb 563d eef6 c23c f4cc db3c 3343 9c3c
00000040: 292c 553d 20dd 9f3d 05f1 6f3c 8c95 813c
00000050: c2b7 2d3d b488 5c3d b013 3b3d 2102 c63c
00000060: 9662 8a3d 3158 513d f927 803d fe40 043e
00000070: 6109 d23c 724b 3c3d f084 e13d 7a04 b53d
0.023980532 0.18666713 0.013037576 0.011109766 0.17572688 0.188383 0.09068324 0.016438471
0.07885089 0.11443663 0.057707258 0.04536074 0.0524706 0.023799386 0.026831128 0.019075012
0.052044068 0.07805848 0.014644866 0.01581838 0.042411573 0.053841308 0.045673072 0.024170937
0.06757085 0.051109497 0.06257624 0.12915418 0.025639238 0.045970388 0.11011684 0.088387445

module_list.2.input_quant.pre_transforms.0.weight f4 [32]
00000000: 111a e53e 81bb 0840 a125 0d40 05c6 c93e
00000010: 1913 823f 2e16 093f 7b75 f73e 2ad1 073f
00000020: 01ca a63e e2e7 053f e1d2 7d3e 1e95 c33e
00000030: 5eed 3c3f 70d4 b23e b8d9 953e 3bc6 383f
00000040: 932b 993e 66f4 903f 2d63 5e3e 9728 1f3f
00000050: 0bb5 0f3f 914a 0a3f 5635 013f 6e46 d93e
00000060: 006a 233f 04a7 103f 6db2 593f efd4 5a3f
00000070: 8b82 c53e 2c6c 923e 9c5c 1c3f 4582 073f
0.4474645 2.1364443 2.2054217 0.3940889 1.0162078 0.5354947 0.48331818 0.53053534
0.32575992 0.5230695 0.24787475 0.38199705 0.73799694 0.34927702 0.2926767 0.72177476
0.29916057 1.1324584 0.2171752 0.6217131 0.56135625 0.5402003 0.5047201 0.42436546
0.6383362 0.56504846 0.8503788 0.8548116 0.3857616 0.28598154 0.6107881 0.5293315

module_list.2.input_quant.pre_transforms.0.bias f4 [32]
00000000: 2e96 61bd a320 aabf 4fe6 0f3e bb4c 4e3f
00000010: 3b35 22be 7a26 d63e 9350 2b3d 24dc c63e
00000020: 59dc 253e f607 c33e 7b97 913e dc75 513e
00000030: 5b91 203d 2270 7e3e 39e3 b93e cfba 52bd
00000040: 0c46 eb3e a874 3fbf 4d27 243e 5f61 1cbe
00000050: 6c8a e43d f4b4 c03e 759a 193f c0ea 133f
00000060: 5a79 133e 0436 1b3f de8f afbd f2ff 32be
00000070: 8805 5e3f ea49 d53e 7623 f33e 3f03 2c3f
-0.055074863 -1.329121 0.140527 0.8058583 -0.15840618 0.4182623 0.04182489 0.3883983
0.16197337 0.3809201 0.28435883 0.20455116 0.03920112 0.24847463 0.3630617 -0.051447686
0.4595188 -0.7478738 0.16030617 -0.15271519 0.111592144 0.37638056 0.6000131 0.57780075
0.1440176 0.60629296 -0.08572362 -0.17480448 0.8672719 0.41657954 0.47487992 0.67192453

module_list.2.input_quant.pre_transforms.0.running_mean f4 [32]
00000000: 614f 503e 7168 15bf a0e4 72be d9ab eebd
00000010: 0af8 dcbe ca49 d4be d775 ba3e ea59 98be
00000020: d32e 913d 9a0b 0c3f 92ed 203f 3879 123e
00000030: e540 383d b83e 09bd 01f8 14bf e68c 883e
00000040: 6307 0ebe 35e6 a3be 040d 173e defe 87be
00000050: a1e1 59be 14d6 06be 3d73 d7bd 17d0 db3d
00000060: 52d9 8c3d c91d d93e bb14 b8be e416 0b3e
00000070: 5466 273e f415 d53e 14ce 4abd 50d2 ad3d
0.2034278 -0.5836249 -0.23720026 -0.11653871 -0.4315799 -0.41462547 0.3641803 -0.297561
0.07089009 0.547052 0.62862504 0.14304054 0.044983763 -0.03350708 -0.58190924 0.26669997
-0.13870005 -0.32011572 0.14751059 -0.26561636 -0.21277477 -0.13167602 -0.10520027 0.10733049
0.06877388 0.42405537 -0.35953316 0.13582951 0.16347629 0.4161831 -0.049512938 0.084873796

module_list.2.input_quant.pre_transforms.0.running_var f4 [32]
00000000: d272 c43c ab25 3f3e 8f9b 553c bc05 363c
00000010: bff1 333e 79e7 403e 22b8 b93d f9a9 863c
00000020: 937c a13d c05d ea3d 725e 6c3d 2fcc 393d
00000030: 69eb 563d eef6 c23c f4cc db3c 3343 9c3c
00000040: 292c 553d 20dd 9f3d 05f1 6f3c 8c95 813c
00000050: c2b7 2d3d b488 5c3d b013 3b3d 2102 c63c
00000060: 9662 8a3d 3158 513d f927 803d fe40 043e
00000070: 6109 d23c 724b 3c3d f084 e13d 7a04 b53d
0.023980532 0.18666713 0.013037576 0.011109766 0.17572688 0.188383 0.09068324 0.016438471
0.07885089 0.11443663 0.057707258 0.04536074 0.0524706 0.023799386 0.026831128 0.019075012
0.052044068 0.07805848 0.014644866 0.01581838 0.042411573 0.053841308 0.045673072 0.024170937
0.06757085 0.051109497 0.06257624 0.12915418 0.025639238 0.045970388 0.11011684 0.088387445

module_list.2.fc.weight f4 [32, 32]
00000000: f573 eb3e 19cd 28bd 1a19 6b3d e4fa 843d
00000010: ab08 8e3b 0bc7 c13e 5bd1 c7bd 2e0b 1a3d
00000020: 94b2 043c f1d5 30bd 87ba 37bd c863 c33c
00000030: bddc 83bc 9123 04bc 8ea7 ed3d 7099 05be
00000040: fd7e 6abd ed90 92bd 3984 a13c 887b 0a3d
00000050: dce5 103d 2f7a f83e a067 f23c 9827 183d
00000060: adc3 a9bd f737 d43d 9e4f 4bbc a93c febd
00000070: f8f6 07bd 82db fbbd 1354 58be 6ae7 86bd
00000080: 4e4e 8c3c 0d8a 20b5 4618 e2bc dc9f 31be
00000090: c39d b63d 2c18 e33d 9e14 99bb d5ae f7bd
000000a0: 1828 0fbd 4dbe f5bd 6cca abbd 3e72 08be
000000b0: ac9b d2bd 99a1 963d 7566 a23d 4684 193d
000000c0: 0e14 963c bd0f 8b3d 576e 4d3c 65ce 76ba
000000d0: 693a 9d3d 3947 9f3d 7648 06be 4231 2f3d
000000e0: 887e 9c3d 748b e5be a3c6 f43c a347 32bd
000000f0: 3c34 c13d 1975 c1be ca69 86bd 884f fcbe
00000100: 34e8 40bd 86b5 c43c 6b85 94ba 090b ab3d
00000110: dc44 09be bc6c 473d f242 c0bd e8e5 943d
00000120: 5d0a ec3d ec31 7b3c 949e 04be c061 76bd
00000130: 7dbf bd3d e868 13bd 6d9c 6e3d 9dcb 063c
00000140: abea b33b aef4 8c3d 5d2e e03d 4fbc 933d
00000150: 59ac dcbd 718e 573b 2584 edbb 9e97 263c
00000160: 06b2 1c3d e1c5 c93d 3e80 04be 7885 7cbd
00000170: 2f88 883d 8fc0 a43d 10df d5bd 6a60 05be
00000180: bc7c 963d c1ae 073e 82b5 ef3d edcd 0a3e
00000190: 1ef1 813d b13e ce3d 1c6b a63e fc79 9b3d
000001a0: b9ba 62bc 674e 483d 75e6 883d 8ab6 c0bd
000001b0: c1da 8e3c 58b1 debb bcec d0bd e0f2 01be
000001c0: 66cb 04be 951d 6bbf 604b d9bd 9fe4 9dbd
000001d0: 097c 1abd b1c2 973b 9f08 db3d 0402 6b3b
000001e0: cdf6 65bd 3aac 5c3c f0de 3d3c 3851 2eb9
000001f0: d2b0 f83d b694 063e 955c 003e 1d2a 6e3d
00000200: 316b 3dbd d198 cb3d 8dc0 ee3d 6520 a7bc
00000210: ea43 bebd ab43 313d 000a 10bd e299 863d
00000220: abfa 17bf 0623 203d 98f9 963c c755 283f
00000230: 0fa3 79bd 0f90 abbd c180 fbbd 9aa9 c93c
00000240: f701 30bd d94f e23d 5ed5 0d3d 7842 853d
00000250: e247 153d 2f22 033e 22eb a7bd daa3 3a3d
00000260: 7c7b c03d 230d 09be 5885 c4bd 7e76 4c3d
00000270: 4313 fe3d d5ad 26bd 1da8 843d 878a da3d
00000280: 8900 073f 517b 12bd 712a 733d 2fa0 983a
00000290: 53d2 81bc e976 fa3d 95c6 9c3d f381 993d
000002a0: 2156 04be ca7c cdbd b697 e13d 724b 043d
000002b0: 5588 8a3c ed65 733d 82ec 7f3c 57e5 a2be
000002c0: 2067 08bd f27c a1bd 02c2 fc3d 0cc4 f73d
000002d0: ae64 bdbd 9fb9 b03d 9691 bcbd 7491 68be
000002e0: c77e 173d 435b dcbb 35b3 013e 77f3 ddbd
000002f0: 85b6 dabc 5c68 edbd 6ece b43e 4193 9e3b
00000300: c050 a73d bce9 443d 8079 2a3d 1f60 85bd
00000310: 9b4c 793d 9f98 bd3d dc31 ddbd ac66 c33f
00000320: 4c6b bfbc 260b f23d cd54 6ebd 7028 ddbd
00000330: a6e7 713d b395 03bd 4f45 313e f02d a2bd
00000340: 280c cfbd f4bb 03be 56b5 75bd 3ec0 683c
00000350: f54f efbd 4f94 173e 14fb c6bd 1feb 673b
00000360: b423 abbc 02f9 dd3c 4317 8fbd 4790 2d3d
00000370: bc39 02bc 2cbf d6bd 1a2b ae3d dd1b ad3d
00000380: 6cb1 063e b93e a4be 625b 28bf f670 a23d
00000390: f0e2 2e3d 4172 44bd fc65 f53c 4a3f b33d
000003a0: a8f4 993d df49 033e 1e2f b4bd 95b8 873d
000003b0: b43e b9bd b247 bdbd 8e47 113d 46ab 0abe
000003c0: 30e6 edbd bb04 56bc b1ed c4bd e1f0 73bd
000003d0: b268 4a3d 3b26 b6bd 8e77 1fbd 0d55 a83d
000003e0: 7678 843c 89b2 0abe 5ff8 a2bc fd53 d5bc
000003f0: f71d 7bbd 23dd 303e 7e73 953d 782d f83d
0.45986906 -0.04121122 0.057396986 0.06493166 0.0043345294 0.3784717 -0.09756728 0.037608318
0.008099217 -0.04317278 -0.04485562 0.02385129 -0.016096467 -0.00806512 0.11604224 -0.13046813
-0.05725001 -0.07156549 0.019716369 0.033809215 0.03537546 0.4853072 0.029590428 0.037147135
-0.08289275 0.10362237 -0.012409119 -0.12413914 -0.033194512 -0.12297727 -0.21125822 -0.065871075
0.017127182 -5.9805535e-07 -0.027599465 -0.17346138 0.089168094 0.11088595 -0.004671647 -0.120938934
-0.034950346 -0.119991876 -0.08388218 -0.1332483 -0.10283598 0.07355041 0.079296984 0.03747966
0.01832011 0.06790111 0.012538514 -0.00094149105 0.076771565 0.077772565 -0.13113579 0.042771585
0.076413214 -0.44832957 0.029879874 -0.04352535 0.09433791 -0.3778465 -0.065631464 -0.49279428
-0.047096446 0.024012338 -0.0011331266 0.08351714 -0.13405174 0.04868768 -0.09387769 0.07270414
0.11525414 0.0153317265 -0.12951118 -0.060151815 0.09265039 -0.03598872 0.058254648 0.008227256
0.005490621 0.068826064 0.10946343 0.072136514 -0.1077506 0.0032891298 -0.007248419 0.010167984
0.038255714 0.098521955 -0.12939546 -0.061650723 0.066666 0.0804454 -0.104429364 -0.1302506
0.0734801 0.13250257 0.11704542 0.13555117 0.063448176 0.10070551 0.32503593 0.07591626
-0.013838463 0.048902895 0.06684581 -0.094098166 0.017438294 -0.0067960434 -0.102014035 -0.12690306
-0.12968215 -0.91842014 -0.1061008 -0.07709622 -0.037715945 0.0046313633 0.10695004 0.0035859356
-0.05614357 0.013468796 0.011588797 -0.0001662419 0.12143101 0.13142666 0.12535317 0.05814563
-0.046244804 0.09941257 0.1165782 -0.02040119 -0.09290297 0.043277424 -0.035165787 0.065723196
-0.59366864 0.0390959 0.018429562 0.65755886 -0.06094652 -0.08377086 -0.12280417 0.024617005
-0.042970624 0.11050386 0.03462731 0.065068185 0.036445506 0.12806009 -0.08199145 0.045566417
0.09398553 -0.13383918 -0.09595746 0.04991769 0.12406018 -0.040693123 0.064773776 0.10670953
0.5273519 -0.035762135 0.059366647 0.0011644418 -0.01584736 0.122297116 0.07655064 0.07495489
-0.1292348 -0.10033567 0.11015265 0.032298513 0.016910711 0.059423376 0.015620353 -0.31815597
-0.033301473 -0.078851596 0.123416916 0.1209794 -0.09247719 0.086291544 -0.09207456 -0.22711736
0.03698614 -0.0067247464 0.12666018 -0.10837453 -0.02669836 -0.115921706 0.35313743 0.0048393314
0.08169699 0.04807447 0.041619778 -0.06512474 0.060864072 0.09257626 -0.108005255 1.5265708
-0.023366593 0.11818533 -0.05818634 -0.107987285 0.059058808 -0.032125186 0.17311595 -0.07918918
-0.101097405 -0.12864667 -0.05998739 0.01420599 -0.116851725 0.14802669 -0.09715858 0.0035387946
-0.020891048 0.027096275 -0.06986859 0.04237392 -0.007948335 -0.10485682 0.08504315 0.0845258
0.13153619 -0.32079104 -0.6576444 0.07931702 0.042696893 -0.047960524 0.029955857 0.08752306
0.075173676 0.12821148 -0.087980494 0.06627003 -0.09045163 -0.092421904 0.03546863 -0.13541898
-0.116161704 -0.013062651 -0.096156485 -0.059555892 0.04941625 -0.08894011 -0.038932376 0.08219347
0.016170722 -0.13544668 -0.019893823 -0.026041025 -0.061307874 0.17271857 0.07297419 0.121180475

module_list.2.fc.bias f4 [32]
00000000: 1f5f 20be 8f16 f4bd bc88 f9bc a142 823e
00000010: 1f23 e4bd 8717 853e 0140 bc3e 390b d63d
00000020: c615 5c3e ff14 5abe abaa 0f3e 929b 473e
00000030: 8cd5 77b9 cb6e 0abe ef5e 79bd bc7c 0abc
00000040: d093 aabe 9cda 16bc 1e0d 1d3d f416 b23d
00000050: 19f9 23bd 2d30 093e b32a d3bd fbbc 943d
00000060: b382 debd c2cb 4b3e c428 1b3e 3460 12bc
00000070: 5eca ca3d 2d9c cbbe ccd5 b43d c79f 8f3e
-0.15661286 -0.11918365 -0.030460708 0.2544146 -0.11139511 0.25994512 0.3676758 0.10451359
0.21492681 -0.21297072 0.14029948 0.19492939 -0.00023635308 -0.13518827 -0.06088155 -0.008452591
-0.33315897 -0.009207394 0.038342588 0.08695784 -0.04003248 0.13397284 -0.103108786 0.07262608
-0.10864773 0.19901946 0.1515227 -0.008934069 0.0990188 -0.3976759 0.08829841 0.28051588
