examples/jet_substructure/jsc_single_models/jsc-m/checkpoint.pth (torch, 169627 bytes, 99 tensors)

module_list.0.input_quant.pre_transforms.0.weight f4 [16]
0.3903999 0.45083764 0.74580353 2.9221723 0.69530636 0.32923687 0.41531232 0.49682313
0.3531043 0.3810318 0.33791924 0.52186143 0.44785795 0.49290577 2.1736174 0.35473287
00000000: 7fe2 c73e 31d4 e63e fbec 3e3f df04 3b40
00000010: 99ff 313f bc91 a83e d1a3 d43e 9a5f fe3e
00000020: 16ca b43e 9a16 c33e c003 ad3e b698 053f
00000030: a34d e53e 255e fc3e 8c1c 0b40 8c9f b53e

module_list.0.input_quant.pre_transforms.0.bias f4 [16]
-0.07931229 0.24516936 0.059667043 0.19953609 0.30628866 -0.22882599 0.118947536 0.2342726
-0.2190563 0.30348676 0.103857026 0.26910502 0.22509064 0.18980429 -0.27942386 -0.08135659
00000000: 7b6e a2bd ad0d 7b3e 6e65 743d 3053 4c3e
00000010: ded1 9c3e 5c51 6abe c49a f33d 28e5 6f3e
00000020: 4b50 60be 9e62 9b3e feb2 d43d 22c8 893e
00000030: 297e 663e 0e5c 423e a510 8fbe 499e a6bd

module_list.0.input_quant.pre_transforms.0.running_mean f4 [16]
0.0019796826 0.0045749936 -0.0033266433 -0.002112432 0.003624964 0.0047236015 0.010285409 0.011827629
0.010285409 0.00437436 -0.00039622883 -0.0020797318 0.0048346035 0.0034251772 -0.00037727426 -0.005768184
00000000: 90bd 013b d4e9 953b d003 5abb ba70 0abb
00000010: ce90 6d3b 71c8 9a3b 2284 283c acc8 413c
00000020: 2284 283c cb56 8f3b efbc cfb9 1c4c 08bb
00000030: 986b 9e3b f078 603b e5cc c5b9 0903 bdbb

module_list.0.input_quant.pre_transforms.0.running_var f4 [16]
0.98817563 0.97010237 0.9914161 0.9890493 1.000764 0.9988072 1.0023212 1.0204685
1.0023212 0.9983419 0.99386257 0.99369305 0.99909544 0.9988727 0.9986954 0.9935536
00000000: 14f9 7c3f a158 783f 72cd 7d3f 5632 7d3f
00000010: 0919 803f d4b1 7f3f 104c 803f b69e 823f
00000020: 104c 803f 5693 7f3f c76d 7e3f ab62 7e3f
00000030: b8c4 7f3f 1fb6 7f3f 80aa 7f3f 8759 7e3f

module_list.0.fc.weight f4 [64, 16]
0.061403327 -0.13786933 0.043765534 0.12787984 -0.018998817 -0.9151007 -0.0934119 -0.09014129
0.047937695 0.31709287 0.31687835 0.074129395 0.010393572 0.036077995 -0.13379328 0.1363718
0.123991415 -0.041358214 0.1544995 1.2452458 -0.1527032 0.25189754 -0.13445745 -0.06879681
0.09008812 -0.07735645 0.12629376 -0.14298145 -0.084579706 0.1213729 -0.28575912 -0.12095989
-0.15206507 0.14111178 -0.17475502 0.09186109 -0.6150187 -0.025922554 0.05330237 -0.009475679
-0.14588353 -0.07490825 -0.07675063 0.56406987 -0.14989586 0.07239421 -0.010535162 -0.0066713956
0.03575381 0.09431525 -0.103465155 -0.14683552 0.054161213 0.092021346 0.08691816 -0.36505285
0.34973088 -0.022560397 0.16127494 -0.072638616 0.03468096 -0.040113997 0.043813895 -1.6050866
-0.02986904 0.10603712 -0.0658752 -0.014071897 -0.098115146 -0.15933196 -0.0020466044 0.13075931
-0.23332661 -0.0936539 0.09167696 0.052815452 0.05359866 0.00873109 -1.8576714 -0.12309384
-0.08508532 -0.08514486 -0.032411687 0.00041263545 -0.119583026 0.4725383 0.028215965 0.12612069
-0.092855625 0.049712494 0.12686512 0.12010661 -0.059625052 -0.24300708 -3.3916998 -0.012766144
0.6890919 -0.12696066 -0.0021416005 0.16964412 0.019978406 -0.15591043 0.14076748 0.11932789
0.13771582 -0.04505168 0.057560485 -0.3963095 0.5998415 0.025586959 0.083704926 0.12172928
0.14893654 -0.08819634 -0.08003045 0.037747726 0.3860037 -0.060757596 0.10243906 -0.034424435
-0.12435281 -0.022955505 0.09005257 0.109243065 -0.040387828 0.11177846 -1.3647864 -0.14234373
0.030857382 0.049986213 0.033942062 -0.0207121 0.02690639 -0.1623855 0.048036225 0.028661374
0.12995242 -0.13801698 -0.05035076 -0.42765188 0.07553264 0.05493818 0.040927563 0.8148216
0.15820561 -0.13236621 -0.072766 0.05696244 0.033844557 -0.011337441 0.12429506 0.10005417
0.14280008 0.04110012 0.07773249 -0.10994941 0.101224236 0.06105903 0.07983669 0.026584031
-0.0844739 0.06884836 0.13527311 0.010287425 -0.02204521 -0.1681678 0.3675781 0.022877408
-0.41792506 -0.13945809 0.30640206 -0.7824174 -0.13441461 -0.04591531 -0.12319661 -0.075669
0.16595276 -0.11204921 0.12054905 0.048544735 0.39168355 -0.040634096 0.74625313 -0.029591402
0.044686086 -0.014781628 0.36961254 -0.12081895 -0.16485001 -0.32584965 0.0058770454 0.13021456
0.0350237 -0.056676768 -0.025460446 0.60887 -0.16294697 -0.010269048 0.13741861 0.1589244
0.03709951 0.007091242 -0.120156266 0.04623045 -0.054709412 -0.16716744 -0.07764736 0.9391405
0.5427136 -0.09579092 0.35249287 -0.109104685 0.07264797 -0.85361207 0.15690656 0.08819647
0.10882788 -0.15996096 0.09608847 0.09045238 0.15799521 -0.014128999 0.12252495 -0.07448922
0.024871076 0.12890837 0.1381946 1.3028982 -0.09508288 -0.069665626 0.0064577092 0.30824262
0.13564093 0.11343318 0.053916726 -0.014670778 -0.1796046 0.20266055 -0.038642712 0.08844974
-0.07476165 -0.10938883 0.1300284 -0.04247048 0.016437989 0.028211199 -0.041872356 0.23253681
-0.16463506 0.14208795 0.01264539 -0.5100338 -0.14491065 -0.11032823 0.053066604 0.7859189
00000000: 0e82 7b3d 9e2d 0dbe 7d43 333d eff2 023e
00000010: 68a3 9bbc 0a44 6abf bd4e bfbd ff9b b8bd
00000020: 515a 443d ff59 a23e e13d a23e 27d1 973d
00000030: cd49 2a3c 85c6 133d 1b01 09be 0da5 0b3e
00000040: 36ef fd3d 3b67 29bd 1e35 1e3e 3764 9f3f
00000050: 3a5e 1cbe b7f8 803e 37af 09be 58e5 8cbd
00000060: 1f80 b83d 0f6d 9ebd 2753 013e bb69 12be
00000070: 2038 adbd 5b92 f83d 054f 92be d2b9 f7bd
00000080: f2b6 1bbe 9b7f 103e fbf2 32be ab21 bc3d
00000090: de71 1dbf 895b d4bc 9653 5a3d e13f 1bbc
000000a0: 7e62 15be 7f69 99bd 6f2f 9dbd e266 103f
000000b0: 4d7e 19be 6a43 943d ac9b 2cbc b99b dabb
000000c0: 9672 123d 5b28 c13d 8ae5 d3bd 0d5c 16be
000000d0: 26d8 5d3d b075 bc3d 2602 b23d 35e8 babe
000000e0: ed0f b33e 95d0 b8bc 4225 253e 8ec3 94bd
000000f0: 9f0d 0e3d 934e 24bd 3376 333d 7a73 cdbf
00000100: ebaf f4bc fd29 d93d 94e9 86bd d08d 66bc
00000110: 98f0 c8bd eb27 23be 5320 06bb c5e5 053e
00000120: 2ced 6ebe 9ecd bfbd 21c1 bb3d 0455 583d
00000130: 458a 5b3d d90c 0f3c 2dc8 edbf a018 fcbd
00000140: 3641 aebd 6e60 aebd 1ec2 04bd fe56 d839
00000150: f2e7 f4bd 8af0 f13e 2b25 e73c c825 013e
00000160: 172b bebd 549f 4b3d eee8 013e 74fa f53d
00000170: 6639 74bd d9d6 78be 9c11 59c0 1729 51bc
00000180: 5468 303f fa01 02be 185a 0cbb 30b7 2d3e
00000190: c1a9 a33c fca6 1fbe 5a25 103e 2e62 f43d
000001a0: 6005 0d3e 1c88 38bd 8bc4 6b3d 14e9 cabe
000001b0: 368f 193f be9b d13c 7d6d ab3d 334d f93d
000001c0: d282 183e 48a0 b4bd 01e7 a3bd 5c9d 1a3d
000001d0: 47a2 c53e f5dc 78bd 92cb d13d a300 0dbd
000001e0: b0ac febd 2f0d bcbc 7b6d b83d d4ba df3d
000001f0: b56d 25bd 1bec e43d 52b1 aebf 8ec2 11be
00000200: 9fc8 fc3c 58be 4c3d d506 0b3d 6cac a9bc
00000210: ca6a dc3c 6248 26be a2c1 443d 42cb ea3c
00000220: 3f12 053e 5354 0dbe 993c 4ebd 30f5 dabe
00000230: dbb0 9a3d db06 613d a9a3 273d 2698 503f
00000240: a700 223e 028b 07be 5706 95bd 7351 693d
00000250: 97a0 0a3d adc0 39bc 698e fe3d 33e9 cc3d
00000260: 2f3a 123e 9958 283d 3632 9f3d 282d e1bd
00000270: a74e cf3d 0919 7a3d 6b81 a33d c1c6 d93c
00000280: a700 adbd 5e00 8d3d 0985 0a3e 968c 283c
00000290: 2898 b4bc 2e34 2cbe 3233 bc3e 6769 bb3c
000002a0: 46fa d5be 1ace 0ebe bbe0 9c3e 824c 48bf
000002b0: fca3 09be b111 3cbd 814e fcbd 59f8 9abd
000002c0: 85ef 293e 0e7a e5bd 6ce2 f63d d8d6 463d
000002d0: bf8a c83e f06f 26bd 720a 3f3f ab69 f2bc
000002e0: c208 373d a42e 72bc db3d bd3e ed6f f7bd
000002f0: 71ce 28be c4d5 a6be 3b94 c03b f756 053e
00000300: 0375 0f3d e625 68bd 6d92 d0bc e8de 1b3f
00000310: 92db 26be 823f 28bc 77b7 0c3e 14bd 223e
00000320: a8f5 173d a65d e83b 7d14 f6bd 245c 3d3d
00000330: fa16 60bd f12d 2bbe 9405 9fbd 836b 703f
00000340: 47ef 0a3f 082e c4bd f279 b43e 4772 dfbd
00000350: 75c8 943d 5286 5abf 1dac 203e 5aa0 b43d
00000360: 27e1 de3d cecc 23be 08ca c43d 193f b93d
00000370: 7fc9 213e 517d 67bc 5cee fa3d ce8d 98bd
00000380: 6dbe cb3c 8e00 043e e382 0d3e 5ec5 a63f
00000390: d0ba c2bd daac 8ebd 319b d33b fad1 9d3e
000003a0: 75e5 0a3e a84f e83d c9d7 5c3d b45d 70bc
000003b0: 45ea 37be 3f86 4f3e d247 1ebd 2325 b53d
000003c0: a31c 99bd 4007 e0bd 2a26 053e 87f5 2dbd
000003d0: f6a8 863c 2c1b e73c 5982 2bbd 211e 6e3e
000003e0: 1896 28be 817f 113e 9c2e 4f3c 9391 02bf
000003f0: 7563 14be c4f3 e1bd 5e5c 593d fb31 493f

module_list.0.fc.bias f4 [64]
0.10919904 0.09369946 0.052974816 -0.034645893 0.058292445 -0.4842358 -0.10215429 0.093614586
0.20831741 0.09184021 0.35406736 -0.23468906 -0.4211238 -0.030050782 0.3848705 0.04611922
0.47254288 -0.19627947 0.27716893 -0.01747681 -0.1345249 0.27247158 0.2738688 0.19625024
0.051033814 0.08904901 -0.0023957149 0.06512808 -0.20679978 0.071343124 -0.19679175 -0.16077782
0.264947 0.19603717 -0.16902238 -0.07329438 -0.17669676 -0.03201683 0.17559074 -0.21289404
0.18723735 0.1730937 -0.27179918 -0.33361122 0.29357445 -0.09190788 -0.049616683 0.103817955
0.23162101 0.12365922 -0.29067412 -0.18141605 -0.17777106 -0.01912189 -0.009223634 0.5307339
-0.08676651 0.1565691 -0.008262512 0.2126708 0.03860348 0.36277714 0.04084766 -0.05719061
00000000: bfa3 df3d 81e5 bf3d 1ffc 583d dae8 0dbd
00000010: 0fc4 6e3d c1ed f7be 4536 d1bd 01b9 bf3d
00000020: 2951 553e b816 bc3d 5148 b53e 5452 70be
00000030: 8a9d d7be 0f2d f6bc bf0d c53e 82e7 3c3d
00000040: 24f1 f13e 7cfd 48be 16e9 8d3e 872b 8fbc
00000050: e5c0 09be 6581 8b3e 8838 8c3e d3f5 483e
00000060: d508 513d 545f b63d 6d01 1dbb df61 853d
00000070: 52c3 53be 581c 923d c783 49be f1a2 24be
00000080: 22a7 873e f8bd 483e 3414 2dbe 5d1b 96bd
00000090: ffef 34be 1424 03bd 0fce 333e e500 5abe
000000a0: 26bb 3f3e 7a3f 313e 4329 8bbe 17cf aabe
000000b0: 644f 963e 333a bcbd dd3a 4bbd 829e d43d
000000c0: 0f2e 6d3e 0c41 fd3d 3dd3 94be 21c5 39be
000000d0: 9e09 36be 83a5 9cbc ba1e 17bc 2dde 073f
000000e0: a4b2 b1bd a653 203e 7d5f 07bc 60c6 593e
000000f0: af1e 1e3d edbd b93e e04f 273d b340 6abd

module_list.0.fc.mask.mask f4 [64, 16]
0.0 0.0 0.0 0.0 0.0 1.0 1.0 0.0
0.0 1.0 1.0 0.0 0.0 0.0 0.0 0.0
0.0 1.0 0.0 1.0 0.0 1.0 0.0 0.0
0.0 0.0 0.0 0.0 0.0 0.0 1.0 0.0
1.0 0.0 1.0 0.0 1.0 0.0 0.0 0.0
0.0 0.0 0.0 1.0 0.0 0.0 0.0 0.0
0.0 0.0 1.0 0.0 0.0 0.0 0.0 1.0
1.0 0.0 0.0 0.0 0.0 0.0 0.0 1.0
0.0 0.0 0.0 0.0 0.0 0.0 0.0 0.0
1.0 1.0 0.0 0.0 1.0 0.0 1.0 0.0
0.0 0.0 0.0 0.0 0.0 1.0 0.0 0.0
0.0 1.0 0.0 0.0 0.0 1.0 1.0 0.0
1.0 0.0 0.0 0.0 1.0 0.0 0.0 0.0
0.0 0.0 0.0 1.0 1.0 0.0 0.0 0.0
0.0 0.0 1.0 0.0 1.0 0.0 0.0 1.0
0.0 0.0 0.0 0.0 0.0 0.0 1.0 0.0
0.0 0.0 0.0 0.0 1.0 0.0 0.0 0.0
1.0 0.0 0.0 1.0 0.0 0.0 0.0 1.0
0.0 1.0 0.0 0.0 0.0 1.0 0.0 0.0
1.0 0.0 0.0 0.0 1.0 0.0 0.0 0.0
0.0 0.0 0.0 0.0 0.0 0.0 1.0 0.0
1.0 0.0 1.0 1.0 0.0 0.0 0.0 0.0
0.0 0.0 0.0 0.0 1.0 0.0 1.0 0.0
0.0 0.0 1.0 0.0 0.0 1.0 0.0 0.0
0.0 0.0 0.0 1.0 1.0 0.0 0.0 0.0
0.0 0.0 0.0 1.0 0.0 0.0 0.0 1.0
1.0 0.0 1.0 0.0 0.0 1.0 0.0 0.0
0.0 0.0 0.0 1.0 0.0 0.0 0.0 0.0
0.0 0.0 0.0 1.0 0.0 0.0 0.0 1.0
0.0 0.0 0.0 0.0 1.0 1.0 0.0 0.0
0.0 0.0 0.0 0.0 0.0 0.0 0.0 1.0
0.0 0.0 0.0 1.0 0.0 1.0 0.0 1.0
00000000: 0000 0000 0000 0000 0000 0000 0000 0000
00000010: 0000 0000 0000 803f 0000 803f 0000 0000
00000020: 0000 0000 0000 803f 0000 803f 0000 0000
00000030: 0000 0000 0000 0000 0000 0000 0000 0000
00000040: 0000 0000 0000 803f 0000 0000 0000 803f
00000050: 0000 0000 0000 803f 0000 0000 0000 0000
00000060: 0000 0000 0000 0000 0000 0000 0000 0000
00000070: 0000 0000 0000 0000 0000 803f 0000 0000
00000080: 0000 803f 0000 0000 0000 803f 0000 0000
00000090: 0000 803f 0000 0000 0000 0000 0000 0000
000000a0: 0000 0000 0000 0000 0000 0000 0000 803f
000000b0: 0000 0000 0000 0000 0000 0000 0000 0000
000000c0: 0000 0000 0000 0000 0000 803f 0000 0000
000000d0: 0000 0000 0000 0000 0000 0000 0000 803f
000000e0: 0000 803f 0000 0000 0000 0000 0000 0000
000000f0: 0000 0000 0000 0000 0000 0000 0000 803f
00000100: 0000 0000 0000 0000 0000 0000 0000 0000
00000110: 0000 0000 0000 0000 0000 0000 0000 0000
00000120: 0000 803f 0000 803f 0000 0000 0000 0000
00000130: 0000 803f 0000 0000 0000 803f 0000 0000
00000140: 0000 0000 0000 0000 0000 0000 0000 0000
00000150: 0000 0000 0000 803f 0000 0000 0000 0000
00000160: 0000 0000 0000 803f 0000 0000 0000 0000
00000170: 0000 0000 0000 803f 0000 803f 0000 0000
00000180: 0000 803f 0000 0000 0000 0000 0000 0000
00000190: 0000 803f 0000 0000 0000 0000 0000 0000
000001a0: 0000 0000 0000 0000 0000 0000 0000 803f
000001b0: 0000 803f 0000 0000 0000 0000 0000 0000
000001c0: 0000 0000 0000 0000 0000 803f 0000 0000
000001d0: 0000 803f 0000 0000 0000 0000 0000 803f
000001e0: 0000 0000 0000 0000 0000 0000 0000 0000
000001f0: 0000 0000 0000 0000 0000 803f 0000 0000
00000200: 0000 0000 0000 0000 0000 0000 0000 0000
00000210: 0000 803f 0000 0000 0000 0000 0000 0000
00000220: 0000 803f 0000 0000 0000 0000 0000 803f
00000230: 0000 0000 0000 0000 0000 0000 0000 803f
00000240: 0000 0000 0000 803f 0000 0000 0000 0000
00000250: 0000 0000 0000 803f 0000 0000 0000 0000
00000260: 0000 803f 0000 0000 0000 0000 0000 0000
00000270: 0000 803f 0000 0000 0000 0000 0000 0000
00000280: 0000 0000 0000 0000 0000 0000 0000 0000
00000290: 0000 0000 0000 0000 0000 803f 0000 0000
000002a0: 0000 803f 0000 0000 0000 803f 0000 803f
000002b0: 0000 0000 0000 0000 0000 0000 0000 0000
000002c0: 0000 0000 0000 0000 0000 0000 0000 0000
000002d0: 0000 803f 0000 0000 0000 803f 0000 0000
000002e0: 0000 0000 0000 0000 0000 803f 0000 0000
000002f0: 0000 0000 0000 803f 0000 0000 0000 0000
00000300: 0000 0000 0000 0000 0000 0000 0000 803f
00000310: 0000 803f 0000 0000 0000 0000 0000 0000
00000320: 0000 0000 0000 0000 0000 0000 0000 803f
00000330: 0000 0000 0000 0000 0000 0000 0000 803f
00000340: 0000 803f 0000 0000 0000 803f 0000 0000
00000350: 0000 0000 0000 803f 0000 0000 0000 0000
00000360: 0000 0000 0000 0000 0000 0000 0000 803f
00000370: 0000 0000 0000 0000 0000 0000 0000 0000
00000380: 0000 0000 0000 0000 0000 0000 0000 803f
00000390: 0000 0000 0000 0000 0000 0000 0000 803f
000003a0: 0000 0000 0000 0000 0000 0000 0000 0000
000003b0: 0000 803f 0000 803f 0000 0000 0000 0000
000003c0: 0000 0000 0000 0000 0000 0000 0000 0000
000003d0: 0000 0000 0000 0000 0000 0000 0000 803f
000003e0: 0000 0000 0000 0000 0000 0000 0000 803f
000003f0: 0000 0000 0000 803f 0000 0000 0000 803f

module_list.0.output_quant.pre_transforms.0.weight f4 [64]
0.29482588 0.93810594 0.35026962 0.37965184 0.4522384 0.8782263 0.41491362 0.33639795
0.340311 0.67905605 0.70707774 0.44845095 0.8448894 0.3457457 0.44598052 0.38885507
0.3258861 1.2309654 0.3714296 1.451194 2.4854047 0.2057247 1.6900271 1.6254592
1.1587232 0.67905605 0.9385601 0.6797796 1.6193774 0.67905605 0.6629166 0.42653567
0.28241953 0.67905605 0.3938343 0.52871007 0.3535763 0.6813798 0.8703182 0.67899615
0.67905605 0.280236 0.76967895 0.47647038 0.82083404 0.26466647 0.7369831 0.51325303
0.9739842 1.025455 0.40063223 0.27119756 0.67905605 0.5674909 0.35672683 2.6853468
0.67905605 0.5024542 0.46196032 0.67905605 0.53859925 0.7928247 0.5369152 0.40635082
00000000: 6bf3 963e b627 703f 8a56 b33e ba61 c23e
00000010: cb8b e73e 70d3 603f 8f6f d43e 5a3c ac3e
00000020: 3e3d ae3e 9ed6 2d3f 0c03 353f 5d9b e53e
00000030: ac4a 583f 9505 b13e 8f57 e43e 0318 c73e
00000040: 8bda a63e 4690 9d3f 052c be3e bac0 b93f
00000050: df10 1f40 7fa9 523e cf52 d83f 0c0f d03f
00000060: 0b51 943f 9ed6 2d3f 7a45 703f 0906 2e3f
00000070: c247 cf3f 9ed6 2d3f e7b4 293f e262 da3e
00000080: 4b99 903e 9ed6 2d3f a6a4 c93e 8b59 073f
00000090: f407 b53e e86e 2e3f 2ccd 5e3f b1d2 2d3f
000000a0: 9ed6 2d3f 187b 8f3e ae09 453f edf3 f33e
000000b0: 2e22 523f 5d82 873e edaa 3c3f 8d64 033f
000000c0: 0757 793f 1c42 833f ab1f cd3e 68da 8a3e
000000d0: 9ed6 2d3f 1547 113f e6a4 b63e b9dc 2b40
000000e0: 9ed6 2d3f d7a0 003f 1086 ec3e 9ed6 2d3f
000000f0: a4e1 093f 8ff6 4a3f 4673 093f 370d d03e

module_list.0.output_quant.pre_transforms.0.bias f4 [64]
0.70209825 0.5485359 0.099859245 0.29201895 0.32216522 -0.2090678 0.7253179 0.25012806
-0.2251257 0.0 -0.38927847 -0.25035194 0.5646185 0.5669858 0.18240145 0.20534164
0.2776586 -0.21270795 -0.17117035 0.28663304 -1.2561479 0.12906791 -1.0721674 0.16041027
-0.017911345 0.0 -0.39355972 -0.6342151 -1.6618124 0.0 -0.35924968 0.85072446
0.22694993 0.0 0.09477269 0.6121106 0.35139716 -0.26868486 -1.4204187 -0.83678365
0.0 0.30362785 0.36687398 -0.13718756 0.10955825 0.43992615 -0.25861338 -0.30098534
-0.05323832 -0.922614 0.25142875 0.23081775 0.0 0.09355492 0.21541072 -1.151248
0.0 0.26885584 0.16396135 0.0 0.5957428 0.114624284 -0.6243529 0.66665494
00000000: b6bc 333f d96c 0c3f 0183 cc3d 8283 953e
00000010: d7f2 a43e df15 56be 6fae 393f c910 803e
00000020: 5a87 66be 0000 0000 824f c7be 212e 80be
00000030: d78a 103f fb25 113f 72c7 3a3e 1445 523e
00000040: 4529 8e3e 1dd0 59be 4847 2fbe 91c1 923e
00000050: 74c9 a0bf 612a 043e c83c 89bf 9742 243e
00000060: d0ba 92bc 0000 0000 a980 c9be ec5b 22bf
00000070: 45b6 d4bf 0000 0000 93ef b7be 14c9 593f
00000080: 9065 683e 0000 0000 2f18 c23d 48b3 1c3f
00000090: 54ea b33e 1091 89be 48d0 b5bf 7437 56bf
000000a0: 0000 0000 1c75 9b3e e8d6 bb3e e57a 0cbe
000000b0: 1360 e03d 003e e13e f968 84be c01a 9abe
000000c0: 6d10 5abd 6e30 6cbf 45bb 803e 7d5b 6c3e
000000d0: 0000 0000 b999 bf3d a194 5c3e 185c 93bf
000000e0: 0000 0000 79a7 893e 7ce5 273e 0000 0000
000000f0: 9a82 183f 23c0 ea3d 97d5 1fbf e6a9 2a3f

module_list.0.output_quant.pre_transforms.0.running_mean f4 [64]
0.5218537 -0.3270527 0.15070203 0.35830617 0.50687414 -0.024610095 -0.28926235 0.3480935
-0.0796246 0.032400925 0.45987722 -0.37938884 -0.872724 0.15139872 -0.019469704 -0.18282881
0.58217466 -0.6479434 -0.014556966 0.4020497 0.40679806 0.035036787 0.56755245 0.7741281
0.21193668 0.056874927 0.05093134 -0.20623131 -0.698497 0.058454655 -0.47183672 -0.034976937
0.061872937 0.25321022 -0.52257484 -0.039196506 -0.31229416 -0.6205385 -0.07896571 -0.45503798
0.16024856 0.26541257 -0.7590801 -0.26939568 0.50235194 0.27019447 0.04765608 0.23870543
-0.33335984 -0.2891476 -0.2899866 -0.55819213 -0.1426839 -0.05714984 -0.09680317 0.93736184
-0.17467418 0.18642321 0.49582726 0.11651301 0.3496126 0.2954949 -0.53705734 0.19077857
00000000: 3498 053f 7473 a7be a251 1a3e e873 b73e
00000010: 81c2 013f 1c9b c9bc 321a 94be 5039 b23e
00000020: 3912 a3bd d5b6 043d 0775 eb3e 413f c2be
00000030: d76a 5fbf 4408 1b3e ee7e 9fbc 7a37 3bbe
00000040: 6609 153f 9edf 25bf 5780 6ebc 75d9 cd3e
00000050: d647 d03e bc82 0f3d 1e4b 113f 422d 463f
00000060: ee05 593e aff5 683d 619d 503d 4d2e 53be
00000070: b3d0 32bf 266e 6f3d 9594 f1be fa43 0fbd
00000080: 7a6e 7d3d c5a4 813e 77c7 05bf 848c 20bd
00000090: 05e5 9fbe 9cdb 1ebf c6b8 a1bd bdfa e8be
000000a0: 3318 243e 28e4 873e 1353 42bf 3bee 89be
000000b0: 239a 003f ee56 8a3e 0633 433d 326f 743e
000000c0: 24ae aabe 270b 94be 2079 94be aee5 0ebf
000000d0: ba1b 12be f315 6abd be40 c6bd f2f6 6f3f
000000e0: cadd 32be bae5 3e3e 12dd fd3e 5f9e ee3d
000000f0: 6c00 b33e 1c4b 973e 977c 09bf 755b 433e

module_list.0.output_quant.pre_transforms.0.running_var f4 [64]
0.08971524 0.26295766 0.16276053 0.32365364 0.7203398 2.1186802 0.04713167 0.29510924
0.0706081 0.0062747714 0.045304775 0.09610017 0.20849888 0.06967815 0.37006703 0.06927582
0.03032937 0.24149032 0.14877094 0.21291403 0.84287953 0.008467408 0.107609056 0.24830842
0.29627728 0.0021147393 0.066551395 0.1090969 1.0592978 0.0005980899 0.07317696 0.13725881
0.010460036 0.0023507918 0.34880683 0.100851245 0.12426231 0.41728824 0.31086338 0.049831413
0.0037536216 0.07373254 1.3231847 0.15041547 0.10552076 0.111598246 0.11360285 0.07769185
1.5423265 0.61219007 0.08412522 0.049027093 0.002126306 0.01283041 0.025543481 0.5314635
0.0033470278 0.09615084 0.09469313 0.0028086673 0.10842561 0.13873169 0.36435646 0.037125017
00000000: a0bc b73d 63a2 863e b2aa 263e eeb5 a53e
00000010: 3068 383f 7598 0740 230d 413d 8f18 973e
00000020: fb9a 903d 999c cd3b 8091 393d 2ad0 c43d
00000030: bb80 553e 6bb3 8e3d 6d79 bd3e 7be0 8d3d
00000040: 4d75 f83c 3d49 773e 6957 183e 2306 5a3e
00000050: f4c6 573f e2ba 0a3c 2362 dc3d 9044 7e3e
00000060: a8b1 973e 7097 0a3b 194c 883d 326e df3d
00000070: 1297 873f 22c9 1c3a cddd 953d 938d 0c3e
00000080: 9260 2b3c be0f 1a3b cf96 b23e 198b ce3d
00000090: 3d7d fe3d cea6 d53e 7c29 9f3e 061c 4c3d
000000a0: 52ff 753b 1601 973d 1e5e a93f 8306 1a3e
000000b0: 451b d83d 9f8d e43d 9ca8 e83d e81c 9f3d
000000c0: f46a c53f 7db8 1c3f d849 ac3d a2d0 483d
000000d0: 7f59 0b3b a436 523c 9040 d13c fe0d 083f
000000e0: cf59 5b3b bbea c43d 79ee c13d 9e11 383b
000000f0: 3f0e de3d ae0f 0e3e ee8c ba3e 6710 183d

module_list.1.input_quant.pre_transforms.0.weight f4 [64]
0.29482588 0.93810594 0.35026962 0.37965184 0.4522384 0.8782263 0.41491362 0.33639795
0.340311 0.67905605 0.70707774 0.44845095 0.8448894 0.3457457 0.44598052 0.38885507
0.3258861 1.2309654 0.3714296 1.451194 2.4854047 0.2057247 1.6900271 1.6254592
1.1587232 0.67905605 0.9385601 0.6797796 1.6193774 0.67905605 0.6629166 0.42653567
0.28241953 0.67905605 0.3938343 0.52871007 0.3535763 0.6813798 0.8703182 0.67899615
0.67905605 0.280236 0.76967895 0.47647038 0.82083404 0.26466647 0.7369831 0.51325303
0.9739842 1.025455 0.40063223 0.27119756 0.67905605 0.5674909 0.35672683 2.6853468
0.67905605 0.5024542 0.46196032 0.67905605 0.53859925 0.7928247 0.5369152 0.40635082
00000000: 6bf3 963e b627 703f 8a56 b33e ba61 c23e
00000010: cb8b e73e 70d3 603f 8f6f d43e 5a3c ac3e
00000020: 3e3d ae3e 9ed6 2d3f 0c03 353f 5d9b e53e
00000030: ac4a 583f 9505 b13e 8f57 e43e 0318 c73e
00000040: 8bda a63e 4690 9d3f 052c be3e bac0 b93f
00000050: df10 1f40 7fa9 523e cf52 d83f 0c0f d03f
00000060: 0b51 943f 9ed6 2d3f 7a45 703f 0906 2e3f
00000070: c247 cf3f 9ed6 2d3f e7b4 293f e262 da3e
00000080: 4b99 903e 9ed6 2d3f a6a4 c93e 8b59 073f
00000090: f407 b53e e86e 2e3f 2ccd 5e3f b1d2 2d3f
000000a0: 9ed6 2d3f 187b 8f3e ae09 453f edf3 f33e
000000b0: 2e22 523f 5d82 873e edaa 3c3f 8d64 033f
000000c0: 0757 793f 1c42 833f ab1f cd3e 68da 8a3e
000000d0: 9ed6 2d3f 1547 113f e6a4 b63e b9dc 2b40
000000e0: 9ed6 2d3f d7a0 003f 1086 ec3e 9ed6 2d3f
000000f0: a4e1 093f 8ff6 4a3f 4673 093f 370d d03e

module_list.1.input_quant.pre_transforms.0.bias f4 [64]
0.70209825 0.5485359 0.099859245 0.29201895 0.32216522 -0.2090678 0.7253179 0.25012806
-0.2251257 0.0 -0.38927847 -0.25035194 0.5646185 0.5669858 0.18240145 0.20534164
0.2776586 -0.21270795 -0.17117035 0.28663304 -1.2561479 0.12906791 -1.0721674 0.16041027
-0.017911345 0.0 -0.39355972 -0.6342151 -1.6618124 0.0 -0.35924968 0.85072446
0.22694993 0.0 0.09477269 0.6121106 0.35139716 -0.26868486 -1.4204187 -0.83678365
0.0 0.30362785 0.36687398 -0.13718756 0.10955825 0.43992615 -0.25861338 -0.30098534
-0.05323832 -0.922614 0.25142875 0.23081775 0.0 0.09355492 0.21541072 -1.151248
0.0 0.26885584 0.16396135 0.0 0.5957428 0.114624284 -0.6243529 0.66665494
00000000: b6bc 333f d96c 0c3f 0183 cc3d 8283 953e
00000010: d7f2 a43e df15 56be 6fae 393f c910 803e
00000020: 5a87 66be 0000 0000 824f c7be 212e 80be
00000030: d78a 103f fb25 113f 72c7 3a3e 1445 523e
00000040: 4529 8e3e 1dd0 59be 4847 2fbe 91c1 923e
00000050: 74c9 a0bf 612a 043e c83c 89bf 9742 243e
00000060: d0ba 92bc 0000 0000 a980 c9be ec5b 22bf
00000070: 45b6 d4bf 0000 0000 93ef b7be 14c9 593f
00000080: 9065 683e 0000 0000 2f18 c23d 48b3 1c3f
00000090: 54ea b33e 1091 89be 48d0 b5bf 7437 56bf
000000a0: 0000 0000 1c75 9b3e e8d6 bb3e e57a 0cbe
000000b0: 1360 e03d 003e e13e f968 84be c01a 9abe
000000c0: 6d10 5abd 6e30 6cbf 45bb 803e 7d5b 6c3e
000000d0: 0000 0000 b999 bf3d a194 5c3e 185c 93bf
000000e0: 0000 0000 79a7 893e 7ce5 273e 0000 0000
000000f0: 9a82 183f 23c0 ea3d 97d5 1fbf e6a9 2a3f

module_list.1.input_quant.pre_transforms.0.running_mean f4 [64]
0.5218537 -0.3270527 0.15070203 0.35830617 0.50687414 -0.024610095 -0.28926235 0.3480935
-0.0796246 0.032400925 0.45987722 -0.37938884 -0.872724 0.15139872 -0.019469704 -0.18282881
0.58217466 -0.6479434 -0.014556966 0.4020497 0.40679806 0.035036787 0.56755245 0.7741281
0.21193668 0.056874927 0.05093134 -0.20623131 -0.698497 0.058454655 -0.47183672 -0.034976937
0.061872937 0.25321022 -0.52257484 -0.039196506 -0.31229416 -0.6205385 -0.07896571 -0.45503798
0.16024856 0.26541257 -0.7590801 -0.26939568 0.50235194 0.27019447 0.04765608 0.23870543
-0.33335984 -0.2891476 -0.2899866 -0.55819213 -0.1426839 -0.05714984 -0.09680317 0.93736184
-0.17467418 0.18642321 0.49582726 0.11651301 0.3496126 0.2954949 -0.53705734 0.19077857
00000000: 3498 053f 7473 a7be a251 1a3e e873 b73e
00000010: 81c2 013f 1c9b c9bc 321a 94be 5039 b23e
00000020: 3912 a3bd d5b6 043d 0775 eb3e 413f c2be
00000030: d76a 5fbf 4408 1b3e ee7e 9fbc 7a37 3bbe
00000040: 6609 153f 9edf 25bf 5780 6ebc 75d9 cd3e
00000050: d647 d03e bc82 0f3d 1e4b 113f 422d 463f
00000060: ee05 593e aff5 683d 619d 503d 4d2e 53be
00000070: b3d0 32bf 266e 6f3d 9594 f1be fa43 0fbd
00000080: 7a6e 7d3d c5a4 813e 77c7 05bf 848c 20bd
00000090: 05e5 9fbe 9cdb 1ebf c6b8 a1bd bdfa e8be
000000a0: 3318 243e 28e4 873e 1353 42bf 3bee 89be
000000b0: 239a 003f ee56 8a3e 0633 433d 326f 743e
000000c0: 24ae aabe 270b 94be 2079 94be aee5 0ebf
000000d0: ba1b 12be f315 6abd be40 c6bd f2f6 6f3f
000000e0: cadd 32be bae5 3e3e 12dd fd3e 5f9e ee3d
000000f0: 6c00 b33e 1c4b 973e 977c 09bf 755b 433e

module_list.1.input_quant.pre_transforms.0.running_var f4 [64]
0.08971524 0.26295766 0.16276053 0.32365364 0.7203398 2.1186802 0.04713167 0.29510924
0.0706081 0.0062747714 0.045304775 0.09610017 0.20849888 0.06967815 0.37006703 0.06927582
0.03032937 0.24149032 0.14877094 0.21291403 0.84287953 0.008467408 0.107609056 0.24830842
0.29627728 0.0021147393 0.066551395 0.1090969 1.0592978 0.0005980899 0.07317696 0.13725881
0.010460036 0.0023507918 0.34880683 0.100851245 0.12426231 0.41728824 0.31086338 0.049831413
0.0037536216 0.07373254 1.3231847 0.15041547 0.10552076 0.111598246 0.11360285 0.07769185
1.5423265 0.61219007 0.08412522 0.049027093 0.002126306 0.01283041 0.025543481 0.5314635
0.0033470278 0.09615084 0.09469313 0.0028086673 0.10842561 0.13873169 0.36435646 0.037125017
00000000: a0bc b73d 63a2 863e b2aa 263e eeb5 a53e
00000010: 3068 383f 7598 0740 230d 413d 8f18 973e
00000020: fb9a 903d 999c cd3b 8091 393d 2ad0 c43d
00000030: bb80 553e 6bb3 8e3d 6d79 bd3e 7be0 8d3d
00000040: 4d75 f83c 3d49 773e 6957 183e 2306 5a3e
00000050: f4c6 573f e2ba 0a3c 2362 dc3d 9044 7e3e
00000060: a8b1 973e 7097 0a3b 194c 883d 326e df3d
00000070: 1297 873f 22c9 1c3a cddd 953d 938d 0c3e
00000080: 9260 2b3c be0f 1a3b cf96 b23e 198b ce3d
00000090: 3d7d fe3d cea6 d53e 7c29 9f3e 061c 4c3d
000000a0: 52ff 753b 1601 973d 1e5e a93f 8306 1a3e
000000b0: 451b d83d 9f8d e43d 9ca8 e83d e81c 9f3d
000000c0: f46a c53f 7db8 1c3f d849 ac3d a2d0 483d
000000d0: 7f59 0b3b a436 523c 9040 d13c fe0d 083f
000000e0: cf59 5b3b bbea c43d 79ee c13d 9e11 383b
000000f0: 3f0e de3d ae0f 0e3e ee8c ba3e 6710 183d

module_list.1.fc.weight f4 [32, 64]
-0.020264205 0.018322399 -0.11048454 -0.07638244 -0.076996066 0.01842097 0.082440026 0.45551127
-0.061053205 -0.05782545 -0.023342697 0.043212254 -0.08055016 0.05938066 0.06775591 -0.043310795
-0.0839578 0.038567968 -0.0058109015 0.025984041 0.062336393 0.04537562 -0.06885283 0.033053
0.037785288 -0.025212463 0.05742374 -0.07471 -0.060936615 0.042220972 -0.016476199 -0.015488431
-0.055681832 0.0015891918 0.7934958 0.059402708 -0.027522458 -0.049439725 0.055289034 0.005034119
-0.046627283 -0.05049039 0.06960882 0.081214145 0.02947517 -0.036169242 0.035115957 0.028540973
-0.033412196 0.08677973 -0.040195353 0.07252306 0.074514374 -0.0074258847 -0.032012302 0.026712574
-0.0609338 -0.065363966 -0.018459259 -0.044190437 -0.07479365 -0.03418611 -0.002034054 0.021051897
-0.03543418 0.004952549 0.028774846 0.07386095 -0.040475626 -0.16282892 0.07126873 -0.022843605
0.07267476 -0.019048017 0.056682628 0.03378978 0.0049478416 0.077220686 -0.031954035 -0.078155205
-0.019061139 -0.061775833 0.06183972 0.061259322 -0.072936945 0.07149339 -0.069348216 -0.03281103
-0.011783014 0.044107556 0.06408255 -0.05116951 -0.021858638 -0.014517372 0.06396099 -0.079486646
0.047950216 0.046350133 -0.04414218 -0.03733743 0.0664524 -0.08334817 0.08068075 0.04721125
0.024944168 0.07224402 0.00018665264 0.004445782 -0.046202496 -0.012296914 0.0581254 0.010287206
0.13692404 0.047342222 0.07329853 0.002202317 -0.019469175 -0.05792208 -0.062303267 -1.2200149
-0.08204755 -0.04595321 -0.062463783 0.038751744 -0.07214414 0.053035103 0.06891418 0.022042567
-0.031278618 0.033057272 0.08181368 0.026693258 0.021138772 -0.013105527 0.0028293119 0.053689085
-0.04684659 0.04481364 0.019637434 -0.027310496 -0.0013347006 0.02541297 -0.03900541 -0.04718966
0.012135628 0.018639632 0.0036316228 -0.0030881928 0.056373607 0.083065756 -0.039791863 -0.008697401
-0.21717536 -0.04034825 -0.027115382 -0.057720363 -0.064995274 -0.06113885 0.016675739 0.0567731
-0.023676302 0.00058443425 -0.037745398 0.008243876 0.03926278 0.015587308 0.017205657 -0.02901214
-0.0028647073 -0.047300152 -0.006558664 -0.015222578 -0.047385268 0.046954695 0.024999578 -0.06446684
-0.724495 0.52037805 0.05473893 -0.07849802 -0.05395572 -0.07527763 0.048782457 0.012105645
0.04479892 -0.046346556 0.018953968 -0.05799426 0.07709212 -0.0057280655 -0.057829622 -0.03392082
-0.06671612 0.07670431 -0.032934282 -0.026583882 -0.04277199 -0.03001586 -0.067254685 -0.018512804
-0.029521126 -0.04146798 0.0520166 0.0017156973 0.033721168 -0.030692182 -0.017528499 -0.083564095
-0.06746672 -0.05874479 -0.03787662 0.21862493 -0.020944817 -0.08239669 0.020002553 -0.053772878
0.07186321 0.022653585 -0.035655078 -0.004687935 -0.061264 0.06743704 0.06371569 0.024456797
-0.030693404 0.009217885 0.0041710916 -0.030210987 -0.031701475 0.064683646 -0.020249892 0.047974084
-0.006155921 0.05922998 0.02356752 -0.055086516 -0.022381758 -0.62905544 0.10904401 -0.036998544
0.022610717 0.042970452 0.63614583 0.069399424 0.07155314 0.02390102 0.009621535 0.015308943
-0.07554594 -0.05383038 0.057214163 0.055941805 0.061970655 0.061242543 -0.007570787 -0.015315283
00000000: 1e01 a6bc db18 963c b845 e2bd 666e 9cbd
00000010: 1db0 9dbd 93e7 963c 51d6 a83d c638 e93e
00000020: ed12 7abd 61da 6cbd 2f39 bfbc 55ff 303d
00000030: 7bf7 a4bd 2339 733d 9cc3 8a3d a966 31bd
00000040: 11f2 abbd 72f9 1d3d 6069 bebb 7cdc d43c
00000050: 7254 7f3d c9db 393d b602 8dbd 9562 073d
00000060: bfc4 1a3d 5e8a cebc 2835 6b3d 8e01 99bd
00000070: ac98 79bd e6ef 2c3d 18f9 86bc 30c3 7dbc
00000080: a212 64bd 6e4c d03a 8a22 4b3f 4150 733d
00000090: c776 e1bc 4f81 4abd c176 623d 40f5 a43b
000000a0: 40fc 3ebd 03cf 4ebd 128f 8e3d 9a53 a63d
000000b0: e975 f13c 3326 14bd c0d5 0f3d c2ce e93c
000000c0: 3adb 08bd 92b9 b13d e2a3 24bd f886 943d
000000d0: fe9a 983d d654 f3bb 551f 03bd 54d4 da3c
000000e0: b895 79bd 8bdd 85bd df37 97bc 0801 35bd
000000f0: 6a2d 99bd bc06 0cbd c34d 05bb 0775 ac3c
00000100: 6e23 11bd fe48 a23b 3ab9 eb3c 6944 973d
00000110: c5c9 25bd a0bc 26be 57f5 913d 8322 bbbc
00000120: 81d6 943d 960a 9cbc 0b2c 683d 2767 0a3d
00000130: 8121 a23b e125 9e3d 3ce2 02bd d60f a0bd
00000140: 1b26 9cbc a808 7dbd a54b 7d3d 0eeb 7a3d
00000150: f75f 95bd 206b 923d 7006 8ebd dc64 06bd
00000160: 8b0d 41bc 20aa 343d b63d 833d 1f97 51bd
00000170: e310 b3bc 45da 6dbc fbfd 823d e5c9 a2bd
00000180: 7267 443d a3d9 3d3d 6ece 34bd 22ef 18bd
00000190: 3218 883d 72b2 aabd f33b a53d 9560 413d
000001a0: b657 cc3c acf4 933d 30b8 4339 ecad 913b
000001b0: d43e 3dbd ff78 49bc e614 6e3d ab8b 283c
000001c0: d135 0c3e ebe9 413d 8a1d 963d bf54 103b
000001d0: d27d 9fbc b43f 6dbd b631 7fbd 7329 9cbf
000001e0: 8c08 a8bd 6f39 3cbd 06da 7fbd 26ba 1e3d
000001f0: 4fc0 93bd 563b 593d e122 8d3d 9d92 b43c
00000200: 021e 00bd 1067 073d ee8d a73d d2ab da3c
00000210: 382b ad3c 90b8 56bc fa6b 393b 16e9 5b3d
00000220: 36e2 3fbd 828e 373d afde a03c 43ba dfbc
00000230: 1ff1 aeba dc2e d03c 23c4 1fbd f249 41bd
00000240: 83d4 463c 24b2 983c 8500 6e3b 4763 4abb
00000250: 03e8 663d 611e aa3d cbfc 22bd 8b7f 0ebc
00000260: 3863 5ebe 3544 25bd 1421 debc 306c 6cbd
00000270: 3e1c 85bd bb6c 7abd 8f9b 883c e98a 683d
00000280: cef4 c1bc b834 193a eb9a 1abd 5211 073c
00000290: 02d2 203d e961 7f3c e1f2 8c3c deaa edbc
000002a0: d0bd 3bbb cebd 41bd 10ea d6bb 1f68 79bc
000002b0: 0e17 42bd 9153 403d eacb cc3c 3107 84bd
000002c0: 8178 39bf 7f37 053f ee35 603d 92c3 a0bd
000002d0: ac00 5dbd 282b 9abd 1dd0 473d c156 463c
000002e0: 137f 373d e3d5 3dbd 5a45 9b3c 648b 6dbd
000002f0: 79e2 9d3d 7fb2 bbbb c1de 6cbd 8ff0 0abd
00000300: 76a2 88bd 2617 9d3d 19e6 06bd 71c6 d9bc
00000310: af31 2fbd d2e3 f5bc d3bc 89bd 2aa8 97bc
00000320: 4ad6 f1bc 54da 29bd 5c0f 553d 40e1 e03a
00000330: 351f 0a3d 2c6e fbbc ed97 8fbc a723 abbd
00000340: fe2b 8abd 609e 70bd 8424 1bbd 37df 5f3e
00000350: 7794 abbc 99bf a8bd 65dc a33c f340 5cbd
00000360: 052d 933d 0394 b93c 0f0b 12bd 409d 99bb
00000370: f6ef 7abd 6e1c 8a3d 5f7d 823d 9f59 c83c
00000380: bc70 fbbc 9d06 173c a7ad 883b 087d f7bc
00000390: 68d9 01bd dc78 843d 1ae3 a5bc 7980 443d
000003a0: 9cb7 c9bb 239b 723d ac10 c13c 66a2 61bd
000003b0: f359 b7bc c709 21bf 7752 df3d c98b 17bd
000003c0: 1c3a b93c c901 303d 74da 223f 4921 8e3d
000003d0: 748a 923d 12cc c33c a5a3 1d3c 5cd2 7a3c
000003e0: d4b7 9abd 3f7d 5cbd 6659 6a3d 3c23 653d
000003f0: f1d4 7d3d 76d9 7a3d 5d14 f8bb f4ec 7abc

module_list.1.fc.bias f4 [32]
-0.07481135 -0.2969326 -0.19549239 -0.09827283 -0.17893347 -0.057889722 0.29120544 0.09826578
-0.032401405 0.27396986 0.3731789 0.0040136753 -0.01835156 -0.1865857 -0.2730267 0.0033035812
0.054513175 -0.08152938 -0.20490785 -0.041498616 0.104015276 -0.19212751 0.11678402 -0.011888656
-0.23064703 0.15149464 0.13901891 0.26438114 0.18647602 -0.006301967 -0.11953037 -0.13223001
00000000: b136 99bd 8d07 98be 282f 48be 4443 c9bd
00000010: 563a 37be c61d 6dbd e118 953e 923f c93d
00000020: 56b7 04bd c745 8c3e 4e11 bf3e 2685 833b
00000030: 0356 96bc 5210 3fbe 28ca 8bbe e580 583b
00000040: 3549 5f3d e0f8 a6bd 5dd3 51be 74fa 29bd
00000050: f605 d53d 13bd 44be 762c ef3d a3c8 42bc
00000060: bc2e 6cbe 6921 1b3e f95a 0e3e f75c 873e
00000070: 92f3 3e3e bb80 cebb 57cc f4bd 4e67 07be

module_list.1.fc.mask.mask f4 [32, 64]
0.0 0.0 1.0 0.0 0.0 0.0 0.0 1.0
0.0 0.0 0.0 0.0 0.0 0.0 0.0 0.0
0.0 0.0 0.0 0.0 0.0 0.0 0.0 0.0
0.0 0.0 0.0 0.0 0.0 0.0 0.0 0.0
0.0 0.0 1.0 0.0 0.0 0.0 0.0 0.0
0.0 0.0 0.0 0.0 0.0 0.0 0.0 0.0
0.0 1.0 0.0 0.0 0.0 0.0 0.0 0.0
0.0 0.0 0.0 0.0 0.0 0.0 0.0 0.0
0.0 0.0 1.0 0.0 0.0 1.0 0.0 0.0
0.0 0.0 0.0 0.0 0.0 0.0 0.0 0.0
0.0 0.0 0.0 0.0 0.0 0.0 0.0 0.0
0.0 0.0 0.0 0.0 0.0 0.0 0.0 0.0
0.0 0.0 0.0 0.0 0.0 0.0 0.0 0.0
0.0 0.0 0.0 0.0 0.0 0.0 0.0 0.0
1.0 0.0 0.0 0.0 0.0 0.0 0.0 1.0
0.0 0.0 0.0 0.0 0.0 0.0 0.0 0.0
0.0 0.0 0.0 0.0 0.0 0.0 0.0 0.0
0.0 0.0 1.0 0.0 0.0 0.0 0.0 0.0
0.0 0.0 0.0 0.0 0.0 0.0 0.0 0.0
1.0 0.0 0.0 0.0 0.0 0.0 0.0 0.0
0.0 0.0 0.0 0.0 0.0 0.0 0.0 0.0
0.0 0.0 0.0 0.0 0.0 0.0 0.0 0.0
1.0 1.0 0.0 0.0 0.0 0.0 0.0 0.0
0.0 0.0 0.0 0.0 0.0 0.0 0.0 0.0
0.0 0.0 0.0 0.0 0.0 0.0 0.0 0.0
0.0 0.0 0.0 0.0 0.0 0.0 0.0 0.0
0.0 0.0 0.0 1.0 0.0 0.0 0.0 0.0
0.0 0.0 0.0 0.0 0.0 0.0 0.0 0.0
0.0 0.0 0.0 0.0 0.0 0.0 0.0 0.0
0.0 0.0 0.0 0.0 0.0 1.0 1.0 0.0
0.0 0.0 1.0 0.0 0.0 0.0 0.0 0.0
0.0 0.0 0.0 0.0 0.0 0.0 0.0 0.0
00000000: 0000 0000 0000 0000 0000 803f 0000 0000
00000010: 0000 0000 0000 0000 0000 0000 0000 803f
00000020: 0000 0000 0000 0000 0000 0000 0000 0000
00000030: 0000 0000 0000 0000 0000 0000 0000 0000
00000040: 0000 0000 0000 0000 0000 0000 0000 0000
00000050: 0000 0000 0000 0000 0000 0000 0000 0000
00000060: 0000 0000 0000 0000 0000 0000 0000 0000
00000070: 0000 0000 0000 0000 0000 0000 0000 0000
00000080: 0000 0000 0000 0000 0000 803f 0000 0000
00000090: 0000 0000 0000 0000 0000 0000 0000 0000
000000a0: 0000 0000 0000 0000 0000 0000 0000 0000
000000b0: 0000 0000 0000 0000 0000 0000 0000 0000
000000c0: 0000 0000 0000 803f 0000 0000 0000 0000
000000d0: 0000 0000 0000 0000 0000 0000 0000 0000
000000e0: 0000 0000 0000 0000 0000 0000 0000 0000
000000f0: 0000 0000 0000 0000 0000 0000 0000 0000
00000100: 0000 0000 0000 0000 0000 803f 0000 0000
00000110: 0000 0000 0000 803f 0000 0000 0000 0000
00000120: 0000 0000 0000 0000 0000 0000 0000 0000
00000130: 0000 0000 0000 0000 0000 0000 0000 0000
00000140: 0000 0000 0000 0000 0000 0000 0000 0000
00000150: 0000 0000 0000 0000 0000 0000 0000 0000
00000160: 0000 0000 0000 0000 0000 0000 0000 0000
00000170: 0000 0000 0000 0000 0000 0000 0000 0000
00000180: 0000 0000 0000 0000 0000 0000 0000 0000
00000190: 0000 0000 0000 0000 0000 0000 0000 0000
000001a0: 0000 0000 0000 0000 0000 0000 0000 0000
000001b0: 0000 0000 0000 0000 0000 0000 0000 0000
000001c0: 0000 803f 0000 0000 0000 0000 0000 0000
000001d0: 0000 0000 0000 0000 0000 0000 0000 803f
000001e0: 0000 0000 0000 0000 0000 0000 0000 0000
000001f0: 0000 0000 0000 0000 0000 0000 0000 0000
00000200: 0000 0000 0000 0000 0000 0000 0000 0000
00000210: 0000 0000 0000 0000 0000 0000 0000 0000
00000220: 0000 0000 0000 0000 0000 803f 0000 0000
00000230: 0000 0000 0000 0000 0000 0000 0000 0000
00000240: 0000 0000 0000 0000 0000 0000 0000 0000
00000250: 0000 0000 0000 0000 0000 0000 0000 0000
00000260: 0000 803f 0000 0000 0000 0000 0000 0000
00000270: 0000 0000 0000 0000 0000 0000 0000 0000
00000280: 0000 0000 0000 0000 0000 0000 0000 0000
00000290: 0000 0000 0000 0000 0000 0000 0000 0000
000002a0: 0000 0000 0000 0000 0000 0000 0000 0000
000002b0: 0000 0000 0000 0000 0000 0000 0000 0000
000002c0: 0000 803f 0000 803f 0000 0000 0000 0000
000002d0: 0000 0000 0000 0000 0000 0000 0000 0000
000002e0: 0000 0000 0000 0000 0000 0000 0000 0000
000002f0: 0000 0000 0000 0000 0000 0000 0000 0000
00000300: 0000 0000 0000 0000 0000 0000 0000 0000
00000310: 0000 0000 0000 0000 0000 0000 0000 0000
00000320: 0000 0000 0000 0000 0000 0000 0000 0000
00000330: 0000 0000 0000 0000 0000 0000 0000 0000
00000340: 0000 0000 0000 0000 0000 0000 0000 803f
00000350: 0000 0000 0000 0000 0000 0000 0000 0000
00000360: 0000 0000 0000 0000 0000 0000 0000 0000
00000370: 0000 0000 0000 0000 0000 0000 0000 0000
00000380: 0000 0000 0000 0000 0000 0000 0000 0000
00000390: 0000 0000 0000 0000 0000 0000 0000 0000
000003a0: 0000 0000 0000 0000 0000 0000 0000 0000
000003b0: 0000 0000 0000 803f 0000 803f 0000 0000
000003c0: 0000 0000 0000 0000 0000 803f 0000 0000
000003d0: 0000 0000 0000 0000 0000 0000 0000 0000
000003e0: 0000 0000 0000 0000 0000 0000 0000 0000
000003f0: 0000 0000 0000 0000 0000 0000 0000 0000

module_list.1.output_quant.pre_transforms.0.weight f4 [32]
0.34256285 2.3282528 1.7414325 0.30585575 0.8463759 0.44767553 0.35949185 0.37663865
0.25483182 0.41982937 0.19365051 0.26580635 0.5604481 0.29530153 0.22823502 0.5844192
0.22995257 0.95595556 0.15356356 0.49830273 0.40884325 0.44654083 0.44251424 0.26762837
0.45940188 0.4342893 0.56008226 0.6364073 0.30324176 0.20822072 0.4694653 0.30108595
00000000: 6664 af3e 1802 1540 43e7 de3f 2099 9c3e
00000010: 17ac 583f ba35 e53e 510f b83e c8d6 c03e
00000020: 5179 823e e0f3 d63e 524c 463e c517 883e
00000030: 8779 0f3f c331 973e 71b6 693e 7f9c 153f
00000040: b078 6b3e 81b9 743f c43f 1d3e 8921 ff3e
00000050: e753 d13e 00a1 e43e 3a91 e23e 9606 893e
00000060: b936 eb3e 2b5b de3e 8d61 0f3f 97eb 223f
00000070: 8142 9b3e d037 553e c15d f03e f027 9a3e

module_list.1.output_quant.pre_transforms.0.bias f4 [32]
-0.025921078 -1.7487031 0.11089044 0.61861134 -0.22437029 0.21850748 0.049410496 0.34940687
0.11656093 0.30250514 0.17546766 0.19787782 -0.0762905 0.18893209 0.29411402 -0.07761634
0.37145504 -0.64799035 0.09046724 -0.10799135 0.10655679 0.30446327 0.47277877 0.42224282
0.10353588 0.4276442 -0.0033835657 -0.094720505 0.6464258 0.38573068 0.36263815 0.4072933
00000000: 7158 d4bc 81d5 dfbf 871a e33d 505d 1e3f
00000010: 53c1 65be 6dc0 5f3e a962 4a3d 75e5 b23e
00000020: 7fb7 ee3d f4e1 9a3e cbad 333e 7ca0 4a3e
00000030: 323e 9cbd 6a77 413e 1d96 963e 51f5 9ebd
00000040: 5b2f be3e b2e2 25bf e346 b93d 922a ddbd
00000050: 723a da3d 9ce2 9b3e 0f10 f23e 3630 d83e
00000060: 9f0a d43d 2ef4 da3e d0be 5dbb d3fc c1bd
00000070: 297c 253f 7e7e c53e b5ab b93e bf88 d03e

module_list.1.output_quant.pre_transforms.0.running_mean f4 [32]
0.23126382 -0.7722306 -0.36492735 -0.07812589 -0.5297519 -0.46074826 0.3668131 -0.18827446
-0.05342236 0.55984354 0.64923877 0.13837557 -0.12734087 -0.055339742 -0.6183082 0.34816644
-0.13997304 -0.4036936 -0.007429255 -0.27024582 -0.1881116 -0.13734534 -0.20294617 0.22137615
-0.018217238 0.5249913 -0.47682127 0.27553517 0.12926517 0.4324292 -0.05582418 0.021565048
00000000: 6cd0 6c3e e8b0 45bf c2d7 babe 7700 a0bd
00000010: d29d 07bf 32e7 ebbe edce bb3e 05cb 40be
00000020: 68d1 5abd e851 0f3f 8334 263f 53b2 0d3e
00000030: a565 02be edab 62bd 7249 1ebf df42 b23e
00000040: 1855 0fbe edb0 cebe 1c71 f3bb a95d 8abe
00000050: 54a0 40be 42a4 0cbe 1fd1 4fbe 6eb0 623e
00000060: 513c 95bc d465 063f eb21 f4be f212 8d3e
00000070: 175e 043e 5c67 dd3e e5a7 64bd 2fa9 b03c

module_list.1.output_quant.pre_transforms.0.running_var f4 [32]
0.03073578 0.2713862 0.01781407 0.012264483 0.23950048 0.2217509 0.120504774 0.019589705
0.09303031 0.14281599 0.06839387 0.060771935 0.069851026 0.029210253 0.035009578 0.022889718
0.05183966 0.10666231 0.017313285 0.021430412 0.059518386 0.056784008 0.06898494 0.058338195
0.07366554 0.06068681 0.07649478 0.17066528 0.033509523 0.040629547 0.14097005 0.09731734
00000000: 9ac9 fb3c 22f3 8a3e d0ee 913c f8f0 483c
00000010: 9d3f 753e ab12 633e 35cb f63d 977a a03c
00000020: ad86 be3d 5b3e 123e 1612 8c3d feeb 783d
00000030: 0e0e 8f3d 574a ef3c 3466 0f3d 3883 bb3c
00000040: d355 543d c571 da3d 97d4 8d3c d58e af3c
00000050: 8dc9 733d 5996 683d fa47 8d3d 08f4 6e3d
00000060: f5dd 963d bc92 783d 4ca9 9c3d e1c2 2e3e
00000070: 4841 093d 2b6b 263d 745a 103e 504e c73d

module_list.2.input_quant.pre_transforms.0.weight f4 [32]
0.34256285 2.3282528 1.7414325 0.30585575 0.8463759 0.44767553 0.35949185 0.37663865
0.25483182 0.41982937 0.19365051 0.26580635 0.5604481 0.29530153 0.22823502 0.5844192
0.22995257 0.95595556 0.15356356 0.49830273 0.40884325 0.44654083 0.44251424 0.26762837
0.45940188 0.4342893 0.56008226 0.6364073 0.30324176 0.20822072 0.4694653 0.30108595
00000000: 6664 af3e 1802 1540 43e7 de3f 2099 9c3e
00000010: 17ac 583f ba35 e53e 510f b83e c8d6 c03e
00000020: 5179 823e e0f3 d63e 524c 463e c517 883e
00000030: 8779 0f3f c331 973e 71b6 693e 7f9c 153f
00000040: b078 6b3e 81b9 743f c43f 1d3e 8921 ff3e
00000050: e753 d13e 00a1 e43e 3a91 e23e 9606 893e
00000060: b936 eb3e 2b5b de3e 8d61 0f3f 97eb 223f
00000070: 8142 9b3e d037 553e c15d f03e f027 9a3e

module_list.2.input_quant.pre_transforms.0.bias f4 [32]
-0.025921078 -1.7487031 0.11089044 0.61861134 -0.22437029 0.21850748 0.049410496 0.34940687
0.11656093 0.30250514 0.17546766 0.19787782 -0.0762905 0.18893209 0.29411402 -0.07761634
0.37145504 -0.64799035 0.09046724 -0.10799135 0.10655679 0.30446327 0.47277877 0.42224282
0.10353588 0.4276442 -0.0033835657 -0.094720505 0.6464258 0.38573068 0.36263815 0.4072933
00000000: 7158 d4bc 81d5 dfbf 871a e33d 505d 1e3f
00000010: 53c1 65be 6dc0 5f3e a962 4a3d 75e5 b23e
00000020: 7fb7 ee3d f4e1 9a3e cbad 333e 7ca0 4a3e
00000030: 323e 9cbd 6a77 413e 1d96 963e 51f5 9ebd
00000040: 5b2f be3e b2e2 25bf e346 b93d 922a ddbd
00000050: 723a da3d 9ce2 9b3e 0f10 f23e 3630 d83e
00000060: 9f0a d43d 2ef4 da3e d0be 5dbb d3fc c1bd
00000070: 297c 253f 7e7e c53e b5ab b93e bf88 d03e

module_list.2.input_quant.pre_transforms.0.running_mean f4 [32]
0.23126382 -0.7722306 -0.36492735 -0.07812589 -0.5297519 -0.46074826 0.3668131 -0.18827446
-0.05342236 0.55984354 0.64923877 0.13837557 -0.12734087 -0.055339742 -0.6183082 0.34816644
-0.13997304 -0.4036936 -0.007429255 -0.27024582 -0.1881116 -0.13734534 -0.20294617 0.22137615
-0.018217238 0.5249913 -0.47682127 0.27553517 0.12926517 0.4324292 -0.05582418 0.021565048
00000000: 6cd0 6c3e e8b0 45bf c2d7 babe 7700 a0bd
00000010: d29d 07bf 32e7 ebbe edce bb3e 05cb 40be
00000020: 68d1 5abd e851 0f3f 8334 263f 53b2 0d3e
00000030: a565 02be edab 62bd 7249 1ebf df42 b23e
00000040: 1855 0fbe edb0 cebe 1c71 f3bb a95d 8abe
00000050: 54a0 40be 42a4 0cbe 1fd1 4fbe 6eb0 623e
00000060: 513c 95bc d465 063f eb21 f4be f212 8d3e
00000070: 175e 043e 5c67 dd3e e5a7 64bd 2fa9 b03c

module_list.2.input_quant.pre_transforms.0.running_var f4 [32]
0.03073578 0.2713862 0.01781407 0.012264483 0.23950048 0.2217509 0.120504774 0.019589705
0.09303031 0.14281599 0.06839387 0.060771935 0.069851026 0.029210253 0.035009578 0.022889718
0.05183966 0.10666231 0.017313285 0.021430412 0.059518386 0.056784008 0.06898494 0.058338195
0.07366554 0.06068681 0.07649478 0.17066528 0.033509523 0.040629547 0.14097005 0.09731734
00000000: 9ac9 fb3c 22f3 8a3e d0ee 913c f8f0 483c
00000010: 9d3f 753e ab12 633e 35cb f63d 977a a03c
00000020: ad86 be3d 5b3e 123e 1612 8c3d feeb 783d
00000030: 0e0e 8f3d 574a ef3c 3466 0f3d 3883 bb3c
00000040: d355 543d c571 da3d 97d4 8d3c d58e af3c
00000050: 8dc9 733d 5996 683d fa47 8d3d 08f4 6e3d
00000060: f5dd 963d bc92 783d 4ca9 9c3d e1c2 2e3e
00000070: 4841 093d 2b6b 263d 745a 103e 504e c73d

module_list.2.fc.weight f4 [32, 32]
0.5453114 -0.0364664 0.050807778 0.05736371 0.0038307053 0.46973118 -0.086422205 0.03328519
0.007154109 -0.038234085 -0.039722055 0.021111224 -0.01421704 -0.007122869 0.102647245 -0.115295805
-0.05068352 -0.06322752 0.01744296 0.02985207 0.031241214 0.43084234 0.026187846 0.032842528
-0.07337663 0.091772094 -0.010982487 -0.109772645 -0.02933804 -0.108883835 -0.24810824 -0.05819958
0.015123715 -5.291008e-07 -0.024426347 -0.23261255 0.07895855 0.0981484 -0.0041327397 -0.10704327
-0.030899545 -0.10614757 -0.074264675 -0.11773371 -0.09103552 0.0650067 0.07014174 0.0331684
0.016190933 0.059948873 0.011094941 -0.0008332365 0.06791934 0.068853356 -0.115837716 0.037849464
0.06756954 -0.48910528 0.02643692 -0.038533177 0.08350372 -0.4293221 -0.057978895 -0.55013895
-0.041696295 0.021271134 -0.0010023413 0.07395849 -0.11834825 0.043119803 -0.08314374 0.06430351
0.10195146 0.013578591 -0.11438945 -0.05322652 0.082038626 -0.031819735 0.051518206 0.007269389
0.004858507 0.060783584 0.09689146 0.06379855 -0.0953548 0.0029129477 -0.00641216 0.008995799
0.033829603 0.087222114 -0.11428239 -0.054572705 0.058904525 0.071220726 -0.09245482 -0.11509005
0.064943425 0.117109895 0.10353773 0.11967055 0.056086466 0.08912144 0.39771777 0.06717053
-0.012247619 0.043304626 0.05904271 -0.08330455 0.01541973 -0.0060130525 -0.09025926 -0.112178296
-0.114560425 -1.0116892 -0.093915656 -0.06821012 -0.03336909 0.0040958496 0.094673865 0.0031746258
0.05178034 0.20340745 0.010261179 -0.00014708441 0.10753534 0.116112426 0.11083507 0.0514167
-0.040945105 0.08798877 0.10310072 -0.018044533 -0.08223278 0.038329218 -0.031078087 0.05806553
-0.6163366 0.03459673 -0.046544936 0.8009365 -0.112367064 -0.07416397 -0.1087518 0.021793926
-0.038033888 0.09779279 0.030596886 0.05749505 0.03223481 0.11318497 -0.07254291 0.040347096
0.08321362 -0.11818589 -0.08499719 0.044193238 0.109717846 -0.036002267 0.05721291 0.09445711
0.5675599 -0.03159549 0.05254755 0.001029715 -0.014009178 0.10831481 0.06769842 0.06633237
-0.11413937 -0.08878315 0.09749715 0.02852654 0.014931461 0.052596375 0.0138088185 -0.41215423
-0.029424109 -0.06975796 0.109227106 0.10708373 -0.081878744 0.07641652 -0.08151062 -0.30478582
0.032713167 -0.005950653 0.111965805 -0.09586327 -0.023634722 -0.102550365 0.3892148 0.0042830445
0.07226114 0.01598793 0.036853068 -0.057544537 0.05390361 0.0819702 -0.09555145 2.0567067
-0.02069157 0.1045897 -0.05145445 -0.095537975 0.052263815 -0.028386934 0.19125281 -0.07005096
-0.08949111 -0.11365115 -0.053065807 0.012580725 -0.10335386 0.11852275 -0.08604255 0.003132941
-0.018498722 0.023968272 -0.061773866 0.037481084 -0.007027284 -0.09284553 0.075239316 0.07474759
0.11621586 -0.40932855 -0.71291363 0.070157036 0.037780996 -0.04248039 0.026499422 0.07744449
0.06653601 0.1133194 -0.077866666 0.058570627 -0.08008754 -0.08182902 0.031325478 -0.11955693
-0.10273206 -0.011565657 -0.08517639 -0.05271184 0.04373089 -0.078733094 -0.034463927 0.07272218
0.014281898 -0.11957849 -0.01759806 -0.023052126 -0.054297574 0.16667336 0.06454355 0.11554572
00000000: 8799 0b3f cb5d 15bd d11b 503d 36f6 6a3d
00000010: 920c 7b3b 9b80 f03e 20fe b0bd 0d56 083d
00000020: 046d ea3b 589b 1cbd 98b3 22bd 72f1 ac3c
00000030: 96ee 68bc f566 e9bb b838 d23d 3520 ecbd
00000040: 8699 4fbd 6e7d 81bd 8ae4 8e3c 548c f43c
00000050: 93ed ff3c 5e97 dc3e e587 d63c e385 063d
00000060: 7d46 96bd 02f3 bb3d e4ef 33bc 7bd0 e0bd
00000070: 5456 f0bc 7dfe debd 1610 7ebe af62 6ebd
00000080: 75c9 773c 8807 0eb5 c319 c8bc fc31 6ebe
00000090: 05b5 a13d 0702 c93d ef6b 87bb 8039 dbbd
000000a0: 0b21 fdbc e663 d9bd 1418 98bd 5f1e f1bd
000000b0: d570 babd 3c22 853d 79a6 8f3d 97db 073d
000000c0: d9a2 843c f38c 753d 8ec7 353c 8e6d 5aba
000000d0: 4c19 8b3d fd02 8d3d 533c edbd 0a08 1b3d
000000e0: e661 8a3d 026c fabe 3d92 d83c f7d4 1dbd
000000f0: 0004 ab3d 1bd0 dbbe 477b 6dbd e8d5 0cbf
00000100: bcc9 2abd cd40 ae3c fe60 83ba 8c77 973d
00000110: 9160 f2bd 649e 303d 4447 aabd 8fb1 833d
00000120: edcb d03d bd78 5e3c 0445 eabd 0d04 5abd
00000130: de03 a83d 6955 02bd c104 533d 0e34 ee3b
00000140: 1c34 9f3b 35f8 783d 086f c63d d0a8 823d
00000150: 6149 c3bd 27e7 3e3b 191d d2bb 1e63 133c
00000160: e990 0a3d 82a1 b23d e30c eabd a187 5fbd
00000170: df45 713d 2cdc 913d f458 bdbd 55b4 ebbd
00000180: 0f01 853d 50d7 ef3d 970b d43d d515 f53d
00000190: ecba 653d 4d85 b63d aaa1 cb3e b490 893d
000001a0: 3daa 48bc 3160 313d c5d6 713d 939b aabd
000001b0: 09a3 7c3c 2409 c5bb d9d9 b8bd bcbd e5bd
000001c0: a89e eabd 087f 81bf da56 c0bd bfb1 8bbd
000001d0: 07ae 08bd 7a36 863b 5fe4 c13d 620d 503b
000001e0: 9f17 543d 0b4a 503e 811e 283c ac3a 1ab9
000001f0: 7d3b dc3d 5acc ed3d 7ffd e23d 519a 523d
00000200: 0eb6 27bd 7533 b43d 7826 d33d 21d2 93bc
00000210: a969 a8bd 19ff 1c3d 7997 febc 1fd6 6d3d
00000220: 3cc8 1dbf 4db5 0d3d e7a5 3ebd 2d0a 4d3f
00000230: b420 e6bd 48e3 97bd 44b9 debd 2d89 b23c
00000240: 6cc9 1bbd 9647 c83d 52a6 fa3c ee7f 6b3d
00000250: a608 043d 86cd e73d 6191 94bd ff42 253d
00000260: e76b aa3d 720b f2bd 0213 aebd f803 353d
00000270: c0b3 e03d 1d77 13bd 1658 6a3d bb72 c13d
00000280: 9b4b 113f 466a 01bd 1a3c 573d 80f7 863a
00000290: c086 65bc 28d4 dd3d 78a5 8a3d 44d9 873d
000002a0: e7c1 e9bd f1d3 b5bd 96ac c73d 7eb0 e93c
000002b0: 16a3 743c 4c6f 573d 623e 623c e105 d3be
000002c0: d40a f1bc 43dd 8ebd 76b2 df3d b74e db3d
000002d0: 0bb0 a7bd 4480 9c3d 0aef a6bd e30c 9cbe
000002e0: 3efe 053d b2fd c2bb 544e e53d f653 c4bd
000002f0: 9b9d c1bc ed05 d2bd 2a47 c73e c858 8c3b
00000300: a6fd 933d 1ff9 823c 3ef3 163d d2b3 6bbd
00000310: 08ca 5c3d fedf a73d 7bb0 c3bd 15a1 0340
00000320: 5e81 a9bc 2033 d63d e7c1 52bd 6aa9 c3bd
00000330: 9512 563d b78b e8bc c7d7 433e e176 8fbd
00000340: 1d47 b7bd efc1 e8bd 885b 59bd 631f 4e3c
00000350: 30ab d3bd 0ebc f23d 1437 b0bd 0752 4d3b
00000360: a28a 97bc 1c59 c43c 9806 7dbd c485 193d
00000370: 2145 e6bb cc25 bebd 1217 9a3d 4415 993d
00000380: 9502 ee3d 8393 d1be 8281 36bf 7eae 8f3d
00000390: 3fc0 1a3d ebff 2dbd 5115 d93c 379b 9e3d
000003a0: 0844 883d 0014 e83d 8f78 9fbd c1e7 6f3d
000003b0: f004 a4bd f995 a7bd 254f 003d 44da f4bd
000003c0: 3065 d2bd e27d 3dbc f670 aebd 5fe8 57bd
000003d0: 291f 333d d13e a1bd 0c2a 0dbd 5eef 943d
000003e0: 9ffe 693c 91e5 f4bd cf29 90bc d0d7 bcbc
000003f0: 2267 5ebd 6cac 2a3e 692f 843d 3ca3 ec3d

module_list.2.fc.bias f4 [32]
-0.19962887 -0.06999777 -0.030460708 0.362475 -0.13396075 0.30551466 0.32506263 0.25094333
0.27161592 -0.3656147 0.14029948 0.21446237 -0.054241065 -0.13268223 -0.07478957 -0.07274922
-0.3106187 -0.0052089486 0.038342588 0.07288607 -0.039793987 0.046682607 -0.21467327 -0.018876549
-0.06205533 0.26567394 0.19882688 0.012343514 0.104095876 -0.42543864 0.13681212 0.30313614
00000000: 836b 4cbe fe5a 8fbd bc88 f9bc 5396 b93e
00000010: 022d 09be 6b6c 9c3e 9c6e a63e a57b 803e
00000020: 3e11 8b3e da31 bbbe abaa 0f3e 069c 5b3e
00000030: e12b 5ebd dadd 07be 462b 99bd 8bfd 94bd
00000040: 6a09 9fbe d4af aabb 1e0d 1d3d 4b45 953d
00000050: 05ff 22bd 4336 3f3d 4fd3 5bbe fea2 9abc
00000060: bb2d 7ebd 6a06 883e 4699 4b3e 733c 4a3c
00000070: 3830 d53d 18d3 d9be 7a18 0c3e a934 9b3e
